…
I0402 02:52:19.330986 31778 net.cpp:322] The NetState phase (0) differed from the phase (1) specified by a rule in layer accuracy_5
I0402 02:52:19.331076 31778 net.cpp:58] Initializing net from parameters: 
state {
  phase: TRAIN
  level: 0
  stage: ""
}
layer {
  name: "data"
  type: "Data"
  top: "data"
  top: "label"
  include {
    phase: TRAIN
  }
  transform_param {
    mirror: false
    crop_size: 48
    mean_value: 130
    mean_value: 123
    mean_value: 137
  }
  data_param {
    source: "../local_data/lmdb/rtsd-r1/histeq/train/lmdb"
    batch_size: 1024
    backend: LMDB
  }
}
layer {
  name: "conv1"
  type: "Convolution"
  bottom: "data"
  top: "conv1"
  convolution_param {
    num_output: 100
    pad: 0
    kernel_size: 7
    group: 1
    stride: 1
    weight_filler {
      type: "xavier"
    }
  }
}
layer {
  name: "conv1_relu"
  type: "ReLU"
  bottom: "conv1"
  top: "conv1"
}
layer {
  name: "pool1"
  type: "Pooling"
  bottom: "conv1"
  top: "pool1"
  pooling_param {
    pool: MAX
    kernel_size: 2
    stride: 2
  }
}
layer {
  name: "conv2"
  type: "Convolution"
  bottom: "pool1"
  top: "conv2"
  convolution_param {
    num_output: 150
    pad: 0
    kernel_size: 4
    group: 1
    stride: 1
    weight_filler {
      type: "xavier"
    }
  }
}
layer {
  name: "conv2_relu"
  type: "ReLU"
  bottom: "conv2"
  top: "conv2"
}
layer {
  name: "pool2"
  type: "Pooling"
  bottom: "conv2"
  top: "pool2"
  pooling_param {
    pool: MAX
    kernel_size: 2
    stride: 2
  }
}
layer {
  name: "conv3"
  type: "Convolution"
  bottom: "pool2"
  top: "conv3"
  convolution_param {
    num_output: 250
    pad: 0
    kernel_size: 4
    group: 1
    stride: 1
    weight_filler {
      type: "xavier"
    }
  }
}
layer {
  name: "conv3_relu"
  type: "ReLU"
  bottom: "conv3"
  top: "conv3"
}
layer {
  name: "pool3"
  type: "Pooling"
  bottom: "conv3"
  top: "pool3"
  pooling_param {
    pool: MAX
    kernel_size: 2
    stride: 2
  }
}
layer {
  name: "fc4_300"
  type: "InnerProduct"
  bottom: "pool3"
  top: "fc4_300"
  inner_product_param {
    num_output: 300
    weight_filler {
      type: "xavier"
    }
  }
}
layer {
  name: "fc4_relu"
  type: "ReLU"
  bottom: "fc4_300"
  top: "fc4_300"
}
layer {
  name: "drop4"
  type: "Dropout"
  bottom: "fc4_300"
  top: "fc4_300"
  dropout_param {
    dropout_ratio: 0.4
  }
}
layer {
  name: "fc5_67"
  type: "InnerProduct"
  bottom: "fc4_300"
  top: "fc5_classes"
  inner_product_param {
    num_output: 67
    weight_filler {
      type: "xavier"
    }
  }
}
layer {
  name: "loss"
  type: "SoftmaxWithLoss"
  bottom: "fc5_classes"
  bottom: "label"
  top: "loss"
}
I0402 02:52:19.331145 31778 layer_factory.hpp:77] Creating layer data
I0402 02:52:19.332231 31778 net.cpp:100] Creating Layer data
I0402 02:52:19.332255 31778 net.cpp:408] data -> data
I0402 02:52:19.332281 31778 net.cpp:408] data -> label
I0402 02:52:19.333971 31829 db_lmdb.cpp:35] Opened lmdb ../local_data/lmdb/rtsd-r1/histeq/train/lmdb
I0402 02:52:19.350350 31778 data_layer.cpp:41] output data size: 1024,3,48,48
I0402 02:52:19.394351 31778 net.cpp:150] Setting up data
I0402 02:52:19.394382 31778 net.cpp:157] Top shape: 1024 3 48 48 (7077888)
I0402 02:52:19.394387 31778 net.cpp:157] Top shape: 1024 (1024)
I0402 02:52:19.394390 31778 net.cpp:165] Memory required for data: 28315648
I0402 02:52:19.394418 31778 layer_factory.hpp:77] Creating layer conv1
I0402 02:52:19.394440 31778 net.cpp:100] Creating Layer conv1
I0402 02:52:19.394446 31778 net.cpp:434] conv1 <- data
I0402 02:52:19.394460 31778 net.cpp:408] conv1 -> conv1
I0402 02:52:19.666357 31778 net.cpp:150] Setting up conv1
I0402 02:52:19.666398 31778 net.cpp:157] Top shape: 1024 100 42 42 (180633600)
I0402 02:52:19.666401 31778 net.cpp:165] Memory required for data: 750850048
I0402 02:52:19.666422 31778 layer_factory.hpp:77] Creating layer conv1_relu
I0402 02:52:19.666446 31778 net.cpp:100] Creating Layer conv1_relu
I0402 02:52:19.666450 31778 net.cpp:434] conv1_relu <- conv1
I0402 02:52:19.666456 31778 net.cpp:395] conv1_relu -> conv1 (in-place)
I0402 02:52:19.666672 31778 net.cpp:150] Setting up conv1_relu
I0402 02:52:19.666685 31778 net.cpp:157] Top shape: 1024 100 42 42 (180633600)
I0402 02:52:19.666689 31778 net.cpp:165] Memory required for data: 1473384448
I0402 02:52:19.666693 31778 layer_factory.hpp:77] Creating layer pool1
I0402 02:52:19.666700 31778 net.cpp:100] Creating Layer pool1
I0402 02:52:19.666703 31778 net.cpp:434] pool1 <- conv1
I0402 02:52:19.666709 31778 net.cpp:408] pool1 -> pool1
I0402 02:52:19.666774 31778 net.cpp:150] Setting up pool1
I0402 02:52:19.666782 31778 net.cpp:157] Top shape: 1024 100 21 21 (45158400)
I0402 02:52:19.666786 31778 net.cpp:165] Memory required for data: 1654018048
I0402 02:52:19.666790 31778 layer_factory.hpp:77] Creating layer conv2
I0402 02:52:19.666810 31778 net.cpp:100] Creating Layer conv2
I0402 02:52:19.666813 31778 net.cpp:434] conv2 <- pool1
I0402 02:52:19.666820 31778 net.cpp:408] conv2 -> conv2
I0402 02:52:19.670934 31778 net.cpp:150] Setting up conv2
I0402 02:52:19.670964 31778 net.cpp:157] Top shape: 1024 150 18 18 (49766400)
I0402 02:52:19.670967 31778 net.cpp:165] Memory required for data: 1853083648
I0402 02:52:19.670977 31778 layer_factory.hpp:77] Creating layer conv2_relu
I0402 02:52:19.670984 31778 net.cpp:100] Creating Layer conv2_relu
I0402 02:52:19.670986 31778 net.cpp:434] conv2_relu <- conv2
I0402 02:52:19.671003 31778 net.cpp:395] conv2_relu -> conv2 (in-place)
I0402 02:52:19.671964 31778 net.cpp:150] Setting up conv2_relu
I0402 02:52:19.671984 31778 net.cpp:157] Top shape: 1024 150 18 18 (49766400)
I0402 02:52:19.671988 31778 net.cpp:165] Memory required for data: 2052149248
I0402 02:52:19.671993 31778 layer_factory.hpp:77] Creating layer pool2
I0402 02:52:19.671999 31778 net.cpp:100] Creating Layer pool2
I0402 02:52:19.672003 31778 net.cpp:434] pool2 <- conv2
I0402 02:52:19.672010 31778 net.cpp:408] pool2 -> pool2
I0402 02:52:19.672058 31778 net.cpp:150] Setting up pool2
I0402 02:52:19.672068 31778 net.cpp:157] Top shape: 1024 150 9 9 (12441600)
I0402 02:52:19.672071 31778 net.cpp:165] Memory required for data: 2101915648
I0402 02:52:19.672075 31778 layer_factory.hpp:77] Creating layer conv3
I0402 02:52:19.672083 31778 net.cpp:100] Creating Layer conv3
I0402 02:52:19.672087 31778 net.cpp:434] conv3 <- pool2
I0402 02:52:19.672098 31778 net.cpp:408] conv3 -> conv3
I0402 02:52:19.677600 31778 net.cpp:150] Setting up conv3
I0402 02:52:19.677628 31778 net.cpp:157] Top shape: 1024 250 6 6 (9216000)
I0402 02:52:19.677631 31778 net.cpp:165] Memory required for data: 2138779648
I0402 02:52:19.677640 31778 layer_factory.hpp:77] Creating layer conv3_relu
I0402 02:52:19.677650 31778 net.cpp:100] Creating Layer conv3_relu
I0402 02:52:19.677654 31778 net.cpp:434] conv3_relu <- conv3
I0402 02:52:19.677659 31778 net.cpp:395] conv3_relu -> conv3 (in-place)
I0402 02:52:19.678639 31778 net.cpp:150] Setting up conv3_relu
I0402 02:52:19.678665 31778 net.cpp:157] Top shape: 1024 250 6 6 (9216000)
I0402 02:52:19.678669 31778 net.cpp:165] Memory required for data: 2175643648
I0402 02:52:19.678673 31778 layer_factory.hpp:77] Creating layer pool3
I0402 02:52:19.678679 31778 net.cpp:100] Creating Layer pool3
I0402 02:52:19.678684 31778 net.cpp:434] pool3 <- conv3
I0402 02:52:19.678689 31778 net.cpp:408] pool3 -> pool3
I0402 02:52:19.678748 31778 net.cpp:150] Setting up pool3
I0402 02:52:19.678771 31778 net.cpp:157] Top shape: 1024 250 3 3 (2304000)
I0402 02:52:19.678774 31778 net.cpp:165] Memory required for data: 2184859648
I0402 02:52:19.678777 31778 layer_factory.hpp:77] Creating layer fc4_300
I0402 02:52:19.678786 31778 net.cpp:100] Creating Layer fc4_300
I0402 02:52:19.678789 31778 net.cpp:434] fc4_300 <- pool3
I0402 02:52:19.678794 31778 net.cpp:408] fc4_300 -> fc4_300
I0402 02:52:19.684587 31778 net.cpp:150] Setting up fc4_300
I0402 02:52:19.684602 31778 net.cpp:157] Top shape: 1024 300 (307200)
I0402 02:52:19.684604 31778 net.cpp:165] Memory required for data: 2186088448
I0402 02:52:19.684612 31778 layer_factory.hpp:77] Creating layer fc4_relu
I0402 02:52:19.684618 31778 net.cpp:100] Creating Layer fc4_relu
I0402 02:52:19.684622 31778 net.cpp:434] fc4_relu <- fc4_300
I0402 02:52:19.684626 31778 net.cpp:395] fc4_relu -> fc4_300 (in-place)
I0402 02:52:19.684834 31778 net.cpp:150] Setting up fc4_relu
I0402 02:52:19.684846 31778 net.cpp:157] Top shape: 1024 300 (307200)
I0402 02:52:19.684849 31778 net.cpp:165] Memory required for data: 2187317248
I0402 02:52:19.684852 31778 layer_factory.hpp:77] Creating layer drop4
I0402 02:52:19.684860 31778 net.cpp:100] Creating Layer drop4
I0402 02:52:19.684864 31778 net.cpp:434] drop4 <- fc4_300
I0402 02:52:19.684869 31778 net.cpp:395] drop4 -> fc4_300 (in-place)
I0402 02:52:19.684900 31778 net.cpp:150] Setting up drop4
I0402 02:52:19.684908 31778 net.cpp:157] Top shape: 1024 300 (307200)
I0402 02:52:19.684911 31778 net.cpp:165] Memory required for data: 2188546048
I0402 02:52:19.684914 31778 layer_factory.hpp:77] Creating layer fc5_67
I0402 02:52:19.684921 31778 net.cpp:100] Creating Layer fc5_67
I0402 02:52:19.684924 31778 net.cpp:434] fc5_67 <- fc4_300
I0402 02:52:19.684931 31778 net.cpp:408] fc5_67 -> fc5_classes
I0402 02:52:19.686779 31778 net.cpp:150] Setting up fc5_67
I0402 02:52:19.686812 31778 net.cpp:157] Top shape: 1024 67 (68608)
I0402 02:52:19.686817 31778 net.cpp:165] Memory required for data: 2188820480
I0402 02:52:19.686826 31778 layer_factory.hpp:77] Creating layer loss
I0402 02:52:19.686839 31778 net.cpp:100] Creating Layer loss
I0402 02:52:19.686844 31778 net.cpp:434] loss <- fc5_classes
I0402 02:52:19.686861 31778 net.cpp:434] loss <- label
I0402 02:52:19.686867 31778 net.cpp:408] loss -> loss
I0402 02:52:19.686898 31778 layer_factory.hpp:77] Creating layer loss
…
I0402 02:52:19.687609 31778 solver.cpp:193] Creating test net (#0) specified by test_net file: ./Prototxt/rtsd-r1/histeq/test.prototxt
I0402 02:52:19.687757 31778 net.cpp:58] Initializing net from parameters: 
state {
  phase: TEST
}
layer {
  name: "data"
  type: "Data"
  top: "data"
  top: "label"
  include {
    phase: TEST
  }
  transform_param {
    mirror: false
    crop_size: 48
    mean_value: 124
    mean_value: 121
    mean_value: 142
  }
  data_param {
    source: "../local_data/lmdb/rtsd-r1/histeq/test/lmdb"
    batch_size: 1024
    backend: LMDB
  }
}
layer {
  name: "conv1"
  type: "Convolution"
  bottom: "data"
  top: "conv1"
  convolution_param {
    num_output: 100
    pad: 0
    kernel_size: 7
    group: 1
    stride: 1
    weight_filler {
      type: "xavier"
    }
  }
}
layer {
  name: "conv1_relu"
  type: "ReLU"
  bottom: "conv1"
  top: "conv1"
}
layer {
  name: "pool1"
  type: "Pooling"
  bottom: "conv1"
  top: "pool1"
  pooling_param {
    pool: MAX
    kernel_size: 2
    stride: 2
  }
}
layer {
  name: "conv2"
  type: "Convolution"
  bottom: "pool1"
  top: "conv2"
  convolution_param {
    num_output: 150
    pad: 0
    kernel_size: 4
    group: 1
    stride: 1
    weight_filler {
      type: "xavier"
    }
  }
}
layer {
  name: "conv2_relu"
  type: "ReLU"
  bottom: "conv2"
  top: "conv2"
}
layer {
  name: "pool2"
  type: "Pooling"
  bottom: "conv2"
  top: "pool2"
  pooling_param {
    pool: MAX
    kernel_size: 2
    stride: 2
  }
}
layer {
  name: "conv3"
  type: "Convolution"
  bottom: "pool2"
  top: "conv3"
  convolution_param {
    num_output: 250
    pad: 0
    kernel_size: 4
    group: 1
    stride: 1
    weight_filler {
      type: "xavier"
    }
  }
}
layer {
  name: "conv3_relu"
  type: "ReLU"
  bottom: "conv3"
  top: "conv3"
}
layer {
  name: "pool3"
  type: "Pooling"
  bottom: "conv3"
  top: "pool3"
  pooling_param {
    pool: MAX
    kernel_size: 2
    stride: 2
  }
}
layer {
  name: "fc4_300"
  type: "InnerProduct"
  bottom: "pool3"
  top: "fc4_300"
  inner_product_param {
    num_output: 300
    weight_filler {
      type: "xavier"
    }
  }
}
layer {
  name: "fc4_relu"
  type: "ReLU"
  bottom: "fc4_300"
  top: "fc4_300"
}
layer {
  name: "drop4"
  type: "Dropout"
  bottom: "fc4_300"
  top: "fc4_300"
  dropout_param {
    dropout_ratio: 0.4
  }
}
layer {
  name: "fc5_67"
  type: "InnerProduct"
  bottom: "fc4_300"
  top: "fc5_classes"
  inner_product_param {
    num_output: 67
    weight_filler {
      type: "xavier"
    }
  }
}
layer {
  name: "loss"
  type: "SoftmaxWithLoss"
  bottom: "fc5_classes"
  bottom: "label"
  top: "loss"
}
layer {
  name: "accuracy_1"
  type: "Accuracy"
  bottom: "fc5_classes"
  bottom: "label"
  top: "accuracy_1"
  include {
    phase: TEST
  }
  accuracy_param {
    top_k: 1
  }
}
layer {
  name: "accuracy_5"
  type: "Accuracy"
  bottom: "fc5_classes"
  bottom: "label"
  top: "accuracy_5"
  include {
    phase: TEST
  }
  accuracy_param {
    top_k: 5
  }
}
I0402 02:52:19.687858 31778 layer_factory.hpp:77] Creating layer data
I0402 02:52:19.688779 31778 net.cpp:100] Creating Layer data
I0402 02:52:19.688805 31778 net.cpp:408] data -> data
I0402 02:52:19.688815 31778 net.cpp:408] data -> label
I0402 02:52:19.691153 31842 db_lmdb.cpp:35] Opened lmdb ../local_data/lmdb/rtsd-r1/histeq/test/lmdb
I0402 02:52:19.691329 31778 data_layer.cpp:41] output data size: 1024,3,48,48
I0402 02:52:19.737867 31778 net.cpp:150] Setting up data
I0402 02:52:19.737907 31778 net.cpp:157] Top shape: 1024 3 48 48 (7077888)
I0402 02:52:19.737912 31778 net.cpp:157] Top shape: 1024 (1024)
I0402 02:52:19.737915 31778 net.cpp:165] Memory required for data: 28315648
I0402 02:52:19.737922 31778 layer_factory.hpp:77] Creating layer label_data_1_split
I0402 02:52:19.737936 31778 net.cpp:100] Creating Layer label_data_1_split
I0402 02:52:19.737941 31778 net.cpp:434] label_data_1_split <- label
I0402 02:52:19.737948 31778 net.cpp:408] label_data_1_split -> label_data_1_split_0
I0402 02:52:19.737959 31778 net.cpp:408] label_data_1_split -> label_data_1_split_1
I0402 02:52:19.737965 31778 net.cpp:408] label_data_1_split -> label_data_1_split_2
I0402 02:52:19.738131 31778 net.cpp:150] Setting up label_data_1_split
I0402 02:52:19.738154 31778 net.cpp:157] Top shape: 1024 (1024)
I0402 02:52:19.738159 31778 net.cpp:157] Top shape: 1024 (1024)
I0402 02:52:19.738163 31778 net.cpp:157] Top shape: 1024 (1024)
I0402 02:52:19.738165 31778 net.cpp:165] Memory required for data: 28327936
I0402 02:52:19.738169 31778 layer_factory.hpp:77] Creating layer conv1
I0402 02:52:19.738188 31778 net.cpp:100] Creating Layer conv1
I0402 02:52:19.738193 31778 net.cpp:434] conv1 <- data
I0402 02:52:19.738199 31778 net.cpp:408] conv1 -> conv1
I0402 02:52:19.740196 31778 net.cpp:150] Setting up conv1
I0402 02:52:19.740213 31778 net.cpp:157] Top shape: 1024 100 42 42 (180633600)
I0402 02:52:19.740216 31778 net.cpp:165] Memory required for data: 750862336
I0402 02:52:19.740228 31778 layer_factory.hpp:77] Creating layer conv1_relu
I0402 02:52:19.740236 31778 net.cpp:100] Creating Layer conv1_relu
I0402 02:52:19.740239 31778 net.cpp:434] conv1_relu <- conv1
I0402 02:52:19.740264 31778 net.cpp:395] conv1_relu -> conv1 (in-place)
I0402 02:52:19.740574 31778 net.cpp:150] Setting up conv1_relu
I0402 02:52:19.740597 31778 net.cpp:157] Top shape: 1024 100 42 42 (180633600)
I0402 02:52:19.740612 31778 net.cpp:165] Memory required for data: 1473396736
I0402 02:52:19.740617 31778 layer_factory.hpp:77] Creating layer pool1
I0402 02:52:19.740627 31778 net.cpp:100] Creating Layer pool1
I0402 02:52:19.740630 31778 net.cpp:434] pool1 <- conv1
I0402 02:52:19.740638 31778 net.cpp:408] pool1 -> pool1
I0402 02:52:19.742848 31778 net.cpp:150] Setting up pool1
I0402 02:52:19.742861 31778 net.cpp:157] Top shape: 1024 100 21 21 (45158400)
I0402 02:52:19.742874 31778 net.cpp:165] Memory required for data: 1654030336
I0402 02:52:19.742878 31778 layer_factory.hpp:77] Creating layer conv2
I0402 02:52:19.742892 31778 net.cpp:100] Creating Layer conv2
I0402 02:52:19.742897 31778 net.cpp:434] conv2 <- pool1
I0402 02:52:19.742903 31778 net.cpp:408] conv2 -> conv2
I0402 02:52:19.746765 31778 net.cpp:150] Setting up conv2
I0402 02:52:19.746780 31778 net.cpp:157] Top shape: 1024 150 18 18 (49766400)
I0402 02:52:19.746795 31778 net.cpp:165] Memory required for data: 1853095936
I0402 02:52:19.746805 31778 layer_factory.hpp:77] Creating layer conv2_relu
I0402 02:52:19.746811 31778 net.cpp:100] Creating Layer conv2_relu
I0402 02:52:19.746815 31778 net.cpp:434] conv2_relu <- conv2
I0402 02:52:19.746822 31778 net.cpp:395] conv2_relu -> conv2 (in-place)
I0402 02:52:19.747637 31778 net.cpp:150] Setting up conv2_relu
I0402 02:52:19.747664 31778 net.cpp:157] Top shape: 1024 150 18 18 (49766400)
I0402 02:52:19.747668 31778 net.cpp:165] Memory required for data: 2052161536
I0402 02:52:19.747673 31778 layer_factory.hpp:77] Creating layer pool2
I0402 02:52:19.747678 31778 net.cpp:100] Creating Layer pool2
I0402 02:52:19.747684 31778 net.cpp:434] pool2 <- conv2
I0402 02:52:19.747692 31778 net.cpp:408] pool2 -> pool2
I0402 02:52:19.747756 31778 net.cpp:150] Setting up pool2
I0402 02:52:19.747767 31778 net.cpp:157] Top shape: 1024 150 9 9 (12441600)
I0402 02:52:19.747771 31778 net.cpp:165] Memory required for data: 2101927936
I0402 02:52:19.747776 31778 layer_factory.hpp:77] Creating layer conv3
I0402 02:52:19.747786 31778 net.cpp:100] Creating Layer conv3
I0402 02:52:19.747792 31778 net.cpp:434] conv3 <- pool2
I0402 02:52:19.747798 31778 net.cpp:408] conv3 -> conv3
I0402 02:52:19.753502 31778 net.cpp:150] Setting up conv3
I0402 02:52:19.753530 31778 net.cpp:157] Top shape: 1024 250 6 6 (9216000)
I0402 02:52:19.753535 31778 net.cpp:165] Memory required for data: 2138791936
I0402 02:52:19.753545 31778 layer_factory.hpp:77] Creating layer conv3_relu
I0402 02:52:19.753553 31778 net.cpp:100] Creating Layer conv3_relu
I0402 02:52:19.753557 31778 net.cpp:434] conv3_relu <- conv3
I0402 02:52:19.753576 31778 net.cpp:395] conv3_relu -> conv3 (in-place)
I0402 02:52:19.754411 31778 net.cpp:150] Setting up conv3_relu
I0402 02:52:19.754428 31778 net.cpp:157] Top shape: 1024 250 6 6 (9216000)
I0402 02:52:19.754443 31778 net.cpp:165] Memory required for data: 2175655936
I0402 02:52:19.754447 31778 layer_factory.hpp:77] Creating layer pool3
I0402 02:52:19.754469 31778 net.cpp:100] Creating Layer pool3
I0402 02:52:19.754485 31778 net.cpp:434] pool3 <- conv3
I0402 02:52:19.754493 31778 net.cpp:408] pool3 -> pool3
I0402 02:52:19.754546 31778 net.cpp:150] Setting up pool3
I0402 02:52:19.754557 31778 net.cpp:157] Top shape: 1024 250 3 3 (2304000)
I0402 02:52:19.754560 31778 net.cpp:165] Memory required for data: 2184871936
I0402 02:52:19.754565 31778 layer_factory.hpp:77] Creating layer fc4_300
I0402 02:52:19.754578 31778 net.cpp:100] Creating Layer fc4_300
I0402 02:52:19.754583 31778 net.cpp:434] fc4_300 <- pool3
I0402 02:52:19.754588 31778 net.cpp:408] fc4_300 -> fc4_300
I0402 02:52:19.760159 31778 net.cpp:150] Setting up fc4_300
I0402 02:52:19.760176 31778 net.cpp:157] Top shape: 1024 300 (307200)
I0402 02:52:19.760185 31778 net.cpp:165] Memory required for data: 2186100736
I0402 02:52:19.760200 31778 layer_factory.hpp:77] Creating layer fc4_relu
I0402 02:52:19.760210 31778 net.cpp:100] Creating Layer fc4_relu
I0402 02:52:19.760216 31778 net.cpp:434] fc4_relu <- fc4_300
I0402 02:52:19.760222 31778 net.cpp:395] fc4_relu -> fc4_300 (in-place)
I0402 02:52:19.760478 31778 net.cpp:150] Setting up fc4_relu
I0402 02:52:19.760493 31778 net.cpp:157] Top shape: 1024 300 (307200)
I0402 02:52:19.760498 31778 net.cpp:165] Memory required for data: 2187329536
I0402 02:52:19.760501 31778 layer_factory.hpp:77] Creating layer drop4
I0402 02:52:19.760509 31778 net.cpp:100] Creating Layer drop4
I0402 02:52:19.760511 31778 net.cpp:434] drop4 <- fc4_300
I0402 02:52:19.760519 31778 net.cpp:395] drop4 -> fc4_300 (in-place)
I0402 02:52:19.760550 31778 net.cpp:150] Setting up drop4
I0402 02:52:19.760560 31778 net.cpp:157] Top shape: 1024 300 (307200)
I0402 02:52:19.760562 31778 net.cpp:165] Memory required for data: 2188558336
I0402 02:52:19.760565 31778 layer_factory.hpp:77] Creating layer fc5_67
I0402 02:52:19.760573 31778 net.cpp:100] Creating Layer fc5_67
I0402 02:52:19.760577 31778 net.cpp:434] fc5_67 <- fc4_300
I0402 02:52:19.760583 31778 net.cpp:408] fc5_67 -> fc5_classes
I0402 02:52:19.760840 31778 net.cpp:150] Setting up fc5_67
I0402 02:52:19.760850 31778 net.cpp:157] Top shape: 1024 67 (68608)
I0402 02:52:19.760854 31778 net.cpp:165] Memory required for data: 2188832768
I0402 02:52:19.760865 31778 layer_factory.hpp:77] Creating layer fc5_classes_fc5_67_0_split
I0402 02:52:19.760874 31778 net.cpp:100] Creating Layer fc5_classes_fc5_67_0_split
I0402 02:52:19.760877 31778 net.cpp:434] fc5_classes_fc5_67_0_split <- fc5_classes
I0402 02:52:19.760884 31778 net.cpp:408] fc5_classes_fc5_67_0_split -> fc5_classes_fc5_67_0_split_0
I0402 02:52:19.760891 31778 net.cpp:408] fc5_classes_fc5_67_0_split -> fc5_classes_fc5_67_0_split_1
I0402 02:52:19.760898 31778 net.cpp:408] fc5_classes_fc5_67_0_split -> fc5_classes_fc5_67_0_split_2
I0402 02:52:19.760954 31778 net.cpp:150] Setting up fc5_classes_fc5_67_0_split
I0402 02:52:19.760962 31778 net.cpp:157] Top shape: 1024 67 (68608)
I0402 02:52:19.760965 31778 net.cpp:157] Top shape: 1024 67 (68608)
I0402 02:52:19.760969 31778 net.cpp:157] Top shape: 1024 67 (68608)
I0402 02:52:19.760972 31778 net.cpp:165] Memory required for data: 2189656064
I0402 02:52:19.760975 31778 layer_factory.hpp:77] Creating layer loss
I0402 02:52:19.760989 31778 net.cpp:100] Creating Layer loss
I0402 02:52:19.760994 31778 net.cpp:434] loss <- fc5_classes_fc5_67_0_split_0
I0402 02:52:19.760999 31778 net.cpp:434] loss <- label_data_1_split_0
I0402 02:52:19.761004 31778 net.cpp:408] loss -> loss
…
