…
I0417 16:16:11.723909 20546 solver.cpp:93] Creating training net from train_net file: ./Prototxt/experiment_11/rtsd-r1/CoNorm/trial_1/train.prototxt
I0417 16:16:11.724406 20546 net.cpp:58] Initializing net from parameters: 
state {
  phase: TRAIN
  level: 0
  stage: ""
}
layer {
  name: "data"
  type: "Data"
  top: "data"
  top: "label"
  include {
    phase: TRAIN
  }
  transform_param {
    scale: 0.0039215689
    mirror: false
    crop_size: 48
    mean_value: 132
    mean_value: 132
    mean_value: 131
  }
  data_param {
    source: "../local_data/lmdb/rtsd-r1/CoNorm/train/lmdb"
    batch_size: 1024
    backend: LMDB
  }
}
layer {
  name: "conv1"
  type: "Convolution"
  bottom: "data"
  top: "conv1"
  convolution_param {
    num_output: 100
    pad: 0
    kernel_size: 7
    group: 1
    stride: 1
    weight_filler {
      type: "xavier"
    }
  }
}
layer {
  name: "conv1_prescale"
  type: "Scale"
  bottom: "conv1"
  top: "conv1"
  param {
    lr_mult: 0
    decay_mult: 0
  }
  scale_param {
    filler {
      value: 0.6666
    }
    bias_term: false
  }
}
layer {
  name: "conv1_sTanH"
  type: "TanH"
  bottom: "conv1"
  top: "conv1"
}
layer {
  name: "conv1_postscale"
  type: "Scale"
  bottom: "conv1"
  top: "conv1"
  param {
    lr_mult: 0
    decay_mult: 0
  }
  scale_param {
    filler {
      value: 1.7159
    }
    bias_term: false
  }
}
layer {
  name: "pool1"
  type: "Pooling"
  bottom: "conv1"
  top: "pool1"
  pooling_param {
    pool: MAX
    kernel_size: 2
    stride: 2
  }
}
layer {
  name: "conv2"
  type: "Convolution"
  bottom: "pool1"
  top: "conv2"
  convolution_param {
    num_output: 150
    pad: 0
    kernel_size: 4
    group: 1
    stride: 1
    weight_filler {
      type: "xavier"
    }
  }
}
layer {
  name: "conv2_prescale"
  type: "Scale"
  bottom: "conv2"
  top: "conv2"
  param {
    lr_mult: 0
    decay_mult: 0
  }
  scale_param {
    filler {
      value: 0.6666
    }
    bias_term: false
  }
}
layer {
  name: "conv2_sTanH"
  type: "TanH"
  bottom: "conv2"
  top: "conv2"
}
layer {
  name: "conv2_postscale"
  type: "Scale"
  bottom: "conv2"
  top: "conv2"
  param {
    lr_mult: 0
    decay_mult: 0
  }
  scale_param {
    filler {
      value: 1.7159
    }
    bias_term: false
  }
}
layer {
  name: "pool2"
  type: "Pooling"
  bottom: "conv2"
  top: "pool2"
  pooling_param {
    pool: MAX
    kernel_size: 2
    stride: 2
  }
}
layer {
  name: "conv3"
  type: "Convolution"
  bottom: "pool2"
  top: "conv3"
  convolution_param {
    num_output: 250
    pad: 0
    kernel_size: 4
    group: 1
    stride: 1
    weight_filler {
      type: "xavier"
    }
  }
}
layer {
  name: "conv3_prescale"
  type: "Scale"
  bottom: "conv3"
  top: "conv3"
  param {
    lr_mult: 0
    decay_mult: 0
  }
  scale_param {
    filler {
      value: 0.6666
    }
    bias_term: false
  }
}
layer {
  name: "conv3_sTanH"
  type: "TanH"
  bottom: "conv3"
  top: "conv3"
}
layer {
  name: "conv3_postscale"
  type: "Scale"
  bottom: "conv3"
  top: "conv3"
  param {
    lr_mult: 0
    decay_mult: 0
  }
  scale_param {
    filler {
      value: 1.7159
    }
    bias_term: false
  }
}
layer {
  name: "pool3"
  type: "Pooling"
  bottom: "conv3"
  top: "pool3"
  pooling_param {
    pool: MAX
    kernel_size: 2
    stride: 2
  }
}
layer {
  name: "fc4_300"
  type: "InnerProduct"
  bottom: "pool3"
  top: "fc4_300"
  inner_product_param {
    num_output: 300
    weight_filler {
      type: "xavier"
    }
  }
}
layer {
  name: "fc4_prescale"
  type: "Scale"
  bottom: "fc4_300"
  top: "fc4_300"
  param {
    lr_mult: 0
    decay_mult: 0
  }
  scale_param {
    filler {
      value: 0.6666
    }
    bias_term: false
  }
}
layer {
  name: "fc4_sTanH"
  type: "TanH"
  bottom: "fc4_300"
  top: "fc4_300"
}
layer {
  name: "fc4_postscale"
  type: "Scale"
  bottom: "fc4_300"
  top: "fc4_300"
  param {
    lr_mult: 0
    decay_mult: 0
  }
  scale_param {
    filler {
      value: 1.7159
    }
    bias_term: false
  }
}
layer {
  name: "fc5_67"
  type: "InnerProduct"
  bottom: "fc4_300"
  top: "fc5_classes"
  inner_product_param {
    num_output: 67
    weight_filler {
      type: "xavier"
    }
  }
}
layer {
  name: "softmax"
  type: "Softmax"
  bottom: "fc5_classes"
  top: "softmax"
}
layer {
  name: "loss"
  type: "MultinomialLogisticLoss"
  bottom: "softmax"
  bottom: "label"
  top: "loss"
}
layer {
  name: "accuracy_1"
  type: "Accuracy"
  bottom: "fc5_classes"
  bottom: "label"
  top: "accuracy_1"
  accuracy_param {
    top_k: 1
  }
}
layer {
  name: "accuracy_5"
  type: "Accuracy"
  bottom: "fc5_classes"
  bottom: "label"
  top: "accuracy_5"
  accuracy_param {
    top_k: 5
  }
}
layer {
  name: "silence"
  type: "Silence"
  bottom: "accuracy_1"
  bottom: "accuracy_5"
}
I0417 16:16:11.724560 20546 layer_factory.hpp:77] Creating layer data
I0417 16:16:11.725644 20546 net.cpp:100] Creating Layer data
I0417 16:16:11.725658 20546 net.cpp:408] data -> data
I0417 16:16:11.725682 20546 net.cpp:408] data -> label
I0417 16:16:11.743007 20705 db_lmdb.cpp:35] Opened lmdb ../local_data/lmdb/rtsd-r1/CoNorm/train/lmdb
I0417 16:16:11.768386 20546 data_layer.cpp:41] output data size: 1024,3,48,48
I0417 16:16:11.835644 20546 net.cpp:150] Setting up data
I0417 16:16:11.835671 20546 net.cpp:157] Top shape: 1024 3 48 48 (7077888)
I0417 16:16:11.835677 20546 net.cpp:157] Top shape: 1024 (1024)
I0417 16:16:11.835680 20546 net.cpp:165] Memory required for data: 28315648
I0417 16:16:11.835691 20546 layer_factory.hpp:77] Creating layer label_data_1_split
I0417 16:16:11.835708 20546 net.cpp:100] Creating Layer label_data_1_split
I0417 16:16:11.835716 20546 net.cpp:434] label_data_1_split <- label
I0417 16:16:11.835731 20546 net.cpp:408] label_data_1_split -> label_data_1_split_0
I0417 16:16:11.835742 20546 net.cpp:408] label_data_1_split -> label_data_1_split_1
I0417 16:16:11.835750 20546 net.cpp:408] label_data_1_split -> label_data_1_split_2
I0417 16:16:11.835853 20546 net.cpp:150] Setting up label_data_1_split
I0417 16:16:11.835862 20546 net.cpp:157] Top shape: 1024 (1024)
I0417 16:16:11.835867 20546 net.cpp:157] Top shape: 1024 (1024)
I0417 16:16:11.835871 20546 net.cpp:157] Top shape: 1024 (1024)
I0417 16:16:11.835875 20546 net.cpp:165] Memory required for data: 28327936
I0417 16:16:11.835889 20546 layer_factory.hpp:77] Creating layer conv1
I0417 16:16:11.835909 20546 net.cpp:100] Creating Layer conv1
I0417 16:16:11.835919 20546 net.cpp:434] conv1 <- data
I0417 16:16:11.835925 20546 net.cpp:408] conv1 -> conv1
I0417 16:16:12.354076 20546 net.cpp:150] Setting up conv1
I0417 16:16:12.354105 20546 net.cpp:157] Top shape: 1024 100 42 42 (180633600)
I0417 16:16:12.354110 20546 net.cpp:165] Memory required for data: 750862336
I0417 16:16:12.354133 20546 layer_factory.hpp:77] Creating layer conv1_prescale
I0417 16:16:12.354147 20546 net.cpp:100] Creating Layer conv1_prescale
I0417 16:16:12.354152 20546 net.cpp:434] conv1_prescale <- conv1
I0417 16:16:12.354159 20546 net.cpp:395] conv1_prescale -> conv1 (in-place)
I0417 16:16:12.354281 20546 net.cpp:150] Setting up conv1_prescale
I0417 16:16:12.354291 20546 net.cpp:157] Top shape: 1024 100 42 42 (180633600)
I0417 16:16:12.354295 20546 net.cpp:165] Memory required for data: 1473396736
I0417 16:16:12.354302 20546 layer_factory.hpp:77] Creating layer conv1_sTanH
I0417 16:16:12.354312 20546 net.cpp:100] Creating Layer conv1_sTanH
I0417 16:16:12.354317 20546 net.cpp:434] conv1_sTanH <- conv1
I0417 16:16:12.354322 20546 net.cpp:395] conv1_sTanH -> conv1 (in-place)
I0417 16:16:12.354517 20546 net.cpp:150] Setting up conv1_sTanH
I0417 16:16:12.354557 20546 net.cpp:157] Top shape: 1024 100 42 42 (180633600)
I0417 16:16:12.354560 20546 net.cpp:165] Memory required for data: 2195931136
I0417 16:16:12.354564 20546 layer_factory.hpp:77] Creating layer conv1_postscale
I0417 16:16:12.354571 20546 net.cpp:100] Creating Layer conv1_postscale
I0417 16:16:12.354576 20546 net.cpp:434] conv1_postscale <- conv1
I0417 16:16:12.354583 20546 net.cpp:395] conv1_postscale -> conv1 (in-place)
I0417 16:16:12.354682 20546 net.cpp:150] Setting up conv1_postscale
I0417 16:16:12.354691 20546 net.cpp:157] Top shape: 1024 100 42 42 (180633600)
I0417 16:16:12.354696 20546 net.cpp:165] Memory required for data: 2918465536
I0417 16:16:12.354701 20546 layer_factory.hpp:77] Creating layer pool1
I0417 16:16:12.354708 20546 net.cpp:100] Creating Layer pool1
I0417 16:16:12.354712 20546 net.cpp:434] pool1 <- conv1
I0417 16:16:12.354717 20546 net.cpp:408] pool1 -> pool1
I0417 16:16:12.354768 20546 net.cpp:150] Setting up pool1
I0417 16:16:12.354776 20546 net.cpp:157] Top shape: 1024 100 21 21 (45158400)
I0417 16:16:12.354781 20546 net.cpp:165] Memory required for data: 3099099136
I0417 16:16:12.354784 20546 layer_factory.hpp:77] Creating layer conv2
I0417 16:16:12.354794 20546 net.cpp:100] Creating Layer conv2
I0417 16:16:12.354799 20546 net.cpp:434] conv2 <- pool1
I0417 16:16:12.354804 20546 net.cpp:408] conv2 -> conv2
I0417 16:16:12.360291 20546 net.cpp:150] Setting up conv2
I0417 16:16:12.360307 20546 net.cpp:157] Top shape: 1024 150 18 18 (49766400)
I0417 16:16:12.360311 20546 net.cpp:165] Memory required for data: 3298164736
I0417 16:16:12.360322 20546 layer_factory.hpp:77] Creating layer conv2_prescale
I0417 16:16:12.360332 20546 net.cpp:100] Creating Layer conv2_prescale
I0417 16:16:12.360337 20546 net.cpp:434] conv2_prescale <- conv2
I0417 16:16:12.360342 20546 net.cpp:395] conv2_prescale -> conv2 (in-place)
I0417 16:16:12.360453 20546 net.cpp:150] Setting up conv2_prescale
I0417 16:16:12.360463 20546 net.cpp:157] Top shape: 1024 150 18 18 (49766400)
I0417 16:16:12.360466 20546 net.cpp:165] Memory required for data: 3497230336
I0417 16:16:12.360471 20546 layer_factory.hpp:77] Creating layer conv2_sTanH
I0417 16:16:12.360478 20546 net.cpp:100] Creating Layer conv2_sTanH
I0417 16:16:12.360482 20546 net.cpp:434] conv2_sTanH <- conv2
I0417 16:16:12.360487 20546 net.cpp:395] conv2_sTanH -> conv2 (in-place)
I0417 16:16:12.361675 20546 net.cpp:150] Setting up conv2_sTanH
I0417 16:16:12.361690 20546 net.cpp:157] Top shape: 1024 150 18 18 (49766400)
I0417 16:16:12.361695 20546 net.cpp:165] Memory required for data: 3696295936
I0417 16:16:12.361698 20546 layer_factory.hpp:77] Creating layer conv2_postscale
I0417 16:16:12.361706 20546 net.cpp:100] Creating Layer conv2_postscale
I0417 16:16:12.361711 20546 net.cpp:434] conv2_postscale <- conv2
I0417 16:16:12.361717 20546 net.cpp:395] conv2_postscale -> conv2 (in-place)
I0417 16:16:12.361842 20546 net.cpp:150] Setting up conv2_postscale
I0417 16:16:12.361855 20546 net.cpp:157] Top shape: 1024 150 18 18 (49766400)
I0417 16:16:12.361858 20546 net.cpp:165] Memory required for data: 3895361536
I0417 16:16:12.361865 20546 layer_factory.hpp:77] Creating layer pool2
I0417 16:16:12.361873 20546 net.cpp:100] Creating Layer pool2
I0417 16:16:12.361878 20546 net.cpp:434] pool2 <- conv2
I0417 16:16:12.361883 20546 net.cpp:408] pool2 -> pool2
I0417 16:16:12.361928 20546 net.cpp:150] Setting up pool2
I0417 16:16:12.361937 20546 net.cpp:157] Top shape: 1024 150 9 9 (12441600)
I0417 16:16:12.361941 20546 net.cpp:165] Memory required for data: 3945127936
I0417 16:16:12.361944 20546 layer_factory.hpp:77] Creating layer conv3
I0417 16:16:12.361953 20546 net.cpp:100] Creating Layer conv3
I0417 16:16:12.361958 20546 net.cpp:434] conv3 <- pool2
I0417 16:16:12.361963 20546 net.cpp:408] conv3 -> conv3
I0417 16:16:12.371033 20546 net.cpp:150] Setting up conv3
I0417 16:16:12.371053 20546 net.cpp:157] Top shape: 1024 250 6 6 (9216000)
I0417 16:16:12.371057 20546 net.cpp:165] Memory required for data: 3981991936
I0417 16:16:12.371068 20546 layer_factory.hpp:77] Creating layer conv3_prescale
I0417 16:16:12.371091 20546 net.cpp:100] Creating Layer conv3_prescale
I0417 16:16:12.371098 20546 net.cpp:434] conv3_prescale <- conv3
I0417 16:16:12.371104 20546 net.cpp:395] conv3_prescale -> conv3 (in-place)
I0417 16:16:12.371212 20546 net.cpp:150] Setting up conv3_prescale
I0417 16:16:12.371222 20546 net.cpp:157] Top shape: 1024 250 6 6 (9216000)
I0417 16:16:12.371225 20546 net.cpp:165] Memory required for data: 4018855936
I0417 16:16:12.371230 20546 layer_factory.hpp:77] Creating layer conv3_sTanH
I0417 16:16:12.371237 20546 net.cpp:100] Creating Layer conv3_sTanH
I0417 16:16:12.371242 20546 net.cpp:434] conv3_sTanH <- conv3
I0417 16:16:12.371248 20546 net.cpp:395] conv3_sTanH -> conv3 (in-place)
I0417 16:16:12.372344 20546 net.cpp:150] Setting up conv3_sTanH
I0417 16:16:12.372360 20546 net.cpp:157] Top shape: 1024 250 6 6 (9216000)
I0417 16:16:12.372364 20546 net.cpp:165] Memory required for data: 4055719936
I0417 16:16:12.372369 20546 layer_factory.hpp:77] Creating layer conv3_postscale
I0417 16:16:12.372377 20546 net.cpp:100] Creating Layer conv3_postscale
I0417 16:16:12.372381 20546 net.cpp:434] conv3_postscale <- conv3
I0417 16:16:12.372387 20546 net.cpp:395] conv3_postscale -> conv3 (in-place)
I0417 16:16:12.372493 20546 net.cpp:150] Setting up conv3_postscale
I0417 16:16:12.372503 20546 net.cpp:157] Top shape: 1024 250 6 6 (9216000)
I0417 16:16:12.372506 20546 net.cpp:165] Memory required for data: 4092583936
I0417 16:16:12.372512 20546 layer_factory.hpp:77] Creating layer pool3
I0417 16:16:12.372524 20546 net.cpp:100] Creating Layer pool3
I0417 16:16:12.372529 20546 net.cpp:434] pool3 <- conv3
I0417 16:16:12.372534 20546 net.cpp:408] pool3 -> pool3
I0417 16:16:12.372578 20546 net.cpp:150] Setting up pool3
I0417 16:16:12.372587 20546 net.cpp:157] Top shape: 1024 250 3 3 (2304000)
I0417 16:16:12.372591 20546 net.cpp:165] Memory required for data: 4101799936
I0417 16:16:12.372594 20546 layer_factory.hpp:77] Creating layer fc4_300
I0417 16:16:12.372604 20546 net.cpp:100] Creating Layer fc4_300
I0417 16:16:12.372609 20546 net.cpp:434] fc4_300 <- pool3
I0417 16:16:12.372614 20546 net.cpp:408] fc4_300 -> fc4_300
I0417 16:16:12.380920 20546 net.cpp:150] Setting up fc4_300
I0417 16:16:12.380940 20546 net.cpp:157] Top shape: 1024 300 (307200)
I0417 16:16:12.380944 20546 net.cpp:165] Memory required for data: 4103028736
I0417 16:16:12.380950 20546 layer_factory.hpp:77] Creating layer fc4_prescale
I0417 16:16:12.380959 20546 net.cpp:100] Creating Layer fc4_prescale
I0417 16:16:12.380962 20546 net.cpp:434] fc4_prescale <- fc4_300
I0417 16:16:12.380970 20546 net.cpp:395] fc4_prescale -> fc4_300 (in-place)
I0417 16:16:12.381064 20546 net.cpp:150] Setting up fc4_prescale
I0417 16:16:12.381074 20546 net.cpp:157] Top shape: 1024 300 (307200)
I0417 16:16:12.381078 20546 net.cpp:165] Memory required for data: 4104257536
I0417 16:16:12.381083 20546 layer_factory.hpp:77] Creating layer fc4_sTanH
I0417 16:16:12.381091 20546 net.cpp:100] Creating Layer fc4_sTanH
I0417 16:16:12.381096 20546 net.cpp:434] fc4_sTanH <- fc4_300
I0417 16:16:12.381101 20546 net.cpp:395] fc4_sTanH -> fc4_300 (in-place)
I0417 16:16:12.381302 20546 net.cpp:150] Setting up fc4_sTanH
I0417 16:16:12.381314 20546 net.cpp:157] Top shape: 1024 300 (307200)
I0417 16:16:12.381319 20546 net.cpp:165] Memory required for data: 4105486336
I0417 16:16:12.381322 20546 layer_factory.hpp:77] Creating layer fc4_postscale
I0417 16:16:12.381330 20546 net.cpp:100] Creating Layer fc4_postscale
I0417 16:16:12.381333 20546 net.cpp:434] fc4_postscale <- fc4_300
I0417 16:16:12.381341 20546 net.cpp:395] fc4_postscale -> fc4_300 (in-place)
I0417 16:16:12.381448 20546 net.cpp:150] Setting up fc4_postscale
I0417 16:16:12.381456 20546 net.cpp:157] Top shape: 1024 300 (307200)
I0417 16:16:12.381461 20546 net.cpp:165] Memory required for data: 4106715136
I0417 16:16:12.381466 20546 layer_factory.hpp:77] Creating layer fc5_67
I0417 16:16:12.381474 20546 net.cpp:100] Creating Layer fc5_67
I0417 16:16:12.381477 20546 net.cpp:434] fc5_67 <- fc4_300
I0417 16:16:12.381484 20546 net.cpp:408] fc5_67 -> fc5_classes
I0417 16:16:12.385748 20546 net.cpp:150] Setting up fc5_67
I0417 16:16:12.385767 20546 net.cpp:157] Top shape: 1024 67 (68608)
I0417 16:16:12.385771 20546 net.cpp:165] Memory required for data: 4106989568
I0417 16:16:12.385787 20546 layer_factory.hpp:77] Creating layer fc5_classes_fc5_67_0_split
I0417 16:16:12.385797 20546 net.cpp:100] Creating Layer fc5_classes_fc5_67_0_split
I0417 16:16:12.385802 20546 net.cpp:434] fc5_classes_fc5_67_0_split <- fc5_classes
I0417 16:16:12.385809 20546 net.cpp:408] fc5_classes_fc5_67_0_split -> fc5_classes_fc5_67_0_split_0
I0417 16:16:12.385818 20546 net.cpp:408] fc5_classes_fc5_67_0_split -> fc5_classes_fc5_67_0_split_1
I0417 16:16:12.385828 20546 net.cpp:408] fc5_classes_fc5_67_0_split -> fc5_classes_fc5_67_0_split_2
I0417 16:16:12.385887 20546 net.cpp:150] Setting up fc5_classes_fc5_67_0_split
I0417 16:16:12.385895 20546 net.cpp:157] Top shape: 1024 67 (68608)
I0417 16:16:12.385900 20546 net.cpp:157] Top shape: 1024 67 (68608)
I0417 16:16:12.385902 20546 net.cpp:157] Top shape: 1024 67 (68608)
I0417 16:16:12.385905 20546 net.cpp:165] Memory required for data: 4107812864
I0417 16:16:12.385908 20546 layer_factory.hpp:77] Creating layer softmax
I0417 16:16:12.385915 20546 net.cpp:100] Creating Layer softmax
I0417 16:16:12.385920 20546 net.cpp:434] softmax <- fc5_classes_fc5_67_0_split_0
I0417 16:16:12.385926 20546 net.cpp:408] softmax -> softmax
I0417 16:16:12.386200 20546 net.cpp:150] Setting up softmax
I0417 16:16:12.386216 20546 net.cpp:157] Top shape: 1024 67 (68608)
I0417 16:16:12.386221 20546 net.cpp:165] Memory required for data: 4108087296
I0417 16:16:12.386225 20546 layer_factory.hpp:77] Creating layer loss
I0417 16:16:12.386232 20546 net.cpp:100] Creating Layer loss
I0417 16:16:12.386237 20546 net.cpp:434] loss <- softmax
I0417 16:16:12.386242 20546 net.cpp:434] loss <- label_data_1_split_0
I0417 16:16:12.386250 20546 net.cpp:408] loss -> loss
…
