…
I0414 03:19:50.011133 13473 solver.cpp:93] Creating training net from train_net file: ./Prototxt/experiment_11/rtsd-r1/CoNorm/trial_1/train.prototxt
I0414 03:19:50.012013 13473 net.cpp:58] Initializing net from parameters: 
state {
  phase: TRAIN
  level: 0
  stage: ""
}
layer {
  name: "data"
  type: "Data"
  top: "data"
  top: "label"
  include {
    phase: TRAIN
  }
  transform_param {
    scale: 0.0039215689
    mirror: false
    crop_size: 48
    mean_value: 132
    mean_value: 132
    mean_value: 131
  }
  data_param {
    source: "../local_data/lmdb/rtsd-r1/CoNorm/train/lmdb"
    batch_size: 1024
    backend: LMDB
  }
}
layer {
  name: "conv1"
  type: "Convolution"
  bottom: "data"
  top: "conv1"
  convolution_param {
    num_output: 100
    pad: 0
    kernel_size: 7
    group: 1
    stride: 1
    weight_filler {
      type: "xavier"
    }
  }
}
layer {
  name: "conv1_prescale"
  type: "Scale"
  bottom: "conv1"
  top: "conv1"
  param {
    lr_mult: 0
    decay_mult: 0
  }
  scale_param {
    filler {
      value: 0.6666
    }
    bias_term: false
  }
}
layer {
  name: "conv1_sTanH"
  type: "TanH"
  bottom: "conv1"
  top: "conv1"
}
layer {
  name: "conv1_postscale"
  type: "Scale"
  bottom: "conv1"
  top: "conv1"
  param {
    lr_mult: 0
    decay_mult: 0
  }
  scale_param {
    filler {
      value: 1.7159
    }
    bias_term: false
  }
}
layer {
  name: "pool1"
  type: "Pooling"
  bottom: "conv1"
  top: "pool1"
  pooling_param {
    pool: MAX
    kernel_size: 2
    stride: 2
  }
}
layer {
  name: "conv2"
  type: "Convolution"
  bottom: "pool1"
  top: "conv2"
  convolution_param {
    num_output: 150
    pad: 0
    kernel_size: 4
    group: 1
    stride: 1
    weight_filler {
      type: "xavier"
    }
  }
}
layer {
  name: "conv2_prescale"
  type: "Scale"
  bottom: "conv2"
  top: "conv2"
  param {
    lr_mult: 0
    decay_mult: 0
  }
  scale_param {
    filler {
      value: 0.6666
    }
    bias_term: false
  }
}
layer {
  name: "conv2_sTanH"
  type: "TanH"
  bottom: "conv2"
  top: "conv2"
}
layer {
  name: "conv2_postscale"
  type: "Scale"
  bottom: "conv2"
  top: "conv2"
  param {
    lr_mult: 0
    decay_mult: 0
  }
  scale_param {
    filler {
      value: 1.7159
    }
    bias_term: false
  }
}
layer {
  name: "pool2"
  type: "Pooling"
  bottom: "conv2"
  top: "pool2"
  pooling_param {
    pool: MAX
    kernel_size: 2
    stride: 2
  }
}
layer {
  name: "conv3"
  type: "Convolution"
  bottom: "pool2"
  top: "conv3"
  convolution_param {
    num_output: 250
    pad: 0
    kernel_size: 4
    group: 1
    stride: 1
    weight_filler {
      type: "xavier"
    }
  }
}
layer {
  name: "conv3_prescale"
  type: "Scale"
  bottom: "conv3"
  top: "conv3"
  param {
    lr_mult: 0
    decay_mult: 0
  }
  scale_param {
    filler {
      value: 0.6666
    }
    bias_term: false
  }
}
layer {
  name: "conv3_sTanH"
  type: "TanH"
  bottom: "conv3"
  top: "conv3"
}
layer {
  name: "conv3_postscale"
  type: "Scale"
  bottom: "conv3"
  top: "conv3"
  param {
    lr_mult: 0
    decay_mult: 0
  }
  scale_param {
    filler {
      value: 1.7159
    }
    bias_term: false
  }
}
layer {
  name: "pool3"
  type: "Pooling"
  bottom: "conv3"
  top: "pool3"
  pooling_param {
    pool: MAX
    kernel_size: 2
    stride: 2
  }
}
layer {
  name: "fc4_300"
  type: "InnerProduct"
  bottom: "pool3"
  top: "fc4_300"
  inner_product_param {
    num_output: 300
    weight_filler {
      type: "xavier"
    }
  }
}
layer {
  name: "fc4_prescale"
  type: "Scale"
  bottom: "fc4_300"
  top: "fc4_300"
  param {
    lr_mult: 0
    decay_mult: 0
  }
  scale_param {
    filler {
      value: 0.6666
    }
    bias_term: false
  }
}
layer {
  name: "fc4_sTanH"
  type: "TanH"
  bottom: "fc4_300"
  top: "fc4_300"
}
layer {
  name: "fc4_postscale"
  type: "Scale"
  bottom: "fc4_300"
  top: "fc4_300"
  param {
    lr_mult: 0
    decay_mult: 0
  }
  scale_param {
    filler {
      value: 1.7159
    }
    bias_term: false
  }
}
layer {
  name: "fc5_67"
  type: "InnerProduct"
  bottom: "fc4_300"
  top: "fc5_classes"
  inner_product_param {
    num_output: 67
    weight_filler {
      type: "xavier"
    }
  }
}
layer {
  name: "softmax"
  type: "Softmax"
  bottom: "fc5_classes"
  top: "softmax"
}
layer {
  name: "loss"
  type: "MultinomialLogisticLoss"
  bottom: "softmax"
  bottom: "label"
  top: "loss"
}
layer {
  name: "accuracy_1"
  type: "Accuracy"
  bottom: "fc5_classes"
  bottom: "label"
  top: "accuracy_1"
  accuracy_param {
    top_k: 1
  }
}
layer {
  name: "accuracy_5"
  type: "Accuracy"
  bottom: "fc5_classes"
  bottom: "label"
  top: "accuracy_5"
  accuracy_param {
    top_k: 5
  }
}
layer {
  name: "silence"
  type: "Silence"
  bottom: "accuracy_1"
  bottom: "accuracy_5"
}
I0414 03:19:50.012305 13473 layer_factory.hpp:77] Creating layer data
I0414 03:19:50.013968 13473 net.cpp:100] Creating Layer data
I0414 03:19:50.013994 13473 net.cpp:408] data -> data
I0414 03:19:50.014034 13473 net.cpp:408] data -> label
I0414 03:19:50.016813 13589 db_lmdb.cpp:35] Opened lmdb ../local_data/lmdb/rtsd-r1/CoNorm/train/lmdb
I0414 03:19:50.041730 13473 data_layer.cpp:41] output data size: 1024,3,48,48
I0414 03:19:50.104169 13473 net.cpp:150] Setting up data
I0414 03:19:50.104202 13473 net.cpp:157] Top shape: 1024 3 48 48 (7077888)
I0414 03:19:50.104207 13473 net.cpp:157] Top shape: 1024 (1024)
I0414 03:19:50.104209 13473 net.cpp:165] Memory required for data: 28315648
I0414 03:19:50.104220 13473 layer_factory.hpp:77] Creating layer label_data_1_split
I0414 03:19:50.104235 13473 net.cpp:100] Creating Layer label_data_1_split
I0414 03:19:50.104243 13473 net.cpp:434] label_data_1_split <- label
I0414 03:19:50.104259 13473 net.cpp:408] label_data_1_split -> label_data_1_split_0
I0414 03:19:50.104272 13473 net.cpp:408] label_data_1_split -> label_data_1_split_1
I0414 03:19:50.104281 13473 net.cpp:408] label_data_1_split -> label_data_1_split_2
I0414 03:19:50.104348 13473 net.cpp:150] Setting up label_data_1_split
I0414 03:19:50.104357 13473 net.cpp:157] Top shape: 1024 (1024)
I0414 03:19:50.104362 13473 net.cpp:157] Top shape: 1024 (1024)
I0414 03:19:50.104369 13473 net.cpp:157] Top shape: 1024 (1024)
I0414 03:19:50.104372 13473 net.cpp:165] Memory required for data: 28327936
I0414 03:19:50.104375 13473 layer_factory.hpp:77] Creating layer conv1
I0414 03:19:50.104393 13473 net.cpp:100] Creating Layer conv1
I0414 03:19:50.104398 13473 net.cpp:434] conv1 <- data
I0414 03:19:50.104404 13473 net.cpp:408] conv1 -> conv1
I0414 03:19:50.469179 13473 net.cpp:150] Setting up conv1
I0414 03:19:50.469208 13473 net.cpp:157] Top shape: 1024 100 42 42 (180633600)
I0414 03:19:50.469213 13473 net.cpp:165] Memory required for data: 750862336
I0414 03:19:50.469233 13473 layer_factory.hpp:77] Creating layer conv1_prescale
I0414 03:19:50.469246 13473 net.cpp:100] Creating Layer conv1_prescale
I0414 03:19:50.469251 13473 net.cpp:434] conv1_prescale <- conv1
I0414 03:19:50.469259 13473 net.cpp:395] conv1_prescale -> conv1 (in-place)
I0414 03:19:50.469363 13473 net.cpp:150] Setting up conv1_prescale
I0414 03:19:50.469372 13473 net.cpp:157] Top shape: 1024 100 42 42 (180633600)
I0414 03:19:50.469374 13473 net.cpp:165] Memory required for data: 1473396736
I0414 03:19:50.469382 13473 layer_factory.hpp:77] Creating layer conv1_sTanH
I0414 03:19:50.469388 13473 net.cpp:100] Creating Layer conv1_sTanH
I0414 03:19:50.469393 13473 net.cpp:434] conv1_sTanH <- conv1
I0414 03:19:50.469398 13473 net.cpp:395] conv1_sTanH -> conv1 (in-place)
I0414 03:19:50.469588 13473 net.cpp:150] Setting up conv1_sTanH
I0414 03:19:50.469622 13473 net.cpp:157] Top shape: 1024 100 42 42 (180633600)
I0414 03:19:50.469626 13473 net.cpp:165] Memory required for data: 2195931136
I0414 03:19:50.469630 13473 layer_factory.hpp:77] Creating layer conv1_postscale
I0414 03:19:50.469636 13473 net.cpp:100] Creating Layer conv1_postscale
I0414 03:19:50.469640 13473 net.cpp:434] conv1_postscale <- conv1
I0414 03:19:50.469645 13473 net.cpp:395] conv1_postscale -> conv1 (in-place)
I0414 03:19:50.469739 13473 net.cpp:150] Setting up conv1_postscale
I0414 03:19:50.469748 13473 net.cpp:157] Top shape: 1024 100 42 42 (180633600)
I0414 03:19:50.469750 13473 net.cpp:165] Memory required for data: 2918465536
I0414 03:19:50.469755 13473 layer_factory.hpp:77] Creating layer pool1
I0414 03:19:50.469761 13473 net.cpp:100] Creating Layer pool1
I0414 03:19:50.469766 13473 net.cpp:434] pool1 <- conv1
I0414 03:19:50.469771 13473 net.cpp:408] pool1 -> pool1
I0414 03:19:50.469817 13473 net.cpp:150] Setting up pool1
I0414 03:19:50.469825 13473 net.cpp:157] Top shape: 1024 100 21 21 (45158400)
I0414 03:19:50.469828 13473 net.cpp:165] Memory required for data: 3099099136
I0414 03:19:50.469831 13473 layer_factory.hpp:77] Creating layer conv2
I0414 03:19:50.469841 13473 net.cpp:100] Creating Layer conv2
I0414 03:19:50.469844 13473 net.cpp:434] conv2 <- pool1
I0414 03:19:50.469849 13473 net.cpp:408] conv2 -> conv2
I0414 03:19:50.474966 13473 net.cpp:150] Setting up conv2
I0414 03:19:50.474982 13473 net.cpp:157] Top shape: 1024 150 18 18 (49766400)
I0414 03:19:50.474985 13473 net.cpp:165] Memory required for data: 3298164736
I0414 03:19:50.474995 13473 layer_factory.hpp:77] Creating layer conv2_prescale
I0414 03:19:50.475004 13473 net.cpp:100] Creating Layer conv2_prescale
I0414 03:19:50.475008 13473 net.cpp:434] conv2_prescale <- conv2
I0414 03:19:50.475013 13473 net.cpp:395] conv2_prescale -> conv2 (in-place)
I0414 03:19:50.475116 13473 net.cpp:150] Setting up conv2_prescale
I0414 03:19:50.475124 13473 net.cpp:157] Top shape: 1024 150 18 18 (49766400)
I0414 03:19:50.475127 13473 net.cpp:165] Memory required for data: 3497230336
I0414 03:19:50.475132 13473 layer_factory.hpp:77] Creating layer conv2_sTanH
I0414 03:19:50.475137 13473 net.cpp:100] Creating Layer conv2_sTanH
I0414 03:19:50.475141 13473 net.cpp:434] conv2_sTanH <- conv2
I0414 03:19:50.475144 13473 net.cpp:395] conv2_sTanH -> conv2 (in-place)
I0414 03:19:50.476018 13473 net.cpp:150] Setting up conv2_sTanH
I0414 03:19:50.476033 13473 net.cpp:157] Top shape: 1024 150 18 18 (49766400)
I0414 03:19:50.476037 13473 net.cpp:165] Memory required for data: 3696295936
I0414 03:19:50.476040 13473 layer_factory.hpp:77] Creating layer conv2_postscale
I0414 03:19:50.476047 13473 net.cpp:100] Creating Layer conv2_postscale
I0414 03:19:50.476052 13473 net.cpp:434] conv2_postscale <- conv2
I0414 03:19:50.476056 13473 net.cpp:395] conv2_postscale -> conv2 (in-place)
I0414 03:19:50.476150 13473 net.cpp:150] Setting up conv2_postscale
I0414 03:19:50.476161 13473 net.cpp:157] Top shape: 1024 150 18 18 (49766400)
I0414 03:19:50.476164 13473 net.cpp:165] Memory required for data: 3895361536
I0414 03:19:50.476169 13473 layer_factory.hpp:77] Creating layer pool2
I0414 03:19:50.476176 13473 net.cpp:100] Creating Layer pool2
I0414 03:19:50.476179 13473 net.cpp:434] pool2 <- conv2
I0414 03:19:50.476184 13473 net.cpp:408] pool2 -> pool2
I0414 03:19:50.476222 13473 net.cpp:150] Setting up pool2
I0414 03:19:50.476230 13473 net.cpp:157] Top shape: 1024 150 9 9 (12441600)
I0414 03:19:50.476233 13473 net.cpp:165] Memory required for data: 3945127936
I0414 03:19:50.476236 13473 layer_factory.hpp:77] Creating layer conv3
I0414 03:19:50.476243 13473 net.cpp:100] Creating Layer conv3
I0414 03:19:50.476248 13473 net.cpp:434] conv3 <- pool2
I0414 03:19:50.476253 13473 net.cpp:408] conv3 -> conv3
I0414 03:19:50.488129 13473 net.cpp:150] Setting up conv3
I0414 03:19:50.488150 13473 net.cpp:157] Top shape: 1024 250 6 6 (9216000)
I0414 03:19:50.488154 13473 net.cpp:165] Memory required for data: 3981991936
I0414 03:19:50.488165 13473 layer_factory.hpp:77] Creating layer conv3_prescale
I0414 03:19:50.488190 13473 net.cpp:100] Creating Layer conv3_prescale
I0414 03:19:50.488196 13473 net.cpp:434] conv3_prescale <- conv3
I0414 03:19:50.488203 13473 net.cpp:395] conv3_prescale -> conv3 (in-place)
I0414 03:19:50.488302 13473 net.cpp:150] Setting up conv3_prescale
I0414 03:19:50.488312 13473 net.cpp:157] Top shape: 1024 250 6 6 (9216000)
I0414 03:19:50.488314 13473 net.cpp:165] Memory required for data: 4018855936
I0414 03:19:50.488319 13473 layer_factory.hpp:77] Creating layer conv3_sTanH
I0414 03:19:50.488324 13473 net.cpp:100] Creating Layer conv3_sTanH
I0414 03:19:50.488327 13473 net.cpp:434] conv3_sTanH <- conv3
I0414 03:19:50.488332 13473 net.cpp:395] conv3_sTanH -> conv3 (in-place)
I0414 03:19:50.489255 13473 net.cpp:150] Setting up conv3_sTanH
I0414 03:19:50.489270 13473 net.cpp:157] Top shape: 1024 250 6 6 (9216000)
I0414 03:19:50.489275 13473 net.cpp:165] Memory required for data: 4055719936
I0414 03:19:50.489279 13473 layer_factory.hpp:77] Creating layer conv3_postscale
I0414 03:19:50.489287 13473 net.cpp:100] Creating Layer conv3_postscale
I0414 03:19:50.489292 13473 net.cpp:434] conv3_postscale <- conv3
I0414 03:19:50.489297 13473 net.cpp:395] conv3_postscale -> conv3 (in-place)
I0414 03:19:50.489401 13473 net.cpp:150] Setting up conv3_postscale
I0414 03:19:50.489409 13473 net.cpp:157] Top shape: 1024 250 6 6 (9216000)
I0414 03:19:50.489413 13473 net.cpp:165] Memory required for data: 4092583936
I0414 03:19:50.489418 13473 layer_factory.hpp:77] Creating layer pool3
I0414 03:19:50.489429 13473 net.cpp:100] Creating Layer pool3
I0414 03:19:50.489434 13473 net.cpp:434] pool3 <- conv3
I0414 03:19:50.489439 13473 net.cpp:408] pool3 -> pool3
I0414 03:19:50.489481 13473 net.cpp:150] Setting up pool3
I0414 03:19:50.489490 13473 net.cpp:157] Top shape: 1024 250 3 3 (2304000)
I0414 03:19:50.489491 13473 net.cpp:165] Memory required for data: 4101799936
I0414 03:19:50.489495 13473 layer_factory.hpp:77] Creating layer fc4_300
I0414 03:19:50.489501 13473 net.cpp:100] Creating Layer fc4_300
I0414 03:19:50.489506 13473 net.cpp:434] fc4_300 <- pool3
I0414 03:19:50.489511 13473 net.cpp:408] fc4_300 -> fc4_300
I0414 03:19:50.495352 13473 net.cpp:150] Setting up fc4_300
I0414 03:19:50.495371 13473 net.cpp:157] Top shape: 1024 300 (307200)
I0414 03:19:50.495374 13473 net.cpp:165] Memory required for data: 4103028736
I0414 03:19:50.495381 13473 layer_factory.hpp:77] Creating layer fc4_prescale
I0414 03:19:50.495390 13473 net.cpp:100] Creating Layer fc4_prescale
I0414 03:19:50.495396 13473 net.cpp:434] fc4_prescale <- fc4_300
I0414 03:19:50.495403 13473 net.cpp:395] fc4_prescale -> fc4_300 (in-place)
I0414 03:19:50.495491 13473 net.cpp:150] Setting up fc4_prescale
I0414 03:19:50.495499 13473 net.cpp:157] Top shape: 1024 300 (307200)
I0414 03:19:50.495502 13473 net.cpp:165] Memory required for data: 4104257536
I0414 03:19:50.495507 13473 layer_factory.hpp:77] Creating layer fc4_sTanH
I0414 03:19:50.495513 13473 net.cpp:100] Creating Layer fc4_sTanH
I0414 03:19:50.495517 13473 net.cpp:434] fc4_sTanH <- fc4_300
I0414 03:19:50.495522 13473 net.cpp:395] fc4_sTanH -> fc4_300 (in-place)
I0414 03:19:50.495721 13473 net.cpp:150] Setting up fc4_sTanH
I0414 03:19:50.495733 13473 net.cpp:157] Top shape: 1024 300 (307200)
I0414 03:19:50.495735 13473 net.cpp:165] Memory required for data: 4105486336
I0414 03:19:50.495738 13473 layer_factory.hpp:77] Creating layer fc4_postscale
I0414 03:19:50.495745 13473 net.cpp:100] Creating Layer fc4_postscale
I0414 03:19:50.495750 13473 net.cpp:434] fc4_postscale <- fc4_300
I0414 03:19:50.495756 13473 net.cpp:395] fc4_postscale -> fc4_300 (in-place)
I0414 03:19:50.495857 13473 net.cpp:150] Setting up fc4_postscale
I0414 03:19:50.495864 13473 net.cpp:157] Top shape: 1024 300 (307200)
I0414 03:19:50.495867 13473 net.cpp:165] Memory required for data: 4106715136
I0414 03:19:50.495872 13473 layer_factory.hpp:77] Creating layer fc5_67
I0414 03:19:50.495898 13473 net.cpp:100] Creating Layer fc5_67
I0414 03:19:50.495904 13473 net.cpp:434] fc5_67 <- fc4_300
I0414 03:19:50.495911 13473 net.cpp:408] fc5_67 -> fc5_classes
I0414 03:19:50.497321 13473 net.cpp:150] Setting up fc5_67
I0414 03:19:50.497335 13473 net.cpp:157] Top shape: 1024 67 (68608)
I0414 03:19:50.497339 13473 net.cpp:165] Memory required for data: 4106989568
I0414 03:19:50.497350 13473 layer_factory.hpp:77] Creating layer fc5_classes_fc5_67_0_split
I0414 03:19:50.497359 13473 net.cpp:100] Creating Layer fc5_classes_fc5_67_0_split
I0414 03:19:50.497364 13473 net.cpp:434] fc5_classes_fc5_67_0_split <- fc5_classes
I0414 03:19:50.497370 13473 net.cpp:408] fc5_classes_fc5_67_0_split -> fc5_classes_fc5_67_0_split_0
I0414 03:19:50.497377 13473 net.cpp:408] fc5_classes_fc5_67_0_split -> fc5_classes_fc5_67_0_split_1
I0414 03:19:50.497385 13473 net.cpp:408] fc5_classes_fc5_67_0_split -> fc5_classes_fc5_67_0_split_2
I0414 03:19:50.497440 13473 net.cpp:150] Setting up fc5_classes_fc5_67_0_split
I0414 03:19:50.497448 13473 net.cpp:157] Top shape: 1024 67 (68608)
I0414 03:19:50.497452 13473 net.cpp:157] Top shape: 1024 67 (68608)
I0414 03:19:50.497454 13473 net.cpp:157] Top shape: 1024 67 (68608)
I0414 03:19:50.497457 13473 net.cpp:165] Memory required for data: 4107812864
I0414 03:19:50.497459 13473 layer_factory.hpp:77] Creating layer softmax
I0414 03:19:50.497465 13473 net.cpp:100] Creating Layer softmax
I0414 03:19:50.497468 13473 net.cpp:434] softmax <- fc5_classes_fc5_67_0_split_0
I0414 03:19:50.497473 13473 net.cpp:408] softmax -> softmax
I0414 03:19:50.497735 13473 net.cpp:150] Setting up softmax
I0414 03:19:50.497751 13473 net.cpp:157] Top shape: 1024 67 (68608)
I0414 03:19:50.497757 13473 net.cpp:165] Memory required for data: 4108087296
I0414 03:19:50.497761 13473 layer_factory.hpp:77] Creating layer loss
I0414 03:19:50.497769 13473 net.cpp:100] Creating Layer loss
I0414 03:19:50.497776 13473 net.cpp:434] loss <- softmax
I0414 03:19:50.497783 13473 net.cpp:434] loss <- label_data_1_split_0
I0414 03:19:50.497792 13473 net.cpp:408] loss -> loss
…
