…
I0417 16:10:43.203655 15613 solver.cpp:93] Creating training net from train_net file: ./Prototxt/experiment_11/rtsd-r1/CoNorm/trial_1/train.prototxt
I0417 16:10:43.205005 15613 net.cpp:58] Initializing net from parameters: 
state {
  phase: TRAIN
  level: 0
  stage: ""
}
layer {
  name: "data"
  type: "Data"
  top: "data"
  top: "label"
  include {
    phase: TRAIN
  }
  transform_param {
    scale: 0.0039215689
    mirror: false
    crop_size: 48
    mean_value: 132
    mean_value: 132
    mean_value: 131
  }
  data_param {
    source: "../local_data/lmdb/rtsd-r1/CoNorm/train/lmdb"
    batch_size: 1024
    backend: LMDB
  }
}
layer {
  name: "conv1"
  type: "Convolution"
  bottom: "data"
  top: "conv1"
  convolution_param {
    num_output: 100
    pad: 0
    kernel_size: 7
    group: 1
    stride: 1
    weight_filler {
      type: "xavier"
    }
  }
}
layer {
  name: "conv1_prescale"
  type: "Scale"
  bottom: "conv1"
  top: "conv1"
  param {
    lr_mult: 0
    decay_mult: 0
  }
  scale_param {
    filler {
      value: 0.6666
    }
    bias_term: false
  }
}
layer {
  name: "conv1_sTanH"
  type: "TanH"
  bottom: "conv1"
  top: "conv1"
}
layer {
  name: "conv1_postscale"
  type: "Scale"
  bottom: "conv1"
  top: "conv1"
  param {
    lr_mult: 0
    decay_mult: 0
  }
  scale_param {
    filler {
      value: 1.7159
    }
    bias_term: false
  }
}
layer {
  name: "pool1"
  type: "Pooling"
  bottom: "conv1"
  top: "pool1"
  pooling_param {
    pool: MAX
    kernel_size: 2
    stride: 2
  }
}
layer {
  name: "conv2"
  type: "Convolution"
  bottom: "pool1"
  top: "conv2"
  convolution_param {
    num_output: 150
    pad: 0
    kernel_size: 4
    group: 1
    stride: 1
    weight_filler {
      type: "xavier"
    }
  }
}
layer {
  name: "conv2_prescale"
  type: "Scale"
  bottom: "conv2"
  top: "conv2"
  param {
    lr_mult: 0
    decay_mult: 0
  }
  scale_param {
    filler {
      value: 0.6666
    }
    bias_term: false
  }
}
layer {
  name: "conv2_sTanH"
  type: "TanH"
  bottom: "conv2"
  top: "conv2"
}
layer {
  name: "conv2_postscale"
  type: "Scale"
  bottom: "conv2"
  top: "conv2"
  param {
    lr_mult: 0
    decay_mult: 0
  }
  scale_param {
    filler {
      value: 1.7159
    }
    bias_term: false
  }
}
layer {
  name: "pool2"
  type: "Pooling"
  bottom: "conv2"
  top: "pool2"
  pooling_param {
    pool: MAX
    kernel_size: 2
    stride: 2
  }
}
layer {
  name: "conv3"
  type: "Convolution"
  bottom: "pool2"
  top: "conv3"
  convolution_param {
    num_output: 250
    pad: 0
    kernel_size: 4
    group: 1
    stride: 1
    weight_filler {
      type: "xavier"
    }
  }
}
layer {
  name: "conv3_prescale"
  type: "Scale"
  bottom: "conv3"
  top: "conv3"
  param {
    lr_mult: 0
    decay_mult: 0
  }
  scale_param {
    filler {
      value: 0.6666
    }
    bias_term: false
  }
}
layer {
  name: "conv3_sTanH"
  type: "TanH"
  bottom: "conv3"
  top: "conv3"
}
layer {
  name: "conv3_postscale"
  type: "Scale"
  bottom: "conv3"
  top: "conv3"
  param {
    lr_mult: 0
    decay_mult: 0
  }
  scale_param {
    filler {
      value: 1.7159
    }
    bias_term: false
  }
}
layer {
  name: "pool3"
  type: "Pooling"
  bottom: "conv3"
  top: "pool3"
  pooling_param {
    pool: MAX
    kernel_size: 2
    stride: 2
  }
}
layer {
  name: "fc4_300"
  type: "InnerProduct"
  bottom: "pool3"
  top: "fc4_300"
  inner_product_param {
    num_output: 300
    weight_filler {
      type: "xavier"
    }
  }
}
layer {
  name: "fc4_prescale"
  type: "Scale"
  bottom: "fc4_300"
  top: "fc4_300"
  param {
    lr_mult: 0
    decay_mult: 0
  }
  scale_param {
    filler {
      value: 0.6666
    }
    bias_term: false
  }
}
layer {
  name: "fc4_sTanH"
  type: "TanH"
  bottom: "fc4_300"
  top: "fc4_300"
}
layer {
  name: "fc4_postscale"
  type: "Scale"
  bottom: "fc4_300"
  top: "fc4_300"
  param {
    lr_mult: 0
    decay_mult: 0
  }
  scale_param {
    filler {
      value: 1.7159
    }
    bias_term: false
  }
}
layer {
  name: "fc5_67"
  type: "InnerProduct"
  bottom: "fc4_300"
  top: "fc5_classes"
  inner_product_param {
    num_output: 67
    weight_filler {
      type: "xavier"
    }
  }
}
layer {
  name: "softmax"
  type: "Softmax"
  bottom: "fc5_classes"
  top: "softmax"
}
layer {
  name: "loss"
  type: "MultinomialLogisticLoss"
  bottom: "softmax"
  bottom: "label"
  top: "loss"
}
layer {
  name: "accuracy_1"
  type: "Accuracy"
  bottom: "fc5_classes"
  bottom: "label"
  top: "accuracy_1"
  accuracy_param {
    top_k: 1
  }
}
layer {
  name: "accuracy_5"
  type: "Accuracy"
  bottom: "fc5_classes"
  bottom: "label"
  top: "accuracy_5"
  accuracy_param {
    top_k: 5
  }
}
layer {
  name: "silence"
  type: "Silence"
  bottom: "accuracy_1"
  bottom: "accuracy_5"
}
I0417 16:10:43.205260 15613 layer_factory.hpp:77] Creating layer data
I0417 16:10:43.206717 15613 net.cpp:100] Creating Layer data
I0417 16:10:43.206735 15613 net.cpp:408] data -> data
I0417 16:10:43.206768 15613 net.cpp:408] data -> label
I0417 16:10:43.322252 15789 db_lmdb.cpp:35] Opened lmdb ../local_data/lmdb/rtsd-r1/CoNorm/train/lmdb
I0417 16:10:43.358667 15613 data_layer.cpp:41] output data size: 1024,3,48,48
I0417 16:10:43.426726 15613 net.cpp:150] Setting up data
I0417 16:10:43.426754 15613 net.cpp:157] Top shape: 1024 3 48 48 (7077888)
I0417 16:10:43.426759 15613 net.cpp:157] Top shape: 1024 (1024)
I0417 16:10:43.426762 15613 net.cpp:165] Memory required for data: 28315648
I0417 16:10:43.426774 15613 layer_factory.hpp:77] Creating layer label_data_1_split
I0417 16:10:43.426802 15613 net.cpp:100] Creating Layer label_data_1_split
I0417 16:10:43.426811 15613 net.cpp:434] label_data_1_split <- label
I0417 16:10:43.426825 15613 net.cpp:408] label_data_1_split -> label_data_1_split_0
I0417 16:10:43.426837 15613 net.cpp:408] label_data_1_split -> label_data_1_split_1
I0417 16:10:43.426844 15613 net.cpp:408] label_data_1_split -> label_data_1_split_2
I0417 16:10:43.426914 15613 net.cpp:150] Setting up label_data_1_split
I0417 16:10:43.426923 15613 net.cpp:157] Top shape: 1024 (1024)
I0417 16:10:43.426925 15613 net.cpp:157] Top shape: 1024 (1024)
I0417 16:10:43.426929 15613 net.cpp:157] Top shape: 1024 (1024)
I0417 16:10:43.426931 15613 net.cpp:165] Memory required for data: 28327936
I0417 16:10:43.426935 15613 layer_factory.hpp:77] Creating layer conv1
I0417 16:10:43.426954 15613 net.cpp:100] Creating Layer conv1
I0417 16:10:43.426959 15613 net.cpp:434] conv1 <- data
I0417 16:10:43.426964 15613 net.cpp:408] conv1 -> conv1
I0417 16:10:43.509307 15817 blocking_queue.cpp:50] Waiting for data
I0417 16:10:43.918229 15613 net.cpp:150] Setting up conv1
I0417 16:10:43.918256 15613 net.cpp:157] Top shape: 1024 100 42 42 (180633600)
I0417 16:10:43.918261 15613 net.cpp:165] Memory required for data: 750862336
I0417 16:10:43.918282 15613 layer_factory.hpp:77] Creating layer conv1_prescale
I0417 16:10:43.918294 15613 net.cpp:100] Creating Layer conv1_prescale
I0417 16:10:43.918300 15613 net.cpp:434] conv1_prescale <- conv1
I0417 16:10:43.918308 15613 net.cpp:395] conv1_prescale -> conv1 (in-place)
I0417 16:10:43.918412 15613 net.cpp:150] Setting up conv1_prescale
I0417 16:10:43.918421 15613 net.cpp:157] Top shape: 1024 100 42 42 (180633600)
I0417 16:10:43.918424 15613 net.cpp:165] Memory required for data: 1473396736
I0417 16:10:43.918431 15613 layer_factory.hpp:77] Creating layer conv1_sTanH
I0417 16:10:43.918440 15613 net.cpp:100] Creating Layer conv1_sTanH
I0417 16:10:43.918444 15613 net.cpp:434] conv1_sTanH <- conv1
I0417 16:10:43.918449 15613 net.cpp:395] conv1_sTanH -> conv1 (in-place)
I0417 16:10:43.918666 15613 net.cpp:150] Setting up conv1_sTanH
I0417 16:10:43.918678 15613 net.cpp:157] Top shape: 1024 100 42 42 (180633600)
I0417 16:10:43.918681 15613 net.cpp:165] Memory required for data: 2195931136
I0417 16:10:43.918684 15613 layer_factory.hpp:77] Creating layer conv1_postscale
I0417 16:10:43.918692 15613 net.cpp:100] Creating Layer conv1_postscale
I0417 16:10:43.918696 15613 net.cpp:434] conv1_postscale <- conv1
I0417 16:10:43.918701 15613 net.cpp:395] conv1_postscale -> conv1 (in-place)
I0417 16:10:43.918803 15613 net.cpp:150] Setting up conv1_postscale
I0417 16:10:43.918812 15613 net.cpp:157] Top shape: 1024 100 42 42 (180633600)
I0417 16:10:43.918814 15613 net.cpp:165] Memory required for data: 2918465536
I0417 16:10:43.918818 15613 layer_factory.hpp:77] Creating layer pool1
I0417 16:10:43.918825 15613 net.cpp:100] Creating Layer pool1
I0417 16:10:43.918829 15613 net.cpp:434] pool1 <- conv1
I0417 16:10:43.918834 15613 net.cpp:408] pool1 -> pool1
I0417 16:10:43.918879 15613 net.cpp:150] Setting up pool1
I0417 16:10:43.918887 15613 net.cpp:157] Top shape: 1024 100 21 21 (45158400)
I0417 16:10:43.918889 15613 net.cpp:165] Memory required for data: 3099099136
I0417 16:10:43.918892 15613 layer_factory.hpp:77] Creating layer conv2
I0417 16:10:43.918902 15613 net.cpp:100] Creating Layer conv2
I0417 16:10:43.918906 15613 net.cpp:434] conv2 <- pool1
I0417 16:10:43.918911 15613 net.cpp:408] conv2 -> conv2
I0417 16:10:43.928467 15613 net.cpp:150] Setting up conv2
I0417 16:10:43.928484 15613 net.cpp:157] Top shape: 1024 150 18 18 (49766400)
I0417 16:10:43.928488 15613 net.cpp:165] Memory required for data: 3298164736
I0417 16:10:43.928499 15613 layer_factory.hpp:77] Creating layer conv2_prescale
I0417 16:10:43.928509 15613 net.cpp:100] Creating Layer conv2_prescale
I0417 16:10:43.928514 15613 net.cpp:434] conv2_prescale <- conv2
I0417 16:10:43.928519 15613 net.cpp:395] conv2_prescale -> conv2 (in-place)
I0417 16:10:43.928627 15613 net.cpp:150] Setting up conv2_prescale
I0417 16:10:43.928635 15613 net.cpp:157] Top shape: 1024 150 18 18 (49766400)
I0417 16:10:43.928638 15613 net.cpp:165] Memory required for data: 3497230336
I0417 16:10:43.928642 15613 layer_factory.hpp:77] Creating layer conv2_sTanH
I0417 16:10:43.928648 15613 net.cpp:100] Creating Layer conv2_sTanH
I0417 16:10:43.928652 15613 net.cpp:434] conv2_sTanH <- conv2
I0417 16:10:43.928655 15613 net.cpp:395] conv2_sTanH -> conv2 (in-place)
I0417 16:10:43.930249 15613 net.cpp:150] Setting up conv2_sTanH
I0417 16:10:43.930264 15613 net.cpp:157] Top shape: 1024 150 18 18 (49766400)
I0417 16:10:43.930269 15613 net.cpp:165] Memory required for data: 3696295936
I0417 16:10:43.930271 15613 layer_factory.hpp:77] Creating layer conv2_postscale
I0417 16:10:43.930279 15613 net.cpp:100] Creating Layer conv2_postscale
I0417 16:10:43.930284 15613 net.cpp:434] conv2_postscale <- conv2
I0417 16:10:43.930289 15613 net.cpp:395] conv2_postscale -> conv2 (in-place)
I0417 16:10:43.930385 15613 net.cpp:150] Setting up conv2_postscale
I0417 16:10:43.930393 15613 net.cpp:157] Top shape: 1024 150 18 18 (49766400)
I0417 16:10:43.930397 15613 net.cpp:165] Memory required for data: 3895361536
I0417 16:10:43.930402 15613 layer_factory.hpp:77] Creating layer pool2
I0417 16:10:43.930408 15613 net.cpp:100] Creating Layer pool2
I0417 16:10:43.930411 15613 net.cpp:434] pool2 <- conv2
I0417 16:10:43.930416 15613 net.cpp:408] pool2 -> pool2
I0417 16:10:43.930457 15613 net.cpp:150] Setting up pool2
I0417 16:10:43.930464 15613 net.cpp:157] Top shape: 1024 150 9 9 (12441600)
I0417 16:10:43.930467 15613 net.cpp:165] Memory required for data: 3945127936
I0417 16:10:43.930470 15613 layer_factory.hpp:77] Creating layer conv3
I0417 16:10:43.930479 15613 net.cpp:100] Creating Layer conv3
I0417 16:10:43.930483 15613 net.cpp:434] conv3 <- pool2
I0417 16:10:43.930488 15613 net.cpp:408] conv3 -> conv3
I0417 16:10:43.936527 15613 net.cpp:150] Setting up conv3
I0417 16:10:43.936543 15613 net.cpp:157] Top shape: 1024 250 6 6 (9216000)
I0417 16:10:43.936547 15613 net.cpp:165] Memory required for data: 3981991936
I0417 16:10:43.936575 15613 layer_factory.hpp:77] Creating layer conv3_prescale
I0417 16:10:43.936585 15613 net.cpp:100] Creating Layer conv3_prescale
I0417 16:10:43.936590 15613 net.cpp:434] conv3_prescale <- conv3
I0417 16:10:43.936596 15613 net.cpp:395] conv3_prescale -> conv3 (in-place)
I0417 16:10:43.936692 15613 net.cpp:150] Setting up conv3_prescale
I0417 16:10:43.936702 15613 net.cpp:157] Top shape: 1024 250 6 6 (9216000)
I0417 16:10:43.936704 15613 net.cpp:165] Memory required for data: 4018855936
I0417 16:10:43.936708 15613 layer_factory.hpp:77] Creating layer conv3_sTanH
I0417 16:10:43.936713 15613 net.cpp:100] Creating Layer conv3_sTanH
I0417 16:10:43.936717 15613 net.cpp:434] conv3_sTanH <- conv3
I0417 16:10:43.936722 15613 net.cpp:395] conv3_sTanH -> conv3 (in-place)
I0417 16:10:43.944944 15613 net.cpp:150] Setting up conv3_sTanH
I0417 16:10:43.944970 15613 net.cpp:157] Top shape: 1024 250 6 6 (9216000)
I0417 16:10:43.944975 15613 net.cpp:165] Memory required for data: 4055719936
I0417 16:10:43.944979 15613 layer_factory.hpp:77] Creating layer conv3_postscale
I0417 16:10:43.944988 15613 net.cpp:100] Creating Layer conv3_postscale
I0417 16:10:43.944993 15613 net.cpp:434] conv3_postscale <- conv3
I0417 16:10:43.945000 15613 net.cpp:395] conv3_postscale -> conv3 (in-place)
I0417 16:10:43.945122 15613 net.cpp:150] Setting up conv3_postscale
I0417 16:10:43.945139 15613 net.cpp:157] Top shape: 1024 250 6 6 (9216000)
I0417 16:10:43.945147 15613 net.cpp:165] Memory required for data: 4092583936
I0417 16:10:43.945155 15613 layer_factory.hpp:77] Creating layer pool3
I0417 16:10:43.945169 15613 net.cpp:100] Creating Layer pool3
I0417 16:10:43.945174 15613 net.cpp:434] pool3 <- conv3
I0417 16:10:43.945180 15613 net.cpp:408] pool3 -> pool3
I0417 16:10:43.945225 15613 net.cpp:150] Setting up pool3
I0417 16:10:43.945231 15613 net.cpp:157] Top shape: 1024 250 3 3 (2304000)
I0417 16:10:43.945235 15613 net.cpp:165] Memory required for data: 4101799936
I0417 16:10:43.945237 15613 layer_factory.hpp:77] Creating layer fc4_300
I0417 16:10:43.945245 15613 net.cpp:100] Creating Layer fc4_300
I0417 16:10:43.945251 15613 net.cpp:434] fc4_300 <- pool3
I0417 16:10:43.945262 15613 net.cpp:408] fc4_300 -> fc4_300
I0417 16:10:43.954776 15613 net.cpp:150] Setting up fc4_300
I0417 16:10:43.954794 15613 net.cpp:157] Top shape: 1024 300 (307200)
I0417 16:10:43.954797 15613 net.cpp:165] Memory required for data: 4103028736
I0417 16:10:43.954805 15613 layer_factory.hpp:77] Creating layer fc4_prescale
I0417 16:10:43.954814 15613 net.cpp:100] Creating Layer fc4_prescale
I0417 16:10:43.954819 15613 net.cpp:434] fc4_prescale <- fc4_300
I0417 16:10:43.954826 15613 net.cpp:395] fc4_prescale -> fc4_300 (in-place)
I0417 16:10:43.954917 15613 net.cpp:150] Setting up fc4_prescale
I0417 16:10:43.954926 15613 net.cpp:157] Top shape: 1024 300 (307200)
I0417 16:10:43.954928 15613 net.cpp:165] Memory required for data: 4104257536
I0417 16:10:43.954933 15613 layer_factory.hpp:77] Creating layer fc4_sTanH
I0417 16:10:43.954939 15613 net.cpp:100] Creating Layer fc4_sTanH
I0417 16:10:43.954942 15613 net.cpp:434] fc4_sTanH <- fc4_300
I0417 16:10:43.954952 15613 net.cpp:395] fc4_sTanH -> fc4_300 (in-place)
I0417 16:10:43.955150 15613 net.cpp:150] Setting up fc4_sTanH
I0417 16:10:43.955163 15613 net.cpp:157] Top shape: 1024 300 (307200)
I0417 16:10:43.955165 15613 net.cpp:165] Memory required for data: 4105486336
I0417 16:10:43.955168 15613 layer_factory.hpp:77] Creating layer fc4_postscale
I0417 16:10:43.955175 15613 net.cpp:100] Creating Layer fc4_postscale
I0417 16:10:43.955180 15613 net.cpp:434] fc4_postscale <- fc4_300
I0417 16:10:43.955186 15613 net.cpp:395] fc4_postscale -> fc4_300 (in-place)
I0417 16:10:43.955286 15613 net.cpp:150] Setting up fc4_postscale
I0417 16:10:43.955292 15613 net.cpp:157] Top shape: 1024 300 (307200)
I0417 16:10:43.955296 15613 net.cpp:165] Memory required for data: 4106715136
I0417 16:10:43.955301 15613 layer_factory.hpp:77] Creating layer fc5_67
I0417 16:10:43.955307 15613 net.cpp:100] Creating Layer fc5_67
I0417 16:10:43.955312 15613 net.cpp:434] fc5_67 <- fc4_300
I0417 16:10:43.955334 15613 net.cpp:408] fc5_67 -> fc5_classes
I0417 16:10:43.957803 15613 net.cpp:150] Setting up fc5_67
I0417 16:10:43.957819 15613 net.cpp:157] Top shape: 1024 67 (68608)
I0417 16:10:43.957823 15613 net.cpp:165] Memory required for data: 4106989568
I0417 16:10:43.957836 15613 layer_factory.hpp:77] Creating layer fc5_classes_fc5_67_0_split
I0417 16:10:43.957845 15613 net.cpp:100] Creating Layer fc5_classes_fc5_67_0_split
I0417 16:10:43.957851 15613 net.cpp:434] fc5_classes_fc5_67_0_split <- fc5_classes
I0417 16:10:43.957856 15613 net.cpp:408] fc5_classes_fc5_67_0_split -> fc5_classes_fc5_67_0_split_0
I0417 16:10:43.957864 15613 net.cpp:408] fc5_classes_fc5_67_0_split -> fc5_classes_fc5_67_0_split_1
I0417 16:10:43.957872 15613 net.cpp:408] fc5_classes_fc5_67_0_split -> fc5_classes_fc5_67_0_split_2
I0417 16:10:43.957929 15613 net.cpp:150] Setting up fc5_classes_fc5_67_0_split
I0417 16:10:43.957937 15613 net.cpp:157] Top shape: 1024 67 (68608)
I0417 16:10:43.957940 15613 net.cpp:157] Top shape: 1024 67 (68608)
I0417 16:10:43.957943 15613 net.cpp:157] Top shape: 1024 67 (68608)
I0417 16:10:43.957947 15613 net.cpp:165] Memory required for data: 4107812864
I0417 16:10:43.957949 15613 layer_factory.hpp:77] Creating layer softmax
I0417 16:10:43.957955 15613 net.cpp:100] Creating Layer softmax
I0417 16:10:43.957960 15613 net.cpp:434] softmax <- fc5_classes_fc5_67_0_split_0
I0417 16:10:43.957965 15613 net.cpp:408] softmax -> softmax
I0417 16:10:43.958225 15613 net.cpp:150] Setting up softmax
I0417 16:10:43.958237 15613 net.cpp:157] Top shape: 1024 67 (68608)
I0417 16:10:43.958240 15613 net.cpp:165] Memory required for data: 4108087296
I0417 16:10:43.958245 15613 layer_factory.hpp:77] Creating layer loss
I0417 16:10:43.958250 15613 net.cpp:100] Creating Layer loss
I0417 16:10:43.958256 15613 net.cpp:434] loss <- softmax
I0417 16:10:43.958259 15613 net.cpp:434] loss <- label_data_1_split_0
I0417 16:10:43.958266 15613 net.cpp:408] loss -> loss
…
