…
I0414 03:38:35.571807 19958 solver.cpp:93] Creating training net from train_net file: ./Prototxt/experiment_11/rtsd-r1/CoNorm/trial_1/train.prototxt
I0414 03:38:35.572279 19958 net.cpp:58] Initializing net from parameters: 
state {
  phase: TRAIN
  level: 0
  stage: ""
}
layer {
  name: "data"
  type: "Data"
  top: "data"
  top: "label"
  include {
    phase: TRAIN
  }
  transform_param {
    scale: 0.0039215689
    mirror: false
    crop_size: 48
    mean_value: 132
    mean_value: 132
    mean_value: 131
  }
  data_param {
    source: "../local_data/lmdb/rtsd-r1/CoNorm/train/lmdb"
    batch_size: 1024
    backend: LMDB
  }
}
layer {
  name: "conv1"
  type: "Convolution"
  bottom: "data"
  top: "conv1"
  convolution_param {
    num_output: 100
    pad: 0
    kernel_size: 7
    group: 1
    stride: 1
    weight_filler {
      type: "xavier"
    }
  }
}
layer {
  name: "conv1_prescale"
  type: "Scale"
  bottom: "conv1"
  top: "conv1"
  param {
    lr_mult: 0
    decay_mult: 0
  }
  scale_param {
    filler {
      value: 0.6666
    }
    bias_term: false
  }
}
layer {
  name: "conv1_sTanH"
  type: "TanH"
  bottom: "conv1"
  top: "conv1"
}
layer {
  name: "conv1_postscale"
  type: "Scale"
  bottom: "conv1"
  top: "conv1"
  param {
    lr_mult: 0
    decay_mult: 0
  }
  scale_param {
    filler {
      value: 1.7159
    }
    bias_term: false
  }
}
layer {
  name: "pool1"
  type: "Pooling"
  bottom: "conv1"
  top: "pool1"
  pooling_param {
    pool: MAX
    kernel_size: 2
    stride: 2
  }
}
layer {
  name: "conv2"
  type: "Convolution"
  bottom: "pool1"
  top: "conv2"
  convolution_param {
    num_output: 150
    pad: 0
    kernel_size: 4
    group: 1
    stride: 1
    weight_filler {
      type: "xavier"
    }
  }
}
layer {
  name: "conv2_prescale"
  type: "Scale"
  bottom: "conv2"
  top: "conv2"
  param {
    lr_mult: 0
    decay_mult: 0
  }
  scale_param {
    filler {
      value: 0.6666
    }
    bias_term: false
  }
}
layer {
  name: "conv2_sTanH"
  type: "TanH"
  bottom: "conv2"
  top: "conv2"
}
layer {
  name: "conv2_postscale"
  type: "Scale"
  bottom: "conv2"
  top: "conv2"
  param {
    lr_mult: 0
    decay_mult: 0
  }
  scale_param {
    filler {
      value: 1.7159
    }
    bias_term: false
  }
}
layer {
  name: "pool2"
  type: "Pooling"
  bottom: "conv2"
  top: "pool2"
  pooling_param {
    pool: MAX
    kernel_size: 2
    stride: 2
  }
}
layer {
  name: "conv3"
  type: "Convolution"
  bottom: "pool2"
  top: "conv3"
  convolution_param {
    num_output: 250
    pad: 0
    kernel_size: 4
    group: 1
    stride: 1
    weight_filler {
      type: "xavier"
    }
  }
}
layer {
  name: "conv3_prescale"
  type: "Scale"
  bottom: "conv3"
  top: "conv3"
  param {
    lr_mult: 0
    decay_mult: 0
  }
  scale_param {
    filler {
      value: 0.6666
    }
    bias_term: false
  }
}
layer {
  name: "conv3_sTanH"
  type: "TanH"
  bottom: "conv3"
  top: "conv3"
}
layer {
  name: "conv3_postscale"
  type: "Scale"
  bottom: "conv3"
  top: "conv3"
  param {
    lr_mult: 0
    decay_mult: 0
  }
  scale_param {
    filler {
      value: 1.7159
    }
    bias_term: false
  }
}
layer {
  name: "pool3"
  type: "Pooling"
  bottom: "conv3"
  top: "pool3"
  pooling_param {
    pool: MAX
    kernel_size: 2
    stride: 2
  }
}
layer {
  name: "fc4_300"
  type: "InnerProduct"
  bottom: "pool3"
  top: "fc4_300"
  inner_product_param {
    num_output: 300
    weight_filler {
      type: "xavier"
    }
  }
}
layer {
  name: "fc4_prescale"
  type: "Scale"
  bottom: "fc4_300"
  top: "fc4_300"
  param {
    lr_mult: 0
    decay_mult: 0
  }
  scale_param {
    filler {
      value: 0.6666
    }
    bias_term: false
  }
}
layer {
  name: "fc4_sTanH"
  type: "TanH"
  bottom: "fc4_300"
  top: "fc4_300"
}
layer {
  name: "fc4_postscale"
  type: "Scale"
  bottom: "fc4_300"
  top: "fc4_300"
  param {
    lr_mult: 0
    decay_mult: 0
  }
  scale_param {
    filler {
      value: 1.7159
    }
    bias_term: false
  }
}
layer {
  name: "fc5_67"
  type: "InnerProduct"
  bottom: "fc4_300"
  top: "fc5_classes"
  inner_product_param {
    num_output: 67
    weight_filler {
      type: "xavier"
    }
  }
}
layer {
  name: "softmax"
  type: "Softmax"
  bottom: "fc5_classes"
  top: "softmax"
}
layer {
  name: "loss"
  type: "MultinomialLogisticLoss"
  bottom: "softmax"
  bottom: "label"
  top: "loss"
}
layer {
  name: "accuracy_1"
  type: "Accuracy"
  bottom: "fc5_classes"
  bottom: "label"
  top: "accuracy_1"
  accuracy_param {
    top_k: 1
  }
}
layer {
  name: "accuracy_5"
  type: "Accuracy"
  bottom: "fc5_classes"
  bottom: "label"
  top: "accuracy_5"
  accuracy_param {
    top_k: 5
  }
}
layer {
  name: "silence"
  type: "Silence"
  bottom: "accuracy_1"
  bottom: "accuracy_5"
}
I0414 03:38:35.572440 19958 layer_factory.hpp:77] Creating layer data
I0414 03:38:35.573514 19958 net.cpp:100] Creating Layer data
I0414 03:38:35.573529 19958 net.cpp:408] data -> data
I0414 03:38:35.573551 19958 net.cpp:408] data -> label
I0414 03:38:35.577404 20063 db_lmdb.cpp:35] Opened lmdb ../local_data/lmdb/rtsd-r1/CoNorm/train/lmdb
I0414 03:38:35.602154 19958 data_layer.cpp:41] output data size: 1024,3,48,48
I0414 03:38:35.655020 19958 net.cpp:150] Setting up data
I0414 03:38:35.655050 19958 net.cpp:157] Top shape: 1024 3 48 48 (7077888)
I0414 03:38:35.655055 19958 net.cpp:157] Top shape: 1024 (1024)
I0414 03:38:35.655058 19958 net.cpp:165] Memory required for data: 28315648
I0414 03:38:35.655071 19958 layer_factory.hpp:77] Creating layer label_data_1_split
I0414 03:38:35.655084 19958 net.cpp:100] Creating Layer label_data_1_split
I0414 03:38:35.655092 19958 net.cpp:434] label_data_1_split <- label
I0414 03:38:35.655104 19958 net.cpp:408] label_data_1_split -> label_data_1_split_0
I0414 03:38:35.655118 19958 net.cpp:408] label_data_1_split -> label_data_1_split_1
I0414 03:38:35.655127 19958 net.cpp:408] label_data_1_split -> label_data_1_split_2
I0414 03:38:35.655196 19958 net.cpp:150] Setting up label_data_1_split
I0414 03:38:35.655205 19958 net.cpp:157] Top shape: 1024 (1024)
I0414 03:38:35.655208 19958 net.cpp:157] Top shape: 1024 (1024)
I0414 03:38:35.655212 19958 net.cpp:157] Top shape: 1024 (1024)
I0414 03:38:35.655215 19958 net.cpp:165] Memory required for data: 28327936
I0414 03:38:35.655218 19958 layer_factory.hpp:77] Creating layer conv1
I0414 03:38:35.655234 19958 net.cpp:100] Creating Layer conv1
I0414 03:38:35.655239 19958 net.cpp:434] conv1 <- data
I0414 03:38:35.655246 19958 net.cpp:408] conv1 -> conv1
I0414 03:38:36.009909 19958 net.cpp:150] Setting up conv1
I0414 03:38:36.009938 19958 net.cpp:157] Top shape: 1024 100 42 42 (180633600)
I0414 03:38:36.009943 19958 net.cpp:165] Memory required for data: 750862336
I0414 03:38:36.009965 19958 layer_factory.hpp:77] Creating layer conv1_prescale
I0414 03:38:36.009979 19958 net.cpp:100] Creating Layer conv1_prescale
I0414 03:38:36.009982 19958 net.cpp:434] conv1_prescale <- conv1
I0414 03:38:36.009989 19958 net.cpp:395] conv1_prescale -> conv1 (in-place)
I0414 03:38:36.010098 19958 net.cpp:150] Setting up conv1_prescale
I0414 03:38:36.010107 19958 net.cpp:157] Top shape: 1024 100 42 42 (180633600)
I0414 03:38:36.010112 19958 net.cpp:165] Memory required for data: 1473396736
I0414 03:38:36.010118 19958 layer_factory.hpp:77] Creating layer conv1_sTanH
I0414 03:38:36.010125 19958 net.cpp:100] Creating Layer conv1_sTanH
I0414 03:38:36.010130 19958 net.cpp:434] conv1_sTanH <- conv1
I0414 03:38:36.010135 19958 net.cpp:395] conv1_sTanH -> conv1 (in-place)
I0414 03:38:36.010329 19958 net.cpp:150] Setting up conv1_sTanH
I0414 03:38:36.010363 19958 net.cpp:157] Top shape: 1024 100 42 42 (180633600)
I0414 03:38:36.010367 19958 net.cpp:165] Memory required for data: 2195931136
I0414 03:38:36.010371 19958 layer_factory.hpp:77] Creating layer conv1_postscale
I0414 03:38:36.010378 19958 net.cpp:100] Creating Layer conv1_postscale
I0414 03:38:36.010382 19958 net.cpp:434] conv1_postscale <- conv1
I0414 03:38:36.010387 19958 net.cpp:395] conv1_postscale -> conv1 (in-place)
I0414 03:38:36.010481 19958 net.cpp:150] Setting up conv1_postscale
I0414 03:38:36.010489 19958 net.cpp:157] Top shape: 1024 100 42 42 (180633600)
I0414 03:38:36.010493 19958 net.cpp:165] Memory required for data: 2918465536
I0414 03:38:36.010499 19958 layer_factory.hpp:77] Creating layer pool1
I0414 03:38:36.010504 19958 net.cpp:100] Creating Layer pool1
I0414 03:38:36.010509 19958 net.cpp:434] pool1 <- conv1
I0414 03:38:36.010514 19958 net.cpp:408] pool1 -> pool1
I0414 03:38:36.010560 19958 net.cpp:150] Setting up pool1
I0414 03:38:36.010567 19958 net.cpp:157] Top shape: 1024 100 21 21 (45158400)
I0414 03:38:36.010571 19958 net.cpp:165] Memory required for data: 3099099136
I0414 03:38:36.010573 19958 layer_factory.hpp:77] Creating layer conv2
I0414 03:38:36.010583 19958 net.cpp:100] Creating Layer conv2
I0414 03:38:36.010586 19958 net.cpp:434] conv2 <- pool1
I0414 03:38:36.010591 19958 net.cpp:408] conv2 -> conv2
I0414 03:38:36.017061 19958 net.cpp:150] Setting up conv2
I0414 03:38:36.017081 19958 net.cpp:157] Top shape: 1024 150 18 18 (49766400)
I0414 03:38:36.017086 19958 net.cpp:165] Memory required for data: 3298164736
I0414 03:38:36.017097 19958 layer_factory.hpp:77] Creating layer conv2_prescale
I0414 03:38:36.017108 19958 net.cpp:100] Creating Layer conv2_prescale
I0414 03:38:36.017112 19958 net.cpp:434] conv2_prescale <- conv2
I0414 03:38:36.017118 19958 net.cpp:395] conv2_prescale -> conv2 (in-place)
I0414 03:38:36.017230 19958 net.cpp:150] Setting up conv2_prescale
I0414 03:38:36.017238 19958 net.cpp:157] Top shape: 1024 150 18 18 (49766400)
I0414 03:38:36.017241 19958 net.cpp:165] Memory required for data: 3497230336
I0414 03:38:36.017246 19958 layer_factory.hpp:77] Creating layer conv2_sTanH
I0414 03:38:36.017251 19958 net.cpp:100] Creating Layer conv2_sTanH
I0414 03:38:36.017256 19958 net.cpp:434] conv2_sTanH <- conv2
I0414 03:38:36.017259 19958 net.cpp:395] conv2_sTanH -> conv2 (in-place)
I0414 03:38:36.018208 19958 net.cpp:150] Setting up conv2_sTanH
I0414 03:38:36.018224 19958 net.cpp:157] Top shape: 1024 150 18 18 (49766400)
I0414 03:38:36.018229 19958 net.cpp:165] Memory required for data: 3696295936
I0414 03:38:36.018232 19958 layer_factory.hpp:77] Creating layer conv2_postscale
I0414 03:38:36.018239 19958 net.cpp:100] Creating Layer conv2_postscale
I0414 03:38:36.018244 19958 net.cpp:434] conv2_postscale <- conv2
I0414 03:38:36.018249 19958 net.cpp:395] conv2_postscale -> conv2 (in-place)
I0414 03:38:36.018347 19958 net.cpp:150] Setting up conv2_postscale
I0414 03:38:36.018355 19958 net.cpp:157] Top shape: 1024 150 18 18 (49766400)
I0414 03:38:36.018359 19958 net.cpp:165] Memory required for data: 3895361536
I0414 03:38:36.018364 19958 layer_factory.hpp:77] Creating layer pool2
I0414 03:38:36.018370 19958 net.cpp:100] Creating Layer pool2
I0414 03:38:36.018373 19958 net.cpp:434] pool2 <- conv2
I0414 03:38:36.018378 19958 net.cpp:408] pool2 -> pool2
I0414 03:38:36.018419 19958 net.cpp:150] Setting up pool2
I0414 03:38:36.018427 19958 net.cpp:157] Top shape: 1024 150 9 9 (12441600)
I0414 03:38:36.018430 19958 net.cpp:165] Memory required for data: 3945127936
I0414 03:38:36.018434 19958 layer_factory.hpp:77] Creating layer conv3
I0414 03:38:36.018441 19958 net.cpp:100] Creating Layer conv3
I0414 03:38:36.018446 19958 net.cpp:434] conv3 <- pool2
I0414 03:38:36.018451 19958 net.cpp:408] conv3 -> conv3
I0414 03:38:36.026597 19958 net.cpp:150] Setting up conv3
I0414 03:38:36.026633 19958 net.cpp:157] Top shape: 1024 250 6 6 (9216000)
I0414 03:38:36.026641 19958 net.cpp:165] Memory required for data: 3981991936
I0414 03:38:36.026662 19958 layer_factory.hpp:77] Creating layer conv3_prescale
I0414 03:38:36.026712 19958 net.cpp:100] Creating Layer conv3_prescale
I0414 03:38:36.026724 19958 net.cpp:434] conv3_prescale <- conv3
I0414 03:38:36.026738 19958 net.cpp:395] conv3_prescale -> conv3 (in-place)
I0414 03:38:36.026924 19958 net.cpp:150] Setting up conv3_prescale
I0414 03:38:36.026940 19958 net.cpp:157] Top shape: 1024 250 6 6 (9216000)
I0414 03:38:36.026949 19958 net.cpp:165] Memory required for data: 4018855936
I0414 03:38:36.026959 19958 layer_factory.hpp:77] Creating layer conv3_sTanH
I0414 03:38:36.026971 19958 net.cpp:100] Creating Layer conv3_sTanH
I0414 03:38:36.026979 19958 net.cpp:434] conv3_sTanH <- conv3
I0414 03:38:36.026988 19958 net.cpp:395] conv3_sTanH -> conv3 (in-place)
I0414 03:38:36.028692 19958 net.cpp:150] Setting up conv3_sTanH
I0414 03:38:36.028722 19958 net.cpp:157] Top shape: 1024 250 6 6 (9216000)
I0414 03:38:36.028731 19958 net.cpp:165] Memory required for data: 4055719936
I0414 03:38:36.028738 19958 layer_factory.hpp:77] Creating layer conv3_postscale
I0414 03:38:36.028754 19958 net.cpp:100] Creating Layer conv3_postscale
I0414 03:38:36.028764 19958 net.cpp:434] conv3_postscale <- conv3
I0414 03:38:36.028777 19958 net.cpp:395] conv3_postscale -> conv3 (in-place)
I0414 03:38:36.028972 19958 net.cpp:150] Setting up conv3_postscale
I0414 03:38:36.028988 19958 net.cpp:157] Top shape: 1024 250 6 6 (9216000)
I0414 03:38:36.028996 19958 net.cpp:165] Memory required for data: 4092583936
I0414 03:38:36.029006 19958 layer_factory.hpp:77] Creating layer pool3
I0414 03:38:36.029024 19958 net.cpp:100] Creating Layer pool3
I0414 03:38:36.029033 19958 net.cpp:434] pool3 <- conv3
I0414 03:38:36.029044 19958 net.cpp:408] pool3 -> pool3
I0414 03:38:36.029119 19958 net.cpp:150] Setting up pool3
I0414 03:38:36.029132 19958 net.cpp:157] Top shape: 1024 250 3 3 (2304000)
I0414 03:38:36.029140 19958 net.cpp:165] Memory required for data: 4101799936
I0414 03:38:36.029148 19958 layer_factory.hpp:77] Creating layer fc4_300
I0414 03:38:36.029162 19958 net.cpp:100] Creating Layer fc4_300
I0414 03:38:36.029170 19958 net.cpp:434] fc4_300 <- pool3
I0414 03:38:36.029181 19958 net.cpp:408] fc4_300 -> fc4_300
I0414 03:38:36.039134 19958 net.cpp:150] Setting up fc4_300
I0414 03:38:36.039155 19958 net.cpp:157] Top shape: 1024 300 (307200)
I0414 03:38:36.039160 19958 net.cpp:165] Memory required for data: 4103028736
I0414 03:38:36.039168 19958 layer_factory.hpp:77] Creating layer fc4_prescale
I0414 03:38:36.039178 19958 net.cpp:100] Creating Layer fc4_prescale
I0414 03:38:36.039183 19958 net.cpp:434] fc4_prescale <- fc4_300
I0414 03:38:36.039191 19958 net.cpp:395] fc4_prescale -> fc4_300 (in-place)
I0414 03:38:36.039296 19958 net.cpp:150] Setting up fc4_prescale
I0414 03:38:36.039307 19958 net.cpp:157] Top shape: 1024 300 (307200)
I0414 03:38:36.039311 19958 net.cpp:165] Memory required for data: 4104257536
I0414 03:38:36.039317 19958 layer_factory.hpp:77] Creating layer fc4_sTanH
I0414 03:38:36.039324 19958 net.cpp:100] Creating Layer fc4_sTanH
I0414 03:38:36.039327 19958 net.cpp:434] fc4_sTanH <- fc4_300
I0414 03:38:36.039332 19958 net.cpp:395] fc4_sTanH -> fc4_300 (in-place)
I0414 03:38:36.039569 19958 net.cpp:150] Setting up fc4_sTanH
I0414 03:38:36.039582 19958 net.cpp:157] Top shape: 1024 300 (307200)
I0414 03:38:36.039587 19958 net.cpp:165] Memory required for data: 4105486336
I0414 03:38:36.039590 19958 layer_factory.hpp:77] Creating layer fc4_postscale
I0414 03:38:36.039598 19958 net.cpp:100] Creating Layer fc4_postscale
I0414 03:38:36.039610 19958 net.cpp:434] fc4_postscale <- fc4_300
I0414 03:38:36.039616 19958 net.cpp:395] fc4_postscale -> fc4_300 (in-place)
I0414 03:38:36.039736 19958 net.cpp:150] Setting up fc4_postscale
I0414 03:38:36.039746 19958 net.cpp:157] Top shape: 1024 300 (307200)
I0414 03:38:36.039750 19958 net.cpp:165] Memory required for data: 4106715136
I0414 03:38:36.039755 19958 layer_factory.hpp:77] Creating layer fc5_67
I0414 03:38:36.039772 19958 net.cpp:100] Creating Layer fc5_67
I0414 03:38:36.039777 19958 net.cpp:434] fc5_67 <- fc4_300
I0414 03:38:36.039783 19958 net.cpp:408] fc5_67 -> fc5_classes
I0414 03:38:36.045331 19958 net.cpp:150] Setting up fc5_67
I0414 03:38:36.045361 19958 net.cpp:157] Top shape: 1024 67 (68608)
I0414 03:38:36.045367 19958 net.cpp:165] Memory required for data: 4106989568
I0414 03:38:36.045392 19958 layer_factory.hpp:77] Creating layer fc5_classes_fc5_67_0_split
I0414 03:38:36.045406 19958 net.cpp:100] Creating Layer fc5_classes_fc5_67_0_split
I0414 03:38:36.045415 19958 net.cpp:434] fc5_classes_fc5_67_0_split <- fc5_classes
I0414 03:38:36.045428 19958 net.cpp:408] fc5_classes_fc5_67_0_split -> fc5_classes_fc5_67_0_split_0
I0414 03:38:36.045445 19958 net.cpp:408] fc5_classes_fc5_67_0_split -> fc5_classes_fc5_67_0_split_1
I0414 03:38:36.045459 19958 net.cpp:408] fc5_classes_fc5_67_0_split -> fc5_classes_fc5_67_0_split_2
I0414 03:38:36.045552 19958 net.cpp:150] Setting up fc5_classes_fc5_67_0_split
I0414 03:38:36.045563 19958 net.cpp:157] Top shape: 1024 67 (68608)
I0414 03:38:36.045570 19958 net.cpp:157] Top shape: 1024 67 (68608)
I0414 03:38:36.045577 19958 net.cpp:157] Top shape: 1024 67 (68608)
I0414 03:38:36.045584 19958 net.cpp:165] Memory required for data: 4107812864
I0414 03:38:36.045589 19958 layer_factory.hpp:77] Creating layer softmax
I0414 03:38:36.045600 19958 net.cpp:100] Creating Layer softmax
I0414 03:38:36.045608 19958 net.cpp:434] softmax <- fc5_classes_fc5_67_0_split_0
I0414 03:38:36.045619 19958 net.cpp:408] softmax -> softmax
I0414 03:38:36.046087 19958 net.cpp:150] Setting up softmax
I0414 03:38:36.046108 19958 net.cpp:157] Top shape: 1024 67 (68608)
I0414 03:38:36.046115 19958 net.cpp:165] Memory required for data: 4108087296
I0414 03:38:36.046128 19958 layer_factory.hpp:77] Creating layer loss
I0414 03:38:36.046141 19958 net.cpp:100] Creating Layer loss
I0414 03:38:36.046149 19958 net.cpp:434] loss <- softmax
I0414 03:38:36.046160 19958 net.cpp:434] loss <- label_data_1_split_0
I0414 03:38:36.046171 19958 net.cpp:408] loss -> loss
…
