…
I0417 16:21:19.273501 19658 solver.cpp:93] Creating training net from train_net file: ./Prototxt/experiment_11/rtsd-r1/CoNorm/trial_1/train.prototxt
I0417 16:21:19.273962 19658 net.cpp:58] Initializing net from parameters: 
state {
  phase: TRAIN
  level: 0
  stage: ""
}
layer {
  name: "data"
  type: "Data"
  top: "data"
  top: "label"
  include {
    phase: TRAIN
  }
  transform_param {
    scale: 0.0039215689
    mirror: false
    crop_size: 48
    mean_value: 132
    mean_value: 132
    mean_value: 131
  }
  data_param {
    source: "../local_data/lmdb/rtsd-r1/CoNorm/train/lmdb"
    batch_size: 1024
    backend: LMDB
  }
}
layer {
  name: "conv1"
  type: "Convolution"
  bottom: "data"
  top: "conv1"
  convolution_param {
    num_output: 100
    pad: 0
    kernel_size: 7
    group: 1
    stride: 1
    weight_filler {
      type: "xavier"
    }
  }
}
layer {
  name: "conv1_prescale"
  type: "Scale"
  bottom: "conv1"
  top: "conv1"
  param {
    lr_mult: 0
    decay_mult: 0
  }
  scale_param {
    filler {
      value: 0.6666
    }
    bias_term: false
  }
}
layer {
  name: "conv1_sTanH"
  type: "TanH"
  bottom: "conv1"
  top: "conv1"
}
layer {
  name: "conv1_postscale"
  type: "Scale"
  bottom: "conv1"
  top: "conv1"
  param {
    lr_mult: 0
    decay_mult: 0
  }
  scale_param {
    filler {
      value: 1.7159
    }
    bias_term: false
  }
}
layer {
  name: "pool1"
  type: "Pooling"
  bottom: "conv1"
  top: "pool1"
  pooling_param {
    pool: MAX
    kernel_size: 2
    stride: 2
  }
}
layer {
  name: "conv2"
  type: "Convolution"
  bottom: "pool1"
  top: "conv2"
  convolution_param {
    num_output: 150
    pad: 0
    kernel_size: 4
    group: 1
    stride: 1
    weight_filler {
      type: "xavier"
    }
  }
}
layer {
  name: "conv2_prescale"
  type: "Scale"
  bottom: "conv2"
  top: "conv2"
  param {
    lr_mult: 0
    decay_mult: 0
  }
  scale_param {
    filler {
      value: 0.6666
    }
    bias_term: false
  }
}
layer {
  name: "conv2_sTanH"
  type: "TanH"
  bottom: "conv2"
  top: "conv2"
}
layer {
  name: "conv2_postscale"
  type: "Scale"
  bottom: "conv2"
  top: "conv2"
  param {
    lr_mult: 0
    decay_mult: 0
  }
  scale_param {
    filler {
      value: 1.7159
    }
    bias_term: false
  }
}
layer {
  name: "pool2"
  type: "Pooling"
  bottom: "conv2"
  top: "pool2"
  pooling_param {
    pool: MAX
    kernel_size: 2
    stride: 2
  }
}
layer {
  name: "conv3"
  type: "Convolution"
  bottom: "pool2"
  top: "conv3"
  convolution_param {
    num_output: 250
    pad: 0
    kernel_size: 4
    group: 1
    stride: 1
    weight_filler {
      type: "xavier"
    }
  }
}
layer {
  name: "conv3_prescale"
  type: "Scale"
  bottom: "conv3"
  top: "conv3"
  param {
    lr_mult: 0
    decay_mult: 0
  }
  scale_param {
    filler {
      value: 0.6666
    }
    bias_term: false
  }
}
layer {
  name: "conv3_sTanH"
  type: "TanH"
  bottom: "conv3"
  top: "conv3"
}
layer {
  name: "conv3_postscale"
  type: "Scale"
  bottom: "conv3"
  top: "conv3"
  param {
    lr_mult: 0
    decay_mult: 0
  }
  scale_param {
    filler {
      value: 1.7159
    }
    bias_term: false
  }
}
layer {
  name: "pool3"
  type: "Pooling"
  bottom: "conv3"
  top: "pool3"
  pooling_param {
    pool: MAX
    kernel_size: 2
    stride: 2
  }
}
layer {
  name: "fc4_300"
  type: "InnerProduct"
  bottom: "pool3"
  top: "fc4_300"
  inner_product_param {
    num_output: 300
    weight_filler {
      type: "xavier"
    }
  }
}
layer {
  name: "fc4_prescale"
  type: "Scale"
  bottom: "fc4_300"
  top: "fc4_300"
  param {
    lr_mult: 0
    decay_mult: 0
  }
  scale_param {
    filler {
      value: 0.6666
    }
    bias_term: false
  }
}
layer {
  name: "fc4_sTanH"
  type: "TanH"
  bottom: "fc4_300"
  top: "fc4_300"
}
layer {
  name: "fc4_postscale"
  type: "Scale"
  bottom: "fc4_300"
  top: "fc4_300"
  param {
    lr_mult: 0
    decay_mult: 0
  }
  scale_param {
    filler {
      value: 1.7159
    }
    bias_term: false
  }
}
layer {
  name: "fc5_67"
  type: "InnerProduct"
  bottom: "fc4_300"
  top: "fc5_classes"
  inner_product_param {
    num_output: 67
    weight_filler {
      type: "xavier"
    }
  }
}
layer {
  name: "softmax"
  type: "Softmax"
  bottom: "fc5_classes"
  top: "softmax"
}
layer {
  name: "loss"
  type: "MultinomialLogisticLoss"
  bottom: "softmax"
  bottom: "label"
  top: "loss"
}
layer {
  name: "accuracy_1"
  type: "Accuracy"
  bottom: "fc5_classes"
  bottom: "label"
  top: "accuracy_1"
  accuracy_param {
    top_k: 1
  }
}
layer {
  name: "accuracy_5"
  type: "Accuracy"
  bottom: "fc5_classes"
  bottom: "label"
  top: "accuracy_5"
  accuracy_param {
    top_k: 5
  }
}
layer {
  name: "silence"
  type: "Silence"
  bottom: "accuracy_1"
  bottom: "accuracy_5"
}
I0417 16:21:19.274125 19658 layer_factory.hpp:77] Creating layer data
I0417 16:21:19.275187 19658 net.cpp:100] Creating Layer data
I0417 16:21:19.275202 19658 net.cpp:408] data -> data
I0417 16:21:19.275223 19658 net.cpp:408] data -> label
I0417 16:21:19.276289 19813 db_lmdb.cpp:35] Opened lmdb ../local_data/lmdb/rtsd-r1/CoNorm/train/lmdb
I0417 16:21:19.292897 19658 data_layer.cpp:41] output data size: 1024,3,48,48
I0417 16:21:19.342568 19658 net.cpp:150] Setting up data
I0417 16:21:19.342602 19658 net.cpp:157] Top shape: 1024 3 48 48 (7077888)
I0417 16:21:19.342610 19658 net.cpp:157] Top shape: 1024 (1024)
I0417 16:21:19.342615 19658 net.cpp:165] Memory required for data: 28315648
I0417 16:21:19.342630 19658 layer_factory.hpp:77] Creating layer label_data_1_split
I0417 16:21:19.342651 19658 net.cpp:100] Creating Layer label_data_1_split
I0417 16:21:19.342664 19658 net.cpp:434] label_data_1_split <- label
I0417 16:21:19.342684 19658 net.cpp:408] label_data_1_split -> label_data_1_split_0
I0417 16:21:19.342701 19658 net.cpp:408] label_data_1_split -> label_data_1_split_1
I0417 16:21:19.342713 19658 net.cpp:408] label_data_1_split -> label_data_1_split_2
I0417 16:21:19.342797 19658 net.cpp:150] Setting up label_data_1_split
I0417 16:21:19.342808 19658 net.cpp:157] Top shape: 1024 (1024)
I0417 16:21:19.342816 19658 net.cpp:157] Top shape: 1024 (1024)
I0417 16:21:19.342825 19658 net.cpp:157] Top shape: 1024 (1024)
I0417 16:21:19.342831 19658 net.cpp:165] Memory required for data: 28327936
I0417 16:21:19.342839 19658 layer_factory.hpp:77] Creating layer conv1
I0417 16:21:19.342864 19658 net.cpp:100] Creating Layer conv1
I0417 16:21:19.342871 19658 net.cpp:434] conv1 <- data
I0417 16:21:19.342882 19658 net.cpp:408] conv1 -> conv1
I0417 16:21:19.886101 19658 net.cpp:150] Setting up conv1
I0417 16:21:19.886131 19658 net.cpp:157] Top shape: 1024 100 42 42 (180633600)
I0417 16:21:19.886134 19658 net.cpp:165] Memory required for data: 750862336
I0417 16:21:19.886157 19658 layer_factory.hpp:77] Creating layer conv1_prescale
I0417 16:21:19.886173 19658 net.cpp:100] Creating Layer conv1_prescale
I0417 16:21:19.886178 19658 net.cpp:434] conv1_prescale <- conv1
I0417 16:21:19.886184 19658 net.cpp:395] conv1_prescale -> conv1 (in-place)
I0417 16:21:19.886296 19658 net.cpp:150] Setting up conv1_prescale
I0417 16:21:19.886304 19658 net.cpp:157] Top shape: 1024 100 42 42 (180633600)
I0417 16:21:19.886308 19658 net.cpp:165] Memory required for data: 1473396736
I0417 16:21:19.886315 19658 layer_factory.hpp:77] Creating layer conv1_sTanH
I0417 16:21:19.886324 19658 net.cpp:100] Creating Layer conv1_sTanH
I0417 16:21:19.886329 19658 net.cpp:434] conv1_sTanH <- conv1
I0417 16:21:19.886333 19658 net.cpp:395] conv1_sTanH -> conv1 (in-place)
I0417 16:21:19.886533 19658 net.cpp:150] Setting up conv1_sTanH
I0417 16:21:19.886567 19658 net.cpp:157] Top shape: 1024 100 42 42 (180633600)
I0417 16:21:19.886572 19658 net.cpp:165] Memory required for data: 2195931136
I0417 16:21:19.886575 19658 layer_factory.hpp:77] Creating layer conv1_postscale
I0417 16:21:19.886582 19658 net.cpp:100] Creating Layer conv1_postscale
I0417 16:21:19.886589 19658 net.cpp:434] conv1_postscale <- conv1
I0417 16:21:19.886593 19658 net.cpp:395] conv1_postscale -> conv1 (in-place)
I0417 16:21:19.886693 19658 net.cpp:150] Setting up conv1_postscale
I0417 16:21:19.886701 19658 net.cpp:157] Top shape: 1024 100 42 42 (180633600)
I0417 16:21:19.886706 19658 net.cpp:165] Memory required for data: 2918465536
I0417 16:21:19.886711 19658 layer_factory.hpp:77] Creating layer pool1
I0417 16:21:19.886718 19658 net.cpp:100] Creating Layer pool1
I0417 16:21:19.886723 19658 net.cpp:434] pool1 <- conv1
I0417 16:21:19.886729 19658 net.cpp:408] pool1 -> pool1
I0417 16:21:19.886777 19658 net.cpp:150] Setting up pool1
I0417 16:21:19.886786 19658 net.cpp:157] Top shape: 1024 100 21 21 (45158400)
I0417 16:21:19.886790 19658 net.cpp:165] Memory required for data: 3099099136
I0417 16:21:19.886793 19658 layer_factory.hpp:77] Creating layer conv2
I0417 16:21:19.886803 19658 net.cpp:100] Creating Layer conv2
I0417 16:21:19.886808 19658 net.cpp:434] conv2 <- pool1
I0417 16:21:19.886813 19658 net.cpp:408] conv2 -> conv2
I0417 16:21:19.894815 19658 net.cpp:150] Setting up conv2
I0417 16:21:19.894845 19658 net.cpp:157] Top shape: 1024 150 18 18 (49766400)
I0417 16:21:19.894850 19658 net.cpp:165] Memory required for data: 3298164736
I0417 16:21:19.894865 19658 layer_factory.hpp:77] Creating layer conv2_prescale
I0417 16:21:19.894881 19658 net.cpp:100] Creating Layer conv2_prescale
I0417 16:21:19.894886 19658 net.cpp:434] conv2_prescale <- conv2
I0417 16:21:19.894892 19658 net.cpp:395] conv2_prescale -> conv2 (in-place)
I0417 16:21:19.895017 19658 net.cpp:150] Setting up conv2_prescale
I0417 16:21:19.895026 19658 net.cpp:157] Top shape: 1024 150 18 18 (49766400)
I0417 16:21:19.895030 19658 net.cpp:165] Memory required for data: 3497230336
I0417 16:21:19.895043 19658 layer_factory.hpp:77] Creating layer conv2_sTanH
I0417 16:21:19.895051 19658 net.cpp:100] Creating Layer conv2_sTanH
I0417 16:21:19.895056 19658 net.cpp:434] conv2_sTanH <- conv2
I0417 16:21:19.895061 19658 net.cpp:395] conv2_sTanH -> conv2 (in-place)
I0417 16:21:19.896632 19658 net.cpp:150] Setting up conv2_sTanH
I0417 16:21:19.896649 19658 net.cpp:157] Top shape: 1024 150 18 18 (49766400)
I0417 16:21:19.896653 19658 net.cpp:165] Memory required for data: 3696295936
I0417 16:21:19.896656 19658 layer_factory.hpp:77] Creating layer conv2_postscale
I0417 16:21:19.896664 19658 net.cpp:100] Creating Layer conv2_postscale
I0417 16:21:19.896669 19658 net.cpp:434] conv2_postscale <- conv2
I0417 16:21:19.896675 19658 net.cpp:395] conv2_postscale -> conv2 (in-place)
I0417 16:21:19.896775 19658 net.cpp:150] Setting up conv2_postscale
I0417 16:21:19.896783 19658 net.cpp:157] Top shape: 1024 150 18 18 (49766400)
I0417 16:21:19.896787 19658 net.cpp:165] Memory required for data: 3895361536
I0417 16:21:19.896793 19658 layer_factory.hpp:77] Creating layer pool2
I0417 16:21:19.896800 19658 net.cpp:100] Creating Layer pool2
I0417 16:21:19.896806 19658 net.cpp:434] pool2 <- conv2
I0417 16:21:19.896811 19658 net.cpp:408] pool2 -> pool2
I0417 16:21:19.896855 19658 net.cpp:150] Setting up pool2
I0417 16:21:19.896863 19658 net.cpp:157] Top shape: 1024 150 9 9 (12441600)
I0417 16:21:19.896867 19658 net.cpp:165] Memory required for data: 3945127936
I0417 16:21:19.896872 19658 layer_factory.hpp:77] Creating layer conv3
I0417 16:21:19.896880 19658 net.cpp:100] Creating Layer conv3
I0417 16:21:19.896885 19658 net.cpp:434] conv3 <- pool2
I0417 16:21:19.896890 19658 net.cpp:408] conv3 -> conv3
I0417 16:21:19.903357 19658 net.cpp:150] Setting up conv3
I0417 16:21:19.903389 19658 net.cpp:157] Top shape: 1024 250 6 6 (9216000)
I0417 16:21:19.903394 19658 net.cpp:165] Memory required for data: 3981991936
I0417 16:21:19.903409 19658 layer_factory.hpp:77] Creating layer conv3_prescale
I0417 16:21:19.903445 19658 net.cpp:100] Creating Layer conv3_prescale
I0417 16:21:19.903452 19658 net.cpp:434] conv3_prescale <- conv3
I0417 16:21:19.903460 19658 net.cpp:395] conv3_prescale -> conv3 (in-place)
I0417 16:21:19.903563 19658 net.cpp:150] Setting up conv3_prescale
I0417 16:21:19.903571 19658 net.cpp:157] Top shape: 1024 250 6 6 (9216000)
I0417 16:21:19.903574 19658 net.cpp:165] Memory required for data: 4018855936
I0417 16:21:19.903580 19658 layer_factory.hpp:77] Creating layer conv3_sTanH
I0417 16:21:19.903587 19658 net.cpp:100] Creating Layer conv3_sTanH
I0417 16:21:19.903592 19658 net.cpp:434] conv3_sTanH <- conv3
I0417 16:21:19.903597 19658 net.cpp:395] conv3_sTanH -> conv3 (in-place)
I0417 16:21:19.905179 19658 net.cpp:150] Setting up conv3_sTanH
I0417 16:21:19.905200 19658 net.cpp:157] Top shape: 1024 250 6 6 (9216000)
I0417 16:21:19.905205 19658 net.cpp:165] Memory required for data: 4055719936
I0417 16:21:19.905208 19658 layer_factory.hpp:77] Creating layer conv3_postscale
I0417 16:21:19.905217 19658 net.cpp:100] Creating Layer conv3_postscale
I0417 16:21:19.905222 19658 net.cpp:434] conv3_postscale <- conv3
I0417 16:21:19.905230 19658 net.cpp:395] conv3_postscale -> conv3 (in-place)
I0417 16:21:19.905333 19658 net.cpp:150] Setting up conv3_postscale
I0417 16:21:19.905341 19658 net.cpp:157] Top shape: 1024 250 6 6 (9216000)
I0417 16:21:19.905344 19658 net.cpp:165] Memory required for data: 4092583936
I0417 16:21:19.905350 19658 layer_factory.hpp:77] Creating layer pool3
I0417 16:21:19.905364 19658 net.cpp:100] Creating Layer pool3
I0417 16:21:19.905367 19658 net.cpp:434] pool3 <- conv3
I0417 16:21:19.905374 19658 net.cpp:408] pool3 -> pool3
I0417 16:21:19.905416 19658 net.cpp:150] Setting up pool3
I0417 16:21:19.905423 19658 net.cpp:157] Top shape: 1024 250 3 3 (2304000)
I0417 16:21:19.905426 19658 net.cpp:165] Memory required for data: 4101799936
I0417 16:21:19.905429 19658 layer_factory.hpp:77] Creating layer fc4_300
I0417 16:21:19.905436 19658 net.cpp:100] Creating Layer fc4_300
I0417 16:21:19.905441 19658 net.cpp:434] fc4_300 <- pool3
I0417 16:21:19.905447 19658 net.cpp:408] fc4_300 -> fc4_300
I0417 16:21:19.911973 19658 net.cpp:150] Setting up fc4_300
I0417 16:21:19.912004 19658 net.cpp:157] Top shape: 1024 300 (307200)
I0417 16:21:19.912008 19658 net.cpp:165] Memory required for data: 4103028736
I0417 16:21:19.912019 19658 layer_factory.hpp:77] Creating layer fc4_prescale
I0417 16:21:19.912030 19658 net.cpp:100] Creating Layer fc4_prescale
I0417 16:21:19.912037 19658 net.cpp:434] fc4_prescale <- fc4_300
I0417 16:21:19.912045 19658 net.cpp:395] fc4_prescale -> fc4_300 (in-place)
I0417 16:21:19.912138 19658 net.cpp:150] Setting up fc4_prescale
I0417 16:21:19.912147 19658 net.cpp:157] Top shape: 1024 300 (307200)
I0417 16:21:19.912149 19658 net.cpp:165] Memory required for data: 4104257536
I0417 16:21:19.912160 19658 layer_factory.hpp:77] Creating layer fc4_sTanH
I0417 16:21:19.912168 19658 net.cpp:100] Creating Layer fc4_sTanH
I0417 16:21:19.912173 19658 net.cpp:434] fc4_sTanH <- fc4_300
I0417 16:21:19.912178 19658 net.cpp:395] fc4_sTanH -> fc4_300 (in-place)
I0417 16:21:19.912408 19658 net.cpp:150] Setting up fc4_sTanH
I0417 16:21:19.912420 19658 net.cpp:157] Top shape: 1024 300 (307200)
I0417 16:21:19.912425 19658 net.cpp:165] Memory required for data: 4105486336
I0417 16:21:19.912427 19658 layer_factory.hpp:77] Creating layer fc4_postscale
I0417 16:21:19.912434 19658 net.cpp:100] Creating Layer fc4_postscale
I0417 16:21:19.912439 19658 net.cpp:434] fc4_postscale <- fc4_300
I0417 16:21:19.912444 19658 net.cpp:395] fc4_postscale -> fc4_300 (in-place)
I0417 16:21:19.912538 19658 net.cpp:150] Setting up fc4_postscale
I0417 16:21:19.912545 19658 net.cpp:157] Top shape: 1024 300 (307200)
I0417 16:21:19.912549 19658 net.cpp:165] Memory required for data: 4106715136
I0417 16:21:19.912554 19658 layer_factory.hpp:77] Creating layer fc5_67
I0417 16:21:19.912562 19658 net.cpp:100] Creating Layer fc5_67
I0417 16:21:19.912566 19658 net.cpp:434] fc5_67 <- fc4_300
I0417 16:21:19.912571 19658 net.cpp:408] fc5_67 -> fc5_classes
I0417 16:21:19.914448 19658 net.cpp:150] Setting up fc5_67
I0417 16:21:19.914463 19658 net.cpp:157] Top shape: 1024 67 (68608)
I0417 16:21:19.914465 19658 net.cpp:165] Memory required for data: 4106989568
I0417 16:21:19.914477 19658 layer_factory.hpp:77] Creating layer fc5_classes_fc5_67_0_split
I0417 16:21:19.914485 19658 net.cpp:100] Creating Layer fc5_classes_fc5_67_0_split
I0417 16:21:19.914489 19658 net.cpp:434] fc5_classes_fc5_67_0_split <- fc5_classes
I0417 16:21:19.914494 19658 net.cpp:408] fc5_classes_fc5_67_0_split -> fc5_classes_fc5_67_0_split_0
I0417 16:21:19.914502 19658 net.cpp:408] fc5_classes_fc5_67_0_split -> fc5_classes_fc5_67_0_split_1
I0417 16:21:19.914508 19658 net.cpp:408] fc5_classes_fc5_67_0_split -> fc5_classes_fc5_67_0_split_2
I0417 16:21:19.914558 19658 net.cpp:150] Setting up fc5_classes_fc5_67_0_split
I0417 16:21:19.914566 19658 net.cpp:157] Top shape: 1024 67 (68608)
I0417 16:21:19.914569 19658 net.cpp:157] Top shape: 1024 67 (68608)
I0417 16:21:19.914572 19658 net.cpp:157] Top shape: 1024 67 (68608)
I0417 16:21:19.914574 19658 net.cpp:165] Memory required for data: 4107812864
I0417 16:21:19.914578 19658 layer_factory.hpp:77] Creating layer softmax
I0417 16:21:19.914584 19658 net.cpp:100] Creating Layer softmax
I0417 16:21:19.914587 19658 net.cpp:434] softmax <- fc5_classes_fc5_67_0_split_0
I0417 16:21:19.914592 19658 net.cpp:408] softmax -> softmax
I0417 16:21:19.914845 19658 net.cpp:150] Setting up softmax
I0417 16:21:19.914857 19658 net.cpp:157] Top shape: 1024 67 (68608)
I0417 16:21:19.914860 19658 net.cpp:165] Memory required for data: 4108087296
I0417 16:21:19.914865 19658 layer_factory.hpp:77] Creating layer loss
I0417 16:21:19.914870 19658 net.cpp:100] Creating Layer loss
I0417 16:21:19.914875 19658 net.cpp:434] loss <- softmax
I0417 16:21:19.914880 19658 net.cpp:434] loss <- label_data_1_split_0
I0417 16:21:19.914885 19658 net.cpp:408] loss -> loss
…
