…
I0414 03:24:55.524637  9470 solver.cpp:93] Creating training net from train_net file: ./Prototxt/experiment_11/rtsd-r1/CoNorm/trial_1/train.prototxt
I0414 03:24:55.525086  9470 net.cpp:58] Initializing net from parameters: 
state {
  phase: TRAIN
  level: 0
  stage: ""
}
layer {
  name: "data"
  type: "Data"
  top: "data"
  top: "label"
  include {
    phase: TRAIN
  }
  transform_param {
    scale: 0.0039215689
    mirror: false
    crop_size: 48
    mean_value: 132
    mean_value: 132
    mean_value: 131
  }
  data_param {
    source: "../local_data/lmdb/rtsd-r1/CoNorm/train/lmdb"
    batch_size: 1024
    backend: LMDB
  }
}
layer {
  name: "conv1"
  type: "Convolution"
  bottom: "data"
  top: "conv1"
  convolution_param {
    num_output: 100
    pad: 0
    kernel_size: 7
    group: 1
    stride: 1
    weight_filler {
      type: "xavier"
    }
  }
}
layer {
  name: "conv1_prescale"
  type: "Scale"
  bottom: "conv1"
  top: "conv1"
  param {
    lr_mult: 0
    decay_mult: 0
  }
  scale_param {
    filler {
      value: 0.6666
    }
    bias_term: false
  }
}
layer {
  name: "conv1_sTanH"
  type: "TanH"
  bottom: "conv1"
  top: "conv1"
}
layer {
  name: "conv1_postscale"
  type: "Scale"
  bottom: "conv1"
  top: "conv1"
  param {
    lr_mult: 0
    decay_mult: 0
  }
  scale_param {
    filler {
      value: 1.7159
    }
    bias_term: false
  }
}
layer {
  name: "pool1"
  type: "Pooling"
  bottom: "conv1"
  top: "pool1"
  pooling_param {
    pool: MAX
    kernel_size: 2
    stride: 2
  }
}
layer {
  name: "conv2"
  type: "Convolution"
  bottom: "pool1"
  top: "conv2"
  convolution_param {
    num_output: 150
    pad: 0
    kernel_size: 4
    group: 1
    stride: 1
    weight_filler {
      type: "xavier"
    }
  }
}
layer {
  name: "conv2_prescale"
  type: "Scale"
  bottom: "conv2"
  top: "conv2"
  param {
    lr_mult: 0
    decay_mult: 0
  }
  scale_param {
    filler {
      value: 0.6666
    }
    bias_term: false
  }
}
layer {
  name: "conv2_sTanH"
  type: "TanH"
  bottom: "conv2"
  top: "conv2"
}
layer {
  name: "conv2_postscale"
  type: "Scale"
  bottom: "conv2"
  top: "conv2"
  param {
    lr_mult: 0
    decay_mult: 0
  }
  scale_param {
    filler {
      value: 1.7159
    }
    bias_term: false
  }
}
layer {
  name: "pool2"
  type: "Pooling"
  bottom: "conv2"
  top: "pool2"
  pooling_param {
    pool: MAX
    kernel_size: 2
    stride: 2
  }
}
layer {
  name: "conv3"
  type: "Convolution"
  bottom: "pool2"
  top: "conv3"
  convolution_param {
    num_output: 250
    pad: 0
    kernel_size: 4
    group: 1
    stride: 1
    weight_filler {
      type: "xavier"
    }
  }
}
layer {
  name: "conv3_prescale"
  type: "Scale"
  bottom: "conv3"
  top: "conv3"
  param {
    lr_mult: 0
    decay_mult: 0
  }
  scale_param {
    filler {
      value: 0.6666
    }
    bias_term: false
  }
}
layer {
  name: "conv3_sTanH"
  type: "TanH"
  bottom: "conv3"
  top: "conv3"
}
layer {
  name: "conv3_postscale"
  type: "Scale"
  bottom: "conv3"
  top: "conv3"
  param {
    lr_mult: 0
    decay_mult: 0
  }
  scale_param {
    filler {
      value: 1.7159
    }
    bias_term: false
  }
}
layer {
  name: "pool3"
  type: "Pooling"
  bottom: "conv3"
  top: "pool3"
  pooling_param {
    pool: MAX
    kernel_size: 2
    stride: 2
  }
}
layer {
  name: "fc4_300"
  type: "InnerProduct"
  bottom: "pool3"
  top: "fc4_300"
  inner_product_param {
    num_output: 300
    weight_filler {
      type: "xavier"
    }
  }
}
layer {
  name: "fc4_prescale"
  type: "Scale"
  bottom: "fc4_300"
  top: "fc4_300"
  param {
    lr_mult: 0
    decay_mult: 0
  }
  scale_param {
    filler {
      value: 0.6666
    }
    bias_term: false
  }
}
layer {
  name: "fc4_sTanH"
  type: "TanH"
  bottom: "fc4_300"
  top: "fc4_300"
}
layer {
  name: "fc4_postscale"
  type: "Scale"
  bottom: "fc4_300"
  top: "fc4_300"
  param {
    lr_mult: 0
    decay_mult: 0
  }
  scale_param {
    filler {
      value: 1.7159
    }
    bias_term: false
  }
}
layer {
  name: "fc5_67"
  type: "InnerProduct"
  bottom: "fc4_300"
  top: "fc5_classes"
  inner_product_param {
    num_output: 67
    weight_filler {
      type: "xavier"
    }
  }
}
layer {
  name: "softmax"
  type: "Softmax"
  bottom: "fc5_classes"
  top: "softmax"
}
layer {
  name: "loss"
  type: "MultinomialLogisticLoss"
  bottom: "softmax"
  bottom: "label"
  top: "loss"
}
layer {
  name: "accuracy_1"
  type: "Accuracy"
  bottom: "fc5_classes"
  bottom: "label"
  top: "accuracy_1"
  accuracy_param {
    top_k: 1
  }
}
layer {
  name: "accuracy_5"
  type: "Accuracy"
  bottom: "fc5_classes"
  bottom: "label"
  top: "accuracy_5"
  accuracy_param {
    top_k: 5
  }
}
layer {
  name: "silence"
  type: "Silence"
  bottom: "accuracy_1"
  bottom: "accuracy_5"
}
I0414 03:24:55.525241  9470 layer_factory.hpp:77] Creating layer data
I0414 03:24:55.526307  9470 net.cpp:100] Creating Layer data
I0414 03:24:55.526322  9470 net.cpp:408] data -> data
I0414 03:24:55.526343  9470 net.cpp:408] data -> label
I0414 03:24:55.527326  9571 db_lmdb.cpp:35] Opened lmdb ../local_data/lmdb/rtsd-r1/CoNorm/train/lmdb
I0414 03:24:55.549679  9470 data_layer.cpp:41] output data size: 1024,3,48,48
I0414 03:24:55.630409  9470 net.cpp:150] Setting up data
I0414 03:24:55.630437  9470 net.cpp:157] Top shape: 1024 3 48 48 (7077888)
I0414 03:24:55.630444  9470 net.cpp:157] Top shape: 1024 (1024)
I0414 03:24:55.630446  9470 net.cpp:165] Memory required for data: 28315648
I0414 03:24:55.630457  9470 layer_factory.hpp:77] Creating layer label_data_1_split
I0414 03:24:55.630475  9470 net.cpp:100] Creating Layer label_data_1_split
I0414 03:24:55.630481  9470 net.cpp:434] label_data_1_split <- label
I0414 03:24:55.630494  9470 net.cpp:408] label_data_1_split -> label_data_1_split_0
I0414 03:24:55.630508  9470 net.cpp:408] label_data_1_split -> label_data_1_split_1
I0414 03:24:55.630517  9470 net.cpp:408] label_data_1_split -> label_data_1_split_2
I0414 03:24:55.630604  9470 net.cpp:150] Setting up label_data_1_split
I0414 03:24:55.630614  9470 net.cpp:157] Top shape: 1024 (1024)
I0414 03:24:55.630619  9470 net.cpp:157] Top shape: 1024 (1024)
I0414 03:24:55.630621  9470 net.cpp:157] Top shape: 1024 (1024)
I0414 03:24:55.630625  9470 net.cpp:165] Memory required for data: 28327936
I0414 03:24:55.630628  9470 layer_factory.hpp:77] Creating layer conv1
I0414 03:24:55.630645  9470 net.cpp:100] Creating Layer conv1
I0414 03:24:55.630650  9470 net.cpp:434] conv1 <- data
I0414 03:24:55.630656  9470 net.cpp:408] conv1 -> conv1
I0414 03:24:55.977509  9470 net.cpp:150] Setting up conv1
I0414 03:24:55.977547  9470 net.cpp:157] Top shape: 1024 100 42 42 (180633600)
I0414 03:24:55.977556  9470 net.cpp:165] Memory required for data: 750862336
I0414 03:24:55.977589  9470 layer_factory.hpp:77] Creating layer conv1_prescale
I0414 03:24:55.977612  9470 net.cpp:100] Creating Layer conv1_prescale
I0414 03:24:55.977623  9470 net.cpp:434] conv1_prescale <- conv1
I0414 03:24:55.977638  9470 net.cpp:395] conv1_prescale -> conv1 (in-place)
I0414 03:24:55.977805  9470 net.cpp:150] Setting up conv1_prescale
I0414 03:24:55.977823  9470 net.cpp:157] Top shape: 1024 100 42 42 (180633600)
I0414 03:24:55.977831  9470 net.cpp:165] Memory required for data: 1473396736
I0414 03:24:55.977846  9470 layer_factory.hpp:77] Creating layer conv1_sTanH
I0414 03:24:55.977862  9470 net.cpp:100] Creating Layer conv1_sTanH
I0414 03:24:55.977870  9470 net.cpp:434] conv1_sTanH <- conv1
I0414 03:24:55.977881  9470 net.cpp:395] conv1_sTanH -> conv1 (in-place)
I0414 03:24:55.978178  9470 net.cpp:150] Setting up conv1_sTanH
I0414 03:24:55.978225  9470 net.cpp:157] Top shape: 1024 100 42 42 (180633600)
I0414 03:24:55.978235  9470 net.cpp:165] Memory required for data: 2195931136
I0414 03:24:55.978245  9470 layer_factory.hpp:77] Creating layer conv1_postscale
I0414 03:24:55.978260  9470 net.cpp:100] Creating Layer conv1_postscale
I0414 03:24:55.978269  9470 net.cpp:434] conv1_postscale <- conv1
I0414 03:24:55.978281  9470 net.cpp:395] conv1_postscale -> conv1 (in-place)
I0414 03:24:55.978435  9470 net.cpp:150] Setting up conv1_postscale
I0414 03:24:55.978451  9470 net.cpp:157] Top shape: 1024 100 42 42 (180633600)
I0414 03:24:55.978459  9470 net.cpp:165] Memory required for data: 2918465536
I0414 03:24:55.978469  9470 layer_factory.hpp:77] Creating layer pool1
I0414 03:24:55.978483  9470 net.cpp:100] Creating Layer pool1
I0414 03:24:55.978492  9470 net.cpp:434] pool1 <- conv1
I0414 03:24:55.978503  9470 net.cpp:408] pool1 -> pool1
I0414 03:24:55.978579  9470 net.cpp:150] Setting up pool1
I0414 03:24:55.978595  9470 net.cpp:157] Top shape: 1024 100 21 21 (45158400)
I0414 03:24:55.978605  9470 net.cpp:165] Memory required for data: 3099099136
I0414 03:24:55.978612  9470 layer_factory.hpp:77] Creating layer conv2
I0414 03:24:55.978631  9470 net.cpp:100] Creating Layer conv2
I0414 03:24:55.978639  9470 net.cpp:434] conv2 <- pool1
I0414 03:24:55.978652  9470 net.cpp:408] conv2 -> conv2
I0414 03:24:55.988919  9470 net.cpp:150] Setting up conv2
I0414 03:24:55.988945  9470 net.cpp:157] Top shape: 1024 150 18 18 (49766400)
I0414 03:24:55.988952  9470 net.cpp:165] Memory required for data: 3298164736
I0414 03:24:55.988970  9470 layer_factory.hpp:77] Creating layer conv2_prescale
I0414 03:24:55.988987  9470 net.cpp:100] Creating Layer conv2_prescale
I0414 03:24:55.988998  9470 net.cpp:434] conv2_prescale <- conv2
I0414 03:24:55.989008  9470 net.cpp:395] conv2_prescale -> conv2 (in-place)
I0414 03:24:55.989171  9470 net.cpp:150] Setting up conv2_prescale
I0414 03:24:55.989187  9470 net.cpp:157] Top shape: 1024 150 18 18 (49766400)
I0414 03:24:55.989192  9470 net.cpp:165] Memory required for data: 3497230336
I0414 03:24:55.989202  9470 layer_factory.hpp:77] Creating layer conv2_sTanH
I0414 03:24:55.989212  9470 net.cpp:100] Creating Layer conv2_sTanH
I0414 03:24:55.989220  9470 net.cpp:434] conv2_sTanH <- conv2
I0414 03:24:55.989229  9470 net.cpp:395] conv2_sTanH -> conv2 (in-place)
I0414 03:24:55.990288  9470 net.cpp:150] Setting up conv2_sTanH
I0414 03:24:55.990311  9470 net.cpp:157] Top shape: 1024 150 18 18 (49766400)
I0414 03:24:55.990320  9470 net.cpp:165] Memory required for data: 3696295936
I0414 03:24:55.990329  9470 layer_factory.hpp:77] Creating layer conv2_postscale
I0414 03:24:55.990342  9470 net.cpp:100] Creating Layer conv2_postscale
I0414 03:24:55.990352  9470 net.cpp:434] conv2_postscale <- conv2
I0414 03:24:55.990365  9470 net.cpp:395] conv2_postscale -> conv2 (in-place)
I0414 03:24:55.990511  9470 net.cpp:150] Setting up conv2_postscale
I0414 03:24:55.990527  9470 net.cpp:157] Top shape: 1024 150 18 18 (49766400)
I0414 03:24:55.990535  9470 net.cpp:165] Memory required for data: 3895361536
I0414 03:24:55.990545  9470 layer_factory.hpp:77] Creating layer pool2
I0414 03:24:55.990556  9470 net.cpp:100] Creating Layer pool2
I0414 03:24:55.990566  9470 net.cpp:434] pool2 <- conv2
I0414 03:24:55.990577  9470 net.cpp:408] pool2 -> pool2
I0414 03:24:55.990644  9470 net.cpp:150] Setting up pool2
I0414 03:24:55.990660  9470 net.cpp:157] Top shape: 1024 150 9 9 (12441600)
I0414 03:24:55.990669  9470 net.cpp:165] Memory required for data: 3945127936
I0414 03:24:55.990674  9470 layer_factory.hpp:77] Creating layer conv3
I0414 03:24:55.990689  9470 net.cpp:100] Creating Layer conv3
I0414 03:24:55.990698  9470 net.cpp:434] conv3 <- pool2
I0414 03:24:55.990710  9470 net.cpp:408] conv3 -> conv3
I0414 03:24:56.000804  9470 net.cpp:150] Setting up conv3
I0414 03:24:56.000828  9470 net.cpp:157] Top shape: 1024 250 6 6 (9216000)
I0414 03:24:56.000835  9470 net.cpp:165] Memory required for data: 3981991936
I0414 03:24:56.000852  9470 layer_factory.hpp:77] Creating layer conv3_prescale
I0414 03:24:56.000891  9470 net.cpp:100] Creating Layer conv3_prescale
I0414 03:24:56.000903  9470 net.cpp:434] conv3_prescale <- conv3
I0414 03:24:56.000916  9470 net.cpp:395] conv3_prescale -> conv3 (in-place)
I0414 03:24:56.001065  9470 net.cpp:150] Setting up conv3_prescale
I0414 03:24:56.001081  9470 net.cpp:157] Top shape: 1024 250 6 6 (9216000)
I0414 03:24:56.001091  9470 net.cpp:165] Memory required for data: 4018855936
I0414 03:24:56.001102  9470 layer_factory.hpp:77] Creating layer conv3_sTanH
I0414 03:24:56.001114  9470 net.cpp:100] Creating Layer conv3_sTanH
I0414 03:24:56.001123  9470 net.cpp:434] conv3_sTanH <- conv3
I0414 03:24:56.001133  9470 net.cpp:395] conv3_sTanH -> conv3 (in-place)
I0414 03:24:56.002648  9470 net.cpp:150] Setting up conv3_sTanH
I0414 03:24:56.002672  9470 net.cpp:157] Top shape: 1024 250 6 6 (9216000)
I0414 03:24:56.002681  9470 net.cpp:165] Memory required for data: 4055719936
I0414 03:24:56.002689  9470 layer_factory.hpp:77] Creating layer conv3_postscale
I0414 03:24:56.002702  9470 net.cpp:100] Creating Layer conv3_postscale
I0414 03:24:56.002712  9470 net.cpp:434] conv3_postscale <- conv3
I0414 03:24:56.002723  9470 net.cpp:395] conv3_postscale -> conv3 (in-place)
I0414 03:24:56.002873  9470 net.cpp:150] Setting up conv3_postscale
I0414 03:24:56.002888  9470 net.cpp:157] Top shape: 1024 250 6 6 (9216000)
I0414 03:24:56.002897  9470 net.cpp:165] Memory required for data: 4092583936
I0414 03:24:56.002909  9470 layer_factory.hpp:77] Creating layer pool3
I0414 03:24:56.002926  9470 net.cpp:100] Creating Layer pool3
I0414 03:24:56.002936  9470 net.cpp:434] pool3 <- conv3
I0414 03:24:56.002948  9470 net.cpp:408] pool3 -> pool3
I0414 03:24:56.003015  9470 net.cpp:150] Setting up pool3
I0414 03:24:56.003029  9470 net.cpp:157] Top shape: 1024 250 3 3 (2304000)
I0414 03:24:56.003037  9470 net.cpp:165] Memory required for data: 4101799936
I0414 03:24:56.003043  9470 layer_factory.hpp:77] Creating layer fc4_300
I0414 03:24:56.003056  9470 net.cpp:100] Creating Layer fc4_300
I0414 03:24:56.003063  9470 net.cpp:434] fc4_300 <- pool3
I0414 03:24:56.003072  9470 net.cpp:408] fc4_300 -> fc4_300
I0414 03:24:56.009796  9470 net.cpp:150] Setting up fc4_300
I0414 03:24:56.009815  9470 net.cpp:157] Top shape: 1024 300 (307200)
I0414 03:24:56.009819  9470 net.cpp:165] Memory required for data: 4103028736
I0414 03:24:56.009827  9470 layer_factory.hpp:77] Creating layer fc4_prescale
I0414 03:24:56.009835  9470 net.cpp:100] Creating Layer fc4_prescale
I0414 03:24:56.009840  9470 net.cpp:434] fc4_prescale <- fc4_300
I0414 03:24:56.009847  9470 net.cpp:395] fc4_prescale -> fc4_300 (in-place)
I0414 03:24:56.009934  9470 net.cpp:150] Setting up fc4_prescale
I0414 03:24:56.009944  9470 net.cpp:157] Top shape: 1024 300 (307200)
I0414 03:24:56.009948  9470 net.cpp:165] Memory required for data: 4104257536
I0414 03:24:56.009951  9470 layer_factory.hpp:77] Creating layer fc4_sTanH
I0414 03:24:56.009958  9470 net.cpp:100] Creating Layer fc4_sTanH
I0414 03:24:56.009960  9470 net.cpp:434] fc4_sTanH <- fc4_300
I0414 03:24:56.009965  9470 net.cpp:395] fc4_sTanH -> fc4_300 (in-place)
I0414 03:24:56.010148  9470 net.cpp:150] Setting up fc4_sTanH
I0414 03:24:56.010159  9470 net.cpp:157] Top shape: 1024 300 (307200)
I0414 03:24:56.010162  9470 net.cpp:165] Memory required for data: 4105486336
I0414 03:24:56.010165  9470 layer_factory.hpp:77] Creating layer fc4_postscale
I0414 03:24:56.010172  9470 net.cpp:100] Creating Layer fc4_postscale
I0414 03:24:56.010175  9470 net.cpp:434] fc4_postscale <- fc4_300
I0414 03:24:56.010181  9470 net.cpp:395] fc4_postscale -> fc4_300 (in-place)
I0414 03:24:56.010274  9470 net.cpp:150] Setting up fc4_postscale
I0414 03:24:56.010282  9470 net.cpp:157] Top shape: 1024 300 (307200)
I0414 03:24:56.010287  9470 net.cpp:165] Memory required for data: 4106715136
I0414 03:24:56.010291  9470 layer_factory.hpp:77] Creating layer fc5_67
I0414 03:24:56.010298  9470 net.cpp:100] Creating Layer fc5_67
I0414 03:24:56.010303  9470 net.cpp:434] fc5_67 <- fc4_300
I0414 03:24:56.010308  9470 net.cpp:408] fc5_67 -> fc5_classes
I0414 03:24:56.013540  9470 net.cpp:150] Setting up fc5_67
I0414 03:24:56.013558  9470 net.cpp:157] Top shape: 1024 67 (68608)
I0414 03:24:56.013562  9470 net.cpp:165] Memory required for data: 4106989568
I0414 03:24:56.013574  9470 layer_factory.hpp:77] Creating layer fc5_classes_fc5_67_0_split
I0414 03:24:56.013582  9470 net.cpp:100] Creating Layer fc5_classes_fc5_67_0_split
I0414 03:24:56.013586  9470 net.cpp:434] fc5_classes_fc5_67_0_split <- fc5_classes
I0414 03:24:56.013592  9470 net.cpp:408] fc5_classes_fc5_67_0_split -> fc5_classes_fc5_67_0_split_0
I0414 03:24:56.013602  9470 net.cpp:408] fc5_classes_fc5_67_0_split -> fc5_classes_fc5_67_0_split_1
I0414 03:24:56.013607  9470 net.cpp:408] fc5_classes_fc5_67_0_split -> fc5_classes_fc5_67_0_split_2
I0414 03:24:56.013661  9470 net.cpp:150] Setting up fc5_classes_fc5_67_0_split
I0414 03:24:56.013669  9470 net.cpp:157] Top shape: 1024 67 (68608)
I0414 03:24:56.013674  9470 net.cpp:157] Top shape: 1024 67 (68608)
I0414 03:24:56.013676  9470 net.cpp:157] Top shape: 1024 67 (68608)
I0414 03:24:56.013679  9470 net.cpp:165] Memory required for data: 4107812864
I0414 03:24:56.013681  9470 layer_factory.hpp:77] Creating layer softmax
I0414 03:24:56.013689  9470 net.cpp:100] Creating Layer softmax
I0414 03:24:56.013691  9470 net.cpp:434] softmax <- fc5_classes_fc5_67_0_split_0
I0414 03:24:56.013696  9470 net.cpp:408] softmax -> softmax
I0414 03:24:56.013941  9470 net.cpp:150] Setting up softmax
I0414 03:24:56.013953  9470 net.cpp:157] Top shape: 1024 67 (68608)
I0414 03:24:56.013958  9470 net.cpp:165] Memory required for data: 4108087296
I0414 03:24:56.013962  9470 layer_factory.hpp:77] Creating layer loss
I0414 03:24:56.013969  9470 net.cpp:100] Creating Layer loss
I0414 03:24:56.013973  9470 net.cpp:434] loss <- softmax
I0414 03:24:56.013978  9470 net.cpp:434] loss <- label_data_1_split_0
I0414 03:24:56.013983  9470 net.cpp:408] loss -> loss
…
