…
I0414 03:05:09.279356 27416 solver.cpp:93] Creating training net from train_net file: ./Prototxt/experiment_11/rtsd-r1/CoNorm/trial_1/train.prototxt
I0414 03:05:09.279917 27416 net.cpp:58] Initializing net from parameters: 
state {
  phase: TRAIN
  level: 0
  stage: ""
}
layer {
  name: "data"
  type: "Data"
  top: "data"
  top: "label"
  include {
    phase: TRAIN
  }
  transform_param {
    scale: 0.0039215689
    mirror: false
    crop_size: 48
    mean_value: 132
    mean_value: 132
    mean_value: 131
  }
  data_param {
    source: "../local_data/lmdb/rtsd-r1/CoNorm/train/lmdb"
    batch_size: 1024
    backend: LMDB
  }
}
layer {
  name: "conv1"
  type: "Convolution"
  bottom: "data"
  top: "conv1"
  convolution_param {
    num_output: 100
    pad: 0
    kernel_size: 7
    group: 1
    stride: 1
    weight_filler {
      type: "xavier"
    }
  }
}
layer {
  name: "conv1_prescale"
  type: "Scale"
  bottom: "conv1"
  top: "conv1"
  param {
    lr_mult: 0
    decay_mult: 0
  }
  scale_param {
    filler {
      value: 0.6666
    }
    bias_term: false
  }
}
layer {
  name: "conv1_sTanH"
  type: "TanH"
  bottom: "conv1"
  top: "conv1"
}
layer {
  name: "conv1_postscale"
  type: "Scale"
  bottom: "conv1"
  top: "conv1"
  param {
    lr_mult: 0
    decay_mult: 0
  }
  scale_param {
    filler {
      value: 1.7159
    }
    bias_term: false
  }
}
layer {
  name: "pool1"
  type: "Pooling"
  bottom: "conv1"
  top: "pool1"
  pooling_param {
    pool: MAX
    kernel_size: 2
    stride: 2
  }
}
layer {
  name: "conv2"
  type: "Convolution"
  bottom: "pool1"
  top: "conv2"
  convolution_param {
    num_output: 150
    pad: 0
    kernel_size: 4
    group: 1
    stride: 1
    weight_filler {
      type: "xavier"
    }
  }
}
layer {
  name: "conv2_prescale"
  type: "Scale"
  bottom: "conv2"
  top: "conv2"
  param {
    lr_mult: 0
    decay_mult: 0
  }
  scale_param {
    filler {
      value: 0.6666
    }
    bias_term: false
  }
}
layer {
  name: "conv2_sTanH"
  type: "TanH"
  bottom: "conv2"
  top: "conv2"
}
layer {
  name: "conv2_postscale"
  type: "Scale"
  bottom: "conv2"
  top: "conv2"
  param {
    lr_mult: 0
    decay_mult: 0
  }
  scale_param {
    filler {
      value: 1.7159
    }
    bias_term: false
  }
}
layer {
  name: "pool2"
  type: "Pooling"
  bottom: "conv2"
  top: "pool2"
  pooling_param {
    pool: MAX
    kernel_size: 2
    stride: 2
  }
}
layer {
  name: "conv3"
  type: "Convolution"
  bottom: "pool2"
  top: "conv3"
  convolution_param {
    num_output: 250
    pad: 0
    kernel_size: 4
    group: 1
    stride: 1
    weight_filler {
      type: "xavier"
    }
  }
}
layer {
  name: "conv3_prescale"
  type: "Scale"
  bottom: "conv3"
  top: "conv3"
  param {
    lr_mult: 0
    decay_mult: 0
  }
  scale_param {
    filler {
      value: 0.6666
    }
    bias_term: false
  }
}
layer {
  name: "conv3_sTanH"
  type: "TanH"
  bottom: "conv3"
  top: "conv3"
}
layer {
  name: "conv3_postscale"
  type: "Scale"
  bottom: "conv3"
  top: "conv3"
  param {
    lr_mult: 0
    decay_mult: 0
  }
  scale_param {
    filler {
      value: 1.7159
    }
    bias_term: false
  }
}
layer {
  name: "pool3"
  type: "Pooling"
  bottom: "conv3"
  top: "pool3"
  pooling_param {
    pool: MAX
    kernel_size: 2
    stride: 2
  }
}
layer {
  name: "fc4_300"
  type: "InnerProduct"
  bottom: "pool3"
  top: "fc4_300"
  inner_product_param {
    num_output: 300
    weight_filler {
      type: "xavier"
    }
  }
}
layer {
  name: "fc4_prescale"
  type: "Scale"
  bottom: "fc4_300"
  top: "fc4_300"
  param {
    lr_mult: 0
    decay_mult: 0
  }
  scale_param {
    filler {
      value: 0.6666
    }
    bias_term: false
  }
}
layer {
  name: "fc4_sTanH"
  type: "TanH"
  bottom: "fc4_300"
  top: "fc4_300"
}
layer {
  name: "fc4_postscale"
  type: "Scale"
  bottom: "fc4_300"
  top: "fc4_300"
  param {
    lr_mult: 0
    decay_mult: 0
  }
  scale_param {
    filler {
      value: 1.7159
    }
    bias_term: false
  }
}
layer {
  name: "fc5_67"
  type: "InnerProduct"
  bottom: "fc4_300"
  top: "fc5_classes"
  inner_product_param {
    num_output: 67
    weight_filler {
      type: "xavier"
    }
  }
}
layer {
  name: "softmax"
  type: "Softmax"
  bottom: "fc5_classes"
  top: "softmax"
}
layer {
  name: "loss"
  type: "MultinomialLogisticLoss"
  bottom: "softmax"
  bottom: "label"
  top: "loss"
}
layer {
  name: "accuracy_1"
  type: "Accuracy"
  bottom: "fc5_classes"
  bottom: "label"
  top: "accuracy_1"
  accuracy_param {
    top_k: 1
  }
}
layer {
  name: "accuracy_5"
  type: "Accuracy"
  bottom: "fc5_classes"
  bottom: "label"
  top: "accuracy_5"
  accuracy_param {
    top_k: 5
  }
}
layer {
  name: "silence"
  type: "Silence"
  bottom: "accuracy_1"
  bottom: "accuracy_5"
}
I0414 03:05:09.280105 27416 layer_factory.hpp:77] Creating layer data
I0414 03:05:09.281404 27416 net.cpp:100] Creating Layer data
I0414 03:05:09.281421 27416 net.cpp:408] data -> data
I0414 03:05:09.281448 27416 net.cpp:408] data -> label
I0414 03:05:09.282785 27514 db_lmdb.cpp:35] Opened lmdb ../local_data/lmdb/rtsd-r1/CoNorm/train/lmdb
I0414 03:05:09.304607 27416 data_layer.cpp:41] output data size: 1024,3,48,48
I0414 03:05:09.363183 27416 net.cpp:150] Setting up data
I0414 03:05:09.363220 27416 net.cpp:157] Top shape: 1024 3 48 48 (7077888)
I0414 03:05:09.363227 27416 net.cpp:157] Top shape: 1024 (1024)
I0414 03:05:09.363231 27416 net.cpp:165] Memory required for data: 28315648
I0414 03:05:09.363243 27416 layer_factory.hpp:77] Creating layer label_data_1_split
I0414 03:05:09.363260 27416 net.cpp:100] Creating Layer label_data_1_split
I0414 03:05:09.363266 27416 net.cpp:434] label_data_1_split <- label
I0414 03:05:09.363286 27416 net.cpp:408] label_data_1_split -> label_data_1_split_0
I0414 03:05:09.363302 27416 net.cpp:408] label_data_1_split -> label_data_1_split_1
I0414 03:05:09.363323 27416 net.cpp:408] label_data_1_split -> label_data_1_split_2
I0414 03:05:09.363401 27416 net.cpp:150] Setting up label_data_1_split
I0414 03:05:09.363412 27416 net.cpp:157] Top shape: 1024 (1024)
I0414 03:05:09.363418 27416 net.cpp:157] Top shape: 1024 (1024)
I0414 03:05:09.363423 27416 net.cpp:157] Top shape: 1024 (1024)
I0414 03:05:09.363426 27416 net.cpp:165] Memory required for data: 28327936
I0414 03:05:09.363430 27416 layer_factory.hpp:77] Creating layer conv1
I0414 03:05:09.363451 27416 net.cpp:100] Creating Layer conv1
I0414 03:05:09.363457 27416 net.cpp:434] conv1 <- data
I0414 03:05:09.363472 27416 net.cpp:408] conv1 -> conv1
I0414 03:05:09.746338 27416 net.cpp:150] Setting up conv1
I0414 03:05:09.746367 27416 net.cpp:157] Top shape: 1024 100 42 42 (180633600)
I0414 03:05:09.746371 27416 net.cpp:165] Memory required for data: 750862336
I0414 03:05:09.746394 27416 layer_factory.hpp:77] Creating layer conv1_prescale
I0414 03:05:09.746409 27416 net.cpp:100] Creating Layer conv1_prescale
I0414 03:05:09.746414 27416 net.cpp:434] conv1_prescale <- conv1
I0414 03:05:09.746420 27416 net.cpp:395] conv1_prescale -> conv1 (in-place)
I0414 03:05:09.746522 27416 net.cpp:150] Setting up conv1_prescale
I0414 03:05:09.746532 27416 net.cpp:157] Top shape: 1024 100 42 42 (180633600)
I0414 03:05:09.746536 27416 net.cpp:165] Memory required for data: 1473396736
I0414 03:05:09.746543 27416 layer_factory.hpp:77] Creating layer conv1_sTanH
I0414 03:05:09.746552 27416 net.cpp:100] Creating Layer conv1_sTanH
I0414 03:05:09.746557 27416 net.cpp:434] conv1_sTanH <- conv1
I0414 03:05:09.746562 27416 net.cpp:395] conv1_sTanH -> conv1 (in-place)
I0414 03:05:09.746747 27416 net.cpp:150] Setting up conv1_sTanH
I0414 03:05:09.746776 27416 net.cpp:157] Top shape: 1024 100 42 42 (180633600)
I0414 03:05:09.746780 27416 net.cpp:165] Memory required for data: 2195931136
I0414 03:05:09.746784 27416 layer_factory.hpp:77] Creating layer conv1_postscale
I0414 03:05:09.746791 27416 net.cpp:100] Creating Layer conv1_postscale
I0414 03:05:09.746796 27416 net.cpp:434] conv1_postscale <- conv1
I0414 03:05:09.746801 27416 net.cpp:395] conv1_postscale -> conv1 (in-place)
I0414 03:05:09.746894 27416 net.cpp:150] Setting up conv1_postscale
I0414 03:05:09.746902 27416 net.cpp:157] Top shape: 1024 100 42 42 (180633600)
I0414 03:05:09.746906 27416 net.cpp:165] Memory required for data: 2918465536
I0414 03:05:09.746911 27416 layer_factory.hpp:77] Creating layer pool1
I0414 03:05:09.746918 27416 net.cpp:100] Creating Layer pool1
I0414 03:05:09.746923 27416 net.cpp:434] pool1 <- conv1
I0414 03:05:09.746928 27416 net.cpp:408] pool1 -> pool1
I0414 03:05:09.746973 27416 net.cpp:150] Setting up pool1
I0414 03:05:09.746980 27416 net.cpp:157] Top shape: 1024 100 21 21 (45158400)
I0414 03:05:09.746985 27416 net.cpp:165] Memory required for data: 3099099136
I0414 03:05:09.746989 27416 layer_factory.hpp:77] Creating layer conv2
I0414 03:05:09.746999 27416 net.cpp:100] Creating Layer conv2
I0414 03:05:09.747002 27416 net.cpp:434] conv2 <- pool1
I0414 03:05:09.747007 27416 net.cpp:408] conv2 -> conv2
I0414 03:05:09.751332 27416 net.cpp:150] Setting up conv2
I0414 03:05:09.751348 27416 net.cpp:157] Top shape: 1024 150 18 18 (49766400)
I0414 03:05:09.751353 27416 net.cpp:165] Memory required for data: 3298164736
I0414 03:05:09.751363 27416 layer_factory.hpp:77] Creating layer conv2_prescale
I0414 03:05:09.751374 27416 net.cpp:100] Creating Layer conv2_prescale
I0414 03:05:09.751379 27416 net.cpp:434] conv2_prescale <- conv2
I0414 03:05:09.751384 27416 net.cpp:395] conv2_prescale -> conv2 (in-place)
I0414 03:05:09.751489 27416 net.cpp:150] Setting up conv2_prescale
I0414 03:05:09.751497 27416 net.cpp:157] Top shape: 1024 150 18 18 (49766400)
I0414 03:05:09.751502 27416 net.cpp:165] Memory required for data: 3497230336
I0414 03:05:09.751507 27416 layer_factory.hpp:77] Creating layer conv2_sTanH
I0414 03:05:09.751513 27416 net.cpp:100] Creating Layer conv2_sTanH
I0414 03:05:09.751516 27416 net.cpp:434] conv2_sTanH <- conv2
I0414 03:05:09.751521 27416 net.cpp:395] conv2_sTanH -> conv2 (in-place)
I0414 03:05:09.755136 27416 net.cpp:150] Setting up conv2_sTanH
I0414 03:05:09.755159 27416 net.cpp:157] Top shape: 1024 150 18 18 (49766400)
I0414 03:05:09.755165 27416 net.cpp:165] Memory required for data: 3696295936
I0414 03:05:09.755170 27416 layer_factory.hpp:77] Creating layer conv2_postscale
I0414 03:05:09.755182 27416 net.cpp:100] Creating Layer conv2_postscale
I0414 03:05:09.755187 27416 net.cpp:434] conv2_postscale <- conv2
I0414 03:05:09.755194 27416 net.cpp:395] conv2_postscale -> conv2 (in-place)
I0414 03:05:09.755308 27416 net.cpp:150] Setting up conv2_postscale
I0414 03:05:09.755318 27416 net.cpp:157] Top shape: 1024 150 18 18 (49766400)
I0414 03:05:09.755322 27416 net.cpp:165] Memory required for data: 3895361536
I0414 03:05:09.755328 27416 layer_factory.hpp:77] Creating layer pool2
I0414 03:05:09.755337 27416 net.cpp:100] Creating Layer pool2
I0414 03:05:09.755342 27416 net.cpp:434] pool2 <- conv2
I0414 03:05:09.755347 27416 net.cpp:408] pool2 -> pool2
I0414 03:05:09.755394 27416 net.cpp:150] Setting up pool2
I0414 03:05:09.755403 27416 net.cpp:157] Top shape: 1024 150 9 9 (12441600)
I0414 03:05:09.755408 27416 net.cpp:165] Memory required for data: 3945127936
I0414 03:05:09.755411 27416 layer_factory.hpp:77] Creating layer conv3
I0414 03:05:09.755421 27416 net.cpp:100] Creating Layer conv3
I0414 03:05:09.755426 27416 net.cpp:434] conv3 <- pool2
I0414 03:05:09.755431 27416 net.cpp:408] conv3 -> conv3
I0414 03:05:09.761476 27416 net.cpp:150] Setting up conv3
I0414 03:05:09.761493 27416 net.cpp:157] Top shape: 1024 250 6 6 (9216000)
I0414 03:05:09.761497 27416 net.cpp:165] Memory required for data: 3981991936
I0414 03:05:09.761508 27416 layer_factory.hpp:77] Creating layer conv3_prescale
I0414 03:05:09.761536 27416 net.cpp:100] Creating Layer conv3_prescale
I0414 03:05:09.761543 27416 net.cpp:434] conv3_prescale <- conv3
I0414 03:05:09.761548 27416 net.cpp:395] conv3_prescale -> conv3 (in-place)
I0414 03:05:09.761648 27416 net.cpp:150] Setting up conv3_prescale
I0414 03:05:09.761657 27416 net.cpp:157] Top shape: 1024 250 6 6 (9216000)
I0414 03:05:09.761662 27416 net.cpp:165] Memory required for data: 4018855936
I0414 03:05:09.761667 27416 layer_factory.hpp:77] Creating layer conv3_sTanH
I0414 03:05:09.761674 27416 net.cpp:100] Creating Layer conv3_sTanH
I0414 03:05:09.761679 27416 net.cpp:434] conv3_sTanH <- conv3
I0414 03:05:09.761684 27416 net.cpp:395] conv3_sTanH -> conv3 (in-place)
I0414 03:05:09.762934 27416 net.cpp:150] Setting up conv3_sTanH
I0414 03:05:09.762950 27416 net.cpp:157] Top shape: 1024 250 6 6 (9216000)
I0414 03:05:09.762955 27416 net.cpp:165] Memory required for data: 4055719936
I0414 03:05:09.762959 27416 layer_factory.hpp:77] Creating layer conv3_postscale
I0414 03:05:09.762967 27416 net.cpp:100] Creating Layer conv3_postscale
I0414 03:05:09.762974 27416 net.cpp:434] conv3_postscale <- conv3
I0414 03:05:09.762979 27416 net.cpp:395] conv3_postscale -> conv3 (in-place)
I0414 03:05:09.763082 27416 net.cpp:150] Setting up conv3_postscale
I0414 03:05:09.763090 27416 net.cpp:157] Top shape: 1024 250 6 6 (9216000)
I0414 03:05:09.763094 27416 net.cpp:165] Memory required for data: 4092583936
I0414 03:05:09.763100 27416 layer_factory.hpp:77] Creating layer pool3
I0414 03:05:09.763110 27416 net.cpp:100] Creating Layer pool3
I0414 03:05:09.763115 27416 net.cpp:434] pool3 <- conv3
I0414 03:05:09.763121 27416 net.cpp:408] pool3 -> pool3
I0414 03:05:09.763161 27416 net.cpp:150] Setting up pool3
I0414 03:05:09.763170 27416 net.cpp:157] Top shape: 1024 250 3 3 (2304000)
I0414 03:05:09.763173 27416 net.cpp:165] Memory required for data: 4101799936
I0414 03:05:09.763177 27416 layer_factory.hpp:77] Creating layer fc4_300
I0414 03:05:09.763185 27416 net.cpp:100] Creating Layer fc4_300
I0414 03:05:09.763188 27416 net.cpp:434] fc4_300 <- pool3
I0414 03:05:09.763193 27416 net.cpp:408] fc4_300 -> fc4_300
I0414 03:05:09.769451 27416 net.cpp:150] Setting up fc4_300
I0414 03:05:09.769471 27416 net.cpp:157] Top shape: 1024 300 (307200)
I0414 03:05:09.769475 27416 net.cpp:165] Memory required for data: 4103028736
I0414 03:05:09.769484 27416 layer_factory.hpp:77] Creating layer fc4_prescale
I0414 03:05:09.769492 27416 net.cpp:100] Creating Layer fc4_prescale
I0414 03:05:09.769496 27416 net.cpp:434] fc4_prescale <- fc4_300
I0414 03:05:09.769501 27416 net.cpp:395] fc4_prescale -> fc4_300 (in-place)
I0414 03:05:09.769592 27416 net.cpp:150] Setting up fc4_prescale
I0414 03:05:09.769600 27416 net.cpp:157] Top shape: 1024 300 (307200)
I0414 03:05:09.769603 27416 net.cpp:165] Memory required for data: 4104257536
I0414 03:05:09.769608 27416 layer_factory.hpp:77] Creating layer fc4_sTanH
I0414 03:05:09.769613 27416 net.cpp:100] Creating Layer fc4_sTanH
I0414 03:05:09.769618 27416 net.cpp:434] fc4_sTanH <- fc4_300
I0414 03:05:09.769623 27416 net.cpp:395] fc4_sTanH -> fc4_300 (in-place)
I0414 03:05:09.769814 27416 net.cpp:150] Setting up fc4_sTanH
I0414 03:05:09.769825 27416 net.cpp:157] Top shape: 1024 300 (307200)
I0414 03:05:09.769829 27416 net.cpp:165] Memory required for data: 4105486336
I0414 03:05:09.769834 27416 layer_factory.hpp:77] Creating layer fc4_postscale
I0414 03:05:09.769840 27416 net.cpp:100] Creating Layer fc4_postscale
I0414 03:05:09.769845 27416 net.cpp:434] fc4_postscale <- fc4_300
I0414 03:05:09.769850 27416 net.cpp:395] fc4_postscale -> fc4_300 (in-place)
I0414 03:05:09.769946 27416 net.cpp:150] Setting up fc4_postscale
I0414 03:05:09.769954 27416 net.cpp:157] Top shape: 1024 300 (307200)
I0414 03:05:09.769958 27416 net.cpp:165] Memory required for data: 4106715136
I0414 03:05:09.769963 27416 layer_factory.hpp:77] Creating layer fc5_67
I0414 03:05:09.769971 27416 net.cpp:100] Creating Layer fc5_67
I0414 03:05:09.769975 27416 net.cpp:434] fc5_67 <- fc4_300
I0414 03:05:09.769980 27416 net.cpp:408] fc5_67 -> fc5_classes
I0414 03:05:09.776924 27416 net.cpp:150] Setting up fc5_67
I0414 03:05:09.776944 27416 net.cpp:157] Top shape: 1024 67 (68608)
I0414 03:05:09.776948 27416 net.cpp:165] Memory required for data: 4106989568
I0414 03:05:09.776962 27416 layer_factory.hpp:77] Creating layer fc5_classes_fc5_67_0_split
I0414 03:05:09.776970 27416 net.cpp:100] Creating Layer fc5_classes_fc5_67_0_split
I0414 03:05:09.776976 27416 net.cpp:434] fc5_classes_fc5_67_0_split <- fc5_classes
I0414 03:05:09.776983 27416 net.cpp:408] fc5_classes_fc5_67_0_split -> fc5_classes_fc5_67_0_split_0
I0414 03:05:09.776994 27416 net.cpp:408] fc5_classes_fc5_67_0_split -> fc5_classes_fc5_67_0_split_1
I0414 03:05:09.777000 27416 net.cpp:408] fc5_classes_fc5_67_0_split -> fc5_classes_fc5_67_0_split_2
I0414 03:05:09.777052 27416 net.cpp:150] Setting up fc5_classes_fc5_67_0_split
I0414 03:05:09.777060 27416 net.cpp:157] Top shape: 1024 67 (68608)
I0414 03:05:09.777063 27416 net.cpp:157] Top shape: 1024 67 (68608)
I0414 03:05:09.777067 27416 net.cpp:157] Top shape: 1024 67 (68608)
I0414 03:05:09.777070 27416 net.cpp:165] Memory required for data: 4107812864
I0414 03:05:09.777073 27416 layer_factory.hpp:77] Creating layer softmax
I0414 03:05:09.777079 27416 net.cpp:100] Creating Layer softmax
I0414 03:05:09.777084 27416 net.cpp:434] softmax <- fc5_classes_fc5_67_0_split_0
I0414 03:05:09.777089 27416 net.cpp:408] softmax -> softmax
I0414 03:05:09.777412 27416 net.cpp:150] Setting up softmax
I0414 03:05:09.777428 27416 net.cpp:157] Top shape: 1024 67 (68608)
I0414 03:05:09.777432 27416 net.cpp:165] Memory required for data: 4108087296
I0414 03:05:09.777436 27416 layer_factory.hpp:77] Creating layer loss
I0414 03:05:09.777442 27416 net.cpp:100] Creating Layer loss
I0414 03:05:09.777446 27416 net.cpp:434] loss <- softmax
I0414 03:05:09.777451 27416 net.cpp:434] loss <- label_data_1_split_0
I0414 03:05:09.777456 27416 net.cpp:408] loss -> loss
…
