…
I0417 16:11:27.945303 20952 solver.cpp:93] Creating training net from train_net file: ./Prototxt/experiment_11/rtsd-r1/CoNorm/trial_1/train.prototxt
I0417 16:11:27.945834 20952 net.cpp:58] Initializing net from parameters: 
state {
  phase: TRAIN
  level: 0
  stage: ""
}
layer {
  name: "data"
  type: "Data"
  top: "data"
  top: "label"
  include {
    phase: TRAIN
  }
  transform_param {
    scale: 0.0039215689
    mirror: false
    crop_size: 48
    mean_value: 132
    mean_value: 132
    mean_value: 131
  }
  data_param {
    source: "../local_data/lmdb/rtsd-r1/CoNorm/train/lmdb"
    batch_size: 1024
    backend: LMDB
  }
}
layer {
  name: "conv1"
  type: "Convolution"
  bottom: "data"
  top: "conv1"
  convolution_param {
    num_output: 100
    pad: 0
    kernel_size: 7
    group: 1
    stride: 1
    weight_filler {
      type: "xavier"
    }
  }
}
layer {
  name: "conv1_prescale"
  type: "Scale"
  bottom: "conv1"
  top: "conv1"
  param {
    lr_mult: 0
    decay_mult: 0
  }
  scale_param {
    filler {
      value: 0.6666
    }
    bias_term: false
  }
}
layer {
  name: "conv1_sTanH"
  type: "TanH"
  bottom: "conv1"
  top: "conv1"
}
layer {
  name: "conv1_postscale"
  type: "Scale"
  bottom: "conv1"
  top: "conv1"
  param {
    lr_mult: 0
    decay_mult: 0
  }
  scale_param {
    filler {
      value: 1.7159
    }
    bias_term: false
  }
}
layer {
  name: "pool1"
  type: "Pooling"
  bottom: "conv1"
  top: "pool1"
  pooling_param {
    pool: MAX
    kernel_size: 2
    stride: 2
  }
}
layer {
  name: "conv2"
  type: "Convolution"
  bottom: "pool1"
  top: "conv2"
  convolution_param {
    num_output: 150
    pad: 0
    kernel_size: 4
    group: 1
    stride: 1
    weight_filler {
      type: "xavier"
    }
  }
}
layer {
  name: "conv2_prescale"
  type: "Scale"
  bottom: "conv2"
  top: "conv2"
  param {
    lr_mult: 0
    decay_mult: 0
  }
  scale_param {
    filler {
      value: 0.6666
    }
    bias_term: false
  }
}
layer {
  name: "conv2_sTanH"
  type: "TanH"
  bottom: "conv2"
  top: "conv2"
}
layer {
  name: "conv2_postscale"
  type: "Scale"
  bottom: "conv2"
  top: "conv2"
  param {
    lr_mult: 0
    decay_mult: 0
  }
  scale_param {
    filler {
      value: 1.7159
    }
    bias_term: false
  }
}
layer {
  name: "pool2"
  type: "Pooling"
  bottom: "conv2"
  top: "pool2"
  pooling_param {
    pool: MAX
    kernel_size: 2
    stride: 2
  }
}
layer {
  name: "conv3"
  type: "Convolution"
  bottom: "pool2"
  top: "conv3"
  convolution_param {
    num_output: 250
    pad: 0
    kernel_size: 4
    group: 1
    stride: 1
    weight_filler {
      type: "xavier"
    }
  }
}
layer {
  name: "conv3_prescale"
  type: "Scale"
  bottom: "conv3"
  top: "conv3"
  param {
    lr_mult: 0
    decay_mult: 0
  }
  scale_param {
    filler {
      value: 0.6666
    }
    bias_term: false
  }
}
layer {
  name: "conv3_sTanH"
  type: "TanH"
  bottom: "conv3"
  top: "conv3"
}
layer {
  name: "conv3_postscale"
  type: "Scale"
  bottom: "conv3"
  top: "conv3"
  param {
    lr_mult: 0
    decay_mult: 0
  }
  scale_param {
    filler {
      value: 1.7159
    }
    bias_term: false
  }
}
layer {
  name: "pool3"
  type: "Pooling"
  bottom: "conv3"
  top: "pool3"
  pooling_param {
    pool: MAX
    kernel_size: 2
    stride: 2
  }
}
layer {
  name: "fc4_300"
  type: "InnerProduct"
  bottom: "pool3"
  top: "fc4_300"
  inner_product_param {
    num_output: 300
    weight_filler {
      type: "xavier"
    }
  }
}
layer {
  name: "fc4_prescale"
  type: "Scale"
  bottom: "fc4_300"
  top: "fc4_300"
  param {
    lr_mult: 0
    decay_mult: 0
  }
  scale_param {
    filler {
      value: 0.6666
    }
    bias_term: false
  }
}
layer {
  name: "fc4_sTanH"
  type: "TanH"
  bottom: "fc4_300"
  top: "fc4_300"
}
layer {
  name: "fc4_postscale"
  type: "Scale"
  bottom: "fc4_300"
  top: "fc4_300"
  param {
    lr_mult: 0
    decay_mult: 0
  }
  scale_param {
    filler {
      value: 1.7159
    }
    bias_term: false
  }
}
layer {
  name: "fc5_67"
  type: "InnerProduct"
  bottom: "fc4_300"
  top: "fc5_classes"
  inner_product_param {
    num_output: 67
    weight_filler {
      type: "xavier"
    }
  }
}
layer {
  name: "softmax"
  type: "Softmax"
  bottom: "fc5_classes"
  top: "softmax"
}
layer {
  name: "loss"
  type: "MultinomialLogisticLoss"
  bottom: "softmax"
  bottom: "label"
  top: "loss"
}
layer {
  name: "accuracy_1"
  type: "Accuracy"
  bottom: "fc5_classes"
  bottom: "label"
  top: "accuracy_1"
  accuracy_param {
    top_k: 1
  }
}
layer {
  name: "accuracy_5"
  type: "Accuracy"
  bottom: "fc5_classes"
  bottom: "label"
  top: "accuracy_5"
  accuracy_param {
    top_k: 5
  }
}
layer {
  name: "silence"
  type: "Silence"
  bottom: "accuracy_1"
  bottom: "accuracy_5"
}
I0417 16:11:27.945996 20952 layer_factory.hpp:77] Creating layer data
I0417 16:11:27.947096 20952 net.cpp:100] Creating Layer data
I0417 16:11:27.947113 20952 net.cpp:408] data -> data
I0417 16:11:27.947139 20952 net.cpp:408] data -> label
I0417 16:11:27.964793 21179 db_lmdb.cpp:35] Opened lmdb ../local_data/lmdb/rtsd-r1/CoNorm/train/lmdb
I0417 16:11:27.987867 20952 data_layer.cpp:41] output data size: 1024,3,48,48
I0417 16:11:28.063976 20952 net.cpp:150] Setting up data
I0417 16:11:28.064010 20952 net.cpp:157] Top shape: 1024 3 48 48 (7077888)
I0417 16:11:28.064016 20952 net.cpp:157] Top shape: 1024 (1024)
I0417 16:11:28.064019 20952 net.cpp:165] Memory required for data: 28315648
I0417 16:11:28.064031 20952 layer_factory.hpp:77] Creating layer label_data_1_split
I0417 16:11:28.064045 20952 net.cpp:100] Creating Layer label_data_1_split
I0417 16:11:28.064054 20952 net.cpp:434] label_data_1_split <- label
I0417 16:11:28.064069 20952 net.cpp:408] label_data_1_split -> label_data_1_split_0
I0417 16:11:28.064082 20952 net.cpp:408] label_data_1_split -> label_data_1_split_1
I0417 16:11:28.064090 20952 net.cpp:408] label_data_1_split -> label_data_1_split_2
I0417 16:11:28.064193 20952 net.cpp:150] Setting up label_data_1_split
I0417 16:11:28.064203 20952 net.cpp:157] Top shape: 1024 (1024)
I0417 16:11:28.064208 20952 net.cpp:157] Top shape: 1024 (1024)
I0417 16:11:28.064210 20952 net.cpp:157] Top shape: 1024 (1024)
I0417 16:11:28.064213 20952 net.cpp:165] Memory required for data: 28327936
I0417 16:11:28.064216 20952 layer_factory.hpp:77] Creating layer conv1
I0417 16:11:28.064234 20952 net.cpp:100] Creating Layer conv1
I0417 16:11:28.064239 20952 net.cpp:434] conv1 <- data
I0417 16:11:28.064245 20952 net.cpp:408] conv1 -> conv1
I0417 16:11:29.433686 20952 net.cpp:150] Setting up conv1
I0417 16:11:29.433722 20952 net.cpp:157] Top shape: 1024 100 42 42 (180633600)
I0417 16:11:29.433725 20952 net.cpp:165] Memory required for data: 750862336
I0417 16:11:29.433749 20952 layer_factory.hpp:77] Creating layer conv1_prescale
I0417 16:11:29.433765 20952 net.cpp:100] Creating Layer conv1_prescale
I0417 16:11:29.433769 20952 net.cpp:434] conv1_prescale <- conv1
I0417 16:11:29.433779 20952 net.cpp:395] conv1_prescale -> conv1 (in-place)
I0417 16:11:29.433902 20952 net.cpp:150] Setting up conv1_prescale
I0417 16:11:29.433912 20952 net.cpp:157] Top shape: 1024 100 42 42 (180633600)
I0417 16:11:29.433917 20952 net.cpp:165] Memory required for data: 1473396736
I0417 16:11:29.433923 20952 layer_factory.hpp:77] Creating layer conv1_sTanH
I0417 16:11:29.433933 20952 net.cpp:100] Creating Layer conv1_sTanH
I0417 16:11:29.433938 20952 net.cpp:434] conv1_sTanH <- conv1
I0417 16:11:29.433943 20952 net.cpp:395] conv1_sTanH -> conv1 (in-place)
I0417 16:11:29.434166 20952 net.cpp:150] Setting up conv1_sTanH
I0417 16:11:29.434206 20952 net.cpp:157] Top shape: 1024 100 42 42 (180633600)
I0417 16:11:29.434209 20952 net.cpp:165] Memory required for data: 2195931136
I0417 16:11:29.434212 20952 layer_factory.hpp:77] Creating layer conv1_postscale
I0417 16:11:29.434221 20952 net.cpp:100] Creating Layer conv1_postscale
I0417 16:11:29.434223 20952 net.cpp:434] conv1_postscale <- conv1
I0417 16:11:29.434228 20952 net.cpp:395] conv1_postscale -> conv1 (in-place)
I0417 16:11:29.434329 20952 net.cpp:150] Setting up conv1_postscale
I0417 16:11:29.434337 20952 net.cpp:157] Top shape: 1024 100 42 42 (180633600)
I0417 16:11:29.434340 20952 net.cpp:165] Memory required for data: 2918465536
I0417 16:11:29.434345 20952 layer_factory.hpp:77] Creating layer pool1
I0417 16:11:29.434353 20952 net.cpp:100] Creating Layer pool1
I0417 16:11:29.434358 20952 net.cpp:434] pool1 <- conv1
I0417 16:11:29.434363 20952 net.cpp:408] pool1 -> pool1
I0417 16:11:29.434411 20952 net.cpp:150] Setting up pool1
I0417 16:11:29.434418 20952 net.cpp:157] Top shape: 1024 100 21 21 (45158400)
I0417 16:11:29.434423 20952 net.cpp:165] Memory required for data: 3099099136
I0417 16:11:29.434427 20952 layer_factory.hpp:77] Creating layer conv2
I0417 16:11:29.434437 20952 net.cpp:100] Creating Layer conv2
I0417 16:11:29.434442 20952 net.cpp:434] conv2 <- pool1
I0417 16:11:29.434447 20952 net.cpp:408] conv2 -> conv2
I0417 16:11:29.441398 20952 net.cpp:150] Setting up conv2
I0417 16:11:29.441426 20952 net.cpp:157] Top shape: 1024 150 18 18 (49766400)
I0417 16:11:29.441429 20952 net.cpp:165] Memory required for data: 3298164736
I0417 16:11:29.441445 20952 layer_factory.hpp:77] Creating layer conv2_prescale
I0417 16:11:29.441460 20952 net.cpp:100] Creating Layer conv2_prescale
I0417 16:11:29.441467 20952 net.cpp:434] conv2_prescale <- conv2
I0417 16:11:29.441473 20952 net.cpp:395] conv2_prescale -> conv2 (in-place)
I0417 16:11:29.441596 20952 net.cpp:150] Setting up conv2_prescale
I0417 16:11:29.441604 20952 net.cpp:157] Top shape: 1024 150 18 18 (49766400)
I0417 16:11:29.441608 20952 net.cpp:165] Memory required for data: 3497230336
I0417 16:11:29.441613 20952 layer_factory.hpp:77] Creating layer conv2_sTanH
I0417 16:11:29.441619 20952 net.cpp:100] Creating Layer conv2_sTanH
I0417 16:11:29.441624 20952 net.cpp:434] conv2_sTanH <- conv2
I0417 16:11:29.441628 20952 net.cpp:395] conv2_sTanH -> conv2 (in-place)
I0417 16:11:29.442817 20952 net.cpp:150] Setting up conv2_sTanH
I0417 16:11:29.442834 20952 net.cpp:157] Top shape: 1024 150 18 18 (49766400)
I0417 16:11:29.442837 20952 net.cpp:165] Memory required for data: 3696295936
I0417 16:11:29.442842 20952 layer_factory.hpp:77] Creating layer conv2_postscale
I0417 16:11:29.442850 20952 net.cpp:100] Creating Layer conv2_postscale
I0417 16:11:29.442853 20952 net.cpp:434] conv2_postscale <- conv2
I0417 16:11:29.442860 20952 net.cpp:395] conv2_postscale -> conv2 (in-place)
I0417 16:11:29.442960 20952 net.cpp:150] Setting up conv2_postscale
I0417 16:11:29.442968 20952 net.cpp:157] Top shape: 1024 150 18 18 (49766400)
I0417 16:11:29.442970 20952 net.cpp:165] Memory required for data: 3895361536
I0417 16:11:29.442975 20952 layer_factory.hpp:77] Creating layer pool2
I0417 16:11:29.442984 20952 net.cpp:100] Creating Layer pool2
I0417 16:11:29.442989 20952 net.cpp:434] pool2 <- conv2
I0417 16:11:29.442994 20952 net.cpp:408] pool2 -> pool2
I0417 16:11:29.443037 20952 net.cpp:150] Setting up pool2
I0417 16:11:29.443045 20952 net.cpp:157] Top shape: 1024 150 9 9 (12441600)
I0417 16:11:29.443050 20952 net.cpp:165] Memory required for data: 3945127936
I0417 16:11:29.443053 20952 layer_factory.hpp:77] Creating layer conv3
I0417 16:11:29.443063 20952 net.cpp:100] Creating Layer conv3
I0417 16:11:29.443068 20952 net.cpp:434] conv3 <- pool2
I0417 16:11:29.443073 20952 net.cpp:408] conv3 -> conv3
I0417 16:11:29.449756 20952 net.cpp:150] Setting up conv3
I0417 16:11:29.449786 20952 net.cpp:157] Top shape: 1024 250 6 6 (9216000)
I0417 16:11:29.449790 20952 net.cpp:165] Memory required for data: 3981991936
I0417 16:11:29.449805 20952 layer_factory.hpp:77] Creating layer conv3_prescale
I0417 16:11:29.449833 20952 net.cpp:100] Creating Layer conv3_prescale
I0417 16:11:29.449841 20952 net.cpp:434] conv3_prescale <- conv3
I0417 16:11:29.449848 20952 net.cpp:395] conv3_prescale -> conv3 (in-place)
I0417 16:11:29.449949 20952 net.cpp:150] Setting up conv3_prescale
I0417 16:11:29.449957 20952 net.cpp:157] Top shape: 1024 250 6 6 (9216000)
I0417 16:11:29.449960 20952 net.cpp:165] Memory required for data: 4018855936
I0417 16:11:29.449965 20952 layer_factory.hpp:77] Creating layer conv3_sTanH
I0417 16:11:29.449973 20952 net.cpp:100] Creating Layer conv3_sTanH
I0417 16:11:29.449977 20952 net.cpp:434] conv3_sTanH <- conv3
I0417 16:11:29.449982 20952 net.cpp:395] conv3_sTanH -> conv3 (in-place)
I0417 16:11:29.450911 20952 net.cpp:150] Setting up conv3_sTanH
I0417 16:11:29.450927 20952 net.cpp:157] Top shape: 1024 250 6 6 (9216000)
I0417 16:11:29.450930 20952 net.cpp:165] Memory required for data: 4055719936
I0417 16:11:29.450933 20952 layer_factory.hpp:77] Creating layer conv3_postscale
I0417 16:11:29.450942 20952 net.cpp:100] Creating Layer conv3_postscale
I0417 16:11:29.450944 20952 net.cpp:434] conv3_postscale <- conv3
I0417 16:11:29.450951 20952 net.cpp:395] conv3_postscale -> conv3 (in-place)
I0417 16:11:29.451050 20952 net.cpp:150] Setting up conv3_postscale
I0417 16:11:29.451058 20952 net.cpp:157] Top shape: 1024 250 6 6 (9216000)
I0417 16:11:29.451062 20952 net.cpp:165] Memory required for data: 4092583936
I0417 16:11:29.451067 20952 layer_factory.hpp:77] Creating layer pool3
I0417 16:11:29.451079 20952 net.cpp:100] Creating Layer pool3
I0417 16:11:29.451083 20952 net.cpp:434] pool3 <- conv3
I0417 16:11:29.451088 20952 net.cpp:408] pool3 -> pool3
I0417 16:11:29.451128 20952 net.cpp:150] Setting up pool3
I0417 16:11:29.451136 20952 net.cpp:157] Top shape: 1024 250 3 3 (2304000)
I0417 16:11:29.451138 20952 net.cpp:165] Memory required for data: 4101799936
I0417 16:11:29.451141 20952 layer_factory.hpp:77] Creating layer fc4_300
I0417 16:11:29.451149 20952 net.cpp:100] Creating Layer fc4_300
I0417 16:11:29.451153 20952 net.cpp:434] fc4_300 <- pool3
I0417 16:11:29.451158 20952 net.cpp:408] fc4_300 -> fc4_300
I0417 16:11:29.457139 20952 net.cpp:150] Setting up fc4_300
I0417 16:11:29.457166 20952 net.cpp:157] Top shape: 1024 300 (307200)
I0417 16:11:29.457170 20952 net.cpp:165] Memory required for data: 4103028736
I0417 16:11:29.457180 20952 layer_factory.hpp:77] Creating layer fc4_prescale
I0417 16:11:29.457192 20952 net.cpp:100] Creating Layer fc4_prescale
I0417 16:11:29.457196 20952 net.cpp:434] fc4_prescale <- fc4_300
I0417 16:11:29.457204 20952 net.cpp:395] fc4_prescale -> fc4_300 (in-place)
I0417 16:11:29.457295 20952 net.cpp:150] Setting up fc4_prescale
I0417 16:11:29.457304 20952 net.cpp:157] Top shape: 1024 300 (307200)
I0417 16:11:29.457306 20952 net.cpp:165] Memory required for data: 4104257536
I0417 16:11:29.457311 20952 layer_factory.hpp:77] Creating layer fc4_sTanH
I0417 16:11:29.457316 20952 net.cpp:100] Creating Layer fc4_sTanH
I0417 16:11:29.457319 20952 net.cpp:434] fc4_sTanH <- fc4_300
I0417 16:11:29.457324 20952 net.cpp:395] fc4_sTanH -> fc4_300 (in-place)
I0417 16:11:29.457561 20952 net.cpp:150] Setting up fc4_sTanH
I0417 16:11:29.457571 20952 net.cpp:157] Top shape: 1024 300 (307200)
I0417 16:11:29.457574 20952 net.cpp:165] Memory required for data: 4105486336
I0417 16:11:29.457577 20952 layer_factory.hpp:77] Creating layer fc4_postscale
I0417 16:11:29.457584 20952 net.cpp:100] Creating Layer fc4_postscale
I0417 16:11:29.457587 20952 net.cpp:434] fc4_postscale <- fc4_300
I0417 16:11:29.457593 20952 net.cpp:395] fc4_postscale -> fc4_300 (in-place)
I0417 16:11:29.457687 20952 net.cpp:150] Setting up fc4_postscale
I0417 16:11:29.457695 20952 net.cpp:157] Top shape: 1024 300 (307200)
I0417 16:11:29.457698 20952 net.cpp:165] Memory required for data: 4106715136
I0417 16:11:29.457702 20952 layer_factory.hpp:77] Creating layer fc5_67
I0417 16:11:29.457710 20952 net.cpp:100] Creating Layer fc5_67
I0417 16:11:29.457712 20952 net.cpp:434] fc5_67 <- fc4_300
I0417 16:11:29.457718 20952 net.cpp:408] fc5_67 -> fc5_classes
I0417 16:11:29.459462 20952 net.cpp:150] Setting up fc5_67
I0417 16:11:29.459481 20952 net.cpp:157] Top shape: 1024 67 (68608)
I0417 16:11:29.459483 20952 net.cpp:165] Memory required for data: 4106989568
I0417 16:11:29.459496 20952 layer_factory.hpp:77] Creating layer fc5_classes_fc5_67_0_split
I0417 16:11:29.459504 20952 net.cpp:100] Creating Layer fc5_classes_fc5_67_0_split
I0417 16:11:29.459508 20952 net.cpp:434] fc5_classes_fc5_67_0_split <- fc5_classes
I0417 16:11:29.459514 20952 net.cpp:408] fc5_classes_fc5_67_0_split -> fc5_classes_fc5_67_0_split_0
I0417 16:11:29.459524 20952 net.cpp:408] fc5_classes_fc5_67_0_split -> fc5_classes_fc5_67_0_split_1
I0417 16:11:29.459532 20952 net.cpp:408] fc5_classes_fc5_67_0_split -> fc5_classes_fc5_67_0_split_2
I0417 16:11:29.459583 20952 net.cpp:150] Setting up fc5_classes_fc5_67_0_split
I0417 16:11:29.459590 20952 net.cpp:157] Top shape: 1024 67 (68608)
I0417 16:11:29.459594 20952 net.cpp:157] Top shape: 1024 67 (68608)
I0417 16:11:29.459596 20952 net.cpp:157] Top shape: 1024 67 (68608)
I0417 16:11:29.459599 20952 net.cpp:165] Memory required for data: 4107812864
I0417 16:11:29.459602 20952 layer_factory.hpp:77] Creating layer softmax
I0417 16:11:29.459609 20952 net.cpp:100] Creating Layer softmax
I0417 16:11:29.459614 20952 net.cpp:434] softmax <- fc5_classes_fc5_67_0_split_0
I0417 16:11:29.459619 20952 net.cpp:408] softmax -> softmax
I0417 16:11:29.459928 20952 net.cpp:150] Setting up softmax
I0417 16:11:29.459942 20952 net.cpp:157] Top shape: 1024 67 (68608)
I0417 16:11:29.459945 20952 net.cpp:165] Memory required for data: 4108087296
I0417 16:11:29.459949 20952 layer_factory.hpp:77] Creating layer loss
I0417 16:11:29.459955 20952 net.cpp:100] Creating Layer loss
I0417 16:11:29.459960 20952 net.cpp:434] loss <- softmax
I0417 16:11:29.459965 20952 net.cpp:434] loss <- label_data_1_split_0
I0417 16:11:29.459970 20952 net.cpp:408] loss -> loss
…
