…
I0414 03:11:53.150257  1703 solver.cpp:93] Creating training net from train_net file: ./Prototxt/experiment_11/rtsd-r1/CoNorm/trial_1/train.prototxt
I0414 03:11:53.150982  1703 net.cpp:58] Initializing net from parameters: 
state {
  phase: TRAIN
  level: 0
  stage: ""
}
layer {
  name: "data"
  type: "Data"
  top: "data"
  top: "label"
  include {
    phase: TRAIN
  }
  transform_param {
    scale: 0.0039215689
    mirror: false
    crop_size: 48
    mean_value: 132
    mean_value: 132
    mean_value: 131
  }
  data_param {
    source: "../local_data/lmdb/rtsd-r1/CoNorm/train/lmdb"
    batch_size: 1024
    backend: LMDB
  }
}
layer {
  name: "conv1"
  type: "Convolution"
  bottom: "data"
  top: "conv1"
  convolution_param {
    num_output: 100
    pad: 0
    kernel_size: 7
    group: 1
    stride: 1
    weight_filler {
      type: "xavier"
    }
  }
}
layer {
  name: "conv1_prescale"
  type: "Scale"
  bottom: "conv1"
  top: "conv1"
  param {
    lr_mult: 0
    decay_mult: 0
  }
  scale_param {
    filler {
      value: 0.6666
    }
    bias_term: false
  }
}
layer {
  name: "conv1_sTanH"
  type: "TanH"
  bottom: "conv1"
  top: "conv1"
}
layer {
  name: "conv1_postscale"
  type: "Scale"
  bottom: "conv1"
  top: "conv1"
  param {
    lr_mult: 0
    decay_mult: 0
  }
  scale_param {
    filler {
      value: 1.7159
    }
    bias_term: false
  }
}
layer {
  name: "pool1"
  type: "Pooling"
  bottom: "conv1"
  top: "pool1"
  pooling_param {
    pool: MAX
    kernel_size: 2
    stride: 2
  }
}
layer {
  name: "conv2"
  type: "Convolution"
  bottom: "pool1"
  top: "conv2"
  convolution_param {
    num_output: 150
    pad: 0
    kernel_size: 4
    group: 1
    stride: 1
    weight_filler {
      type: "xavier"
    }
  }
}
layer {
  name: "conv2_prescale"
  type: "Scale"
  bottom: "conv2"
  top: "conv2"
  param {
    lr_mult: 0
    decay_mult: 0
  }
  scale_param {
    filler {
      value: 0.6666
    }
    bias_term: false
  }
}
layer {
  name: "conv2_sTanH"
  type: "TanH"
  bottom: "conv2"
  top: "conv2"
}
layer {
  name: "conv2_postscale"
  type: "Scale"
  bottom: "conv2"
  top: "conv2"
  param {
    lr_mult: 0
    decay_mult: 0
  }
  scale_param {
    filler {
      value: 1.7159
    }
    bias_term: false
  }
}
layer {
  name: "pool2"
  type: "Pooling"
  bottom: "conv2"
  top: "pool2"
  pooling_param {
    pool: MAX
    kernel_size: 2
    stride: 2
  }
}
layer {
  name: "conv3"
  type: "Convolution"
  bottom: "pool2"
  top: "conv3"
  convolution_param {
    num_output: 250
    pad: 0
    kernel_size: 4
    group: 1
    stride: 1
    weight_filler {
      type: "xavier"
    }
  }
}
layer {
  name: "conv3_prescale"
  type: "Scale"
  bottom: "conv3"
  top: "conv3"
  param {
    lr_mult: 0
    decay_mult: 0
  }
  scale_param {
    filler {
      value: 0.6666
    }
    bias_term: false
  }
}
layer {
  name: "conv3_sTanH"
  type: "TanH"
  bottom: "conv3"
  top: "conv3"
}
layer {
  name: "conv3_postscale"
  type: "Scale"
  bottom: "conv3"
  top: "conv3"
  param {
    lr_mult: 0
    decay_mult: 0
  }
  scale_param {
    filler {
      value: 1.7159
    }
    bias_term: false
  }
}
layer {
  name: "pool3"
  type: "Pooling"
  bottom: "conv3"
  top: "pool3"
  pooling_param {
    pool: MAX
    kernel_size: 2
    stride: 2
  }
}
layer {
  name: "fc4_300"
  type: "InnerProduct"
  bottom: "pool3"
  top: "fc4_300"
  inner_product_param {
    num_output: 300
    weight_filler {
      type: "xavier"
    }
  }
}
layer {
  name: "fc4_prescale"
  type: "Scale"
  bottom: "fc4_300"
  top: "fc4_300"
  param {
    lr_mult: 0
    decay_mult: 0
  }
  scale_param {
    filler {
      value: 0.6666
    }
    bias_term: false
  }
}
layer {
  name: "fc4_sTanH"
  type: "TanH"
  bottom: "fc4_300"
  top: "fc4_300"
}
layer {
  name: "fc4_postscale"
  type: "Scale"
  bottom: "fc4_300"
  top: "fc4_300"
  param {
    lr_mult: 0
    decay_mult: 0
  }
  scale_param {
    filler {
      value: 1.7159
    }
    bias_term: false
  }
}
layer {
  name: "fc5_67"
  type: "InnerProduct"
  bottom: "fc4_300"
  top: "fc5_classes"
  inner_product_param {
    num_output: 67
    weight_filler {
      type: "xavier"
    }
  }
}
layer {
  name: "softmax"
  type: "Softmax"
  bottom: "fc5_classes"
  top: "softmax"
}
layer {
  name: "loss"
  type: "MultinomialLogisticLoss"
  bottom: "softmax"
  bottom: "label"
  top: "loss"
}
layer {
  name: "accuracy_1"
  type: "Accuracy"
  bottom: "fc5_classes"
  bottom: "label"
  top: "accuracy_1"
  accuracy_param {
    top_k: 1
  }
}
layer {
  name: "accuracy_5"
  type: "Accuracy"
  bottom: "fc5_classes"
  bottom: "label"
  top: "accuracy_5"
  accuracy_param {
    top_k: 5
  }
}
layer {
  name: "silence"
  type: "Silence"
  bottom: "accuracy_1"
  bottom: "accuracy_5"
}
I0414 03:11:53.151235  1703 layer_factory.hpp:77] Creating layer data
I0414 03:11:53.153296  1703 net.cpp:100] Creating Layer data
I0414 03:11:53.153321  1703 net.cpp:408] data -> data
I0414 03:11:53.153355  1703 net.cpp:408] data -> label
I0414 03:11:53.155306  1842 db_lmdb.cpp:35] Opened lmdb ../local_data/lmdb/rtsd-r1/CoNorm/train/lmdb
I0414 03:11:53.185858  1703 data_layer.cpp:41] output data size: 1024,3,48,48
I0414 03:11:53.264428  1703 net.cpp:150] Setting up data
I0414 03:11:53.264456  1703 net.cpp:157] Top shape: 1024 3 48 48 (7077888)
I0414 03:11:53.264462  1703 net.cpp:157] Top shape: 1024 (1024)
I0414 03:11:53.264467  1703 net.cpp:165] Memory required for data: 28315648
I0414 03:11:53.264478  1703 layer_factory.hpp:77] Creating layer label_data_1_split
I0414 03:11:53.264495  1703 net.cpp:100] Creating Layer label_data_1_split
I0414 03:11:53.264503  1703 net.cpp:434] label_data_1_split <- label
I0414 03:11:53.264518  1703 net.cpp:408] label_data_1_split -> label_data_1_split_0
I0414 03:11:53.264531  1703 net.cpp:408] label_data_1_split -> label_data_1_split_1
I0414 03:11:53.264540  1703 net.cpp:408] label_data_1_split -> label_data_1_split_2
I0414 03:11:53.264609  1703 net.cpp:150] Setting up label_data_1_split
I0414 03:11:53.264618  1703 net.cpp:157] Top shape: 1024 (1024)
I0414 03:11:53.264622  1703 net.cpp:157] Top shape: 1024 (1024)
I0414 03:11:53.264626  1703 net.cpp:157] Top shape: 1024 (1024)
I0414 03:11:53.264629  1703 net.cpp:165] Memory required for data: 28327936
I0414 03:11:53.264633  1703 layer_factory.hpp:77] Creating layer conv1
I0414 03:11:53.264652  1703 net.cpp:100] Creating Layer conv1
I0414 03:11:53.264657  1703 net.cpp:434] conv1 <- data
I0414 03:11:53.264664  1703 net.cpp:408] conv1 -> conv1
I0414 03:11:53.603830  1703 net.cpp:150] Setting up conv1
I0414 03:11:53.603855  1703 net.cpp:157] Top shape: 1024 100 42 42 (180633600)
I0414 03:11:53.603858  1703 net.cpp:165] Memory required for data: 750862336
I0414 03:11:53.603891  1703 layer_factory.hpp:77] Creating layer conv1_prescale
I0414 03:11:53.603905  1703 net.cpp:100] Creating Layer conv1_prescale
I0414 03:11:53.603909  1703 net.cpp:434] conv1_prescale <- conv1
I0414 03:11:53.603916  1703 net.cpp:395] conv1_prescale -> conv1 (in-place)
I0414 03:11:53.604024  1703 net.cpp:150] Setting up conv1_prescale
I0414 03:11:53.604033  1703 net.cpp:157] Top shape: 1024 100 42 42 (180633600)
I0414 03:11:53.604037  1703 net.cpp:165] Memory required for data: 1473396736
I0414 03:11:53.604043  1703 layer_factory.hpp:77] Creating layer conv1_sTanH
I0414 03:11:53.604053  1703 net.cpp:100] Creating Layer conv1_sTanH
I0414 03:11:53.604058  1703 net.cpp:434] conv1_sTanH <- conv1
I0414 03:11:53.604063  1703 net.cpp:395] conv1_sTanH -> conv1 (in-place)
I0414 03:11:53.604256  1703 net.cpp:150] Setting up conv1_sTanH
I0414 03:11:53.604285  1703 net.cpp:157] Top shape: 1024 100 42 42 (180633600)
I0414 03:11:53.604290  1703 net.cpp:165] Memory required for data: 2195931136
I0414 03:11:53.604293  1703 layer_factory.hpp:77] Creating layer conv1_postscale
I0414 03:11:53.604300  1703 net.cpp:100] Creating Layer conv1_postscale
I0414 03:11:53.604305  1703 net.cpp:434] conv1_postscale <- conv1
I0414 03:11:53.604310  1703 net.cpp:395] conv1_postscale -> conv1 (in-place)
I0414 03:11:53.604404  1703 net.cpp:150] Setting up conv1_postscale
I0414 03:11:53.604413  1703 net.cpp:157] Top shape: 1024 100 42 42 (180633600)
I0414 03:11:53.604415  1703 net.cpp:165] Memory required for data: 2918465536
I0414 03:11:53.604420  1703 layer_factory.hpp:77] Creating layer pool1
I0414 03:11:53.604426  1703 net.cpp:100] Creating Layer pool1
I0414 03:11:53.604429  1703 net.cpp:434] pool1 <- conv1
I0414 03:11:53.604434  1703 net.cpp:408] pool1 -> pool1
I0414 03:11:53.604480  1703 net.cpp:150] Setting up pool1
I0414 03:11:53.604488  1703 net.cpp:157] Top shape: 1024 100 21 21 (45158400)
I0414 03:11:53.604491  1703 net.cpp:165] Memory required for data: 3099099136
I0414 03:11:53.604495  1703 layer_factory.hpp:77] Creating layer conv2
I0414 03:11:53.604504  1703 net.cpp:100] Creating Layer conv2
I0414 03:11:53.604509  1703 net.cpp:434] conv2 <- pool1
I0414 03:11:53.604514  1703 net.cpp:408] conv2 -> conv2
I0414 03:11:53.610548  1703 net.cpp:150] Setting up conv2
I0414 03:11:53.610566  1703 net.cpp:157] Top shape: 1024 150 18 18 (49766400)
I0414 03:11:53.610570  1703 net.cpp:165] Memory required for data: 3298164736
I0414 03:11:53.610580  1703 layer_factory.hpp:77] Creating layer conv2_prescale
I0414 03:11:53.610590  1703 net.cpp:100] Creating Layer conv2_prescale
I0414 03:11:53.610596  1703 net.cpp:434] conv2_prescale <- conv2
I0414 03:11:53.610601  1703 net.cpp:395] conv2_prescale -> conv2 (in-place)
I0414 03:11:53.610709  1703 net.cpp:150] Setting up conv2_prescale
I0414 03:11:53.610718  1703 net.cpp:157] Top shape: 1024 150 18 18 (49766400)
I0414 03:11:53.610720  1703 net.cpp:165] Memory required for data: 3497230336
I0414 03:11:53.610725  1703 layer_factory.hpp:77] Creating layer conv2_sTanH
I0414 03:11:53.610730  1703 net.cpp:100] Creating Layer conv2_sTanH
I0414 03:11:53.610733  1703 net.cpp:434] conv2_sTanH <- conv2
I0414 03:11:53.610738  1703 net.cpp:395] conv2_sTanH -> conv2 (in-place)
I0414 03:11:53.612473  1703 net.cpp:150] Setting up conv2_sTanH
I0414 03:11:53.612489  1703 net.cpp:157] Top shape: 1024 150 18 18 (49766400)
I0414 03:11:53.612493  1703 net.cpp:165] Memory required for data: 3696295936
I0414 03:11:53.612498  1703 layer_factory.hpp:77] Creating layer conv2_postscale
I0414 03:11:53.612504  1703 net.cpp:100] Creating Layer conv2_postscale
I0414 03:11:53.612510  1703 net.cpp:434] conv2_postscale <- conv2
I0414 03:11:53.612516  1703 net.cpp:395] conv2_postscale -> conv2 (in-place)
I0414 03:11:53.612614  1703 net.cpp:150] Setting up conv2_postscale
I0414 03:11:53.612622  1703 net.cpp:157] Top shape: 1024 150 18 18 (49766400)
I0414 03:11:53.612625  1703 net.cpp:165] Memory required for data: 3895361536
I0414 03:11:53.612630  1703 layer_factory.hpp:77] Creating layer pool2
I0414 03:11:53.612637  1703 net.cpp:100] Creating Layer pool2
I0414 03:11:53.612639  1703 net.cpp:434] pool2 <- conv2
I0414 03:11:53.612644  1703 net.cpp:408] pool2 -> pool2
I0414 03:11:53.612685  1703 net.cpp:150] Setting up pool2
I0414 03:11:53.612694  1703 net.cpp:157] Top shape: 1024 150 9 9 (12441600)
I0414 03:11:53.612696  1703 net.cpp:165] Memory required for data: 3945127936
I0414 03:11:53.612699  1703 layer_factory.hpp:77] Creating layer conv3
I0414 03:11:53.612709  1703 net.cpp:100] Creating Layer conv3
I0414 03:11:53.612715  1703 net.cpp:434] conv3 <- pool2
I0414 03:11:53.612720  1703 net.cpp:408] conv3 -> conv3
I0414 03:11:53.621987  1703 net.cpp:150] Setting up conv3
I0414 03:11:53.622007  1703 net.cpp:157] Top shape: 1024 250 6 6 (9216000)
I0414 03:11:53.622014  1703 net.cpp:165] Memory required for data: 3981991936
I0414 03:11:53.622025  1703 layer_factory.hpp:77] Creating layer conv3_prescale
I0414 03:11:53.622048  1703 net.cpp:100] Creating Layer conv3_prescale
I0414 03:11:53.622056  1703 net.cpp:434] conv3_prescale <- conv3
I0414 03:11:53.622061  1703 net.cpp:395] conv3_prescale -> conv3 (in-place)
I0414 03:11:53.622159  1703 net.cpp:150] Setting up conv3_prescale
I0414 03:11:53.622167  1703 net.cpp:157] Top shape: 1024 250 6 6 (9216000)
I0414 03:11:53.622170  1703 net.cpp:165] Memory required for data: 4018855936
I0414 03:11:53.622175  1703 layer_factory.hpp:77] Creating layer conv3_sTanH
I0414 03:11:53.622180  1703 net.cpp:100] Creating Layer conv3_sTanH
I0414 03:11:53.622184  1703 net.cpp:434] conv3_sTanH <- conv3
I0414 03:11:53.622187  1703 net.cpp:395] conv3_sTanH -> conv3 (in-place)
I0414 03:11:53.624780  1703 net.cpp:150] Setting up conv3_sTanH
I0414 03:11:53.624799  1703 net.cpp:157] Top shape: 1024 250 6 6 (9216000)
I0414 03:11:53.624804  1703 net.cpp:165] Memory required for data: 4055719936
I0414 03:11:53.624807  1703 layer_factory.hpp:77] Creating layer conv3_postscale
I0414 03:11:53.624815  1703 net.cpp:100] Creating Layer conv3_postscale
I0414 03:11:53.624821  1703 net.cpp:434] conv3_postscale <- conv3
I0414 03:11:53.624826  1703 net.cpp:395] conv3_postscale -> conv3 (in-place)
I0414 03:11:53.624927  1703 net.cpp:150] Setting up conv3_postscale
I0414 03:11:53.624934  1703 net.cpp:157] Top shape: 1024 250 6 6 (9216000)
I0414 03:11:53.624938  1703 net.cpp:165] Memory required for data: 4092583936
I0414 03:11:53.624943  1703 layer_factory.hpp:77] Creating layer pool3
I0414 03:11:53.624951  1703 net.cpp:100] Creating Layer pool3
I0414 03:11:53.624956  1703 net.cpp:434] pool3 <- conv3
I0414 03:11:53.624961  1703 net.cpp:408] pool3 -> pool3
I0414 03:11:53.625000  1703 net.cpp:150] Setting up pool3
I0414 03:11:53.625007  1703 net.cpp:157] Top shape: 1024 250 3 3 (2304000)
I0414 03:11:53.625010  1703 net.cpp:165] Memory required for data: 4101799936
I0414 03:11:53.625013  1703 layer_factory.hpp:77] Creating layer fc4_300
I0414 03:11:53.625020  1703 net.cpp:100] Creating Layer fc4_300
I0414 03:11:53.625025  1703 net.cpp:434] fc4_300 <- pool3
I0414 03:11:53.625028  1703 net.cpp:408] fc4_300 -> fc4_300
I0414 03:11:53.630869  1703 net.cpp:150] Setting up fc4_300
I0414 03:11:53.630885  1703 net.cpp:157] Top shape: 1024 300 (307200)
I0414 03:11:53.630889  1703 net.cpp:165] Memory required for data: 4103028736
I0414 03:11:53.630897  1703 layer_factory.hpp:77] Creating layer fc4_prescale
I0414 03:11:53.630906  1703 net.cpp:100] Creating Layer fc4_prescale
I0414 03:11:53.630913  1703 net.cpp:434] fc4_prescale <- fc4_300
I0414 03:11:53.630918  1703 net.cpp:395] fc4_prescale -> fc4_300 (in-place)
I0414 03:11:53.631005  1703 net.cpp:150] Setting up fc4_prescale
I0414 03:11:53.631012  1703 net.cpp:157] Top shape: 1024 300 (307200)
I0414 03:11:53.631014  1703 net.cpp:165] Memory required for data: 4104257536
I0414 03:11:53.631019  1703 layer_factory.hpp:77] Creating layer fc4_sTanH
I0414 03:11:53.631024  1703 net.cpp:100] Creating Layer fc4_sTanH
I0414 03:11:53.631029  1703 net.cpp:434] fc4_sTanH <- fc4_300
I0414 03:11:53.631034  1703 net.cpp:395] fc4_sTanH -> fc4_300 (in-place)
I0414 03:11:53.631216  1703 net.cpp:150] Setting up fc4_sTanH
I0414 03:11:53.631225  1703 net.cpp:157] Top shape: 1024 300 (307200)
I0414 03:11:53.631228  1703 net.cpp:165] Memory required for data: 4105486336
I0414 03:11:53.631232  1703 layer_factory.hpp:77] Creating layer fc4_postscale
I0414 03:11:53.631238  1703 net.cpp:100] Creating Layer fc4_postscale
I0414 03:11:53.631244  1703 net.cpp:434] fc4_postscale <- fc4_300
I0414 03:11:53.631249  1703 net.cpp:395] fc4_postscale -> fc4_300 (in-place)
I0414 03:11:53.631341  1703 net.cpp:150] Setting up fc4_postscale
I0414 03:11:53.631348  1703 net.cpp:157] Top shape: 1024 300 (307200)
I0414 03:11:53.631351  1703 net.cpp:165] Memory required for data: 4106715136
I0414 03:11:53.631356  1703 layer_factory.hpp:77] Creating layer fc5_67
I0414 03:11:53.631361  1703 net.cpp:100] Creating Layer fc5_67
I0414 03:11:53.631364  1703 net.cpp:434] fc5_67 <- fc4_300
I0414 03:11:53.631369  1703 net.cpp:408] fc5_67 -> fc5_classes
I0414 03:11:53.632738  1703 net.cpp:150] Setting up fc5_67
I0414 03:11:53.632755  1703 net.cpp:157] Top shape: 1024 67 (68608)
I0414 03:11:53.632758  1703 net.cpp:165] Memory required for data: 4106989568
I0414 03:11:53.632768  1703 layer_factory.hpp:77] Creating layer fc5_classes_fc5_67_0_split
I0414 03:11:53.632777  1703 net.cpp:100] Creating Layer fc5_classes_fc5_67_0_split
I0414 03:11:53.632782  1703 net.cpp:434] fc5_classes_fc5_67_0_split <- fc5_classes
I0414 03:11:53.632788  1703 net.cpp:408] fc5_classes_fc5_67_0_split -> fc5_classes_fc5_67_0_split_0
I0414 03:11:53.632796  1703 net.cpp:408] fc5_classes_fc5_67_0_split -> fc5_classes_fc5_67_0_split_1
I0414 03:11:53.632804  1703 net.cpp:408] fc5_classes_fc5_67_0_split -> fc5_classes_fc5_67_0_split_2
I0414 03:11:53.632853  1703 net.cpp:150] Setting up fc5_classes_fc5_67_0_split
I0414 03:11:53.632860  1703 net.cpp:157] Top shape: 1024 67 (68608)
I0414 03:11:53.632864  1703 net.cpp:157] Top shape: 1024 67 (68608)
I0414 03:11:53.632868  1703 net.cpp:157] Top shape: 1024 67 (68608)
I0414 03:11:53.632869  1703 net.cpp:165] Memory required for data: 4107812864
I0414 03:11:53.632872  1703 layer_factory.hpp:77] Creating layer softmax
I0414 03:11:53.632879  1703 net.cpp:100] Creating Layer softmax
I0414 03:11:53.632884  1703 net.cpp:434] softmax <- fc5_classes_fc5_67_0_split_0
I0414 03:11:53.632889  1703 net.cpp:408] softmax -> softmax
I0414 03:11:53.633132  1703 net.cpp:150] Setting up softmax
I0414 03:11:53.633144  1703 net.cpp:157] Top shape: 1024 67 (68608)
I0414 03:11:53.633147  1703 net.cpp:165] Memory required for data: 4108087296
I0414 03:11:53.633150  1703 layer_factory.hpp:77] Creating layer loss
I0414 03:11:53.633157  1703 net.cpp:100] Creating Layer loss
I0414 03:11:53.633162  1703 net.cpp:434] loss <- softmax
I0414 03:11:53.633165  1703 net.cpp:434] loss <- label_data_1_split_0
I0414 03:11:53.633170  1703 net.cpp:408] loss -> loss
…
