…
I0414 03:06:01.797708   587 solver.cpp:93] Creating training net from train_net file: ./Prototxt/experiment_11/rtsd-r1/CoNorm/trial_1/train.prototxt
I0414 03:06:01.798596   587 net.cpp:58] Initializing net from parameters: 
state {
  phase: TRAIN
  level: 0
  stage: ""
}
layer {
  name: "data"
  type: "Data"
  top: "data"
  top: "label"
  include {
    phase: TRAIN
  }
  transform_param {
    scale: 0.0039215689
    mirror: false
    crop_size: 48
    mean_value: 132
    mean_value: 132
    mean_value: 131
  }
  data_param {
    source: "../local_data/lmdb/rtsd-r1/CoNorm/train/lmdb"
    batch_size: 1024
    backend: LMDB
  }
}
layer {
  name: "conv1"
  type: "Convolution"
  bottom: "data"
  top: "conv1"
  convolution_param {
    num_output: 100
    pad: 0
    kernel_size: 7
    group: 1
    stride: 1
    weight_filler {
      type: "xavier"
    }
  }
}
layer {
  name: "conv1_prescale"
  type: "Scale"
  bottom: "conv1"
  top: "conv1"
  param {
    lr_mult: 0
    decay_mult: 0
  }
  scale_param {
    filler {
      value: 0.6666
    }
    bias_term: false
  }
}
layer {
  name: "conv1_sTanH"
  type: "TanH"
  bottom: "conv1"
  top: "conv1"
}
layer {
  name: "conv1_postscale"
  type: "Scale"
  bottom: "conv1"
  top: "conv1"
  param {
    lr_mult: 0
    decay_mult: 0
  }
  scale_param {
    filler {
      value: 1.7159
    }
    bias_term: false
  }
}
layer {
  name: "pool1"
  type: "Pooling"
  bottom: "conv1"
  top: "pool1"
  pooling_param {
    pool: MAX
    kernel_size: 2
    stride: 2
  }
}
layer {
  name: "conv2"
  type: "Convolution"
  bottom: "pool1"
  top: "conv2"
  convolution_param {
    num_output: 150
    pad: 0
    kernel_size: 4
    group: 1
    stride: 1
    weight_filler {
      type: "xavier"
    }
  }
}
layer {
  name: "conv2_prescale"
  type: "Scale"
  bottom: "conv2"
  top: "conv2"
  param {
    lr_mult: 0
    decay_mult: 0
  }
  scale_param {
    filler {
      value: 0.6666
    }
    bias_term: false
  }
}
layer {
  name: "conv2_sTanH"
  type: "TanH"
  bottom: "conv2"
  top: "conv2"
}
layer {
  name: "conv2_postscale"
  type: "Scale"
  bottom: "conv2"
  top: "conv2"
  param {
    lr_mult: 0
    decay_mult: 0
  }
  scale_param {
    filler {
      value: 1.7159
    }
    bias_term: false
  }
}
layer {
  name: "pool2"
  type: "Pooling"
  bottom: "conv2"
  top: "pool2"
  pooling_param {
    pool: MAX
    kernel_size: 2
    stride: 2
  }
}
layer {
  name: "conv3"
  type: "Convolution"
  bottom: "pool2"
  top: "conv3"
  convolution_param {
    num_output: 250
    pad: 0
    kernel_size: 4
    group: 1
    stride: 1
    weight_filler {
      type: "xavier"
    }
  }
}
layer {
  name: "conv3_prescale"
  type: "Scale"
  bottom: "conv3"
  top: "conv3"
  param {
    lr_mult: 0
    decay_mult: 0
  }
  scale_param {
    filler {
      value: 0.6666
    }
    bias_term: false
  }
}
layer {
  name: "conv3_sTanH"
  type: "TanH"
  bottom: "conv3"
  top: "conv3"
}
layer {
  name: "conv3_postscale"
  type: "Scale"
  bottom: "conv3"
  top: "conv3"
  param {
    lr_mult: 0
    decay_mult: 0
  }
  scale_param {
    filler {
      value: 1.7159
    }
    bias_term: false
  }
}
layer {
  name: "pool3"
  type: "Pooling"
  bottom: "conv3"
  top: "pool3"
  pooling_param {
    pool: MAX
    kernel_size: 2
    stride: 2
  }
}
layer {
  name: "fc4_300"
  type: "InnerProduct"
  bottom: "pool3"
  top: "fc4_300"
  inner_product_param {
    num_output: 300
    weight_filler {
      type: "xavier"
    }
  }
}
layer {
  name: "fc4_prescale"
  type: "Scale"
  bottom: "fc4_300"
  top: "fc4_300"
  param {
    lr_mult: 0
    decay_mult: 0
  }
  scale_param {
    filler {
      value: 0.6666
    }
    bias_term: false
  }
}
layer {
  name: "fc4_sTanH"
  type: "TanH"
  bottom: "fc4_300"
  top: "fc4_300"
}
layer {
  name: "fc4_postscale"
  type: "Scale"
  bottom: "fc4_300"
  top: "fc4_300"
  param {
    lr_mult: 0
    decay_mult: 0
  }
  scale_param {
    filler {
      value: 1.7159
    }
    bias_term: false
  }
}
layer {
  name: "fc5_67"
  type: "InnerProduct"
  bottom: "fc4_300"
  top: "fc5_classes"
  inner_product_param {
    num_output: 67
    weight_filler {
      type: "xavier"
    }
  }
}
layer {
  name: "softmax"
  type: "Softmax"
  bottom: "fc5_classes"
  top: "softmax"
}
layer {
  name: "loss"
  type: "MultinomialLogisticLoss"
  bottom: "softmax"
  bottom: "label"
  top: "loss"
}
layer {
  name: "accuracy_1"
  type: "Accuracy"
  bottom: "fc5_classes"
  bottom: "label"
  top: "accuracy_1"
  accuracy_param {
    top_k: 1
  }
}
layer {
  name: "accuracy_5"
  type: "Accuracy"
  bottom: "fc5_classes"
  bottom: "label"
  top: "accuracy_5"
  accuracy_param {
    top_k: 5
  }
}
layer {
  name: "silence"
  type: "Silence"
  bottom: "accuracy_1"
  bottom: "accuracy_5"
}
I0414 03:06:01.798862   587 layer_factory.hpp:77] Creating layer data
I0414 03:06:01.800894   587 net.cpp:100] Creating Layer data
I0414 03:06:01.800920   587 net.cpp:408] data -> data
I0414 03:06:01.800957   587 net.cpp:408] data -> label
I0414 03:06:01.802901   712 db_lmdb.cpp:35] Opened lmdb ../local_data/lmdb/rtsd-r1/CoNorm/train/lmdb
I0414 03:06:01.826028   587 data_layer.cpp:41] output data size: 1024,3,48,48
I0414 03:06:01.887027   587 net.cpp:150] Setting up data
I0414 03:06:01.887056   587 net.cpp:157] Top shape: 1024 3 48 48 (7077888)
I0414 03:06:01.887063   587 net.cpp:157] Top shape: 1024 (1024)
I0414 03:06:01.887065   587 net.cpp:165] Memory required for data: 28315648
I0414 03:06:01.887078   587 layer_factory.hpp:77] Creating layer label_data_1_split
I0414 03:06:01.887096   587 net.cpp:100] Creating Layer label_data_1_split
I0414 03:06:01.887106   587 net.cpp:434] label_data_1_split <- label
I0414 03:06:01.887130   587 net.cpp:408] label_data_1_split -> label_data_1_split_0
I0414 03:06:01.887151   587 net.cpp:408] label_data_1_split -> label_data_1_split_1
I0414 03:06:01.887164   587 net.cpp:408] label_data_1_split -> label_data_1_split_2
I0414 03:06:01.887240   587 net.cpp:150] Setting up label_data_1_split
I0414 03:06:01.887250   587 net.cpp:157] Top shape: 1024 (1024)
I0414 03:06:01.887254   587 net.cpp:157] Top shape: 1024 (1024)
I0414 03:06:01.887259   587 net.cpp:157] Top shape: 1024 (1024)
I0414 03:06:01.887261   587 net.cpp:165] Memory required for data: 28327936
I0414 03:06:01.887265   587 layer_factory.hpp:77] Creating layer conv1
I0414 03:06:01.887282   587 net.cpp:100] Creating Layer conv1
I0414 03:06:01.887287   587 net.cpp:434] conv1 <- data
I0414 03:06:01.887293   587 net.cpp:408] conv1 -> conv1
I0414 03:06:02.200657   587 net.cpp:150] Setting up conv1
I0414 03:06:02.200685   587 net.cpp:157] Top shape: 1024 100 42 42 (180633600)
I0414 03:06:02.200690   587 net.cpp:165] Memory required for data: 750862336
I0414 03:06:02.200711   587 layer_factory.hpp:77] Creating layer conv1_prescale
I0414 03:06:02.200724   587 net.cpp:100] Creating Layer conv1_prescale
I0414 03:06:02.200728   587 net.cpp:434] conv1_prescale <- conv1
I0414 03:06:02.200734   587 net.cpp:395] conv1_prescale -> conv1 (in-place)
I0414 03:06:02.200836   587 net.cpp:150] Setting up conv1_prescale
I0414 03:06:02.200845   587 net.cpp:157] Top shape: 1024 100 42 42 (180633600)
I0414 03:06:02.200848   587 net.cpp:165] Memory required for data: 1473396736
I0414 03:06:02.200855   587 layer_factory.hpp:77] Creating layer conv1_sTanH
I0414 03:06:02.200865   587 net.cpp:100] Creating Layer conv1_sTanH
I0414 03:06:02.200870   587 net.cpp:434] conv1_sTanH <- conv1
I0414 03:06:02.200873   587 net.cpp:395] conv1_sTanH -> conv1 (in-place)
I0414 03:06:02.201113   587 net.cpp:150] Setting up conv1_sTanH
I0414 03:06:02.201155   587 net.cpp:157] Top shape: 1024 100 42 42 (180633600)
I0414 03:06:02.201165   587 net.cpp:165] Memory required for data: 2195931136
I0414 03:06:02.201174   587 layer_factory.hpp:77] Creating layer conv1_postscale
I0414 03:06:02.201186   587 net.cpp:100] Creating Layer conv1_postscale
I0414 03:06:02.201191   587 net.cpp:434] conv1_postscale <- conv1
I0414 03:06:02.201197   587 net.cpp:395] conv1_postscale -> conv1 (in-place)
I0414 03:06:02.201299   587 net.cpp:150] Setting up conv1_postscale
I0414 03:06:02.201309   587 net.cpp:157] Top shape: 1024 100 42 42 (180633600)
I0414 03:06:02.201314   587 net.cpp:165] Memory required for data: 2918465536
I0414 03:06:02.201320   587 layer_factory.hpp:77] Creating layer pool1
I0414 03:06:02.201326   587 net.cpp:100] Creating Layer pool1
I0414 03:06:02.201330   587 net.cpp:434] pool1 <- conv1
I0414 03:06:02.201334   587 net.cpp:408] pool1 -> pool1
I0414 03:06:02.201392   587 net.cpp:150] Setting up pool1
I0414 03:06:02.201402   587 net.cpp:157] Top shape: 1024 100 21 21 (45158400)
I0414 03:06:02.201406   587 net.cpp:165] Memory required for data: 3099099136
I0414 03:06:02.201409   587 layer_factory.hpp:77] Creating layer conv2
I0414 03:06:02.201419   587 net.cpp:100] Creating Layer conv2
I0414 03:06:02.201422   587 net.cpp:434] conv2 <- pool1
I0414 03:06:02.201427   587 net.cpp:408] conv2 -> conv2
I0414 03:06:02.206720   587 net.cpp:150] Setting up conv2
I0414 03:06:02.206737   587 net.cpp:157] Top shape: 1024 150 18 18 (49766400)
I0414 03:06:02.206740   587 net.cpp:165] Memory required for data: 3298164736
I0414 03:06:02.206751   587 layer_factory.hpp:77] Creating layer conv2_prescale
I0414 03:06:02.206763   587 net.cpp:100] Creating Layer conv2_prescale
I0414 03:06:02.206768   587 net.cpp:434] conv2_prescale <- conv2
I0414 03:06:02.206773   587 net.cpp:395] conv2_prescale -> conv2 (in-place)
I0414 03:06:02.206872   587 net.cpp:150] Setting up conv2_prescale
I0414 03:06:02.206881   587 net.cpp:157] Top shape: 1024 150 18 18 (49766400)
I0414 03:06:02.206883   587 net.cpp:165] Memory required for data: 3497230336
I0414 03:06:02.206887   587 layer_factory.hpp:77] Creating layer conv2_sTanH
I0414 03:06:02.206893   587 net.cpp:100] Creating Layer conv2_sTanH
I0414 03:06:02.206897   587 net.cpp:434] conv2_sTanH <- conv2
I0414 03:06:02.206900   587 net.cpp:395] conv2_sTanH -> conv2 (in-place)
I0414 03:06:02.210145   587 net.cpp:150] Setting up conv2_sTanH
I0414 03:06:02.210161   587 net.cpp:157] Top shape: 1024 150 18 18 (49766400)
I0414 03:06:02.210165   587 net.cpp:165] Memory required for data: 3696295936
I0414 03:06:02.210168   587 layer_factory.hpp:77] Creating layer conv2_postscale
I0414 03:06:02.210176   587 net.cpp:100] Creating Layer conv2_postscale
I0414 03:06:02.210181   587 net.cpp:434] conv2_postscale <- conv2
I0414 03:06:02.210186   587 net.cpp:395] conv2_postscale -> conv2 (in-place)
I0414 03:06:02.210279   587 net.cpp:150] Setting up conv2_postscale
I0414 03:06:02.210289   587 net.cpp:157] Top shape: 1024 150 18 18 (49766400)
I0414 03:06:02.210291   587 net.cpp:165] Memory required for data: 3895361536
I0414 03:06:02.210296   587 layer_factory.hpp:77] Creating layer pool2
I0414 03:06:02.210302   587 net.cpp:100] Creating Layer pool2
I0414 03:06:02.210305   587 net.cpp:434] pool2 <- conv2
I0414 03:06:02.210309   587 net.cpp:408] pool2 -> pool2
I0414 03:06:02.210348   587 net.cpp:150] Setting up pool2
I0414 03:06:02.210356   587 net.cpp:157] Top shape: 1024 150 9 9 (12441600)
I0414 03:06:02.210361   587 net.cpp:165] Memory required for data: 3945127936
I0414 03:06:02.210363   587 layer_factory.hpp:77] Creating layer conv3
I0414 03:06:02.210371   587 net.cpp:100] Creating Layer conv3
I0414 03:06:02.210376   587 net.cpp:434] conv3 <- pool2
I0414 03:06:02.210381   587 net.cpp:408] conv3 -> conv3
I0414 03:06:02.215992   587 net.cpp:150] Setting up conv3
I0414 03:06:02.216008   587 net.cpp:157] Top shape: 1024 250 6 6 (9216000)
I0414 03:06:02.216012   587 net.cpp:165] Memory required for data: 3981991936
I0414 03:06:02.216022   587 layer_factory.hpp:77] Creating layer conv3_prescale
I0414 03:06:02.216054   587 net.cpp:100] Creating Layer conv3_prescale
I0414 03:06:02.216060   587 net.cpp:434] conv3_prescale <- conv3
I0414 03:06:02.216066   587 net.cpp:395] conv3_prescale -> conv3 (in-place)
I0414 03:06:02.216154   587 net.cpp:150] Setting up conv3_prescale
I0414 03:06:02.216163   587 net.cpp:157] Top shape: 1024 250 6 6 (9216000)
I0414 03:06:02.216166   587 net.cpp:165] Memory required for data: 4018855936
I0414 03:06:02.216171   587 layer_factory.hpp:77] Creating layer conv3_sTanH
I0414 03:06:02.216177   587 net.cpp:100] Creating Layer conv3_sTanH
I0414 03:06:02.216181   587 net.cpp:434] conv3_sTanH <- conv3
I0414 03:06:02.216186   587 net.cpp:395] conv3_sTanH -> conv3 (in-place)
I0414 03:06:02.217064   587 net.cpp:150] Setting up conv3_sTanH
I0414 03:06:02.217079   587 net.cpp:157] Top shape: 1024 250 6 6 (9216000)
I0414 03:06:02.217083   587 net.cpp:165] Memory required for data: 4055719936
I0414 03:06:02.217088   587 layer_factory.hpp:77] Creating layer conv3_postscale
I0414 03:06:02.217095   587 net.cpp:100] Creating Layer conv3_postscale
I0414 03:06:02.217100   587 net.cpp:434] conv3_postscale <- conv3
I0414 03:06:02.217106   587 net.cpp:395] conv3_postscale -> conv3 (in-place)
I0414 03:06:02.217198   587 net.cpp:150] Setting up conv3_postscale
I0414 03:06:02.217206   587 net.cpp:157] Top shape: 1024 250 6 6 (9216000)
I0414 03:06:02.217209   587 net.cpp:165] Memory required for data: 4092583936
I0414 03:06:02.217214   587 layer_factory.hpp:77] Creating layer pool3
I0414 03:06:02.217223   587 net.cpp:100] Creating Layer pool3
I0414 03:06:02.217227   587 net.cpp:434] pool3 <- conv3
I0414 03:06:02.217233   587 net.cpp:408] pool3 -> pool3
I0414 03:06:02.217268   587 net.cpp:150] Setting up pool3
I0414 03:06:02.217275   587 net.cpp:157] Top shape: 1024 250 3 3 (2304000)
I0414 03:06:02.217278   587 net.cpp:165] Memory required for data: 4101799936
I0414 03:06:02.217280   587 layer_factory.hpp:77] Creating layer fc4_300
I0414 03:06:02.217288   587 net.cpp:100] Creating Layer fc4_300
I0414 03:06:02.217291   587 net.cpp:434] fc4_300 <- pool3
I0414 03:06:02.217296   587 net.cpp:408] fc4_300 -> fc4_300
I0414 03:06:02.222756   587 net.cpp:150] Setting up fc4_300
I0414 03:06:02.222771   587 net.cpp:157] Top shape: 1024 300 (307200)
I0414 03:06:02.222775   587 net.cpp:165] Memory required for data: 4103028736
I0414 03:06:02.222782   587 layer_factory.hpp:77] Creating layer fc4_prescale
I0414 03:06:02.222790   587 net.cpp:100] Creating Layer fc4_prescale
I0414 03:06:02.222793   587 net.cpp:434] fc4_prescale <- fc4_300
I0414 03:06:02.222798   587 net.cpp:395] fc4_prescale -> fc4_300 (in-place)
I0414 03:06:02.222880   587 net.cpp:150] Setting up fc4_prescale
I0414 03:06:02.222888   587 net.cpp:157] Top shape: 1024 300 (307200)
I0414 03:06:02.222892   587 net.cpp:165] Memory required for data: 4104257536
I0414 03:06:02.222895   587 layer_factory.hpp:77] Creating layer fc4_sTanH
I0414 03:06:02.222901   587 net.cpp:100] Creating Layer fc4_sTanH
I0414 03:06:02.222905   587 net.cpp:434] fc4_sTanH <- fc4_300
I0414 03:06:02.222909   587 net.cpp:395] fc4_sTanH -> fc4_300 (in-place)
I0414 03:06:02.223085   587 net.cpp:150] Setting up fc4_sTanH
I0414 03:06:02.223096   587 net.cpp:157] Top shape: 1024 300 (307200)
I0414 03:06:02.223099   587 net.cpp:165] Memory required for data: 4105486336
I0414 03:06:02.223103   587 layer_factory.hpp:77] Creating layer fc4_postscale
I0414 03:06:02.223109   587 net.cpp:100] Creating Layer fc4_postscale
I0414 03:06:02.223114   587 net.cpp:434] fc4_postscale <- fc4_300
I0414 03:06:02.223119   587 net.cpp:395] fc4_postscale -> fc4_300 (in-place)
I0414 03:06:02.223207   587 net.cpp:150] Setting up fc4_postscale
I0414 03:06:02.223215   587 net.cpp:157] Top shape: 1024 300 (307200)
I0414 03:06:02.223218   587 net.cpp:165] Memory required for data: 4106715136
I0414 03:06:02.223223   587 layer_factory.hpp:77] Creating layer fc5_67
I0414 03:06:02.223230   587 net.cpp:100] Creating Layer fc5_67
I0414 03:06:02.223234   587 net.cpp:434] fc5_67 <- fc4_300
I0414 03:06:02.223239   587 net.cpp:408] fc5_67 -> fc5_classes
I0414 03:06:02.224557   587 net.cpp:150] Setting up fc5_67
I0414 03:06:02.224572   587 net.cpp:157] Top shape: 1024 67 (68608)
I0414 03:06:02.224575   587 net.cpp:165] Memory required for data: 4106989568
I0414 03:06:02.224587   587 layer_factory.hpp:77] Creating layer fc5_classes_fc5_67_0_split
I0414 03:06:02.224596   587 net.cpp:100] Creating Layer fc5_classes_fc5_67_0_split
I0414 03:06:02.224601   587 net.cpp:434] fc5_classes_fc5_67_0_split <- fc5_classes
I0414 03:06:02.224606   587 net.cpp:408] fc5_classes_fc5_67_0_split -> fc5_classes_fc5_67_0_split_0
I0414 03:06:02.224616   587 net.cpp:408] fc5_classes_fc5_67_0_split -> fc5_classes_fc5_67_0_split_1
I0414 03:06:02.224622   587 net.cpp:408] fc5_classes_fc5_67_0_split -> fc5_classes_fc5_67_0_split_2
I0414 03:06:02.224671   587 net.cpp:150] Setting up fc5_classes_fc5_67_0_split
I0414 03:06:02.224678   587 net.cpp:157] Top shape: 1024 67 (68608)
I0414 03:06:02.224681   587 net.cpp:157] Top shape: 1024 67 (68608)
I0414 03:06:02.224684   587 net.cpp:157] Top shape: 1024 67 (68608)
I0414 03:06:02.224686   587 net.cpp:165] Memory required for data: 4107812864
I0414 03:06:02.224689   587 layer_factory.hpp:77] Creating layer softmax
I0414 03:06:02.224695   587 net.cpp:100] Creating Layer softmax
I0414 03:06:02.224699   587 net.cpp:434] softmax <- fc5_classes_fc5_67_0_split_0
I0414 03:06:02.224704   587 net.cpp:408] softmax -> softmax
I0414 03:06:02.224980   587 net.cpp:150] Setting up softmax
I0414 03:06:02.224995   587 net.cpp:157] Top shape: 1024 67 (68608)
I0414 03:06:02.224998   587 net.cpp:165] Memory required for data: 4108087296
I0414 03:06:02.225002   587 layer_factory.hpp:77] Creating layer loss
I0414 03:06:02.225008   587 net.cpp:100] Creating Layer loss
I0414 03:06:02.225011   587 net.cpp:434] loss <- softmax
I0414 03:06:02.225016   587 net.cpp:434] loss <- label_data_1_split_0
I0414 03:06:02.225021   587 net.cpp:408] loss -> loss
…
