…
I0414 03:08:36.332617 16767 solver.cpp:93] Creating training net from train_net file: ./Prototxt/experiment_11/rtsd-r1/CoNorm/trial_1/train.prototxt
I0414 03:08:36.333076 16767 net.cpp:58] Initializing net from parameters: 
state {
  phase: TRAIN
  level: 0
  stage: ""
}
layer {
  name: "data"
  type: "Data"
  top: "data"
  top: "label"
  include {
    phase: TRAIN
  }
  transform_param {
    scale: 0.0039215689
    mirror: false
    crop_size: 48
    mean_value: 132
    mean_value: 132
    mean_value: 131
  }
  data_param {
    source: "../local_data/lmdb/rtsd-r1/CoNorm/train/lmdb"
    batch_size: 1024
    backend: LMDB
  }
}
layer {
  name: "conv1"
  type: "Convolution"
  bottom: "data"
  top: "conv1"
  convolution_param {
    num_output: 100
    pad: 0
    kernel_size: 7
    group: 1
    stride: 1
    weight_filler {
      type: "xavier"
    }
  }
}
layer {
  name: "conv1_prescale"
  type: "Scale"
  bottom: "conv1"
  top: "conv1"
  param {
    lr_mult: 0
    decay_mult: 0
  }
  scale_param {
    filler {
      value: 0.6666
    }
    bias_term: false
  }
}
layer {
  name: "conv1_sTanH"
  type: "TanH"
  bottom: "conv1"
  top: "conv1"
}
layer {
  name: "conv1_postscale"
  type: "Scale"
  bottom: "conv1"
  top: "conv1"
  param {
    lr_mult: 0
    decay_mult: 0
  }
  scale_param {
    filler {
      value: 1.7159
    }
    bias_term: false
  }
}
layer {
  name: "pool1"
  type: "Pooling"
  bottom: "conv1"
  top: "pool1"
  pooling_param {
    pool: MAX
    kernel_size: 2
    stride: 2
  }
}
layer {
  name: "conv2"
  type: "Convolution"
  bottom: "pool1"
  top: "conv2"
  convolution_param {
    num_output: 150
    pad: 0
    kernel_size: 4
    group: 1
    stride: 1
    weight_filler {
      type: "xavier"
    }
  }
}
layer {
  name: "conv2_prescale"
  type: "Scale"
  bottom: "conv2"
  top: "conv2"
  param {
    lr_mult: 0
    decay_mult: 0
  }
  scale_param {
    filler {
      value: 0.6666
    }
    bias_term: false
  }
}
layer {
  name: "conv2_sTanH"
  type: "TanH"
  bottom: "conv2"
  top: "conv2"
}
layer {
  name: "conv2_postscale"
  type: "Scale"
  bottom: "conv2"
  top: "conv2"
  param {
    lr_mult: 0
    decay_mult: 0
  }
  scale_param {
    filler {
      value: 1.7159
    }
    bias_term: false
  }
}
layer {
  name: "pool2"
  type: "Pooling"
  bottom: "conv2"
  top: "pool2"
  pooling_param {
    pool: MAX
    kernel_size: 2
    stride: 2
  }
}
layer {
  name: "conv3"
  type: "Convolution"
  bottom: "pool2"
  top: "conv3"
  convolution_param {
    num_output: 250
    pad: 0
    kernel_size: 4
    group: 1
    stride: 1
    weight_filler {
      type: "xavier"
    }
  }
}
layer {
  name: "conv3_prescale"
  type: "Scale"
  bottom: "conv3"
  top: "conv3"
  param {
    lr_mult: 0
    decay_mult: 0
  }
  scale_param {
    filler {
      value: 0.6666
    }
    bias_term: false
  }
}
layer {
  name: "conv3_sTanH"
  type: "TanH"
  bottom: "conv3"
  top: "conv3"
}
layer {
  name: "conv3_postscale"
  type: "Scale"
  bottom: "conv3"
  top: "conv3"
  param {
    lr_mult: 0
    decay_mult: 0
  }
  scale_param {
    filler {
      value: 1.7159
    }
    bias_term: false
  }
}
layer {
  name: "pool3"
  type: "Pooling"
  bottom: "conv3"
  top: "pool3"
  pooling_param {
    pool: MAX
    kernel_size: 2
    stride: 2
  }
}
layer {
  name: "fc4_300"
  type: "InnerProduct"
  bottom: "pool3"
  top: "fc4_300"
  inner_product_param {
    num_output: 300
    weight_filler {
      type: "xavier"
    }
  }
}
layer {
  name: "fc4_prescale"
  type: "Scale"
  bottom: "fc4_300"
  top: "fc4_300"
  param {
    lr_mult: 0
    decay_mult: 0
  }
  scale_param {
    filler {
      value: 0.6666
    }
    bias_term: false
  }
}
layer {
  name: "fc4_sTanH"
  type: "TanH"
  bottom: "fc4_300"
  top: "fc4_300"
}
layer {
  name: "fc4_postscale"
  type: "Scale"
  bottom: "fc4_300"
  top: "fc4_300"
  param {
    lr_mult: 0
    decay_mult: 0
  }
  scale_param {
    filler {
      value: 1.7159
    }
    bias_term: false
  }
}
layer {
  name: "fc5_67"
  type: "InnerProduct"
  bottom: "fc4_300"
  top: "fc5_classes"
  inner_product_param {
    num_output: 67
    weight_filler {
      type: "xavier"
    }
  }
}
layer {
  name: "softmax"
  type: "Softmax"
  bottom: "fc5_classes"
  top: "softmax"
}
layer {
  name: "loss"
  type: "MultinomialLogisticLoss"
  bottom: "softmax"
  bottom: "label"
  top: "loss"
}
layer {
  name: "accuracy_1"
  type: "Accuracy"
  bottom: "fc5_classes"
  bottom: "label"
  top: "accuracy_1"
  accuracy_param {
    top_k: 1
  }
}
layer {
  name: "accuracy_5"
  type: "Accuracy"
  bottom: "fc5_classes"
  bottom: "label"
  top: "accuracy_5"
  accuracy_param {
    top_k: 5
  }
}
layer {
  name: "silence"
  type: "Silence"
  bottom: "accuracy_1"
  bottom: "accuracy_5"
}
I0414 03:08:36.333230 16767 layer_factory.hpp:77] Creating layer data
I0414 03:08:36.334300 16767 net.cpp:100] Creating Layer data
I0414 03:08:36.334318 16767 net.cpp:408] data -> data
I0414 03:08:36.334343 16767 net.cpp:408] data -> label
I0414 03:08:36.335346 16882 db_lmdb.cpp:35] Opened lmdb ../local_data/lmdb/rtsd-r1/CoNorm/train/lmdb
I0414 03:08:36.352784 16767 data_layer.cpp:41] output data size: 1024,3,48,48
I0414 03:08:36.414093 16767 net.cpp:150] Setting up data
I0414 03:08:36.414121 16767 net.cpp:157] Top shape: 1024 3 48 48 (7077888)
I0414 03:08:36.414127 16767 net.cpp:157] Top shape: 1024 (1024)
I0414 03:08:36.414130 16767 net.cpp:165] Memory required for data: 28315648
I0414 03:08:36.414142 16767 layer_factory.hpp:77] Creating layer label_data_1_split
I0414 03:08:36.414155 16767 net.cpp:100] Creating Layer label_data_1_split
I0414 03:08:36.414161 16767 net.cpp:434] label_data_1_split <- label
I0414 03:08:36.414175 16767 net.cpp:408] label_data_1_split -> label_data_1_split_0
I0414 03:08:36.414187 16767 net.cpp:408] label_data_1_split -> label_data_1_split_1
I0414 03:08:36.414199 16767 net.cpp:408] label_data_1_split -> label_data_1_split_2
I0414 03:08:36.414269 16767 net.cpp:150] Setting up label_data_1_split
I0414 03:08:36.414278 16767 net.cpp:157] Top shape: 1024 (1024)
I0414 03:08:36.414281 16767 net.cpp:157] Top shape: 1024 (1024)
I0414 03:08:36.414285 16767 net.cpp:157] Top shape: 1024 (1024)
I0414 03:08:36.414288 16767 net.cpp:165] Memory required for data: 28327936
I0414 03:08:36.414291 16767 layer_factory.hpp:77] Creating layer conv1
I0414 03:08:36.414309 16767 net.cpp:100] Creating Layer conv1
I0414 03:08:36.414314 16767 net.cpp:434] conv1 <- data
I0414 03:08:36.414321 16767 net.cpp:408] conv1 -> conv1
I0414 03:08:36.740031 16767 net.cpp:150] Setting up conv1
I0414 03:08:36.740061 16767 net.cpp:157] Top shape: 1024 100 42 42 (180633600)
I0414 03:08:36.740064 16767 net.cpp:165] Memory required for data: 750862336
I0414 03:08:36.740087 16767 layer_factory.hpp:77] Creating layer conv1_prescale
I0414 03:08:36.740101 16767 net.cpp:100] Creating Layer conv1_prescale
I0414 03:08:36.740108 16767 net.cpp:434] conv1_prescale <- conv1
I0414 03:08:36.740114 16767 net.cpp:395] conv1_prescale -> conv1 (in-place)
I0414 03:08:36.740226 16767 net.cpp:150] Setting up conv1_prescale
I0414 03:08:36.740236 16767 net.cpp:157] Top shape: 1024 100 42 42 (180633600)
I0414 03:08:36.740239 16767 net.cpp:165] Memory required for data: 1473396736
I0414 03:08:36.740247 16767 layer_factory.hpp:77] Creating layer conv1_sTanH
I0414 03:08:36.740255 16767 net.cpp:100] Creating Layer conv1_sTanH
I0414 03:08:36.740260 16767 net.cpp:434] conv1_sTanH <- conv1
I0414 03:08:36.740264 16767 net.cpp:395] conv1_sTanH -> conv1 (in-place)
I0414 03:08:36.740458 16767 net.cpp:150] Setting up conv1_sTanH
I0414 03:08:36.740491 16767 net.cpp:157] Top shape: 1024 100 42 42 (180633600)
I0414 03:08:36.740495 16767 net.cpp:165] Memory required for data: 2195931136
I0414 03:08:36.740499 16767 layer_factory.hpp:77] Creating layer conv1_postscale
I0414 03:08:36.740506 16767 net.cpp:100] Creating Layer conv1_postscale
I0414 03:08:36.740511 16767 net.cpp:434] conv1_postscale <- conv1
I0414 03:08:36.740517 16767 net.cpp:395] conv1_postscale -> conv1 (in-place)
I0414 03:08:36.740615 16767 net.cpp:150] Setting up conv1_postscale
I0414 03:08:36.740623 16767 net.cpp:157] Top shape: 1024 100 42 42 (180633600)
I0414 03:08:36.740628 16767 net.cpp:165] Memory required for data: 2918465536
I0414 03:08:36.740633 16767 layer_factory.hpp:77] Creating layer pool1
I0414 03:08:36.740641 16767 net.cpp:100] Creating Layer pool1
I0414 03:08:36.740645 16767 net.cpp:434] pool1 <- conv1
I0414 03:08:36.740650 16767 net.cpp:408] pool1 -> pool1
I0414 03:08:36.740698 16767 net.cpp:150] Setting up pool1
I0414 03:08:36.740707 16767 net.cpp:157] Top shape: 1024 100 21 21 (45158400)
I0414 03:08:36.740710 16767 net.cpp:165] Memory required for data: 3099099136
I0414 03:08:36.740715 16767 layer_factory.hpp:77] Creating layer conv2
I0414 03:08:36.740725 16767 net.cpp:100] Creating Layer conv2
I0414 03:08:36.740728 16767 net.cpp:434] conv2 <- pool1
I0414 03:08:36.740733 16767 net.cpp:408] conv2 -> conv2
I0414 03:08:36.748486 16767 net.cpp:150] Setting up conv2
I0414 03:08:36.748503 16767 net.cpp:157] Top shape: 1024 150 18 18 (49766400)
I0414 03:08:36.748508 16767 net.cpp:165] Memory required for data: 3298164736
I0414 03:08:36.748518 16767 layer_factory.hpp:77] Creating layer conv2_prescale
I0414 03:08:36.748529 16767 net.cpp:100] Creating Layer conv2_prescale
I0414 03:08:36.748535 16767 net.cpp:434] conv2_prescale <- conv2
I0414 03:08:36.748540 16767 net.cpp:395] conv2_prescale -> conv2 (in-place)
I0414 03:08:36.748647 16767 net.cpp:150] Setting up conv2_prescale
I0414 03:08:36.748656 16767 net.cpp:157] Top shape: 1024 150 18 18 (49766400)
I0414 03:08:36.748661 16767 net.cpp:165] Memory required for data: 3497230336
I0414 03:08:36.748666 16767 layer_factory.hpp:77] Creating layer conv2_sTanH
I0414 03:08:36.748672 16767 net.cpp:100] Creating Layer conv2_sTanH
I0414 03:08:36.748675 16767 net.cpp:434] conv2_sTanH <- conv2
I0414 03:08:36.748680 16767 net.cpp:395] conv2_sTanH -> conv2 (in-place)
I0414 03:08:36.749538 16767 net.cpp:150] Setting up conv2_sTanH
I0414 03:08:36.749554 16767 net.cpp:157] Top shape: 1024 150 18 18 (49766400)
I0414 03:08:36.749559 16767 net.cpp:165] Memory required for data: 3696295936
I0414 03:08:36.749563 16767 layer_factory.hpp:77] Creating layer conv2_postscale
I0414 03:08:36.749570 16767 net.cpp:100] Creating Layer conv2_postscale
I0414 03:08:36.749575 16767 net.cpp:434] conv2_postscale <- conv2
I0414 03:08:36.749581 16767 net.cpp:395] conv2_postscale -> conv2 (in-place)
I0414 03:08:36.749678 16767 net.cpp:150] Setting up conv2_postscale
I0414 03:08:36.749687 16767 net.cpp:157] Top shape: 1024 150 18 18 (49766400)
I0414 03:08:36.749691 16767 net.cpp:165] Memory required for data: 3895361536
I0414 03:08:36.749697 16767 layer_factory.hpp:77] Creating layer pool2
I0414 03:08:36.749706 16767 net.cpp:100] Creating Layer pool2
I0414 03:08:36.749711 16767 net.cpp:434] pool2 <- conv2
I0414 03:08:36.749716 16767 net.cpp:408] pool2 -> pool2
I0414 03:08:36.749757 16767 net.cpp:150] Setting up pool2
I0414 03:08:36.749765 16767 net.cpp:157] Top shape: 1024 150 9 9 (12441600)
I0414 03:08:36.749769 16767 net.cpp:165] Memory required for data: 3945127936
I0414 03:08:36.749773 16767 layer_factory.hpp:77] Creating layer conv3
I0414 03:08:36.749781 16767 net.cpp:100] Creating Layer conv3
I0414 03:08:36.749786 16767 net.cpp:434] conv3 <- pool2
I0414 03:08:36.749791 16767 net.cpp:408] conv3 -> conv3
I0414 03:08:36.755692 16767 net.cpp:150] Setting up conv3
I0414 03:08:36.755710 16767 net.cpp:157] Top shape: 1024 250 6 6 (9216000)
I0414 03:08:36.755714 16767 net.cpp:165] Memory required for data: 3981991936
I0414 03:08:36.755724 16767 layer_factory.hpp:77] Creating layer conv3_prescale
I0414 03:08:36.755748 16767 net.cpp:100] Creating Layer conv3_prescale
I0414 03:08:36.755753 16767 net.cpp:434] conv3_prescale <- conv3
I0414 03:08:36.755759 16767 net.cpp:395] conv3_prescale -> conv3 (in-place)
I0414 03:08:36.755856 16767 net.cpp:150] Setting up conv3_prescale
I0414 03:08:36.755864 16767 net.cpp:157] Top shape: 1024 250 6 6 (9216000)
I0414 03:08:36.755867 16767 net.cpp:165] Memory required for data: 4018855936
I0414 03:08:36.755872 16767 layer_factory.hpp:77] Creating layer conv3_sTanH
I0414 03:08:36.755887 16767 net.cpp:100] Creating Layer conv3_sTanH
I0414 03:08:36.755890 16767 net.cpp:434] conv3_sTanH <- conv3
I0414 03:08:36.755895 16767 net.cpp:395] conv3_sTanH -> conv3 (in-place)
I0414 03:08:36.757874 16767 net.cpp:150] Setting up conv3_sTanH
I0414 03:08:36.757891 16767 net.cpp:157] Top shape: 1024 250 6 6 (9216000)
I0414 03:08:36.757895 16767 net.cpp:165] Memory required for data: 4055719936
I0414 03:08:36.757899 16767 layer_factory.hpp:77] Creating layer conv3_postscale
I0414 03:08:36.757907 16767 net.cpp:100] Creating Layer conv3_postscale
I0414 03:08:36.757912 16767 net.cpp:434] conv3_postscale <- conv3
I0414 03:08:36.757918 16767 net.cpp:395] conv3_postscale -> conv3 (in-place)
I0414 03:08:36.758016 16767 net.cpp:150] Setting up conv3_postscale
I0414 03:08:36.758025 16767 net.cpp:157] Top shape: 1024 250 6 6 (9216000)
I0414 03:08:36.758028 16767 net.cpp:165] Memory required for data: 4092583936
I0414 03:08:36.758033 16767 layer_factory.hpp:77] Creating layer pool3
I0414 03:08:36.758044 16767 net.cpp:100] Creating Layer pool3
I0414 03:08:36.758047 16767 net.cpp:434] pool3 <- conv3
I0414 03:08:36.758052 16767 net.cpp:408] pool3 -> pool3
I0414 03:08:36.758090 16767 net.cpp:150] Setting up pool3
I0414 03:08:36.758097 16767 net.cpp:157] Top shape: 1024 250 3 3 (2304000)
I0414 03:08:36.758100 16767 net.cpp:165] Memory required for data: 4101799936
I0414 03:08:36.758103 16767 layer_factory.hpp:77] Creating layer fc4_300
I0414 03:08:36.758111 16767 net.cpp:100] Creating Layer fc4_300
I0414 03:08:36.758114 16767 net.cpp:434] fc4_300 <- pool3
I0414 03:08:36.758119 16767 net.cpp:408] fc4_300 -> fc4_300
I0414 03:08:36.769899 16767 net.cpp:150] Setting up fc4_300
I0414 03:08:36.769932 16767 net.cpp:157] Top shape: 1024 300 (307200)
I0414 03:08:36.769940 16767 net.cpp:165] Memory required for data: 4103028736
I0414 03:08:36.769955 16767 layer_factory.hpp:77] Creating layer fc4_prescale
I0414 03:08:36.769970 16767 net.cpp:100] Creating Layer fc4_prescale
I0414 03:08:36.769979 16767 net.cpp:434] fc4_prescale <- fc4_300
I0414 03:08:36.769991 16767 net.cpp:395] fc4_prescale -> fc4_300 (in-place)
I0414 03:08:36.770148 16767 net.cpp:150] Setting up fc4_prescale
I0414 03:08:36.770161 16767 net.cpp:157] Top shape: 1024 300 (307200)
I0414 03:08:36.770169 16767 net.cpp:165] Memory required for data: 4104257536
I0414 03:08:36.770176 16767 layer_factory.hpp:77] Creating layer fc4_sTanH
I0414 03:08:36.770187 16767 net.cpp:100] Creating Layer fc4_sTanH
I0414 03:08:36.770195 16767 net.cpp:434] fc4_sTanH <- fc4_300
I0414 03:08:36.770202 16767 net.cpp:395] fc4_sTanH -> fc4_300 (in-place)
I0414 03:08:36.770539 16767 net.cpp:150] Setting up fc4_sTanH
I0414 03:08:36.770558 16767 net.cpp:157] Top shape: 1024 300 (307200)
I0414 03:08:36.770565 16767 net.cpp:165] Memory required for data: 4105486336
I0414 03:08:36.770571 16767 layer_factory.hpp:77] Creating layer fc4_postscale
I0414 03:08:36.770584 16767 net.cpp:100] Creating Layer fc4_postscale
I0414 03:08:36.770592 16767 net.cpp:434] fc4_postscale <- fc4_300
I0414 03:08:36.770603 16767 net.cpp:395] fc4_postscale -> fc4_300 (in-place)
I0414 03:08:36.770766 16767 net.cpp:150] Setting up fc4_postscale
I0414 03:08:36.770777 16767 net.cpp:157] Top shape: 1024 300 (307200)
I0414 03:08:36.770784 16767 net.cpp:165] Memory required for data: 4106715136
I0414 03:08:36.770792 16767 layer_factory.hpp:77] Creating layer fc5_67
I0414 03:08:36.770804 16767 net.cpp:100] Creating Layer fc5_67
I0414 03:08:36.770812 16767 net.cpp:434] fc5_67 <- fc4_300
I0414 03:08:36.770820 16767 net.cpp:408] fc5_67 -> fc5_classes
I0414 03:08:36.773591 16767 net.cpp:150] Setting up fc5_67
I0414 03:08:36.773622 16767 net.cpp:157] Top shape: 1024 67 (68608)
I0414 03:08:36.773632 16767 net.cpp:165] Memory required for data: 4106989568
I0414 03:08:36.773654 16767 layer_factory.hpp:77] Creating layer fc5_classes_fc5_67_0_split
I0414 03:08:36.773671 16767 net.cpp:100] Creating Layer fc5_classes_fc5_67_0_split
I0414 03:08:36.773680 16767 net.cpp:434] fc5_classes_fc5_67_0_split <- fc5_classes
I0414 03:08:36.773694 16767 net.cpp:408] fc5_classes_fc5_67_0_split -> fc5_classes_fc5_67_0_split_0
I0414 03:08:36.773711 16767 net.cpp:408] fc5_classes_fc5_67_0_split -> fc5_classes_fc5_67_0_split_1
I0414 03:08:36.773727 16767 net.cpp:408] fc5_classes_fc5_67_0_split -> fc5_classes_fc5_67_0_split_2
I0414 03:08:36.773826 16767 net.cpp:150] Setting up fc5_classes_fc5_67_0_split
I0414 03:08:36.773839 16767 net.cpp:157] Top shape: 1024 67 (68608)
I0414 03:08:36.773849 16767 net.cpp:157] Top shape: 1024 67 (68608)
I0414 03:08:36.773857 16767 net.cpp:157] Top shape: 1024 67 (68608)
I0414 03:08:36.773864 16767 net.cpp:165] Memory required for data: 4107812864
I0414 03:08:36.773872 16767 layer_factory.hpp:77] Creating layer softmax
I0414 03:08:36.773885 16767 net.cpp:100] Creating Layer softmax
I0414 03:08:36.773895 16767 net.cpp:434] softmax <- fc5_classes_fc5_67_0_split_0
I0414 03:08:36.773906 16767 net.cpp:408] softmax -> softmax
I0414 03:08:36.774415 16767 net.cpp:150] Setting up softmax
I0414 03:08:36.774438 16767 net.cpp:157] Top shape: 1024 67 (68608)
I0414 03:08:36.774446 16767 net.cpp:165] Memory required for data: 4108087296
I0414 03:08:36.774456 16767 layer_factory.hpp:77] Creating layer loss
I0414 03:08:36.774469 16767 net.cpp:100] Creating Layer loss
I0414 03:08:36.774478 16767 net.cpp:434] loss <- softmax
I0414 03:08:36.774489 16767 net.cpp:434] loss <- label_data_1_split_0
I0414 03:08:36.774502 16767 net.cpp:408] loss -> loss
…
