…
I0414 06:01:37.717412  5426 solver.cpp:93] Creating training net from train_net file: ./Prototxt/experiment_11/rtsd-r1/histeq/trial_1/train.prototxt
I0414 06:01:37.718019  5426 net.cpp:58] Initializing net from parameters: 
state {
  phase: TRAIN
  level: 0
  stage: ""
}
layer {
  name: "data"
  type: "Data"
  top: "data"
  top: "label"
  include {
    phase: TRAIN
  }
  transform_param {
    scale: 0.0039215689
    mirror: false
    crop_size: 48
    mean_value: 130
    mean_value: 123
    mean_value: 137
  }
  data_param {
    source: "../local_data/lmdb/rtsd-r1/histeq/train/lmdb"
    batch_size: 1024
    backend: LMDB
  }
}
layer {
  name: "conv1"
  type: "Convolution"
  bottom: "data"
  top: "conv1"
  convolution_param {
    num_output: 100
    pad: 0
    kernel_size: 7
    group: 1
    stride: 1
    weight_filler {
      type: "xavier"
    }
  }
}
layer {
  name: "conv1_prescale"
  type: "Scale"
  bottom: "conv1"
  top: "conv1"
  param {
    lr_mult: 0
    decay_mult: 0
  }
  scale_param {
    filler {
      value: 0.6666
    }
    bias_term: false
  }
}
layer {
  name: "conv1_sTanH"
  type: "TanH"
  bottom: "conv1"
  top: "conv1"
}
layer {
  name: "conv1_postscale"
  type: "Scale"
  bottom: "conv1"
  top: "conv1"
  param {
    lr_mult: 0
    decay_mult: 0
  }
  scale_param {
    filler {
      value: 1.7159
    }
    bias_term: false
  }
}
layer {
  name: "pool1"
  type: "Pooling"
  bottom: "conv1"
  top: "pool1"
  pooling_param {
    pool: MAX
    kernel_size: 2
    stride: 2
  }
}
layer {
  name: "conv2"
  type: "Convolution"
  bottom: "pool1"
  top: "conv2"
  convolution_param {
    num_output: 150
    pad: 0
    kernel_size: 4
    group: 1
    stride: 1
    weight_filler {
      type: "xavier"
    }
  }
}
layer {
  name: "conv2_prescale"
  type: "Scale"
  bottom: "conv2"
  top: "conv2"
  param {
    lr_mult: 0
    decay_mult: 0
  }
  scale_param {
    filler {
      value: 0.6666
    }
    bias_term: false
  }
}
layer {
  name: "conv2_sTanH"
  type: "TanH"
  bottom: "conv2"
  top: "conv2"
}
layer {
  name: "conv2_postscale"
  type: "Scale"
  bottom: "conv2"
  top: "conv2"
  param {
    lr_mult: 0
    decay_mult: 0
  }
  scale_param {
    filler {
      value: 1.7159
    }
    bias_term: false
  }
}
layer {
  name: "pool2"
  type: "Pooling"
  bottom: "conv2"
  top: "pool2"
  pooling_param {
    pool: MAX
    kernel_size: 2
    stride: 2
  }
}
layer {
  name: "conv3"
  type: "Convolution"
  bottom: "pool2"
  top: "conv3"
  convolution_param {
    num_output: 250
    pad: 0
    kernel_size: 4
    group: 1
    stride: 1
    weight_filler {
      type: "xavier"
    }
  }
}
layer {
  name: "conv3_prescale"
  type: "Scale"
  bottom: "conv3"
  top: "conv3"
  param {
    lr_mult: 0
    decay_mult: 0
  }
  scale_param {
    filler {
      value: 0.6666
    }
    bias_term: false
  }
}
layer {
  name: "conv3_sTanH"
  type: "TanH"
  bottom: "conv3"
  top: "conv3"
}
layer {
  name: "conv3_postscale"
  type: "Scale"
  bottom: "conv3"
  top: "conv3"
  param {
    lr_mult: 0
    decay_mult: 0
  }
  scale_param {
    filler {
      value: 1.7159
    }
    bias_term: false
  }
}
layer {
  name: "pool3"
  type: "Pooling"
  bottom: "conv3"
  top: "pool3"
  pooling_param {
    pool: MAX
    kernel_size: 2
    stride: 2
  }
}
layer {
  name: "fc4_300"
  type: "InnerProduct"
  bottom: "pool3"
  top: "fc4_300"
  inner_product_param {
    num_output: 300
    weight_filler {
      type: "xavier"
    }
  }
}
layer {
  name: "fc4_prescale"
  type: "Scale"
  bottom: "fc4_300"
  top: "fc4_300"
  param {
    lr_mult: 0
    decay_mult: 0
  }
  scale_param {
    filler {
      value: 0.6666
    }
    bias_term: false
  }
}
layer {
  name: "fc4_sTanH"
  type: "TanH"
  bottom: "fc4_300"
  top: "fc4_300"
}
layer {
  name: "fc4_postscale"
  type: "Scale"
  bottom: "fc4_300"
  top: "fc4_300"
  param {
    lr_mult: 0
    decay_mult: 0
  }
  scale_param {
    filler {
      value: 1.7159
    }
    bias_term: false
  }
}
layer {
  name: "fc5_67"
  type: "InnerProduct"
  bottom: "fc4_300"
  top: "fc5_classes"
  inner_product_param {
    num_output: 67
    weight_filler {
      type: "xavier"
    }
  }
}
layer {
  name: "softmax"
  type: "Softmax"
  bottom: "fc5_classes"
  top: "softmax"
}
layer {
  name: "loss"
  type: "MultinomialLogisticLoss"
  bottom: "softmax"
  bottom: "label"
  top: "loss"
}
layer {
  name: "accuracy_1"
  type: "Accuracy"
  bottom: "fc5_classes"
  bottom: "label"
  top: "accuracy_1"
  accuracy_param {
    top_k: 1
  }
}
layer {
  name: "accuracy_5"
  type: "Accuracy"
  bottom: "fc5_classes"
  bottom: "label"
  top: "accuracy_5"
  accuracy_param {
    top_k: 5
  }
}
layer {
  name: "silence"
  type: "Silence"
  bottom: "accuracy_1"
  bottom: "accuracy_5"
}
I0414 06:01:37.718216  5426 layer_factory.hpp:77] Creating layer data
I0414 06:01:37.719867  5426 net.cpp:100] Creating Layer data
I0414 06:01:37.719905  5426 net.cpp:408] data -> data
I0414 06:01:37.719945  5426 net.cpp:408] data -> label
I0414 06:01:37.773859  5526 db_lmdb.cpp:35] Opened lmdb ../local_data/lmdb/rtsd-r1/histeq/train/lmdb
I0414 06:01:37.823997  5426 data_layer.cpp:41] output data size: 1024,3,48,48
I0414 06:01:37.898144  5426 net.cpp:150] Setting up data
I0414 06:01:37.898171  5426 net.cpp:157] Top shape: 1024 3 48 48 (7077888)
I0414 06:01:37.898177  5426 net.cpp:157] Top shape: 1024 (1024)
I0414 06:01:37.898181  5426 net.cpp:165] Memory required for data: 28315648
I0414 06:01:37.898195  5426 layer_factory.hpp:77] Creating layer label_data_1_split
I0414 06:01:37.898210  5426 net.cpp:100] Creating Layer label_data_1_split
I0414 06:01:37.898218  5426 net.cpp:434] label_data_1_split <- label
I0414 06:01:37.898236  5426 net.cpp:408] label_data_1_split -> label_data_1_split_0
I0414 06:01:37.898249  5426 net.cpp:408] label_data_1_split -> label_data_1_split_1
I0414 06:01:37.898258  5426 net.cpp:408] label_data_1_split -> label_data_1_split_2
I0414 06:01:37.898321  5426 net.cpp:150] Setting up label_data_1_split
I0414 06:01:37.898330  5426 net.cpp:157] Top shape: 1024 (1024)
I0414 06:01:37.898335  5426 net.cpp:157] Top shape: 1024 (1024)
I0414 06:01:37.898341  5426 net.cpp:157] Top shape: 1024 (1024)
I0414 06:01:37.898345  5426 net.cpp:165] Memory required for data: 28327936
I0414 06:01:37.898350  5426 layer_factory.hpp:77] Creating layer conv1
I0414 06:01:37.898366  5426 net.cpp:100] Creating Layer conv1
I0414 06:01:37.898372  5426 net.cpp:434] conv1 <- data
I0414 06:01:37.898380  5426 net.cpp:408] conv1 -> conv1
I0414 06:01:37.961139  5545 blocking_queue.cpp:50] Waiting for data
I0414 06:01:38.326561  5426 net.cpp:150] Setting up conv1
I0414 06:01:38.326588  5426 net.cpp:157] Top shape: 1024 100 42 42 (180633600)
I0414 06:01:38.326593  5426 net.cpp:165] Memory required for data: 750862336
I0414 06:01:38.326617  5426 layer_factory.hpp:77] Creating layer conv1_prescale
I0414 06:01:38.326647  5426 net.cpp:100] Creating Layer conv1_prescale
I0414 06:01:38.326655  5426 net.cpp:434] conv1_prescale <- conv1
I0414 06:01:38.326663  5426 net.cpp:395] conv1_prescale -> conv1 (in-place)
I0414 06:01:38.326784  5426 net.cpp:150] Setting up conv1_prescale
I0414 06:01:38.326794  5426 net.cpp:157] Top shape: 1024 100 42 42 (180633600)
I0414 06:01:38.326798  5426 net.cpp:165] Memory required for data: 1473396736
I0414 06:01:38.326807  5426 layer_factory.hpp:77] Creating layer conv1_sTanH
I0414 06:01:38.326815  5426 net.cpp:100] Creating Layer conv1_sTanH
I0414 06:01:38.326822  5426 net.cpp:434] conv1_sTanH <- conv1
I0414 06:01:38.326828  5426 net.cpp:395] conv1_sTanH -> conv1 (in-place)
I0414 06:01:38.327060  5426 net.cpp:150] Setting up conv1_sTanH
I0414 06:01:38.327075  5426 net.cpp:157] Top shape: 1024 100 42 42 (180633600)
I0414 06:01:38.327078  5426 net.cpp:165] Memory required for data: 2195931136
I0414 06:01:38.327083  5426 layer_factory.hpp:77] Creating layer conv1_postscale
I0414 06:01:38.327091  5426 net.cpp:100] Creating Layer conv1_postscale
I0414 06:01:38.327095  5426 net.cpp:434] conv1_postscale <- conv1
I0414 06:01:38.327102  5426 net.cpp:395] conv1_postscale -> conv1 (in-place)
I0414 06:01:38.327200  5426 net.cpp:150] Setting up conv1_postscale
I0414 06:01:38.327209  5426 net.cpp:157] Top shape: 1024 100 42 42 (180633600)
I0414 06:01:38.327214  5426 net.cpp:165] Memory required for data: 2918465536
I0414 06:01:38.327219  5426 layer_factory.hpp:77] Creating layer pool1
I0414 06:01:38.327227  5426 net.cpp:100] Creating Layer pool1
I0414 06:01:38.327234  5426 net.cpp:434] pool1 <- conv1
I0414 06:01:38.327239  5426 net.cpp:408] pool1 -> pool1
I0414 06:01:38.327287  5426 net.cpp:150] Setting up pool1
I0414 06:01:38.327296  5426 net.cpp:157] Top shape: 1024 100 21 21 (45158400)
I0414 06:01:38.327301  5426 net.cpp:165] Memory required for data: 3099099136
I0414 06:01:38.327304  5426 layer_factory.hpp:77] Creating layer conv2
I0414 06:01:38.327316  5426 net.cpp:100] Creating Layer conv2
I0414 06:01:38.327322  5426 net.cpp:434] conv2 <- pool1
I0414 06:01:38.327327  5426 net.cpp:408] conv2 -> conv2
I0414 06:01:38.334322  5426 net.cpp:150] Setting up conv2
I0414 06:01:38.334342  5426 net.cpp:157] Top shape: 1024 150 18 18 (49766400)
I0414 06:01:38.334347  5426 net.cpp:165] Memory required for data: 3298164736
I0414 06:01:38.334358  5426 layer_factory.hpp:77] Creating layer conv2_prescale
I0414 06:01:38.334378  5426 net.cpp:100] Creating Layer conv2_prescale
I0414 06:01:38.334384  5426 net.cpp:434] conv2_prescale <- conv2
I0414 06:01:38.334391  5426 net.cpp:395] conv2_prescale -> conv2 (in-place)
I0414 06:01:38.334502  5426 net.cpp:150] Setting up conv2_prescale
I0414 06:01:38.334513  5426 net.cpp:157] Top shape: 1024 150 18 18 (49766400)
I0414 06:01:38.334517  5426 net.cpp:165] Memory required for data: 3497230336
I0414 06:01:38.334522  5426 layer_factory.hpp:77] Creating layer conv2_sTanH
I0414 06:01:38.334528  5426 net.cpp:100] Creating Layer conv2_sTanH
I0414 06:01:38.334532  5426 net.cpp:434] conv2_sTanH <- conv2
I0414 06:01:38.334538  5426 net.cpp:395] conv2_sTanH -> conv2 (in-place)
I0414 06:01:38.342669  5426 net.cpp:150] Setting up conv2_sTanH
I0414 06:01:38.342700  5426 net.cpp:157] Top shape: 1024 150 18 18 (49766400)
I0414 06:01:38.342705  5426 net.cpp:165] Memory required for data: 3696295936
I0414 06:01:38.342710  5426 layer_factory.hpp:77] Creating layer conv2_postscale
I0414 06:01:38.342723  5426 net.cpp:100] Creating Layer conv2_postscale
I0414 06:01:38.342730  5426 net.cpp:434] conv2_postscale <- conv2
I0414 06:01:38.342738  5426 net.cpp:395] conv2_postscale -> conv2 (in-place)
I0414 06:01:38.342856  5426 net.cpp:150] Setting up conv2_postscale
I0414 06:01:38.342866  5426 net.cpp:157] Top shape: 1024 150 18 18 (49766400)
I0414 06:01:38.342870  5426 net.cpp:165] Memory required for data: 3895361536
I0414 06:01:38.342877  5426 layer_factory.hpp:77] Creating layer pool2
I0414 06:01:38.342886  5426 net.cpp:100] Creating Layer pool2
I0414 06:01:38.342891  5426 net.cpp:434] pool2 <- conv2
I0414 06:01:38.342897  5426 net.cpp:408] pool2 -> pool2
I0414 06:01:38.342942  5426 net.cpp:150] Setting up pool2
I0414 06:01:38.342952  5426 net.cpp:157] Top shape: 1024 150 9 9 (12441600)
I0414 06:01:38.342955  5426 net.cpp:165] Memory required for data: 3945127936
I0414 06:01:38.342958  5426 layer_factory.hpp:77] Creating layer conv3
I0414 06:01:38.342969  5426 net.cpp:100] Creating Layer conv3
I0414 06:01:38.342975  5426 net.cpp:434] conv3 <- pool2
I0414 06:01:38.342981  5426 net.cpp:408] conv3 -> conv3
I0414 06:01:38.359232  5426 net.cpp:150] Setting up conv3
I0414 06:01:38.359262  5426 net.cpp:157] Top shape: 1024 250 6 6 (9216000)
I0414 06:01:38.359266  5426 net.cpp:165] Memory required for data: 3981991936
I0414 06:01:38.359307  5426 layer_factory.hpp:77] Creating layer conv3_prescale
I0414 06:01:38.359321  5426 net.cpp:100] Creating Layer conv3_prescale
I0414 06:01:38.359328  5426 net.cpp:434] conv3_prescale <- conv3
I0414 06:01:38.359336  5426 net.cpp:395] conv3_prescale -> conv3 (in-place)
I0414 06:01:38.359436  5426 net.cpp:150] Setting up conv3_prescale
I0414 06:01:38.359447  5426 net.cpp:157] Top shape: 1024 250 6 6 (9216000)
I0414 06:01:38.359450  5426 net.cpp:165] Memory required for data: 4018855936
I0414 06:01:38.359457  5426 layer_factory.hpp:77] Creating layer conv3_sTanH
I0414 06:01:38.359462  5426 net.cpp:100] Creating Layer conv3_sTanH
I0414 06:01:38.359467  5426 net.cpp:434] conv3_sTanH <- conv3
I0414 06:01:38.359472  5426 net.cpp:395] conv3_sTanH -> conv3 (in-place)
I0414 06:01:38.361681  5426 net.cpp:150] Setting up conv3_sTanH
I0414 06:01:38.361701  5426 net.cpp:157] Top shape: 1024 250 6 6 (9216000)
I0414 06:01:38.361707  5426 net.cpp:165] Memory required for data: 4055719936
I0414 06:01:38.361712  5426 layer_factory.hpp:77] Creating layer conv3_postscale
I0414 06:01:38.361721  5426 net.cpp:100] Creating Layer conv3_postscale
I0414 06:01:38.361726  5426 net.cpp:434] conv3_postscale <- conv3
I0414 06:01:38.361733  5426 net.cpp:395] conv3_postscale -> conv3 (in-place)
I0414 06:01:38.361835  5426 net.cpp:150] Setting up conv3_postscale
I0414 06:01:38.361845  5426 net.cpp:157] Top shape: 1024 250 6 6 (9216000)
I0414 06:01:38.361850  5426 net.cpp:165] Memory required for data: 4092583936
I0414 06:01:38.361855  5426 layer_factory.hpp:77] Creating layer pool3
I0414 06:01:38.361865  5426 net.cpp:100] Creating Layer pool3
I0414 06:01:38.361871  5426 net.cpp:434] pool3 <- conv3
I0414 06:01:38.361878  5426 net.cpp:408] pool3 -> pool3
I0414 06:01:38.361919  5426 net.cpp:150] Setting up pool3
I0414 06:01:38.361928  5426 net.cpp:157] Top shape: 1024 250 3 3 (2304000)
I0414 06:01:38.361932  5426 net.cpp:165] Memory required for data: 4101799936
I0414 06:01:38.361935  5426 layer_factory.hpp:77] Creating layer fc4_300
I0414 06:01:38.361943  5426 net.cpp:100] Creating Layer fc4_300
I0414 06:01:38.361948  5426 net.cpp:434] fc4_300 <- pool3
I0414 06:01:38.361953  5426 net.cpp:408] fc4_300 -> fc4_300
I0414 06:01:38.367609  5426 net.cpp:150] Setting up fc4_300
I0414 06:01:38.367626  5426 net.cpp:157] Top shape: 1024 300 (307200)
I0414 06:01:38.367630  5426 net.cpp:165] Memory required for data: 4103028736
I0414 06:01:38.367638  5426 layer_factory.hpp:77] Creating layer fc4_prescale
I0414 06:01:38.367648  5426 net.cpp:100] Creating Layer fc4_prescale
I0414 06:01:38.367655  5426 net.cpp:434] fc4_prescale <- fc4_300
I0414 06:01:38.367660  5426 net.cpp:395] fc4_prescale -> fc4_300 (in-place)
I0414 06:01:38.367750  5426 net.cpp:150] Setting up fc4_prescale
I0414 06:01:38.367759  5426 net.cpp:157] Top shape: 1024 300 (307200)
I0414 06:01:38.367763  5426 net.cpp:165] Memory required for data: 4104257536
I0414 06:01:38.367769  5426 layer_factory.hpp:77] Creating layer fc4_sTanH
I0414 06:01:38.367774  5426 net.cpp:100] Creating Layer fc4_sTanH
I0414 06:01:38.367779  5426 net.cpp:434] fc4_sTanH <- fc4_300
I0414 06:01:38.367784  5426 net.cpp:395] fc4_sTanH -> fc4_300 (in-place)
I0414 06:01:38.367985  5426 net.cpp:150] Setting up fc4_sTanH
I0414 06:01:38.367997  5426 net.cpp:157] Top shape: 1024 300 (307200)
I0414 06:01:38.368000  5426 net.cpp:165] Memory required for data: 4105486336
I0414 06:01:38.368005  5426 layer_factory.hpp:77] Creating layer fc4_postscale
I0414 06:01:38.368012  5426 net.cpp:100] Creating Layer fc4_postscale
I0414 06:01:38.368017  5426 net.cpp:434] fc4_postscale <- fc4_300
I0414 06:01:38.368023  5426 net.cpp:395] fc4_postscale -> fc4_300 (in-place)
I0414 06:01:38.368119  5426 net.cpp:150] Setting up fc4_postscale
I0414 06:01:38.368127  5426 net.cpp:157] Top shape: 1024 300 (307200)
I0414 06:01:38.368131  5426 net.cpp:165] Memory required for data: 4106715136
I0414 06:01:38.368136  5426 layer_factory.hpp:77] Creating layer fc5_67
I0414 06:01:38.368144  5426 net.cpp:100] Creating Layer fc5_67
I0414 06:01:38.368147  5426 net.cpp:434] fc5_67 <- fc4_300
I0414 06:01:38.368170  5426 net.cpp:408] fc5_67 -> fc5_classes
I0414 06:01:38.376271  5426 net.cpp:150] Setting up fc5_67
I0414 06:01:38.376291  5426 net.cpp:157] Top shape: 1024 67 (68608)
I0414 06:01:38.376294  5426 net.cpp:165] Memory required for data: 4106989568
I0414 06:01:38.376307  5426 layer_factory.hpp:77] Creating layer fc5_classes_fc5_67_0_split
I0414 06:01:38.376317  5426 net.cpp:100] Creating Layer fc5_classes_fc5_67_0_split
I0414 06:01:38.376324  5426 net.cpp:434] fc5_classes_fc5_67_0_split <- fc5_classes
I0414 06:01:38.376332  5426 net.cpp:408] fc5_classes_fc5_67_0_split -> fc5_classes_fc5_67_0_split_0
I0414 06:01:38.376340  5426 net.cpp:408] fc5_classes_fc5_67_0_split -> fc5_classes_fc5_67_0_split_1
I0414 06:01:38.376349  5426 net.cpp:408] fc5_classes_fc5_67_0_split -> fc5_classes_fc5_67_0_split_2
I0414 06:01:38.376400  5426 net.cpp:150] Setting up fc5_classes_fc5_67_0_split
I0414 06:01:38.376408  5426 net.cpp:157] Top shape: 1024 67 (68608)
I0414 06:01:38.376413  5426 net.cpp:157] Top shape: 1024 67 (68608)
I0414 06:01:38.376417  5426 net.cpp:157] Top shape: 1024 67 (68608)
I0414 06:01:38.376420  5426 net.cpp:165] Memory required for data: 4107812864
I0414 06:01:38.376423  5426 layer_factory.hpp:77] Creating layer softmax
I0414 06:01:38.376430  5426 net.cpp:100] Creating Layer softmax
I0414 06:01:38.376435  5426 net.cpp:434] softmax <- fc5_classes_fc5_67_0_split_0
I0414 06:01:38.376441  5426 net.cpp:408] softmax -> softmax
I0414 06:01:38.376699  5426 net.cpp:150] Setting up softmax
I0414 06:01:38.376713  5426 net.cpp:157] Top shape: 1024 67 (68608)
I0414 06:01:38.376716  5426 net.cpp:165] Memory required for data: 4108087296
I0414 06:01:38.376720  5426 layer_factory.hpp:77] Creating layer loss
I0414 06:01:38.376729  5426 net.cpp:100] Creating Layer loss
I0414 06:01:38.376732  5426 net.cpp:434] loss <- softmax
I0414 06:01:38.376739  5426 net.cpp:434] loss <- label_data_1_split_0
I0414 06:01:38.376749  5426 net.cpp:408] loss -> loss
…
