…
I0417 19:08:02.543465  7606 solver.cpp:93] Creating training net from train_net file: ./Prototxt/experiment_11/rtsd-r1/histeq/trial_1/train.prototxt
I0417 19:08:02.543967  7606 net.cpp:58] Initializing net from parameters: 
state {
  phase: TRAIN
  level: 0
  stage: ""
}
layer {
  name: "data"
  type: "Data"
  top: "data"
  top: "label"
  include {
    phase: TRAIN
  }
  transform_param {
    scale: 0.0039215689
    mirror: false
    crop_size: 48
    mean_value: 130
    mean_value: 123
    mean_value: 137
  }
  data_param {
    source: "../local_data/lmdb/rtsd-r1/histeq/train/lmdb"
    batch_size: 1024
    backend: LMDB
  }
}
layer {
  name: "conv1"
  type: "Convolution"
  bottom: "data"
  top: "conv1"
  convolution_param {
    num_output: 100
    pad: 0
    kernel_size: 7
    group: 1
    stride: 1
    weight_filler {
      type: "xavier"
    }
  }
}
layer {
  name: "conv1_prescale"
  type: "Scale"
  bottom: "conv1"
  top: "conv1"
  param {
    lr_mult: 0
    decay_mult: 0
  }
  scale_param {
    filler {
      value: 0.6666
    }
    bias_term: false
  }
}
layer {
  name: "conv1_sTanH"
  type: "TanH"
  bottom: "conv1"
  top: "conv1"
}
layer {
  name: "conv1_postscale"
  type: "Scale"
  bottom: "conv1"
  top: "conv1"
  param {
    lr_mult: 0
    decay_mult: 0
  }
  scale_param {
    filler {
      value: 1.7159
    }
    bias_term: false
  }
}
layer {
  name: "pool1"
  type: "Pooling"
  bottom: "conv1"
  top: "pool1"
  pooling_param {
    pool: MAX
    kernel_size: 2
    stride: 2
  }
}
layer {
  name: "conv2"
  type: "Convolution"
  bottom: "pool1"
  top: "conv2"
  convolution_param {
    num_output: 150
    pad: 0
    kernel_size: 4
    group: 1
    stride: 1
    weight_filler {
      type: "xavier"
    }
  }
}
layer {
  name: "conv2_prescale"
  type: "Scale"
  bottom: "conv2"
  top: "conv2"
  param {
    lr_mult: 0
    decay_mult: 0
  }
  scale_param {
    filler {
      value: 0.6666
    }
    bias_term: false
  }
}
layer {
  name: "conv2_sTanH"
  type: "TanH"
  bottom: "conv2"
  top: "conv2"
}
layer {
  name: "conv2_postscale"
  type: "Scale"
  bottom: "conv2"
  top: "conv2"
  param {
    lr_mult: 0
    decay_mult: 0
  }
  scale_param {
    filler {
      value: 1.7159
    }
    bias_term: false
  }
}
layer {
  name: "pool2"
  type: "Pooling"
  bottom: "conv2"
  top: "pool2"
  pooling_param {
    pool: MAX
    kernel_size: 2
    stride: 2
  }
}
layer {
  name: "conv3"
  type: "Convolution"
  bottom: "pool2"
  top: "conv3"
  convolution_param {
    num_output: 250
    pad: 0
    kernel_size: 4
    group: 1
    stride: 1
    weight_filler {
      type: "xavier"
    }
  }
}
layer {
  name: "conv3_prescale"
  type: "Scale"
  bottom: "conv3"
  top: "conv3"
  param {
    lr_mult: 0
    decay_mult: 0
  }
  scale_param {
    filler {
      value: 0.6666
    }
    bias_term: false
  }
}
layer {
  name: "conv3_sTanH"
  type: "TanH"
  bottom: "conv3"
  top: "conv3"
}
layer {
  name: "conv3_postscale"
  type: "Scale"
  bottom: "conv3"
  top: "conv3"
  param {
    lr_mult: 0
    decay_mult: 0
  }
  scale_param {
    filler {
      value: 1.7159
    }
    bias_term: false
  }
}
layer {
  name: "pool3"
  type: "Pooling"
  bottom: "conv3"
  top: "pool3"
  pooling_param {
    pool: MAX
    kernel_size: 2
    stride: 2
  }
}
layer {
  name: "fc4_300"
  type: "InnerProduct"
  bottom: "pool3"
  top: "fc4_300"
  inner_product_param {
    num_output: 300
    weight_filler {
      type: "xavier"
    }
  }
}
layer {
  name: "fc4_prescale"
  type: "Scale"
  bottom: "fc4_300"
  top: "fc4_300"
  param {
    lr_mult: 0
    decay_mult: 0
  }
  scale_param {
    filler {
      value: 0.6666
    }
    bias_term: false
  }
}
layer {
  name: "fc4_sTanH"
  type: "TanH"
  bottom: "fc4_300"
  top: "fc4_300"
}
layer {
  name: "fc4_postscale"
  type: "Scale"
  bottom: "fc4_300"
  top: "fc4_300"
  param {
    lr_mult: 0
    decay_mult: 0
  }
  scale_param {
    filler {
      value: 1.7159
    }
    bias_term: false
  }
}
layer {
  name: "fc5_67"
  type: "InnerProduct"
  bottom: "fc4_300"
  top: "fc5_classes"
  inner_product_param {
    num_output: 67
    weight_filler {
      type: "xavier"
    }
  }
}
layer {
  name: "softmax"
  type: "Softmax"
  bottom: "fc5_classes"
  top: "softmax"
}
layer {
  name: "loss"
  type: "MultinomialLogisticLoss"
  bottom: "softmax"
  bottom: "label"
  top: "loss"
}
layer {
  name: "accuracy_1"
  type: "Accuracy"
  bottom: "fc5_classes"
  bottom: "label"
  top: "accuracy_1"
  accuracy_param {
    top_k: 1
  }
}
layer {
  name: "accuracy_5"
  type: "Accuracy"
  bottom: "fc5_classes"
  bottom: "label"
  top: "accuracy_5"
  accuracy_param {
    top_k: 5
  }
}
layer {
  name: "silence"
  type: "Silence"
  bottom: "accuracy_1"
  bottom: "accuracy_5"
}
I0417 19:08:02.544121  7606 layer_factory.hpp:77] Creating layer data
I0417 19:08:02.545186  7606 net.cpp:100] Creating Layer data
I0417 19:08:02.545203  7606 net.cpp:408] data -> data
I0417 19:08:02.545227  7606 net.cpp:408] data -> label
I0417 19:08:02.589167  7766 db_lmdb.cpp:35] Opened lmdb ../local_data/lmdb/rtsd-r1/histeq/train/lmdb
I0417 19:08:02.622836  7606 data_layer.cpp:41] output data size: 1024,3,48,48
I0417 19:08:02.717981  7606 net.cpp:150] Setting up data
I0417 19:08:02.718019  7606 net.cpp:157] Top shape: 1024 3 48 48 (7077888)
I0417 19:08:02.718025  7606 net.cpp:157] Top shape: 1024 (1024)
I0417 19:08:02.718029  7606 net.cpp:165] Memory required for data: 28315648
I0417 19:08:02.718040  7606 layer_factory.hpp:77] Creating layer label_data_1_split
I0417 19:08:02.718137  7606 net.cpp:100] Creating Layer label_data_1_split
I0417 19:08:02.718147  7606 net.cpp:434] label_data_1_split <- label
I0417 19:08:02.718163  7606 net.cpp:408] label_data_1_split -> label_data_1_split_0
I0417 19:08:02.718179  7606 net.cpp:408] label_data_1_split -> label_data_1_split_1
I0417 19:08:02.718189  7606 net.cpp:408] label_data_1_split -> label_data_1_split_2
I0417 19:08:02.718271  7606 net.cpp:150] Setting up label_data_1_split
I0417 19:08:02.718281  7606 net.cpp:157] Top shape: 1024 (1024)
I0417 19:08:02.718286  7606 net.cpp:157] Top shape: 1024 (1024)
I0417 19:08:02.718291  7606 net.cpp:157] Top shape: 1024 (1024)
I0417 19:08:02.718293  7606 net.cpp:165] Memory required for data: 28327936
I0417 19:08:02.718297  7606 layer_factory.hpp:77] Creating layer conv1
I0417 19:08:02.718319  7606 net.cpp:100] Creating Layer conv1
I0417 19:08:02.718324  7606 net.cpp:434] conv1 <- data
I0417 19:08:02.718333  7606 net.cpp:408] conv1 -> conv1
I0417 19:08:02.901989  7785 blocking_queue.cpp:50] Waiting for data
I0417 19:08:03.888653  7606 net.cpp:150] Setting up conv1
I0417 19:08:03.888681  7606 net.cpp:157] Top shape: 1024 100 42 42 (180633600)
I0417 19:08:03.888685  7606 net.cpp:165] Memory required for data: 750862336
I0417 19:08:03.888707  7606 layer_factory.hpp:77] Creating layer conv1_prescale
I0417 19:08:03.888721  7606 net.cpp:100] Creating Layer conv1_prescale
I0417 19:08:03.888728  7606 net.cpp:434] conv1_prescale <- conv1
I0417 19:08:03.888734  7606 net.cpp:395] conv1_prescale -> conv1 (in-place)
I0417 19:08:03.888847  7606 net.cpp:150] Setting up conv1_prescale
I0417 19:08:03.888857  7606 net.cpp:157] Top shape: 1024 100 42 42 (180633600)
I0417 19:08:03.888862  7606 net.cpp:165] Memory required for data: 1473396736
I0417 19:08:03.888870  7606 layer_factory.hpp:77] Creating layer conv1_sTanH
I0417 19:08:03.888880  7606 net.cpp:100] Creating Layer conv1_sTanH
I0417 19:08:03.888883  7606 net.cpp:434] conv1_sTanH <- conv1
I0417 19:08:03.888888  7606 net.cpp:395] conv1_sTanH -> conv1 (in-place)
I0417 19:08:03.889112  7606 net.cpp:150] Setting up conv1_sTanH
I0417 19:08:03.889125  7606 net.cpp:157] Top shape: 1024 100 42 42 (180633600)
I0417 19:08:03.889130  7606 net.cpp:165] Memory required for data: 2195931136
I0417 19:08:03.889133  7606 layer_factory.hpp:77] Creating layer conv1_postscale
I0417 19:08:03.889140  7606 net.cpp:100] Creating Layer conv1_postscale
I0417 19:08:03.889145  7606 net.cpp:434] conv1_postscale <- conv1
I0417 19:08:03.889152  7606 net.cpp:395] conv1_postscale -> conv1 (in-place)
I0417 19:08:03.889250  7606 net.cpp:150] Setting up conv1_postscale
I0417 19:08:03.889258  7606 net.cpp:157] Top shape: 1024 100 42 42 (180633600)
I0417 19:08:03.889263  7606 net.cpp:165] Memory required for data: 2918465536
I0417 19:08:03.889268  7606 layer_factory.hpp:77] Creating layer pool1
I0417 19:08:03.889276  7606 net.cpp:100] Creating Layer pool1
I0417 19:08:03.889281  7606 net.cpp:434] pool1 <- conv1
I0417 19:08:03.889286  7606 net.cpp:408] pool1 -> pool1
I0417 19:08:03.889335  7606 net.cpp:150] Setting up pool1
I0417 19:08:03.889344  7606 net.cpp:157] Top shape: 1024 100 21 21 (45158400)
I0417 19:08:03.889349  7606 net.cpp:165] Memory required for data: 3099099136
I0417 19:08:03.889353  7606 layer_factory.hpp:77] Creating layer conv2
I0417 19:08:03.889363  7606 net.cpp:100] Creating Layer conv2
I0417 19:08:03.889367  7606 net.cpp:434] conv2 <- pool1
I0417 19:08:03.889372  7606 net.cpp:408] conv2 -> conv2
I0417 19:08:03.895845  7606 net.cpp:150] Setting up conv2
I0417 19:08:03.895864  7606 net.cpp:157] Top shape: 1024 150 18 18 (49766400)
I0417 19:08:03.895869  7606 net.cpp:165] Memory required for data: 3298164736
I0417 19:08:03.895891  7606 layer_factory.hpp:77] Creating layer conv2_prescale
I0417 19:08:03.895905  7606 net.cpp:100] Creating Layer conv2_prescale
I0417 19:08:03.895910  7606 net.cpp:434] conv2_prescale <- conv2
I0417 19:08:03.895915  7606 net.cpp:395] conv2_prescale -> conv2 (in-place)
I0417 19:08:03.896025  7606 net.cpp:150] Setting up conv2_prescale
I0417 19:08:03.896035  7606 net.cpp:157] Top shape: 1024 150 18 18 (49766400)
I0417 19:08:03.896039  7606 net.cpp:165] Memory required for data: 3497230336
I0417 19:08:03.896044  7606 layer_factory.hpp:77] Creating layer conv2_sTanH
I0417 19:08:03.896050  7606 net.cpp:100] Creating Layer conv2_sTanH
I0417 19:08:03.896054  7606 net.cpp:434] conv2_sTanH <- conv2
I0417 19:08:03.896059  7606 net.cpp:395] conv2_sTanH -> conv2 (in-place)
I0417 19:08:03.897809  7606 net.cpp:150] Setting up conv2_sTanH
I0417 19:08:03.897826  7606 net.cpp:157] Top shape: 1024 150 18 18 (49766400)
I0417 19:08:03.897831  7606 net.cpp:165] Memory required for data: 3696295936
I0417 19:08:03.897835  7606 layer_factory.hpp:77] Creating layer conv2_postscale
I0417 19:08:03.897843  7606 net.cpp:100] Creating Layer conv2_postscale
I0417 19:08:03.897848  7606 net.cpp:434] conv2_postscale <- conv2
I0417 19:08:03.897855  7606 net.cpp:395] conv2_postscale -> conv2 (in-place)
I0417 19:08:03.897953  7606 net.cpp:150] Setting up conv2_postscale
I0417 19:08:03.897963  7606 net.cpp:157] Top shape: 1024 150 18 18 (49766400)
I0417 19:08:03.897966  7606 net.cpp:165] Memory required for data: 3895361536
I0417 19:08:03.897971  7606 layer_factory.hpp:77] Creating layer pool2
I0417 19:08:03.897979  7606 net.cpp:100] Creating Layer pool2
I0417 19:08:03.897982  7606 net.cpp:434] pool2 <- conv2
I0417 19:08:03.897987  7606 net.cpp:408] pool2 -> pool2
I0417 19:08:03.898030  7606 net.cpp:150] Setting up pool2
I0417 19:08:03.898038  7606 net.cpp:157] Top shape: 1024 150 9 9 (12441600)
I0417 19:08:03.898042  7606 net.cpp:165] Memory required for data: 3945127936
I0417 19:08:03.898046  7606 layer_factory.hpp:77] Creating layer conv3
I0417 19:08:03.898054  7606 net.cpp:100] Creating Layer conv3
I0417 19:08:03.898058  7606 net.cpp:434] conv3 <- pool2
I0417 19:08:03.898064  7606 net.cpp:408] conv3 -> conv3
I0417 19:08:03.903614  7606 net.cpp:150] Setting up conv3
I0417 19:08:03.903633  7606 net.cpp:157] Top shape: 1024 250 6 6 (9216000)
I0417 19:08:03.903638  7606 net.cpp:165] Memory required for data: 3981991936
I0417 19:08:03.903664  7606 layer_factory.hpp:77] Creating layer conv3_prescale
I0417 19:08:03.903676  7606 net.cpp:100] Creating Layer conv3_prescale
I0417 19:08:03.903681  7606 net.cpp:434] conv3_prescale <- conv3
I0417 19:08:03.903687  7606 net.cpp:395] conv3_prescale -> conv3 (in-place)
I0417 19:08:03.903782  7606 net.cpp:150] Setting up conv3_prescale
I0417 19:08:03.903791  7606 net.cpp:157] Top shape: 1024 250 6 6 (9216000)
I0417 19:08:03.903796  7606 net.cpp:165] Memory required for data: 4018855936
I0417 19:08:03.903801  7606 layer_factory.hpp:77] Creating layer conv3_sTanH
I0417 19:08:03.903813  7606 net.cpp:100] Creating Layer conv3_sTanH
I0417 19:08:03.903818  7606 net.cpp:434] conv3_sTanH <- conv3
I0417 19:08:03.903825  7606 net.cpp:395] conv3_sTanH -> conv3 (in-place)
I0417 19:08:03.905207  7606 net.cpp:150] Setting up conv3_sTanH
I0417 19:08:03.905228  7606 net.cpp:157] Top shape: 1024 250 6 6 (9216000)
I0417 19:08:03.905233  7606 net.cpp:165] Memory required for data: 4055719936
I0417 19:08:03.905237  7606 layer_factory.hpp:77] Creating layer conv3_postscale
I0417 19:08:03.905247  7606 net.cpp:100] Creating Layer conv3_postscale
I0417 19:08:03.905253  7606 net.cpp:434] conv3_postscale <- conv3
I0417 19:08:03.905259  7606 net.cpp:395] conv3_postscale -> conv3 (in-place)
I0417 19:08:03.905367  7606 net.cpp:150] Setting up conv3_postscale
I0417 19:08:03.905377  7606 net.cpp:157] Top shape: 1024 250 6 6 (9216000)
I0417 19:08:03.905382  7606 net.cpp:165] Memory required for data: 4092583936
I0417 19:08:03.905387  7606 layer_factory.hpp:77] Creating layer pool3
I0417 19:08:03.905400  7606 net.cpp:100] Creating Layer pool3
I0417 19:08:03.905405  7606 net.cpp:434] pool3 <- conv3
I0417 19:08:03.905411  7606 net.cpp:408] pool3 -> pool3
I0417 19:08:03.905455  7606 net.cpp:150] Setting up pool3
I0417 19:08:03.905463  7606 net.cpp:157] Top shape: 1024 250 3 3 (2304000)
I0417 19:08:03.905467  7606 net.cpp:165] Memory required for data: 4101799936
I0417 19:08:03.905472  7606 layer_factory.hpp:77] Creating layer fc4_300
I0417 19:08:03.905479  7606 net.cpp:100] Creating Layer fc4_300
I0417 19:08:03.905483  7606 net.cpp:434] fc4_300 <- pool3
I0417 19:08:03.905490  7606 net.cpp:408] fc4_300 -> fc4_300
I0417 19:08:03.911176  7606 net.cpp:150] Setting up fc4_300
I0417 19:08:03.911195  7606 net.cpp:157] Top shape: 1024 300 (307200)
I0417 19:08:03.911198  7606 net.cpp:165] Memory required for data: 4103028736
I0417 19:08:03.911206  7606 layer_factory.hpp:77] Creating layer fc4_prescale
I0417 19:08:03.911213  7606 net.cpp:100] Creating Layer fc4_prescale
I0417 19:08:03.911217  7606 net.cpp:434] fc4_prescale <- fc4_300
I0417 19:08:03.911224  7606 net.cpp:395] fc4_prescale -> fc4_300 (in-place)
I0417 19:08:03.911319  7606 net.cpp:150] Setting up fc4_prescale
I0417 19:08:03.911329  7606 net.cpp:157] Top shape: 1024 300 (307200)
I0417 19:08:03.911331  7606 net.cpp:165] Memory required for data: 4104257536
I0417 19:08:03.911336  7606 layer_factory.hpp:77] Creating layer fc4_sTanH
I0417 19:08:03.911345  7606 net.cpp:100] Creating Layer fc4_sTanH
I0417 19:08:03.911348  7606 net.cpp:434] fc4_sTanH <- fc4_300
I0417 19:08:03.911352  7606 net.cpp:395] fc4_sTanH -> fc4_300 (in-place)
I0417 19:08:03.911551  7606 net.cpp:150] Setting up fc4_sTanH
I0417 19:08:03.911563  7606 net.cpp:157] Top shape: 1024 300 (307200)
I0417 19:08:03.911566  7606 net.cpp:165] Memory required for data: 4105486336
I0417 19:08:03.911571  7606 layer_factory.hpp:77] Creating layer fc4_postscale
I0417 19:08:03.911576  7606 net.cpp:100] Creating Layer fc4_postscale
I0417 19:08:03.911581  7606 net.cpp:434] fc4_postscale <- fc4_300
I0417 19:08:03.911589  7606 net.cpp:395] fc4_postscale -> fc4_300 (in-place)
I0417 19:08:03.911694  7606 net.cpp:150] Setting up fc4_postscale
I0417 19:08:03.911703  7606 net.cpp:157] Top shape: 1024 300 (307200)
I0417 19:08:03.911706  7606 net.cpp:165] Memory required for data: 4106715136
I0417 19:08:03.911710  7606 layer_factory.hpp:77] Creating layer fc5_67
I0417 19:08:03.911717  7606 net.cpp:100] Creating Layer fc5_67
I0417 19:08:03.911720  7606 net.cpp:434] fc5_67 <- fc4_300
I0417 19:08:03.911741  7606 net.cpp:408] fc5_67 -> fc5_classes
I0417 19:08:03.913218  7606 net.cpp:150] Setting up fc5_67
I0417 19:08:03.913233  7606 net.cpp:157] Top shape: 1024 67 (68608)
I0417 19:08:03.913238  7606 net.cpp:165] Memory required for data: 4106989568
I0417 19:08:03.913249  7606 layer_factory.hpp:77] Creating layer fc5_classes_fc5_67_0_split
I0417 19:08:03.913256  7606 net.cpp:100] Creating Layer fc5_classes_fc5_67_0_split
I0417 19:08:03.913260  7606 net.cpp:434] fc5_classes_fc5_67_0_split <- fc5_classes
I0417 19:08:03.913269  7606 net.cpp:408] fc5_classes_fc5_67_0_split -> fc5_classes_fc5_67_0_split_0
I0417 19:08:03.913276  7606 net.cpp:408] fc5_classes_fc5_67_0_split -> fc5_classes_fc5_67_0_split_1
I0417 19:08:03.913285  7606 net.cpp:408] fc5_classes_fc5_67_0_split -> fc5_classes_fc5_67_0_split_2
I0417 19:08:03.913338  7606 net.cpp:150] Setting up fc5_classes_fc5_67_0_split
I0417 19:08:03.913347  7606 net.cpp:157] Top shape: 1024 67 (68608)
I0417 19:08:03.913350  7606 net.cpp:157] Top shape: 1024 67 (68608)
I0417 19:08:03.913354  7606 net.cpp:157] Top shape: 1024 67 (68608)
I0417 19:08:03.913357  7606 net.cpp:165] Memory required for data: 4107812864
I0417 19:08:03.913360  7606 layer_factory.hpp:77] Creating layer softmax
I0417 19:08:03.913367  7606 net.cpp:100] Creating Layer softmax
I0417 19:08:03.913370  7606 net.cpp:434] softmax <- fc5_classes_fc5_67_0_split_0
I0417 19:08:03.913378  7606 net.cpp:408] softmax -> softmax
I0417 19:08:03.913643  7606 net.cpp:150] Setting up softmax
I0417 19:08:03.913656  7606 net.cpp:157] Top shape: 1024 67 (68608)
I0417 19:08:03.913660  7606 net.cpp:165] Memory required for data: 4108087296
I0417 19:08:03.913663  7606 layer_factory.hpp:77] Creating layer loss
I0417 19:08:03.913671  7606 net.cpp:100] Creating Layer loss
I0417 19:08:03.913677  7606 net.cpp:434] loss <- softmax
I0417 19:08:03.913681  7606 net.cpp:434] loss <- label_data_1_split_0
I0417 19:08:03.913687  7606 net.cpp:408] loss -> loss
…
