…
I0414 03:49:28.472494 14736 solver.cpp:93] Creating training net from train_net file: ./Prototxt/experiment_10/rtsd-r1/CoNorm/trial_4/train.prototxt
I0414 03:49:28.472851 14736 net.cpp:58] Initializing net from parameters: 
state {
  phase: TRAIN
  level: 0
  stage: ""
}
layer {
  name: "data"
  type: "Data"
  top: "data"
  top: "label"
  include {
    phase: TRAIN
  }
  transform_param {
    scale: 0.0039215689
    mirror: false
    crop_size: 48
    mean_value: 132
    mean_value: 132
    mean_value: 131
  }
  data_param {
    source: "../local_data/lmdb/rtsd-r1/CoNorm/train/lmdb"
    batch_size: 1024
    backend: LMDB
  }
}
layer {
  name: "conv1"
  type: "Convolution"
  bottom: "data"
  top: "conv1"
  convolution_param {
    num_output: 100
    pad: 0
    kernel_size: 7
    group: 1
    stride: 1
    weight_filler {
      type: "xavier"
    }
  }
}
layer {
  name: "conv1_relu"
  type: "ReLU"
  bottom: "conv1"
  top: "conv1"
}
layer {
  name: "pool1"
  type: "Pooling"
  bottom: "conv1"
  top: "pool1"
  pooling_param {
    pool: MAX
    kernel_size: 2
    stride: 2
  }
}
layer {
  name: "conv2"
  type: "Convolution"
  bottom: "pool1"
  top: "conv2"
  convolution_param {
    num_output: 150
    pad: 0
    kernel_size: 4
    group: 1
    stride: 1
    weight_filler {
      type: "xavier"
    }
  }
}
layer {
  name: "conv2_relu"
  type: "ReLU"
  bottom: "conv2"
  top: "conv2"
}
layer {
  name: "pool2"
  type: "Pooling"
  bottom: "conv2"
  top: "pool2"
  pooling_param {
    pool: MAX
    kernel_size: 2
    stride: 2
  }
}
layer {
  name: "conv3"
  type: "Convolution"
  bottom: "pool2"
  top: "conv3"
  convolution_param {
    num_output: 250
    pad: 0
    kernel_size: 4
    group: 1
    stride: 1
    weight_filler {
      type: "xavier"
    }
  }
}
layer {
  name: "conv3_relu"
  type: "ReLU"
  bottom: "conv3"
  top: "conv3"
}
layer {
  name: "pool3"
  type: "Pooling"
  bottom: "conv3"
  top: "pool3"
  pooling_param {
    pool: MAX
    kernel_size: 2
    stride: 2
  }
}
layer {
  name: "fc4_300"
  type: "InnerProduct"
  bottom: "pool3"
  top: "fc4_300"
  inner_product_param {
    num_output: 300
    weight_filler {
      type: "xavier"
    }
  }
}
layer {
  name: "fc4_relu"
  type: "ReLU"
  bottom: "fc4_300"
  top: "fc4_300"
}
layer {
  name: "fc5_67"
  type: "InnerProduct"
  bottom: "fc4_300"
  top: "fc5_classes"
  inner_product_param {
    num_output: 67
    weight_filler {
      type: "xavier"
    }
  }
}
layer {
  name: "softmax"
  type: "Softmax"
  bottom: "fc5_classes"
  top: "softmax"
}
layer {
  name: "loss"
  type: "MultinomialLogisticLoss"
  bottom: "softmax"
  bottom: "label"
  top: "loss"
}
layer {
  name: "accuracy_1"
  type: "Accuracy"
  bottom: "fc5_classes"
  bottom: "label"
  top: "accuracy_1"
  accuracy_param {
    top_k: 1
  }
}
layer {
  name: "accuracy_5"
  type: "Accuracy"
  bottom: "fc5_classes"
  bottom: "label"
  top: "accuracy_5"
  accuracy_param {
    top_k: 5
  }
}
layer {
  name: "silence"
  type: "Silence"
  bottom: "accuracy_1"
  bottom: "accuracy_5"
}
I0414 03:49:28.472967 14736 layer_factory.hpp:77] Creating layer data
I0414 03:49:28.474017 14736 net.cpp:100] Creating Layer data
I0414 03:49:28.474033 14736 net.cpp:408] data -> data
I0414 03:49:28.474056 14736 net.cpp:408] data -> label
I0414 03:49:28.482578 14864 db_lmdb.cpp:35] Opened lmdb ../local_data/lmdb/rtsd-r1/CoNorm/train/lmdb
I0414 03:49:28.501750 14736 data_layer.cpp:41] output data size: 1024,3,48,48
I0414 03:49:28.582087 14736 net.cpp:150] Setting up data
I0414 03:49:28.582147 14736 net.cpp:157] Top shape: 1024 3 48 48 (7077888)
I0414 03:49:28.582155 14736 net.cpp:157] Top shape: 1024 (1024)
I0414 03:49:28.582159 14736 net.cpp:165] Memory required for data: 28315648
I0414 03:49:28.582170 14736 layer_factory.hpp:77] Creating layer label_data_1_split
I0414 03:49:28.582187 14736 net.cpp:100] Creating Layer label_data_1_split
I0414 03:49:28.582201 14736 net.cpp:434] label_data_1_split <- label
I0414 03:49:28.582216 14736 net.cpp:408] label_data_1_split -> label_data_1_split_0
I0414 03:49:28.582231 14736 net.cpp:408] label_data_1_split -> label_data_1_split_1
I0414 03:49:28.582239 14736 net.cpp:408] label_data_1_split -> label_data_1_split_2
I0414 03:49:28.582309 14736 net.cpp:150] Setting up label_data_1_split
I0414 03:49:28.582321 14736 net.cpp:157] Top shape: 1024 (1024)
I0414 03:49:28.582331 14736 net.cpp:157] Top shape: 1024 (1024)
I0414 03:49:28.582335 14736 net.cpp:157] Top shape: 1024 (1024)
I0414 03:49:28.582339 14736 net.cpp:165] Memory required for data: 28327936
I0414 03:49:28.582343 14736 layer_factory.hpp:77] Creating layer conv1
I0414 03:49:28.582365 14736 net.cpp:100] Creating Layer conv1
I0414 03:49:28.582373 14736 net.cpp:434] conv1 <- data
I0414 03:49:28.582383 14736 net.cpp:408] conv1 -> conv1
I0414 03:49:28.935494 14736 net.cpp:150] Setting up conv1
I0414 03:49:28.935521 14736 net.cpp:157] Top shape: 1024 100 42 42 (180633600)
I0414 03:49:28.935525 14736 net.cpp:165] Memory required for data: 750862336
I0414 03:49:28.935549 14736 layer_factory.hpp:77] Creating layer conv1_relu
I0414 03:49:28.935561 14736 net.cpp:100] Creating Layer conv1_relu
I0414 03:49:28.935567 14736 net.cpp:434] conv1_relu <- conv1
I0414 03:49:28.935572 14736 net.cpp:395] conv1_relu -> conv1 (in-place)
I0414 03:49:28.935770 14736 net.cpp:150] Setting up conv1_relu
I0414 03:49:28.935781 14736 net.cpp:157] Top shape: 1024 100 42 42 (180633600)
I0414 03:49:28.935786 14736 net.cpp:165] Memory required for data: 1473396736
I0414 03:49:28.935789 14736 layer_factory.hpp:77] Creating layer pool1
I0414 03:49:28.935798 14736 net.cpp:100] Creating Layer pool1
I0414 03:49:28.935803 14736 net.cpp:434] pool1 <- conv1
I0414 03:49:28.935808 14736 net.cpp:408] pool1 -> pool1
I0414 03:49:28.935861 14736 net.cpp:150] Setting up pool1
I0414 03:49:28.935869 14736 net.cpp:157] Top shape: 1024 100 21 21 (45158400)
I0414 03:49:28.935874 14736 net.cpp:165] Memory required for data: 1654030336
I0414 03:49:28.935889 14736 layer_factory.hpp:77] Creating layer conv2
I0414 03:49:28.935901 14736 net.cpp:100] Creating Layer conv2
I0414 03:49:28.935906 14736 net.cpp:434] conv2 <- pool1
I0414 03:49:28.935912 14736 net.cpp:408] conv2 -> conv2
I0414 03:49:28.944079 14736 net.cpp:150] Setting up conv2
I0414 03:49:28.944095 14736 net.cpp:157] Top shape: 1024 150 18 18 (49766400)
I0414 03:49:28.944099 14736 net.cpp:165] Memory required for data: 1853095936
I0414 03:49:28.944109 14736 layer_factory.hpp:77] Creating layer conv2_relu
I0414 03:49:28.944118 14736 net.cpp:100] Creating Layer conv2_relu
I0414 03:49:28.944123 14736 net.cpp:434] conv2_relu <- conv2
I0414 03:49:28.944128 14736 net.cpp:395] conv2_relu -> conv2 (in-place)
I0414 03:49:28.944876 14736 net.cpp:150] Setting up conv2_relu
I0414 03:49:28.944891 14736 net.cpp:157] Top shape: 1024 150 18 18 (49766400)
I0414 03:49:28.944896 14736 net.cpp:165] Memory required for data: 2052161536
I0414 03:49:28.944900 14736 layer_factory.hpp:77] Creating layer pool2
I0414 03:49:28.944906 14736 net.cpp:100] Creating Layer pool2
I0414 03:49:28.944911 14736 net.cpp:434] pool2 <- conv2
I0414 03:49:28.944916 14736 net.cpp:408] pool2 -> pool2
I0414 03:49:28.944963 14736 net.cpp:150] Setting up pool2
I0414 03:49:28.944972 14736 net.cpp:157] Top shape: 1024 150 9 9 (12441600)
I0414 03:49:28.944975 14736 net.cpp:165] Memory required for data: 2101927936
I0414 03:49:28.944977 14736 layer_factory.hpp:77] Creating layer conv3
I0414 03:49:28.944988 14736 net.cpp:100] Creating Layer conv3
I0414 03:49:28.944998 14736 net.cpp:434] conv3 <- pool2
I0414 03:49:28.945003 14736 net.cpp:408] conv3 -> conv3
I0414 03:49:28.950533 14736 net.cpp:150] Setting up conv3
I0414 03:49:28.950551 14736 net.cpp:157] Top shape: 1024 250 6 6 (9216000)
I0414 03:49:28.950556 14736 net.cpp:165] Memory required for data: 2138791936
I0414 03:49:28.950565 14736 layer_factory.hpp:77] Creating layer conv3_relu
I0414 03:49:28.950573 14736 net.cpp:100] Creating Layer conv3_relu
I0414 03:49:28.950578 14736 net.cpp:434] conv3_relu <- conv3
I0414 03:49:28.950583 14736 net.cpp:395] conv3_relu -> conv3 (in-place)
I0414 03:49:28.951328 14736 net.cpp:150] Setting up conv3_relu
I0414 03:49:28.951344 14736 net.cpp:157] Top shape: 1024 250 6 6 (9216000)
I0414 03:49:28.951347 14736 net.cpp:165] Memory required for data: 2175655936
I0414 03:49:28.951351 14736 layer_factory.hpp:77] Creating layer pool3
I0414 03:49:28.951359 14736 net.cpp:100] Creating Layer pool3
I0414 03:49:28.951362 14736 net.cpp:434] pool3 <- conv3
I0414 03:49:28.951369 14736 net.cpp:408] pool3 -> pool3
I0414 03:49:28.951414 14736 net.cpp:150] Setting up pool3
I0414 03:49:28.951422 14736 net.cpp:157] Top shape: 1024 250 3 3 (2304000)
I0414 03:49:28.951426 14736 net.cpp:165] Memory required for data: 2184871936
I0414 03:49:28.951428 14736 layer_factory.hpp:77] Creating layer fc4_300
I0414 03:49:28.951436 14736 net.cpp:100] Creating Layer fc4_300
I0414 03:49:28.951441 14736 net.cpp:434] fc4_300 <- pool3
I0414 03:49:28.951445 14736 net.cpp:408] fc4_300 -> fc4_300
I0414 03:49:28.956845 14736 net.cpp:150] Setting up fc4_300
I0414 03:49:28.956861 14736 net.cpp:157] Top shape: 1024 300 (307200)
I0414 03:49:28.956863 14736 net.cpp:165] Memory required for data: 2186100736
I0414 03:49:28.956871 14736 layer_factory.hpp:77] Creating layer fc4_relu
I0414 03:49:28.956876 14736 net.cpp:100] Creating Layer fc4_relu
I0414 03:49:28.956879 14736 net.cpp:434] fc4_relu <- fc4_300
I0414 03:49:28.956884 14736 net.cpp:395] fc4_relu -> fc4_300 (in-place)
I0414 03:49:28.957067 14736 net.cpp:150] Setting up fc4_relu
I0414 03:49:28.957078 14736 net.cpp:157] Top shape: 1024 300 (307200)
I0414 03:49:28.957082 14736 net.cpp:165] Memory required for data: 2187329536
I0414 03:49:28.957087 14736 layer_factory.hpp:77] Creating layer fc5_67
I0414 03:49:28.957093 14736 net.cpp:100] Creating Layer fc5_67
I0414 03:49:28.957098 14736 net.cpp:434] fc5_67 <- fc4_300
I0414 03:49:28.957103 14736 net.cpp:408] fc5_67 -> fc5_classes
I0414 03:49:28.959955 14736 net.cpp:150] Setting up fc5_67
I0414 03:49:28.959970 14736 net.cpp:157] Top shape: 1024 67 (68608)
I0414 03:49:28.959974 14736 net.cpp:165] Memory required for data: 2187603968
I0414 03:49:28.959983 14736 layer_factory.hpp:77] Creating layer fc5_classes_fc5_67_0_split
I0414 03:49:28.959990 14736 net.cpp:100] Creating Layer fc5_classes_fc5_67_0_split
I0414 03:49:28.959997 14736 net.cpp:434] fc5_classes_fc5_67_0_split <- fc5_classes
I0414 03:49:28.960002 14736 net.cpp:408] fc5_classes_fc5_67_0_split -> fc5_classes_fc5_67_0_split_0
I0414 03:49:28.960011 14736 net.cpp:408] fc5_classes_fc5_67_0_split -> fc5_classes_fc5_67_0_split_1
I0414 03:49:28.960019 14736 net.cpp:408] fc5_classes_fc5_67_0_split -> fc5_classes_fc5_67_0_split_2
I0414 03:49:28.960070 14736 net.cpp:150] Setting up fc5_classes_fc5_67_0_split
I0414 03:49:28.960078 14736 net.cpp:157] Top shape: 1024 67 (68608)
I0414 03:49:28.960081 14736 net.cpp:157] Top shape: 1024 67 (68608)
I0414 03:49:28.960084 14736 net.cpp:157] Top shape: 1024 67 (68608)
I0414 03:49:28.960088 14736 net.cpp:165] Memory required for data: 2188427264
I0414 03:49:28.960090 14736 layer_factory.hpp:77] Creating layer softmax
I0414 03:49:28.960095 14736 net.cpp:100] Creating Layer softmax
I0414 03:49:28.960100 14736 net.cpp:434] softmax <- fc5_classes_fc5_67_0_split_0
I0414 03:49:28.960105 14736 net.cpp:408] softmax -> softmax
I0414 03:49:28.960355 14736 net.cpp:150] Setting up softmax
I0414 03:49:28.960366 14736 net.cpp:157] Top shape: 1024 67 (68608)
I0414 03:49:28.960371 14736 net.cpp:165] Memory required for data: 2188701696
I0414 03:49:28.960373 14736 layer_factory.hpp:77] Creating layer loss
I0414 03:49:28.960382 14736 net.cpp:100] Creating Layer loss
I0414 03:49:28.960400 14736 net.cpp:434] loss <- softmax
I0414 03:49:28.960405 14736 net.cpp:434] loss <- label_data_1_split_0
I0414 03:49:28.960413 14736 net.cpp:408] loss -> loss
…
