…
I0412 04:43:10.293861  6686 solver.cpp:93] Creating training net from train_net file: ./Prototxt/experiment_10/rtsd-r1/CoNorm/trial_4/train.prototxt
I0412 04:43:10.294209  6686 net.cpp:58] Initializing net from parameters: 
state {
  phase: TRAIN
  level: 0
  stage: ""
}
layer {
  name: "data"
  type: "Data"
  top: "data"
  top: "label"
  include {
    phase: TRAIN
  }
  transform_param {
    scale: 0.0039215689
    mirror: false
    crop_size: 48
    mean_value: 132
    mean_value: 132
    mean_value: 131
  }
  data_param {
    source: "../local_data/lmdb/rtsd-r1/CoNorm/train/lmdb"
    batch_size: 1024
    backend: LMDB
  }
}
layer {
  name: "conv1"
  type: "Convolution"
  bottom: "data"
  top: "conv1"
  convolution_param {
    num_output: 100
    pad: 0
    kernel_size: 7
    group: 1
    stride: 1
    weight_filler {
      type: "xavier"
    }
  }
}
layer {
  name: "conv1_relu"
  type: "ReLU"
  bottom: "conv1"
  top: "conv1"
}
layer {
  name: "pool1"
  type: "Pooling"
  bottom: "conv1"
  top: "pool1"
  pooling_param {
    pool: MAX
    kernel_size: 2
    stride: 2
  }
}
layer {
  name: "conv2"
  type: "Convolution"
  bottom: "pool1"
  top: "conv2"
  convolution_param {
    num_output: 150
    pad: 0
    kernel_size: 4
    group: 1
    stride: 1
    weight_filler {
      type: "xavier"
    }
  }
}
layer {
  name: "conv2_relu"
  type: "ReLU"
  bottom: "conv2"
  top: "conv2"
}
layer {
  name: "pool2"
  type: "Pooling"
  bottom: "conv2"
  top: "pool2"
  pooling_param {
    pool: MAX
    kernel_size: 2
    stride: 2
  }
}
layer {
  name: "conv3"
  type: "Convolution"
  bottom: "pool2"
  top: "conv3"
  convolution_param {
    num_output: 250
    pad: 0
    kernel_size: 4
    group: 1
    stride: 1
    weight_filler {
      type: "xavier"
    }
  }
}
layer {
  name: "conv3_relu"
  type: "ReLU"
  bottom: "conv3"
  top: "conv3"
}
layer {
  name: "pool3"
  type: "Pooling"
  bottom: "conv3"
  top: "pool3"
  pooling_param {
    pool: MAX
    kernel_size: 2
    stride: 2
  }
}
layer {
  name: "fc4_300"
  type: "InnerProduct"
  bottom: "pool3"
  top: "fc4_300"
  inner_product_param {
    num_output: 300
    weight_filler {
      type: "xavier"
    }
  }
}
layer {
  name: "fc4_relu"
  type: "ReLU"
  bottom: "fc4_300"
  top: "fc4_300"
}
layer {
  name: "drop4"
  type: "Dropout"
  bottom: "fc4_300"
  top: "fc4_300"
  dropout_param {
    dropout_ratio: 0.4
  }
}
layer {
  name: "fc5_67"
  type: "InnerProduct"
  bottom: "fc4_300"
  top: "fc5_classes"
  inner_product_param {
    num_output: 67
    weight_filler {
      type: "xavier"
    }
  }
}
layer {
  name: "softmax"
  type: "Softmax"
  bottom: "fc5_classes"
  top: "softmax"
}
layer {
  name: "loss"
  type: "MultinomialLogisticLoss"
  bottom: "softmax"
  bottom: "label"
  top: "loss"
}
layer {
  name: "accuracy_1"
  type: "Accuracy"
  bottom: "fc5_classes"
  bottom: "label"
  top: "accuracy_1"
  accuracy_param {
    top_k: 1
  }
}
layer {
  name: "accuracy_5"
  type: "Accuracy"
  bottom: "fc5_classes"
  bottom: "label"
  top: "accuracy_5"
  accuracy_param {
    top_k: 5
  }
}
I0412 04:43:10.294327  6686 layer_factory.hpp:77] Creating layer data
I0412 04:43:10.295399  6686 net.cpp:100] Creating Layer data
I0412 04:43:10.295419  6686 net.cpp:408] data -> data
I0412 04:43:10.295444  6686 net.cpp:408] data -> label
I0412 04:43:10.300089  6795 db_lmdb.cpp:35] Opened lmdb ../local_data/lmdb/rtsd-r1/CoNorm/train/lmdb
I0412 04:43:10.321835  6686 data_layer.cpp:41] output data size: 1024,3,48,48
I0412 04:43:10.383936  6686 net.cpp:150] Setting up data
I0412 04:43:10.383966  6686 net.cpp:157] Top shape: 1024 3 48 48 (7077888)
I0412 04:43:10.383971  6686 net.cpp:157] Top shape: 1024 (1024)
I0412 04:43:10.383975  6686 net.cpp:165] Memory required for data: 28315648
I0412 04:43:10.383985  6686 layer_factory.hpp:77] Creating layer label_data_1_split
I0412 04:43:10.383999  6686 net.cpp:100] Creating Layer label_data_1_split
I0412 04:43:10.384007  6686 net.cpp:434] label_data_1_split <- label
I0412 04:43:10.384021  6686 net.cpp:408] label_data_1_split -> label_data_1_split_0
I0412 04:43:10.384033  6686 net.cpp:408] label_data_1_split -> label_data_1_split_1
I0412 04:43:10.384042  6686 net.cpp:408] label_data_1_split -> label_data_1_split_2
I0412 04:43:10.384117  6686 net.cpp:150] Setting up label_data_1_split
I0412 04:43:10.384129  6686 net.cpp:157] Top shape: 1024 (1024)
I0412 04:43:10.384135  6686 net.cpp:157] Top shape: 1024 (1024)
I0412 04:43:10.384140  6686 net.cpp:157] Top shape: 1024 (1024)
I0412 04:43:10.384143  6686 net.cpp:165] Memory required for data: 28327936
I0412 04:43:10.384146  6686 layer_factory.hpp:77] Creating layer conv1
I0412 04:43:10.384165  6686 net.cpp:100] Creating Layer conv1
I0412 04:43:10.384171  6686 net.cpp:434] conv1 <- data
I0412 04:43:10.384176  6686 net.cpp:408] conv1 -> conv1
I0412 04:43:10.712213  6686 net.cpp:150] Setting up conv1
I0412 04:43:10.712241  6686 net.cpp:157] Top shape: 1024 100 42 42 (180633600)
I0412 04:43:10.712245  6686 net.cpp:165] Memory required for data: 750862336
I0412 04:43:10.712268  6686 layer_factory.hpp:77] Creating layer conv1_relu
I0412 04:43:10.712280  6686 net.cpp:100] Creating Layer conv1_relu
I0412 04:43:10.712285  6686 net.cpp:434] conv1_relu <- conv1
I0412 04:43:10.712292  6686 net.cpp:395] conv1_relu -> conv1 (in-place)
I0412 04:43:10.712492  6686 net.cpp:150] Setting up conv1_relu
I0412 04:43:10.712504  6686 net.cpp:157] Top shape: 1024 100 42 42 (180633600)
I0412 04:43:10.712508  6686 net.cpp:165] Memory required for data: 1473396736
I0412 04:43:10.712512  6686 layer_factory.hpp:77] Creating layer pool1
I0412 04:43:10.712523  6686 net.cpp:100] Creating Layer pool1
I0412 04:43:10.712528  6686 net.cpp:434] pool1 <- conv1
I0412 04:43:10.712533  6686 net.cpp:408] pool1 -> pool1
I0412 04:43:10.712586  6686 net.cpp:150] Setting up pool1
I0412 04:43:10.712594  6686 net.cpp:157] Top shape: 1024 100 21 21 (45158400)
I0412 04:43:10.712599  6686 net.cpp:165] Memory required for data: 1654030336
I0412 04:43:10.712602  6686 layer_factory.hpp:77] Creating layer conv2
I0412 04:43:10.712613  6686 net.cpp:100] Creating Layer conv2
I0412 04:43:10.712618  6686 net.cpp:434] conv2 <- pool1
I0412 04:43:10.712623  6686 net.cpp:408] conv2 -> conv2
I0412 04:43:10.718358  6686 net.cpp:150] Setting up conv2
I0412 04:43:10.718376  6686 net.cpp:157] Top shape: 1024 150 18 18 (49766400)
I0412 04:43:10.718379  6686 net.cpp:165] Memory required for data: 1853095936
I0412 04:43:10.718391  6686 layer_factory.hpp:77] Creating layer conv2_relu
I0412 04:43:10.718400  6686 net.cpp:100] Creating Layer conv2_relu
I0412 04:43:10.718405  6686 net.cpp:434] conv2_relu <- conv2
I0412 04:43:10.718410  6686 net.cpp:395] conv2_relu -> conv2 (in-place)
I0412 04:43:10.719456  6686 net.cpp:150] Setting up conv2_relu
I0412 04:43:10.719472  6686 net.cpp:157] Top shape: 1024 150 18 18 (49766400)
I0412 04:43:10.719476  6686 net.cpp:165] Memory required for data: 2052161536
I0412 04:43:10.719480  6686 layer_factory.hpp:77] Creating layer pool2
I0412 04:43:10.719486  6686 net.cpp:100] Creating Layer pool2
I0412 04:43:10.719491  6686 net.cpp:434] pool2 <- conv2
I0412 04:43:10.719496  6686 net.cpp:408] pool2 -> pool2
I0412 04:43:10.719543  6686 net.cpp:150] Setting up pool2
I0412 04:43:10.719552  6686 net.cpp:157] Top shape: 1024 150 9 9 (12441600)
I0412 04:43:10.719555  6686 net.cpp:165] Memory required for data: 2101927936
I0412 04:43:10.719559  6686 layer_factory.hpp:77] Creating layer conv3
I0412 04:43:10.719571  6686 net.cpp:100] Creating Layer conv3
I0412 04:43:10.719578  6686 net.cpp:434] conv3 <- pool2
I0412 04:43:10.719602  6686 net.cpp:408] conv3 -> conv3
I0412 04:43:10.725858  6686 net.cpp:150] Setting up conv3
I0412 04:43:10.725881  6686 net.cpp:157] Top shape: 1024 250 6 6 (9216000)
I0412 04:43:10.725888  6686 net.cpp:165] Memory required for data: 2138791936
I0412 04:43:10.725898  6686 layer_factory.hpp:77] Creating layer conv3_relu
I0412 04:43:10.725908  6686 net.cpp:100] Creating Layer conv3_relu
I0412 04:43:10.725913  6686 net.cpp:434] conv3_relu <- conv3
I0412 04:43:10.725919  6686 net.cpp:395] conv3_relu -> conv3 (in-place)
I0412 04:43:10.727036  6686 net.cpp:150] Setting up conv3_relu
I0412 04:43:10.727053  6686 net.cpp:157] Top shape: 1024 250 6 6 (9216000)
I0412 04:43:10.727056  6686 net.cpp:165] Memory required for data: 2175655936
I0412 04:43:10.727061  6686 layer_factory.hpp:77] Creating layer pool3
I0412 04:43:10.727067  6686 net.cpp:100] Creating Layer pool3
I0412 04:43:10.727071  6686 net.cpp:434] pool3 <- conv3
I0412 04:43:10.727078  6686 net.cpp:408] pool3 -> pool3
I0412 04:43:10.727129  6686 net.cpp:150] Setting up pool3
I0412 04:43:10.727138  6686 net.cpp:157] Top shape: 1024 250 3 3 (2304000)
I0412 04:43:10.727143  6686 net.cpp:165] Memory required for data: 2184871936
I0412 04:43:10.727145  6686 layer_factory.hpp:77] Creating layer fc4_300
I0412 04:43:10.727155  6686 net.cpp:100] Creating Layer fc4_300
I0412 04:43:10.727160  6686 net.cpp:434] fc4_300 <- pool3
I0412 04:43:10.727166  6686 net.cpp:408] fc4_300 -> fc4_300
I0412 04:43:10.733034  6686 net.cpp:150] Setting up fc4_300
I0412 04:43:10.733050  6686 net.cpp:157] Top shape: 1024 300 (307200)
I0412 04:43:10.733054  6686 net.cpp:165] Memory required for data: 2186100736
I0412 04:43:10.733062  6686 layer_factory.hpp:77] Creating layer fc4_relu
I0412 04:43:10.733075  6686 net.cpp:100] Creating Layer fc4_relu
I0412 04:43:10.733080  6686 net.cpp:434] fc4_relu <- fc4_300
I0412 04:43:10.733085  6686 net.cpp:395] fc4_relu -> fc4_300 (in-place)
I0412 04:43:10.733281  6686 net.cpp:150] Setting up fc4_relu
I0412 04:43:10.733294  6686 net.cpp:157] Top shape: 1024 300 (307200)
I0412 04:43:10.733299  6686 net.cpp:165] Memory required for data: 2187329536
I0412 04:43:10.733301  6686 layer_factory.hpp:77] Creating layer drop4
I0412 04:43:10.733309  6686 net.cpp:100] Creating Layer drop4
I0412 04:43:10.733314  6686 net.cpp:434] drop4 <- fc4_300
I0412 04:43:10.733319  6686 net.cpp:395] drop4 -> fc4_300 (in-place)
I0412 04:43:10.733352  6686 net.cpp:150] Setting up drop4
I0412 04:43:10.733361  6686 net.cpp:157] Top shape: 1024 300 (307200)
I0412 04:43:10.733364  6686 net.cpp:165] Memory required for data: 2188558336
I0412 04:43:10.733368  6686 layer_factory.hpp:77] Creating layer fc5_67
I0412 04:43:10.733377  6686 net.cpp:100] Creating Layer fc5_67
I0412 04:43:10.733382  6686 net.cpp:434] fc5_67 <- fc4_300
I0412 04:43:10.733387  6686 net.cpp:408] fc5_67 -> fc5_classes
I0412 04:43:10.735726  6686 net.cpp:150] Setting up fc5_67
I0412 04:43:10.735741  6686 net.cpp:157] Top shape: 1024 67 (68608)
I0412 04:43:10.735746  6686 net.cpp:165] Memory required for data: 2188832768
I0412 04:43:10.735756  6686 layer_factory.hpp:77] Creating layer fc5_classes_fc5_67_0_split
I0412 04:43:10.735766  6686 net.cpp:100] Creating Layer fc5_classes_fc5_67_0_split
I0412 04:43:10.735772  6686 net.cpp:434] fc5_classes_fc5_67_0_split <- fc5_classes
I0412 04:43:10.735780  6686 net.cpp:408] fc5_classes_fc5_67_0_split -> fc5_classes_fc5_67_0_split_0
I0412 04:43:10.735788  6686 net.cpp:408] fc5_classes_fc5_67_0_split -> fc5_classes_fc5_67_0_split_1
I0412 04:43:10.735795  6686 net.cpp:408] fc5_classes_fc5_67_0_split -> fc5_classes_fc5_67_0_split_2
I0412 04:43:10.735849  6686 net.cpp:150] Setting up fc5_classes_fc5_67_0_split
I0412 04:43:10.735857  6686 net.cpp:157] Top shape: 1024 67 (68608)
I0412 04:43:10.735860  6686 net.cpp:157] Top shape: 1024 67 (68608)
I0412 04:43:10.735863  6686 net.cpp:157] Top shape: 1024 67 (68608)
I0412 04:43:10.735867  6686 net.cpp:165] Memory required for data: 2189656064
I0412 04:43:10.735868  6686 layer_factory.hpp:77] Creating layer softmax
I0412 04:43:10.735911  6686 net.cpp:100] Creating Layer softmax
I0412 04:43:10.735918  6686 net.cpp:434] softmax <- fc5_classes_fc5_67_0_split_0
I0412 04:43:10.735924  6686 net.cpp:408] softmax -> softmax
I0412 04:43:10.736187  6686 net.cpp:150] Setting up softmax
I0412 04:43:10.736201  6686 net.cpp:157] Top shape: 1024 67 (68608)
I0412 04:43:10.736204  6686 net.cpp:165] Memory required for data: 2189930496
I0412 04:43:10.736208  6686 layer_factory.hpp:77] Creating layer loss
I0412 04:43:10.736217  6686 net.cpp:100] Creating Layer loss
I0412 04:43:10.736222  6686 net.cpp:434] loss <- softmax
I0412 04:43:10.736227  6686 net.cpp:434] loss <- label_data_1_split_0
I0412 04:43:10.736232  6686 net.cpp:408] loss -> loss
…
