…
I0507 00:01:35.555955 31433 solver.cpp:93] Creating training net from train_net file: ./Prototxt/experiment_14/RTSD/orig/trial_5/train.prototxt
I0507 00:01:35.556305 31433 net.cpp:58] Initializing net from parameters: 
state {
  phase: TRAIN
  level: 0
  stage: ""
}
layer {
  name: "data"
  type: "Data"
  top: "data"
  top: "label"
  include {
    phase: TRAIN
  }
  transform_param {
    scale: 0.0039215689
    mirror: false
    crop_size: 48
    mean_value: 119
    mean_value: 113
    mean_value: 113
  }
  data_param {
    source: "../local_data/lmdb/RTSD/orig/train/lmdb"
    batch_size: 512
    backend: LMDB
  }
}
layer {
  name: "conv1"
  type: "Convolution"
  bottom: "data"
  top: "conv1"
  convolution_param {
    num_output: 100
    pad: 0
    kernel_size: 7
    group: 1
    stride: 1
    weight_filler {
      type: "xavier"
    }
  }
}
layer {
  name: "conv1_relu"
  type: "ReLU"
  bottom: "conv1"
  top: "conv1"
}
layer {
  name: "pool1"
  type: "Pooling"
  bottom: "conv1"
  top: "pool1"
  pooling_param {
    pool: MAX
    kernel_size: 2
    stride: 2
  }
}
layer {
  name: "conv2"
  type: "Convolution"
  bottom: "pool1"
  top: "conv2"
  convolution_param {
    num_output: 150
    pad: 0
    kernel_size: 4
    group: 1
    stride: 1
    weight_filler {
      type: "xavier"
    }
  }
}
layer {
  name: "conv2_relu"
  type: "ReLU"
  bottom: "conv2"
  top: "conv2"
}
layer {
  name: "pool2"
  type: "Pooling"
  bottom: "conv2"
  top: "pool2"
  pooling_param {
    pool: MAX
    kernel_size: 2
    stride: 2
  }
}
layer {
  name: "conv3"
  type: "Convolution"
  bottom: "pool2"
  top: "conv3"
  convolution_param {
    num_output: 250
    pad: 0
    kernel_size: 4
    group: 1
    stride: 1
    weight_filler {
      type: "xavier"
    }
  }
}
layer {
  name: "conv3_relu"
  type: "ReLU"
  bottom: "conv3"
  top: "conv3"
}
layer {
  name: "pool3"
  type: "Pooling"
  bottom: "conv3"
  top: "pool3"
  pooling_param {
    pool: MAX
    kernel_size: 2
    stride: 2
  }
}
layer {
  name: "fc4_300"
  type: "InnerProduct"
  bottom: "pool3"
  top: "fc4_300"
  inner_product_param {
    num_output: 300
    weight_filler {
      type: "xavier"
    }
  }
}
layer {
  name: "fc4_relu"
  type: "ReLU"
  bottom: "fc4_300"
  top: "fc4_300"
}
layer {
  name: "fc5_116"
  type: "InnerProduct"
  bottom: "fc4_300"
  top: "fc5_classes"
  inner_product_param {
    num_output: 116
    weight_filler {
      type: "xavier"
    }
  }
}
layer {
  name: "softmax"
  type: "Softmax"
  bottom: "fc5_classes"
  top: "softmax"
}
layer {
  name: "loss"
  type: "MultinomialLogisticLoss"
  bottom: "softmax"
  bottom: "label"
  top: "loss"
}
layer {
  name: "accuracy_1"
  type: "Accuracy"
  bottom: "fc5_classes"
  bottom: "label"
  top: "accuracy_1"
  accuracy_param {
    top_k: 1
  }
}
layer {
  name: "accuracy_5"
  type: "Accuracy"
  bottom: "fc5_classes"
  bottom: "label"
  top: "accuracy_5"
  accuracy_param {
    top_k: 5
  }
}
layer {
  name: "silence"
  type: "Silence"
  bottom: "accuracy_1"
  bottom: "accuracy_5"
}
I0507 00:01:35.556422 31433 layer_factory.hpp:77] Creating layer data
I0507 00:01:35.557453 31433 net.cpp:100] Creating Layer data
I0507 00:01:35.557477 31433 net.cpp:408] data -> data
I0507 00:01:35.557502 31433 net.cpp:408] data -> label
I0507 00:01:35.576292 31567 db_lmdb.cpp:35] Opened lmdb ../local_data/lmdb/RTSD/orig/train/lmdb
I0507 00:01:35.598299 31433 data_layer.cpp:41] output data size: 512,3,48,48
I0507 00:01:35.658265 31433 net.cpp:150] Setting up data
I0507 00:01:35.658321 31433 net.cpp:157] Top shape: 512 3 48 48 (3538944)
I0507 00:01:35.658327 31433 net.cpp:157] Top shape: 512 (512)
I0507 00:01:35.658331 31433 net.cpp:165] Memory required for data: 14157824
I0507 00:01:35.658344 31433 layer_factory.hpp:77] Creating layer label_data_1_split
I0507 00:01:35.658357 31433 net.cpp:100] Creating Layer label_data_1_split
I0507 00:01:35.658363 31433 net.cpp:434] label_data_1_split <- label
I0507 00:01:35.658376 31433 net.cpp:408] label_data_1_split -> label_data_1_split_0
I0507 00:01:35.658387 31433 net.cpp:408] label_data_1_split -> label_data_1_split_1
I0507 00:01:35.658394 31433 net.cpp:408] label_data_1_split -> label_data_1_split_2
I0507 00:01:35.658457 31433 net.cpp:150] Setting up label_data_1_split
I0507 00:01:35.658466 31433 net.cpp:157] Top shape: 512 (512)
I0507 00:01:35.658469 31433 net.cpp:157] Top shape: 512 (512)
I0507 00:01:35.658473 31433 net.cpp:157] Top shape: 512 (512)
I0507 00:01:35.658476 31433 net.cpp:165] Memory required for data: 14163968
I0507 00:01:35.658479 31433 layer_factory.hpp:77] Creating layer conv1
I0507 00:01:35.658495 31433 net.cpp:100] Creating Layer conv1
I0507 00:01:35.658499 31433 net.cpp:434] conv1 <- data
I0507 00:01:35.658504 31433 net.cpp:408] conv1 -> conv1
I0507 00:01:36.077085 31433 net.cpp:150] Setting up conv1
I0507 00:01:36.077111 31433 net.cpp:157] Top shape: 512 100 42 42 (90316800)
I0507 00:01:36.077116 31433 net.cpp:165] Memory required for data: 375431168
I0507 00:01:36.077137 31433 layer_factory.hpp:77] Creating layer conv1_relu
I0507 00:01:36.077148 31433 net.cpp:100] Creating Layer conv1_relu
I0507 00:01:36.077154 31433 net.cpp:434] conv1_relu <- conv1
I0507 00:01:36.077160 31433 net.cpp:395] conv1_relu -> conv1 (in-place)
I0507 00:01:36.077355 31433 net.cpp:150] Setting up conv1_relu
I0507 00:01:36.077368 31433 net.cpp:157] Top shape: 512 100 42 42 (90316800)
I0507 00:01:36.077371 31433 net.cpp:165] Memory required for data: 736698368
I0507 00:01:36.077375 31433 layer_factory.hpp:77] Creating layer pool1
I0507 00:01:36.077385 31433 net.cpp:100] Creating Layer pool1
I0507 00:01:36.077389 31433 net.cpp:434] pool1 <- conv1
I0507 00:01:36.077395 31433 net.cpp:408] pool1 -> pool1
I0507 00:01:36.077450 31433 net.cpp:150] Setting up pool1
I0507 00:01:36.077458 31433 net.cpp:157] Top shape: 512 100 21 21 (22579200)
I0507 00:01:36.077461 31433 net.cpp:165] Memory required for data: 827015168
I0507 00:01:36.077466 31433 layer_factory.hpp:77] Creating layer conv2
I0507 00:01:36.077476 31433 net.cpp:100] Creating Layer conv2
I0507 00:01:36.077481 31433 net.cpp:434] conv2 <- pool1
I0507 00:01:36.077486 31433 net.cpp:408] conv2 -> conv2
I0507 00:01:36.088680 31433 net.cpp:150] Setting up conv2
I0507 00:01:36.088699 31433 net.cpp:157] Top shape: 512 150 18 18 (24883200)
I0507 00:01:36.088703 31433 net.cpp:165] Memory required for data: 926547968
I0507 00:01:36.088716 31433 layer_factory.hpp:77] Creating layer conv2_relu
I0507 00:01:36.088724 31433 net.cpp:100] Creating Layer conv2_relu
I0507 00:01:36.088727 31433 net.cpp:434] conv2_relu <- conv2
I0507 00:01:36.088733 31433 net.cpp:395] conv2_relu -> conv2 (in-place)
I0507 00:01:36.089805 31433 net.cpp:150] Setting up conv2_relu
I0507 00:01:36.089823 31433 net.cpp:157] Top shape: 512 150 18 18 (24883200)
I0507 00:01:36.089825 31433 net.cpp:165] Memory required for data: 1026080768
I0507 00:01:36.089829 31433 layer_factory.hpp:77] Creating layer pool2
I0507 00:01:36.089838 31433 net.cpp:100] Creating Layer pool2
I0507 00:01:36.089841 31433 net.cpp:434] pool2 <- conv2
I0507 00:01:36.089848 31433 net.cpp:408] pool2 -> pool2
I0507 00:01:36.089895 31433 net.cpp:150] Setting up pool2
I0507 00:01:36.089905 31433 net.cpp:157] Top shape: 512 150 9 9 (6220800)
I0507 00:01:36.089908 31433 net.cpp:165] Memory required for data: 1050963968
I0507 00:01:36.089911 31433 layer_factory.hpp:77] Creating layer conv3
I0507 00:01:36.089922 31433 net.cpp:100] Creating Layer conv3
I0507 00:01:36.089929 31433 net.cpp:434] conv3 <- pool2
I0507 00:01:36.089934 31433 net.cpp:408] conv3 -> conv3
I0507 00:01:36.095950 31433 net.cpp:150] Setting up conv3
I0507 00:01:36.095968 31433 net.cpp:157] Top shape: 512 250 6 6 (4608000)
I0507 00:01:36.095973 31433 net.cpp:165] Memory required for data: 1069395968
I0507 00:01:36.095983 31433 layer_factory.hpp:77] Creating layer conv3_relu
I0507 00:01:36.095989 31433 net.cpp:100] Creating Layer conv3_relu
I0507 00:01:36.095993 31433 net.cpp:434] conv3_relu <- conv3
I0507 00:01:36.095999 31433 net.cpp:395] conv3_relu -> conv3 (in-place)
I0507 00:01:36.096892 31433 net.cpp:150] Setting up conv3_relu
I0507 00:01:36.096913 31433 net.cpp:157] Top shape: 512 250 6 6 (4608000)
I0507 00:01:36.096920 31433 net.cpp:165] Memory required for data: 1087827968
I0507 00:01:36.096925 31433 layer_factory.hpp:77] Creating layer pool3
I0507 00:01:36.096931 31433 net.cpp:100] Creating Layer pool3
I0507 00:01:36.096935 31433 net.cpp:434] pool3 <- conv3
I0507 00:01:36.096941 31433 net.cpp:408] pool3 -> pool3
I0507 00:01:36.096990 31433 net.cpp:150] Setting up pool3
I0507 00:01:36.096999 31433 net.cpp:157] Top shape: 512 250 3 3 (1152000)
I0507 00:01:36.097002 31433 net.cpp:165] Memory required for data: 1092435968
I0507 00:01:36.097007 31433 layer_factory.hpp:77] Creating layer fc4_300
I0507 00:01:36.097013 31433 net.cpp:100] Creating Layer fc4_300
I0507 00:01:36.097018 31433 net.cpp:434] fc4_300 <- pool3
I0507 00:01:36.097023 31433 net.cpp:408] fc4_300 -> fc4_300
I0507 00:01:36.103113 31433 net.cpp:150] Setting up fc4_300
I0507 00:01:36.103130 31433 net.cpp:157] Top shape: 512 300 (153600)
I0507 00:01:36.103134 31433 net.cpp:165] Memory required for data: 1093050368
I0507 00:01:36.103142 31433 layer_factory.hpp:77] Creating layer fc4_relu
I0507 00:01:36.103150 31433 net.cpp:100] Creating Layer fc4_relu
I0507 00:01:36.103157 31433 net.cpp:434] fc4_relu <- fc4_300
I0507 00:01:36.103163 31433 net.cpp:395] fc4_relu -> fc4_300 (in-place)
I0507 00:01:36.103350 31433 net.cpp:150] Setting up fc4_relu
I0507 00:01:36.103360 31433 net.cpp:157] Top shape: 512 300 (153600)
I0507 00:01:36.103363 31433 net.cpp:165] Memory required for data: 1093664768
I0507 00:01:36.103368 31433 layer_factory.hpp:77] Creating layer fc5_116
I0507 00:01:36.103375 31433 net.cpp:100] Creating Layer fc5_116
I0507 00:01:36.103381 31433 net.cpp:434] fc5_116 <- fc4_300
I0507 00:01:36.103386 31433 net.cpp:408] fc5_116 -> fc5_classes
I0507 00:01:36.106802 31433 net.cpp:150] Setting up fc5_116
I0507 00:01:36.106817 31433 net.cpp:157] Top shape: 512 116 (59392)
I0507 00:01:36.106822 31433 net.cpp:165] Memory required for data: 1093902336
I0507 00:01:36.106832 31433 layer_factory.hpp:77] Creating layer fc5_classes_fc5_116_0_split
I0507 00:01:36.106839 31433 net.cpp:100] Creating Layer fc5_classes_fc5_116_0_split
I0507 00:01:36.106844 31433 net.cpp:434] fc5_classes_fc5_116_0_split <- fc5_classes
I0507 00:01:36.106850 31433 net.cpp:408] fc5_classes_fc5_116_0_split -> fc5_classes_fc5_116_0_split_0
I0507 00:01:36.106858 31433 net.cpp:408] fc5_classes_fc5_116_0_split -> fc5_classes_fc5_116_0_split_1
I0507 00:01:36.106865 31433 net.cpp:408] fc5_classes_fc5_116_0_split -> fc5_classes_fc5_116_0_split_2
I0507 00:01:36.106914 31433 net.cpp:150] Setting up fc5_classes_fc5_116_0_split
I0507 00:01:36.106921 31433 net.cpp:157] Top shape: 512 116 (59392)
I0507 00:01:36.106925 31433 net.cpp:157] Top shape: 512 116 (59392)
I0507 00:01:36.106928 31433 net.cpp:157] Top shape: 512 116 (59392)
I0507 00:01:36.106931 31433 net.cpp:165] Memory required for data: 1094615040
I0507 00:01:36.106935 31433 layer_factory.hpp:77] Creating layer softmax
I0507 00:01:36.106940 31433 net.cpp:100] Creating Layer softmax
I0507 00:01:36.106945 31433 net.cpp:434] softmax <- fc5_classes_fc5_116_0_split_0
I0507 00:01:36.106950 31433 net.cpp:408] softmax -> softmax
I0507 00:01:36.107194 31433 net.cpp:150] Setting up softmax
I0507 00:01:36.107206 31433 net.cpp:157] Top shape: 512 116 (59392)
I0507 00:01:36.107209 31433 net.cpp:165] Memory required for data: 1094852608
I0507 00:01:36.107213 31433 layer_factory.hpp:77] Creating layer loss
I0507 00:01:36.107223 31433 net.cpp:100] Creating Layer loss
I0507 00:01:36.107244 31433 net.cpp:434] loss <- softmax
I0507 00:01:36.107250 31433 net.cpp:434] loss <- label_data_1_split_0
I0507 00:01:36.107256 31433 net.cpp:408] loss -> loss
…
