…
I0529 00:53:14.897801  7755 solver.cpp:81] Creating training net from train_net file: ./Prototxt/experiment_22/RTSD/imajust/trial_2/train.prototxt
I0529 00:53:14.902840  7755 net.cpp:58] Initializing net from parameters: 
state {
  phase: TRAIN
  level: 0
  stage: ""
}
layer {
  name: "data"
  type: "Data"
  top: "data"
  top: "label"
  include {
    phase: TRAIN
  }
  transform_param {
    scale: 0.0039215689
    mirror: false
    crop_size: 48
    mean_value: 119
    mean_value: 113
    mean_value: 114
  }
  data_param {
    source: "../local_data/lmdb/RTSD/imajust/train/lmdb"
    batch_size: 1024
    backend: LMDB
  }
}
layer {
  name: "conv1"
  type: "Convolution"
  bottom: "data"
  top: "conv1"
  convolution_param {
    num_output: 100
    pad: 0
    kernel_size: 7
    group: 1
    stride: 1
    weight_filler {
      type: "xavier"
    }
  }
}
layer {
  name: "conv1_relu"
  type: "ReLU"
  bottom: "conv1"
  top: "conv1"
}
layer {
  name: "pool1"
  type: "Pooling"
  bottom: "conv1"
  top: "pool1"
  pooling_param {
    pool: MAX
    kernel_size: 2
    stride: 2
  }
}
layer {
  name: "conv2"
  type: "Convolution"
  bottom: "pool1"
  top: "conv2"
  convolution_param {
    num_output: 150
    pad: 0
    kernel_size: 4
    group: 1
    stride: 1
    weight_filler {
      type: "xavier"
    }
  }
}
layer {
  name: "conv2_relu"
  type: "ReLU"
  bottom: "conv2"
  top: "conv2"
}
layer {
  name: "pool2"
  type: "Pooling"
  bottom: "conv2"
  top: "pool2"
  pooling_param {
    pool: MAX
    kernel_size: 2
    stride: 2
  }
}
layer {
  name: "conv3"
  type: "Convolution"
  bottom: "pool2"
  top: "conv3"
  convolution_param {
    num_output: 250
    pad: 0
    kernel_size: 4
    group: 1
    stride: 1
    weight_filler {
      type: "xavier"
    }
  }
}
layer {
  name: "conv3_relu"
  type: "ReLU"
  bottom: "conv3"
  top: "conv3"
}
layer {
  name: "pool3"
  type: "Pooling"
  bottom: "conv3"
  top: "pool3"
  pooling_param {
    pool: MAX
    kernel_size: 2
    stride: 2
  }
}
layer {
  name: "fc4_300"
  type: "InnerProduct"
  bottom: "pool3"
  top: "fc4_300"
  inner_product_param {
    num_output: 300
    weight_filler {
      type: "xavier"
    }
  }
}
layer {
  name: "fc4_relu"
  type: "ReLU"
  bottom: "fc4_300"
  top: "fc4_300"
}
layer {
  name: "fc5_116"
  type: "InnerProduct"
  bottom: "fc4_300"
  top: "fc5_classes"
  inner_product_param {
    num_output: 116
    weight_filler {
      type: "xavier"
    }
  }
}
layer {
  name: "softmax"
  type: "Softmax"
  bottom: "fc5_classes"
  top: "softmax"
}
layer {
  name: "loss"
  type: "MultinomialLogisticLoss"
  bottom: "softmax"
  bottom: "label"
  top: "loss"
}
layer {
  name: "accuracy_1"
  type: "Accuracy"
  bottom: "fc5_classes"
  bottom: "label"
  top: "accuracy_1"
  accuracy_param {
    top_k: 1
  }
}
layer {
  name: "accuracy_5"
  type: "Accuracy"
  bottom: "fc5_classes"
  bottom: "label"
  top: "accuracy_5"
  accuracy_param {
    top_k: 5
  }
}
layer {
  name: "silence"
  type: "Silence"
  bottom: "accuracy_1"
  bottom: "accuracy_5"
}
I0529 00:53:14.903079  7755 layer_factory.hpp:77] Creating layer data
I0529 00:53:14.905123  7755 net.cpp:100] Creating Layer data
I0529 00:53:14.905156  7755 net.cpp:408] data -> data
I0529 00:53:14.905197  7755 net.cpp:408] data -> label
I0529 00:53:14.906178  7799 db_lmdb.cpp:35] Opened lmdb ../local_data/lmdb/RTSD/imajust/train/lmdb
I0529 00:53:14.948223  7755 data_layer.cpp:41] output data size: 1024,3,48,48
I0529 00:53:15.001991  7755 net.cpp:150] Setting up data
I0529 00:53:15.002045  7755 net.cpp:157] Top shape: 1024 3 48 48 (7077888)
I0529 00:53:15.002056  7755 net.cpp:157] Top shape: 1024 (1024)
I0529 00:53:15.002065  7755 net.cpp:165] Memory required for data: 28315648
I0529 00:53:15.002079  7755 layer_factory.hpp:77] Creating layer label_data_1_split
I0529 00:53:15.002096  7755 net.cpp:100] Creating Layer label_data_1_split
I0529 00:53:15.002109  7755 net.cpp:434] label_data_1_split <- label
I0529 00:53:15.002130  7755 net.cpp:408] label_data_1_split -> label_data_1_split_0
I0529 00:53:15.002151  7755 net.cpp:408] label_data_1_split -> label_data_1_split_1
I0529 00:53:15.002166  7755 net.cpp:408] label_data_1_split -> label_data_1_split_2
I0529 00:53:15.002230  7755 net.cpp:150] Setting up label_data_1_split
I0529 00:53:15.002248  7755 net.cpp:157] Top shape: 1024 (1024)
I0529 00:53:15.002257  7755 net.cpp:157] Top shape: 1024 (1024)
I0529 00:53:15.002265  7755 net.cpp:157] Top shape: 1024 (1024)
I0529 00:53:15.002272  7755 net.cpp:165] Memory required for data: 28327936
I0529 00:53:15.002280  7755 layer_factory.hpp:77] Creating layer conv1
I0529 00:53:15.002310  7755 net.cpp:100] Creating Layer conv1
I0529 00:53:15.002322  7755 net.cpp:434] conv1 <- data
I0529 00:53:15.002338  7755 net.cpp:408] conv1 -> conv1
I0529 00:53:15.366261  7755 net.cpp:150] Setting up conv1
I0529 00:53:15.366293  7755 net.cpp:157] Top shape: 1024 100 42 42 (180633600)
I0529 00:53:15.366300  7755 net.cpp:165] Memory required for data: 750862336
I0529 00:53:15.366318  7755 layer_factory.hpp:77] Creating layer conv1_relu
I0529 00:53:15.366329  7755 net.cpp:100] Creating Layer conv1_relu
I0529 00:53:15.366336  7755 net.cpp:434] conv1_relu <- conv1
I0529 00:53:15.366343  7755 net.cpp:395] conv1_relu -> conv1 (in-place)
I0529 00:53:15.366498  7755 net.cpp:150] Setting up conv1_relu
I0529 00:53:15.366511  7755 net.cpp:157] Top shape: 1024 100 42 42 (180633600)
I0529 00:53:15.366518  7755 net.cpp:165] Memory required for data: 1473396736
I0529 00:53:15.366523  7755 layer_factory.hpp:77] Creating layer pool1
I0529 00:53:15.366533  7755 net.cpp:100] Creating Layer pool1
I0529 00:53:15.366538  7755 net.cpp:434] pool1 <- conv1
I0529 00:53:15.366544  7755 net.cpp:408] pool1 -> pool1
I0529 00:53:15.366588  7755 net.cpp:150] Setting up pool1
I0529 00:53:15.366598  7755 net.cpp:157] Top shape: 1024 100 21 21 (45158400)
I0529 00:53:15.366605  7755 net.cpp:165] Memory required for data: 1654030336
I0529 00:53:15.366610  7755 layer_factory.hpp:77] Creating layer conv2
I0529 00:53:15.366622  7755 net.cpp:100] Creating Layer conv2
I0529 00:53:15.366628  7755 net.cpp:434] conv2 <- pool1
I0529 00:53:15.366634  7755 net.cpp:408] conv2 -> conv2
I0529 00:53:15.370075  7755 net.cpp:150] Setting up conv2
I0529 00:53:15.370105  7755 net.cpp:157] Top shape: 1024 150 18 18 (49766400)
I0529 00:53:15.370113  7755 net.cpp:165] Memory required for data: 1853095936
I0529 00:53:15.370134  7755 layer_factory.hpp:77] Creating layer conv2_relu
I0529 00:53:15.370146  7755 net.cpp:100] Creating Layer conv2_relu
I0529 00:53:15.370153  7755 net.cpp:434] conv2_relu <- conv2
I0529 00:53:15.370163  7755 net.cpp:395] conv2_relu -> conv2 (in-place)
I0529 00:53:15.370416  7755 net.cpp:150] Setting up conv2_relu
I0529 00:53:15.370434  7755 net.cpp:157] Top shape: 1024 150 18 18 (49766400)
I0529 00:53:15.370442  7755 net.cpp:165] Memory required for data: 2052161536
I0529 00:53:15.370450  7755 layer_factory.hpp:77] Creating layer pool2
I0529 00:53:15.370461  7755 net.cpp:100] Creating Layer pool2
I0529 00:53:15.370474  7755 net.cpp:434] pool2 <- conv2
I0529 00:53:15.370486  7755 net.cpp:408] pool2 -> pool2
I0529 00:53:15.370549  7755 net.cpp:150] Setting up pool2
I0529 00:53:15.370564  7755 net.cpp:157] Top shape: 1024 150 9 9 (12441600)
I0529 00:53:15.370571  7755 net.cpp:165] Memory required for data: 2101927936
I0529 00:53:15.370579  7755 layer_factory.hpp:77] Creating layer conv3
I0529 00:53:15.370601  7755 net.cpp:100] Creating Layer conv3
I0529 00:53:15.370612  7755 net.cpp:434] conv3 <- pool2
I0529 00:53:15.370622  7755 net.cpp:408] conv3 -> conv3
I0529 00:53:15.379684  7755 net.cpp:150] Setting up conv3
I0529 00:53:15.379719  7755 net.cpp:157] Top shape: 1024 250 6 6 (9216000)
I0529 00:53:15.379729  7755 net.cpp:165] Memory required for data: 2138791936
I0529 00:53:15.379748  7755 layer_factory.hpp:77] Creating layer conv3_relu
I0529 00:53:15.379765  7755 net.cpp:100] Creating Layer conv3_relu
I0529 00:53:15.379773  7755 net.cpp:434] conv3_relu <- conv3
I0529 00:53:15.379784  7755 net.cpp:395] conv3_relu -> conv3 (in-place)
I0529 00:53:15.381096  7755 net.cpp:150] Setting up conv3_relu
I0529 00:53:15.381126  7755 net.cpp:157] Top shape: 1024 250 6 6 (9216000)
I0529 00:53:15.381137  7755 net.cpp:165] Memory required for data: 2175655936
I0529 00:53:15.381146  7755 layer_factory.hpp:77] Creating layer pool3
I0529 00:53:15.381158  7755 net.cpp:100] Creating Layer pool3
I0529 00:53:15.381165  7755 net.cpp:434] pool3 <- conv3
I0529 00:53:15.381176  7755 net.cpp:408] pool3 -> pool3
I0529 00:53:15.381247  7755 net.cpp:150] Setting up pool3
I0529 00:53:15.381263  7755 net.cpp:157] Top shape: 1024 250 3 3 (2304000)
I0529 00:53:15.381270  7755 net.cpp:165] Memory required for data: 2184871936
I0529 00:53:15.381278  7755 layer_factory.hpp:77] Creating layer fc4_300
I0529 00:53:15.381290  7755 net.cpp:100] Creating Layer fc4_300
I0529 00:53:15.381300  7755 net.cpp:434] fc4_300 <- pool3
I0529 00:53:15.381311  7755 net.cpp:408] fc4_300 -> fc4_300
I0529 00:53:15.389603  7755 net.cpp:150] Setting up fc4_300
I0529 00:53:15.389634  7755 net.cpp:157] Top shape: 1024 300 (307200)
I0529 00:53:15.389643  7755 net.cpp:165] Memory required for data: 2186100736
I0529 00:53:15.389657  7755 layer_factory.hpp:77] Creating layer fc4_relu
I0529 00:53:15.389667  7755 net.cpp:100] Creating Layer fc4_relu
I0529 00:53:15.389678  7755 net.cpp:434] fc4_relu <- fc4_300
I0529 00:53:15.389688  7755 net.cpp:395] fc4_relu -> fc4_300 (in-place)
I0529 00:53:15.389952  7755 net.cpp:150] Setting up fc4_relu
I0529 00:53:15.389971  7755 net.cpp:157] Top shape: 1024 300 (307200)
I0529 00:53:15.389978  7755 net.cpp:165] Memory required for data: 2187329536
I0529 00:53:15.389986  7755 layer_factory.hpp:77] Creating layer fc5_116
I0529 00:53:15.389997  7755 net.cpp:100] Creating Layer fc5_116
I0529 00:53:15.390010  7755 net.cpp:434] fc5_116 <- fc4_300
I0529 00:53:15.390019  7755 net.cpp:408] fc5_116 -> fc5_classes
I0529 00:53:15.391585  7755 net.cpp:150] Setting up fc5_116
I0529 00:53:15.391610  7755 net.cpp:157] Top shape: 1024 116 (118784)
I0529 00:53:15.391616  7755 net.cpp:165] Memory required for data: 2187804672
I0529 00:53:15.391633  7755 layer_factory.hpp:77] Creating layer fc5_classes_fc5_116_0_split
I0529 00:53:15.391643  7755 net.cpp:100] Creating Layer fc5_classes_fc5_116_0_split
I0529 00:53:15.391649  7755 net.cpp:434] fc5_classes_fc5_116_0_split <- fc5_classes
I0529 00:53:15.391660  7755 net.cpp:408] fc5_classes_fc5_116_0_split -> fc5_classes_fc5_116_0_split_0
I0529 00:53:15.391671  7755 net.cpp:408] fc5_classes_fc5_116_0_split -> fc5_classes_fc5_116_0_split_1
I0529 00:53:15.391681  7755 net.cpp:408] fc5_classes_fc5_116_0_split -> fc5_classes_fc5_116_0_split_2
I0529 00:53:15.391765  7755 net.cpp:150] Setting up fc5_classes_fc5_116_0_split
I0529 00:53:15.391778  7755 net.cpp:157] Top shape: 1024 116 (118784)
I0529 00:53:15.391785  7755 net.cpp:157] Top shape: 1024 116 (118784)
I0529 00:53:15.391793  7755 net.cpp:157] Top shape: 1024 116 (118784)
I0529 00:53:15.391798  7755 net.cpp:165] Memory required for data: 2189230080
I0529 00:53:15.391804  7755 layer_factory.hpp:77] Creating layer softmax
I0529 00:53:15.391813  7755 net.cpp:100] Creating Layer softmax
I0529 00:53:15.391820  7755 net.cpp:434] softmax <- fc5_classes_fc5_116_0_split_0
I0529 00:53:15.391830  7755 net.cpp:408] softmax -> softmax
I0529 00:53:15.392175  7755 net.cpp:150] Setting up softmax
I0529 00:53:15.392194  7755 net.cpp:157] Top shape: 1024 116 (118784)
I0529 00:53:15.392199  7755 net.cpp:165] Memory required for data: 2189705216
I0529 00:53:15.392206  7755 layer_factory.hpp:77] Creating layer loss
I0529 00:53:15.518203  7755 net.cpp:100] Creating Layer loss
I0529 00:53:15.518232  7755 net.cpp:434] loss <- softmax
I0529 00:53:15.518249  7755 net.cpp:434] loss <- label_data_1_split_0
I0529 00:53:15.518270  7755 net.cpp:408] loss -> loss
…
