…
I0415 04:38:33.614971 12860 solver.cpp:93] Creating training net from train_net file: ./Prototxt/experiment_12/rtsd-r1/histeq/trial_2/train.prototxt
I0415 04:38:33.656376 12860 net.cpp:58] Initializing net from parameters: 
state {
  phase: TRAIN
  level: 0
  stage: ""
}
layer {
  name: "data"
  type: "Data"
  top: "data"
  top: "label"
  include {
    phase: TRAIN
  }
  transform_param {
    scale: 0.0039215689
    mirror: false
    crop_size: 48
    mean_value: 130
    mean_value: 123
    mean_value: 137
  }
  data_param {
    source: "../local_data/lmdb/rtsd-r1/histeq/train/lmdb"
    batch_size: 1024
    backend: LMDB
  }
}
layer {
  name: "conv1"
  type: "Convolution"
  bottom: "data"
  top: "conv1"
  convolution_param {
    num_output: 100
    pad: 0
    kernel_size: 7
    group: 1
    stride: 1
    weight_filler {
      type: "xavier"
    }
  }
}
layer {
  name: "conv1_relu"
  type: "ReLU"
  bottom: "conv1"
  top: "conv1"
}
layer {
  name: "pool1"
  type: "Pooling"
  bottom: "conv1"
  top: "pool1"
  pooling_param {
    pool: MAX
    kernel_size: 2
    stride: 2
  }
}
layer {
  name: "conv2"
  type: "Convolution"
  bottom: "pool1"
  top: "conv2"
  convolution_param {
    num_output: 150
    pad: 0
    kernel_size: 4
    group: 1
    stride: 1
    weight_filler {
      type: "xavier"
    }
  }
}
layer {
  name: "conv2_relu"
  type: "ReLU"
  bottom: "conv2"
  top: "conv2"
}
layer {
  name: "pool2"
  type: "Pooling"
  bottom: "conv2"
  top: "pool2"
  pooling_param {
    pool: MAX
    kernel_size: 2
    stride: 2
  }
}
layer {
  name: "conv3"
  type: "Convolution"
  bottom: "pool2"
  top: "conv3"
  convolution_param {
    num_output: 250
    pad: 0
    kernel_size: 4
    group: 1
    stride: 1
    weight_filler {
      type: "xavier"
    }
  }
}
layer {
  name: "conv3_relu"
  type: "ReLU"
  bottom: "conv3"
  top: "conv3"
}
layer {
  name: "pool3"
  type: "Pooling"
  bottom: "conv3"
  top: "pool3"
  pooling_param {
    pool: MAX
    kernel_size: 2
    stride: 2
  }
}
layer {
  name: "fc4_300"
  type: "InnerProduct"
  bottom: "pool3"
  top: "fc4_300"
  inner_product_param {
    num_output: 300
    weight_filler {
      type: "xavier"
    }
  }
}
layer {
  name: "fc4_relu"
  type: "ReLU"
  bottom: "fc4_300"
  top: "fc4_300"
}
layer {
  name: "drop4"
  type: "Dropout"
  bottom: "fc4_300"
  top: "fc4_300"
  dropout_param {
    dropout_ratio: 0.5
  }
}
layer {
  name: "fc5_67"
  type: "InnerProduct"
  bottom: "fc4_300"
  top: "fc5_classes"
  inner_product_param {
    num_output: 67
    weight_filler {
      type: "xavier"
    }
  }
}
layer {
  name: "softmax"
  type: "Softmax"
  bottom: "fc5_classes"
  top: "softmax"
}
layer {
  name: "loss"
  type: "MultinomialLogisticLoss"
  bottom: "softmax"
  bottom: "label"
  top: "loss"
}
layer {
  name: "accuracy_1"
  type: "Accuracy"
  bottom: "fc5_classes"
  bottom: "label"
  top: "accuracy_1"
  accuracy_param {
    top_k: 1
  }
}
layer {
  name: "accuracy_5"
  type: "Accuracy"
  bottom: "fc5_classes"
  bottom: "label"
  top: "accuracy_5"
  accuracy_param {
    top_k: 5
  }
}
layer {
  name: "silence"
  type: "Silence"
  bottom: "accuracy_1"
  bottom: "accuracy_5"
}
I0415 04:38:33.656507 12860 layer_factory.hpp:77] Creating layer data
I0415 04:38:33.657573 12860 net.cpp:100] Creating Layer data
I0415 04:38:33.657588 12860 net.cpp:408] data -> data
I0415 04:38:33.657609 12860 net.cpp:408] data -> label
I0415 04:38:33.662914 12992 db_lmdb.cpp:35] Opened lmdb ../local_data/lmdb/rtsd-r1/histeq/train/lmdb
I0415 04:38:33.681242 12860 data_layer.cpp:41] output data size: 1024,3,48,48
I0415 04:38:33.765457 12860 net.cpp:150] Setting up data
I0415 04:38:33.765539 12860 net.cpp:157] Top shape: 1024 3 48 48 (7077888)
I0415 04:38:33.765563 12860 net.cpp:157] Top shape: 1024 (1024)
I0415 04:38:33.765580 12860 net.cpp:165] Memory required for data: 28315648
I0415 04:38:33.765607 12860 layer_factory.hpp:77] Creating layer label_data_1_split
I0415 04:38:33.765638 12860 net.cpp:100] Creating Layer label_data_1_split
I0415 04:38:33.765661 12860 net.cpp:434] label_data_1_split <- label
I0415 04:38:33.765691 12860 net.cpp:408] label_data_1_split -> label_data_1_split_0
I0415 04:38:33.765722 12860 net.cpp:408] label_data_1_split -> label_data_1_split_1
I0415 04:38:33.765748 12860 net.cpp:408] label_data_1_split -> label_data_1_split_2
I0415 04:38:33.765841 12860 net.cpp:150] Setting up label_data_1_split
I0415 04:38:33.765866 12860 net.cpp:157] Top shape: 1024 (1024)
I0415 04:38:33.765884 12860 net.cpp:157] Top shape: 1024 (1024)
I0415 04:38:33.765902 12860 net.cpp:157] Top shape: 1024 (1024)
I0415 04:38:33.765918 12860 net.cpp:165] Memory required for data: 28327936
I0415 04:38:33.765936 12860 layer_factory.hpp:77] Creating layer conv1
I0415 04:38:33.765970 12860 net.cpp:100] Creating Layer conv1
I0415 04:38:33.765990 12860 net.cpp:434] conv1 <- data
I0415 04:38:33.766010 12860 net.cpp:408] conv1 -> conv1
I0415 04:38:34.152369 12860 net.cpp:150] Setting up conv1
I0415 04:38:34.152398 12860 net.cpp:157] Top shape: 1024 100 42 42 (180633600)
I0415 04:38:34.152402 12860 net.cpp:165] Memory required for data: 750862336
I0415 04:38:34.152425 12860 layer_factory.hpp:77] Creating layer conv1_relu
I0415 04:38:34.152436 12860 net.cpp:100] Creating Layer conv1_relu
I0415 04:38:34.152441 12860 net.cpp:434] conv1_relu <- conv1
I0415 04:38:34.152449 12860 net.cpp:395] conv1_relu -> conv1 (in-place)
I0415 04:38:34.152653 12860 net.cpp:150] Setting up conv1_relu
I0415 04:38:34.152665 12860 net.cpp:157] Top shape: 1024 100 42 42 (180633600)
I0415 04:38:34.152670 12860 net.cpp:165] Memory required for data: 1473396736
I0415 04:38:34.152674 12860 layer_factory.hpp:77] Creating layer pool1
I0415 04:38:34.152684 12860 net.cpp:100] Creating Layer pool1
I0415 04:38:34.152688 12860 net.cpp:434] pool1 <- conv1
I0415 04:38:34.152694 12860 net.cpp:408] pool1 -> pool1
I0415 04:38:34.152750 12860 net.cpp:150] Setting up pool1
I0415 04:38:34.152757 12860 net.cpp:157] Top shape: 1024 100 21 21 (45158400)
I0415 04:38:34.152760 12860 net.cpp:165] Memory required for data: 1654030336
I0415 04:38:34.152763 12860 layer_factory.hpp:77] Creating layer conv2
I0415 04:38:34.152775 12860 net.cpp:100] Creating Layer conv2
I0415 04:38:34.152778 12860 net.cpp:434] conv2 <- pool1
I0415 04:38:34.152783 12860 net.cpp:408] conv2 -> conv2
I0415 04:38:34.159287 12860 net.cpp:150] Setting up conv2
I0415 04:38:34.159312 12860 net.cpp:157] Top shape: 1024 150 18 18 (49766400)
I0415 04:38:34.159317 12860 net.cpp:165] Memory required for data: 1853095936
I0415 04:38:34.159330 12860 layer_factory.hpp:77] Creating layer conv2_relu
I0415 04:38:34.159340 12860 net.cpp:100] Creating Layer conv2_relu
I0415 04:38:34.159343 12860 net.cpp:434] conv2_relu <- conv2
I0415 04:38:34.159350 12860 net.cpp:395] conv2_relu -> conv2 (in-place)
I0415 04:38:34.160300 12860 net.cpp:150] Setting up conv2_relu
I0415 04:38:34.160315 12860 net.cpp:157] Top shape: 1024 150 18 18 (49766400)
I0415 04:38:34.160320 12860 net.cpp:165] Memory required for data: 2052161536
I0415 04:38:34.160322 12860 layer_factory.hpp:77] Creating layer pool2
I0415 04:38:34.160331 12860 net.cpp:100] Creating Layer pool2
I0415 04:38:34.160334 12860 net.cpp:434] pool2 <- conv2
I0415 04:38:34.160341 12860 net.cpp:408] pool2 -> pool2
I0415 04:38:34.160390 12860 net.cpp:150] Setting up pool2
I0415 04:38:34.160399 12860 net.cpp:157] Top shape: 1024 150 9 9 (12441600)
I0415 04:38:34.160403 12860 net.cpp:165] Memory required for data: 2101927936
I0415 04:38:34.160405 12860 layer_factory.hpp:77] Creating layer conv3
I0415 04:38:34.160439 12860 net.cpp:100] Creating Layer conv3
I0415 04:38:34.160444 12860 net.cpp:434] conv3 <- pool2
I0415 04:38:34.160449 12860 net.cpp:408] conv3 -> conv3
I0415 04:38:34.166538 12860 net.cpp:150] Setting up conv3
I0415 04:38:34.166565 12860 net.cpp:157] Top shape: 1024 250 6 6 (9216000)
I0415 04:38:34.166569 12860 net.cpp:165] Memory required for data: 2138791936
I0415 04:38:34.166584 12860 layer_factory.hpp:77] Creating layer conv3_relu
I0415 04:38:34.166594 12860 net.cpp:100] Creating Layer conv3_relu
I0415 04:38:34.166597 12860 net.cpp:434] conv3_relu <- conv3
I0415 04:38:34.166604 12860 net.cpp:395] conv3_relu -> conv3 (in-place)
I0415 04:38:34.168507 12860 net.cpp:150] Setting up conv3_relu
I0415 04:38:34.168522 12860 net.cpp:157] Top shape: 1024 250 6 6 (9216000)
I0415 04:38:34.168539 12860 net.cpp:165] Memory required for data: 2175655936
I0415 04:38:34.168542 12860 layer_factory.hpp:77] Creating layer pool3
I0415 04:38:34.168550 12860 net.cpp:100] Creating Layer pool3
I0415 04:38:34.168553 12860 net.cpp:434] pool3 <- conv3
I0415 04:38:34.168560 12860 net.cpp:408] pool3 -> pool3
I0415 04:38:34.168609 12860 net.cpp:150] Setting up pool3
I0415 04:38:34.168617 12860 net.cpp:157] Top shape: 1024 250 3 3 (2304000)
I0415 04:38:34.168620 12860 net.cpp:165] Memory required for data: 2184871936
I0415 04:38:34.168623 12860 layer_factory.hpp:77] Creating layer fc4_300
I0415 04:38:34.168630 12860 net.cpp:100] Creating Layer fc4_300
I0415 04:38:34.168635 12860 net.cpp:434] fc4_300 <- pool3
I0415 04:38:34.168640 12860 net.cpp:408] fc4_300 -> fc4_300
I0415 04:38:34.174240 12860 net.cpp:150] Setting up fc4_300
I0415 04:38:34.174268 12860 net.cpp:157] Top shape: 1024 300 (307200)
I0415 04:38:34.174271 12860 net.cpp:165] Memory required for data: 2186100736
I0415 04:38:34.174281 12860 layer_factory.hpp:77] Creating layer fc4_relu
I0415 04:38:34.174290 12860 net.cpp:100] Creating Layer fc4_relu
I0415 04:38:34.174295 12860 net.cpp:434] fc4_relu <- fc4_300
I0415 04:38:34.174301 12860 net.cpp:395] fc4_relu -> fc4_300 (in-place)
I0415 04:38:34.174525 12860 net.cpp:150] Setting up fc4_relu
I0415 04:38:34.174536 12860 net.cpp:157] Top shape: 1024 300 (307200)
I0415 04:38:34.174541 12860 net.cpp:165] Memory required for data: 2187329536
I0415 04:38:34.174545 12860 layer_factory.hpp:77] Creating layer drop4
I0415 04:38:34.174551 12860 net.cpp:100] Creating Layer drop4
I0415 04:38:34.174556 12860 net.cpp:434] drop4 <- fc4_300
I0415 04:38:34.174561 12860 net.cpp:395] drop4 -> fc4_300 (in-place)
I0415 04:38:34.174592 12860 net.cpp:150] Setting up drop4
I0415 04:38:34.174598 12860 net.cpp:157] Top shape: 1024 300 (307200)
I0415 04:38:34.174602 12860 net.cpp:165] Memory required for data: 2188558336
I0415 04:38:34.174605 12860 layer_factory.hpp:77] Creating layer fc5_67
I0415 04:38:34.174612 12860 net.cpp:100] Creating Layer fc5_67
I0415 04:38:34.174616 12860 net.cpp:434] fc5_67 <- fc4_300
I0415 04:38:34.174621 12860 net.cpp:408] fc5_67 -> fc5_classes
I0415 04:38:34.177358 12860 net.cpp:150] Setting up fc5_67
I0415 04:38:34.177377 12860 net.cpp:157] Top shape: 1024 67 (68608)
I0415 04:38:34.177381 12860 net.cpp:165] Memory required for data: 2188832768
I0415 04:38:34.177392 12860 layer_factory.hpp:77] Creating layer fc5_classes_fc5_67_0_split
I0415 04:38:34.177402 12860 net.cpp:100] Creating Layer fc5_classes_fc5_67_0_split
I0415 04:38:34.177404 12860 net.cpp:434] fc5_classes_fc5_67_0_split <- fc5_classes
I0415 04:38:34.177410 12860 net.cpp:408] fc5_classes_fc5_67_0_split -> fc5_classes_fc5_67_0_split_0
I0415 04:38:34.177418 12860 net.cpp:408] fc5_classes_fc5_67_0_split -> fc5_classes_fc5_67_0_split_1
I0415 04:38:34.177426 12860 net.cpp:408] fc5_classes_fc5_67_0_split -> fc5_classes_fc5_67_0_split_2
I0415 04:38:34.177476 12860 net.cpp:150] Setting up fc5_classes_fc5_67_0_split
I0415 04:38:34.177484 12860 net.cpp:157] Top shape: 1024 67 (68608)
I0415 04:38:34.177487 12860 net.cpp:157] Top shape: 1024 67 (68608)
I0415 04:38:34.177490 12860 net.cpp:157] Top shape: 1024 67 (68608)
I0415 04:38:34.177492 12860 net.cpp:165] Memory required for data: 2189656064
I0415 04:38:34.177515 12860 layer_factory.hpp:77] Creating layer softmax
I0415 04:38:34.177525 12860 net.cpp:100] Creating Layer softmax
I0415 04:38:34.177530 12860 net.cpp:434] softmax <- fc5_classes_fc5_67_0_split_0
I0415 04:38:34.177536 12860 net.cpp:408] softmax -> softmax
I0415 04:38:34.177801 12860 net.cpp:150] Setting up softmax
I0415 04:38:34.177814 12860 net.cpp:157] Top shape: 1024 67 (68608)
I0415 04:38:34.177817 12860 net.cpp:165] Memory required for data: 2189930496
I0415 04:38:34.177821 12860 layer_factory.hpp:77] Creating layer loss
I0415 04:38:34.177829 12860 net.cpp:100] Creating Layer loss
I0415 04:38:34.177832 12860 net.cpp:434] loss <- softmax
I0415 04:38:34.177837 12860 net.cpp:434] loss <- label_data_1_split_0
I0415 04:38:34.177841 12860 net.cpp:408] loss -> loss
…
