…
I0507 08:37:10.536753 12360 solver.cpp:93] Creating training net from train_net file: ./Prototxt/experiment_14/RTSD/imajust/trial_4/train.prototxt
I0507 08:37:10.537116 12360 net.cpp:58] Initializing net from parameters: 
state {
  phase: TRAIN
  level: 0
  stage: ""
}
layer {
  name: "data"
  type: "Data"
  top: "data"
  top: "label"
  include {
    phase: TRAIN
  }
  transform_param {
    scale: 0.0039215689
    mirror: false
    crop_size: 48
    mean_value: 119
    mean_value: 113
    mean_value: 114
  }
  data_param {
    source: "../local_data/lmdb/RTSD/imajust/train/lmdb"
    batch_size: 512
    backend: LMDB
  }
}
layer {
  name: "conv1"
  type: "Convolution"
  bottom: "data"
  top: "conv1"
  convolution_param {
    num_output: 100
    pad: 0
    kernel_size: 7
    group: 1
    stride: 1
    weight_filler {
      type: "xavier"
    }
  }
}
layer {
  name: "conv1_relu"
  type: "ReLU"
  bottom: "conv1"
  top: "conv1"
}
layer {
  name: "pool1"
  type: "Pooling"
  bottom: "conv1"
  top: "pool1"
  pooling_param {
    pool: MAX
    kernel_size: 2
    stride: 2
  }
}
layer {
  name: "conv2"
  type: "Convolution"
  bottom: "pool1"
  top: "conv2"
  convolution_param {
    num_output: 150
    pad: 0
    kernel_size: 4
    group: 1
    stride: 1
    weight_filler {
      type: "xavier"
    }
  }
}
layer {
  name: "conv2_relu"
  type: "ReLU"
  bottom: "conv2"
  top: "conv2"
}
layer {
  name: "pool2"
  type: "Pooling"
  bottom: "conv2"
  top: "pool2"
  pooling_param {
    pool: MAX
    kernel_size: 2
    stride: 2
  }
}
layer {
  name: "conv3"
  type: "Convolution"
  bottom: "pool2"
  top: "conv3"
  convolution_param {
    num_output: 250
    pad: 0
    kernel_size: 4
    group: 1
    stride: 1
    weight_filler {
      type: "xavier"
    }
  }
}
layer {
  name: "conv3_relu"
  type: "ReLU"
  bottom: "conv3"
  top: "conv3"
}
layer {
  name: "pool3"
  type: "Pooling"
  bottom: "conv3"
  top: "pool3"
  pooling_param {
    pool: MAX
    kernel_size: 2
    stride: 2
  }
}
layer {
  name: "fc4_300"
  type: "InnerProduct"
  bottom: "pool3"
  top: "fc4_300"
  inner_product_param {
    num_output: 300
    weight_filler {
      type: "xavier"
    }
  }
}
layer {
  name: "fc4_relu"
  type: "ReLU"
  bottom: "fc4_300"
  top: "fc4_300"
}
layer {
  name: "fc5_116"
  type: "InnerProduct"
  bottom: "fc4_300"
  top: "fc5_classes"
  inner_product_param {
    num_output: 116
    weight_filler {
      type: "xavier"
    }
  }
}
layer {
  name: "softmax"
  type: "Softmax"
  bottom: "fc5_classes"
  top: "softmax"
}
layer {
  name: "loss"
  type: "MultinomialLogisticLoss"
  bottom: "softmax"
  bottom: "label"
  top: "loss"
}
layer {
  name: "accuracy_1"
  type: "Accuracy"
  bottom: "fc5_classes"
  bottom: "label"
  top: "accuracy_1"
  accuracy_param {
    top_k: 1
  }
}
layer {
  name: "accuracy_5"
  type: "Accuracy"
  bottom: "fc5_classes"
  bottom: "label"
  top: "accuracy_5"
  accuracy_param {
    top_k: 5
  }
}
layer {
  name: "silence"
  type: "Silence"
  bottom: "accuracy_1"
  bottom: "accuracy_5"
}
I0507 08:37:10.537261 12360 layer_factory.hpp:77] Creating layer data
I0507 08:37:10.538023 12360 net.cpp:100] Creating Layer data
I0507 08:37:10.538038 12360 net.cpp:408] data -> data
I0507 08:37:10.538060 12360 net.cpp:408] data -> label
I0507 08:37:10.544399 12494 db_lmdb.cpp:35] Opened lmdb ../local_data/lmdb/RTSD/imajust/train/lmdb
I0507 08:37:10.562160 12360 data_layer.cpp:41] output data size: 512,3,48,48
I0507 08:37:10.606130 12360 net.cpp:150] Setting up data
I0507 08:37:10.606185 12360 net.cpp:157] Top shape: 512 3 48 48 (3538944)
I0507 08:37:10.606192 12360 net.cpp:157] Top shape: 512 (512)
I0507 08:37:10.606195 12360 net.cpp:165] Memory required for data: 14157824
I0507 08:37:10.606206 12360 layer_factory.hpp:77] Creating layer label_data_1_split
I0507 08:37:10.606220 12360 net.cpp:100] Creating Layer label_data_1_split
I0507 08:37:10.606226 12360 net.cpp:434] label_data_1_split <- label
I0507 08:37:10.606242 12360 net.cpp:408] label_data_1_split -> label_data_1_split_0
I0507 08:37:10.606256 12360 net.cpp:408] label_data_1_split -> label_data_1_split_1
I0507 08:37:10.606263 12360 net.cpp:408] label_data_1_split -> label_data_1_split_2
I0507 08:37:10.606324 12360 net.cpp:150] Setting up label_data_1_split
I0507 08:37:10.606333 12360 net.cpp:157] Top shape: 512 (512)
I0507 08:37:10.606335 12360 net.cpp:157] Top shape: 512 (512)
I0507 08:37:10.606339 12360 net.cpp:157] Top shape: 512 (512)
I0507 08:37:10.606341 12360 net.cpp:165] Memory required for data: 14163968
I0507 08:37:10.606345 12360 layer_factory.hpp:77] Creating layer conv1
I0507 08:37:10.606360 12360 net.cpp:100] Creating Layer conv1
I0507 08:37:10.606366 12360 net.cpp:434] conv1 <- data
I0507 08:37:10.606371 12360 net.cpp:408] conv1 -> conv1
I0507 08:37:10.960777 12360 net.cpp:150] Setting up conv1
I0507 08:37:10.960804 12360 net.cpp:157] Top shape: 512 100 42 42 (90316800)
I0507 08:37:10.960808 12360 net.cpp:165] Memory required for data: 375431168
I0507 08:37:10.960830 12360 layer_factory.hpp:77] Creating layer conv1_relu
I0507 08:37:10.960841 12360 net.cpp:100] Creating Layer conv1_relu
I0507 08:37:10.960846 12360 net.cpp:434] conv1_relu <- conv1
I0507 08:37:10.960852 12360 net.cpp:395] conv1_relu -> conv1 (in-place)
I0507 08:37:10.961048 12360 net.cpp:150] Setting up conv1_relu
I0507 08:37:10.961061 12360 net.cpp:157] Top shape: 512 100 42 42 (90316800)
I0507 08:37:10.961064 12360 net.cpp:165] Memory required for data: 736698368
I0507 08:37:10.961067 12360 layer_factory.hpp:77] Creating layer pool1
I0507 08:37:10.961077 12360 net.cpp:100] Creating Layer pool1
I0507 08:37:10.961081 12360 net.cpp:434] pool1 <- conv1
I0507 08:37:10.961086 12360 net.cpp:408] pool1 -> pool1
I0507 08:37:10.961140 12360 net.cpp:150] Setting up pool1
I0507 08:37:10.961148 12360 net.cpp:157] Top shape: 512 100 21 21 (22579200)
I0507 08:37:10.961151 12360 net.cpp:165] Memory required for data: 827015168
I0507 08:37:10.961154 12360 layer_factory.hpp:77] Creating layer conv2
I0507 08:37:10.961165 12360 net.cpp:100] Creating Layer conv2
I0507 08:37:10.961171 12360 net.cpp:434] conv2 <- pool1
I0507 08:37:10.961175 12360 net.cpp:408] conv2 -> conv2
I0507 08:37:10.968181 12360 net.cpp:150] Setting up conv2
I0507 08:37:10.968202 12360 net.cpp:157] Top shape: 512 150 18 18 (24883200)
I0507 08:37:10.968206 12360 net.cpp:165] Memory required for data: 926547968
I0507 08:37:10.968217 12360 layer_factory.hpp:77] Creating layer conv2_relu
I0507 08:37:10.968225 12360 net.cpp:100] Creating Layer conv2_relu
I0507 08:37:10.968232 12360 net.cpp:434] conv2_relu <- conv2
I0507 08:37:10.968238 12360 net.cpp:395] conv2_relu -> conv2 (in-place)
I0507 08:37:10.970609 12360 net.cpp:150] Setting up conv2_relu
I0507 08:37:10.970626 12360 net.cpp:157] Top shape: 512 150 18 18 (24883200)
I0507 08:37:10.970630 12360 net.cpp:165] Memory required for data: 1026080768
I0507 08:37:10.970634 12360 layer_factory.hpp:77] Creating layer pool2
I0507 08:37:10.970644 12360 net.cpp:100] Creating Layer pool2
I0507 08:37:10.970649 12360 net.cpp:434] pool2 <- conv2
I0507 08:37:10.970660 12360 net.cpp:408] pool2 -> pool2
I0507 08:37:10.970717 12360 net.cpp:150] Setting up pool2
I0507 08:37:10.970728 12360 net.cpp:157] Top shape: 512 150 9 9 (6220800)
I0507 08:37:10.970731 12360 net.cpp:165] Memory required for data: 1050963968
I0507 08:37:10.970736 12360 layer_factory.hpp:77] Creating layer conv3
I0507 08:37:10.970752 12360 net.cpp:100] Creating Layer conv3
I0507 08:37:10.970757 12360 net.cpp:434] conv3 <- pool2
I0507 08:37:10.970763 12360 net.cpp:408] conv3 -> conv3
I0507 08:37:10.981173 12360 net.cpp:150] Setting up conv3
I0507 08:37:10.981194 12360 net.cpp:157] Top shape: 512 250 6 6 (4608000)
I0507 08:37:10.981199 12360 net.cpp:165] Memory required for data: 1069395968
I0507 08:37:10.981210 12360 layer_factory.hpp:77] Creating layer conv3_relu
I0507 08:37:10.981220 12360 net.cpp:100] Creating Layer conv3_relu
I0507 08:37:10.981223 12360 net.cpp:434] conv3_relu <- conv3
I0507 08:37:10.981230 12360 net.cpp:395] conv3_relu -> conv3 (in-place)
I0507 08:37:10.985157 12360 net.cpp:150] Setting up conv3_relu
I0507 08:37:10.985179 12360 net.cpp:157] Top shape: 512 250 6 6 (4608000)
I0507 08:37:10.985183 12360 net.cpp:165] Memory required for data: 1087827968
I0507 08:37:10.985188 12360 layer_factory.hpp:77] Creating layer pool3
I0507 08:37:10.985194 12360 net.cpp:100] Creating Layer pool3
I0507 08:37:10.985198 12360 net.cpp:434] pool3 <- conv3
I0507 08:37:10.985204 12360 net.cpp:408] pool3 -> pool3
I0507 08:37:10.985260 12360 net.cpp:150] Setting up pool3
I0507 08:37:10.985268 12360 net.cpp:157] Top shape: 512 250 3 3 (1152000)
I0507 08:37:10.985271 12360 net.cpp:165] Memory required for data: 1092435968
I0507 08:37:10.985273 12360 layer_factory.hpp:77] Creating layer fc4_300
I0507 08:37:10.985283 12360 net.cpp:100] Creating Layer fc4_300
I0507 08:37:10.985288 12360 net.cpp:434] fc4_300 <- pool3
I0507 08:37:10.985293 12360 net.cpp:408] fc4_300 -> fc4_300
I0507 08:37:10.991068 12360 net.cpp:150] Setting up fc4_300
I0507 08:37:10.991086 12360 net.cpp:157] Top shape: 512 300 (153600)
I0507 08:37:10.991089 12360 net.cpp:165] Memory required for data: 1093050368
I0507 08:37:10.991096 12360 layer_factory.hpp:77] Creating layer fc4_relu
I0507 08:37:10.991102 12360 net.cpp:100] Creating Layer fc4_relu
I0507 08:37:10.991106 12360 net.cpp:434] fc4_relu <- fc4_300
I0507 08:37:10.991112 12360 net.cpp:395] fc4_relu -> fc4_300 (in-place)
I0507 08:37:10.991319 12360 net.cpp:150] Setting up fc4_relu
I0507 08:37:10.991331 12360 net.cpp:157] Top shape: 512 300 (153600)
I0507 08:37:10.991334 12360 net.cpp:165] Memory required for data: 1093664768
I0507 08:37:10.991338 12360 layer_factory.hpp:77] Creating layer fc5_116
I0507 08:37:10.991346 12360 net.cpp:100] Creating Layer fc5_116
I0507 08:37:10.991353 12360 net.cpp:434] fc5_116 <- fc4_300
I0507 08:37:10.991358 12360 net.cpp:408] fc5_116 -> fc5_classes
I0507 08:37:10.993789 12360 net.cpp:150] Setting up fc5_116
I0507 08:37:10.993808 12360 net.cpp:157] Top shape: 512 116 (59392)
I0507 08:37:10.993810 12360 net.cpp:165] Memory required for data: 1093902336
I0507 08:37:10.993821 12360 layer_factory.hpp:77] Creating layer fc5_classes_fc5_116_0_split
I0507 08:37:10.993832 12360 net.cpp:100] Creating Layer fc5_classes_fc5_116_0_split
I0507 08:37:10.993839 12360 net.cpp:434] fc5_classes_fc5_116_0_split <- fc5_classes
I0507 08:37:10.993847 12360 net.cpp:408] fc5_classes_fc5_116_0_split -> fc5_classes_fc5_116_0_split_0
I0507 08:37:10.993855 12360 net.cpp:408] fc5_classes_fc5_116_0_split -> fc5_classes_fc5_116_0_split_1
I0507 08:37:10.993863 12360 net.cpp:408] fc5_classes_fc5_116_0_split -> fc5_classes_fc5_116_0_split_2
I0507 08:37:10.993921 12360 net.cpp:150] Setting up fc5_classes_fc5_116_0_split
I0507 08:37:10.993927 12360 net.cpp:157] Top shape: 512 116 (59392)
I0507 08:37:10.993932 12360 net.cpp:157] Top shape: 512 116 (59392)
I0507 08:37:10.993934 12360 net.cpp:157] Top shape: 512 116 (59392)
I0507 08:37:10.993937 12360 net.cpp:165] Memory required for data: 1094615040
I0507 08:37:10.993939 12360 layer_factory.hpp:77] Creating layer softmax
I0507 08:37:10.993947 12360 net.cpp:100] Creating Layer softmax
I0507 08:37:10.993950 12360 net.cpp:434] softmax <- fc5_classes_fc5_116_0_split_0
I0507 08:37:10.993955 12360 net.cpp:408] softmax -> softmax
I0507 08:37:10.994225 12360 net.cpp:150] Setting up softmax
I0507 08:37:10.994240 12360 net.cpp:157] Top shape: 512 116 (59392)
I0507 08:37:10.994242 12360 net.cpp:165] Memory required for data: 1094852608
I0507 08:37:10.994246 12360 layer_factory.hpp:77] Creating layer loss
I0507 08:37:10.994261 12360 net.cpp:100] Creating Layer loss
I0507 08:37:10.994282 12360 net.cpp:434] loss <- softmax
I0507 08:37:10.994287 12360 net.cpp:434] loss <- label_data_1_split_0
I0507 08:37:10.994292 12360 net.cpp:408] loss -> loss
…
