…
I0527 16:53:12.719640 19275 solver.cpp:81] Creating training net from train_net file: ./Prototxt/experiment_20/RTSD/orig/trial_1/train.prototxt
I0527 16:53:12.720454 19275 net.cpp:58] Initializing net from parameters: 
state {
  phase: TRAIN
  level: 0
  stage: ""
}
layer {
  name: "data"
  type: "Data"
  top: "data"
  top: "label"
  include {
    phase: TRAIN
  }
  transform_param {
    scale: 0.0039215689
    mirror: false
    crop_size: 48
    mean_value: 119
    mean_value: 113
    mean_value: 113
  }
  data_param {
    source: "../local_data/lmdb/RTSD/orig/train/lmdb"
    batch_size: 1024
    backend: LMDB
  }
}
layer {
  name: "conv1"
  type: "Convolution"
  bottom: "data"
  top: "conv1"
  convolution_param {
    num_output: 100
    pad: 0
    kernel_size: 7
    group: 1
    stride: 1
    weight_filler {
      type: "xavier"
    }
  }
}
layer {
  name: "conv1_relu"
  type: "ReLU"
  bottom: "conv1"
  top: "conv1"
}
layer {
  name: "pool1"
  type: "Pooling"
  bottom: "conv1"
  top: "pool1"
  pooling_param {
    pool: MAX
    kernel_size: 2
    stride: 2
  }
}
layer {
  name: "conv2"
  type: "Convolution"
  bottom: "pool1"
  top: "conv2"
  convolution_param {
    num_output: 150
    pad: 0
    kernel_size: 4
    group: 1
    stride: 1
    weight_filler {
      type: "xavier"
    }
  }
}
layer {
  name: "conv2_relu"
  type: "ReLU"
  bottom: "conv2"
  top: "conv2"
}
layer {
  name: "pool2"
  type: "Pooling"
  bottom: "conv2"
  top: "pool2"
  pooling_param {
    pool: MAX
    kernel_size: 2
    stride: 2
  }
}
layer {
  name: "conv3"
  type: "Convolution"
  bottom: "pool2"
  top: "conv3"
  convolution_param {
    num_output: 250
    pad: 0
    kernel_size: 4
    group: 1
    stride: 1
    weight_filler {
      type: "xavier"
    }
  }
}
layer {
  name: "conv3_relu"
  type: "ReLU"
  bottom: "conv3"
  top: "conv3"
}
layer {
  name: "pool3"
  type: "Pooling"
  bottom: "conv3"
  top: "pool3"
  pooling_param {
    pool: MAX
    kernel_size: 2
    stride: 2
  }
}
layer {
  name: "fc4_300"
  type: "InnerProduct"
  bottom: "pool3"
  top: "fc4_300"
  inner_product_param {
    num_output: 300
    weight_filler {
      type: "xavier"
    }
  }
}
layer {
  name: "fc4_relu"
  type: "ReLU"
  bottom: "fc4_300"
  top: "fc4_300"
}
layer {
  name: "fc5_116"
  type: "InnerProduct"
  bottom: "fc4_300"
  top: "fc5_classes"
  inner_product_param {
    num_output: 116
    weight_filler {
      type: "xavier"
    }
  }
}
layer {
  name: "softmax"
  type: "Softmax"
  bottom: "fc5_classes"
  top: "softmax"
}
layer {
  name: "loss"
  type: "MultinomialLogisticLoss"
  bottom: "softmax"
  bottom: "label"
  top: "loss"
}
layer {
  name: "accuracy_1"
  type: "Accuracy"
  bottom: "fc5_classes"
  bottom: "label"
  top: "accuracy_1"
  accuracy_param {
    top_k: 1
  }
}
layer {
  name: "accuracy_5"
  type: "Accuracy"
  bottom: "fc5_classes"
  bottom: "label"
  top: "accuracy_5"
  accuracy_param {
    top_k: 5
  }
}
layer {
  name: "silence"
  type: "Silence"
  bottom: "accuracy_1"
  bottom: "accuracy_5"
}
I0527 16:53:12.722117 19275 layer_factory.hpp:77] Creating layer data
I0527 16:53:12.723490 19275 net.cpp:100] Creating Layer data
I0527 16:53:12.723760 19275 net.cpp:408] data -> data
I0527 16:53:12.724042 19275 net.cpp:408] data -> label
I0527 16:53:12.724455 19345 db_lmdb.cpp:35] Opened lmdb ../local_data/lmdb/RTSD/orig/train/lmdb
I0527 16:53:12.750576 19275 data_layer.cpp:41] output data size: 1024,3,48,48
I0527 16:53:12.828830 19275 net.cpp:150] Setting up data
I0527 16:53:12.828928 19275 net.cpp:157] Top shape: 1024 3 48 48 (7077888)
I0527 16:53:12.828940 19275 net.cpp:157] Top shape: 1024 (1024)
I0527 16:53:12.828948 19275 net.cpp:165] Memory required for data: 28315648
I0527 16:53:12.828961 19275 layer_factory.hpp:77] Creating layer label_data_1_split
I0527 16:53:12.828979 19275 net.cpp:100] Creating Layer label_data_1_split
I0527 16:53:12.828989 19275 net.cpp:434] label_data_1_split <- label
I0527 16:53:12.829006 19275 net.cpp:408] label_data_1_split -> label_data_1_split_0
I0527 16:53:12.829022 19275 net.cpp:408] label_data_1_split -> label_data_1_split_1
I0527 16:53:12.829035 19275 net.cpp:408] label_data_1_split -> label_data_1_split_2
I0527 16:53:12.829087 19275 net.cpp:150] Setting up label_data_1_split
I0527 16:53:12.829099 19275 net.cpp:157] Top shape: 1024 (1024)
I0527 16:53:12.829107 19275 net.cpp:157] Top shape: 1024 (1024)
I0527 16:53:12.829113 19275 net.cpp:157] Top shape: 1024 (1024)
I0527 16:53:12.829118 19275 net.cpp:165] Memory required for data: 28327936
I0527 16:53:12.829125 19275 layer_factory.hpp:77] Creating layer conv1
I0527 16:53:12.829145 19275 net.cpp:100] Creating Layer conv1
I0527 16:53:12.829154 19275 net.cpp:434] conv1 <- data
I0527 16:53:12.829162 19275 net.cpp:408] conv1 -> conv1
I0527 16:53:13.064627 19275 net.cpp:150] Setting up conv1
I0527 16:53:13.064666 19275 net.cpp:157] Top shape: 1024 100 42 42 (180633600)
I0527 16:53:13.064677 19275 net.cpp:165] Memory required for data: 750862336
I0527 16:53:13.064720 19275 layer_factory.hpp:77] Creating layer conv1_relu
I0527 16:53:13.064738 19275 net.cpp:100] Creating Layer conv1_relu
I0527 16:53:13.064748 19275 net.cpp:434] conv1_relu <- conv1
I0527 16:53:13.064757 19275 net.cpp:395] conv1_relu -> conv1 (in-place)
I0527 16:53:13.064955 19275 net.cpp:150] Setting up conv1_relu
I0527 16:53:13.064971 19275 net.cpp:157] Top shape: 1024 100 42 42 (180633600)
I0527 16:53:13.064978 19275 net.cpp:165] Memory required for data: 1473396736
I0527 16:53:13.064985 19275 layer_factory.hpp:77] Creating layer pool1
I0527 16:53:13.064998 19275 net.cpp:100] Creating Layer pool1
I0527 16:53:13.065009 19275 net.cpp:434] pool1 <- conv1
I0527 16:53:13.065018 19275 net.cpp:408] pool1 -> pool1
I0527 16:53:13.065070 19275 net.cpp:150] Setting up pool1
I0527 16:53:13.065083 19275 net.cpp:157] Top shape: 1024 100 21 21 (45158400)
I0527 16:53:13.065089 19275 net.cpp:165] Memory required for data: 1654030336
I0527 16:53:13.065098 19275 layer_factory.hpp:77] Creating layer conv2
I0527 16:53:13.065112 19275 net.cpp:100] Creating Layer conv2
I0527 16:53:13.065124 19275 net.cpp:434] conv2 <- pool1
I0527 16:53:13.065134 19275 net.cpp:408] conv2 -> conv2
I0527 16:53:13.069272 19275 net.cpp:150] Setting up conv2
I0527 16:53:13.069298 19275 net.cpp:157] Top shape: 1024 150 18 18 (49766400)
I0527 16:53:13.069305 19275 net.cpp:165] Memory required for data: 1853095936
I0527 16:53:13.069319 19275 layer_factory.hpp:77] Creating layer conv2_relu
I0527 16:53:13.069329 19275 net.cpp:100] Creating Layer conv2_relu
I0527 16:53:13.069335 19275 net.cpp:434] conv2_relu <- conv2
I0527 16:53:13.069344 19275 net.cpp:395] conv2_relu -> conv2 (in-place)
I0527 16:53:13.069510 19275 net.cpp:150] Setting up conv2_relu
I0527 16:53:13.069525 19275 net.cpp:157] Top shape: 1024 150 18 18 (49766400)
I0527 16:53:13.069530 19275 net.cpp:165] Memory required for data: 2052161536
I0527 16:53:13.069535 19275 layer_factory.hpp:77] Creating layer pool2
I0527 16:53:13.069545 19275 net.cpp:100] Creating Layer pool2
I0527 16:53:13.069551 19275 net.cpp:434] pool2 <- conv2
I0527 16:53:13.069558 19275 net.cpp:408] pool2 -> pool2
I0527 16:53:13.069602 19275 net.cpp:150] Setting up pool2
I0527 16:53:13.069612 19275 net.cpp:157] Top shape: 1024 150 9 9 (12441600)
I0527 16:53:13.069617 19275 net.cpp:165] Memory required for data: 2101927936
I0527 16:53:13.069623 19275 layer_factory.hpp:77] Creating layer conv3
I0527 16:53:13.069636 19275 net.cpp:100] Creating Layer conv3
I0527 16:53:13.069644 19275 net.cpp:434] conv3 <- pool2
I0527 16:53:13.069653 19275 net.cpp:408] conv3 -> conv3
I0527 16:53:13.075850 19275 net.cpp:150] Setting up conv3
I0527 16:53:13.075887 19275 net.cpp:157] Top shape: 1024 250 6 6 (9216000)
I0527 16:53:13.075897 19275 net.cpp:165] Memory required for data: 2138791936
I0527 16:53:13.075917 19275 layer_factory.hpp:77] Creating layer conv3_relu
I0527 16:53:13.075933 19275 net.cpp:100] Creating Layer conv3_relu
I0527 16:53:13.075944 19275 net.cpp:434] conv3_relu <- conv3
I0527 16:53:13.075954 19275 net.cpp:395] conv3_relu -> conv3 (in-place)
I0527 16:53:13.077441 19275 net.cpp:150] Setting up conv3_relu
I0527 16:53:13.077461 19275 net.cpp:157] Top shape: 1024 250 6 6 (9216000)
I0527 16:53:13.077467 19275 net.cpp:165] Memory required for data: 2175655936
I0527 16:53:13.077474 19275 layer_factory.hpp:77] Creating layer pool3
I0527 16:53:13.077484 19275 net.cpp:100] Creating Layer pool3
I0527 16:53:13.077492 19275 net.cpp:434] pool3 <- conv3
I0527 16:53:13.077500 19275 net.cpp:408] pool3 -> pool3
I0527 16:53:13.077548 19275 net.cpp:150] Setting up pool3
I0527 16:53:13.077559 19275 net.cpp:157] Top shape: 1024 250 3 3 (2304000)
I0527 16:53:13.077565 19275 net.cpp:165] Memory required for data: 2184871936
I0527 16:53:13.077570 19275 layer_factory.hpp:77] Creating layer fc4_300
I0527 16:53:13.077580 19275 net.cpp:100] Creating Layer fc4_300
I0527 16:53:13.077585 19275 net.cpp:434] fc4_300 <- pool3
I0527 16:53:13.077594 19275 net.cpp:408] fc4_300 -> fc4_300
I0527 16:53:13.083695 19275 net.cpp:150] Setting up fc4_300
I0527 16:53:13.083726 19275 net.cpp:157] Top shape: 1024 300 (307200)
I0527 16:53:13.083734 19275 net.cpp:165] Memory required for data: 2186100736
I0527 16:53:13.083748 19275 layer_factory.hpp:77] Creating layer fc4_relu
I0527 16:53:13.083760 19275 net.cpp:100] Creating Layer fc4_relu
I0527 16:53:13.083767 19275 net.cpp:434] fc4_relu <- fc4_300
I0527 16:53:13.083775 19275 net.cpp:395] fc4_relu -> fc4_300 (in-place)
I0527 16:53:13.083977 19275 net.cpp:150] Setting up fc4_relu
I0527 16:53:13.083994 19275 net.cpp:157] Top shape: 1024 300 (307200)
I0527 16:53:13.084002 19275 net.cpp:165] Memory required for data: 2187329536
I0527 16:53:13.084008 19275 layer_factory.hpp:77] Creating layer fc5_116
I0527 16:53:13.084018 19275 net.cpp:100] Creating Layer fc5_116
I0527 16:53:13.084025 19275 net.cpp:434] fc5_116 <- fc4_300
I0527 16:53:13.084033 19275 net.cpp:408] fc5_116 -> fc5_classes
I0527 16:53:13.085465 19275 net.cpp:150] Setting up fc5_116
I0527 16:53:13.085485 19275 net.cpp:157] Top shape: 1024 116 (118784)
I0527 16:53:13.085494 19275 net.cpp:165] Memory required for data: 2187804672
I0527 16:53:13.085510 19275 layer_factory.hpp:77] Creating layer fc5_classes_fc5_116_0_split
I0527 16:53:13.085522 19275 net.cpp:100] Creating Layer fc5_classes_fc5_116_0_split
I0527 16:53:13.085530 19275 net.cpp:434] fc5_classes_fc5_116_0_split <- fc5_classes
I0527 16:53:13.085541 19275 net.cpp:408] fc5_classes_fc5_116_0_split -> fc5_classes_fc5_116_0_split_0
I0527 16:53:13.085551 19275 net.cpp:408] fc5_classes_fc5_116_0_split -> fc5_classes_fc5_116_0_split_1
I0527 16:53:13.085569 19275 net.cpp:408] fc5_classes_fc5_116_0_split -> fc5_classes_fc5_116_0_split_2
I0527 16:53:13.085621 19275 net.cpp:150] Setting up fc5_classes_fc5_116_0_split
I0527 16:53:13.085634 19275 net.cpp:157] Top shape: 1024 116 (118784)
I0527 16:53:13.085641 19275 net.cpp:157] Top shape: 1024 116 (118784)
I0527 16:53:13.085649 19275 net.cpp:157] Top shape: 1024 116 (118784)
I0527 16:53:13.085654 19275 net.cpp:165] Memory required for data: 2189230080
I0527 16:53:13.085660 19275 layer_factory.hpp:77] Creating layer softmax
I0527 16:53:13.085669 19275 net.cpp:100] Creating Layer softmax
I0527 16:53:13.085676 19275 net.cpp:434] softmax <- fc5_classes_fc5_116_0_split_0
I0527 16:53:13.085683 19275 net.cpp:408] softmax -> softmax
I0527 16:53:13.085940 19275 net.cpp:150] Setting up softmax
I0527 16:53:13.085957 19275 net.cpp:157] Top shape: 1024 116 (118784)
I0527 16:53:13.085963 19275 net.cpp:165] Memory required for data: 2189705216
I0527 16:53:13.085970 19275 layer_factory.hpp:77] Creating layer loss
I0527 16:53:13.085983 19275 net.cpp:100] Creating Layer loss
I0527 16:53:13.086009 19275 net.cpp:434] loss <- softmax
I0527 16:53:13.086017 19275 net.cpp:434] loss <- label_data_1_split_0
I0527 16:53:13.086026 19275 net.cpp:408] loss -> loss
…
