…
I0527 16:30:00.644529 17875 solver.cpp:81] Creating training net from train_net file: ./Prototxt/experiment_20/RTSD/orig/trial_1/train.prototxt
I0527 16:30:00.644932 17875 net.cpp:58] Initializing net from parameters: 
state {
  phase: TRAIN
  level: 0
  stage: ""
}
layer {
  name: "data"
  type: "Data"
  top: "data"
  top: "label"
  include {
    phase: TRAIN
  }
  transform_param {
    scale: 0.0039215689
    mirror: false
    crop_size: 48
    mean_value: 119
    mean_value: 113
    mean_value: 113
  }
  data_param {
    source: "../local_data/lmdb/RTSD/orig/train/lmdb"
    batch_size: 1024
    backend: LMDB
  }
}
layer {
  name: "conv1"
  type: "Convolution"
  bottom: "data"
  top: "conv1"
  convolution_param {
    num_output: 100
    pad: 0
    kernel_size: 7
    group: 1
    stride: 1
    weight_filler {
      type: "xavier"
    }
  }
}
layer {
  name: "conv1_relu"
  type: "ReLU"
  bottom: "conv1"
  top: "conv1"
}
layer {
  name: "pool1"
  type: "Pooling"
  bottom: "conv1"
  top: "pool1"
  pooling_param {
    pool: MAX
    kernel_size: 2
    stride: 2
  }
}
layer {
  name: "conv2"
  type: "Convolution"
  bottom: "pool1"
  top: "conv2"
  convolution_param {
    num_output: 150
    pad: 0
    kernel_size: 4
    group: 1
    stride: 1
    weight_filler {
      type: "xavier"
    }
  }
}
layer {
  name: "conv2_relu"
  type: "ReLU"
  bottom: "conv2"
  top: "conv2"
}
layer {
  name: "pool2"
  type: "Pooling"
  bottom: "conv2"
  top: "pool2"
  pooling_param {
    pool: MAX
    kernel_size: 2
    stride: 2
  }
}
layer {
  name: "conv3"
  type: "Convolution"
  bottom: "pool2"
  top: "conv3"
  convolution_param {
    num_output: 250
    pad: 0
    kernel_size: 4
    group: 1
    stride: 1
    weight_filler {
      type: "xavier"
    }
  }
}
layer {
  name: "conv3_relu"
  type: "ReLU"
  bottom: "conv3"
  top: "conv3"
}
layer {
  name: "pool3"
  type: "Pooling"
  bottom: "conv3"
  top: "pool3"
  pooling_param {
    pool: MAX
    kernel_size: 2
    stride: 2
  }
}
layer {
  name: "fc4_300"
  type: "InnerProduct"
  bottom: "pool3"
  top: "fc4_300"
  inner_product_param {
    num_output: 300
    weight_filler {
      type: "xavier"
    }
  }
}
layer {
  name: "fc4_relu"
  type: "ReLU"
  bottom: "fc4_300"
  top: "fc4_300"
}
layer {
  name: "fc5_116"
  type: "InnerProduct"
  bottom: "fc4_300"
  top: "fc5_classes"
  inner_product_param {
    num_output: 116
    weight_filler {
      type: "xavier"
    }
  }
}
layer {
  name: "softmax"
  type: "Softmax"
  bottom: "fc5_classes"
  top: "softmax"
}
layer {
  name: "loss"
  type: "MultinomialLogisticLoss"
  bottom: "softmax"
  bottom: "label"
  top: "loss"
}
layer {
  name: "accuracy_1"
  type: "Accuracy"
  bottom: "fc5_classes"
  bottom: "label"
  top: "accuracy_1"
  accuracy_param {
    top_k: 1
  }
}
layer {
  name: "accuracy_5"
  type: "Accuracy"
  bottom: "fc5_classes"
  bottom: "label"
  top: "accuracy_5"
  accuracy_param {
    top_k: 5
  }
}
layer {
  name: "silence"
  type: "Silence"
  bottom: "accuracy_1"
  bottom: "accuracy_5"
}
I0527 16:30:00.645063 17875 layer_factory.hpp:77] Creating layer data
I0527 16:30:00.647792 17875 net.cpp:100] Creating Layer data
I0527 16:30:00.647923 17875 net.cpp:408] data -> data
I0527 16:30:00.647984 17875 net.cpp:408] data -> label
I0527 16:30:00.649811 17913 db_lmdb.cpp:35] Opened lmdb ../local_data/lmdb/RTSD/orig/train/lmdb
I0527 16:30:02.630602 17875 data_layer.cpp:41] output data size: 1024,3,48,48
I0527 16:30:02.693668 17875 net.cpp:150] Setting up data
I0527 16:30:02.693729 17875 net.cpp:157] Top shape: 1024 3 48 48 (7077888)
I0527 16:30:02.693739 17875 net.cpp:157] Top shape: 1024 (1024)
I0527 16:30:02.693745 17875 net.cpp:165] Memory required for data: 28315648
I0527 16:30:02.693759 17875 layer_factory.hpp:77] Creating layer label_data_1_split
I0527 16:30:02.693775 17875 net.cpp:100] Creating Layer label_data_1_split
I0527 16:30:02.693807 17875 net.cpp:434] label_data_1_split <- label
I0527 16:30:02.693828 17875 net.cpp:408] label_data_1_split -> label_data_1_split_0
I0527 16:30:02.693842 17875 net.cpp:408] label_data_1_split -> label_data_1_split_1
I0527 16:30:02.693851 17875 net.cpp:408] label_data_1_split -> label_data_1_split_2
I0527 16:30:02.693914 17875 net.cpp:150] Setting up label_data_1_split
I0527 16:30:02.693928 17875 net.cpp:157] Top shape: 1024 (1024)
I0527 16:30:02.693934 17875 net.cpp:157] Top shape: 1024 (1024)
I0527 16:30:02.693943 17875 net.cpp:157] Top shape: 1024 (1024)
I0527 16:30:02.693948 17875 net.cpp:165] Memory required for data: 28327936
I0527 16:30:02.693953 17875 layer_factory.hpp:77] Creating layer conv1
I0527 16:30:02.693974 17875 net.cpp:100] Creating Layer conv1
I0527 16:30:02.693982 17875 net.cpp:434] conv1 <- data
I0527 16:30:02.693992 17875 net.cpp:408] conv1 -> conv1
I0527 16:30:03.737565 17875 net.cpp:150] Setting up conv1
I0527 16:30:03.737594 17875 net.cpp:157] Top shape: 1024 100 42 42 (180633600)
I0527 16:30:03.737601 17875 net.cpp:165] Memory required for data: 750862336
I0527 16:30:03.737617 17875 layer_factory.hpp:77] Creating layer conv1_relu
I0527 16:30:03.737627 17875 net.cpp:100] Creating Layer conv1_relu
I0527 16:30:03.737632 17875 net.cpp:434] conv1_relu <- conv1
I0527 16:30:03.737637 17875 net.cpp:395] conv1_relu -> conv1 (in-place)
I0527 16:30:03.737782 17875 net.cpp:150] Setting up conv1_relu
I0527 16:30:03.737793 17875 net.cpp:157] Top shape: 1024 100 42 42 (180633600)
I0527 16:30:03.737797 17875 net.cpp:165] Memory required for data: 1473396736
I0527 16:30:03.737802 17875 layer_factory.hpp:77] Creating layer pool1
I0527 16:30:03.737810 17875 net.cpp:100] Creating Layer pool1
I0527 16:30:03.737814 17875 net.cpp:434] pool1 <- conv1
I0527 16:30:03.737820 17875 net.cpp:408] pool1 -> pool1
I0527 16:30:03.737861 17875 net.cpp:150] Setting up pool1
I0527 16:30:03.737869 17875 net.cpp:157] Top shape: 1024 100 21 21 (45158400)
I0527 16:30:03.737874 17875 net.cpp:165] Memory required for data: 1654030336
I0527 16:30:03.737877 17875 layer_factory.hpp:77] Creating layer conv2
I0527 16:30:03.737886 17875 net.cpp:100] Creating Layer conv2
I0527 16:30:03.737890 17875 net.cpp:434] conv2 <- pool1
I0527 16:30:03.737895 17875 net.cpp:408] conv2 -> conv2
I0527 16:30:03.745342 17875 net.cpp:150] Setting up conv2
I0527 16:30:03.745373 17875 net.cpp:157] Top shape: 1024 150 18 18 (49766400)
I0527 16:30:03.745383 17875 net.cpp:165] Memory required for data: 1853095936
I0527 16:30:03.745399 17875 layer_factory.hpp:77] Creating layer conv2_relu
I0527 16:30:03.745414 17875 net.cpp:100] Creating Layer conv2_relu
I0527 16:30:03.745424 17875 net.cpp:434] conv2_relu <- conv2
I0527 16:30:03.745443 17875 net.cpp:395] conv2_relu -> conv2 (in-place)
I0527 16:30:03.746968 17875 net.cpp:150] Setting up conv2_relu
I0527 16:30:03.746987 17875 net.cpp:157] Top shape: 1024 150 18 18 (49766400)
I0527 16:30:03.746996 17875 net.cpp:165] Memory required for data: 2052161536
I0527 16:30:03.747005 17875 layer_factory.hpp:77] Creating layer pool2
I0527 16:30:03.747017 17875 net.cpp:100] Creating Layer pool2
I0527 16:30:03.747025 17875 net.cpp:434] pool2 <- conv2
I0527 16:30:03.747040 17875 net.cpp:408] pool2 -> pool2
I0527 16:30:03.747102 17875 net.cpp:150] Setting up pool2
I0527 16:30:03.747117 17875 net.cpp:157] Top shape: 1024 150 9 9 (12441600)
I0527 16:30:03.747123 17875 net.cpp:165] Memory required for data: 2101927936
I0527 16:30:03.747133 17875 layer_factory.hpp:77] Creating layer conv3
I0527 16:30:03.747153 17875 net.cpp:100] Creating Layer conv3
I0527 16:30:03.747166 17875 net.cpp:434] conv3 <- pool2
I0527 16:30:03.747179 17875 net.cpp:408] conv3 -> conv3
I0527 16:30:03.756850 17875 net.cpp:150] Setting up conv3
I0527 16:30:03.756877 17875 net.cpp:157] Top shape: 1024 250 6 6 (9216000)
I0527 16:30:03.756883 17875 net.cpp:165] Memory required for data: 2138791936
I0527 16:30:03.756897 17875 layer_factory.hpp:77] Creating layer conv3_relu
I0527 16:30:03.756908 17875 net.cpp:100] Creating Layer conv3_relu
I0527 16:30:03.756914 17875 net.cpp:434] conv3_relu <- conv3
I0527 16:30:03.756922 17875 net.cpp:395] conv3_relu -> conv3 (in-place)
I0527 16:30:03.757334 17875 net.cpp:150] Setting up conv3_relu
I0527 16:30:03.757349 17875 net.cpp:157] Top shape: 1024 250 6 6 (9216000)
I0527 16:30:03.757354 17875 net.cpp:165] Memory required for data: 2175655936
I0527 16:30:03.757360 17875 layer_factory.hpp:77] Creating layer pool3
I0527 16:30:03.757369 17875 net.cpp:100] Creating Layer pool3
I0527 16:30:03.757374 17875 net.cpp:434] pool3 <- conv3
I0527 16:30:03.757381 17875 net.cpp:408] pool3 -> pool3
I0527 16:30:03.757422 17875 net.cpp:150] Setting up pool3
I0527 16:30:03.757432 17875 net.cpp:157] Top shape: 1024 250 3 3 (2304000)
I0527 16:30:03.757437 17875 net.cpp:165] Memory required for data: 2184871936
I0527 16:30:03.757442 17875 layer_factory.hpp:77] Creating layer fc4_300
I0527 16:30:03.757450 17875 net.cpp:100] Creating Layer fc4_300
I0527 16:30:03.757457 17875 net.cpp:434] fc4_300 <- pool3
I0527 16:30:03.757462 17875 net.cpp:408] fc4_300 -> fc4_300
I0527 16:30:03.762948 17875 net.cpp:150] Setting up fc4_300
I0527 16:30:03.762970 17875 net.cpp:157] Top shape: 1024 300 (307200)
I0527 16:30:03.762975 17875 net.cpp:165] Memory required for data: 2186100736
I0527 16:30:03.762984 17875 layer_factory.hpp:77] Creating layer fc4_relu
I0527 16:30:03.762992 17875 net.cpp:100] Creating Layer fc4_relu
I0527 16:30:03.762997 17875 net.cpp:434] fc4_relu <- fc4_300
I0527 16:30:03.763005 17875 net.cpp:395] fc4_relu -> fc4_300 (in-place)
I0527 16:30:03.763175 17875 net.cpp:150] Setting up fc4_relu
I0527 16:30:03.763186 17875 net.cpp:157] Top shape: 1024 300 (307200)
I0527 16:30:03.763191 17875 net.cpp:165] Memory required for data: 2187329536
I0527 16:30:03.763196 17875 layer_factory.hpp:77] Creating layer fc5_116
I0527 16:30:03.763205 17875 net.cpp:100] Creating Layer fc5_116
I0527 16:30:03.763209 17875 net.cpp:434] fc5_116 <- fc4_300
I0527 16:30:03.763216 17875 net.cpp:408] fc5_116 -> fc5_classes
I0527 16:30:03.764559 17875 net.cpp:150] Setting up fc5_116
I0527 16:30:03.764581 17875 net.cpp:157] Top shape: 1024 116 (118784)
I0527 16:30:03.764588 17875 net.cpp:165] Memory required for data: 2187804672
I0527 16:30:03.764603 17875 layer_factory.hpp:77] Creating layer fc5_classes_fc5_116_0_split
I0527 16:30:03.764614 17875 net.cpp:100] Creating Layer fc5_classes_fc5_116_0_split
I0527 16:30:03.764621 17875 net.cpp:434] fc5_classes_fc5_116_0_split <- fc5_classes
I0527 16:30:03.764637 17875 net.cpp:408] fc5_classes_fc5_116_0_split -> fc5_classes_fc5_116_0_split_0
I0527 16:30:03.764654 17875 net.cpp:408] fc5_classes_fc5_116_0_split -> fc5_classes_fc5_116_0_split_1
I0527 16:30:03.764667 17875 net.cpp:408] fc5_classes_fc5_116_0_split -> fc5_classes_fc5_116_0_split_2
I0527 16:30:03.764752 17875 net.cpp:150] Setting up fc5_classes_fc5_116_0_split
I0527 16:30:03.764767 17875 net.cpp:157] Top shape: 1024 116 (118784)
I0527 16:30:03.764775 17875 net.cpp:157] Top shape: 1024 116 (118784)
I0527 16:30:03.764783 17875 net.cpp:157] Top shape: 1024 116 (118784)
I0527 16:30:03.764793 17875 net.cpp:165] Memory required for data: 2189230080
I0527 16:30:03.764801 17875 layer_factory.hpp:77] Creating layer softmax
I0527 16:30:03.764809 17875 net.cpp:100] Creating Layer softmax
I0527 16:30:03.764819 17875 net.cpp:434] softmax <- fc5_classes_fc5_116_0_split_0
I0527 16:30:03.764829 17875 net.cpp:408] softmax -> softmax
I0527 16:30:03.765096 17875 net.cpp:150] Setting up softmax
I0527 16:30:03.765110 17875 net.cpp:157] Top shape: 1024 116 (118784)
I0527 16:30:03.765115 17875 net.cpp:165] Memory required for data: 2189705216
I0527 16:30:03.765120 17875 layer_factory.hpp:77] Creating layer loss
I0527 16:30:03.765130 17875 net.cpp:100] Creating Layer loss
I0527 16:30:03.765148 17875 net.cpp:434] loss <- softmax
I0527 16:30:03.765154 17875 net.cpp:434] loss <- label_data_1_split_0
I0527 16:30:03.765159 17875 net.cpp:408] loss -> loss
…
