…
I0528 05:20:00.249253 29675 solver.cpp:81] Creating training net from train_net file: ./Prototxt/experiment_21/RTSD/histeq/trial_3/train.prototxt
I0528 05:20:00.249624 29675 net.cpp:58] Initializing net from parameters: 
state {
  phase: TRAIN
  level: 0
  stage: ""
}
layer {
  name: "data"
  type: "Data"
  top: "data"
  top: "label"
  include {
    phase: TRAIN
  }
  transform_param {
    scale: 0.0039215689
    mirror: false
    crop_size: 48
    mean_value: 135
    mean_value: 128
    mean_value: 128
  }
  data_param {
    source: "../local_data/lmdb/RTSD/histeq/train/lmdb"
    batch_size: 1024
    backend: LMDB
  }
}
layer {
  name: "conv1"
  type: "Convolution"
  bottom: "data"
  top: "conv1"
  convolution_param {
    num_output: 100
    pad: 0
    kernel_size: 7
    group: 1
    stride: 1
    weight_filler {
      type: "xavier"
    }
  }
}
layer {
  name: "conv1_relu"
  type: "ReLU"
  bottom: "conv1"
  top: "conv1"
}
layer {
  name: "pool1"
  type: "Pooling"
  bottom: "conv1"
  top: "pool1"
  pooling_param {
    pool: MAX
    kernel_size: 2
    stride: 2
  }
}
layer {
  name: "conv2"
  type: "Convolution"
  bottom: "pool1"
  top: "conv2"
  convolution_param {
    num_output: 150
    pad: 0
    kernel_size: 4
    group: 1
    stride: 1
    weight_filler {
      type: "xavier"
    }
  }
}
layer {
  name: "conv2_relu"
  type: "ReLU"
  bottom: "conv2"
  top: "conv2"
}
layer {
  name: "pool2"
  type: "Pooling"
  bottom: "conv2"
  top: "pool2"
  pooling_param {
    pool: MAX
    kernel_size: 2
    stride: 2
  }
}
layer {
  name: "conv3"
  type: "Convolution"
  bottom: "pool2"
  top: "conv3"
  convolution_param {
    num_output: 250
    pad: 0
    kernel_size: 4
    group: 1
    stride: 1
    weight_filler {
      type: "xavier"
    }
  }
}
layer {
  name: "conv3_relu"
  type: "ReLU"
  bottom: "conv3"
  top: "conv3"
}
layer {
  name: "pool3"
  type: "Pooling"
  bottom: "conv3"
  top: "pool3"
  pooling_param {
    pool: MAX
    kernel_size: 2
    stride: 2
  }
}
layer {
  name: "fc4_300"
  type: "InnerProduct"
  bottom: "pool3"
  top: "fc4_300"
  inner_product_param {
    num_output: 300
    weight_filler {
      type: "xavier"
    }
  }
}
layer {
  name: "fc4_relu"
  type: "ReLU"
  bottom: "fc4_300"
  top: "fc4_300"
}
layer {
  name: "fc5_116"
  type: "InnerProduct"
  bottom: "fc4_300"
  top: "fc5_classes"
  inner_product_param {
    num_output: 116
    weight_filler {
      type: "xavier"
    }
  }
}
layer {
  name: "softmax"
  type: "Softmax"
  bottom: "fc5_classes"
  top: "softmax"
}
layer {
  name: "loss"
  type: "MultinomialLogisticLoss"
  bottom: "softmax"
  bottom: "label"
  top: "loss"
}
layer {
  name: "accuracy_1"
  type: "Accuracy"
  bottom: "fc5_classes"
  bottom: "label"
  top: "accuracy_1"
  accuracy_param {
    top_k: 1
  }
}
layer {
  name: "accuracy_5"
  type: "Accuracy"
  bottom: "fc5_classes"
  bottom: "label"
  top: "accuracy_5"
  accuracy_param {
    top_k: 5
  }
}
layer {
  name: "silence"
  type: "Silence"
  bottom: "accuracy_1"
  bottom: "accuracy_5"
}
I0528 05:20:00.249728 29675 layer_factory.hpp:77] Creating layer data
I0528 05:20:00.250533 29675 net.cpp:100] Creating Layer data
I0528 05:20:00.250550 29675 net.cpp:408] data -> data
I0528 05:20:00.250579 29675 net.cpp:408] data -> label
I0528 05:20:00.251444 29716 db_lmdb.cpp:35] Opened lmdb ../local_data/lmdb/RTSD/histeq/train/lmdb
I0528 05:20:00.271399 29675 data_layer.cpp:41] output data size: 1024,3,48,48
I0528 05:20:00.323067 29675 net.cpp:150] Setting up data
I0528 05:20:00.323140 29675 net.cpp:157] Top shape: 1024 3 48 48 (7077888)
I0528 05:20:00.323158 29675 net.cpp:157] Top shape: 1024 (1024)
I0528 05:20:00.323170 29675 net.cpp:165] Memory required for data: 28315648
I0528 05:20:00.323182 29675 layer_factory.hpp:77] Creating layer label_data_1_split
I0528 05:20:00.323204 29675 net.cpp:100] Creating Layer label_data_1_split
I0528 05:20:00.323215 29675 net.cpp:434] label_data_1_split <- label
I0528 05:20:00.323235 29675 net.cpp:408] label_data_1_split -> label_data_1_split_0
I0528 05:20:00.323259 29675 net.cpp:408] label_data_1_split -> label_data_1_split_1
I0528 05:20:00.323269 29675 net.cpp:408] label_data_1_split -> label_data_1_split_2
I0528 05:20:00.323328 29675 net.cpp:150] Setting up label_data_1_split
I0528 05:20:00.323338 29675 net.cpp:157] Top shape: 1024 (1024)
I0528 05:20:00.323341 29675 net.cpp:157] Top shape: 1024 (1024)
I0528 05:20:00.323345 29675 net.cpp:157] Top shape: 1024 (1024)
I0528 05:20:00.323348 29675 net.cpp:165] Memory required for data: 28327936
I0528 05:20:00.323352 29675 layer_factory.hpp:77] Creating layer conv1
I0528 05:20:00.323372 29675 net.cpp:100] Creating Layer conv1
I0528 05:20:00.323376 29675 net.cpp:434] conv1 <- data
I0528 05:20:00.323382 29675 net.cpp:408] conv1 -> conv1
I0528 05:20:01.512202 29675 net.cpp:150] Setting up conv1
I0528 05:20:01.512241 29675 net.cpp:157] Top shape: 1024 100 42 42 (180633600)
I0528 05:20:01.512246 29675 net.cpp:165] Memory required for data: 750862336
I0528 05:20:01.512269 29675 layer_factory.hpp:77] Creating layer conv1_relu
I0528 05:20:01.512285 29675 net.cpp:100] Creating Layer conv1_relu
I0528 05:20:01.512290 29675 net.cpp:434] conv1_relu <- conv1
I0528 05:20:01.512296 29675 net.cpp:395] conv1_relu -> conv1 (in-place)
I0528 05:20:01.512435 29675 net.cpp:150] Setting up conv1_relu
I0528 05:20:01.512446 29675 net.cpp:157] Top shape: 1024 100 42 42 (180633600)
I0528 05:20:01.512450 29675 net.cpp:165] Memory required for data: 1473396736
I0528 05:20:01.512454 29675 layer_factory.hpp:77] Creating layer pool1
I0528 05:20:01.512462 29675 net.cpp:100] Creating Layer pool1
I0528 05:20:01.512466 29675 net.cpp:434] pool1 <- conv1
I0528 05:20:01.512471 29675 net.cpp:408] pool1 -> pool1
I0528 05:20:01.512517 29675 net.cpp:150] Setting up pool1
I0528 05:20:01.512526 29675 net.cpp:157] Top shape: 1024 100 21 21 (45158400)
I0528 05:20:01.512529 29675 net.cpp:165] Memory required for data: 1654030336
I0528 05:20:01.512532 29675 layer_factory.hpp:77] Creating layer conv2
I0528 05:20:01.512550 29675 net.cpp:100] Creating Layer conv2
I0528 05:20:01.512553 29675 net.cpp:434] conv2 <- pool1
I0528 05:20:01.512558 29675 net.cpp:408] conv2 -> conv2
I0528 05:20:01.515421 29675 net.cpp:150] Setting up conv2
I0528 05:20:01.515444 29675 net.cpp:157] Top shape: 1024 150 18 18 (49766400)
I0528 05:20:01.515449 29675 net.cpp:165] Memory required for data: 1853095936
I0528 05:20:01.515456 29675 layer_factory.hpp:77] Creating layer conv2_relu
I0528 05:20:01.515462 29675 net.cpp:100] Creating Layer conv2_relu
I0528 05:20:01.515466 29675 net.cpp:434] conv2_relu <- conv2
I0528 05:20:01.515470 29675 net.cpp:395] conv2_relu -> conv2 (in-place)
I0528 05:20:01.515594 29675 net.cpp:150] Setting up conv2_relu
I0528 05:20:01.515604 29675 net.cpp:157] Top shape: 1024 150 18 18 (49766400)
I0528 05:20:01.515607 29675 net.cpp:165] Memory required for data: 2052161536
I0528 05:20:01.515611 29675 layer_factory.hpp:77] Creating layer pool2
I0528 05:20:01.515617 29675 net.cpp:100] Creating Layer pool2
I0528 05:20:01.515621 29675 net.cpp:434] pool2 <- conv2
I0528 05:20:01.515626 29675 net.cpp:408] pool2 -> pool2
I0528 05:20:01.515658 29675 net.cpp:150] Setting up pool2
I0528 05:20:01.515666 29675 net.cpp:157] Top shape: 1024 150 9 9 (12441600)
I0528 05:20:01.515669 29675 net.cpp:165] Memory required for data: 2101927936
I0528 05:20:01.515673 29675 layer_factory.hpp:77] Creating layer conv3
I0528 05:20:01.515689 29675 net.cpp:100] Creating Layer conv3
I0528 05:20:01.515693 29675 net.cpp:434] conv3 <- pool2
I0528 05:20:01.515697 29675 net.cpp:408] conv3 -> conv3
I0528 05:20:01.520829 29675 net.cpp:150] Setting up conv3
I0528 05:20:01.520856 29675 net.cpp:157] Top shape: 1024 250 6 6 (9216000)
I0528 05:20:01.520860 29675 net.cpp:165] Memory required for data: 2138791936
I0528 05:20:01.520877 29675 layer_factory.hpp:77] Creating layer conv3_relu
I0528 05:20:01.520884 29675 net.cpp:100] Creating Layer conv3_relu
I0528 05:20:01.520889 29675 net.cpp:434] conv3_relu <- conv3
I0528 05:20:01.520894 29675 net.cpp:395] conv3_relu -> conv3 (in-place)
I0528 05:20:01.521271 29675 net.cpp:150] Setting up conv3_relu
I0528 05:20:01.521299 29675 net.cpp:157] Top shape: 1024 250 6 6 (9216000)
I0528 05:20:01.521304 29675 net.cpp:165] Memory required for data: 2175655936
I0528 05:20:01.521308 29675 layer_factory.hpp:77] Creating layer pool3
I0528 05:20:01.521323 29675 net.cpp:100] Creating Layer pool3
I0528 05:20:01.521329 29675 net.cpp:434] pool3 <- conv3
I0528 05:20:01.521337 29675 net.cpp:408] pool3 -> pool3
I0528 05:20:01.521369 29675 net.cpp:150] Setting up pool3
I0528 05:20:01.521378 29675 net.cpp:157] Top shape: 1024 250 3 3 (2304000)
I0528 05:20:01.521380 29675 net.cpp:165] Memory required for data: 2184871936
I0528 05:20:01.521384 29675 layer_factory.hpp:77] Creating layer fc4_300
I0528 05:20:01.521390 29675 net.cpp:100] Creating Layer fc4_300
I0528 05:20:01.521394 29675 net.cpp:434] fc4_300 <- pool3
I0528 05:20:01.521399 29675 net.cpp:408] fc4_300 -> fc4_300
I0528 05:20:01.526226 29675 net.cpp:150] Setting up fc4_300
I0528 05:20:01.526253 29675 net.cpp:157] Top shape: 1024 300 (307200)
I0528 05:20:01.526257 29675 net.cpp:165] Memory required for data: 2186100736
I0528 05:20:01.526271 29675 layer_factory.hpp:77] Creating layer fc4_relu
I0528 05:20:01.526278 29675 net.cpp:100] Creating Layer fc4_relu
I0528 05:20:01.526281 29675 net.cpp:434] fc4_relu <- fc4_300
I0528 05:20:01.526286 29675 net.cpp:395] fc4_relu -> fc4_300 (in-place)
I0528 05:20:01.526427 29675 net.cpp:150] Setting up fc4_relu
I0528 05:20:01.526437 29675 net.cpp:157] Top shape: 1024 300 (307200)
I0528 05:20:01.526442 29675 net.cpp:165] Memory required for data: 2187329536
I0528 05:20:01.526445 29675 layer_factory.hpp:77] Creating layer fc5_116
I0528 05:20:01.526451 29675 net.cpp:100] Creating Layer fc5_116
I0528 05:20:01.526455 29675 net.cpp:434] fc5_116 <- fc4_300
I0528 05:20:01.526460 29675 net.cpp:408] fc5_116 -> fc5_classes
I0528 05:20:01.527405 29675 net.cpp:150] Setting up fc5_116
I0528 05:20:01.527425 29675 net.cpp:157] Top shape: 1024 116 (118784)
I0528 05:20:01.527429 29675 net.cpp:165] Memory required for data: 2187804672
I0528 05:20:01.527446 29675 layer_factory.hpp:77] Creating layer fc5_classes_fc5_116_0_split
I0528 05:20:01.527452 29675 net.cpp:100] Creating Layer fc5_classes_fc5_116_0_split
I0528 05:20:01.527456 29675 net.cpp:434] fc5_classes_fc5_116_0_split <- fc5_classes
I0528 05:20:01.527462 29675 net.cpp:408] fc5_classes_fc5_116_0_split -> fc5_classes_fc5_116_0_split_0
I0528 05:20:01.527467 29675 net.cpp:408] fc5_classes_fc5_116_0_split -> fc5_classes_fc5_116_0_split_1
I0528 05:20:01.527472 29675 net.cpp:408] fc5_classes_fc5_116_0_split -> fc5_classes_fc5_116_0_split_2
I0528 05:20:01.527508 29675 net.cpp:150] Setting up fc5_classes_fc5_116_0_split
I0528 05:20:01.527514 29675 net.cpp:157] Top shape: 1024 116 (118784)
I0528 05:20:01.527519 29675 net.cpp:157] Top shape: 1024 116 (118784)
I0528 05:20:01.527523 29675 net.cpp:157] Top shape: 1024 116 (118784)
I0528 05:20:01.527528 29675 net.cpp:165] Memory required for data: 2189230080
I0528 05:20:01.527530 29675 layer_factory.hpp:77] Creating layer softmax
I0528 05:20:01.527535 29675 net.cpp:100] Creating Layer softmax
I0528 05:20:01.527539 29675 net.cpp:434] softmax <- fc5_classes_fc5_116_0_split_0
I0528 05:20:01.527544 29675 net.cpp:408] softmax -> softmax
I0528 05:20:01.527724 29675 net.cpp:150] Setting up softmax
I0528 05:20:01.527734 29675 net.cpp:157] Top shape: 1024 116 (118784)
I0528 05:20:01.527737 29675 net.cpp:165] Memory required for data: 2189705216
I0528 05:20:01.527741 29675 layer_factory.hpp:77] Creating layer loss
I0528 05:20:01.527770 29675 net.cpp:100] Creating Layer loss
I0528 05:20:01.527775 29675 net.cpp:434] loss <- softmax
I0528 05:20:01.527779 29675 net.cpp:434] loss <- label_data_1_split_0
I0528 05:20:01.527783 29675 net.cpp:408] loss -> loss
…
