…
I0410 00:44:29.607447  5951 net.cpp:322] The NetState phase (0) differed from the phase (1) specified by a rule in layer accuracy_5
I0410 00:44:29.607565  5951 net.cpp:58] Initializing net from parameters: 
state {
  phase: TRAIN
  level: 0
  stage: ""
}
layer {
  name: "data"
  type: "Data"
  top: "data"
  top: "label"
  include {
    phase: TRAIN
  }
  transform_param {
    mirror: false
    crop_size: 48
    mean_value: 132
    mean_value: 126
    mean_value: 140
  }
  data_param {
    source: "../local_data/lmdb/rtsd-r1/AHE/train/lmdb"
    batch_size: 1024
    backend: LMDB
  }
}
layer {
  name: "conv1"
  type: "Convolution"
  bottom: "data"
  top: "conv1"
  convolution_param {
    num_output: 100
    pad: 0
    kernel_size: 7
    group: 1
    stride: 1
    weight_filler {
      type: "xavier"
    }
  }
}
layer {
  name: "conv1_sTanH"
  type: "TanH"
  bottom: "conv1"
  top: "conv1"
}
layer {
  name: "pool1"
  type: "Pooling"
  bottom: "conv1"
  top: "pool1"
  pooling_param {
    pool: MAX
    kernel_size: 2
    stride: 2
  }
}
layer {
  name: "conv2"
  type: "Convolution"
  bottom: "pool1"
  top: "conv2"
  convolution_param {
    num_output: 150
    pad: 0
    kernel_size: 4
    group: 1
    stride: 1
    weight_filler {
      type: "xavier"
    }
  }
}
layer {
  name: "conv2_sTanH"
  type: "TanH"
  bottom: "conv2"
  top: "conv2"
}
layer {
  name: "pool2"
  type: "Pooling"
  bottom: "conv2"
  top: "pool2"
  pooling_param {
    pool: MAX
    kernel_size: 2
    stride: 2
  }
}
layer {
  name: "conv3"
  type: "Convolution"
  bottom: "pool2"
  top: "conv3"
  convolution_param {
    num_output: 250
    pad: 0
    kernel_size: 4
    group: 1
    stride: 1
    weight_filler {
      type: "xavier"
    }
  }
}
layer {
  name: "conv3_sTanH"
  type: "TanH"
  bottom: "conv3"
  top: "conv3"
}
layer {
  name: "pool3"
  type: "Pooling"
  bottom: "conv3"
  top: "pool3"
  pooling_param {
    pool: MAX
    kernel_size: 2
    stride: 2
  }
}
layer {
  name: "fc4_300"
  type: "InnerProduct"
  bottom: "pool3"
  top: "fc4_300"
  inner_product_param {
    num_output: 300
    weight_filler {
      type: "xavier"
    }
  }
}
layer {
  name: "fc4_sTanH"
  type: "TanH"
  bottom: "fc4_300"
  top: "fc4_300"
}
layer {
  name: "drop4"
  type: "Dropout"
  bottom: "fc4_300"
  top: "fc4_300"
  dropout_param {
    dropout_ratio: 0.4
  }
}
layer {
  name: "fc5_67"
  type: "InnerProduct"
  bottom: "fc4_300"
  top: "fc5_classes"
  inner_product_param {
    num_output: 67
    weight_filler {
      type: "xavier"
    }
  }
}
layer {
  name: "loss"
  type: "SoftmaxWithLoss"
  bottom: "fc5_classes"
  bottom: "label"
  top: "loss"
}
I0410 00:44:29.607676  5951 layer_factory.hpp:77] Creating layer data
I0410 00:44:29.609033  5951 net.cpp:100] Creating Layer data
I0410 00:44:29.609051  5951 net.cpp:408] data -> data
I0410 00:44:29.609086  5951 net.cpp:408] data -> label
I0410 00:44:29.610795  6032 db_lmdb.cpp:35] Opened lmdb ../local_data/lmdb/rtsd-r1/AHE/train/lmdb
I0410 00:44:29.632306  5951 data_layer.cpp:41] output data size: 1024,3,48,48
I0410 00:44:29.684273  5951 net.cpp:150] Setting up data
I0410 00:44:29.684309  5951 net.cpp:157] Top shape: 1024 3 48 48 (7077888)
I0410 00:44:29.684316  5951 net.cpp:157] Top shape: 1024 (1024)
I0410 00:44:29.684355  5951 net.cpp:165] Memory required for data: 28315648
I0410 00:44:29.684373  5951 layer_factory.hpp:77] Creating layer conv1
I0410 00:44:29.684406  5951 net.cpp:100] Creating Layer conv1
I0410 00:44:29.684417  5951 net.cpp:434] conv1 <- data
I0410 00:44:29.684434  5951 net.cpp:408] conv1 -> conv1
I0410 00:44:29.966094  5951 net.cpp:150] Setting up conv1
I0410 00:44:29.966122  5951 net.cpp:157] Top shape: 1024 100 42 42 (180633600)
I0410 00:44:29.966126  5951 net.cpp:165] Memory required for data: 750850048
I0410 00:44:29.966148  5951 layer_factory.hpp:77] Creating layer conv1_sTanH
I0410 00:44:29.966161  5951 net.cpp:100] Creating Layer conv1_sTanH
I0410 00:44:29.966167  5951 net.cpp:434] conv1_sTanH <- conv1
I0410 00:44:29.966173  5951 net.cpp:395] conv1_sTanH -> conv1 (in-place)
I0410 00:44:29.966367  5951 net.cpp:150] Setting up conv1_sTanH
I0410 00:44:29.966378  5951 net.cpp:157] Top shape: 1024 100 42 42 (180633600)
I0410 00:44:29.966382  5951 net.cpp:165] Memory required for data: 1473384448
I0410 00:44:29.966385  5951 layer_factory.hpp:77] Creating layer pool1
I0410 00:44:29.966392  5951 net.cpp:100] Creating Layer pool1
I0410 00:44:29.966398  5951 net.cpp:434] pool1 <- conv1
I0410 00:44:29.966403  5951 net.cpp:408] pool1 -> pool1
I0410 00:44:29.966456  5951 net.cpp:150] Setting up pool1
I0410 00:44:29.966464  5951 net.cpp:157] Top shape: 1024 100 21 21 (45158400)
I0410 00:44:29.966467  5951 net.cpp:165] Memory required for data: 1654018048
I0410 00:44:29.966470  5951 layer_factory.hpp:77] Creating layer conv2
I0410 00:44:29.966482  5951 net.cpp:100] Creating Layer conv2
I0410 00:44:29.966487  5951 net.cpp:434] conv2 <- pool1
I0410 00:44:29.966492  5951 net.cpp:408] conv2 -> conv2
I0410 00:44:29.971902  5951 net.cpp:150] Setting up conv2
I0410 00:44:29.971918  5951 net.cpp:157] Top shape: 1024 150 18 18 (49766400)
I0410 00:44:29.971922  5951 net.cpp:165] Memory required for data: 1853083648
I0410 00:44:29.971932  5951 layer_factory.hpp:77] Creating layer conv2_sTanH
I0410 00:44:29.971940  5951 net.cpp:100] Creating Layer conv2_sTanH
I0410 00:44:29.971942  5951 net.cpp:434] conv2_sTanH <- conv2
I0410 00:44:29.971947  5951 net.cpp:395] conv2_sTanH -> conv2 (in-place)
I0410 00:44:29.974236  5951 net.cpp:150] Setting up conv2_sTanH
I0410 00:44:29.974251  5951 net.cpp:157] Top shape: 1024 150 18 18 (49766400)
I0410 00:44:29.974254  5951 net.cpp:165] Memory required for data: 2052149248
I0410 00:44:29.974258  5951 layer_factory.hpp:77] Creating layer pool2
I0410 00:44:29.974265  5951 net.cpp:100] Creating Layer pool2
I0410 00:44:29.974269  5951 net.cpp:434] pool2 <- conv2
I0410 00:44:29.974274  5951 net.cpp:408] pool2 -> pool2
I0410 00:44:29.974318  5951 net.cpp:150] Setting up pool2
I0410 00:44:29.974326  5951 net.cpp:157] Top shape: 1024 150 9 9 (12441600)
I0410 00:44:29.974329  5951 net.cpp:165] Memory required for data: 2101915648
I0410 00:44:29.974331  5951 layer_factory.hpp:77] Creating layer conv3
I0410 00:44:29.974340  5951 net.cpp:100] Creating Layer conv3
I0410 00:44:29.974344  5951 net.cpp:434] conv3 <- pool2
I0410 00:44:29.974349  5951 net.cpp:408] conv3 -> conv3
I0410 00:44:29.980962  5951 net.cpp:150] Setting up conv3
I0410 00:44:29.980978  5951 net.cpp:157] Top shape: 1024 250 6 6 (9216000)
I0410 00:44:29.980981  5951 net.cpp:165] Memory required for data: 2138779648
I0410 00:44:29.980991  5951 layer_factory.hpp:77] Creating layer conv3_sTanH
I0410 00:44:29.980998  5951 net.cpp:100] Creating Layer conv3_sTanH
I0410 00:44:29.981003  5951 net.cpp:434] conv3_sTanH <- conv3
I0410 00:44:29.981007  5951 net.cpp:395] conv3_sTanH -> conv3 (in-place)
I0410 00:44:29.981832  5951 net.cpp:150] Setting up conv3_sTanH
I0410 00:44:29.981848  5951 net.cpp:157] Top shape: 1024 250 6 6 (9216000)
I0410 00:44:29.981851  5951 net.cpp:165] Memory required for data: 2175643648
I0410 00:44:29.981854  5951 layer_factory.hpp:77] Creating layer pool3
I0410 00:44:29.981861  5951 net.cpp:100] Creating Layer pool3
I0410 00:44:29.981864  5951 net.cpp:434] pool3 <- conv3
I0410 00:44:29.981894  5951 net.cpp:408] pool3 -> pool3
I0410 00:44:29.981941  5951 net.cpp:150] Setting up pool3
I0410 00:44:29.981950  5951 net.cpp:157] Top shape: 1024 250 3 3 (2304000)
I0410 00:44:29.981952  5951 net.cpp:165] Memory required for data: 2184859648
I0410 00:44:29.981956  5951 layer_factory.hpp:77] Creating layer fc4_300
I0410 00:44:29.981962  5951 net.cpp:100] Creating Layer fc4_300
I0410 00:44:29.981966  5951 net.cpp:434] fc4_300 <- pool3
I0410 00:44:29.981971  5951 net.cpp:408] fc4_300 -> fc4_300
I0410 00:44:29.987323  5951 net.cpp:150] Setting up fc4_300
I0410 00:44:29.987337  5951 net.cpp:157] Top shape: 1024 300 (307200)
I0410 00:44:29.987341  5951 net.cpp:165] Memory required for data: 2186088448
I0410 00:44:29.987347  5951 layer_factory.hpp:77] Creating layer fc4_sTanH
I0410 00:44:29.987365  5951 net.cpp:100] Creating Layer fc4_sTanH
I0410 00:44:29.987370  5951 net.cpp:434] fc4_sTanH <- fc4_300
I0410 00:44:29.987375  5951 net.cpp:395] fc4_sTanH -> fc4_300 (in-place)
I0410 00:44:29.987551  5951 net.cpp:150] Setting up fc4_sTanH
I0410 00:44:29.987561  5951 net.cpp:157] Top shape: 1024 300 (307200)
I0410 00:44:29.987565  5951 net.cpp:165] Memory required for data: 2187317248
I0410 00:44:29.987567  5951 layer_factory.hpp:77] Creating layer drop4
I0410 00:44:29.987574  5951 net.cpp:100] Creating Layer drop4
I0410 00:44:29.987577  5951 net.cpp:434] drop4 <- fc4_300
I0410 00:44:29.987581  5951 net.cpp:395] drop4 -> fc4_300 (in-place)
I0410 00:44:29.987610  5951 net.cpp:150] Setting up drop4
I0410 00:44:29.987617  5951 net.cpp:157] Top shape: 1024 300 (307200)
I0410 00:44:29.987620  5951 net.cpp:165] Memory required for data: 2188546048
I0410 00:44:29.987623  5951 layer_factory.hpp:77] Creating layer fc5_67
I0410 00:44:29.987629  5951 net.cpp:100] Creating Layer fc5_67
I0410 00:44:29.987632  5951 net.cpp:434] fc5_67 <- fc4_300
I0410 00:44:29.987637  5951 net.cpp:408] fc5_67 -> fc5_classes
I0410 00:44:29.989065  5951 net.cpp:150] Setting up fc5_67
I0410 00:44:29.989080  5951 net.cpp:157] Top shape: 1024 67 (68608)
I0410 00:44:29.989084  5951 net.cpp:165] Memory required for data: 2188820480
I0410 00:44:29.989092  5951 layer_factory.hpp:77] Creating layer loss
I0410 00:44:29.989111  5951 net.cpp:100] Creating Layer loss
I0410 00:44:29.989114  5951 net.cpp:434] loss <- fc5_classes
I0410 00:44:29.989120  5951 net.cpp:434] loss <- label
I0410 00:44:29.989125  5951 net.cpp:408] loss -> loss
I0410 00:44:29.989135  5951 layer_factory.hpp:77] Creating layer loss
…
I0410 00:44:29.989750  5951 solver.cpp:193] Creating test net (#0) specified by test_net file: ./Prototxt/experiment_7/rtsd-r1/AHE/trial_5/test.prototxt
I0410 00:44:29.989888  5951 net.cpp:58] Initializing net from parameters: 
state {
  phase: TEST
}
layer {
  name: "data"
  type: "Data"
  top: "data"
  top: "label"
  include {
    phase: TEST
  }
  transform_param {
    mirror: false
    crop_size: 48
    mean_value: 126
    mean_value: 124
    mean_value: 145
  }
  data_param {
    source: "../local_data/lmdb/rtsd-r1/AHE/test/lmdb"
    batch_size: 1024
    backend: LMDB
  }
}
layer {
  name: "conv1"
  type: "Convolution"
  bottom: "data"
  top: "conv1"
  convolution_param {
    num_output: 100
    pad: 0
    kernel_size: 7
    group: 1
    stride: 1
    weight_filler {
      type: "xavier"
    }
  }
}
layer {
  name: "conv1_sTanH"
  type: "TanH"
  bottom: "conv1"
  top: "conv1"
}
layer {
  name: "pool1"
  type: "Pooling"
  bottom: "conv1"
  top: "pool1"
  pooling_param {
    pool: MAX
    kernel_size: 2
    stride: 2
  }
}
layer {
  name: "conv2"
  type: "Convolution"
  bottom: "pool1"
  top: "conv2"
  convolution_param {
    num_output: 150
    pad: 0
    kernel_size: 4
    group: 1
    stride: 1
    weight_filler {
      type: "xavier"
    }
  }
}
layer {
  name: "conv2_sTanH"
  type: "TanH"
  bottom: "conv2"
  top: "conv2"
}
layer {
  name: "pool2"
  type: "Pooling"
  bottom: "conv2"
  top: "pool2"
  pooling_param {
    pool: MAX
    kernel_size: 2
    stride: 2
  }
}
layer {
  name: "conv3"
  type: "Convolution"
  bottom: "pool2"
  top: "conv3"
  convolution_param {
    num_output: 250
    pad: 0
    kernel_size: 4
    group: 1
    stride: 1
    weight_filler {
      type: "xavier"
    }
  }
}
layer {
  name: "conv3_sTanH"
  type: "TanH"
  bottom: "conv3"
  top: "conv3"
}
layer {
  name: "pool3"
  type: "Pooling"
  bottom: "conv3"
  top: "pool3"
  pooling_param {
    pool: MAX
    kernel_size: 2
    stride: 2
  }
}
layer {
  name: "fc4_300"
  type: "InnerProduct"
  bottom: "pool3"
  top: "fc4_300"
  inner_product_param {
    num_output: 300
    weight_filler {
      type: "xavier"
    }
  }
}
layer {
  name: "fc4_sTanH"
  type: "TanH"
  bottom: "fc4_300"
  top: "fc4_300"
}
layer {
  name: "drop4"
  type: "Dropout"
  bottom: "fc4_300"
  top: "fc4_300"
  dropout_param {
    dropout_ratio: 0.4
  }
}
layer {
  name: "fc5_67"
  type: "InnerProduct"
  bottom: "fc4_300"
  top: "fc5_classes"
  inner_product_param {
    num_output: 67
    weight_filler {
      type: "xavier"
    }
  }
}
layer {
  name: "loss"
  type: "SoftmaxWithLoss"
  bottom: "fc5_classes"
  bottom: "label"
  top: "loss"
}
layer {
  name: "accuracy_1"
  type: "Accuracy"
  bottom: "fc5_classes"
  bottom: "label"
  top: "accuracy_1"
  include {
    phase: TEST
  }
  accuracy_param {
    top_k: 1
  }
}
layer {
  name: "accuracy_5"
  type: "Accuracy"
  bottom: "fc5_classes"
  bottom: "label"
  top: "accuracy_5"
  include {
    phase: TEST
  }
  accuracy_param {
    top_k: 5
  }
}
I0410 00:44:29.989971  5951 layer_factory.hpp:77] Creating layer data
I0410 00:44:29.990543  5951 net.cpp:100] Creating Layer data
I0410 00:44:29.990566  5951 net.cpp:408] data -> data
I0410 00:44:29.990576  5951 net.cpp:408] data -> label
I0410 00:44:29.993580  6057 db_lmdb.cpp:35] Opened lmdb ../local_data/lmdb/rtsd-r1/AHE/test/lmdb
I0410 00:44:29.993746  5951 data_layer.cpp:41] output data size: 1024,3,48,48
I0410 00:44:30.033360  5951 net.cpp:150] Setting up data
I0410 00:44:30.033385  5951 net.cpp:157] Top shape: 1024 3 48 48 (7077888)
I0410 00:44:30.033390  5951 net.cpp:157] Top shape: 1024 (1024)
I0410 00:44:30.033392  5951 net.cpp:165] Memory required for data: 28315648
I0410 00:44:30.033401  5951 layer_factory.hpp:77] Creating layer label_data_1_split
I0410 00:44:30.033413  5951 net.cpp:100] Creating Layer label_data_1_split
I0410 00:44:30.033417  5951 net.cpp:434] label_data_1_split <- label
I0410 00:44:30.033424  5951 net.cpp:408] label_data_1_split -> label_data_1_split_0
I0410 00:44:30.033435  5951 net.cpp:408] label_data_1_split -> label_data_1_split_1
I0410 00:44:30.033443  5951 net.cpp:408] label_data_1_split -> label_data_1_split_2
I0410 00:44:30.033567  5951 net.cpp:150] Setting up label_data_1_split
I0410 00:44:30.033577  5951 net.cpp:157] Top shape: 1024 (1024)
I0410 00:44:30.033581  5951 net.cpp:157] Top shape: 1024 (1024)
I0410 00:44:30.033584  5951 net.cpp:157] Top shape: 1024 (1024)
I0410 00:44:30.033586  5951 net.cpp:165] Memory required for data: 28327936
I0410 00:44:30.033591  5951 layer_factory.hpp:77] Creating layer conv1
I0410 00:44:30.033601  5951 net.cpp:100] Creating Layer conv1
I0410 00:44:30.033607  5951 net.cpp:434] conv1 <- data
I0410 00:44:30.033612  5951 net.cpp:408] conv1 -> conv1
I0410 00:44:30.035547  5951 net.cpp:150] Setting up conv1
I0410 00:44:30.035563  5951 net.cpp:157] Top shape: 1024 100 42 42 (180633600)
I0410 00:44:30.035569  5951 net.cpp:165] Memory required for data: 750862336
I0410 00:44:30.035580  5951 layer_factory.hpp:77] Creating layer conv1_sTanH
I0410 00:44:30.035588  5951 net.cpp:100] Creating Layer conv1_sTanH
I0410 00:44:30.035594  5951 net.cpp:434] conv1_sTanH <- conv1
I0410 00:44:30.035599  5951 net.cpp:395] conv1_sTanH -> conv1 (in-place)
I0410 00:44:30.035775  5951 net.cpp:150] Setting up conv1_sTanH
I0410 00:44:30.035785  5951 net.cpp:157] Top shape: 1024 100 42 42 (180633600)
I0410 00:44:30.035789  5951 net.cpp:165] Memory required for data: 1473396736
I0410 00:44:30.035791  5951 layer_factory.hpp:77] Creating layer pool1
I0410 00:44:30.035799  5951 net.cpp:100] Creating Layer pool1
I0410 00:44:30.035804  5951 net.cpp:434] pool1 <- conv1
I0410 00:44:30.035809  5951 net.cpp:408] pool1 -> pool1
I0410 00:44:30.035854  5951 net.cpp:150] Setting up pool1
I0410 00:44:30.035862  5951 net.cpp:157] Top shape: 1024 100 21 21 (45158400)
I0410 00:44:30.035866  5951 net.cpp:165] Memory required for data: 1654030336
I0410 00:44:30.035868  5951 layer_factory.hpp:77] Creating layer conv2
I0410 00:44:30.035887  5951 net.cpp:100] Creating Layer conv2
I0410 00:44:30.035892  5951 net.cpp:434] conv2 <- pool1
I0410 00:44:30.035898  5951 net.cpp:408] conv2 -> conv2
I0410 00:44:30.044605  5951 net.cpp:150] Setting up conv2
I0410 00:44:30.044625  5951 net.cpp:157] Top shape: 1024 150 18 18 (49766400)
I0410 00:44:30.044628  5951 net.cpp:165] Memory required for data: 1853095936
I0410 00:44:30.044637  5951 layer_factory.hpp:77] Creating layer conv2_sTanH
I0410 00:44:30.044644  5951 net.cpp:100] Creating Layer conv2_sTanH
I0410 00:44:30.044648  5951 net.cpp:434] conv2_sTanH <- conv2
I0410 00:44:30.044654  5951 net.cpp:395] conv2_sTanH -> conv2 (in-place)
I0410 00:44:30.045645  5951 net.cpp:150] Setting up conv2_sTanH
I0410 00:44:30.045661  5951 net.cpp:157] Top shape: 1024 150 18 18 (49766400)
I0410 00:44:30.045665  5951 net.cpp:165] Memory required for data: 2052161536
I0410 00:44:30.045668  5951 layer_factory.hpp:77] Creating layer pool2
I0410 00:44:30.045675  5951 net.cpp:100] Creating Layer pool2
I0410 00:44:30.045678  5951 net.cpp:434] pool2 <- conv2
I0410 00:44:30.045684  5951 net.cpp:408] pool2 -> pool2
I0410 00:44:30.045733  5951 net.cpp:150] Setting up pool2
I0410 00:44:30.045742  5951 net.cpp:157] Top shape: 1024 150 9 9 (12441600)
I0410 00:44:30.045744  5951 net.cpp:165] Memory required for data: 2101927936
I0410 00:44:30.045747  5951 layer_factory.hpp:77] Creating layer conv3
I0410 00:44:30.045758  5951 net.cpp:100] Creating Layer conv3
I0410 00:44:30.045763  5951 net.cpp:434] conv3 <- pool2
I0410 00:44:30.045768  5951 net.cpp:408] conv3 -> conv3
I0410 00:44:30.051654  5951 net.cpp:150] Setting up conv3
I0410 00:44:30.051672  5951 net.cpp:157] Top shape: 1024 250 6 6 (9216000)
I0410 00:44:30.051676  5951 net.cpp:165] Memory required for data: 2138791936
I0410 00:44:30.051687  5951 layer_factory.hpp:77] Creating layer conv3_sTanH
I0410 00:44:30.051693  5951 net.cpp:100] Creating Layer conv3_sTanH
I0410 00:44:30.051697  5951 net.cpp:434] conv3_sTanH <- conv3
I0410 00:44:30.051702  5951 net.cpp:395] conv3_sTanH -> conv3 (in-place)
I0410 00:44:30.053910  5951 net.cpp:150] Setting up conv3_sTanH
I0410 00:44:30.053925  5951 net.cpp:157] Top shape: 1024 250 6 6 (9216000)
I0410 00:44:30.053948  5951 net.cpp:165] Memory required for data: 2175655936
I0410 00:44:30.053952  5951 layer_factory.hpp:77] Creating layer pool3
I0410 00:44:30.053961  5951 net.cpp:100] Creating Layer pool3
I0410 00:44:30.053963  5951 net.cpp:434] pool3 <- conv3
I0410 00:44:30.053969  5951 net.cpp:408] pool3 -> pool3
I0410 00:44:30.054018  5951 net.cpp:150] Setting up pool3
I0410 00:44:30.054025  5951 net.cpp:157] Top shape: 1024 250 3 3 (2304000)
I0410 00:44:30.054028  5951 net.cpp:165] Memory required for data: 2184871936
I0410 00:44:30.054031  5951 layer_factory.hpp:77] Creating layer fc4_300
I0410 00:44:30.054038  5951 net.cpp:100] Creating Layer fc4_300
I0410 00:44:30.054040  5951 net.cpp:434] fc4_300 <- pool3
I0410 00:44:30.054045  5951 net.cpp:408] fc4_300 -> fc4_300
I0410 00:44:30.059475  5951 net.cpp:150] Setting up fc4_300
I0410 00:44:30.059494  5951 net.cpp:157] Top shape: 1024 300 (307200)
I0410 00:44:30.059499  5951 net.cpp:165] Memory required for data: 2186100736
I0410 00:44:30.059505  5951 layer_factory.hpp:77] Creating layer fc4_sTanH
I0410 00:44:30.059514  5951 net.cpp:100] Creating Layer fc4_sTanH
I0410 00:44:30.059518  5951 net.cpp:434] fc4_sTanH <- fc4_300
I0410 00:44:30.059523  5951 net.cpp:395] fc4_sTanH -> fc4_300 (in-place)
I0410 00:44:30.059712  5951 net.cpp:150] Setting up fc4_sTanH
I0410 00:44:30.059723  5951 net.cpp:157] Top shape: 1024 300 (307200)
I0410 00:44:30.059726  5951 net.cpp:165] Memory required for data: 2187329536
I0410 00:44:30.059729  5951 layer_factory.hpp:77] Creating layer drop4
I0410 00:44:30.059736  5951 net.cpp:100] Creating Layer drop4
I0410 00:44:30.059739  5951 net.cpp:434] drop4 <- fc4_300
I0410 00:44:30.059744  5951 net.cpp:395] drop4 -> fc4_300 (in-place)
I0410 00:44:30.059772  5951 net.cpp:150] Setting up drop4
I0410 00:44:30.059778  5951 net.cpp:157] Top shape: 1024 300 (307200)
I0410 00:44:30.059782  5951 net.cpp:165] Memory required for data: 2188558336
I0410 00:44:30.059784  5951 layer_factory.hpp:77] Creating layer fc5_67
I0410 00:44:30.059789  5951 net.cpp:100] Creating Layer fc5_67
I0410 00:44:30.059798  5951 net.cpp:434] fc5_67 <- fc4_300
I0410 00:44:30.059803  5951 net.cpp:408] fc5_67 -> fc5_classes
I0410 00:44:30.060071  5951 net.cpp:150] Setting up fc5_67
I0410 00:44:30.060082  5951 net.cpp:157] Top shape: 1024 67 (68608)
I0410 00:44:30.060084  5951 net.cpp:165] Memory required for data: 2188832768
I0410 00:44:30.060096  5951 layer_factory.hpp:77] Creating layer fc5_classes_fc5_67_0_split
I0410 00:44:30.060102  5951 net.cpp:100] Creating Layer fc5_classes_fc5_67_0_split
I0410 00:44:30.060107  5951 net.cpp:434] fc5_classes_fc5_67_0_split <- fc5_classes
I0410 00:44:30.060112  5951 net.cpp:408] fc5_classes_fc5_67_0_split -> fc5_classes_fc5_67_0_split_0
I0410 00:44:30.060120  5951 net.cpp:408] fc5_classes_fc5_67_0_split -> fc5_classes_fc5_67_0_split_1
I0410 00:44:30.060128  5951 net.cpp:408] fc5_classes_fc5_67_0_split -> fc5_classes_fc5_67_0_split_2
I0410 00:44:30.060176  5951 net.cpp:150] Setting up fc5_classes_fc5_67_0_split
I0410 00:44:30.060184  5951 net.cpp:157] Top shape: 1024 67 (68608)
I0410 00:44:30.060186  5951 net.cpp:157] Top shape: 1024 67 (68608)
I0410 00:44:30.060189  5951 net.cpp:157] Top shape: 1024 67 (68608)
I0410 00:44:30.060192  5951 net.cpp:165] Memory required for data: 2189656064
I0410 00:44:30.060195  5951 layer_factory.hpp:77] Creating layer loss
I0410 00:44:30.060204  5951 net.cpp:100] Creating Layer loss
I0410 00:44:30.060207  5951 net.cpp:434] loss <- fc5_classes_fc5_67_0_split_0
I0410 00:44:30.060212  5951 net.cpp:434] loss <- label_data_1_split_0
I0410 00:44:30.060217  5951 net.cpp:408] loss -> loss
…
