…
I0529 02:53:14.029868  4878 solver.cpp:81] Creating training net from train_net file: ./Prototxt/experiment_22/RTSD/orig/trial_5/train.prototxt
I0529 02:53:14.033838  4878 net.cpp:58] Initializing net from parameters: 
state {
  phase: TRAIN
  level: 0
  stage: ""
}
layer {
  name: "data"
  type: "Data"
  top: "data"
  top: "label"
  include {
    phase: TRAIN
  }
  transform_param {
    scale: 0.0039215689
    mirror: false
    crop_size: 48
    mean_value: 119
    mean_value: 113
    mean_value: 113
  }
  data_param {
    source: "../local_data/lmdb/RTSD/orig/train/lmdb"
    batch_size: 1024
    backend: LMDB
  }
}
layer {
  name: "conv1"
  type: "Convolution"
  bottom: "data"
  top: "conv1"
  convolution_param {
    num_output: 100
    pad: 0
    kernel_size: 7
    group: 1
    stride: 1
    weight_filler {
      type: "xavier"
    }
  }
}
layer {
  name: "conv1_relu"
  type: "ReLU"
  bottom: "conv1"
  top: "conv1"
}
layer {
  name: "pool1"
  type: "Pooling"
  bottom: "conv1"
  top: "pool1"
  pooling_param {
    pool: MAX
    kernel_size: 2
    stride: 2
  }
}
layer {
  name: "conv2"
  type: "Convolution"
  bottom: "pool1"
  top: "conv2"
  convolution_param {
    num_output: 150
    pad: 0
    kernel_size: 4
    group: 1
    stride: 1
    weight_filler {
      type: "xavier"
    }
  }
}
layer {
  name: "conv2_relu"
  type: "ReLU"
  bottom: "conv2"
  top: "conv2"
}
layer {
  name: "pool2"
  type: "Pooling"
  bottom: "conv2"
  top: "pool2"
  pooling_param {
    pool: MAX
    kernel_size: 2
    stride: 2
  }
}
layer {
  name: "conv3"
  type: "Convolution"
  bottom: "pool2"
  top: "conv3"
  convolution_param {
    num_output: 250
    pad: 0
    kernel_size: 4
    group: 1
    stride: 1
    weight_filler {
      type: "xavier"
    }
  }
}
layer {
  name: "conv3_relu"
  type: "ReLU"
  bottom: "conv3"
  top: "conv3"
}
layer {
  name: "pool3"
  type: "Pooling"
  bottom: "conv3"
  top: "pool3"
  pooling_param {
    pool: MAX
    kernel_size: 2
    stride: 2
  }
}
layer {
  name: "fc4_300"
  type: "InnerProduct"
  bottom: "pool3"
  top: "fc4_300"
  inner_product_param {
    num_output: 300
    weight_filler {
      type: "xavier"
    }
  }
}
layer {
  name: "fc4_relu"
  type: "ReLU"
  bottom: "fc4_300"
  top: "fc4_300"
}
layer {
  name: "fc5_116"
  type: "InnerProduct"
  bottom: "fc4_300"
  top: "fc5_classes"
  inner_product_param {
    num_output: 116
    weight_filler {
      type: "xavier"
    }
  }
}
layer {
  name: "softmax"
  type: "Softmax"
  bottom: "fc5_classes"
  top: "softmax"
}
layer {
  name: "loss"
  type: "MultinomialLogisticLoss"
  bottom: "softmax"
  bottom: "label"
  top: "loss"
}
layer {
  name: "accuracy_1"
  type: "Accuracy"
  bottom: "fc5_classes"
  bottom: "label"
  top: "accuracy_1"
  accuracy_param {
    top_k: 1
  }
}
layer {
  name: "accuracy_5"
  type: "Accuracy"
  bottom: "fc5_classes"
  bottom: "label"
  top: "accuracy_5"
  accuracy_param {
    top_k: 5
  }
}
layer {
  name: "silence"
  type: "Silence"
  bottom: "accuracy_1"
  bottom: "accuracy_5"
}
I0529 02:53:14.033941  4878 layer_factory.hpp:77] Creating layer data
I0529 02:53:14.037919  4878 net.cpp:100] Creating Layer data
I0529 02:53:14.037937  4878 net.cpp:408] data -> data
I0529 02:53:14.037961  4878 net.cpp:408] data -> label
I0529 02:53:14.039592  4916 db_lmdb.cpp:35] Opened lmdb ../local_data/lmdb/RTSD/orig/train/lmdb
I0529 02:53:14.062487  4878 data_layer.cpp:41] output data size: 1024,3,48,48
I0529 02:53:14.106228  4878 net.cpp:150] Setting up data
I0529 02:53:14.106287  4878 net.cpp:157] Top shape: 1024 3 48 48 (7077888)
I0529 02:53:14.106300  4878 net.cpp:157] Top shape: 1024 (1024)
I0529 02:53:14.106310  4878 net.cpp:165] Memory required for data: 28315648
I0529 02:53:14.106324  4878 layer_factory.hpp:77] Creating layer label_data_1_split
I0529 02:53:14.106344  4878 net.cpp:100] Creating Layer label_data_1_split
I0529 02:53:14.106358  4878 net.cpp:434] label_data_1_split <- label
I0529 02:53:14.106375  4878 net.cpp:408] label_data_1_split -> label_data_1_split_0
I0529 02:53:14.106395  4878 net.cpp:408] label_data_1_split -> label_data_1_split_1
I0529 02:53:14.106411  4878 net.cpp:408] label_data_1_split -> label_data_1_split_2
I0529 02:53:14.106472  4878 net.cpp:150] Setting up label_data_1_split
I0529 02:53:14.106487  4878 net.cpp:157] Top shape: 1024 (1024)
I0529 02:53:14.106495  4878 net.cpp:157] Top shape: 1024 (1024)
I0529 02:53:14.106508  4878 net.cpp:157] Top shape: 1024 (1024)
I0529 02:53:14.106516  4878 net.cpp:165] Memory required for data: 28327936
I0529 02:53:14.106523  4878 layer_factory.hpp:77] Creating layer conv1
I0529 02:53:14.106546  4878 net.cpp:100] Creating Layer conv1
I0529 02:53:14.106557  4878 net.cpp:434] conv1 <- data
I0529 02:53:14.106568  4878 net.cpp:408] conv1 -> conv1
I0529 02:53:14.420083  4878 net.cpp:150] Setting up conv1
I0529 02:53:14.420110  4878 net.cpp:157] Top shape: 1024 100 42 42 (180633600)
I0529 02:53:14.420117  4878 net.cpp:165] Memory required for data: 750862336
I0529 02:53:14.420136  4878 layer_factory.hpp:77] Creating layer conv1_relu
I0529 02:53:14.420150  4878 net.cpp:100] Creating Layer conv1_relu
I0529 02:53:14.420158  4878 net.cpp:434] conv1_relu <- conv1
I0529 02:53:14.420168  4878 net.cpp:395] conv1_relu -> conv1 (in-place)
I0529 02:53:14.420320  4878 net.cpp:150] Setting up conv1_relu
I0529 02:53:14.420334  4878 net.cpp:157] Top shape: 1024 100 42 42 (180633600)
I0529 02:53:14.420341  4878 net.cpp:165] Memory required for data: 1473396736
I0529 02:53:14.420348  4878 layer_factory.hpp:77] Creating layer pool1
I0529 02:53:14.420362  4878 net.cpp:100] Creating Layer pool1
I0529 02:53:14.420373  4878 net.cpp:434] pool1 <- conv1
I0529 02:53:14.420383  4878 net.cpp:408] pool1 -> pool1
I0529 02:53:14.420429  4878 net.cpp:150] Setting up pool1
I0529 02:53:14.420441  4878 net.cpp:157] Top shape: 1024 100 21 21 (45158400)
I0529 02:53:14.420449  4878 net.cpp:165] Memory required for data: 1654030336
I0529 02:53:14.420456  4878 layer_factory.hpp:77] Creating layer conv2
I0529 02:53:14.420470  4878 net.cpp:100] Creating Layer conv2
I0529 02:53:14.420482  4878 net.cpp:434] conv2 <- pool1
I0529 02:53:14.420492  4878 net.cpp:408] conv2 -> conv2
I0529 02:53:14.423315  4878 net.cpp:150] Setting up conv2
I0529 02:53:14.423332  4878 net.cpp:157] Top shape: 1024 150 18 18 (49766400)
I0529 02:53:14.423341  4878 net.cpp:165] Memory required for data: 1853095936
I0529 02:53:14.423354  4878 layer_factory.hpp:77] Creating layer conv2_relu
I0529 02:53:14.423365  4878 net.cpp:100] Creating Layer conv2_relu
I0529 02:53:14.423380  4878 net.cpp:434] conv2_relu <- conv2
I0529 02:53:14.423391  4878 net.cpp:395] conv2_relu -> conv2 (in-place)
I0529 02:53:14.423528  4878 net.cpp:150] Setting up conv2_relu
I0529 02:53:14.423544  4878 net.cpp:157] Top shape: 1024 150 18 18 (49766400)
I0529 02:53:14.423550  4878 net.cpp:165] Memory required for data: 2052161536
I0529 02:53:14.423559  4878 layer_factory.hpp:77] Creating layer pool2
I0529 02:53:14.423570  4878 net.cpp:100] Creating Layer pool2
I0529 02:53:14.423578  4878 net.cpp:434] pool2 <- conv2
I0529 02:53:14.423590  4878 net.cpp:408] pool2 -> pool2
I0529 02:53:14.423637  4878 net.cpp:150] Setting up pool2
I0529 02:53:14.423652  4878 net.cpp:157] Top shape: 1024 150 9 9 (12441600)
I0529 02:53:14.423660  4878 net.cpp:165] Memory required for data: 2101927936
I0529 02:53:14.423667  4878 layer_factory.hpp:77] Creating layer conv3
I0529 02:53:14.423682  4878 net.cpp:100] Creating Layer conv3
I0529 02:53:14.423693  4878 net.cpp:434] conv3 <- pool2
I0529 02:53:14.423703  4878 net.cpp:408] conv3 -> conv3
I0529 02:53:14.428215  4878 net.cpp:150] Setting up conv3
I0529 02:53:14.428231  4878 net.cpp:157] Top shape: 1024 250 6 6 (9216000)
I0529 02:53:14.428238  4878 net.cpp:165] Memory required for data: 2138791936
I0529 02:53:14.428251  4878 layer_factory.hpp:77] Creating layer conv3_relu
I0529 02:53:14.428261  4878 net.cpp:100] Creating Layer conv3_relu
I0529 02:53:14.428268  4878 net.cpp:434] conv3_relu <- conv3
I0529 02:53:14.428283  4878 net.cpp:395] conv3_relu -> conv3 (in-place)
I0529 02:53:14.428620  4878 net.cpp:150] Setting up conv3_relu
I0529 02:53:14.428634  4878 net.cpp:157] Top shape: 1024 250 6 6 (9216000)
I0529 02:53:14.428642  4878 net.cpp:165] Memory required for data: 2175655936
I0529 02:53:14.428648  4878 layer_factory.hpp:77] Creating layer pool3
I0529 02:53:14.428658  4878 net.cpp:100] Creating Layer pool3
I0529 02:53:14.428666  4878 net.cpp:434] pool3 <- conv3
I0529 02:53:14.428675  4878 net.cpp:408] pool3 -> pool3
I0529 02:53:14.428737  4878 net.cpp:150] Setting up pool3
I0529 02:53:14.428750  4878 net.cpp:157] Top shape: 1024 250 3 3 (2304000)
I0529 02:53:14.428756  4878 net.cpp:165] Memory required for data: 2184871936
I0529 02:53:14.428762  4878 layer_factory.hpp:77] Creating layer fc4_300
I0529 02:53:14.428773  4878 net.cpp:100] Creating Layer fc4_300
I0529 02:53:14.428786  4878 net.cpp:434] fc4_300 <- pool3
I0529 02:53:14.428794  4878 net.cpp:408] fc4_300 -> fc4_300
I0529 02:53:14.433238  4878 net.cpp:150] Setting up fc4_300
I0529 02:53:14.433254  4878 net.cpp:157] Top shape: 1024 300 (307200)
I0529 02:53:14.433262  4878 net.cpp:165] Memory required for data: 2186100736
I0529 02:53:14.433274  4878 layer_factory.hpp:77] Creating layer fc4_relu
I0529 02:53:14.433284  4878 net.cpp:100] Creating Layer fc4_relu
I0529 02:53:14.433292  4878 net.cpp:434] fc4_relu <- fc4_300
I0529 02:53:14.433301  4878 net.cpp:395] fc4_relu -> fc4_300 (in-place)
I0529 02:53:14.433439  4878 net.cpp:150] Setting up fc4_relu
I0529 02:53:14.433457  4878 net.cpp:157] Top shape: 1024 300 (307200)
I0529 02:53:14.433465  4878 net.cpp:165] Memory required for data: 2187329536
I0529 02:53:14.433472  4878 layer_factory.hpp:77] Creating layer fc5_116
I0529 02:53:14.433482  4878 net.cpp:100] Creating Layer fc5_116
I0529 02:53:14.433490  4878 net.cpp:434] fc5_116 <- fc4_300
I0529 02:53:14.433501  4878 net.cpp:408] fc5_116 -> fc5_classes
I0529 02:53:14.434737  4878 net.cpp:150] Setting up fc5_116
I0529 02:53:14.434754  4878 net.cpp:157] Top shape: 1024 116 (118784)
I0529 02:53:14.434761  4878 net.cpp:165] Memory required for data: 2187804672
I0529 02:53:14.434772  4878 layer_factory.hpp:77] Creating layer fc5_classes_fc5_116_0_split
I0529 02:53:14.434787  4878 net.cpp:100] Creating Layer fc5_classes_fc5_116_0_split
I0529 02:53:14.434795  4878 net.cpp:434] fc5_classes_fc5_116_0_split <- fc5_classes
I0529 02:53:14.434801  4878 net.cpp:408] fc5_classes_fc5_116_0_split -> fc5_classes_fc5_116_0_split_0
I0529 02:53:14.434810  4878 net.cpp:408] fc5_classes_fc5_116_0_split -> fc5_classes_fc5_116_0_split_1
I0529 02:53:14.434820  4878 net.cpp:408] fc5_classes_fc5_116_0_split -> fc5_classes_fc5_116_0_split_2
I0529 02:53:14.434861  4878 net.cpp:150] Setting up fc5_classes_fc5_116_0_split
I0529 02:53:14.434871  4878 net.cpp:157] Top shape: 1024 116 (118784)
I0529 02:53:14.434876  4878 net.cpp:157] Top shape: 1024 116 (118784)
I0529 02:53:14.434881  4878 net.cpp:157] Top shape: 1024 116 (118784)
I0529 02:53:14.434885  4878 net.cpp:165] Memory required for data: 2189230080
I0529 02:53:14.434890  4878 layer_factory.hpp:77] Creating layer softmax
I0529 02:53:14.434895  4878 net.cpp:100] Creating Layer softmax
I0529 02:53:14.434902  4878 net.cpp:434] softmax <- fc5_classes_fc5_116_0_split_0
I0529 02:53:14.434908  4878 net.cpp:408] softmax -> softmax
I0529 02:53:14.435099  4878 net.cpp:150] Setting up softmax
I0529 02:53:14.435115  4878 net.cpp:157] Top shape: 1024 116 (118784)
I0529 02:53:14.435120  4878 net.cpp:165] Memory required for data: 2189705216
I0529 02:53:14.435128  4878 layer_factory.hpp:77] Creating layer loss
I0529 02:53:14.435137  4878 net.cpp:100] Creating Layer loss
I0529 02:53:14.435159  4878 net.cpp:434] loss <- softmax
I0529 02:53:14.435166  4878 net.cpp:434] loss <- label_data_1_split_0
I0529 02:53:14.435173  4878 net.cpp:408] loss -> loss
…
