…
I0409 09:42:01.476332 18046 net.cpp:322] The NetState phase (0) differed from the phase (1) specified by a rule in layer accuracy_5
I0409 09:42:01.476445 18046 net.cpp:58] Initializing net from parameters: 
state {
  phase: TRAIN
  level: 0
  stage: ""
}
layer {
  name: "data"
  type: "Data"
  top: "data"
  top: "label"
  include {
    phase: TRAIN
  }
  transform_param {
    mirror: false
    crop_size: 48
    mean_value: 115
    mean_value: 108
    mean_value: 122
  }
  data_param {
    source: "../local_data/lmdb/rtsd-r1/imajust/train/lmdb"
    batch_size: 1024
    backend: LMDB
  }
}
layer {
  name: "conv1"
  type: "Convolution"
  bottom: "data"
  top: "conv1"
  convolution_param {
    num_output: 100
    pad: 0
    kernel_size: 7
    group: 1
    stride: 1
    weight_filler {
      type: "xavier"
    }
  }
}
layer {
  name: "conv1_relu"
  type: "ReLU"
  bottom: "conv1"
  top: "conv1"
}
layer {
  name: "pool1"
  type: "Pooling"
  bottom: "conv1"
  top: "pool1"
  pooling_param {
    pool: MAX
    kernel_size: 2
    stride: 2
  }
}
layer {
  name: "conv2"
  type: "Convolution"
  bottom: "pool1"
  top: "conv2"
  convolution_param {
    num_output: 150
    pad: 0
    kernel_size: 4
    group: 1
    stride: 1
    weight_filler {
      type: "xavier"
    }
  }
}
layer {
  name: "conv2_relu"
  type: "ReLU"
  bottom: "conv2"
  top: "conv2"
}
layer {
  name: "pool2"
  type: "Pooling"
  bottom: "conv2"
  top: "pool2"
  pooling_param {
    pool: MAX
    kernel_size: 2
    stride: 2
  }
}
layer {
  name: "conv3"
  type: "Convolution"
  bottom: "pool2"
  top: "conv3"
  convolution_param {
    num_output: 250
    pad: 0
    kernel_size: 4
    group: 1
    stride: 1
    weight_filler {
      type: "xavier"
    }
  }
}
layer {
  name: "conv3_relu"
  type: "ReLU"
  bottom: "conv3"
  top: "conv3"
}
layer {
  name: "pool3"
  type: "Pooling"
  bottom: "conv3"
  top: "pool3"
  pooling_param {
    pool: MAX
    kernel_size: 2
    stride: 2
  }
}
layer {
  name: "fc4_300"
  type: "InnerProduct"
  bottom: "pool3"
  top: "fc4_300"
  inner_product_param {
    num_output: 300
    weight_filler {
      type: "xavier"
    }
  }
}
layer {
  name: "fc4_relu"
  type: "ReLU"
  bottom: "fc4_300"
  top: "fc4_300"
}
layer {
  name: "drop4"
  type: "Dropout"
  bottom: "fc4_300"
  top: "fc4_300"
  dropout_param {
    dropout_ratio: 0.4
  }
}
layer {
  name: "fc5_67"
  type: "InnerProduct"
  bottom: "fc4_300"
  top: "fc5_classes"
  inner_product_param {
    num_output: 67
    weight_filler {
      type: "xavier"
    }
  }
}
layer {
  name: "loss"
  type: "SoftmaxWithLoss"
  bottom: "fc5_classes"
  bottom: "label"
  top: "loss"
}
I0409 09:42:01.476534 18046 layer_factory.hpp:77] Creating layer data
I0409 09:42:01.477828 18046 net.cpp:100] Creating Layer data
I0409 09:42:01.477845 18046 net.cpp:408] data -> data
I0409 09:42:01.477880 18046 net.cpp:408] data -> label
I0409 09:42:01.479516 18097 db_lmdb.cpp:35] Opened lmdb ../local_data/lmdb/rtsd-r1/imajust/train/lmdb
I0409 09:42:01.499300 18046 data_layer.cpp:41] output data size: 1024,3,48,48
I0409 09:42:01.559547 18046 net.cpp:150] Setting up data
I0409 09:42:01.559588 18046 net.cpp:157] Top shape: 1024 3 48 48 (7077888)
I0409 09:42:01.559634 18046 net.cpp:157] Top shape: 1024 (1024)
I0409 09:42:01.559640 18046 net.cpp:165] Memory required for data: 28315648
I0409 09:42:01.559658 18046 layer_factory.hpp:77] Creating layer conv1
I0409 09:42:01.559689 18046 net.cpp:100] Creating Layer conv1
I0409 09:42:01.559700 18046 net.cpp:434] conv1 <- data
I0409 09:42:01.559720 18046 net.cpp:408] conv1 -> conv1
I0409 09:42:01.872229 18046 net.cpp:150] Setting up conv1
I0409 09:42:01.872268 18046 net.cpp:157] Top shape: 1024 100 42 42 (180633600)
I0409 09:42:01.872273 18046 net.cpp:165] Memory required for data: 750850048
I0409 09:42:01.872298 18046 layer_factory.hpp:77] Creating layer conv1_relu
I0409 09:42:01.872313 18046 net.cpp:100] Creating Layer conv1_relu
I0409 09:42:01.872318 18046 net.cpp:434] conv1_relu <- conv1
I0409 09:42:01.872324 18046 net.cpp:395] conv1_relu -> conv1 (in-place)
I0409 09:42:01.872556 18046 net.cpp:150] Setting up conv1_relu
I0409 09:42:01.872571 18046 net.cpp:157] Top shape: 1024 100 42 42 (180633600)
I0409 09:42:01.872575 18046 net.cpp:165] Memory required for data: 1473384448
I0409 09:42:01.872580 18046 layer_factory.hpp:77] Creating layer pool1
I0409 09:42:01.872588 18046 net.cpp:100] Creating Layer pool1
I0409 09:42:01.872592 18046 net.cpp:434] pool1 <- conv1
I0409 09:42:01.872598 18046 net.cpp:408] pool1 -> pool1
I0409 09:42:01.872665 18046 net.cpp:150] Setting up pool1
I0409 09:42:01.872675 18046 net.cpp:157] Top shape: 1024 100 21 21 (45158400)
I0409 09:42:01.872678 18046 net.cpp:165] Memory required for data: 1654018048
I0409 09:42:01.872683 18046 layer_factory.hpp:77] Creating layer conv2
I0409 09:42:01.872695 18046 net.cpp:100] Creating Layer conv2
I0409 09:42:01.872701 18046 net.cpp:434] conv2 <- pool1
I0409 09:42:01.872707 18046 net.cpp:408] conv2 -> conv2
I0409 09:42:01.877842 18046 net.cpp:150] Setting up conv2
I0409 09:42:01.877862 18046 net.cpp:157] Top shape: 1024 150 18 18 (49766400)
I0409 09:42:01.877867 18046 net.cpp:165] Memory required for data: 1853083648
I0409 09:42:01.877878 18046 layer_factory.hpp:77] Creating layer conv2_relu
I0409 09:42:01.877887 18046 net.cpp:100] Creating Layer conv2_relu
I0409 09:42:01.877890 18046 net.cpp:434] conv2_relu <- conv2
I0409 09:42:01.877897 18046 net.cpp:395] conv2_relu -> conv2 (in-place)
I0409 09:42:01.878782 18046 net.cpp:150] Setting up conv2_relu
I0409 09:42:01.878800 18046 net.cpp:157] Top shape: 1024 150 18 18 (49766400)
I0409 09:42:01.878804 18046 net.cpp:165] Memory required for data: 2052149248
I0409 09:42:01.878809 18046 layer_factory.hpp:77] Creating layer pool2
I0409 09:42:01.878816 18046 net.cpp:100] Creating Layer pool2
I0409 09:42:01.878820 18046 net.cpp:434] pool2 <- conv2
I0409 09:42:01.878828 18046 net.cpp:408] pool2 -> pool2
I0409 09:42:01.878881 18046 net.cpp:150] Setting up pool2
I0409 09:42:01.878891 18046 net.cpp:157] Top shape: 1024 150 9 9 (12441600)
I0409 09:42:01.878895 18046 net.cpp:165] Memory required for data: 2101915648
I0409 09:42:01.878898 18046 layer_factory.hpp:77] Creating layer conv3
I0409 09:42:01.878908 18046 net.cpp:100] Creating Layer conv3
I0409 09:42:01.878912 18046 net.cpp:434] conv3 <- pool2
I0409 09:42:01.878918 18046 net.cpp:408] conv3 -> conv3
I0409 09:42:01.885623 18046 net.cpp:150] Setting up conv3
I0409 09:42:01.885643 18046 net.cpp:157] Top shape: 1024 250 6 6 (9216000)
I0409 09:42:01.885646 18046 net.cpp:165] Memory required for data: 2138779648
I0409 09:42:01.885658 18046 layer_factory.hpp:77] Creating layer conv3_relu
I0409 09:42:01.885668 18046 net.cpp:100] Creating Layer conv3_relu
I0409 09:42:01.885673 18046 net.cpp:434] conv3_relu <- conv3
I0409 09:42:01.885679 18046 net.cpp:395] conv3_relu -> conv3 (in-place)
I0409 09:42:01.886592 18046 net.cpp:150] Setting up conv3_relu
I0409 09:42:01.886610 18046 net.cpp:157] Top shape: 1024 250 6 6 (9216000)
I0409 09:42:01.886621 18046 net.cpp:165] Memory required for data: 2175643648
I0409 09:42:01.886626 18046 layer_factory.hpp:77] Creating layer pool3
I0409 09:42:01.886633 18046 net.cpp:100] Creating Layer pool3
I0409 09:42:01.886638 18046 net.cpp:434] pool3 <- conv3
I0409 09:42:01.886667 18046 net.cpp:408] pool3 -> pool3
I0409 09:42:01.886729 18046 net.cpp:150] Setting up pool3
I0409 09:42:01.886740 18046 net.cpp:157] Top shape: 1024 250 3 3 (2304000)
I0409 09:42:01.886744 18046 net.cpp:165] Memory required for data: 2184859648
I0409 09:42:01.886749 18046 layer_factory.hpp:77] Creating layer fc4_300
I0409 09:42:01.886756 18046 net.cpp:100] Creating Layer fc4_300
I0409 09:42:01.886760 18046 net.cpp:434] fc4_300 <- pool3
I0409 09:42:01.886768 18046 net.cpp:408] fc4_300 -> fc4_300
I0409 09:42:01.893299 18046 net.cpp:150] Setting up fc4_300
I0409 09:42:01.893318 18046 net.cpp:157] Top shape: 1024 300 (307200)
I0409 09:42:01.893322 18046 net.cpp:165] Memory required for data: 2186088448
I0409 09:42:01.893331 18046 layer_factory.hpp:77] Creating layer fc4_relu
I0409 09:42:01.893338 18046 net.cpp:100] Creating Layer fc4_relu
I0409 09:42:01.893343 18046 net.cpp:434] fc4_relu <- fc4_300
I0409 09:42:01.893352 18046 net.cpp:395] fc4_relu -> fc4_300 (in-place)
I0409 09:42:01.893584 18046 net.cpp:150] Setting up fc4_relu
I0409 09:42:01.893597 18046 net.cpp:157] Top shape: 1024 300 (307200)
I0409 09:42:01.893601 18046 net.cpp:165] Memory required for data: 2187317248
I0409 09:42:01.893605 18046 layer_factory.hpp:77] Creating layer drop4
I0409 09:42:01.893615 18046 net.cpp:100] Creating Layer drop4
I0409 09:42:01.893620 18046 net.cpp:434] drop4 <- fc4_300
I0409 09:42:01.893626 18046 net.cpp:395] drop4 -> fc4_300 (in-place)
I0409 09:42:01.893664 18046 net.cpp:150] Setting up drop4
I0409 09:42:01.893673 18046 net.cpp:157] Top shape: 1024 300 (307200)
I0409 09:42:01.893677 18046 net.cpp:165] Memory required for data: 2188546048
I0409 09:42:01.893681 18046 layer_factory.hpp:77] Creating layer fc5_67
I0409 09:42:01.893687 18046 net.cpp:100] Creating Layer fc5_67
I0409 09:42:01.893692 18046 net.cpp:434] fc5_67 <- fc4_300
I0409 09:42:01.893700 18046 net.cpp:408] fc5_67 -> fc5_classes
I0409 09:42:01.895076 18046 net.cpp:150] Setting up fc5_67
I0409 09:42:01.895093 18046 net.cpp:157] Top shape: 1024 67 (68608)
I0409 09:42:01.895097 18046 net.cpp:165] Memory required for data: 2188820480
I0409 09:42:01.895109 18046 layer_factory.hpp:77] Creating layer loss
I0409 09:42:01.895117 18046 net.cpp:100] Creating Layer loss
I0409 09:42:01.895122 18046 net.cpp:434] loss <- fc5_classes
I0409 09:42:01.895126 18046 net.cpp:434] loss <- label
I0409 09:42:01.895135 18046 net.cpp:408] loss -> loss
I0409 09:42:01.895150 18046 layer_factory.hpp:77] Creating layer loss
…
I0409 09:42:01.895920 18046 solver.cpp:193] Creating test net (#0) specified by test_net file: ./Prototxt/experiment_6/rtsd-r1/imajust/trial_1/test.prototxt
I0409 09:42:01.896088 18046 net.cpp:58] Initializing net from parameters: 
state {
  phase: TEST
}
layer {
  name: "data"
  type: "Data"
  top: "data"
  top: "label"
  include {
    phase: TEST
  }
  transform_param {
    mirror: false
    crop_size: 48
    mean_value: 109
    mean_value: 106
    mean_value: 126
  }
  data_param {
    source: "../local_data/lmdb/rtsd-r1/imajust/test/lmdb"
    batch_size: 1024
    backend: LMDB
  }
}
layer {
  name: "conv1"
  type: "Convolution"
  bottom: "data"
  top: "conv1"
  convolution_param {
    num_output: 100
    pad: 0
    kernel_size: 7
    group: 1
    stride: 1
    weight_filler {
      type: "xavier"
    }
  }
}
layer {
  name: "conv1_relu"
  type: "ReLU"
  bottom: "conv1"
  top: "conv1"
}
layer {
  name: "pool1"
  type: "Pooling"
  bottom: "conv1"
  top: "pool1"
  pooling_param {
    pool: MAX
    kernel_size: 2
    stride: 2
  }
}
layer {
  name: "conv2"
  type: "Convolution"
  bottom: "pool1"
  top: "conv2"
  convolution_param {
    num_output: 150
    pad: 0
    kernel_size: 4
    group: 1
    stride: 1
    weight_filler {
      type: "xavier"
    }
  }
}
layer {
  name: "conv2_relu"
  type: "ReLU"
  bottom: "conv2"
  top: "conv2"
}
layer {
  name: "pool2"
  type: "Pooling"
  bottom: "conv2"
  top: "pool2"
  pooling_param {
    pool: MAX
    kernel_size: 2
    stride: 2
  }
}
layer {
  name: "conv3"
  type: "Convolution"
  bottom: "pool2"
  top: "conv3"
  convolution_param {
    num_output: 250
    pad: 0
    kernel_size: 4
    group: 1
    stride: 1
    weight_filler {
      type: "xavier"
    }
  }
}
layer {
  name: "conv3_relu"
  type: "ReLU"
  bottom: "conv3"
  top: "conv3"
}
layer {
  name: "pool3"
  type: "Pooling"
  bottom: "conv3"
  top: "pool3"
  pooling_param {
    pool: MAX
    kernel_size: 2
    stride: 2
  }
}
layer {
  name: "fc4_300"
  type: "InnerProduct"
  bottom: "pool3"
  top: "fc4_300"
  inner_product_param {
    num_output: 300
    weight_filler {
      type: "xavier"
    }
  }
}
layer {
  name: "fc4_relu"
  type: "ReLU"
  bottom: "fc4_300"
  top: "fc4_300"
}
layer {
  name: "drop4"
  type: "Dropout"
  bottom: "fc4_300"
  top: "fc4_300"
  dropout_param {
    dropout_ratio: 0.4
  }
}
layer {
  name: "fc5_67"
  type: "InnerProduct"
  bottom: "fc4_300"
  top: "fc5_classes"
  inner_product_param {
    num_output: 67
    weight_filler {
      type: "xavier"
    }
  }
}
layer {
  name: "loss"
  type: "SoftmaxWithLoss"
  bottom: "fc5_classes"
  bottom: "label"
  top: "loss"
}
layer {
  name: "accuracy_1"
  type: "Accuracy"
  bottom: "fc5_classes"
  bottom: "label"
  top: "accuracy_1"
  include {
    phase: TEST
  }
  accuracy_param {
    top_k: 1
  }
}
layer {
  name: "accuracy_5"
  type: "Accuracy"
  bottom: "fc5_classes"
  bottom: "label"
  top: "accuracy_5"
  include {
    phase: TEST
  }
  accuracy_param {
    top_k: 5
  }
}
I0409 09:42:01.896208 18046 layer_factory.hpp:77] Creating layer data
I0409 09:42:01.897013 18046 net.cpp:100] Creating Layer data
I0409 09:42:01.897027 18046 net.cpp:408] data -> data
I0409 09:42:01.897038 18046 net.cpp:408] data -> label
I0409 09:42:01.898684 18113 db_lmdb.cpp:35] Opened lmdb ../local_data/lmdb/rtsd-r1/imajust/test/lmdb
I0409 09:42:01.898944 18046 data_layer.cpp:41] output data size: 1024,3,48,48
I0409 09:42:01.943408 18046 net.cpp:150] Setting up data
I0409 09:42:01.943437 18046 net.cpp:157] Top shape: 1024 3 48 48 (7077888)
I0409 09:42:01.943444 18046 net.cpp:157] Top shape: 1024 (1024)
I0409 09:42:01.943446 18046 net.cpp:165] Memory required for data: 28315648
I0409 09:42:01.943454 18046 layer_factory.hpp:77] Creating layer label_data_1_split
I0409 09:42:01.943470 18046 net.cpp:100] Creating Layer label_data_1_split
I0409 09:42:01.943475 18046 net.cpp:434] label_data_1_split <- label
I0409 09:42:01.943483 18046 net.cpp:408] label_data_1_split -> label_data_1_split_0
I0409 09:42:01.943495 18046 net.cpp:408] label_data_1_split -> label_data_1_split_1
I0409 09:42:01.943503 18046 net.cpp:408] label_data_1_split -> label_data_1_split_2
I0409 09:42:01.943681 18046 net.cpp:150] Setting up label_data_1_split
I0409 09:42:01.943693 18046 net.cpp:157] Top shape: 1024 (1024)
I0409 09:42:01.943698 18046 net.cpp:157] Top shape: 1024 (1024)
I0409 09:42:01.943702 18046 net.cpp:157] Top shape: 1024 (1024)
I0409 09:42:01.943706 18046 net.cpp:165] Memory required for data: 28327936
I0409 09:42:01.943709 18046 layer_factory.hpp:77] Creating layer conv1
I0409 09:42:01.943723 18046 net.cpp:100] Creating Layer conv1
I0409 09:42:01.943729 18046 net.cpp:434] conv1 <- data
I0409 09:42:01.943737 18046 net.cpp:408] conv1 -> conv1
I0409 09:42:01.945952 18046 net.cpp:150] Setting up conv1
I0409 09:42:01.945972 18046 net.cpp:157] Top shape: 1024 100 42 42 (180633600)
I0409 09:42:01.945977 18046 net.cpp:165] Memory required for data: 750862336
I0409 09:42:01.945993 18046 layer_factory.hpp:77] Creating layer conv1_relu
I0409 09:42:01.946003 18046 net.cpp:100] Creating Layer conv1_relu
I0409 09:42:01.946007 18046 net.cpp:434] conv1_relu <- conv1
I0409 09:42:01.946013 18046 net.cpp:395] conv1_relu -> conv1 (in-place)
I0409 09:42:01.948473 18046 net.cpp:150] Setting up conv1_relu
I0409 09:42:01.948500 18046 net.cpp:157] Top shape: 1024 100 42 42 (180633600)
I0409 09:42:01.948505 18046 net.cpp:165] Memory required for data: 1473396736
I0409 09:42:01.948510 18046 layer_factory.hpp:77] Creating layer pool1
I0409 09:42:01.948523 18046 net.cpp:100] Creating Layer pool1
I0409 09:42:01.948526 18046 net.cpp:434] pool1 <- conv1
I0409 09:42:01.948536 18046 net.cpp:408] pool1 -> pool1
I0409 09:42:01.948601 18046 net.cpp:150] Setting up pool1
I0409 09:42:01.948613 18046 net.cpp:157] Top shape: 1024 100 21 21 (45158400)
I0409 09:42:01.948621 18046 net.cpp:165] Memory required for data: 1654030336
I0409 09:42:01.948624 18046 layer_factory.hpp:77] Creating layer conv2
I0409 09:42:01.948635 18046 net.cpp:100] Creating Layer conv2
I0409 09:42:01.948642 18046 net.cpp:434] conv2 <- pool1
I0409 09:42:01.948648 18046 net.cpp:408] conv2 -> conv2
I0409 09:42:01.955940 18046 net.cpp:150] Setting up conv2
I0409 09:42:01.955963 18046 net.cpp:157] Top shape: 1024 150 18 18 (49766400)
I0409 09:42:01.955970 18046 net.cpp:165] Memory required for data: 1853095936
I0409 09:42:01.955984 18046 layer_factory.hpp:77] Creating layer conv2_relu
I0409 09:42:01.955993 18046 net.cpp:100] Creating Layer conv2_relu
I0409 09:42:01.955998 18046 net.cpp:434] conv2_relu <- conv2
I0409 09:42:01.956004 18046 net.cpp:395] conv2_relu -> conv2 (in-place)
I0409 09:42:01.957679 18046 net.cpp:150] Setting up conv2_relu
I0409 09:42:01.957698 18046 net.cpp:157] Top shape: 1024 150 18 18 (49766400)
I0409 09:42:01.957702 18046 net.cpp:165] Memory required for data: 2052161536
I0409 09:42:01.957707 18046 layer_factory.hpp:77] Creating layer pool2
I0409 09:42:01.957715 18046 net.cpp:100] Creating Layer pool2
I0409 09:42:01.957720 18046 net.cpp:434] pool2 <- conv2
I0409 09:42:01.957729 18046 net.cpp:408] pool2 -> pool2
I0409 09:42:01.957793 18046 net.cpp:150] Setting up pool2
I0409 09:42:01.957808 18046 net.cpp:157] Top shape: 1024 150 9 9 (12441600)
I0409 09:42:01.957813 18046 net.cpp:165] Memory required for data: 2101927936
I0409 09:42:01.957816 18046 layer_factory.hpp:77] Creating layer conv3
I0409 09:42:01.957831 18046 net.cpp:100] Creating Layer conv3
I0409 09:42:01.957837 18046 net.cpp:434] conv3 <- pool2
I0409 09:42:01.957845 18046 net.cpp:408] conv3 -> conv3
I0409 09:42:01.964730 18046 net.cpp:150] Setting up conv3
I0409 09:42:01.964751 18046 net.cpp:157] Top shape: 1024 250 6 6 (9216000)
I0409 09:42:01.964756 18046 net.cpp:165] Memory required for data: 2138791936
I0409 09:42:01.964768 18046 layer_factory.hpp:77] Creating layer conv3_relu
I0409 09:42:01.964776 18046 net.cpp:100] Creating Layer conv3_relu
I0409 09:42:01.964781 18046 net.cpp:434] conv3_relu <- conv3
I0409 09:42:01.964790 18046 net.cpp:395] conv3_relu -> conv3 (in-place)
I0409 09:42:01.967427 18046 net.cpp:150] Setting up conv3_relu
I0409 09:42:01.967447 18046 net.cpp:157] Top shape: 1024 250 6 6 (9216000)
I0409 09:42:01.967452 18046 net.cpp:165] Memory required for data: 2175655936
I0409 09:42:01.967474 18046 layer_factory.hpp:77] Creating layer pool3
I0409 09:42:01.967499 18046 net.cpp:100] Creating Layer pool3
I0409 09:42:01.967504 18046 net.cpp:434] pool3 <- conv3
I0409 09:42:01.967510 18046 net.cpp:408] pool3 -> pool3
I0409 09:42:01.967577 18046 net.cpp:150] Setting up pool3
I0409 09:42:01.967587 18046 net.cpp:157] Top shape: 1024 250 3 3 (2304000)
I0409 09:42:01.967595 18046 net.cpp:165] Memory required for data: 2184871936
I0409 09:42:01.967599 18046 layer_factory.hpp:77] Creating layer fc4_300
I0409 09:42:01.967607 18046 net.cpp:100] Creating Layer fc4_300
I0409 09:42:01.967612 18046 net.cpp:434] fc4_300 <- pool3
I0409 09:42:01.967620 18046 net.cpp:408] fc4_300 -> fc4_300
I0409 09:42:01.974356 18046 net.cpp:150] Setting up fc4_300
I0409 09:42:01.974375 18046 net.cpp:157] Top shape: 1024 300 (307200)
I0409 09:42:01.974380 18046 net.cpp:165] Memory required for data: 2186100736
I0409 09:42:01.974390 18046 layer_factory.hpp:77] Creating layer fc4_relu
I0409 09:42:01.974398 18046 net.cpp:100] Creating Layer fc4_relu
I0409 09:42:01.974405 18046 net.cpp:434] fc4_relu <- fc4_300
I0409 09:42:01.974411 18046 net.cpp:395] fc4_relu -> fc4_300 (in-place)
I0409 09:42:01.974653 18046 net.cpp:150] Setting up fc4_relu
I0409 09:42:01.974665 18046 net.cpp:157] Top shape: 1024 300 (307200)
I0409 09:42:01.974669 18046 net.cpp:165] Memory required for data: 2187329536
I0409 09:42:01.974673 18046 layer_factory.hpp:77] Creating layer drop4
I0409 09:42:01.974684 18046 net.cpp:100] Creating Layer drop4
I0409 09:42:01.974692 18046 net.cpp:434] drop4 <- fc4_300
I0409 09:42:01.974699 18046 net.cpp:395] drop4 -> fc4_300 (in-place)
I0409 09:42:01.974737 18046 net.cpp:150] Setting up drop4
I0409 09:42:01.974750 18046 net.cpp:157] Top shape: 1024 300 (307200)
I0409 09:42:01.974755 18046 net.cpp:165] Memory required for data: 2188558336
I0409 09:42:01.974757 18046 layer_factory.hpp:77] Creating layer fc5_67
I0409 09:42:01.974766 18046 net.cpp:100] Creating Layer fc5_67
I0409 09:42:01.974768 18046 net.cpp:434] fc5_67 <- fc4_300
I0409 09:42:01.974776 18046 net.cpp:408] fc5_67 -> fc5_classes
I0409 09:42:01.975087 18046 net.cpp:150] Setting up fc5_67
I0409 09:42:01.975097 18046 net.cpp:157] Top shape: 1024 67 (68608)
I0409 09:42:01.975101 18046 net.cpp:165] Memory required for data: 2188832768
I0409 09:42:01.975112 18046 layer_factory.hpp:77] Creating layer fc5_classes_fc5_67_0_split
I0409 09:42:01.975123 18046 net.cpp:100] Creating Layer fc5_classes_fc5_67_0_split
I0409 09:42:01.975128 18046 net.cpp:434] fc5_classes_fc5_67_0_split <- fc5_classes
I0409 09:42:01.975136 18046 net.cpp:408] fc5_classes_fc5_67_0_split -> fc5_classes_fc5_67_0_split_0
I0409 09:42:01.975144 18046 net.cpp:408] fc5_classes_fc5_67_0_split -> fc5_classes_fc5_67_0_split_1
I0409 09:42:01.975153 18046 net.cpp:408] fc5_classes_fc5_67_0_split -> fc5_classes_fc5_67_0_split_2
I0409 09:42:01.975216 18046 net.cpp:150] Setting up fc5_classes_fc5_67_0_split
I0409 09:42:01.975225 18046 net.cpp:157] Top shape: 1024 67 (68608)
I0409 09:42:01.975229 18046 net.cpp:157] Top shape: 1024 67 (68608)
I0409 09:42:01.975234 18046 net.cpp:157] Top shape: 1024 67 (68608)
I0409 09:42:01.975237 18046 net.cpp:165] Memory required for data: 2189656064
I0409 09:42:01.975241 18046 layer_factory.hpp:77] Creating layer loss
I0409 09:42:01.975250 18046 net.cpp:100] Creating Layer loss
I0409 09:42:01.975256 18046 net.cpp:434] loss <- fc5_classes_fc5_67_0_split_0
I0409 09:42:01.975261 18046 net.cpp:434] loss <- label_data_1_split_0
I0409 09:42:01.975267 18046 net.cpp:408] loss -> loss
…
