…
I0411 01:47:50.422570   842 net.cpp:322] The NetState phase (0) differed from the phase (1) specified by a rule in layer accuracy_5
I0411 01:47:50.422749   842 net.cpp:58] Initializing net from parameters: 
state {
  phase: TRAIN
  level: 0
  stage: ""
}
layer {
  name: "data"
  type: "Data"
  top: "data"
  top: "label"
  include {
    phase: TRAIN
  }
  transform_param {
    scale: 0.0039215689
    mirror: false
    crop_size: 48
    mean_value: 132
    mean_value: 132
    mean_value: 131
  }
  data_param {
    source: "../local_data/lmdb/rtsd-r1/CoNorm/train/lmdb"
    batch_size: 1024
    backend: LMDB
  }
}
layer {
  name: "conv1"
  type: "Convolution"
  bottom: "data"
  top: "conv1"
  convolution_param {
    num_output: 100
    pad: 0
    kernel_size: 7
    group: 1
    stride: 1
    weight_filler {
      type: "xavier"
    }
  }
}
layer {
  name: "conv1_prescale"
  type: "Scale"
  bottom: "conv1"
  top: "conv1"
  param {
    lr_mult: 0
    decay_mult: 0
  }
  scale_param {
    filler {
      value: 0.6666
    }
    bias_term: false
  }
}
layer {
  name: "conv1_sTanH"
  type: "TanH"
  bottom: "conv1"
  top: "conv1"
}
layer {
  name: "conv1_postscale"
  type: "Scale"
  bottom: "conv1"
  top: "conv1"
  param {
    lr_mult: 0
    decay_mult: 0
  }
  scale_param {
    filler {
      value: 1.7159
    }
    bias_term: false
  }
}
layer {
  name: "pool1"
  type: "Pooling"
  bottom: "conv1"
  top: "pool1"
  pooling_param {
    pool: MAX
    kernel_size: 2
    stride: 2
  }
}
layer {
  name: "conv2"
  type: "Convolution"
  bottom: "pool1"
  top: "conv2"
  convolution_param {
    num_output: 150
    pad: 0
    kernel_size: 4
    group: 1
    stride: 1
    weight_filler {
      type: "xavier"
    }
  }
}
layer {
  name: "conv2_prescale"
  type: "Scale"
  bottom: "conv2"
  top: "conv2"
  param {
    lr_mult: 0
    decay_mult: 0
  }
  scale_param {
    filler {
      value: 0.6666
    }
    bias_term: false
  }
}
layer {
  name: "conv2_sTanH"
  type: "TanH"
  bottom: "conv2"
  top: "conv2"
}
layer {
  name: "conv2_postscale"
  type: "Scale"
  bottom: "conv2"
  top: "conv2"
  param {
    lr_mult: 0
    decay_mult: 0
  }
  scale_param {
    filler {
      value: 1.7159
    }
    bias_term: false
  }
}
layer {
  name: "pool2"
  type: "Pooling"
  bottom: "conv2"
  top: "pool2"
  pooling_param {
    pool: MAX
    kernel_size: 2
    stride: 2
  }
}
layer {
  name: "conv3"
  type: "Convolution"
  bottom: "pool2"
  top: "conv3"
  convolution_param {
    num_output: 250
    pad: 0
    kernel_size: 4
    group: 1
    stride: 1
    weight_filler {
      type: "xavier"
    }
  }
}
layer {
  name: "conv3_prescale"
  type: "Scale"
  bottom: "conv3"
  top: "conv3"
  param {
    lr_mult: 0
    decay_mult: 0
  }
  scale_param {
    filler {
      value: 0.6666
    }
    bias_term: false
  }
}
layer {
  name: "conv3_sTanH"
  type: "TanH"
  bottom: "conv3"
  top: "conv3"
}
layer {
  name: "conv3_postscale"
  type: "Scale"
  bottom: "conv3"
  top: "conv3"
  param {
    lr_mult: 0
    decay_mult: 0
  }
  scale_param {
    filler {
      value: 1.7159
    }
    bias_term: false
  }
}
layer {
  name: "pool3"
  type: "Pooling"
  bottom: "conv3"
  top: "pool3"
  pooling_param {
    pool: MAX
    kernel_size: 2
    stride: 2
  }
}
layer {
  name: "fc4_300"
  type: "InnerProduct"
  bottom: "pool3"
  top: "fc4_300"
  inner_product_param {
    num_output: 300
    weight_filler {
      type: "xavier"
    }
  }
}
layer {
  name: "fc4_prescale"
  type: "Scale"
  bottom: "fc4_300"
  top: "fc4_300"
  param {
    lr_mult: 0
    decay_mult: 0
  }
  scale_param {
    filler {
      value: 0.6666
    }
    bias_term: false
  }
}
layer {
  name: "fc4_sTanH"
  type: "TanH"
  bottom: "fc4_300"
  top: "fc4_300"
}
layer {
  name: "fc4_postscale"
  type: "Scale"
  bottom: "fc4_300"
  top: "fc4_300"
  param {
    lr_mult: 0
    decay_mult: 0
  }
  scale_param {
    filler {
      value: 1.7159
    }
    bias_term: false
  }
}
layer {
  name: "fc5_67"
  type: "InnerProduct"
  bottom: "fc4_300"
  top: "fc5_classes"
  inner_product_param {
    num_output: 67
    weight_filler {
      type: "xavier"
    }
  }
}
layer {
  name: "loss"
  type: "SoftmaxWithLoss"
  bottom: "fc5_classes"
  bottom: "label"
  top: "loss"
}
I0411 01:47:50.422878   842 layer_factory.hpp:77] Creating layer data
I0411 01:47:50.424167   842 net.cpp:100] Creating Layer data
I0411 01:47:50.424186   842 net.cpp:408] data -> data
I0411 01:47:50.424214   842 net.cpp:408] data -> label
I0411 01:47:50.427969   955 db_lmdb.cpp:35] Opened lmdb ../local_data/lmdb/rtsd-r1/CoNorm/train/lmdb
I0411 01:47:50.449021   842 data_layer.cpp:41] output data size: 1024,3,48,48
I0411 01:47:50.515965   842 net.cpp:150] Setting up data
I0411 01:47:50.516001   842 net.cpp:157] Top shape: 1024 3 48 48 (7077888)
I0411 01:47:50.516008   842 net.cpp:157] Top shape: 1024 (1024)
I0411 01:47:50.516011   842 net.cpp:165] Memory required for data: 28315648
I0411 01:47:50.516022   842 layer_factory.hpp:77] Creating layer conv1
I0411 01:47:50.516047   842 net.cpp:100] Creating Layer conv1
I0411 01:47:50.516057   842 net.cpp:434] conv1 <- data
I0411 01:47:50.516070   842 net.cpp:408] conv1 -> conv1
I0411 01:47:50.872458   842 net.cpp:150] Setting up conv1
I0411 01:47:50.872493   842 net.cpp:157] Top shape: 1024 100 42 42 (180633600)
I0411 01:47:50.872498   842 net.cpp:165] Memory required for data: 750850048
I0411 01:47:50.872524   842 layer_factory.hpp:77] Creating layer conv1_prescale
I0411 01:47:50.872544   842 net.cpp:100] Creating Layer conv1_prescale
I0411 01:47:50.872550   842 net.cpp:434] conv1_prescale <- conv1
I0411 01:47:50.872558   842 net.cpp:395] conv1_prescale -> conv1 (in-place)
I0411 01:47:50.872689   842 net.cpp:150] Setting up conv1_prescale
I0411 01:47:50.872700   842 net.cpp:157] Top shape: 1024 100 42 42 (180633600)
I0411 01:47:50.872705   842 net.cpp:165] Memory required for data: 1473384448
I0411 01:47:50.872714   842 layer_factory.hpp:77] Creating layer conv1_sTanH
I0411 01:47:50.872721   842 net.cpp:100] Creating Layer conv1_sTanH
I0411 01:47:50.872726   842 net.cpp:434] conv1_sTanH <- conv1
I0411 01:47:50.872732   842 net.cpp:395] conv1_sTanH -> conv1 (in-place)
I0411 01:47:50.872969   842 net.cpp:150] Setting up conv1_sTanH
I0411 01:47:50.872983   842 net.cpp:157] Top shape: 1024 100 42 42 (180633600)
I0411 01:47:50.872988   842 net.cpp:165] Memory required for data: 2195918848
I0411 01:47:50.872992   842 layer_factory.hpp:77] Creating layer conv1_postscale
I0411 01:47:50.873003   842 net.cpp:100] Creating Layer conv1_postscale
I0411 01:47:50.873008   842 net.cpp:434] conv1_postscale <- conv1
I0411 01:47:50.873013   842 net.cpp:395] conv1_postscale -> conv1 (in-place)
I0411 01:47:50.873131   842 net.cpp:150] Setting up conv1_postscale
I0411 01:47:50.873142   842 net.cpp:157] Top shape: 1024 100 42 42 (180633600)
I0411 01:47:50.873147   842 net.cpp:165] Memory required for data: 2918453248
I0411 01:47:50.873152   842 layer_factory.hpp:77] Creating layer pool1
I0411 01:47:50.873160   842 net.cpp:100] Creating Layer pool1
I0411 01:47:50.873164   842 net.cpp:434] pool1 <- conv1
I0411 01:47:50.873170   842 net.cpp:408] pool1 -> pool1
I0411 01:47:50.873226   842 net.cpp:150] Setting up pool1
I0411 01:47:50.873235   842 net.cpp:157] Top shape: 1024 100 21 21 (45158400)
I0411 01:47:50.873267   842 net.cpp:165] Memory required for data: 3099086848
I0411 01:47:50.873272   842 layer_factory.hpp:77] Creating layer conv2
I0411 01:47:50.873284   842 net.cpp:100] Creating Layer conv2
I0411 01:47:50.873289   842 net.cpp:434] conv2 <- pool1
I0411 01:47:50.873296   842 net.cpp:408] conv2 -> conv2
I0411 01:47:50.878521   842 net.cpp:150] Setting up conv2
I0411 01:47:50.878543   842 net.cpp:157] Top shape: 1024 150 18 18 (49766400)
I0411 01:47:50.878548   842 net.cpp:165] Memory required for data: 3298152448
I0411 01:47:50.878561   842 layer_factory.hpp:77] Creating layer conv2_prescale
I0411 01:47:50.878569   842 net.cpp:100] Creating Layer conv2_prescale
I0411 01:47:50.878573   842 net.cpp:434] conv2_prescale <- conv2
I0411 01:47:50.878581   842 net.cpp:395] conv2_prescale -> conv2 (in-place)
I0411 01:47:50.878716   842 net.cpp:150] Setting up conv2_prescale
I0411 01:47:50.878727   842 net.cpp:157] Top shape: 1024 150 18 18 (49766400)
I0411 01:47:50.878731   842 net.cpp:165] Memory required for data: 3497218048
I0411 01:47:50.878736   842 layer_factory.hpp:77] Creating layer conv2_sTanH
I0411 01:47:50.878744   842 net.cpp:100] Creating Layer conv2_sTanH
I0411 01:47:50.878747   842 net.cpp:434] conv2_sTanH <- conv2
I0411 01:47:50.878753   842 net.cpp:395] conv2_sTanH -> conv2 (in-place)
I0411 01:47:50.879639   842 net.cpp:150] Setting up conv2_sTanH
I0411 01:47:50.879657   842 net.cpp:157] Top shape: 1024 150 18 18 (49766400)
I0411 01:47:50.879662   842 net.cpp:165] Memory required for data: 3696283648
I0411 01:47:50.879667   842 layer_factory.hpp:77] Creating layer conv2_postscale
I0411 01:47:50.879675   842 net.cpp:100] Creating Layer conv2_postscale
I0411 01:47:50.879679   842 net.cpp:434] conv2_postscale <- conv2
I0411 01:47:50.879686   842 net.cpp:395] conv2_postscale -> conv2 (in-place)
I0411 01:47:50.879801   842 net.cpp:150] Setting up conv2_postscale
I0411 01:47:50.879811   842 net.cpp:157] Top shape: 1024 150 18 18 (49766400)
I0411 01:47:50.879813   842 net.cpp:165] Memory required for data: 3895349248
I0411 01:47:50.879819   842 layer_factory.hpp:77] Creating layer pool2
I0411 01:47:50.879827   842 net.cpp:100] Creating Layer pool2
I0411 01:47:50.879830   842 net.cpp:434] pool2 <- conv2
I0411 01:47:50.879835   842 net.cpp:408] pool2 -> pool2
I0411 01:47:50.879892   842 net.cpp:150] Setting up pool2
I0411 01:47:50.879904   842 net.cpp:157] Top shape: 1024 150 9 9 (12441600)
I0411 01:47:50.879909   842 net.cpp:165] Memory required for data: 3945115648
I0411 01:47:50.879911   842 layer_factory.hpp:77] Creating layer conv3
I0411 01:47:50.879921   842 net.cpp:100] Creating Layer conv3
I0411 01:47:50.879925   842 net.cpp:434] conv3 <- pool2
I0411 01:47:50.879931   842 net.cpp:408] conv3 -> conv3
I0411 01:47:50.886675   842 net.cpp:150] Setting up conv3
I0411 01:47:50.886698   842 net.cpp:157] Top shape: 1024 250 6 6 (9216000)
I0411 01:47:50.886701   842 net.cpp:165] Memory required for data: 3981979648
I0411 01:47:50.886713   842 layer_factory.hpp:77] Creating layer conv3_prescale
I0411 01:47:50.886725   842 net.cpp:100] Creating Layer conv3_prescale
I0411 01:47:50.886731   842 net.cpp:434] conv3_prescale <- conv3
I0411 01:47:50.886737   842 net.cpp:395] conv3_prescale -> conv3 (in-place)
I0411 01:47:50.886852   842 net.cpp:150] Setting up conv3_prescale
I0411 01:47:50.886862   842 net.cpp:157] Top shape: 1024 250 6 6 (9216000)
I0411 01:47:50.886865   842 net.cpp:165] Memory required for data: 4018843648
I0411 01:47:50.886871   842 layer_factory.hpp:77] Creating layer conv3_sTanH
I0411 01:47:50.886878   842 net.cpp:100] Creating Layer conv3_sTanH
I0411 01:47:50.886883   842 net.cpp:434] conv3_sTanH <- conv3
I0411 01:47:50.886888   842 net.cpp:395] conv3_sTanH -> conv3 (in-place)
I0411 01:47:50.887792   842 net.cpp:150] Setting up conv3_sTanH
I0411 01:47:50.887809   842 net.cpp:157] Top shape: 1024 250 6 6 (9216000)
I0411 01:47:50.887814   842 net.cpp:165] Memory required for data: 4055707648
I0411 01:47:50.887818   842 layer_factory.hpp:77] Creating layer conv3_postscale
I0411 01:47:50.887845   842 net.cpp:100] Creating Layer conv3_postscale
I0411 01:47:50.887850   842 net.cpp:434] conv3_postscale <- conv3
I0411 01:47:50.887857   842 net.cpp:395] conv3_postscale -> conv3 (in-place)
I0411 01:47:50.887989   842 net.cpp:150] Setting up conv3_postscale
I0411 01:47:50.888000   842 net.cpp:157] Top shape: 1024 250 6 6 (9216000)
I0411 01:47:50.888005   842 net.cpp:165] Memory required for data: 4092571648
I0411 01:47:50.888010   842 layer_factory.hpp:77] Creating layer pool3
I0411 01:47:50.888020   842 net.cpp:100] Creating Layer pool3
I0411 01:47:50.888022   842 net.cpp:434] pool3 <- conv3
I0411 01:47:50.888028   842 net.cpp:408] pool3 -> pool3
I0411 01:47:50.888077   842 net.cpp:150] Setting up pool3
I0411 01:47:50.888085   842 net.cpp:157] Top shape: 1024 250 3 3 (2304000)
I0411 01:47:50.888088   842 net.cpp:165] Memory required for data: 4101787648
I0411 01:47:50.888092   842 layer_factory.hpp:77] Creating layer fc4_300
I0411 01:47:50.888101   842 net.cpp:100] Creating Layer fc4_300
I0411 01:47:50.888108   842 net.cpp:434] fc4_300 <- pool3
I0411 01:47:50.888113   842 net.cpp:408] fc4_300 -> fc4_300
I0411 01:47:50.894681   842 net.cpp:150] Setting up fc4_300
I0411 01:47:50.894701   842 net.cpp:157] Top shape: 1024 300 (307200)
I0411 01:47:50.894704   842 net.cpp:165] Memory required for data: 4103016448
I0411 01:47:50.894716   842 layer_factory.hpp:77] Creating layer fc4_prescale
I0411 01:47:50.894723   842 net.cpp:100] Creating Layer fc4_prescale
I0411 01:47:50.894727   842 net.cpp:434] fc4_prescale <- fc4_300
I0411 01:47:50.894734   842 net.cpp:395] fc4_prescale -> fc4_300 (in-place)
I0411 01:47:50.894842   842 net.cpp:150] Setting up fc4_prescale
I0411 01:47:50.894851   842 net.cpp:157] Top shape: 1024 300 (307200)
I0411 01:47:50.894855   842 net.cpp:165] Memory required for data: 4104245248
I0411 01:47:50.894861   842 layer_factory.hpp:77] Creating layer fc4_sTanH
I0411 01:47:50.894866   842 net.cpp:100] Creating Layer fc4_sTanH
I0411 01:47:50.894872   842 net.cpp:434] fc4_sTanH <- fc4_300
I0411 01:47:50.894877   842 net.cpp:395] fc4_sTanH -> fc4_300 (in-place)
I0411 01:47:50.895102   842 net.cpp:150] Setting up fc4_sTanH
I0411 01:47:50.895113   842 net.cpp:157] Top shape: 1024 300 (307200)
I0411 01:47:50.895117   842 net.cpp:165] Memory required for data: 4105474048
I0411 01:47:50.895122   842 layer_factory.hpp:77] Creating layer fc4_postscale
I0411 01:47:50.895129   842 net.cpp:100] Creating Layer fc4_postscale
I0411 01:47:50.895134   842 net.cpp:434] fc4_postscale <- fc4_300
I0411 01:47:50.895140   842 net.cpp:395] fc4_postscale -> fc4_300 (in-place)
I0411 01:47:50.895253   842 net.cpp:150] Setting up fc4_postscale
I0411 01:47:50.895262   842 net.cpp:157] Top shape: 1024 300 (307200)
I0411 01:47:50.895265   842 net.cpp:165] Memory required for data: 4106702848
I0411 01:47:50.895272   842 layer_factory.hpp:77] Creating layer fc5_67
I0411 01:47:50.895278   842 net.cpp:100] Creating Layer fc5_67
I0411 01:47:50.895283   842 net.cpp:434] fc5_67 <- fc4_300
I0411 01:47:50.895289   842 net.cpp:408] fc5_67 -> fc5_classes
I0411 01:47:50.896723   842 net.cpp:150] Setting up fc5_67
I0411 01:47:50.896741   842 net.cpp:157] Top shape: 1024 67 (68608)
I0411 01:47:50.896745   842 net.cpp:165] Memory required for data: 4106977280
I0411 01:47:50.896757   842 layer_factory.hpp:77] Creating layer loss
I0411 01:47:50.896765   842 net.cpp:100] Creating Layer loss
I0411 01:47:50.896770   842 net.cpp:434] loss <- fc5_classes
I0411 01:47:50.896775   842 net.cpp:434] loss <- label
I0411 01:47:50.896781   842 net.cpp:408] loss -> loss
I0411 01:47:50.896797   842 layer_factory.hpp:77] Creating layer loss
…
I0411 01:47:50.897686   842 solver.cpp:193] Creating test net (#0) specified by test_net file: ./Prototxt/experiment_8/rtsd-r1/CoNorm/trial_2/test.prototxt
I0411 01:47:50.897905   842 net.cpp:58] Initializing net from parameters: 
state {
  phase: TEST
}
layer {
  name: "data"
  type: "Data"
  top: "data"
  top: "label"
  include {
    phase: TEST
  }
  transform_param {
    scale: 0.0039215689
    mirror: false
    crop_size: 48
    mean_value: 133
    mean_value: 133
    mean_value: 132
  }
  data_param {
    source: "../local_data/lmdb/rtsd-r1/CoNorm/test/lmdb"
    batch_size: 1024
    backend: LMDB
  }
}
layer {
  name: "conv1"
  type: "Convolution"
  bottom: "data"
  top: "conv1"
  convolution_param {
    num_output: 100
    pad: 0
    kernel_size: 7
    group: 1
    stride: 1
    weight_filler {
      type: "xavier"
    }
  }
}
layer {
  name: "conv1_prescale"
  type: "Scale"
  bottom: "conv1"
  top: "conv1"
  param {
    lr_mult: 0
    decay_mult: 0
  }
  scale_param {
    filler {
      value: 0.6666
    }
    bias_term: false
  }
}
layer {
  name: "conv1_sTanH"
  type: "TanH"
  bottom: "conv1"
  top: "conv1"
}
layer {
  name: "conv1_postscale"
  type: "Scale"
  bottom: "conv1"
  top: "conv1"
  param {
    lr_mult: 0
    decay_mult: 0
  }
  scale_param {
    filler {
      value: 1.7159
    }
    bias_term: false
  }
}
layer {
  name: "pool1"
  type: "Pooling"
  bottom: "conv1"
  top: "pool1"
  pooling_param {
    pool: MAX
    kernel_size: 2
    stride: 2
  }
}
layer {
  name: "conv2"
  type: "Convolution"
  bottom: "pool1"
  top: "conv2"
  convolution_param {
    num_output: 150
    pad: 0
    kernel_size: 4
    group: 1
    stride: 1
    weight_filler {
      type: "xavier"
    }
  }
}
layer {
  name: "conv2_prescale"
  type: "Scale"
  bottom: "conv2"
  top: "conv2"
  param {
    lr_mult: 0
    decay_mult: 0
  }
  scale_param {
    filler {
      value: 0.6666
    }
    bias_term: false
  }
}
layer {
  name: "conv2_sTanH"
  type: "TanH"
  bottom: "conv2"
  top: "conv2"
}
layer {
  name: "conv2_postscale"
  type: "Scale"
  bottom: "conv2"
  top: "conv2"
  param {
    lr_mult: 0
    decay_mult: 0
  }
  scale_param {
    filler {
      value: 1.7159
    }
    bias_term: false
  }
}
layer {
  name: "pool2"
  type: "Pooling"
  bottom: "conv2"
  top: "pool2"
  pooling_param {
    pool: MAX
    kernel_size: 2
    stride: 2
  }
}
layer {
  name: "conv3"
  type: "Convolution"
  bottom: "pool2"
  top: "conv3"
  convolution_param {
    num_output: 250
    pad: 0
    kernel_size: 4
    group: 1
    stride: 1
    weight_filler {
      type: "xavier"
    }
  }
}
layer {
  name: "conv3_prescale"
  type: "Scale"
  bottom: "conv3"
  top: "conv3"
  param {
    lr_mult: 0
    decay_mult: 0
  }
  scale_param {
    filler {
      value: 0.6666
    }
    bias_term: false
  }
}
layer {
  name: "conv3_sTanH"
  type: "TanH"
  bottom: "conv3"
  top: "conv3"
}
layer {
  name: "conv3_postscale"
  type: "Scale"
  bottom: "conv3"
  top: "conv3"
  param {
    lr_mult: 0
    decay_mult: 0
  }
  scale_param {
    filler {
      value: 1.7159
    }
    bias_term: false
  }
}
layer {
  name: "pool3"
  type: "Pooling"
  bottom: "conv3"
  top: "pool3"
  pooling_param {
    pool: MAX
    kernel_size: 2
    stride: 2
  }
}
layer {
  name: "fc4_300"
  type: "InnerProduct"
  bottom: "pool3"
  top: "fc4_300"
  inner_product_param {
    num_output: 300
    weight_filler {
      type: "xavier"
    }
  }
}
layer {
  name: "fc4_prescale"
  type: "Scale"
  bottom: "fc4_300"
  top: "fc4_300"
  param {
    lr_mult: 0
    decay_mult: 0
  }
  scale_param {
    filler {
      value: 0.6666
    }
    bias_term: false
  }
}
layer {
  name: "fc4_sTanH"
  type: "TanH"
  bottom: "fc4_300"
  top: "fc4_300"
}
layer {
  name: "fc4_postscale"
  type: "Scale"
  bottom: "fc4_300"
  top: "fc4_300"
  param {
    lr_mult: 0
    decay_mult: 0
  }
  scale_param {
    filler {
      value: 1.7159
    }
    bias_term: false
  }
}
layer {
  name: "fc5_67"
  type: "InnerProduct"
  bottom: "fc4_300"
  top: "fc5_classes"
  inner_product_param {
    num_output: 67
    weight_filler {
      type: "xavier"
    }
  }
}
layer {
  name: "loss"
  type: "SoftmaxWithLoss"
  bottom: "fc5_classes"
  bottom: "label"
  top: "loss"
}
layer {
  name: "accuracy_1"
  type: "Accuracy"
  bottom: "fc5_classes"
  bottom: "label"
  top: "accuracy_1"
  include {
    phase: TEST
  }
  accuracy_param {
    top_k: 1
  }
}
layer {
  name: "accuracy_5"
  type: "Accuracy"
  bottom: "fc5_classes"
  bottom: "label"
  top: "accuracy_5"
  include {
    phase: TEST
  }
  accuracy_param {
    top_k: 5
  }
}
I0411 01:47:50.898035   842 layer_factory.hpp:77] Creating layer data
I0411 01:47:50.898736   842 net.cpp:100] Creating Layer data
I0411 01:47:50.898749   842 net.cpp:408] data -> data
I0411 01:47:50.898761   842 net.cpp:408] data -> label
I0411 01:47:50.899993  1006 db_lmdb.cpp:35] Opened lmdb ../local_data/lmdb/rtsd-r1/CoNorm/test/lmdb
I0411 01:47:50.900158   842 data_layer.cpp:41] output data size: 1024,3,48,48
I0411 01:47:50.949205   842 net.cpp:150] Setting up data
I0411 01:47:50.949234   842 net.cpp:157] Top shape: 1024 3 48 48 (7077888)
I0411 01:47:50.949241   842 net.cpp:157] Top shape: 1024 (1024)
I0411 01:47:50.949244   842 net.cpp:165] Memory required for data: 28315648
I0411 01:47:50.949252   842 layer_factory.hpp:77] Creating layer label_data_1_split
I0411 01:47:50.949267   842 net.cpp:100] Creating Layer label_data_1_split
I0411 01:47:50.949272   842 net.cpp:434] label_data_1_split <- label
I0411 01:47:50.949280   842 net.cpp:408] label_data_1_split -> label_data_1_split_0
I0411 01:47:50.949292   842 net.cpp:408] label_data_1_split -> label_data_1_split_1
I0411 01:47:50.949300   842 net.cpp:408] label_data_1_split -> label_data_1_split_2
I0411 01:47:50.949467   842 net.cpp:150] Setting up label_data_1_split
I0411 01:47:50.949478   842 net.cpp:157] Top shape: 1024 (1024)
I0411 01:47:50.949483   842 net.cpp:157] Top shape: 1024 (1024)
I0411 01:47:50.949487   842 net.cpp:157] Top shape: 1024 (1024)
I0411 01:47:50.949491   842 net.cpp:165] Memory required for data: 28327936
I0411 01:47:50.949494   842 layer_factory.hpp:77] Creating layer conv1
I0411 01:47:50.949509   842 net.cpp:100] Creating Layer conv1
I0411 01:47:50.949515   842 net.cpp:434] conv1 <- data
I0411 01:47:50.949522   842 net.cpp:408] conv1 -> conv1
I0411 01:47:50.952213   842 net.cpp:150] Setting up conv1
I0411 01:47:50.952234   842 net.cpp:157] Top shape: 1024 100 42 42 (180633600)
I0411 01:47:50.952257   842 net.cpp:165] Memory required for data: 750862336
I0411 01:47:50.952273   842 layer_factory.hpp:77] Creating layer conv1_prescale
I0411 01:47:50.952286   842 net.cpp:100] Creating Layer conv1_prescale
I0411 01:47:50.952291   842 net.cpp:434] conv1_prescale <- conv1
I0411 01:47:50.952298   842 net.cpp:395] conv1_prescale -> conv1 (in-place)
I0411 01:47:50.952425   842 net.cpp:150] Setting up conv1_prescale
I0411 01:47:50.952435   842 net.cpp:157] Top shape: 1024 100 42 42 (180633600)
I0411 01:47:50.952440   842 net.cpp:165] Memory required for data: 1473396736
I0411 01:47:50.952447   842 layer_factory.hpp:77] Creating layer conv1_sTanH
I0411 01:47:50.952458   842 net.cpp:100] Creating Layer conv1_sTanH
I0411 01:47:50.952463   842 net.cpp:434] conv1_sTanH <- conv1
I0411 01:47:50.952469   842 net.cpp:395] conv1_sTanH -> conv1 (in-place)
I0411 01:47:50.952704   842 net.cpp:150] Setting up conv1_sTanH
I0411 01:47:50.952716   842 net.cpp:157] Top shape: 1024 100 42 42 (180633600)
I0411 01:47:50.952723   842 net.cpp:165] Memory required for data: 2195931136
I0411 01:47:50.952728   842 layer_factory.hpp:77] Creating layer conv1_postscale
I0411 01:47:50.952735   842 net.cpp:100] Creating Layer conv1_postscale
I0411 01:47:50.952741   842 net.cpp:434] conv1_postscale <- conv1
I0411 01:47:50.952747   842 net.cpp:395] conv1_postscale -> conv1 (in-place)
I0411 01:47:50.952872   842 net.cpp:150] Setting up conv1_postscale
I0411 01:47:50.952883   842 net.cpp:157] Top shape: 1024 100 42 42 (180633600)
I0411 01:47:50.952886   842 net.cpp:165] Memory required for data: 2918465536
I0411 01:47:50.952893   842 layer_factory.hpp:77] Creating layer pool1
I0411 01:47:50.952900   842 net.cpp:100] Creating Layer pool1
I0411 01:47:50.952905   842 net.cpp:434] pool1 <- conv1
I0411 01:47:50.952911   842 net.cpp:408] pool1 -> pool1
I0411 01:47:50.952960   842 net.cpp:150] Setting up pool1
I0411 01:47:50.952970   842 net.cpp:157] Top shape: 1024 100 21 21 (45158400)
I0411 01:47:50.952972   842 net.cpp:165] Memory required for data: 3099099136
I0411 01:47:50.952976   842 layer_factory.hpp:77] Creating layer conv2
I0411 01:47:50.952986   842 net.cpp:100] Creating Layer conv2
I0411 01:47:50.952991   842 net.cpp:434] conv2 <- pool1
I0411 01:47:50.952997   842 net.cpp:408] conv2 -> conv2
I0411 01:47:50.960103   842 net.cpp:150] Setting up conv2
I0411 01:47:50.960129   842 net.cpp:157] Top shape: 1024 150 18 18 (49766400)
I0411 01:47:50.960132   842 net.cpp:165] Memory required for data: 3298164736
I0411 01:47:50.960149   842 layer_factory.hpp:77] Creating layer conv2_prescale
I0411 01:47:50.960166   842 net.cpp:100] Creating Layer conv2_prescale
I0411 01:47:50.960172   842 net.cpp:434] conv2_prescale <- conv2
I0411 01:47:50.960180   842 net.cpp:395] conv2_prescale -> conv2 (in-place)
I0411 01:47:50.960330   842 net.cpp:150] Setting up conv2_prescale
I0411 01:47:50.960340   842 net.cpp:157] Top shape: 1024 150 18 18 (49766400)
I0411 01:47:50.960345   842 net.cpp:165] Memory required for data: 3497230336
I0411 01:47:50.960350   842 layer_factory.hpp:77] Creating layer conv2_sTanH
I0411 01:47:50.960358   842 net.cpp:100] Creating Layer conv2_sTanH
I0411 01:47:50.960363   842 net.cpp:434] conv2_sTanH <- conv2
I0411 01:47:50.960369   842 net.cpp:395] conv2_sTanH -> conv2 (in-place)
I0411 01:47:50.961617   842 net.cpp:150] Setting up conv2_sTanH
I0411 01:47:50.961637   842 net.cpp:157] Top shape: 1024 150 18 18 (49766400)
I0411 01:47:50.961658   842 net.cpp:165] Memory required for data: 3696295936
I0411 01:47:50.961661   842 layer_factory.hpp:77] Creating layer conv2_postscale
I0411 01:47:50.961673   842 net.cpp:100] Creating Layer conv2_postscale
I0411 01:47:50.961678   842 net.cpp:434] conv2_postscale <- conv2
I0411 01:47:50.961685   842 net.cpp:395] conv2_postscale -> conv2 (in-place)
I0411 01:47:50.961815   842 net.cpp:150] Setting up conv2_postscale
I0411 01:47:50.961828   842 net.cpp:157] Top shape: 1024 150 18 18 (49766400)
I0411 01:47:50.961833   842 net.cpp:165] Memory required for data: 3895361536
I0411 01:47:50.961858   842 layer_factory.hpp:77] Creating layer pool2
I0411 01:47:50.961866   842 net.cpp:100] Creating Layer pool2
I0411 01:47:50.961869   842 net.cpp:434] pool2 <- conv2
I0411 01:47:50.961879   842 net.cpp:408] pool2 -> pool2
I0411 01:47:50.961956   842 net.cpp:150] Setting up pool2
I0411 01:47:50.961969   842 net.cpp:157] Top shape: 1024 150 9 9 (12441600)
I0411 01:47:50.961974   842 net.cpp:165] Memory required for data: 3945127936
I0411 01:47:50.961978   842 layer_factory.hpp:77] Creating layer conv3
I0411 01:47:50.961989   842 net.cpp:100] Creating Layer conv3
I0411 01:47:50.961997   842 net.cpp:434] conv3 <- pool2
I0411 01:47:50.962002   842 net.cpp:408] conv3 -> conv3
I0411 01:47:50.969883   842 net.cpp:150] Setting up conv3
I0411 01:47:50.969913   842 net.cpp:157] Top shape: 1024 250 6 6 (9216000)
I0411 01:47:50.969918   842 net.cpp:165] Memory required for data: 3981991936
I0411 01:47:50.969933   842 layer_factory.hpp:77] Creating layer conv3_prescale
I0411 01:47:50.969944   842 net.cpp:100] Creating Layer conv3_prescale
I0411 01:47:50.969950   842 net.cpp:434] conv3_prescale <- conv3
I0411 01:47:50.969976   842 net.cpp:395] conv3_prescale -> conv3 (in-place)
I0411 01:47:50.970104   842 net.cpp:150] Setting up conv3_prescale
I0411 01:47:50.970118   842 net.cpp:157] Top shape: 1024 250 6 6 (9216000)
I0411 01:47:50.970121   842 net.cpp:165] Memory required for data: 4018855936
I0411 01:47:50.970127   842 layer_factory.hpp:77] Creating layer conv3_sTanH
I0411 01:47:50.970135   842 net.cpp:100] Creating Layer conv3_sTanH
I0411 01:47:50.970141   842 net.cpp:434] conv3_sTanH <- conv3
I0411 01:47:50.970146   842 net.cpp:395] conv3_sTanH -> conv3 (in-place)
I0411 01:47:50.971593   842 net.cpp:150] Setting up conv3_sTanH
I0411 01:47:50.971612   842 net.cpp:157] Top shape: 1024 250 6 6 (9216000)
I0411 01:47:50.971618   842 net.cpp:165] Memory required for data: 4055719936
I0411 01:47:50.971623   842 layer_factory.hpp:77] Creating layer conv3_postscale
I0411 01:47:50.971632   842 net.cpp:100] Creating Layer conv3_postscale
I0411 01:47:50.971637   842 net.cpp:434] conv3_postscale <- conv3
I0411 01:47:50.971655   842 net.cpp:395] conv3_postscale -> conv3 (in-place)
I0411 01:47:50.971783   842 net.cpp:150] Setting up conv3_postscale
I0411 01:47:50.971793   842 net.cpp:157] Top shape: 1024 250 6 6 (9216000)
I0411 01:47:50.971797   842 net.cpp:165] Memory required for data: 4092583936
I0411 01:47:50.971803   842 layer_factory.hpp:77] Creating layer pool3
I0411 01:47:50.971818   842 net.cpp:100] Creating Layer pool3
I0411 01:47:50.971827   842 net.cpp:434] pool3 <- conv3
I0411 01:47:50.971833   842 net.cpp:408] pool3 -> pool3
I0411 01:47:50.971897   842 net.cpp:150] Setting up pool3
I0411 01:47:50.971911   842 net.cpp:157] Top shape: 1024 250 3 3 (2304000)
I0411 01:47:50.971915   842 net.cpp:165] Memory required for data: 4101799936
I0411 01:47:50.971920   842 layer_factory.hpp:77] Creating layer fc4_300
I0411 01:47:50.971927   842 net.cpp:100] Creating Layer fc4_300
I0411 01:47:50.971930   842 net.cpp:434] fc4_300 <- pool3
I0411 01:47:50.971938   842 net.cpp:408] fc4_300 -> fc4_300
I0411 01:47:50.978744   842 net.cpp:150] Setting up fc4_300
I0411 01:47:50.978762   842 net.cpp:157] Top shape: 1024 300 (307200)
I0411 01:47:50.978768   842 net.cpp:165] Memory required for data: 4103028736
I0411 01:47:50.978776   842 layer_factory.hpp:77] Creating layer fc4_prescale
I0411 01:47:50.978788   842 net.cpp:100] Creating Layer fc4_prescale
I0411 01:47:50.978796   842 net.cpp:434] fc4_prescale <- fc4_300
I0411 01:47:50.978801   842 net.cpp:395] fc4_prescale -> fc4_300 (in-place)
I0411 01:47:50.978914   842 net.cpp:150] Setting up fc4_prescale
I0411 01:47:50.978924   842 net.cpp:157] Top shape: 1024 300 (307200)
I0411 01:47:50.978929   842 net.cpp:165] Memory required for data: 4104257536
I0411 01:47:50.978934   842 layer_factory.hpp:77] Creating layer fc4_sTanH
I0411 01:47:50.978940   842 net.cpp:100] Creating Layer fc4_sTanH
I0411 01:47:50.978945   842 net.cpp:434] fc4_sTanH <- fc4_300
I0411 01:47:50.978950   842 net.cpp:395] fc4_sTanH -> fc4_300 (in-place)
I0411 01:47:50.979212   842 net.cpp:150] Setting up fc4_sTanH
I0411 01:47:50.979230   842 net.cpp:157] Top shape: 1024 300 (307200)
I0411 01:47:50.979234   842 net.cpp:165] Memory required for data: 4105486336
I0411 01:47:50.979238   842 layer_factory.hpp:77] Creating layer fc4_postscale
I0411 01:47:50.979248   842 net.cpp:100] Creating Layer fc4_postscale
I0411 01:47:50.979251   842 net.cpp:434] fc4_postscale <- fc4_300
I0411 01:47:50.979259   842 net.cpp:395] fc4_postscale -> fc4_300 (in-place)
I0411 01:47:50.979387   842 net.cpp:150] Setting up fc4_postscale
I0411 01:47:50.979398   842 net.cpp:157] Top shape: 1024 300 (307200)
I0411 01:47:50.979401   842 net.cpp:165] Memory required for data: 4106715136
I0411 01:47:50.979408   842 layer_factory.hpp:77] Creating layer fc5_67
I0411 01:47:50.979419   842 net.cpp:100] Creating Layer fc5_67
I0411 01:47:50.979425   842 net.cpp:434] fc5_67 <- fc4_300
I0411 01:47:50.979431   842 net.cpp:408] fc5_67 -> fc5_classes
I0411 01:47:50.979744   842 net.cpp:150] Setting up fc5_67
I0411 01:47:50.979754   842 net.cpp:157] Top shape: 1024 67 (68608)
I0411 01:47:50.979758   842 net.cpp:165] Memory required for data: 4106989568
I0411 01:47:50.979771   842 layer_factory.hpp:77] Creating layer fc5_classes_fc5_67_0_split
I0411 01:47:50.979779   842 net.cpp:100] Creating Layer fc5_classes_fc5_67_0_split
I0411 01:47:50.979784   842 net.cpp:434] fc5_classes_fc5_67_0_split <- fc5_classes
I0411 01:47:50.979789   842 net.cpp:408] fc5_classes_fc5_67_0_split -> fc5_classes_fc5_67_0_split_0
I0411 01:47:50.979797   842 net.cpp:408] fc5_classes_fc5_67_0_split -> fc5_classes_fc5_67_0_split_1
I0411 01:47:50.979807   842 net.cpp:408] fc5_classes_fc5_67_0_split -> fc5_classes_fc5_67_0_split_2
I0411 01:47:50.979871   842 net.cpp:150] Setting up fc5_classes_fc5_67_0_split
I0411 01:47:50.979887   842 net.cpp:157] Top shape: 1024 67 (68608)
I0411 01:47:50.979908   842 net.cpp:157] Top shape: 1024 67 (68608)
I0411 01:47:50.979912   842 net.cpp:157] Top shape: 1024 67 (68608)
I0411 01:47:50.979915   842 net.cpp:165] Memory required for data: 4107812864
I0411 01:47:50.979919   842 layer_factory.hpp:77] Creating layer loss
I0411 01:47:50.979929   842 net.cpp:100] Creating Layer loss
I0411 01:47:50.979935   842 net.cpp:434] loss <- fc5_classes_fc5_67_0_split_0
I0411 01:47:50.979940   842 net.cpp:434] loss <- label_data_1_split_0
I0411 01:47:50.979948   842 net.cpp:408] loss -> loss
…
