…
I0411 00:45:20.536727 17846 net.cpp:322] The NetState phase (0) differed from the phase (1) specified by a rule in layer accuracy_5
I0411 00:45:20.536902 17846 net.cpp:58] Initializing net from parameters: 
state {
  phase: TRAIN
  level: 0
  stage: ""
}
layer {
  name: "data"
  type: "Data"
  top: "data"
  top: "label"
  include {
    phase: TRAIN
  }
  transform_param {
    mirror: false
    crop_size: 48
    mean_value: 132
    mean_value: 132
    mean_value: 131
  }
  data_param {
    source: "../local_data/lmdb/rtsd-r1/CoNorm/train/lmdb"
    batch_size: 1024
    backend: LMDB
  }
}
layer {
  name: "conv1"
  type: "Convolution"
  bottom: "data"
  top: "conv1"
  convolution_param {
    num_output: 100
    pad: 0
    kernel_size: 7
    group: 1
    stride: 1
    weight_filler {
      type: "xavier"
    }
  }
}
layer {
  name: "conv1_prescale"
  type: "Scale"
  bottom: "conv1"
  top: "conv1"
  param {
    lr_mult: 0
    decay_mult: 0
  }
  scale_param {
    filler {
      value: 0.6666
    }
    bias_term: false
  }
}
layer {
  name: "conv1_sTanH"
  type: "TanH"
  bottom: "conv1"
  top: "conv1"
}
layer {
  name: "conv1_postscale"
  type: "Scale"
  bottom: "conv1"
  top: "conv1"
  param {
    lr_mult: 0
    decay_mult: 0
  }
  scale_param {
    filler {
      value: 1.7159
    }
    bias_term: false
  }
}
layer {
  name: "pool1"
  type: "Pooling"
  bottom: "conv1"
  top: "pool1"
  pooling_param {
    pool: MAX
    kernel_size: 2
    stride: 2
  }
}
layer {
  name: "conv2"
  type: "Convolution"
  bottom: "pool1"
  top: "conv2"
  convolution_param {
    num_output: 150
    pad: 0
    kernel_size: 4
    group: 1
    stride: 1
    weight_filler {
      type: "xavier"
    }
  }
}
layer {
  name: "conv2_prescale"
  type: "Scale"
  bottom: "conv2"
  top: "conv2"
  param {
    lr_mult: 0
    decay_mult: 0
  }
  scale_param {
    filler {
      value: 0.6666
    }
    bias_term: false
  }
}
layer {
  name: "conv2_sTanH"
  type: "TanH"
  bottom: "conv2"
  top: "conv2"
}
layer {
  name: "conv2_postscale"
  type: "Scale"
  bottom: "conv2"
  top: "conv2"
  param {
    lr_mult: 0
    decay_mult: 0
  }
  scale_param {
    filler {
      value: 1.7159
    }
    bias_term: false
  }
}
layer {
  name: "pool2"
  type: "Pooling"
  bottom: "conv2"
  top: "pool2"
  pooling_param {
    pool: MAX
    kernel_size: 2
    stride: 2
  }
}
layer {
  name: "conv3"
  type: "Convolution"
  bottom: "pool2"
  top: "conv3"
  convolution_param {
    num_output: 250
    pad: 0
    kernel_size: 4
    group: 1
    stride: 1
    weight_filler {
      type: "xavier"
    }
  }
}
layer {
  name: "conv3_prescale"
  type: "Scale"
  bottom: "conv3"
  top: "conv3"
  param {
    lr_mult: 0
    decay_mult: 0
  }
  scale_param {
    filler {
      value: 0.6666
    }
    bias_term: false
  }
}
layer {
  name: "conv3_sTanH"
  type: "TanH"
  bottom: "conv3"
  top: "conv3"
}
layer {
  name: "conv3_postscale"
  type: "Scale"
  bottom: "conv3"
  top: "conv3"
  param {
    lr_mult: 0
    decay_mult: 0
  }
  scale_param {
    filler {
      value: 1.7159
    }
    bias_term: false
  }
}
layer {
  name: "pool3"
  type: "Pooling"
  bottom: "conv3"
  top: "pool3"
  pooling_param {
    pool: MAX
    kernel_size: 2
    stride: 2
  }
}
layer {
  name: "fc4_300"
  type: "InnerProduct"
  bottom: "pool3"
  top: "fc4_300"
  inner_product_param {
    num_output: 300
    weight_filler {
      type: "xavier"
    }
  }
}
layer {
  name: "fc4_prescale"
  type: "Scale"
  bottom: "fc4_300"
  top: "fc4_300"
  param {
    lr_mult: 0
    decay_mult: 0
  }
  scale_param {
    filler {
      value: 0.6666
    }
    bias_term: false
  }
}
layer {
  name: "fc4_sTanH"
  type: "TanH"
  bottom: "fc4_300"
  top: "fc4_300"
}
layer {
  name: "fc4_postscale"
  type: "Scale"
  bottom: "fc4_300"
  top: "fc4_300"
  param {
    lr_mult: 0
    decay_mult: 0
  }
  scale_param {
    filler {
      value: 1.7159
    }
    bias_term: false
  }
}
layer {
  name: "fc5_67"
  type: "InnerProduct"
  bottom: "fc4_300"
  top: "fc5_classes"
  inner_product_param {
    num_output: 67
    weight_filler {
      type: "xavier"
    }
  }
}
layer {
  name: "loss"
  type: "SoftmaxWithLoss"
  bottom: "fc5_classes"
  bottom: "label"
  top: "loss"
}
I0411 00:45:20.537026 17846 layer_factory.hpp:77] Creating layer data
I0411 00:45:20.538295 17846 net.cpp:100] Creating Layer data
I0411 00:45:20.538311 17846 net.cpp:408] data -> data
I0411 00:45:20.538338 17846 net.cpp:408] data -> label
I0411 00:45:20.539505 17949 db_lmdb.cpp:35] Opened lmdb ../local_data/lmdb/rtsd-r1/CoNorm/train/lmdb
I0411 00:45:20.559801 17846 data_layer.cpp:41] output data size: 1024,3,48,48
I0411 00:45:20.620023 17846 net.cpp:150] Setting up data
I0411 00:45:20.620059 17846 net.cpp:157] Top shape: 1024 3 48 48 (7077888)
I0411 00:45:20.620065 17846 net.cpp:157] Top shape: 1024 (1024)
I0411 00:45:20.620069 17846 net.cpp:165] Memory required for data: 28315648
I0411 00:45:20.620079 17846 layer_factory.hpp:77] Creating layer conv1
I0411 00:45:20.620105 17846 net.cpp:100] Creating Layer conv1
I0411 00:45:20.620113 17846 net.cpp:434] conv1 <- data
I0411 00:45:20.620128 17846 net.cpp:408] conv1 -> conv1
I0411 00:45:20.983562 17846 net.cpp:150] Setting up conv1
I0411 00:45:20.983595 17846 net.cpp:157] Top shape: 1024 100 42 42 (180633600)
I0411 00:45:20.983600 17846 net.cpp:165] Memory required for data: 750850048
I0411 00:45:20.983625 17846 layer_factory.hpp:77] Creating layer conv1_prescale
I0411 00:45:20.983644 17846 net.cpp:100] Creating Layer conv1_prescale
I0411 00:45:20.983649 17846 net.cpp:434] conv1_prescale <- conv1
I0411 00:45:20.983657 17846 net.cpp:395] conv1_prescale -> conv1 (in-place)
I0411 00:45:20.983789 17846 net.cpp:150] Setting up conv1_prescale
I0411 00:45:20.983799 17846 net.cpp:157] Top shape: 1024 100 42 42 (180633600)
I0411 00:45:20.983803 17846 net.cpp:165] Memory required for data: 1473384448
I0411 00:45:20.983810 17846 layer_factory.hpp:77] Creating layer conv1_sTanH
I0411 00:45:20.983819 17846 net.cpp:100] Creating Layer conv1_sTanH
I0411 00:45:20.983824 17846 net.cpp:434] conv1_sTanH <- conv1
I0411 00:45:20.983829 17846 net.cpp:395] conv1_sTanH -> conv1 (in-place)
I0411 00:45:20.984083 17846 net.cpp:150] Setting up conv1_sTanH
I0411 00:45:20.984098 17846 net.cpp:157] Top shape: 1024 100 42 42 (180633600)
I0411 00:45:20.984102 17846 net.cpp:165] Memory required for data: 2195918848
I0411 00:45:20.984107 17846 layer_factory.hpp:77] Creating layer conv1_postscale
I0411 00:45:20.984117 17846 net.cpp:100] Creating Layer conv1_postscale
I0411 00:45:20.984122 17846 net.cpp:434] conv1_postscale <- conv1
I0411 00:45:20.984128 17846 net.cpp:395] conv1_postscale -> conv1 (in-place)
I0411 00:45:20.984243 17846 net.cpp:150] Setting up conv1_postscale
I0411 00:45:20.984252 17846 net.cpp:157] Top shape: 1024 100 42 42 (180633600)
I0411 00:45:20.984256 17846 net.cpp:165] Memory required for data: 2918453248
I0411 00:45:20.984262 17846 layer_factory.hpp:77] Creating layer pool1
I0411 00:45:20.984272 17846 net.cpp:100] Creating Layer pool1
I0411 00:45:20.984277 17846 net.cpp:434] pool1 <- conv1
I0411 00:45:20.984283 17846 net.cpp:408] pool1 -> pool1
I0411 00:45:20.984338 17846 net.cpp:150] Setting up pool1
I0411 00:45:20.984346 17846 net.cpp:157] Top shape: 1024 100 21 21 (45158400)
I0411 00:45:20.984350 17846 net.cpp:165] Memory required for data: 3099086848
I0411 00:45:20.984380 17846 layer_factory.hpp:77] Creating layer conv2
I0411 00:45:20.984391 17846 net.cpp:100] Creating Layer conv2
I0411 00:45:20.984397 17846 net.cpp:434] conv2 <- pool1
I0411 00:45:20.984403 17846 net.cpp:408] conv2 -> conv2
I0411 00:45:20.993820 17846 net.cpp:150] Setting up conv2
I0411 00:45:20.993844 17846 net.cpp:157] Top shape: 1024 150 18 18 (49766400)
I0411 00:45:20.993849 17846 net.cpp:165] Memory required for data: 3298152448
I0411 00:45:20.993862 17846 layer_factory.hpp:77] Creating layer conv2_prescale
I0411 00:45:20.993873 17846 net.cpp:100] Creating Layer conv2_prescale
I0411 00:45:20.993880 17846 net.cpp:434] conv2_prescale <- conv2
I0411 00:45:20.993886 17846 net.cpp:395] conv2_prescale -> conv2 (in-place)
I0411 00:45:20.994011 17846 net.cpp:150] Setting up conv2_prescale
I0411 00:45:20.994021 17846 net.cpp:157] Top shape: 1024 150 18 18 (49766400)
I0411 00:45:20.994025 17846 net.cpp:165] Memory required for data: 3497218048
I0411 00:45:20.994030 17846 layer_factory.hpp:77] Creating layer conv2_sTanH
I0411 00:45:20.994040 17846 net.cpp:100] Creating Layer conv2_sTanH
I0411 00:45:20.994045 17846 net.cpp:434] conv2_sTanH <- conv2
I0411 00:45:20.994050 17846 net.cpp:395] conv2_sTanH -> conv2 (in-place)
I0411 00:45:20.994937 17846 net.cpp:150] Setting up conv2_sTanH
I0411 00:45:20.994956 17846 net.cpp:157] Top shape: 1024 150 18 18 (49766400)
I0411 00:45:20.994961 17846 net.cpp:165] Memory required for data: 3696283648
I0411 00:45:20.994966 17846 layer_factory.hpp:77] Creating layer conv2_postscale
I0411 00:45:20.994974 17846 net.cpp:100] Creating Layer conv2_postscale
I0411 00:45:20.994981 17846 net.cpp:434] conv2_postscale <- conv2
I0411 00:45:20.994987 17846 net.cpp:395] conv2_postscale -> conv2 (in-place)
I0411 00:45:20.995101 17846 net.cpp:150] Setting up conv2_postscale
I0411 00:45:20.995111 17846 net.cpp:157] Top shape: 1024 150 18 18 (49766400)
I0411 00:45:20.995115 17846 net.cpp:165] Memory required for data: 3895349248
I0411 00:45:20.995121 17846 layer_factory.hpp:77] Creating layer pool2
I0411 00:45:20.995128 17846 net.cpp:100] Creating Layer pool2
I0411 00:45:20.995133 17846 net.cpp:434] pool2 <- conv2
I0411 00:45:20.995139 17846 net.cpp:408] pool2 -> pool2
I0411 00:45:20.995185 17846 net.cpp:150] Setting up pool2
I0411 00:45:20.995193 17846 net.cpp:157] Top shape: 1024 150 9 9 (12441600)
I0411 00:45:20.995198 17846 net.cpp:165] Memory required for data: 3945115648
I0411 00:45:20.995200 17846 layer_factory.hpp:77] Creating layer conv3
I0411 00:45:20.995210 17846 net.cpp:100] Creating Layer conv3
I0411 00:45:20.995215 17846 net.cpp:434] conv3 <- pool2
I0411 00:45:20.995221 17846 net.cpp:408] conv3 -> conv3
I0411 00:45:21.002001 17846 net.cpp:150] Setting up conv3
I0411 00:45:21.002022 17846 net.cpp:157] Top shape: 1024 250 6 6 (9216000)
I0411 00:45:21.002028 17846 net.cpp:165] Memory required for data: 3981979648
I0411 00:45:21.002043 17846 layer_factory.hpp:77] Creating layer conv3_prescale
I0411 00:45:21.002054 17846 net.cpp:100] Creating Layer conv3_prescale
I0411 00:45:21.002059 17846 net.cpp:434] conv3_prescale <- conv3
I0411 00:45:21.002066 17846 net.cpp:395] conv3_prescale -> conv3 (in-place)
I0411 00:45:21.002184 17846 net.cpp:150] Setting up conv3_prescale
I0411 00:45:21.002194 17846 net.cpp:157] Top shape: 1024 250 6 6 (9216000)
I0411 00:45:21.002197 17846 net.cpp:165] Memory required for data: 4018843648
I0411 00:45:21.002203 17846 layer_factory.hpp:77] Creating layer conv3_sTanH
I0411 00:45:21.002213 17846 net.cpp:100] Creating Layer conv3_sTanH
I0411 00:45:21.002218 17846 net.cpp:434] conv3_sTanH <- conv3
I0411 00:45:21.002223 17846 net.cpp:395] conv3_sTanH -> conv3 (in-place)
I0411 00:45:21.003154 17846 net.cpp:150] Setting up conv3_sTanH
I0411 00:45:21.003173 17846 net.cpp:157] Top shape: 1024 250 6 6 (9216000)
I0411 00:45:21.003178 17846 net.cpp:165] Memory required for data: 4055707648
I0411 00:45:21.003183 17846 layer_factory.hpp:77] Creating layer conv3_postscale
I0411 00:45:21.003193 17846 net.cpp:100] Creating Layer conv3_postscale
I0411 00:45:21.003214 17846 net.cpp:434] conv3_postscale <- conv3
I0411 00:45:21.003224 17846 net.cpp:395] conv3_postscale -> conv3 (in-place)
I0411 00:45:21.003350 17846 net.cpp:150] Setting up conv3_postscale
I0411 00:45:21.003360 17846 net.cpp:157] Top shape: 1024 250 6 6 (9216000)
I0411 00:45:21.003365 17846 net.cpp:165] Memory required for data: 4092571648
I0411 00:45:21.003371 17846 layer_factory.hpp:77] Creating layer pool3
I0411 00:45:21.003382 17846 net.cpp:100] Creating Layer pool3
I0411 00:45:21.003388 17846 net.cpp:434] pool3 <- conv3
I0411 00:45:21.003394 17846 net.cpp:408] pool3 -> pool3
I0411 00:45:21.003443 17846 net.cpp:150] Setting up pool3
I0411 00:45:21.003453 17846 net.cpp:157] Top shape: 1024 250 3 3 (2304000)
I0411 00:45:21.003455 17846 net.cpp:165] Memory required for data: 4101787648
I0411 00:45:21.003459 17846 layer_factory.hpp:77] Creating layer fc4_300
I0411 00:45:21.003470 17846 net.cpp:100] Creating Layer fc4_300
I0411 00:45:21.003475 17846 net.cpp:434] fc4_300 <- pool3
I0411 00:45:21.003481 17846 net.cpp:408] fc4_300 -> fc4_300
I0411 00:45:21.010084 17846 net.cpp:150] Setting up fc4_300
I0411 00:45:21.010103 17846 net.cpp:157] Top shape: 1024 300 (307200)
I0411 00:45:21.010108 17846 net.cpp:165] Memory required for data: 4103016448
I0411 00:45:21.010118 17846 layer_factory.hpp:77] Creating layer fc4_prescale
I0411 00:45:21.010128 17846 net.cpp:100] Creating Layer fc4_prescale
I0411 00:45:21.010134 17846 net.cpp:434] fc4_prescale <- fc4_300
I0411 00:45:21.010141 17846 net.cpp:395] fc4_prescale -> fc4_300 (in-place)
I0411 00:45:21.010254 17846 net.cpp:150] Setting up fc4_prescale
I0411 00:45:21.010264 17846 net.cpp:157] Top shape: 1024 300 (307200)
I0411 00:45:21.010268 17846 net.cpp:165] Memory required for data: 4104245248
I0411 00:45:21.010273 17846 layer_factory.hpp:77] Creating layer fc4_sTanH
I0411 00:45:21.010279 17846 net.cpp:100] Creating Layer fc4_sTanH
I0411 00:45:21.010285 17846 net.cpp:434] fc4_sTanH <- fc4_300
I0411 00:45:21.010290 17846 net.cpp:395] fc4_sTanH -> fc4_300 (in-place)
I0411 00:45:21.010532 17846 net.cpp:150] Setting up fc4_sTanH
I0411 00:45:21.010545 17846 net.cpp:157] Top shape: 1024 300 (307200)
I0411 00:45:21.010550 17846 net.cpp:165] Memory required for data: 4105474048
I0411 00:45:21.010555 17846 layer_factory.hpp:77] Creating layer fc4_postscale
I0411 00:45:21.010563 17846 net.cpp:100] Creating Layer fc4_postscale
I0411 00:45:21.010570 17846 net.cpp:434] fc4_postscale <- fc4_300
I0411 00:45:21.010576 17846 net.cpp:395] fc4_postscale -> fc4_300 (in-place)
I0411 00:45:21.010696 17846 net.cpp:150] Setting up fc4_postscale
I0411 00:45:21.010705 17846 net.cpp:157] Top shape: 1024 300 (307200)
I0411 00:45:21.010709 17846 net.cpp:165] Memory required for data: 4106702848
I0411 00:45:21.010715 17846 layer_factory.hpp:77] Creating layer fc5_67
I0411 00:45:21.010723 17846 net.cpp:100] Creating Layer fc5_67
I0411 00:45:21.010730 17846 net.cpp:434] fc5_67 <- fc4_300
I0411 00:45:21.010735 17846 net.cpp:408] fc5_67 -> fc5_classes
I0411 00:45:21.012188 17846 net.cpp:150] Setting up fc5_67
I0411 00:45:21.012207 17846 net.cpp:157] Top shape: 1024 67 (68608)
I0411 00:45:21.012212 17846 net.cpp:165] Memory required for data: 4106977280
I0411 00:45:21.012224 17846 layer_factory.hpp:77] Creating layer loss
I0411 00:45:21.012234 17846 net.cpp:100] Creating Layer loss
I0411 00:45:21.012239 17846 net.cpp:434] loss <- fc5_classes
I0411 00:45:21.012245 17846 net.cpp:434] loss <- label
I0411 00:45:21.012253 17846 net.cpp:408] loss -> loss
I0411 00:45:21.012267 17846 layer_factory.hpp:77] Creating layer loss
…
I0411 00:45:21.013154 17846 solver.cpp:193] Creating test net (#0) specified by test_net file: ./Prototxt/experiment_8/rtsd-r1/CoNorm/trial_1/test.prototxt
I0411 00:45:21.013370 17846 net.cpp:58] Initializing net from parameters: 
state {
  phase: TEST
}
layer {
  name: "data"
  type: "Data"
  top: "data"
  top: "label"
  include {
    phase: TEST
  }
  transform_param {
    mirror: false
    crop_size: 48
    mean_value: 133
    mean_value: 133
    mean_value: 132
  }
  data_param {
    source: "../local_data/lmdb/rtsd-r1/CoNorm/test/lmdb"
    batch_size: 1024
    backend: LMDB
  }
}
layer {
  name: "conv1"
  type: "Convolution"
  bottom: "data"
  top: "conv1"
  convolution_param {
    num_output: 100
    pad: 0
    kernel_size: 7
    group: 1
    stride: 1
    weight_filler {
      type: "xavier"
    }
  }
}
layer {
  name: "conv1_prescale"
  type: "Scale"
  bottom: "conv1"
  top: "conv1"
  param {
    lr_mult: 0
    decay_mult: 0
  }
  scale_param {
    filler {
      value: 0.6666
    }
    bias_term: false
  }
}
layer {
  name: "conv1_sTanH"
  type: "TanH"
  bottom: "conv1"
  top: "conv1"
}
layer {
  name: "conv1_postscale"
  type: "Scale"
  bottom: "conv1"
  top: "conv1"
  param {
    lr_mult: 0
    decay_mult: 0
  }
  scale_param {
    filler {
      value: 1.7159
    }
    bias_term: false
  }
}
layer {
  name: "pool1"
  type: "Pooling"
  bottom: "conv1"
  top: "pool1"
  pooling_param {
    pool: MAX
    kernel_size: 2
    stride: 2
  }
}
layer {
  name: "conv2"
  type: "Convolution"
  bottom: "pool1"
  top: "conv2"
  convolution_param {
    num_output: 150
    pad: 0
    kernel_size: 4
    group: 1
    stride: 1
    weight_filler {
      type: "xavier"
    }
  }
}
layer {
  name: "conv2_prescale"
  type: "Scale"
  bottom: "conv2"
  top: "conv2"
  param {
    lr_mult: 0
    decay_mult: 0
  }
  scale_param {
    filler {
      value: 0.6666
    }
    bias_term: false
  }
}
layer {
  name: "conv2_sTanH"
  type: "TanH"
  bottom: "conv2"
  top: "conv2"
}
layer {
  name: "conv2_postscale"
  type: "Scale"
  bottom: "conv2"
  top: "conv2"
  param {
    lr_mult: 0
    decay_mult: 0
  }
  scale_param {
    filler {
      value: 1.7159
    }
    bias_term: false
  }
}
layer {
  name: "pool2"
  type: "Pooling"
  bottom: "conv2"
  top: "pool2"
  pooling_param {
    pool: MAX
    kernel_size: 2
    stride: 2
  }
}
layer {
  name: "conv3"
  type: "Convolution"
  bottom: "pool2"
  top: "conv3"
  convolution_param {
    num_output: 250
    pad: 0
    kernel_size: 4
    group: 1
    stride: 1
    weight_filler {
      type: "xavier"
    }
  }
}
layer {
  name: "conv3_prescale"
  type: "Scale"
  bottom: "conv3"
  top: "conv3"
  param {
    lr_mult: 0
    decay_mult: 0
  }
  scale_param {
    filler {
      value: 0.6666
    }
    bias_term: false
  }
}
layer {
  name: "conv3_sTanH"
  type: "TanH"
  bottom: "conv3"
  top: "conv3"
}
layer {
  name: "conv3_postscale"
  type: "Scale"
  bottom: "conv3"
  top: "conv3"
  param {
    lr_mult: 0
    decay_mult: 0
  }
  scale_param {
    filler {
      value: 1.7159
    }
    bias_term: false
  }
}
layer {
  name: "pool3"
  type: "Pooling"
  bottom: "conv3"
  top: "pool3"
  pooling_param {
    pool: MAX
    kernel_size: 2
    stride: 2
  }
}
layer {
  name: "fc4_300"
  type: "InnerProduct"
  bottom: "pool3"
  top: "fc4_300"
  inner_product_param {
    num_output: 300
    weight_filler {
      type: "xavier"
    }
  }
}
layer {
  name: "fc4_prescale"
  type: "Scale"
  bottom: "fc4_300"
  top: "fc4_300"
  param {
    lr_mult: 0
    decay_mult: 0
  }
  scale_param {
    filler {
      value: 0.6666
    }
    bias_term: false
  }
}
layer {
  name: "fc4_sTanH"
  type: "TanH"
  bottom: "fc4_300"
  top: "fc4_300"
}
layer {
  name: "fc4_postscale"
  type: "Scale"
  bottom: "fc4_300"
  top: "fc4_300"
  param {
    lr_mult: 0
    decay_mult: 0
  }
  scale_param {
    filler {
      value: 1.7159
    }
    bias_term: false
  }
}
layer {
  name: "fc5_67"
  type: "InnerProduct"
  bottom: "fc4_300"
  top: "fc5_classes"
  inner_product_param {
    num_output: 67
    weight_filler {
      type: "xavier"
    }
  }
}
layer {
  name: "loss"
  type: "SoftmaxWithLoss"
  bottom: "fc5_classes"
  bottom: "label"
  top: "loss"
}
layer {
  name: "accuracy_1"
  type: "Accuracy"
  bottom: "fc5_classes"
  bottom: "label"
  top: "accuracy_1"
  include {
    phase: TEST
  }
  accuracy_param {
    top_k: 1
  }
}
layer {
  name: "accuracy_5"
  type: "Accuracy"
  bottom: "fc5_classes"
  bottom: "label"
  top: "accuracy_5"
  include {
    phase: TEST
  }
  accuracy_param {
    top_k: 5
  }
}
I0411 00:45:21.013516 17846 layer_factory.hpp:77] Creating layer data
I0411 00:45:21.014338 17846 net.cpp:100] Creating Layer data
I0411 00:45:21.014365 17846 net.cpp:408] data -> data
I0411 00:45:21.014380 17846 net.cpp:408] data -> label
I0411 00:45:21.015662 17987 db_lmdb.cpp:35] Opened lmdb ../local_data/lmdb/rtsd-r1/CoNorm/test/lmdb
I0411 00:45:21.015847 17846 data_layer.cpp:41] output data size: 1024,3,48,48
I0411 00:45:21.074625 17846 net.cpp:150] Setting up data
I0411 00:45:21.074654 17846 net.cpp:157] Top shape: 1024 3 48 48 (7077888)
I0411 00:45:21.074661 17846 net.cpp:157] Top shape: 1024 (1024)
I0411 00:45:21.074666 17846 net.cpp:165] Memory required for data: 28315648
I0411 00:45:21.074672 17846 layer_factory.hpp:77] Creating layer label_data_1_split
I0411 00:45:21.074690 17846 net.cpp:100] Creating Layer label_data_1_split
I0411 00:45:21.074697 17846 net.cpp:434] label_data_1_split <- label
I0411 00:45:21.074707 17846 net.cpp:408] label_data_1_split -> label_data_1_split_0
I0411 00:45:21.074720 17846 net.cpp:408] label_data_1_split -> label_data_1_split_1
I0411 00:45:21.074729 17846 net.cpp:408] label_data_1_split -> label_data_1_split_2
I0411 00:45:21.074863 17846 net.cpp:150] Setting up label_data_1_split
I0411 00:45:21.074874 17846 net.cpp:157] Top shape: 1024 (1024)
I0411 00:45:21.074879 17846 net.cpp:157] Top shape: 1024 (1024)
I0411 00:45:21.074883 17846 net.cpp:157] Top shape: 1024 (1024)
I0411 00:45:21.074887 17846 net.cpp:165] Memory required for data: 28327936
I0411 00:45:21.074892 17846 layer_factory.hpp:77] Creating layer conv1
I0411 00:45:21.074905 17846 net.cpp:100] Creating Layer conv1
I0411 00:45:21.074911 17846 net.cpp:434] conv1 <- data
I0411 00:45:21.074920 17846 net.cpp:408] conv1 -> conv1
I0411 00:45:21.078423 17846 net.cpp:150] Setting up conv1
I0411 00:45:21.078446 17846 net.cpp:157] Top shape: 1024 100 42 42 (180633600)
I0411 00:45:21.078452 17846 net.cpp:165] Memory required for data: 750862336
I0411 00:45:21.078490 17846 layer_factory.hpp:77] Creating layer conv1_prescale
I0411 00:45:21.078502 17846 net.cpp:100] Creating Layer conv1_prescale
I0411 00:45:21.078511 17846 net.cpp:434] conv1_prescale <- conv1
I0411 00:45:21.078519 17846 net.cpp:395] conv1_prescale -> conv1 (in-place)
I0411 00:45:21.078657 17846 net.cpp:150] Setting up conv1_prescale
I0411 00:45:21.078672 17846 net.cpp:157] Top shape: 1024 100 42 42 (180633600)
I0411 00:45:21.078676 17846 net.cpp:165] Memory required for data: 1473396736
I0411 00:45:21.078685 17846 layer_factory.hpp:77] Creating layer conv1_sTanH
I0411 00:45:21.078694 17846 net.cpp:100] Creating Layer conv1_sTanH
I0411 00:45:21.078699 17846 net.cpp:434] conv1_sTanH <- conv1
I0411 00:45:21.078707 17846 net.cpp:395] conv1_sTanH -> conv1 (in-place)
I0411 00:45:21.081233 17846 net.cpp:150] Setting up conv1_sTanH
I0411 00:45:21.081256 17846 net.cpp:157] Top shape: 1024 100 42 42 (180633600)
I0411 00:45:21.081262 17846 net.cpp:165] Memory required for data: 2195931136
I0411 00:45:21.081267 17846 layer_factory.hpp:77] Creating layer conv1_postscale
I0411 00:45:21.081279 17846 net.cpp:100] Creating Layer conv1_postscale
I0411 00:45:21.081287 17846 net.cpp:434] conv1_postscale <- conv1
I0411 00:45:21.081295 17846 net.cpp:395] conv1_postscale -> conv1 (in-place)
I0411 00:45:21.081444 17846 net.cpp:150] Setting up conv1_postscale
I0411 00:45:21.081454 17846 net.cpp:157] Top shape: 1024 100 42 42 (180633600)
I0411 00:45:21.081459 17846 net.cpp:165] Memory required for data: 2918465536
I0411 00:45:21.081465 17846 layer_factory.hpp:77] Creating layer pool1
I0411 00:45:21.081485 17846 net.cpp:100] Creating Layer pool1
I0411 00:45:21.081491 17846 net.cpp:434] pool1 <- conv1
I0411 00:45:21.081497 17846 net.cpp:408] pool1 -> pool1
I0411 00:45:21.081552 17846 net.cpp:150] Setting up pool1
I0411 00:45:21.081562 17846 net.cpp:157] Top shape: 1024 100 21 21 (45158400)
I0411 00:45:21.081567 17846 net.cpp:165] Memory required for data: 3099099136
I0411 00:45:21.081569 17846 layer_factory.hpp:77] Creating layer conv2
I0411 00:45:21.081581 17846 net.cpp:100] Creating Layer conv2
I0411 00:45:21.081586 17846 net.cpp:434] conv2 <- pool1
I0411 00:45:21.081593 17846 net.cpp:408] conv2 -> conv2
I0411 00:45:21.088398 17846 net.cpp:150] Setting up conv2
I0411 00:45:21.088423 17846 net.cpp:157] Top shape: 1024 150 18 18 (49766400)
I0411 00:45:21.088428 17846 net.cpp:165] Memory required for data: 3298164736
I0411 00:45:21.088441 17846 layer_factory.hpp:77] Creating layer conv2_prescale
I0411 00:45:21.088459 17846 net.cpp:100] Creating Layer conv2_prescale
I0411 00:45:21.088466 17846 net.cpp:434] conv2_prescale <- conv2
I0411 00:45:21.088474 17846 net.cpp:395] conv2_prescale -> conv2 (in-place)
I0411 00:45:21.088614 17846 net.cpp:150] Setting up conv2_prescale
I0411 00:45:21.088625 17846 net.cpp:157] Top shape: 1024 150 18 18 (49766400)
I0411 00:45:21.088631 17846 net.cpp:165] Memory required for data: 3497230336
I0411 00:45:21.088637 17846 layer_factory.hpp:77] Creating layer conv2_sTanH
I0411 00:45:21.088645 17846 net.cpp:100] Creating Layer conv2_sTanH
I0411 00:45:21.088651 17846 net.cpp:434] conv2_sTanH <- conv2
I0411 00:45:21.088656 17846 net.cpp:395] conv2_sTanH -> conv2 (in-place)
I0411 00:45:21.089854 17846 net.cpp:150] Setting up conv2_sTanH
I0411 00:45:21.089874 17846 net.cpp:157] Top shape: 1024 150 18 18 (49766400)
I0411 00:45:21.089879 17846 net.cpp:165] Memory required for data: 3696295936
I0411 00:45:21.089884 17846 layer_factory.hpp:77] Creating layer conv2_postscale
I0411 00:45:21.089891 17846 net.cpp:100] Creating Layer conv2_postscale
I0411 00:45:21.089897 17846 net.cpp:434] conv2_postscale <- conv2
I0411 00:45:21.089906 17846 net.cpp:395] conv2_postscale -> conv2 (in-place)
I0411 00:45:21.090044 17846 net.cpp:150] Setting up conv2_postscale
I0411 00:45:21.090056 17846 net.cpp:157] Top shape: 1024 150 18 18 (49766400)
I0411 00:45:21.090062 17846 net.cpp:165] Memory required for data: 3895361536
I0411 00:45:21.090068 17846 layer_factory.hpp:77] Creating layer pool2
I0411 00:45:21.090096 17846 net.cpp:100] Creating Layer pool2
I0411 00:45:21.090103 17846 net.cpp:434] pool2 <- conv2
I0411 00:45:21.090109 17846 net.cpp:408] pool2 -> pool2
I0411 00:45:21.090170 17846 net.cpp:150] Setting up pool2
I0411 00:45:21.090180 17846 net.cpp:157] Top shape: 1024 150 9 9 (12441600)
I0411 00:45:21.090186 17846 net.cpp:165] Memory required for data: 3945127936
I0411 00:45:21.090190 17846 layer_factory.hpp:77] Creating layer conv3
I0411 00:45:21.090201 17846 net.cpp:100] Creating Layer conv3
I0411 00:45:21.090207 17846 net.cpp:434] conv3 <- pool2
I0411 00:45:21.090215 17846 net.cpp:408] conv3 -> conv3
I0411 00:45:21.098203 17846 net.cpp:150] Setting up conv3
I0411 00:45:21.098227 17846 net.cpp:157] Top shape: 1024 250 6 6 (9216000)
I0411 00:45:21.098237 17846 net.cpp:165] Memory required for data: 3981991936
I0411 00:45:21.098254 17846 layer_factory.hpp:77] Creating layer conv3_prescale
I0411 00:45:21.098265 17846 net.cpp:100] Creating Layer conv3_prescale
I0411 00:45:21.098271 17846 net.cpp:434] conv3_prescale <- conv3
I0411 00:45:21.098285 17846 net.cpp:395] conv3_prescale -> conv3 (in-place)
I0411 00:45:21.098408 17846 net.cpp:150] Setting up conv3_prescale
I0411 00:45:21.098419 17846 net.cpp:157] Top shape: 1024 250 6 6 (9216000)
I0411 00:45:21.098428 17846 net.cpp:165] Memory required for data: 4018855936
I0411 00:45:21.098444 17846 layer_factory.hpp:77] Creating layer conv3_sTanH
I0411 00:45:21.098454 17846 net.cpp:100] Creating Layer conv3_sTanH
I0411 00:45:21.098460 17846 net.cpp:434] conv3_sTanH <- conv3
I0411 00:45:21.098466 17846 net.cpp:395] conv3_sTanH -> conv3 (in-place)
I0411 00:45:21.101102 17846 net.cpp:150] Setting up conv3_sTanH
I0411 00:45:21.101125 17846 net.cpp:157] Top shape: 1024 250 6 6 (9216000)
I0411 00:45:21.101130 17846 net.cpp:165] Memory required for data: 4055719936
I0411 00:45:21.101135 17846 layer_factory.hpp:77] Creating layer conv3_postscale
I0411 00:45:21.101145 17846 net.cpp:100] Creating Layer conv3_postscale
I0411 00:45:21.101150 17846 net.cpp:434] conv3_postscale <- conv3
I0411 00:45:21.101161 17846 net.cpp:395] conv3_postscale -> conv3 (in-place)
I0411 00:45:21.101294 17846 net.cpp:150] Setting up conv3_postscale
I0411 00:45:21.101307 17846 net.cpp:157] Top shape: 1024 250 6 6 (9216000)
I0411 00:45:21.101312 17846 net.cpp:165] Memory required for data: 4092583936
I0411 00:45:21.101320 17846 layer_factory.hpp:77] Creating layer pool3
I0411 00:45:21.101335 17846 net.cpp:100] Creating Layer pool3
I0411 00:45:21.101341 17846 net.cpp:434] pool3 <- conv3
I0411 00:45:21.101358 17846 net.cpp:408] pool3 -> pool3
I0411 00:45:21.101415 17846 net.cpp:150] Setting up pool3
I0411 00:45:21.101425 17846 net.cpp:157] Top shape: 1024 250 3 3 (2304000)
I0411 00:45:21.101429 17846 net.cpp:165] Memory required for data: 4101799936
I0411 00:45:21.101433 17846 layer_factory.hpp:77] Creating layer fc4_300
I0411 00:45:21.101440 17846 net.cpp:100] Creating Layer fc4_300
I0411 00:45:21.101446 17846 net.cpp:434] fc4_300 <- pool3
I0411 00:45:21.101454 17846 net.cpp:408] fc4_300 -> fc4_300
I0411 00:45:21.108383 17846 net.cpp:150] Setting up fc4_300
I0411 00:45:21.108405 17846 net.cpp:157] Top shape: 1024 300 (307200)
I0411 00:45:21.108409 17846 net.cpp:165] Memory required for data: 4103028736
I0411 00:45:21.108418 17846 layer_factory.hpp:77] Creating layer fc4_prescale
I0411 00:45:21.108430 17846 net.cpp:100] Creating Layer fc4_prescale
I0411 00:45:21.108439 17846 net.cpp:434] fc4_prescale <- fc4_300
I0411 00:45:21.108449 17846 net.cpp:395] fc4_prescale -> fc4_300 (in-place)
I0411 00:45:21.108572 17846 net.cpp:150] Setting up fc4_prescale
I0411 00:45:21.108582 17846 net.cpp:157] Top shape: 1024 300 (307200)
I0411 00:45:21.108585 17846 net.cpp:165] Memory required for data: 4104257536
I0411 00:45:21.108592 17846 layer_factory.hpp:77] Creating layer fc4_sTanH
I0411 00:45:21.108599 17846 net.cpp:100] Creating Layer fc4_sTanH
I0411 00:45:21.108604 17846 net.cpp:434] fc4_sTanH <- fc4_300
I0411 00:45:21.108610 17846 net.cpp:395] fc4_sTanH -> fc4_300 (in-place)
I0411 00:45:21.108850 17846 net.cpp:150] Setting up fc4_sTanH
I0411 00:45:21.108880 17846 net.cpp:157] Top shape: 1024 300 (307200)
I0411 00:45:21.108885 17846 net.cpp:165] Memory required for data: 4105486336
I0411 00:45:21.108888 17846 layer_factory.hpp:77] Creating layer fc4_postscale
I0411 00:45:21.108898 17846 net.cpp:100] Creating Layer fc4_postscale
I0411 00:45:21.108906 17846 net.cpp:434] fc4_postscale <- fc4_300
I0411 00:45:21.108916 17846 net.cpp:395] fc4_postscale -> fc4_300 (in-place)
I0411 00:45:21.109048 17846 net.cpp:150] Setting up fc4_postscale
I0411 00:45:21.109060 17846 net.cpp:157] Top shape: 1024 300 (307200)
I0411 00:45:21.109063 17846 net.cpp:165] Memory required for data: 4106715136
I0411 00:45:21.109068 17846 layer_factory.hpp:77] Creating layer fc5_67
I0411 00:45:21.109077 17846 net.cpp:100] Creating Layer fc5_67
I0411 00:45:21.109083 17846 net.cpp:434] fc5_67 <- fc4_300
I0411 00:45:21.109100 17846 net.cpp:408] fc5_67 -> fc5_classes
I0411 00:45:21.109414 17846 net.cpp:150] Setting up fc5_67
I0411 00:45:21.109424 17846 net.cpp:157] Top shape: 1024 67 (68608)
I0411 00:45:21.109427 17846 net.cpp:165] Memory required for data: 4106989568
I0411 00:45:21.109439 17846 layer_factory.hpp:77] Creating layer fc5_classes_fc5_67_0_split
I0411 00:45:21.109448 17846 net.cpp:100] Creating Layer fc5_classes_fc5_67_0_split
I0411 00:45:21.109454 17846 net.cpp:434] fc5_classes_fc5_67_0_split <- fc5_classes
I0411 00:45:21.109462 17846 net.cpp:408] fc5_classes_fc5_67_0_split -> fc5_classes_fc5_67_0_split_0
I0411 00:45:21.109472 17846 net.cpp:408] fc5_classes_fc5_67_0_split -> fc5_classes_fc5_67_0_split_1
I0411 00:45:21.109480 17846 net.cpp:408] fc5_classes_fc5_67_0_split -> fc5_classes_fc5_67_0_split_2
I0411 00:45:21.109549 17846 net.cpp:150] Setting up fc5_classes_fc5_67_0_split
I0411 00:45:21.109560 17846 net.cpp:157] Top shape: 1024 67 (68608)
I0411 00:45:21.109571 17846 net.cpp:157] Top shape: 1024 67 (68608)
I0411 00:45:21.109575 17846 net.cpp:157] Top shape: 1024 67 (68608)
I0411 00:45:21.109578 17846 net.cpp:165] Memory required for data: 4107812864
I0411 00:45:21.109582 17846 layer_factory.hpp:77] Creating layer loss
I0411 00:45:21.109589 17846 net.cpp:100] Creating Layer loss
I0411 00:45:21.109593 17846 net.cpp:434] loss <- fc5_classes_fc5_67_0_split_0
I0411 00:45:21.109598 17846 net.cpp:434] loss <- label_data_1_split_0
I0411 00:45:21.109606 17846 net.cpp:408] loss -> loss
…
