…
I0410 23:57:55.390624  4382 net.cpp:322] The NetState phase (0) differed from the phase (1) specified by a rule in layer accuracy_5
I0410 23:57:55.390792  4382 net.cpp:58] Initializing net from parameters: 
state {
  phase: TRAIN
  level: 0
  stage: ""
}
layer {
  name: "data"
  type: "Data"
  top: "data"
  top: "label"
  include {
    phase: TRAIN
  }
  transform_param {
    mirror: false
    crop_size: 48
    mean_value: 132
    mean_value: 132
    mean_value: 131
  }
  data_param {
    source: "../local_data/lmdb/rtsd-r1/CoNorm/train/lmdb"
    batch_size: 1024
    backend: LMDB
  }
}
layer {
  name: "conv1"
  type: "Convolution"
  bottom: "data"
  top: "conv1"
  convolution_param {
    num_output: 100
    pad: 0
    kernel_size: 7
    group: 1
    stride: 1
    weight_filler {
      type: "xavier"
    }
  }
}
layer {
  name: "conv1_prescale"
  type: "Scale"
  bottom: "conv1"
  top: "conv1"
  param {
    lr_mult: 0
    decay_mult: 0
  }
  scale_param {
    filler {
      value: 0.6666
    }
  }
}
layer {
  name: "conv1_sTanH"
  type: "TanH"
  bottom: "conv1"
  top: "conv1"
}
layer {
  name: "conv1_postscale"
  type: "Scale"
  bottom: "conv1"
  top: "conv1"
  param {
    lr_mult: 0
    decay_mult: 0
  }
  scale_param {
    filler {
      value: 1.7159
    }
  }
}
layer {
  name: "pool1"
  type: "Pooling"
  bottom: "conv1"
  top: "pool1"
  pooling_param {
    pool: MAX
    kernel_size: 2
    stride: 2
  }
}
layer {
  name: "conv2"
  type: "Convolution"
  bottom: "pool1"
  top: "conv2"
  convolution_param {
    num_output: 150
    pad: 0
    kernel_size: 4
    group: 1
    stride: 1
    weight_filler {
      type: "xavier"
    }
  }
}
layer {
  name: "conv2_prescale"
  type: "Scale"
  bottom: "conv2"
  top: "conv2"
  param {
    lr_mult: 0
    decay_mult: 0
  }
  scale_param {
    filler {
      value: 0.6666
    }
  }
}
layer {
  name: "conv2_sTanH"
  type: "TanH"
  bottom: "conv2"
  top: "conv2"
}
layer {
  name: "conv2_postscale"
  type: "Scale"
  bottom: "conv2"
  top: "conv2"
  param {
    lr_mult: 0
    decay_mult: 0
  }
  scale_param {
    filler {
      value: 1.7159
    }
  }
}
layer {
  name: "pool2"
  type: "Pooling"
  bottom: "conv2"
  top: "pool2"
  pooling_param {
    pool: MAX
    kernel_size: 2
    stride: 2
  }
}
layer {
  name: "conv3"
  type: "Convolution"
  bottom: "pool2"
  top: "conv3"
  convolution_param {
    num_output: 250
    pad: 0
    kernel_size: 4
    group: 1
    stride: 1
    weight_filler {
      type: "xavier"
    }
  }
}
layer {
  name: "conv3_prescale"
  type: "Scale"
  bottom: "conv3"
  top: "conv3"
  param {
    lr_mult: 0
    decay_mult: 0
  }
  scale_param {
    filler {
      value: 0.6666
    }
  }
}
layer {
  name: "conv3_sTanH"
  type: "TanH"
  bottom: "conv3"
  top: "conv3"
}
layer {
  name: "conv3_postscale"
  type: "Scale"
  bottom: "conv3"
  top: "conv3"
  param {
    lr_mult: 0
    decay_mult: 0
  }
  scale_param {
    filler {
      value: 1.7159
    }
  }
}
layer {
  name: "pool3"
  type: "Pooling"
  bottom: "conv3"
  top: "pool3"
  pooling_param {
    pool: MAX
    kernel_size: 2
    stride: 2
  }
}
layer {
  name: "fc4_300"
  type: "InnerProduct"
  bottom: "pool3"
  top: "fc4_300"
  inner_product_param {
    num_output: 300
    weight_filler {
      type: "xavier"
    }
  }
}
layer {
  name: "fc4_prescale"
  type: "Scale"
  bottom: "fc4_300"
  top: "fc4_300"
  param {
    lr_mult: 0
    decay_mult: 0
  }
  scale_param {
    filler {
      value: 0.6666
    }
  }
}
layer {
  name: "fc4_sTanH"
  type: "TanH"
  bottom: "fc4_300"
  top: "fc4_300"
}
layer {
  name: "fc4_postscale"
  type: "Scale"
  bottom: "fc4_300"
  top: "fc4_300"
  param {
    lr_mult: 0
    decay_mult: 0
  }
  scale_param {
    filler {
      value: 1.7159
    }
  }
}
layer {
  name: "fc5_67"
  type: "InnerProduct"
  bottom: "fc4_300"
  top: "fc5_classes"
  inner_product_param {
    num_output: 67
    weight_filler {
      type: "xavier"
    }
  }
}
layer {
  name: "loss"
  type: "SoftmaxWithLoss"
  bottom: "fc5_classes"
  bottom: "label"
  top: "loss"
}
I0410 23:57:55.390918  4382 layer_factory.hpp:77] Creating layer data
I0410 23:57:55.392448  4382 net.cpp:100] Creating Layer data
I0410 23:57:55.392468  4382 net.cpp:408] data -> data
I0410 23:57:55.392495  4382 net.cpp:408] data -> label
I0410 23:57:55.395701  4511 db_lmdb.cpp:35] Opened lmdb ../local_data/lmdb/rtsd-r1/CoNorm/train/lmdb
I0410 23:57:55.416115  4382 data_layer.cpp:41] output data size: 1024,3,48,48
I0410 23:57:55.474124  4382 net.cpp:150] Setting up data
I0410 23:57:55.474166  4382 net.cpp:157] Top shape: 1024 3 48 48 (7077888)
I0410 23:57:55.474174  4382 net.cpp:157] Top shape: 1024 (1024)
I0410 23:57:55.474177  4382 net.cpp:165] Memory required for data: 28315648
I0410 23:57:55.474189  4382 layer_factory.hpp:77] Creating layer conv1
I0410 23:57:55.474215  4382 net.cpp:100] Creating Layer conv1
I0410 23:57:55.474223  4382 net.cpp:434] conv1 <- data
I0410 23:57:55.474238  4382 net.cpp:408] conv1 -> conv1
I0410 23:57:55.800487  4382 net.cpp:150] Setting up conv1
I0410 23:57:55.800521  4382 net.cpp:157] Top shape: 1024 100 42 42 (180633600)
I0410 23:57:55.800526  4382 net.cpp:165] Memory required for data: 750850048
I0410 23:57:55.800550  4382 layer_factory.hpp:77] Creating layer conv1_prescale
I0410 23:57:55.800566  4382 net.cpp:100] Creating Layer conv1_prescale
I0410 23:57:55.800572  4382 net.cpp:434] conv1_prescale <- conv1
I0410 23:57:55.800585  4382 net.cpp:395] conv1_prescale -> conv1 (in-place)
I0410 23:57:55.800729  4382 net.cpp:150] Setting up conv1_prescale
I0410 23:57:55.800740  4382 net.cpp:157] Top shape: 1024 100 42 42 (180633600)
I0410 23:57:55.800743  4382 net.cpp:165] Memory required for data: 1473384448
I0410 23:57:55.800751  4382 layer_factory.hpp:77] Creating layer conv1_sTanH
I0410 23:57:55.800760  4382 net.cpp:100] Creating Layer conv1_sTanH
I0410 23:57:55.800765  4382 net.cpp:434] conv1_sTanH <- conv1
I0410 23:57:55.800772  4382 net.cpp:395] conv1_sTanH -> conv1 (in-place)
I0410 23:57:55.801021  4382 net.cpp:150] Setting up conv1_sTanH
I0410 23:57:55.801035  4382 net.cpp:157] Top shape: 1024 100 42 42 (180633600)
I0410 23:57:55.801041  4382 net.cpp:165] Memory required for data: 2195918848
I0410 23:57:55.801045  4382 layer_factory.hpp:77] Creating layer conv1_postscale
I0410 23:57:55.801062  4382 net.cpp:100] Creating Layer conv1_postscale
I0410 23:57:55.801069  4382 net.cpp:434] conv1_postscale <- conv1
I0410 23:57:55.801076  4382 net.cpp:395] conv1_postscale -> conv1 (in-place)
I0410 23:57:55.801198  4382 net.cpp:150] Setting up conv1_postscale
I0410 23:57:55.801208  4382 net.cpp:157] Top shape: 1024 100 42 42 (180633600)
I0410 23:57:55.801213  4382 net.cpp:165] Memory required for data: 2918453248
I0410 23:57:55.801218  4382 layer_factory.hpp:77] Creating layer pool1
I0410 23:57:55.801230  4382 net.cpp:100] Creating Layer pool1
I0410 23:57:55.801235  4382 net.cpp:434] pool1 <- conv1
I0410 23:57:55.801244  4382 net.cpp:408] pool1 -> pool1
I0410 23:57:55.801303  4382 net.cpp:150] Setting up pool1
I0410 23:57:55.801313  4382 net.cpp:157] Top shape: 1024 100 21 21 (45158400)
I0410 23:57:55.801319  4382 net.cpp:165] Memory required for data: 3099086848
I0410 23:57:55.801323  4382 layer_factory.hpp:77] Creating layer conv2
I0410 23:57:55.801336  4382 net.cpp:100] Creating Layer conv2
I0410 23:57:55.801359  4382 net.cpp:434] conv2 <- pool1
I0410 23:57:55.801369  4382 net.cpp:408] conv2 -> conv2
I0410 23:57:55.806679  4382 net.cpp:150] Setting up conv2
I0410 23:57:55.806701  4382 net.cpp:157] Top shape: 1024 150 18 18 (49766400)
I0410 23:57:55.806707  4382 net.cpp:165] Memory required for data: 3298152448
I0410 23:57:55.806720  4382 layer_factory.hpp:77] Creating layer conv2_prescale
I0410 23:57:55.806731  4382 net.cpp:100] Creating Layer conv2_prescale
I0410 23:57:55.806737  4382 net.cpp:434] conv2_prescale <- conv2
I0410 23:57:55.806743  4382 net.cpp:395] conv2_prescale -> conv2 (in-place)
I0410 23:57:55.806877  4382 net.cpp:150] Setting up conv2_prescale
I0410 23:57:55.806887  4382 net.cpp:157] Top shape: 1024 150 18 18 (49766400)
I0410 23:57:55.806892  4382 net.cpp:165] Memory required for data: 3497218048
I0410 23:57:55.806898  4382 layer_factory.hpp:77] Creating layer conv2_sTanH
I0410 23:57:55.806908  4382 net.cpp:100] Creating Layer conv2_sTanH
I0410 23:57:55.806913  4382 net.cpp:434] conv2_sTanH <- conv2
I0410 23:57:55.806918  4382 net.cpp:395] conv2_sTanH -> conv2 (in-place)
I0410 23:57:55.807823  4382 net.cpp:150] Setting up conv2_sTanH
I0410 23:57:55.807842  4382 net.cpp:157] Top shape: 1024 150 18 18 (49766400)
I0410 23:57:55.807847  4382 net.cpp:165] Memory required for data: 3696283648
I0410 23:57:55.807852  4382 layer_factory.hpp:77] Creating layer conv2_postscale
I0410 23:57:55.807862  4382 net.cpp:100] Creating Layer conv2_postscale
I0410 23:57:55.807868  4382 net.cpp:434] conv2_postscale <- conv2
I0410 23:57:55.807874  4382 net.cpp:395] conv2_postscale -> conv2 (in-place)
I0410 23:57:55.808004  4382 net.cpp:150] Setting up conv2_postscale
I0410 23:57:55.808015  4382 net.cpp:157] Top shape: 1024 150 18 18 (49766400)
I0410 23:57:55.808019  4382 net.cpp:165] Memory required for data: 3895349248
I0410 23:57:55.808025  4382 layer_factory.hpp:77] Creating layer pool2
I0410 23:57:55.808034  4382 net.cpp:100] Creating Layer pool2
I0410 23:57:55.808040  4382 net.cpp:434] pool2 <- conv2
I0410 23:57:55.808045  4382 net.cpp:408] pool2 -> pool2
I0410 23:57:55.808097  4382 net.cpp:150] Setting up pool2
I0410 23:57:55.808106  4382 net.cpp:157] Top shape: 1024 150 9 9 (12441600)
I0410 23:57:55.808110  4382 net.cpp:165] Memory required for data: 3945115648
I0410 23:57:55.808115  4382 layer_factory.hpp:77] Creating layer conv3
I0410 23:57:55.808128  4382 net.cpp:100] Creating Layer conv3
I0410 23:57:55.808135  4382 net.cpp:434] conv3 <- pool2
I0410 23:57:55.808140  4382 net.cpp:408] conv3 -> conv3
I0410 23:57:55.814916  4382 net.cpp:150] Setting up conv3
I0410 23:57:55.814940  4382 net.cpp:157] Top shape: 1024 250 6 6 (9216000)
I0410 23:57:55.814946  4382 net.cpp:165] Memory required for data: 3981979648
I0410 23:57:55.814957  4382 layer_factory.hpp:77] Creating layer conv3_prescale
I0410 23:57:55.814968  4382 net.cpp:100] Creating Layer conv3_prescale
I0410 23:57:55.814973  4382 net.cpp:434] conv3_prescale <- conv3
I0410 23:57:55.814988  4382 net.cpp:395] conv3_prescale -> conv3 (in-place)
I0410 23:57:55.815121  4382 net.cpp:150] Setting up conv3_prescale
I0410 23:57:55.815131  4382 net.cpp:157] Top shape: 1024 250 6 6 (9216000)
I0410 23:57:55.815135  4382 net.cpp:165] Memory required for data: 4018843648
I0410 23:57:55.815140  4382 layer_factory.hpp:77] Creating layer conv3_sTanH
I0410 23:57:55.815146  4382 net.cpp:100] Creating Layer conv3_sTanH
I0410 23:57:55.815151  4382 net.cpp:434] conv3_sTanH <- conv3
I0410 23:57:55.815156  4382 net.cpp:395] conv3_sTanH -> conv3 (in-place)
I0410 23:57:55.816045  4382 net.cpp:150] Setting up conv3_sTanH
I0410 23:57:55.816062  4382 net.cpp:157] Top shape: 1024 250 6 6 (9216000)
I0410 23:57:55.816067  4382 net.cpp:165] Memory required for data: 4055707648
I0410 23:57:55.816072  4382 layer_factory.hpp:77] Creating layer conv3_postscale
I0410 23:57:55.816082  4382 net.cpp:100] Creating Layer conv3_postscale
I0410 23:57:55.816088  4382 net.cpp:434] conv3_postscale <- conv3
I0410 23:57:55.816094  4382 net.cpp:395] conv3_postscale -> conv3 (in-place)
I0410 23:57:55.816231  4382 net.cpp:150] Setting up conv3_postscale
I0410 23:57:55.816241  4382 net.cpp:157] Top shape: 1024 250 6 6 (9216000)
I0410 23:57:55.816246  4382 net.cpp:165] Memory required for data: 4092571648
I0410 23:57:55.816251  4382 layer_factory.hpp:77] Creating layer pool3
I0410 23:57:55.816258  4382 net.cpp:100] Creating Layer pool3
I0410 23:57:55.816263  4382 net.cpp:434] pool3 <- conv3
I0410 23:57:55.816270  4382 net.cpp:408] pool3 -> pool3
I0410 23:57:55.816318  4382 net.cpp:150] Setting up pool3
I0410 23:57:55.816329  4382 net.cpp:157] Top shape: 1024 250 3 3 (2304000)
I0410 23:57:55.816334  4382 net.cpp:165] Memory required for data: 4101787648
I0410 23:57:55.816336  4382 layer_factory.hpp:77] Creating layer fc4_300
I0410 23:57:55.816347  4382 net.cpp:100] Creating Layer fc4_300
I0410 23:57:55.816352  4382 net.cpp:434] fc4_300 <- pool3
I0410 23:57:55.816359  4382 net.cpp:408] fc4_300 -> fc4_300
I0410 23:57:55.822665  4382 net.cpp:150] Setting up fc4_300
I0410 23:57:55.822684  4382 net.cpp:157] Top shape: 1024 300 (307200)
I0410 23:57:55.822688  4382 net.cpp:165] Memory required for data: 4103016448
I0410 23:57:55.822696  4382 layer_factory.hpp:77] Creating layer fc4_prescale
I0410 23:57:55.822705  4382 net.cpp:100] Creating Layer fc4_prescale
I0410 23:57:55.822711  4382 net.cpp:434] fc4_prescale <- fc4_300
I0410 23:57:55.822720  4382 net.cpp:395] fc4_prescale -> fc4_300 (in-place)
I0410 23:57:55.822824  4382 net.cpp:150] Setting up fc4_prescale
I0410 23:57:55.822834  4382 net.cpp:157] Top shape: 1024 300 (307200)
I0410 23:57:55.822839  4382 net.cpp:165] Memory required for data: 4104245248
I0410 23:57:55.822844  4382 layer_factory.hpp:77] Creating layer fc4_sTanH
I0410 23:57:55.822849  4382 net.cpp:100] Creating Layer fc4_sTanH
I0410 23:57:55.822854  4382 net.cpp:434] fc4_sTanH <- fc4_300
I0410 23:57:55.822859  4382 net.cpp:395] fc4_sTanH -> fc4_300 (in-place)
I0410 23:57:55.823081  4382 net.cpp:150] Setting up fc4_sTanH
I0410 23:57:55.823092  4382 net.cpp:157] Top shape: 1024 300 (307200)
I0410 23:57:55.823097  4382 net.cpp:165] Memory required for data: 4105474048
I0410 23:57:55.823101  4382 layer_factory.hpp:77] Creating layer fc4_postscale
I0410 23:57:55.823107  4382 net.cpp:100] Creating Layer fc4_postscale
I0410 23:57:55.823112  4382 net.cpp:434] fc4_postscale <- fc4_300
I0410 23:57:55.823123  4382 net.cpp:395] fc4_postscale -> fc4_300 (in-place)
I0410 23:57:55.823241  4382 net.cpp:150] Setting up fc4_postscale
I0410 23:57:55.823251  4382 net.cpp:157] Top shape: 1024 300 (307200)
I0410 23:57:55.823256  4382 net.cpp:165] Memory required for data: 4106702848
I0410 23:57:55.823261  4382 layer_factory.hpp:77] Creating layer fc5_67
I0410 23:57:55.823267  4382 net.cpp:100] Creating Layer fc5_67
I0410 23:57:55.823271  4382 net.cpp:434] fc5_67 <- fc4_300
I0410 23:57:55.823278  4382 net.cpp:408] fc5_67 -> fc5_classes
I0410 23:57:55.824698  4382 net.cpp:150] Setting up fc5_67
I0410 23:57:55.824717  4382 net.cpp:157] Top shape: 1024 67 (68608)
I0410 23:57:55.824722  4382 net.cpp:165] Memory required for data: 4106977280
I0410 23:57:55.824733  4382 layer_factory.hpp:77] Creating layer loss
I0410 23:57:55.824743  4382 net.cpp:100] Creating Layer loss
I0410 23:57:55.824748  4382 net.cpp:434] loss <- fc5_classes
I0410 23:57:55.824753  4382 net.cpp:434] loss <- label
I0410 23:57:55.824761  4382 net.cpp:408] loss -> loss
I0410 23:57:55.824776  4382 layer_factory.hpp:77] Creating layer loss
…
I0410 23:57:55.825613  4382 solver.cpp:193] Creating test net (#0) specified by test_net file: ./Prototxt/experiment_8/rtsd-r1/CoNorm/trial_1/test.prototxt
I0410 23:57:55.825814  4382 net.cpp:58] Initializing net from parameters: 
state {
  phase: TEST
}
layer {
  name: "data"
  type: "Data"
  top: "data"
  top: "label"
  include {
    phase: TEST
  }
  transform_param {
    mirror: false
    crop_size: 48
    mean_value: 133
    mean_value: 133
    mean_value: 132
  }
  data_param {
    source: "../local_data/lmdb/rtsd-r1/CoNorm/test/lmdb"
    batch_size: 1024
    backend: LMDB
  }
}
layer {
  name: "conv1"
  type: "Convolution"
  bottom: "data"
  top: "conv1"
  convolution_param {
    num_output: 100
    pad: 0
    kernel_size: 7
    group: 1
    stride: 1
    weight_filler {
      type: "xavier"
    }
  }
}
layer {
  name: "conv1_prescale"
  type: "Scale"
  bottom: "conv1"
  top: "conv1"
  param {
    lr_mult: 0
    decay_mult: 0
  }
  scale_param {
    filler {
      value: 0.6666
    }
  }
}
layer {
  name: "conv1_sTanH"
  type: "TanH"
  bottom: "conv1"
  top: "conv1"
}
layer {
  name: "conv1_postscale"
  type: "Scale"
  bottom: "conv1"
  top: "conv1"
  param {
    lr_mult: 0
    decay_mult: 0
  }
  scale_param {
    filler {
      value: 1.7159
    }
  }
}
layer {
  name: "pool1"
  type: "Pooling"
  bottom: "conv1"
  top: "pool1"
  pooling_param {
    pool: MAX
    kernel_size: 2
    stride: 2
  }
}
layer {
  name: "conv2"
  type: "Convolution"
  bottom: "pool1"
  top: "conv2"
  convolution_param {
    num_output: 150
    pad: 0
    kernel_size: 4
    group: 1
    stride: 1
    weight_filler {
      type: "xavier"
    }
  }
}
layer {
  name: "conv2_prescale"
  type: "Scale"
  bottom: "conv2"
  top: "conv2"
  param {
    lr_mult: 0
    decay_mult: 0
  }
  scale_param {
    filler {
      value: 0.6666
    }
  }
}
layer {
  name: "conv2_sTanH"
  type: "TanH"
  bottom: "conv2"
  top: "conv2"
}
layer {
  name: "conv2_postscale"
  type: "Scale"
  bottom: "conv2"
  top: "conv2"
  param {
    lr_mult: 0
    decay_mult: 0
  }
  scale_param {
    filler {
      value: 1.7159
    }
  }
}
layer {
  name: "pool2"
  type: "Pooling"
  bottom: "conv2"
  top: "pool2"
  pooling_param {
    pool: MAX
    kernel_size: 2
    stride: 2
  }
}
layer {
  name: "conv3"
  type: "Convolution"
  bottom: "pool2"
  top: "conv3"
  convolution_param {
    num_output: 250
    pad: 0
    kernel_size: 4
    group: 1
    stride: 1
    weight_filler {
      type: "xavier"
    }
  }
}
layer {
  name: "conv3_prescale"
  type: "Scale"
  bottom: "conv3"
  top: "conv3"
  param {
    lr_mult: 0
    decay_mult: 0
  }
  scale_param {
    filler {
      value: 0.6666
    }
  }
}
layer {
  name: "conv3_sTanH"
  type: "TanH"
  bottom: "conv3"
  top: "conv3"
}
layer {
  name: "conv3_postscale"
  type: "Scale"
  bottom: "conv3"
  top: "conv3"
  param {
    lr_mult: 0
    decay_mult: 0
  }
  scale_param {
    filler {
      value: 1.7159
    }
  }
}
layer {
  name: "pool3"
  type: "Pooling"
  bottom: "conv3"
  top: "pool3"
  pooling_param {
    pool: MAX
    kernel_size: 2
    stride: 2
  }
}
layer {
  name: "fc4_300"
  type: "InnerProduct"
  bottom: "pool3"
  top: "fc4_300"
  inner_product_param {
    num_output: 300
    weight_filler {
      type: "xavier"
    }
  }
}
layer {
  name: "fc4_prescale"
  type: "Scale"
  bottom: "fc4_300"
  top: "fc4_300"
  param {
    lr_mult: 0
    decay_mult: 0
  }
  scale_param {
    filler {
      value: 0.6666
    }
  }
}
layer {
  name: "fc4_sTanH"
  type: "TanH"
  bottom: "fc4_300"
  top: "fc4_300"
}
layer {
  name: "fc4_postscale"
  type: "Scale"
  bottom: "fc4_300"
  top: "fc4_300"
  param {
    lr_mult: 0
    decay_mult: 0
  }
  scale_param {
    filler {
      value: 1.7159
    }
  }
}
layer {
  name: "fc5_67"
  type: "InnerProduct"
  bottom: "fc4_300"
  top: "fc5_classes"
  inner_product_param {
    num_output: 67
    weight_filler {
      type: "xavier"
    }
  }
}
layer {
  name: "loss"
  type: "SoftmaxWithLoss"
  bottom: "fc5_classes"
  bottom: "label"
  top: "loss"
}
layer {
  name: "accuracy_1"
  type: "Accuracy"
  bottom: "fc5_classes"
  bottom: "label"
  top: "accuracy_1"
  include {
    phase: TEST
  }
  accuracy_param {
    top_k: 1
  }
}
layer {
  name: "accuracy_5"
  type: "Accuracy"
  bottom: "fc5_classes"
  bottom: "label"
  top: "accuracy_5"
  include {
    phase: TEST
  }
  accuracy_param {
    top_k: 5
  }
}
I0410 23:57:55.825950  4382 layer_factory.hpp:77] Creating layer data
I0410 23:57:55.826751  4382 net.cpp:100] Creating Layer data
I0410 23:57:55.826768  4382 net.cpp:408] data -> data
I0410 23:57:55.826792  4382 net.cpp:408] data -> label
I0410 23:57:55.827865  4549 db_lmdb.cpp:35] Opened lmdb ../local_data/lmdb/rtsd-r1/CoNorm/test/lmdb
I0410 23:57:55.828033  4382 data_layer.cpp:41] output data size: 1024,3,48,48
I0410 23:57:55.875762  4382 net.cpp:150] Setting up data
I0410 23:57:55.875790  4382 net.cpp:157] Top shape: 1024 3 48 48 (7077888)
I0410 23:57:55.875795  4382 net.cpp:157] Top shape: 1024 (1024)
I0410 23:57:55.875798  4382 net.cpp:165] Memory required for data: 28315648
I0410 23:57:55.875807  4382 layer_factory.hpp:77] Creating layer label_data_1_split
I0410 23:57:55.875823  4382 net.cpp:100] Creating Layer label_data_1_split
I0410 23:57:55.875828  4382 net.cpp:434] label_data_1_split <- label
I0410 23:57:55.875835  4382 net.cpp:408] label_data_1_split -> label_data_1_split_0
I0410 23:57:55.875849  4382 net.cpp:408] label_data_1_split -> label_data_1_split_1
I0410 23:57:55.875856  4382 net.cpp:408] label_data_1_split -> label_data_1_split_2
I0410 23:57:55.875962  4382 net.cpp:150] Setting up label_data_1_split
I0410 23:57:55.875972  4382 net.cpp:157] Top shape: 1024 (1024)
I0410 23:57:55.875974  4382 net.cpp:157] Top shape: 1024 (1024)
I0410 23:57:55.875978  4382 net.cpp:157] Top shape: 1024 (1024)
I0410 23:57:55.875982  4382 net.cpp:165] Memory required for data: 28327936
I0410 23:57:55.875984  4382 layer_factory.hpp:77] Creating layer conv1
I0410 23:57:55.875996  4382 net.cpp:100] Creating Layer conv1
I0410 23:57:55.876001  4382 net.cpp:434] conv1 <- data
I0410 23:57:55.876006  4382 net.cpp:408] conv1 -> conv1
I0410 23:57:55.878120  4382 net.cpp:150] Setting up conv1
I0410 23:57:55.878139  4382 net.cpp:157] Top shape: 1024 100 42 42 (180633600)
I0410 23:57:55.878144  4382 net.cpp:165] Memory required for data: 750862336
I0410 23:57:55.878156  4382 layer_factory.hpp:77] Creating layer conv1_prescale
I0410 23:57:55.878166  4382 net.cpp:100] Creating Layer conv1_prescale
I0410 23:57:55.878171  4382 net.cpp:434] conv1_prescale <- conv1
I0410 23:57:55.878180  4382 net.cpp:395] conv1_prescale -> conv1 (in-place)
I0410 23:57:55.878326  4382 net.cpp:150] Setting up conv1_prescale
I0410 23:57:55.878336  4382 net.cpp:157] Top shape: 1024 100 42 42 (180633600)
I0410 23:57:55.878340  4382 net.cpp:165] Memory required for data: 1473396736
I0410 23:57:55.878347  4382 layer_factory.hpp:77] Creating layer conv1_sTanH
I0410 23:57:55.878358  4382 net.cpp:100] Creating Layer conv1_sTanH
I0410 23:57:55.878363  4382 net.cpp:434] conv1_sTanH <- conv1
I0410 23:57:55.878368  4382 net.cpp:395] conv1_sTanH -> conv1 (in-place)
I0410 23:57:55.878585  4382 net.cpp:150] Setting up conv1_sTanH
I0410 23:57:55.878597  4382 net.cpp:157] Top shape: 1024 100 42 42 (180633600)
I0410 23:57:55.878602  4382 net.cpp:165] Memory required for data: 2195931136
I0410 23:57:55.878604  4382 layer_factory.hpp:77] Creating layer conv1_postscale
I0410 23:57:55.878612  4382 net.cpp:100] Creating Layer conv1_postscale
I0410 23:57:55.878618  4382 net.cpp:434] conv1_postscale <- conv1
I0410 23:57:55.878623  4382 net.cpp:395] conv1_postscale -> conv1 (in-place)
I0410 23:57:55.880982  4382 net.cpp:150] Setting up conv1_postscale
I0410 23:57:55.881002  4382 net.cpp:157] Top shape: 1024 100 42 42 (180633600)
I0410 23:57:55.881008  4382 net.cpp:165] Memory required for data: 2918465536
I0410 23:57:55.881016  4382 layer_factory.hpp:77] Creating layer pool1
I0410 23:57:55.881024  4382 net.cpp:100] Creating Layer pool1
I0410 23:57:55.881032  4382 net.cpp:434] pool1 <- conv1
I0410 23:57:55.881042  4382 net.cpp:408] pool1 -> pool1
I0410 23:57:55.881098  4382 net.cpp:150] Setting up pool1
I0410 23:57:55.881109  4382 net.cpp:157] Top shape: 1024 100 21 21 (45158400)
I0410 23:57:55.881114  4382 net.cpp:165] Memory required for data: 3099099136
I0410 23:57:55.881119  4382 layer_factory.hpp:77] Creating layer conv2
I0410 23:57:55.881129  4382 net.cpp:100] Creating Layer conv2
I0410 23:57:55.881134  4382 net.cpp:434] conv2 <- pool1
I0410 23:57:55.881140  4382 net.cpp:408] conv2 -> conv2
I0410 23:57:55.895823  4382 net.cpp:150] Setting up conv2
I0410 23:57:55.895845  4382 net.cpp:157] Top shape: 1024 150 18 18 (49766400)
I0410 23:57:55.895849  4382 net.cpp:165] Memory required for data: 3298164736
I0410 23:57:55.895861  4382 layer_factory.hpp:77] Creating layer conv2_prescale
I0410 23:57:55.895875  4382 net.cpp:100] Creating Layer conv2_prescale
I0410 23:57:55.895895  4382 net.cpp:434] conv2_prescale <- conv2
I0410 23:57:55.895901  4382 net.cpp:395] conv2_prescale -> conv2 (in-place)
I0410 23:57:55.896023  4382 net.cpp:150] Setting up conv2_prescale
I0410 23:57:55.896031  4382 net.cpp:157] Top shape: 1024 150 18 18 (49766400)
I0410 23:57:55.896034  4382 net.cpp:165] Memory required for data: 3497230336
I0410 23:57:55.896039  4382 layer_factory.hpp:77] Creating layer conv2_sTanH
I0410 23:57:55.896044  4382 net.cpp:100] Creating Layer conv2_sTanH
I0410 23:57:55.896049  4382 net.cpp:434] conv2_sTanH <- conv2
I0410 23:57:55.896054  4382 net.cpp:395] conv2_sTanH -> conv2 (in-place)
I0410 23:57:55.897212  4382 net.cpp:150] Setting up conv2_sTanH
I0410 23:57:55.897228  4382 net.cpp:157] Top shape: 1024 150 18 18 (49766400)
I0410 23:57:55.897231  4382 net.cpp:165] Memory required for data: 3696295936
I0410 23:57:55.897235  4382 layer_factory.hpp:77] Creating layer conv2_postscale
I0410 23:57:55.897244  4382 net.cpp:100] Creating Layer conv2_postscale
I0410 23:57:55.897248  4382 net.cpp:434] conv2_postscale <- conv2
I0410 23:57:55.897253  4382 net.cpp:395] conv2_postscale -> conv2 (in-place)
I0410 23:57:55.897366  4382 net.cpp:150] Setting up conv2_postscale
I0410 23:57:55.897374  4382 net.cpp:157] Top shape: 1024 150 18 18 (49766400)
I0410 23:57:55.897377  4382 net.cpp:165] Memory required for data: 3895361536
I0410 23:57:55.897382  4382 layer_factory.hpp:77] Creating layer pool2
I0410 23:57:55.897388  4382 net.cpp:100] Creating Layer pool2
I0410 23:57:55.897392  4382 net.cpp:434] pool2 <- conv2
I0410 23:57:55.897400  4382 net.cpp:408] pool2 -> pool2
I0410 23:57:55.897454  4382 net.cpp:150] Setting up pool2
I0410 23:57:55.897461  4382 net.cpp:157] Top shape: 1024 150 9 9 (12441600)
I0410 23:57:55.897483  4382 net.cpp:165] Memory required for data: 3945127936
I0410 23:57:55.897487  4382 layer_factory.hpp:77] Creating layer conv3
I0410 23:57:55.897498  4382 net.cpp:100] Creating Layer conv3
I0410 23:57:55.897503  4382 net.cpp:434] conv3 <- pool2
I0410 23:57:55.897509  4382 net.cpp:408] conv3 -> conv3
I0410 23:57:55.903484  4382 net.cpp:150] Setting up conv3
I0410 23:57:55.903503  4382 net.cpp:157] Top shape: 1024 250 6 6 (9216000)
I0410 23:57:55.903507  4382 net.cpp:165] Memory required for data: 3981991936
I0410 23:57:55.903519  4382 layer_factory.hpp:77] Creating layer conv3_prescale
I0410 23:57:55.903527  4382 net.cpp:100] Creating Layer conv3_prescale
I0410 23:57:55.903532  4382 net.cpp:434] conv3_prescale <- conv3
I0410 23:57:55.903537  4382 net.cpp:395] conv3_prescale -> conv3 (in-place)
I0410 23:57:55.903643  4382 net.cpp:150] Setting up conv3_prescale
I0410 23:57:55.903653  4382 net.cpp:157] Top shape: 1024 250 6 6 (9216000)
I0410 23:57:55.903656  4382 net.cpp:165] Memory required for data: 4018855936
I0410 23:57:55.903661  4382 layer_factory.hpp:77] Creating layer conv3_sTanH
I0410 23:57:55.903668  4382 net.cpp:100] Creating Layer conv3_sTanH
I0410 23:57:55.903671  4382 net.cpp:434] conv3_sTanH <- conv3
I0410 23:57:55.903678  4382 net.cpp:395] conv3_sTanH -> conv3 (in-place)
I0410 23:57:55.904786  4382 net.cpp:150] Setting up conv3_sTanH
I0410 23:57:55.904803  4382 net.cpp:157] Top shape: 1024 250 6 6 (9216000)
I0410 23:57:55.904806  4382 net.cpp:165] Memory required for data: 4055719936
I0410 23:57:55.904809  4382 layer_factory.hpp:77] Creating layer conv3_postscale
I0410 23:57:55.904819  4382 net.cpp:100] Creating Layer conv3_postscale
I0410 23:57:55.904824  4382 net.cpp:434] conv3_postscale <- conv3
I0410 23:57:55.904830  4382 net.cpp:395] conv3_postscale -> conv3 (in-place)
I0410 23:57:55.904937  4382 net.cpp:150] Setting up conv3_postscale
I0410 23:57:55.904947  4382 net.cpp:157] Top shape: 1024 250 6 6 (9216000)
I0410 23:57:55.904950  4382 net.cpp:165] Memory required for data: 4092583936
I0410 23:57:55.904955  4382 layer_factory.hpp:77] Creating layer pool3
I0410 23:57:55.904966  4382 net.cpp:100] Creating Layer pool3
I0410 23:57:55.904971  4382 net.cpp:434] pool3 <- conv3
I0410 23:57:55.904976  4382 net.cpp:408] pool3 -> pool3
I0410 23:57:55.905022  4382 net.cpp:150] Setting up pool3
I0410 23:57:55.905030  4382 net.cpp:157] Top shape: 1024 250 3 3 (2304000)
I0410 23:57:55.905033  4382 net.cpp:165] Memory required for data: 4101799936
I0410 23:57:55.905035  4382 layer_factory.hpp:77] Creating layer fc4_300
I0410 23:57:55.905045  4382 net.cpp:100] Creating Layer fc4_300
I0410 23:57:55.905047  4382 net.cpp:434] fc4_300 <- pool3
I0410 23:57:55.905052  4382 net.cpp:408] fc4_300 -> fc4_300
I0410 23:57:55.911223  4382 net.cpp:150] Setting up fc4_300
I0410 23:57:55.911242  4382 net.cpp:157] Top shape: 1024 300 (307200)
I0410 23:57:55.911245  4382 net.cpp:165] Memory required for data: 4103028736
I0410 23:57:55.911252  4382 layer_factory.hpp:77] Creating layer fc4_prescale
I0410 23:57:55.911260  4382 net.cpp:100] Creating Layer fc4_prescale
I0410 23:57:55.911264  4382 net.cpp:434] fc4_prescale <- fc4_300
I0410 23:57:55.911269  4382 net.cpp:395] fc4_prescale -> fc4_300 (in-place)
I0410 23:57:55.911365  4382 net.cpp:150] Setting up fc4_prescale
I0410 23:57:55.911372  4382 net.cpp:157] Top shape: 1024 300 (307200)
I0410 23:57:55.911375  4382 net.cpp:165] Memory required for data: 4104257536
I0410 23:57:55.911379  4382 layer_factory.hpp:77] Creating layer fc4_sTanH
I0410 23:57:55.911384  4382 net.cpp:100] Creating Layer fc4_sTanH
I0410 23:57:55.911389  4382 net.cpp:434] fc4_sTanH <- fc4_300
I0410 23:57:55.911394  4382 net.cpp:395] fc4_sTanH -> fc4_300 (in-place)
I0410 23:57:55.911593  4382 net.cpp:150] Setting up fc4_sTanH
I0410 23:57:55.911605  4382 net.cpp:157] Top shape: 1024 300 (307200)
I0410 23:57:55.911609  4382 net.cpp:165] Memory required for data: 4105486336
I0410 23:57:55.911612  4382 layer_factory.hpp:77] Creating layer fc4_postscale
I0410 23:57:55.911620  4382 net.cpp:100] Creating Layer fc4_postscale
I0410 23:57:55.911638  4382 net.cpp:434] fc4_postscale <- fc4_300
I0410 23:57:55.911643  4382 net.cpp:395] fc4_postscale -> fc4_300 (in-place)
I0410 23:57:55.911752  4382 net.cpp:150] Setting up fc4_postscale
I0410 23:57:55.911761  4382 net.cpp:157] Top shape: 1024 300 (307200)
I0410 23:57:55.911763  4382 net.cpp:165] Memory required for data: 4106715136
I0410 23:57:55.911775  4382 layer_factory.hpp:77] Creating layer fc5_67
I0410 23:57:55.911782  4382 net.cpp:100] Creating Layer fc5_67
I0410 23:57:55.911785  4382 net.cpp:434] fc5_67 <- fc4_300
I0410 23:57:55.911792  4382 net.cpp:408] fc5_67 -> fc5_classes
I0410 23:57:55.912058  4382 net.cpp:150] Setting up fc5_67
I0410 23:57:55.912068  4382 net.cpp:157] Top shape: 1024 67 (68608)
I0410 23:57:55.912071  4382 net.cpp:165] Memory required for data: 4106989568
I0410 23:57:55.912081  4382 layer_factory.hpp:77] Creating layer fc5_classes_fc5_67_0_split
I0410 23:57:55.912089  4382 net.cpp:100] Creating Layer fc5_classes_fc5_67_0_split
I0410 23:57:55.912097  4382 net.cpp:434] fc5_classes_fc5_67_0_split <- fc5_classes
I0410 23:57:55.912102  4382 net.cpp:408] fc5_classes_fc5_67_0_split -> fc5_classes_fc5_67_0_split_0
I0410 23:57:55.912109  4382 net.cpp:408] fc5_classes_fc5_67_0_split -> fc5_classes_fc5_67_0_split_1
I0410 23:57:55.912116  4382 net.cpp:408] fc5_classes_fc5_67_0_split -> fc5_classes_fc5_67_0_split_2
I0410 23:57:55.912168  4382 net.cpp:150] Setting up fc5_classes_fc5_67_0_split
I0410 23:57:55.912175  4382 net.cpp:157] Top shape: 1024 67 (68608)
I0410 23:57:55.912179  4382 net.cpp:157] Top shape: 1024 67 (68608)
I0410 23:57:55.912183  4382 net.cpp:157] Top shape: 1024 67 (68608)
I0410 23:57:55.912184  4382 net.cpp:165] Memory required for data: 4107812864
I0410 23:57:55.912187  4382 layer_factory.hpp:77] Creating layer loss
I0410 23:57:55.912194  4382 net.cpp:100] Creating Layer loss
I0410 23:57:55.912197  4382 net.cpp:434] loss <- fc5_classes_fc5_67_0_split_0
I0410 23:57:55.912202  4382 net.cpp:434] loss <- label_data_1_split_0
I0410 23:57:55.912206  4382 net.cpp:408] loss -> loss
…
