…
I0411 00:00:59.589545 23152 net.cpp:322] The NetState phase (0) differed from the phase (1) specified by a rule in layer accuracy_5
I0411 00:00:59.589694 23152 net.cpp:58] Initializing net from parameters: 
state {
  phase: TRAIN
  level: 0
  stage: ""
}
layer {
  name: "data"
  type: "Data"
  top: "data"
  top: "label"
  include {
    phase: TRAIN
  }
  transform_param {
    mirror: false
    crop_size: 48
    mean_value: 132
    mean_value: 132
    mean_value: 131
  }
  data_param {
    source: "../local_data/lmdb/rtsd-r1/CoNorm/train/lmdb"
    batch_size: 1024
    backend: LMDB
  }
}
layer {
  name: "conv1"
  type: "Convolution"
  bottom: "data"
  top: "conv1"
  convolution_param {
    num_output: 100
    pad: 0
    kernel_size: 7
    group: 1
    stride: 1
    weight_filler {
      type: "xavier"
    }
  }
}
layer {
  name: "conv1_prescale"
  type: "Scale"
  bottom: "conv1"
  top: "conv1"
  param {
    lr_mult: 0
    decay_mult: 0
  }
  scale_param {
    filler {
      value: 0.6666
    }
  }
}
layer {
  name: "conv1_sTanH"
  type: "TanH"
  bottom: "conv1"
  top: "conv1"
}
layer {
  name: "conv1_postscale"
  type: "Scale"
  bottom: "conv1"
  top: "conv1"
  param {
    lr_mult: 0
    decay_mult: 0
  }
  scale_param {
    filler {
      value: 1.7159
    }
  }
}
layer {
  name: "pool1"
  type: "Pooling"
  bottom: "conv1"
  top: "pool1"
  pooling_param {
    pool: MAX
    kernel_size: 2
    stride: 2
  }
}
layer {
  name: "conv2"
  type: "Convolution"
  bottom: "pool1"
  top: "conv2"
  convolution_param {
    num_output: 150
    pad: 0
    kernel_size: 4
    group: 1
    stride: 1
    weight_filler {
      type: "xavier"
    }
  }
}
layer {
  name: "conv2_prescale"
  type: "Scale"
  bottom: "conv2"
  top: "conv2"
  param {
    lr_mult: 0
    decay_mult: 0
  }
  scale_param {
    filler {
      value: 0.6666
    }
  }
}
layer {
  name: "conv2_sTanH"
  type: "TanH"
  bottom: "conv2"
  top: "conv2"
}
layer {
  name: "conv2_postscale"
  type: "Scale"
  bottom: "conv2"
  top: "conv2"
  param {
    lr_mult: 0
    decay_mult: 0
  }
  scale_param {
    filler {
      value: 1.7159
    }
  }
}
layer {
  name: "pool2"
  type: "Pooling"
  bottom: "conv2"
  top: "pool2"
  pooling_param {
    pool: MAX
    kernel_size: 2
    stride: 2
  }
}
layer {
  name: "conv3"
  type: "Convolution"
  bottom: "pool2"
  top: "conv3"
  convolution_param {
    num_output: 250
    pad: 0
    kernel_size: 4
    group: 1
    stride: 1
    weight_filler {
      type: "xavier"
    }
  }
}
layer {
  name: "conv3_prescale"
  type: "Scale"
  bottom: "conv3"
  top: "conv3"
  param {
    lr_mult: 0
    decay_mult: 0
  }
  scale_param {
    filler {
      value: 0.6666
    }
  }
}
layer {
  name: "conv3_sTanH"
  type: "TanH"
  bottom: "conv3"
  top: "conv3"
}
layer {
  name: "conv3_postscale"
  type: "Scale"
  bottom: "conv3"
  top: "conv3"
  param {
    lr_mult: 0
    decay_mult: 0
  }
  scale_param {
    filler {
      value: 1.7159
    }
  }
}
layer {
  name: "pool3"
  type: "Pooling"
  bottom: "conv3"
  top: "pool3"
  pooling_param {
    pool: MAX
    kernel_size: 2
    stride: 2
  }
}
layer {
  name: "fc4_300"
  type: "InnerProduct"
  bottom: "pool3"
  top: "fc4_300"
  inner_product_param {
    num_output: 300
    weight_filler {
      type: "xavier"
    }
  }
}
layer {
  name: "fc4_prescale"
  type: "Scale"
  bottom: "fc4_300"
  top: "fc4_300"
  param {
    lr_mult: 0
    decay_mult: 0
  }
  scale_param {
    filler {
      value: 0.6666
    }
  }
}
layer {
  name: "fc4_sTanH"
  type: "TanH"
  bottom: "fc4_300"
  top: "fc4_300"
}
layer {
  name: "fc4_postscale"
  type: "Scale"
  bottom: "fc4_300"
  top: "fc4_300"
  param {
    lr_mult: 0
    decay_mult: 0
  }
  scale_param {
    filler {
      value: 1.7159
    }
  }
}
layer {
  name: "fc5_67"
  type: "InnerProduct"
  bottom: "fc4_300"
  top: "fc5_classes"
  inner_product_param {
    num_output: 67
    weight_filler {
      type: "xavier"
    }
  }
}
layer {
  name: "loss"
  type: "SoftmaxWithLoss"
  bottom: "fc5_classes"
  bottom: "label"
  top: "loss"
}
I0411 00:00:59.589800 23152 layer_factory.hpp:77] Creating layer data
I0411 00:00:59.590867 23152 net.cpp:100] Creating Layer data
I0411 00:00:59.590883 23152 net.cpp:408] data -> data
I0411 00:00:59.590904 23152 net.cpp:408] data -> label
I0411 00:00:59.592346 23274 db_lmdb.cpp:35] Opened lmdb ../local_data/lmdb/rtsd-r1/CoNorm/train/lmdb
I0411 00:00:59.609901 23152 data_layer.cpp:41] output data size: 1024,3,48,48
I0411 00:00:59.656173 23152 net.cpp:150] Setting up data
I0411 00:00:59.656230 23152 net.cpp:157] Top shape: 1024 3 48 48 (7077888)
I0411 00:00:59.656235 23152 net.cpp:157] Top shape: 1024 (1024)
I0411 00:00:59.656239 23152 net.cpp:165] Memory required for data: 28315648
I0411 00:00:59.656250 23152 layer_factory.hpp:77] Creating layer conv1
I0411 00:00:59.656270 23152 net.cpp:100] Creating Layer conv1
I0411 00:00:59.656278 23152 net.cpp:434] conv1 <- data
I0411 00:00:59.656291 23152 net.cpp:408] conv1 -> conv1
I0411 00:00:59.932819 23152 net.cpp:150] Setting up conv1
I0411 00:00:59.932857 23152 net.cpp:157] Top shape: 1024 100 42 42 (180633600)
I0411 00:00:59.932860 23152 net.cpp:165] Memory required for data: 750850048
I0411 00:00:59.932881 23152 layer_factory.hpp:77] Creating layer conv1_prescale
I0411 00:00:59.932907 23152 net.cpp:100] Creating Layer conv1_prescale
I0411 00:00:59.932914 23152 net.cpp:434] conv1_prescale <- conv1
I0411 00:00:59.932919 23152 net.cpp:395] conv1_prescale -> conv1 (in-place)
I0411 00:00:59.933042 23152 net.cpp:150] Setting up conv1_prescale
I0411 00:00:59.933050 23152 net.cpp:157] Top shape: 1024 100 42 42 (180633600)
I0411 00:00:59.933053 23152 net.cpp:165] Memory required for data: 1473384448
I0411 00:00:59.933060 23152 layer_factory.hpp:77] Creating layer conv1_sTanH
I0411 00:00:59.933068 23152 net.cpp:100] Creating Layer conv1_sTanH
I0411 00:00:59.933071 23152 net.cpp:434] conv1_sTanH <- conv1
I0411 00:00:59.933075 23152 net.cpp:395] conv1_sTanH -> conv1 (in-place)
I0411 00:00:59.933276 23152 net.cpp:150] Setting up conv1_sTanH
I0411 00:00:59.933290 23152 net.cpp:157] Top shape: 1024 100 42 42 (180633600)
I0411 00:00:59.933293 23152 net.cpp:165] Memory required for data: 2195918848
I0411 00:00:59.933297 23152 layer_factory.hpp:77] Creating layer conv1_postscale
I0411 00:00:59.933305 23152 net.cpp:100] Creating Layer conv1_postscale
I0411 00:00:59.933310 23152 net.cpp:434] conv1_postscale <- conv1
I0411 00:00:59.933315 23152 net.cpp:395] conv1_postscale -> conv1 (in-place)
I0411 00:00:59.933419 23152 net.cpp:150] Setting up conv1_postscale
I0411 00:00:59.933429 23152 net.cpp:157] Top shape: 1024 100 42 42 (180633600)
I0411 00:00:59.933430 23152 net.cpp:165] Memory required for data: 2918453248
I0411 00:00:59.933435 23152 layer_factory.hpp:77] Creating layer pool1
I0411 00:00:59.933441 23152 net.cpp:100] Creating Layer pool1
I0411 00:00:59.933445 23152 net.cpp:434] pool1 <- conv1
I0411 00:00:59.933449 23152 net.cpp:408] pool1 -> pool1
I0411 00:00:59.933495 23152 net.cpp:150] Setting up pool1
I0411 00:00:59.933502 23152 net.cpp:157] Top shape: 1024 100 21 21 (45158400)
I0411 00:00:59.933506 23152 net.cpp:165] Memory required for data: 3099086848
I0411 00:00:59.933508 23152 layer_factory.hpp:77] Creating layer conv2
I0411 00:00:59.933517 23152 net.cpp:100] Creating Layer conv2
I0411 00:00:59.933540 23152 net.cpp:434] conv2 <- pool1
I0411 00:00:59.933547 23152 net.cpp:408] conv2 -> conv2
I0411 00:00:59.938179 23152 net.cpp:150] Setting up conv2
I0411 00:00:59.938196 23152 net.cpp:157] Top shape: 1024 150 18 18 (49766400)
I0411 00:00:59.938212 23152 net.cpp:165] Memory required for data: 3298152448
I0411 00:00:59.938222 23152 layer_factory.hpp:77] Creating layer conv2_prescale
I0411 00:00:59.938231 23152 net.cpp:100] Creating Layer conv2_prescale
I0411 00:00:59.938235 23152 net.cpp:434] conv2_prescale <- conv2
I0411 00:00:59.938241 23152 net.cpp:395] conv2_prescale -> conv2 (in-place)
I0411 00:00:59.938344 23152 net.cpp:150] Setting up conv2_prescale
I0411 00:00:59.938352 23152 net.cpp:157] Top shape: 1024 150 18 18 (49766400)
I0411 00:00:59.938355 23152 net.cpp:165] Memory required for data: 3497218048
I0411 00:00:59.938360 23152 layer_factory.hpp:77] Creating layer conv2_sTanH
I0411 00:00:59.938366 23152 net.cpp:100] Creating Layer conv2_sTanH
I0411 00:00:59.938371 23152 net.cpp:434] conv2_sTanH <- conv2
I0411 00:00:59.938375 23152 net.cpp:395] conv2_sTanH -> conv2 (in-place)
I0411 00:00:59.939363 23152 net.cpp:150] Setting up conv2_sTanH
I0411 00:00:59.939391 23152 net.cpp:157] Top shape: 1024 150 18 18 (49766400)
I0411 00:00:59.939406 23152 net.cpp:165] Memory required for data: 3696283648
I0411 00:00:59.939409 23152 layer_factory.hpp:77] Creating layer conv2_postscale
I0411 00:00:59.939417 23152 net.cpp:100] Creating Layer conv2_postscale
I0411 00:00:59.939420 23152 net.cpp:434] conv2_postscale <- conv2
I0411 00:00:59.939425 23152 net.cpp:395] conv2_postscale -> conv2 (in-place)
I0411 00:00:59.939520 23152 net.cpp:150] Setting up conv2_postscale
I0411 00:00:59.939529 23152 net.cpp:157] Top shape: 1024 150 18 18 (49766400)
I0411 00:00:59.939532 23152 net.cpp:165] Memory required for data: 3895349248
I0411 00:00:59.939538 23152 layer_factory.hpp:77] Creating layer pool2
I0411 00:00:59.939543 23152 net.cpp:100] Creating Layer pool2
I0411 00:00:59.939548 23152 net.cpp:434] pool2 <- conv2
I0411 00:00:59.939553 23152 net.cpp:408] pool2 -> pool2
I0411 00:00:59.939591 23152 net.cpp:150] Setting up pool2
I0411 00:00:59.939599 23152 net.cpp:157] Top shape: 1024 150 9 9 (12441600)
I0411 00:00:59.939601 23152 net.cpp:165] Memory required for data: 3945115648
I0411 00:00:59.939604 23152 layer_factory.hpp:77] Creating layer conv3
I0411 00:00:59.939612 23152 net.cpp:100] Creating Layer conv3
I0411 00:00:59.939616 23152 net.cpp:434] conv3 <- pool2
I0411 00:00:59.939621 23152 net.cpp:408] conv3 -> conv3
I0411 00:00:59.945245 23152 net.cpp:150] Setting up conv3
I0411 00:00:59.945274 23152 net.cpp:157] Top shape: 1024 250 6 6 (9216000)
I0411 00:00:59.945278 23152 net.cpp:165] Memory required for data: 3981979648
I0411 00:00:59.945288 23152 layer_factory.hpp:77] Creating layer conv3_prescale
I0411 00:00:59.945296 23152 net.cpp:100] Creating Layer conv3_prescale
I0411 00:00:59.945298 23152 net.cpp:434] conv3_prescale <- conv3
I0411 00:00:59.945317 23152 net.cpp:395] conv3_prescale -> conv3 (in-place)
I0411 00:00:59.945410 23152 net.cpp:150] Setting up conv3_prescale
I0411 00:00:59.945420 23152 net.cpp:157] Top shape: 1024 250 6 6 (9216000)
I0411 00:00:59.945422 23152 net.cpp:165] Memory required for data: 4018843648
I0411 00:00:59.945426 23152 layer_factory.hpp:77] Creating layer conv3_sTanH
I0411 00:00:59.945432 23152 net.cpp:100] Creating Layer conv3_sTanH
I0411 00:00:59.945436 23152 net.cpp:434] conv3_sTanH <- conv3
I0411 00:00:59.945439 23152 net.cpp:395] conv3_sTanH -> conv3 (in-place)
I0411 00:00:59.946225 23152 net.cpp:150] Setting up conv3_sTanH
I0411 00:00:59.946241 23152 net.cpp:157] Top shape: 1024 250 6 6 (9216000)
I0411 00:00:59.946244 23152 net.cpp:165] Memory required for data: 4055707648
I0411 00:00:59.946249 23152 layer_factory.hpp:77] Creating layer conv3_postscale
I0411 00:00:59.946255 23152 net.cpp:100] Creating Layer conv3_postscale
I0411 00:00:59.946259 23152 net.cpp:434] conv3_postscale <- conv3
I0411 00:00:59.946264 23152 net.cpp:395] conv3_postscale -> conv3 (in-place)
I0411 00:00:59.946377 23152 net.cpp:150] Setting up conv3_postscale
I0411 00:00:59.946386 23152 net.cpp:157] Top shape: 1024 250 6 6 (9216000)
I0411 00:00:59.946389 23152 net.cpp:165] Memory required for data: 4092571648
I0411 00:00:59.946394 23152 layer_factory.hpp:77] Creating layer pool3
I0411 00:00:59.946400 23152 net.cpp:100] Creating Layer pool3
I0411 00:00:59.946403 23152 net.cpp:434] pool3 <- conv3
I0411 00:00:59.946408 23152 net.cpp:408] pool3 -> pool3
I0411 00:00:59.946444 23152 net.cpp:150] Setting up pool3
I0411 00:00:59.946452 23152 net.cpp:157] Top shape: 1024 250 3 3 (2304000)
I0411 00:00:59.946455 23152 net.cpp:165] Memory required for data: 4101787648
I0411 00:00:59.946458 23152 layer_factory.hpp:77] Creating layer fc4_300
I0411 00:00:59.946466 23152 net.cpp:100] Creating Layer fc4_300
I0411 00:00:59.946470 23152 net.cpp:434] fc4_300 <- pool3
I0411 00:00:59.946476 23152 net.cpp:408] fc4_300 -> fc4_300
I0411 00:00:59.952020 23152 net.cpp:150] Setting up fc4_300
I0411 00:00:59.952038 23152 net.cpp:157] Top shape: 1024 300 (307200)
I0411 00:00:59.952040 23152 net.cpp:165] Memory required for data: 4103016448
I0411 00:00:59.952047 23152 layer_factory.hpp:77] Creating layer fc4_prescale
I0411 00:00:59.952054 23152 net.cpp:100] Creating Layer fc4_prescale
I0411 00:00:59.952059 23152 net.cpp:434] fc4_prescale <- fc4_300
I0411 00:00:59.952064 23152 net.cpp:395] fc4_prescale -> fc4_300 (in-place)
I0411 00:00:59.952152 23152 net.cpp:150] Setting up fc4_prescale
I0411 00:00:59.952159 23152 net.cpp:157] Top shape: 1024 300 (307200)
I0411 00:00:59.952162 23152 net.cpp:165] Memory required for data: 4104245248
I0411 00:00:59.952167 23152 layer_factory.hpp:77] Creating layer fc4_sTanH
I0411 00:00:59.952172 23152 net.cpp:100] Creating Layer fc4_sTanH
I0411 00:00:59.952174 23152 net.cpp:434] fc4_sTanH <- fc4_300
I0411 00:00:59.952178 23152 net.cpp:395] fc4_sTanH -> fc4_300 (in-place)
I0411 00:00:59.952363 23152 net.cpp:150] Setting up fc4_sTanH
I0411 00:00:59.952375 23152 net.cpp:157] Top shape: 1024 300 (307200)
I0411 00:00:59.952378 23152 net.cpp:165] Memory required for data: 4105474048
I0411 00:00:59.952381 23152 layer_factory.hpp:77] Creating layer fc4_postscale
I0411 00:00:59.952389 23152 net.cpp:100] Creating Layer fc4_postscale
I0411 00:00:59.952391 23152 net.cpp:434] fc4_postscale <- fc4_300
I0411 00:00:59.952396 23152 net.cpp:395] fc4_postscale -> fc4_300 (in-place)
I0411 00:00:59.952488 23152 net.cpp:150] Setting up fc4_postscale
I0411 00:00:59.952497 23152 net.cpp:157] Top shape: 1024 300 (307200)
I0411 00:00:59.952499 23152 net.cpp:165] Memory required for data: 4106702848
I0411 00:00:59.952504 23152 layer_factory.hpp:77] Creating layer fc5_67
I0411 00:00:59.952510 23152 net.cpp:100] Creating Layer fc5_67
I0411 00:00:59.952512 23152 net.cpp:434] fc5_67 <- fc4_300
I0411 00:00:59.952517 23152 net.cpp:408] fc5_67 -> fc5_classes
I0411 00:00:59.954507 23152 net.cpp:150] Setting up fc5_67
I0411 00:00:59.954522 23152 net.cpp:157] Top shape: 1024 67 (68608)
I0411 00:00:59.954526 23152 net.cpp:165] Memory required for data: 4106977280
I0411 00:00:59.954536 23152 layer_factory.hpp:77] Creating layer loss
I0411 00:00:59.954543 23152 net.cpp:100] Creating Layer loss
I0411 00:00:59.954546 23152 net.cpp:434] loss <- fc5_classes
I0411 00:00:59.954551 23152 net.cpp:434] loss <- label
I0411 00:00:59.954556 23152 net.cpp:408] loss -> loss
I0411 00:00:59.954568 23152 layer_factory.hpp:77] Creating layer loss
…
I0411 00:00:59.955291 23152 solver.cpp:193] Creating test net (#0) specified by test_net file: ./Prototxt/experiment_8/rtsd-r1/CoNorm/trial_1/test.prototxt
I0411 00:00:59.955464 23152 net.cpp:58] Initializing net from parameters: 
state {
  phase: TEST
}
layer {
  name: "data"
  type: "Data"
  top: "data"
  top: "label"
  include {
    phase: TEST
  }
  transform_param {
    mirror: false
    crop_size: 48
    mean_value: 133
    mean_value: 133
    mean_value: 132
  }
  data_param {
    source: "../local_data/lmdb/rtsd-r1/CoNorm/test/lmdb"
    batch_size: 1024
    backend: LMDB
  }
}
layer {
  name: "conv1"
  type: "Convolution"
  bottom: "data"
  top: "conv1"
  convolution_param {
    num_output: 100
    pad: 0
    kernel_size: 7
    group: 1
    stride: 1
    weight_filler {
      type: "xavier"
    }
  }
}
layer {
  name: "conv1_prescale"
  type: "Scale"
  bottom: "conv1"
  top: "conv1"
  param {
    lr_mult: 0
    decay_mult: 0
  }
  scale_param {
    filler {
      value: 0.6666
    }
  }
}
layer {
  name: "conv1_sTanH"
  type: "TanH"
  bottom: "conv1"
  top: "conv1"
}
layer {
  name: "conv1_postscale"
  type: "Scale"
  bottom: "conv1"
  top: "conv1"
  param {
    lr_mult: 0
    decay_mult: 0
  }
  scale_param {
    filler {
      value: 1.7159
    }
  }
}
layer {
  name: "pool1"
  type: "Pooling"
  bottom: "conv1"
  top: "pool1"
  pooling_param {
    pool: MAX
    kernel_size: 2
    stride: 2
  }
}
layer {
  name: "conv2"
  type: "Convolution"
  bottom: "pool1"
  top: "conv2"
  convolution_param {
    num_output: 150
    pad: 0
    kernel_size: 4
    group: 1
    stride: 1
    weight_filler {
      type: "xavier"
    }
  }
}
layer {
  name: "conv2_prescale"
  type: "Scale"
  bottom: "conv2"
  top: "conv2"
  param {
    lr_mult: 0
    decay_mult: 0
  }
  scale_param {
    filler {
      value: 0.6666
    }
  }
}
layer {
  name: "conv2_sTanH"
  type: "TanH"
  bottom: "conv2"
  top: "conv2"
}
layer {
  name: "conv2_postscale"
  type: "Scale"
  bottom: "conv2"
  top: "conv2"
  param {
    lr_mult: 0
    decay_mult: 0
  }
  scale_param {
    filler {
      value: 1.7159
    }
  }
}
layer {
  name: "pool2"
  type: "Pooling"
  bottom: "conv2"
  top: "pool2"
  pooling_param {
    pool: MAX
    kernel_size: 2
    stride: 2
  }
}
layer {
  name: "conv3"
  type: "Convolution"
  bottom: "pool2"
  top: "conv3"
  convolution_param {
    num_output: 250
    pad: 0
    kernel_size: 4
    group: 1
    stride: 1
    weight_filler {
      type: "xavier"
    }
  }
}
layer {
  name: "conv3_prescale"
  type: "Scale"
  bottom: "conv3"
  top: "conv3"
  param {
    lr_mult: 0
    decay_mult: 0
  }
  scale_param {
    filler {
      value: 0.6666
    }
  }
}
layer {
  name: "conv3_sTanH"
  type: "TanH"
  bottom: "conv3"
  top: "conv3"
}
layer {
  name: "conv3_postscale"
  type: "Scale"
  bottom: "conv3"
  top: "conv3"
  param {
    lr_mult: 0
    decay_mult: 0
  }
  scale_param {
    filler {
      value: 1.7159
    }
  }
}
layer {
  name: "pool3"
  type: "Pooling"
  bottom: "conv3"
  top: "pool3"
  pooling_param {
    pool: MAX
    kernel_size: 2
    stride: 2
  }
}
layer {
  name: "fc4_300"
  type: "InnerProduct"
  bottom: "pool3"
  top: "fc4_300"
  inner_product_param {
    num_output: 300
    weight_filler {
      type: "xavier"
    }
  }
}
layer {
  name: "fc4_prescale"
  type: "Scale"
  bottom: "fc4_300"
  top: "fc4_300"
  param {
    lr_mult: 0
    decay_mult: 0
  }
  scale_param {
    filler {
      value: 0.6666
    }
  }
}
layer {
  name: "fc4_sTanH"
  type: "TanH"
  bottom: "fc4_300"
  top: "fc4_300"
}
layer {
  name: "fc4_postscale"
  type: "Scale"
  bottom: "fc4_300"
  top: "fc4_300"
  param {
    lr_mult: 0
    decay_mult: 0
  }
  scale_param {
    filler {
      value: 1.7159
    }
  }
}
layer {
  name: "fc5_67"
  type: "InnerProduct"
  bottom: "fc4_300"
  top: "fc5_classes"
  inner_product_param {
    num_output: 67
    weight_filler {
      type: "xavier"
    }
  }
}
layer {
  name: "loss"
  type: "SoftmaxWithLoss"
  bottom: "fc5_classes"
  bottom: "label"
  top: "loss"
}
layer {
  name: "accuracy_1"
  type: "Accuracy"
  bottom: "fc5_classes"
  bottom: "label"
  top: "accuracy_1"
  include {
    phase: TEST
  }
  accuracy_param {
    top_k: 1
  }
}
layer {
  name: "accuracy_5"
  type: "Accuracy"
  bottom: "fc5_classes"
  bottom: "label"
  top: "accuracy_5"
  include {
    phase: TEST
  }
  accuracy_param {
    top_k: 5
  }
}
I0411 00:00:59.955574 23152 layer_factory.hpp:77] Creating layer data
I0411 00:00:59.956148 23152 net.cpp:100] Creating Layer data
I0411 00:00:59.956161 23152 net.cpp:408] data -> data
I0411 00:00:59.956169 23152 net.cpp:408] data -> label
I0411 00:00:59.959751 23321 db_lmdb.cpp:35] Opened lmdb ../local_data/lmdb/rtsd-r1/CoNorm/test/lmdb
I0411 00:00:59.959894 23152 data_layer.cpp:41] output data size: 1024,3,48,48
I0411 00:01:00.010255 23152 net.cpp:150] Setting up data
I0411 00:01:00.010298 23152 net.cpp:157] Top shape: 1024 3 48 48 (7077888)
I0411 00:01:00.010303 23152 net.cpp:157] Top shape: 1024 (1024)
I0411 00:01:00.010306 23152 net.cpp:165] Memory required for data: 28315648
I0411 00:01:00.010313 23152 layer_factory.hpp:77] Creating layer label_data_1_split
I0411 00:01:00.010326 23152 net.cpp:100] Creating Layer label_data_1_split
I0411 00:01:00.010330 23152 net.cpp:434] label_data_1_split <- label
I0411 00:01:00.010339 23152 net.cpp:408] label_data_1_split -> label_data_1_split_0
I0411 00:01:00.010350 23152 net.cpp:408] label_data_1_split -> label_data_1_split_1
I0411 00:01:00.010359 23152 net.cpp:408] label_data_1_split -> label_data_1_split_2
I0411 00:01:00.010496 23152 net.cpp:150] Setting up label_data_1_split
I0411 00:01:00.010505 23152 net.cpp:157] Top shape: 1024 (1024)
I0411 00:01:00.010509 23152 net.cpp:157] Top shape: 1024 (1024)
I0411 00:01:00.010514 23152 net.cpp:157] Top shape: 1024 (1024)
I0411 00:01:00.010516 23152 net.cpp:165] Memory required for data: 28327936
I0411 00:01:00.010519 23152 layer_factory.hpp:77] Creating layer conv1
I0411 00:01:00.010532 23152 net.cpp:100] Creating Layer conv1
I0411 00:01:00.010537 23152 net.cpp:434] conv1 <- data
I0411 00:01:00.010543 23152 net.cpp:408] conv1 -> conv1
I0411 00:01:00.015437 23152 net.cpp:150] Setting up conv1
I0411 00:01:00.015457 23152 net.cpp:157] Top shape: 1024 100 42 42 (180633600)
I0411 00:01:00.015461 23152 net.cpp:165] Memory required for data: 750862336
I0411 00:01:00.015473 23152 layer_factory.hpp:77] Creating layer conv1_prescale
I0411 00:01:00.015483 23152 net.cpp:100] Creating Layer conv1_prescale
I0411 00:01:00.015487 23152 net.cpp:434] conv1_prescale <- conv1
I0411 00:01:00.015492 23152 net.cpp:395] conv1_prescale -> conv1 (in-place)
I0411 00:01:00.015622 23152 net.cpp:150] Setting up conv1_prescale
I0411 00:01:00.015633 23152 net.cpp:157] Top shape: 1024 100 42 42 (180633600)
I0411 00:01:00.015636 23152 net.cpp:165] Memory required for data: 1473396736
I0411 00:01:00.015643 23152 layer_factory.hpp:77] Creating layer conv1_sTanH
I0411 00:01:00.015650 23152 net.cpp:100] Creating Layer conv1_sTanH
I0411 00:01:00.015655 23152 net.cpp:434] conv1_sTanH <- conv1
I0411 00:01:00.015660 23152 net.cpp:395] conv1_sTanH -> conv1 (in-place)
I0411 00:01:00.015851 23152 net.cpp:150] Setting up conv1_sTanH
I0411 00:01:00.015861 23152 net.cpp:157] Top shape: 1024 100 42 42 (180633600)
I0411 00:01:00.015864 23152 net.cpp:165] Memory required for data: 2195931136
I0411 00:01:00.015868 23152 layer_factory.hpp:77] Creating layer conv1_postscale
I0411 00:01:00.015875 23152 net.cpp:100] Creating Layer conv1_postscale
I0411 00:01:00.015892 23152 net.cpp:434] conv1_postscale <- conv1
I0411 00:01:00.015897 23152 net.cpp:395] conv1_postscale -> conv1 (in-place)
I0411 00:01:00.016012 23152 net.cpp:150] Setting up conv1_postscale
I0411 00:01:00.016021 23152 net.cpp:157] Top shape: 1024 100 42 42 (180633600)
I0411 00:01:00.016024 23152 net.cpp:165] Memory required for data: 2918465536
I0411 00:01:00.016029 23152 layer_factory.hpp:77] Creating layer pool1
I0411 00:01:00.016036 23152 net.cpp:100] Creating Layer pool1
I0411 00:01:00.016039 23152 net.cpp:434] pool1 <- conv1
I0411 00:01:00.016043 23152 net.cpp:408] pool1 -> pool1
I0411 00:01:00.016085 23152 net.cpp:150] Setting up pool1
I0411 00:01:00.016098 23152 net.cpp:157] Top shape: 1024 100 21 21 (45158400)
I0411 00:01:00.016103 23152 net.cpp:165] Memory required for data: 3099099136
I0411 00:01:00.016105 23152 layer_factory.hpp:77] Creating layer conv2
I0411 00:01:00.016114 23152 net.cpp:100] Creating Layer conv2
I0411 00:01:00.016118 23152 net.cpp:434] conv2 <- pool1
I0411 00:01:00.016124 23152 net.cpp:408] conv2 -> conv2
I0411 00:01:00.021844 23152 net.cpp:150] Setting up conv2
I0411 00:01:00.021864 23152 net.cpp:157] Top shape: 1024 150 18 18 (49766400)
I0411 00:01:00.021868 23152 net.cpp:165] Memory required for data: 3298164736
I0411 00:01:00.021879 23152 layer_factory.hpp:77] Creating layer conv2_prescale
I0411 00:01:00.021893 23152 net.cpp:100] Creating Layer conv2_prescale
I0411 00:01:00.021896 23152 net.cpp:434] conv2_prescale <- conv2
I0411 00:01:00.021903 23152 net.cpp:395] conv2_prescale -> conv2 (in-place)
I0411 00:01:00.022034 23152 net.cpp:150] Setting up conv2_prescale
I0411 00:01:00.022045 23152 net.cpp:157] Top shape: 1024 150 18 18 (49766400)
I0411 00:01:00.022048 23152 net.cpp:165] Memory required for data: 3497230336
I0411 00:01:00.022053 23152 layer_factory.hpp:77] Creating layer conv2_sTanH
I0411 00:01:00.022063 23152 net.cpp:100] Creating Layer conv2_sTanH
I0411 00:01:00.022065 23152 net.cpp:434] conv2_sTanH <- conv2
I0411 00:01:00.022070 23152 net.cpp:395] conv2_sTanH -> conv2 (in-place)
I0411 00:01:00.023636 23152 net.cpp:150] Setting up conv2_sTanH
I0411 00:01:00.023654 23152 net.cpp:157] Top shape: 1024 150 18 18 (49766400)
I0411 00:01:00.023658 23152 net.cpp:165] Memory required for data: 3696295936
I0411 00:01:00.023661 23152 layer_factory.hpp:77] Creating layer conv2_postscale
I0411 00:01:00.023669 23152 net.cpp:100] Creating Layer conv2_postscale
I0411 00:01:00.023672 23152 net.cpp:434] conv2_postscale <- conv2
I0411 00:01:00.023681 23152 net.cpp:395] conv2_postscale -> conv2 (in-place)
I0411 00:01:00.023794 23152 net.cpp:150] Setting up conv2_postscale
I0411 00:01:00.023809 23152 net.cpp:157] Top shape: 1024 150 18 18 (49766400)
I0411 00:01:00.023813 23152 net.cpp:165] Memory required for data: 3895361536
I0411 00:01:00.023818 23152 layer_factory.hpp:77] Creating layer pool2
I0411 00:01:00.023825 23152 net.cpp:100] Creating Layer pool2
I0411 00:01:00.023829 23152 net.cpp:434] pool2 <- conv2
I0411 00:01:00.023834 23152 net.cpp:408] pool2 -> pool2
I0411 00:01:00.023900 23152 net.cpp:150] Setting up pool2
I0411 00:01:00.023910 23152 net.cpp:157] Top shape: 1024 150 9 9 (12441600)
I0411 00:01:00.023929 23152 net.cpp:165] Memory required for data: 3945127936
I0411 00:01:00.023934 23152 layer_factory.hpp:77] Creating layer conv3
I0411 00:01:00.023946 23152 net.cpp:100] Creating Layer conv3
I0411 00:01:00.023949 23152 net.cpp:434] conv3 <- pool2
I0411 00:01:00.023957 23152 net.cpp:408] conv3 -> conv3
I0411 00:01:00.029922 23152 net.cpp:150] Setting up conv3
I0411 00:01:00.029942 23152 net.cpp:157] Top shape: 1024 250 6 6 (9216000)
I0411 00:01:00.029945 23152 net.cpp:165] Memory required for data: 3981991936
I0411 00:01:00.029958 23152 layer_factory.hpp:77] Creating layer conv3_prescale
I0411 00:01:00.029966 23152 net.cpp:100] Creating Layer conv3_prescale
I0411 00:01:00.029970 23152 net.cpp:434] conv3_prescale <- conv3
I0411 00:01:00.029978 23152 net.cpp:395] conv3_prescale -> conv3 (in-place)
I0411 00:01:00.030078 23152 net.cpp:150] Setting up conv3_prescale
I0411 00:01:00.030088 23152 net.cpp:157] Top shape: 1024 250 6 6 (9216000)
I0411 00:01:00.030092 23152 net.cpp:165] Memory required for data: 4018855936
I0411 00:01:00.030097 23152 layer_factory.hpp:77] Creating layer conv3_sTanH
I0411 00:01:00.030103 23152 net.cpp:100] Creating Layer conv3_sTanH
I0411 00:01:00.030107 23152 net.cpp:434] conv3_sTanH <- conv3
I0411 00:01:00.030112 23152 net.cpp:395] conv3_sTanH -> conv3 (in-place)
I0411 00:01:00.031049 23152 net.cpp:150] Setting up conv3_sTanH
I0411 00:01:00.031066 23152 net.cpp:157] Top shape: 1024 250 6 6 (9216000)
I0411 00:01:00.031069 23152 net.cpp:165] Memory required for data: 4055719936
I0411 00:01:00.031074 23152 layer_factory.hpp:77] Creating layer conv3_postscale
I0411 00:01:00.031080 23152 net.cpp:100] Creating Layer conv3_postscale
I0411 00:01:00.031083 23152 net.cpp:434] conv3_postscale <- conv3
I0411 00:01:00.031092 23152 net.cpp:395] conv3_postscale -> conv3 (in-place)
I0411 00:01:00.031201 23152 net.cpp:150] Setting up conv3_postscale
I0411 00:01:00.031210 23152 net.cpp:157] Top shape: 1024 250 6 6 (9216000)
I0411 00:01:00.031213 23152 net.cpp:165] Memory required for data: 4092583936
I0411 00:01:00.031219 23152 layer_factory.hpp:77] Creating layer pool3
I0411 00:01:00.031227 23152 net.cpp:100] Creating Layer pool3
I0411 00:01:00.031232 23152 net.cpp:434] pool3 <- conv3
I0411 00:01:00.031239 23152 net.cpp:408] pool3 -> pool3
I0411 00:01:00.031282 23152 net.cpp:150] Setting up pool3
I0411 00:01:00.031289 23152 net.cpp:157] Top shape: 1024 250 3 3 (2304000)
I0411 00:01:00.031292 23152 net.cpp:165] Memory required for data: 4101799936
I0411 00:01:00.031297 23152 layer_factory.hpp:77] Creating layer fc4_300
I0411 00:01:00.031303 23152 net.cpp:100] Creating Layer fc4_300
I0411 00:01:00.031308 23152 net.cpp:434] fc4_300 <- pool3
I0411 00:01:00.031314 23152 net.cpp:408] fc4_300 -> fc4_300
I0411 00:01:00.037677 23152 net.cpp:150] Setting up fc4_300
I0411 00:01:00.037694 23152 net.cpp:157] Top shape: 1024 300 (307200)
I0411 00:01:00.037698 23152 net.cpp:165] Memory required for data: 4103028736
I0411 00:01:00.037704 23152 layer_factory.hpp:77] Creating layer fc4_prescale
I0411 00:01:00.037714 23152 net.cpp:100] Creating Layer fc4_prescale
I0411 00:01:00.037717 23152 net.cpp:434] fc4_prescale <- fc4_300
I0411 00:01:00.037724 23152 net.cpp:395] fc4_prescale -> fc4_300 (in-place)
I0411 00:01:00.037820 23152 net.cpp:150] Setting up fc4_prescale
I0411 00:01:00.037829 23152 net.cpp:157] Top shape: 1024 300 (307200)
I0411 00:01:00.037832 23152 net.cpp:165] Memory required for data: 4104257536
I0411 00:01:00.037837 23152 layer_factory.hpp:77] Creating layer fc4_sTanH
I0411 00:01:00.037843 23152 net.cpp:100] Creating Layer fc4_sTanH
I0411 00:01:00.037847 23152 net.cpp:434] fc4_sTanH <- fc4_300
I0411 00:01:00.037852 23152 net.cpp:395] fc4_sTanH -> fc4_300 (in-place)
I0411 00:01:00.038049 23152 net.cpp:150] Setting up fc4_sTanH
I0411 00:01:00.038065 23152 net.cpp:157] Top shape: 1024 300 (307200)
I0411 00:01:00.038070 23152 net.cpp:165] Memory required for data: 4105486336
I0411 00:01:00.038074 23152 layer_factory.hpp:77] Creating layer fc4_postscale
I0411 00:01:00.038082 23152 net.cpp:100] Creating Layer fc4_postscale
I0411 00:01:00.038105 23152 net.cpp:434] fc4_postscale <- fc4_300
I0411 00:01:00.038115 23152 net.cpp:395] fc4_postscale -> fc4_300 (in-place)
I0411 00:01:00.038220 23152 net.cpp:150] Setting up fc4_postscale
I0411 00:01:00.038229 23152 net.cpp:157] Top shape: 1024 300 (307200)
I0411 00:01:00.038233 23152 net.cpp:165] Memory required for data: 4106715136
I0411 00:01:00.038238 23152 layer_factory.hpp:77] Creating layer fc5_67
I0411 00:01:00.038245 23152 net.cpp:100] Creating Layer fc5_67
I0411 00:01:00.038249 23152 net.cpp:434] fc5_67 <- fc4_300
I0411 00:01:00.038255 23152 net.cpp:408] fc5_67 -> fc5_classes
I0411 00:01:00.038511 23152 net.cpp:150] Setting up fc5_67
I0411 00:01:00.038521 23152 net.cpp:157] Top shape: 1024 67 (68608)
I0411 00:01:00.038522 23152 net.cpp:165] Memory required for data: 4106989568
I0411 00:01:00.038532 23152 layer_factory.hpp:77] Creating layer fc5_classes_fc5_67_0_split
I0411 00:01:00.038539 23152 net.cpp:100] Creating Layer fc5_classes_fc5_67_0_split
I0411 00:01:00.038542 23152 net.cpp:434] fc5_classes_fc5_67_0_split <- fc5_classes
I0411 00:01:00.038548 23152 net.cpp:408] fc5_classes_fc5_67_0_split -> fc5_classes_fc5_67_0_split_0
I0411 00:01:00.038555 23152 net.cpp:408] fc5_classes_fc5_67_0_split -> fc5_classes_fc5_67_0_split_1
I0411 00:01:00.038561 23152 net.cpp:408] fc5_classes_fc5_67_0_split -> fc5_classes_fc5_67_0_split_2
I0411 00:01:00.038614 23152 net.cpp:150] Setting up fc5_classes_fc5_67_0_split
I0411 00:01:00.038621 23152 net.cpp:157] Top shape: 1024 67 (68608)
I0411 00:01:00.038625 23152 net.cpp:157] Top shape: 1024 67 (68608)
I0411 00:01:00.038628 23152 net.cpp:157] Top shape: 1024 67 (68608)
I0411 00:01:00.038631 23152 net.cpp:165] Memory required for data: 4107812864
I0411 00:01:00.038635 23152 layer_factory.hpp:77] Creating layer loss
I0411 00:01:00.038640 23152 net.cpp:100] Creating Layer loss
I0411 00:01:00.038643 23152 net.cpp:434] loss <- fc5_classes_fc5_67_0_split_0
I0411 00:01:00.038647 23152 net.cpp:434] loss <- label_data_1_split_0
I0411 00:01:00.038653 23152 net.cpp:408] loss -> loss
…
