…
I0411 00:09:31.123427  8915 net.cpp:322] The NetState phase (0) differed from the phase (1) specified by a rule in layer accuracy_5
I0411 00:09:31.123574  8915 net.cpp:58] Initializing net from parameters: 
state {
  phase: TRAIN
  level: 0
  stage: ""
}
layer {
  name: "data"
  type: "Data"
  top: "data"
  top: "label"
  include {
    phase: TRAIN
  }
  transform_param {
    mirror: false
    crop_size: 48
    mean_value: 132
    mean_value: 132
    mean_value: 131
  }
  data_param {
    source: "../local_data/lmdb/rtsd-r1/CoNorm/train/lmdb"
    batch_size: 1024
    backend: LMDB
  }
}
layer {
  name: "conv1"
  type: "Convolution"
  bottom: "data"
  top: "conv1"
  convolution_param {
    num_output: 100
    pad: 0
    kernel_size: 7
    group: 1
    stride: 1
    weight_filler {
      type: "xavier"
    }
  }
}
layer {
  name: "conv1_prescale"
  type: "Scale"
  bottom: "conv1"
  top: "conv1"
  param {
    lr_mult: 0
    decay_mult: 0
  }
  scale_param {
    filler {
      value: 0.6666
    }
  }
}
layer {
  name: "conv1_sTanH"
  type: "TanH"
  bottom: "conv1"
  top: "conv1"
}
layer {
  name: "conv1_postscale"
  type: "Scale"
  bottom: "conv1"
  top: "conv1"
  param {
    lr_mult: 0
    decay_mult: 0
  }
  scale_param {
    filler {
      value: 1.7159
    }
  }
}
layer {
  name: "pool1"
  type: "Pooling"
  bottom: "conv1"
  top: "pool1"
  pooling_param {
    pool: MAX
    kernel_size: 2
    stride: 2
  }
}
layer {
  name: "conv2"
  type: "Convolution"
  bottom: "pool1"
  top: "conv2"
  convolution_param {
    num_output: 150
    pad: 0
    kernel_size: 4
    group: 1
    stride: 1
    weight_filler {
      type: "xavier"
    }
  }
}
layer {
  name: "conv2_prescale"
  type: "Scale"
  bottom: "conv2"
  top: "conv2"
  param {
    lr_mult: 0
    decay_mult: 0
  }
  scale_param {
    filler {
      value: 0.6666
    }
  }
}
layer {
  name: "conv2_sTanH"
  type: "TanH"
  bottom: "conv2"
  top: "conv2"
}
layer {
  name: "conv2_postscale"
  type: "Scale"
  bottom: "conv2"
  top: "conv2"
  param {
    lr_mult: 0
    decay_mult: 0
  }
  scale_param {
    filler {
      value: 1.7159
    }
  }
}
layer {
  name: "pool2"
  type: "Pooling"
  bottom: "conv2"
  top: "pool2"
  pooling_param {
    pool: MAX
    kernel_size: 2
    stride: 2
  }
}
layer {
  name: "conv3"
  type: "Convolution"
  bottom: "pool2"
  top: "conv3"
  convolution_param {
    num_output: 250
    pad: 0
    kernel_size: 4
    group: 1
    stride: 1
    weight_filler {
      type: "xavier"
    }
  }
}
layer {
  name: "conv3_prescale"
  type: "Scale"
  bottom: "conv3"
  top: "conv3"
  param {
    lr_mult: 0
    decay_mult: 0
  }
  scale_param {
    filler {
      value: 0.6666
    }
  }
}
layer {
  name: "conv3_sTanH"
  type: "TanH"
  bottom: "conv3"
  top: "conv3"
}
layer {
  name: "conv3_postscale"
  type: "Scale"
  bottom: "conv3"
  top: "conv3"
  param {
    lr_mult: 0
    decay_mult: 0
  }
  scale_param {
    filler {
      value: 1.7159
    }
  }
}
layer {
  name: "pool3"
  type: "Pooling"
  bottom: "conv3"
  top: "pool3"
  pooling_param {
    pool: MAX
    kernel_size: 2
    stride: 2
  }
}
layer {
  name: "fc4_300"
  type: "InnerProduct"
  bottom: "pool3"
  top: "fc4_300"
  inner_product_param {
    num_output: 300
    weight_filler {
      type: "xavier"
    }
  }
}
layer {
  name: "fc4_prescale"
  type: "Scale"
  bottom: "fc4_300"
  top: "fc4_300"
  param {
    lr_mult: 0
    decay_mult: 0
  }
  scale_param {
    filler {
      value: 0.6666
    }
  }
}
layer {
  name: "fc4_sTanH"
  type: "TanH"
  bottom: "fc4_300"
  top: "fc4_300"
}
layer {
  name: "fc4_postscale"
  type: "Scale"
  bottom: "fc4_300"
  top: "fc4_300"
  param {
    lr_mult: 0
    decay_mult: 0
  }
  scale_param {
    filler {
      value: 1.7159
    }
  }
}
layer {
  name: "fc5_67"
  type: "InnerProduct"
  bottom: "fc4_300"
  top: "fc5_classes"
  inner_product_param {
    num_output: 67
    weight_filler {
      type: "xavier"
    }
  }
}
layer {
  name: "loss"
  type: "SoftmaxWithLoss"
  bottom: "fc5_classes"
  bottom: "label"
  top: "loss"
}
I0411 00:09:31.123683  8915 layer_factory.hpp:77] Creating layer data
I0411 00:09:31.124783  8915 net.cpp:100] Creating Layer data
I0411 00:09:31.124811  8915 net.cpp:408] data -> data
I0411 00:09:31.124838  8915 net.cpp:408] data -> label
I0411 00:09:31.126147  9033 db_lmdb.cpp:35] Opened lmdb ../local_data/lmdb/rtsd-r1/CoNorm/train/lmdb
I0411 00:09:31.143612  8915 data_layer.cpp:41] output data size: 1024,3,48,48
I0411 00:09:31.192759  8915 net.cpp:150] Setting up data
I0411 00:09:31.192790  8915 net.cpp:157] Top shape: 1024 3 48 48 (7077888)
I0411 00:09:31.192796  8915 net.cpp:157] Top shape: 1024 (1024)
I0411 00:09:31.192800  8915 net.cpp:165] Memory required for data: 28315648
I0411 00:09:31.192809  8915 layer_factory.hpp:77] Creating layer conv1
I0411 00:09:31.192844  8915 net.cpp:100] Creating Layer conv1
I0411 00:09:31.192852  8915 net.cpp:434] conv1 <- data
I0411 00:09:31.192870  8915 net.cpp:408] conv1 -> conv1
I0411 00:09:31.478224  8915 net.cpp:150] Setting up conv1
I0411 00:09:31.478256  8915 net.cpp:157] Top shape: 1024 100 42 42 (180633600)
I0411 00:09:31.478261  8915 net.cpp:165] Memory required for data: 750850048
I0411 00:09:31.478283  8915 layer_factory.hpp:77] Creating layer conv1_prescale
I0411 00:09:31.478297  8915 net.cpp:100] Creating Layer conv1_prescale
I0411 00:09:31.478303  8915 net.cpp:434] conv1_prescale <- conv1
I0411 00:09:31.478310  8915 net.cpp:395] conv1_prescale -> conv1 (in-place)
I0411 00:09:31.478431  8915 net.cpp:150] Setting up conv1_prescale
I0411 00:09:31.478446  8915 net.cpp:157] Top shape: 1024 100 42 42 (180633600)
I0411 00:09:31.478451  8915 net.cpp:165] Memory required for data: 1473384448
I0411 00:09:31.478457  8915 layer_factory.hpp:77] Creating layer conv1_sTanH
I0411 00:09:31.478466  8915 net.cpp:100] Creating Layer conv1_sTanH
I0411 00:09:31.478469  8915 net.cpp:434] conv1_sTanH <- conv1
I0411 00:09:31.478474  8915 net.cpp:395] conv1_sTanH -> conv1 (in-place)
I0411 00:09:31.478668  8915 net.cpp:150] Setting up conv1_sTanH
I0411 00:09:31.478680  8915 net.cpp:157] Top shape: 1024 100 42 42 (180633600)
I0411 00:09:31.478685  8915 net.cpp:165] Memory required for data: 2195918848
I0411 00:09:31.478689  8915 layer_factory.hpp:77] Creating layer conv1_postscale
I0411 00:09:31.478698  8915 net.cpp:100] Creating Layer conv1_postscale
I0411 00:09:31.478703  8915 net.cpp:434] conv1_postscale <- conv1
I0411 00:09:31.478708  8915 net.cpp:395] conv1_postscale -> conv1 (in-place)
I0411 00:09:31.478803  8915 net.cpp:150] Setting up conv1_postscale
I0411 00:09:31.478812  8915 net.cpp:157] Top shape: 1024 100 42 42 (180633600)
I0411 00:09:31.478817  8915 net.cpp:165] Memory required for data: 2918453248
I0411 00:09:31.478822  8915 layer_factory.hpp:77] Creating layer pool1
I0411 00:09:31.478830  8915 net.cpp:100] Creating Layer pool1
I0411 00:09:31.478835  8915 net.cpp:434] pool1 <- conv1
I0411 00:09:31.478840  8915 net.cpp:408] pool1 -> pool1
I0411 00:09:31.478889  8915 net.cpp:150] Setting up pool1
I0411 00:09:31.478898  8915 net.cpp:157] Top shape: 1024 100 21 21 (45158400)
I0411 00:09:31.478902  8915 net.cpp:165] Memory required for data: 3099086848
I0411 00:09:31.478905  8915 layer_factory.hpp:77] Creating layer conv2
I0411 00:09:31.478915  8915 net.cpp:100] Creating Layer conv2
I0411 00:09:31.478940  8915 net.cpp:434] conv2 <- pool1
I0411 00:09:31.478946  8915 net.cpp:408] conv2 -> conv2
I0411 00:09:31.483260  8915 net.cpp:150] Setting up conv2
I0411 00:09:31.483278  8915 net.cpp:157] Top shape: 1024 150 18 18 (49766400)
I0411 00:09:31.483283  8915 net.cpp:165] Memory required for data: 3298152448
I0411 00:09:31.483306  8915 layer_factory.hpp:77] Creating layer conv2_prescale
I0411 00:09:31.483316  8915 net.cpp:100] Creating Layer conv2_prescale
I0411 00:09:31.483322  8915 net.cpp:434] conv2_prescale <- conv2
I0411 00:09:31.483327  8915 net.cpp:395] conv2_prescale -> conv2 (in-place)
I0411 00:09:31.483436  8915 net.cpp:150] Setting up conv2_prescale
I0411 00:09:31.483445  8915 net.cpp:157] Top shape: 1024 150 18 18 (49766400)
I0411 00:09:31.483450  8915 net.cpp:165] Memory required for data: 3497218048
I0411 00:09:31.483455  8915 layer_factory.hpp:77] Creating layer conv2_sTanH
I0411 00:09:31.483463  8915 net.cpp:100] Creating Layer conv2_sTanH
I0411 00:09:31.483467  8915 net.cpp:434] conv2_sTanH <- conv2
I0411 00:09:31.483472  8915 net.cpp:395] conv2_sTanH -> conv2 (in-place)
I0411 00:09:31.484247  8915 net.cpp:150] Setting up conv2_sTanH
I0411 00:09:31.484263  8915 net.cpp:157] Top shape: 1024 150 18 18 (49766400)
I0411 00:09:31.484268  8915 net.cpp:165] Memory required for data: 3696283648
I0411 00:09:31.484272  8915 layer_factory.hpp:77] Creating layer conv2_postscale
I0411 00:09:31.484280  8915 net.cpp:100] Creating Layer conv2_postscale
I0411 00:09:31.484285  8915 net.cpp:434] conv2_postscale <- conv2
I0411 00:09:31.484292  8915 net.cpp:395] conv2_postscale -> conv2 (in-place)
I0411 00:09:31.484401  8915 net.cpp:150] Setting up conv2_postscale
I0411 00:09:31.484411  8915 net.cpp:157] Top shape: 1024 150 18 18 (49766400)
I0411 00:09:31.484416  8915 net.cpp:165] Memory required for data: 3895349248
I0411 00:09:31.484421  8915 layer_factory.hpp:77] Creating layer pool2
I0411 00:09:31.484428  8915 net.cpp:100] Creating Layer pool2
I0411 00:09:31.484433  8915 net.cpp:434] pool2 <- conv2
I0411 00:09:31.484438  8915 net.cpp:408] pool2 -> pool2
I0411 00:09:31.484480  8915 net.cpp:150] Setting up pool2
I0411 00:09:31.484488  8915 net.cpp:157] Top shape: 1024 150 9 9 (12441600)
I0411 00:09:31.484493  8915 net.cpp:165] Memory required for data: 3945115648
I0411 00:09:31.484496  8915 layer_factory.hpp:77] Creating layer conv3
I0411 00:09:31.484504  8915 net.cpp:100] Creating Layer conv3
I0411 00:09:31.484509  8915 net.cpp:434] conv3 <- pool2
I0411 00:09:31.484514  8915 net.cpp:408] conv3 -> conv3
I0411 00:09:31.490067  8915 net.cpp:150] Setting up conv3
I0411 00:09:31.490085  8915 net.cpp:157] Top shape: 1024 250 6 6 (9216000)
I0411 00:09:31.490103  8915 net.cpp:165] Memory required for data: 3981979648
I0411 00:09:31.490113  8915 layer_factory.hpp:77] Creating layer conv3_prescale
I0411 00:09:31.490123  8915 net.cpp:100] Creating Layer conv3_prescale
I0411 00:09:31.490128  8915 net.cpp:434] conv3_prescale <- conv3
I0411 00:09:31.490134  8915 net.cpp:395] conv3_prescale -> conv3 (in-place)
I0411 00:09:31.490231  8915 net.cpp:150] Setting up conv3_prescale
I0411 00:09:31.490239  8915 net.cpp:157] Top shape: 1024 250 6 6 (9216000)
I0411 00:09:31.490244  8915 net.cpp:165] Memory required for data: 4018843648
I0411 00:09:31.490249  8915 layer_factory.hpp:77] Creating layer conv3_sTanH
I0411 00:09:31.490255  8915 net.cpp:100] Creating Layer conv3_sTanH
I0411 00:09:31.490260  8915 net.cpp:434] conv3_sTanH <- conv3
I0411 00:09:31.490264  8915 net.cpp:395] conv3_sTanH -> conv3 (in-place)
I0411 00:09:31.491080  8915 net.cpp:150] Setting up conv3_sTanH
I0411 00:09:31.491096  8915 net.cpp:157] Top shape: 1024 250 6 6 (9216000)
I0411 00:09:31.491101  8915 net.cpp:165] Memory required for data: 4055707648
I0411 00:09:31.491104  8915 layer_factory.hpp:77] Creating layer conv3_postscale
I0411 00:09:31.491112  8915 net.cpp:100] Creating Layer conv3_postscale
I0411 00:09:31.491118  8915 net.cpp:434] conv3_postscale <- conv3
I0411 00:09:31.491124  8915 net.cpp:395] conv3_postscale -> conv3 (in-place)
I0411 00:09:31.491238  8915 net.cpp:150] Setting up conv3_postscale
I0411 00:09:31.491248  8915 net.cpp:157] Top shape: 1024 250 6 6 (9216000)
I0411 00:09:31.491252  8915 net.cpp:165] Memory required for data: 4092571648
I0411 00:09:31.491258  8915 layer_factory.hpp:77] Creating layer pool3
I0411 00:09:31.491267  8915 net.cpp:100] Creating Layer pool3
I0411 00:09:31.491272  8915 net.cpp:434] pool3 <- conv3
I0411 00:09:31.491277  8915 net.cpp:408] pool3 -> pool3
I0411 00:09:31.491317  8915 net.cpp:150] Setting up pool3
I0411 00:09:31.491325  8915 net.cpp:157] Top shape: 1024 250 3 3 (2304000)
I0411 00:09:31.491330  8915 net.cpp:165] Memory required for data: 4101787648
I0411 00:09:31.491333  8915 layer_factory.hpp:77] Creating layer fc4_300
I0411 00:09:31.491343  8915 net.cpp:100] Creating Layer fc4_300
I0411 00:09:31.491348  8915 net.cpp:434] fc4_300 <- pool3
I0411 00:09:31.491353  8915 net.cpp:408] fc4_300 -> fc4_300
I0411 00:09:31.496827  8915 net.cpp:150] Setting up fc4_300
I0411 00:09:31.496857  8915 net.cpp:157] Top shape: 1024 300 (307200)
I0411 00:09:31.496862  8915 net.cpp:165] Memory required for data: 4103016448
I0411 00:09:31.496870  8915 layer_factory.hpp:77] Creating layer fc4_prescale
I0411 00:09:31.496879  8915 net.cpp:100] Creating Layer fc4_prescale
I0411 00:09:31.496884  8915 net.cpp:434] fc4_prescale <- fc4_300
I0411 00:09:31.496891  8915 net.cpp:395] fc4_prescale -> fc4_300 (in-place)
I0411 00:09:31.496981  8915 net.cpp:150] Setting up fc4_prescale
I0411 00:09:31.496991  8915 net.cpp:157] Top shape: 1024 300 (307200)
I0411 00:09:31.496996  8915 net.cpp:165] Memory required for data: 4104245248
I0411 00:09:31.497001  8915 layer_factory.hpp:77] Creating layer fc4_sTanH
I0411 00:09:31.497007  8915 net.cpp:100] Creating Layer fc4_sTanH
I0411 00:09:31.497012  8915 net.cpp:434] fc4_sTanH <- fc4_300
I0411 00:09:31.497017  8915 net.cpp:395] fc4_sTanH -> fc4_300 (in-place)
I0411 00:09:31.497198  8915 net.cpp:150] Setting up fc4_sTanH
I0411 00:09:31.497210  8915 net.cpp:157] Top shape: 1024 300 (307200)
I0411 00:09:31.497215  8915 net.cpp:165] Memory required for data: 4105474048
I0411 00:09:31.497218  8915 layer_factory.hpp:77] Creating layer fc4_postscale
I0411 00:09:31.497226  8915 net.cpp:100] Creating Layer fc4_postscale
I0411 00:09:31.497234  8915 net.cpp:434] fc4_postscale <- fc4_300
I0411 00:09:31.497246  8915 net.cpp:395] fc4_postscale -> fc4_300 (in-place)
I0411 00:09:31.497355  8915 net.cpp:150] Setting up fc4_postscale
I0411 00:09:31.497366  8915 net.cpp:157] Top shape: 1024 300 (307200)
I0411 00:09:31.497370  8915 net.cpp:165] Memory required for data: 4106702848
I0411 00:09:31.497376  8915 layer_factory.hpp:77] Creating layer fc5_67
I0411 00:09:31.497385  8915 net.cpp:100] Creating Layer fc5_67
I0411 00:09:31.497390  8915 net.cpp:434] fc5_67 <- fc4_300
I0411 00:09:31.497395  8915 net.cpp:408] fc5_67 -> fc5_classes
I0411 00:09:31.498937  8915 net.cpp:150] Setting up fc5_67
I0411 00:09:31.498953  8915 net.cpp:157] Top shape: 1024 67 (68608)
I0411 00:09:31.498957  8915 net.cpp:165] Memory required for data: 4106977280
I0411 00:09:31.498970  8915 layer_factory.hpp:77] Creating layer loss
I0411 00:09:31.498977  8915 net.cpp:100] Creating Layer loss
I0411 00:09:31.498983  8915 net.cpp:434] loss <- fc5_classes
I0411 00:09:31.498988  8915 net.cpp:434] loss <- label
I0411 00:09:31.498996  8915 net.cpp:408] loss -> loss
I0411 00:09:31.499009  8915 layer_factory.hpp:77] Creating layer loss
…
I0411 00:09:31.499752  8915 solver.cpp:193] Creating test net (#0) specified by test_net file: ./Prototxt/experiment_8/rtsd-r1/CoNorm/trial_1/test.prototxt
I0411 00:09:31.499946  8915 net.cpp:58] Initializing net from parameters: 
state {
  phase: TEST
}
layer {
  name: "data"
  type: "Data"
  top: "data"
  top: "label"
  include {
    phase: TEST
  }
  transform_param {
    mirror: false
    crop_size: 48
    mean_value: 133
    mean_value: 133
    mean_value: 132
  }
  data_param {
    source: "../local_data/lmdb/rtsd-r1/CoNorm/test/lmdb"
    batch_size: 1024
    backend: LMDB
  }
}
layer {
  name: "conv1"
  type: "Convolution"
  bottom: "data"
  top: "conv1"
  convolution_param {
    num_output: 100
    pad: 0
    kernel_size: 7
    group: 1
    stride: 1
    weight_filler {
      type: "xavier"
    }
  }
}
layer {
  name: "conv1_prescale"
  type: "Scale"
  bottom: "conv1"
  top: "conv1"
  param {
    lr_mult: 0
    decay_mult: 0
  }
  scale_param {
    filler {
      value: 0.6666
    }
  }
}
layer {
  name: "conv1_sTanH"
  type: "TanH"
  bottom: "conv1"
  top: "conv1"
}
layer {
  name: "conv1_postscale"
  type: "Scale"
  bottom: "conv1"
  top: "conv1"
  param {
    lr_mult: 0
    decay_mult: 0
  }
  scale_param {
    filler {
      value: 1.7159
    }
  }
}
layer {
  name: "pool1"
  type: "Pooling"
  bottom: "conv1"
  top: "pool1"
  pooling_param {
    pool: MAX
    kernel_size: 2
    stride: 2
  }
}
layer {
  name: "conv2"
  type: "Convolution"
  bottom: "pool1"
  top: "conv2"
  convolution_param {
    num_output: 150
    pad: 0
    kernel_size: 4
    group: 1
    stride: 1
    weight_filler {
      type: "xavier"
    }
  }
}
layer {
  name: "conv2_prescale"
  type: "Scale"
  bottom: "conv2"
  top: "conv2"
  param {
    lr_mult: 0
    decay_mult: 0
  }
  scale_param {
    filler {
      value: 0.6666
    }
  }
}
layer {
  name: "conv2_sTanH"
  type: "TanH"
  bottom: "conv2"
  top: "conv2"
}
layer {
  name: "conv2_postscale"
  type: "Scale"
  bottom: "conv2"
  top: "conv2"
  param {
    lr_mult: 0
    decay_mult: 0
  }
  scale_param {
    filler {
      value: 1.7159
    }
  }
}
layer {
  name: "pool2"
  type: "Pooling"
  bottom: "conv2"
  top: "pool2"
  pooling_param {
    pool: MAX
    kernel_size: 2
    stride: 2
  }
}
layer {
  name: "conv3"
  type: "Convolution"
  bottom: "pool2"
  top: "conv3"
  convolution_param {
    num_output: 250
    pad: 0
    kernel_size: 4
    group: 1
    stride: 1
    weight_filler {
      type: "xavier"
    }
  }
}
layer {
  name: "conv3_prescale"
  type: "Scale"
  bottom: "conv3"
  top: "conv3"
  param {
    lr_mult: 0
    decay_mult: 0
  }
  scale_param {
    filler {
      value: 0.6666
    }
  }
}
layer {
  name: "conv3_sTanH"
  type: "TanH"
  bottom: "conv3"
  top: "conv3"
}
layer {
  name: "conv3_postscale"
  type: "Scale"
  bottom: "conv3"
  top: "conv3"
  param {
    lr_mult: 0
    decay_mult: 0
  }
  scale_param {
    filler {
      value: 1.7159
    }
  }
}
layer {
  name: "pool3"
  type: "Pooling"
  bottom: "conv3"
  top: "pool3"
  pooling_param {
    pool: MAX
    kernel_size: 2
    stride: 2
  }
}
layer {
  name: "fc4_300"
  type: "InnerProduct"
  bottom: "pool3"
  top: "fc4_300"
  inner_product_param {
    num_output: 300
    weight_filler {
      type: "xavier"
    }
  }
}
layer {
  name: "fc4_prescale"
  type: "Scale"
  bottom: "fc4_300"
  top: "fc4_300"
  param {
    lr_mult: 0
    decay_mult: 0
  }
  scale_param {
    filler {
      value: 0.6666
    }
  }
}
layer {
  name: "fc4_sTanH"
  type: "TanH"
  bottom: "fc4_300"
  top: "fc4_300"
}
layer {
  name: "fc4_postscale"
  type: "Scale"
  bottom: "fc4_300"
  top: "fc4_300"
  param {
    lr_mult: 0
    decay_mult: 0
  }
  scale_param {
    filler {
      value: 1.7159
    }
  }
}
layer {
  name: "fc5_67"
  type: "InnerProduct"
  bottom: "fc4_300"
  top: "fc5_classes"
  inner_product_param {
    num_output: 67
    weight_filler {
      type: "xavier"
    }
  }
}
layer {
  name: "loss"
  type: "SoftmaxWithLoss"
  bottom: "fc5_classes"
  bottom: "label"
  top: "loss"
}
layer {
  name: "accuracy_1"
  type: "Accuracy"
  bottom: "fc5_classes"
  bottom: "label"
  top: "accuracy_1"
  include {
    phase: TEST
  }
  accuracy_param {
    top_k: 1
  }
}
layer {
  name: "accuracy_5"
  type: "Accuracy"
  bottom: "fc5_classes"
  bottom: "label"
  top: "accuracy_5"
  include {
    phase: TEST
  }
  accuracy_param {
    top_k: 5
  }
}
I0411 00:09:31.500061  8915 layer_factory.hpp:77] Creating layer data
I0411 00:09:31.500918  8915 net.cpp:100] Creating Layer data
I0411 00:09:31.500939  8915 net.cpp:408] data -> data
I0411 00:09:31.500950  8915 net.cpp:408] data -> label
I0411 00:09:31.502414  9080 db_lmdb.cpp:35] Opened lmdb ../local_data/lmdb/rtsd-r1/CoNorm/test/lmdb
I0411 00:09:31.502570  8915 data_layer.cpp:41] output data size: 1024,3,48,48
I0411 00:09:31.551795  8915 net.cpp:150] Setting up data
I0411 00:09:31.551821  8915 net.cpp:157] Top shape: 1024 3 48 48 (7077888)
I0411 00:09:31.551827  8915 net.cpp:157] Top shape: 1024 (1024)
I0411 00:09:31.551831  8915 net.cpp:165] Memory required for data: 28315648
I0411 00:09:31.551839  8915 layer_factory.hpp:77] Creating layer label_data_1_split
I0411 00:09:31.551854  8915 net.cpp:100] Creating Layer label_data_1_split
I0411 00:09:31.551858  8915 net.cpp:434] label_data_1_split <- label
I0411 00:09:31.551867  8915 net.cpp:408] label_data_1_split -> label_data_1_split_0
I0411 00:09:31.551898  8915 net.cpp:408] label_data_1_split -> label_data_1_split_1
I0411 00:09:31.551908  8915 net.cpp:408] label_data_1_split -> label_data_1_split_2
I0411 00:09:31.552088  8915 net.cpp:150] Setting up label_data_1_split
I0411 00:09:31.552098  8915 net.cpp:157] Top shape: 1024 (1024)
I0411 00:09:31.552101  8915 net.cpp:157] Top shape: 1024 (1024)
I0411 00:09:31.552105  8915 net.cpp:157] Top shape: 1024 (1024)
I0411 00:09:31.552109  8915 net.cpp:165] Memory required for data: 28327936
I0411 00:09:31.552111  8915 layer_factory.hpp:77] Creating layer conv1
I0411 00:09:31.552130  8915 net.cpp:100] Creating Layer conv1
I0411 00:09:31.552136  8915 net.cpp:434] conv1 <- data
I0411 00:09:31.552148  8915 net.cpp:408] conv1 -> conv1
I0411 00:09:31.554020  8915 net.cpp:150] Setting up conv1
I0411 00:09:31.554038  8915 net.cpp:157] Top shape: 1024 100 42 42 (180633600)
I0411 00:09:31.554041  8915 net.cpp:165] Memory required for data: 750862336
I0411 00:09:31.554055  8915 layer_factory.hpp:77] Creating layer conv1_prescale
I0411 00:09:31.554064  8915 net.cpp:100] Creating Layer conv1_prescale
I0411 00:09:31.554069  8915 net.cpp:434] conv1_prescale <- conv1
I0411 00:09:31.554075  8915 net.cpp:395] conv1_prescale -> conv1 (in-place)
I0411 00:09:31.554215  8915 net.cpp:150] Setting up conv1_prescale
I0411 00:09:31.554225  8915 net.cpp:157] Top shape: 1024 100 42 42 (180633600)
I0411 00:09:31.554229  8915 net.cpp:165] Memory required for data: 1473396736
I0411 00:09:31.554236  8915 layer_factory.hpp:77] Creating layer conv1_sTanH
I0411 00:09:31.554246  8915 net.cpp:100] Creating Layer conv1_sTanH
I0411 00:09:31.554252  8915 net.cpp:434] conv1_sTanH <- conv1
I0411 00:09:31.554260  8915 net.cpp:395] conv1_sTanH -> conv1 (in-place)
I0411 00:09:31.554460  8915 net.cpp:150] Setting up conv1_sTanH
I0411 00:09:31.554471  8915 net.cpp:157] Top shape: 1024 100 42 42 (180633600)
I0411 00:09:31.554476  8915 net.cpp:165] Memory required for data: 2195931136
I0411 00:09:31.554478  8915 layer_factory.hpp:77] Creating layer conv1_postscale
I0411 00:09:31.554487  8915 net.cpp:100] Creating Layer conv1_postscale
I0411 00:09:31.554492  8915 net.cpp:434] conv1_postscale <- conv1
I0411 00:09:31.554498  8915 net.cpp:395] conv1_postscale -> conv1 (in-place)
I0411 00:09:31.554607  8915 net.cpp:150] Setting up conv1_postscale
I0411 00:09:31.554616  8915 net.cpp:157] Top shape: 1024 100 42 42 (180633600)
I0411 00:09:31.554620  8915 net.cpp:165] Memory required for data: 2918465536
I0411 00:09:31.554625  8915 layer_factory.hpp:77] Creating layer pool1
I0411 00:09:31.554633  8915 net.cpp:100] Creating Layer pool1
I0411 00:09:31.554639  8915 net.cpp:434] pool1 <- conv1
I0411 00:09:31.554644  8915 net.cpp:408] pool1 -> pool1
I0411 00:09:31.554692  8915 net.cpp:150] Setting up pool1
I0411 00:09:31.554700  8915 net.cpp:157] Top shape: 1024 100 21 21 (45158400)
I0411 00:09:31.554703  8915 net.cpp:165] Memory required for data: 3099099136
I0411 00:09:31.554707  8915 layer_factory.hpp:77] Creating layer conv2
I0411 00:09:31.554716  8915 net.cpp:100] Creating Layer conv2
I0411 00:09:31.554721  8915 net.cpp:434] conv2 <- pool1
I0411 00:09:31.554728  8915 net.cpp:408] conv2 -> conv2
I0411 00:09:31.560096  8915 net.cpp:150] Setting up conv2
I0411 00:09:31.560115  8915 net.cpp:157] Top shape: 1024 150 18 18 (49766400)
I0411 00:09:31.560119  8915 net.cpp:165] Memory required for data: 3298164736
I0411 00:09:31.560130  8915 layer_factory.hpp:77] Creating layer conv2_prescale
I0411 00:09:31.560154  8915 net.cpp:100] Creating Layer conv2_prescale
I0411 00:09:31.560160  8915 net.cpp:434] conv2_prescale <- conv2
I0411 00:09:31.560168  8915 net.cpp:395] conv2_prescale -> conv2 (in-place)
I0411 00:09:31.560286  8915 net.cpp:150] Setting up conv2_prescale
I0411 00:09:31.560294  8915 net.cpp:157] Top shape: 1024 150 18 18 (49766400)
I0411 00:09:31.560297  8915 net.cpp:165] Memory required for data: 3497230336
I0411 00:09:31.560303  8915 layer_factory.hpp:77] Creating layer conv2_sTanH
I0411 00:09:31.560309  8915 net.cpp:100] Creating Layer conv2_sTanH
I0411 00:09:31.560313  8915 net.cpp:434] conv2_sTanH <- conv2
I0411 00:09:31.560320  8915 net.cpp:395] conv2_sTanH -> conv2 (in-place)
I0411 00:09:31.562577  8915 net.cpp:150] Setting up conv2_sTanH
I0411 00:09:31.562595  8915 net.cpp:157] Top shape: 1024 150 18 18 (49766400)
I0411 00:09:31.562599  8915 net.cpp:165] Memory required for data: 3696295936
I0411 00:09:31.562603  8915 layer_factory.hpp:77] Creating layer conv2_postscale
I0411 00:09:31.562611  8915 net.cpp:100] Creating Layer conv2_postscale
I0411 00:09:31.562615  8915 net.cpp:434] conv2_postscale <- conv2
I0411 00:09:31.562623  8915 net.cpp:395] conv2_postscale -> conv2 (in-place)
I0411 00:09:31.562728  8915 net.cpp:150] Setting up conv2_postscale
I0411 00:09:31.562741  8915 net.cpp:157] Top shape: 1024 150 18 18 (49766400)
I0411 00:09:31.562747  8915 net.cpp:165] Memory required for data: 3895361536
I0411 00:09:31.562752  8915 layer_factory.hpp:77] Creating layer pool2
I0411 00:09:31.562762  8915 net.cpp:100] Creating Layer pool2
I0411 00:09:31.562767  8915 net.cpp:434] pool2 <- conv2
I0411 00:09:31.562772  8915 net.cpp:408] pool2 -> pool2
I0411 00:09:31.562824  8915 net.cpp:150] Setting up pool2
I0411 00:09:31.562835  8915 net.cpp:157] Top shape: 1024 150 9 9 (12441600)
I0411 00:09:31.562856  8915 net.cpp:165] Memory required for data: 3945127936
I0411 00:09:31.562861  8915 layer_factory.hpp:77] Creating layer conv3
I0411 00:09:31.562872  8915 net.cpp:100] Creating Layer conv3
I0411 00:09:31.562878  8915 net.cpp:434] conv3 <- pool2
I0411 00:09:31.562886  8915 net.cpp:408] conv3 -> conv3
I0411 00:09:31.568620  8915 net.cpp:150] Setting up conv3
I0411 00:09:31.568639  8915 net.cpp:157] Top shape: 1024 250 6 6 (9216000)
I0411 00:09:31.568644  8915 net.cpp:165] Memory required for data: 3981991936
I0411 00:09:31.568655  8915 layer_factory.hpp:77] Creating layer conv3_prescale
I0411 00:09:31.568665  8915 net.cpp:100] Creating Layer conv3_prescale
I0411 00:09:31.568670  8915 net.cpp:434] conv3_prescale <- conv3
I0411 00:09:31.568678  8915 net.cpp:395] conv3_prescale -> conv3 (in-place)
I0411 00:09:31.568783  8915 net.cpp:150] Setting up conv3_prescale
I0411 00:09:31.568794  8915 net.cpp:157] Top shape: 1024 250 6 6 (9216000)
I0411 00:09:31.568799  8915 net.cpp:165] Memory required for data: 4018855936
I0411 00:09:31.568804  8915 layer_factory.hpp:77] Creating layer conv3_sTanH
I0411 00:09:31.568814  8915 net.cpp:100] Creating Layer conv3_sTanH
I0411 00:09:31.568819  8915 net.cpp:434] conv3_sTanH <- conv3
I0411 00:09:31.568823  8915 net.cpp:395] conv3_sTanH -> conv3 (in-place)
I0411 00:09:31.570279  8915 net.cpp:150] Setting up conv3_sTanH
I0411 00:09:31.570298  8915 net.cpp:157] Top shape: 1024 250 6 6 (9216000)
I0411 00:09:31.570302  8915 net.cpp:165] Memory required for data: 4055719936
I0411 00:09:31.570305  8915 layer_factory.hpp:77] Creating layer conv3_postscale
I0411 00:09:31.570313  8915 net.cpp:100] Creating Layer conv3_postscale
I0411 00:09:31.570318  8915 net.cpp:434] conv3_postscale <- conv3
I0411 00:09:31.570327  8915 net.cpp:395] conv3_postscale -> conv3 (in-place)
I0411 00:09:31.570438  8915 net.cpp:150] Setting up conv3_postscale
I0411 00:09:31.570451  8915 net.cpp:157] Top shape: 1024 250 6 6 (9216000)
I0411 00:09:31.570456  8915 net.cpp:165] Memory required for data: 4092583936
I0411 00:09:31.570461  8915 layer_factory.hpp:77] Creating layer pool3
I0411 00:09:31.570472  8915 net.cpp:100] Creating Layer pool3
I0411 00:09:31.570479  8915 net.cpp:434] pool3 <- conv3
I0411 00:09:31.570489  8915 net.cpp:408] pool3 -> pool3
I0411 00:09:31.570546  8915 net.cpp:150] Setting up pool3
I0411 00:09:31.570557  8915 net.cpp:157] Top shape: 1024 250 3 3 (2304000)
I0411 00:09:31.570561  8915 net.cpp:165] Memory required for data: 4101799936
I0411 00:09:31.570565  8915 layer_factory.hpp:77] Creating layer fc4_300
I0411 00:09:31.570574  8915 net.cpp:100] Creating Layer fc4_300
I0411 00:09:31.570578  8915 net.cpp:434] fc4_300 <- pool3
I0411 00:09:31.570585  8915 net.cpp:408] fc4_300 -> fc4_300
I0411 00:09:31.576170  8915 net.cpp:150] Setting up fc4_300
I0411 00:09:31.576189  8915 net.cpp:157] Top shape: 1024 300 (307200)
I0411 00:09:31.576194  8915 net.cpp:165] Memory required for data: 4103028736
I0411 00:09:31.576200  8915 layer_factory.hpp:77] Creating layer fc4_prescale
I0411 00:09:31.576212  8915 net.cpp:100] Creating Layer fc4_prescale
I0411 00:09:31.576217  8915 net.cpp:434] fc4_prescale <- fc4_300
I0411 00:09:31.576226  8915 net.cpp:395] fc4_prescale -> fc4_300 (in-place)
I0411 00:09:31.576325  8915 net.cpp:150] Setting up fc4_prescale
I0411 00:09:31.576334  8915 net.cpp:157] Top shape: 1024 300 (307200)
I0411 00:09:31.576339  8915 net.cpp:165] Memory required for data: 4104257536
I0411 00:09:31.576344  8915 layer_factory.hpp:77] Creating layer fc4_sTanH
I0411 00:09:31.576352  8915 net.cpp:100] Creating Layer fc4_sTanH
I0411 00:09:31.576357  8915 net.cpp:434] fc4_sTanH <- fc4_300
I0411 00:09:31.576362  8915 net.cpp:395] fc4_sTanH -> fc4_300 (in-place)
I0411 00:09:31.576567  8915 net.cpp:150] Setting up fc4_sTanH
I0411 00:09:31.576580  8915 net.cpp:157] Top shape: 1024 300 (307200)
I0411 00:09:31.576584  8915 net.cpp:165] Memory required for data: 4105486336
I0411 00:09:31.576589  8915 layer_factory.hpp:77] Creating layer fc4_postscale
I0411 00:09:31.576597  8915 net.cpp:100] Creating Layer fc4_postscale
I0411 00:09:31.576617  8915 net.cpp:434] fc4_postscale <- fc4_300
I0411 00:09:31.576627  8915 net.cpp:395] fc4_postscale -> fc4_300 (in-place)
I0411 00:09:31.576733  8915 net.cpp:150] Setting up fc4_postscale
I0411 00:09:31.576742  8915 net.cpp:157] Top shape: 1024 300 (307200)
I0411 00:09:31.576747  8915 net.cpp:165] Memory required for data: 4106715136
I0411 00:09:31.576753  8915 layer_factory.hpp:77] Creating layer fc5_67
I0411 00:09:31.576762  8915 net.cpp:100] Creating Layer fc5_67
I0411 00:09:31.576768  8915 net.cpp:434] fc5_67 <- fc4_300
I0411 00:09:31.576773  8915 net.cpp:408] fc5_67 -> fc5_classes
I0411 00:09:31.577031  8915 net.cpp:150] Setting up fc5_67
I0411 00:09:31.577041  8915 net.cpp:157] Top shape: 1024 67 (68608)
I0411 00:09:31.577044  8915 net.cpp:165] Memory required for data: 4106989568
I0411 00:09:31.577054  8915 layer_factory.hpp:77] Creating layer fc5_classes_fc5_67_0_split
I0411 00:09:31.577064  8915 net.cpp:100] Creating Layer fc5_classes_fc5_67_0_split
I0411 00:09:31.577069  8915 net.cpp:434] fc5_classes_fc5_67_0_split <- fc5_classes
I0411 00:09:31.577075  8915 net.cpp:408] fc5_classes_fc5_67_0_split -> fc5_classes_fc5_67_0_split_0
I0411 00:09:31.577085  8915 net.cpp:408] fc5_classes_fc5_67_0_split -> fc5_classes_fc5_67_0_split_1
I0411 00:09:31.577098  8915 net.cpp:408] fc5_classes_fc5_67_0_split -> fc5_classes_fc5_67_0_split_2
I0411 00:09:31.577153  8915 net.cpp:150] Setting up fc5_classes_fc5_67_0_split
I0411 00:09:31.577160  8915 net.cpp:157] Top shape: 1024 67 (68608)
I0411 00:09:31.577169  8915 net.cpp:157] Top shape: 1024 67 (68608)
I0411 00:09:31.577177  8915 net.cpp:157] Top shape: 1024 67 (68608)
I0411 00:09:31.577179  8915 net.cpp:165] Memory required for data: 4107812864
I0411 00:09:31.577183  8915 layer_factory.hpp:77] Creating layer loss
I0411 00:09:31.577189  8915 net.cpp:100] Creating Layer loss
I0411 00:09:31.577193  8915 net.cpp:434] loss <- fc5_classes_fc5_67_0_split_0
I0411 00:09:31.577198  8915 net.cpp:434] loss <- label_data_1_split_0
I0411 00:09:31.577205  8915 net.cpp:408] loss -> loss
…
