…
I0410 23:46:23.430819 32349 net.cpp:322] The NetState phase (0) differed from the phase (1) specified by a rule in layer accuracy_5
I0410 23:46:23.430995 32349 net.cpp:58] Initializing net from parameters: 
state {
  phase: TRAIN
  level: 0
  stage: ""
}
layer {
  name: "data"
  type: "Data"
  top: "data"
  top: "label"
  include {
    phase: TRAIN
  }
  transform_param {
    mirror: false
    crop_size: 48
    mean_value: 132
    mean_value: 132
    mean_value: 131
  }
  data_param {
    source: "../local_data/lmdb/rtsd-r1/CoNorm/train/lmdb"
    batch_size: 1024
    backend: LMDB
  }
}
layer {
  name: "conv1"
  type: "Convolution"
  bottom: "data"
  top: "conv1"
  convolution_param {
    num_output: 100
    pad: 0
    kernel_size: 7
    group: 1
    stride: 1
    weight_filler {
      type: "xavier"
    }
  }
}
layer {
  name: "conv1_prescale"
  type: "Scale"
  bottom: "conv1"
  top: "conv1"
  param {
    lr_mult: 0
    decay_mult: 0
  }
  scale_param {
    filler {
      value: 0.6666
    }
  }
}
layer {
  name: "conv1_sTanH"
  type: "TanH"
  bottom: "conv1"
  top: "conv1"
}
layer {
  name: "conv1_postscale"
  type: "Scale"
  bottom: "conv1"
  top: "conv1"
  param {
    lr_mult: 0
    decay_mult: 0
  }
  scale_param {
    filler {
      value: 1.7159
    }
  }
}
layer {
  name: "pool1"
  type: "Pooling"
  bottom: "conv1"
  top: "pool1"
  pooling_param {
    pool: MAX
    kernel_size: 2
    stride: 2
  }
}
layer {
  name: "conv2"
  type: "Convolution"
  bottom: "pool1"
  top: "conv2"
  convolution_param {
    num_output: 150
    pad: 0
    kernel_size: 4
    group: 1
    stride: 1
    weight_filler {
      type: "xavier"
    }
  }
}
layer {
  name: "conv2_prescale"
  type: "Scale"
  bottom: "conv2"
  top: "conv2"
  param {
    lr_mult: 0
    decay_mult: 0
  }
  scale_param {
    filler {
      value: 0.6666
    }
  }
}
layer {
  name: "conv2_sTanH"
  type: "TanH"
  bottom: "conv2"
  top: "conv2"
}
layer {
  name: "conv2_postscale"
  type: "Scale"
  bottom: "conv2"
  top: "conv2"
  param {
    lr_mult: 0
    decay_mult: 0
  }
  scale_param {
    filler {
      value: 1.7159
    }
  }
}
layer {
  name: "pool2"
  type: "Pooling"
  bottom: "conv2"
  top: "pool2"
  pooling_param {
    pool: MAX
    kernel_size: 2
    stride: 2
  }
}
layer {
  name: "conv3"
  type: "Convolution"
  bottom: "pool2"
  top: "conv3"
  convolution_param {
    num_output: 250
    pad: 0
    kernel_size: 4
    group: 1
    stride: 1
    weight_filler {
      type: "xavier"
    }
  }
}
layer {
  name: "conv3_prescale"
  type: "Scale"
  bottom: "conv3"
  top: "conv3"
  param {
    lr_mult: 0
    decay_mult: 0
  }
  scale_param {
    filler {
      value: 0.6666
    }
  }
}
layer {
  name: "conv3_sTanH"
  type: "TanH"
  bottom: "conv3"
  top: "conv3"
}
layer {
  name: "conv3_postscale"
  type: "Scale"
  bottom: "conv3"
  top: "conv3"
  param {
    lr_mult: 0
    decay_mult: 0
  }
  scale_param {
    filler {
      value: 1.7159
    }
  }
}
layer {
  name: "pool3"
  type: "Pooling"
  bottom: "conv3"
  top: "pool3"
  pooling_param {
    pool: MAX
    kernel_size: 2
    stride: 2
  }
}
layer {
  name: "fc4_300"
  type: "InnerProduct"
  bottom: "pool3"
  top: "fc4_300"
  inner_product_param {
    num_output: 300
    weight_filler {
      type: "xavier"
    }
  }
}
layer {
  name: "fc4_prescale"
  type: "Scale"
  bottom: "fc4_300"
  top: "fc4_300"
  param {
    lr_mult: 0
    decay_mult: 0
  }
  scale_param {
    filler {
      value: 0.6666
    }
  }
}
layer {
  name: "fc4_sTanH"
  type: "TanH"
  bottom: "fc4_300"
  top: "fc4_300"
}
layer {
  name: "fc4_postscale"
  type: "Scale"
  bottom: "fc4_300"
  top: "fc4_300"
  param {
    lr_mult: 0
    decay_mult: 0
  }
  scale_param {
    filler {
      value: 1.7159
    }
  }
}
layer {
  name: "drop4"
  type: "Dropout"
  bottom: "fc4_300"
  top: "fc4_300"
  dropout_param {
    dropout_ratio: 0.4
  }
}
layer {
  name: "fc5_67"
  type: "InnerProduct"
  bottom: "fc4_300"
  top: "fc5_classes"
  inner_product_param {
    num_output: 67
    weight_filler {
      type: "xavier"
    }
  }
}
layer {
  name: "loss"
  type: "SoftmaxWithLoss"
  bottom: "fc5_classes"
  bottom: "label"
  top: "loss"
}
I0410 23:46:23.431123 32349 layer_factory.hpp:77] Creating layer data
I0410 23:46:23.432399 32349 net.cpp:100] Creating Layer data
I0410 23:46:23.432415 32349 net.cpp:408] data -> data
I0410 23:46:23.432445 32349 net.cpp:408] data -> label
I0410 23:46:23.436439 32478 db_lmdb.cpp:35] Opened lmdb ../local_data/lmdb/rtsd-r1/CoNorm/train/lmdb
I0410 23:46:23.456674 32349 data_layer.cpp:41] output data size: 1024,3,48,48
I0410 23:46:23.510958 32349 net.cpp:150] Setting up data
I0410 23:46:23.510992 32349 net.cpp:157] Top shape: 1024 3 48 48 (7077888)
I0410 23:46:23.510998 32349 net.cpp:157] Top shape: 1024 (1024)
I0410 23:46:23.511001 32349 net.cpp:165] Memory required for data: 28315648
I0410 23:46:23.511013 32349 layer_factory.hpp:77] Creating layer conv1
I0410 23:46:23.511036 32349 net.cpp:100] Creating Layer conv1
I0410 23:46:23.511046 32349 net.cpp:434] conv1 <- data
I0410 23:46:23.511062 32349 net.cpp:408] conv1 -> conv1
I0410 23:46:23.853974 32349 net.cpp:150] Setting up conv1
I0410 23:46:23.854013 32349 net.cpp:157] Top shape: 1024 100 42 42 (180633600)
I0410 23:46:23.854018 32349 net.cpp:165] Memory required for data: 750850048
I0410 23:46:23.854043 32349 layer_factory.hpp:77] Creating layer conv1_prescale
I0410 23:46:23.854058 32349 net.cpp:100] Creating Layer conv1_prescale
I0410 23:46:23.854065 32349 net.cpp:434] conv1_prescale <- conv1
I0410 23:46:23.854075 32349 net.cpp:395] conv1_prescale -> conv1 (in-place)
I0410 23:46:23.854213 32349 net.cpp:150] Setting up conv1_prescale
I0410 23:46:23.854224 32349 net.cpp:157] Top shape: 1024 100 42 42 (180633600)
I0410 23:46:23.854228 32349 net.cpp:165] Memory required for data: 1473384448
I0410 23:46:23.854236 32349 layer_factory.hpp:77] Creating layer conv1_sTanH
I0410 23:46:23.854245 32349 net.cpp:100] Creating Layer conv1_sTanH
I0410 23:46:23.854250 32349 net.cpp:434] conv1_sTanH <- conv1
I0410 23:46:23.854256 32349 net.cpp:395] conv1_sTanH -> conv1 (in-place)
I0410 23:46:23.854499 32349 net.cpp:150] Setting up conv1_sTanH
I0410 23:46:23.854513 32349 net.cpp:157] Top shape: 1024 100 42 42 (180633600)
I0410 23:46:23.854517 32349 net.cpp:165] Memory required for data: 2195918848
I0410 23:46:23.854521 32349 layer_factory.hpp:77] Creating layer conv1_postscale
I0410 23:46:23.854533 32349 net.cpp:100] Creating Layer conv1_postscale
I0410 23:46:23.854538 32349 net.cpp:434] conv1_postscale <- conv1
I0410 23:46:23.854545 32349 net.cpp:395] conv1_postscale -> conv1 (in-place)
I0410 23:46:23.854670 32349 net.cpp:150] Setting up conv1_postscale
I0410 23:46:23.854681 32349 net.cpp:157] Top shape: 1024 100 42 42 (180633600)
I0410 23:46:23.854684 32349 net.cpp:165] Memory required for data: 2918453248
I0410 23:46:23.854691 32349 layer_factory.hpp:77] Creating layer pool1
I0410 23:46:23.854697 32349 net.cpp:100] Creating Layer pool1
I0410 23:46:23.854701 32349 net.cpp:434] pool1 <- conv1
I0410 23:46:23.854710 32349 net.cpp:408] pool1 -> pool1
I0410 23:46:23.854768 32349 net.cpp:150] Setting up pool1
I0410 23:46:23.854778 32349 net.cpp:157] Top shape: 1024 100 21 21 (45158400)
I0410 23:46:23.854781 32349 net.cpp:165] Memory required for data: 3099086848
I0410 23:46:23.854805 32349 layer_factory.hpp:77] Creating layer conv2
I0410 23:46:23.854820 32349 net.cpp:100] Creating Layer conv2
I0410 23:46:23.854826 32349 net.cpp:434] conv2 <- pool1
I0410 23:46:23.854835 32349 net.cpp:408] conv2 -> conv2
I0410 23:46:23.861796 32349 net.cpp:150] Setting up conv2
I0410 23:46:23.861817 32349 net.cpp:157] Top shape: 1024 150 18 18 (49766400)
I0410 23:46:23.861821 32349 net.cpp:165] Memory required for data: 3298152448
I0410 23:46:23.861834 32349 layer_factory.hpp:77] Creating layer conv2_prescale
I0410 23:46:23.861843 32349 net.cpp:100] Creating Layer conv2_prescale
I0410 23:46:23.861848 32349 net.cpp:434] conv2_prescale <- conv2
I0410 23:46:23.861855 32349 net.cpp:395] conv2_prescale -> conv2 (in-place)
I0410 23:46:23.861986 32349 net.cpp:150] Setting up conv2_prescale
I0410 23:46:23.861997 32349 net.cpp:157] Top shape: 1024 150 18 18 (49766400)
I0410 23:46:23.862000 32349 net.cpp:165] Memory required for data: 3497218048
I0410 23:46:23.862006 32349 layer_factory.hpp:77] Creating layer conv2_sTanH
I0410 23:46:23.862020 32349 net.cpp:100] Creating Layer conv2_sTanH
I0410 23:46:23.862023 32349 net.cpp:434] conv2_sTanH <- conv2
I0410 23:46:23.862030 32349 net.cpp:395] conv2_sTanH -> conv2 (in-place)
I0410 23:46:23.864229 32349 net.cpp:150] Setting up conv2_sTanH
I0410 23:46:23.864248 32349 net.cpp:157] Top shape: 1024 150 18 18 (49766400)
I0410 23:46:23.864253 32349 net.cpp:165] Memory required for data: 3696283648
I0410 23:46:23.864256 32349 layer_factory.hpp:77] Creating layer conv2_postscale
I0410 23:46:23.864265 32349 net.cpp:100] Creating Layer conv2_postscale
I0410 23:46:23.864269 32349 net.cpp:434] conv2_postscale <- conv2
I0410 23:46:23.864275 32349 net.cpp:395] conv2_postscale -> conv2 (in-place)
I0410 23:46:23.864390 32349 net.cpp:150] Setting up conv2_postscale
I0410 23:46:23.864400 32349 net.cpp:157] Top shape: 1024 150 18 18 (49766400)
I0410 23:46:23.864403 32349 net.cpp:165] Memory required for data: 3895349248
I0410 23:46:23.864409 32349 layer_factory.hpp:77] Creating layer pool2
I0410 23:46:23.864418 32349 net.cpp:100] Creating Layer pool2
I0410 23:46:23.864423 32349 net.cpp:434] pool2 <- conv2
I0410 23:46:23.864428 32349 net.cpp:408] pool2 -> pool2
I0410 23:46:23.864473 32349 net.cpp:150] Setting up pool2
I0410 23:46:23.864482 32349 net.cpp:157] Top shape: 1024 150 9 9 (12441600)
I0410 23:46:23.864486 32349 net.cpp:165] Memory required for data: 3945115648
I0410 23:46:23.864490 32349 layer_factory.hpp:77] Creating layer conv3
I0410 23:46:23.864500 32349 net.cpp:100] Creating Layer conv3
I0410 23:46:23.864506 32349 net.cpp:434] conv3 <- pool2
I0410 23:46:23.864512 32349 net.cpp:408] conv3 -> conv3
I0410 23:46:23.871671 32349 net.cpp:150] Setting up conv3
I0410 23:46:23.871691 32349 net.cpp:157] Top shape: 1024 250 6 6 (9216000)
I0410 23:46:23.871696 32349 net.cpp:165] Memory required for data: 3981979648
I0410 23:46:23.871707 32349 layer_factory.hpp:77] Creating layer conv3_prescale
I0410 23:46:23.871717 32349 net.cpp:100] Creating Layer conv3_prescale
I0410 23:46:23.871721 32349 net.cpp:434] conv3_prescale <- conv3
I0410 23:46:23.871728 32349 net.cpp:395] conv3_prescale -> conv3 (in-place)
I0410 23:46:23.871839 32349 net.cpp:150] Setting up conv3_prescale
I0410 23:46:23.871848 32349 net.cpp:157] Top shape: 1024 250 6 6 (9216000)
I0410 23:46:23.871851 32349 net.cpp:165] Memory required for data: 4018843648
I0410 23:46:23.871857 32349 layer_factory.hpp:77] Creating layer conv3_sTanH
I0410 23:46:23.871863 32349 net.cpp:100] Creating Layer conv3_sTanH
I0410 23:46:23.871867 32349 net.cpp:434] conv3_sTanH <- conv3
I0410 23:46:23.871872 32349 net.cpp:395] conv3_sTanH -> conv3 (in-place)
I0410 23:46:23.873447 32349 net.cpp:150] Setting up conv3_sTanH
I0410 23:46:23.873466 32349 net.cpp:157] Top shape: 1024 250 6 6 (9216000)
I0410 23:46:23.873469 32349 net.cpp:165] Memory required for data: 4055707648
I0410 23:46:23.873474 32349 layer_factory.hpp:77] Creating layer conv3_postscale
I0410 23:46:23.873482 32349 net.cpp:100] Creating Layer conv3_postscale
I0410 23:46:23.873504 32349 net.cpp:434] conv3_postscale <- conv3
I0410 23:46:23.873512 32349 net.cpp:395] conv3_postscale -> conv3 (in-place)
I0410 23:46:23.873630 32349 net.cpp:150] Setting up conv3_postscale
I0410 23:46:23.873639 32349 net.cpp:157] Top shape: 1024 250 6 6 (9216000)
I0410 23:46:23.873643 32349 net.cpp:165] Memory required for data: 4092571648
I0410 23:46:23.873649 32349 layer_factory.hpp:77] Creating layer pool3
I0410 23:46:23.873656 32349 net.cpp:100] Creating Layer pool3
I0410 23:46:23.873661 32349 net.cpp:434] pool3 <- conv3
I0410 23:46:23.873667 32349 net.cpp:408] pool3 -> pool3
I0410 23:46:23.873711 32349 net.cpp:150] Setting up pool3
I0410 23:46:23.873719 32349 net.cpp:157] Top shape: 1024 250 3 3 (2304000)
I0410 23:46:23.873723 32349 net.cpp:165] Memory required for data: 4101787648
I0410 23:46:23.873726 32349 layer_factory.hpp:77] Creating layer fc4_300
I0410 23:46:23.873736 32349 net.cpp:100] Creating Layer fc4_300
I0410 23:46:23.873741 32349 net.cpp:434] fc4_300 <- pool3
I0410 23:46:23.873747 32349 net.cpp:408] fc4_300 -> fc4_300
I0410 23:46:23.880913 32349 net.cpp:150] Setting up fc4_300
I0410 23:46:23.880933 32349 net.cpp:157] Top shape: 1024 300 (307200)
I0410 23:46:23.880936 32349 net.cpp:165] Memory required for data: 4103016448
I0410 23:46:23.880944 32349 layer_factory.hpp:77] Creating layer fc4_prescale
I0410 23:46:23.880954 32349 net.cpp:100] Creating Layer fc4_prescale
I0410 23:46:23.880957 32349 net.cpp:434] fc4_prescale <- fc4_300
I0410 23:46:23.880964 32349 net.cpp:395] fc4_prescale -> fc4_300 (in-place)
I0410 23:46:23.881068 32349 net.cpp:150] Setting up fc4_prescale
I0410 23:46:23.881078 32349 net.cpp:157] Top shape: 1024 300 (307200)
I0410 23:46:23.881081 32349 net.cpp:165] Memory required for data: 4104245248
I0410 23:46:23.881086 32349 layer_factory.hpp:77] Creating layer fc4_sTanH
I0410 23:46:23.881093 32349 net.cpp:100] Creating Layer fc4_sTanH
I0410 23:46:23.881096 32349 net.cpp:434] fc4_sTanH <- fc4_300
I0410 23:46:23.881101 32349 net.cpp:395] fc4_sTanH -> fc4_300 (in-place)
I0410 23:46:23.881322 32349 net.cpp:150] Setting up fc4_sTanH
I0410 23:46:23.881335 32349 net.cpp:157] Top shape: 1024 300 (307200)
I0410 23:46:23.881338 32349 net.cpp:165] Memory required for data: 4105474048
I0410 23:46:23.881343 32349 layer_factory.hpp:77] Creating layer fc4_postscale
I0410 23:46:23.881351 32349 net.cpp:100] Creating Layer fc4_postscale
I0410 23:46:23.881355 32349 net.cpp:434] fc4_postscale <- fc4_300
I0410 23:46:23.881361 32349 net.cpp:395] fc4_postscale -> fc4_300 (in-place)
I0410 23:46:23.881471 32349 net.cpp:150] Setting up fc4_postscale
I0410 23:46:23.881480 32349 net.cpp:157] Top shape: 1024 300 (307200)
I0410 23:46:23.881484 32349 net.cpp:165] Memory required for data: 4106702848
I0410 23:46:23.881489 32349 layer_factory.hpp:77] Creating layer drop4
I0410 23:46:23.881497 32349 net.cpp:100] Creating Layer drop4
I0410 23:46:23.881500 32349 net.cpp:434] drop4 <- fc4_300
I0410 23:46:23.881505 32349 net.cpp:395] drop4 -> fc4_300 (in-place)
I0410 23:46:23.881534 32349 net.cpp:150] Setting up drop4
I0410 23:46:23.881543 32349 net.cpp:157] Top shape: 1024 300 (307200)
I0410 23:46:23.881546 32349 net.cpp:165] Memory required for data: 4107931648
I0410 23:46:23.881551 32349 layer_factory.hpp:77] Creating layer fc5_67
I0410 23:46:23.881557 32349 net.cpp:100] Creating Layer fc5_67
I0410 23:46:23.881561 32349 net.cpp:434] fc5_67 <- fc4_300
I0410 23:46:23.881567 32349 net.cpp:408] fc5_67 -> fc5_classes
I0410 23:46:23.882997 32349 net.cpp:150] Setting up fc5_67
I0410 23:46:23.883014 32349 net.cpp:157] Top shape: 1024 67 (68608)
I0410 23:46:23.883018 32349 net.cpp:165] Memory required for data: 4108206080
I0410 23:46:23.883030 32349 layer_factory.hpp:77] Creating layer loss
I0410 23:46:23.883038 32349 net.cpp:100] Creating Layer loss
I0410 23:46:23.883043 32349 net.cpp:434] loss <- fc5_classes
I0410 23:46:23.883047 32349 net.cpp:434] loss <- label
I0410 23:46:23.883055 32349 net.cpp:408] loss -> loss
I0410 23:46:23.883069 32349 layer_factory.hpp:77] Creating layer loss
…
I0410 23:46:23.883952 32349 solver.cpp:193] Creating test net (#0) specified by test_net file: ./Prototxt/experiment_8/rtsd-r1/CoNorm/trial_1/test.prototxt
I0410 23:46:23.884171 32349 net.cpp:58] Initializing net from parameters: 
state {
  phase: TEST
}
layer {
  name: "data"
  type: "Data"
  top: "data"
  top: "label"
  include {
    phase: TEST
  }
  transform_param {
    mirror: false
    crop_size: 48
    mean_value: 133
    mean_value: 133
    mean_value: 132
  }
  data_param {
    source: "../local_data/lmdb/rtsd-r1/CoNorm/test/lmdb"
    batch_size: 1024
    backend: LMDB
  }
}
layer {
  name: "conv1"
  type: "Convolution"
  bottom: "data"
  top: "conv1"
  convolution_param {
    num_output: 100
    pad: 0
    kernel_size: 7
    group: 1
    stride: 1
    weight_filler {
      type: "xavier"
    }
  }
}
layer {
  name: "conv1_prescale"
  type: "Scale"
  bottom: "conv1"
  top: "conv1"
  param {
    lr_mult: 0
    decay_mult: 0
  }
  scale_param {
    filler {
      value: 0.6666
    }
  }
}
layer {
  name: "conv1_sTanH"
  type: "TanH"
  bottom: "conv1"
  top: "conv1"
}
layer {
  name: "conv1_postscale"
  type: "Scale"
  bottom: "conv1"
  top: "conv1"
  param {
    lr_mult: 0
    decay_mult: 0
  }
  scale_param {
    filler {
      value: 1.7159
    }
  }
}
layer {
  name: "pool1"
  type: "Pooling"
  bottom: "conv1"
  top: "pool1"
  pooling_param {
    pool: MAX
    kernel_size: 2
    stride: 2
  }
}
layer {
  name: "conv2"
  type: "Convolution"
  bottom: "pool1"
  top: "conv2"
  convolution_param {
    num_output: 150
    pad: 0
    kernel_size: 4
    group: 1
    stride: 1
    weight_filler {
      type: "xavier"
    }
  }
}
layer {
  name: "conv2_prescale"
  type: "Scale"
  bottom: "conv2"
  top: "conv2"
  param {
    lr_mult: 0
    decay_mult: 0
  }
  scale_param {
    filler {
      value: 0.6666
    }
  }
}
layer {
  name: "conv2_sTanH"
  type: "TanH"
  bottom: "conv2"
  top: "conv2"
}
layer {
  name: "conv2_postscale"
  type: "Scale"
  bottom: "conv2"
  top: "conv2"
  param {
    lr_mult: 0
    decay_mult: 0
  }
  scale_param {
    filler {
      value: 1.7159
    }
  }
}
layer {
  name: "pool2"
  type: "Pooling"
  bottom: "conv2"
  top: "pool2"
  pooling_param {
    pool: MAX
    kernel_size: 2
    stride: 2
  }
}
layer {
  name: "conv3"
  type: "Convolution"
  bottom: "pool2"
  top: "conv3"
  convolution_param {
    num_output: 250
    pad: 0
    kernel_size: 4
    group: 1
    stride: 1
    weight_filler {
      type: "xavier"
    }
  }
}
layer {
  name: "conv3_prescale"
  type: "Scale"
  bottom: "conv3"
  top: "conv3"
  param {
    lr_mult: 0
    decay_mult: 0
  }
  scale_param {
    filler {
      value: 0.6666
    }
  }
}
layer {
  name: "conv3_sTanH"
  type: "TanH"
  bottom: "conv3"
  top: "conv3"
}
layer {
  name: "conv3_postscale"
  type: "Scale"
  bottom: "conv3"
  top: "conv3"
  param {
    lr_mult: 0
    decay_mult: 0
  }
  scale_param {
    filler {
      value: 1.7159
    }
  }
}
layer {
  name: "pool3"
  type: "Pooling"
  bottom: "conv3"
  top: "pool3"
  pooling_param {
    pool: MAX
    kernel_size: 2
    stride: 2
  }
}
layer {
  name: "fc4_300"
  type: "InnerProduct"
  bottom: "pool3"
  top: "fc4_300"
  inner_product_param {
    num_output: 300
    weight_filler {
      type: "xavier"
    }
  }
}
layer {
  name: "fc4_prescale"
  type: "Scale"
  bottom: "fc4_300"
  top: "fc4_300"
  param {
    lr_mult: 0
    decay_mult: 0
  }
  scale_param {
    filler {
      value: 0.6666
    }
  }
}
layer {
  name: "fc4_sTanH"
  type: "TanH"
  bottom: "fc4_300"
  top: "fc4_300"
}
layer {
  name: "fc4_postscale"
  type: "Scale"
  bottom: "fc4_300"
  top: "fc4_300"
  param {
    lr_mult: 0
    decay_mult: 0
  }
  scale_param {
    filler {
      value: 1.7159
    }
  }
}
layer {
  name: "drop4"
  type: "Dropout"
  bottom: "fc4_300"
  top: "fc4_300"
  dropout_param {
    dropout_ratio: 0.4
  }
}
layer {
  name: "fc5_67"
  type: "InnerProduct"
  bottom: "fc4_300"
  top: "fc5_classes"
  inner_product_param {
    num_output: 67
    weight_filler {
      type: "xavier"
    }
  }
}
layer {
  name: "loss"
  type: "SoftmaxWithLoss"
  bottom: "fc5_classes"
  bottom: "label"
  top: "loss"
}
layer {
  name: "accuracy_1"
  type: "Accuracy"
  bottom: "fc5_classes"
  bottom: "label"
  top: "accuracy_1"
  include {
    phase: TEST
  }
  accuracy_param {
    top_k: 1
  }
}
layer {
  name: "accuracy_5"
  type: "Accuracy"
  bottom: "fc5_classes"
  bottom: "label"
  top: "accuracy_5"
  include {
    phase: TEST
  }
  accuracy_param {
    top_k: 5
  }
}
I0410 23:46:23.884304 32349 layer_factory.hpp:77] Creating layer data
I0410 23:46:23.884997 32349 net.cpp:100] Creating Layer data
I0410 23:46:23.885010 32349 net.cpp:408] data -> data
I0410 23:46:23.885020 32349 net.cpp:408] data -> label
I0410 23:46:23.886677 32532 db_lmdb.cpp:35] Opened lmdb ../local_data/lmdb/rtsd-r1/CoNorm/test/lmdb
I0410 23:46:23.886898 32349 data_layer.cpp:41] output data size: 1024,3,48,48
I0410 23:46:23.933349 32349 net.cpp:150] Setting up data
I0410 23:46:23.933378 32349 net.cpp:157] Top shape: 1024 3 48 48 (7077888)
I0410 23:46:23.933384 32349 net.cpp:157] Top shape: 1024 (1024)
I0410 23:46:23.933388 32349 net.cpp:165] Memory required for data: 28315648
I0410 23:46:23.933395 32349 layer_factory.hpp:77] Creating layer label_data_1_split
I0410 23:46:23.933411 32349 net.cpp:100] Creating Layer label_data_1_split
I0410 23:46:23.933416 32349 net.cpp:434] label_data_1_split <- label
I0410 23:46:23.933424 32349 net.cpp:408] label_data_1_split -> label_data_1_split_0
I0410 23:46:23.933436 32349 net.cpp:408] label_data_1_split -> label_data_1_split_1
I0410 23:46:23.933446 32349 net.cpp:408] label_data_1_split -> label_data_1_split_2
I0410 23:46:23.933586 32349 net.cpp:150] Setting up label_data_1_split
I0410 23:46:23.933596 32349 net.cpp:157] Top shape: 1024 (1024)
I0410 23:46:23.933600 32349 net.cpp:157] Top shape: 1024 (1024)
I0410 23:46:23.933605 32349 net.cpp:157] Top shape: 1024 (1024)
I0410 23:46:23.933609 32349 net.cpp:165] Memory required for data: 28327936
I0410 23:46:23.933631 32349 layer_factory.hpp:77] Creating layer conv1
I0410 23:46:23.933646 32349 net.cpp:100] Creating Layer conv1
I0410 23:46:23.933652 32349 net.cpp:434] conv1 <- data
I0410 23:46:23.933660 32349 net.cpp:408] conv1 -> conv1
I0410 23:46:23.938504 32349 net.cpp:150] Setting up conv1
I0410 23:46:23.938524 32349 net.cpp:157] Top shape: 1024 100 42 42 (180633600)
I0410 23:46:23.938529 32349 net.cpp:165] Memory required for data: 750862336
I0410 23:46:23.938542 32349 layer_factory.hpp:77] Creating layer conv1_prescale
I0410 23:46:23.938555 32349 net.cpp:100] Creating Layer conv1_prescale
I0410 23:46:23.938558 32349 net.cpp:434] conv1_prescale <- conv1
I0410 23:46:23.938565 32349 net.cpp:395] conv1_prescale -> conv1 (in-place)
I0410 23:46:23.938686 32349 net.cpp:150] Setting up conv1_prescale
I0410 23:46:23.938697 32349 net.cpp:157] Top shape: 1024 100 42 42 (180633600)
I0410 23:46:23.938700 32349 net.cpp:165] Memory required for data: 1473396736
I0410 23:46:23.938709 32349 layer_factory.hpp:77] Creating layer conv1_sTanH
I0410 23:46:23.938716 32349 net.cpp:100] Creating Layer conv1_sTanH
I0410 23:46:23.938720 32349 net.cpp:434] conv1_sTanH <- conv1
I0410 23:46:23.938725 32349 net.cpp:395] conv1_sTanH -> conv1 (in-place)
I0410 23:46:23.938943 32349 net.cpp:150] Setting up conv1_sTanH
I0410 23:46:23.938956 32349 net.cpp:157] Top shape: 1024 100 42 42 (180633600)
I0410 23:46:23.938961 32349 net.cpp:165] Memory required for data: 2195931136
I0410 23:46:23.938964 32349 layer_factory.hpp:77] Creating layer conv1_postscale
I0410 23:46:23.938972 32349 net.cpp:100] Creating Layer conv1_postscale
I0410 23:46:23.938976 32349 net.cpp:434] conv1_postscale <- conv1
I0410 23:46:23.938982 32349 net.cpp:395] conv1_postscale -> conv1 (in-place)
I0410 23:46:23.939105 32349 net.cpp:150] Setting up conv1_postscale
I0410 23:46:23.939113 32349 net.cpp:157] Top shape: 1024 100 42 42 (180633600)
I0410 23:46:23.939117 32349 net.cpp:165] Memory required for data: 2918465536
I0410 23:46:23.939122 32349 layer_factory.hpp:77] Creating layer pool1
I0410 23:46:23.939131 32349 net.cpp:100] Creating Layer pool1
I0410 23:46:23.939134 32349 net.cpp:434] pool1 <- conv1
I0410 23:46:23.939139 32349 net.cpp:408] pool1 -> pool1
I0410 23:46:23.939193 32349 net.cpp:150] Setting up pool1
I0410 23:46:23.939200 32349 net.cpp:157] Top shape: 1024 100 21 21 (45158400)
I0410 23:46:23.939204 32349 net.cpp:165] Memory required for data: 3099099136
I0410 23:46:23.939208 32349 layer_factory.hpp:77] Creating layer conv2
I0410 23:46:23.939218 32349 net.cpp:100] Creating Layer conv2
I0410 23:46:23.939223 32349 net.cpp:434] conv2 <- pool1
I0410 23:46:23.939229 32349 net.cpp:408] conv2 -> conv2
I0410 23:46:23.946403 32349 net.cpp:150] Setting up conv2
I0410 23:46:23.946429 32349 net.cpp:157] Top shape: 1024 150 18 18 (49766400)
I0410 23:46:23.946434 32349 net.cpp:165] Memory required for data: 3298164736
I0410 23:46:23.946447 32349 layer_factory.hpp:77] Creating layer conv2_prescale
I0410 23:46:23.946462 32349 net.cpp:100] Creating Layer conv2_prescale
I0410 23:46:23.946467 32349 net.cpp:434] conv2_prescale <- conv2
I0410 23:46:23.946475 32349 net.cpp:395] conv2_prescale -> conv2 (in-place)
I0410 23:46:23.946601 32349 net.cpp:150] Setting up conv2_prescale
I0410 23:46:23.946612 32349 net.cpp:157] Top shape: 1024 150 18 18 (49766400)
I0410 23:46:23.946616 32349 net.cpp:165] Memory required for data: 3497230336
I0410 23:46:23.946621 32349 layer_factory.hpp:77] Creating layer conv2_sTanH
I0410 23:46:23.946629 32349 net.cpp:100] Creating Layer conv2_sTanH
I0410 23:46:23.946632 32349 net.cpp:434] conv2_sTanH <- conv2
I0410 23:46:23.946637 32349 net.cpp:395] conv2_sTanH -> conv2 (in-place)
I0410 23:46:23.947917 32349 net.cpp:150] Setting up conv2_sTanH
I0410 23:46:23.947937 32349 net.cpp:157] Top shape: 1024 150 18 18 (49766400)
I0410 23:46:23.947940 32349 net.cpp:165] Memory required for data: 3696295936
I0410 23:46:23.947944 32349 layer_factory.hpp:77] Creating layer conv2_postscale
I0410 23:46:23.947953 32349 net.cpp:100] Creating Layer conv2_postscale
I0410 23:46:23.947978 32349 net.cpp:434] conv2_postscale <- conv2
I0410 23:46:23.947986 32349 net.cpp:395] conv2_postscale -> conv2 (in-place)
I0410 23:46:23.948112 32349 net.cpp:150] Setting up conv2_postscale
I0410 23:46:23.948127 32349 net.cpp:157] Top shape: 1024 150 18 18 (49766400)
I0410 23:46:23.948130 32349 net.cpp:165] Memory required for data: 3895361536
I0410 23:46:23.948137 32349 layer_factory.hpp:77] Creating layer pool2
I0410 23:46:23.948143 32349 net.cpp:100] Creating Layer pool2
I0410 23:46:23.948148 32349 net.cpp:434] pool2 <- conv2
I0410 23:46:23.948153 32349 net.cpp:408] pool2 -> pool2
I0410 23:46:23.948205 32349 net.cpp:150] Setting up pool2
I0410 23:46:23.948215 32349 net.cpp:157] Top shape: 1024 150 9 9 (12441600)
I0410 23:46:23.948218 32349 net.cpp:165] Memory required for data: 3945127936
I0410 23:46:23.948221 32349 layer_factory.hpp:77] Creating layer conv3
I0410 23:46:23.948232 32349 net.cpp:100] Creating Layer conv3
I0410 23:46:23.948238 32349 net.cpp:434] conv3 <- pool2
I0410 23:46:23.948246 32349 net.cpp:408] conv3 -> conv3
I0410 23:46:23.955723 32349 net.cpp:150] Setting up conv3
I0410 23:46:23.955747 32349 net.cpp:157] Top shape: 1024 250 6 6 (9216000)
I0410 23:46:23.955751 32349 net.cpp:165] Memory required for data: 3981991936
I0410 23:46:23.955765 32349 layer_factory.hpp:77] Creating layer conv3_prescale
I0410 23:46:23.955782 32349 net.cpp:100] Creating Layer conv3_prescale
I0410 23:46:23.955787 32349 net.cpp:434] conv3_prescale <- conv3
I0410 23:46:23.955796 32349 net.cpp:395] conv3_prescale -> conv3 (in-place)
I0410 23:46:23.955935 32349 net.cpp:150] Setting up conv3_prescale
I0410 23:46:23.955946 32349 net.cpp:157] Top shape: 1024 250 6 6 (9216000)
I0410 23:46:23.955950 32349 net.cpp:165] Memory required for data: 4018855936
I0410 23:46:23.955956 32349 layer_factory.hpp:77] Creating layer conv3_sTanH
I0410 23:46:23.955963 32349 net.cpp:100] Creating Layer conv3_sTanH
I0410 23:46:23.955967 32349 net.cpp:434] conv3_sTanH <- conv3
I0410 23:46:23.955973 32349 net.cpp:395] conv3_sTanH -> conv3 (in-place)
I0410 23:46:23.958510 32349 net.cpp:150] Setting up conv3_sTanH
I0410 23:46:23.958528 32349 net.cpp:157] Top shape: 1024 250 6 6 (9216000)
I0410 23:46:23.958533 32349 net.cpp:165] Memory required for data: 4055719936
I0410 23:46:23.958537 32349 layer_factory.hpp:77] Creating layer conv3_postscale
I0410 23:46:23.958545 32349 net.cpp:100] Creating Layer conv3_postscale
I0410 23:46:23.958549 32349 net.cpp:434] conv3_postscale <- conv3
I0410 23:46:23.958556 32349 net.cpp:395] conv3_postscale -> conv3 (in-place)
I0410 23:46:23.958672 32349 net.cpp:150] Setting up conv3_postscale
I0410 23:46:23.958683 32349 net.cpp:157] Top shape: 1024 250 6 6 (9216000)
I0410 23:46:23.958685 32349 net.cpp:165] Memory required for data: 4092583936
I0410 23:46:23.958691 32349 layer_factory.hpp:77] Creating layer pool3
I0410 23:46:23.958703 32349 net.cpp:100] Creating Layer pool3
I0410 23:46:23.958705 32349 net.cpp:434] pool3 <- conv3
I0410 23:46:23.958712 32349 net.cpp:408] pool3 -> pool3
I0410 23:46:23.958758 32349 net.cpp:150] Setting up pool3
I0410 23:46:23.958767 32349 net.cpp:157] Top shape: 1024 250 3 3 (2304000)
I0410 23:46:23.958771 32349 net.cpp:165] Memory required for data: 4101799936
I0410 23:46:23.958775 32349 layer_factory.hpp:77] Creating layer fc4_300
I0410 23:46:23.958782 32349 net.cpp:100] Creating Layer fc4_300
I0410 23:46:23.958786 32349 net.cpp:434] fc4_300 <- pool3
I0410 23:46:23.958792 32349 net.cpp:408] fc4_300 -> fc4_300
I0410 23:46:23.966353 32349 net.cpp:150] Setting up fc4_300
I0410 23:46:23.966377 32349 net.cpp:157] Top shape: 1024 300 (307200)
I0410 23:46:23.966382 32349 net.cpp:165] Memory required for data: 4103028736
I0410 23:46:23.966401 32349 layer_factory.hpp:77] Creating layer fc4_prescale
I0410 23:46:23.966411 32349 net.cpp:100] Creating Layer fc4_prescale
I0410 23:46:23.966418 32349 net.cpp:434] fc4_prescale <- fc4_300
I0410 23:46:23.966424 32349 net.cpp:395] fc4_prescale -> fc4_300 (in-place)
I0410 23:46:23.966537 32349 net.cpp:150] Setting up fc4_prescale
I0410 23:46:23.966567 32349 net.cpp:157] Top shape: 1024 300 (307200)
I0410 23:46:23.966572 32349 net.cpp:165] Memory required for data: 4104257536
I0410 23:46:23.966578 32349 layer_factory.hpp:77] Creating layer fc4_sTanH
I0410 23:46:23.966583 32349 net.cpp:100] Creating Layer fc4_sTanH
I0410 23:46:23.966588 32349 net.cpp:434] fc4_sTanH <- fc4_300
I0410 23:46:23.966593 32349 net.cpp:395] fc4_sTanH -> fc4_300 (in-place)
I0410 23:46:23.966819 32349 net.cpp:150] Setting up fc4_sTanH
I0410 23:46:23.966835 32349 net.cpp:157] Top shape: 1024 300 (307200)
I0410 23:46:23.966838 32349 net.cpp:165] Memory required for data: 4105486336
I0410 23:46:23.966842 32349 layer_factory.hpp:77] Creating layer fc4_postscale
I0410 23:46:23.966850 32349 net.cpp:100] Creating Layer fc4_postscale
I0410 23:46:23.966856 32349 net.cpp:434] fc4_postscale <- fc4_300
I0410 23:46:23.966862 32349 net.cpp:395] fc4_postscale -> fc4_300 (in-place)
I0410 23:46:23.966977 32349 net.cpp:150] Setting up fc4_postscale
I0410 23:46:23.966996 32349 net.cpp:157] Top shape: 1024 300 (307200)
I0410 23:46:23.967000 32349 net.cpp:165] Memory required for data: 4106715136
I0410 23:46:23.967006 32349 layer_factory.hpp:77] Creating layer drop4
I0410 23:46:23.967015 32349 net.cpp:100] Creating Layer drop4
I0410 23:46:23.967017 32349 net.cpp:434] drop4 <- fc4_300
I0410 23:46:23.967023 32349 net.cpp:395] drop4 -> fc4_300 (in-place)
I0410 23:46:23.967068 32349 net.cpp:150] Setting up drop4
I0410 23:46:23.967077 32349 net.cpp:157] Top shape: 1024 300 (307200)
I0410 23:46:23.967079 32349 net.cpp:165] Memory required for data: 4107943936
I0410 23:46:23.967083 32349 layer_factory.hpp:77] Creating layer fc5_67
I0410 23:46:23.967090 32349 net.cpp:100] Creating Layer fc5_67
I0410 23:46:23.967094 32349 net.cpp:434] fc5_67 <- fc4_300
I0410 23:46:23.967100 32349 net.cpp:408] fc5_67 -> fc5_classes
I0410 23:46:23.967396 32349 net.cpp:150] Setting up fc5_67
I0410 23:46:23.967408 32349 net.cpp:157] Top shape: 1024 67 (68608)
I0410 23:46:23.967412 32349 net.cpp:165] Memory required for data: 4108218368
I0410 23:46:23.967423 32349 layer_factory.hpp:77] Creating layer fc5_classes_fc5_67_0_split
I0410 23:46:23.967433 32349 net.cpp:100] Creating Layer fc5_classes_fc5_67_0_split
I0410 23:46:23.967437 32349 net.cpp:434] fc5_classes_fc5_67_0_split <- fc5_classes
I0410 23:46:23.967443 32349 net.cpp:408] fc5_classes_fc5_67_0_split -> fc5_classes_fc5_67_0_split_0
I0410 23:46:23.967452 32349 net.cpp:408] fc5_classes_fc5_67_0_split -> fc5_classes_fc5_67_0_split_1
I0410 23:46:23.967459 32349 net.cpp:408] fc5_classes_fc5_67_0_split -> fc5_classes_fc5_67_0_split_2
I0410 23:46:23.967517 32349 net.cpp:150] Setting up fc5_classes_fc5_67_0_split
I0410 23:46:23.967525 32349 net.cpp:157] Top shape: 1024 67 (68608)
I0410 23:46:23.967530 32349 net.cpp:157] Top shape: 1024 67 (68608)
I0410 23:46:23.967535 32349 net.cpp:157] Top shape: 1024 67 (68608)
I0410 23:46:23.967537 32349 net.cpp:165] Memory required for data: 4109041664
I0410 23:46:23.967540 32349 layer_factory.hpp:77] Creating layer loss
I0410 23:46:23.967546 32349 net.cpp:100] Creating Layer loss
I0410 23:46:23.967550 32349 net.cpp:434] loss <- fc5_classes_fc5_67_0_split_0
I0410 23:46:23.967555 32349 net.cpp:434] loss <- label_data_1_split_0
I0410 23:46:23.967561 32349 net.cpp:408] loss -> loss
…
