…
I0411 00:41:44.445551 29011 net.cpp:322] The NetState phase (0) differed from the phase (1) specified by a rule in layer accuracy_5
I0411 00:41:44.445734 29011 net.cpp:58] Initializing net from parameters: 
state {
  phase: TRAIN
  level: 0
  stage: ""
}
layer {
  name: "data"
  type: "Data"
  top: "data"
  top: "label"
  include {
    phase: TRAIN
  }
  transform_param {
    mirror: false
    crop_size: 48
    mean_value: 132
    mean_value: 132
    mean_value: 131
  }
  data_param {
    source: "../local_data/lmdb/rtsd-r1/CoNorm/train/lmdb"
    batch_size: 1024
    backend: LMDB
  }
}
layer {
  name: "conv1"
  type: "Convolution"
  bottom: "data"
  top: "conv1"
  convolution_param {
    num_output: 100
    pad: 0
    kernel_size: 7
    group: 1
    stride: 1
    weight_filler {
      type: "xavier"
    }
  }
}
layer {
  name: "conv1_prescale"
  type: "Scale"
  bottom: "conv1"
  top: "conv1"
  param {
    lr_mult: 0
    decay_mult: 0
  }
  scale_param {
    filler {
      value: 0.6666
    }
    bias_term: false
  }
}
layer {
  name: "conv1_sTanH"
  type: "TanH"
  bottom: "conv1"
  top: "conv1"
}
layer {
  name: "conv1_postscale"
  type: "Scale"
  bottom: "conv1"
  top: "conv1"
  param {
    lr_mult: 0
    decay_mult: 0
  }
  scale_param {
    filler {
      value: 1.7159
    }
    bias_term: false
  }
}
layer {
  name: "pool1"
  type: "Pooling"
  bottom: "conv1"
  top: "pool1"
  pooling_param {
    pool: MAX
    kernel_size: 2
    stride: 2
  }
}
layer {
  name: "conv2"
  type: "Convolution"
  bottom: "pool1"
  top: "conv2"
  convolution_param {
    num_output: 150
    pad: 0
    kernel_size: 4
    group: 1
    stride: 1
    weight_filler {
      type: "xavier"
    }
  }
}
layer {
  name: "conv2_prescale"
  type: "Scale"
  bottom: "conv2"
  top: "conv2"
  param {
    lr_mult: 0
    decay_mult: 0
  }
  scale_param {
    filler {
      value: 0.6666
    }
    bias_term: false
  }
}
layer {
  name: "conv2_sTanH"
  type: "TanH"
  bottom: "conv2"
  top: "conv2"
}
layer {
  name: "conv2_postscale"
  type: "Scale"
  bottom: "conv2"
  top: "conv2"
  param {
    lr_mult: 0
    decay_mult: 0
  }
  scale_param {
    filler {
      value: 1.7159
    }
    bias_term: false
  }
}
layer {
  name: "pool2"
  type: "Pooling"
  bottom: "conv2"
  top: "pool2"
  pooling_param {
    pool: MAX
    kernel_size: 2
    stride: 2
  }
}
layer {
  name: "conv3"
  type: "Convolution"
  bottom: "pool2"
  top: "conv3"
  convolution_param {
    num_output: 250
    pad: 0
    kernel_size: 4
    group: 1
    stride: 1
    weight_filler {
      type: "xavier"
    }
  }
}
layer {
  name: "conv3_prescale"
  type: "Scale"
  bottom: "conv3"
  top: "conv3"
  param {
    lr_mult: 0
    decay_mult: 0
  }
  scale_param {
    filler {
      value: 0.6666
    }
    bias_term: false
  }
}
layer {
  name: "conv3_sTanH"
  type: "TanH"
  bottom: "conv3"
  top: "conv3"
}
layer {
  name: "conv3_postscale"
  type: "Scale"
  bottom: "conv3"
  top: "conv3"
  param {
    lr_mult: 0
    decay_mult: 0
  }
  scale_param {
    filler {
      value: 1.7159
    }
    bias_term: false
  }
}
layer {
  name: "pool3"
  type: "Pooling"
  bottom: "conv3"
  top: "pool3"
  pooling_param {
    pool: MAX
    kernel_size: 2
    stride: 2
  }
}
layer {
  name: "fc4_300"
  type: "InnerProduct"
  bottom: "pool3"
  top: "fc4_300"
  inner_product_param {
    num_output: 300
    weight_filler {
      type: "xavier"
    }
  }
}
layer {
  name: "fc4_prescale"
  type: "Scale"
  bottom: "fc4_300"
  top: "fc4_300"
  param {
    lr_mult: 0
    decay_mult: 0
  }
  scale_param {
    filler {
      value: 0.6666
    }
    bias_term: false
  }
}
layer {
  name: "fc4_sTanH"
  type: "TanH"
  bottom: "fc4_300"
  top: "fc4_300"
}
layer {
  name: "fc4_postscale"
  type: "Scale"
  bottom: "fc4_300"
  top: "fc4_300"
  param {
    lr_mult: 0
    decay_mult: 0
  }
  scale_param {
    filler {
      value: 1.7159
    }
    bias_term: false
  }
}
layer {
  name: "fc5_67"
  type: "InnerProduct"
  bottom: "fc4_300"
  top: "fc5_classes"
  inner_product_param {
    num_output: 67
    weight_filler {
      type: "xavier"
    }
  }
}
layer {
  name: "loss"
  type: "SoftmaxWithLoss"
  bottom: "fc5_classes"
  bottom: "label"
  top: "loss"
}
I0411 00:41:44.445899 29011 layer_factory.hpp:77] Creating layer data
I0411 00:41:44.447284 29011 net.cpp:100] Creating Layer data
I0411 00:41:44.447304 29011 net.cpp:408] data -> data
I0411 00:41:44.447340 29011 net.cpp:408] data -> label
I0411 00:41:44.449450 29121 db_lmdb.cpp:35] Opened lmdb ../local_data/lmdb/rtsd-r1/CoNorm/train/lmdb
I0411 00:41:44.469507 29011 data_layer.cpp:41] output data size: 1024,3,48,48
I0411 00:41:44.526829 29011 net.cpp:150] Setting up data
I0411 00:41:44.526867 29011 net.cpp:157] Top shape: 1024 3 48 48 (7077888)
I0411 00:41:44.526878 29011 net.cpp:157] Top shape: 1024 (1024)
I0411 00:41:44.526885 29011 net.cpp:165] Memory required for data: 28315648
I0411 00:41:44.526899 29011 layer_factory.hpp:77] Creating layer conv1
I0411 00:41:44.526934 29011 net.cpp:100] Creating Layer conv1
I0411 00:41:44.526947 29011 net.cpp:434] conv1 <- data
I0411 00:41:44.526968 29011 net.cpp:408] conv1 -> conv1
I0411 00:41:44.886801 29011 net.cpp:150] Setting up conv1
I0411 00:41:44.886844 29011 net.cpp:157] Top shape: 1024 100 42 42 (180633600)
I0411 00:41:44.886853 29011 net.cpp:165] Memory required for data: 750850048
I0411 00:41:44.886885 29011 layer_factory.hpp:77] Creating layer conv1_prescale
I0411 00:41:44.886910 29011 net.cpp:100] Creating Layer conv1_prescale
I0411 00:41:44.886919 29011 net.cpp:434] conv1_prescale <- conv1
I0411 00:41:44.886930 29011 net.cpp:395] conv1_prescale -> conv1 (in-place)
I0411 00:41:44.887070 29011 net.cpp:150] Setting up conv1_prescale
I0411 00:41:44.887084 29011 net.cpp:157] Top shape: 1024 100 42 42 (180633600)
I0411 00:41:44.887091 29011 net.cpp:165] Memory required for data: 1473384448
I0411 00:41:44.887104 29011 layer_factory.hpp:77] Creating layer conv1_sTanH
I0411 00:41:44.887117 29011 net.cpp:100] Creating Layer conv1_sTanH
I0411 00:41:44.887126 29011 net.cpp:434] conv1_sTanH <- conv1
I0411 00:41:44.887136 29011 net.cpp:395] conv1_sTanH -> conv1 (in-place)
I0411 00:41:44.887389 29011 net.cpp:150] Setting up conv1_sTanH
I0411 00:41:44.887408 29011 net.cpp:157] Top shape: 1024 100 42 42 (180633600)
I0411 00:41:44.887414 29011 net.cpp:165] Memory required for data: 2195918848
I0411 00:41:44.887421 29011 layer_factory.hpp:77] Creating layer conv1_postscale
I0411 00:41:44.887436 29011 net.cpp:100] Creating Layer conv1_postscale
I0411 00:41:44.887445 29011 net.cpp:434] conv1_postscale <- conv1
I0411 00:41:44.887455 29011 net.cpp:395] conv1_postscale -> conv1 (in-place)
I0411 00:41:44.887581 29011 net.cpp:150] Setting up conv1_postscale
I0411 00:41:44.887595 29011 net.cpp:157] Top shape: 1024 100 42 42 (180633600)
I0411 00:41:44.887601 29011 net.cpp:165] Memory required for data: 2918453248
I0411 00:41:44.887612 29011 layer_factory.hpp:77] Creating layer pool1
I0411 00:41:44.887626 29011 net.cpp:100] Creating Layer pool1
I0411 00:41:44.887635 29011 net.cpp:434] pool1 <- conv1
I0411 00:41:44.887645 29011 net.cpp:408] pool1 -> pool1
I0411 00:41:44.887717 29011 net.cpp:150] Setting up pool1
I0411 00:41:44.887732 29011 net.cpp:157] Top shape: 1024 100 21 21 (45158400)
I0411 00:41:44.887738 29011 net.cpp:165] Memory required for data: 3099086848
I0411 00:41:44.887766 29011 layer_factory.hpp:77] Creating layer conv2
I0411 00:41:44.887785 29011 net.cpp:100] Creating Layer conv2
I0411 00:41:44.887792 29011 net.cpp:434] conv2 <- pool1
I0411 00:41:44.887804 29011 net.cpp:408] conv2 -> conv2
I0411 00:41:44.893117 29011 net.cpp:150] Setting up conv2
I0411 00:41:44.893141 29011 net.cpp:157] Top shape: 1024 150 18 18 (49766400)
I0411 00:41:44.893148 29011 net.cpp:165] Memory required for data: 3298152448
I0411 00:41:44.893167 29011 layer_factory.hpp:77] Creating layer conv2_prescale
I0411 00:41:44.893187 29011 net.cpp:100] Creating Layer conv2_prescale
I0411 00:41:44.893195 29011 net.cpp:434] conv2_prescale <- conv2
I0411 00:41:44.893206 29011 net.cpp:395] conv2_prescale -> conv2 (in-place)
I0411 00:41:44.893352 29011 net.cpp:150] Setting up conv2_prescale
I0411 00:41:44.893366 29011 net.cpp:157] Top shape: 1024 150 18 18 (49766400)
I0411 00:41:44.893373 29011 net.cpp:165] Memory required for data: 3497218048
I0411 00:41:44.893383 29011 layer_factory.hpp:77] Creating layer conv2_sTanH
I0411 00:41:44.893402 29011 net.cpp:100] Creating Layer conv2_sTanH
I0411 00:41:44.893410 29011 net.cpp:434] conv2_sTanH <- conv2
I0411 00:41:44.893420 29011 net.cpp:395] conv2_sTanH -> conv2 (in-place)
I0411 00:41:44.894340 29011 net.cpp:150] Setting up conv2_sTanH
I0411 00:41:44.894362 29011 net.cpp:157] Top shape: 1024 150 18 18 (49766400)
I0411 00:41:44.894371 29011 net.cpp:165] Memory required for data: 3696283648
I0411 00:41:44.894377 29011 layer_factory.hpp:77] Creating layer conv2_postscale
I0411 00:41:44.894389 29011 net.cpp:100] Creating Layer conv2_postscale
I0411 00:41:44.894398 29011 net.cpp:434] conv2_postscale <- conv2
I0411 00:41:44.894413 29011 net.cpp:395] conv2_postscale -> conv2 (in-place)
I0411 00:41:44.894544 29011 net.cpp:150] Setting up conv2_postscale
I0411 00:41:44.894558 29011 net.cpp:157] Top shape: 1024 150 18 18 (49766400)
I0411 00:41:44.894564 29011 net.cpp:165] Memory required for data: 3895349248
I0411 00:41:44.894574 29011 layer_factory.hpp:77] Creating layer pool2
I0411 00:41:44.894592 29011 net.cpp:100] Creating Layer pool2
I0411 00:41:44.894600 29011 net.cpp:434] pool2 <- conv2
I0411 00:41:44.894610 29011 net.cpp:408] pool2 -> pool2
I0411 00:41:44.894676 29011 net.cpp:150] Setting up pool2
I0411 00:41:44.894690 29011 net.cpp:157] Top shape: 1024 150 9 9 (12441600)
I0411 00:41:44.894695 29011 net.cpp:165] Memory required for data: 3945115648
I0411 00:41:44.894702 29011 layer_factory.hpp:77] Creating layer conv3
I0411 00:41:44.894718 29011 net.cpp:100] Creating Layer conv3
I0411 00:41:44.894726 29011 net.cpp:434] conv3 <- pool2
I0411 00:41:44.894739 29011 net.cpp:408] conv3 -> conv3
I0411 00:41:44.901553 29011 net.cpp:150] Setting up conv3
I0411 00:41:44.901576 29011 net.cpp:157] Top shape: 1024 250 6 6 (9216000)
I0411 00:41:44.901583 29011 net.cpp:165] Memory required for data: 3981979648
I0411 00:41:44.901602 29011 layer_factory.hpp:77] Creating layer conv3_prescale
I0411 00:41:44.901623 29011 net.cpp:100] Creating Layer conv3_prescale
I0411 00:41:44.901633 29011 net.cpp:434] conv3_prescale <- conv3
I0411 00:41:44.901648 29011 net.cpp:395] conv3_prescale -> conv3 (in-place)
I0411 00:41:44.901777 29011 net.cpp:150] Setting up conv3_prescale
I0411 00:41:44.901792 29011 net.cpp:157] Top shape: 1024 250 6 6 (9216000)
I0411 00:41:44.901798 29011 net.cpp:165] Memory required for data: 4018843648
I0411 00:41:44.901808 29011 layer_factory.hpp:77] Creating layer conv3_sTanH
I0411 00:41:44.901818 29011 net.cpp:100] Creating Layer conv3_sTanH
I0411 00:41:44.901826 29011 net.cpp:434] conv3_sTanH <- conv3
I0411 00:41:44.901839 29011 net.cpp:395] conv3_sTanH -> conv3 (in-place)
I0411 00:41:44.902847 29011 net.cpp:150] Setting up conv3_sTanH
I0411 00:41:44.902868 29011 net.cpp:157] Top shape: 1024 250 6 6 (9216000)
I0411 00:41:44.902874 29011 net.cpp:165] Memory required for data: 4055707648
I0411 00:41:44.902882 29011 layer_factory.hpp:77] Creating layer conv3_postscale
I0411 00:41:44.902899 29011 net.cpp:100] Creating Layer conv3_postscale
I0411 00:41:44.902921 29011 net.cpp:434] conv3_postscale <- conv3
I0411 00:41:44.902935 29011 net.cpp:395] conv3_postscale -> conv3 (in-place)
I0411 00:41:44.903071 29011 net.cpp:150] Setting up conv3_postscale
I0411 00:41:44.903085 29011 net.cpp:157] Top shape: 1024 250 6 6 (9216000)
I0411 00:41:44.903091 29011 net.cpp:165] Memory required for data: 4092571648
I0411 00:41:44.903102 29011 layer_factory.hpp:77] Creating layer pool3
I0411 00:41:44.903121 29011 net.cpp:100] Creating Layer pool3
I0411 00:41:44.903131 29011 net.cpp:434] pool3 <- conv3
I0411 00:41:44.903141 29011 net.cpp:408] pool3 -> pool3
I0411 00:41:44.903205 29011 net.cpp:150] Setting up pool3
I0411 00:41:44.903218 29011 net.cpp:157] Top shape: 1024 250 3 3 (2304000)
I0411 00:41:44.903224 29011 net.cpp:165] Memory required for data: 4101787648
I0411 00:41:44.903231 29011 layer_factory.hpp:77] Creating layer fc4_300
I0411 00:41:44.903249 29011 net.cpp:100] Creating Layer fc4_300
I0411 00:41:44.903257 29011 net.cpp:434] fc4_300 <- pool3
I0411 00:41:44.903268 29011 net.cpp:408] fc4_300 -> fc4_300
I0411 00:41:44.910017 29011 net.cpp:150] Setting up fc4_300
I0411 00:41:44.910038 29011 net.cpp:157] Top shape: 1024 300 (307200)
I0411 00:41:44.910046 29011 net.cpp:165] Memory required for data: 4103016448
I0411 00:41:44.910059 29011 layer_factory.hpp:77] Creating layer fc4_prescale
I0411 00:41:44.910074 29011 net.cpp:100] Creating Layer fc4_prescale
I0411 00:41:44.910084 29011 net.cpp:434] fc4_prescale <- fc4_300
I0411 00:41:44.910099 29011 net.cpp:395] fc4_prescale -> fc4_300 (in-place)
I0411 00:41:44.910220 29011 net.cpp:150] Setting up fc4_prescale
I0411 00:41:44.910233 29011 net.cpp:157] Top shape: 1024 300 (307200)
I0411 00:41:44.910239 29011 net.cpp:165] Memory required for data: 4104245248
I0411 00:41:44.910249 29011 layer_factory.hpp:77] Creating layer fc4_sTanH
I0411 00:41:44.910259 29011 net.cpp:100] Creating Layer fc4_sTanH
I0411 00:41:44.910267 29011 net.cpp:434] fc4_sTanH <- fc4_300
I0411 00:41:44.910280 29011 net.cpp:395] fc4_sTanH -> fc4_300 (in-place)
I0411 00:41:44.910519 29011 net.cpp:150] Setting up fc4_sTanH
I0411 00:41:44.910536 29011 net.cpp:157] Top shape: 1024 300 (307200)
I0411 00:41:44.910542 29011 net.cpp:165] Memory required for data: 4105474048
I0411 00:41:44.910549 29011 layer_factory.hpp:77] Creating layer fc4_postscale
I0411 00:41:44.910567 29011 net.cpp:100] Creating Layer fc4_postscale
I0411 00:41:44.910575 29011 net.cpp:434] fc4_postscale <- fc4_300
I0411 00:41:44.910585 29011 net.cpp:395] fc4_postscale -> fc4_300 (in-place)
I0411 00:41:44.910717 29011 net.cpp:150] Setting up fc4_postscale
I0411 00:41:44.910730 29011 net.cpp:157] Top shape: 1024 300 (307200)
I0411 00:41:44.910737 29011 net.cpp:165] Memory required for data: 4106702848
I0411 00:41:44.910747 29011 layer_factory.hpp:77] Creating layer fc5_67
I0411 00:41:44.910758 29011 net.cpp:100] Creating Layer fc5_67
I0411 00:41:44.910765 29011 net.cpp:434] fc5_67 <- fc4_300
I0411 00:41:44.910782 29011 net.cpp:408] fc5_67 -> fc5_classes
I0411 00:41:44.912415 29011 net.cpp:150] Setting up fc5_67
I0411 00:41:44.912436 29011 net.cpp:157] Top shape: 1024 67 (68608)
I0411 00:41:44.912441 29011 net.cpp:165] Memory required for data: 4106977280
I0411 00:41:44.912461 29011 layer_factory.hpp:77] Creating layer loss
I0411 00:41:44.912478 29011 net.cpp:100] Creating Layer loss
I0411 00:41:44.912488 29011 net.cpp:434] loss <- fc5_classes
I0411 00:41:44.912497 29011 net.cpp:434] loss <- label
I0411 00:41:44.912511 29011 net.cpp:408] loss -> loss
I0411 00:41:44.912534 29011 layer_factory.hpp:77] Creating layer loss
…
I0411 00:41:44.913522 29011 solver.cpp:193] Creating test net (#0) specified by test_net file: ./Prototxt/experiment_8/rtsd-r1/CoNorm/trial_1/test.prototxt
I0411 00:41:44.913745 29011 net.cpp:58] Initializing net from parameters: 
state {
  phase: TEST
}
layer {
  name: "data"
  type: "Data"
  top: "data"
  top: "label"
  include {
    phase: TEST
  }
  transform_param {
    mirror: false
    crop_size: 48
    mean_value: 133
    mean_value: 133
    mean_value: 132
  }
  data_param {
    source: "../local_data/lmdb/rtsd-r1/CoNorm/test/lmdb"
    batch_size: 1024
    backend: LMDB
  }
}
layer {
  name: "conv1"
  type: "Convolution"
  bottom: "data"
  top: "conv1"
  convolution_param {
    num_output: 100
    pad: 0
    kernel_size: 7
    group: 1
    stride: 1
    weight_filler {
      type: "xavier"
    }
  }
}
layer {
  name: "conv1_prescale"
  type: "Scale"
  bottom: "conv1"
  top: "conv1"
  param {
    lr_mult: 0
    decay_mult: 0
  }
  scale_param {
    filler {
      value: 0.6666
    }
    bias_term: false
  }
}
layer {
  name: "conv1_sTanH"
  type: "TanH"
  bottom: "conv1"
  top: "conv1"
}
layer {
  name: "conv1_postscale"
  type: "Scale"
  bottom: "conv1"
  top: "conv1"
  param {
    lr_mult: 0
    decay_mult: 0
  }
  scale_param {
    filler {
      value: 1.7159
    }
    bias_term: false
  }
}
layer {
  name: "pool1"
  type: "Pooling"
  bottom: "conv1"
  top: "pool1"
  pooling_param {
    pool: MAX
    kernel_size: 2
    stride: 2
  }
}
layer {
  name: "conv2"
  type: "Convolution"
  bottom: "pool1"
  top: "conv2"
  convolution_param {
    num_output: 150
    pad: 0
    kernel_size: 4
    group: 1
    stride: 1
    weight_filler {
      type: "xavier"
    }
  }
}
layer {
  name: "conv2_prescale"
  type: "Scale"
  bottom: "conv2"
  top: "conv2"
  param {
    lr_mult: 0
    decay_mult: 0
  }
  scale_param {
    filler {
      value: 0.6666
    }
    bias_term: false
  }
}
layer {
  name: "conv2_sTanH"
  type: "TanH"
  bottom: "conv2"
  top: "conv2"
}
layer {
  name: "conv2_postscale"
  type: "Scale"
  bottom: "conv2"
  top: "conv2"
  param {
    lr_mult: 0
    decay_mult: 0
  }
  scale_param {
    filler {
      value: 1.7159
    }
    bias_term: false
  }
}
layer {
  name: "pool2"
  type: "Pooling"
  bottom: "conv2"
  top: "pool2"
  pooling_param {
    pool: MAX
    kernel_size: 2
    stride: 2
  }
}
layer {
  name: "conv3"
  type: "Convolution"
  bottom: "pool2"
  top: "conv3"
  convolution_param {
    num_output: 250
    pad: 0
    kernel_size: 4
    group: 1
    stride: 1
    weight_filler {
      type: "xavier"
    }
  }
}
layer {
  name: "conv3_prescale"
  type: "Scale"
  bottom: "conv3"
  top: "conv3"
  param {
    lr_mult: 0
    decay_mult: 0
  }
  scale_param {
    filler {
      value: 0.6666
    }
    bias_term: false
  }
}
layer {
  name: "conv3_sTanH"
  type: "TanH"
  bottom: "conv3"
  top: "conv3"
}
layer {
  name: "conv3_postscale"
  type: "Scale"
  bottom: "conv3"
  top: "conv3"
  param {
    lr_mult: 0
    decay_mult: 0
  }
  scale_param {
    filler {
      value: 1.7159
    }
    bias_term: false
  }
}
layer {
  name: "pool3"
  type: "Pooling"
  bottom: "conv3"
  top: "pool3"
  pooling_param {
    pool: MAX
    kernel_size: 2
    stride: 2
  }
}
layer {
  name: "fc4_300"
  type: "InnerProduct"
  bottom: "pool3"
  top: "fc4_300"
  inner_product_param {
    num_output: 300
    weight_filler {
      type: "xavier"
    }
  }
}
layer {
  name: "fc4_prescale"
  type: "Scale"
  bottom: "fc4_300"
  top: "fc4_300"
  param {
    lr_mult: 0
    decay_mult: 0
  }
  scale_param {
    filler {
      value: 0.6666
    }
    bias_term: false
  }
}
layer {
  name: "fc4_sTanH"
  type: "TanH"
  bottom: "fc4_300"
  top: "fc4_300"
}
layer {
  name: "fc4_postscale"
  type: "Scale"
  bottom: "fc4_300"
  top: "fc4_300"
  param {
    lr_mult: 0
    decay_mult: 0
  }
  scale_param {
    filler {
      value: 1.7159
    }
    bias_term: false
  }
}
layer {
  name: "fc5_67"
  type: "InnerProduct"
  bottom: "fc4_300"
  top: "fc5_classes"
  inner_product_param {
    num_output: 67
    weight_filler {
      type: "xavier"
    }
  }
}
layer {
  name: "loss"
  type: "SoftmaxWithLoss"
  bottom: "fc5_classes"
  bottom: "label"
  top: "loss"
}
layer {
  name: "accuracy_1"
  type: "Accuracy"
  bottom: "fc5_classes"
  bottom: "label"
  top: "accuracy_1"
  include {
    phase: TEST
  }
  accuracy_param {
    top_k: 1
  }
}
layer {
  name: "accuracy_5"
  type: "Accuracy"
  bottom: "fc5_classes"
  bottom: "label"
  top: "accuracy_5"
  include {
    phase: TEST
  }
  accuracy_param {
    top_k: 5
  }
}
I0411 00:41:44.913950 29011 layer_factory.hpp:77] Creating layer data
I0411 00:41:44.914892 29011 net.cpp:100] Creating Layer data
I0411 00:41:44.914922 29011 net.cpp:408] data -> data
I0411 00:41:44.914943 29011 net.cpp:408] data -> label
I0411 00:41:44.918792 29173 db_lmdb.cpp:35] Opened lmdb ../local_data/lmdb/rtsd-r1/CoNorm/test/lmdb
I0411 00:41:44.918967 29011 data_layer.cpp:41] output data size: 1024,3,48,48
I0411 00:41:44.977202 29011 net.cpp:150] Setting up data
I0411 00:41:44.977236 29011 net.cpp:157] Top shape: 1024 3 48 48 (7077888)
I0411 00:41:44.977246 29011 net.cpp:157] Top shape: 1024 (1024)
I0411 00:41:44.977252 29011 net.cpp:165] Memory required for data: 28315648
I0411 00:41:44.977262 29011 layer_factory.hpp:77] Creating layer label_data_1_split
I0411 00:41:44.977283 29011 net.cpp:100] Creating Layer label_data_1_split
I0411 00:41:44.977293 29011 net.cpp:434] label_data_1_split <- label
I0411 00:41:44.977315 29011 net.cpp:408] label_data_1_split -> label_data_1_split_0
I0411 00:41:44.977337 29011 net.cpp:408] label_data_1_split -> label_data_1_split_1
I0411 00:41:44.977352 29011 net.cpp:408] label_data_1_split -> label_data_1_split_2
I0411 00:41:44.977500 29011 net.cpp:150] Setting up label_data_1_split
I0411 00:41:44.977514 29011 net.cpp:157] Top shape: 1024 (1024)
I0411 00:41:44.977522 29011 net.cpp:157] Top shape: 1024 (1024)
I0411 00:41:44.977530 29011 net.cpp:157] Top shape: 1024 (1024)
I0411 00:41:44.977536 29011 net.cpp:165] Memory required for data: 28327936
I0411 00:41:44.977542 29011 layer_factory.hpp:77] Creating layer conv1
I0411 00:41:44.977567 29011 net.cpp:100] Creating Layer conv1
I0411 00:41:44.977574 29011 net.cpp:434] conv1 <- data
I0411 00:41:44.977586 29011 net.cpp:408] conv1 -> conv1
I0411 00:41:44.983212 29011 net.cpp:150] Setting up conv1
I0411 00:41:44.983235 29011 net.cpp:157] Top shape: 1024 100 42 42 (180633600)
I0411 00:41:44.983243 29011 net.cpp:165] Memory required for data: 750862336
I0411 00:41:44.983289 29011 layer_factory.hpp:77] Creating layer conv1_prescale
I0411 00:41:44.983310 29011 net.cpp:100] Creating Layer conv1_prescale
I0411 00:41:44.983319 29011 net.cpp:434] conv1_prescale <- conv1
I0411 00:41:44.983330 29011 net.cpp:395] conv1_prescale -> conv1 (in-place)
I0411 00:41:44.983479 29011 net.cpp:150] Setting up conv1_prescale
I0411 00:41:44.983492 29011 net.cpp:157] Top shape: 1024 100 42 42 (180633600)
I0411 00:41:44.983500 29011 net.cpp:165] Memory required for data: 1473396736
I0411 00:41:44.983515 29011 layer_factory.hpp:77] Creating layer conv1_sTanH
I0411 00:41:44.983530 29011 net.cpp:100] Creating Layer conv1_sTanH
I0411 00:41:44.983539 29011 net.cpp:434] conv1_sTanH <- conv1
I0411 00:41:44.983549 29011 net.cpp:395] conv1_sTanH -> conv1 (in-place)
I0411 00:41:44.983794 29011 net.cpp:150] Setting up conv1_sTanH
I0411 00:41:44.983811 29011 net.cpp:157] Top shape: 1024 100 42 42 (180633600)
I0411 00:41:44.983819 29011 net.cpp:165] Memory required for data: 2195931136
I0411 00:41:44.983825 29011 layer_factory.hpp:77] Creating layer conv1_postscale
I0411 00:41:44.983840 29011 net.cpp:100] Creating Layer conv1_postscale
I0411 00:41:44.983853 29011 net.cpp:434] conv1_postscale <- conv1
I0411 00:41:44.983867 29011 net.cpp:395] conv1_postscale -> conv1 (in-place)
I0411 00:41:44.984032 29011 net.cpp:150] Setting up conv1_postscale
I0411 00:41:44.984048 29011 net.cpp:157] Top shape: 1024 100 42 42 (180633600)
I0411 00:41:44.984055 29011 net.cpp:165] Memory required for data: 2918465536
I0411 00:41:44.984066 29011 layer_factory.hpp:77] Creating layer pool1
I0411 00:41:44.984083 29011 net.cpp:100] Creating Layer pool1
I0411 00:41:44.984091 29011 net.cpp:434] pool1 <- conv1
I0411 00:41:44.984102 29011 net.cpp:408] pool1 -> pool1
I0411 00:41:44.984226 29011 net.cpp:150] Setting up pool1
I0411 00:41:44.984241 29011 net.cpp:157] Top shape: 1024 100 21 21 (45158400)
I0411 00:41:44.984247 29011 net.cpp:165] Memory required for data: 3099099136
I0411 00:41:44.984254 29011 layer_factory.hpp:77] Creating layer conv2
I0411 00:41:44.984274 29011 net.cpp:100] Creating Layer conv2
I0411 00:41:44.984287 29011 net.cpp:434] conv2 <- pool1
I0411 00:41:44.984299 29011 net.cpp:408] conv2 -> conv2
I0411 00:41:44.992691 29011 net.cpp:150] Setting up conv2
I0411 00:41:44.992719 29011 net.cpp:157] Top shape: 1024 150 18 18 (49766400)
I0411 00:41:44.992727 29011 net.cpp:165] Memory required for data: 3298164736
I0411 00:41:44.992746 29011 layer_factory.hpp:77] Creating layer conv2_prescale
I0411 00:41:44.992769 29011 net.cpp:100] Creating Layer conv2_prescale
I0411 00:41:44.992779 29011 net.cpp:434] conv2_prescale <- conv2
I0411 00:41:44.992790 29011 net.cpp:395] conv2_prescale -> conv2 (in-place)
I0411 00:41:44.992938 29011 net.cpp:150] Setting up conv2_prescale
I0411 00:41:44.992952 29011 net.cpp:157] Top shape: 1024 150 18 18 (49766400)
I0411 00:41:44.992959 29011 net.cpp:165] Memory required for data: 3497230336
I0411 00:41:44.992969 29011 layer_factory.hpp:77] Creating layer conv2_sTanH
I0411 00:41:44.992980 29011 net.cpp:100] Creating Layer conv2_sTanH
I0411 00:41:44.992987 29011 net.cpp:434] conv2_sTanH <- conv2
I0411 00:41:44.993000 29011 net.cpp:395] conv2_sTanH -> conv2 (in-place)
I0411 00:41:44.994184 29011 net.cpp:150] Setting up conv2_sTanH
I0411 00:41:44.994205 29011 net.cpp:157] Top shape: 1024 150 18 18 (49766400)
I0411 00:41:44.994212 29011 net.cpp:165] Memory required for data: 3696295936
I0411 00:41:44.994221 29011 layer_factory.hpp:77] Creating layer conv2_postscale
I0411 00:41:44.994237 29011 net.cpp:100] Creating Layer conv2_postscale
I0411 00:41:44.994246 29011 net.cpp:434] conv2_postscale <- conv2
I0411 00:41:44.994256 29011 net.cpp:395] conv2_postscale -> conv2 (in-place)
I0411 00:41:44.994398 29011 net.cpp:150] Setting up conv2_postscale
I0411 00:41:44.994412 29011 net.cpp:157] Top shape: 1024 150 18 18 (49766400)
I0411 00:41:44.994418 29011 net.cpp:165] Memory required for data: 3895361536
I0411 00:41:44.994429 29011 layer_factory.hpp:77] Creating layer pool2
I0411 00:41:44.994463 29011 net.cpp:100] Creating Layer pool2
I0411 00:41:44.994473 29011 net.cpp:434] pool2 <- conv2
I0411 00:41:44.994484 29011 net.cpp:408] pool2 -> pool2
I0411 00:41:44.994555 29011 net.cpp:150] Setting up pool2
I0411 00:41:44.994570 29011 net.cpp:157] Top shape: 1024 150 9 9 (12441600)
I0411 00:41:44.994576 29011 net.cpp:165] Memory required for data: 3945127936
I0411 00:41:44.994583 29011 layer_factory.hpp:77] Creating layer conv3
I0411 00:41:44.994601 29011 net.cpp:100] Creating Layer conv3
I0411 00:41:44.994608 29011 net.cpp:434] conv3 <- pool2
I0411 00:41:44.994621 29011 net.cpp:408] conv3 -> conv3
I0411 00:41:45.002703 29011 net.cpp:150] Setting up conv3
I0411 00:41:45.002727 29011 net.cpp:157] Top shape: 1024 250 6 6 (9216000)
I0411 00:41:45.002738 29011 net.cpp:165] Memory required for data: 3981991936
I0411 00:41:45.002761 29011 layer_factory.hpp:77] Creating layer conv3_prescale
I0411 00:41:45.002776 29011 net.cpp:100] Creating Layer conv3_prescale
I0411 00:41:45.002787 29011 net.cpp:434] conv3_prescale <- conv3
I0411 00:41:45.002804 29011 net.cpp:395] conv3_prescale -> conv3 (in-place)
I0411 00:41:45.002939 29011 net.cpp:150] Setting up conv3_prescale
I0411 00:41:45.002959 29011 net.cpp:157] Top shape: 1024 250 6 6 (9216000)
I0411 00:41:45.002969 29011 net.cpp:165] Memory required for data: 4018855936
I0411 00:41:45.002979 29011 layer_factory.hpp:77] Creating layer conv3_sTanH
I0411 00:41:45.002991 29011 net.cpp:100] Creating Layer conv3_sTanH
I0411 00:41:45.003000 29011 net.cpp:434] conv3_sTanH <- conv3
I0411 00:41:45.003010 29011 net.cpp:395] conv3_sTanH -> conv3 (in-place)
I0411 00:41:45.004634 29011 net.cpp:150] Setting up conv3_sTanH
I0411 00:41:45.004660 29011 net.cpp:157] Top shape: 1024 250 6 6 (9216000)
I0411 00:41:45.004668 29011 net.cpp:165] Memory required for data: 4055719936
I0411 00:41:45.004676 29011 layer_factory.hpp:77] Creating layer conv3_postscale
I0411 00:41:45.004688 29011 net.cpp:100] Creating Layer conv3_postscale
I0411 00:41:45.004698 29011 net.cpp:434] conv3_postscale <- conv3
I0411 00:41:45.004717 29011 net.cpp:395] conv3_postscale -> conv3 (in-place)
I0411 00:41:45.004855 29011 net.cpp:150] Setting up conv3_postscale
I0411 00:41:45.004869 29011 net.cpp:157] Top shape: 1024 250 6 6 (9216000)
I0411 00:41:45.004875 29011 net.cpp:165] Memory required for data: 4092583936
I0411 00:41:45.004889 29011 layer_factory.hpp:77] Creating layer pool3
I0411 00:41:45.004911 29011 net.cpp:100] Creating Layer pool3
I0411 00:41:45.004918 29011 net.cpp:434] pool3 <- conv3
I0411 00:41:45.004930 29011 net.cpp:408] pool3 -> pool3
I0411 00:41:45.004995 29011 net.cpp:150] Setting up pool3
I0411 00:41:45.005012 29011 net.cpp:157] Top shape: 1024 250 3 3 (2304000)
I0411 00:41:45.005020 29011 net.cpp:165] Memory required for data: 4101799936
I0411 00:41:45.005028 29011 layer_factory.hpp:77] Creating layer fc4_300
I0411 00:41:45.005040 29011 net.cpp:100] Creating Layer fc4_300
I0411 00:41:45.005048 29011 net.cpp:434] fc4_300 <- pool3
I0411 00:41:45.005059 29011 net.cpp:408] fc4_300 -> fc4_300
I0411 00:41:45.011989 29011 net.cpp:150] Setting up fc4_300
I0411 00:41:45.012011 29011 net.cpp:157] Top shape: 1024 300 (307200)
I0411 00:41:45.012017 29011 net.cpp:165] Memory required for data: 4103028736
I0411 00:41:45.012035 29011 layer_factory.hpp:77] Creating layer fc4_prescale
I0411 00:41:45.012053 29011 net.cpp:100] Creating Layer fc4_prescale
I0411 00:41:45.012063 29011 net.cpp:434] fc4_prescale <- fc4_300
I0411 00:41:45.012074 29011 net.cpp:395] fc4_prescale -> fc4_300 (in-place)
I0411 00:41:45.012207 29011 net.cpp:150] Setting up fc4_prescale
I0411 00:41:45.012220 29011 net.cpp:157] Top shape: 1024 300 (307200)
I0411 00:41:45.012226 29011 net.cpp:165] Memory required for data: 4104257536
I0411 00:41:45.012240 29011 layer_factory.hpp:77] Creating layer fc4_sTanH
I0411 00:41:45.012253 29011 net.cpp:100] Creating Layer fc4_sTanH
I0411 00:41:45.012261 29011 net.cpp:434] fc4_sTanH <- fc4_300
I0411 00:41:45.012271 29011 net.cpp:395] fc4_sTanH -> fc4_300 (in-place)
I0411 00:41:45.012527 29011 net.cpp:150] Setting up fc4_sTanH
I0411 00:41:45.012558 29011 net.cpp:157] Top shape: 1024 300 (307200)
I0411 00:41:45.012573 29011 net.cpp:165] Memory required for data: 4105486336
I0411 00:41:45.012580 29011 layer_factory.hpp:77] Creating layer fc4_postscale
I0411 00:41:45.012595 29011 net.cpp:100] Creating Layer fc4_postscale
I0411 00:41:45.012605 29011 net.cpp:434] fc4_postscale <- fc4_300
I0411 00:41:45.012616 29011 net.cpp:395] fc4_postscale -> fc4_300 (in-place)
I0411 00:41:45.012761 29011 net.cpp:150] Setting up fc4_postscale
I0411 00:41:45.012774 29011 net.cpp:157] Top shape: 1024 300 (307200)
I0411 00:41:45.012781 29011 net.cpp:165] Memory required for data: 4106715136
I0411 00:41:45.012791 29011 layer_factory.hpp:77] Creating layer fc5_67
I0411 00:41:45.012806 29011 net.cpp:100] Creating Layer fc5_67
I0411 00:41:45.012814 29011 net.cpp:434] fc5_67 <- fc4_300
I0411 00:41:45.012825 29011 net.cpp:408] fc5_67 -> fc5_classes
I0411 00:41:45.013145 29011 net.cpp:150] Setting up fc5_67
I0411 00:41:45.013159 29011 net.cpp:157] Top shape: 1024 67 (68608)
I0411 00:41:45.013165 29011 net.cpp:165] Memory required for data: 4106989568
I0411 00:41:45.013185 29011 layer_factory.hpp:77] Creating layer fc5_classes_fc5_67_0_split
I0411 00:41:45.013201 29011 net.cpp:100] Creating Layer fc5_classes_fc5_67_0_split
I0411 00:41:45.013211 29011 net.cpp:434] fc5_classes_fc5_67_0_split <- fc5_classes
I0411 00:41:45.013221 29011 net.cpp:408] fc5_classes_fc5_67_0_split -> fc5_classes_fc5_67_0_split_0
I0411 00:41:45.013237 29011 net.cpp:408] fc5_classes_fc5_67_0_split -> fc5_classes_fc5_67_0_split_1
I0411 00:41:45.013252 29011 net.cpp:408] fc5_classes_fc5_67_0_split -> fc5_classes_fc5_67_0_split_2
I0411 00:41:45.013329 29011 net.cpp:150] Setting up fc5_classes_fc5_67_0_split
I0411 00:41:45.013344 29011 net.cpp:157] Top shape: 1024 67 (68608)
I0411 00:41:45.013351 29011 net.cpp:157] Top shape: 1024 67 (68608)
I0411 00:41:45.013358 29011 net.cpp:157] Top shape: 1024 67 (68608)
I0411 00:41:45.013365 29011 net.cpp:165] Memory required for data: 4107812864
I0411 00:41:45.013371 29011 layer_factory.hpp:77] Creating layer loss
I0411 00:41:45.013387 29011 net.cpp:100] Creating Layer loss
I0411 00:41:45.013396 29011 net.cpp:434] loss <- fc5_classes_fc5_67_0_split_0
I0411 00:41:45.013406 29011 net.cpp:434] loss <- label_data_1_split_0
I0411 00:41:45.013420 29011 net.cpp:408] loss -> loss
…
