…
I0411 00:43:12.521781  5184 net.cpp:322] The NetState phase (0) differed from the phase (1) specified by a rule in layer accuracy_5
I0411 00:43:12.521953  5184 net.cpp:58] Initializing net from parameters: 
state {
  phase: TRAIN
  level: 0
  stage: ""
}
layer {
  name: "data"
  type: "Data"
  top: "data"
  top: "label"
  include {
    phase: TRAIN
  }
  transform_param {
    mirror: false
    crop_size: 48
    mean_value: 132
    mean_value: 132
    mean_value: 131
  }
  data_param {
    source: "../local_data/lmdb/rtsd-r1/CoNorm/train/lmdb"
    batch_size: 1024
    backend: LMDB
  }
}
layer {
  name: "conv1"
  type: "Convolution"
  bottom: "data"
  top: "conv1"
  convolution_param {
    num_output: 100
    pad: 0
    kernel_size: 7
    group: 1
    stride: 1
    weight_filler {
      type: "xavier"
    }
  }
}
layer {
  name: "conv1_prescale"
  type: "Scale"
  bottom: "conv1"
  top: "conv1"
  param {
    lr_mult: 0
    decay_mult: 0
  }
  scale_param {
    filler {
      value: 0.6666
    }
    bias_term: false
  }
}
layer {
  name: "conv1_sTanH"
  type: "TanH"
  bottom: "conv1"
  top: "conv1"
}
layer {
  name: "conv1_postscale"
  type: "Scale"
  bottom: "conv1"
  top: "conv1"
  param {
    lr_mult: 0
    decay_mult: 0
  }
  scale_param {
    filler {
      value: 1.7159
    }
    bias_term: false
  }
}
layer {
  name: "pool1"
  type: "Pooling"
  bottom: "conv1"
  top: "pool1"
  pooling_param {
    pool: MAX
    kernel_size: 2
    stride: 2
  }
}
layer {
  name: "conv2"
  type: "Convolution"
  bottom: "pool1"
  top: "conv2"
  convolution_param {
    num_output: 150
    pad: 0
    kernel_size: 4
    group: 1
    stride: 1
    weight_filler {
      type: "xavier"
    }
  }
}
layer {
  name: "conv2_prescale"
  type: "Scale"
  bottom: "conv2"
  top: "conv2"
  param {
    lr_mult: 0
    decay_mult: 0
  }
  scale_param {
    filler {
      value: 0.6666
    }
    bias_term: false
  }
}
layer {
  name: "conv2_sTanH"
  type: "TanH"
  bottom: "conv2"
  top: "conv2"
}
layer {
  name: "conv2_postscale"
  type: "Scale"
  bottom: "conv2"
  top: "conv2"
  param {
    lr_mult: 0
    decay_mult: 0
  }
  scale_param {
    filler {
      value: 1.7159
    }
    bias_term: false
  }
}
layer {
  name: "pool2"
  type: "Pooling"
  bottom: "conv2"
  top: "pool2"
  pooling_param {
    pool: MAX
    kernel_size: 2
    stride: 2
  }
}
layer {
  name: "conv3"
  type: "Convolution"
  bottom: "pool2"
  top: "conv3"
  convolution_param {
    num_output: 250
    pad: 0
    kernel_size: 4
    group: 1
    stride: 1
    weight_filler {
      type: "xavier"
    }
  }
}
layer {
  name: "conv3_prescale"
  type: "Scale"
  bottom: "conv3"
  top: "conv3"
  param {
    lr_mult: 0
    decay_mult: 0
  }
  scale_param {
    filler {
      value: 0.6666
    }
    bias_term: false
  }
}
layer {
  name: "conv3_sTanH"
  type: "TanH"
  bottom: "conv3"
  top: "conv3"
}
layer {
  name: "conv3_postscale"
  type: "Scale"
  bottom: "conv3"
  top: "conv3"
  param {
    lr_mult: 0
    decay_mult: 0
  }
  scale_param {
    filler {
      value: 1.7159
    }
    bias_term: false
  }
}
layer {
  name: "pool3"
  type: "Pooling"
  bottom: "conv3"
  top: "pool3"
  pooling_param {
    pool: MAX
    kernel_size: 2
    stride: 2
  }
}
layer {
  name: "fc4_300"
  type: "InnerProduct"
  bottom: "pool3"
  top: "fc4_300"
  inner_product_param {
    num_output: 300
    weight_filler {
      type: "xavier"
    }
  }
}
layer {
  name: "fc4_prescale"
  type: "Scale"
  bottom: "fc4_300"
  top: "fc4_300"
  param {
    lr_mult: 0
    decay_mult: 0
  }
  scale_param {
    filler {
      value: 0.6666
    }
    bias_term: false
  }
}
layer {
  name: "fc4_sTanH"
  type: "TanH"
  bottom: "fc4_300"
  top: "fc4_300"
}
layer {
  name: "fc4_postscale"
  type: "Scale"
  bottom: "fc4_300"
  top: "fc4_300"
  param {
    lr_mult: 0
    decay_mult: 0
  }
  scale_param {
    filler {
      value: 1.7159
    }
    bias_term: false
  }
}
layer {
  name: "fc5_67"
  type: "InnerProduct"
  bottom: "fc4_300"
  top: "fc5_classes"
  inner_product_param {
    num_output: 67
    weight_filler {
      type: "xavier"
    }
  }
}
layer {
  name: "loss"
  type: "SoftmaxWithLoss"
  bottom: "fc5_classes"
  bottom: "label"
  top: "loss"
}
I0411 00:43:12.522084  5184 layer_factory.hpp:77] Creating layer data
I0411 00:43:12.523368  5184 net.cpp:100] Creating Layer data
I0411 00:43:12.523386  5184 net.cpp:408] data -> data
I0411 00:43:12.523416  5184 net.cpp:408] data -> label
I0411 00:43:12.524821  5279 db_lmdb.cpp:35] Opened lmdb ../local_data/lmdb/rtsd-r1/CoNorm/train/lmdb
I0411 00:43:12.545533  5184 data_layer.cpp:41] output data size: 1024,3,48,48
I0411 00:43:12.597865  5184 net.cpp:150] Setting up data
I0411 00:43:12.597903  5184 net.cpp:157] Top shape: 1024 3 48 48 (7077888)
I0411 00:43:12.597908  5184 net.cpp:157] Top shape: 1024 (1024)
I0411 00:43:12.597913  5184 net.cpp:165] Memory required for data: 28315648
I0411 00:43:12.597924  5184 layer_factory.hpp:77] Creating layer conv1
I0411 00:43:12.597951  5184 net.cpp:100] Creating Layer conv1
I0411 00:43:12.597961  5184 net.cpp:434] conv1 <- data
I0411 00:43:12.597978  5184 net.cpp:408] conv1 -> conv1
I0411 00:43:12.910725  5184 net.cpp:150] Setting up conv1
I0411 00:43:12.910755  5184 net.cpp:157] Top shape: 1024 100 42 42 (180633600)
I0411 00:43:12.910759  5184 net.cpp:165] Memory required for data: 750850048
I0411 00:43:12.910781  5184 layer_factory.hpp:77] Creating layer conv1_prescale
I0411 00:43:12.910796  5184 net.cpp:100] Creating Layer conv1_prescale
I0411 00:43:12.910800  5184 net.cpp:434] conv1_prescale <- conv1
I0411 00:43:12.910807  5184 net.cpp:395] conv1_prescale -> conv1 (in-place)
I0411 00:43:12.910918  5184 net.cpp:150] Setting up conv1_prescale
I0411 00:43:12.910928  5184 net.cpp:157] Top shape: 1024 100 42 42 (180633600)
I0411 00:43:12.910931  5184 net.cpp:165] Memory required for data: 1473384448
I0411 00:43:12.910938  5184 layer_factory.hpp:77] Creating layer conv1_sTanH
I0411 00:43:12.910948  5184 net.cpp:100] Creating Layer conv1_sTanH
I0411 00:43:12.910951  5184 net.cpp:434] conv1_sTanH <- conv1
I0411 00:43:12.910955  5184 net.cpp:395] conv1_sTanH -> conv1 (in-place)
I0411 00:43:12.911151  5184 net.cpp:150] Setting up conv1_sTanH
I0411 00:43:12.911164  5184 net.cpp:157] Top shape: 1024 100 42 42 (180633600)
I0411 00:43:12.911166  5184 net.cpp:165] Memory required for data: 2195918848
I0411 00:43:12.911170  5184 layer_factory.hpp:77] Creating layer conv1_postscale
I0411 00:43:12.911190  5184 net.cpp:100] Creating Layer conv1_postscale
I0411 00:43:12.911193  5184 net.cpp:434] conv1_postscale <- conv1
I0411 00:43:12.911200  5184 net.cpp:395] conv1_postscale -> conv1 (in-place)
I0411 00:43:12.911295  5184 net.cpp:150] Setting up conv1_postscale
I0411 00:43:12.911304  5184 net.cpp:157] Top shape: 1024 100 42 42 (180633600)
I0411 00:43:12.911308  5184 net.cpp:165] Memory required for data: 2918453248
I0411 00:43:12.911312  5184 layer_factory.hpp:77] Creating layer pool1
I0411 00:43:12.911319  5184 net.cpp:100] Creating Layer pool1
I0411 00:43:12.911322  5184 net.cpp:434] pool1 <- conv1
I0411 00:43:12.911327  5184 net.cpp:408] pool1 -> pool1
I0411 00:43:12.911375  5184 net.cpp:150] Setting up pool1
I0411 00:43:12.911383  5184 net.cpp:157] Top shape: 1024 100 21 21 (45158400)
I0411 00:43:12.911386  5184 net.cpp:165] Memory required for data: 3099086848
I0411 00:43:12.911408  5184 layer_factory.hpp:77] Creating layer conv2
I0411 00:43:12.911419  5184 net.cpp:100] Creating Layer conv2
I0411 00:43:12.911424  5184 net.cpp:434] conv2 <- pool1
I0411 00:43:12.911430  5184 net.cpp:408] conv2 -> conv2
I0411 00:43:12.915613  5184 net.cpp:150] Setting up conv2
I0411 00:43:12.915632  5184 net.cpp:157] Top shape: 1024 150 18 18 (49766400)
I0411 00:43:12.915635  5184 net.cpp:165] Memory required for data: 3298152448
I0411 00:43:12.915645  5184 layer_factory.hpp:77] Creating layer conv2_prescale
I0411 00:43:12.915655  5184 net.cpp:100] Creating Layer conv2_prescale
I0411 00:43:12.915659  5184 net.cpp:434] conv2_prescale <- conv2
I0411 00:43:12.915666  5184 net.cpp:395] conv2_prescale -> conv2 (in-place)
I0411 00:43:12.915779  5184 net.cpp:150] Setting up conv2_prescale
I0411 00:43:12.915789  5184 net.cpp:157] Top shape: 1024 150 18 18 (49766400)
I0411 00:43:12.915792  5184 net.cpp:165] Memory required for data: 3497218048
I0411 00:43:12.915796  5184 layer_factory.hpp:77] Creating layer conv2_sTanH
I0411 00:43:12.915805  5184 net.cpp:100] Creating Layer conv2_sTanH
I0411 00:43:12.915810  5184 net.cpp:434] conv2_sTanH <- conv2
I0411 00:43:12.915817  5184 net.cpp:395] conv2_sTanH -> conv2 (in-place)
I0411 00:43:12.916466  5184 net.cpp:150] Setting up conv2_sTanH
I0411 00:43:12.916483  5184 net.cpp:157] Top shape: 1024 150 18 18 (49766400)
I0411 00:43:12.916487  5184 net.cpp:165] Memory required for data: 3696283648
I0411 00:43:12.916491  5184 layer_factory.hpp:77] Creating layer conv2_postscale
I0411 00:43:12.916497  5184 net.cpp:100] Creating Layer conv2_postscale
I0411 00:43:12.916501  5184 net.cpp:434] conv2_postscale <- conv2
I0411 00:43:12.916509  5184 net.cpp:395] conv2_postscale -> conv2 (in-place)
I0411 00:43:12.916617  5184 net.cpp:150] Setting up conv2_postscale
I0411 00:43:12.916627  5184 net.cpp:157] Top shape: 1024 150 18 18 (49766400)
I0411 00:43:12.916630  5184 net.cpp:165] Memory required for data: 3895349248
I0411 00:43:12.916635  5184 layer_factory.hpp:77] Creating layer pool2
I0411 00:43:12.916641  5184 net.cpp:100] Creating Layer pool2
I0411 00:43:12.916646  5184 net.cpp:434] pool2 <- conv2
I0411 00:43:12.916652  5184 net.cpp:408] pool2 -> pool2
I0411 00:43:12.916697  5184 net.cpp:150] Setting up pool2
I0411 00:43:12.916705  5184 net.cpp:157] Top shape: 1024 150 9 9 (12441600)
I0411 00:43:12.916708  5184 net.cpp:165] Memory required for data: 3945115648
I0411 00:43:12.916716  5184 layer_factory.hpp:77] Creating layer conv3
I0411 00:43:12.916728  5184 net.cpp:100] Creating Layer conv3
I0411 00:43:12.916733  5184 net.cpp:434] conv3 <- pool2
I0411 00:43:12.916738  5184 net.cpp:408] conv3 -> conv3
I0411 00:43:12.922477  5184 net.cpp:150] Setting up conv3
I0411 00:43:12.922494  5184 net.cpp:157] Top shape: 1024 250 6 6 (9216000)
I0411 00:43:12.922497  5184 net.cpp:165] Memory required for data: 3981979648
I0411 00:43:12.922509  5184 layer_factory.hpp:77] Creating layer conv3_prescale
I0411 00:43:12.922518  5184 net.cpp:100] Creating Layer conv3_prescale
I0411 00:43:12.922521  5184 net.cpp:434] conv3_prescale <- conv3
I0411 00:43:12.922526  5184 net.cpp:395] conv3_prescale -> conv3 (in-place)
I0411 00:43:12.922629  5184 net.cpp:150] Setting up conv3_prescale
I0411 00:43:12.922639  5184 net.cpp:157] Top shape: 1024 250 6 6 (9216000)
I0411 00:43:12.922642  5184 net.cpp:165] Memory required for data: 4018843648
I0411 00:43:12.922646  5184 layer_factory.hpp:77] Creating layer conv3_sTanH
I0411 00:43:12.922654  5184 net.cpp:100] Creating Layer conv3_sTanH
I0411 00:43:12.922659  5184 net.cpp:434] conv3_sTanH <- conv3
I0411 00:43:12.922664  5184 net.cpp:395] conv3_sTanH -> conv3 (in-place)
I0411 00:43:12.923329  5184 net.cpp:150] Setting up conv3_sTanH
I0411 00:43:12.923346  5184 net.cpp:157] Top shape: 1024 250 6 6 (9216000)
I0411 00:43:12.923349  5184 net.cpp:165] Memory required for data: 4055707648
I0411 00:43:12.923352  5184 layer_factory.hpp:77] Creating layer conv3_postscale
I0411 00:43:12.923362  5184 net.cpp:100] Creating Layer conv3_postscale
I0411 00:43:12.923379  5184 net.cpp:434] conv3_postscale <- conv3
I0411 00:43:12.923388  5184 net.cpp:395] conv3_postscale -> conv3 (in-place)
I0411 00:43:12.923494  5184 net.cpp:150] Setting up conv3_postscale
I0411 00:43:12.923504  5184 net.cpp:157] Top shape: 1024 250 6 6 (9216000)
I0411 00:43:12.923507  5184 net.cpp:165] Memory required for data: 4092571648
I0411 00:43:12.923512  5184 layer_factory.hpp:77] Creating layer pool3
I0411 00:43:12.923521  5184 net.cpp:100] Creating Layer pool3
I0411 00:43:12.923523  5184 net.cpp:434] pool3 <- conv3
I0411 00:43:12.923528  5184 net.cpp:408] pool3 -> pool3
I0411 00:43:12.923571  5184 net.cpp:150] Setting up pool3
I0411 00:43:12.923579  5184 net.cpp:157] Top shape: 1024 250 3 3 (2304000)
I0411 00:43:12.923583  5184 net.cpp:165] Memory required for data: 4101787648
I0411 00:43:12.923585  5184 layer_factory.hpp:77] Creating layer fc4_300
I0411 00:43:12.923599  5184 net.cpp:100] Creating Layer fc4_300
I0411 00:43:12.923604  5184 net.cpp:434] fc4_300 <- pool3
I0411 00:43:12.923609  5184 net.cpp:408] fc4_300 -> fc4_300
I0411 00:43:12.929095  5184 net.cpp:150] Setting up fc4_300
I0411 00:43:12.929111  5184 net.cpp:157] Top shape: 1024 300 (307200)
I0411 00:43:12.929114  5184 net.cpp:165] Memory required for data: 4103016448
I0411 00:43:12.929121  5184 layer_factory.hpp:77] Creating layer fc4_prescale
I0411 00:43:12.929131  5184 net.cpp:100] Creating Layer fc4_prescale
I0411 00:43:12.929134  5184 net.cpp:434] fc4_prescale <- fc4_300
I0411 00:43:12.929139  5184 net.cpp:395] fc4_prescale -> fc4_300 (in-place)
I0411 00:43:12.929232  5184 net.cpp:150] Setting up fc4_prescale
I0411 00:43:12.929241  5184 net.cpp:157] Top shape: 1024 300 (307200)
I0411 00:43:12.929244  5184 net.cpp:165] Memory required for data: 4104245248
I0411 00:43:12.929250  5184 layer_factory.hpp:77] Creating layer fc4_sTanH
I0411 00:43:12.929255  5184 net.cpp:100] Creating Layer fc4_sTanH
I0411 00:43:12.929258  5184 net.cpp:434] fc4_sTanH <- fc4_300
I0411 00:43:12.929263  5184 net.cpp:395] fc4_sTanH -> fc4_300 (in-place)
I0411 00:43:12.929464  5184 net.cpp:150] Setting up fc4_sTanH
I0411 00:43:12.929476  5184 net.cpp:157] Top shape: 1024 300 (307200)
I0411 00:43:12.929479  5184 net.cpp:165] Memory required for data: 4105474048
I0411 00:43:12.929483  5184 layer_factory.hpp:77] Creating layer fc4_postscale
I0411 00:43:12.929491  5184 net.cpp:100] Creating Layer fc4_postscale
I0411 00:43:12.929496  5184 net.cpp:434] fc4_postscale <- fc4_300
I0411 00:43:12.929500  5184 net.cpp:395] fc4_postscale -> fc4_300 (in-place)
I0411 00:43:12.929605  5184 net.cpp:150] Setting up fc4_postscale
I0411 00:43:12.929615  5184 net.cpp:157] Top shape: 1024 300 (307200)
I0411 00:43:12.929617  5184 net.cpp:165] Memory required for data: 4106702848
I0411 00:43:12.929621  5184 layer_factory.hpp:77] Creating layer fc5_67
I0411 00:43:12.929630  5184 net.cpp:100] Creating Layer fc5_67
I0411 00:43:12.929633  5184 net.cpp:434] fc5_67 <- fc4_300
I0411 00:43:12.929638  5184 net.cpp:408] fc5_67 -> fc5_classes
I0411 00:43:12.931028  5184 net.cpp:150] Setting up fc5_67
I0411 00:43:12.931043  5184 net.cpp:157] Top shape: 1024 67 (68608)
I0411 00:43:12.931046  5184 net.cpp:165] Memory required for data: 4106977280
I0411 00:43:12.931057  5184 layer_factory.hpp:77] Creating layer loss
I0411 00:43:12.931064  5184 net.cpp:100] Creating Layer loss
I0411 00:43:12.931068  5184 net.cpp:434] loss <- fc5_classes
I0411 00:43:12.931072  5184 net.cpp:434] loss <- label
I0411 00:43:12.931078  5184 net.cpp:408] loss -> loss
I0411 00:43:12.931090  5184 layer_factory.hpp:77] Creating layer loss
…
I0411 00:43:12.931840  5184 solver.cpp:193] Creating test net (#0) specified by test_net file: ./Prototxt/experiment_8/rtsd-r1/CoNorm/trial_1/test.prototxt
I0411 00:43:12.932032  5184 net.cpp:58] Initializing net from parameters: 
state {
  phase: TEST
}
layer {
  name: "data"
  type: "Data"
  top: "data"
  top: "label"
  include {
    phase: TEST
  }
  transform_param {
    mirror: false
    crop_size: 48
    mean_value: 133
    mean_value: 133
    mean_value: 132
  }
  data_param {
    source: "../local_data/lmdb/rtsd-r1/CoNorm/test/lmdb"
    batch_size: 1024
    backend: LMDB
  }
}
layer {
  name: "conv1"
  type: "Convolution"
  bottom: "data"
  top: "conv1"
  convolution_param {
    num_output: 100
    pad: 0
    kernel_size: 7
    group: 1
    stride: 1
    weight_filler {
      type: "xavier"
    }
  }
}
layer {
  name: "conv1_prescale"
  type: "Scale"
  bottom: "conv1"
  top: "conv1"
  param {
    lr_mult: 0
    decay_mult: 0
  }
  scale_param {
    filler {
      value: 0.6666
    }
    bias_term: false
  }
}
layer {
  name: "conv1_sTanH"
  type: "TanH"
  bottom: "conv1"
  top: "conv1"
}
layer {
  name: "conv1_postscale"
  type: "Scale"
  bottom: "conv1"
  top: "conv1"
  param {
    lr_mult: 0
    decay_mult: 0
  }
  scale_param {
    filler {
      value: 1.7159
    }
    bias_term: false
  }
}
layer {
  name: "pool1"
  type: "Pooling"
  bottom: "conv1"
  top: "pool1"
  pooling_param {
    pool: MAX
    kernel_size: 2
    stride: 2
  }
}
layer {
  name: "conv2"
  type: "Convolution"
  bottom: "pool1"
  top: "conv2"
  convolution_param {
    num_output: 150
    pad: 0
    kernel_size: 4
    group: 1
    stride: 1
    weight_filler {
      type: "xavier"
    }
  }
}
layer {
  name: "conv2_prescale"
  type: "Scale"
  bottom: "conv2"
  top: "conv2"
  param {
    lr_mult: 0
    decay_mult: 0
  }
  scale_param {
    filler {
      value: 0.6666
    }
    bias_term: false
  }
}
layer {
  name: "conv2_sTanH"
  type: "TanH"
  bottom: "conv2"
  top: "conv2"
}
layer {
  name: "conv2_postscale"
  type: "Scale"
  bottom: "conv2"
  top: "conv2"
  param {
    lr_mult: 0
    decay_mult: 0
  }
  scale_param {
    filler {
      value: 1.7159
    }
    bias_term: false
  }
}
layer {
  name: "pool2"
  type: "Pooling"
  bottom: "conv2"
  top: "pool2"
  pooling_param {
    pool: MAX
    kernel_size: 2
    stride: 2
  }
}
layer {
  name: "conv3"
  type: "Convolution"
  bottom: "pool2"
  top: "conv3"
  convolution_param {
    num_output: 250
    pad: 0
    kernel_size: 4
    group: 1
    stride: 1
    weight_filler {
      type: "xavier"
    }
  }
}
layer {
  name: "conv3_prescale"
  type: "Scale"
  bottom: "conv3"
  top: "conv3"
  param {
    lr_mult: 0
    decay_mult: 0
  }
  scale_param {
    filler {
      value: 0.6666
    }
    bias_term: false
  }
}
layer {
  name: "conv3_sTanH"
  type: "TanH"
  bottom: "conv3"
  top: "conv3"
}
layer {
  name: "conv3_postscale"
  type: "Scale"
  bottom: "conv3"
  top: "conv3"
  param {
    lr_mult: 0
    decay_mult: 0
  }
  scale_param {
    filler {
      value: 1.7159
    }
    bias_term: false
  }
}
layer {
  name: "pool3"
  type: "Pooling"
  bottom: "conv3"
  top: "pool3"
  pooling_param {
    pool: MAX
    kernel_size: 2
    stride: 2
  }
}
layer {
  name: "fc4_300"
  type: "InnerProduct"
  bottom: "pool3"
  top: "fc4_300"
  inner_product_param {
    num_output: 300
    weight_filler {
      type: "xavier"
    }
  }
}
layer {
  name: "fc4_prescale"
  type: "Scale"
  bottom: "fc4_300"
  top: "fc4_300"
  param {
    lr_mult: 0
    decay_mult: 0
  }
  scale_param {
    filler {
      value: 0.6666
    }
    bias_term: false
  }
}
layer {
  name: "fc4_sTanH"
  type: "TanH"
  bottom: "fc4_300"
  top: "fc4_300"
}
layer {
  name: "fc4_postscale"
  type: "Scale"
  bottom: "fc4_300"
  top: "fc4_300"
  param {
    lr_mult: 0
    decay_mult: 0
  }
  scale_param {
    filler {
      value: 1.7159
    }
    bias_term: false
  }
}
layer {
  name: "fc5_67"
  type: "InnerProduct"
  bottom: "fc4_300"
  top: "fc5_classes"
  inner_product_param {
    num_output: 67
    weight_filler {
      type: "xavier"
    }
  }
}
layer {
  name: "loss"
  type: "SoftmaxWithLoss"
  bottom: "fc5_classes"
  bottom: "label"
  top: "loss"
}
layer {
  name: "accuracy_1"
  type: "Accuracy"
  bottom: "fc5_classes"
  bottom: "label"
  top: "accuracy_1"
  include {
    phase: TEST
  }
  accuracy_param {
    top_k: 1
  }
}
layer {
  name: "accuracy_5"
  type: "Accuracy"
  bottom: "fc5_classes"
  bottom: "label"
  top: "accuracy_5"
  include {
    phase: TEST
  }
  accuracy_param {
    top_k: 5
  }
}
I0411 00:43:12.932162  5184 layer_factory.hpp:77] Creating layer data
I0411 00:43:12.932839  5184 net.cpp:100] Creating Layer data
I0411 00:43:12.932858  5184 net.cpp:408] data -> data
I0411 00:43:12.932871  5184 net.cpp:408] data -> label
I0411 00:43:12.935674  5317 db_lmdb.cpp:35] Opened lmdb ../local_data/lmdb/rtsd-r1/CoNorm/test/lmdb
I0411 00:43:12.935962  5184 data_layer.cpp:41] output data size: 1024,3,48,48
I0411 00:43:12.989403  5184 net.cpp:150] Setting up data
I0411 00:43:12.989434  5184 net.cpp:157] Top shape: 1024 3 48 48 (7077888)
I0411 00:43:12.989439  5184 net.cpp:157] Top shape: 1024 (1024)
I0411 00:43:12.989441  5184 net.cpp:165] Memory required for data: 28315648
I0411 00:43:12.989447  5184 layer_factory.hpp:77] Creating layer label_data_1_split
I0411 00:43:12.989464  5184 net.cpp:100] Creating Layer label_data_1_split
I0411 00:43:12.989467  5184 net.cpp:434] label_data_1_split <- label
I0411 00:43:12.989476  5184 net.cpp:408] label_data_1_split -> label_data_1_split_0
I0411 00:43:12.989487  5184 net.cpp:408] label_data_1_split -> label_data_1_split_1
I0411 00:43:12.989496  5184 net.cpp:408] label_data_1_split -> label_data_1_split_2
I0411 00:43:12.989629  5184 net.cpp:150] Setting up label_data_1_split
I0411 00:43:12.989639  5184 net.cpp:157] Top shape: 1024 (1024)
I0411 00:43:12.989644  5184 net.cpp:157] Top shape: 1024 (1024)
I0411 00:43:12.989646  5184 net.cpp:157] Top shape: 1024 (1024)
I0411 00:43:12.989650  5184 net.cpp:165] Memory required for data: 28327936
I0411 00:43:12.989652  5184 layer_factory.hpp:77] Creating layer conv1
I0411 00:43:12.989665  5184 net.cpp:100] Creating Layer conv1
I0411 00:43:12.989670  5184 net.cpp:434] conv1 <- data
I0411 00:43:12.989678  5184 net.cpp:408] conv1 -> conv1
I0411 00:43:12.991468  5184 net.cpp:150] Setting up conv1
I0411 00:43:12.991492  5184 net.cpp:157] Top shape: 1024 100 42 42 (180633600)
I0411 00:43:12.991494  5184 net.cpp:165] Memory required for data: 750862336
I0411 00:43:12.991526  5184 layer_factory.hpp:77] Creating layer conv1_prescale
I0411 00:43:12.991539  5184 net.cpp:100] Creating Layer conv1_prescale
I0411 00:43:12.991544  5184 net.cpp:434] conv1_prescale <- conv1
I0411 00:43:12.991551  5184 net.cpp:395] conv1_prescale -> conv1 (in-place)
I0411 00:43:12.991675  5184 net.cpp:150] Setting up conv1_prescale
I0411 00:43:12.991684  5184 net.cpp:157] Top shape: 1024 100 42 42 (180633600)
I0411 00:43:12.991688  5184 net.cpp:165] Memory required for data: 1473396736
I0411 00:43:12.991694  5184 layer_factory.hpp:77] Creating layer conv1_sTanH
I0411 00:43:12.991708  5184 net.cpp:100] Creating Layer conv1_sTanH
I0411 00:43:12.991713  5184 net.cpp:434] conv1_sTanH <- conv1
I0411 00:43:12.991717  5184 net.cpp:395] conv1_sTanH -> conv1 (in-place)
I0411 00:43:12.994191  5184 net.cpp:150] Setting up conv1_sTanH
I0411 00:43:12.994205  5184 net.cpp:157] Top shape: 1024 100 42 42 (180633600)
I0411 00:43:12.994210  5184 net.cpp:165] Memory required for data: 2195931136
I0411 00:43:12.994212  5184 layer_factory.hpp:77] Creating layer conv1_postscale
I0411 00:43:12.994221  5184 net.cpp:100] Creating Layer conv1_postscale
I0411 00:43:12.994225  5184 net.cpp:434] conv1_postscale <- conv1
I0411 00:43:12.994230  5184 net.cpp:395] conv1_postscale -> conv1 (in-place)
I0411 00:43:12.994354  5184 net.cpp:150] Setting up conv1_postscale
I0411 00:43:12.994364  5184 net.cpp:157] Top shape: 1024 100 42 42 (180633600)
I0411 00:43:12.994366  5184 net.cpp:165] Memory required for data: 2918465536
I0411 00:43:12.994372  5184 layer_factory.hpp:77] Creating layer pool1
I0411 00:43:12.994386  5184 net.cpp:100] Creating Layer pool1
I0411 00:43:12.994391  5184 net.cpp:434] pool1 <- conv1
I0411 00:43:12.994396  5184 net.cpp:408] pool1 -> pool1
I0411 00:43:12.994447  5184 net.cpp:150] Setting up pool1
I0411 00:43:12.994457  5184 net.cpp:157] Top shape: 1024 100 21 21 (45158400)
I0411 00:43:12.994459  5184 net.cpp:165] Memory required for data: 3099099136
I0411 00:43:12.994462  5184 layer_factory.hpp:77] Creating layer conv2
I0411 00:43:12.994472  5184 net.cpp:100] Creating Layer conv2
I0411 00:43:12.994475  5184 net.cpp:434] conv2 <- pool1
I0411 00:43:12.994482  5184 net.cpp:408] conv2 -> conv2
I0411 00:43:12.998731  5184 net.cpp:150] Setting up conv2
I0411 00:43:12.998749  5184 net.cpp:157] Top shape: 1024 150 18 18 (49766400)
I0411 00:43:12.998754  5184 net.cpp:165] Memory required for data: 3298164736
I0411 00:43:12.998764  5184 layer_factory.hpp:77] Creating layer conv2_prescale
I0411 00:43:12.998775  5184 net.cpp:100] Creating Layer conv2_prescale
I0411 00:43:12.998780  5184 net.cpp:434] conv2_prescale <- conv2
I0411 00:43:12.998785  5184 net.cpp:395] conv2_prescale -> conv2 (in-place)
I0411 00:43:12.998909  5184 net.cpp:150] Setting up conv2_prescale
I0411 00:43:12.998919  5184 net.cpp:157] Top shape: 1024 150 18 18 (49766400)
I0411 00:43:12.998921  5184 net.cpp:165] Memory required for data: 3497230336
I0411 00:43:12.998926  5184 layer_factory.hpp:77] Creating layer conv2_sTanH
I0411 00:43:12.998932  5184 net.cpp:100] Creating Layer conv2_sTanH
I0411 00:43:12.998935  5184 net.cpp:434] conv2_sTanH <- conv2
I0411 00:43:12.998944  5184 net.cpp:395] conv2_sTanH -> conv2 (in-place)
I0411 00:43:13.001905  5184 net.cpp:150] Setting up conv2_sTanH
I0411 00:43:13.001924  5184 net.cpp:157] Top shape: 1024 150 18 18 (49766400)
I0411 00:43:13.001927  5184 net.cpp:165] Memory required for data: 3696295936
I0411 00:43:13.001930  5184 layer_factory.hpp:77] Creating layer conv2_postscale
I0411 00:43:13.001937  5184 net.cpp:100] Creating Layer conv2_postscale
I0411 00:43:13.001941  5184 net.cpp:434] conv2_postscale <- conv2
I0411 00:43:13.001948  5184 net.cpp:395] conv2_postscale -> conv2 (in-place)
I0411 00:43:13.002058  5184 net.cpp:150] Setting up conv2_postscale
I0411 00:43:13.002074  5184 net.cpp:157] Top shape: 1024 150 18 18 (49766400)
I0411 00:43:13.002076  5184 net.cpp:165] Memory required for data: 3895361536
I0411 00:43:13.002081  5184 layer_factory.hpp:77] Creating layer pool2
I0411 00:43:13.002105  5184 net.cpp:100] Creating Layer pool2
I0411 00:43:13.002112  5184 net.cpp:434] pool2 <- conv2
I0411 00:43:13.002118  5184 net.cpp:408] pool2 -> pool2
I0411 00:43:13.002172  5184 net.cpp:150] Setting up pool2
I0411 00:43:13.002182  5184 net.cpp:157] Top shape: 1024 150 9 9 (12441600)
I0411 00:43:13.002184  5184 net.cpp:165] Memory required for data: 3945127936
I0411 00:43:13.002187  5184 layer_factory.hpp:77] Creating layer conv3
I0411 00:43:13.002214  5184 net.cpp:100] Creating Layer conv3
I0411 00:43:13.002219  5184 net.cpp:434] conv3 <- pool2
I0411 00:43:13.002226  5184 net.cpp:408] conv3 -> conv3
I0411 00:43:13.008286  5184 net.cpp:150] Setting up conv3
I0411 00:43:13.008304  5184 net.cpp:157] Top shape: 1024 250 6 6 (9216000)
I0411 00:43:13.008307  5184 net.cpp:165] Memory required for data: 3981991936
I0411 00:43:13.008319  5184 layer_factory.hpp:77] Creating layer conv3_prescale
I0411 00:43:13.008327  5184 net.cpp:100] Creating Layer conv3_prescale
I0411 00:43:13.008332  5184 net.cpp:434] conv3_prescale <- conv3
I0411 00:43:13.008339  5184 net.cpp:395] conv3_prescale -> conv3 (in-place)
I0411 00:43:13.008447  5184 net.cpp:150] Setting up conv3_prescale
I0411 00:43:13.008457  5184 net.cpp:157] Top shape: 1024 250 6 6 (9216000)
I0411 00:43:13.008460  5184 net.cpp:165] Memory required for data: 4018855936
I0411 00:43:13.008466  5184 layer_factory.hpp:77] Creating layer conv3_sTanH
I0411 00:43:13.008473  5184 net.cpp:100] Creating Layer conv3_sTanH
I0411 00:43:13.008476  5184 net.cpp:434] conv3_sTanH <- conv3
I0411 00:43:13.008482  5184 net.cpp:395] conv3_sTanH -> conv3 (in-place)
I0411 00:43:13.010186  5184 net.cpp:150] Setting up conv3_sTanH
I0411 00:43:13.010207  5184 net.cpp:157] Top shape: 1024 250 6 6 (9216000)
I0411 00:43:13.010210  5184 net.cpp:165] Memory required for data: 4055719936
I0411 00:43:13.010215  5184 layer_factory.hpp:77] Creating layer conv3_postscale
I0411 00:43:13.010221  5184 net.cpp:100] Creating Layer conv3_postscale
I0411 00:43:13.010226  5184 net.cpp:434] conv3_postscale <- conv3
I0411 00:43:13.010233  5184 net.cpp:395] conv3_postscale -> conv3 (in-place)
I0411 00:43:13.010344  5184 net.cpp:150] Setting up conv3_postscale
I0411 00:43:13.010354  5184 net.cpp:157] Top shape: 1024 250 6 6 (9216000)
I0411 00:43:13.010356  5184 net.cpp:165] Memory required for data: 4092583936
I0411 00:43:13.010361  5184 layer_factory.hpp:77] Creating layer pool3
I0411 00:43:13.010371  5184 net.cpp:100] Creating Layer pool3
I0411 00:43:13.010375  5184 net.cpp:434] pool3 <- conv3
I0411 00:43:13.010382  5184 net.cpp:408] pool3 -> pool3
I0411 00:43:13.010440  5184 net.cpp:150] Setting up pool3
I0411 00:43:13.010449  5184 net.cpp:157] Top shape: 1024 250 3 3 (2304000)
I0411 00:43:13.010452  5184 net.cpp:165] Memory required for data: 4101799936
I0411 00:43:13.010455  5184 layer_factory.hpp:77] Creating layer fc4_300
I0411 00:43:13.010462  5184 net.cpp:100] Creating Layer fc4_300
I0411 00:43:13.010465  5184 net.cpp:434] fc4_300 <- pool3
I0411 00:43:13.010473  5184 net.cpp:408] fc4_300 -> fc4_300
I0411 00:43:13.016373  5184 net.cpp:150] Setting up fc4_300
I0411 00:43:13.016391  5184 net.cpp:157] Top shape: 1024 300 (307200)
I0411 00:43:13.016393  5184 net.cpp:165] Memory required for data: 4103028736
I0411 00:43:13.016400  5184 layer_factory.hpp:77] Creating layer fc4_prescale
I0411 00:43:13.016409  5184 net.cpp:100] Creating Layer fc4_prescale
I0411 00:43:13.016413  5184 net.cpp:434] fc4_prescale <- fc4_300
I0411 00:43:13.016420  5184 net.cpp:395] fc4_prescale -> fc4_300 (in-place)
I0411 00:43:13.016520  5184 net.cpp:150] Setting up fc4_prescale
I0411 00:43:13.016530  5184 net.cpp:157] Top shape: 1024 300 (307200)
I0411 00:43:13.016532  5184 net.cpp:165] Memory required for data: 4104257536
I0411 00:43:13.016536  5184 layer_factory.hpp:77] Creating layer fc4_sTanH
I0411 00:43:13.016543  5184 net.cpp:100] Creating Layer fc4_sTanH
I0411 00:43:13.016546  5184 net.cpp:434] fc4_sTanH <- fc4_300
I0411 00:43:13.016551  5184 net.cpp:395] fc4_sTanH -> fc4_300 (in-place)
I0411 00:43:13.016757  5184 net.cpp:150] Setting up fc4_sTanH
I0411 00:43:13.016782  5184 net.cpp:157] Top shape: 1024 300 (307200)
I0411 00:43:13.016785  5184 net.cpp:165] Memory required for data: 4105486336
I0411 00:43:13.016789  5184 layer_factory.hpp:77] Creating layer fc4_postscale
I0411 00:43:13.016798  5184 net.cpp:100] Creating Layer fc4_postscale
I0411 00:43:13.016801  5184 net.cpp:434] fc4_postscale <- fc4_300
I0411 00:43:13.016808  5184 net.cpp:395] fc4_postscale -> fc4_300 (in-place)
I0411 00:43:13.016921  5184 net.cpp:150] Setting up fc4_postscale
I0411 00:43:13.016937  5184 net.cpp:157] Top shape: 1024 300 (307200)
I0411 00:43:13.016952  5184 net.cpp:165] Memory required for data: 4106715136
I0411 00:43:13.016957  5184 layer_factory.hpp:77] Creating layer fc5_67
I0411 00:43:13.016966  5184 net.cpp:100] Creating Layer fc5_67
I0411 00:43:13.016971  5184 net.cpp:434] fc5_67 <- fc4_300
I0411 00:43:13.016976  5184 net.cpp:408] fc5_67 -> fc5_classes
I0411 00:43:13.017246  5184 net.cpp:150] Setting up fc5_67
I0411 00:43:13.017254  5184 net.cpp:157] Top shape: 1024 67 (68608)
I0411 00:43:13.017257  5184 net.cpp:165] Memory required for data: 4106989568
I0411 00:43:13.017266  5184 layer_factory.hpp:77] Creating layer fc5_classes_fc5_67_0_split
I0411 00:43:13.017273  5184 net.cpp:100] Creating Layer fc5_classes_fc5_67_0_split
I0411 00:43:13.017277  5184 net.cpp:434] fc5_classes_fc5_67_0_split <- fc5_classes
I0411 00:43:13.017283  5184 net.cpp:408] fc5_classes_fc5_67_0_split -> fc5_classes_fc5_67_0_split_0
I0411 00:43:13.017292  5184 net.cpp:408] fc5_classes_fc5_67_0_split -> fc5_classes_fc5_67_0_split_1
I0411 00:43:13.017298  5184 net.cpp:408] fc5_classes_fc5_67_0_split -> fc5_classes_fc5_67_0_split_2
I0411 00:43:13.017356  5184 net.cpp:150] Setting up fc5_classes_fc5_67_0_split
I0411 00:43:13.017364  5184 net.cpp:157] Top shape: 1024 67 (68608)
I0411 00:43:13.017369  5184 net.cpp:157] Top shape: 1024 67 (68608)
I0411 00:43:13.017371  5184 net.cpp:157] Top shape: 1024 67 (68608)
I0411 00:43:13.017374  5184 net.cpp:165] Memory required for data: 4107812864
I0411 00:43:13.017376  5184 layer_factory.hpp:77] Creating layer loss
I0411 00:43:13.017382  5184 net.cpp:100] Creating Layer loss
I0411 00:43:13.017385  5184 net.cpp:434] loss <- fc5_classes_fc5_67_0_split_0
I0411 00:43:13.017405  5184 net.cpp:434] loss <- label_data_1_split_0
I0411 00:43:13.017411  5184 net.cpp:408] loss -> loss
…
