…
I0410 23:48:51.910157 15627 net.cpp:322] The NetState phase (0) differed from the phase (1) specified by a rule in layer accuracy_5
I0410 23:48:51.910372 15627 net.cpp:58] Initializing net from parameters: 
state {
  phase: TRAIN
  level: 0
  stage: ""
}
layer {
  name: "data"
  type: "Data"
  top: "data"
  top: "label"
  include {
    phase: TRAIN
  }
  transform_param {
    mirror: false
    crop_size: 48
    mean_value: 132
    mean_value: 132
    mean_value: 131
  }
  data_param {
    source: "../local_data/lmdb/rtsd-r1/CoNorm/train/lmdb"
    batch_size: 1024
    backend: LMDB
  }
}
layer {
  name: "conv1"
  type: "Convolution"
  bottom: "data"
  top: "conv1"
  convolution_param {
    num_output: 100
    pad: 0
    kernel_size: 7
    group: 1
    stride: 1
    weight_filler {
      type: "xavier"
    }
  }
}
layer {
  name: "conv1_prescale"
  type: "Scale"
  bottom: "conv1"
  top: "conv1"
  param {
    lr_mult: 0
    decay_mult: 0
  }
  scale_param {
    filler {
      value: 0.6666
    }
  }
}
layer {
  name: "conv1_sTanH"
  type: "TanH"
  bottom: "conv1"
  top: "conv1"
}
layer {
  name: "conv1_postscale"
  type: "Scale"
  bottom: "conv1"
  top: "conv1"
  param {
    lr_mult: 0
    decay_mult: 0
  }
  scale_param {
    filler {
      value: 1.7159
    }
  }
}
layer {
  name: "pool1"
  type: "Pooling"
  bottom: "conv1"
  top: "pool1"
  pooling_param {
    pool: MAX
    kernel_size: 2
    stride: 2
  }
}
layer {
  name: "conv2"
  type: "Convolution"
  bottom: "pool1"
  top: "conv2"
  convolution_param {
    num_output: 150
    pad: 0
    kernel_size: 4
    group: 1
    stride: 1
    weight_filler {
      type: "xavier"
    }
  }
}
layer {
  name: "conv2_prescale"
  type: "Scale"
  bottom: "conv2"
  top: "conv2"
  param {
    lr_mult: 0
    decay_mult: 0
  }
  scale_param {
    filler {
      value: 0.6666
    }
  }
}
layer {
  name: "conv2_sTanH"
  type: "TanH"
  bottom: "conv2"
  top: "conv2"
}
layer {
  name: "conv2_postscale"
  type: "Scale"
  bottom: "conv2"
  top: "conv2"
  param {
    lr_mult: 0
    decay_mult: 0
  }
  scale_param {
    filler {
      value: 1.7159
    }
  }
}
layer {
  name: "pool2"
  type: "Pooling"
  bottom: "conv2"
  top: "pool2"
  pooling_param {
    pool: MAX
    kernel_size: 2
    stride: 2
  }
}
layer {
  name: "conv3"
  type: "Convolution"
  bottom: "pool2"
  top: "conv3"
  convolution_param {
    num_output: 250
    pad: 0
    kernel_size: 4
    group: 1
    stride: 1
    weight_filler {
      type: "xavier"
    }
  }
}
layer {
  name: "conv3_prescale"
  type: "Scale"
  bottom: "conv3"
  top: "conv3"
  param {
    lr_mult: 0
    decay_mult: 0
  }
  scale_param {
    filler {
      value: 0.6666
    }
  }
}
layer {
  name: "conv3_sTanH"
  type: "TanH"
  bottom: "conv3"
  top: "conv3"
}
layer {
  name: "conv3_postscale"
  type: "Scale"
  bottom: "conv3"
  top: "conv3"
  param {
    lr_mult: 0
    decay_mult: 0
  }
  scale_param {
    filler {
      value: 1.7159
    }
  }
}
layer {
  name: "pool3"
  type: "Pooling"
  bottom: "conv3"
  top: "pool3"
  pooling_param {
    pool: MAX
    kernel_size: 2
    stride: 2
  }
}
layer {
  name: "fc4_300"
  type: "InnerProduct"
  bottom: "pool3"
  top: "fc4_300"
  inner_product_param {
    num_output: 300
    weight_filler {
      type: "xavier"
    }
  }
}
layer {
  name: "fc4_prescale"
  type: "Scale"
  bottom: "fc4_300"
  top: "fc4_300"
  param {
    lr_mult: 0
    decay_mult: 0
  }
  scale_param {
    filler {
      value: 0.6666
    }
  }
}
layer {
  name: "fc4_sTanH"
  type: "TanH"
  bottom: "fc4_300"
  top: "fc4_300"
}
layer {
  name: "fc4_postscale"
  type: "Scale"
  bottom: "fc4_300"
  top: "fc4_300"
  param {
    lr_mult: 0
    decay_mult: 0
  }
  scale_param {
    filler {
      value: 1.7159
    }
  }
}
layer {
  name: "drop4"
  type: "Dropout"
  bottom: "fc4_300"
  top: "fc4_300"
  dropout_param {
    dropout_ratio: 0.4
  }
}
layer {
  name: "fc5_67"
  type: "InnerProduct"
  bottom: "fc4_300"
  top: "fc5_classes"
  inner_product_param {
    num_output: 67
    weight_filler {
      type: "xavier"
    }
  }
}
layer {
  name: "loss"
  type: "SoftmaxWithLoss"
  bottom: "fc5_classes"
  bottom: "label"
  top: "loss"
}
I0410 23:48:51.910523 15627 layer_factory.hpp:77] Creating layer data
I0410 23:48:51.912137 15627 net.cpp:100] Creating Layer data
I0410 23:48:51.912159 15627 net.cpp:408] data -> data
I0410 23:48:51.912189 15627 net.cpp:408] data -> label
I0410 23:48:51.913383 15728 db_lmdb.cpp:35] Opened lmdb ../local_data/lmdb/rtsd-r1/CoNorm/train/lmdb
I0410 23:48:51.937028 15627 data_layer.cpp:41] output data size: 1024,3,48,48
I0410 23:48:51.988054 15627 net.cpp:150] Setting up data
I0410 23:48:51.988090 15627 net.cpp:157] Top shape: 1024 3 48 48 (7077888)
I0410 23:48:51.988096 15627 net.cpp:157] Top shape: 1024 (1024)
I0410 23:48:51.988101 15627 net.cpp:165] Memory required for data: 28315648
I0410 23:48:51.988111 15627 layer_factory.hpp:77] Creating layer conv1
I0410 23:48:51.988145 15627 net.cpp:100] Creating Layer conv1
I0410 23:48:51.988154 15627 net.cpp:434] conv1 <- data
I0410 23:48:51.988170 15627 net.cpp:408] conv1 -> conv1
I0410 23:48:52.337452 15627 net.cpp:150] Setting up conv1
I0410 23:48:52.337486 15627 net.cpp:157] Top shape: 1024 100 42 42 (180633600)
I0410 23:48:52.337491 15627 net.cpp:165] Memory required for data: 750850048
I0410 23:48:52.337515 15627 layer_factory.hpp:77] Creating layer conv1_prescale
I0410 23:48:52.337539 15627 net.cpp:100] Creating Layer conv1_prescale
I0410 23:48:52.337546 15627 net.cpp:434] conv1_prescale <- conv1
I0410 23:48:52.337554 15627 net.cpp:395] conv1_prescale -> conv1 (in-place)
I0410 23:48:52.337694 15627 net.cpp:150] Setting up conv1_prescale
I0410 23:48:52.337707 15627 net.cpp:157] Top shape: 1024 100 42 42 (180633600)
I0410 23:48:52.337709 15627 net.cpp:165] Memory required for data: 1473384448
I0410 23:48:52.337718 15627 layer_factory.hpp:77] Creating layer conv1_sTanH
I0410 23:48:52.337726 15627 net.cpp:100] Creating Layer conv1_sTanH
I0410 23:48:52.337733 15627 net.cpp:434] conv1_sTanH <- conv1
I0410 23:48:52.337738 15627 net.cpp:395] conv1_sTanH -> conv1 (in-place)
I0410 23:48:52.337983 15627 net.cpp:150] Setting up conv1_sTanH
I0410 23:48:52.337998 15627 net.cpp:157] Top shape: 1024 100 42 42 (180633600)
I0410 23:48:52.338003 15627 net.cpp:165] Memory required for data: 2195918848
I0410 23:48:52.338007 15627 layer_factory.hpp:77] Creating layer conv1_postscale
I0410 23:48:52.338017 15627 net.cpp:100] Creating Layer conv1_postscale
I0410 23:48:52.338023 15627 net.cpp:434] conv1_postscale <- conv1
I0410 23:48:52.338029 15627 net.cpp:395] conv1_postscale -> conv1 (in-place)
I0410 23:48:52.338146 15627 net.cpp:150] Setting up conv1_postscale
I0410 23:48:52.338157 15627 net.cpp:157] Top shape: 1024 100 42 42 (180633600)
I0410 23:48:52.338162 15627 net.cpp:165] Memory required for data: 2918453248
I0410 23:48:52.338168 15627 layer_factory.hpp:77] Creating layer pool1
I0410 23:48:52.338177 15627 net.cpp:100] Creating Layer pool1
I0410 23:48:52.338182 15627 net.cpp:434] pool1 <- conv1
I0410 23:48:52.338187 15627 net.cpp:408] pool1 -> pool1
I0410 23:48:52.338245 15627 net.cpp:150] Setting up pool1
I0410 23:48:52.338256 15627 net.cpp:157] Top shape: 1024 100 21 21 (45158400)
I0410 23:48:52.338261 15627 net.cpp:165] Memory required for data: 3099086848
I0410 23:48:52.338289 15627 layer_factory.hpp:77] Creating layer conv2
I0410 23:48:52.338304 15627 net.cpp:100] Creating Layer conv2
I0410 23:48:52.338310 15627 net.cpp:434] conv2 <- pool1
I0410 23:48:52.338315 15627 net.cpp:408] conv2 -> conv2
I0410 23:48:52.345289 15627 net.cpp:150] Setting up conv2
I0410 23:48:52.345310 15627 net.cpp:157] Top shape: 1024 150 18 18 (49766400)
I0410 23:48:52.345316 15627 net.cpp:165] Memory required for data: 3298152448
I0410 23:48:52.345329 15627 layer_factory.hpp:77] Creating layer conv2_prescale
I0410 23:48:52.345340 15627 net.cpp:100] Creating Layer conv2_prescale
I0410 23:48:52.345346 15627 net.cpp:434] conv2_prescale <- conv2
I0410 23:48:52.345353 15627 net.cpp:395] conv2_prescale -> conv2 (in-place)
I0410 23:48:52.345487 15627 net.cpp:150] Setting up conv2_prescale
I0410 23:48:52.345499 15627 net.cpp:157] Top shape: 1024 150 18 18 (49766400)
I0410 23:48:52.345504 15627 net.cpp:165] Memory required for data: 3497218048
I0410 23:48:52.345510 15627 layer_factory.hpp:77] Creating layer conv2_sTanH
I0410 23:48:52.345518 15627 net.cpp:100] Creating Layer conv2_sTanH
I0410 23:48:52.345525 15627 net.cpp:434] conv2_sTanH <- conv2
I0410 23:48:52.345530 15627 net.cpp:395] conv2_sTanH -> conv2 (in-place)
I0410 23:48:52.347615 15627 net.cpp:150] Setting up conv2_sTanH
I0410 23:48:52.347635 15627 net.cpp:157] Top shape: 1024 150 18 18 (49766400)
I0410 23:48:52.347638 15627 net.cpp:165] Memory required for data: 3696283648
I0410 23:48:52.347642 15627 layer_factory.hpp:77] Creating layer conv2_postscale
I0410 23:48:52.347652 15627 net.cpp:100] Creating Layer conv2_postscale
I0410 23:48:52.347658 15627 net.cpp:434] conv2_postscale <- conv2
I0410 23:48:52.347664 15627 net.cpp:395] conv2_postscale -> conv2 (in-place)
I0410 23:48:52.347793 15627 net.cpp:150] Setting up conv2_postscale
I0410 23:48:52.347805 15627 net.cpp:157] Top shape: 1024 150 18 18 (49766400)
I0410 23:48:52.347808 15627 net.cpp:165] Memory required for data: 3895349248
I0410 23:48:52.347815 15627 layer_factory.hpp:77] Creating layer pool2
I0410 23:48:52.347821 15627 net.cpp:100] Creating Layer pool2
I0410 23:48:52.347826 15627 net.cpp:434] pool2 <- conv2
I0410 23:48:52.347832 15627 net.cpp:408] pool2 -> pool2
I0410 23:48:52.347900 15627 net.cpp:150] Setting up pool2
I0410 23:48:52.347913 15627 net.cpp:157] Top shape: 1024 150 9 9 (12441600)
I0410 23:48:52.347916 15627 net.cpp:165] Memory required for data: 3945115648
I0410 23:48:52.347919 15627 layer_factory.hpp:77] Creating layer conv3
I0410 23:48:52.347930 15627 net.cpp:100] Creating Layer conv3
I0410 23:48:52.347935 15627 net.cpp:434] conv3 <- pool2
I0410 23:48:52.347942 15627 net.cpp:408] conv3 -> conv3
I0410 23:48:52.355521 15627 net.cpp:150] Setting up conv3
I0410 23:48:52.355543 15627 net.cpp:157] Top shape: 1024 250 6 6 (9216000)
I0410 23:48:52.355547 15627 net.cpp:165] Memory required for data: 3981979648
I0410 23:48:52.355561 15627 layer_factory.hpp:77] Creating layer conv3_prescale
I0410 23:48:52.355569 15627 net.cpp:100] Creating Layer conv3_prescale
I0410 23:48:52.355574 15627 net.cpp:434] conv3_prescale <- conv3
I0410 23:48:52.355581 15627 net.cpp:395] conv3_prescale -> conv3 (in-place)
I0410 23:48:52.355702 15627 net.cpp:150] Setting up conv3_prescale
I0410 23:48:52.355713 15627 net.cpp:157] Top shape: 1024 250 6 6 (9216000)
I0410 23:48:52.355717 15627 net.cpp:165] Memory required for data: 4018843648
I0410 23:48:52.355723 15627 layer_factory.hpp:77] Creating layer conv3_sTanH
I0410 23:48:52.355731 15627 net.cpp:100] Creating Layer conv3_sTanH
I0410 23:48:52.355736 15627 net.cpp:434] conv3_sTanH <- conv3
I0410 23:48:52.355742 15627 net.cpp:395] conv3_sTanH -> conv3 (in-place)
I0410 23:48:52.358708 15627 net.cpp:150] Setting up conv3_sTanH
I0410 23:48:52.358736 15627 net.cpp:157] Top shape: 1024 250 6 6 (9216000)
I0410 23:48:52.358741 15627 net.cpp:165] Memory required for data: 4055707648
I0410 23:48:52.358745 15627 layer_factory.hpp:77] Creating layer conv3_postscale
I0410 23:48:52.358755 15627 net.cpp:100] Creating Layer conv3_postscale
I0410 23:48:52.358777 15627 net.cpp:434] conv3_postscale <- conv3
I0410 23:48:52.358788 15627 net.cpp:395] conv3_postscale -> conv3 (in-place)
I0410 23:48:52.358919 15627 net.cpp:150] Setting up conv3_postscale
I0410 23:48:52.358937 15627 net.cpp:157] Top shape: 1024 250 6 6 (9216000)
I0410 23:48:52.358939 15627 net.cpp:165] Memory required for data: 4092571648
I0410 23:48:52.358947 15627 layer_factory.hpp:77] Creating layer pool3
I0410 23:48:52.358956 15627 net.cpp:100] Creating Layer pool3
I0410 23:48:52.358963 15627 net.cpp:434] pool3 <- conv3
I0410 23:48:52.358968 15627 net.cpp:408] pool3 -> pool3
I0410 23:48:52.359020 15627 net.cpp:150] Setting up pool3
I0410 23:48:52.359030 15627 net.cpp:157] Top shape: 1024 250 3 3 (2304000)
I0410 23:48:52.359035 15627 net.cpp:165] Memory required for data: 4101787648
I0410 23:48:52.359037 15627 layer_factory.hpp:77] Creating layer fc4_300
I0410 23:48:52.359051 15627 net.cpp:100] Creating Layer fc4_300
I0410 23:48:52.359057 15627 net.cpp:434] fc4_300 <- pool3
I0410 23:48:52.359063 15627 net.cpp:408] fc4_300 -> fc4_300
I0410 23:48:52.366467 15627 net.cpp:150] Setting up fc4_300
I0410 23:48:52.366487 15627 net.cpp:157] Top shape: 1024 300 (307200)
I0410 23:48:52.366492 15627 net.cpp:165] Memory required for data: 4103016448
I0410 23:48:52.366500 15627 layer_factory.hpp:77] Creating layer fc4_prescale
I0410 23:48:52.366510 15627 net.cpp:100] Creating Layer fc4_prescale
I0410 23:48:52.366515 15627 net.cpp:434] fc4_prescale <- fc4_300
I0410 23:48:52.366521 15627 net.cpp:395] fc4_prescale -> fc4_300 (in-place)
I0410 23:48:52.366633 15627 net.cpp:150] Setting up fc4_prescale
I0410 23:48:52.366644 15627 net.cpp:157] Top shape: 1024 300 (307200)
I0410 23:48:52.366648 15627 net.cpp:165] Memory required for data: 4104245248
I0410 23:48:52.366653 15627 layer_factory.hpp:77] Creating layer fc4_sTanH
I0410 23:48:52.366662 15627 net.cpp:100] Creating Layer fc4_sTanH
I0410 23:48:52.366667 15627 net.cpp:434] fc4_sTanH <- fc4_300
I0410 23:48:52.366672 15627 net.cpp:395] fc4_sTanH -> fc4_300 (in-place)
I0410 23:48:52.366914 15627 net.cpp:150] Setting up fc4_sTanH
I0410 23:48:52.366930 15627 net.cpp:157] Top shape: 1024 300 (307200)
I0410 23:48:52.366935 15627 net.cpp:165] Memory required for data: 4105474048
I0410 23:48:52.366938 15627 layer_factory.hpp:77] Creating layer fc4_postscale
I0410 23:48:52.366945 15627 net.cpp:100] Creating Layer fc4_postscale
I0410 23:48:52.366951 15627 net.cpp:434] fc4_postscale <- fc4_300
I0410 23:48:52.366957 15627 net.cpp:395] fc4_postscale -> fc4_300 (in-place)
I0410 23:48:52.367084 15627 net.cpp:150] Setting up fc4_postscale
I0410 23:48:52.367095 15627 net.cpp:157] Top shape: 1024 300 (307200)
I0410 23:48:52.367099 15627 net.cpp:165] Memory required for data: 4106702848
I0410 23:48:52.367105 15627 layer_factory.hpp:77] Creating layer drop4
I0410 23:48:52.367115 15627 net.cpp:100] Creating Layer drop4
I0410 23:48:52.367120 15627 net.cpp:434] drop4 <- fc4_300
I0410 23:48:52.367126 15627 net.cpp:395] drop4 -> fc4_300 (in-place)
I0410 23:48:52.367161 15627 net.cpp:150] Setting up drop4
I0410 23:48:52.367171 15627 net.cpp:157] Top shape: 1024 300 (307200)
I0410 23:48:52.367173 15627 net.cpp:165] Memory required for data: 4107931648
I0410 23:48:52.367177 15627 layer_factory.hpp:77] Creating layer fc5_67
I0410 23:48:52.367184 15627 net.cpp:100] Creating Layer fc5_67
I0410 23:48:52.367190 15627 net.cpp:434] fc5_67 <- fc4_300
I0410 23:48:52.367198 15627 net.cpp:408] fc5_67 -> fc5_classes
I0410 23:48:52.370527 15627 net.cpp:150] Setting up fc5_67
I0410 23:48:52.370545 15627 net.cpp:157] Top shape: 1024 67 (68608)
I0410 23:48:52.370549 15627 net.cpp:165] Memory required for data: 4108206080
I0410 23:48:52.370565 15627 layer_factory.hpp:77] Creating layer loss
I0410 23:48:52.370574 15627 net.cpp:100] Creating Layer loss
I0410 23:48:52.370579 15627 net.cpp:434] loss <- fc5_classes
I0410 23:48:52.370584 15627 net.cpp:434] loss <- label
I0410 23:48:52.370594 15627 net.cpp:408] loss -> loss
I0410 23:48:52.370611 15627 layer_factory.hpp:77] Creating layer loss
…
I0410 23:48:52.371521 15627 solver.cpp:193] Creating test net (#0) specified by test_net file: ./Prototxt/experiment_8/rtsd-r1/CoNorm/trial_1/test.prototxt
I0410 23:48:52.371743 15627 net.cpp:58] Initializing net from parameters: 
state {
  phase: TEST
}
layer {
  name: "data"
  type: "Data"
  top: "data"
  top: "label"
  include {
    phase: TEST
  }
  transform_param {
    mirror: false
    crop_size: 48
    mean_value: 133
    mean_value: 133
    mean_value: 132
  }
  data_param {
    source: "../local_data/lmdb/rtsd-r1/CoNorm/test/lmdb"
    batch_size: 1024
    backend: LMDB
  }
}
layer {
  name: "conv1"
  type: "Convolution"
  bottom: "data"
  top: "conv1"
  convolution_param {
    num_output: 100
    pad: 0
    kernel_size: 7
    group: 1
    stride: 1
    weight_filler {
      type: "xavier"
    }
  }
}
layer {
  name: "conv1_prescale"
  type: "Scale"
  bottom: "conv1"
  top: "conv1"
  param {
    lr_mult: 0
    decay_mult: 0
  }
  scale_param {
    filler {
      value: 0.6666
    }
  }
}
layer {
  name: "conv1_sTanH"
  type: "TanH"
  bottom: "conv1"
  top: "conv1"
}
layer {
  name: "conv1_postscale"
  type: "Scale"
  bottom: "conv1"
  top: "conv1"
  param {
    lr_mult: 0
    decay_mult: 0
  }
  scale_param {
    filler {
      value: 1.7159
    }
  }
}
layer {
  name: "pool1"
  type: "Pooling"
  bottom: "conv1"
  top: "pool1"
  pooling_param {
    pool: MAX
    kernel_size: 2
    stride: 2
  }
}
layer {
  name: "conv2"
  type: "Convolution"
  bottom: "pool1"
  top: "conv2"
  convolution_param {
    num_output: 150
    pad: 0
    kernel_size: 4
    group: 1
    stride: 1
    weight_filler {
      type: "xavier"
    }
  }
}
layer {
  name: "conv2_prescale"
  type: "Scale"
  bottom: "conv2"
  top: "conv2"
  param {
    lr_mult: 0
    decay_mult: 0
  }
  scale_param {
    filler {
      value: 0.6666
    }
  }
}
layer {
  name: "conv2_sTanH"
  type: "TanH"
  bottom: "conv2"
  top: "conv2"
}
layer {
  name: "conv2_postscale"
  type: "Scale"
  bottom: "conv2"
  top: "conv2"
  param {
    lr_mult: 0
    decay_mult: 0
  }
  scale_param {
    filler {
      value: 1.7159
    }
  }
}
layer {
  name: "pool2"
  type: "Pooling"
  bottom: "conv2"
  top: "pool2"
  pooling_param {
    pool: MAX
    kernel_size: 2
    stride: 2
  }
}
layer {
  name: "conv3"
  type: "Convolution"
  bottom: "pool2"
  top: "conv3"
  convolution_param {
    num_output: 250
    pad: 0
    kernel_size: 4
    group: 1
    stride: 1
    weight_filler {
      type: "xavier"
    }
  }
}
layer {
  name: "conv3_prescale"
  type: "Scale"
  bottom: "conv3"
  top: "conv3"
  param {
    lr_mult: 0
    decay_mult: 0
  }
  scale_param {
    filler {
      value: 0.6666
    }
  }
}
layer {
  name: "conv3_sTanH"
  type: "TanH"
  bottom: "conv3"
  top: "conv3"
}
layer {
  name: "conv3_postscale"
  type: "Scale"
  bottom: "conv3"
  top: "conv3"
  param {
    lr_mult: 0
    decay_mult: 0
  }
  scale_param {
    filler {
      value: 1.7159
    }
  }
}
layer {
  name: "pool3"
  type: "Pooling"
  bottom: "conv3"
  top: "pool3"
  pooling_param {
    pool: MAX
    kernel_size: 2
    stride: 2
  }
}
layer {
  name: "fc4_300"
  type: "InnerProduct"
  bottom: "pool3"
  top: "fc4_300"
  inner_product_param {
    num_output: 300
    weight_filler {
      type: "xavier"
    }
  }
}
layer {
  name: "fc4_prescale"
  type: "Scale"
  bottom: "fc4_300"
  top: "fc4_300"
  param {
    lr_mult: 0
    decay_mult: 0
  }
  scale_param {
    filler {
      value: 0.6666
    }
  }
}
layer {
  name: "fc4_sTanH"
  type: "TanH"
  bottom: "fc4_300"
  top: "fc4_300"
}
layer {
  name: "fc4_postscale"
  type: "Scale"
  bottom: "fc4_300"
  top: "fc4_300"
  param {
    lr_mult: 0
    decay_mult: 0
  }
  scale_param {
    filler {
      value: 1.7159
    }
  }
}
layer {
  name: "drop4"
  type: "Dropout"
  bottom: "fc4_300"
  top: "fc4_300"
  dropout_param {
    dropout_ratio: 0.4
  }
}
layer {
  name: "fc5_67"
  type: "InnerProduct"
  bottom: "fc4_300"
  top: "fc5_classes"
  inner_product_param {
    num_output: 67
    weight_filler {
      type: "xavier"
    }
  }
}
layer {
  name: "loss"
  type: "SoftmaxWithLoss"
  bottom: "fc5_classes"
  bottom: "label"
  top: "loss"
}
layer {
  name: "accuracy_1"
  type: "Accuracy"
  bottom: "fc5_classes"
  bottom: "label"
  top: "accuracy_1"
  include {
    phase: TEST
  }
  accuracy_param {
    top_k: 1
  }
}
layer {
  name: "accuracy_5"
  type: "Accuracy"
  bottom: "fc5_classes"
  bottom: "label"
  top: "accuracy_5"
  include {
    phase: TEST
  }
  accuracy_param {
    top_k: 5
  }
}
I0410 23:48:52.371922 15627 layer_factory.hpp:77] Creating layer data
I0410 23:48:52.372983 15627 net.cpp:100] Creating Layer data
I0410 23:48:52.373000 15627 net.cpp:408] data -> data
I0410 23:48:52.373013 15627 net.cpp:408] data -> label
I0410 23:48:52.379251 15774 db_lmdb.cpp:35] Opened lmdb ../local_data/lmdb/rtsd-r1/CoNorm/test/lmdb
I0410 23:48:52.379449 15627 data_layer.cpp:41] output data size: 1024,3,48,48
I0410 23:48:52.431991 15627 net.cpp:150] Setting up data
I0410 23:48:52.432023 15627 net.cpp:157] Top shape: 1024 3 48 48 (7077888)
I0410 23:48:52.432029 15627 net.cpp:157] Top shape: 1024 (1024)
I0410 23:48:52.432032 15627 net.cpp:165] Memory required for data: 28315648
I0410 23:48:52.432040 15627 layer_factory.hpp:77] Creating layer label_data_1_split
I0410 23:48:52.432061 15627 net.cpp:100] Creating Layer label_data_1_split
I0410 23:48:52.432066 15627 net.cpp:434] label_data_1_split <- label
I0410 23:48:52.432075 15627 net.cpp:408] label_data_1_split -> label_data_1_split_0
I0410 23:48:52.432090 15627 net.cpp:408] label_data_1_split -> label_data_1_split_1
I0410 23:48:52.432096 15627 net.cpp:408] label_data_1_split -> label_data_1_split_2
I0410 23:48:52.432292 15627 net.cpp:150] Setting up label_data_1_split
I0410 23:48:52.432304 15627 net.cpp:157] Top shape: 1024 (1024)
I0410 23:48:52.432308 15627 net.cpp:157] Top shape: 1024 (1024)
I0410 23:48:52.432312 15627 net.cpp:157] Top shape: 1024 (1024)
I0410 23:48:52.432315 15627 net.cpp:165] Memory required for data: 28327936
I0410 23:48:52.432340 15627 layer_factory.hpp:77] Creating layer conv1
I0410 23:48:52.432363 15627 net.cpp:100] Creating Layer conv1
I0410 23:48:52.432371 15627 net.cpp:434] conv1 <- data
I0410 23:48:52.432379 15627 net.cpp:408] conv1 -> conv1
I0410 23:48:52.434983 15627 net.cpp:150] Setting up conv1
I0410 23:48:52.435003 15627 net.cpp:157] Top shape: 1024 100 42 42 (180633600)
I0410 23:48:52.435008 15627 net.cpp:165] Memory required for data: 750862336
I0410 23:48:52.435022 15627 layer_factory.hpp:77] Creating layer conv1_prescale
I0410 23:48:52.435039 15627 net.cpp:100] Creating Layer conv1_prescale
I0410 23:48:52.435045 15627 net.cpp:434] conv1_prescale <- conv1
I0410 23:48:52.435052 15627 net.cpp:395] conv1_prescale -> conv1 (in-place)
I0410 23:48:52.435191 15627 net.cpp:150] Setting up conv1_prescale
I0410 23:48:52.435204 15627 net.cpp:157] Top shape: 1024 100 42 42 (180633600)
I0410 23:48:52.435209 15627 net.cpp:165] Memory required for data: 1473396736
I0410 23:48:52.435216 15627 layer_factory.hpp:77] Creating layer conv1_sTanH
I0410 23:48:52.435225 15627 net.cpp:100] Creating Layer conv1_sTanH
I0410 23:48:52.435230 15627 net.cpp:434] conv1_sTanH <- conv1
I0410 23:48:52.435235 15627 net.cpp:395] conv1_sTanH -> conv1 (in-place)
I0410 23:48:52.437767 15627 net.cpp:150] Setting up conv1_sTanH
I0410 23:48:52.437788 15627 net.cpp:157] Top shape: 1024 100 42 42 (180633600)
I0410 23:48:52.437791 15627 net.cpp:165] Memory required for data: 2195931136
I0410 23:48:52.437796 15627 layer_factory.hpp:77] Creating layer conv1_postscale
I0410 23:48:52.437804 15627 net.cpp:100] Creating Layer conv1_postscale
I0410 23:48:52.437809 15627 net.cpp:434] conv1_postscale <- conv1
I0410 23:48:52.437819 15627 net.cpp:395] conv1_postscale -> conv1 (in-place)
I0410 23:48:52.437968 15627 net.cpp:150] Setting up conv1_postscale
I0410 23:48:52.437980 15627 net.cpp:157] Top shape: 1024 100 42 42 (180633600)
I0410 23:48:52.437983 15627 net.cpp:165] Memory required for data: 2918465536
I0410 23:48:52.437989 15627 layer_factory.hpp:77] Creating layer pool1
I0410 23:48:52.437999 15627 net.cpp:100] Creating Layer pool1
I0410 23:48:52.438001 15627 net.cpp:434] pool1 <- conv1
I0410 23:48:52.438009 15627 net.cpp:408] pool1 -> pool1
I0410 23:48:52.438068 15627 net.cpp:150] Setting up pool1
I0410 23:48:52.438084 15627 net.cpp:157] Top shape: 1024 100 21 21 (45158400)
I0410 23:48:52.438088 15627 net.cpp:165] Memory required for data: 3099099136
I0410 23:48:52.438092 15627 layer_factory.hpp:77] Creating layer conv2
I0410 23:48:52.438102 15627 net.cpp:100] Creating Layer conv2
I0410 23:48:52.438105 15627 net.cpp:434] conv2 <- pool1
I0410 23:48:52.438113 15627 net.cpp:408] conv2 -> conv2
I0410 23:48:52.443898 15627 net.cpp:150] Setting up conv2
I0410 23:48:52.443922 15627 net.cpp:157] Top shape: 1024 150 18 18 (49766400)
I0410 23:48:52.443928 15627 net.cpp:165] Memory required for data: 3298164736
I0410 23:48:52.443940 15627 layer_factory.hpp:77] Creating layer conv2_prescale
I0410 23:48:52.443955 15627 net.cpp:100] Creating Layer conv2_prescale
I0410 23:48:52.443960 15627 net.cpp:434] conv2_prescale <- conv2
I0410 23:48:52.443967 15627 net.cpp:395] conv2_prescale -> conv2 (in-place)
I0410 23:48:52.444115 15627 net.cpp:150] Setting up conv2_prescale
I0410 23:48:52.444128 15627 net.cpp:157] Top shape: 1024 150 18 18 (49766400)
I0410 23:48:52.444131 15627 net.cpp:165] Memory required for data: 3497230336
I0410 23:48:52.444138 15627 layer_factory.hpp:77] Creating layer conv2_sTanH
I0410 23:48:52.444144 15627 net.cpp:100] Creating Layer conv2_sTanH
I0410 23:48:52.444147 15627 net.cpp:434] conv2_sTanH <- conv2
I0410 23:48:52.444155 15627 net.cpp:395] conv2_sTanH -> conv2 (in-place)
I0410 23:48:52.445127 15627 net.cpp:150] Setting up conv2_sTanH
I0410 23:48:52.445145 15627 net.cpp:157] Top shape: 1024 150 18 18 (49766400)
I0410 23:48:52.445149 15627 net.cpp:165] Memory required for data: 3696295936
I0410 23:48:52.445154 15627 layer_factory.hpp:77] Creating layer conv2_postscale
I0410 23:48:52.445164 15627 net.cpp:100] Creating Layer conv2_postscale
I0410 23:48:52.445188 15627 net.cpp:434] conv2_postscale <- conv2
I0410 23:48:52.445204 15627 net.cpp:395] conv2_postscale -> conv2 (in-place)
I0410 23:48:52.445343 15627 net.cpp:150] Setting up conv2_postscale
I0410 23:48:52.445355 15627 net.cpp:157] Top shape: 1024 150 18 18 (49766400)
I0410 23:48:52.445359 15627 net.cpp:165] Memory required for data: 3895361536
I0410 23:48:52.445365 15627 layer_factory.hpp:77] Creating layer pool2
I0410 23:48:52.445374 15627 net.cpp:100] Creating Layer pool2
I0410 23:48:52.445379 15627 net.cpp:434] pool2 <- conv2
I0410 23:48:52.445384 15627 net.cpp:408] pool2 -> pool2
I0410 23:48:52.445446 15627 net.cpp:150] Setting up pool2
I0410 23:48:52.445457 15627 net.cpp:157] Top shape: 1024 150 9 9 (12441600)
I0410 23:48:52.445464 15627 net.cpp:165] Memory required for data: 3945127936
I0410 23:48:52.445471 15627 layer_factory.hpp:77] Creating layer conv3
I0410 23:48:52.445484 15627 net.cpp:100] Creating Layer conv3
I0410 23:48:52.445488 15627 net.cpp:434] conv3 <- pool2
I0410 23:48:52.445497 15627 net.cpp:408] conv3 -> conv3
I0410 23:48:52.452473 15627 net.cpp:150] Setting up conv3
I0410 23:48:52.452497 15627 net.cpp:157] Top shape: 1024 250 6 6 (9216000)
I0410 23:48:52.452502 15627 net.cpp:165] Memory required for data: 3981991936
I0410 23:48:52.452520 15627 layer_factory.hpp:77] Creating layer conv3_prescale
I0410 23:48:52.452533 15627 net.cpp:100] Creating Layer conv3_prescale
I0410 23:48:52.452538 15627 net.cpp:434] conv3_prescale <- conv3
I0410 23:48:52.452546 15627 net.cpp:395] conv3_prescale -> conv3 (in-place)
I0410 23:48:52.452680 15627 net.cpp:150] Setting up conv3_prescale
I0410 23:48:52.452695 15627 net.cpp:157] Top shape: 1024 250 6 6 (9216000)
I0410 23:48:52.452698 15627 net.cpp:165] Memory required for data: 4018855936
I0410 23:48:52.452704 15627 layer_factory.hpp:77] Creating layer conv3_sTanH
I0410 23:48:52.452713 15627 net.cpp:100] Creating Layer conv3_sTanH
I0410 23:48:52.452719 15627 net.cpp:434] conv3_sTanH <- conv3
I0410 23:48:52.452724 15627 net.cpp:395] conv3_sTanH -> conv3 (in-place)
I0410 23:48:52.453675 15627 net.cpp:150] Setting up conv3_sTanH
I0410 23:48:52.453694 15627 net.cpp:157] Top shape: 1024 250 6 6 (9216000)
I0410 23:48:52.453701 15627 net.cpp:165] Memory required for data: 4055719936
I0410 23:48:52.453707 15627 layer_factory.hpp:77] Creating layer conv3_postscale
I0410 23:48:52.453716 15627 net.cpp:100] Creating Layer conv3_postscale
I0410 23:48:52.453721 15627 net.cpp:434] conv3_postscale <- conv3
I0410 23:48:52.453729 15627 net.cpp:395] conv3_postscale -> conv3 (in-place)
I0410 23:48:52.453867 15627 net.cpp:150] Setting up conv3_postscale
I0410 23:48:52.453881 15627 net.cpp:157] Top shape: 1024 250 6 6 (9216000)
I0410 23:48:52.453884 15627 net.cpp:165] Memory required for data: 4092583936
I0410 23:48:52.453891 15627 layer_factory.hpp:77] Creating layer pool3
I0410 23:48:52.453903 15627 net.cpp:100] Creating Layer pool3
I0410 23:48:52.453909 15627 net.cpp:434] pool3 <- conv3
I0410 23:48:52.453917 15627 net.cpp:408] pool3 -> pool3
I0410 23:48:52.453974 15627 net.cpp:150] Setting up pool3
I0410 23:48:52.453985 15627 net.cpp:157] Top shape: 1024 250 3 3 (2304000)
I0410 23:48:52.453989 15627 net.cpp:165] Memory required for data: 4101799936
I0410 23:48:52.453994 15627 layer_factory.hpp:77] Creating layer fc4_300
I0410 23:48:52.454001 15627 net.cpp:100] Creating Layer fc4_300
I0410 23:48:52.454007 15627 net.cpp:434] fc4_300 <- pool3
I0410 23:48:52.454015 15627 net.cpp:408] fc4_300 -> fc4_300
I0410 23:48:52.460726 15627 net.cpp:150] Setting up fc4_300
I0410 23:48:52.460748 15627 net.cpp:157] Top shape: 1024 300 (307200)
I0410 23:48:52.460752 15627 net.cpp:165] Memory required for data: 4103028736
I0410 23:48:52.460760 15627 layer_factory.hpp:77] Creating layer fc4_prescale
I0410 23:48:52.460775 15627 net.cpp:100] Creating Layer fc4_prescale
I0410 23:48:52.460782 15627 net.cpp:434] fc4_prescale <- fc4_300
I0410 23:48:52.460794 15627 net.cpp:395] fc4_prescale -> fc4_300 (in-place)
I0410 23:48:52.460917 15627 net.cpp:150] Setting up fc4_prescale
I0410 23:48:52.460947 15627 net.cpp:157] Top shape: 1024 300 (307200)
I0410 23:48:52.460952 15627 net.cpp:165] Memory required for data: 4104257536
I0410 23:48:52.460958 15627 layer_factory.hpp:77] Creating layer fc4_sTanH
I0410 23:48:52.460966 15627 net.cpp:100] Creating Layer fc4_sTanH
I0410 23:48:52.460970 15627 net.cpp:434] fc4_sTanH <- fc4_300
I0410 23:48:52.460975 15627 net.cpp:395] fc4_sTanH -> fc4_300 (in-place)
I0410 23:48:52.461226 15627 net.cpp:150] Setting up fc4_sTanH
I0410 23:48:52.461242 15627 net.cpp:157] Top shape: 1024 300 (307200)
I0410 23:48:52.461246 15627 net.cpp:165] Memory required for data: 4105486336
I0410 23:48:52.461251 15627 layer_factory.hpp:77] Creating layer fc4_postscale
I0410 23:48:52.461259 15627 net.cpp:100] Creating Layer fc4_postscale
I0410 23:48:52.461266 15627 net.cpp:434] fc4_postscale <- fc4_300
I0410 23:48:52.461275 15627 net.cpp:395] fc4_postscale -> fc4_300 (in-place)
I0410 23:48:52.461406 15627 net.cpp:150] Setting up fc4_postscale
I0410 23:48:52.461417 15627 net.cpp:157] Top shape: 1024 300 (307200)
I0410 23:48:52.461421 15627 net.cpp:165] Memory required for data: 4106715136
I0410 23:48:52.461426 15627 layer_factory.hpp:77] Creating layer drop4
I0410 23:48:52.461436 15627 net.cpp:100] Creating Layer drop4
I0410 23:48:52.461441 15627 net.cpp:434] drop4 <- fc4_300
I0410 23:48:52.461446 15627 net.cpp:395] drop4 -> fc4_300 (in-place)
I0410 23:48:52.461479 15627 net.cpp:150] Setting up drop4
I0410 23:48:52.461488 15627 net.cpp:157] Top shape: 1024 300 (307200)
I0410 23:48:52.461491 15627 net.cpp:165] Memory required for data: 4107943936
I0410 23:48:52.461495 15627 layer_factory.hpp:77] Creating layer fc5_67
I0410 23:48:52.461503 15627 net.cpp:100] Creating Layer fc5_67
I0410 23:48:52.461506 15627 net.cpp:434] fc5_67 <- fc4_300
I0410 23:48:52.461513 15627 net.cpp:408] fc5_67 -> fc5_classes
I0410 23:48:52.461827 15627 net.cpp:150] Setting up fc5_67
I0410 23:48:52.461838 15627 net.cpp:157] Top shape: 1024 67 (68608)
I0410 23:48:52.461840 15627 net.cpp:165] Memory required for data: 4108218368
I0410 23:48:52.461854 15627 layer_factory.hpp:77] Creating layer fc5_classes_fc5_67_0_split
I0410 23:48:52.461864 15627 net.cpp:100] Creating Layer fc5_classes_fc5_67_0_split
I0410 23:48:52.461869 15627 net.cpp:434] fc5_classes_fc5_67_0_split <- fc5_classes
I0410 23:48:52.461874 15627 net.cpp:408] fc5_classes_fc5_67_0_split -> fc5_classes_fc5_67_0_split_0
I0410 23:48:52.461884 15627 net.cpp:408] fc5_classes_fc5_67_0_split -> fc5_classes_fc5_67_0_split_1
I0410 23:48:52.461897 15627 net.cpp:408] fc5_classes_fc5_67_0_split -> fc5_classes_fc5_67_0_split_2
I0410 23:48:52.461966 15627 net.cpp:150] Setting up fc5_classes_fc5_67_0_split
I0410 23:48:52.461974 15627 net.cpp:157] Top shape: 1024 67 (68608)
I0410 23:48:52.461979 15627 net.cpp:157] Top shape: 1024 67 (68608)
I0410 23:48:52.461982 15627 net.cpp:157] Top shape: 1024 67 (68608)
I0410 23:48:52.461985 15627 net.cpp:165] Memory required for data: 4109041664
I0410 23:48:52.461989 15627 layer_factory.hpp:77] Creating layer loss
I0410 23:48:52.461997 15627 net.cpp:100] Creating Layer loss
I0410 23:48:52.462000 15627 net.cpp:434] loss <- fc5_classes_fc5_67_0_split_0
I0410 23:48:52.462005 15627 net.cpp:434] loss <- label_data_1_split_0
I0410 23:48:52.462011 15627 net.cpp:408] loss -> loss
…
