…
I0411 00:00:12.007937 18531 net.cpp:322] The NetState phase (0) differed from the phase (1) specified by a rule in layer accuracy_5
I0411 00:00:12.008087 18531 net.cpp:58] Initializing net from parameters: 
state {
  phase: TRAIN
  level: 0
  stage: ""
}
layer {
  name: "data"
  type: "Data"
  top: "data"
  top: "label"
  include {
    phase: TRAIN
  }
  transform_param {
    mirror: false
    crop_size: 48
    mean_value: 132
    mean_value: 132
    mean_value: 131
  }
  data_param {
    source: "../local_data/lmdb/rtsd-r1/CoNorm/train/lmdb"
    batch_size: 1024
    backend: LMDB
  }
}
layer {
  name: "conv1"
  type: "Convolution"
  bottom: "data"
  top: "conv1"
  convolution_param {
    num_output: 100
    pad: 0
    kernel_size: 7
    group: 1
    stride: 1
    weight_filler {
      type: "xavier"
    }
  }
}
layer {
  name: "conv1_prescale"
  type: "Scale"
  bottom: "conv1"
  top: "conv1"
  param {
    lr_mult: 0
    decay_mult: 0
  }
  scale_param {
    filler {
      value: 0.6666
    }
  }
}
layer {
  name: "conv1_sTanH"
  type: "TanH"
  bottom: "conv1"
  top: "conv1"
}
layer {
  name: "conv1_postscale"
  type: "Scale"
  bottom: "conv1"
  top: "conv1"
  param {
    lr_mult: 0
    decay_mult: 0
  }
  scale_param {
    filler {
      value: 1.7159
    }
  }
}
layer {
  name: "pool1"
  type: "Pooling"
  bottom: "conv1"
  top: "pool1"
  pooling_param {
    pool: MAX
    kernel_size: 2
    stride: 2
  }
}
layer {
  name: "conv2"
  type: "Convolution"
  bottom: "pool1"
  top: "conv2"
  convolution_param {
    num_output: 150
    pad: 0
    kernel_size: 4
    group: 1
    stride: 1
    weight_filler {
      type: "xavier"
    }
  }
}
layer {
  name: "conv2_prescale"
  type: "Scale"
  bottom: "conv2"
  top: "conv2"
  param {
    lr_mult: 0
    decay_mult: 0
  }
  scale_param {
    filler {
      value: 0.6666
    }
  }
}
layer {
  name: "conv2_sTanH"
  type: "TanH"
  bottom: "conv2"
  top: "conv2"
}
layer {
  name: "conv2_postscale"
  type: "Scale"
  bottom: "conv2"
  top: "conv2"
  param {
    lr_mult: 0
    decay_mult: 0
  }
  scale_param {
    filler {
      value: 1.7159
    }
  }
}
layer {
  name: "pool2"
  type: "Pooling"
  bottom: "conv2"
  top: "pool2"
  pooling_param {
    pool: MAX
    kernel_size: 2
    stride: 2
  }
}
layer {
  name: "conv3"
  type: "Convolution"
  bottom: "pool2"
  top: "conv3"
  convolution_param {
    num_output: 250
    pad: 0
    kernel_size: 4
    group: 1
    stride: 1
    weight_filler {
      type: "xavier"
    }
  }
}
layer {
  name: "conv3_prescale"
  type: "Scale"
  bottom: "conv3"
  top: "conv3"
  param {
    lr_mult: 0
    decay_mult: 0
  }
  scale_param {
    filler {
      value: 0.6666
    }
  }
}
layer {
  name: "conv3_sTanH"
  type: "TanH"
  bottom: "conv3"
  top: "conv3"
}
layer {
  name: "conv3_postscale"
  type: "Scale"
  bottom: "conv3"
  top: "conv3"
  param {
    lr_mult: 0
    decay_mult: 0
  }
  scale_param {
    filler {
      value: 1.7159
    }
  }
}
layer {
  name: "pool3"
  type: "Pooling"
  bottom: "conv3"
  top: "pool3"
  pooling_param {
    pool: MAX
    kernel_size: 2
    stride: 2
  }
}
layer {
  name: "fc4_300"
  type: "InnerProduct"
  bottom: "pool3"
  top: "fc4_300"
  inner_product_param {
    num_output: 300
    weight_filler {
      type: "xavier"
    }
  }
}
layer {
  name: "fc4_prescale"
  type: "Scale"
  bottom: "fc4_300"
  top: "fc4_300"
  param {
    lr_mult: 0
    decay_mult: 0
  }
  scale_param {
    filler {
      value: 0.6666
    }
  }
}
layer {
  name: "fc4_sTanH"
  type: "TanH"
  bottom: "fc4_300"
  top: "fc4_300"
}
layer {
  name: "fc4_postscale"
  type: "Scale"
  bottom: "fc4_300"
  top: "fc4_300"
  param {
    lr_mult: 0
    decay_mult: 0
  }
  scale_param {
    filler {
      value: 1.7159
    }
  }
}
layer {
  name: "fc5_67"
  type: "InnerProduct"
  bottom: "fc4_300"
  top: "fc5_classes"
  inner_product_param {
    num_output: 67
    weight_filler {
      type: "xavier"
    }
  }
}
layer {
  name: "loss"
  type: "SoftmaxWithLoss"
  bottom: "fc5_classes"
  bottom: "label"
  top: "loss"
}
I0411 00:00:12.008190 18531 layer_factory.hpp:77] Creating layer data
I0411 00:00:12.009259 18531 net.cpp:100] Creating Layer data
I0411 00:00:12.009274 18531 net.cpp:408] data -> data
I0411 00:00:12.009299 18531 net.cpp:408] data -> label
I0411 00:00:12.010475 18631 db_lmdb.cpp:35] Opened lmdb ../local_data/lmdb/rtsd-r1/CoNorm/train/lmdb
I0411 00:00:12.027328 18531 data_layer.cpp:41] output data size: 1024,3,48,48
I0411 00:00:12.075177 18531 net.cpp:150] Setting up data
I0411 00:00:12.075206 18531 net.cpp:157] Top shape: 1024 3 48 48 (7077888)
I0411 00:00:12.075212 18531 net.cpp:157] Top shape: 1024 (1024)
I0411 00:00:12.075215 18531 net.cpp:165] Memory required for data: 28315648
I0411 00:00:12.075225 18531 layer_factory.hpp:77] Creating layer conv1
I0411 00:00:12.075258 18531 net.cpp:100] Creating Layer conv1
I0411 00:00:12.075265 18531 net.cpp:434] conv1 <- data
I0411 00:00:12.075278 18531 net.cpp:408] conv1 -> conv1
I0411 00:00:12.356227 18531 net.cpp:150] Setting up conv1
I0411 00:00:12.356269 18531 net.cpp:157] Top shape: 1024 100 42 42 (180633600)
I0411 00:00:12.356274 18531 net.cpp:165] Memory required for data: 750850048
I0411 00:00:12.356297 18531 layer_factory.hpp:77] Creating layer conv1_prescale
I0411 00:00:12.356312 18531 net.cpp:100] Creating Layer conv1_prescale
I0411 00:00:12.356317 18531 net.cpp:434] conv1_prescale <- conv1
I0411 00:00:12.356323 18531 net.cpp:395] conv1_prescale -> conv1 (in-place)
I0411 00:00:12.356431 18531 net.cpp:150] Setting up conv1_prescale
I0411 00:00:12.356441 18531 net.cpp:157] Top shape: 1024 100 42 42 (180633600)
I0411 00:00:12.356443 18531 net.cpp:165] Memory required for data: 1473384448
I0411 00:00:12.356451 18531 layer_factory.hpp:77] Creating layer conv1_sTanH
I0411 00:00:12.356458 18531 net.cpp:100] Creating Layer conv1_sTanH
I0411 00:00:12.356463 18531 net.cpp:434] conv1_sTanH <- conv1
I0411 00:00:12.356468 18531 net.cpp:395] conv1_sTanH -> conv1 (in-place)
I0411 00:00:12.356665 18531 net.cpp:150] Setting up conv1_sTanH
I0411 00:00:12.356678 18531 net.cpp:157] Top shape: 1024 100 42 42 (180633600)
I0411 00:00:12.356683 18531 net.cpp:165] Memory required for data: 2195918848
I0411 00:00:12.356686 18531 layer_factory.hpp:77] Creating layer conv1_postscale
I0411 00:00:12.356694 18531 net.cpp:100] Creating Layer conv1_postscale
I0411 00:00:12.356699 18531 net.cpp:434] conv1_postscale <- conv1
I0411 00:00:12.356704 18531 net.cpp:395] conv1_postscale -> conv1 (in-place)
I0411 00:00:12.356798 18531 net.cpp:150] Setting up conv1_postscale
I0411 00:00:12.356806 18531 net.cpp:157] Top shape: 1024 100 42 42 (180633600)
I0411 00:00:12.356809 18531 net.cpp:165] Memory required for data: 2918453248
I0411 00:00:12.356814 18531 layer_factory.hpp:77] Creating layer pool1
I0411 00:00:12.356822 18531 net.cpp:100] Creating Layer pool1
I0411 00:00:12.356827 18531 net.cpp:434] pool1 <- conv1
I0411 00:00:12.356832 18531 net.cpp:408] pool1 -> pool1
I0411 00:00:12.356878 18531 net.cpp:150] Setting up pool1
I0411 00:00:12.356885 18531 net.cpp:157] Top shape: 1024 100 21 21 (45158400)
I0411 00:00:12.356889 18531 net.cpp:165] Memory required for data: 3099086848
I0411 00:00:12.356892 18531 layer_factory.hpp:77] Creating layer conv2
I0411 00:00:12.356901 18531 net.cpp:100] Creating Layer conv2
I0411 00:00:12.356925 18531 net.cpp:434] conv2 <- pool1
I0411 00:00:12.356930 18531 net.cpp:408] conv2 -> conv2
I0411 00:00:12.362280 18531 net.cpp:150] Setting up conv2
I0411 00:00:12.362298 18531 net.cpp:157] Top shape: 1024 150 18 18 (49766400)
I0411 00:00:12.362303 18531 net.cpp:165] Memory required for data: 3298152448
I0411 00:00:12.362313 18531 layer_factory.hpp:77] Creating layer conv2_prescale
I0411 00:00:12.362321 18531 net.cpp:100] Creating Layer conv2_prescale
I0411 00:00:12.362324 18531 net.cpp:434] conv2_prescale <- conv2
I0411 00:00:12.362330 18531 net.cpp:395] conv2_prescale -> conv2 (in-place)
I0411 00:00:12.362434 18531 net.cpp:150] Setting up conv2_prescale
I0411 00:00:12.362444 18531 net.cpp:157] Top shape: 1024 150 18 18 (49766400)
I0411 00:00:12.362447 18531 net.cpp:165] Memory required for data: 3497218048
I0411 00:00:12.362452 18531 layer_factory.hpp:77] Creating layer conv2_sTanH
I0411 00:00:12.362458 18531 net.cpp:100] Creating Layer conv2_sTanH
I0411 00:00:12.362463 18531 net.cpp:434] conv2_sTanH <- conv2
I0411 00:00:12.362468 18531 net.cpp:395] conv2_sTanH -> conv2 (in-place)
I0411 00:00:12.363229 18531 net.cpp:150] Setting up conv2_sTanH
I0411 00:00:12.363245 18531 net.cpp:157] Top shape: 1024 150 18 18 (49766400)
I0411 00:00:12.363250 18531 net.cpp:165] Memory required for data: 3696283648
I0411 00:00:12.363253 18531 layer_factory.hpp:77] Creating layer conv2_postscale
I0411 00:00:12.363260 18531 net.cpp:100] Creating Layer conv2_postscale
I0411 00:00:12.363265 18531 net.cpp:434] conv2_postscale <- conv2
I0411 00:00:12.363270 18531 net.cpp:395] conv2_postscale -> conv2 (in-place)
I0411 00:00:12.363364 18531 net.cpp:150] Setting up conv2_postscale
I0411 00:00:12.363373 18531 net.cpp:157] Top shape: 1024 150 18 18 (49766400)
I0411 00:00:12.363376 18531 net.cpp:165] Memory required for data: 3895349248
I0411 00:00:12.363381 18531 layer_factory.hpp:77] Creating layer pool2
I0411 00:00:12.363387 18531 net.cpp:100] Creating Layer pool2
I0411 00:00:12.363391 18531 net.cpp:434] pool2 <- conv2
I0411 00:00:12.363395 18531 net.cpp:408] pool2 -> pool2
I0411 00:00:12.363435 18531 net.cpp:150] Setting up pool2
I0411 00:00:12.363442 18531 net.cpp:157] Top shape: 1024 150 9 9 (12441600)
I0411 00:00:12.363445 18531 net.cpp:165] Memory required for data: 3945115648
I0411 00:00:12.363448 18531 layer_factory.hpp:77] Creating layer conv3
I0411 00:00:12.363457 18531 net.cpp:100] Creating Layer conv3
I0411 00:00:12.363463 18531 net.cpp:434] conv3 <- pool2
I0411 00:00:12.363468 18531 net.cpp:408] conv3 -> conv3
I0411 00:00:12.369053 18531 net.cpp:150] Setting up conv3
I0411 00:00:12.369086 18531 net.cpp:157] Top shape: 1024 250 6 6 (9216000)
I0411 00:00:12.369091 18531 net.cpp:165] Memory required for data: 3981979648
I0411 00:00:12.369101 18531 layer_factory.hpp:77] Creating layer conv3_prescale
I0411 00:00:12.369108 18531 net.cpp:100] Creating Layer conv3_prescale
I0411 00:00:12.369112 18531 net.cpp:434] conv3_prescale <- conv3
I0411 00:00:12.369122 18531 net.cpp:395] conv3_prescale -> conv3 (in-place)
I0411 00:00:12.369226 18531 net.cpp:150] Setting up conv3_prescale
I0411 00:00:12.369236 18531 net.cpp:157] Top shape: 1024 250 6 6 (9216000)
I0411 00:00:12.369240 18531 net.cpp:165] Memory required for data: 4018843648
I0411 00:00:12.369244 18531 layer_factory.hpp:77] Creating layer conv3_sTanH
I0411 00:00:12.369251 18531 net.cpp:100] Creating Layer conv3_sTanH
I0411 00:00:12.369254 18531 net.cpp:434] conv3_sTanH <- conv3
I0411 00:00:12.369259 18531 net.cpp:395] conv3_sTanH -> conv3 (in-place)
I0411 00:00:12.370033 18531 net.cpp:150] Setting up conv3_sTanH
I0411 00:00:12.370048 18531 net.cpp:157] Top shape: 1024 250 6 6 (9216000)
I0411 00:00:12.370052 18531 net.cpp:165] Memory required for data: 4055707648
I0411 00:00:12.370056 18531 layer_factory.hpp:77] Creating layer conv3_postscale
I0411 00:00:12.370066 18531 net.cpp:100] Creating Layer conv3_postscale
I0411 00:00:12.370070 18531 net.cpp:434] conv3_postscale <- conv3
I0411 00:00:12.370075 18531 net.cpp:395] conv3_postscale -> conv3 (in-place)
I0411 00:00:12.370192 18531 net.cpp:150] Setting up conv3_postscale
I0411 00:00:12.370201 18531 net.cpp:157] Top shape: 1024 250 6 6 (9216000)
I0411 00:00:12.370204 18531 net.cpp:165] Memory required for data: 4092571648
I0411 00:00:12.370210 18531 layer_factory.hpp:77] Creating layer pool3
I0411 00:00:12.370218 18531 net.cpp:100] Creating Layer pool3
I0411 00:00:12.370223 18531 net.cpp:434] pool3 <- conv3
I0411 00:00:12.370230 18531 net.cpp:408] pool3 -> pool3
I0411 00:00:12.370272 18531 net.cpp:150] Setting up pool3
I0411 00:00:12.370281 18531 net.cpp:157] Top shape: 1024 250 3 3 (2304000)
I0411 00:00:12.370286 18531 net.cpp:165] Memory required for data: 4101787648
I0411 00:00:12.370290 18531 layer_factory.hpp:77] Creating layer fc4_300
I0411 00:00:12.370299 18531 net.cpp:100] Creating Layer fc4_300
I0411 00:00:12.370304 18531 net.cpp:434] fc4_300 <- pool3
I0411 00:00:12.370309 18531 net.cpp:408] fc4_300 -> fc4_300
I0411 00:00:12.375696 18531 net.cpp:150] Setting up fc4_300
I0411 00:00:12.375712 18531 net.cpp:157] Top shape: 1024 300 (307200)
I0411 00:00:12.375715 18531 net.cpp:165] Memory required for data: 4103016448
I0411 00:00:12.375722 18531 layer_factory.hpp:77] Creating layer fc4_prescale
I0411 00:00:12.375742 18531 net.cpp:100] Creating Layer fc4_prescale
I0411 00:00:12.375747 18531 net.cpp:434] fc4_prescale <- fc4_300
I0411 00:00:12.375756 18531 net.cpp:395] fc4_prescale -> fc4_300 (in-place)
I0411 00:00:12.375844 18531 net.cpp:150] Setting up fc4_prescale
I0411 00:00:12.375854 18531 net.cpp:157] Top shape: 1024 300 (307200)
I0411 00:00:12.375856 18531 net.cpp:165] Memory required for data: 4104245248
I0411 00:00:12.375861 18531 layer_factory.hpp:77] Creating layer fc4_sTanH
I0411 00:00:12.375866 18531 net.cpp:100] Creating Layer fc4_sTanH
I0411 00:00:12.375871 18531 net.cpp:434] fc4_sTanH <- fc4_300
I0411 00:00:12.375875 18531 net.cpp:395] fc4_sTanH -> fc4_300 (in-place)
I0411 00:00:12.376075 18531 net.cpp:150] Setting up fc4_sTanH
I0411 00:00:12.376088 18531 net.cpp:157] Top shape: 1024 300 (307200)
I0411 00:00:12.376092 18531 net.cpp:165] Memory required for data: 4105474048
I0411 00:00:12.376096 18531 layer_factory.hpp:77] Creating layer fc4_postscale
I0411 00:00:12.376103 18531 net.cpp:100] Creating Layer fc4_postscale
I0411 00:00:12.376107 18531 net.cpp:434] fc4_postscale <- fc4_300
I0411 00:00:12.376114 18531 net.cpp:395] fc4_postscale -> fc4_300 (in-place)
I0411 00:00:12.376222 18531 net.cpp:150] Setting up fc4_postscale
I0411 00:00:12.376231 18531 net.cpp:157] Top shape: 1024 300 (307200)
I0411 00:00:12.376235 18531 net.cpp:165] Memory required for data: 4106702848
I0411 00:00:12.376240 18531 layer_factory.hpp:77] Creating layer fc5_67
I0411 00:00:12.376247 18531 net.cpp:100] Creating Layer fc5_67
I0411 00:00:12.376252 18531 net.cpp:434] fc5_67 <- fc4_300
I0411 00:00:12.376260 18531 net.cpp:408] fc5_67 -> fc5_classes
I0411 00:00:12.377511 18531 net.cpp:150] Setting up fc5_67
I0411 00:00:12.377526 18531 net.cpp:157] Top shape: 1024 67 (68608)
I0411 00:00:12.377532 18531 net.cpp:165] Memory required for data: 4106977280
I0411 00:00:12.377542 18531 layer_factory.hpp:77] Creating layer loss
I0411 00:00:12.377552 18531 net.cpp:100] Creating Layer loss
I0411 00:00:12.377557 18531 net.cpp:434] loss <- fc5_classes
I0411 00:00:12.377562 18531 net.cpp:434] loss <- label
I0411 00:00:12.377568 18531 net.cpp:408] loss -> loss
I0411 00:00:12.377581 18531 layer_factory.hpp:77] Creating layer loss
…
I0411 00:00:12.378332 18531 solver.cpp:193] Creating test net (#0) specified by test_net file: ./Prototxt/experiment_8/rtsd-r1/CoNorm/trial_1/test.prototxt
I0411 00:00:12.378509 18531 net.cpp:58] Initializing net from parameters: 
state {
  phase: TEST
}
layer {
  name: "data"
  type: "Data"
  top: "data"
  top: "label"
  include {
    phase: TEST
  }
  transform_param {
    mirror: false
    crop_size: 48
    mean_value: 133
    mean_value: 133
    mean_value: 132
  }
  data_param {
    source: "../local_data/lmdb/rtsd-r1/CoNorm/test/lmdb"
    batch_size: 1024
    backend: LMDB
  }
}
layer {
  name: "conv1"
  type: "Convolution"
  bottom: "data"
  top: "conv1"
  convolution_param {
    num_output: 100
    pad: 0
    kernel_size: 7
    group: 1
    stride: 1
    weight_filler {
      type: "xavier"
    }
  }
}
layer {
  name: "conv1_prescale"
  type: "Scale"
  bottom: "conv1"
  top: "conv1"
  param {
    lr_mult: 0
    decay_mult: 0
  }
  scale_param {
    filler {
      value: 0.6666
    }
  }
}
layer {
  name: "conv1_sTanH"
  type: "TanH"
  bottom: "conv1"
  top: "conv1"
}
layer {
  name: "conv1_postscale"
  type: "Scale"
  bottom: "conv1"
  top: "conv1"
  param {
    lr_mult: 0
    decay_mult: 0
  }
  scale_param {
    filler {
      value: 1.7159
    }
  }
}
layer {
  name: "pool1"
  type: "Pooling"
  bottom: "conv1"
  top: "pool1"
  pooling_param {
    pool: MAX
    kernel_size: 2
    stride: 2
  }
}
layer {
  name: "conv2"
  type: "Convolution"
  bottom: "pool1"
  top: "conv2"
  convolution_param {
    num_output: 150
    pad: 0
    kernel_size: 4
    group: 1
    stride: 1
    weight_filler {
      type: "xavier"
    }
  }
}
layer {
  name: "conv2_prescale"
  type: "Scale"
  bottom: "conv2"
  top: "conv2"
  param {
    lr_mult: 0
    decay_mult: 0
  }
  scale_param {
    filler {
      value: 0.6666
    }
  }
}
layer {
  name: "conv2_sTanH"
  type: "TanH"
  bottom: "conv2"
  top: "conv2"
}
layer {
  name: "conv2_postscale"
  type: "Scale"
  bottom: "conv2"
  top: "conv2"
  param {
    lr_mult: 0
    decay_mult: 0
  }
  scale_param {
    filler {
      value: 1.7159
    }
  }
}
layer {
  name: "pool2"
  type: "Pooling"
  bottom: "conv2"
  top: "pool2"
  pooling_param {
    pool: MAX
    kernel_size: 2
    stride: 2
  }
}
layer {
  name: "conv3"
  type: "Convolution"
  bottom: "pool2"
  top: "conv3"
  convolution_param {
    num_output: 250
    pad: 0
    kernel_size: 4
    group: 1
    stride: 1
    weight_filler {
      type: "xavier"
    }
  }
}
layer {
  name: "conv3_prescale"
  type: "Scale"
  bottom: "conv3"
  top: "conv3"
  param {
    lr_mult: 0
    decay_mult: 0
  }
  scale_param {
    filler {
      value: 0.6666
    }
  }
}
layer {
  name: "conv3_sTanH"
  type: "TanH"
  bottom: "conv3"
  top: "conv3"
}
layer {
  name: "conv3_postscale"
  type: "Scale"
  bottom: "conv3"
  top: "conv3"
  param {
    lr_mult: 0
    decay_mult: 0
  }
  scale_param {
    filler {
      value: 1.7159
    }
  }
}
layer {
  name: "pool3"
  type: "Pooling"
  bottom: "conv3"
  top: "pool3"
  pooling_param {
    pool: MAX
    kernel_size: 2
    stride: 2
  }
}
layer {
  name: "fc4_300"
  type: "InnerProduct"
  bottom: "pool3"
  top: "fc4_300"
  inner_product_param {
    num_output: 300
    weight_filler {
      type: "xavier"
    }
  }
}
layer {
  name: "fc4_prescale"
  type: "Scale"
  bottom: "fc4_300"
  top: "fc4_300"
  param {
    lr_mult: 0
    decay_mult: 0
  }
  scale_param {
    filler {
      value: 0.6666
    }
  }
}
layer {
  name: "fc4_sTanH"
  type: "TanH"
  bottom: "fc4_300"
  top: "fc4_300"
}
layer {
  name: "fc4_postscale"
  type: "Scale"
  bottom: "fc4_300"
  top: "fc4_300"
  param {
    lr_mult: 0
    decay_mult: 0
  }
  scale_param {
    filler {
      value: 1.7159
    }
  }
}
layer {
  name: "fc5_67"
  type: "InnerProduct"
  bottom: "fc4_300"
  top: "fc5_classes"
  inner_product_param {
    num_output: 67
    weight_filler {
      type: "xavier"
    }
  }
}
layer {
  name: "loss"
  type: "SoftmaxWithLoss"
  bottom: "fc5_classes"
  bottom: "label"
  top: "loss"
}
layer {
  name: "accuracy_1"
  type: "Accuracy"
  bottom: "fc5_classes"
  bottom: "label"
  top: "accuracy_1"
  include {
    phase: TEST
  }
  accuracy_param {
    top_k: 1
  }
}
layer {
  name: "accuracy_5"
  type: "Accuracy"
  bottom: "fc5_classes"
  bottom: "label"
  top: "accuracy_5"
  include {
    phase: TEST
  }
  accuracy_param {
    top_k: 5
  }
}
I0411 00:00:12.378630 18531 layer_factory.hpp:77] Creating layer data
I0411 00:00:12.379530 18531 net.cpp:100] Creating Layer data
I0411 00:00:12.379544 18531 net.cpp:408] data -> data
I0411 00:00:12.379565 18531 net.cpp:408] data -> label
I0411 00:00:12.380647 18667 db_lmdb.cpp:35] Opened lmdb ../local_data/lmdb/rtsd-r1/CoNorm/test/lmdb
I0411 00:00:12.380789 18531 data_layer.cpp:41] output data size: 1024,3,48,48
I0411 00:00:12.438446 18531 net.cpp:150] Setting up data
I0411 00:00:12.438472 18531 net.cpp:157] Top shape: 1024 3 48 48 (7077888)
I0411 00:00:12.438478 18531 net.cpp:157] Top shape: 1024 (1024)
I0411 00:00:12.438482 18531 net.cpp:165] Memory required for data: 28315648
I0411 00:00:12.438488 18531 layer_factory.hpp:77] Creating layer label_data_1_split
I0411 00:00:12.438503 18531 net.cpp:100] Creating Layer label_data_1_split
I0411 00:00:12.438508 18531 net.cpp:434] label_data_1_split <- label
I0411 00:00:12.438515 18531 net.cpp:408] label_data_1_split -> label_data_1_split_0
I0411 00:00:12.438527 18531 net.cpp:408] label_data_1_split -> label_data_1_split_1
I0411 00:00:12.438535 18531 net.cpp:408] label_data_1_split -> label_data_1_split_2
I0411 00:00:12.438639 18531 net.cpp:150] Setting up label_data_1_split
I0411 00:00:12.438648 18531 net.cpp:157] Top shape: 1024 (1024)
I0411 00:00:12.438652 18531 net.cpp:157] Top shape: 1024 (1024)
I0411 00:00:12.438657 18531 net.cpp:157] Top shape: 1024 (1024)
I0411 00:00:12.438658 18531 net.cpp:165] Memory required for data: 28327936
I0411 00:00:12.438663 18531 layer_factory.hpp:77] Creating layer conv1
I0411 00:00:12.438678 18531 net.cpp:100] Creating Layer conv1
I0411 00:00:12.438683 18531 net.cpp:434] conv1 <- data
I0411 00:00:12.438693 18531 net.cpp:408] conv1 -> conv1
I0411 00:00:12.442201 18531 net.cpp:150] Setting up conv1
I0411 00:00:12.442221 18531 net.cpp:157] Top shape: 1024 100 42 42 (180633600)
I0411 00:00:12.442225 18531 net.cpp:165] Memory required for data: 750862336
I0411 00:00:12.442237 18531 layer_factory.hpp:77] Creating layer conv1_prescale
I0411 00:00:12.442250 18531 net.cpp:100] Creating Layer conv1_prescale
I0411 00:00:12.442255 18531 net.cpp:434] conv1_prescale <- conv1
I0411 00:00:12.442260 18531 net.cpp:395] conv1_prescale -> conv1 (in-place)
I0411 00:00:12.442396 18531 net.cpp:150] Setting up conv1_prescale
I0411 00:00:12.442406 18531 net.cpp:157] Top shape: 1024 100 42 42 (180633600)
I0411 00:00:12.442409 18531 net.cpp:165] Memory required for data: 1473396736
I0411 00:00:12.442417 18531 layer_factory.hpp:77] Creating layer conv1_sTanH
I0411 00:00:12.442428 18531 net.cpp:100] Creating Layer conv1_sTanH
I0411 00:00:12.442433 18531 net.cpp:434] conv1_sTanH <- conv1
I0411 00:00:12.442438 18531 net.cpp:395] conv1_sTanH -> conv1 (in-place)
I0411 00:00:12.444952 18531 net.cpp:150] Setting up conv1_sTanH
I0411 00:00:12.444975 18531 net.cpp:157] Top shape: 1024 100 42 42 (180633600)
I0411 00:00:12.444979 18531 net.cpp:165] Memory required for data: 2195931136
I0411 00:00:12.444983 18531 layer_factory.hpp:77] Creating layer conv1_postscale
I0411 00:00:12.444991 18531 net.cpp:100] Creating Layer conv1_postscale
I0411 00:00:12.444996 18531 net.cpp:434] conv1_postscale <- conv1
I0411 00:00:12.445004 18531 net.cpp:395] conv1_postscale -> conv1 (in-place)
I0411 00:00:12.445132 18531 net.cpp:150] Setting up conv1_postscale
I0411 00:00:12.445143 18531 net.cpp:157] Top shape: 1024 100 42 42 (180633600)
I0411 00:00:12.445147 18531 net.cpp:165] Memory required for data: 2918465536
I0411 00:00:12.445152 18531 layer_factory.hpp:77] Creating layer pool1
I0411 00:00:12.445160 18531 net.cpp:100] Creating Layer pool1
I0411 00:00:12.445163 18531 net.cpp:434] pool1 <- conv1
I0411 00:00:12.445170 18531 net.cpp:408] pool1 -> pool1
I0411 00:00:12.445217 18531 net.cpp:150] Setting up pool1
I0411 00:00:12.445230 18531 net.cpp:157] Top shape: 1024 100 21 21 (45158400)
I0411 00:00:12.445233 18531 net.cpp:165] Memory required for data: 3099099136
I0411 00:00:12.445236 18531 layer_factory.hpp:77] Creating layer conv2
I0411 00:00:12.445246 18531 net.cpp:100] Creating Layer conv2
I0411 00:00:12.445251 18531 net.cpp:434] conv2 <- pool1
I0411 00:00:12.445257 18531 net.cpp:408] conv2 -> conv2
I0411 00:00:12.451841 18531 net.cpp:150] Setting up conv2
I0411 00:00:12.451861 18531 net.cpp:157] Top shape: 1024 150 18 18 (49766400)
I0411 00:00:12.451865 18531 net.cpp:165] Memory required for data: 3298164736
I0411 00:00:12.451889 18531 layer_factory.hpp:77] Creating layer conv2_prescale
I0411 00:00:12.451903 18531 net.cpp:100] Creating Layer conv2_prescale
I0411 00:00:12.451908 18531 net.cpp:434] conv2_prescale <- conv2
I0411 00:00:12.451915 18531 net.cpp:395] conv2_prescale -> conv2 (in-place)
I0411 00:00:12.452029 18531 net.cpp:150] Setting up conv2_prescale
I0411 00:00:12.452040 18531 net.cpp:157] Top shape: 1024 150 18 18 (49766400)
I0411 00:00:12.452044 18531 net.cpp:165] Memory required for data: 3497230336
I0411 00:00:12.452049 18531 layer_factory.hpp:77] Creating layer conv2_sTanH
I0411 00:00:12.452055 18531 net.cpp:100] Creating Layer conv2_sTanH
I0411 00:00:12.452060 18531 net.cpp:434] conv2_sTanH <- conv2
I0411 00:00:12.452067 18531 net.cpp:395] conv2_sTanH -> conv2 (in-place)
I0411 00:00:12.453699 18531 net.cpp:150] Setting up conv2_sTanH
I0411 00:00:12.453719 18531 net.cpp:157] Top shape: 1024 150 18 18 (49766400)
I0411 00:00:12.453723 18531 net.cpp:165] Memory required for data: 3696295936
I0411 00:00:12.453727 18531 layer_factory.hpp:77] Creating layer conv2_postscale
I0411 00:00:12.453740 18531 net.cpp:100] Creating Layer conv2_postscale
I0411 00:00:12.453745 18531 net.cpp:434] conv2_postscale <- conv2
I0411 00:00:12.453750 18531 net.cpp:395] conv2_postscale -> conv2 (in-place)
I0411 00:00:12.453861 18531 net.cpp:150] Setting up conv2_postscale
I0411 00:00:12.453871 18531 net.cpp:157] Top shape: 1024 150 18 18 (49766400)
I0411 00:00:12.453874 18531 net.cpp:165] Memory required for data: 3895361536
I0411 00:00:12.453881 18531 layer_factory.hpp:77] Creating layer pool2
I0411 00:00:12.453896 18531 net.cpp:100] Creating Layer pool2
I0411 00:00:12.453902 18531 net.cpp:434] pool2 <- conv2
I0411 00:00:12.453909 18531 net.cpp:408] pool2 -> pool2
I0411 00:00:12.453974 18531 net.cpp:150] Setting up pool2
I0411 00:00:12.453982 18531 net.cpp:157] Top shape: 1024 150 9 9 (12441600)
I0411 00:00:12.454000 18531 net.cpp:165] Memory required for data: 3945127936
I0411 00:00:12.454005 18531 layer_factory.hpp:77] Creating layer conv3
I0411 00:00:12.454017 18531 net.cpp:100] Creating Layer conv3
I0411 00:00:12.454022 18531 net.cpp:434] conv3 <- pool2
I0411 00:00:12.454028 18531 net.cpp:408] conv3 -> conv3
I0411 00:00:12.460141 18531 net.cpp:150] Setting up conv3
I0411 00:00:12.460160 18531 net.cpp:157] Top shape: 1024 250 6 6 (9216000)
I0411 00:00:12.460165 18531 net.cpp:165] Memory required for data: 3981991936
I0411 00:00:12.460176 18531 layer_factory.hpp:77] Creating layer conv3_prescale
I0411 00:00:12.460186 18531 net.cpp:100] Creating Layer conv3_prescale
I0411 00:00:12.460189 18531 net.cpp:434] conv3_prescale <- conv3
I0411 00:00:12.460194 18531 net.cpp:395] conv3_prescale -> conv3 (in-place)
I0411 00:00:12.460299 18531 net.cpp:150] Setting up conv3_prescale
I0411 00:00:12.460309 18531 net.cpp:157] Top shape: 1024 250 6 6 (9216000)
I0411 00:00:12.460312 18531 net.cpp:165] Memory required for data: 4018855936
I0411 00:00:12.460317 18531 layer_factory.hpp:77] Creating layer conv3_sTanH
I0411 00:00:12.460325 18531 net.cpp:100] Creating Layer conv3_sTanH
I0411 00:00:12.460330 18531 net.cpp:434] conv3_sTanH <- conv3
I0411 00:00:12.460335 18531 net.cpp:395] conv3_sTanH -> conv3 (in-place)
I0411 00:00:12.461125 18531 net.cpp:150] Setting up conv3_sTanH
I0411 00:00:12.461143 18531 net.cpp:157] Top shape: 1024 250 6 6 (9216000)
I0411 00:00:12.461146 18531 net.cpp:165] Memory required for data: 4055719936
I0411 00:00:12.461151 18531 layer_factory.hpp:77] Creating layer conv3_postscale
I0411 00:00:12.461163 18531 net.cpp:100] Creating Layer conv3_postscale
I0411 00:00:12.461168 18531 net.cpp:434] conv3_postscale <- conv3
I0411 00:00:12.461175 18531 net.cpp:395] conv3_postscale -> conv3 (in-place)
I0411 00:00:12.461280 18531 net.cpp:150] Setting up conv3_postscale
I0411 00:00:12.461292 18531 net.cpp:157] Top shape: 1024 250 6 6 (9216000)
I0411 00:00:12.461295 18531 net.cpp:165] Memory required for data: 4092583936
I0411 00:00:12.461300 18531 layer_factory.hpp:77] Creating layer pool3
I0411 00:00:12.461313 18531 net.cpp:100] Creating Layer pool3
I0411 00:00:12.461318 18531 net.cpp:434] pool3 <- conv3
I0411 00:00:12.461324 18531 net.cpp:408] pool3 -> pool3
I0411 00:00:12.461366 18531 net.cpp:150] Setting up pool3
I0411 00:00:12.461375 18531 net.cpp:157] Top shape: 1024 250 3 3 (2304000)
I0411 00:00:12.461380 18531 net.cpp:165] Memory required for data: 4101799936
I0411 00:00:12.461385 18531 layer_factory.hpp:77] Creating layer fc4_300
I0411 00:00:12.461390 18531 net.cpp:100] Creating Layer fc4_300
I0411 00:00:12.461395 18531 net.cpp:434] fc4_300 <- pool3
I0411 00:00:12.461400 18531 net.cpp:408] fc4_300 -> fc4_300
I0411 00:00:12.466820 18531 net.cpp:150] Setting up fc4_300
I0411 00:00:12.466840 18531 net.cpp:157] Top shape: 1024 300 (307200)
I0411 00:00:12.466845 18531 net.cpp:165] Memory required for data: 4103028736
I0411 00:00:12.466852 18531 layer_factory.hpp:77] Creating layer fc4_prescale
I0411 00:00:12.466866 18531 net.cpp:100] Creating Layer fc4_prescale
I0411 00:00:12.466871 18531 net.cpp:434] fc4_prescale <- fc4_300
I0411 00:00:12.466876 18531 net.cpp:395] fc4_prescale -> fc4_300 (in-place)
I0411 00:00:12.466972 18531 net.cpp:150] Setting up fc4_prescale
I0411 00:00:12.466981 18531 net.cpp:157] Top shape: 1024 300 (307200)
I0411 00:00:12.466984 18531 net.cpp:165] Memory required for data: 4104257536
I0411 00:00:12.466989 18531 layer_factory.hpp:77] Creating layer fc4_sTanH
I0411 00:00:12.466996 18531 net.cpp:100] Creating Layer fc4_sTanH
I0411 00:00:12.467001 18531 net.cpp:434] fc4_sTanH <- fc4_300
I0411 00:00:12.467006 18531 net.cpp:395] fc4_sTanH -> fc4_300 (in-place)
I0411 00:00:12.467208 18531 net.cpp:150] Setting up fc4_sTanH
I0411 00:00:12.467221 18531 net.cpp:157] Top shape: 1024 300 (307200)
I0411 00:00:12.467226 18531 net.cpp:165] Memory required for data: 4105486336
I0411 00:00:12.467231 18531 layer_factory.hpp:77] Creating layer fc4_postscale
I0411 00:00:12.467238 18531 net.cpp:100] Creating Layer fc4_postscale
I0411 00:00:12.467257 18531 net.cpp:434] fc4_postscale <- fc4_300
I0411 00:00:12.467263 18531 net.cpp:395] fc4_postscale -> fc4_300 (in-place)
I0411 00:00:12.467371 18531 net.cpp:150] Setting up fc4_postscale
I0411 00:00:12.467381 18531 net.cpp:157] Top shape: 1024 300 (307200)
I0411 00:00:12.467384 18531 net.cpp:165] Memory required for data: 4106715136
I0411 00:00:12.467389 18531 layer_factory.hpp:77] Creating layer fc5_67
I0411 00:00:12.467398 18531 net.cpp:100] Creating Layer fc5_67
I0411 00:00:12.467403 18531 net.cpp:434] fc5_67 <- fc4_300
I0411 00:00:12.467411 18531 net.cpp:408] fc5_67 -> fc5_classes
I0411 00:00:12.467667 18531 net.cpp:150] Setting up fc5_67
I0411 00:00:12.467677 18531 net.cpp:157] Top shape: 1024 67 (68608)
I0411 00:00:12.467679 18531 net.cpp:165] Memory required for data: 4106989568
I0411 00:00:12.467692 18531 layer_factory.hpp:77] Creating layer fc5_classes_fc5_67_0_split
I0411 00:00:12.467701 18531 net.cpp:100] Creating Layer fc5_classes_fc5_67_0_split
I0411 00:00:12.467705 18531 net.cpp:434] fc5_classes_fc5_67_0_split <- fc5_classes
I0411 00:00:12.467710 18531 net.cpp:408] fc5_classes_fc5_67_0_split -> fc5_classes_fc5_67_0_split_0
I0411 00:00:12.467717 18531 net.cpp:408] fc5_classes_fc5_67_0_split -> fc5_classes_fc5_67_0_split_1
I0411 00:00:12.467732 18531 net.cpp:408] fc5_classes_fc5_67_0_split -> fc5_classes_fc5_67_0_split_2
I0411 00:00:12.467788 18531 net.cpp:150] Setting up fc5_classes_fc5_67_0_split
I0411 00:00:12.467797 18531 net.cpp:157] Top shape: 1024 67 (68608)
I0411 00:00:12.467799 18531 net.cpp:157] Top shape: 1024 67 (68608)
I0411 00:00:12.467803 18531 net.cpp:157] Top shape: 1024 67 (68608)
I0411 00:00:12.467805 18531 net.cpp:165] Memory required for data: 4107812864
I0411 00:00:12.467808 18531 layer_factory.hpp:77] Creating layer loss
I0411 00:00:12.467816 18531 net.cpp:100] Creating Layer loss
I0411 00:00:12.467820 18531 net.cpp:434] loss <- fc5_classes_fc5_67_0_split_0
I0411 00:00:12.467825 18531 net.cpp:434] loss <- label_data_1_split_0
I0411 00:00:12.467829 18531 net.cpp:408] loss -> loss
…
