…
I0410 23:58:46.523325 10258 net.cpp:322] The NetState phase (0) differed from the phase (1) specified by a rule in layer accuracy_5
I0410 23:58:46.523461 10258 net.cpp:58] Initializing net from parameters: 
state {
  phase: TRAIN
  level: 0
  stage: ""
}
layer {
  name: "data"
  type: "Data"
  top: "data"
  top: "label"
  include {
    phase: TRAIN
  }
  transform_param {
    mirror: false
    crop_size: 48
    mean_value: 132
    mean_value: 132
    mean_value: 131
  }
  data_param {
    source: "../local_data/lmdb/rtsd-r1/CoNorm/train/lmdb"
    batch_size: 1024
    backend: LMDB
  }
}
layer {
  name: "conv1"
  type: "Convolution"
  bottom: "data"
  top: "conv1"
  convolution_param {
    num_output: 100
    pad: 0
    kernel_size: 7
    group: 1
    stride: 1
    weight_filler {
      type: "xavier"
    }
  }
}
layer {
  name: "conv1_prescale"
  type: "Scale"
  bottom: "conv1"
  top: "conv1"
  param {
    lr_mult: 0
    decay_mult: 0
  }
  scale_param {
    filler {
      value: 0.6666
    }
  }
}
layer {
  name: "conv1_sTanH"
  type: "TanH"
  bottom: "conv1"
  top: "conv1"
}
layer {
  name: "conv1_postscale"
  type: "Scale"
  bottom: "conv1"
  top: "conv1"
  param {
    lr_mult: 0
    decay_mult: 0
  }
  scale_param {
    filler {
      value: 1.7159
    }
  }
}
layer {
  name: "pool1"
  type: "Pooling"
  bottom: "conv1"
  top: "pool1"
  pooling_param {
    pool: MAX
    kernel_size: 2
    stride: 2
  }
}
layer {
  name: "conv2"
  type: "Convolution"
  bottom: "pool1"
  top: "conv2"
  convolution_param {
    num_output: 150
    pad: 0
    kernel_size: 4
    group: 1
    stride: 1
    weight_filler {
      type: "xavier"
    }
  }
}
layer {
  name: "conv2_prescale"
  type: "Scale"
  bottom: "conv2"
  top: "conv2"
  param {
    lr_mult: 0
    decay_mult: 0
  }
  scale_param {
    filler {
      value: 0.6666
    }
  }
}
layer {
  name: "conv2_sTanH"
  type: "TanH"
  bottom: "conv2"
  top: "conv2"
}
layer {
  name: "conv2_postscale"
  type: "Scale"
  bottom: "conv2"
  top: "conv2"
  param {
    lr_mult: 0
    decay_mult: 0
  }
  scale_param {
    filler {
      value: 1.7159
    }
  }
}
layer {
  name: "pool2"
  type: "Pooling"
  bottom: "conv2"
  top: "pool2"
  pooling_param {
    pool: MAX
    kernel_size: 2
    stride: 2
  }
}
layer {
  name: "conv3"
  type: "Convolution"
  bottom: "pool2"
  top: "conv3"
  convolution_param {
    num_output: 250
    pad: 0
    kernel_size: 4
    group: 1
    stride: 1
    weight_filler {
      type: "xavier"
    }
  }
}
layer {
  name: "conv3_prescale"
  type: "Scale"
  bottom: "conv3"
  top: "conv3"
  param {
    lr_mult: 0
    decay_mult: 0
  }
  scale_param {
    filler {
      value: 0.6666
    }
  }
}
layer {
  name: "conv3_sTanH"
  type: "TanH"
  bottom: "conv3"
  top: "conv3"
}
layer {
  name: "conv3_postscale"
  type: "Scale"
  bottom: "conv3"
  top: "conv3"
  param {
    lr_mult: 0
    decay_mult: 0
  }
  scale_param {
    filler {
      value: 1.7159
    }
  }
}
layer {
  name: "pool3"
  type: "Pooling"
  bottom: "conv3"
  top: "pool3"
  pooling_param {
    pool: MAX
    kernel_size: 2
    stride: 2
  }
}
layer {
  name: "fc4_300"
  type: "InnerProduct"
  bottom: "pool3"
  top: "fc4_300"
  inner_product_param {
    num_output: 300
    weight_filler {
      type: "xavier"
    }
  }
}
layer {
  name: "fc4_prescale"
  type: "Scale"
  bottom: "fc4_300"
  top: "fc4_300"
  param {
    lr_mult: 0
    decay_mult: 0
  }
  scale_param {
    filler {
      value: 0.6666
    }
  }
}
layer {
  name: "fc4_sTanH"
  type: "TanH"
  bottom: "fc4_300"
  top: "fc4_300"
}
layer {
  name: "fc4_postscale"
  type: "Scale"
  bottom: "fc4_300"
  top: "fc4_300"
  param {
    lr_mult: 0
    decay_mult: 0
  }
  scale_param {
    filler {
      value: 1.7159
    }
  }
}
layer {
  name: "fc5_67"
  type: "InnerProduct"
  bottom: "fc4_300"
  top: "fc5_classes"
  inner_product_param {
    num_output: 67
    weight_filler {
      type: "xavier"
    }
  }
}
layer {
  name: "loss"
  type: "SoftmaxWithLoss"
  bottom: "fc5_classes"
  bottom: "label"
  top: "loss"
}
I0410 23:58:46.523566 10258 layer_factory.hpp:77] Creating layer data
I0410 23:58:46.524632 10258 net.cpp:100] Creating Layer data
I0410 23:58:46.524648 10258 net.cpp:408] data -> data
I0410 23:58:46.524672 10258 net.cpp:408] data -> label
I0410 23:58:46.525759 10362 db_lmdb.cpp:35] Opened lmdb ../local_data/lmdb/rtsd-r1/CoNorm/train/lmdb
I0410 23:58:46.542794 10258 data_layer.cpp:41] output data size: 1024,3,48,48
I0410 23:58:46.588137 10258 net.cpp:150] Setting up data
I0410 23:58:46.588168 10258 net.cpp:157] Top shape: 1024 3 48 48 (7077888)
I0410 23:58:46.588174 10258 net.cpp:157] Top shape: 1024 (1024)
I0410 23:58:46.588177 10258 net.cpp:165] Memory required for data: 28315648
I0410 23:58:46.588187 10258 layer_factory.hpp:77] Creating layer conv1
I0410 23:58:46.588212 10258 net.cpp:100] Creating Layer conv1
I0410 23:58:46.588220 10258 net.cpp:434] conv1 <- data
I0410 23:58:46.588237 10258 net.cpp:408] conv1 -> conv1
I0410 23:58:46.864841 10258 net.cpp:150] Setting up conv1
I0410 23:58:46.864881 10258 net.cpp:157] Top shape: 1024 100 42 42 (180633600)
I0410 23:58:46.864884 10258 net.cpp:165] Memory required for data: 750850048
I0410 23:58:46.864907 10258 layer_factory.hpp:77] Creating layer conv1_prescale
I0410 23:58:46.864920 10258 net.cpp:100] Creating Layer conv1_prescale
I0410 23:58:46.864926 10258 net.cpp:434] conv1_prescale <- conv1
I0410 23:58:46.864934 10258 net.cpp:395] conv1_prescale -> conv1 (in-place)
I0410 23:58:46.865042 10258 net.cpp:150] Setting up conv1_prescale
I0410 23:58:46.865051 10258 net.cpp:157] Top shape: 1024 100 42 42 (180633600)
I0410 23:58:46.865054 10258 net.cpp:165] Memory required for data: 1473384448
I0410 23:58:46.865061 10258 layer_factory.hpp:77] Creating layer conv1_sTanH
I0410 23:58:46.865068 10258 net.cpp:100] Creating Layer conv1_sTanH
I0410 23:58:46.865073 10258 net.cpp:434] conv1_sTanH <- conv1
I0410 23:58:46.865078 10258 net.cpp:395] conv1_sTanH -> conv1 (in-place)
I0410 23:58:46.865272 10258 net.cpp:150] Setting up conv1_sTanH
I0410 23:58:46.865283 10258 net.cpp:157] Top shape: 1024 100 42 42 (180633600)
I0410 23:58:46.865288 10258 net.cpp:165] Memory required for data: 2195918848
I0410 23:58:46.865290 10258 layer_factory.hpp:77] Creating layer conv1_postscale
I0410 23:58:46.865298 10258 net.cpp:100] Creating Layer conv1_postscale
I0410 23:58:46.865303 10258 net.cpp:434] conv1_postscale <- conv1
I0410 23:58:46.865309 10258 net.cpp:395] conv1_postscale -> conv1 (in-place)
I0410 23:58:46.865403 10258 net.cpp:150] Setting up conv1_postscale
I0410 23:58:46.865411 10258 net.cpp:157] Top shape: 1024 100 42 42 (180633600)
I0410 23:58:46.865414 10258 net.cpp:165] Memory required for data: 2918453248
I0410 23:58:46.865419 10258 layer_factory.hpp:77] Creating layer pool1
I0410 23:58:46.865427 10258 net.cpp:100] Creating Layer pool1
I0410 23:58:46.865430 10258 net.cpp:434] pool1 <- conv1
I0410 23:58:46.865435 10258 net.cpp:408] pool1 -> pool1
I0410 23:58:46.865483 10258 net.cpp:150] Setting up pool1
I0410 23:58:46.865491 10258 net.cpp:157] Top shape: 1024 100 21 21 (45158400)
I0410 23:58:46.865494 10258 net.cpp:165] Memory required for data: 3099086848
I0410 23:58:46.865497 10258 layer_factory.hpp:77] Creating layer conv2
I0410 23:58:46.865506 10258 net.cpp:100] Creating Layer conv2
I0410 23:58:46.865528 10258 net.cpp:434] conv2 <- pool1
I0410 23:58:46.865535 10258 net.cpp:408] conv2 -> conv2
I0410 23:58:46.872174 10258 net.cpp:150] Setting up conv2
I0410 23:58:46.872190 10258 net.cpp:157] Top shape: 1024 150 18 18 (49766400)
I0410 23:58:46.872195 10258 net.cpp:165] Memory required for data: 3298152448
I0410 23:58:46.872205 10258 layer_factory.hpp:77] Creating layer conv2_prescale
I0410 23:58:46.872212 10258 net.cpp:100] Creating Layer conv2_prescale
I0410 23:58:46.872215 10258 net.cpp:434] conv2_prescale <- conv2
I0410 23:58:46.872221 10258 net.cpp:395] conv2_prescale -> conv2 (in-place)
I0410 23:58:46.872325 10258 net.cpp:150] Setting up conv2_prescale
I0410 23:58:46.872334 10258 net.cpp:157] Top shape: 1024 150 18 18 (49766400)
I0410 23:58:46.872337 10258 net.cpp:165] Memory required for data: 3497218048
I0410 23:58:46.872342 10258 layer_factory.hpp:77] Creating layer conv2_sTanH
I0410 23:58:46.872349 10258 net.cpp:100] Creating Layer conv2_sTanH
I0410 23:58:46.872354 10258 net.cpp:434] conv2_sTanH <- conv2
I0410 23:58:46.872359 10258 net.cpp:395] conv2_sTanH -> conv2 (in-place)
I0410 23:58:46.873246 10258 net.cpp:150] Setting up conv2_sTanH
I0410 23:58:46.873262 10258 net.cpp:157] Top shape: 1024 150 18 18 (49766400)
I0410 23:58:46.873265 10258 net.cpp:165] Memory required for data: 3696283648
I0410 23:58:46.873270 10258 layer_factory.hpp:77] Creating layer conv2_postscale
I0410 23:58:46.873276 10258 net.cpp:100] Creating Layer conv2_postscale
I0410 23:58:46.873280 10258 net.cpp:434] conv2_postscale <- conv2
I0410 23:58:46.873286 10258 net.cpp:395] conv2_postscale -> conv2 (in-place)
I0410 23:58:46.873379 10258 net.cpp:150] Setting up conv2_postscale
I0410 23:58:46.873389 10258 net.cpp:157] Top shape: 1024 150 18 18 (49766400)
I0410 23:58:46.873391 10258 net.cpp:165] Memory required for data: 3895349248
I0410 23:58:46.873396 10258 layer_factory.hpp:77] Creating layer pool2
I0410 23:58:46.873402 10258 net.cpp:100] Creating Layer pool2
I0410 23:58:46.873406 10258 net.cpp:434] pool2 <- conv2
I0410 23:58:46.873412 10258 net.cpp:408] pool2 -> pool2
I0410 23:58:46.873456 10258 net.cpp:150] Setting up pool2
I0410 23:58:46.873464 10258 net.cpp:157] Top shape: 1024 150 9 9 (12441600)
I0410 23:58:46.873467 10258 net.cpp:165] Memory required for data: 3945115648
I0410 23:58:46.873471 10258 layer_factory.hpp:77] Creating layer conv3
I0410 23:58:46.873478 10258 net.cpp:100] Creating Layer conv3
I0410 23:58:46.873482 10258 net.cpp:434] conv3 <- pool2
I0410 23:58:46.873488 10258 net.cpp:408] conv3 -> conv3
I0410 23:58:46.879175 10258 net.cpp:150] Setting up conv3
I0410 23:58:46.879191 10258 net.cpp:157] Top shape: 1024 250 6 6 (9216000)
I0410 23:58:46.879195 10258 net.cpp:165] Memory required for data: 3981979648
I0410 23:58:46.879209 10258 layer_factory.hpp:77] Creating layer conv3_prescale
I0410 23:58:46.879216 10258 net.cpp:100] Creating Layer conv3_prescale
I0410 23:58:46.879220 10258 net.cpp:434] conv3_prescale <- conv3
I0410 23:58:46.879226 10258 net.cpp:395] conv3_prescale -> conv3 (in-place)
I0410 23:58:46.879329 10258 net.cpp:150] Setting up conv3_prescale
I0410 23:58:46.879340 10258 net.cpp:157] Top shape: 1024 250 6 6 (9216000)
I0410 23:58:46.879343 10258 net.cpp:165] Memory required for data: 4018843648
I0410 23:58:46.879348 10258 layer_factory.hpp:77] Creating layer conv3_sTanH
I0410 23:58:46.879354 10258 net.cpp:100] Creating Layer conv3_sTanH
I0410 23:58:46.879356 10258 net.cpp:434] conv3_sTanH <- conv3
I0410 23:58:46.879361 10258 net.cpp:395] conv3_sTanH -> conv3 (in-place)
I0410 23:58:46.880594 10258 net.cpp:150] Setting up conv3_sTanH
I0410 23:58:46.880611 10258 net.cpp:157] Top shape: 1024 250 6 6 (9216000)
I0410 23:58:46.880615 10258 net.cpp:165] Memory required for data: 4055707648
I0410 23:58:46.880619 10258 layer_factory.hpp:77] Creating layer conv3_postscale
I0410 23:58:46.880625 10258 net.cpp:100] Creating Layer conv3_postscale
I0410 23:58:46.880628 10258 net.cpp:434] conv3_postscale <- conv3
I0410 23:58:46.880636 10258 net.cpp:395] conv3_postscale -> conv3 (in-place)
I0410 23:58:46.880753 10258 net.cpp:150] Setting up conv3_postscale
I0410 23:58:46.880762 10258 net.cpp:157] Top shape: 1024 250 6 6 (9216000)
I0410 23:58:46.880766 10258 net.cpp:165] Memory required for data: 4092571648
I0410 23:58:46.880771 10258 layer_factory.hpp:77] Creating layer pool3
I0410 23:58:46.880779 10258 net.cpp:100] Creating Layer pool3
I0410 23:58:46.880784 10258 net.cpp:434] pool3 <- conv3
I0410 23:58:46.880790 10258 net.cpp:408] pool3 -> pool3
I0410 23:58:46.880831 10258 net.cpp:150] Setting up pool3
I0410 23:58:46.880839 10258 net.cpp:157] Top shape: 1024 250 3 3 (2304000)
I0410 23:58:46.880842 10258 net.cpp:165] Memory required for data: 4101787648
I0410 23:58:46.880846 10258 layer_factory.hpp:77] Creating layer fc4_300
I0410 23:58:46.880856 10258 net.cpp:100] Creating Layer fc4_300
I0410 23:58:46.880859 10258 net.cpp:434] fc4_300 <- pool3
I0410 23:58:46.880869 10258 net.cpp:408] fc4_300 -> fc4_300
I0410 23:58:46.886265 10258 net.cpp:150] Setting up fc4_300
I0410 23:58:46.886283 10258 net.cpp:157] Top shape: 1024 300 (307200)
I0410 23:58:46.886288 10258 net.cpp:165] Memory required for data: 4103016448
I0410 23:58:46.886296 10258 layer_factory.hpp:77] Creating layer fc4_prescale
I0410 23:58:46.886303 10258 net.cpp:100] Creating Layer fc4_prescale
I0410 23:58:46.886309 10258 net.cpp:434] fc4_prescale <- fc4_300
I0410 23:58:46.886317 10258 net.cpp:395] fc4_prescale -> fc4_300 (in-place)
I0410 23:58:46.886410 10258 net.cpp:150] Setting up fc4_prescale
I0410 23:58:46.886420 10258 net.cpp:157] Top shape: 1024 300 (307200)
I0410 23:58:46.886422 10258 net.cpp:165] Memory required for data: 4104245248
I0410 23:58:46.886426 10258 layer_factory.hpp:77] Creating layer fc4_sTanH
I0410 23:58:46.886432 10258 net.cpp:100] Creating Layer fc4_sTanH
I0410 23:58:46.886435 10258 net.cpp:434] fc4_sTanH <- fc4_300
I0410 23:58:46.886440 10258 net.cpp:395] fc4_sTanH -> fc4_300 (in-place)
I0410 23:58:46.886632 10258 net.cpp:150] Setting up fc4_sTanH
I0410 23:58:46.886644 10258 net.cpp:157] Top shape: 1024 300 (307200)
I0410 23:58:46.886649 10258 net.cpp:165] Memory required for data: 4105474048
I0410 23:58:46.886653 10258 layer_factory.hpp:77] Creating layer fc4_postscale
I0410 23:58:46.886660 10258 net.cpp:100] Creating Layer fc4_postscale
I0410 23:58:46.886663 10258 net.cpp:434] fc4_postscale <- fc4_300
I0410 23:58:46.886672 10258 net.cpp:395] fc4_postscale -> fc4_300 (in-place)
I0410 23:58:46.886792 10258 net.cpp:150] Setting up fc4_postscale
I0410 23:58:46.886811 10258 net.cpp:157] Top shape: 1024 300 (307200)
I0410 23:58:46.886816 10258 net.cpp:165] Memory required for data: 4106702848
I0410 23:58:46.886822 10258 layer_factory.hpp:77] Creating layer fc5_67
I0410 23:58:46.886828 10258 net.cpp:100] Creating Layer fc5_67
I0410 23:58:46.886833 10258 net.cpp:434] fc5_67 <- fc4_300
I0410 23:58:46.886839 10258 net.cpp:408] fc5_67 -> fc5_classes
I0410 23:58:46.888115 10258 net.cpp:150] Setting up fc5_67
I0410 23:58:46.888131 10258 net.cpp:157] Top shape: 1024 67 (68608)
I0410 23:58:46.888135 10258 net.cpp:165] Memory required for data: 4106977280
I0410 23:58:46.888145 10258 layer_factory.hpp:77] Creating layer loss
I0410 23:58:46.888155 10258 net.cpp:100] Creating Layer loss
I0410 23:58:46.888160 10258 net.cpp:434] loss <- fc5_classes
I0410 23:58:46.888165 10258 net.cpp:434] loss <- label
I0410 23:58:46.888173 10258 net.cpp:408] loss -> loss
I0410 23:58:46.888188 10258 layer_factory.hpp:77] Creating layer loss
…
I0410 23:58:46.888941 10258 solver.cpp:193] Creating test net (#0) specified by test_net file: ./Prototxt/experiment_8/rtsd-r1/CoNorm/trial_1/test.prototxt
I0410 23:58:46.889116 10258 net.cpp:58] Initializing net from parameters: 
state {
  phase: TEST
}
layer {
  name: "data"
  type: "Data"
  top: "data"
  top: "label"
  include {
    phase: TEST
  }
  transform_param {
    mirror: false
    crop_size: 48
    mean_value: 133
    mean_value: 133
    mean_value: 132
  }
  data_param {
    source: "../local_data/lmdb/rtsd-r1/CoNorm/test/lmdb"
    batch_size: 1024
    backend: LMDB
  }
}
layer {
  name: "conv1"
  type: "Convolution"
  bottom: "data"
  top: "conv1"
  convolution_param {
    num_output: 100
    pad: 0
    kernel_size: 7
    group: 1
    stride: 1
    weight_filler {
      type: "xavier"
    }
  }
}
layer {
  name: "conv1_prescale"
  type: "Scale"
  bottom: "conv1"
  top: "conv1"
  param {
    lr_mult: 0
    decay_mult: 0
  }
  scale_param {
    filler {
      value: 0.6666
    }
  }
}
layer {
  name: "conv1_sTanH"
  type: "TanH"
  bottom: "conv1"
  top: "conv1"
}
layer {
  name: "conv1_postscale"
  type: "Scale"
  bottom: "conv1"
  top: "conv1"
  param {
    lr_mult: 0
    decay_mult: 0
  }
  scale_param {
    filler {
      value: 1.7159
    }
  }
}
layer {
  name: "pool1"
  type: "Pooling"
  bottom: "conv1"
  top: "pool1"
  pooling_param {
    pool: MAX
    kernel_size: 2
    stride: 2
  }
}
layer {
  name: "conv2"
  type: "Convolution"
  bottom: "pool1"
  top: "conv2"
  convolution_param {
    num_output: 150
    pad: 0
    kernel_size: 4
    group: 1
    stride: 1
    weight_filler {
      type: "xavier"
    }
  }
}
layer {
  name: "conv2_prescale"
  type: "Scale"
  bottom: "conv2"
  top: "conv2"
  param {
    lr_mult: 0
    decay_mult: 0
  }
  scale_param {
    filler {
      value: 0.6666
    }
  }
}
layer {
  name: "conv2_sTanH"
  type: "TanH"
  bottom: "conv2"
  top: "conv2"
}
layer {
  name: "conv2_postscale"
  type: "Scale"
  bottom: "conv2"
  top: "conv2"
  param {
    lr_mult: 0
    decay_mult: 0
  }
  scale_param {
    filler {
      value: 1.7159
    }
  }
}
layer {
  name: "pool2"
  type: "Pooling"
  bottom: "conv2"
  top: "pool2"
  pooling_param {
    pool: MAX
    kernel_size: 2
    stride: 2
  }
}
layer {
  name: "conv3"
  type: "Convolution"
  bottom: "pool2"
  top: "conv3"
  convolution_param {
    num_output: 250
    pad: 0
    kernel_size: 4
    group: 1
    stride: 1
    weight_filler {
      type: "xavier"
    }
  }
}
layer {
  name: "conv3_prescale"
  type: "Scale"
  bottom: "conv3"
  top: "conv3"
  param {
    lr_mult: 0
    decay_mult: 0
  }
  scale_param {
    filler {
      value: 0.6666
    }
  }
}
layer {
  name: "conv3_sTanH"
  type: "TanH"
  bottom: "conv3"
  top: "conv3"
}
layer {
  name: "conv3_postscale"
  type: "Scale"
  bottom: "conv3"
  top: "conv3"
  param {
    lr_mult: 0
    decay_mult: 0
  }
  scale_param {
    filler {
      value: 1.7159
    }
  }
}
layer {
  name: "pool3"
  type: "Pooling"
  bottom: "conv3"
  top: "pool3"
  pooling_param {
    pool: MAX
    kernel_size: 2
    stride: 2
  }
}
layer {
  name: "fc4_300"
  type: "InnerProduct"
  bottom: "pool3"
  top: "fc4_300"
  inner_product_param {
    num_output: 300
    weight_filler {
      type: "xavier"
    }
  }
}
layer {
  name: "fc4_prescale"
  type: "Scale"
  bottom: "fc4_300"
  top: "fc4_300"
  param {
    lr_mult: 0
    decay_mult: 0
  }
  scale_param {
    filler {
      value: 0.6666
    }
  }
}
layer {
  name: "fc4_sTanH"
  type: "TanH"
  bottom: "fc4_300"
  top: "fc4_300"
}
layer {
  name: "fc4_postscale"
  type: "Scale"
  bottom: "fc4_300"
  top: "fc4_300"
  param {
    lr_mult: 0
    decay_mult: 0
  }
  scale_param {
    filler {
      value: 1.7159
    }
  }
}
layer {
  name: "fc5_67"
  type: "InnerProduct"
  bottom: "fc4_300"
  top: "fc5_classes"
  inner_product_param {
    num_output: 67
    weight_filler {
      type: "xavier"
    }
  }
}
layer {
  name: "loss"
  type: "SoftmaxWithLoss"
  bottom: "fc5_classes"
  bottom: "label"
  top: "loss"
}
layer {
  name: "accuracy_1"
  type: "Accuracy"
  bottom: "fc5_classes"
  bottom: "label"
  top: "accuracy_1"
  include {
    phase: TEST
  }
  accuracy_param {
    top_k: 1
  }
}
layer {
  name: "accuracy_5"
  type: "Accuracy"
  bottom: "fc5_classes"
  bottom: "label"
  top: "accuracy_5"
  include {
    phase: TEST
  }
  accuracy_param {
    top_k: 5
  }
}
I0410 23:58:46.889240 10258 layer_factory.hpp:77] Creating layer data
I0410 23:58:46.889907 10258 net.cpp:100] Creating Layer data
I0410 23:58:46.889919 10258 net.cpp:408] data -> data
I0410 23:58:46.889930 10258 net.cpp:408] data -> label
I0410 23:58:46.891059 10397 db_lmdb.cpp:35] Opened lmdb ../local_data/lmdb/rtsd-r1/CoNorm/test/lmdb
I0410 23:58:46.891193 10258 data_layer.cpp:41] output data size: 1024,3,48,48
I0410 23:58:46.940397 10258 net.cpp:150] Setting up data
I0410 23:58:46.940423 10258 net.cpp:157] Top shape: 1024 3 48 48 (7077888)
I0410 23:58:46.940429 10258 net.cpp:157] Top shape: 1024 (1024)
I0410 23:58:46.940433 10258 net.cpp:165] Memory required for data: 28315648
I0410 23:58:46.940438 10258 layer_factory.hpp:77] Creating layer label_data_1_split
I0410 23:58:46.940454 10258 net.cpp:100] Creating Layer label_data_1_split
I0410 23:58:46.940457 10258 net.cpp:434] label_data_1_split <- label
I0410 23:58:46.940465 10258 net.cpp:408] label_data_1_split -> label_data_1_split_0
I0410 23:58:46.940477 10258 net.cpp:408] label_data_1_split -> label_data_1_split_1
I0410 23:58:46.940486 10258 net.cpp:408] label_data_1_split -> label_data_1_split_2
I0410 23:58:46.940678 10258 net.cpp:150] Setting up label_data_1_split
I0410 23:58:46.940688 10258 net.cpp:157] Top shape: 1024 (1024)
I0410 23:58:46.940692 10258 net.cpp:157] Top shape: 1024 (1024)
I0410 23:58:46.940696 10258 net.cpp:157] Top shape: 1024 (1024)
I0410 23:58:46.940698 10258 net.cpp:165] Memory required for data: 28327936
I0410 23:58:46.940701 10258 layer_factory.hpp:77] Creating layer conv1
I0410 23:58:46.940716 10258 net.cpp:100] Creating Layer conv1
I0410 23:58:46.940721 10258 net.cpp:434] conv1 <- data
I0410 23:58:46.940728 10258 net.cpp:408] conv1 -> conv1
I0410 23:58:46.942929 10258 net.cpp:150] Setting up conv1
I0410 23:58:46.942945 10258 net.cpp:157] Top shape: 1024 100 42 42 (180633600)
I0410 23:58:46.942948 10258 net.cpp:165] Memory required for data: 750862336
I0410 23:58:46.942960 10258 layer_factory.hpp:77] Creating layer conv1_prescale
I0410 23:58:46.942970 10258 net.cpp:100] Creating Layer conv1_prescale
I0410 23:58:46.942973 10258 net.cpp:434] conv1_prescale <- conv1
I0410 23:58:46.942980 10258 net.cpp:395] conv1_prescale -> conv1 (in-place)
I0410 23:58:46.943131 10258 net.cpp:150] Setting up conv1_prescale
I0410 23:58:46.943143 10258 net.cpp:157] Top shape: 1024 100 42 42 (180633600)
I0410 23:58:46.943146 10258 net.cpp:165] Memory required for data: 1473396736
I0410 23:58:46.943155 10258 layer_factory.hpp:77] Creating layer conv1_sTanH
I0410 23:58:46.943166 10258 net.cpp:100] Creating Layer conv1_sTanH
I0410 23:58:46.943171 10258 net.cpp:434] conv1_sTanH <- conv1
I0410 23:58:46.943176 10258 net.cpp:395] conv1_sTanH -> conv1 (in-place)
I0410 23:58:46.943384 10258 net.cpp:150] Setting up conv1_sTanH
I0410 23:58:46.943397 10258 net.cpp:157] Top shape: 1024 100 42 42 (180633600)
I0410 23:58:46.943401 10258 net.cpp:165] Memory required for data: 2195931136
I0410 23:58:46.943404 10258 layer_factory.hpp:77] Creating layer conv1_postscale
I0410 23:58:46.943411 10258 net.cpp:100] Creating Layer conv1_postscale
I0410 23:58:46.943415 10258 net.cpp:434] conv1_postscale <- conv1
I0410 23:58:46.943425 10258 net.cpp:395] conv1_postscale -> conv1 (in-place)
I0410 23:58:46.943545 10258 net.cpp:150] Setting up conv1_postscale
I0410 23:58:46.943554 10258 net.cpp:157] Top shape: 1024 100 42 42 (180633600)
I0410 23:58:46.943557 10258 net.cpp:165] Memory required for data: 2918465536
I0410 23:58:46.943562 10258 layer_factory.hpp:77] Creating layer pool1
I0410 23:58:46.943570 10258 net.cpp:100] Creating Layer pool1
I0410 23:58:46.943575 10258 net.cpp:434] pool1 <- conv1
I0410 23:58:46.943583 10258 net.cpp:408] pool1 -> pool1
I0410 23:58:46.943631 10258 net.cpp:150] Setting up pool1
I0410 23:58:46.943639 10258 net.cpp:157] Top shape: 1024 100 21 21 (45158400)
I0410 23:58:46.943644 10258 net.cpp:165] Memory required for data: 3099099136
I0410 23:58:46.943646 10258 layer_factory.hpp:77] Creating layer conv2
I0410 23:58:46.943655 10258 net.cpp:100] Creating Layer conv2
I0410 23:58:46.943660 10258 net.cpp:434] conv2 <- pool1
I0410 23:58:46.943667 10258 net.cpp:408] conv2 -> conv2
I0410 23:58:46.956271 10258 net.cpp:150] Setting up conv2
I0410 23:58:46.956295 10258 net.cpp:157] Top shape: 1024 150 18 18 (49766400)
I0410 23:58:46.956300 10258 net.cpp:165] Memory required for data: 3298164736
I0410 23:58:46.956320 10258 layer_factory.hpp:77] Creating layer conv2_prescale
I0410 23:58:46.956341 10258 net.cpp:100] Creating Layer conv2_prescale
I0410 23:58:46.956347 10258 net.cpp:434] conv2_prescale <- conv2
I0410 23:58:46.956357 10258 net.cpp:395] conv2_prescale -> conv2 (in-place)
I0410 23:58:46.956473 10258 net.cpp:150] Setting up conv2_prescale
I0410 23:58:46.956482 10258 net.cpp:157] Top shape: 1024 150 18 18 (49766400)
I0410 23:58:46.956485 10258 net.cpp:165] Memory required for data: 3497230336
I0410 23:58:46.956490 10258 layer_factory.hpp:77] Creating layer conv2_sTanH
I0410 23:58:46.956499 10258 net.cpp:100] Creating Layer conv2_sTanH
I0410 23:58:46.956503 10258 net.cpp:434] conv2_sTanH <- conv2
I0410 23:58:46.956523 10258 net.cpp:395] conv2_sTanH -> conv2 (in-place)
I0410 23:58:46.963857 10258 net.cpp:150] Setting up conv2_sTanH
I0410 23:58:46.963889 10258 net.cpp:157] Top shape: 1024 150 18 18 (49766400)
I0410 23:58:46.963896 10258 net.cpp:165] Memory required for data: 3696295936
I0410 23:58:46.963899 10258 layer_factory.hpp:77] Creating layer conv2_postscale
I0410 23:58:46.963907 10258 net.cpp:100] Creating Layer conv2_postscale
I0410 23:58:46.963910 10258 net.cpp:434] conv2_postscale <- conv2
I0410 23:58:46.963918 10258 net.cpp:395] conv2_postscale -> conv2 (in-place)
I0410 23:58:46.964049 10258 net.cpp:150] Setting up conv2_postscale
I0410 23:58:46.964061 10258 net.cpp:157] Top shape: 1024 150 18 18 (49766400)
I0410 23:58:46.964064 10258 net.cpp:165] Memory required for data: 3895361536
I0410 23:58:46.964069 10258 layer_factory.hpp:77] Creating layer pool2
I0410 23:58:46.964077 10258 net.cpp:100] Creating Layer pool2
I0410 23:58:46.964082 10258 net.cpp:434] pool2 <- conv2
I0410 23:58:46.964089 10258 net.cpp:408] pool2 -> pool2
I0410 23:58:46.964143 10258 net.cpp:150] Setting up pool2
I0410 23:58:46.964154 10258 net.cpp:157] Top shape: 1024 150 9 9 (12441600)
I0410 23:58:46.964177 10258 net.cpp:165] Memory required for data: 3945127936
I0410 23:58:46.964182 10258 layer_factory.hpp:77] Creating layer conv3
I0410 23:58:46.964195 10258 net.cpp:100] Creating Layer conv3
I0410 23:58:46.964198 10258 net.cpp:434] conv3 <- pool2
I0410 23:58:46.964205 10258 net.cpp:408] conv3 -> conv3
I0410 23:58:46.970651 10258 net.cpp:150] Setting up conv3
I0410 23:58:46.970669 10258 net.cpp:157] Top shape: 1024 250 6 6 (9216000)
I0410 23:58:46.970674 10258 net.cpp:165] Memory required for data: 3981991936
I0410 23:58:46.970691 10258 layer_factory.hpp:77] Creating layer conv3_prescale
I0410 23:58:46.970703 10258 net.cpp:100] Creating Layer conv3_prescale
I0410 23:58:46.970710 10258 net.cpp:434] conv3_prescale <- conv3
I0410 23:58:46.970716 10258 net.cpp:395] conv3_prescale -> conv3 (in-place)
I0410 23:58:46.970825 10258 net.cpp:150] Setting up conv3_prescale
I0410 23:58:46.970835 10258 net.cpp:157] Top shape: 1024 250 6 6 (9216000)
I0410 23:58:46.970839 10258 net.cpp:165] Memory required for data: 4018855936
I0410 23:58:46.970844 10258 layer_factory.hpp:77] Creating layer conv3_sTanH
I0410 23:58:46.970850 10258 net.cpp:100] Creating Layer conv3_sTanH
I0410 23:58:46.970854 10258 net.cpp:434] conv3_sTanH <- conv3
I0410 23:58:46.970860 10258 net.cpp:395] conv3_sTanH -> conv3 (in-place)
I0410 23:58:46.971791 10258 net.cpp:150] Setting up conv3_sTanH
I0410 23:58:46.971807 10258 net.cpp:157] Top shape: 1024 250 6 6 (9216000)
I0410 23:58:46.971812 10258 net.cpp:165] Memory required for data: 4055719936
I0410 23:58:46.971820 10258 layer_factory.hpp:77] Creating layer conv3_postscale
I0410 23:58:46.971832 10258 net.cpp:100] Creating Layer conv3_postscale
I0410 23:58:46.971842 10258 net.cpp:434] conv3_postscale <- conv3
I0410 23:58:46.971848 10258 net.cpp:395] conv3_postscale -> conv3 (in-place)
I0410 23:58:46.971981 10258 net.cpp:150] Setting up conv3_postscale
I0410 23:58:46.971992 10258 net.cpp:157] Top shape: 1024 250 6 6 (9216000)
I0410 23:58:46.971995 10258 net.cpp:165] Memory required for data: 4092583936
I0410 23:58:46.972002 10258 layer_factory.hpp:77] Creating layer pool3
I0410 23:58:46.972013 10258 net.cpp:100] Creating Layer pool3
I0410 23:58:46.972018 10258 net.cpp:434] pool3 <- conv3
I0410 23:58:46.972025 10258 net.cpp:408] pool3 -> pool3
I0410 23:58:46.972072 10258 net.cpp:150] Setting up pool3
I0410 23:58:46.972081 10258 net.cpp:157] Top shape: 1024 250 3 3 (2304000)
I0410 23:58:46.972085 10258 net.cpp:165] Memory required for data: 4101799936
I0410 23:58:46.972090 10258 layer_factory.hpp:77] Creating layer fc4_300
I0410 23:58:46.972097 10258 net.cpp:100] Creating Layer fc4_300
I0410 23:58:46.972101 10258 net.cpp:434] fc4_300 <- pool3
I0410 23:58:46.972106 10258 net.cpp:408] fc4_300 -> fc4_300
I0410 23:58:46.978018 10258 net.cpp:150] Setting up fc4_300
I0410 23:58:46.978034 10258 net.cpp:157] Top shape: 1024 300 (307200)
I0410 23:58:46.978037 10258 net.cpp:165] Memory required for data: 4103028736
I0410 23:58:46.978045 10258 layer_factory.hpp:77] Creating layer fc4_prescale
I0410 23:58:46.978060 10258 net.cpp:100] Creating Layer fc4_prescale
I0410 23:58:46.978063 10258 net.cpp:434] fc4_prescale <- fc4_300
I0410 23:58:46.978070 10258 net.cpp:395] fc4_prescale -> fc4_300 (in-place)
I0410 23:58:46.978173 10258 net.cpp:150] Setting up fc4_prescale
I0410 23:58:46.978183 10258 net.cpp:157] Top shape: 1024 300 (307200)
I0410 23:58:46.978185 10258 net.cpp:165] Memory required for data: 4104257536
I0410 23:58:46.978190 10258 layer_factory.hpp:77] Creating layer fc4_sTanH
I0410 23:58:46.978198 10258 net.cpp:100] Creating Layer fc4_sTanH
I0410 23:58:46.978201 10258 net.cpp:434] fc4_sTanH <- fc4_300
I0410 23:58:46.978205 10258 net.cpp:395] fc4_sTanH -> fc4_300 (in-place)
I0410 23:58:46.978425 10258 net.cpp:150] Setting up fc4_sTanH
I0410 23:58:46.978437 10258 net.cpp:157] Top shape: 1024 300 (307200)
I0410 23:58:46.978440 10258 net.cpp:165] Memory required for data: 4105486336
I0410 23:58:46.978443 10258 layer_factory.hpp:77] Creating layer fc4_postscale
I0410 23:58:46.978451 10258 net.cpp:100] Creating Layer fc4_postscale
I0410 23:58:46.978472 10258 net.cpp:434] fc4_postscale <- fc4_300
I0410 23:58:46.978479 10258 net.cpp:395] fc4_postscale -> fc4_300 (in-place)
I0410 23:58:46.978591 10258 net.cpp:150] Setting up fc4_postscale
I0410 23:58:46.978600 10258 net.cpp:157] Top shape: 1024 300 (307200)
I0410 23:58:46.978605 10258 net.cpp:165] Memory required for data: 4106715136
I0410 23:58:46.978610 10258 layer_factory.hpp:77] Creating layer fc5_67
I0410 23:58:46.978615 10258 net.cpp:100] Creating Layer fc5_67
I0410 23:58:46.978619 10258 net.cpp:434] fc5_67 <- fc4_300
I0410 23:58:46.978626 10258 net.cpp:408] fc5_67 -> fc5_classes
I0410 23:58:46.978888 10258 net.cpp:150] Setting up fc5_67
I0410 23:58:46.978898 10258 net.cpp:157] Top shape: 1024 67 (68608)
I0410 23:58:46.978901 10258 net.cpp:165] Memory required for data: 4106989568
I0410 23:58:46.978911 10258 layer_factory.hpp:77] Creating layer fc5_classes_fc5_67_0_split
I0410 23:58:46.978920 10258 net.cpp:100] Creating Layer fc5_classes_fc5_67_0_split
I0410 23:58:46.978924 10258 net.cpp:434] fc5_classes_fc5_67_0_split <- fc5_classes
I0410 23:58:46.978929 10258 net.cpp:408] fc5_classes_fc5_67_0_split -> fc5_classes_fc5_67_0_split_0
I0410 23:58:46.978936 10258 net.cpp:408] fc5_classes_fc5_67_0_split -> fc5_classes_fc5_67_0_split_1
I0410 23:58:46.978943 10258 net.cpp:408] fc5_classes_fc5_67_0_split -> fc5_classes_fc5_67_0_split_2
I0410 23:58:46.978998 10258 net.cpp:150] Setting up fc5_classes_fc5_67_0_split
I0410 23:58:46.979005 10258 net.cpp:157] Top shape: 1024 67 (68608)
I0410 23:58:46.979009 10258 net.cpp:157] Top shape: 1024 67 (68608)
I0410 23:58:46.979013 10258 net.cpp:157] Top shape: 1024 67 (68608)
I0410 23:58:46.979015 10258 net.cpp:165] Memory required for data: 4107812864
I0410 23:58:46.979018 10258 layer_factory.hpp:77] Creating layer loss
I0410 23:58:46.979025 10258 net.cpp:100] Creating Layer loss
I0410 23:58:46.979029 10258 net.cpp:434] loss <- fc5_classes_fc5_67_0_split_0
I0410 23:58:46.979033 10258 net.cpp:434] loss <- label_data_1_split_0
I0410 23:58:46.979038 10258 net.cpp:408] loss -> loss
…
