…
I0411 01:30:04.722177   684 net.cpp:322] The NetState phase (0) differed from the phase (1) specified by a rule in layer accuracy_5
I0411 01:30:04.722350   684 net.cpp:58] Initializing net from parameters: 
state {
  phase: TRAIN
  level: 0
  stage: ""
}
layer {
  name: "data"
  type: "Data"
  top: "data"
  top: "label"
  include {
    phase: TRAIN
  }
  transform_param {
    scale: 0.0039215689
    mirror: false
    crop_size: 48
    mean_value: 132
    mean_value: 132
    mean_value: 131
  }
  data_param {
    source: "../local_data/lmdb/rtsd-r1/CoNorm/train/lmdb"
    batch_size: 1024
    backend: LMDB
  }
}
layer {
  name: "conv1"
  type: "Convolution"
  bottom: "data"
  top: "conv1"
  convolution_param {
    num_output: 100
    pad: 0
    kernel_size: 7
    group: 1
    stride: 1
    weight_filler {
      type: "xavier"
    }
  }
}
layer {
  name: "conv1_prescale"
  type: "Scale"
  bottom: "conv1"
  top: "conv1"
  param {
    lr_mult: 0
    decay_mult: 0
  }
  scale_param {
    filler {
      value: 0.6666
    }
    bias_term: false
  }
}
layer {
  name: "conv1_sTanH"
  type: "TanH"
  bottom: "conv1"
  top: "conv1"
}
layer {
  name: "conv1_postscale"
  type: "Scale"
  bottom: "conv1"
  top: "conv1"
  param {
    lr_mult: 0
    decay_mult: 0
  }
  scale_param {
    filler {
      value: 1.7159
    }
    bias_term: false
  }
}
layer {
  name: "pool1"
  type: "Pooling"
  bottom: "conv1"
  top: "pool1"
  pooling_param {
    pool: MAX
    kernel_size: 2
    stride: 2
  }
}
layer {
  name: "conv2"
  type: "Convolution"
  bottom: "pool1"
  top: "conv2"
  convolution_param {
    num_output: 150
    pad: 0
    kernel_size: 4
    group: 1
    stride: 1
    weight_filler {
      type: "xavier"
    }
  }
}
layer {
  name: "conv2_prescale"
  type: "Scale"
  bottom: "conv2"
  top: "conv2"
  param {
    lr_mult: 0
    decay_mult: 0
  }
  scale_param {
    filler {
      value: 0.6666
    }
    bias_term: false
  }
}
layer {
  name: "conv2_sTanH"
  type: "TanH"
  bottom: "conv2"
  top: "conv2"
}
layer {
  name: "conv2_postscale"
  type: "Scale"
  bottom: "conv2"
  top: "conv2"
  param {
    lr_mult: 0
    decay_mult: 0
  }
  scale_param {
    filler {
      value: 1.7159
    }
    bias_term: false
  }
}
layer {
  name: "pool2"
  type: "Pooling"
  bottom: "conv2"
  top: "pool2"
  pooling_param {
    pool: MAX
    kernel_size: 2
    stride: 2
  }
}
layer {
  name: "conv3"
  type: "Convolution"
  bottom: "pool2"
  top: "conv3"
  convolution_param {
    num_output: 250
    pad: 0
    kernel_size: 4
    group: 1
    stride: 1
    weight_filler {
      type: "xavier"
    }
  }
}
layer {
  name: "conv3_prescale"
  type: "Scale"
  bottom: "conv3"
  top: "conv3"
  param {
    lr_mult: 0
    decay_mult: 0
  }
  scale_param {
    filler {
      value: 0.6666
    }
    bias_term: false
  }
}
layer {
  name: "conv3_sTanH"
  type: "TanH"
  bottom: "conv3"
  top: "conv3"
}
layer {
  name: "conv3_postscale"
  type: "Scale"
  bottom: "conv3"
  top: "conv3"
  param {
    lr_mult: 0
    decay_mult: 0
  }
  scale_param {
    filler {
      value: 1.7159
    }
    bias_term: false
  }
}
layer {
  name: "pool3"
  type: "Pooling"
  bottom: "conv3"
  top: "pool3"
  pooling_param {
    pool: MAX
    kernel_size: 2
    stride: 2
  }
}
layer {
  name: "fc4_300"
  type: "InnerProduct"
  bottom: "pool3"
  top: "fc4_300"
  inner_product_param {
    num_output: 300
    weight_filler {
      type: "xavier"
    }
  }
}
layer {
  name: "fc4_prescale"
  type: "Scale"
  bottom: "fc4_300"
  top: "fc4_300"
  param {
    lr_mult: 0
    decay_mult: 0
  }
  scale_param {
    filler {
      value: 0.6666
    }
    bias_term: false
  }
}
layer {
  name: "fc4_sTanH"
  type: "TanH"
  bottom: "fc4_300"
  top: "fc4_300"
}
layer {
  name: "fc4_postscale"
  type: "Scale"
  bottom: "fc4_300"
  top: "fc4_300"
  param {
    lr_mult: 0
    decay_mult: 0
  }
  scale_param {
    filler {
      value: 1.7159
    }
    bias_term: false
  }
}
layer {
  name: "fc5_67"
  type: "InnerProduct"
  bottom: "fc4_300"
  top: "fc5_classes"
  inner_product_param {
    num_output: 67
    weight_filler {
      type: "xavier"
    }
  }
}
layer {
  name: "loss"
  type: "SoftmaxWithLoss"
  bottom: "fc5_classes"
  bottom: "label"
  top: "loss"
}
I0411 01:30:04.722476   684 layer_factory.hpp:77] Creating layer data
I0411 01:30:04.723757   684 net.cpp:100] Creating Layer data
I0411 01:30:04.723775   684 net.cpp:408] data -> data
I0411 01:30:04.723809   684 net.cpp:408] data -> label
I0411 01:30:04.725805   814 db_lmdb.cpp:35] Opened lmdb ../local_data/lmdb/rtsd-r1/CoNorm/train/lmdb
I0411 01:30:04.745985   684 data_layer.cpp:41] output data size: 1024,3,48,48
I0411 01:30:04.807780   684 net.cpp:150] Setting up data
I0411 01:30:04.807814   684 net.cpp:157] Top shape: 1024 3 48 48 (7077888)
I0411 01:30:04.807821   684 net.cpp:157] Top shape: 1024 (1024)
I0411 01:30:04.807824   684 net.cpp:165] Memory required for data: 28315648
I0411 01:30:04.807842   684 layer_factory.hpp:77] Creating layer conv1
I0411 01:30:04.807867   684 net.cpp:100] Creating Layer conv1
I0411 01:30:04.807876   684 net.cpp:434] conv1 <- data
I0411 01:30:04.807904   684 net.cpp:408] conv1 -> conv1
I0411 01:30:05.186549   684 net.cpp:150] Setting up conv1
I0411 01:30:05.186581   684 net.cpp:157] Top shape: 1024 100 42 42 (180633600)
I0411 01:30:05.186586   684 net.cpp:165] Memory required for data: 750850048
I0411 01:30:05.186611   684 layer_factory.hpp:77] Creating layer conv1_prescale
I0411 01:30:05.186627   684 net.cpp:100] Creating Layer conv1_prescale
I0411 01:30:05.186635   684 net.cpp:434] conv1_prescale <- conv1
I0411 01:30:05.186642   684 net.cpp:395] conv1_prescale -> conv1 (in-place)
I0411 01:30:05.186779   684 net.cpp:150] Setting up conv1_prescale
I0411 01:30:05.186790   684 net.cpp:157] Top shape: 1024 100 42 42 (180633600)
I0411 01:30:05.186795   684 net.cpp:165] Memory required for data: 1473384448
I0411 01:30:05.186803   684 layer_factory.hpp:77] Creating layer conv1_sTanH
I0411 01:30:05.186811   684 net.cpp:100] Creating Layer conv1_sTanH
I0411 01:30:05.186817   684 net.cpp:434] conv1_sTanH <- conv1
I0411 01:30:05.186822   684 net.cpp:395] conv1_sTanH -> conv1 (in-place)
I0411 01:30:05.187069   684 net.cpp:150] Setting up conv1_sTanH
I0411 01:30:05.187083   684 net.cpp:157] Top shape: 1024 100 42 42 (180633600)
I0411 01:30:05.187086   684 net.cpp:165] Memory required for data: 2195918848
I0411 01:30:05.187090   684 layer_factory.hpp:77] Creating layer conv1_postscale
I0411 01:30:05.187099   684 net.cpp:100] Creating Layer conv1_postscale
I0411 01:30:05.187104   684 net.cpp:434] conv1_postscale <- conv1
I0411 01:30:05.187111   684 net.cpp:395] conv1_postscale -> conv1 (in-place)
I0411 01:30:05.187229   684 net.cpp:150] Setting up conv1_postscale
I0411 01:30:05.187238   684 net.cpp:157] Top shape: 1024 100 42 42 (180633600)
I0411 01:30:05.187242   684 net.cpp:165] Memory required for data: 2918453248
I0411 01:30:05.187247   684 layer_factory.hpp:77] Creating layer pool1
I0411 01:30:05.187258   684 net.cpp:100] Creating Layer pool1
I0411 01:30:05.187263   684 net.cpp:434] pool1 <- conv1
I0411 01:30:05.187268   684 net.cpp:408] pool1 -> pool1
I0411 01:30:05.187322   684 net.cpp:150] Setting up pool1
I0411 01:30:05.187331   684 net.cpp:157] Top shape: 1024 100 21 21 (45158400)
I0411 01:30:05.187358   684 net.cpp:165] Memory required for data: 3099086848
I0411 01:30:05.187363   684 layer_factory.hpp:77] Creating layer conv2
I0411 01:30:05.187376   684 net.cpp:100] Creating Layer conv2
I0411 01:30:05.187381   684 net.cpp:434] conv2 <- pool1
I0411 01:30:05.187387   684 net.cpp:408] conv2 -> conv2
I0411 01:30:05.195196   684 net.cpp:150] Setting up conv2
I0411 01:30:05.195219   684 net.cpp:157] Top shape: 1024 150 18 18 (49766400)
I0411 01:30:05.195222   684 net.cpp:165] Memory required for data: 3298152448
I0411 01:30:05.195235   684 layer_factory.hpp:77] Creating layer conv2_prescale
I0411 01:30:05.195248   684 net.cpp:100] Creating Layer conv2_prescale
I0411 01:30:05.195255   684 net.cpp:434] conv2_prescale <- conv2
I0411 01:30:05.195261   684 net.cpp:395] conv2_prescale -> conv2 (in-place)
I0411 01:30:05.195391   684 net.cpp:150] Setting up conv2_prescale
I0411 01:30:05.195401   684 net.cpp:157] Top shape: 1024 150 18 18 (49766400)
I0411 01:30:05.195405   684 net.cpp:165] Memory required for data: 3497218048
I0411 01:30:05.195411   684 layer_factory.hpp:77] Creating layer conv2_sTanH
I0411 01:30:05.195420   684 net.cpp:100] Creating Layer conv2_sTanH
I0411 01:30:05.195425   684 net.cpp:434] conv2_sTanH <- conv2
I0411 01:30:05.195430   684 net.cpp:395] conv2_sTanH -> conv2 (in-place)
I0411 01:30:05.197665   684 net.cpp:150] Setting up conv2_sTanH
I0411 01:30:05.197687   684 net.cpp:157] Top shape: 1024 150 18 18 (49766400)
I0411 01:30:05.197691   684 net.cpp:165] Memory required for data: 3696283648
I0411 01:30:05.197696   684 layer_factory.hpp:77] Creating layer conv2_postscale
I0411 01:30:05.197705   684 net.cpp:100] Creating Layer conv2_postscale
I0411 01:30:05.197710   684 net.cpp:434] conv2_postscale <- conv2
I0411 01:30:05.197716   684 net.cpp:395] conv2_postscale -> conv2 (in-place)
I0411 01:30:05.197832   684 net.cpp:150] Setting up conv2_postscale
I0411 01:30:05.197844   684 net.cpp:157] Top shape: 1024 150 18 18 (49766400)
I0411 01:30:05.197846   684 net.cpp:165] Memory required for data: 3895349248
I0411 01:30:05.197852   684 layer_factory.hpp:77] Creating layer pool2
I0411 01:30:05.197861   684 net.cpp:100] Creating Layer pool2
I0411 01:30:05.197866   684 net.cpp:434] pool2 <- conv2
I0411 01:30:05.197872   684 net.cpp:408] pool2 -> pool2
I0411 01:30:05.197918   684 net.cpp:150] Setting up pool2
I0411 01:30:05.197927   684 net.cpp:157] Top shape: 1024 150 9 9 (12441600)
I0411 01:30:05.197931   684 net.cpp:165] Memory required for data: 3945115648
I0411 01:30:05.197934   684 layer_factory.hpp:77] Creating layer conv3
I0411 01:30:05.197943   684 net.cpp:100] Creating Layer conv3
I0411 01:30:05.197948   684 net.cpp:434] conv3 <- pool2
I0411 01:30:05.197954   684 net.cpp:408] conv3 -> conv3
I0411 01:30:05.204964   684 net.cpp:150] Setting up conv3
I0411 01:30:05.204985   684 net.cpp:157] Top shape: 1024 250 6 6 (9216000)
I0411 01:30:05.204989   684 net.cpp:165] Memory required for data: 3981979648
I0411 01:30:05.205003   684 layer_factory.hpp:77] Creating layer conv3_prescale
I0411 01:30:05.205013   684 net.cpp:100] Creating Layer conv3_prescale
I0411 01:30:05.205019   684 net.cpp:434] conv3_prescale <- conv3
I0411 01:30:05.205025   684 net.cpp:395] conv3_prescale -> conv3 (in-place)
I0411 01:30:05.205138   684 net.cpp:150] Setting up conv3_prescale
I0411 01:30:05.205148   684 net.cpp:157] Top shape: 1024 250 6 6 (9216000)
I0411 01:30:05.205152   684 net.cpp:165] Memory required for data: 4018843648
I0411 01:30:05.205157   684 layer_factory.hpp:77] Creating layer conv3_sTanH
I0411 01:30:05.205165   684 net.cpp:100] Creating Layer conv3_sTanH
I0411 01:30:05.205169   684 net.cpp:434] conv3_sTanH <- conv3
I0411 01:30:05.205174   684 net.cpp:395] conv3_sTanH -> conv3 (in-place)
I0411 01:30:05.216085   684 net.cpp:150] Setting up conv3_sTanH
I0411 01:30:05.216107   684 net.cpp:157] Top shape: 1024 250 6 6 (9216000)
I0411 01:30:05.216111   684 net.cpp:165] Memory required for data: 4055707648
I0411 01:30:05.216116   684 layer_factory.hpp:77] Creating layer conv3_postscale
I0411 01:30:05.216142   684 net.cpp:100] Creating Layer conv3_postscale
I0411 01:30:05.216148   684 net.cpp:434] conv3_postscale <- conv3
I0411 01:30:05.216156   684 net.cpp:395] conv3_postscale -> conv3 (in-place)
I0411 01:30:05.216279   684 net.cpp:150] Setting up conv3_postscale
I0411 01:30:05.216289   684 net.cpp:157] Top shape: 1024 250 6 6 (9216000)
I0411 01:30:05.216295   684 net.cpp:165] Memory required for data: 4092571648
I0411 01:30:05.216301   684 layer_factory.hpp:77] Creating layer pool3
I0411 01:30:05.216308   684 net.cpp:100] Creating Layer pool3
I0411 01:30:05.216313   684 net.cpp:434] pool3 <- conv3
I0411 01:30:05.216320   684 net.cpp:408] pool3 -> pool3
I0411 01:30:05.216365   684 net.cpp:150] Setting up pool3
I0411 01:30:05.216373   684 net.cpp:157] Top shape: 1024 250 3 3 (2304000)
I0411 01:30:05.216377   684 net.cpp:165] Memory required for data: 4101787648
I0411 01:30:05.216380   684 layer_factory.hpp:77] Creating layer fc4_300
I0411 01:30:05.216390   684 net.cpp:100] Creating Layer fc4_300
I0411 01:30:05.216395   684 net.cpp:434] fc4_300 <- pool3
I0411 01:30:05.216403   684 net.cpp:408] fc4_300 -> fc4_300
I0411 01:30:05.229630   684 net.cpp:150] Setting up fc4_300
I0411 01:30:05.229652   684 net.cpp:157] Top shape: 1024 300 (307200)
I0411 01:30:05.229656   684 net.cpp:165] Memory required for data: 4103016448
I0411 01:30:05.229665   684 layer_factory.hpp:77] Creating layer fc4_prescale
I0411 01:30:05.229676   684 net.cpp:100] Creating Layer fc4_prescale
I0411 01:30:05.229679   684 net.cpp:434] fc4_prescale <- fc4_300
I0411 01:30:05.229686   684 net.cpp:395] fc4_prescale -> fc4_300 (in-place)
I0411 01:30:05.229794   684 net.cpp:150] Setting up fc4_prescale
I0411 01:30:05.229804   684 net.cpp:157] Top shape: 1024 300 (307200)
I0411 01:30:05.229809   684 net.cpp:165] Memory required for data: 4104245248
I0411 01:30:05.229813   684 layer_factory.hpp:77] Creating layer fc4_sTanH
I0411 01:30:05.229820   684 net.cpp:100] Creating Layer fc4_sTanH
I0411 01:30:05.229825   684 net.cpp:434] fc4_sTanH <- fc4_300
I0411 01:30:05.229830   684 net.cpp:395] fc4_sTanH -> fc4_300 (in-place)
I0411 01:30:05.230058   684 net.cpp:150] Setting up fc4_sTanH
I0411 01:30:05.230072   684 net.cpp:157] Top shape: 1024 300 (307200)
I0411 01:30:05.230077   684 net.cpp:165] Memory required for data: 4105474048
I0411 01:30:05.230080   684 layer_factory.hpp:77] Creating layer fc4_postscale
I0411 01:30:05.230088   684 net.cpp:100] Creating Layer fc4_postscale
I0411 01:30:05.230093   684 net.cpp:434] fc4_postscale <- fc4_300
I0411 01:30:05.230099   684 net.cpp:395] fc4_postscale -> fc4_300 (in-place)
I0411 01:30:05.230211   684 net.cpp:150] Setting up fc4_postscale
I0411 01:30:05.230221   684 net.cpp:157] Top shape: 1024 300 (307200)
I0411 01:30:05.230223   684 net.cpp:165] Memory required for data: 4106702848
I0411 01:30:05.230229   684 layer_factory.hpp:77] Creating layer fc5_67
I0411 01:30:05.230237   684 net.cpp:100] Creating Layer fc5_67
I0411 01:30:05.230242   684 net.cpp:434] fc5_67 <- fc4_300
I0411 01:30:05.230247   684 net.cpp:408] fc5_67 -> fc5_classes
I0411 01:30:05.242378   684 net.cpp:150] Setting up fc5_67
I0411 01:30:05.242399   684 net.cpp:157] Top shape: 1024 67 (68608)
I0411 01:30:05.242403   684 net.cpp:165] Memory required for data: 4106977280
I0411 01:30:05.242422   684 layer_factory.hpp:77] Creating layer loss
I0411 01:30:05.242431   684 net.cpp:100] Creating Layer loss
I0411 01:30:05.242435   684 net.cpp:434] loss <- fc5_classes
I0411 01:30:05.242440   684 net.cpp:434] loss <- label
I0411 01:30:05.242447   684 net.cpp:408] loss -> loss
I0411 01:30:05.242465   684 layer_factory.hpp:77] Creating layer loss
…
I0411 01:30:05.243353   684 solver.cpp:193] Creating test net (#0) specified by test_net file: ./Prototxt/experiment_8/rtsd-r1/CoNorm/trial_1/test.prototxt
I0411 01:30:05.243577   684 net.cpp:58] Initializing net from parameters: 
state {
  phase: TEST
}
layer {
  name: "data"
  type: "Data"
  top: "data"
  top: "label"
  include {
    phase: TEST
  }
  transform_param {
    scale: 0.0039215689
    mirror: false
    crop_size: 48
    mean_value: 133
    mean_value: 133
    mean_value: 132
  }
  data_param {
    source: "../local_data/lmdb/rtsd-r1/CoNorm/test/lmdb"
    batch_size: 1024
    backend: LMDB
  }
}
layer {
  name: "conv1"
  type: "Convolution"
  bottom: "data"
  top: "conv1"
  convolution_param {
    num_output: 100
    pad: 0
    kernel_size: 7
    group: 1
    stride: 1
    weight_filler {
      type: "xavier"
    }
  }
}
layer {
  name: "conv1_prescale"
  type: "Scale"
  bottom: "conv1"
  top: "conv1"
  param {
    lr_mult: 0
    decay_mult: 0
  }
  scale_param {
    filler {
      value: 0.6666
    }
    bias_term: false
  }
}
layer {
  name: "conv1_sTanH"
  type: "TanH"
  bottom: "conv1"
  top: "conv1"
}
layer {
  name: "conv1_postscale"
  type: "Scale"
  bottom: "conv1"
  top: "conv1"
  param {
    lr_mult: 0
    decay_mult: 0
  }
  scale_param {
    filler {
      value: 1.7159
    }
    bias_term: false
  }
}
layer {
  name: "pool1"
  type: "Pooling"
  bottom: "conv1"
  top: "pool1"
  pooling_param {
    pool: MAX
    kernel_size: 2
    stride: 2
  }
}
layer {
  name: "conv2"
  type: "Convolution"
  bottom: "pool1"
  top: "conv2"
  convolution_param {
    num_output: 150
    pad: 0
    kernel_size: 4
    group: 1
    stride: 1
    weight_filler {
      type: "xavier"
    }
  }
}
layer {
  name: "conv2_prescale"
  type: "Scale"
  bottom: "conv2"
  top: "conv2"
  param {
    lr_mult: 0
    decay_mult: 0
  }
  scale_param {
    filler {
      value: 0.6666
    }
    bias_term: false
  }
}
layer {
  name: "conv2_sTanH"
  type: "TanH"
  bottom: "conv2"
  top: "conv2"
}
layer {
  name: "conv2_postscale"
  type: "Scale"
  bottom: "conv2"
  top: "conv2"
  param {
    lr_mult: 0
    decay_mult: 0
  }
  scale_param {
    filler {
      value: 1.7159
    }
    bias_term: false
  }
}
layer {
  name: "pool2"
  type: "Pooling"
  bottom: "conv2"
  top: "pool2"
  pooling_param {
    pool: MAX
    kernel_size: 2
    stride: 2
  }
}
layer {
  name: "conv3"
  type: "Convolution"
  bottom: "pool2"
  top: "conv3"
  convolution_param {
    num_output: 250
    pad: 0
    kernel_size: 4
    group: 1
    stride: 1
    weight_filler {
      type: "xavier"
    }
  }
}
layer {
  name: "conv3_prescale"
  type: "Scale"
  bottom: "conv3"
  top: "conv3"
  param {
    lr_mult: 0
    decay_mult: 0
  }
  scale_param {
    filler {
      value: 0.6666
    }
    bias_term: false
  }
}
layer {
  name: "conv3_sTanH"
  type: "TanH"
  bottom: "conv3"
  top: "conv3"
}
layer {
  name: "conv3_postscale"
  type: "Scale"
  bottom: "conv3"
  top: "conv3"
  param {
    lr_mult: 0
    decay_mult: 0
  }
  scale_param {
    filler {
      value: 1.7159
    }
    bias_term: false
  }
}
layer {
  name: "pool3"
  type: "Pooling"
  bottom: "conv3"
  top: "pool3"
  pooling_param {
    pool: MAX
    kernel_size: 2
    stride: 2
  }
}
layer {
  name: "fc4_300"
  type: "InnerProduct"
  bottom: "pool3"
  top: "fc4_300"
  inner_product_param {
    num_output: 300
    weight_filler {
      type: "xavier"
    }
  }
}
layer {
  name: "fc4_prescale"
  type: "Scale"
  bottom: "fc4_300"
  top: "fc4_300"
  param {
    lr_mult: 0
    decay_mult: 0
  }
  scale_param {
    filler {
      value: 0.6666
    }
    bias_term: false
  }
}
layer {
  name: "fc4_sTanH"
  type: "TanH"
  bottom: "fc4_300"
  top: "fc4_300"
}
layer {
  name: "fc4_postscale"
  type: "Scale"
  bottom: "fc4_300"
  top: "fc4_300"
  param {
    lr_mult: 0
    decay_mult: 0
  }
  scale_param {
    filler {
      value: 1.7159
    }
    bias_term: false
  }
}
layer {
  name: "fc5_67"
  type: "InnerProduct"
  bottom: "fc4_300"
  top: "fc5_classes"
  inner_product_param {
    num_output: 67
    weight_filler {
      type: "xavier"
    }
  }
}
layer {
  name: "loss"
  type: "SoftmaxWithLoss"
  bottom: "fc5_classes"
  bottom: "label"
  top: "loss"
}
layer {
  name: "accuracy_1"
  type: "Accuracy"
  bottom: "fc5_classes"
  bottom: "label"
  top: "accuracy_1"
  include {
    phase: TEST
  }
  accuracy_param {
    top_k: 1
  }
}
layer {
  name: "accuracy_5"
  type: "Accuracy"
  bottom: "fc5_classes"
  bottom: "label"
  top: "accuracy_5"
  include {
    phase: TEST
  }
  accuracy_param {
    top_k: 5
  }
}
I0411 01:30:05.243710   684 layer_factory.hpp:77] Creating layer data
I0411 01:30:05.244442   684 net.cpp:100] Creating Layer data
I0411 01:30:05.244457   684 net.cpp:408] data -> data
I0411 01:30:05.244468   684 net.cpp:408] data -> label
I0411 01:30:05.247759   867 db_lmdb.cpp:35] Opened lmdb ../local_data/lmdb/rtsd-r1/CoNorm/test/lmdb
I0411 01:30:05.247952   684 data_layer.cpp:41] output data size: 1024,3,48,48
I0411 01:30:05.308353   684 net.cpp:150] Setting up data
I0411 01:30:05.308385   684 net.cpp:157] Top shape: 1024 3 48 48 (7077888)
I0411 01:30:05.308392   684 net.cpp:157] Top shape: 1024 (1024)
I0411 01:30:05.308395   684 net.cpp:165] Memory required for data: 28315648
I0411 01:30:05.308401   684 layer_factory.hpp:77] Creating layer label_data_1_split
I0411 01:30:05.308418   684 net.cpp:100] Creating Layer label_data_1_split
I0411 01:30:05.308423   684 net.cpp:434] label_data_1_split <- label
I0411 01:30:05.308430   684 net.cpp:408] label_data_1_split -> label_data_1_split_0
I0411 01:30:05.308449   684 net.cpp:408] label_data_1_split -> label_data_1_split_1
I0411 01:30:05.308457   684 net.cpp:408] label_data_1_split -> label_data_1_split_2
I0411 01:30:05.308553   684 net.cpp:150] Setting up label_data_1_split
I0411 01:30:05.308563   684 net.cpp:157] Top shape: 1024 (1024)
I0411 01:30:05.308568   684 net.cpp:157] Top shape: 1024 (1024)
I0411 01:30:05.308573   684 net.cpp:157] Top shape: 1024 (1024)
I0411 01:30:05.308575   684 net.cpp:165] Memory required for data: 28327936
I0411 01:30:05.308578   684 layer_factory.hpp:77] Creating layer conv1
I0411 01:30:05.308593   684 net.cpp:100] Creating Layer conv1
I0411 01:30:05.308598   684 net.cpp:434] conv1 <- data
I0411 01:30:05.308605   684 net.cpp:408] conv1 -> conv1
I0411 01:30:05.312772   684 net.cpp:150] Setting up conv1
I0411 01:30:05.312793   684 net.cpp:157] Top shape: 1024 100 42 42 (180633600)
I0411 01:30:05.312818   684 net.cpp:165] Memory required for data: 750862336
I0411 01:30:05.312834   684 layer_factory.hpp:77] Creating layer conv1_prescale
I0411 01:30:05.312844   684 net.cpp:100] Creating Layer conv1_prescale
I0411 01:30:05.312851   684 net.cpp:434] conv1_prescale <- conv1
I0411 01:30:05.312863   684 net.cpp:395] conv1_prescale -> conv1 (in-place)
I0411 01:30:05.312994   684 net.cpp:150] Setting up conv1_prescale
I0411 01:30:05.313004   684 net.cpp:157] Top shape: 1024 100 42 42 (180633600)
I0411 01:30:05.313009   684 net.cpp:165] Memory required for data: 1473396736
I0411 01:30:05.313017   684 layer_factory.hpp:77] Creating layer conv1_sTanH
I0411 01:30:05.313026   684 net.cpp:100] Creating Layer conv1_sTanH
I0411 01:30:05.313047   684 net.cpp:434] conv1_sTanH <- conv1
I0411 01:30:05.313053   684 net.cpp:395] conv1_sTanH -> conv1 (in-place)
I0411 01:30:05.313287   684 net.cpp:150] Setting up conv1_sTanH
I0411 01:30:05.313299   684 net.cpp:157] Top shape: 1024 100 42 42 (180633600)
I0411 01:30:05.313304   684 net.cpp:165] Memory required for data: 2195931136
I0411 01:30:05.313308   684 layer_factory.hpp:77] Creating layer conv1_postscale
I0411 01:30:05.313316   684 net.cpp:100] Creating Layer conv1_postscale
I0411 01:30:05.313323   684 net.cpp:434] conv1_postscale <- conv1
I0411 01:30:05.313333   684 net.cpp:395] conv1_postscale -> conv1 (in-place)
I0411 01:30:05.313460   684 net.cpp:150] Setting up conv1_postscale
I0411 01:30:05.313469   684 net.cpp:157] Top shape: 1024 100 42 42 (180633600)
I0411 01:30:05.313475   684 net.cpp:165] Memory required for data: 2918465536
I0411 01:30:05.313482   684 layer_factory.hpp:77] Creating layer pool1
I0411 01:30:05.313488   684 net.cpp:100] Creating Layer pool1
I0411 01:30:05.313493   684 net.cpp:434] pool1 <- conv1
I0411 01:30:05.313499   684 net.cpp:408] pool1 -> pool1
I0411 01:30:05.313552   684 net.cpp:150] Setting up pool1
I0411 01:30:05.313561   684 net.cpp:157] Top shape: 1024 100 21 21 (45158400)
I0411 01:30:05.313566   684 net.cpp:165] Memory required for data: 3099099136
I0411 01:30:05.313570   684 layer_factory.hpp:77] Creating layer conv2
I0411 01:30:05.313580   684 net.cpp:100] Creating Layer conv2
I0411 01:30:05.313585   684 net.cpp:434] conv2 <- pool1
I0411 01:30:05.313591   684 net.cpp:408] conv2 -> conv2
I0411 01:30:05.318245   684 net.cpp:150] Setting up conv2
I0411 01:30:05.318265   684 net.cpp:157] Top shape: 1024 150 18 18 (49766400)
I0411 01:30:05.318271   684 net.cpp:165] Memory required for data: 3298164736
I0411 01:30:05.318284   684 layer_factory.hpp:77] Creating layer conv2_prescale
I0411 01:30:05.318295   684 net.cpp:100] Creating Layer conv2_prescale
I0411 01:30:05.318301   684 net.cpp:434] conv2_prescale <- conv2
I0411 01:30:05.318308   684 net.cpp:395] conv2_prescale -> conv2 (in-place)
I0411 01:30:05.318442   684 net.cpp:150] Setting up conv2_prescale
I0411 01:30:05.318452   684 net.cpp:157] Top shape: 1024 150 18 18 (49766400)
I0411 01:30:05.318457   684 net.cpp:165] Memory required for data: 3497230336
I0411 01:30:05.318467   684 layer_factory.hpp:77] Creating layer conv2_sTanH
I0411 01:30:05.318473   684 net.cpp:100] Creating Layer conv2_sTanH
I0411 01:30:05.318478   684 net.cpp:434] conv2_sTanH <- conv2
I0411 01:30:05.318485   684 net.cpp:395] conv2_sTanH -> conv2 (in-place)
I0411 01:30:05.320528   684 net.cpp:150] Setting up conv2_sTanH
I0411 01:30:05.320551   684 net.cpp:157] Top shape: 1024 150 18 18 (49766400)
I0411 01:30:05.320557   684 net.cpp:165] Memory required for data: 3696295936
I0411 01:30:05.320561   684 layer_factory.hpp:77] Creating layer conv2_postscale
I0411 01:30:05.320572   684 net.cpp:100] Creating Layer conv2_postscale
I0411 01:30:05.320578   684 net.cpp:434] conv2_postscale <- conv2
I0411 01:30:05.320585   684 net.cpp:395] conv2_postscale -> conv2 (in-place)
I0411 01:30:05.320711   684 net.cpp:150] Setting up conv2_postscale
I0411 01:30:05.320724   684 net.cpp:157] Top shape: 1024 150 18 18 (49766400)
I0411 01:30:05.320729   684 net.cpp:165] Memory required for data: 3895361536
I0411 01:30:05.320754   684 layer_factory.hpp:77] Creating layer pool2
I0411 01:30:05.320761   684 net.cpp:100] Creating Layer pool2
I0411 01:30:05.320767   684 net.cpp:434] pool2 <- conv2
I0411 01:30:05.320773   684 net.cpp:408] pool2 -> pool2
I0411 01:30:05.320828   684 net.cpp:150] Setting up pool2
I0411 01:30:05.320838   684 net.cpp:157] Top shape: 1024 150 9 9 (12441600)
I0411 01:30:05.320843   684 net.cpp:165] Memory required for data: 3945127936
I0411 01:30:05.320847   684 layer_factory.hpp:77] Creating layer conv3
I0411 01:30:05.320858   684 net.cpp:100] Creating Layer conv3
I0411 01:30:05.320863   684 net.cpp:434] conv3 <- pool2
I0411 01:30:05.320869   684 net.cpp:408] conv3 -> conv3
I0411 01:30:05.327661   684 net.cpp:150] Setting up conv3
I0411 01:30:05.327682   684 net.cpp:157] Top shape: 1024 250 6 6 (9216000)
I0411 01:30:05.327688   684 net.cpp:165] Memory required for data: 3981991936
I0411 01:30:05.327702   684 layer_factory.hpp:77] Creating layer conv3_prescale
I0411 01:30:05.327713   684 net.cpp:100] Creating Layer conv3_prescale
I0411 01:30:05.327719   684 net.cpp:434] conv3_prescale <- conv3
I0411 01:30:05.327725   684 net.cpp:395] conv3_prescale -> conv3 (in-place)
I0411 01:30:05.327841   684 net.cpp:150] Setting up conv3_prescale
I0411 01:30:05.327849   684 net.cpp:157] Top shape: 1024 250 6 6 (9216000)
I0411 01:30:05.327855   684 net.cpp:165] Memory required for data: 4018855936
I0411 01:30:05.327860   684 layer_factory.hpp:77] Creating layer conv3_sTanH
I0411 01:30:05.327867   684 net.cpp:100] Creating Layer conv3_sTanH
I0411 01:30:05.327872   684 net.cpp:434] conv3_sTanH <- conv3
I0411 01:30:05.327883   684 net.cpp:395] conv3_sTanH -> conv3 (in-place)
I0411 01:30:05.328805   684 net.cpp:150] Setting up conv3_sTanH
I0411 01:30:05.328826   684 net.cpp:157] Top shape: 1024 250 6 6 (9216000)
I0411 01:30:05.328832   684 net.cpp:165] Memory required for data: 4055719936
I0411 01:30:05.328836   684 layer_factory.hpp:77] Creating layer conv3_postscale
I0411 01:30:05.328845   684 net.cpp:100] Creating Layer conv3_postscale
I0411 01:30:05.328851   684 net.cpp:434] conv3_postscale <- conv3
I0411 01:30:05.328858   684 net.cpp:395] conv3_postscale -> conv3 (in-place)
I0411 01:30:05.328980   684 net.cpp:150] Setting up conv3_postscale
I0411 01:30:05.328989   684 net.cpp:157] Top shape: 1024 250 6 6 (9216000)
I0411 01:30:05.328994   684 net.cpp:165] Memory required for data: 4092583936
I0411 01:30:05.329001   684 layer_factory.hpp:77] Creating layer pool3
I0411 01:30:05.329012   684 net.cpp:100] Creating Layer pool3
I0411 01:30:05.329018   684 net.cpp:434] pool3 <- conv3
I0411 01:30:05.329025   684 net.cpp:408] pool3 -> pool3
I0411 01:30:05.329072   684 net.cpp:150] Setting up pool3
I0411 01:30:05.329080   684 net.cpp:157] Top shape: 1024 250 3 3 (2304000)
I0411 01:30:05.329084   684 net.cpp:165] Memory required for data: 4101799936
I0411 01:30:05.329088   684 layer_factory.hpp:77] Creating layer fc4_300
I0411 01:30:05.329097   684 net.cpp:100] Creating Layer fc4_300
I0411 01:30:05.329102   684 net.cpp:434] fc4_300 <- pool3
I0411 01:30:05.329107   684 net.cpp:408] fc4_300 -> fc4_300
I0411 01:30:05.335716   684 net.cpp:150] Setting up fc4_300
I0411 01:30:05.335737   684 net.cpp:157] Top shape: 1024 300 (307200)
I0411 01:30:05.335743   684 net.cpp:165] Memory required for data: 4103028736
I0411 01:30:05.335752   684 layer_factory.hpp:77] Creating layer fc4_prescale
I0411 01:30:05.335762   684 net.cpp:100] Creating Layer fc4_prescale
I0411 01:30:05.335767   684 net.cpp:434] fc4_prescale <- fc4_300
I0411 01:30:05.335773   684 net.cpp:395] fc4_prescale -> fc4_300 (in-place)
I0411 01:30:05.335896   684 net.cpp:150] Setting up fc4_prescale
I0411 01:30:05.335908   684 net.cpp:157] Top shape: 1024 300 (307200)
I0411 01:30:05.335911   684 net.cpp:165] Memory required for data: 4104257536
I0411 01:30:05.335917   684 layer_factory.hpp:77] Creating layer fc4_sTanH
I0411 01:30:05.335925   684 net.cpp:100] Creating Layer fc4_sTanH
I0411 01:30:05.335929   684 net.cpp:434] fc4_sTanH <- fc4_300
I0411 01:30:05.335935   684 net.cpp:395] fc4_sTanH -> fc4_300 (in-place)
I0411 01:30:05.336185   684 net.cpp:150] Setting up fc4_sTanH
I0411 01:30:05.336199   684 net.cpp:157] Top shape: 1024 300 (307200)
I0411 01:30:05.336205   684 net.cpp:165] Memory required for data: 4105486336
I0411 01:30:05.336208   684 layer_factory.hpp:77] Creating layer fc4_postscale
I0411 01:30:05.336216   684 net.cpp:100] Creating Layer fc4_postscale
I0411 01:30:05.336221   684 net.cpp:434] fc4_postscale <- fc4_300
I0411 01:30:05.336228   684 net.cpp:395] fc4_postscale -> fc4_300 (in-place)
I0411 01:30:05.336345   684 net.cpp:150] Setting up fc4_postscale
I0411 01:30:05.336354   684 net.cpp:157] Top shape: 1024 300 (307200)
I0411 01:30:05.336360   684 net.cpp:165] Memory required for data: 4106715136
I0411 01:30:05.336365   684 layer_factory.hpp:77] Creating layer fc5_67
I0411 01:30:05.336374   684 net.cpp:100] Creating Layer fc5_67
I0411 01:30:05.336379   684 net.cpp:434] fc5_67 <- fc4_300
I0411 01:30:05.336383   684 net.cpp:408] fc5_67 -> fc5_classes
I0411 01:30:05.336688   684 net.cpp:150] Setting up fc5_67
I0411 01:30:05.336700   684 net.cpp:157] Top shape: 1024 67 (68608)
I0411 01:30:05.336704   684 net.cpp:165] Memory required for data: 4106989568
I0411 01:30:05.336715   684 layer_factory.hpp:77] Creating layer fc5_classes_fc5_67_0_split
I0411 01:30:05.336724   684 net.cpp:100] Creating Layer fc5_classes_fc5_67_0_split
I0411 01:30:05.336730   684 net.cpp:434] fc5_classes_fc5_67_0_split <- fc5_classes
I0411 01:30:05.336735   684 net.cpp:408] fc5_classes_fc5_67_0_split -> fc5_classes_fc5_67_0_split_0
I0411 01:30:05.336745   684 net.cpp:408] fc5_classes_fc5_67_0_split -> fc5_classes_fc5_67_0_split_1
I0411 01:30:05.336755   684 net.cpp:408] fc5_classes_fc5_67_0_split -> fc5_classes_fc5_67_0_split_2
I0411 01:30:05.336818   684 net.cpp:150] Setting up fc5_classes_fc5_67_0_split
I0411 01:30:05.336825   684 net.cpp:157] Top shape: 1024 67 (68608)
I0411 01:30:05.336830   684 net.cpp:157] Top shape: 1024 67 (68608)
I0411 01:30:05.336834   684 net.cpp:157] Top shape: 1024 67 (68608)
I0411 01:30:05.336838   684 net.cpp:165] Memory required for data: 4107812864
I0411 01:30:05.336840   684 layer_factory.hpp:77] Creating layer loss
I0411 01:30:05.336848   684 net.cpp:100] Creating Layer loss
I0411 01:30:05.336853   684 net.cpp:434] loss <- fc5_classes_fc5_67_0_split_0
I0411 01:30:05.336858   684 net.cpp:434] loss <- label_data_1_split_0
I0411 01:30:05.336864   684 net.cpp:408] loss -> loss
…
