…
I0411 00:38:11.241765  9160 net.cpp:322] The NetState phase (0) differed from the phase (1) specified by a rule in layer accuracy_5
I0411 00:38:11.241937  9160 net.cpp:58] Initializing net from parameters: 
state {
  phase: TRAIN
  level: 0
  stage: ""
}
layer {
  name: "data"
  type: "Data"
  top: "data"
  top: "label"
  include {
    phase: TRAIN
  }
  transform_param {
    mirror: false
    crop_size: 48
    mean_value: 132
    mean_value: 132
    mean_value: 131
  }
  data_param {
    source: "../local_data/lmdb/rtsd-r1/CoNorm/train/lmdb"
    batch_size: 1024
    backend: LMDB
  }
}
layer {
  name: "conv1"
  type: "Convolution"
  bottom: "data"
  top: "conv1"
  convolution_param {
    num_output: 100
    pad: 0
    kernel_size: 7
    group: 1
    stride: 1
    weight_filler {
      type: "xavier"
    }
  }
}
layer {
  name: "conv1_prescale"
  type: "Scale"
  bottom: "conv1"
  top: "conv1"
  param {
    lr_mult: 0
    decay_mult: 0
  }
  scale_param {
    filler {
      value: 0.6666
    }
  }
}
layer {
  name: "conv1_sTanH"
  type: "TanH"
  bottom: "conv1"
  top: "conv1"
}
layer {
  name: "conv1_postscale"
  type: "Scale"
  bottom: "conv1"
  top: "conv1"
  param {
    lr_mult: 0
    decay_mult: 0
  }
  scale_param {
    filler {
      value: 1.7159
    }
  }
}
layer {
  name: "pool1"
  type: "Pooling"
  bottom: "conv1"
  top: "pool1"
  pooling_param {
    pool: MAX
    kernel_size: 2
    stride: 2
  }
}
layer {
  name: "conv2"
  type: "Convolution"
  bottom: "pool1"
  top: "conv2"
  convolution_param {
    num_output: 150
    pad: 0
    kernel_size: 4
    group: 1
    stride: 1
    weight_filler {
      type: "xavier"
    }
  }
}
layer {
  name: "conv2_prescale"
  type: "Scale"
  bottom: "conv2"
  top: "conv2"
  param {
    lr_mult: 0
    decay_mult: 0
  }
  scale_param {
    filler {
      value: 0.6666
    }
  }
}
layer {
  name: "conv2_sTanH"
  type: "TanH"
  bottom: "conv2"
  top: "conv2"
}
layer {
  name: "conv2_postscale"
  type: "Scale"
  bottom: "conv2"
  top: "conv2"
  param {
    lr_mult: 0
    decay_mult: 0
  }
  scale_param {
    filler {
      value: 1.7159
    }
  }
}
layer {
  name: "pool2"
  type: "Pooling"
  bottom: "conv2"
  top: "pool2"
  pooling_param {
    pool: MAX
    kernel_size: 2
    stride: 2
  }
}
layer {
  name: "conv3"
  type: "Convolution"
  bottom: "pool2"
  top: "conv3"
  convolution_param {
    num_output: 250
    pad: 0
    kernel_size: 4
    group: 1
    stride: 1
    weight_filler {
      type: "xavier"
    }
  }
}
layer {
  name: "conv3_prescale"
  type: "Scale"
  bottom: "conv3"
  top: "conv3"
  param {
    lr_mult: 0
    decay_mult: 0
  }
  scale_param {
    filler {
      value: 0.6666
    }
  }
}
layer {
  name: "conv3_sTanH"
  type: "TanH"
  bottom: "conv3"
  top: "conv3"
}
layer {
  name: "conv3_postscale"
  type: "Scale"
  bottom: "conv3"
  top: "conv3"
  param {
    lr_mult: 0
    decay_mult: 0
  }
  scale_param {
    filler {
      value: 1.7159
    }
  }
}
layer {
  name: "pool3"
  type: "Pooling"
  bottom: "conv3"
  top: "pool3"
  pooling_param {
    pool: MAX
    kernel_size: 2
    stride: 2
  }
}
layer {
  name: "fc4_300"
  type: "InnerProduct"
  bottom: "pool3"
  top: "fc4_300"
  inner_product_param {
    num_output: 300
    weight_filler {
      type: "xavier"
    }
  }
}
layer {
  name: "fc4_prescale"
  type: "Scale"
  bottom: "fc4_300"
  top: "fc4_300"
  param {
    lr_mult: 0
    decay_mult: 0
  }
  scale_param {
    filler {
      value: 0.6666
    }
    bias_term: false
  }
}
layer {
  name: "fc4_sTanH"
  type: "TanH"
  bottom: "fc4_300"
  top: "fc4_300"
}
layer {
  name: "fc4_postscale"
  type: "Scale"
  bottom: "fc4_300"
  top: "fc4_300"
  param {
    lr_mult: 0
    decay_mult: 0
  }
  scale_param {
    filler {
      value: 1.7159
    }
    bias_term: false
  }
}
layer {
  name: "fc5_67"
  type: "InnerProduct"
  bottom: "fc4_300"
  top: "fc5_classes"
  inner_product_param {
    num_output: 67
    weight_filler {
      type: "xavier"
    }
  }
}
layer {
  name: "loss"
  type: "SoftmaxWithLoss"
  bottom: "fc5_classes"
  bottom: "label"
  top: "loss"
}
I0411 00:38:11.242065  9160 layer_factory.hpp:77] Creating layer data
I0411 00:38:11.243363  9160 net.cpp:100] Creating Layer data
I0411 00:38:11.243381  9160 net.cpp:408] data -> data
I0411 00:38:11.243408  9160 net.cpp:408] data -> label
I0411 00:38:11.246991  9265 db_lmdb.cpp:35] Opened lmdb ../local_data/lmdb/rtsd-r1/CoNorm/train/lmdb
I0411 00:38:11.267009  9160 data_layer.cpp:41] output data size: 1024,3,48,48
I0411 00:38:11.326414  9160 net.cpp:150] Setting up data
I0411 00:38:11.326458  9160 net.cpp:157] Top shape: 1024 3 48 48 (7077888)
I0411 00:38:11.326465  9160 net.cpp:157] Top shape: 1024 (1024)
I0411 00:38:11.326469  9160 net.cpp:165] Memory required for data: 28315648
I0411 00:38:11.326483  9160 layer_factory.hpp:77] Creating layer conv1
I0411 00:38:11.326508  9160 net.cpp:100] Creating Layer conv1
I0411 00:38:11.326515  9160 net.cpp:434] conv1 <- data
I0411 00:38:11.326530  9160 net.cpp:408] conv1 -> conv1
I0411 00:38:11.668395  9160 net.cpp:150] Setting up conv1
I0411 00:38:11.668427  9160 net.cpp:157] Top shape: 1024 100 42 42 (180633600)
I0411 00:38:11.668432  9160 net.cpp:165] Memory required for data: 750850048
I0411 00:38:11.668457  9160 layer_factory.hpp:77] Creating layer conv1_prescale
I0411 00:38:11.668475  9160 net.cpp:100] Creating Layer conv1_prescale
I0411 00:38:11.668483  9160 net.cpp:434] conv1_prescale <- conv1
I0411 00:38:11.668490  9160 net.cpp:395] conv1_prescale -> conv1 (in-place)
I0411 00:38:11.668620  9160 net.cpp:150] Setting up conv1_prescale
I0411 00:38:11.668632  9160 net.cpp:157] Top shape: 1024 100 42 42 (180633600)
I0411 00:38:11.668637  9160 net.cpp:165] Memory required for data: 1473384448
I0411 00:38:11.668644  9160 layer_factory.hpp:77] Creating layer conv1_sTanH
I0411 00:38:11.668653  9160 net.cpp:100] Creating Layer conv1_sTanH
I0411 00:38:11.668658  9160 net.cpp:434] conv1_sTanH <- conv1
I0411 00:38:11.668664  9160 net.cpp:395] conv1_sTanH -> conv1 (in-place)
I0411 00:38:11.668895  9160 net.cpp:150] Setting up conv1_sTanH
I0411 00:38:11.668908  9160 net.cpp:157] Top shape: 1024 100 42 42 (180633600)
I0411 00:38:11.668913  9160 net.cpp:165] Memory required for data: 2195918848
I0411 00:38:11.668918  9160 layer_factory.hpp:77] Creating layer conv1_postscale
I0411 00:38:11.668927  9160 net.cpp:100] Creating Layer conv1_postscale
I0411 00:38:11.668933  9160 net.cpp:434] conv1_postscale <- conv1
I0411 00:38:11.668939  9160 net.cpp:395] conv1_postscale -> conv1 (in-place)
I0411 00:38:11.669054  9160 net.cpp:150] Setting up conv1_postscale
I0411 00:38:11.669062  9160 net.cpp:157] Top shape: 1024 100 42 42 (180633600)
I0411 00:38:11.669066  9160 net.cpp:165] Memory required for data: 2918453248
I0411 00:38:11.669072  9160 layer_factory.hpp:77] Creating layer pool1
I0411 00:38:11.669081  9160 net.cpp:100] Creating Layer pool1
I0411 00:38:11.669086  9160 net.cpp:434] pool1 <- conv1
I0411 00:38:11.669092  9160 net.cpp:408] pool1 -> pool1
I0411 00:38:11.669147  9160 net.cpp:150] Setting up pool1
I0411 00:38:11.669155  9160 net.cpp:157] Top shape: 1024 100 21 21 (45158400)
I0411 00:38:11.669160  9160 net.cpp:165] Memory required for data: 3099086848
I0411 00:38:11.669164  9160 layer_factory.hpp:77] Creating layer conv2
I0411 00:38:11.669196  9160 net.cpp:100] Creating Layer conv2
I0411 00:38:11.669203  9160 net.cpp:434] conv2 <- pool1
I0411 00:38:11.669209  9160 net.cpp:408] conv2 -> conv2
I0411 00:38:11.675487  9160 net.cpp:150] Setting up conv2
I0411 00:38:11.675509  9160 net.cpp:157] Top shape: 1024 150 18 18 (49766400)
I0411 00:38:11.675515  9160 net.cpp:165] Memory required for data: 3298152448
I0411 00:38:11.675528  9160 layer_factory.hpp:77] Creating layer conv2_prescale
I0411 00:38:11.675539  9160 net.cpp:100] Creating Layer conv2_prescale
I0411 00:38:11.675544  9160 net.cpp:434] conv2_prescale <- conv2
I0411 00:38:11.675554  9160 net.cpp:395] conv2_prescale -> conv2 (in-place)
I0411 00:38:11.675689  9160 net.cpp:150] Setting up conv2_prescale
I0411 00:38:11.675700  9160 net.cpp:157] Top shape: 1024 150 18 18 (49766400)
I0411 00:38:11.675705  9160 net.cpp:165] Memory required for data: 3497218048
I0411 00:38:11.675711  9160 layer_factory.hpp:77] Creating layer conv2_sTanH
I0411 00:38:11.675721  9160 net.cpp:100] Creating Layer conv2_sTanH
I0411 00:38:11.675726  9160 net.cpp:434] conv2_sTanH <- conv2
I0411 00:38:11.675732  9160 net.cpp:395] conv2_sTanH -> conv2 (in-place)
I0411 00:38:11.678247  9160 net.cpp:150] Setting up conv2_sTanH
I0411 00:38:11.678267  9160 net.cpp:157] Top shape: 1024 150 18 18 (49766400)
I0411 00:38:11.678272  9160 net.cpp:165] Memory required for data: 3696283648
I0411 00:38:11.678277  9160 layer_factory.hpp:77] Creating layer conv2_postscale
I0411 00:38:11.678287  9160 net.cpp:100] Creating Layer conv2_postscale
I0411 00:38:11.678292  9160 net.cpp:434] conv2_postscale <- conv2
I0411 00:38:11.678299  9160 net.cpp:395] conv2_postscale -> conv2 (in-place)
I0411 00:38:11.678419  9160 net.cpp:150] Setting up conv2_postscale
I0411 00:38:11.678429  9160 net.cpp:157] Top shape: 1024 150 18 18 (49766400)
I0411 00:38:11.678432  9160 net.cpp:165] Memory required for data: 3895349248
I0411 00:38:11.678439  9160 layer_factory.hpp:77] Creating layer pool2
I0411 00:38:11.678450  9160 net.cpp:100] Creating Layer pool2
I0411 00:38:11.678457  9160 net.cpp:434] pool2 <- conv2
I0411 00:38:11.678462  9160 net.cpp:408] pool2 -> pool2
I0411 00:38:11.678511  9160 net.cpp:150] Setting up pool2
I0411 00:38:11.678519  9160 net.cpp:157] Top shape: 1024 150 9 9 (12441600)
I0411 00:38:11.678524  9160 net.cpp:165] Memory required for data: 3945115648
I0411 00:38:11.678527  9160 layer_factory.hpp:77] Creating layer conv3
I0411 00:38:11.678539  9160 net.cpp:100] Creating Layer conv3
I0411 00:38:11.678544  9160 net.cpp:434] conv3 <- pool2
I0411 00:38:11.678550  9160 net.cpp:408] conv3 -> conv3
I0411 00:38:11.684795  9160 net.cpp:150] Setting up conv3
I0411 00:38:11.684815  9160 net.cpp:157] Top shape: 1024 250 6 6 (9216000)
I0411 00:38:11.684819  9160 net.cpp:165] Memory required for data: 3981979648
I0411 00:38:11.684833  9160 layer_factory.hpp:77] Creating layer conv3_prescale
I0411 00:38:11.684842  9160 net.cpp:100] Creating Layer conv3_prescale
I0411 00:38:11.684847  9160 net.cpp:434] conv3_prescale <- conv3
I0411 00:38:11.684856  9160 net.cpp:395] conv3_prescale -> conv3 (in-place)
I0411 00:38:11.684953  9160 net.cpp:150] Setting up conv3_prescale
I0411 00:38:11.684962  9160 net.cpp:157] Top shape: 1024 250 6 6 (9216000)
I0411 00:38:11.684965  9160 net.cpp:165] Memory required for data: 4018843648
I0411 00:38:11.684969  9160 layer_factory.hpp:77] Creating layer conv3_sTanH
I0411 00:38:11.684976  9160 net.cpp:100] Creating Layer conv3_sTanH
I0411 00:38:11.684980  9160 net.cpp:434] conv3_sTanH <- conv3
I0411 00:38:11.684984  9160 net.cpp:395] conv3_sTanH -> conv3 (in-place)
I0411 00:38:11.689944  9160 net.cpp:150] Setting up conv3_sTanH
I0411 00:38:11.689980  9160 net.cpp:157] Top shape: 1024 250 6 6 (9216000)
I0411 00:38:11.689986  9160 net.cpp:165] Memory required for data: 4055707648
I0411 00:38:11.689995  9160 layer_factory.hpp:77] Creating layer conv3_postscale
I0411 00:38:11.690008  9160 net.cpp:100] Creating Layer conv3_postscale
I0411 00:38:11.690016  9160 net.cpp:434] conv3_postscale <- conv3
I0411 00:38:11.690032  9160 net.cpp:395] conv3_postscale -> conv3 (in-place)
I0411 00:38:11.690281  9160 net.cpp:150] Setting up conv3_postscale
I0411 00:38:11.690300  9160 net.cpp:157] Top shape: 1024 250 6 6 (9216000)
I0411 00:38:11.690309  9160 net.cpp:165] Memory required for data: 4092571648
I0411 00:38:11.690320  9160 layer_factory.hpp:77] Creating layer pool3
I0411 00:38:11.690333  9160 net.cpp:100] Creating Layer pool3
I0411 00:38:11.690341  9160 net.cpp:434] pool3 <- conv3
I0411 00:38:11.690351  9160 net.cpp:408] pool3 -> pool3
I0411 00:38:11.690433  9160 net.cpp:150] Setting up pool3
I0411 00:38:11.690446  9160 net.cpp:157] Top shape: 1024 250 3 3 (2304000)
I0411 00:38:11.690454  9160 net.cpp:165] Memory required for data: 4101787648
I0411 00:38:11.690460  9160 layer_factory.hpp:77] Creating layer fc4_300
I0411 00:38:11.690482  9160 net.cpp:100] Creating Layer fc4_300
I0411 00:38:11.690491  9160 net.cpp:434] fc4_300 <- pool3
I0411 00:38:11.690501  9160 net.cpp:408] fc4_300 -> fc4_300
I0411 00:38:11.696877  9160 net.cpp:150] Setting up fc4_300
I0411 00:38:11.696894  9160 net.cpp:157] Top shape: 1024 300 (307200)
I0411 00:38:11.696899  9160 net.cpp:165] Memory required for data: 4103016448
I0411 00:38:11.696907  9160 layer_factory.hpp:77] Creating layer fc4_prescale
I0411 00:38:11.696918  9160 net.cpp:100] Creating Layer fc4_prescale
I0411 00:38:11.696923  9160 net.cpp:434] fc4_prescale <- fc4_300
I0411 00:38:11.696929  9160 net.cpp:395] fc4_prescale -> fc4_300 (in-place)
I0411 00:38:11.697016  9160 net.cpp:150] Setting up fc4_prescale
I0411 00:38:11.697024  9160 net.cpp:157] Top shape: 1024 300 (307200)
I0411 00:38:11.697027  9160 net.cpp:165] Memory required for data: 4104245248
I0411 00:38:11.697032  9160 layer_factory.hpp:77] Creating layer fc4_sTanH
I0411 00:38:11.697038  9160 net.cpp:100] Creating Layer fc4_sTanH
I0411 00:38:11.697043  9160 net.cpp:434] fc4_sTanH <- fc4_300
I0411 00:38:11.697048  9160 net.cpp:395] fc4_sTanH -> fc4_300 (in-place)
I0411 00:38:11.697232  9160 net.cpp:150] Setting up fc4_sTanH
I0411 00:38:11.697244  9160 net.cpp:157] Top shape: 1024 300 (307200)
I0411 00:38:11.697247  9160 net.cpp:165] Memory required for data: 4105474048
I0411 00:38:11.697250  9160 layer_factory.hpp:77] Creating layer fc4_postscale
I0411 00:38:11.697258  9160 net.cpp:100] Creating Layer fc4_postscale
I0411 00:38:11.697263  9160 net.cpp:434] fc4_postscale <- fc4_300
I0411 00:38:11.697268  9160 net.cpp:395] fc4_postscale -> fc4_300 (in-place)
I0411 00:38:11.697366  9160 net.cpp:150] Setting up fc4_postscale
I0411 00:38:11.697374  9160 net.cpp:157] Top shape: 1024 300 (307200)
I0411 00:38:11.697377  9160 net.cpp:165] Memory required for data: 4106702848
I0411 00:38:11.697382  9160 layer_factory.hpp:77] Creating layer fc5_67
I0411 00:38:11.697389  9160 net.cpp:100] Creating Layer fc5_67
I0411 00:38:11.697393  9160 net.cpp:434] fc5_67 <- fc4_300
I0411 00:38:11.697398  9160 net.cpp:408] fc5_67 -> fc5_classes
I0411 00:38:11.706267  9160 net.cpp:150] Setting up fc5_67
I0411 00:38:11.706285  9160 net.cpp:157] Top shape: 1024 67 (68608)
I0411 00:38:11.706288  9160 net.cpp:165] Memory required for data: 4106977280
I0411 00:38:11.706300  9160 layer_factory.hpp:77] Creating layer loss
I0411 00:38:11.706307  9160 net.cpp:100] Creating Layer loss
I0411 00:38:11.706311  9160 net.cpp:434] loss <- fc5_classes
I0411 00:38:11.706315  9160 net.cpp:434] loss <- label
I0411 00:38:11.706322  9160 net.cpp:408] loss -> loss
I0411 00:38:11.706336  9160 layer_factory.hpp:77] Creating layer loss
…
I0411 00:38:11.707080  9160 solver.cpp:193] Creating test net (#0) specified by test_net file: ./Prototxt/experiment_8/rtsd-r1/CoNorm/trial_1/test.prototxt
I0411 00:38:11.707257  9160 net.cpp:58] Initializing net from parameters: 
state {
  phase: TEST
}
layer {
  name: "data"
  type: "Data"
  top: "data"
  top: "label"
  include {
    phase: TEST
  }
  transform_param {
    mirror: false
    crop_size: 48
    mean_value: 133
    mean_value: 133
    mean_value: 132
  }
  data_param {
    source: "../local_data/lmdb/rtsd-r1/CoNorm/test/lmdb"
    batch_size: 1024
    backend: LMDB
  }
}
layer {
  name: "conv1"
  type: "Convolution"
  bottom: "data"
  top: "conv1"
  convolution_param {
    num_output: 100
    pad: 0
    kernel_size: 7
    group: 1
    stride: 1
    weight_filler {
      type: "xavier"
    }
  }
}
layer {
  name: "conv1_prescale"
  type: "Scale"
  bottom: "conv1"
  top: "conv1"
  param {
    lr_mult: 0
    decay_mult: 0
  }
  scale_param {
    filler {
      value: 0.6666
    }
  }
}
layer {
  name: "conv1_sTanH"
  type: "TanH"
  bottom: "conv1"
  top: "conv1"
}
layer {
  name: "conv1_postscale"
  type: "Scale"
  bottom: "conv1"
  top: "conv1"
  param {
    lr_mult: 0
    decay_mult: 0
  }
  scale_param {
    filler {
      value: 1.7159
    }
  }
}
layer {
  name: "pool1"
  type: "Pooling"
  bottom: "conv1"
  top: "pool1"
  pooling_param {
    pool: MAX
    kernel_size: 2
    stride: 2
  }
}
layer {
  name: "conv2"
  type: "Convolution"
  bottom: "pool1"
  top: "conv2"
  convolution_param {
    num_output: 150
    pad: 0
    kernel_size: 4
    group: 1
    stride: 1
    weight_filler {
      type: "xavier"
    }
  }
}
layer {
  name: "conv2_prescale"
  type: "Scale"
  bottom: "conv2"
  top: "conv2"
  param {
    lr_mult: 0
    decay_mult: 0
  }
  scale_param {
    filler {
      value: 0.6666
    }
  }
}
layer {
  name: "conv2_sTanH"
  type: "TanH"
  bottom: "conv2"
  top: "conv2"
}
layer {
  name: "conv2_postscale"
  type: "Scale"
  bottom: "conv2"
  top: "conv2"
  param {
    lr_mult: 0
    decay_mult: 0
  }
  scale_param {
    filler {
      value: 1.7159
    }
  }
}
layer {
  name: "pool2"
  type: "Pooling"
  bottom: "conv2"
  top: "pool2"
  pooling_param {
    pool: MAX
    kernel_size: 2
    stride: 2
  }
}
layer {
  name: "conv3"
  type: "Convolution"
  bottom: "pool2"
  top: "conv3"
  convolution_param {
    num_output: 250
    pad: 0
    kernel_size: 4
    group: 1
    stride: 1
    weight_filler {
      type: "xavier"
    }
  }
}
layer {
  name: "conv3_prescale"
  type: "Scale"
  bottom: "conv3"
  top: "conv3"
  param {
    lr_mult: 0
    decay_mult: 0
  }
  scale_param {
    filler {
      value: 0.6666
    }
  }
}
layer {
  name: "conv3_sTanH"
  type: "TanH"
  bottom: "conv3"
  top: "conv3"
}
layer {
  name: "conv3_postscale"
  type: "Scale"
  bottom: "conv3"
  top: "conv3"
  param {
    lr_mult: 0
    decay_mult: 0
  }
  scale_param {
    filler {
      value: 1.7159
    }
  }
}
layer {
  name: "pool3"
  type: "Pooling"
  bottom: "conv3"
  top: "pool3"
  pooling_param {
    pool: MAX
    kernel_size: 2
    stride: 2
  }
}
layer {
  name: "fc4_300"
  type: "InnerProduct"
  bottom: "pool3"
  top: "fc4_300"
  inner_product_param {
    num_output: 300
    weight_filler {
      type: "xavier"
    }
  }
}
layer {
  name: "fc4_prescale"
  type: "Scale"
  bottom: "fc4_300"
  top: "fc4_300"
  param {
    lr_mult: 0
    decay_mult: 0
  }
  scale_param {
    filler {
      value: 0.6666
    }
    bias_term: false
  }
}
layer {
  name: "fc4_sTanH"
  type: "TanH"
  bottom: "fc4_300"
  top: "fc4_300"
}
layer {
  name: "fc4_postscale"
  type: "Scale"
  bottom: "fc4_300"
  top: "fc4_300"
  param {
    lr_mult: 0
    decay_mult: 0
  }
  scale_param {
    filler {
      value: 1.7159
    }
    bias_term: false
  }
}
layer {
  name: "fc5_67"
  type: "InnerProduct"
  bottom: "fc4_300"
  top: "fc5_classes"
  inner_product_param {
    num_output: 67
    weight_filler {
      type: "xavier"
    }
  }
}
layer {
  name: "loss"
  type: "SoftmaxWithLoss"
  bottom: "fc5_classes"
  bottom: "label"
  top: "loss"
}
layer {
  name: "accuracy_1"
  type: "Accuracy"
  bottom: "fc5_classes"
  bottom: "label"
  top: "accuracy_1"
  include {
    phase: TEST
  }
  accuracy_param {
    top_k: 1
  }
}
layer {
  name: "accuracy_5"
  type: "Accuracy"
  bottom: "fc5_classes"
  bottom: "label"
  top: "accuracy_5"
  include {
    phase: TEST
  }
  accuracy_param {
    top_k: 5
  }
}
I0411 00:38:11.707376  9160 layer_factory.hpp:77] Creating layer data
I0411 00:38:11.708061  9160 net.cpp:100] Creating Layer data
I0411 00:38:11.708076  9160 net.cpp:408] data -> data
I0411 00:38:11.708086  9160 net.cpp:408] data -> label
I0411 00:38:11.713230  9311 db_lmdb.cpp:35] Opened lmdb ../local_data/lmdb/rtsd-r1/CoNorm/test/lmdb
I0411 00:38:11.713438  9160 data_layer.cpp:41] output data size: 1024,3,48,48
I0411 00:38:11.767969  9160 net.cpp:150] Setting up data
I0411 00:38:11.767997  9160 net.cpp:157] Top shape: 1024 3 48 48 (7077888)
I0411 00:38:11.768002  9160 net.cpp:157] Top shape: 1024 (1024)
I0411 00:38:11.768005  9160 net.cpp:165] Memory required for data: 28315648
I0411 00:38:11.768010  9160 layer_factory.hpp:77] Creating layer label_data_1_split
I0411 00:38:11.768025  9160 net.cpp:100] Creating Layer label_data_1_split
I0411 00:38:11.768029  9160 net.cpp:434] label_data_1_split <- label
I0411 00:38:11.768038  9160 net.cpp:408] label_data_1_split -> label_data_1_split_0
I0411 00:38:11.768049  9160 net.cpp:408] label_data_1_split -> label_data_1_split_1
I0411 00:38:11.768059  9160 net.cpp:408] label_data_1_split -> label_data_1_split_2
I0411 00:38:11.768213  9160 net.cpp:150] Setting up label_data_1_split
I0411 00:38:11.768221  9160 net.cpp:157] Top shape: 1024 (1024)
I0411 00:38:11.768225  9160 net.cpp:157] Top shape: 1024 (1024)
I0411 00:38:11.768229  9160 net.cpp:157] Top shape: 1024 (1024)
I0411 00:38:11.768231  9160 net.cpp:165] Memory required for data: 28327936
I0411 00:38:11.768234  9160 layer_factory.hpp:77] Creating layer conv1
I0411 00:38:11.768249  9160 net.cpp:100] Creating Layer conv1
I0411 00:38:11.768254  9160 net.cpp:434] conv1 <- data
I0411 00:38:11.768260  9160 net.cpp:408] conv1 -> conv1
I0411 00:38:11.771579  9160 net.cpp:150] Setting up conv1
I0411 00:38:11.771598  9160 net.cpp:157] Top shape: 1024 100 42 42 (180633600)
I0411 00:38:11.771605  9160 net.cpp:165] Memory required for data: 750862336
I0411 00:38:11.771616  9160 layer_factory.hpp:77] Creating layer conv1_prescale
I0411 00:38:11.771627  9160 net.cpp:100] Creating Layer conv1_prescale
I0411 00:38:11.771632  9160 net.cpp:434] conv1_prescale <- conv1
I0411 00:38:11.771657  9160 net.cpp:395] conv1_prescale -> conv1 (in-place)
I0411 00:38:11.771775  9160 net.cpp:150] Setting up conv1_prescale
I0411 00:38:11.771785  9160 net.cpp:157] Top shape: 1024 100 42 42 (180633600)
I0411 00:38:11.771787  9160 net.cpp:165] Memory required for data: 1473396736
I0411 00:38:11.771795  9160 layer_factory.hpp:77] Creating layer conv1_sTanH
I0411 00:38:11.771805  9160 net.cpp:100] Creating Layer conv1_sTanH
I0411 00:38:11.771809  9160 net.cpp:434] conv1_sTanH <- conv1
I0411 00:38:11.771813  9160 net.cpp:395] conv1_sTanH -> conv1 (in-place)
I0411 00:38:11.772027  9160 net.cpp:150] Setting up conv1_sTanH
I0411 00:38:11.772042  9160 net.cpp:157] Top shape: 1024 100 42 42 (180633600)
I0411 00:38:11.772047  9160 net.cpp:165] Memory required for data: 2195931136
I0411 00:38:11.772050  9160 layer_factory.hpp:77] Creating layer conv1_postscale
I0411 00:38:11.772058  9160 net.cpp:100] Creating Layer conv1_postscale
I0411 00:38:11.772060  9160 net.cpp:434] conv1_postscale <- conv1
I0411 00:38:11.772066  9160 net.cpp:395] conv1_postscale -> conv1 (in-place)
I0411 00:38:11.772176  9160 net.cpp:150] Setting up conv1_postscale
I0411 00:38:11.772184  9160 net.cpp:157] Top shape: 1024 100 42 42 (180633600)
I0411 00:38:11.772187  9160 net.cpp:165] Memory required for data: 2918465536
I0411 00:38:11.772192  9160 layer_factory.hpp:77] Creating layer pool1
I0411 00:38:11.772198  9160 net.cpp:100] Creating Layer pool1
I0411 00:38:11.772202  9160 net.cpp:434] pool1 <- conv1
I0411 00:38:11.772207  9160 net.cpp:408] pool1 -> pool1
I0411 00:38:11.772251  9160 net.cpp:150] Setting up pool1
I0411 00:38:11.772258  9160 net.cpp:157] Top shape: 1024 100 21 21 (45158400)
I0411 00:38:11.772261  9160 net.cpp:165] Memory required for data: 3099099136
I0411 00:38:11.772264  9160 layer_factory.hpp:77] Creating layer conv2
I0411 00:38:11.772274  9160 net.cpp:100] Creating Layer conv2
I0411 00:38:11.772279  9160 net.cpp:434] conv2 <- pool1
I0411 00:38:11.772285  9160 net.cpp:408] conv2 -> conv2
I0411 00:38:11.777401  9160 net.cpp:150] Setting up conv2
I0411 00:38:11.777425  9160 net.cpp:157] Top shape: 1024 150 18 18 (49766400)
I0411 00:38:11.777428  9160 net.cpp:165] Memory required for data: 3298164736
I0411 00:38:11.777438  9160 layer_factory.hpp:77] Creating layer conv2_prescale
I0411 00:38:11.777451  9160 net.cpp:100] Creating Layer conv2_prescale
I0411 00:38:11.777457  9160 net.cpp:434] conv2_prescale <- conv2
I0411 00:38:11.777463  9160 net.cpp:395] conv2_prescale -> conv2 (in-place)
I0411 00:38:11.777577  9160 net.cpp:150] Setting up conv2_prescale
I0411 00:38:11.777586  9160 net.cpp:157] Top shape: 1024 150 18 18 (49766400)
I0411 00:38:11.777590  9160 net.cpp:165] Memory required for data: 3497230336
I0411 00:38:11.777595  9160 layer_factory.hpp:77] Creating layer conv2_sTanH
I0411 00:38:11.777601  9160 net.cpp:100] Creating Layer conv2_sTanH
I0411 00:38:11.777603  9160 net.cpp:434] conv2_sTanH <- conv2
I0411 00:38:11.777608  9160 net.cpp:395] conv2_sTanH -> conv2 (in-place)
I0411 00:38:11.778535  9160 net.cpp:150] Setting up conv2_sTanH
I0411 00:38:11.778550  9160 net.cpp:157] Top shape: 1024 150 18 18 (49766400)
I0411 00:38:11.778554  9160 net.cpp:165] Memory required for data: 3696295936
I0411 00:38:11.778558  9160 layer_factory.hpp:77] Creating layer conv2_postscale
I0411 00:38:11.778566  9160 net.cpp:100] Creating Layer conv2_postscale
I0411 00:38:11.778571  9160 net.cpp:434] conv2_postscale <- conv2
I0411 00:38:11.778578  9160 net.cpp:395] conv2_postscale -> conv2 (in-place)
I0411 00:38:11.778682  9160 net.cpp:150] Setting up conv2_postscale
I0411 00:38:11.778690  9160 net.cpp:157] Top shape: 1024 150 18 18 (49766400)
I0411 00:38:11.778693  9160 net.cpp:165] Memory required for data: 3895361536
I0411 00:38:11.778698  9160 layer_factory.hpp:77] Creating layer pool2
I0411 00:38:11.778707  9160 net.cpp:100] Creating Layer pool2
I0411 00:38:11.778710  9160 net.cpp:434] pool2 <- conv2
I0411 00:38:11.778715  9160 net.cpp:408] pool2 -> pool2
I0411 00:38:11.778775  9160 net.cpp:150] Setting up pool2
I0411 00:38:11.778797  9160 net.cpp:157] Top shape: 1024 150 9 9 (12441600)
I0411 00:38:11.778801  9160 net.cpp:165] Memory required for data: 3945127936
I0411 00:38:11.778805  9160 layer_factory.hpp:77] Creating layer conv3
I0411 00:38:11.778815  9160 net.cpp:100] Creating Layer conv3
I0411 00:38:11.778820  9160 net.cpp:434] conv3 <- pool2
I0411 00:38:11.778826  9160 net.cpp:408] conv3 -> conv3
I0411 00:38:11.784762  9160 net.cpp:150] Setting up conv3
I0411 00:38:11.784780  9160 net.cpp:157] Top shape: 1024 250 6 6 (9216000)
I0411 00:38:11.784783  9160 net.cpp:165] Memory required for data: 3981991936
I0411 00:38:11.784793  9160 layer_factory.hpp:77] Creating layer conv3_prescale
I0411 00:38:11.784804  9160 net.cpp:100] Creating Layer conv3_prescale
I0411 00:38:11.784809  9160 net.cpp:434] conv3_prescale <- conv3
I0411 00:38:11.784816  9160 net.cpp:395] conv3_prescale -> conv3 (in-place)
I0411 00:38:11.784919  9160 net.cpp:150] Setting up conv3_prescale
I0411 00:38:11.784927  9160 net.cpp:157] Top shape: 1024 250 6 6 (9216000)
I0411 00:38:11.784930  9160 net.cpp:165] Memory required for data: 4018855936
I0411 00:38:11.784934  9160 layer_factory.hpp:77] Creating layer conv3_sTanH
I0411 00:38:11.784940  9160 net.cpp:100] Creating Layer conv3_sTanH
I0411 00:38:11.784943  9160 net.cpp:434] conv3_sTanH <- conv3
I0411 00:38:11.784948  9160 net.cpp:395] conv3_sTanH -> conv3 (in-place)
I0411 00:38:11.785723  9160 net.cpp:150] Setting up conv3_sTanH
I0411 00:38:11.785739  9160 net.cpp:157] Top shape: 1024 250 6 6 (9216000)
I0411 00:38:11.785742  9160 net.cpp:165] Memory required for data: 4055719936
I0411 00:38:11.785747  9160 layer_factory.hpp:77] Creating layer conv3_postscale
I0411 00:38:11.785756  9160 net.cpp:100] Creating Layer conv3_postscale
I0411 00:38:11.785763  9160 net.cpp:434] conv3_postscale <- conv3
I0411 00:38:11.785768  9160 net.cpp:395] conv3_postscale -> conv3 (in-place)
I0411 00:38:11.785871  9160 net.cpp:150] Setting up conv3_postscale
I0411 00:38:11.785879  9160 net.cpp:157] Top shape: 1024 250 6 6 (9216000)
I0411 00:38:11.785882  9160 net.cpp:165] Memory required for data: 4092583936
I0411 00:38:11.785887  9160 layer_factory.hpp:77] Creating layer pool3
I0411 00:38:11.785897  9160 net.cpp:100] Creating Layer pool3
I0411 00:38:11.785902  9160 net.cpp:434] pool3 <- conv3
I0411 00:38:11.785907  9160 net.cpp:408] pool3 -> pool3
I0411 00:38:11.785949  9160 net.cpp:150] Setting up pool3
I0411 00:38:11.785956  9160 net.cpp:157] Top shape: 1024 250 3 3 (2304000)
I0411 00:38:11.785959  9160 net.cpp:165] Memory required for data: 4101799936
I0411 00:38:11.785964  9160 layer_factory.hpp:77] Creating layer fc4_300
I0411 00:38:11.785969  9160 net.cpp:100] Creating Layer fc4_300
I0411 00:38:11.785974  9160 net.cpp:434] fc4_300 <- pool3
I0411 00:38:11.785980  9160 net.cpp:408] fc4_300 -> fc4_300
I0411 00:38:11.791347  9160 net.cpp:150] Setting up fc4_300
I0411 00:38:11.791363  9160 net.cpp:157] Top shape: 1024 300 (307200)
I0411 00:38:11.791366  9160 net.cpp:165] Memory required for data: 4103028736
I0411 00:38:11.791373  9160 layer_factory.hpp:77] Creating layer fc4_prescale
I0411 00:38:11.791380  9160 net.cpp:100] Creating Layer fc4_prescale
I0411 00:38:11.791385  9160 net.cpp:434] fc4_prescale <- fc4_300
I0411 00:38:11.791393  9160 net.cpp:395] fc4_prescale -> fc4_300 (in-place)
I0411 00:38:11.791504  9160 net.cpp:150] Setting up fc4_prescale
I0411 00:38:11.791513  9160 net.cpp:157] Top shape: 1024 300 (307200)
I0411 00:38:11.791517  9160 net.cpp:165] Memory required for data: 4104257536
I0411 00:38:11.791520  9160 layer_factory.hpp:77] Creating layer fc4_sTanH
I0411 00:38:11.791527  9160 net.cpp:100] Creating Layer fc4_sTanH
I0411 00:38:11.791529  9160 net.cpp:434] fc4_sTanH <- fc4_300
I0411 00:38:11.791534  9160 net.cpp:395] fc4_sTanH -> fc4_300 (in-place)
I0411 00:38:11.791730  9160 net.cpp:150] Setting up fc4_sTanH
I0411 00:38:11.791741  9160 net.cpp:157] Top shape: 1024 300 (307200)
I0411 00:38:11.791744  9160 net.cpp:165] Memory required for data: 4105486336
I0411 00:38:11.791748  9160 layer_factory.hpp:77] Creating layer fc4_postscale
I0411 00:38:11.791769  9160 net.cpp:100] Creating Layer fc4_postscale
I0411 00:38:11.791774  9160 net.cpp:434] fc4_postscale <- fc4_300
I0411 00:38:11.791782  9160 net.cpp:395] fc4_postscale -> fc4_300 (in-place)
I0411 00:38:11.791899  9160 net.cpp:150] Setting up fc4_postscale
I0411 00:38:11.791909  9160 net.cpp:157] Top shape: 1024 300 (307200)
I0411 00:38:11.791913  9160 net.cpp:165] Memory required for data: 4106715136
I0411 00:38:11.791918  9160 layer_factory.hpp:77] Creating layer fc5_67
I0411 00:38:11.791923  9160 net.cpp:100] Creating Layer fc5_67
I0411 00:38:11.791929  9160 net.cpp:434] fc5_67 <- fc4_300
I0411 00:38:11.791935  9160 net.cpp:408] fc5_67 -> fc5_classes
I0411 00:38:11.792188  9160 net.cpp:150] Setting up fc5_67
I0411 00:38:11.792197  9160 net.cpp:157] Top shape: 1024 67 (68608)
I0411 00:38:11.792201  9160 net.cpp:165] Memory required for data: 4106989568
I0411 00:38:11.792215  9160 layer_factory.hpp:77] Creating layer fc5_classes_fc5_67_0_split
I0411 00:38:11.792224  9160 net.cpp:100] Creating Layer fc5_classes_fc5_67_0_split
I0411 00:38:11.792229  9160 net.cpp:434] fc5_classes_fc5_67_0_split <- fc5_classes
I0411 00:38:11.792235  9160 net.cpp:408] fc5_classes_fc5_67_0_split -> fc5_classes_fc5_67_0_split_0
I0411 00:38:11.792243  9160 net.cpp:408] fc5_classes_fc5_67_0_split -> fc5_classes_fc5_67_0_split_1
I0411 00:38:11.792248  9160 net.cpp:408] fc5_classes_fc5_67_0_split -> fc5_classes_fc5_67_0_split_2
I0411 00:38:11.792299  9160 net.cpp:150] Setting up fc5_classes_fc5_67_0_split
I0411 00:38:11.792305  9160 net.cpp:157] Top shape: 1024 67 (68608)
I0411 00:38:11.792309  9160 net.cpp:157] Top shape: 1024 67 (68608)
I0411 00:38:11.792312  9160 net.cpp:157] Top shape: 1024 67 (68608)
I0411 00:38:11.792315  9160 net.cpp:165] Memory required for data: 4107812864
I0411 00:38:11.792317  9160 layer_factory.hpp:77] Creating layer loss
I0411 00:38:11.792325  9160 net.cpp:100] Creating Layer loss
I0411 00:38:11.792328  9160 net.cpp:434] loss <- fc5_classes_fc5_67_0_split_0
I0411 00:38:11.792332  9160 net.cpp:434] loss <- label_data_1_split_0
I0411 00:38:11.792337  9160 net.cpp:408] loss -> loss
…
