…
I0411 00:06:08.661115 21018 net.cpp:322] The NetState phase (0) differed from the phase (1) specified by a rule in layer accuracy_5
I0411 00:06:08.661288 21018 net.cpp:58] Initializing net from parameters: 
state {
  phase: TRAIN
  level: 0
  stage: ""
}
layer {
  name: "data"
  type: "Data"
  top: "data"
  top: "label"
  include {
    phase: TRAIN
  }
  transform_param {
    mirror: false
    crop_size: 48
    mean_value: 132
    mean_value: 132
    mean_value: 131
  }
  data_param {
    source: "../local_data/lmdb/rtsd-r1/CoNorm/train/lmdb"
    batch_size: 1024
    backend: LMDB
  }
}
layer {
  name: "conv1"
  type: "Convolution"
  bottom: "data"
  top: "conv1"
  convolution_param {
    num_output: 100
    pad: 0
    kernel_size: 7
    group: 1
    stride: 1
    weight_filler {
      type: "xavier"
    }
  }
}
layer {
  name: "conv1_prescale"
  type: "Scale"
  bottom: "conv1"
  top: "conv1"
  param {
    lr_mult: 0
    decay_mult: 0
  }
  scale_param {
    filler {
      value: 0.6666
    }
  }
}
layer {
  name: "conv1_sTanH"
  type: "TanH"
  bottom: "conv1"
  top: "conv1"
}
layer {
  name: "conv1_postscale"
  type: "Scale"
  bottom: "conv1"
  top: "conv1"
  param {
    lr_mult: 0
    decay_mult: 0
  }
  scale_param {
    filler {
      value: 1.7159
    }
  }
}
layer {
  name: "pool1"
  type: "Pooling"
  bottom: "conv1"
  top: "pool1"
  pooling_param {
    pool: MAX
    kernel_size: 2
    stride: 2
  }
}
layer {
  name: "conv2"
  type: "Convolution"
  bottom: "pool1"
  top: "conv2"
  convolution_param {
    num_output: 150
    pad: 0
    kernel_size: 4
    group: 1
    stride: 1
    weight_filler {
      type: "xavier"
    }
  }
}
layer {
  name: "conv2_prescale"
  type: "Scale"
  bottom: "conv2"
  top: "conv2"
  param {
    lr_mult: 0
    decay_mult: 0
  }
  scale_param {
    filler {
      value: 0.6666
    }
  }
}
layer {
  name: "conv2_sTanH"
  type: "TanH"
  bottom: "conv2"
  top: "conv2"
}
layer {
  name: "conv2_postscale"
  type: "Scale"
  bottom: "conv2"
  top: "conv2"
  param {
    lr_mult: 0
    decay_mult: 0
  }
  scale_param {
    filler {
      value: 1.7159
    }
  }
}
layer {
  name: "pool2"
  type: "Pooling"
  bottom: "conv2"
  top: "pool2"
  pooling_param {
    pool: MAX
    kernel_size: 2
    stride: 2
  }
}
layer {
  name: "conv3"
  type: "Convolution"
  bottom: "pool2"
  top: "conv3"
  convolution_param {
    num_output: 250
    pad: 0
    kernel_size: 4
    group: 1
    stride: 1
    weight_filler {
      type: "xavier"
    }
  }
}
layer {
  name: "conv3_prescale"
  type: "Scale"
  bottom: "conv3"
  top: "conv3"
  param {
    lr_mult: 0
    decay_mult: 0
  }
  scale_param {
    filler {
      value: 0.6666
    }
  }
}
layer {
  name: "conv3_sTanH"
  type: "TanH"
  bottom: "conv3"
  top: "conv3"
}
layer {
  name: "conv3_postscale"
  type: "Scale"
  bottom: "conv3"
  top: "conv3"
  param {
    lr_mult: 0
    decay_mult: 0
  }
  scale_param {
    filler {
      value: 1.7159
    }
  }
}
layer {
  name: "pool3"
  type: "Pooling"
  bottom: "conv3"
  top: "pool3"
  pooling_param {
    pool: MAX
    kernel_size: 2
    stride: 2
  }
}
layer {
  name: "fc4_300"
  type: "InnerProduct"
  bottom: "pool3"
  top: "fc4_300"
  inner_product_param {
    num_output: 300
    weight_filler {
      type: "xavier"
    }
  }
}
layer {
  name: "fc4_prescale"
  type: "Scale"
  bottom: "fc4_300"
  top: "fc4_300"
  param {
    lr_mult: 0
    decay_mult: 0
  }
  scale_param {
    filler {
      value: 0.6666
    }
  }
}
layer {
  name: "fc4_sTanH"
  type: "TanH"
  bottom: "fc4_300"
  top: "fc4_300"
}
layer {
  name: "fc4_postscale"
  type: "Scale"
  bottom: "fc4_300"
  top: "fc4_300"
  param {
    lr_mult: 0
    decay_mult: 0
  }
  scale_param {
    filler {
      value: 1.7159
    }
  }
}
layer {
  name: "fc5_67"
  type: "InnerProduct"
  bottom: "fc4_300"
  top: "fc5_classes"
  inner_product_param {
    num_output: 67
    weight_filler {
      type: "xavier"
    }
  }
}
layer {
  name: "loss"
  type: "SoftmaxWithLoss"
  bottom: "fc5_classes"
  bottom: "label"
  top: "loss"
}
I0411 00:06:08.661450 21018 layer_factory.hpp:77] Creating layer data
I0411 00:06:08.662885 21018 net.cpp:100] Creating Layer data
I0411 00:06:08.662909 21018 net.cpp:408] data -> data
I0411 00:06:08.662945 21018 net.cpp:408] data -> label
I0411 00:06:08.664134 21144 db_lmdb.cpp:35] Opened lmdb ../local_data/lmdb/rtsd-r1/CoNorm/train/lmdb
I0411 00:06:08.684975 21018 data_layer.cpp:41] output data size: 1024,3,48,48
I0411 00:06:08.737087 21018 net.cpp:150] Setting up data
I0411 00:06:08.737124 21018 net.cpp:157] Top shape: 1024 3 48 48 (7077888)
I0411 00:06:08.737134 21018 net.cpp:157] Top shape: 1024 (1024)
I0411 00:06:08.737140 21018 net.cpp:165] Memory required for data: 28315648
I0411 00:06:08.737154 21018 layer_factory.hpp:77] Creating layer conv1
I0411 00:06:08.737187 21018 net.cpp:100] Creating Layer conv1
I0411 00:06:08.737198 21018 net.cpp:434] conv1 <- data
I0411 00:06:08.737220 21018 net.cpp:408] conv1 -> conv1
I0411 00:06:09.085877 21018 net.cpp:150] Setting up conv1
I0411 00:06:09.085912 21018 net.cpp:157] Top shape: 1024 100 42 42 (180633600)
I0411 00:06:09.085921 21018 net.cpp:165] Memory required for data: 750850048
I0411 00:06:09.085953 21018 layer_factory.hpp:77] Creating layer conv1_prescale
I0411 00:06:09.085976 21018 net.cpp:100] Creating Layer conv1_prescale
I0411 00:06:09.085985 21018 net.cpp:434] conv1_prescale <- conv1
I0411 00:06:09.085999 21018 net.cpp:395] conv1_prescale -> conv1 (in-place)
I0411 00:06:09.086138 21018 net.cpp:150] Setting up conv1_prescale
I0411 00:06:09.086153 21018 net.cpp:157] Top shape: 1024 100 42 42 (180633600)
I0411 00:06:09.086158 21018 net.cpp:165] Memory required for data: 1473384448
I0411 00:06:09.086172 21018 layer_factory.hpp:77] Creating layer conv1_sTanH
I0411 00:06:09.086185 21018 net.cpp:100] Creating Layer conv1_sTanH
I0411 00:06:09.086194 21018 net.cpp:434] conv1_sTanH <- conv1
I0411 00:06:09.086205 21018 net.cpp:395] conv1_sTanH -> conv1 (in-place)
I0411 00:06:09.086452 21018 net.cpp:150] Setting up conv1_sTanH
I0411 00:06:09.086469 21018 net.cpp:157] Top shape: 1024 100 42 42 (180633600)
I0411 00:06:09.086475 21018 net.cpp:165] Memory required for data: 2195918848
I0411 00:06:09.086483 21018 layer_factory.hpp:77] Creating layer conv1_postscale
I0411 00:06:09.086496 21018 net.cpp:100] Creating Layer conv1_postscale
I0411 00:06:09.086505 21018 net.cpp:434] conv1_postscale <- conv1
I0411 00:06:09.086515 21018 net.cpp:395] conv1_postscale -> conv1 (in-place)
I0411 00:06:09.086642 21018 net.cpp:150] Setting up conv1_postscale
I0411 00:06:09.086657 21018 net.cpp:157] Top shape: 1024 100 42 42 (180633600)
I0411 00:06:09.086663 21018 net.cpp:165] Memory required for data: 2918453248
I0411 00:06:09.086673 21018 layer_factory.hpp:77] Creating layer pool1
I0411 00:06:09.086686 21018 net.cpp:100] Creating Layer pool1
I0411 00:06:09.086695 21018 net.cpp:434] pool1 <- conv1
I0411 00:06:09.086705 21018 net.cpp:408] pool1 -> pool1
I0411 00:06:09.086771 21018 net.cpp:150] Setting up pool1
I0411 00:06:09.086784 21018 net.cpp:157] Top shape: 1024 100 21 21 (45158400)
I0411 00:06:09.086791 21018 net.cpp:165] Memory required for data: 3099086848
I0411 00:06:09.086797 21018 layer_factory.hpp:77] Creating layer conv2
I0411 00:06:09.086813 21018 net.cpp:100] Creating Layer conv2
I0411 00:06:09.086840 21018 net.cpp:434] conv2 <- pool1
I0411 00:06:09.086853 21018 net.cpp:408] conv2 -> conv2
I0411 00:06:09.116276 21018 net.cpp:150] Setting up conv2
I0411 00:06:09.116299 21018 net.cpp:157] Top shape: 1024 150 18 18 (49766400)
I0411 00:06:09.116310 21018 net.cpp:165] Memory required for data: 3298152448
I0411 00:06:09.116329 21018 layer_factory.hpp:77] Creating layer conv2_prescale
I0411 00:06:09.116346 21018 net.cpp:100] Creating Layer conv2_prescale
I0411 00:06:09.116358 21018 net.cpp:434] conv2_prescale <- conv2
I0411 00:06:09.116369 21018 net.cpp:395] conv2_prescale -> conv2 (in-place)
I0411 00:06:09.116509 21018 net.cpp:150] Setting up conv2_prescale
I0411 00:06:09.116524 21018 net.cpp:157] Top shape: 1024 150 18 18 (49766400)
I0411 00:06:09.116530 21018 net.cpp:165] Memory required for data: 3497218048
I0411 00:06:09.116540 21018 layer_factory.hpp:77] Creating layer conv2_sTanH
I0411 00:06:09.116555 21018 net.cpp:100] Creating Layer conv2_sTanH
I0411 00:06:09.116564 21018 net.cpp:434] conv2_sTanH <- conv2
I0411 00:06:09.116572 21018 net.cpp:395] conv2_sTanH -> conv2 (in-place)
I0411 00:06:09.118155 21018 net.cpp:150] Setting up conv2_sTanH
I0411 00:06:09.118175 21018 net.cpp:157] Top shape: 1024 150 18 18 (49766400)
I0411 00:06:09.118181 21018 net.cpp:165] Memory required for data: 3696283648
I0411 00:06:09.118187 21018 layer_factory.hpp:77] Creating layer conv2_postscale
I0411 00:06:09.118201 21018 net.cpp:100] Creating Layer conv2_postscale
I0411 00:06:09.118211 21018 net.cpp:434] conv2_postscale <- conv2
I0411 00:06:09.118221 21018 net.cpp:395] conv2_postscale -> conv2 (in-place)
I0411 00:06:09.118346 21018 net.cpp:150] Setting up conv2_postscale
I0411 00:06:09.118360 21018 net.cpp:157] Top shape: 1024 150 18 18 (49766400)
I0411 00:06:09.118366 21018 net.cpp:165] Memory required for data: 3895349248
I0411 00:06:09.118376 21018 layer_factory.hpp:77] Creating layer pool2
I0411 00:06:09.118389 21018 net.cpp:100] Creating Layer pool2
I0411 00:06:09.118398 21018 net.cpp:434] pool2 <- conv2
I0411 00:06:09.118408 21018 net.cpp:408] pool2 -> pool2
I0411 00:06:09.118466 21018 net.cpp:150] Setting up pool2
I0411 00:06:09.118479 21018 net.cpp:157] Top shape: 1024 150 9 9 (12441600)
I0411 00:06:09.118484 21018 net.cpp:165] Memory required for data: 3945115648
I0411 00:06:09.118490 21018 layer_factory.hpp:77] Creating layer conv3
I0411 00:06:09.118505 21018 net.cpp:100] Creating Layer conv3
I0411 00:06:09.118513 21018 net.cpp:434] conv3 <- pool2
I0411 00:06:09.118525 21018 net.cpp:408] conv3 -> conv3
I0411 00:06:09.125890 21018 net.cpp:150] Setting up conv3
I0411 00:06:09.125913 21018 net.cpp:157] Top shape: 1024 250 6 6 (9216000)
I0411 00:06:09.125921 21018 net.cpp:165] Memory required for data: 3981979648
I0411 00:06:09.125938 21018 layer_factory.hpp:77] Creating layer conv3_prescale
I0411 00:06:09.125957 21018 net.cpp:100] Creating Layer conv3_prescale
I0411 00:06:09.125967 21018 net.cpp:434] conv3_prescale <- conv3
I0411 00:06:09.125978 21018 net.cpp:395] conv3_prescale -> conv3 (in-place)
I0411 00:06:09.126112 21018 net.cpp:150] Setting up conv3_prescale
I0411 00:06:09.126127 21018 net.cpp:157] Top shape: 1024 250 6 6 (9216000)
I0411 00:06:09.126133 21018 net.cpp:165] Memory required for data: 4018843648
I0411 00:06:09.126142 21018 layer_factory.hpp:77] Creating layer conv3_sTanH
I0411 00:06:09.126155 21018 net.cpp:100] Creating Layer conv3_sTanH
I0411 00:06:09.126164 21018 net.cpp:434] conv3_sTanH <- conv3
I0411 00:06:09.126178 21018 net.cpp:395] conv3_sTanH -> conv3 (in-place)
I0411 00:06:09.127640 21018 net.cpp:150] Setting up conv3_sTanH
I0411 00:06:09.127660 21018 net.cpp:157] Top shape: 1024 250 6 6 (9216000)
I0411 00:06:09.127666 21018 net.cpp:165] Memory required for data: 4055707648
I0411 00:06:09.127673 21018 layer_factory.hpp:77] Creating layer conv3_postscale
I0411 00:06:09.127689 21018 net.cpp:100] Creating Layer conv3_postscale
I0411 00:06:09.127698 21018 net.cpp:434] conv3_postscale <- conv3
I0411 00:06:09.127709 21018 net.cpp:395] conv3_postscale -> conv3 (in-place)
I0411 00:06:09.127871 21018 net.cpp:150] Setting up conv3_postscale
I0411 00:06:09.127902 21018 net.cpp:157] Top shape: 1024 250 6 6 (9216000)
I0411 00:06:09.127909 21018 net.cpp:165] Memory required for data: 4092571648
I0411 00:06:09.127919 21018 layer_factory.hpp:77] Creating layer pool3
I0411 00:06:09.127936 21018 net.cpp:100] Creating Layer pool3
I0411 00:06:09.127945 21018 net.cpp:434] pool3 <- conv3
I0411 00:06:09.127955 21018 net.cpp:408] pool3 -> pool3
I0411 00:06:09.128021 21018 net.cpp:150] Setting up pool3
I0411 00:06:09.128033 21018 net.cpp:157] Top shape: 1024 250 3 3 (2304000)
I0411 00:06:09.128039 21018 net.cpp:165] Memory required for data: 4101787648
I0411 00:06:09.128046 21018 layer_factory.hpp:77] Creating layer fc4_300
I0411 00:06:09.128063 21018 net.cpp:100] Creating Layer fc4_300
I0411 00:06:09.128072 21018 net.cpp:434] fc4_300 <- pool3
I0411 00:06:09.128082 21018 net.cpp:408] fc4_300 -> fc4_300
I0411 00:06:09.138895 21018 net.cpp:150] Setting up fc4_300
I0411 00:06:09.138916 21018 net.cpp:157] Top shape: 1024 300 (307200)
I0411 00:06:09.138922 21018 net.cpp:165] Memory required for data: 4103016448
I0411 00:06:09.138936 21018 layer_factory.hpp:77] Creating layer fc4_prescale
I0411 00:06:09.138954 21018 net.cpp:100] Creating Layer fc4_prescale
I0411 00:06:09.138964 21018 net.cpp:434] fc4_prescale <- fc4_300
I0411 00:06:09.138974 21018 net.cpp:395] fc4_prescale -> fc4_300 (in-place)
I0411 00:06:09.139097 21018 net.cpp:150] Setting up fc4_prescale
I0411 00:06:09.139111 21018 net.cpp:157] Top shape: 1024 300 (307200)
I0411 00:06:09.139117 21018 net.cpp:165] Memory required for data: 4104245248
I0411 00:06:09.139125 21018 layer_factory.hpp:77] Creating layer fc4_sTanH
I0411 00:06:09.139139 21018 net.cpp:100] Creating Layer fc4_sTanH
I0411 00:06:09.139147 21018 net.cpp:434] fc4_sTanH <- fc4_300
I0411 00:06:09.139158 21018 net.cpp:395] fc4_sTanH -> fc4_300 (in-place)
I0411 00:06:09.139408 21018 net.cpp:150] Setting up fc4_sTanH
I0411 00:06:09.139425 21018 net.cpp:157] Top shape: 1024 300 (307200)
I0411 00:06:09.139430 21018 net.cpp:165] Memory required for data: 4105474048
I0411 00:06:09.139437 21018 layer_factory.hpp:77] Creating layer fc4_postscale
I0411 00:06:09.139451 21018 net.cpp:100] Creating Layer fc4_postscale
I0411 00:06:09.139461 21018 net.cpp:434] fc4_postscale <- fc4_300
I0411 00:06:09.139470 21018 net.cpp:395] fc4_postscale -> fc4_300 (in-place)
I0411 00:06:09.139601 21018 net.cpp:150] Setting up fc4_postscale
I0411 00:06:09.139614 21018 net.cpp:157] Top shape: 1024 300 (307200)
I0411 00:06:09.139621 21018 net.cpp:165] Memory required for data: 4106702848
I0411 00:06:09.139631 21018 layer_factory.hpp:77] Creating layer fc5_67
I0411 00:06:09.139642 21018 net.cpp:100] Creating Layer fc5_67
I0411 00:06:09.139649 21018 net.cpp:434] fc5_67 <- fc4_300
I0411 00:06:09.139663 21018 net.cpp:408] fc5_67 -> fc5_classes
I0411 00:06:09.141819 21018 net.cpp:150] Setting up fc5_67
I0411 00:06:09.141840 21018 net.cpp:157] Top shape: 1024 67 (68608)
I0411 00:06:09.141847 21018 net.cpp:165] Memory required for data: 4106977280
I0411 00:06:09.141870 21018 layer_factory.hpp:77] Creating layer loss
I0411 00:06:09.141886 21018 net.cpp:100] Creating Layer loss
I0411 00:06:09.141896 21018 net.cpp:434] loss <- fc5_classes
I0411 00:06:09.141904 21018 net.cpp:434] loss <- label
I0411 00:06:09.141918 21018 net.cpp:408] loss -> loss
I0411 00:06:09.141940 21018 layer_factory.hpp:77] Creating layer loss
…
I0411 00:06:09.142931 21018 solver.cpp:193] Creating test net (#0) specified by test_net file: ./Prototxt/experiment_8/rtsd-r1/CoNorm/trial_1/test.prototxt
I0411 00:06:09.143154 21018 net.cpp:58] Initializing net from parameters: 
state {
  phase: TEST
}
layer {
  name: "data"
  type: "Data"
  top: "data"
  top: "label"
  include {
    phase: TEST
  }
  transform_param {
    mirror: false
    crop_size: 48
    mean_value: 133
    mean_value: 133
    mean_value: 132
  }
  data_param {
    source: "../local_data/lmdb/rtsd-r1/CoNorm/test/lmdb"
    batch_size: 1024
    backend: LMDB
  }
}
layer {
  name: "conv1"
  type: "Convolution"
  bottom: "data"
  top: "conv1"
  convolution_param {
    num_output: 100
    pad: 0
    kernel_size: 7
    group: 1
    stride: 1
    weight_filler {
      type: "xavier"
    }
  }
}
layer {
  name: "conv1_prescale"
  type: "Scale"
  bottom: "conv1"
  top: "conv1"
  param {
    lr_mult: 0
    decay_mult: 0
  }
  scale_param {
    filler {
      value: 0.6666
    }
  }
}
layer {
  name: "conv1_sTanH"
  type: "TanH"
  bottom: "conv1"
  top: "conv1"
}
layer {
  name: "conv1_postscale"
  type: "Scale"
  bottom: "conv1"
  top: "conv1"
  param {
    lr_mult: 0
    decay_mult: 0
  }
  scale_param {
    filler {
      value: 1.7159
    }
  }
}
layer {
  name: "pool1"
  type: "Pooling"
  bottom: "conv1"
  top: "pool1"
  pooling_param {
    pool: MAX
    kernel_size: 2
    stride: 2
  }
}
layer {
  name: "conv2"
  type: "Convolution"
  bottom: "pool1"
  top: "conv2"
  convolution_param {
    num_output: 150
    pad: 0
    kernel_size: 4
    group: 1
    stride: 1
    weight_filler {
      type: "xavier"
    }
  }
}
layer {
  name: "conv2_prescale"
  type: "Scale"
  bottom: "conv2"
  top: "conv2"
  param {
    lr_mult: 0
    decay_mult: 0
  }
  scale_param {
    filler {
      value: 0.6666
    }
  }
}
layer {
  name: "conv2_sTanH"
  type: "TanH"
  bottom: "conv2"
  top: "conv2"
}
layer {
  name: "conv2_postscale"
  type: "Scale"
  bottom: "conv2"
  top: "conv2"
  param {
    lr_mult: 0
    decay_mult: 0
  }
  scale_param {
    filler {
      value: 1.7159
    }
  }
}
layer {
  name: "pool2"
  type: "Pooling"
  bottom: "conv2"
  top: "pool2"
  pooling_param {
    pool: MAX
    kernel_size: 2
    stride: 2
  }
}
layer {
  name: "conv3"
  type: "Convolution"
  bottom: "pool2"
  top: "conv3"
  convolution_param {
    num_output: 250
    pad: 0
    kernel_size: 4
    group: 1
    stride: 1
    weight_filler {
      type: "xavier"
    }
  }
}
layer {
  name: "conv3_prescale"
  type: "Scale"
  bottom: "conv3"
  top: "conv3"
  param {
    lr_mult: 0
    decay_mult: 0
  }
  scale_param {
    filler {
      value: 0.6666
    }
  }
}
layer {
  name: "conv3_sTanH"
  type: "TanH"
  bottom: "conv3"
  top: "conv3"
}
layer {
  name: "conv3_postscale"
  type: "Scale"
  bottom: "conv3"
  top: "conv3"
  param {
    lr_mult: 0
    decay_mult: 0
  }
  scale_param {
    filler {
      value: 1.7159
    }
  }
}
layer {
  name: "pool3"
  type: "Pooling"
  bottom: "conv3"
  top: "pool3"
  pooling_param {
    pool: MAX
    kernel_size: 2
    stride: 2
  }
}
layer {
  name: "fc4_300"
  type: "InnerProduct"
  bottom: "pool3"
  top: "fc4_300"
  inner_product_param {
    num_output: 300
    weight_filler {
      type: "xavier"
    }
  }
}
layer {
  name: "fc4_prescale"
  type: "Scale"
  bottom: "fc4_300"
  top: "fc4_300"
  param {
    lr_mult: 0
    decay_mult: 0
  }
  scale_param {
    filler {
      value: 0.6666
    }
  }
}
layer {
  name: "fc4_sTanH"
  type: "TanH"
  bottom: "fc4_300"
  top: "fc4_300"
}
layer {
  name: "fc4_postscale"
  type: "Scale"
  bottom: "fc4_300"
  top: "fc4_300"
  param {
    lr_mult: 0
    decay_mult: 0
  }
  scale_param {
    filler {
      value: 1.7159
    }
  }
}
layer {
  name: "fc5_67"
  type: "InnerProduct"
  bottom: "fc4_300"
  top: "fc5_classes"
  inner_product_param {
    num_output: 67
    weight_filler {
      type: "xavier"
    }
  }
}
layer {
  name: "loss"
  type: "SoftmaxWithLoss"
  bottom: "fc5_classes"
  bottom: "label"
  top: "loss"
}
layer {
  name: "accuracy_1"
  type: "Accuracy"
  bottom: "fc5_classes"
  bottom: "label"
  top: "accuracy_1"
  include {
    phase: TEST
  }
  accuracy_param {
    top_k: 1
  }
}
layer {
  name: "accuracy_5"
  type: "Accuracy"
  bottom: "fc5_classes"
  bottom: "label"
  top: "accuracy_5"
  include {
    phase: TEST
  }
  accuracy_param {
    top_k: 5
  }
}
I0411 00:06:09.143355 21018 layer_factory.hpp:77] Creating layer data
I0411 00:06:09.144299 21018 net.cpp:100] Creating Layer data
I0411 00:06:09.144320 21018 net.cpp:408] data -> data
I0411 00:06:09.144337 21018 net.cpp:408] data -> label
I0411 00:06:09.147927 21208 db_lmdb.cpp:35] Opened lmdb ../local_data/lmdb/rtsd-r1/CoNorm/test/lmdb
I0411 00:06:09.148090 21018 data_layer.cpp:41] output data size: 1024,3,48,48
I0411 00:06:09.197893 21018 net.cpp:150] Setting up data
I0411 00:06:09.197929 21018 net.cpp:157] Top shape: 1024 3 48 48 (7077888)
I0411 00:06:09.197940 21018 net.cpp:157] Top shape: 1024 (1024)
I0411 00:06:09.197945 21018 net.cpp:165] Memory required for data: 28315648
I0411 00:06:09.197955 21018 layer_factory.hpp:77] Creating layer label_data_1_split
I0411 00:06:09.197978 21018 net.cpp:100] Creating Layer label_data_1_split
I0411 00:06:09.197988 21018 net.cpp:434] label_data_1_split <- label
I0411 00:06:09.198001 21018 net.cpp:408] label_data_1_split -> label_data_1_split_0
I0411 00:06:09.198024 21018 net.cpp:408] label_data_1_split -> label_data_1_split_1
I0411 00:06:09.198040 21018 net.cpp:408] label_data_1_split -> label_data_1_split_2
I0411 00:06:09.198151 21018 net.cpp:150] Setting up label_data_1_split
I0411 00:06:09.198166 21018 net.cpp:157] Top shape: 1024 (1024)
I0411 00:06:09.198174 21018 net.cpp:157] Top shape: 1024 (1024)
I0411 00:06:09.198182 21018 net.cpp:157] Top shape: 1024 (1024)
I0411 00:06:09.198189 21018 net.cpp:165] Memory required for data: 28327936
I0411 00:06:09.198194 21018 layer_factory.hpp:77] Creating layer conv1
I0411 00:06:09.198216 21018 net.cpp:100] Creating Layer conv1
I0411 00:06:09.198225 21018 net.cpp:434] conv1 <- data
I0411 00:06:09.198236 21018 net.cpp:408] conv1 -> conv1
I0411 00:06:09.202559 21018 net.cpp:150] Setting up conv1
I0411 00:06:09.202585 21018 net.cpp:157] Top shape: 1024 100 42 42 (180633600)
I0411 00:06:09.202594 21018 net.cpp:165] Memory required for data: 750862336
I0411 00:06:09.202615 21018 layer_factory.hpp:77] Creating layer conv1_prescale
I0411 00:06:09.202631 21018 net.cpp:100] Creating Layer conv1_prescale
I0411 00:06:09.202644 21018 net.cpp:434] conv1_prescale <- conv1
I0411 00:06:09.202659 21018 net.cpp:395] conv1_prescale -> conv1 (in-place)
I0411 00:06:09.202833 21018 net.cpp:150] Setting up conv1_prescale
I0411 00:06:09.202848 21018 net.cpp:157] Top shape: 1024 100 42 42 (180633600)
I0411 00:06:09.202855 21018 net.cpp:165] Memory required for data: 1473396736
I0411 00:06:09.202869 21018 layer_factory.hpp:77] Creating layer conv1_sTanH
I0411 00:06:09.202888 21018 net.cpp:100] Creating Layer conv1_sTanH
I0411 00:06:09.202896 21018 net.cpp:434] conv1_sTanH <- conv1
I0411 00:06:09.202909 21018 net.cpp:395] conv1_sTanH -> conv1 (in-place)
I0411 00:06:09.203166 21018 net.cpp:150] Setting up conv1_sTanH
I0411 00:06:09.203184 21018 net.cpp:157] Top shape: 1024 100 42 42 (180633600)
I0411 00:06:09.203191 21018 net.cpp:165] Memory required for data: 2195931136
I0411 00:06:09.203198 21018 layer_factory.hpp:77] Creating layer conv1_postscale
I0411 00:06:09.203213 21018 net.cpp:100] Creating Layer conv1_postscale
I0411 00:06:09.203222 21018 net.cpp:434] conv1_postscale <- conv1
I0411 00:06:09.203233 21018 net.cpp:395] conv1_postscale -> conv1 (in-place)
I0411 00:06:09.203389 21018 net.cpp:150] Setting up conv1_postscale
I0411 00:06:09.203402 21018 net.cpp:157] Top shape: 1024 100 42 42 (180633600)
I0411 00:06:09.203408 21018 net.cpp:165] Memory required for data: 2918465536
I0411 00:06:09.203419 21018 layer_factory.hpp:77] Creating layer pool1
I0411 00:06:09.203440 21018 net.cpp:100] Creating Layer pool1
I0411 00:06:09.203447 21018 net.cpp:434] pool1 <- conv1
I0411 00:06:09.203457 21018 net.cpp:408] pool1 -> pool1
I0411 00:06:09.203523 21018 net.cpp:150] Setting up pool1
I0411 00:06:09.203536 21018 net.cpp:157] Top shape: 1024 100 21 21 (45158400)
I0411 00:06:09.203542 21018 net.cpp:165] Memory required for data: 3099099136
I0411 00:06:09.203549 21018 layer_factory.hpp:77] Creating layer conv2
I0411 00:06:09.203577 21018 net.cpp:100] Creating Layer conv2
I0411 00:06:09.203583 21018 net.cpp:434] conv2 <- pool1
I0411 00:06:09.203598 21018 net.cpp:408] conv2 -> conv2
I0411 00:06:09.208425 21018 net.cpp:150] Setting up conv2
I0411 00:06:09.208448 21018 net.cpp:157] Top shape: 1024 150 18 18 (49766400)
I0411 00:06:09.208456 21018 net.cpp:165] Memory required for data: 3298164736
I0411 00:06:09.208474 21018 layer_factory.hpp:77] Creating layer conv2_prescale
I0411 00:06:09.208495 21018 net.cpp:100] Creating Layer conv2_prescale
I0411 00:06:09.208504 21018 net.cpp:434] conv2_prescale <- conv2
I0411 00:06:09.208516 21018 net.cpp:395] conv2_prescale -> conv2 (in-place)
I0411 00:06:09.208667 21018 net.cpp:150] Setting up conv2_prescale
I0411 00:06:09.208681 21018 net.cpp:157] Top shape: 1024 150 18 18 (49766400)
I0411 00:06:09.208688 21018 net.cpp:165] Memory required for data: 3497230336
I0411 00:06:09.208698 21018 layer_factory.hpp:77] Creating layer conv2_sTanH
I0411 00:06:09.208710 21018 net.cpp:100] Creating Layer conv2_sTanH
I0411 00:06:09.208719 21018 net.cpp:434] conv2_sTanH <- conv2
I0411 00:06:09.208732 21018 net.cpp:395] conv2_sTanH -> conv2 (in-place)
I0411 00:06:09.209692 21018 net.cpp:150] Setting up conv2_sTanH
I0411 00:06:09.209715 21018 net.cpp:157] Top shape: 1024 150 18 18 (49766400)
I0411 00:06:09.209722 21018 net.cpp:165] Memory required for data: 3696295936
I0411 00:06:09.209730 21018 layer_factory.hpp:77] Creating layer conv2_postscale
I0411 00:06:09.209743 21018 net.cpp:100] Creating Layer conv2_postscale
I0411 00:06:09.209751 21018 net.cpp:434] conv2_postscale <- conv2
I0411 00:06:09.209763 21018 net.cpp:395] conv2_postscale -> conv2 (in-place)
I0411 00:06:09.209903 21018 net.cpp:150] Setting up conv2_postscale
I0411 00:06:09.209918 21018 net.cpp:157] Top shape: 1024 150 18 18 (49766400)
I0411 00:06:09.209923 21018 net.cpp:165] Memory required for data: 3895361536
I0411 00:06:09.209933 21018 layer_factory.hpp:77] Creating layer pool2
I0411 00:06:09.209947 21018 net.cpp:100] Creating Layer pool2
I0411 00:06:09.209956 21018 net.cpp:434] pool2 <- conv2
I0411 00:06:09.209966 21018 net.cpp:408] pool2 -> pool2
I0411 00:06:09.210038 21018 net.cpp:150] Setting up pool2
I0411 00:06:09.210052 21018 net.cpp:157] Top shape: 1024 150 9 9 (12441600)
I0411 00:06:09.210074 21018 net.cpp:165] Memory required for data: 3945127936
I0411 00:06:09.210088 21018 layer_factory.hpp:77] Creating layer conv3
I0411 00:06:09.210105 21018 net.cpp:100] Creating Layer conv3
I0411 00:06:09.210114 21018 net.cpp:434] conv3 <- pool2
I0411 00:06:09.210131 21018 net.cpp:408] conv3 -> conv3
I0411 00:06:09.217005 21018 net.cpp:150] Setting up conv3
I0411 00:06:09.217027 21018 net.cpp:157] Top shape: 1024 250 6 6 (9216000)
I0411 00:06:09.217034 21018 net.cpp:165] Memory required for data: 3981991936
I0411 00:06:09.217056 21018 layer_factory.hpp:77] Creating layer conv3_prescale
I0411 00:06:09.217072 21018 net.cpp:100] Creating Layer conv3_prescale
I0411 00:06:09.217083 21018 net.cpp:434] conv3_prescale <- conv3
I0411 00:06:09.217098 21018 net.cpp:395] conv3_prescale -> conv3 (in-place)
I0411 00:06:09.217232 21018 net.cpp:150] Setting up conv3_prescale
I0411 00:06:09.217249 21018 net.cpp:157] Top shape: 1024 250 6 6 (9216000)
I0411 00:06:09.217255 21018 net.cpp:165] Memory required for data: 4018855936
I0411 00:06:09.217264 21018 layer_factory.hpp:77] Creating layer conv3_sTanH
I0411 00:06:09.217280 21018 net.cpp:100] Creating Layer conv3_sTanH
I0411 00:06:09.217289 21018 net.cpp:434] conv3_sTanH <- conv3
I0411 00:06:09.217298 21018 net.cpp:395] conv3_sTanH -> conv3 (in-place)
I0411 00:06:09.218240 21018 net.cpp:150] Setting up conv3_sTanH
I0411 00:06:09.218261 21018 net.cpp:157] Top shape: 1024 250 6 6 (9216000)
I0411 00:06:09.218268 21018 net.cpp:165] Memory required for data: 4055719936
I0411 00:06:09.218276 21018 layer_factory.hpp:77] Creating layer conv3_postscale
I0411 00:06:09.218287 21018 net.cpp:100] Creating Layer conv3_postscale
I0411 00:06:09.218297 21018 net.cpp:434] conv3_postscale <- conv3
I0411 00:06:09.218312 21018 net.cpp:395] conv3_postscale -> conv3 (in-place)
I0411 00:06:09.218456 21018 net.cpp:150] Setting up conv3_postscale
I0411 00:06:09.218471 21018 net.cpp:157] Top shape: 1024 250 6 6 (9216000)
I0411 00:06:09.218477 21018 net.cpp:165] Memory required for data: 4092583936
I0411 00:06:09.218487 21018 layer_factory.hpp:77] Creating layer pool3
I0411 00:06:09.218510 21018 net.cpp:100] Creating Layer pool3
I0411 00:06:09.218518 21018 net.cpp:434] pool3 <- conv3
I0411 00:06:09.218529 21018 net.cpp:408] pool3 -> pool3
I0411 00:06:09.218592 21018 net.cpp:150] Setting up pool3
I0411 00:06:09.218607 21018 net.cpp:157] Top shape: 1024 250 3 3 (2304000)
I0411 00:06:09.218613 21018 net.cpp:165] Memory required for data: 4101799936
I0411 00:06:09.218621 21018 layer_factory.hpp:77] Creating layer fc4_300
I0411 00:06:09.218636 21018 net.cpp:100] Creating Layer fc4_300
I0411 00:06:09.218643 21018 net.cpp:434] fc4_300 <- pool3
I0411 00:06:09.218657 21018 net.cpp:408] fc4_300 -> fc4_300
I0411 00:06:09.225281 21018 net.cpp:150] Setting up fc4_300
I0411 00:06:09.225303 21018 net.cpp:157] Top shape: 1024 300 (307200)
I0411 00:06:09.225314 21018 net.cpp:165] Memory required for data: 4103028736
I0411 00:06:09.225327 21018 layer_factory.hpp:77] Creating layer fc4_prescale
I0411 00:06:09.225347 21018 net.cpp:100] Creating Layer fc4_prescale
I0411 00:06:09.225356 21018 net.cpp:434] fc4_prescale <- fc4_300
I0411 00:06:09.225369 21018 net.cpp:395] fc4_prescale -> fc4_300 (in-place)
I0411 00:06:09.225502 21018 net.cpp:150] Setting up fc4_prescale
I0411 00:06:09.225519 21018 net.cpp:157] Top shape: 1024 300 (307200)
I0411 00:06:09.225527 21018 net.cpp:165] Memory required for data: 4104257536
I0411 00:06:09.225535 21018 layer_factory.hpp:77] Creating layer fc4_sTanH
I0411 00:06:09.225548 21018 net.cpp:100] Creating Layer fc4_sTanH
I0411 00:06:09.225556 21018 net.cpp:434] fc4_sTanH <- fc4_300
I0411 00:06:09.225569 21018 net.cpp:395] fc4_sTanH -> fc4_300 (in-place)
I0411 00:06:09.225824 21018 net.cpp:150] Setting up fc4_sTanH
I0411 00:06:09.225841 21018 net.cpp:157] Top shape: 1024 300 (307200)
I0411 00:06:09.225847 21018 net.cpp:165] Memory required for data: 4105486336
I0411 00:06:09.225857 21018 layer_factory.hpp:77] Creating layer fc4_postscale
I0411 00:06:09.225884 21018 net.cpp:100] Creating Layer fc4_postscale
I0411 00:06:09.225909 21018 net.cpp:434] fc4_postscale <- fc4_300
I0411 00:06:09.225927 21018 net.cpp:395] fc4_postscale -> fc4_300 (in-place)
I0411 00:06:09.226066 21018 net.cpp:150] Setting up fc4_postscale
I0411 00:06:09.226079 21018 net.cpp:157] Top shape: 1024 300 (307200)
I0411 00:06:09.226096 21018 net.cpp:165] Memory required for data: 4106715136
I0411 00:06:09.226106 21018 layer_factory.hpp:77] Creating layer fc5_67
I0411 00:06:09.226124 21018 net.cpp:100] Creating Layer fc5_67
I0411 00:06:09.226131 21018 net.cpp:434] fc5_67 <- fc4_300
I0411 00:06:09.226141 21018 net.cpp:408] fc5_67 -> fc5_classes
I0411 00:06:09.226470 21018 net.cpp:150] Setting up fc5_67
I0411 00:06:09.226485 21018 net.cpp:157] Top shape: 1024 67 (68608)
I0411 00:06:09.226490 21018 net.cpp:165] Memory required for data: 4106989568
I0411 00:06:09.226508 21018 layer_factory.hpp:77] Creating layer fc5_classes_fc5_67_0_split
I0411 00:06:09.226522 21018 net.cpp:100] Creating Layer fc5_classes_fc5_67_0_split
I0411 00:06:09.226533 21018 net.cpp:434] fc5_classes_fc5_67_0_split <- fc5_classes
I0411 00:06:09.226547 21018 net.cpp:408] fc5_classes_fc5_67_0_split -> fc5_classes_fc5_67_0_split_0
I0411 00:06:09.226563 21018 net.cpp:408] fc5_classes_fc5_67_0_split -> fc5_classes_fc5_67_0_split_1
I0411 00:06:09.226577 21018 net.cpp:408] fc5_classes_fc5_67_0_split -> fc5_classes_fc5_67_0_split_2
I0411 00:06:09.226655 21018 net.cpp:150] Setting up fc5_classes_fc5_67_0_split
I0411 00:06:09.226667 21018 net.cpp:157] Top shape: 1024 67 (68608)
I0411 00:06:09.226675 21018 net.cpp:157] Top shape: 1024 67 (68608)
I0411 00:06:09.226682 21018 net.cpp:157] Top shape: 1024 67 (68608)
I0411 00:06:09.226692 21018 net.cpp:165] Memory required for data: 4107812864
I0411 00:06:09.226699 21018 layer_factory.hpp:77] Creating layer loss
I0411 00:06:09.226711 21018 net.cpp:100] Creating Layer loss
I0411 00:06:09.226718 21018 net.cpp:434] loss <- fc5_classes_fc5_67_0_split_0
I0411 00:06:09.226727 21018 net.cpp:434] loss <- label_data_1_split_0
I0411 00:06:09.226742 21018 net.cpp:408] loss -> loss
…
