…
I0411 00:56:48.527730 16553 net.cpp:322] The NetState phase (0) differed from the phase (1) specified by a rule in layer accuracy_5
I0411 00:56:48.527922 16553 net.cpp:58] Initializing net from parameters: 
state {
  phase: TRAIN
  level: 0
  stage: ""
}
layer {
  name: "data"
  type: "Data"
  top: "data"
  top: "label"
  include {
    phase: TRAIN
  }
  transform_param {
    mirror: false
    crop_size: 48
    mean_value: 132
    mean_value: 132
    mean_value: 131
  }
  data_param {
    source: "../local_data/lmdb/rtsd-r1/CoNorm/train/lmdb"
    batch_size: 1024
    backend: LMDB
  }
}
layer {
  name: "conv1"
  type: "Convolution"
  bottom: "data"
  top: "conv1"
  convolution_param {
    num_output: 100
    pad: 0
    kernel_size: 7
    group: 1
    stride: 1
    weight_filler {
      type: "xavier"
    }
  }
}
layer {
  name: "conv1_prescale"
  type: "Scale"
  bottom: "conv1"
  top: "conv1"
  param {
    lr_mult: 0
    decay_mult: 0
  }
  scale_param {
    filler {
      value: 0.6666
    }
    bias_term: false
  }
}
layer {
  name: "conv1_sTanH"
  type: "TanH"
  bottom: "conv1"
  top: "conv1"
}
layer {
  name: "conv1_postscale"
  type: "Scale"
  bottom: "conv1"
  top: "conv1"
  param {
    lr_mult: 0
    decay_mult: 0
  }
  scale_param {
    filler {
      value: 1.7159
    }
    bias_term: false
  }
}
layer {
  name: "pool1"
  type: "Pooling"
  bottom: "conv1"
  top: "pool1"
  pooling_param {
    pool: MAX
    kernel_size: 2
    stride: 2
  }
}
layer {
  name: "conv2"
  type: "Convolution"
  bottom: "pool1"
  top: "conv2"
  convolution_param {
    num_output: 150
    pad: 0
    kernel_size: 4
    group: 1
    stride: 1
    weight_filler {
      type: "xavier"
    }
  }
}
layer {
  name: "conv2_prescale"
  type: "Scale"
  bottom: "conv2"
  top: "conv2"
  param {
    lr_mult: 0
    decay_mult: 0
  }
  scale_param {
    filler {
      value: 0.6666
    }
    bias_term: false
  }
}
layer {
  name: "conv2_sTanH"
  type: "TanH"
  bottom: "conv2"
  top: "conv2"
}
layer {
  name: "conv2_postscale"
  type: "Scale"
  bottom: "conv2"
  top: "conv2"
  param {
    lr_mult: 0
    decay_mult: 0
  }
  scale_param {
    filler {
      value: 1.7159
    }
    bias_term: false
  }
}
layer {
  name: "pool2"
  type: "Pooling"
  bottom: "conv2"
  top: "pool2"
  pooling_param {
    pool: MAX
    kernel_size: 2
    stride: 2
  }
}
layer {
  name: "conv3"
  type: "Convolution"
  bottom: "pool2"
  top: "conv3"
  convolution_param {
    num_output: 250
    pad: 0
    kernel_size: 4
    group: 1
    stride: 1
    weight_filler {
      type: "xavier"
    }
  }
}
layer {
  name: "conv3_prescale"
  type: "Scale"
  bottom: "conv3"
  top: "conv3"
  param {
    lr_mult: 0
    decay_mult: 0
  }
  scale_param {
    filler {
      value: 0.6666
    }
    bias_term: false
  }
}
layer {
  name: "conv3_sTanH"
  type: "TanH"
  bottom: "conv3"
  top: "conv3"
}
layer {
  name: "conv3_postscale"
  type: "Scale"
  bottom: "conv3"
  top: "conv3"
  param {
    lr_mult: 0
    decay_mult: 0
  }
  scale_param {
    filler {
      value: 1.7159
    }
    bias_term: false
  }
}
layer {
  name: "pool3"
  type: "Pooling"
  bottom: "conv3"
  top: "pool3"
  pooling_param {
    pool: MAX
    kernel_size: 2
    stride: 2
  }
}
layer {
  name: "fc4_300"
  type: "InnerProduct"
  bottom: "pool3"
  top: "fc4_300"
  inner_product_param {
    num_output: 300
    weight_filler {
      type: "xavier"
    }
  }
}
layer {
  name: "fc4_prescale"
  type: "Scale"
  bottom: "fc4_300"
  top: "fc4_300"
  param {
    lr_mult: 0
    decay_mult: 0
  }
  scale_param {
    filler {
      value: 0.6666
    }
    bias_term: false
  }
}
layer {
  name: "fc4_sTanH"
  type: "TanH"
  bottom: "fc4_300"
  top: "fc4_300"
}
layer {
  name: "fc4_postscale"
  type: "Scale"
  bottom: "fc4_300"
  top: "fc4_300"
  param {
    lr_mult: 0
    decay_mult: 0
  }
  scale_param {
    filler {
      value: 1.7159
    }
    bias_term: false
  }
}
layer {
  name: "fc5_67"
  type: "InnerProduct"
  bottom: "fc4_300"
  top: "fc5_classes"
  inner_product_param {
    num_output: 67
    weight_filler {
      type: "xavier"
    }
  }
}
layer {
  name: "loss"
  type: "SoftmaxWithLoss"
  bottom: "fc5_classes"
  bottom: "label"
  top: "loss"
}
I0411 00:56:48.528044 16553 layer_factory.hpp:77] Creating layer data
I0411 00:56:48.529332 16553 net.cpp:100] Creating Layer data
I0411 00:56:48.529361 16553 net.cpp:408] data -> data
I0411 00:56:48.529386 16553 net.cpp:408] data -> label
I0411 00:56:48.532997 16658 db_lmdb.cpp:35] Opened lmdb ../local_data/lmdb/rtsd-r1/CoNorm/train/lmdb
I0411 00:56:48.553200 16553 data_layer.cpp:41] output data size: 1024,3,48,48
I0411 00:56:48.614699 16553 net.cpp:150] Setting up data
I0411 00:56:48.614735 16553 net.cpp:157] Top shape: 1024 3 48 48 (7077888)
I0411 00:56:48.614742 16553 net.cpp:157] Top shape: 1024 (1024)
I0411 00:56:48.614747 16553 net.cpp:165] Memory required for data: 28315648
I0411 00:56:48.614758 16553 layer_factory.hpp:77] Creating layer conv1
I0411 00:56:48.614784 16553 net.cpp:100] Creating Layer conv1
I0411 00:56:48.614792 16553 net.cpp:434] conv1 <- data
I0411 00:56:48.614810 16553 net.cpp:408] conv1 -> conv1
I0411 00:56:48.957546 16553 net.cpp:150] Setting up conv1
I0411 00:56:48.957577 16553 net.cpp:157] Top shape: 1024 100 42 42 (180633600)
I0411 00:56:48.957582 16553 net.cpp:165] Memory required for data: 750850048
I0411 00:56:48.957607 16553 layer_factory.hpp:77] Creating layer conv1_prescale
I0411 00:56:48.957623 16553 net.cpp:100] Creating Layer conv1_prescale
I0411 00:56:48.957630 16553 net.cpp:434] conv1_prescale <- conv1
I0411 00:56:48.957638 16553 net.cpp:395] conv1_prescale -> conv1 (in-place)
I0411 00:56:48.957769 16553 net.cpp:150] Setting up conv1_prescale
I0411 00:56:48.957780 16553 net.cpp:157] Top shape: 1024 100 42 42 (180633600)
I0411 00:56:48.957783 16553 net.cpp:165] Memory required for data: 1473384448
I0411 00:56:48.957792 16553 layer_factory.hpp:77] Creating layer conv1_sTanH
I0411 00:56:48.957801 16553 net.cpp:100] Creating Layer conv1_sTanH
I0411 00:56:48.957805 16553 net.cpp:434] conv1_sTanH <- conv1
I0411 00:56:48.957810 16553 net.cpp:395] conv1_sTanH -> conv1 (in-place)
I0411 00:56:48.958053 16553 net.cpp:150] Setting up conv1_sTanH
I0411 00:56:48.958067 16553 net.cpp:157] Top shape: 1024 100 42 42 (180633600)
I0411 00:56:48.958072 16553 net.cpp:165] Memory required for data: 2195918848
I0411 00:56:48.958077 16553 layer_factory.hpp:77] Creating layer conv1_postscale
I0411 00:56:48.958087 16553 net.cpp:100] Creating Layer conv1_postscale
I0411 00:56:48.958092 16553 net.cpp:434] conv1_postscale <- conv1
I0411 00:56:48.958099 16553 net.cpp:395] conv1_postscale -> conv1 (in-place)
I0411 00:56:48.958214 16553 net.cpp:150] Setting up conv1_postscale
I0411 00:56:48.958225 16553 net.cpp:157] Top shape: 1024 100 42 42 (180633600)
I0411 00:56:48.958227 16553 net.cpp:165] Memory required for data: 2918453248
I0411 00:56:48.958235 16553 layer_factory.hpp:77] Creating layer pool1
I0411 00:56:48.958243 16553 net.cpp:100] Creating Layer pool1
I0411 00:56:48.958250 16553 net.cpp:434] pool1 <- conv1
I0411 00:56:48.958254 16553 net.cpp:408] pool1 -> pool1
I0411 00:56:48.958309 16553 net.cpp:150] Setting up pool1
I0411 00:56:48.958318 16553 net.cpp:157] Top shape: 1024 100 21 21 (45158400)
I0411 00:56:48.958323 16553 net.cpp:165] Memory required for data: 3099086848
I0411 00:56:48.958346 16553 layer_factory.hpp:77] Creating layer conv2
I0411 00:56:48.958359 16553 net.cpp:100] Creating Layer conv2
I0411 00:56:48.958364 16553 net.cpp:434] conv2 <- pool1
I0411 00:56:48.958370 16553 net.cpp:408] conv2 -> conv2
I0411 00:56:48.970638 16553 net.cpp:150] Setting up conv2
I0411 00:56:48.970660 16553 net.cpp:157] Top shape: 1024 150 18 18 (49766400)
I0411 00:56:48.970666 16553 net.cpp:165] Memory required for data: 3298152448
I0411 00:56:48.970679 16553 layer_factory.hpp:77] Creating layer conv2_prescale
I0411 00:56:48.970691 16553 net.cpp:100] Creating Layer conv2_prescale
I0411 00:56:48.970697 16553 net.cpp:434] conv2_prescale <- conv2
I0411 00:56:48.970705 16553 net.cpp:395] conv2_prescale -> conv2 (in-place)
I0411 00:56:48.970839 16553 net.cpp:150] Setting up conv2_prescale
I0411 00:56:48.970849 16553 net.cpp:157] Top shape: 1024 150 18 18 (49766400)
I0411 00:56:48.970852 16553 net.cpp:165] Memory required for data: 3497218048
I0411 00:56:48.970859 16553 layer_factory.hpp:77] Creating layer conv2_sTanH
I0411 00:56:48.970868 16553 net.cpp:100] Creating Layer conv2_sTanH
I0411 00:56:48.970873 16553 net.cpp:434] conv2_sTanH <- conv2
I0411 00:56:48.970880 16553 net.cpp:395] conv2_sTanH -> conv2 (in-place)
I0411 00:56:48.972611 16553 net.cpp:150] Setting up conv2_sTanH
I0411 00:56:48.972631 16553 net.cpp:157] Top shape: 1024 150 18 18 (49766400)
I0411 00:56:48.972636 16553 net.cpp:165] Memory required for data: 3696283648
I0411 00:56:48.972641 16553 layer_factory.hpp:77] Creating layer conv2_postscale
I0411 00:56:48.972653 16553 net.cpp:100] Creating Layer conv2_postscale
I0411 00:56:48.972659 16553 net.cpp:434] conv2_postscale <- conv2
I0411 00:56:48.972666 16553 net.cpp:395] conv2_postscale -> conv2 (in-place)
I0411 00:56:48.972784 16553 net.cpp:150] Setting up conv2_postscale
I0411 00:56:48.972793 16553 net.cpp:157] Top shape: 1024 150 18 18 (49766400)
I0411 00:56:48.972796 16553 net.cpp:165] Memory required for data: 3895349248
I0411 00:56:48.972803 16553 layer_factory.hpp:77] Creating layer pool2
I0411 00:56:48.972811 16553 net.cpp:100] Creating Layer pool2
I0411 00:56:48.972817 16553 net.cpp:434] pool2 <- conv2
I0411 00:56:48.972823 16553 net.cpp:408] pool2 -> pool2
I0411 00:56:48.972869 16553 net.cpp:150] Setting up pool2
I0411 00:56:48.972877 16553 net.cpp:157] Top shape: 1024 150 9 9 (12441600)
I0411 00:56:48.972882 16553 net.cpp:165] Memory required for data: 3945115648
I0411 00:56:48.972885 16553 layer_factory.hpp:77] Creating layer conv3
I0411 00:56:48.972894 16553 net.cpp:100] Creating Layer conv3
I0411 00:56:48.972900 16553 net.cpp:434] conv3 <- pool2
I0411 00:56:48.972906 16553 net.cpp:408] conv3 -> conv3
I0411 00:56:48.980469 16553 net.cpp:150] Setting up conv3
I0411 00:56:48.980491 16553 net.cpp:157] Top shape: 1024 250 6 6 (9216000)
I0411 00:56:48.980502 16553 net.cpp:165] Memory required for data: 3981979648
I0411 00:56:48.980516 16553 layer_factory.hpp:77] Creating layer conv3_prescale
I0411 00:56:48.980526 16553 net.cpp:100] Creating Layer conv3_prescale
I0411 00:56:48.980536 16553 net.cpp:434] conv3_prescale <- conv3
I0411 00:56:48.980543 16553 net.cpp:395] conv3_prescale -> conv3 (in-place)
I0411 00:56:48.980659 16553 net.cpp:150] Setting up conv3_prescale
I0411 00:56:48.980669 16553 net.cpp:157] Top shape: 1024 250 6 6 (9216000)
I0411 00:56:48.980674 16553 net.cpp:165] Memory required for data: 4018843648
I0411 00:56:48.980679 16553 layer_factory.hpp:77] Creating layer conv3_sTanH
I0411 00:56:48.980686 16553 net.cpp:100] Creating Layer conv3_sTanH
I0411 00:56:48.980690 16553 net.cpp:434] conv3_sTanH <- conv3
I0411 00:56:48.980695 16553 net.cpp:395] conv3_sTanH -> conv3 (in-place)
I0411 00:56:48.982332 16553 net.cpp:150] Setting up conv3_sTanH
I0411 00:56:48.982355 16553 net.cpp:157] Top shape: 1024 250 6 6 (9216000)
I0411 00:56:48.982360 16553 net.cpp:165] Memory required for data: 4055707648
I0411 00:56:48.982365 16553 layer_factory.hpp:77] Creating layer conv3_postscale
I0411 00:56:48.982375 16553 net.cpp:100] Creating Layer conv3_postscale
I0411 00:56:48.982398 16553 net.cpp:434] conv3_postscale <- conv3
I0411 00:56:48.982406 16553 net.cpp:395] conv3_postscale -> conv3 (in-place)
I0411 00:56:48.982540 16553 net.cpp:150] Setting up conv3_postscale
I0411 00:56:48.982552 16553 net.cpp:157] Top shape: 1024 250 6 6 (9216000)
I0411 00:56:48.982558 16553 net.cpp:165] Memory required for data: 4092571648
I0411 00:56:48.982564 16553 layer_factory.hpp:77] Creating layer pool3
I0411 00:56:48.982574 16553 net.cpp:100] Creating Layer pool3
I0411 00:56:48.982580 16553 net.cpp:434] pool3 <- conv3
I0411 00:56:48.982586 16553 net.cpp:408] pool3 -> pool3
I0411 00:56:48.982635 16553 net.cpp:150] Setting up pool3
I0411 00:56:48.982643 16553 net.cpp:157] Top shape: 1024 250 3 3 (2304000)
I0411 00:56:48.982647 16553 net.cpp:165] Memory required for data: 4101787648
I0411 00:56:48.982651 16553 layer_factory.hpp:77] Creating layer fc4_300
I0411 00:56:48.982662 16553 net.cpp:100] Creating Layer fc4_300
I0411 00:56:48.982667 16553 net.cpp:434] fc4_300 <- pool3
I0411 00:56:48.982674 16553 net.cpp:408] fc4_300 -> fc4_300
I0411 00:56:48.990761 16553 net.cpp:150] Setting up fc4_300
I0411 00:56:48.990784 16553 net.cpp:157] Top shape: 1024 300 (307200)
I0411 00:56:48.990789 16553 net.cpp:165] Memory required for data: 4103016448
I0411 00:56:48.990799 16553 layer_factory.hpp:77] Creating layer fc4_prescale
I0411 00:56:48.990809 16553 net.cpp:100] Creating Layer fc4_prescale
I0411 00:56:48.990814 16553 net.cpp:434] fc4_prescale <- fc4_300
I0411 00:56:48.990821 16553 net.cpp:395] fc4_prescale -> fc4_300 (in-place)
I0411 00:56:48.990936 16553 net.cpp:150] Setting up fc4_prescale
I0411 00:56:48.990947 16553 net.cpp:157] Top shape: 1024 300 (307200)
I0411 00:56:48.990953 16553 net.cpp:165] Memory required for data: 4104245248
I0411 00:56:48.990959 16553 layer_factory.hpp:77] Creating layer fc4_sTanH
I0411 00:56:48.990967 16553 net.cpp:100] Creating Layer fc4_sTanH
I0411 00:56:48.990973 16553 net.cpp:434] fc4_sTanH <- fc4_300
I0411 00:56:48.990978 16553 net.cpp:395] fc4_sTanH -> fc4_300 (in-place)
I0411 00:56:48.991214 16553 net.cpp:150] Setting up fc4_sTanH
I0411 00:56:48.991230 16553 net.cpp:157] Top shape: 1024 300 (307200)
I0411 00:56:48.991235 16553 net.cpp:165] Memory required for data: 4105474048
I0411 00:56:48.991240 16553 layer_factory.hpp:77] Creating layer fc4_postscale
I0411 00:56:48.991250 16553 net.cpp:100] Creating Layer fc4_postscale
I0411 00:56:48.991255 16553 net.cpp:434] fc4_postscale <- fc4_300
I0411 00:56:48.991262 16553 net.cpp:395] fc4_postscale -> fc4_300 (in-place)
I0411 00:56:48.991379 16553 net.cpp:150] Setting up fc4_postscale
I0411 00:56:48.991389 16553 net.cpp:157] Top shape: 1024 300 (307200)
I0411 00:56:48.991394 16553 net.cpp:165] Memory required for data: 4106702848
I0411 00:56:48.991400 16553 layer_factory.hpp:77] Creating layer fc5_67
I0411 00:56:48.991408 16553 net.cpp:100] Creating Layer fc5_67
I0411 00:56:48.991415 16553 net.cpp:434] fc5_67 <- fc4_300
I0411 00:56:48.991420 16553 net.cpp:408] fc5_67 -> fc5_classes
I0411 00:56:48.993310 16553 net.cpp:150] Setting up fc5_67
I0411 00:56:48.993330 16553 net.cpp:157] Top shape: 1024 67 (68608)
I0411 00:56:48.993335 16553 net.cpp:165] Memory required for data: 4106977280
I0411 00:56:48.993348 16553 layer_factory.hpp:77] Creating layer loss
I0411 00:56:48.993360 16553 net.cpp:100] Creating Layer loss
I0411 00:56:48.993363 16553 net.cpp:434] loss <- fc5_classes
I0411 00:56:48.993369 16553 net.cpp:434] loss <- label
I0411 00:56:48.993376 16553 net.cpp:408] loss -> loss
I0411 00:56:48.993391 16553 layer_factory.hpp:77] Creating layer loss
…
I0411 00:56:48.994313 16553 solver.cpp:193] Creating test net (#0) specified by test_net file: ./Prototxt/experiment_8/rtsd-r1/CoNorm/trial_1/test.prototxt
I0411 00:56:48.994536 16553 net.cpp:58] Initializing net from parameters: 
state {
  phase: TEST
}
layer {
  name: "data"
  type: "Data"
  top: "data"
  top: "label"
  include {
    phase: TEST
  }
  transform_param {
    mirror: false
    crop_size: 48
    mean_value: 133
    mean_value: 133
    mean_value: 132
  }
  data_param {
    source: "../local_data/lmdb/rtsd-r1/CoNorm/test/lmdb"
    batch_size: 1024
    backend: LMDB
  }
}
layer {
  name: "conv1"
  type: "Convolution"
  bottom: "data"
  top: "conv1"
  convolution_param {
    num_output: 100
    pad: 0
    kernel_size: 7
    group: 1
    stride: 1
    weight_filler {
      type: "xavier"
    }
  }
}
layer {
  name: "conv1_prescale"
  type: "Scale"
  bottom: "conv1"
  top: "conv1"
  param {
    lr_mult: 0
    decay_mult: 0
  }
  scale_param {
    filler {
      value: 0.6666
    }
    bias_term: false
  }
}
layer {
  name: "conv1_sTanH"
  type: "TanH"
  bottom: "conv1"
  top: "conv1"
}
layer {
  name: "conv1_postscale"
  type: "Scale"
  bottom: "conv1"
  top: "conv1"
  param {
    lr_mult: 0
    decay_mult: 0
  }
  scale_param {
    filler {
      value: 1.7159
    }
    bias_term: false
  }
}
layer {
  name: "pool1"
  type: "Pooling"
  bottom: "conv1"
  top: "pool1"
  pooling_param {
    pool: MAX
    kernel_size: 2
    stride: 2
  }
}
layer {
  name: "conv2"
  type: "Convolution"
  bottom: "pool1"
  top: "conv2"
  convolution_param {
    num_output: 150
    pad: 0
    kernel_size: 4
    group: 1
    stride: 1
    weight_filler {
      type: "xavier"
    }
  }
}
layer {
  name: "conv2_prescale"
  type: "Scale"
  bottom: "conv2"
  top: "conv2"
  param {
    lr_mult: 0
    decay_mult: 0
  }
  scale_param {
    filler {
      value: 0.6666
    }
    bias_term: false
  }
}
layer {
  name: "conv2_sTanH"
  type: "TanH"
  bottom: "conv2"
  top: "conv2"
}
layer {
  name: "conv2_postscale"
  type: "Scale"
  bottom: "conv2"
  top: "conv2"
  param {
    lr_mult: 0
    decay_mult: 0
  }
  scale_param {
    filler {
      value: 1.7159
    }
    bias_term: false
  }
}
layer {
  name: "pool2"
  type: "Pooling"
  bottom: "conv2"
  top: "pool2"
  pooling_param {
    pool: MAX
    kernel_size: 2
    stride: 2
  }
}
layer {
  name: "conv3"
  type: "Convolution"
  bottom: "pool2"
  top: "conv3"
  convolution_param {
    num_output: 250
    pad: 0
    kernel_size: 4
    group: 1
    stride: 1
    weight_filler {
      type: "xavier"
    }
  }
}
layer {
  name: "conv3_prescale"
  type: "Scale"
  bottom: "conv3"
  top: "conv3"
  param {
    lr_mult: 0
    decay_mult: 0
  }
  scale_param {
    filler {
      value: 0.6666
    }
    bias_term: false
  }
}
layer {
  name: "conv3_sTanH"
  type: "TanH"
  bottom: "conv3"
  top: "conv3"
}
layer {
  name: "conv3_postscale"
  type: "Scale"
  bottom: "conv3"
  top: "conv3"
  param {
    lr_mult: 0
    decay_mult: 0
  }
  scale_param {
    filler {
      value: 1.7159
    }
    bias_term: false
  }
}
layer {
  name: "pool3"
  type: "Pooling"
  bottom: "conv3"
  top: "pool3"
  pooling_param {
    pool: MAX
    kernel_size: 2
    stride: 2
  }
}
layer {
  name: "fc4_300"
  type: "InnerProduct"
  bottom: "pool3"
  top: "fc4_300"
  inner_product_param {
    num_output: 300
    weight_filler {
      type: "xavier"
    }
  }
}
layer {
  name: "fc4_prescale"
  type: "Scale"
  bottom: "fc4_300"
  top: "fc4_300"
  param {
    lr_mult: 0
    decay_mult: 0
  }
  scale_param {
    filler {
      value: 0.6666
    }
    bias_term: false
  }
}
layer {
  name: "fc4_sTanH"
  type: "TanH"
  bottom: "fc4_300"
  top: "fc4_300"
}
layer {
  name: "fc4_postscale"
  type: "Scale"
  bottom: "fc4_300"
  top: "fc4_300"
  param {
    lr_mult: 0
    decay_mult: 0
  }
  scale_param {
    filler {
      value: 1.7159
    }
    bias_term: false
  }
}
layer {
  name: "fc5_67"
  type: "InnerProduct"
  bottom: "fc4_300"
  top: "fc5_classes"
  inner_product_param {
    num_output: 67
    weight_filler {
      type: "xavier"
    }
  }
}
layer {
  name: "loss"
  type: "SoftmaxWithLoss"
  bottom: "fc5_classes"
  bottom: "label"
  top: "loss"
}
layer {
  name: "accuracy_1"
  type: "Accuracy"
  bottom: "fc5_classes"
  bottom: "label"
  top: "accuracy_1"
  include {
    phase: TEST
  }
  accuracy_param {
    top_k: 1
  }
}
layer {
  name: "accuracy_5"
  type: "Accuracy"
  bottom: "fc5_classes"
  bottom: "label"
  top: "accuracy_5"
  include {
    phase: TEST
  }
  accuracy_param {
    top_k: 5
  }
}
I0411 00:56:48.994673 16553 layer_factory.hpp:77] Creating layer data
I0411 00:56:48.995519 16553 net.cpp:100] Creating Layer data
I0411 00:56:48.995550 16553 net.cpp:408] data -> data
I0411 00:56:48.995564 16553 net.cpp:408] data -> label
I0411 00:56:48.997941 16700 db_lmdb.cpp:35] Opened lmdb ../local_data/lmdb/rtsd-r1/CoNorm/test/lmdb
I0411 00:56:48.998180 16553 data_layer.cpp:41] output data size: 1024,3,48,48
I0411 00:56:49.045528 16553 net.cpp:150] Setting up data
I0411 00:56:49.045558 16553 net.cpp:157] Top shape: 1024 3 48 48 (7077888)
I0411 00:56:49.045565 16553 net.cpp:157] Top shape: 1024 (1024)
I0411 00:56:49.045569 16553 net.cpp:165] Memory required for data: 28315648
I0411 00:56:49.045577 16553 layer_factory.hpp:77] Creating layer label_data_1_split
I0411 00:56:49.045593 16553 net.cpp:100] Creating Layer label_data_1_split
I0411 00:56:49.045599 16553 net.cpp:434] label_data_1_split <- label
I0411 00:56:49.045608 16553 net.cpp:408] label_data_1_split -> label_data_1_split_0
I0411 00:56:49.045626 16553 net.cpp:408] label_data_1_split -> label_data_1_split_1
I0411 00:56:49.045636 16553 net.cpp:408] label_data_1_split -> label_data_1_split_2
I0411 00:56:49.045742 16553 net.cpp:150] Setting up label_data_1_split
I0411 00:56:49.045753 16553 net.cpp:157] Top shape: 1024 (1024)
I0411 00:56:49.045759 16553 net.cpp:157] Top shape: 1024 (1024)
I0411 00:56:49.045764 16553 net.cpp:157] Top shape: 1024 (1024)
I0411 00:56:49.045768 16553 net.cpp:165] Memory required for data: 28327936
I0411 00:56:49.045773 16553 layer_factory.hpp:77] Creating layer conv1
I0411 00:56:49.045789 16553 net.cpp:100] Creating Layer conv1
I0411 00:56:49.045794 16553 net.cpp:434] conv1 <- data
I0411 00:56:49.045801 16553 net.cpp:408] conv1 -> conv1
I0411 00:56:49.057896 16553 net.cpp:150] Setting up conv1
I0411 00:56:49.057927 16553 net.cpp:157] Top shape: 1024 100 42 42 (180633600)
I0411 00:56:49.057932 16553 net.cpp:165] Memory required for data: 750862336
I0411 00:56:49.057970 16553 layer_factory.hpp:77] Creating layer conv1_prescale
I0411 00:56:49.057993 16553 net.cpp:100] Creating Layer conv1_prescale
I0411 00:56:49.058001 16553 net.cpp:434] conv1_prescale <- conv1
I0411 00:56:49.058007 16553 net.cpp:395] conv1_prescale -> conv1 (in-place)
I0411 00:56:49.060286 16553 net.cpp:150] Setting up conv1_prescale
I0411 00:56:49.060305 16553 net.cpp:157] Top shape: 1024 100 42 42 (180633600)
I0411 00:56:49.060309 16553 net.cpp:165] Memory required for data: 1473396736
I0411 00:56:49.060333 16553 layer_factory.hpp:77] Creating layer conv1_sTanH
I0411 00:56:49.060344 16553 net.cpp:100] Creating Layer conv1_sTanH
I0411 00:56:49.060353 16553 net.cpp:434] conv1_sTanH <- conv1
I0411 00:56:49.060359 16553 net.cpp:395] conv1_sTanH -> conv1 (in-place)
I0411 00:56:49.060616 16553 net.cpp:150] Setting up conv1_sTanH
I0411 00:56:49.060629 16553 net.cpp:157] Top shape: 1024 100 42 42 (180633600)
I0411 00:56:49.060633 16553 net.cpp:165] Memory required for data: 2195931136
I0411 00:56:49.060637 16553 layer_factory.hpp:77] Creating layer conv1_postscale
I0411 00:56:49.060645 16553 net.cpp:100] Creating Layer conv1_postscale
I0411 00:56:49.060649 16553 net.cpp:434] conv1_postscale <- conv1
I0411 00:56:49.060657 16553 net.cpp:395] conv1_postscale -> conv1 (in-place)
I0411 00:56:49.060799 16553 net.cpp:150] Setting up conv1_postscale
I0411 00:56:49.060809 16553 net.cpp:157] Top shape: 1024 100 42 42 (180633600)
I0411 00:56:49.060813 16553 net.cpp:165] Memory required for data: 2918465536
I0411 00:56:49.060819 16553 layer_factory.hpp:77] Creating layer pool1
I0411 00:56:49.060830 16553 net.cpp:100] Creating Layer pool1
I0411 00:56:49.060837 16553 net.cpp:434] pool1 <- conv1
I0411 00:56:49.060844 16553 net.cpp:408] pool1 -> pool1
I0411 00:56:49.060907 16553 net.cpp:150] Setting up pool1
I0411 00:56:49.060919 16553 net.cpp:157] Top shape: 1024 100 21 21 (45158400)
I0411 00:56:49.060925 16553 net.cpp:165] Memory required for data: 3099099136
I0411 00:56:49.060928 16553 layer_factory.hpp:77] Creating layer conv2
I0411 00:56:49.060941 16553 net.cpp:100] Creating Layer conv2
I0411 00:56:49.060947 16553 net.cpp:434] conv2 <- pool1
I0411 00:56:49.060953 16553 net.cpp:408] conv2 -> conv2
I0411 00:56:49.066764 16553 net.cpp:150] Setting up conv2
I0411 00:56:49.066784 16553 net.cpp:157] Top shape: 1024 150 18 18 (49766400)
I0411 00:56:49.066790 16553 net.cpp:165] Memory required for data: 3298164736
I0411 00:56:49.066803 16553 layer_factory.hpp:77] Creating layer conv2_prescale
I0411 00:56:49.066818 16553 net.cpp:100] Creating Layer conv2_prescale
I0411 00:56:49.066825 16553 net.cpp:434] conv2_prescale <- conv2
I0411 00:56:49.066844 16553 net.cpp:395] conv2_prescale -> conv2 (in-place)
I0411 00:56:49.066985 16553 net.cpp:150] Setting up conv2_prescale
I0411 00:56:49.066997 16553 net.cpp:157] Top shape: 1024 150 18 18 (49766400)
I0411 00:56:49.067001 16553 net.cpp:165] Memory required for data: 3497230336
I0411 00:56:49.067008 16553 layer_factory.hpp:77] Creating layer conv2_sTanH
I0411 00:56:49.067015 16553 net.cpp:100] Creating Layer conv2_sTanH
I0411 00:56:49.067021 16553 net.cpp:434] conv2_sTanH <- conv2
I0411 00:56:49.067028 16553 net.cpp:395] conv2_sTanH -> conv2 (in-place)
I0411 00:56:49.068084 16553 net.cpp:150] Setting up conv2_sTanH
I0411 00:56:49.068104 16553 net.cpp:157] Top shape: 1024 150 18 18 (49766400)
I0411 00:56:49.068110 16553 net.cpp:165] Memory required for data: 3696295936
I0411 00:56:49.068115 16553 layer_factory.hpp:77] Creating layer conv2_postscale
I0411 00:56:49.068125 16553 net.cpp:100] Creating Layer conv2_postscale
I0411 00:56:49.068131 16553 net.cpp:434] conv2_postscale <- conv2
I0411 00:56:49.068142 16553 net.cpp:395] conv2_postscale -> conv2 (in-place)
I0411 00:56:49.068270 16553 net.cpp:150] Setting up conv2_postscale
I0411 00:56:49.068282 16553 net.cpp:157] Top shape: 1024 150 18 18 (49766400)
I0411 00:56:49.068287 16553 net.cpp:165] Memory required for data: 3895361536
I0411 00:56:49.068295 16553 layer_factory.hpp:77] Creating layer pool2
I0411 00:56:49.068323 16553 net.cpp:100] Creating Layer pool2
I0411 00:56:49.068330 16553 net.cpp:434] pool2 <- conv2
I0411 00:56:49.068336 16553 net.cpp:408] pool2 -> pool2
I0411 00:56:49.068397 16553 net.cpp:150] Setting up pool2
I0411 00:56:49.068406 16553 net.cpp:157] Top shape: 1024 150 9 9 (12441600)
I0411 00:56:49.068411 16553 net.cpp:165] Memory required for data: 3945127936
I0411 00:56:49.068415 16553 layer_factory.hpp:77] Creating layer conv3
I0411 00:56:49.068426 16553 net.cpp:100] Creating Layer conv3
I0411 00:56:49.068433 16553 net.cpp:434] conv3 <- pool2
I0411 00:56:49.068440 16553 net.cpp:408] conv3 -> conv3
I0411 00:56:49.076171 16553 net.cpp:150] Setting up conv3
I0411 00:56:49.076195 16553 net.cpp:157] Top shape: 1024 250 6 6 (9216000)
I0411 00:56:49.076201 16553 net.cpp:165] Memory required for data: 3981991936
I0411 00:56:49.076216 16553 layer_factory.hpp:77] Creating layer conv3_prescale
I0411 00:56:49.076227 16553 net.cpp:100] Creating Layer conv3_prescale
I0411 00:56:49.076233 16553 net.cpp:434] conv3_prescale <- conv3
I0411 00:56:49.076242 16553 net.cpp:395] conv3_prescale -> conv3 (in-place)
I0411 00:56:49.076362 16553 net.cpp:150] Setting up conv3_prescale
I0411 00:56:49.076373 16553 net.cpp:157] Top shape: 1024 250 6 6 (9216000)
I0411 00:56:49.076377 16553 net.cpp:165] Memory required for data: 4018855936
I0411 00:56:49.076383 16553 layer_factory.hpp:77] Creating layer conv3_sTanH
I0411 00:56:49.076393 16553 net.cpp:100] Creating Layer conv3_sTanH
I0411 00:56:49.076400 16553 net.cpp:434] conv3_sTanH <- conv3
I0411 00:56:49.076406 16553 net.cpp:395] conv3_sTanH -> conv3 (in-place)
I0411 00:56:49.086688 16553 net.cpp:150] Setting up conv3_sTanH
I0411 00:56:49.086710 16553 net.cpp:157] Top shape: 1024 250 6 6 (9216000)
I0411 00:56:49.086717 16553 net.cpp:165] Memory required for data: 4055719936
I0411 00:56:49.086722 16553 layer_factory.hpp:77] Creating layer conv3_postscale
I0411 00:56:49.086732 16553 net.cpp:100] Creating Layer conv3_postscale
I0411 00:56:49.086738 16553 net.cpp:434] conv3_postscale <- conv3
I0411 00:56:49.086748 16553 net.cpp:395] conv3_postscale -> conv3 (in-place)
I0411 00:56:49.086880 16553 net.cpp:150] Setting up conv3_postscale
I0411 00:56:49.086891 16553 net.cpp:157] Top shape: 1024 250 6 6 (9216000)
I0411 00:56:49.086895 16553 net.cpp:165] Memory required for data: 4092583936
I0411 00:56:49.086902 16553 layer_factory.hpp:77] Creating layer pool3
I0411 00:56:49.086916 16553 net.cpp:100] Creating Layer pool3
I0411 00:56:49.086922 16553 net.cpp:434] pool3 <- conv3
I0411 00:56:49.086928 16553 net.cpp:408] pool3 -> pool3
I0411 00:56:49.086984 16553 net.cpp:150] Setting up pool3
I0411 00:56:49.086994 16553 net.cpp:157] Top shape: 1024 250 3 3 (2304000)
I0411 00:56:49.086998 16553 net.cpp:165] Memory required for data: 4101799936
I0411 00:56:49.087002 16553 layer_factory.hpp:77] Creating layer fc4_300
I0411 00:56:49.087010 16553 net.cpp:100] Creating Layer fc4_300
I0411 00:56:49.087016 16553 net.cpp:434] fc4_300 <- pool3
I0411 00:56:49.087024 16553 net.cpp:408] fc4_300 -> fc4_300
I0411 00:56:49.095422 16553 net.cpp:150] Setting up fc4_300
I0411 00:56:49.095448 16553 net.cpp:157] Top shape: 1024 300 (307200)
I0411 00:56:49.095453 16553 net.cpp:165] Memory required for data: 4103028736
I0411 00:56:49.095461 16553 layer_factory.hpp:77] Creating layer fc4_prescale
I0411 00:56:49.095474 16553 net.cpp:100] Creating Layer fc4_prescale
I0411 00:56:49.095479 16553 net.cpp:434] fc4_prescale <- fc4_300
I0411 00:56:49.095487 16553 net.cpp:395] fc4_prescale -> fc4_300 (in-place)
I0411 00:56:49.095605 16553 net.cpp:150] Setting up fc4_prescale
I0411 00:56:49.095615 16553 net.cpp:157] Top shape: 1024 300 (307200)
I0411 00:56:49.095619 16553 net.cpp:165] Memory required for data: 4104257536
I0411 00:56:49.095625 16553 layer_factory.hpp:77] Creating layer fc4_sTanH
I0411 00:56:49.095638 16553 net.cpp:100] Creating Layer fc4_sTanH
I0411 00:56:49.095643 16553 net.cpp:434] fc4_sTanH <- fc4_300
I0411 00:56:49.095650 16553 net.cpp:395] fc4_sTanH -> fc4_300 (in-place)
I0411 00:56:49.095903 16553 net.cpp:150] Setting up fc4_sTanH
I0411 00:56:49.095935 16553 net.cpp:157] Top shape: 1024 300 (307200)
I0411 00:56:49.095940 16553 net.cpp:165] Memory required for data: 4105486336
I0411 00:56:49.095945 16553 layer_factory.hpp:77] Creating layer fc4_postscale
I0411 00:56:49.095955 16553 net.cpp:100] Creating Layer fc4_postscale
I0411 00:56:49.095962 16553 net.cpp:434] fc4_postscale <- fc4_300
I0411 00:56:49.095971 16553 net.cpp:395] fc4_postscale -> fc4_300 (in-place)
I0411 00:56:49.096103 16553 net.cpp:150] Setting up fc4_postscale
I0411 00:56:49.096120 16553 net.cpp:157] Top shape: 1024 300 (307200)
I0411 00:56:49.096123 16553 net.cpp:165] Memory required for data: 4106715136
I0411 00:56:49.096129 16553 layer_factory.hpp:77] Creating layer fc5_67
I0411 00:56:49.096143 16553 net.cpp:100] Creating Layer fc5_67
I0411 00:56:49.096148 16553 net.cpp:434] fc5_67 <- fc4_300
I0411 00:56:49.096154 16553 net.cpp:408] fc5_67 -> fc5_classes
I0411 00:56:49.096463 16553 net.cpp:150] Setting up fc5_67
I0411 00:56:49.096473 16553 net.cpp:157] Top shape: 1024 67 (68608)
I0411 00:56:49.096477 16553 net.cpp:165] Memory required for data: 4106989568
I0411 00:56:49.096489 16553 layer_factory.hpp:77] Creating layer fc5_classes_fc5_67_0_split
I0411 00:56:49.096498 16553 net.cpp:100] Creating Layer fc5_classes_fc5_67_0_split
I0411 00:56:49.096501 16553 net.cpp:434] fc5_classes_fc5_67_0_split <- fc5_classes
I0411 00:56:49.096509 16553 net.cpp:408] fc5_classes_fc5_67_0_split -> fc5_classes_fc5_67_0_split_0
I0411 00:56:49.096520 16553 net.cpp:408] fc5_classes_fc5_67_0_split -> fc5_classes_fc5_67_0_split_1
I0411 00:56:49.096527 16553 net.cpp:408] fc5_classes_fc5_67_0_split -> fc5_classes_fc5_67_0_split_2
I0411 00:56:49.096596 16553 net.cpp:150] Setting up fc5_classes_fc5_67_0_split
I0411 00:56:49.096603 16553 net.cpp:157] Top shape: 1024 67 (68608)
I0411 00:56:49.096608 16553 net.cpp:157] Top shape: 1024 67 (68608)
I0411 00:56:49.096612 16553 net.cpp:157] Top shape: 1024 67 (68608)
I0411 00:56:49.096616 16553 net.cpp:165] Memory required for data: 4107812864
I0411 00:56:49.096619 16553 layer_factory.hpp:77] Creating layer loss
I0411 00:56:49.096627 16553 net.cpp:100] Creating Layer loss
I0411 00:56:49.096632 16553 net.cpp:434] loss <- fc5_classes_fc5_67_0_split_0
I0411 00:56:49.096638 16553 net.cpp:434] loss <- label_data_1_split_0
I0411 00:56:49.096645 16553 net.cpp:408] loss -> loss
…
