…
I0411 01:13:08.549101  9770 net.cpp:322] The NetState phase (0) differed from the phase (1) specified by a rule in layer accuracy_5
I0411 01:13:08.549252  9770 net.cpp:58] Initializing net from parameters: 
state {
  phase: TRAIN
  level: 0
  stage: ""
}
layer {
  name: "data"
  type: "Data"
  top: "data"
  top: "label"
  include {
    phase: TRAIN
  }
  transform_param {
    mirror: false
    crop_size: 48
    mean_value: 132
    mean_value: 132
    mean_value: 131
  }
  data_param {
    source: "../local_data/lmdb/rtsd-r1/CoNorm/train/lmdb"
    batch_size: 1024
    backend: LMDB
  }
}
layer {
  name: "conv1"
  type: "Convolution"
  bottom: "data"
  top: "conv1"
  convolution_param {
    num_output: 100
    pad: 0
    kernel_size: 7
    group: 1
    stride: 1
    weight_filler {
      type: "xavier"
    }
  }
}
layer {
  name: "conv1_prescale"
  type: "Scale"
  bottom: "conv1"
  top: "conv1"
  param {
    lr_mult: 0
    decay_mult: 0
  }
  scale_param {
    filler {
      value: 0.6666
    }
    bias_term: false
  }
}
layer {
  name: "conv1_sTanH"
  type: "TanH"
  bottom: "conv1"
  top: "conv1"
}
layer {
  name: "conv1_postscale"
  type: "Scale"
  bottom: "conv1"
  top: "conv1"
  param {
    lr_mult: 0
    decay_mult: 0
  }
  scale_param {
    filler {
      value: 1.7159
    }
    bias_term: false
  }
}
layer {
  name: "pool1"
  type: "Pooling"
  bottom: "conv1"
  top: "pool1"
  pooling_param {
    pool: MAX
    kernel_size: 2
    stride: 2
  }
}
layer {
  name: "conv2"
  type: "Convolution"
  bottom: "pool1"
  top: "conv2"
  convolution_param {
    num_output: 150
    pad: 0
    kernel_size: 4
    group: 1
    stride: 1
    weight_filler {
      type: "xavier"
    }
  }
}
layer {
  name: "conv2_prescale"
  type: "Scale"
  bottom: "conv2"
  top: "conv2"
  param {
    lr_mult: 0
    decay_mult: 0
  }
  scale_param {
    filler {
      value: 0.6666
    }
    bias_term: false
  }
}
layer {
  name: "conv2_sTanH"
  type: "TanH"
  bottom: "conv2"
  top: "conv2"
}
layer {
  name: "conv2_postscale"
  type: "Scale"
  bottom: "conv2"
  top: "conv2"
  param {
    lr_mult: 0
    decay_mult: 0
  }
  scale_param {
    filler {
      value: 1.7159
    }
    bias_term: false
  }
}
layer {
  name: "pool2"
  type: "Pooling"
  bottom: "conv2"
  top: "pool2"
  pooling_param {
    pool: MAX
    kernel_size: 2
    stride: 2
  }
}
layer {
  name: "conv3"
  type: "Convolution"
  bottom: "pool2"
  top: "conv3"
  convolution_param {
    num_output: 250
    pad: 0
    kernel_size: 4
    group: 1
    stride: 1
    weight_filler {
      type: "xavier"
    }
  }
}
layer {
  name: "conv3_prescale"
  type: "Scale"
  bottom: "conv3"
  top: "conv3"
  param {
    lr_mult: 0
    decay_mult: 0
  }
  scale_param {
    filler {
      value: 0.6666
    }
    bias_term: false
  }
}
layer {
  name: "conv3_sTanH"
  type: "TanH"
  bottom: "conv3"
  top: "conv3"
}
layer {
  name: "conv3_postscale"
  type: "Scale"
  bottom: "conv3"
  top: "conv3"
  param {
    lr_mult: 0
    decay_mult: 0
  }
  scale_param {
    filler {
      value: 1.7159
    }
    bias_term: false
  }
}
layer {
  name: "pool3"
  type: "Pooling"
  bottom: "conv3"
  top: "pool3"
  pooling_param {
    pool: MAX
    kernel_size: 2
    stride: 2
  }
}
layer {
  name: "fc4_300"
  type: "InnerProduct"
  bottom: "pool3"
  top: "fc4_300"
  inner_product_param {
    num_output: 300
    weight_filler {
      type: "xavier"
    }
  }
}
layer {
  name: "fc4_prescale"
  type: "Scale"
  bottom: "fc4_300"
  top: "fc4_300"
  param {
    lr_mult: 0
    decay_mult: 0
  }
  scale_param {
    filler {
      value: 0.6666
    }
    bias_term: false
  }
}
layer {
  name: "fc4_sTanH"
  type: "TanH"
  bottom: "fc4_300"
  top: "fc4_300"
}
layer {
  name: "fc4_postscale"
  type: "Scale"
  bottom: "fc4_300"
  top: "fc4_300"
  param {
    lr_mult: 0
    decay_mult: 0
  }
  scale_param {
    filler {
      value: 1.7159
    }
    bias_term: false
  }
}
layer {
  name: "fc5_67"
  type: "InnerProduct"
  bottom: "fc4_300"
  top: "fc5_classes"
  inner_product_param {
    num_output: 67
    weight_filler {
      type: "xavier"
    }
  }
}
layer {
  name: "loss"
  type: "SoftmaxWithLoss"
  bottom: "fc5_classes"
  bottom: "label"
  top: "loss"
}
I0411 01:13:08.549360  9770 layer_factory.hpp:77] Creating layer data
I0411 01:13:08.550412  9770 net.cpp:100] Creating Layer data
I0411 01:13:08.550426  9770 net.cpp:408] data -> data
I0411 01:13:08.550449  9770 net.cpp:408] data -> label
I0411 01:13:08.551645  9877 db_lmdb.cpp:35] Opened lmdb ../local_data/lmdb/rtsd-r1/CoNorm/train/lmdb
I0411 01:13:08.568415  9770 data_layer.cpp:41] output data size: 1024,3,48,48
I0411 01:13:08.618628  9770 net.cpp:150] Setting up data
I0411 01:13:08.618659  9770 net.cpp:157] Top shape: 1024 3 48 48 (7077888)
I0411 01:13:08.618664  9770 net.cpp:157] Top shape: 1024 (1024)
I0411 01:13:08.618667  9770 net.cpp:165] Memory required for data: 28315648
I0411 01:13:08.618677  9770 layer_factory.hpp:77] Creating layer conv1
I0411 01:13:08.618700  9770 net.cpp:100] Creating Layer conv1
I0411 01:13:08.618707  9770 net.cpp:434] conv1 <- data
I0411 01:13:08.618722  9770 net.cpp:408] conv1 -> conv1
I0411 01:13:08.957203  9770 net.cpp:150] Setting up conv1
I0411 01:13:08.957232  9770 net.cpp:157] Top shape: 1024 100 42 42 (180633600)
I0411 01:13:08.957237  9770 net.cpp:165] Memory required for data: 750850048
I0411 01:13:08.957258  9770 layer_factory.hpp:77] Creating layer conv1_prescale
I0411 01:13:08.957276  9770 net.cpp:100] Creating Layer conv1_prescale
I0411 01:13:08.957283  9770 net.cpp:434] conv1_prescale <- conv1
I0411 01:13:08.957289  9770 net.cpp:395] conv1_prescale -> conv1 (in-place)
I0411 01:13:08.957397  9770 net.cpp:150] Setting up conv1_prescale
I0411 01:13:08.957406  9770 net.cpp:157] Top shape: 1024 100 42 42 (180633600)
I0411 01:13:08.957409  9770 net.cpp:165] Memory required for data: 1473384448
I0411 01:13:08.957417  9770 layer_factory.hpp:77] Creating layer conv1_sTanH
I0411 01:13:08.957423  9770 net.cpp:100] Creating Layer conv1_sTanH
I0411 01:13:08.957427  9770 net.cpp:434] conv1_sTanH <- conv1
I0411 01:13:08.957432  9770 net.cpp:395] conv1_sTanH -> conv1 (in-place)
I0411 01:13:08.957630  9770 net.cpp:150] Setting up conv1_sTanH
I0411 01:13:08.957643  9770 net.cpp:157] Top shape: 1024 100 42 42 (180633600)
I0411 01:13:08.957645  9770 net.cpp:165] Memory required for data: 2195918848
I0411 01:13:08.957649  9770 layer_factory.hpp:77] Creating layer conv1_postscale
I0411 01:13:08.957659  9770 net.cpp:100] Creating Layer conv1_postscale
I0411 01:13:08.957661  9770 net.cpp:434] conv1_postscale <- conv1
I0411 01:13:08.957667  9770 net.cpp:395] conv1_postscale -> conv1 (in-place)
I0411 01:13:08.957762  9770 net.cpp:150] Setting up conv1_postscale
I0411 01:13:08.957772  9770 net.cpp:157] Top shape: 1024 100 42 42 (180633600)
I0411 01:13:08.957774  9770 net.cpp:165] Memory required for data: 2918453248
I0411 01:13:08.957779  9770 layer_factory.hpp:77] Creating layer pool1
I0411 01:13:08.957787  9770 net.cpp:100] Creating Layer pool1
I0411 01:13:08.957790  9770 net.cpp:434] pool1 <- conv1
I0411 01:13:08.957795  9770 net.cpp:408] pool1 -> pool1
I0411 01:13:08.957844  9770 net.cpp:150] Setting up pool1
I0411 01:13:08.957852  9770 net.cpp:157] Top shape: 1024 100 21 21 (45158400)
I0411 01:13:08.957855  9770 net.cpp:165] Memory required for data: 3099086848
I0411 01:13:08.957878  9770 layer_factory.hpp:77] Creating layer conv2
I0411 01:13:08.957890  9770 net.cpp:100] Creating Layer conv2
I0411 01:13:08.957895  9770 net.cpp:434] conv2 <- pool1
I0411 01:13:08.957901  9770 net.cpp:408] conv2 -> conv2
I0411 01:13:08.963130  9770 net.cpp:150] Setting up conv2
I0411 01:13:08.963148  9770 net.cpp:157] Top shape: 1024 150 18 18 (49766400)
I0411 01:13:08.963152  9770 net.cpp:165] Memory required for data: 3298152448
I0411 01:13:08.963163  9770 layer_factory.hpp:77] Creating layer conv2_prescale
I0411 01:13:08.963172  9770 net.cpp:100] Creating Layer conv2_prescale
I0411 01:13:08.963178  9770 net.cpp:434] conv2_prescale <- conv2
I0411 01:13:08.963184  9770 net.cpp:395] conv2_prescale -> conv2 (in-place)
I0411 01:13:08.963291  9770 net.cpp:150] Setting up conv2_prescale
I0411 01:13:08.963300  9770 net.cpp:157] Top shape: 1024 150 18 18 (49766400)
I0411 01:13:08.963304  9770 net.cpp:165] Memory required for data: 3497218048
I0411 01:13:08.963310  9770 layer_factory.hpp:77] Creating layer conv2_sTanH
I0411 01:13:08.963316  9770 net.cpp:100] Creating Layer conv2_sTanH
I0411 01:13:08.963320  9770 net.cpp:434] conv2_sTanH <- conv2
I0411 01:13:08.963325  9770 net.cpp:395] conv2_sTanH -> conv2 (in-place)
I0411 01:13:08.969797  9770 net.cpp:150] Setting up conv2_sTanH
I0411 01:13:08.969815  9770 net.cpp:157] Top shape: 1024 150 18 18 (49766400)
I0411 01:13:08.969818  9770 net.cpp:165] Memory required for data: 3696283648
I0411 01:13:08.969822  9770 layer_factory.hpp:77] Creating layer conv2_postscale
I0411 01:13:08.969843  9770 net.cpp:100] Creating Layer conv2_postscale
I0411 01:13:08.969851  9770 net.cpp:434] conv2_postscale <- conv2
I0411 01:13:08.969856  9770 net.cpp:395] conv2_postscale -> conv2 (in-place)
I0411 01:13:08.969954  9770 net.cpp:150] Setting up conv2_postscale
I0411 01:13:08.969964  9770 net.cpp:157] Top shape: 1024 150 18 18 (49766400)
I0411 01:13:08.969966  9770 net.cpp:165] Memory required for data: 3895349248
I0411 01:13:08.969972  9770 layer_factory.hpp:77] Creating layer pool2
I0411 01:13:08.969979  9770 net.cpp:100] Creating Layer pool2
I0411 01:13:08.969982  9770 net.cpp:434] pool2 <- conv2
I0411 01:13:08.969987  9770 net.cpp:408] pool2 -> pool2
I0411 01:13:08.970027  9770 net.cpp:150] Setting up pool2
I0411 01:13:08.970036  9770 net.cpp:157] Top shape: 1024 150 9 9 (12441600)
I0411 01:13:08.970038  9770 net.cpp:165] Memory required for data: 3945115648
I0411 01:13:08.970041  9770 layer_factory.hpp:77] Creating layer conv3
I0411 01:13:08.970051  9770 net.cpp:100] Creating Layer conv3
I0411 01:13:08.970053  9770 net.cpp:434] conv3 <- pool2
I0411 01:13:08.970059  9770 net.cpp:408] conv3 -> conv3
I0411 01:13:08.980250  9770 net.cpp:150] Setting up conv3
I0411 01:13:08.980269  9770 net.cpp:157] Top shape: 1024 250 6 6 (9216000)
I0411 01:13:08.980273  9770 net.cpp:165] Memory required for data: 3981979648
I0411 01:13:08.980284  9770 layer_factory.hpp:77] Creating layer conv3_prescale
I0411 01:13:08.980294  9770 net.cpp:100] Creating Layer conv3_prescale
I0411 01:13:08.980300  9770 net.cpp:434] conv3_prescale <- conv3
I0411 01:13:08.980306  9770 net.cpp:395] conv3_prescale -> conv3 (in-place)
I0411 01:13:08.980406  9770 net.cpp:150] Setting up conv3_prescale
I0411 01:13:08.980415  9770 net.cpp:157] Top shape: 1024 250 6 6 (9216000)
I0411 01:13:08.980420  9770 net.cpp:165] Memory required for data: 4018843648
I0411 01:13:08.980425  9770 layer_factory.hpp:77] Creating layer conv3_sTanH
I0411 01:13:08.980432  9770 net.cpp:100] Creating Layer conv3_sTanH
I0411 01:13:08.980437  9770 net.cpp:434] conv3_sTanH <- conv3
I0411 01:13:08.980442  9770 net.cpp:395] conv3_sTanH -> conv3 (in-place)
I0411 01:13:08.981360  9770 net.cpp:150] Setting up conv3_sTanH
I0411 01:13:08.981377  9770 net.cpp:157] Top shape: 1024 250 6 6 (9216000)
I0411 01:13:08.981384  9770 net.cpp:165] Memory required for data: 4055707648
I0411 01:13:08.981387  9770 layer_factory.hpp:77] Creating layer conv3_postscale
I0411 01:13:08.981396  9770 net.cpp:100] Creating Layer conv3_postscale
I0411 01:13:08.981415  9770 net.cpp:434] conv3_postscale <- conv3
I0411 01:13:08.981423  9770 net.cpp:395] conv3_postscale -> conv3 (in-place)
I0411 01:13:08.981529  9770 net.cpp:150] Setting up conv3_postscale
I0411 01:13:08.981539  9770 net.cpp:157] Top shape: 1024 250 6 6 (9216000)
I0411 01:13:08.981544  9770 net.cpp:165] Memory required for data: 4092571648
I0411 01:13:08.981549  9770 layer_factory.hpp:77] Creating layer pool3
I0411 01:13:08.981557  9770 net.cpp:100] Creating Layer pool3
I0411 01:13:08.981562  9770 net.cpp:434] pool3 <- conv3
I0411 01:13:08.981570  9770 net.cpp:408] pool3 -> pool3
I0411 01:13:08.981611  9770 net.cpp:150] Setting up pool3
I0411 01:13:08.981621  9770 net.cpp:157] Top shape: 1024 250 3 3 (2304000)
I0411 01:13:08.981623  9770 net.cpp:165] Memory required for data: 4101787648
I0411 01:13:08.981626  9770 layer_factory.hpp:77] Creating layer fc4_300
I0411 01:13:08.981637  9770 net.cpp:100] Creating Layer fc4_300
I0411 01:13:08.981642  9770 net.cpp:434] fc4_300 <- pool3
I0411 01:13:08.981648  9770 net.cpp:408] fc4_300 -> fc4_300
I0411 01:13:08.988198  9770 net.cpp:150] Setting up fc4_300
I0411 01:13:08.988216  9770 net.cpp:157] Top shape: 1024 300 (307200)
I0411 01:13:08.988222  9770 net.cpp:165] Memory required for data: 4103016448
I0411 01:13:08.988230  9770 layer_factory.hpp:77] Creating layer fc4_prescale
I0411 01:13:08.988240  9770 net.cpp:100] Creating Layer fc4_prescale
I0411 01:13:08.988245  9770 net.cpp:434] fc4_prescale <- fc4_300
I0411 01:13:08.988250  9770 net.cpp:395] fc4_prescale -> fc4_300 (in-place)
I0411 01:13:08.988342  9770 net.cpp:150] Setting up fc4_prescale
I0411 01:13:08.988350  9770 net.cpp:157] Top shape: 1024 300 (307200)
I0411 01:13:08.988353  9770 net.cpp:165] Memory required for data: 4104245248
I0411 01:13:08.988358  9770 layer_factory.hpp:77] Creating layer fc4_sTanH
I0411 01:13:08.988365  9770 net.cpp:100] Creating Layer fc4_sTanH
I0411 01:13:08.988370  9770 net.cpp:434] fc4_sTanH <- fc4_300
I0411 01:13:08.988375  9770 net.cpp:395] fc4_sTanH -> fc4_300 (in-place)
I0411 01:13:08.988565  9770 net.cpp:150] Setting up fc4_sTanH
I0411 01:13:08.988579  9770 net.cpp:157] Top shape: 1024 300 (307200)
I0411 01:13:08.988582  9770 net.cpp:165] Memory required for data: 4105474048
I0411 01:13:08.988586  9770 layer_factory.hpp:77] Creating layer fc4_postscale
I0411 01:13:08.988593  9770 net.cpp:100] Creating Layer fc4_postscale
I0411 01:13:08.988598  9770 net.cpp:434] fc4_postscale <- fc4_300
I0411 01:13:08.988603  9770 net.cpp:395] fc4_postscale -> fc4_300 (in-place)
I0411 01:13:08.988703  9770 net.cpp:150] Setting up fc4_postscale
I0411 01:13:08.988713  9770 net.cpp:157] Top shape: 1024 300 (307200)
I0411 01:13:08.988718  9770 net.cpp:165] Memory required for data: 4106702848
I0411 01:13:08.988723  9770 layer_factory.hpp:77] Creating layer fc5_67
I0411 01:13:08.988729  9770 net.cpp:100] Creating Layer fc5_67
I0411 01:13:08.988734  9770 net.cpp:434] fc5_67 <- fc4_300
I0411 01:13:08.988739  9770 net.cpp:408] fc5_67 -> fc5_classes
I0411 01:13:08.990265  9770 net.cpp:150] Setting up fc5_67
I0411 01:13:08.990280  9770 net.cpp:157] Top shape: 1024 67 (68608)
I0411 01:13:08.990283  9770 net.cpp:165] Memory required for data: 4106977280
I0411 01:13:08.990294  9770 layer_factory.hpp:77] Creating layer loss
I0411 01:13:08.990303  9770 net.cpp:100] Creating Layer loss
I0411 01:13:08.990308  9770 net.cpp:434] loss <- fc5_classes
I0411 01:13:08.990312  9770 net.cpp:434] loss <- label
I0411 01:13:08.990320  9770 net.cpp:408] loss -> loss
I0411 01:13:08.990335  9770 layer_factory.hpp:77] Creating layer loss
…
I0411 01:13:08.991093  9770 solver.cpp:193] Creating test net (#0) specified by test_net file: ./Prototxt/experiment_8/rtsd-r1/CoNorm/trial_1/test.prototxt
I0411 01:13:08.991268  9770 net.cpp:58] Initializing net from parameters: 
state {
  phase: TEST
}
layer {
  name: "data"
  type: "Data"
  top: "data"
  top: "label"
  include {
    phase: TEST
  }
  transform_param {
    mirror: false
    crop_size: 48
    mean_value: 133
    mean_value: 133
    mean_value: 132
  }
  data_param {
    source: "../local_data/lmdb/rtsd-r1/CoNorm/test/lmdb"
    batch_size: 1024
    backend: LMDB
  }
}
layer {
  name: "conv1"
  type: "Convolution"
  bottom: "data"
  top: "conv1"
  convolution_param {
    num_output: 100
    pad: 0
    kernel_size: 7
    group: 1
    stride: 1
    weight_filler {
      type: "xavier"
    }
  }
}
layer {
  name: "conv1_prescale"
  type: "Scale"
  bottom: "conv1"
  top: "conv1"
  param {
    lr_mult: 0
    decay_mult: 0
  }
  scale_param {
    filler {
      value: 0.6666
    }
    bias_term: false
  }
}
layer {
  name: "conv1_sTanH"
  type: "TanH"
  bottom: "conv1"
  top: "conv1"
}
layer {
  name: "conv1_postscale"
  type: "Scale"
  bottom: "conv1"
  top: "conv1"
  param {
    lr_mult: 0
    decay_mult: 0
  }
  scale_param {
    filler {
      value: 1.7159
    }
    bias_term: false
  }
}
layer {
  name: "pool1"
  type: "Pooling"
  bottom: "conv1"
  top: "pool1"
  pooling_param {
    pool: MAX
    kernel_size: 2
    stride: 2
  }
}
layer {
  name: "conv2"
  type: "Convolution"
  bottom: "pool1"
  top: "conv2"
  convolution_param {
    num_output: 150
    pad: 0
    kernel_size: 4
    group: 1
    stride: 1
    weight_filler {
      type: "xavier"
    }
  }
}
layer {
  name: "conv2_prescale"
  type: "Scale"
  bottom: "conv2"
  top: "conv2"
  param {
    lr_mult: 0
    decay_mult: 0
  }
  scale_param {
    filler {
      value: 0.6666
    }
    bias_term: false
  }
}
layer {
  name: "conv2_sTanH"
  type: "TanH"
  bottom: "conv2"
  top: "conv2"
}
layer {
  name: "conv2_postscale"
  type: "Scale"
  bottom: "conv2"
  top: "conv2"
  param {
    lr_mult: 0
    decay_mult: 0
  }
  scale_param {
    filler {
      value: 1.7159
    }
    bias_term: false
  }
}
layer {
  name: "pool2"
  type: "Pooling"
  bottom: "conv2"
  top: "pool2"
  pooling_param {
    pool: MAX
    kernel_size: 2
    stride: 2
  }
}
layer {
  name: "conv3"
  type: "Convolution"
  bottom: "pool2"
  top: "conv3"
  convolution_param {
    num_output: 250
    pad: 0
    kernel_size: 4
    group: 1
    stride: 1
    weight_filler {
      type: "xavier"
    }
  }
}
layer {
  name: "conv3_prescale"
  type: "Scale"
  bottom: "conv3"
  top: "conv3"
  param {
    lr_mult: 0
    decay_mult: 0
  }
  scale_param {
    filler {
      value: 0.6666
    }
    bias_term: false
  }
}
layer {
  name: "conv3_sTanH"
  type: "TanH"
  bottom: "conv3"
  top: "conv3"
}
layer {
  name: "conv3_postscale"
  type: "Scale"
  bottom: "conv3"
  top: "conv3"
  param {
    lr_mult: 0
    decay_mult: 0
  }
  scale_param {
    filler {
      value: 1.7159
    }
    bias_term: false
  }
}
layer {
  name: "pool3"
  type: "Pooling"
  bottom: "conv3"
  top: "pool3"
  pooling_param {
    pool: MAX
    kernel_size: 2
    stride: 2
  }
}
layer {
  name: "fc4_300"
  type: "InnerProduct"
  bottom: "pool3"
  top: "fc4_300"
  inner_product_param {
    num_output: 300
    weight_filler {
      type: "xavier"
    }
  }
}
layer {
  name: "fc4_prescale"
  type: "Scale"
  bottom: "fc4_300"
  top: "fc4_300"
  param {
    lr_mult: 0
    decay_mult: 0
  }
  scale_param {
    filler {
      value: 0.6666
    }
    bias_term: false
  }
}
layer {
  name: "fc4_sTanH"
  type: "TanH"
  bottom: "fc4_300"
  top: "fc4_300"
}
layer {
  name: "fc4_postscale"
  type: "Scale"
  bottom: "fc4_300"
  top: "fc4_300"
  param {
    lr_mult: 0
    decay_mult: 0
  }
  scale_param {
    filler {
      value: 1.7159
    }
    bias_term: false
  }
}
layer {
  name: "fc5_67"
  type: "InnerProduct"
  bottom: "fc4_300"
  top: "fc5_classes"
  inner_product_param {
    num_output: 67
    weight_filler {
      type: "xavier"
    }
  }
}
layer {
  name: "loss"
  type: "SoftmaxWithLoss"
  bottom: "fc5_classes"
  bottom: "label"
  top: "loss"
}
layer {
  name: "accuracy_1"
  type: "Accuracy"
  bottom: "fc5_classes"
  bottom: "label"
  top: "accuracy_1"
  include {
    phase: TEST
  }
  accuracy_param {
    top_k: 1
  }
}
layer {
  name: "accuracy_5"
  type: "Accuracy"
  bottom: "fc5_classes"
  bottom: "label"
  top: "accuracy_5"
  include {
    phase: TEST
  }
  accuracy_param {
    top_k: 5
  }
}
I0411 01:13:08.991389  9770 layer_factory.hpp:77] Creating layer data
I0411 01:13:08.992022  9770 net.cpp:100] Creating Layer data
I0411 01:13:08.992033  9770 net.cpp:408] data -> data
I0411 01:13:08.992043  9770 net.cpp:408] data -> label
I0411 01:13:08.994002  9910 db_lmdb.cpp:35] Opened lmdb ../local_data/lmdb/rtsd-r1/CoNorm/test/lmdb
I0411 01:13:08.994143  9770 data_layer.cpp:41] output data size: 1024,3,48,48
I0411 01:13:09.048393  9770 net.cpp:150] Setting up data
I0411 01:13:09.048419  9770 net.cpp:157] Top shape: 1024 3 48 48 (7077888)
I0411 01:13:09.048425  9770 net.cpp:157] Top shape: 1024 (1024)
I0411 01:13:09.048429  9770 net.cpp:165] Memory required for data: 28315648
I0411 01:13:09.048437  9770 layer_factory.hpp:77] Creating layer label_data_1_split
I0411 01:13:09.048451  9770 net.cpp:100] Creating Layer label_data_1_split
I0411 01:13:09.048456  9770 net.cpp:434] label_data_1_split <- label
I0411 01:13:09.048463  9770 net.cpp:408] label_data_1_split -> label_data_1_split_0
I0411 01:13:09.048475  9770 net.cpp:408] label_data_1_split -> label_data_1_split_1
I0411 01:13:09.048485  9770 net.cpp:408] label_data_1_split -> label_data_1_split_2
I0411 01:13:09.048614  9770 net.cpp:150] Setting up label_data_1_split
I0411 01:13:09.048624  9770 net.cpp:157] Top shape: 1024 (1024)
I0411 01:13:09.048627  9770 net.cpp:157] Top shape: 1024 (1024)
I0411 01:13:09.048631  9770 net.cpp:157] Top shape: 1024 (1024)
I0411 01:13:09.048633  9770 net.cpp:165] Memory required for data: 28327936
I0411 01:13:09.048636  9770 layer_factory.hpp:77] Creating layer conv1
I0411 01:13:09.048650  9770 net.cpp:100] Creating Layer conv1
I0411 01:13:09.048656  9770 net.cpp:434] conv1 <- data
I0411 01:13:09.048662  9770 net.cpp:408] conv1 -> conv1
I0411 01:13:09.050946  9770 net.cpp:150] Setting up conv1
I0411 01:13:09.050962  9770 net.cpp:157] Top shape: 1024 100 42 42 (180633600)
I0411 01:13:09.050966  9770 net.cpp:165] Memory required for data: 750862336
I0411 01:13:09.050997  9770 layer_factory.hpp:77] Creating layer conv1_prescale
I0411 01:13:09.051007  9770 net.cpp:100] Creating Layer conv1_prescale
I0411 01:13:09.051013  9770 net.cpp:434] conv1_prescale <- conv1
I0411 01:13:09.051019  9770 net.cpp:395] conv1_prescale -> conv1 (in-place)
I0411 01:13:09.051123  9770 net.cpp:150] Setting up conv1_prescale
I0411 01:13:09.051132  9770 net.cpp:157] Top shape: 1024 100 42 42 (180633600)
I0411 01:13:09.051136  9770 net.cpp:165] Memory required for data: 1473396736
I0411 01:13:09.051142  9770 layer_factory.hpp:77] Creating layer conv1_sTanH
I0411 01:13:09.051151  9770 net.cpp:100] Creating Layer conv1_sTanH
I0411 01:13:09.051156  9770 net.cpp:434] conv1_sTanH <- conv1
I0411 01:13:09.051162  9770 net.cpp:395] conv1_sTanH -> conv1 (in-place)
I0411 01:13:09.051344  9770 net.cpp:150] Setting up conv1_sTanH
I0411 01:13:09.051355  9770 net.cpp:157] Top shape: 1024 100 42 42 (180633600)
I0411 01:13:09.051360  9770 net.cpp:165] Memory required for data: 2195931136
I0411 01:13:09.051363  9770 layer_factory.hpp:77] Creating layer conv1_postscale
I0411 01:13:09.051370  9770 net.cpp:100] Creating Layer conv1_postscale
I0411 01:13:09.051373  9770 net.cpp:434] conv1_postscale <- conv1
I0411 01:13:09.051379  9770 net.cpp:395] conv1_postscale -> conv1 (in-place)
I0411 01:13:09.051481  9770 net.cpp:150] Setting up conv1_postscale
I0411 01:13:09.051491  9770 net.cpp:157] Top shape: 1024 100 42 42 (180633600)
I0411 01:13:09.051493  9770 net.cpp:165] Memory required for data: 2918465536
I0411 01:13:09.051498  9770 layer_factory.hpp:77] Creating layer pool1
I0411 01:13:09.051507  9770 net.cpp:100] Creating Layer pool1
I0411 01:13:09.051512  9770 net.cpp:434] pool1 <- conv1
I0411 01:13:09.051517  9770 net.cpp:408] pool1 -> pool1
I0411 01:13:09.051559  9770 net.cpp:150] Setting up pool1
I0411 01:13:09.051568  9770 net.cpp:157] Top shape: 1024 100 21 21 (45158400)
I0411 01:13:09.051570  9770 net.cpp:165] Memory required for data: 3099099136
I0411 01:13:09.051573  9770 layer_factory.hpp:77] Creating layer conv2
I0411 01:13:09.051583  9770 net.cpp:100] Creating Layer conv2
I0411 01:13:09.051587  9770 net.cpp:434] conv2 <- pool1
I0411 01:13:09.051592  9770 net.cpp:408] conv2 -> conv2
I0411 01:13:09.058432  9770 net.cpp:150] Setting up conv2
I0411 01:13:09.058451  9770 net.cpp:157] Top shape: 1024 150 18 18 (49766400)
I0411 01:13:09.058454  9770 net.cpp:165] Memory required for data: 3298164736
I0411 01:13:09.058468  9770 layer_factory.hpp:77] Creating layer conv2_prescale
I0411 01:13:09.058480  9770 net.cpp:100] Creating Layer conv2_prescale
I0411 01:13:09.058485  9770 net.cpp:434] conv2_prescale <- conv2
I0411 01:13:09.058492  9770 net.cpp:395] conv2_prescale -> conv2 (in-place)
I0411 01:13:09.058607  9770 net.cpp:150] Setting up conv2_prescale
I0411 01:13:09.058617  9770 net.cpp:157] Top shape: 1024 150 18 18 (49766400)
I0411 01:13:09.058621  9770 net.cpp:165] Memory required for data: 3497230336
I0411 01:13:09.058626  9770 layer_factory.hpp:77] Creating layer conv2_sTanH
I0411 01:13:09.058632  9770 net.cpp:100] Creating Layer conv2_sTanH
I0411 01:13:09.058637  9770 net.cpp:434] conv2_sTanH <- conv2
I0411 01:13:09.058642  9770 net.cpp:395] conv2_sTanH -> conv2 (in-place)
I0411 01:13:09.059572  9770 net.cpp:150] Setting up conv2_sTanH
I0411 01:13:09.059587  9770 net.cpp:157] Top shape: 1024 150 18 18 (49766400)
I0411 01:13:09.059593  9770 net.cpp:165] Memory required for data: 3696295936
I0411 01:13:09.059597  9770 layer_factory.hpp:77] Creating layer conv2_postscale
I0411 01:13:09.059604  9770 net.cpp:100] Creating Layer conv2_postscale
I0411 01:13:09.059609  9770 net.cpp:434] conv2_postscale <- conv2
I0411 01:13:09.059615  9770 net.cpp:395] conv2_postscale -> conv2 (in-place)
I0411 01:13:09.059720  9770 net.cpp:150] Setting up conv2_postscale
I0411 01:13:09.059729  9770 net.cpp:157] Top shape: 1024 150 18 18 (49766400)
I0411 01:13:09.059734  9770 net.cpp:165] Memory required for data: 3895361536
I0411 01:13:09.059739  9770 layer_factory.hpp:77] Creating layer pool2
I0411 01:13:09.059762  9770 net.cpp:100] Creating Layer pool2
I0411 01:13:09.059767  9770 net.cpp:434] pool2 <- conv2
I0411 01:13:09.059772  9770 net.cpp:408] pool2 -> pool2
I0411 01:13:09.059823  9770 net.cpp:150] Setting up pool2
I0411 01:13:09.059831  9770 net.cpp:157] Top shape: 1024 150 9 9 (12441600)
I0411 01:13:09.059835  9770 net.cpp:165] Memory required for data: 3945127936
I0411 01:13:09.059839  9770 layer_factory.hpp:77] Creating layer conv3
I0411 01:13:09.059849  9770 net.cpp:100] Creating Layer conv3
I0411 01:13:09.059854  9770 net.cpp:434] conv3 <- pool2
I0411 01:13:09.059859  9770 net.cpp:408] conv3 -> conv3
I0411 01:13:09.065755  9770 net.cpp:150] Setting up conv3
I0411 01:13:09.065773  9770 net.cpp:157] Top shape: 1024 250 6 6 (9216000)
I0411 01:13:09.065778  9770 net.cpp:165] Memory required for data: 3981991936
I0411 01:13:09.065794  9770 layer_factory.hpp:77] Creating layer conv3_prescale
I0411 01:13:09.065805  9770 net.cpp:100] Creating Layer conv3_prescale
I0411 01:13:09.065811  9770 net.cpp:434] conv3_prescale <- conv3
I0411 01:13:09.065817  9770 net.cpp:395] conv3_prescale -> conv3 (in-place)
I0411 01:13:09.065922  9770 net.cpp:150] Setting up conv3_prescale
I0411 01:13:09.065932  9770 net.cpp:157] Top shape: 1024 250 6 6 (9216000)
I0411 01:13:09.065937  9770 net.cpp:165] Memory required for data: 4018855936
I0411 01:13:09.065942  9770 layer_factory.hpp:77] Creating layer conv3_sTanH
I0411 01:13:09.065948  9770 net.cpp:100] Creating Layer conv3_sTanH
I0411 01:13:09.065953  9770 net.cpp:434] conv3_sTanH <- conv3
I0411 01:13:09.065958  9770 net.cpp:395] conv3_sTanH -> conv3 (in-place)
I0411 01:13:09.068503  9770 net.cpp:150] Setting up conv3_sTanH
I0411 01:13:09.068522  9770 net.cpp:157] Top shape: 1024 250 6 6 (9216000)
I0411 01:13:09.068527  9770 net.cpp:165] Memory required for data: 4055719936
I0411 01:13:09.068531  9770 layer_factory.hpp:77] Creating layer conv3_postscale
I0411 01:13:09.068541  9770 net.cpp:100] Creating Layer conv3_postscale
I0411 01:13:09.068547  9770 net.cpp:434] conv3_postscale <- conv3
I0411 01:13:09.068553  9770 net.cpp:395] conv3_postscale -> conv3 (in-place)
I0411 01:13:09.068656  9770 net.cpp:150] Setting up conv3_postscale
I0411 01:13:09.068666  9770 net.cpp:157] Top shape: 1024 250 6 6 (9216000)
I0411 01:13:09.068673  9770 net.cpp:165] Memory required for data: 4092583936
I0411 01:13:09.068680  9770 layer_factory.hpp:77] Creating layer pool3
I0411 01:13:09.068689  9770 net.cpp:100] Creating Layer pool3
I0411 01:13:09.068696  9770 net.cpp:434] pool3 <- conv3
I0411 01:13:09.068701  9770 net.cpp:408] pool3 -> pool3
I0411 01:13:09.068744  9770 net.cpp:150] Setting up pool3
I0411 01:13:09.068753  9770 net.cpp:157] Top shape: 1024 250 3 3 (2304000)
I0411 01:13:09.068756  9770 net.cpp:165] Memory required for data: 4101799936
I0411 01:13:09.068768  9770 layer_factory.hpp:77] Creating layer fc4_300
I0411 01:13:09.068775  9770 net.cpp:100] Creating Layer fc4_300
I0411 01:13:09.068780  9770 net.cpp:434] fc4_300 <- pool3
I0411 01:13:09.068786  9770 net.cpp:408] fc4_300 -> fc4_300
I0411 01:13:09.074314  9770 net.cpp:150] Setting up fc4_300
I0411 01:13:09.074331  9770 net.cpp:157] Top shape: 1024 300 (307200)
I0411 01:13:09.074335  9770 net.cpp:165] Memory required for data: 4103028736
I0411 01:13:09.074342  9770 layer_factory.hpp:77] Creating layer fc4_prescale
I0411 01:13:09.074352  9770 net.cpp:100] Creating Layer fc4_prescale
I0411 01:13:09.074357  9770 net.cpp:434] fc4_prescale <- fc4_300
I0411 01:13:09.074363  9770 net.cpp:395] fc4_prescale -> fc4_300 (in-place)
I0411 01:13:09.074455  9770 net.cpp:150] Setting up fc4_prescale
I0411 01:13:09.074463  9770 net.cpp:157] Top shape: 1024 300 (307200)
I0411 01:13:09.074467  9770 net.cpp:165] Memory required for data: 4104257536
I0411 01:13:09.074471  9770 layer_factory.hpp:77] Creating layer fc4_sTanH
I0411 01:13:09.074479  9770 net.cpp:100] Creating Layer fc4_sTanH
I0411 01:13:09.074484  9770 net.cpp:434] fc4_sTanH <- fc4_300
I0411 01:13:09.074491  9770 net.cpp:395] fc4_sTanH -> fc4_300 (in-place)
I0411 01:13:09.074674  9770 net.cpp:150] Setting up fc4_sTanH
I0411 01:13:09.074700  9770 net.cpp:157] Top shape: 1024 300 (307200)
I0411 01:13:09.074707  9770 net.cpp:165] Memory required for data: 4105486336
I0411 01:13:09.074709  9770 layer_factory.hpp:77] Creating layer fc4_postscale
I0411 01:13:09.074717  9770 net.cpp:100] Creating Layer fc4_postscale
I0411 01:13:09.074723  9770 net.cpp:434] fc4_postscale <- fc4_300
I0411 01:13:09.074728  9770 net.cpp:395] fc4_postscale -> fc4_300 (in-place)
I0411 01:13:09.074825  9770 net.cpp:150] Setting up fc4_postscale
I0411 01:13:09.074836  9770 net.cpp:157] Top shape: 1024 300 (307200)
I0411 01:13:09.074839  9770 net.cpp:165] Memory required for data: 4106715136
I0411 01:13:09.074844  9770 layer_factory.hpp:77] Creating layer fc5_67
I0411 01:13:09.074851  9770 net.cpp:100] Creating Layer fc5_67
I0411 01:13:09.074856  9770 net.cpp:434] fc5_67 <- fc4_300
I0411 01:13:09.074862  9770 net.cpp:408] fc5_67 -> fc5_classes
I0411 01:13:09.075110  9770 net.cpp:150] Setting up fc5_67
I0411 01:13:09.075121  9770 net.cpp:157] Top shape: 1024 67 (68608)
I0411 01:13:09.075124  9770 net.cpp:165] Memory required for data: 4106989568
I0411 01:13:09.075134  9770 layer_factory.hpp:77] Creating layer fc5_classes_fc5_67_0_split
I0411 01:13:09.075142  9770 net.cpp:100] Creating Layer fc5_classes_fc5_67_0_split
I0411 01:13:09.075147  9770 net.cpp:434] fc5_classes_fc5_67_0_split <- fc5_classes
I0411 01:13:09.075153  9770 net.cpp:408] fc5_classes_fc5_67_0_split -> fc5_classes_fc5_67_0_split_0
I0411 01:13:09.075161  9770 net.cpp:408] fc5_classes_fc5_67_0_split -> fc5_classes_fc5_67_0_split_1
I0411 01:13:09.075170  9770 net.cpp:408] fc5_classes_fc5_67_0_split -> fc5_classes_fc5_67_0_split_2
I0411 01:13:09.075222  9770 net.cpp:150] Setting up fc5_classes_fc5_67_0_split
I0411 01:13:09.075228  9770 net.cpp:157] Top shape: 1024 67 (68608)
I0411 01:13:09.075232  9770 net.cpp:157] Top shape: 1024 67 (68608)
I0411 01:13:09.075237  9770 net.cpp:157] Top shape: 1024 67 (68608)
I0411 01:13:09.075238  9770 net.cpp:165] Memory required for data: 4107812864
I0411 01:13:09.075242  9770 layer_factory.hpp:77] Creating layer loss
I0411 01:13:09.075248  9770 net.cpp:100] Creating Layer loss
I0411 01:13:09.075254  9770 net.cpp:434] loss <- fc5_classes_fc5_67_0_split_0
I0411 01:13:09.075259  9770 net.cpp:434] loss <- label_data_1_split_0
I0411 01:13:09.075264  9770 net.cpp:408] loss -> loss
…
