…
I0411 00:44:12.375749 11664 net.cpp:322] The NetState phase (0) differed from the phase (1) specified by a rule in layer accuracy_5
I0411 00:44:12.375898 11664 net.cpp:58] Initializing net from parameters: 
state {
  phase: TRAIN
  level: 0
  stage: ""
}
layer {
  name: "data"
  type: "Data"
  top: "data"
  top: "label"
  include {
    phase: TRAIN
  }
  transform_param {
    mirror: false
    crop_size: 48
    mean_value: 132
    mean_value: 132
    mean_value: 131
  }
  data_param {
    source: "../local_data/lmdb/rtsd-r1/CoNorm/train/lmdb"
    batch_size: 1024
    backend: LMDB
  }
}
layer {
  name: "conv1"
  type: "Convolution"
  bottom: "data"
  top: "conv1"
  convolution_param {
    num_output: 100
    pad: 0
    kernel_size: 7
    group: 1
    stride: 1
    weight_filler {
      type: "xavier"
    }
  }
}
layer {
  name: "conv1_prescale"
  type: "Scale"
  bottom: "conv1"
  top: "conv1"
  param {
    lr_mult: 0
    decay_mult: 0
  }
  scale_param {
    filler {
      value: 0.6666
    }
    bias_term: false
  }
}
layer {
  name: "conv1_sTanH"
  type: "TanH"
  bottom: "conv1"
  top: "conv1"
}
layer {
  name: "conv1_postscale"
  type: "Scale"
  bottom: "conv1"
  top: "conv1"
  param {
    lr_mult: 0
    decay_mult: 0
  }
  scale_param {
    filler {
      value: 1.7159
    }
    bias_term: false
  }
}
layer {
  name: "pool1"
  type: "Pooling"
  bottom: "conv1"
  top: "pool1"
  pooling_param {
    pool: MAX
    kernel_size: 2
    stride: 2
  }
}
layer {
  name: "conv2"
  type: "Convolution"
  bottom: "pool1"
  top: "conv2"
  convolution_param {
    num_output: 150
    pad: 0
    kernel_size: 4
    group: 1
    stride: 1
    weight_filler {
      type: "xavier"
    }
  }
}
layer {
  name: "conv2_prescale"
  type: "Scale"
  bottom: "conv2"
  top: "conv2"
  param {
    lr_mult: 0
    decay_mult: 0
  }
  scale_param {
    filler {
      value: 0.6666
    }
    bias_term: false
  }
}
layer {
  name: "conv2_sTanH"
  type: "TanH"
  bottom: "conv2"
  top: "conv2"
}
layer {
  name: "conv2_postscale"
  type: "Scale"
  bottom: "conv2"
  top: "conv2"
  param {
    lr_mult: 0
    decay_mult: 0
  }
  scale_param {
    filler {
      value: 1.7159
    }
    bias_term: false
  }
}
layer {
  name: "pool2"
  type: "Pooling"
  bottom: "conv2"
  top: "pool2"
  pooling_param {
    pool: MAX
    kernel_size: 2
    stride: 2
  }
}
layer {
  name: "conv3"
  type: "Convolution"
  bottom: "pool2"
  top: "conv3"
  convolution_param {
    num_output: 250
    pad: 0
    kernel_size: 4
    group: 1
    stride: 1
    weight_filler {
      type: "xavier"
    }
  }
}
layer {
  name: "conv3_prescale"
  type: "Scale"
  bottom: "conv3"
  top: "conv3"
  param {
    lr_mult: 0
    decay_mult: 0
  }
  scale_param {
    filler {
      value: 0.6666
    }
    bias_term: false
  }
}
layer {
  name: "conv3_sTanH"
  type: "TanH"
  bottom: "conv3"
  top: "conv3"
}
layer {
  name: "conv3_postscale"
  type: "Scale"
  bottom: "conv3"
  top: "conv3"
  param {
    lr_mult: 0
    decay_mult: 0
  }
  scale_param {
    filler {
      value: 1.7159
    }
    bias_term: false
  }
}
layer {
  name: "pool3"
  type: "Pooling"
  bottom: "conv3"
  top: "pool3"
  pooling_param {
    pool: MAX
    kernel_size: 2
    stride: 2
  }
}
layer {
  name: "fc4_300"
  type: "InnerProduct"
  bottom: "pool3"
  top: "fc4_300"
  inner_product_param {
    num_output: 300
    weight_filler {
      type: "xavier"
    }
  }
}
layer {
  name: "fc4_prescale"
  type: "Scale"
  bottom: "fc4_300"
  top: "fc4_300"
  param {
    lr_mult: 0
    decay_mult: 0
  }
  scale_param {
    filler {
      value: 0.6666
    }
    bias_term: false
  }
}
layer {
  name: "fc4_sTanH"
  type: "TanH"
  bottom: "fc4_300"
  top: "fc4_300"
}
layer {
  name: "fc4_postscale"
  type: "Scale"
  bottom: "fc4_300"
  top: "fc4_300"
  param {
    lr_mult: 0
    decay_mult: 0
  }
  scale_param {
    filler {
      value: 1.7159
    }
    bias_term: false
  }
}
layer {
  name: "fc5_67"
  type: "InnerProduct"
  bottom: "fc4_300"
  top: "fc5_classes"
  inner_product_param {
    num_output: 67
    weight_filler {
      type: "xavier"
    }
  }
}
layer {
  name: "loss"
  type: "SoftmaxWithLoss"
  bottom: "fc5_classes"
  bottom: "label"
  top: "loss"
}
I0411 00:44:12.376004 11664 layer_factory.hpp:77] Creating layer data
I0411 00:44:12.377099 11664 net.cpp:100] Creating Layer data
I0411 00:44:12.377130 11664 net.cpp:408] data -> data
I0411 00:44:12.377156 11664 net.cpp:408] data -> label
I0411 00:44:12.378444 11752 db_lmdb.cpp:35] Opened lmdb ../local_data/lmdb/rtsd-r1/CoNorm/train/lmdb
I0411 00:44:12.395895 11664 data_layer.cpp:41] output data size: 1024,3,48,48
I0411 00:44:12.446224 11664 net.cpp:150] Setting up data
I0411 00:44:12.446255 11664 net.cpp:157] Top shape: 1024 3 48 48 (7077888)
I0411 00:44:12.446261 11664 net.cpp:157] Top shape: 1024 (1024)
I0411 00:44:12.446264 11664 net.cpp:165] Memory required for data: 28315648
I0411 00:44:12.446274 11664 layer_factory.hpp:77] Creating layer conv1
I0411 00:44:12.446300 11664 net.cpp:100] Creating Layer conv1
I0411 00:44:12.446307 11664 net.cpp:434] conv1 <- data
I0411 00:44:12.446319 11664 net.cpp:408] conv1 -> conv1
I0411 00:44:12.759511 11664 net.cpp:150] Setting up conv1
I0411 00:44:12.759544 11664 net.cpp:157] Top shape: 1024 100 42 42 (180633600)
I0411 00:44:12.759548 11664 net.cpp:165] Memory required for data: 750850048
I0411 00:44:12.759570 11664 layer_factory.hpp:77] Creating layer conv1_prescale
I0411 00:44:12.759588 11664 net.cpp:100] Creating Layer conv1_prescale
I0411 00:44:12.759593 11664 net.cpp:434] conv1_prescale <- conv1
I0411 00:44:12.759599 11664 net.cpp:395] conv1_prescale -> conv1 (in-place)
I0411 00:44:12.759716 11664 net.cpp:150] Setting up conv1_prescale
I0411 00:44:12.759726 11664 net.cpp:157] Top shape: 1024 100 42 42 (180633600)
I0411 00:44:12.759728 11664 net.cpp:165] Memory required for data: 1473384448
I0411 00:44:12.759735 11664 layer_factory.hpp:77] Creating layer conv1_sTanH
I0411 00:44:12.759745 11664 net.cpp:100] Creating Layer conv1_sTanH
I0411 00:44:12.759749 11664 net.cpp:434] conv1_sTanH <- conv1
I0411 00:44:12.759754 11664 net.cpp:395] conv1_sTanH -> conv1 (in-place)
I0411 00:44:12.759969 11664 net.cpp:150] Setting up conv1_sTanH
I0411 00:44:12.759984 11664 net.cpp:157] Top shape: 1024 100 42 42 (180633600)
I0411 00:44:12.759986 11664 net.cpp:165] Memory required for data: 2195918848
I0411 00:44:12.759990 11664 layer_factory.hpp:77] Creating layer conv1_postscale
I0411 00:44:12.759999 11664 net.cpp:100] Creating Layer conv1_postscale
I0411 00:44:12.760004 11664 net.cpp:434] conv1_postscale <- conv1
I0411 00:44:12.760010 11664 net.cpp:395] conv1_postscale -> conv1 (in-place)
I0411 00:44:12.760113 11664 net.cpp:150] Setting up conv1_postscale
I0411 00:44:12.760123 11664 net.cpp:157] Top shape: 1024 100 42 42 (180633600)
I0411 00:44:12.760125 11664 net.cpp:165] Memory required for data: 2918453248
I0411 00:44:12.760130 11664 layer_factory.hpp:77] Creating layer pool1
I0411 00:44:12.760138 11664 net.cpp:100] Creating Layer pool1
I0411 00:44:12.760143 11664 net.cpp:434] pool1 <- conv1
I0411 00:44:12.760149 11664 net.cpp:408] pool1 -> pool1
I0411 00:44:12.760200 11664 net.cpp:150] Setting up pool1
I0411 00:44:12.760208 11664 net.cpp:157] Top shape: 1024 100 21 21 (45158400)
I0411 00:44:12.760211 11664 net.cpp:165] Memory required for data: 3099086848
I0411 00:44:12.760232 11664 layer_factory.hpp:77] Creating layer conv2
I0411 00:44:12.760244 11664 net.cpp:100] Creating Layer conv2
I0411 00:44:12.760249 11664 net.cpp:434] conv2 <- pool1
I0411 00:44:12.760257 11664 net.cpp:408] conv2 -> conv2
I0411 00:44:12.764681 11664 net.cpp:150] Setting up conv2
I0411 00:44:12.764700 11664 net.cpp:157] Top shape: 1024 150 18 18 (49766400)
I0411 00:44:12.764705 11664 net.cpp:165] Memory required for data: 3298152448
I0411 00:44:12.764715 11664 layer_factory.hpp:77] Creating layer conv2_prescale
I0411 00:44:12.764725 11664 net.cpp:100] Creating Layer conv2_prescale
I0411 00:44:12.764730 11664 net.cpp:434] conv2_prescale <- conv2
I0411 00:44:12.764735 11664 net.cpp:395] conv2_prescale -> conv2 (in-place)
I0411 00:44:12.764843 11664 net.cpp:150] Setting up conv2_prescale
I0411 00:44:12.764853 11664 net.cpp:157] Top shape: 1024 150 18 18 (49766400)
I0411 00:44:12.764855 11664 net.cpp:165] Memory required for data: 3497218048
I0411 00:44:12.764859 11664 layer_factory.hpp:77] Creating layer conv2_sTanH
I0411 00:44:12.764866 11664 net.cpp:100] Creating Layer conv2_sTanH
I0411 00:44:12.764871 11664 net.cpp:434] conv2_sTanH <- conv2
I0411 00:44:12.764875 11664 net.cpp:395] conv2_sTanH -> conv2 (in-place)
I0411 00:44:12.765615 11664 net.cpp:150] Setting up conv2_sTanH
I0411 00:44:12.765631 11664 net.cpp:157] Top shape: 1024 150 18 18 (49766400)
I0411 00:44:12.765636 11664 net.cpp:165] Memory required for data: 3696283648
I0411 00:44:12.765640 11664 layer_factory.hpp:77] Creating layer conv2_postscale
I0411 00:44:12.765647 11664 net.cpp:100] Creating Layer conv2_postscale
I0411 00:44:12.765651 11664 net.cpp:434] conv2_postscale <- conv2
I0411 00:44:12.765656 11664 net.cpp:395] conv2_postscale -> conv2 (in-place)
I0411 00:44:12.765753 11664 net.cpp:150] Setting up conv2_postscale
I0411 00:44:12.765760 11664 net.cpp:157] Top shape: 1024 150 18 18 (49766400)
I0411 00:44:12.765763 11664 net.cpp:165] Memory required for data: 3895349248
I0411 00:44:12.765769 11664 layer_factory.hpp:77] Creating layer pool2
I0411 00:44:12.765774 11664 net.cpp:100] Creating Layer pool2
I0411 00:44:12.765779 11664 net.cpp:434] pool2 <- conv2
I0411 00:44:12.765784 11664 net.cpp:408] pool2 -> pool2
I0411 00:44:12.765822 11664 net.cpp:150] Setting up pool2
I0411 00:44:12.765830 11664 net.cpp:157] Top shape: 1024 150 9 9 (12441600)
I0411 00:44:12.765832 11664 net.cpp:165] Memory required for data: 3945115648
I0411 00:44:12.765836 11664 layer_factory.hpp:77] Creating layer conv3
I0411 00:44:12.765843 11664 net.cpp:100] Creating Layer conv3
I0411 00:44:12.765846 11664 net.cpp:434] conv3 <- pool2
I0411 00:44:12.765851 11664 net.cpp:408] conv3 -> conv3
I0411 00:44:12.772439 11664 net.cpp:150] Setting up conv3
I0411 00:44:12.772457 11664 net.cpp:157] Top shape: 1024 250 6 6 (9216000)
I0411 00:44:12.772474 11664 net.cpp:165] Memory required for data: 3981979648
I0411 00:44:12.772485 11664 layer_factory.hpp:77] Creating layer conv3_prescale
I0411 00:44:12.772492 11664 net.cpp:100] Creating Layer conv3_prescale
I0411 00:44:12.772495 11664 net.cpp:434] conv3_prescale <- conv3
I0411 00:44:12.772500 11664 net.cpp:395] conv3_prescale -> conv3 (in-place)
I0411 00:44:12.772594 11664 net.cpp:150] Setting up conv3_prescale
I0411 00:44:12.772603 11664 net.cpp:157] Top shape: 1024 250 6 6 (9216000)
I0411 00:44:12.772606 11664 net.cpp:165] Memory required for data: 4018843648
I0411 00:44:12.772611 11664 layer_factory.hpp:77] Creating layer conv3_sTanH
I0411 00:44:12.772617 11664 net.cpp:100] Creating Layer conv3_sTanH
I0411 00:44:12.772619 11664 net.cpp:434] conv3_sTanH <- conv3
I0411 00:44:12.772624 11664 net.cpp:395] conv3_sTanH -> conv3 (in-place)
I0411 00:44:12.773376 11664 net.cpp:150] Setting up conv3_sTanH
I0411 00:44:12.773392 11664 net.cpp:157] Top shape: 1024 250 6 6 (9216000)
I0411 00:44:12.773396 11664 net.cpp:165] Memory required for data: 4055707648
I0411 00:44:12.773399 11664 layer_factory.hpp:77] Creating layer conv3_postscale
I0411 00:44:12.773406 11664 net.cpp:100] Creating Layer conv3_postscale
I0411 00:44:12.773424 11664 net.cpp:434] conv3_postscale <- conv3
I0411 00:44:12.773430 11664 net.cpp:395] conv3_postscale -> conv3 (in-place)
I0411 00:44:12.773530 11664 net.cpp:150] Setting up conv3_postscale
I0411 00:44:12.773538 11664 net.cpp:157] Top shape: 1024 250 6 6 (9216000)
I0411 00:44:12.773541 11664 net.cpp:165] Memory required for data: 4092571648
I0411 00:44:12.773546 11664 layer_factory.hpp:77] Creating layer pool3
I0411 00:44:12.773552 11664 net.cpp:100] Creating Layer pool3
I0411 00:44:12.773557 11664 net.cpp:434] pool3 <- conv3
I0411 00:44:12.773562 11664 net.cpp:408] pool3 -> pool3
I0411 00:44:12.773599 11664 net.cpp:150] Setting up pool3
I0411 00:44:12.773607 11664 net.cpp:157] Top shape: 1024 250 3 3 (2304000)
I0411 00:44:12.773610 11664 net.cpp:165] Memory required for data: 4101787648
I0411 00:44:12.773613 11664 layer_factory.hpp:77] Creating layer fc4_300
I0411 00:44:12.773622 11664 net.cpp:100] Creating Layer fc4_300
I0411 00:44:12.773627 11664 net.cpp:434] fc4_300 <- pool3
I0411 00:44:12.773633 11664 net.cpp:408] fc4_300 -> fc4_300
I0411 00:44:12.779039 11664 net.cpp:150] Setting up fc4_300
I0411 00:44:12.779057 11664 net.cpp:157] Top shape: 1024 300 (307200)
I0411 00:44:12.779060 11664 net.cpp:165] Memory required for data: 4103016448
I0411 00:44:12.779067 11664 layer_factory.hpp:77] Creating layer fc4_prescale
I0411 00:44:12.779074 11664 net.cpp:100] Creating Layer fc4_prescale
I0411 00:44:12.779078 11664 net.cpp:434] fc4_prescale <- fc4_300
I0411 00:44:12.779083 11664 net.cpp:395] fc4_prescale -> fc4_300 (in-place)
I0411 00:44:12.779170 11664 net.cpp:150] Setting up fc4_prescale
I0411 00:44:12.779180 11664 net.cpp:157] Top shape: 1024 300 (307200)
I0411 00:44:12.779182 11664 net.cpp:165] Memory required for data: 4104245248
I0411 00:44:12.779186 11664 layer_factory.hpp:77] Creating layer fc4_sTanH
I0411 00:44:12.779192 11664 net.cpp:100] Creating Layer fc4_sTanH
I0411 00:44:12.779196 11664 net.cpp:434] fc4_sTanH <- fc4_300
I0411 00:44:12.779199 11664 net.cpp:395] fc4_sTanH -> fc4_300 (in-place)
I0411 00:44:12.779381 11664 net.cpp:150] Setting up fc4_sTanH
I0411 00:44:12.779393 11664 net.cpp:157] Top shape: 1024 300 (307200)
I0411 00:44:12.779397 11664 net.cpp:165] Memory required for data: 4105474048
I0411 00:44:12.779399 11664 layer_factory.hpp:77] Creating layer fc4_postscale
I0411 00:44:12.779405 11664 net.cpp:100] Creating Layer fc4_postscale
I0411 00:44:12.779410 11664 net.cpp:434] fc4_postscale <- fc4_300
I0411 00:44:12.779415 11664 net.cpp:395] fc4_postscale -> fc4_300 (in-place)
I0411 00:44:12.779508 11664 net.cpp:150] Setting up fc4_postscale
I0411 00:44:12.779516 11664 net.cpp:157] Top shape: 1024 300 (307200)
I0411 00:44:12.779520 11664 net.cpp:165] Memory required for data: 4106702848
I0411 00:44:12.779525 11664 layer_factory.hpp:77] Creating layer fc5_67
I0411 00:44:12.779531 11664 net.cpp:100] Creating Layer fc5_67
I0411 00:44:12.779532 11664 net.cpp:434] fc5_67 <- fc4_300
I0411 00:44:12.779537 11664 net.cpp:408] fc5_67 -> fc5_classes
I0411 00:44:12.780803 11664 net.cpp:150] Setting up fc5_67
I0411 00:44:12.780820 11664 net.cpp:157] Top shape: 1024 67 (68608)
I0411 00:44:12.780823 11664 net.cpp:165] Memory required for data: 4106977280
I0411 00:44:12.780834 11664 layer_factory.hpp:77] Creating layer loss
I0411 00:44:12.780841 11664 net.cpp:100] Creating Layer loss
I0411 00:44:12.780844 11664 net.cpp:434] loss <- fc5_classes
I0411 00:44:12.780849 11664 net.cpp:434] loss <- label
I0411 00:44:12.780854 11664 net.cpp:408] loss -> loss
I0411 00:44:12.780866 11664 layer_factory.hpp:77] Creating layer loss
…
I0411 00:44:12.781599 11664 solver.cpp:193] Creating test net (#0) specified by test_net file: ./Prototxt/experiment_8/rtsd-r1/CoNorm/trial_1/test.prototxt
I0411 00:44:12.781777 11664 net.cpp:58] Initializing net from parameters: 
state {
  phase: TEST
}
layer {
  name: "data"
  type: "Data"
  top: "data"
  top: "label"
  include {
    phase: TEST
  }
  transform_param {
    mirror: false
    crop_size: 48
    mean_value: 133
    mean_value: 133
    mean_value: 132
  }
  data_param {
    source: "../local_data/lmdb/rtsd-r1/CoNorm/test/lmdb"
    batch_size: 1024
    backend: LMDB
  }
}
layer {
  name: "conv1"
  type: "Convolution"
  bottom: "data"
  top: "conv1"
  convolution_param {
    num_output: 100
    pad: 0
    kernel_size: 7
    group: 1
    stride: 1
    weight_filler {
      type: "xavier"
    }
  }
}
layer {
  name: "conv1_prescale"
  type: "Scale"
  bottom: "conv1"
  top: "conv1"
  param {
    lr_mult: 0
    decay_mult: 0
  }
  scale_param {
    filler {
      value: 0.6666
    }
    bias_term: false
  }
}
layer {
  name: "conv1_sTanH"
  type: "TanH"
  bottom: "conv1"
  top: "conv1"
}
layer {
  name: "conv1_postscale"
  type: "Scale"
  bottom: "conv1"
  top: "conv1"
  param {
    lr_mult: 0
    decay_mult: 0
  }
  scale_param {
    filler {
      value: 1.7159
    }
    bias_term: false
  }
}
layer {
  name: "pool1"
  type: "Pooling"
  bottom: "conv1"
  top: "pool1"
  pooling_param {
    pool: MAX
    kernel_size: 2
    stride: 2
  }
}
layer {
  name: "conv2"
  type: "Convolution"
  bottom: "pool1"
  top: "conv2"
  convolution_param {
    num_output: 150
    pad: 0
    kernel_size: 4
    group: 1
    stride: 1
    weight_filler {
      type: "xavier"
    }
  }
}
layer {
  name: "conv2_prescale"
  type: "Scale"
  bottom: "conv2"
  top: "conv2"
  param {
    lr_mult: 0
    decay_mult: 0
  }
  scale_param {
    filler {
      value: 0.6666
    }
    bias_term: false
  }
}
layer {
  name: "conv2_sTanH"
  type: "TanH"
  bottom: "conv2"
  top: "conv2"
}
layer {
  name: "conv2_postscale"
  type: "Scale"
  bottom: "conv2"
  top: "conv2"
  param {
    lr_mult: 0
    decay_mult: 0
  }
  scale_param {
    filler {
      value: 1.7159
    }
    bias_term: false
  }
}
layer {
  name: "pool2"
  type: "Pooling"
  bottom: "conv2"
  top: "pool2"
  pooling_param {
    pool: MAX
    kernel_size: 2
    stride: 2
  }
}
layer {
  name: "conv3"
  type: "Convolution"
  bottom: "pool2"
  top: "conv3"
  convolution_param {
    num_output: 250
    pad: 0
    kernel_size: 4
    group: 1
    stride: 1
    weight_filler {
      type: "xavier"
    }
  }
}
layer {
  name: "conv3_prescale"
  type: "Scale"
  bottom: "conv3"
  top: "conv3"
  param {
    lr_mult: 0
    decay_mult: 0
  }
  scale_param {
    filler {
      value: 0.6666
    }
    bias_term: false
  }
}
layer {
  name: "conv3_sTanH"
  type: "TanH"
  bottom: "conv3"
  top: "conv3"
}
layer {
  name: "conv3_postscale"
  type: "Scale"
  bottom: "conv3"
  top: "conv3"
  param {
    lr_mult: 0
    decay_mult: 0
  }
  scale_param {
    filler {
      value: 1.7159
    }
    bias_term: false
  }
}
layer {
  name: "pool3"
  type: "Pooling"
  bottom: "conv3"
  top: "pool3"
  pooling_param {
    pool: MAX
    kernel_size: 2
    stride: 2
  }
}
layer {
  name: "fc4_300"
  type: "InnerProduct"
  bottom: "pool3"
  top: "fc4_300"
  inner_product_param {
    num_output: 300
    weight_filler {
      type: "xavier"
    }
  }
}
layer {
  name: "fc4_prescale"
  type: "Scale"
  bottom: "fc4_300"
  top: "fc4_300"
  param {
    lr_mult: 0
    decay_mult: 0
  }
  scale_param {
    filler {
      value: 0.6666
    }
    bias_term: false
  }
}
layer {
  name: "fc4_sTanH"
  type: "TanH"
  bottom: "fc4_300"
  top: "fc4_300"
}
layer {
  name: "fc4_postscale"
  type: "Scale"
  bottom: "fc4_300"
  top: "fc4_300"
  param {
    lr_mult: 0
    decay_mult: 0
  }
  scale_param {
    filler {
      value: 1.7159
    }
    bias_term: false
  }
}
layer {
  name: "fc5_67"
  type: "InnerProduct"
  bottom: "fc4_300"
  top: "fc5_classes"
  inner_product_param {
    num_output: 67
    weight_filler {
      type: "xavier"
    }
  }
}
layer {
  name: "loss"
  type: "SoftmaxWithLoss"
  bottom: "fc5_classes"
  bottom: "label"
  top: "loss"
}
layer {
  name: "accuracy_1"
  type: "Accuracy"
  bottom: "fc5_classes"
  bottom: "label"
  top: "accuracy_1"
  include {
    phase: TEST
  }
  accuracy_param {
    top_k: 1
  }
}
layer {
  name: "accuracy_5"
  type: "Accuracy"
  bottom: "fc5_classes"
  bottom: "label"
  top: "accuracy_5"
  include {
    phase: TEST
  }
  accuracy_param {
    top_k: 5
  }
}
I0411 00:44:12.781888 11664 layer_factory.hpp:77] Creating layer data
I0411 00:44:12.782454 11664 net.cpp:100] Creating Layer data
I0411 00:44:12.782466 11664 net.cpp:408] data -> data
I0411 00:44:12.782475 11664 net.cpp:408] data -> label
I0411 00:44:12.783493 11786 db_lmdb.cpp:35] Opened lmdb ../local_data/lmdb/rtsd-r1/CoNorm/test/lmdb
I0411 00:44:12.783643 11664 data_layer.cpp:41] output data size: 1024,3,48,48
I0411 00:44:12.828207 11664 net.cpp:150] Setting up data
I0411 00:44:12.828243 11664 net.cpp:157] Top shape: 1024 3 48 48 (7077888)
I0411 00:44:12.828251 11664 net.cpp:157] Top shape: 1024 (1024)
I0411 00:44:12.828258 11664 net.cpp:165] Memory required for data: 28315648
I0411 00:44:12.828266 11664 layer_factory.hpp:77] Creating layer label_data_1_split
I0411 00:44:12.828285 11664 net.cpp:100] Creating Layer label_data_1_split
I0411 00:44:12.828295 11664 net.cpp:434] label_data_1_split <- label
I0411 00:44:12.828306 11664 net.cpp:408] label_data_1_split -> label_data_1_split_0
I0411 00:44:12.828325 11664 net.cpp:408] label_data_1_split -> label_data_1_split_1
I0411 00:44:12.828336 11664 net.cpp:408] label_data_1_split -> label_data_1_split_2
I0411 00:44:12.828491 11664 net.cpp:150] Setting up label_data_1_split
I0411 00:44:12.828505 11664 net.cpp:157] Top shape: 1024 (1024)
I0411 00:44:12.828516 11664 net.cpp:157] Top shape: 1024 (1024)
I0411 00:44:12.828522 11664 net.cpp:157] Top shape: 1024 (1024)
I0411 00:44:12.828529 11664 net.cpp:165] Memory required for data: 28327936
I0411 00:44:12.828534 11664 layer_factory.hpp:77] Creating layer conv1
I0411 00:44:12.828553 11664 net.cpp:100] Creating Layer conv1
I0411 00:44:12.828564 11664 net.cpp:434] conv1 <- data
I0411 00:44:12.828573 11664 net.cpp:408] conv1 -> conv1
I0411 00:44:12.830529 11664 net.cpp:150] Setting up conv1
I0411 00:44:12.830546 11664 net.cpp:157] Top shape: 1024 100 42 42 (180633600)
I0411 00:44:12.830550 11664 net.cpp:165] Memory required for data: 750862336
I0411 00:44:12.830581 11664 layer_factory.hpp:77] Creating layer conv1_prescale
I0411 00:44:12.830593 11664 net.cpp:100] Creating Layer conv1_prescale
I0411 00:44:12.830598 11664 net.cpp:434] conv1_prescale <- conv1
I0411 00:44:12.830605 11664 net.cpp:395] conv1_prescale -> conv1 (in-place)
I0411 00:44:12.830713 11664 net.cpp:150] Setting up conv1_prescale
I0411 00:44:12.830723 11664 net.cpp:157] Top shape: 1024 100 42 42 (180633600)
I0411 00:44:12.830724 11664 net.cpp:165] Memory required for data: 1473396736
I0411 00:44:12.830731 11664 layer_factory.hpp:77] Creating layer conv1_sTanH
I0411 00:44:12.830740 11664 net.cpp:100] Creating Layer conv1_sTanH
I0411 00:44:12.830744 11664 net.cpp:434] conv1_sTanH <- conv1
I0411 00:44:12.830749 11664 net.cpp:395] conv1_sTanH -> conv1 (in-place)
I0411 00:44:12.831013 11664 net.cpp:150] Setting up conv1_sTanH
I0411 00:44:12.831025 11664 net.cpp:157] Top shape: 1024 100 42 42 (180633600)
I0411 00:44:12.831028 11664 net.cpp:165] Memory required for data: 2195931136
I0411 00:44:12.831032 11664 layer_factory.hpp:77] Creating layer conv1_postscale
I0411 00:44:12.831039 11664 net.cpp:100] Creating Layer conv1_postscale
I0411 00:44:12.831046 11664 net.cpp:434] conv1_postscale <- conv1
I0411 00:44:12.831051 11664 net.cpp:395] conv1_postscale -> conv1 (in-place)
I0411 00:44:12.833362 11664 net.cpp:150] Setting up conv1_postscale
I0411 00:44:12.833385 11664 net.cpp:157] Top shape: 1024 100 42 42 (180633600)
I0411 00:44:12.833389 11664 net.cpp:165] Memory required for data: 2918465536
I0411 00:44:12.833396 11664 layer_factory.hpp:77] Creating layer pool1
I0411 00:44:12.833405 11664 net.cpp:100] Creating Layer pool1
I0411 00:44:12.833411 11664 net.cpp:434] pool1 <- conv1
I0411 00:44:12.833420 11664 net.cpp:408] pool1 -> pool1
I0411 00:44:12.833478 11664 net.cpp:150] Setting up pool1
I0411 00:44:12.833489 11664 net.cpp:157] Top shape: 1024 100 21 21 (45158400)
I0411 00:44:12.833492 11664 net.cpp:165] Memory required for data: 3099099136
I0411 00:44:12.833495 11664 layer_factory.hpp:77] Creating layer conv2
I0411 00:44:12.833504 11664 net.cpp:100] Creating Layer conv2
I0411 00:44:12.833513 11664 net.cpp:434] conv2 <- pool1
I0411 00:44:12.833520 11664 net.cpp:408] conv2 -> conv2
I0411 00:44:12.838526 11664 net.cpp:150] Setting up conv2
I0411 00:44:12.838547 11664 net.cpp:157] Top shape: 1024 150 18 18 (49766400)
I0411 00:44:12.838551 11664 net.cpp:165] Memory required for data: 3298164736
I0411 00:44:12.838562 11664 layer_factory.hpp:77] Creating layer conv2_prescale
I0411 00:44:12.838572 11664 net.cpp:100] Creating Layer conv2_prescale
I0411 00:44:12.838575 11664 net.cpp:434] conv2_prescale <- conv2
I0411 00:44:12.838580 11664 net.cpp:395] conv2_prescale -> conv2 (in-place)
I0411 00:44:12.838696 11664 net.cpp:150] Setting up conv2_prescale
I0411 00:44:12.838706 11664 net.cpp:157] Top shape: 1024 150 18 18 (49766400)
I0411 00:44:12.838709 11664 net.cpp:165] Memory required for data: 3497230336
I0411 00:44:12.838714 11664 layer_factory.hpp:77] Creating layer conv2_sTanH
I0411 00:44:12.838719 11664 net.cpp:100] Creating Layer conv2_sTanH
I0411 00:44:12.838722 11664 net.cpp:434] conv2_sTanH <- conv2
I0411 00:44:12.838727 11664 net.cpp:395] conv2_sTanH -> conv2 (in-place)
I0411 00:44:12.840171 11664 net.cpp:150] Setting up conv2_sTanH
I0411 00:44:12.840198 11664 net.cpp:157] Top shape: 1024 150 18 18 (49766400)
I0411 00:44:12.840203 11664 net.cpp:165] Memory required for data: 3696295936
I0411 00:44:12.840207 11664 layer_factory.hpp:77] Creating layer conv2_postscale
I0411 00:44:12.840219 11664 net.cpp:100] Creating Layer conv2_postscale
I0411 00:44:12.840226 11664 net.cpp:434] conv2_postscale <- conv2
I0411 00:44:12.840236 11664 net.cpp:395] conv2_postscale -> conv2 (in-place)
I0411 00:44:12.840361 11664 net.cpp:150] Setting up conv2_postscale
I0411 00:44:12.840376 11664 net.cpp:157] Top shape: 1024 150 18 18 (49766400)
I0411 00:44:12.840380 11664 net.cpp:165] Memory required for data: 3895361536
I0411 00:44:12.840389 11664 layer_factory.hpp:77] Creating layer pool2
I0411 00:44:12.840417 11664 net.cpp:100] Creating Layer pool2
I0411 00:44:12.840426 11664 net.cpp:434] pool2 <- conv2
I0411 00:44:12.840435 11664 net.cpp:408] pool2 -> pool2
I0411 00:44:12.840495 11664 net.cpp:150] Setting up pool2
I0411 00:44:12.840513 11664 net.cpp:157] Top shape: 1024 150 9 9 (12441600)
I0411 00:44:12.840518 11664 net.cpp:165] Memory required for data: 3945127936
I0411 00:44:12.840522 11664 layer_factory.hpp:77] Creating layer conv3
I0411 00:44:12.840530 11664 net.cpp:100] Creating Layer conv3
I0411 00:44:12.840535 11664 net.cpp:434] conv3 <- pool2
I0411 00:44:12.840541 11664 net.cpp:408] conv3 -> conv3
I0411 00:44:12.847643 11664 net.cpp:150] Setting up conv3
I0411 00:44:12.847668 11664 net.cpp:157] Top shape: 1024 250 6 6 (9216000)
I0411 00:44:12.847674 11664 net.cpp:165] Memory required for data: 3981991936
I0411 00:44:12.847693 11664 layer_factory.hpp:77] Creating layer conv3_prescale
I0411 00:44:12.847707 11664 net.cpp:100] Creating Layer conv3_prescale
I0411 00:44:12.847715 11664 net.cpp:434] conv3_prescale <- conv3
I0411 00:44:12.847724 11664 net.cpp:395] conv3_prescale -> conv3 (in-place)
I0411 00:44:12.847862 11664 net.cpp:150] Setting up conv3_prescale
I0411 00:44:12.847887 11664 net.cpp:157] Top shape: 1024 250 6 6 (9216000)
I0411 00:44:12.847905 11664 net.cpp:165] Memory required for data: 4018855936
I0411 00:44:12.847914 11664 layer_factory.hpp:77] Creating layer conv3_sTanH
I0411 00:44:12.847925 11664 net.cpp:100] Creating Layer conv3_sTanH
I0411 00:44:12.847932 11664 net.cpp:434] conv3_sTanH <- conv3
I0411 00:44:12.847940 11664 net.cpp:395] conv3_sTanH -> conv3 (in-place)
I0411 00:44:12.850127 11664 net.cpp:150] Setting up conv3_sTanH
I0411 00:44:12.850148 11664 net.cpp:157] Top shape: 1024 250 6 6 (9216000)
I0411 00:44:12.850157 11664 net.cpp:165] Memory required for data: 4055719936
I0411 00:44:12.850162 11664 layer_factory.hpp:77] Creating layer conv3_postscale
I0411 00:44:12.850172 11664 net.cpp:100] Creating Layer conv3_postscale
I0411 00:44:12.850179 11664 net.cpp:434] conv3_postscale <- conv3
I0411 00:44:12.850194 11664 net.cpp:395] conv3_postscale -> conv3 (in-place)
I0411 00:44:12.850323 11664 net.cpp:150] Setting up conv3_postscale
I0411 00:44:12.850334 11664 net.cpp:157] Top shape: 1024 250 6 6 (9216000)
I0411 00:44:12.850339 11664 net.cpp:165] Memory required for data: 4092583936
I0411 00:44:12.850345 11664 layer_factory.hpp:77] Creating layer pool3
I0411 00:44:12.850354 11664 net.cpp:100] Creating Layer pool3
I0411 00:44:12.850363 11664 net.cpp:434] pool3 <- conv3
I0411 00:44:12.850369 11664 net.cpp:408] pool3 -> pool3
I0411 00:44:12.850428 11664 net.cpp:150] Setting up pool3
I0411 00:44:12.850438 11664 net.cpp:157] Top shape: 1024 250 3 3 (2304000)
I0411 00:44:12.850441 11664 net.cpp:165] Memory required for data: 4101799936
I0411 00:44:12.850445 11664 layer_factory.hpp:77] Creating layer fc4_300
I0411 00:44:12.850451 11664 net.cpp:100] Creating Layer fc4_300
I0411 00:44:12.850456 11664 net.cpp:434] fc4_300 <- pool3
I0411 00:44:12.850461 11664 net.cpp:408] fc4_300 -> fc4_300
I0411 00:44:12.857313 11664 net.cpp:150] Setting up fc4_300
I0411 00:44:12.857331 11664 net.cpp:157] Top shape: 1024 300 (307200)
I0411 00:44:12.857336 11664 net.cpp:165] Memory required for data: 4103028736
I0411 00:44:12.857342 11664 layer_factory.hpp:77] Creating layer fc4_prescale
I0411 00:44:12.857352 11664 net.cpp:100] Creating Layer fc4_prescale
I0411 00:44:12.857357 11664 net.cpp:434] fc4_prescale <- fc4_300
I0411 00:44:12.857363 11664 net.cpp:395] fc4_prescale -> fc4_300 (in-place)
I0411 00:44:12.857463 11664 net.cpp:150] Setting up fc4_prescale
I0411 00:44:12.857472 11664 net.cpp:157] Top shape: 1024 300 (307200)
I0411 00:44:12.857475 11664 net.cpp:165] Memory required for data: 4104257536
I0411 00:44:12.857480 11664 layer_factory.hpp:77] Creating layer fc4_sTanH
I0411 00:44:12.857484 11664 net.cpp:100] Creating Layer fc4_sTanH
I0411 00:44:12.857491 11664 net.cpp:434] fc4_sTanH <- fc4_300
I0411 00:44:12.857496 11664 net.cpp:395] fc4_sTanH -> fc4_300 (in-place)
I0411 00:44:12.857700 11664 net.cpp:150] Setting up fc4_sTanH
I0411 00:44:12.857736 11664 net.cpp:157] Top shape: 1024 300 (307200)
I0411 00:44:12.857744 11664 net.cpp:165] Memory required for data: 4105486336
I0411 00:44:12.857750 11664 layer_factory.hpp:77] Creating layer fc4_postscale
I0411 00:44:12.857760 11664 net.cpp:100] Creating Layer fc4_postscale
I0411 00:44:12.857769 11664 net.cpp:434] fc4_postscale <- fc4_300
I0411 00:44:12.857780 11664 net.cpp:395] fc4_postscale -> fc4_300 (in-place)
I0411 00:44:12.857903 11664 net.cpp:150] Setting up fc4_postscale
I0411 00:44:12.857913 11664 net.cpp:157] Top shape: 1024 300 (307200)
I0411 00:44:12.857916 11664 net.cpp:165] Memory required for data: 4106715136
I0411 00:44:12.857923 11664 layer_factory.hpp:77] Creating layer fc5_67
I0411 00:44:12.857934 11664 net.cpp:100] Creating Layer fc5_67
I0411 00:44:12.857941 11664 net.cpp:434] fc5_67 <- fc4_300
I0411 00:44:12.857949 11664 net.cpp:408] fc5_67 -> fc5_classes
I0411 00:44:12.858268 11664 net.cpp:150] Setting up fc5_67
I0411 00:44:12.858284 11664 net.cpp:157] Top shape: 1024 67 (68608)
I0411 00:44:12.858289 11664 net.cpp:165] Memory required for data: 4106989568
I0411 00:44:12.858304 11664 layer_factory.hpp:77] Creating layer fc5_classes_fc5_67_0_split
I0411 00:44:12.858314 11664 net.cpp:100] Creating Layer fc5_classes_fc5_67_0_split
I0411 00:44:12.858321 11664 net.cpp:434] fc5_classes_fc5_67_0_split <- fc5_classes
I0411 00:44:12.858330 11664 net.cpp:408] fc5_classes_fc5_67_0_split -> fc5_classes_fc5_67_0_split_0
I0411 00:44:12.858342 11664 net.cpp:408] fc5_classes_fc5_67_0_split -> fc5_classes_fc5_67_0_split_1
I0411 00:44:12.858351 11664 net.cpp:408] fc5_classes_fc5_67_0_split -> fc5_classes_fc5_67_0_split_2
I0411 00:44:12.858408 11664 net.cpp:150] Setting up fc5_classes_fc5_67_0_split
I0411 00:44:12.858417 11664 net.cpp:157] Top shape: 1024 67 (68608)
I0411 00:44:12.858419 11664 net.cpp:157] Top shape: 1024 67 (68608)
I0411 00:44:12.858423 11664 net.cpp:157] Top shape: 1024 67 (68608)
I0411 00:44:12.858425 11664 net.cpp:165] Memory required for data: 4107812864
I0411 00:44:12.858428 11664 layer_factory.hpp:77] Creating layer loss
I0411 00:44:12.858434 11664 net.cpp:100] Creating Layer loss
I0411 00:44:12.858443 11664 net.cpp:434] loss <- fc5_classes_fc5_67_0_split_0
I0411 00:44:12.858449 11664 net.cpp:434] loss <- label_data_1_split_0
I0411 00:44:12.858458 11664 net.cpp:408] loss -> loss
…
