…
I0410 23:55:38.451187 23276 net.cpp:322] The NetState phase (0) differed from the phase (1) specified by a rule in layer accuracy_5
I0410 23:55:38.451352 23276 net.cpp:58] Initializing net from parameters: 
state {
  phase: TRAIN
  level: 0
  stage: ""
}
layer {
  name: "data"
  type: "Data"
  top: "data"
  top: "label"
  include {
    phase: TRAIN
  }
  transform_param {
    mirror: false
    crop_size: 48
    mean_value: 132
    mean_value: 132
    mean_value: 131
  }
  data_param {
    source: "../local_data/lmdb/rtsd-r1/CoNorm/train/lmdb"
    batch_size: 1024
    backend: LMDB
  }
}
layer {
  name: "conv1"
  type: "Convolution"
  bottom: "data"
  top: "conv1"
  convolution_param {
    num_output: 100
    pad: 0
    kernel_size: 7
    group: 1
    stride: 1
    weight_filler {
      type: "xavier"
    }
  }
}
layer {
  name: "conv1_prescale"
  type: "Scale"
  bottom: "conv1"
  top: "conv1"
  param {
    lr_mult: 0
    decay_mult: 0
  }
  scale_param {
    filler {
      value: 0.6666
    }
  }
}
layer {
  name: "conv1_sTanH"
  type: "TanH"
  bottom: "conv1"
  top: "conv1"
}
layer {
  name: "conv1_postscale"
  type: "Scale"
  bottom: "conv1"
  top: "conv1"
  param {
    lr_mult: 0
    decay_mult: 0
  }
  scale_param {
    filler {
      value: 1.7159
    }
  }
}
layer {
  name: "pool1"
  type: "Pooling"
  bottom: "conv1"
  top: "pool1"
  pooling_param {
    pool: MAX
    kernel_size: 2
    stride: 2
  }
}
layer {
  name: "conv2"
  type: "Convolution"
  bottom: "pool1"
  top: "conv2"
  convolution_param {
    num_output: 150
    pad: 0
    kernel_size: 4
    group: 1
    stride: 1
    weight_filler {
      type: "xavier"
    }
  }
}
layer {
  name: "conv2_prescale"
  type: "Scale"
  bottom: "conv2"
  top: "conv2"
  param {
    lr_mult: 0
    decay_mult: 0
  }
  scale_param {
    filler {
      value: 0.6666
    }
  }
}
layer {
  name: "conv2_sTanH"
  type: "TanH"
  bottom: "conv2"
  top: "conv2"
}
layer {
  name: "conv2_postscale"
  type: "Scale"
  bottom: "conv2"
  top: "conv2"
  param {
    lr_mult: 0
    decay_mult: 0
  }
  scale_param {
    filler {
      value: 1.7159
    }
  }
}
layer {
  name: "pool2"
  type: "Pooling"
  bottom: "conv2"
  top: "pool2"
  pooling_param {
    pool: MAX
    kernel_size: 2
    stride: 2
  }
}
layer {
  name: "conv3"
  type: "Convolution"
  bottom: "pool2"
  top: "conv3"
  convolution_param {
    num_output: 250
    pad: 0
    kernel_size: 4
    group: 1
    stride: 1
    weight_filler {
      type: "xavier"
    }
  }
}
layer {
  name: "conv3_prescale"
  type: "Scale"
  bottom: "conv3"
  top: "conv3"
  param {
    lr_mult: 0
    decay_mult: 0
  }
  scale_param {
    filler {
      value: 0.6666
    }
  }
}
layer {
  name: "conv3_sTanH"
  type: "TanH"
  bottom: "conv3"
  top: "conv3"
}
layer {
  name: "conv3_postscale"
  type: "Scale"
  bottom: "conv3"
  top: "conv3"
  param {
    lr_mult: 0
    decay_mult: 0
  }
  scale_param {
    filler {
      value: 1.7159
    }
  }
}
layer {
  name: "pool3"
  type: "Pooling"
  bottom: "conv3"
  top: "pool3"
  pooling_param {
    pool: MAX
    kernel_size: 2
    stride: 2
  }
}
layer {
  name: "fc4_300"
  type: "InnerProduct"
  bottom: "pool3"
  top: "fc4_300"
  inner_product_param {
    num_output: 300
    weight_filler {
      type: "xavier"
    }
  }
}
layer {
  name: "fc4_prescale"
  type: "Scale"
  bottom: "fc4_300"
  top: "fc4_300"
  param {
    lr_mult: 0
    decay_mult: 0
  }
  scale_param {
    filler {
      value: 0.6666
    }
  }
}
layer {
  name: "fc4_sTanH"
  type: "TanH"
  bottom: "fc4_300"
  top: "fc4_300"
}
layer {
  name: "fc4_postscale"
  type: "Scale"
  bottom: "fc4_300"
  top: "fc4_300"
  param {
    lr_mult: 0
    decay_mult: 0
  }
  scale_param {
    filler {
      value: 1.7159
    }
  }
}
layer {
  name: "fc5_67"
  type: "InnerProduct"
  bottom: "fc4_300"
  top: "fc5_classes"
  inner_product_param {
    num_output: 67
    weight_filler {
      type: "xavier"
    }
  }
}
layer {
  name: "loss"
  type: "SoftmaxWithLoss"
  bottom: "fc5_classes"
  bottom: "label"
  top: "loss"
}
I0410 23:55:38.451478 23276 layer_factory.hpp:77] Creating layer data
I0410 23:55:38.452759 23276 net.cpp:100] Creating Layer data
I0410 23:55:38.452777 23276 net.cpp:408] data -> data
I0410 23:55:38.452811 23276 net.cpp:408] data -> label
I0410 23:55:38.454282 23395 db_lmdb.cpp:35] Opened lmdb ../local_data/lmdb/rtsd-r1/CoNorm/train/lmdb
I0410 23:55:38.474901 23276 data_layer.cpp:41] output data size: 1024,3,48,48
I0410 23:55:38.528234 23276 net.cpp:150] Setting up data
I0410 23:55:38.528270 23276 net.cpp:157] Top shape: 1024 3 48 48 (7077888)
I0410 23:55:38.528276 23276 net.cpp:157] Top shape: 1024 (1024)
I0410 23:55:38.528280 23276 net.cpp:165] Memory required for data: 28315648
I0410 23:55:38.528291 23276 layer_factory.hpp:77] Creating layer conv1
I0410 23:55:38.528316 23276 net.cpp:100] Creating Layer conv1
I0410 23:55:38.528326 23276 net.cpp:434] conv1 <- data
I0410 23:55:38.528340 23276 net.cpp:408] conv1 -> conv1
I0410 23:55:38.879175 23276 net.cpp:150] Setting up conv1
I0410 23:55:38.879217 23276 net.cpp:157] Top shape: 1024 100 42 42 (180633600)
I0410 23:55:38.879225 23276 net.cpp:165] Memory required for data: 750850048
I0410 23:55:38.879254 23276 layer_factory.hpp:77] Creating layer conv1_prescale
I0410 23:55:38.879277 23276 net.cpp:100] Creating Layer conv1_prescale
I0410 23:55:38.879287 23276 net.cpp:434] conv1_prescale <- conv1
I0410 23:55:38.879297 23276 net.cpp:395] conv1_prescale -> conv1 (in-place)
I0410 23:55:38.879482 23276 net.cpp:150] Setting up conv1_prescale
I0410 23:55:38.879495 23276 net.cpp:157] Top shape: 1024 100 42 42 (180633600)
I0410 23:55:38.879499 23276 net.cpp:165] Memory required for data: 1473384448
I0410 23:55:38.879510 23276 layer_factory.hpp:77] Creating layer conv1_sTanH
I0410 23:55:38.879524 23276 net.cpp:100] Creating Layer conv1_sTanH
I0410 23:55:38.879531 23276 net.cpp:434] conv1_sTanH <- conv1
I0410 23:55:38.879539 23276 net.cpp:395] conv1_sTanH -> conv1 (in-place)
I0410 23:55:38.879895 23276 net.cpp:150] Setting up conv1_sTanH
I0410 23:55:38.879917 23276 net.cpp:157] Top shape: 1024 100 42 42 (180633600)
I0410 23:55:38.879926 23276 net.cpp:165] Memory required for data: 2195918848
I0410 23:55:38.879931 23276 layer_factory.hpp:77] Creating layer conv1_postscale
I0410 23:55:38.879945 23276 net.cpp:100] Creating Layer conv1_postscale
I0410 23:55:38.879951 23276 net.cpp:434] conv1_postscale <- conv1
I0410 23:55:38.879962 23276 net.cpp:395] conv1_postscale -> conv1 (in-place)
I0410 23:55:38.880136 23276 net.cpp:150] Setting up conv1_postscale
I0410 23:55:38.880151 23276 net.cpp:157] Top shape: 1024 100 42 42 (180633600)
I0410 23:55:38.880156 23276 net.cpp:165] Memory required for data: 2918453248
I0410 23:55:38.880163 23276 layer_factory.hpp:77] Creating layer pool1
I0410 23:55:38.880173 23276 net.cpp:100] Creating Layer pool1
I0410 23:55:38.880180 23276 net.cpp:434] pool1 <- conv1
I0410 23:55:38.880189 23276 net.cpp:408] pool1 -> pool1
I0410 23:55:38.880267 23276 net.cpp:150] Setting up pool1
I0410 23:55:38.880285 23276 net.cpp:157] Top shape: 1024 100 21 21 (45158400)
I0410 23:55:38.880291 23276 net.cpp:165] Memory required for data: 3099086848
I0410 23:55:38.880296 23276 layer_factory.hpp:77] Creating layer conv2
I0410 23:55:38.880311 23276 net.cpp:100] Creating Layer conv2
I0410 23:55:38.880347 23276 net.cpp:434] conv2 <- pool1
I0410 23:55:38.880357 23276 net.cpp:408] conv2 -> conv2
I0410 23:55:38.888393 23276 net.cpp:150] Setting up conv2
I0410 23:55:38.888417 23276 net.cpp:157] Top shape: 1024 150 18 18 (49766400)
I0410 23:55:38.888423 23276 net.cpp:165] Memory required for data: 3298152448
I0410 23:55:38.888437 23276 layer_factory.hpp:77] Creating layer conv2_prescale
I0410 23:55:38.888453 23276 net.cpp:100] Creating Layer conv2_prescale
I0410 23:55:38.888460 23276 net.cpp:434] conv2_prescale <- conv2
I0410 23:55:38.888469 23276 net.cpp:395] conv2_prescale -> conv2 (in-place)
I0410 23:55:38.888639 23276 net.cpp:150] Setting up conv2_prescale
I0410 23:55:38.888651 23276 net.cpp:157] Top shape: 1024 150 18 18 (49766400)
I0410 23:55:38.888659 23276 net.cpp:165] Memory required for data: 3497218048
I0410 23:55:38.888665 23276 layer_factory.hpp:77] Creating layer conv2_sTanH
I0410 23:55:38.888677 23276 net.cpp:100] Creating Layer conv2_sTanH
I0410 23:55:38.888684 23276 net.cpp:434] conv2_sTanH <- conv2
I0410 23:55:38.888690 23276 net.cpp:395] conv2_sTanH -> conv2 (in-place)
I0410 23:55:38.890040 23276 net.cpp:150] Setting up conv2_sTanH
I0410 23:55:38.890064 23276 net.cpp:157] Top shape: 1024 150 18 18 (49766400)
I0410 23:55:38.890071 23276 net.cpp:165] Memory required for data: 3696283648
I0410 23:55:38.890077 23276 layer_factory.hpp:77] Creating layer conv2_postscale
I0410 23:55:38.890087 23276 net.cpp:100] Creating Layer conv2_postscale
I0410 23:55:38.890094 23276 net.cpp:434] conv2_postscale <- conv2
I0410 23:55:38.890105 23276 net.cpp:395] conv2_postscale -> conv2 (in-place)
I0410 23:55:38.890259 23276 net.cpp:150] Setting up conv2_postscale
I0410 23:55:38.890272 23276 net.cpp:157] Top shape: 1024 150 18 18 (49766400)
I0410 23:55:38.890280 23276 net.cpp:165] Memory required for data: 3895349248
I0410 23:55:38.890286 23276 layer_factory.hpp:77] Creating layer pool2
I0410 23:55:38.890295 23276 net.cpp:100] Creating Layer pool2
I0410 23:55:38.890301 23276 net.cpp:434] pool2 <- conv2
I0410 23:55:38.890308 23276 net.cpp:408] pool2 -> pool2
I0410 23:55:38.890372 23276 net.cpp:150] Setting up pool2
I0410 23:55:38.890383 23276 net.cpp:157] Top shape: 1024 150 9 9 (12441600)
I0410 23:55:38.890388 23276 net.cpp:165] Memory required for data: 3945115648
I0410 23:55:38.890393 23276 layer_factory.hpp:77] Creating layer conv3
I0410 23:55:38.890405 23276 net.cpp:100] Creating Layer conv3
I0410 23:55:38.890413 23276 net.cpp:434] conv3 <- pool2
I0410 23:55:38.890422 23276 net.cpp:408] conv3 -> conv3
I0410 23:55:38.899080 23276 net.cpp:150] Setting up conv3
I0410 23:55:38.899107 23276 net.cpp:157] Top shape: 1024 250 6 6 (9216000)
I0410 23:55:38.899116 23276 net.cpp:165] Memory required for data: 3981979648
I0410 23:55:38.899129 23276 layer_factory.hpp:77] Creating layer conv3_prescale
I0410 23:55:38.899143 23276 net.cpp:100] Creating Layer conv3_prescale
I0410 23:55:38.899150 23276 net.cpp:434] conv3_prescale <- conv3
I0410 23:55:38.899158 23276 net.cpp:395] conv3_prescale -> conv3 (in-place)
I0410 23:55:38.899298 23276 net.cpp:150] Setting up conv3_prescale
I0410 23:55:38.899310 23276 net.cpp:157] Top shape: 1024 250 6 6 (9216000)
I0410 23:55:38.899314 23276 net.cpp:165] Memory required for data: 4018843648
I0410 23:55:38.899320 23276 layer_factory.hpp:77] Creating layer conv3_sTanH
I0410 23:55:38.899327 23276 net.cpp:100] Creating Layer conv3_sTanH
I0410 23:55:38.899333 23276 net.cpp:434] conv3_sTanH <- conv3
I0410 23:55:38.899341 23276 net.cpp:395] conv3_sTanH -> conv3 (in-place)
I0410 23:55:38.900524 23276 net.cpp:150] Setting up conv3_sTanH
I0410 23:55:38.900547 23276 net.cpp:157] Top shape: 1024 250 6 6 (9216000)
I0410 23:55:38.900550 23276 net.cpp:165] Memory required for data: 4055707648
I0410 23:55:38.900555 23276 layer_factory.hpp:77] Creating layer conv3_postscale
I0410 23:55:38.900566 23276 net.cpp:100] Creating Layer conv3_postscale
I0410 23:55:38.900571 23276 net.cpp:434] conv3_postscale <- conv3
I0410 23:55:38.900579 23276 net.cpp:395] conv3_postscale -> conv3 (in-place)
I0410 23:55:38.900740 23276 net.cpp:150] Setting up conv3_postscale
I0410 23:55:38.900754 23276 net.cpp:157] Top shape: 1024 250 6 6 (9216000)
I0410 23:55:38.900758 23276 net.cpp:165] Memory required for data: 4092571648
I0410 23:55:38.900765 23276 layer_factory.hpp:77] Creating layer pool3
I0410 23:55:38.900774 23276 net.cpp:100] Creating Layer pool3
I0410 23:55:38.900779 23276 net.cpp:434] pool3 <- conv3
I0410 23:55:38.900789 23276 net.cpp:408] pool3 -> pool3
I0410 23:55:38.900846 23276 net.cpp:150] Setting up pool3
I0410 23:55:38.900856 23276 net.cpp:157] Top shape: 1024 250 3 3 (2304000)
I0410 23:55:38.900861 23276 net.cpp:165] Memory required for data: 4101787648
I0410 23:55:38.900864 23276 layer_factory.hpp:77] Creating layer fc4_300
I0410 23:55:38.900879 23276 net.cpp:100] Creating Layer fc4_300
I0410 23:55:38.900885 23276 net.cpp:434] fc4_300 <- pool3
I0410 23:55:38.900892 23276 net.cpp:408] fc4_300 -> fc4_300
I0410 23:55:38.909709 23276 net.cpp:150] Setting up fc4_300
I0410 23:55:38.909729 23276 net.cpp:157] Top shape: 1024 300 (307200)
I0410 23:55:38.909734 23276 net.cpp:165] Memory required for data: 4103016448
I0410 23:55:38.909744 23276 layer_factory.hpp:77] Creating layer fc4_prescale
I0410 23:55:38.909759 23276 net.cpp:100] Creating Layer fc4_prescale
I0410 23:55:38.909766 23276 net.cpp:434] fc4_prescale <- fc4_300
I0410 23:55:38.909773 23276 net.cpp:395] fc4_prescale -> fc4_300 (in-place)
I0410 23:55:38.909896 23276 net.cpp:150] Setting up fc4_prescale
I0410 23:55:38.909907 23276 net.cpp:157] Top shape: 1024 300 (307200)
I0410 23:55:38.909911 23276 net.cpp:165] Memory required for data: 4104245248
I0410 23:55:38.909916 23276 layer_factory.hpp:77] Creating layer fc4_sTanH
I0410 23:55:38.909925 23276 net.cpp:100] Creating Layer fc4_sTanH
I0410 23:55:38.909931 23276 net.cpp:434] fc4_sTanH <- fc4_300
I0410 23:55:38.909936 23276 net.cpp:395] fc4_sTanH -> fc4_300 (in-place)
I0410 23:55:38.910192 23276 net.cpp:150] Setting up fc4_sTanH
I0410 23:55:38.910207 23276 net.cpp:157] Top shape: 1024 300 (307200)
I0410 23:55:38.910212 23276 net.cpp:165] Memory required for data: 4105474048
I0410 23:55:38.910218 23276 layer_factory.hpp:77] Creating layer fc4_postscale
I0410 23:55:38.910230 23276 net.cpp:100] Creating Layer fc4_postscale
I0410 23:55:38.910238 23276 net.cpp:434] fc4_postscale <- fc4_300
I0410 23:55:38.910244 23276 net.cpp:395] fc4_postscale -> fc4_300 (in-place)
I0410 23:55:38.910378 23276 net.cpp:150] Setting up fc4_postscale
I0410 23:55:38.910389 23276 net.cpp:157] Top shape: 1024 300 (307200)
I0410 23:55:38.910392 23276 net.cpp:165] Memory required for data: 4106702848
I0410 23:55:38.910399 23276 layer_factory.hpp:77] Creating layer fc5_67
I0410 23:55:38.910409 23276 net.cpp:100] Creating Layer fc5_67
I0410 23:55:38.910415 23276 net.cpp:434] fc5_67 <- fc4_300
I0410 23:55:38.910423 23276 net.cpp:408] fc5_67 -> fc5_classes
I0410 23:55:38.911993 23276 net.cpp:150] Setting up fc5_67
I0410 23:55:38.912014 23276 net.cpp:157] Top shape: 1024 67 (68608)
I0410 23:55:38.912017 23276 net.cpp:165] Memory required for data: 4106977280
I0410 23:55:38.912034 23276 layer_factory.hpp:77] Creating layer loss
I0410 23:55:38.912045 23276 net.cpp:100] Creating Layer loss
I0410 23:55:38.912050 23276 net.cpp:434] loss <- fc5_classes
I0410 23:55:38.912056 23276 net.cpp:434] loss <- label
I0410 23:55:38.912065 23276 net.cpp:408] loss -> loss
I0410 23:55:38.912081 23276 layer_factory.hpp:77] Creating layer loss
…
I0410 23:55:38.913131 23276 solver.cpp:193] Creating test net (#0) specified by test_net file: ./Prototxt/experiment_8/rtsd-r1/CoNorm/trial_1/test.prototxt
I0410 23:55:38.913369 23276 net.cpp:58] Initializing net from parameters: 
state {
  phase: TEST
}
layer {
  name: "data"
  type: "Data"
  top: "data"
  top: "label"
  include {
    phase: TEST
  }
  transform_param {
    mirror: false
    crop_size: 48
    mean_value: 133
    mean_value: 133
    mean_value: 132
  }
  data_param {
    source: "../local_data/lmdb/rtsd-r1/CoNorm/test/lmdb"
    batch_size: 1024
    backend: LMDB
  }
}
layer {
  name: "conv1"
  type: "Convolution"
  bottom: "data"
  top: "conv1"
  convolution_param {
    num_output: 100
    pad: 0
    kernel_size: 7
    group: 1
    stride: 1
    weight_filler {
      type: "xavier"
    }
  }
}
layer {
  name: "conv1_prescale"
  type: "Scale"
  bottom: "conv1"
  top: "conv1"
  param {
    lr_mult: 0
    decay_mult: 0
  }
  scale_param {
    filler {
      value: 0.6666
    }
  }
}
layer {
  name: "conv1_sTanH"
  type: "TanH"
  bottom: "conv1"
  top: "conv1"
}
layer {
  name: "conv1_postscale"
  type: "Scale"
  bottom: "conv1"
  top: "conv1"
  param {
    lr_mult: 0
    decay_mult: 0
  }
  scale_param {
    filler {
      value: 1.7159
    }
  }
}
layer {
  name: "pool1"
  type: "Pooling"
  bottom: "conv1"
  top: "pool1"
  pooling_param {
    pool: MAX
    kernel_size: 2
    stride: 2
  }
}
layer {
  name: "conv2"
  type: "Convolution"
  bottom: "pool1"
  top: "conv2"
  convolution_param {
    num_output: 150
    pad: 0
    kernel_size: 4
    group: 1
    stride: 1
    weight_filler {
      type: "xavier"
    }
  }
}
layer {
  name: "conv2_prescale"
  type: "Scale"
  bottom: "conv2"
  top: "conv2"
  param {
    lr_mult: 0
    decay_mult: 0
  }
  scale_param {
    filler {
      value: 0.6666
    }
  }
}
layer {
  name: "conv2_sTanH"
  type: "TanH"
  bottom: "conv2"
  top: "conv2"
}
layer {
  name: "conv2_postscale"
  type: "Scale"
  bottom: "conv2"
  top: "conv2"
  param {
    lr_mult: 0
    decay_mult: 0
  }
  scale_param {
    filler {
      value: 1.7159
    }
  }
}
layer {
  name: "pool2"
  type: "Pooling"
  bottom: "conv2"
  top: "pool2"
  pooling_param {
    pool: MAX
    kernel_size: 2
    stride: 2
  }
}
layer {
  name: "conv3"
  type: "Convolution"
  bottom: "pool2"
  top: "conv3"
  convolution_param {
    num_output: 250
    pad: 0
    kernel_size: 4
    group: 1
    stride: 1
    weight_filler {
      type: "xavier"
    }
  }
}
layer {
  name: "conv3_prescale"
  type: "Scale"
  bottom: "conv3"
  top: "conv3"
  param {
    lr_mult: 0
    decay_mult: 0
  }
  scale_param {
    filler {
      value: 0.6666
    }
  }
}
layer {
  name: "conv3_sTanH"
  type: "TanH"
  bottom: "conv3"
  top: "conv3"
}
layer {
  name: "conv3_postscale"
  type: "Scale"
  bottom: "conv3"
  top: "conv3"
  param {
    lr_mult: 0
    decay_mult: 0
  }
  scale_param {
    filler {
      value: 1.7159
    }
  }
}
layer {
  name: "pool3"
  type: "Pooling"
  bottom: "conv3"
  top: "pool3"
  pooling_param {
    pool: MAX
    kernel_size: 2
    stride: 2
  }
}
layer {
  name: "fc4_300"
  type: "InnerProduct"
  bottom: "pool3"
  top: "fc4_300"
  inner_product_param {
    num_output: 300
    weight_filler {
      type: "xavier"
    }
  }
}
layer {
  name: "fc4_prescale"
  type: "Scale"
  bottom: "fc4_300"
  top: "fc4_300"
  param {
    lr_mult: 0
    decay_mult: 0
  }
  scale_param {
    filler {
      value: 0.6666
    }
  }
}
layer {
  name: "fc4_sTanH"
  type: "TanH"
  bottom: "fc4_300"
  top: "fc4_300"
}
layer {
  name: "fc4_postscale"
  type: "Scale"
  bottom: "fc4_300"
  top: "fc4_300"
  param {
    lr_mult: 0
    decay_mult: 0
  }
  scale_param {
    filler {
      value: 1.7159
    }
  }
}
layer {
  name: "fc5_67"
  type: "InnerProduct"
  bottom: "fc4_300"
  top: "fc5_classes"
  inner_product_param {
    num_output: 67
    weight_filler {
      type: "xavier"
    }
  }
}
layer {
  name: "loss"
  type: "SoftmaxWithLoss"
  bottom: "fc5_classes"
  bottom: "label"
  top: "loss"
}
layer {
  name: "accuracy_1"
  type: "Accuracy"
  bottom: "fc5_classes"
  bottom: "label"
  top: "accuracy_1"
  include {
    phase: TEST
  }
  accuracy_param {
    top_k: 1
  }
}
layer {
  name: "accuracy_5"
  type: "Accuracy"
  bottom: "fc5_classes"
  bottom: "label"
  top: "accuracy_5"
  include {
    phase: TEST
  }
  accuracy_param {
    top_k: 5
  }
}
I0410 23:55:38.913532 23276 layer_factory.hpp:77] Creating layer data
I0410 23:55:38.914471 23276 net.cpp:100] Creating Layer data
I0410 23:55:38.914489 23276 net.cpp:408] data -> data
I0410 23:55:38.914504 23276 net.cpp:408] data -> label
I0410 23:55:38.915701 23448 db_lmdb.cpp:35] Opened lmdb ../local_data/lmdb/rtsd-r1/CoNorm/test/lmdb
I0410 23:55:38.915868 23276 data_layer.cpp:41] output data size: 1024,3,48,48
I0410 23:55:38.963500 23276 net.cpp:150] Setting up data
I0410 23:55:38.963527 23276 net.cpp:157] Top shape: 1024 3 48 48 (7077888)
I0410 23:55:38.963533 23276 net.cpp:157] Top shape: 1024 (1024)
I0410 23:55:38.963537 23276 net.cpp:165] Memory required for data: 28315648
I0410 23:55:38.963544 23276 layer_factory.hpp:77] Creating layer label_data_1_split
I0410 23:55:38.963559 23276 net.cpp:100] Creating Layer label_data_1_split
I0410 23:55:38.963564 23276 net.cpp:434] label_data_1_split <- label
I0410 23:55:38.963573 23276 net.cpp:408] label_data_1_split -> label_data_1_split_0
I0410 23:55:38.963588 23276 net.cpp:408] label_data_1_split -> label_data_1_split_1
I0410 23:55:38.963598 23276 net.cpp:408] label_data_1_split -> label_data_1_split_2
I0410 23:55:38.963731 23276 net.cpp:150] Setting up label_data_1_split
I0410 23:55:38.963742 23276 net.cpp:157] Top shape: 1024 (1024)
I0410 23:55:38.963745 23276 net.cpp:157] Top shape: 1024 (1024)
I0410 23:55:38.963749 23276 net.cpp:157] Top shape: 1024 (1024)
I0410 23:55:38.963752 23276 net.cpp:165] Memory required for data: 28327936
I0410 23:55:38.963757 23276 layer_factory.hpp:77] Creating layer conv1
I0410 23:55:38.963778 23276 net.cpp:100] Creating Layer conv1
I0410 23:55:38.963784 23276 net.cpp:434] conv1 <- data
I0410 23:55:38.963791 23276 net.cpp:408] conv1 -> conv1
I0410 23:55:38.966207 23276 net.cpp:150] Setting up conv1
I0410 23:55:38.966228 23276 net.cpp:157] Top shape: 1024 100 42 42 (180633600)
I0410 23:55:38.966233 23276 net.cpp:165] Memory required for data: 750862336
I0410 23:55:38.966246 23276 layer_factory.hpp:77] Creating layer conv1_prescale
I0410 23:55:38.966256 23276 net.cpp:100] Creating Layer conv1_prescale
I0410 23:55:38.966262 23276 net.cpp:434] conv1_prescale <- conv1
I0410 23:55:38.966269 23276 net.cpp:395] conv1_prescale -> conv1 (in-place)
I0410 23:55:38.966436 23276 net.cpp:150] Setting up conv1_prescale
I0410 23:55:38.966449 23276 net.cpp:157] Top shape: 1024 100 42 42 (180633600)
I0410 23:55:38.966452 23276 net.cpp:165] Memory required for data: 1473396736
I0410 23:55:38.966460 23276 layer_factory.hpp:77] Creating layer conv1_sTanH
I0410 23:55:38.966473 23276 net.cpp:100] Creating Layer conv1_sTanH
I0410 23:55:38.966480 23276 net.cpp:434] conv1_sTanH <- conv1
I0410 23:55:38.966485 23276 net.cpp:395] conv1_sTanH -> conv1 (in-place)
I0410 23:55:38.966728 23276 net.cpp:150] Setting up conv1_sTanH
I0410 23:55:38.966749 23276 net.cpp:157] Top shape: 1024 100 42 42 (180633600)
I0410 23:55:38.966764 23276 net.cpp:165] Memory required for data: 2195931136
I0410 23:55:38.966773 23276 layer_factory.hpp:77] Creating layer conv1_postscale
I0410 23:55:38.966783 23276 net.cpp:100] Creating Layer conv1_postscale
I0410 23:55:38.966787 23276 net.cpp:434] conv1_postscale <- conv1
I0410 23:55:38.966794 23276 net.cpp:395] conv1_postscale -> conv1 (in-place)
I0410 23:55:38.966934 23276 net.cpp:150] Setting up conv1_postscale
I0410 23:55:38.966946 23276 net.cpp:157] Top shape: 1024 100 42 42 (180633600)
I0410 23:55:38.966951 23276 net.cpp:165] Memory required for data: 2918465536
I0410 23:55:38.966958 23276 layer_factory.hpp:77] Creating layer pool1
I0410 23:55:38.966965 23276 net.cpp:100] Creating Layer pool1
I0410 23:55:38.966970 23276 net.cpp:434] pool1 <- conv1
I0410 23:55:38.966976 23276 net.cpp:408] pool1 -> pool1
I0410 23:55:38.967033 23276 net.cpp:150] Setting up pool1
I0410 23:55:38.967043 23276 net.cpp:157] Top shape: 1024 100 21 21 (45158400)
I0410 23:55:38.967046 23276 net.cpp:165] Memory required for data: 3099099136
I0410 23:55:38.967051 23276 layer_factory.hpp:77] Creating layer conv2
I0410 23:55:38.967061 23276 net.cpp:100] Creating Layer conv2
I0410 23:55:38.967067 23276 net.cpp:434] conv2 <- pool1
I0410 23:55:38.967082 23276 net.cpp:408] conv2 -> conv2
I0410 23:55:38.973944 23276 net.cpp:150] Setting up conv2
I0410 23:55:38.973970 23276 net.cpp:157] Top shape: 1024 150 18 18 (49766400)
I0410 23:55:38.973994 23276 net.cpp:165] Memory required for data: 3298164736
I0410 23:55:38.974011 23276 layer_factory.hpp:77] Creating layer conv2_prescale
I0410 23:55:38.974042 23276 net.cpp:100] Creating Layer conv2_prescale
I0410 23:55:38.974052 23276 net.cpp:434] conv2_prescale <- conv2
I0410 23:55:38.974061 23276 net.cpp:395] conv2_prescale -> conv2 (in-place)
I0410 23:55:38.974181 23276 net.cpp:150] Setting up conv2_prescale
I0410 23:55:38.974190 23276 net.cpp:157] Top shape: 1024 150 18 18 (49766400)
I0410 23:55:38.974194 23276 net.cpp:165] Memory required for data: 3497230336
I0410 23:55:38.974197 23276 layer_factory.hpp:77] Creating layer conv2_sTanH
I0410 23:55:38.974205 23276 net.cpp:100] Creating Layer conv2_sTanH
I0410 23:55:38.974207 23276 net.cpp:434] conv2_sTanH <- conv2
I0410 23:55:38.974212 23276 net.cpp:395] conv2_sTanH -> conv2 (in-place)
I0410 23:55:38.975379 23276 net.cpp:150] Setting up conv2_sTanH
I0410 23:55:38.975405 23276 net.cpp:157] Top shape: 1024 150 18 18 (49766400)
I0410 23:55:38.975414 23276 net.cpp:165] Memory required for data: 3696295936
I0410 23:55:38.975421 23276 layer_factory.hpp:77] Creating layer conv2_postscale
I0410 23:55:38.975440 23276 net.cpp:100] Creating Layer conv2_postscale
I0410 23:55:38.975456 23276 net.cpp:434] conv2_postscale <- conv2
I0410 23:55:38.975469 23276 net.cpp:395] conv2_postscale -> conv2 (in-place)
I0410 23:55:38.975641 23276 net.cpp:150] Setting up conv2_postscale
I0410 23:55:38.975658 23276 net.cpp:157] Top shape: 1024 150 18 18 (49766400)
I0410 23:55:38.975670 23276 net.cpp:165] Memory required for data: 3895361536
I0410 23:55:38.975685 23276 layer_factory.hpp:77] Creating layer pool2
I0410 23:55:38.975703 23276 net.cpp:100] Creating Layer pool2
I0410 23:55:38.975713 23276 net.cpp:434] pool2 <- conv2
I0410 23:55:38.975728 23276 net.cpp:408] pool2 -> pool2
I0410 23:55:38.975834 23276 net.cpp:150] Setting up pool2
I0410 23:55:38.975854 23276 net.cpp:157] Top shape: 1024 150 9 9 (12441600)
I0410 23:55:38.975893 23276 net.cpp:165] Memory required for data: 3945127936
I0410 23:55:38.975901 23276 layer_factory.hpp:77] Creating layer conv3
I0410 23:55:38.975914 23276 net.cpp:100] Creating Layer conv3
I0410 23:55:38.975917 23276 net.cpp:434] conv3 <- pool2
I0410 23:55:38.975924 23276 net.cpp:408] conv3 -> conv3
I0410 23:55:38.982899 23276 net.cpp:150] Setting up conv3
I0410 23:55:38.982921 23276 net.cpp:157] Top shape: 1024 250 6 6 (9216000)
I0410 23:55:38.982925 23276 net.cpp:165] Memory required for data: 3981991936
I0410 23:55:38.982938 23276 layer_factory.hpp:77] Creating layer conv3_prescale
I0410 23:55:38.982949 23276 net.cpp:100] Creating Layer conv3_prescale
I0410 23:55:38.982954 23276 net.cpp:434] conv3_prescale <- conv3
I0410 23:55:38.982964 23276 net.cpp:395] conv3_prescale -> conv3 (in-place)
I0410 23:55:38.983077 23276 net.cpp:150] Setting up conv3_prescale
I0410 23:55:38.983086 23276 net.cpp:157] Top shape: 1024 250 6 6 (9216000)
I0410 23:55:38.983089 23276 net.cpp:165] Memory required for data: 4018855936
I0410 23:55:38.983094 23276 layer_factory.hpp:77] Creating layer conv3_sTanH
I0410 23:55:38.983101 23276 net.cpp:100] Creating Layer conv3_sTanH
I0410 23:55:38.983108 23276 net.cpp:434] conv3_sTanH <- conv3
I0410 23:55:38.983111 23276 net.cpp:395] conv3_sTanH -> conv3 (in-place)
I0410 23:55:38.986305 23276 net.cpp:150] Setting up conv3_sTanH
I0410 23:55:38.986325 23276 net.cpp:157] Top shape: 1024 250 6 6 (9216000)
I0410 23:55:38.986328 23276 net.cpp:165] Memory required for data: 4055719936
I0410 23:55:38.986335 23276 layer_factory.hpp:77] Creating layer conv3_postscale
I0410 23:55:38.986346 23276 net.cpp:100] Creating Layer conv3_postscale
I0410 23:55:38.986351 23276 net.cpp:434] conv3_postscale <- conv3
I0410 23:55:38.986358 23276 net.cpp:395] conv3_postscale -> conv3 (in-place)
I0410 23:55:38.986467 23276 net.cpp:150] Setting up conv3_postscale
I0410 23:55:38.986479 23276 net.cpp:157] Top shape: 1024 250 6 6 (9216000)
I0410 23:55:38.986481 23276 net.cpp:165] Memory required for data: 4092583936
I0410 23:55:38.986486 23276 layer_factory.hpp:77] Creating layer pool3
I0410 23:55:38.986497 23276 net.cpp:100] Creating Layer pool3
I0410 23:55:38.986502 23276 net.cpp:434] pool3 <- conv3
I0410 23:55:38.986508 23276 net.cpp:408] pool3 -> pool3
I0410 23:55:38.986551 23276 net.cpp:150] Setting up pool3
I0410 23:55:38.986558 23276 net.cpp:157] Top shape: 1024 250 3 3 (2304000)
I0410 23:55:38.986562 23276 net.cpp:165] Memory required for data: 4101799936
I0410 23:55:38.986564 23276 layer_factory.hpp:77] Creating layer fc4_300
I0410 23:55:38.986572 23276 net.cpp:100] Creating Layer fc4_300
I0410 23:55:38.986577 23276 net.cpp:434] fc4_300 <- pool3
I0410 23:55:38.986584 23276 net.cpp:408] fc4_300 -> fc4_300
I0410 23:55:38.992631 23276 net.cpp:150] Setting up fc4_300
I0410 23:55:38.992647 23276 net.cpp:157] Top shape: 1024 300 (307200)
I0410 23:55:38.992655 23276 net.cpp:165] Memory required for data: 4103028736
I0410 23:55:38.992660 23276 layer_factory.hpp:77] Creating layer fc4_prescale
I0410 23:55:38.992669 23276 net.cpp:100] Creating Layer fc4_prescale
I0410 23:55:38.992673 23276 net.cpp:434] fc4_prescale <- fc4_300
I0410 23:55:38.992678 23276 net.cpp:395] fc4_prescale -> fc4_300 (in-place)
I0410 23:55:38.992772 23276 net.cpp:150] Setting up fc4_prescale
I0410 23:55:38.992781 23276 net.cpp:157] Top shape: 1024 300 (307200)
I0410 23:55:38.992784 23276 net.cpp:165] Memory required for data: 4104257536
I0410 23:55:38.992789 23276 layer_factory.hpp:77] Creating layer fc4_sTanH
I0410 23:55:38.992795 23276 net.cpp:100] Creating Layer fc4_sTanH
I0410 23:55:38.992799 23276 net.cpp:434] fc4_sTanH <- fc4_300
I0410 23:55:38.992804 23276 net.cpp:395] fc4_sTanH -> fc4_300 (in-place)
I0410 23:55:38.993015 23276 net.cpp:150] Setting up fc4_sTanH
I0410 23:55:38.993026 23276 net.cpp:157] Top shape: 1024 300 (307200)
I0410 23:55:38.993029 23276 net.cpp:165] Memory required for data: 4105486336
I0410 23:55:38.993032 23276 layer_factory.hpp:77] Creating layer fc4_postscale
I0410 23:55:38.993041 23276 net.cpp:100] Creating Layer fc4_postscale
I0410 23:55:38.993062 23276 net.cpp:434] fc4_postscale <- fc4_300
I0410 23:55:38.993070 23276 net.cpp:395] fc4_postscale -> fc4_300 (in-place)
I0410 23:55:38.993173 23276 net.cpp:150] Setting up fc4_postscale
I0410 23:55:38.993182 23276 net.cpp:157] Top shape: 1024 300 (307200)
I0410 23:55:38.993185 23276 net.cpp:165] Memory required for data: 4106715136
I0410 23:55:38.993191 23276 layer_factory.hpp:77] Creating layer fc5_67
I0410 23:55:38.993198 23276 net.cpp:100] Creating Layer fc5_67
I0410 23:55:38.993204 23276 net.cpp:434] fc5_67 <- fc4_300
I0410 23:55:38.993209 23276 net.cpp:408] fc5_67 -> fc5_classes
I0410 23:55:38.993472 23276 net.cpp:150] Setting up fc5_67
I0410 23:55:38.993481 23276 net.cpp:157] Top shape: 1024 67 (68608)
I0410 23:55:38.993484 23276 net.cpp:165] Memory required for data: 4106989568
I0410 23:55:38.993494 23276 layer_factory.hpp:77] Creating layer fc5_classes_fc5_67_0_split
I0410 23:55:38.993502 23276 net.cpp:100] Creating Layer fc5_classes_fc5_67_0_split
I0410 23:55:38.993506 23276 net.cpp:434] fc5_classes_fc5_67_0_split <- fc5_classes
I0410 23:55:38.993512 23276 net.cpp:408] fc5_classes_fc5_67_0_split -> fc5_classes_fc5_67_0_split_0
I0410 23:55:38.993520 23276 net.cpp:408] fc5_classes_fc5_67_0_split -> fc5_classes_fc5_67_0_split_1
I0410 23:55:38.993533 23276 net.cpp:408] fc5_classes_fc5_67_0_split -> fc5_classes_fc5_67_0_split_2
I0410 23:55:38.993584 23276 net.cpp:150] Setting up fc5_classes_fc5_67_0_split
I0410 23:55:38.993593 23276 net.cpp:157] Top shape: 1024 67 (68608)
I0410 23:55:38.993597 23276 net.cpp:157] Top shape: 1024 67 (68608)
I0410 23:55:38.993599 23276 net.cpp:157] Top shape: 1024 67 (68608)
I0410 23:55:38.993602 23276 net.cpp:165] Memory required for data: 4107812864
I0410 23:55:38.993604 23276 layer_factory.hpp:77] Creating layer loss
I0410 23:55:38.993612 23276 net.cpp:100] Creating Layer loss
I0410 23:55:38.993613 23276 net.cpp:434] loss <- fc5_classes_fc5_67_0_split_0
I0410 23:55:38.993618 23276 net.cpp:434] loss <- label_data_1_split_0
I0410 23:55:38.993625 23276 net.cpp:408] loss -> loss
…
