…
I0411 00:57:56.366515 22749 net.cpp:322] The NetState phase (0) differed from the phase (1) specified by a rule in layer accuracy_5
I0411 00:57:56.366654 22749 net.cpp:58] Initializing net from parameters: 
state {
  phase: TRAIN
  level: 0
  stage: ""
}
layer {
  name: "data"
  type: "Data"
  top: "data"
  top: "label"
  include {
    phase: TRAIN
  }
  transform_param {
    mirror: false
    crop_size: 48
    mean_value: 132
    mean_value: 132
    mean_value: 131
  }
  data_param {
    source: "../local_data/lmdb/rtsd-r1/CoNorm/train/lmdb"
    batch_size: 1024
    backend: LMDB
  }
}
layer {
  name: "conv1"
  type: "Convolution"
  bottom: "data"
  top: "conv1"
  convolution_param {
    num_output: 100
    pad: 0
    kernel_size: 7
    group: 1
    stride: 1
    weight_filler {
      type: "xavier"
    }
  }
}
layer {
  name: "conv1_prescale"
  type: "Scale"
  bottom: "conv1"
  top: "conv1"
  param {
    lr_mult: 0
    decay_mult: 0
  }
  scale_param {
    filler {
      value: 0.6666
    }
    bias_term: false
  }
}
layer {
  name: "conv1_sTanH"
  type: "TanH"
  bottom: "conv1"
  top: "conv1"
}
layer {
  name: "conv1_postscale"
  type: "Scale"
  bottom: "conv1"
  top: "conv1"
  param {
    lr_mult: 0
    decay_mult: 0
  }
  scale_param {
    filler {
      value: 1.7159
    }
    bias_term: false
  }
}
layer {
  name: "pool1"
  type: "Pooling"
  bottom: "conv1"
  top: "pool1"
  pooling_param {
    pool: MAX
    kernel_size: 2
    stride: 2
  }
}
layer {
  name: "conv2"
  type: "Convolution"
  bottom: "pool1"
  top: "conv2"
  convolution_param {
    num_output: 150
    pad: 0
    kernel_size: 4
    group: 1
    stride: 1
    weight_filler {
      type: "xavier"
    }
  }
}
layer {
  name: "conv2_prescale"
  type: "Scale"
  bottom: "conv2"
  top: "conv2"
  param {
    lr_mult: 0
    decay_mult: 0
  }
  scale_param {
    filler {
      value: 0.6666
    }
    bias_term: false
  }
}
layer {
  name: "conv2_sTanH"
  type: "TanH"
  bottom: "conv2"
  top: "conv2"
}
layer {
  name: "conv2_postscale"
  type: "Scale"
  bottom: "conv2"
  top: "conv2"
  param {
    lr_mult: 0
    decay_mult: 0
  }
  scale_param {
    filler {
      value: 1.7159
    }
    bias_term: false
  }
}
layer {
  name: "pool2"
  type: "Pooling"
  bottom: "conv2"
  top: "pool2"
  pooling_param {
    pool: MAX
    kernel_size: 2
    stride: 2
  }
}
layer {
  name: "conv3"
  type: "Convolution"
  bottom: "pool2"
  top: "conv3"
  convolution_param {
    num_output: 250
    pad: 0
    kernel_size: 4
    group: 1
    stride: 1
    weight_filler {
      type: "xavier"
    }
  }
}
layer {
  name: "conv3_prescale"
  type: "Scale"
  bottom: "conv3"
  top: "conv3"
  param {
    lr_mult: 0
    decay_mult: 0
  }
  scale_param {
    filler {
      value: 0.6666
    }
    bias_term: false
  }
}
layer {
  name: "conv3_sTanH"
  type: "TanH"
  bottom: "conv3"
  top: "conv3"
}
layer {
  name: "conv3_postscale"
  type: "Scale"
  bottom: "conv3"
  top: "conv3"
  param {
    lr_mult: 0
    decay_mult: 0
  }
  scale_param {
    filler {
      value: 1.7159
    }
    bias_term: false
  }
}
layer {
  name: "pool3"
  type: "Pooling"
  bottom: "conv3"
  top: "pool3"
  pooling_param {
    pool: MAX
    kernel_size: 2
    stride: 2
  }
}
layer {
  name: "fc4_300"
  type: "InnerProduct"
  bottom: "pool3"
  top: "fc4_300"
  inner_product_param {
    num_output: 300
    weight_filler {
      type: "xavier"
    }
  }
}
layer {
  name: "fc4_prescale"
  type: "Scale"
  bottom: "fc4_300"
  top: "fc4_300"
  param {
    lr_mult: 0
    decay_mult: 0
  }
  scale_param {
    filler {
      value: 0.6666
    }
    bias_term: false
  }
}
layer {
  name: "fc4_sTanH"
  type: "TanH"
  bottom: "fc4_300"
  top: "fc4_300"
}
layer {
  name: "fc4_postscale"
  type: "Scale"
  bottom: "fc4_300"
  top: "fc4_300"
  param {
    lr_mult: 0
    decay_mult: 0
  }
  scale_param {
    filler {
      value: 1.7159
    }
    bias_term: false
  }
}
layer {
  name: "fc5_67"
  type: "InnerProduct"
  bottom: "fc4_300"
  top: "fc5_classes"
  inner_product_param {
    num_output: 67
    weight_filler {
      type: "xavier"
    }
  }
}
layer {
  name: "loss"
  type: "SoftmaxWithLoss"
  bottom: "fc5_classes"
  bottom: "label"
  top: "loss"
}
I0411 00:57:56.366758 22749 layer_factory.hpp:77] Creating layer data
I0411 00:57:56.367816 22749 net.cpp:100] Creating Layer data
I0411 00:57:56.367832 22749 net.cpp:408] data -> data
I0411 00:57:56.367854 22749 net.cpp:408] data -> label
I0411 00:57:56.369037 22863 db_lmdb.cpp:35] Opened lmdb ../local_data/lmdb/rtsd-r1/CoNorm/train/lmdb
I0411 00:57:56.387478 22749 data_layer.cpp:41] output data size: 1024,3,48,48
I0411 00:57:56.434569 22749 net.cpp:150] Setting up data
I0411 00:57:56.434600 22749 net.cpp:157] Top shape: 1024 3 48 48 (7077888)
I0411 00:57:56.434607 22749 net.cpp:157] Top shape: 1024 (1024)
I0411 00:57:56.434609 22749 net.cpp:165] Memory required for data: 28315648
I0411 00:57:56.434618 22749 layer_factory.hpp:77] Creating layer conv1
I0411 00:57:56.434640 22749 net.cpp:100] Creating Layer conv1
I0411 00:57:56.434648 22749 net.cpp:434] conv1 <- data
I0411 00:57:56.434659 22749 net.cpp:408] conv1 -> conv1
I0411 00:57:56.713275 22749 net.cpp:150] Setting up conv1
I0411 00:57:56.713305 22749 net.cpp:157] Top shape: 1024 100 42 42 (180633600)
I0411 00:57:56.713310 22749 net.cpp:165] Memory required for data: 750850048
I0411 00:57:56.713331 22749 layer_factory.hpp:77] Creating layer conv1_prescale
I0411 00:57:56.713347 22749 net.cpp:100] Creating Layer conv1_prescale
I0411 00:57:56.713352 22749 net.cpp:434] conv1_prescale <- conv1
I0411 00:57:56.713359 22749 net.cpp:395] conv1_prescale -> conv1 (in-place)
I0411 00:57:56.713469 22749 net.cpp:150] Setting up conv1_prescale
I0411 00:57:56.713477 22749 net.cpp:157] Top shape: 1024 100 42 42 (180633600)
I0411 00:57:56.713480 22749 net.cpp:165] Memory required for data: 1473384448
I0411 00:57:56.713487 22749 layer_factory.hpp:77] Creating layer conv1_sTanH
I0411 00:57:56.713493 22749 net.cpp:100] Creating Layer conv1_sTanH
I0411 00:57:56.713498 22749 net.cpp:434] conv1_sTanH <- conv1
I0411 00:57:56.713503 22749 net.cpp:395] conv1_sTanH -> conv1 (in-place)
I0411 00:57:56.713699 22749 net.cpp:150] Setting up conv1_sTanH
I0411 00:57:56.713716 22749 net.cpp:157] Top shape: 1024 100 42 42 (180633600)
I0411 00:57:56.713718 22749 net.cpp:165] Memory required for data: 2195918848
I0411 00:57:56.713722 22749 layer_factory.hpp:77] Creating layer conv1_postscale
I0411 00:57:56.713731 22749 net.cpp:100] Creating Layer conv1_postscale
I0411 00:57:56.713733 22749 net.cpp:434] conv1_postscale <- conv1
I0411 00:57:56.713739 22749 net.cpp:395] conv1_postscale -> conv1 (in-place)
I0411 00:57:56.713835 22749 net.cpp:150] Setting up conv1_postscale
I0411 00:57:56.713842 22749 net.cpp:157] Top shape: 1024 100 42 42 (180633600)
I0411 00:57:56.713845 22749 net.cpp:165] Memory required for data: 2918453248
I0411 00:57:56.713850 22749 layer_factory.hpp:77] Creating layer pool1
I0411 00:57:56.713856 22749 net.cpp:100] Creating Layer pool1
I0411 00:57:56.713860 22749 net.cpp:434] pool1 <- conv1
I0411 00:57:56.713863 22749 net.cpp:408] pool1 -> pool1
I0411 00:57:56.713910 22749 net.cpp:150] Setting up pool1
I0411 00:57:56.713917 22749 net.cpp:157] Top shape: 1024 100 21 21 (45158400)
I0411 00:57:56.713920 22749 net.cpp:165] Memory required for data: 3099086848
I0411 00:57:56.713942 22749 layer_factory.hpp:77] Creating layer conv2
I0411 00:57:56.713951 22749 net.cpp:100] Creating Layer conv2
I0411 00:57:56.713956 22749 net.cpp:434] conv2 <- pool1
I0411 00:57:56.713961 22749 net.cpp:408] conv2 -> conv2
I0411 00:57:56.718287 22749 net.cpp:150] Setting up conv2
I0411 00:57:56.718304 22749 net.cpp:157] Top shape: 1024 150 18 18 (49766400)
I0411 00:57:56.718308 22749 net.cpp:165] Memory required for data: 3298152448
I0411 00:57:56.718318 22749 layer_factory.hpp:77] Creating layer conv2_prescale
I0411 00:57:56.718327 22749 net.cpp:100] Creating Layer conv2_prescale
I0411 00:57:56.718329 22749 net.cpp:434] conv2_prescale <- conv2
I0411 00:57:56.718334 22749 net.cpp:395] conv2_prescale -> conv2 (in-place)
I0411 00:57:56.718441 22749 net.cpp:150] Setting up conv2_prescale
I0411 00:57:56.718451 22749 net.cpp:157] Top shape: 1024 150 18 18 (49766400)
I0411 00:57:56.718453 22749 net.cpp:165] Memory required for data: 3497218048
I0411 00:57:56.718458 22749 layer_factory.hpp:77] Creating layer conv2_sTanH
I0411 00:57:56.718464 22749 net.cpp:100] Creating Layer conv2_sTanH
I0411 00:57:56.718467 22749 net.cpp:434] conv2_sTanH <- conv2
I0411 00:57:56.718472 22749 net.cpp:395] conv2_sTanH -> conv2 (in-place)
I0411 00:57:56.722287 22749 net.cpp:150] Setting up conv2_sTanH
I0411 00:57:56.722306 22749 net.cpp:157] Top shape: 1024 150 18 18 (49766400)
I0411 00:57:56.722309 22749 net.cpp:165] Memory required for data: 3696283648
I0411 00:57:56.722313 22749 layer_factory.hpp:77] Creating layer conv2_postscale
I0411 00:57:56.722321 22749 net.cpp:100] Creating Layer conv2_postscale
I0411 00:57:56.722324 22749 net.cpp:434] conv2_postscale <- conv2
I0411 00:57:56.722329 22749 net.cpp:395] conv2_postscale -> conv2 (in-place)
I0411 00:57:56.722425 22749 net.cpp:150] Setting up conv2_postscale
I0411 00:57:56.722434 22749 net.cpp:157] Top shape: 1024 150 18 18 (49766400)
I0411 00:57:56.722437 22749 net.cpp:165] Memory required for data: 3895349248
I0411 00:57:56.722441 22749 layer_factory.hpp:77] Creating layer pool2
I0411 00:57:56.722447 22749 net.cpp:100] Creating Layer pool2
I0411 00:57:56.722450 22749 net.cpp:434] pool2 <- conv2
I0411 00:57:56.722455 22749 net.cpp:408] pool2 -> pool2
I0411 00:57:56.722493 22749 net.cpp:150] Setting up pool2
I0411 00:57:56.722501 22749 net.cpp:157] Top shape: 1024 150 9 9 (12441600)
I0411 00:57:56.722503 22749 net.cpp:165] Memory required for data: 3945115648
I0411 00:57:56.722506 22749 layer_factory.hpp:77] Creating layer conv3
I0411 00:57:56.722513 22749 net.cpp:100] Creating Layer conv3
I0411 00:57:56.722517 22749 net.cpp:434] conv3 <- pool2
I0411 00:57:56.722522 22749 net.cpp:408] conv3 -> conv3
I0411 00:57:56.728016 22749 net.cpp:150] Setting up conv3
I0411 00:57:56.728034 22749 net.cpp:157] Top shape: 1024 250 6 6 (9216000)
I0411 00:57:56.728036 22749 net.cpp:165] Memory required for data: 3981979648
I0411 00:57:56.728047 22749 layer_factory.hpp:77] Creating layer conv3_prescale
I0411 00:57:56.728055 22749 net.cpp:100] Creating Layer conv3_prescale
I0411 00:57:56.728060 22749 net.cpp:434] conv3_prescale <- conv3
I0411 00:57:56.728065 22749 net.cpp:395] conv3_prescale -> conv3 (in-place)
I0411 00:57:56.728157 22749 net.cpp:150] Setting up conv3_prescale
I0411 00:57:56.728165 22749 net.cpp:157] Top shape: 1024 250 6 6 (9216000)
I0411 00:57:56.728168 22749 net.cpp:165] Memory required for data: 4018843648
I0411 00:57:56.728173 22749 layer_factory.hpp:77] Creating layer conv3_sTanH
I0411 00:57:56.728178 22749 net.cpp:100] Creating Layer conv3_sTanH
I0411 00:57:56.728180 22749 net.cpp:434] conv3_sTanH <- conv3
I0411 00:57:56.728185 22749 net.cpp:395] conv3_sTanH -> conv3 (in-place)
I0411 00:57:56.728935 22749 net.cpp:150] Setting up conv3_sTanH
I0411 00:57:56.728950 22749 net.cpp:157] Top shape: 1024 250 6 6 (9216000)
I0411 00:57:56.728953 22749 net.cpp:165] Memory required for data: 4055707648
I0411 00:57:56.728957 22749 layer_factory.hpp:77] Creating layer conv3_postscale
I0411 00:57:56.728965 22749 net.cpp:100] Creating Layer conv3_postscale
I0411 00:57:56.728982 22749 net.cpp:434] conv3_postscale <- conv3
I0411 00:57:56.728988 22749 net.cpp:395] conv3_postscale -> conv3 (in-place)
I0411 00:57:56.729084 22749 net.cpp:150] Setting up conv3_postscale
I0411 00:57:56.729094 22749 net.cpp:157] Top shape: 1024 250 6 6 (9216000)
I0411 00:57:56.729095 22749 net.cpp:165] Memory required for data: 4092571648
I0411 00:57:56.729100 22749 layer_factory.hpp:77] Creating layer pool3
I0411 00:57:56.729106 22749 net.cpp:100] Creating Layer pool3
I0411 00:57:56.729110 22749 net.cpp:434] pool3 <- conv3
I0411 00:57:56.729113 22749 net.cpp:408] pool3 -> pool3
I0411 00:57:56.729151 22749 net.cpp:150] Setting up pool3
I0411 00:57:56.729157 22749 net.cpp:157] Top shape: 1024 250 3 3 (2304000)
I0411 00:57:56.729161 22749 net.cpp:165] Memory required for data: 4101787648
I0411 00:57:56.729163 22749 layer_factory.hpp:77] Creating layer fc4_300
I0411 00:57:56.729171 22749 net.cpp:100] Creating Layer fc4_300
I0411 00:57:56.729176 22749 net.cpp:434] fc4_300 <- pool3
I0411 00:57:56.729182 22749 net.cpp:408] fc4_300 -> fc4_300
I0411 00:57:56.734570 22749 net.cpp:150] Setting up fc4_300
I0411 00:57:56.734586 22749 net.cpp:157] Top shape: 1024 300 (307200)
I0411 00:57:56.734589 22749 net.cpp:165] Memory required for data: 4103016448
I0411 00:57:56.734596 22749 layer_factory.hpp:77] Creating layer fc4_prescale
I0411 00:57:56.734603 22749 net.cpp:100] Creating Layer fc4_prescale
I0411 00:57:56.734606 22749 net.cpp:434] fc4_prescale <- fc4_300
I0411 00:57:56.734611 22749 net.cpp:395] fc4_prescale -> fc4_300 (in-place)
I0411 00:57:56.734697 22749 net.cpp:150] Setting up fc4_prescale
I0411 00:57:56.734705 22749 net.cpp:157] Top shape: 1024 300 (307200)
I0411 00:57:56.734709 22749 net.cpp:165] Memory required for data: 4104245248
I0411 00:57:56.734712 22749 layer_factory.hpp:77] Creating layer fc4_sTanH
I0411 00:57:56.734717 22749 net.cpp:100] Creating Layer fc4_sTanH
I0411 00:57:56.734720 22749 net.cpp:434] fc4_sTanH <- fc4_300
I0411 00:57:56.734724 22749 net.cpp:395] fc4_sTanH -> fc4_300 (in-place)
I0411 00:57:56.734906 22749 net.cpp:150] Setting up fc4_sTanH
I0411 00:57:56.734917 22749 net.cpp:157] Top shape: 1024 300 (307200)
I0411 00:57:56.734920 22749 net.cpp:165] Memory required for data: 4105474048
I0411 00:57:56.734923 22749 layer_factory.hpp:77] Creating layer fc4_postscale
I0411 00:57:56.734930 22749 net.cpp:100] Creating Layer fc4_postscale
I0411 00:57:56.734932 22749 net.cpp:434] fc4_postscale <- fc4_300
I0411 00:57:56.734937 22749 net.cpp:395] fc4_postscale -> fc4_300 (in-place)
I0411 00:57:56.735029 22749 net.cpp:150] Setting up fc4_postscale
I0411 00:57:56.735036 22749 net.cpp:157] Top shape: 1024 300 (307200)
I0411 00:57:56.735039 22749 net.cpp:165] Memory required for data: 4106702848
I0411 00:57:56.735044 22749 layer_factory.hpp:77] Creating layer fc5_67
I0411 00:57:56.735049 22749 net.cpp:100] Creating Layer fc5_67
I0411 00:57:56.735052 22749 net.cpp:434] fc5_67 <- fc4_300
I0411 00:57:56.735056 22749 net.cpp:408] fc5_67 -> fc5_classes
I0411 00:57:56.736289 22749 net.cpp:150] Setting up fc5_67
I0411 00:57:56.736304 22749 net.cpp:157] Top shape: 1024 67 (68608)
I0411 00:57:56.736307 22749 net.cpp:165] Memory required for data: 4106977280
I0411 00:57:56.736317 22749 layer_factory.hpp:77] Creating layer loss
I0411 00:57:56.736325 22749 net.cpp:100] Creating Layer loss
I0411 00:57:56.736327 22749 net.cpp:434] loss <- fc5_classes
I0411 00:57:56.736331 22749 net.cpp:434] loss <- label
I0411 00:57:56.736337 22749 net.cpp:408] loss -> loss
I0411 00:57:56.736349 22749 layer_factory.hpp:77] Creating layer loss
…
I0411 00:57:56.737068 22749 solver.cpp:193] Creating test net (#0) specified by test_net file: ./Prototxt/experiment_8/rtsd-r1/CoNorm/trial_1/test.prototxt
I0411 00:57:56.737243 22749 net.cpp:58] Initializing net from parameters: 
state {
  phase: TEST
}
layer {
  name: "data"
  type: "Data"
  top: "data"
  top: "label"
  include {
    phase: TEST
  }
  transform_param {
    mirror: false
    crop_size: 48
    mean_value: 133
    mean_value: 133
    mean_value: 132
  }
  data_param {
    source: "../local_data/lmdb/rtsd-r1/CoNorm/test/lmdb"
    batch_size: 1024
    backend: LMDB
  }
}
layer {
  name: "conv1"
  type: "Convolution"
  bottom: "data"
  top: "conv1"
  convolution_param {
    num_output: 100
    pad: 0
    kernel_size: 7
    group: 1
    stride: 1
    weight_filler {
      type: "xavier"
    }
  }
}
layer {
  name: "conv1_prescale"
  type: "Scale"
  bottom: "conv1"
  top: "conv1"
  param {
    lr_mult: 0
    decay_mult: 0
  }
  scale_param {
    filler {
      value: 0.6666
    }
    bias_term: false
  }
}
layer {
  name: "conv1_sTanH"
  type: "TanH"
  bottom: "conv1"
  top: "conv1"
}
layer {
  name: "conv1_postscale"
  type: "Scale"
  bottom: "conv1"
  top: "conv1"
  param {
    lr_mult: 0
    decay_mult: 0
  }
  scale_param {
    filler {
      value: 1.7159
    }
    bias_term: false
  }
}
layer {
  name: "pool1"
  type: "Pooling"
  bottom: "conv1"
  top: "pool1"
  pooling_param {
    pool: MAX
    kernel_size: 2
    stride: 2
  }
}
layer {
  name: "conv2"
  type: "Convolution"
  bottom: "pool1"
  top: "conv2"
  convolution_param {
    num_output: 150
    pad: 0
    kernel_size: 4
    group: 1
    stride: 1
    weight_filler {
      type: "xavier"
    }
  }
}
layer {
  name: "conv2_prescale"
  type: "Scale"
  bottom: "conv2"
  top: "conv2"
  param {
    lr_mult: 0
    decay_mult: 0
  }
  scale_param {
    filler {
      value: 0.6666
    }
    bias_term: false
  }
}
layer {
  name: "conv2_sTanH"
  type: "TanH"
  bottom: "conv2"
  top: "conv2"
}
layer {
  name: "conv2_postscale"
  type: "Scale"
  bottom: "conv2"
  top: "conv2"
  param {
    lr_mult: 0
    decay_mult: 0
  }
  scale_param {
    filler {
      value: 1.7159
    }
    bias_term: false
  }
}
layer {
  name: "pool2"
  type: "Pooling"
  bottom: "conv2"
  top: "pool2"
  pooling_param {
    pool: MAX
    kernel_size: 2
    stride: 2
  }
}
layer {
  name: "conv3"
  type: "Convolution"
  bottom: "pool2"
  top: "conv3"
  convolution_param {
    num_output: 250
    pad: 0
    kernel_size: 4
    group: 1
    stride: 1
    weight_filler {
      type: "xavier"
    }
  }
}
layer {
  name: "conv3_prescale"
  type: "Scale"
  bottom: "conv3"
  top: "conv3"
  param {
    lr_mult: 0
    decay_mult: 0
  }
  scale_param {
    filler {
      value: 0.6666
    }
    bias_term: false
  }
}
layer {
  name: "conv3_sTanH"
  type: "TanH"
  bottom: "conv3"
  top: "conv3"
}
layer {
  name: "conv3_postscale"
  type: "Scale"
  bottom: "conv3"
  top: "conv3"
  param {
    lr_mult: 0
    decay_mult: 0
  }
  scale_param {
    filler {
      value: 1.7159
    }
    bias_term: false
  }
}
layer {
  name: "pool3"
  type: "Pooling"
  bottom: "conv3"
  top: "pool3"
  pooling_param {
    pool: MAX
    kernel_size: 2
    stride: 2
  }
}
layer {
  name: "fc4_300"
  type: "InnerProduct"
  bottom: "pool3"
  top: "fc4_300"
  inner_product_param {
    num_output: 300
    weight_filler {
      type: "xavier"
    }
  }
}
layer {
  name: "fc4_prescale"
  type: "Scale"
  bottom: "fc4_300"
  top: "fc4_300"
  param {
    lr_mult: 0
    decay_mult: 0
  }
  scale_param {
    filler {
      value: 0.6666
    }
    bias_term: false
  }
}
layer {
  name: "fc4_sTanH"
  type: "TanH"
  bottom: "fc4_300"
  top: "fc4_300"
}
layer {
  name: "fc4_postscale"
  type: "Scale"
  bottom: "fc4_300"
  top: "fc4_300"
  param {
    lr_mult: 0
    decay_mult: 0
  }
  scale_param {
    filler {
      value: 1.7159
    }
    bias_term: false
  }
}
layer {
  name: "fc5_67"
  type: "InnerProduct"
  bottom: "fc4_300"
  top: "fc5_classes"
  inner_product_param {
    num_output: 67
    weight_filler {
      type: "xavier"
    }
  }
}
layer {
  name: "loss"
  type: "SoftmaxWithLoss"
  bottom: "fc5_classes"
  bottom: "label"
  top: "loss"
}
layer {
  name: "accuracy_1"
  type: "Accuracy"
  bottom: "fc5_classes"
  bottom: "label"
  top: "accuracy_1"
  include {
    phase: TEST
  }
  accuracy_param {
    top_k: 1
  }
}
layer {
  name: "accuracy_5"
  type: "Accuracy"
  bottom: "fc5_classes"
  bottom: "label"
  top: "accuracy_5"
  include {
    phase: TEST
  }
  accuracy_param {
    top_k: 5
  }
}
I0411 00:57:56.737350 22749 layer_factory.hpp:77] Creating layer data
I0411 00:57:56.737915 22749 net.cpp:100] Creating Layer data
I0411 00:57:56.737924 22749 net.cpp:408] data -> data
I0411 00:57:56.737933 22749 net.cpp:408] data -> label
I0411 00:57:56.740639 22895 db_lmdb.cpp:35] Opened lmdb ../local_data/lmdb/rtsd-r1/CoNorm/test/lmdb
I0411 00:57:56.740792 22749 data_layer.cpp:41] output data size: 1024,3,48,48
I0411 00:57:56.792677 22749 net.cpp:150] Setting up data
I0411 00:57:56.792706 22749 net.cpp:157] Top shape: 1024 3 48 48 (7077888)
I0411 00:57:56.792711 22749 net.cpp:157] Top shape: 1024 (1024)
I0411 00:57:56.792714 22749 net.cpp:165] Memory required for data: 28315648
I0411 00:57:56.792721 22749 layer_factory.hpp:77] Creating layer label_data_1_split
I0411 00:57:56.792734 22749 net.cpp:100] Creating Layer label_data_1_split
I0411 00:57:56.792738 22749 net.cpp:434] label_data_1_split <- label
I0411 00:57:56.792747 22749 net.cpp:408] label_data_1_split -> label_data_1_split_0
I0411 00:57:56.792757 22749 net.cpp:408] label_data_1_split -> label_data_1_split_1
I0411 00:57:56.792763 22749 net.cpp:408] label_data_1_split -> label_data_1_split_2
I0411 00:57:56.792961 22749 net.cpp:150] Setting up label_data_1_split
I0411 00:57:56.792971 22749 net.cpp:157] Top shape: 1024 (1024)
I0411 00:57:56.792974 22749 net.cpp:157] Top shape: 1024 (1024)
I0411 00:57:56.792979 22749 net.cpp:157] Top shape: 1024 (1024)
I0411 00:57:56.792980 22749 net.cpp:165] Memory required for data: 28327936
I0411 00:57:56.792984 22749 layer_factory.hpp:77] Creating layer conv1
I0411 00:57:56.792996 22749 net.cpp:100] Creating Layer conv1
I0411 00:57:56.793001 22749 net.cpp:434] conv1 <- data
I0411 00:57:56.793007 22749 net.cpp:408] conv1 -> conv1
I0411 00:57:56.794816 22749 net.cpp:150] Setting up conv1
I0411 00:57:56.794833 22749 net.cpp:157] Top shape: 1024 100 42 42 (180633600)
I0411 00:57:56.794836 22749 net.cpp:165] Memory required for data: 750862336
I0411 00:57:56.794867 22749 layer_factory.hpp:77] Creating layer conv1_prescale
I0411 00:57:56.794876 22749 net.cpp:100] Creating Layer conv1_prescale
I0411 00:57:56.794880 22749 net.cpp:434] conv1_prescale <- conv1
I0411 00:57:56.794885 22749 net.cpp:395] conv1_prescale -> conv1 (in-place)
I0411 00:57:56.794987 22749 net.cpp:150] Setting up conv1_prescale
I0411 00:57:56.794996 22749 net.cpp:157] Top shape: 1024 100 42 42 (180633600)
I0411 00:57:56.794999 22749 net.cpp:165] Memory required for data: 1473396736
I0411 00:57:56.795006 22749 layer_factory.hpp:77] Creating layer conv1_sTanH
I0411 00:57:56.795012 22749 net.cpp:100] Creating Layer conv1_sTanH
I0411 00:57:56.795016 22749 net.cpp:434] conv1_sTanH <- conv1
I0411 00:57:56.795020 22749 net.cpp:395] conv1_sTanH -> conv1 (in-place)
I0411 00:57:56.795202 22749 net.cpp:150] Setting up conv1_sTanH
I0411 00:57:56.795212 22749 net.cpp:157] Top shape: 1024 100 42 42 (180633600)
I0411 00:57:56.795215 22749 net.cpp:165] Memory required for data: 2195931136
I0411 00:57:56.795218 22749 layer_factory.hpp:77] Creating layer conv1_postscale
I0411 00:57:56.795225 22749 net.cpp:100] Creating Layer conv1_postscale
I0411 00:57:56.795228 22749 net.cpp:434] conv1_postscale <- conv1
I0411 00:57:56.795233 22749 net.cpp:395] conv1_postscale -> conv1 (in-place)
I0411 00:57:56.795333 22749 net.cpp:150] Setting up conv1_postscale
I0411 00:57:56.795342 22749 net.cpp:157] Top shape: 1024 100 42 42 (180633600)
I0411 00:57:56.795344 22749 net.cpp:165] Memory required for data: 2918465536
I0411 00:57:56.795349 22749 layer_factory.hpp:77] Creating layer pool1
I0411 00:57:56.795356 22749 net.cpp:100] Creating Layer pool1
I0411 00:57:56.795361 22749 net.cpp:434] pool1 <- conv1
I0411 00:57:56.795366 22749 net.cpp:408] pool1 -> pool1
I0411 00:57:56.795434 22749 net.cpp:150] Setting up pool1
I0411 00:57:56.795444 22749 net.cpp:157] Top shape: 1024 100 21 21 (45158400)
I0411 00:57:56.795446 22749 net.cpp:165] Memory required for data: 3099099136
I0411 00:57:56.795449 22749 layer_factory.hpp:77] Creating layer conv2
I0411 00:57:56.795457 22749 net.cpp:100] Creating Layer conv2
I0411 00:57:56.795462 22749 net.cpp:434] conv2 <- pool1
I0411 00:57:56.795467 22749 net.cpp:408] conv2 -> conv2
I0411 00:57:56.805615 22749 net.cpp:150] Setting up conv2
I0411 00:57:56.805636 22749 net.cpp:157] Top shape: 1024 150 18 18 (49766400)
I0411 00:57:56.805640 22749 net.cpp:165] Memory required for data: 3298164736
I0411 00:57:56.805655 22749 layer_factory.hpp:77] Creating layer conv2_prescale
I0411 00:57:56.805665 22749 net.cpp:100] Creating Layer conv2_prescale
I0411 00:57:56.805670 22749 net.cpp:434] conv2_prescale <- conv2
I0411 00:57:56.805675 22749 net.cpp:395] conv2_prescale -> conv2 (in-place)
I0411 00:57:56.805780 22749 net.cpp:150] Setting up conv2_prescale
I0411 00:57:56.805789 22749 net.cpp:157] Top shape: 1024 150 18 18 (49766400)
I0411 00:57:56.805793 22749 net.cpp:165] Memory required for data: 3497230336
I0411 00:57:56.805796 22749 layer_factory.hpp:77] Creating layer conv2_sTanH
I0411 00:57:56.805802 22749 net.cpp:100] Creating Layer conv2_sTanH
I0411 00:57:56.805805 22749 net.cpp:434] conv2_sTanH <- conv2
I0411 00:57:56.805810 22749 net.cpp:395] conv2_sTanH -> conv2 (in-place)
I0411 00:57:56.807154 22749 net.cpp:150] Setting up conv2_sTanH
I0411 00:57:56.807173 22749 net.cpp:157] Top shape: 1024 150 18 18 (49766400)
I0411 00:57:56.807176 22749 net.cpp:165] Memory required for data: 3696295936
I0411 00:57:56.807179 22749 layer_factory.hpp:77] Creating layer conv2_postscale
I0411 00:57:56.807188 22749 net.cpp:100] Creating Layer conv2_postscale
I0411 00:57:56.807191 22749 net.cpp:434] conv2_postscale <- conv2
I0411 00:57:56.807196 22749 net.cpp:395] conv2_postscale -> conv2 (in-place)
I0411 00:57:56.807294 22749 net.cpp:150] Setting up conv2_postscale
I0411 00:57:56.807303 22749 net.cpp:157] Top shape: 1024 150 18 18 (49766400)
I0411 00:57:56.807307 22749 net.cpp:165] Memory required for data: 3895361536
I0411 00:57:56.807312 22749 layer_factory.hpp:77] Creating layer pool2
I0411 00:57:56.807337 22749 net.cpp:100] Creating Layer pool2
I0411 00:57:56.807341 22749 net.cpp:434] pool2 <- conv2
I0411 00:57:56.807346 22749 net.cpp:408] pool2 -> pool2
I0411 00:57:56.807394 22749 net.cpp:150] Setting up pool2
I0411 00:57:56.807404 22749 net.cpp:157] Top shape: 1024 150 9 9 (12441600)
I0411 00:57:56.807406 22749 net.cpp:165] Memory required for data: 3945127936
I0411 00:57:56.807410 22749 layer_factory.hpp:77] Creating layer conv3
I0411 00:57:56.807417 22749 net.cpp:100] Creating Layer conv3
I0411 00:57:56.807420 22749 net.cpp:434] conv3 <- pool2
I0411 00:57:56.807425 22749 net.cpp:408] conv3 -> conv3
I0411 00:57:56.813283 22749 net.cpp:150] Setting up conv3
I0411 00:57:56.813304 22749 net.cpp:157] Top shape: 1024 250 6 6 (9216000)
I0411 00:57:56.813308 22749 net.cpp:165] Memory required for data: 3981991936
I0411 00:57:56.813318 22749 layer_factory.hpp:77] Creating layer conv3_prescale
I0411 00:57:56.813325 22749 net.cpp:100] Creating Layer conv3_prescale
I0411 00:57:56.813329 22749 net.cpp:434] conv3_prescale <- conv3
I0411 00:57:56.813335 22749 net.cpp:395] conv3_prescale -> conv3 (in-place)
I0411 00:57:56.813429 22749 net.cpp:150] Setting up conv3_prescale
I0411 00:57:56.813438 22749 net.cpp:157] Top shape: 1024 250 6 6 (9216000)
I0411 00:57:56.813441 22749 net.cpp:165] Memory required for data: 4018855936
I0411 00:57:56.813446 22749 layer_factory.hpp:77] Creating layer conv3_sTanH
I0411 00:57:56.813452 22749 net.cpp:100] Creating Layer conv3_sTanH
I0411 00:57:56.813454 22749 net.cpp:434] conv3_sTanH <- conv3
I0411 00:57:56.813458 22749 net.cpp:395] conv3_sTanH -> conv3 (in-place)
I0411 00:57:56.819268 22749 net.cpp:150] Setting up conv3_sTanH
I0411 00:57:56.819288 22749 net.cpp:157] Top shape: 1024 250 6 6 (9216000)
I0411 00:57:56.819290 22749 net.cpp:165] Memory required for data: 4055719936
I0411 00:57:56.819294 22749 layer_factory.hpp:77] Creating layer conv3_postscale
I0411 00:57:56.819303 22749 net.cpp:100] Creating Layer conv3_postscale
I0411 00:57:56.819308 22749 net.cpp:434] conv3_postscale <- conv3
I0411 00:57:56.819314 22749 net.cpp:395] conv3_postscale -> conv3 (in-place)
I0411 00:57:56.819420 22749 net.cpp:150] Setting up conv3_postscale
I0411 00:57:56.819430 22749 net.cpp:157] Top shape: 1024 250 6 6 (9216000)
I0411 00:57:56.819439 22749 net.cpp:165] Memory required for data: 4092583936
I0411 00:57:56.819444 22749 layer_factory.hpp:77] Creating layer pool3
I0411 00:57:56.819454 22749 net.cpp:100] Creating Layer pool3
I0411 00:57:56.819458 22749 net.cpp:434] pool3 <- conv3
I0411 00:57:56.819463 22749 net.cpp:408] pool3 -> pool3
I0411 00:57:56.819502 22749 net.cpp:150] Setting up pool3
I0411 00:57:56.819510 22749 net.cpp:157] Top shape: 1024 250 3 3 (2304000)
I0411 00:57:56.819514 22749 net.cpp:165] Memory required for data: 4101799936
I0411 00:57:56.819516 22749 layer_factory.hpp:77] Creating layer fc4_300
I0411 00:57:56.819522 22749 net.cpp:100] Creating Layer fc4_300
I0411 00:57:56.819525 22749 net.cpp:434] fc4_300 <- pool3
I0411 00:57:56.819530 22749 net.cpp:408] fc4_300 -> fc4_300
I0411 00:57:56.829664 22749 net.cpp:150] Setting up fc4_300
I0411 00:57:56.829684 22749 net.cpp:157] Top shape: 1024 300 (307200)
I0411 00:57:56.829687 22749 net.cpp:165] Memory required for data: 4103028736
I0411 00:57:56.829694 22749 layer_factory.hpp:77] Creating layer fc4_prescale
I0411 00:57:56.829702 22749 net.cpp:100] Creating Layer fc4_prescale
I0411 00:57:56.829706 22749 net.cpp:434] fc4_prescale <- fc4_300
I0411 00:57:56.829712 22749 net.cpp:395] fc4_prescale -> fc4_300 (in-place)
I0411 00:57:56.829804 22749 net.cpp:150] Setting up fc4_prescale
I0411 00:57:56.829813 22749 net.cpp:157] Top shape: 1024 300 (307200)
I0411 00:57:56.829815 22749 net.cpp:165] Memory required for data: 4104257536
I0411 00:57:56.829820 22749 layer_factory.hpp:77] Creating layer fc4_sTanH
I0411 00:57:56.829826 22749 net.cpp:100] Creating Layer fc4_sTanH
I0411 00:57:56.829829 22749 net.cpp:434] fc4_sTanH <- fc4_300
I0411 00:57:56.829833 22749 net.cpp:395] fc4_sTanH -> fc4_300 (in-place)
I0411 00:57:56.830030 22749 net.cpp:150] Setting up fc4_sTanH
I0411 00:57:56.830059 22749 net.cpp:157] Top shape: 1024 300 (307200)
I0411 00:57:56.830062 22749 net.cpp:165] Memory required for data: 4105486336
I0411 00:57:56.830065 22749 layer_factory.hpp:77] Creating layer fc4_postscale
I0411 00:57:56.830072 22749 net.cpp:100] Creating Layer fc4_postscale
I0411 00:57:56.830075 22749 net.cpp:434] fc4_postscale <- fc4_300
I0411 00:57:56.830081 22749 net.cpp:395] fc4_postscale -> fc4_300 (in-place)
I0411 00:57:56.830178 22749 net.cpp:150] Setting up fc4_postscale
I0411 00:57:56.830185 22749 net.cpp:157] Top shape: 1024 300 (307200)
I0411 00:57:56.830188 22749 net.cpp:165] Memory required for data: 4106715136
I0411 00:57:56.830193 22749 layer_factory.hpp:77] Creating layer fc5_67
I0411 00:57:56.830199 22749 net.cpp:100] Creating Layer fc5_67
I0411 00:57:56.830202 22749 net.cpp:434] fc5_67 <- fc4_300
I0411 00:57:56.830207 22749 net.cpp:408] fc5_67 -> fc5_classes
I0411 00:57:56.830452 22749 net.cpp:150] Setting up fc5_67
I0411 00:57:56.830461 22749 net.cpp:157] Top shape: 1024 67 (68608)
I0411 00:57:56.830464 22749 net.cpp:165] Memory required for data: 4106989568
I0411 00:57:56.830474 22749 layer_factory.hpp:77] Creating layer fc5_classes_fc5_67_0_split
I0411 00:57:56.830482 22749 net.cpp:100] Creating Layer fc5_classes_fc5_67_0_split
I0411 00:57:56.830485 22749 net.cpp:434] fc5_classes_fc5_67_0_split <- fc5_classes
I0411 00:57:56.830490 22749 net.cpp:408] fc5_classes_fc5_67_0_split -> fc5_classes_fc5_67_0_split_0
I0411 00:57:56.830497 22749 net.cpp:408] fc5_classes_fc5_67_0_split -> fc5_classes_fc5_67_0_split_1
I0411 00:57:56.830503 22749 net.cpp:408] fc5_classes_fc5_67_0_split -> fc5_classes_fc5_67_0_split_2
I0411 00:57:56.830550 22749 net.cpp:150] Setting up fc5_classes_fc5_67_0_split
I0411 00:57:56.830556 22749 net.cpp:157] Top shape: 1024 67 (68608)
I0411 00:57:56.830560 22749 net.cpp:157] Top shape: 1024 67 (68608)
I0411 00:57:56.830564 22749 net.cpp:157] Top shape: 1024 67 (68608)
I0411 00:57:56.830565 22749 net.cpp:165] Memory required for data: 4107812864
I0411 00:57:56.830569 22749 layer_factory.hpp:77] Creating layer loss
I0411 00:57:56.830574 22749 net.cpp:100] Creating Layer loss
I0411 00:57:56.830577 22749 net.cpp:434] loss <- fc5_classes_fc5_67_0_split_0
I0411 00:57:56.830581 22749 net.cpp:434] loss <- label_data_1_split_0
I0411 00:57:56.830586 22749 net.cpp:408] loss -> loss
…
