…
I0411 01:04:24.446787 25748 net.cpp:322] The NetState phase (0) differed from the phase (1) specified by a rule in layer accuracy_5
I0411 01:04:24.446929 25748 net.cpp:58] Initializing net from parameters: 
state {
  phase: TRAIN
  level: 0
  stage: ""
}
layer {
  name: "data"
  type: "Data"
  top: "data"
  top: "label"
  include {
    phase: TRAIN
  }
  transform_param {
    mirror: false
    crop_size: 48
    mean_value: 132
    mean_value: 132
    mean_value: 131
  }
  data_param {
    source: "../local_data/lmdb/rtsd-r1/CoNorm/train/lmdb"
    batch_size: 1024
    backend: LMDB
  }
}
layer {
  name: "conv1"
  type: "Convolution"
  bottom: "data"
  top: "conv1"
  convolution_param {
    num_output: 100
    pad: 0
    kernel_size: 7
    group: 1
    stride: 1
    weight_filler {
      type: "xavier"
    }
  }
}
layer {
  name: "conv1_prescale"
  type: "Scale"
  bottom: "conv1"
  top: "conv1"
  param {
    lr_mult: 0
    decay_mult: 0
  }
  scale_param {
    filler {
      value: 0.6666
    }
    bias_term: false
  }
}
layer {
  name: "conv1_sTanH"
  type: "TanH"
  bottom: "conv1"
  top: "conv1"
}
layer {
  name: "conv1_postscale"
  type: "Scale"
  bottom: "conv1"
  top: "conv1"
  param {
    lr_mult: 0
    decay_mult: 0
  }
  scale_param {
    filler {
      value: 1.7159
    }
    bias_term: false
  }
}
layer {
  name: "pool1"
  type: "Pooling"
  bottom: "conv1"
  top: "pool1"
  pooling_param {
    pool: MAX
    kernel_size: 2
    stride: 2
  }
}
layer {
  name: "conv2"
  type: "Convolution"
  bottom: "pool1"
  top: "conv2"
  convolution_param {
    num_output: 150
    pad: 0
    kernel_size: 4
    group: 1
    stride: 1
    weight_filler {
      type: "xavier"
    }
  }
}
layer {
  name: "conv2_prescale"
  type: "Scale"
  bottom: "conv2"
  top: "conv2"
  param {
    lr_mult: 0
    decay_mult: 0
  }
  scale_param {
    filler {
      value: 0.6666
    }
    bias_term: false
  }
}
layer {
  name: "conv2_sTanH"
  type: "TanH"
  bottom: "conv2"
  top: "conv2"
}
layer {
  name: "conv2_postscale"
  type: "Scale"
  bottom: "conv2"
  top: "conv2"
  param {
    lr_mult: 0
    decay_mult: 0
  }
  scale_param {
    filler {
      value: 1.7159
    }
    bias_term: false
  }
}
layer {
  name: "pool2"
  type: "Pooling"
  bottom: "conv2"
  top: "pool2"
  pooling_param {
    pool: MAX
    kernel_size: 2
    stride: 2
  }
}
layer {
  name: "conv3"
  type: "Convolution"
  bottom: "pool2"
  top: "conv3"
  convolution_param {
    num_output: 250
    pad: 0
    kernel_size: 4
    group: 1
    stride: 1
    weight_filler {
      type: "xavier"
    }
  }
}
layer {
  name: "conv3_prescale"
  type: "Scale"
  bottom: "conv3"
  top: "conv3"
  param {
    lr_mult: 0
    decay_mult: 0
  }
  scale_param {
    filler {
      value: 0.6666
    }
    bias_term: false
  }
}
layer {
  name: "conv3_sTanH"
  type: "TanH"
  bottom: "conv3"
  top: "conv3"
}
layer {
  name: "conv3_postscale"
  type: "Scale"
  bottom: "conv3"
  top: "conv3"
  param {
    lr_mult: 0
    decay_mult: 0
  }
  scale_param {
    filler {
      value: 1.7159
    }
    bias_term: false
  }
}
layer {
  name: "pool3"
  type: "Pooling"
  bottom: "conv3"
  top: "pool3"
  pooling_param {
    pool: MAX
    kernel_size: 2
    stride: 2
  }
}
layer {
  name: "fc4_300"
  type: "InnerProduct"
  bottom: "pool3"
  top: "fc4_300"
  inner_product_param {
    num_output: 300
    weight_filler {
      type: "xavier"
    }
  }
}
layer {
  name: "fc4_prescale"
  type: "Scale"
  bottom: "fc4_300"
  top: "fc4_300"
  param {
    lr_mult: 0
    decay_mult: 0
  }
  scale_param {
    filler {
      value: 0.6666
    }
    bias_term: false
  }
}
layer {
  name: "fc4_sTanH"
  type: "TanH"
  bottom: "fc4_300"
  top: "fc4_300"
}
layer {
  name: "fc4_postscale"
  type: "Scale"
  bottom: "fc4_300"
  top: "fc4_300"
  param {
    lr_mult: 0
    decay_mult: 0
  }
  scale_param {
    filler {
      value: 1.7159
    }
    bias_term: false
  }
}
layer {
  name: "fc5_67"
  type: "InnerProduct"
  bottom: "fc4_300"
  top: "fc5_classes"
  inner_product_param {
    num_output: 67
    weight_filler {
      type: "xavier"
    }
  }
}
layer {
  name: "loss"
  type: "SoftmaxWithLoss"
  bottom: "fc5_classes"
  bottom: "label"
  top: "loss"
}
I0411 01:04:24.447033 25748 layer_factory.hpp:77] Creating layer data
I0411 01:04:24.448320 25748 net.cpp:100] Creating Layer data
I0411 01:04:24.448338 25748 net.cpp:408] data -> data
I0411 01:04:24.448360 25748 net.cpp:408] data -> label
I0411 01:04:24.453230 25854 db_lmdb.cpp:35] Opened lmdb ../local_data/lmdb/rtsd-r1/CoNorm/train/lmdb
I0411 01:04:24.469907 25748 data_layer.cpp:41] output data size: 1024,3,48,48
I0411 01:04:24.525825 25748 net.cpp:150] Setting up data
I0411 01:04:24.525856 25748 net.cpp:157] Top shape: 1024 3 48 48 (7077888)
I0411 01:04:24.525861 25748 net.cpp:157] Top shape: 1024 (1024)
I0411 01:04:24.525864 25748 net.cpp:165] Memory required for data: 28315648
I0411 01:04:24.525874 25748 layer_factory.hpp:77] Creating layer conv1
I0411 01:04:24.525895 25748 net.cpp:100] Creating Layer conv1
I0411 01:04:24.525902 25748 net.cpp:434] conv1 <- data
I0411 01:04:24.525914 25748 net.cpp:408] conv1 -> conv1
I0411 01:04:24.815327 25748 net.cpp:150] Setting up conv1
I0411 01:04:24.815371 25748 net.cpp:157] Top shape: 1024 100 42 42 (180633600)
I0411 01:04:24.815376 25748 net.cpp:165] Memory required for data: 750850048
I0411 01:04:24.815398 25748 layer_factory.hpp:77] Creating layer conv1_prescale
I0411 01:04:24.815414 25748 net.cpp:100] Creating Layer conv1_prescale
I0411 01:04:24.815418 25748 net.cpp:434] conv1_prescale <- conv1
I0411 01:04:24.815424 25748 net.cpp:395] conv1_prescale -> conv1 (in-place)
I0411 01:04:24.815532 25748 net.cpp:150] Setting up conv1_prescale
I0411 01:04:24.815541 25748 net.cpp:157] Top shape: 1024 100 42 42 (180633600)
I0411 01:04:24.815544 25748 net.cpp:165] Memory required for data: 1473384448
I0411 01:04:24.815551 25748 layer_factory.hpp:77] Creating layer conv1_sTanH
I0411 01:04:24.815557 25748 net.cpp:100] Creating Layer conv1_sTanH
I0411 01:04:24.815559 25748 net.cpp:434] conv1_sTanH <- conv1
I0411 01:04:24.815564 25748 net.cpp:395] conv1_sTanH -> conv1 (in-place)
I0411 01:04:24.815758 25748 net.cpp:150] Setting up conv1_sTanH
I0411 01:04:24.815770 25748 net.cpp:157] Top shape: 1024 100 42 42 (180633600)
I0411 01:04:24.815773 25748 net.cpp:165] Memory required for data: 2195918848
I0411 01:04:24.815778 25748 layer_factory.hpp:77] Creating layer conv1_postscale
I0411 01:04:24.815784 25748 net.cpp:100] Creating Layer conv1_postscale
I0411 01:04:24.815788 25748 net.cpp:434] conv1_postscale <- conv1
I0411 01:04:24.815793 25748 net.cpp:395] conv1_postscale -> conv1 (in-place)
I0411 01:04:24.815901 25748 net.cpp:150] Setting up conv1_postscale
I0411 01:04:24.815912 25748 net.cpp:157] Top shape: 1024 100 42 42 (180633600)
I0411 01:04:24.815914 25748 net.cpp:165] Memory required for data: 2918453248
I0411 01:04:24.815919 25748 layer_factory.hpp:77] Creating layer pool1
I0411 01:04:24.815927 25748 net.cpp:100] Creating Layer pool1
I0411 01:04:24.815929 25748 net.cpp:434] pool1 <- conv1
I0411 01:04:24.815934 25748 net.cpp:408] pool1 -> pool1
I0411 01:04:24.815984 25748 net.cpp:150] Setting up pool1
I0411 01:04:24.815992 25748 net.cpp:157] Top shape: 1024 100 21 21 (45158400)
I0411 01:04:24.815995 25748 net.cpp:165] Memory required for data: 3099086848
I0411 01:04:24.816017 25748 layer_factory.hpp:77] Creating layer conv2
I0411 01:04:24.816027 25748 net.cpp:100] Creating Layer conv2
I0411 01:04:24.816031 25748 net.cpp:434] conv2 <- pool1
I0411 01:04:24.816036 25748 net.cpp:408] conv2 -> conv2
I0411 01:04:24.820543 25748 net.cpp:150] Setting up conv2
I0411 01:04:24.820559 25748 net.cpp:157] Top shape: 1024 150 18 18 (49766400)
I0411 01:04:24.820564 25748 net.cpp:165] Memory required for data: 3298152448
I0411 01:04:24.820574 25748 layer_factory.hpp:77] Creating layer conv2_prescale
I0411 01:04:24.820582 25748 net.cpp:100] Creating Layer conv2_prescale
I0411 01:04:24.820587 25748 net.cpp:434] conv2_prescale <- conv2
I0411 01:04:24.820592 25748 net.cpp:395] conv2_prescale -> conv2 (in-place)
I0411 01:04:24.820705 25748 net.cpp:150] Setting up conv2_prescale
I0411 01:04:24.820715 25748 net.cpp:157] Top shape: 1024 150 18 18 (49766400)
I0411 01:04:24.820719 25748 net.cpp:165] Memory required for data: 3497218048
I0411 01:04:24.820724 25748 layer_factory.hpp:77] Creating layer conv2_sTanH
I0411 01:04:24.820730 25748 net.cpp:100] Creating Layer conv2_sTanH
I0411 01:04:24.820734 25748 net.cpp:434] conv2_sTanH <- conv2
I0411 01:04:24.820739 25748 net.cpp:395] conv2_sTanH -> conv2 (in-place)
I0411 01:04:24.821666 25748 net.cpp:150] Setting up conv2_sTanH
I0411 01:04:24.821682 25748 net.cpp:157] Top shape: 1024 150 18 18 (49766400)
I0411 01:04:24.821686 25748 net.cpp:165] Memory required for data: 3696283648
I0411 01:04:24.821689 25748 layer_factory.hpp:77] Creating layer conv2_postscale
I0411 01:04:24.821696 25748 net.cpp:100] Creating Layer conv2_postscale
I0411 01:04:24.821699 25748 net.cpp:434] conv2_postscale <- conv2
I0411 01:04:24.821707 25748 net.cpp:395] conv2_postscale -> conv2 (in-place)
I0411 01:04:24.821810 25748 net.cpp:150] Setting up conv2_postscale
I0411 01:04:24.821818 25748 net.cpp:157] Top shape: 1024 150 18 18 (49766400)
I0411 01:04:24.821821 25748 net.cpp:165] Memory required for data: 3895349248
I0411 01:04:24.821826 25748 layer_factory.hpp:77] Creating layer pool2
I0411 01:04:24.821833 25748 net.cpp:100] Creating Layer pool2
I0411 01:04:24.821837 25748 net.cpp:434] pool2 <- conv2
I0411 01:04:24.821843 25748 net.cpp:408] pool2 -> pool2
I0411 01:04:24.821883 25748 net.cpp:150] Setting up pool2
I0411 01:04:24.821892 25748 net.cpp:157] Top shape: 1024 150 9 9 (12441600)
I0411 01:04:24.821894 25748 net.cpp:165] Memory required for data: 3945115648
I0411 01:04:24.821897 25748 layer_factory.hpp:77] Creating layer conv3
I0411 01:04:24.821907 25748 net.cpp:100] Creating Layer conv3
I0411 01:04:24.821910 25748 net.cpp:434] conv3 <- pool2
I0411 01:04:24.821918 25748 net.cpp:408] conv3 -> conv3
I0411 01:04:24.827600 25748 net.cpp:150] Setting up conv3
I0411 01:04:24.827620 25748 net.cpp:157] Top shape: 1024 250 6 6 (9216000)
I0411 01:04:24.827622 25748 net.cpp:165] Memory required for data: 3981979648
I0411 01:04:24.827633 25748 layer_factory.hpp:77] Creating layer conv3_prescale
I0411 01:04:24.827643 25748 net.cpp:100] Creating Layer conv3_prescale
I0411 01:04:24.827647 25748 net.cpp:434] conv3_prescale <- conv3
I0411 01:04:24.827652 25748 net.cpp:395] conv3_prescale -> conv3 (in-place)
I0411 01:04:24.827750 25748 net.cpp:150] Setting up conv3_prescale
I0411 01:04:24.827759 25748 net.cpp:157] Top shape: 1024 250 6 6 (9216000)
I0411 01:04:24.827762 25748 net.cpp:165] Memory required for data: 4018843648
I0411 01:04:24.827767 25748 layer_factory.hpp:77] Creating layer conv3_sTanH
I0411 01:04:24.827772 25748 net.cpp:100] Creating Layer conv3_sTanH
I0411 01:04:24.827775 25748 net.cpp:434] conv3_sTanH <- conv3
I0411 01:04:24.827780 25748 net.cpp:395] conv3_sTanH -> conv3 (in-place)
I0411 01:04:24.828819 25748 net.cpp:150] Setting up conv3_sTanH
I0411 01:04:24.828835 25748 net.cpp:157] Top shape: 1024 250 6 6 (9216000)
I0411 01:04:24.828837 25748 net.cpp:165] Memory required for data: 4055707648
I0411 01:04:24.828841 25748 layer_factory.hpp:77] Creating layer conv3_postscale
I0411 01:04:24.828850 25748 net.cpp:100] Creating Layer conv3_postscale
I0411 01:04:24.828868 25748 net.cpp:434] conv3_postscale <- conv3
I0411 01:04:24.828876 25748 net.cpp:395] conv3_postscale -> conv3 (in-place)
I0411 01:04:24.828979 25748 net.cpp:150] Setting up conv3_postscale
I0411 01:04:24.828987 25748 net.cpp:157] Top shape: 1024 250 6 6 (9216000)
I0411 01:04:24.828990 25748 net.cpp:165] Memory required for data: 4092571648
I0411 01:04:24.828995 25748 layer_factory.hpp:77] Creating layer pool3
I0411 01:04:24.829002 25748 net.cpp:100] Creating Layer pool3
I0411 01:04:24.829006 25748 net.cpp:434] pool3 <- conv3
I0411 01:04:24.829010 25748 net.cpp:408] pool3 -> pool3
I0411 01:04:24.829051 25748 net.cpp:150] Setting up pool3
I0411 01:04:24.829059 25748 net.cpp:157] Top shape: 1024 250 3 3 (2304000)
I0411 01:04:24.829061 25748 net.cpp:165] Memory required for data: 4101787648
I0411 01:04:24.829064 25748 layer_factory.hpp:77] Creating layer fc4_300
I0411 01:04:24.829078 25748 net.cpp:100] Creating Layer fc4_300
I0411 01:04:24.829083 25748 net.cpp:434] fc4_300 <- pool3
I0411 01:04:24.829088 25748 net.cpp:408] fc4_300 -> fc4_300
I0411 01:04:24.834935 25748 net.cpp:150] Setting up fc4_300
I0411 01:04:24.834952 25748 net.cpp:157] Top shape: 1024 300 (307200)
I0411 01:04:24.834955 25748 net.cpp:165] Memory required for data: 4103016448
I0411 01:04:24.834961 25748 layer_factory.hpp:77] Creating layer fc4_prescale
I0411 01:04:24.834972 25748 net.cpp:100] Creating Layer fc4_prescale
I0411 01:04:24.834976 25748 net.cpp:434] fc4_prescale <- fc4_300
I0411 01:04:24.834981 25748 net.cpp:395] fc4_prescale -> fc4_300 (in-place)
I0411 01:04:24.835069 25748 net.cpp:150] Setting up fc4_prescale
I0411 01:04:24.835078 25748 net.cpp:157] Top shape: 1024 300 (307200)
I0411 01:04:24.835080 25748 net.cpp:165] Memory required for data: 4104245248
I0411 01:04:24.835085 25748 layer_factory.hpp:77] Creating layer fc4_sTanH
I0411 01:04:24.835090 25748 net.cpp:100] Creating Layer fc4_sTanH
I0411 01:04:24.835093 25748 net.cpp:434] fc4_sTanH <- fc4_300
I0411 01:04:24.835098 25748 net.cpp:395] fc4_sTanH -> fc4_300 (in-place)
I0411 01:04:24.835283 25748 net.cpp:150] Setting up fc4_sTanH
I0411 01:04:24.835294 25748 net.cpp:157] Top shape: 1024 300 (307200)
I0411 01:04:24.835297 25748 net.cpp:165] Memory required for data: 4105474048
I0411 01:04:24.835300 25748 layer_factory.hpp:77] Creating layer fc4_postscale
I0411 01:04:24.835309 25748 net.cpp:100] Creating Layer fc4_postscale
I0411 01:04:24.835312 25748 net.cpp:434] fc4_postscale <- fc4_300
I0411 01:04:24.835317 25748 net.cpp:395] fc4_postscale -> fc4_300 (in-place)
I0411 01:04:24.835413 25748 net.cpp:150] Setting up fc4_postscale
I0411 01:04:24.835422 25748 net.cpp:157] Top shape: 1024 300 (307200)
I0411 01:04:24.835423 25748 net.cpp:165] Memory required for data: 4106702848
I0411 01:04:24.835428 25748 layer_factory.hpp:77] Creating layer fc5_67
I0411 01:04:24.835433 25748 net.cpp:100] Creating Layer fc5_67
I0411 01:04:24.835436 25748 net.cpp:434] fc5_67 <- fc4_300
I0411 01:04:24.835443 25748 net.cpp:408] fc5_67 -> fc5_classes
I0411 01:04:24.837049 25748 net.cpp:150] Setting up fc5_67
I0411 01:04:24.837065 25748 net.cpp:157] Top shape: 1024 67 (68608)
I0411 01:04:24.837069 25748 net.cpp:165] Memory required for data: 4106977280
I0411 01:04:24.837077 25748 layer_factory.hpp:77] Creating layer loss
I0411 01:04:24.837087 25748 net.cpp:100] Creating Layer loss
I0411 01:04:24.837091 25748 net.cpp:434] loss <- fc5_classes
I0411 01:04:24.837096 25748 net.cpp:434] loss <- label
I0411 01:04:24.837102 25748 net.cpp:408] loss -> loss
I0411 01:04:24.837116 25748 layer_factory.hpp:77] Creating layer loss
…
I0411 01:04:24.837864 25748 solver.cpp:193] Creating test net (#0) specified by test_net file: ./Prototxt/experiment_8/rtsd-r1/CoNorm/trial_1/test.prototxt
I0411 01:04:24.838039 25748 net.cpp:58] Initializing net from parameters: 
state {
  phase: TEST
}
layer {
  name: "data"
  type: "Data"
  top: "data"
  top: "label"
  include {
    phase: TEST
  }
  transform_param {
    mirror: false
    crop_size: 48
    mean_value: 133
    mean_value: 133
    mean_value: 132
  }
  data_param {
    source: "../local_data/lmdb/rtsd-r1/CoNorm/test/lmdb"
    batch_size: 1024
    backend: LMDB
  }
}
layer {
  name: "conv1"
  type: "Convolution"
  bottom: "data"
  top: "conv1"
  convolution_param {
    num_output: 100
    pad: 0
    kernel_size: 7
    group: 1
    stride: 1
    weight_filler {
      type: "xavier"
    }
  }
}
layer {
  name: "conv1_prescale"
  type: "Scale"
  bottom: "conv1"
  top: "conv1"
  param {
    lr_mult: 0
    decay_mult: 0
  }
  scale_param {
    filler {
      value: 0.6666
    }
    bias_term: false
  }
}
layer {
  name: "conv1_sTanH"
  type: "TanH"
  bottom: "conv1"
  top: "conv1"
}
layer {
  name: "conv1_postscale"
  type: "Scale"
  bottom: "conv1"
  top: "conv1"
  param {
    lr_mult: 0
    decay_mult: 0
  }
  scale_param {
    filler {
      value: 1.7159
    }
    bias_term: false
  }
}
layer {
  name: "pool1"
  type: "Pooling"
  bottom: "conv1"
  top: "pool1"
  pooling_param {
    pool: MAX
    kernel_size: 2
    stride: 2
  }
}
layer {
  name: "conv2"
  type: "Convolution"
  bottom: "pool1"
  top: "conv2"
  convolution_param {
    num_output: 150
    pad: 0
    kernel_size: 4
    group: 1
    stride: 1
    weight_filler {
      type: "xavier"
    }
  }
}
layer {
  name: "conv2_prescale"
  type: "Scale"
  bottom: "conv2"
  top: "conv2"
  param {
    lr_mult: 0
    decay_mult: 0
  }
  scale_param {
    filler {
      value: 0.6666
    }
    bias_term: false
  }
}
layer {
  name: "conv2_sTanH"
  type: "TanH"
  bottom: "conv2"
  top: "conv2"
}
layer {
  name: "conv2_postscale"
  type: "Scale"
  bottom: "conv2"
  top: "conv2"
  param {
    lr_mult: 0
    decay_mult: 0
  }
  scale_param {
    filler {
      value: 1.7159
    }
    bias_term: false
  }
}
layer {
  name: "pool2"
  type: "Pooling"
  bottom: "conv2"
  top: "pool2"
  pooling_param {
    pool: MAX
    kernel_size: 2
    stride: 2
  }
}
layer {
  name: "conv3"
  type: "Convolution"
  bottom: "pool2"
  top: "conv3"
  convolution_param {
    num_output: 250
    pad: 0
    kernel_size: 4
    group: 1
    stride: 1
    weight_filler {
      type: "xavier"
    }
  }
}
layer {
  name: "conv3_prescale"
  type: "Scale"
  bottom: "conv3"
  top: "conv3"
  param {
    lr_mult: 0
    decay_mult: 0
  }
  scale_param {
    filler {
      value: 0.6666
    }
    bias_term: false
  }
}
layer {
  name: "conv3_sTanH"
  type: "TanH"
  bottom: "conv3"
  top: "conv3"
}
layer {
  name: "conv3_postscale"
  type: "Scale"
  bottom: "conv3"
  top: "conv3"
  param {
    lr_mult: 0
    decay_mult: 0
  }
  scale_param {
    filler {
      value: 1.7159
    }
    bias_term: false
  }
}
layer {
  name: "pool3"
  type: "Pooling"
  bottom: "conv3"
  top: "pool3"
  pooling_param {
    pool: MAX
    kernel_size: 2
    stride: 2
  }
}
layer {
  name: "fc4_300"
  type: "InnerProduct"
  bottom: "pool3"
  top: "fc4_300"
  inner_product_param {
    num_output: 300
    weight_filler {
      type: "xavier"
    }
  }
}
layer {
  name: "fc4_prescale"
  type: "Scale"
  bottom: "fc4_300"
  top: "fc4_300"
  param {
    lr_mult: 0
    decay_mult: 0
  }
  scale_param {
    filler {
      value: 0.6666
    }
    bias_term: false
  }
}
layer {
  name: "fc4_sTanH"
  type: "TanH"
  bottom: "fc4_300"
  top: "fc4_300"
}
layer {
  name: "fc4_postscale"
  type: "Scale"
  bottom: "fc4_300"
  top: "fc4_300"
  param {
    lr_mult: 0
    decay_mult: 0
  }
  scale_param {
    filler {
      value: 1.7159
    }
    bias_term: false
  }
}
layer {
  name: "fc5_67"
  type: "InnerProduct"
  bottom: "fc4_300"
  top: "fc5_classes"
  inner_product_param {
    num_output: 67
    weight_filler {
      type: "xavier"
    }
  }
}
layer {
  name: "loss"
  type: "SoftmaxWithLoss"
  bottom: "fc5_classes"
  bottom: "label"
  top: "loss"
}
layer {
  name: "accuracy_1"
  type: "Accuracy"
  bottom: "fc5_classes"
  bottom: "label"
  top: "accuracy_1"
  include {
    phase: TEST
  }
  accuracy_param {
    top_k: 1
  }
}
layer {
  name: "accuracy_5"
  type: "Accuracy"
  bottom: "fc5_classes"
  bottom: "label"
  top: "accuracy_5"
  include {
    phase: TEST
  }
  accuracy_param {
    top_k: 5
  }
}
I0411 01:04:24.838160 25748 layer_factory.hpp:77] Creating layer data
I0411 01:04:24.838840 25748 net.cpp:100] Creating Layer data
I0411 01:04:24.838853 25748 net.cpp:408] data -> data
I0411 01:04:24.838863 25748 net.cpp:408] data -> label
I0411 01:04:24.841115 25892 db_lmdb.cpp:35] Opened lmdb ../local_data/lmdb/rtsd-r1/CoNorm/test/lmdb
I0411 01:04:24.841285 25748 data_layer.cpp:41] output data size: 1024,3,48,48
I0411 01:04:24.893710 25748 net.cpp:150] Setting up data
I0411 01:04:24.893739 25748 net.cpp:157] Top shape: 1024 3 48 48 (7077888)
I0411 01:04:24.893744 25748 net.cpp:157] Top shape: 1024 (1024)
I0411 01:04:24.893748 25748 net.cpp:165] Memory required for data: 28315648
I0411 01:04:24.893754 25748 layer_factory.hpp:77] Creating layer label_data_1_split
I0411 01:04:24.893769 25748 net.cpp:100] Creating Layer label_data_1_split
I0411 01:04:24.893774 25748 net.cpp:434] label_data_1_split <- label
I0411 01:04:24.893782 25748 net.cpp:408] label_data_1_split -> label_data_1_split_0
I0411 01:04:24.893797 25748 net.cpp:408] label_data_1_split -> label_data_1_split_1
I0411 01:04:24.893805 25748 net.cpp:408] label_data_1_split -> label_data_1_split_2
I0411 01:04:24.893960 25748 net.cpp:150] Setting up label_data_1_split
I0411 01:04:24.893970 25748 net.cpp:157] Top shape: 1024 (1024)
I0411 01:04:24.893975 25748 net.cpp:157] Top shape: 1024 (1024)
I0411 01:04:24.893977 25748 net.cpp:157] Top shape: 1024 (1024)
I0411 01:04:24.893980 25748 net.cpp:165] Memory required for data: 28327936
I0411 01:04:24.893983 25748 layer_factory.hpp:77] Creating layer conv1
I0411 01:04:24.894001 25748 net.cpp:100] Creating Layer conv1
I0411 01:04:24.894006 25748 net.cpp:434] conv1 <- data
I0411 01:04:24.894012 25748 net.cpp:408] conv1 -> conv1
I0411 01:04:24.899211 25748 net.cpp:150] Setting up conv1
I0411 01:04:24.899230 25748 net.cpp:157] Top shape: 1024 100 42 42 (180633600)
I0411 01:04:24.899233 25748 net.cpp:165] Memory required for data: 750862336
I0411 01:04:24.899266 25748 layer_factory.hpp:77] Creating layer conv1_prescale
I0411 01:04:24.899277 25748 net.cpp:100] Creating Layer conv1_prescale
I0411 01:04:24.899281 25748 net.cpp:434] conv1_prescale <- conv1
I0411 01:04:24.899287 25748 net.cpp:395] conv1_prescale -> conv1 (in-place)
I0411 01:04:24.899395 25748 net.cpp:150] Setting up conv1_prescale
I0411 01:04:24.899405 25748 net.cpp:157] Top shape: 1024 100 42 42 (180633600)
I0411 01:04:24.899407 25748 net.cpp:165] Memory required for data: 1473396736
I0411 01:04:24.899415 25748 layer_factory.hpp:77] Creating layer conv1_sTanH
I0411 01:04:24.899422 25748 net.cpp:100] Creating Layer conv1_sTanH
I0411 01:04:24.899426 25748 net.cpp:434] conv1_sTanH <- conv1
I0411 01:04:24.899433 25748 net.cpp:395] conv1_sTanH -> conv1 (in-place)
I0411 01:04:24.899624 25748 net.cpp:150] Setting up conv1_sTanH
I0411 01:04:24.899636 25748 net.cpp:157] Top shape: 1024 100 42 42 (180633600)
I0411 01:04:24.899638 25748 net.cpp:165] Memory required for data: 2195931136
I0411 01:04:24.899641 25748 layer_factory.hpp:77] Creating layer conv1_postscale
I0411 01:04:24.899649 25748 net.cpp:100] Creating Layer conv1_postscale
I0411 01:04:24.899652 25748 net.cpp:434] conv1_postscale <- conv1
I0411 01:04:24.899657 25748 net.cpp:395] conv1_postscale -> conv1 (in-place)
I0411 01:04:24.899763 25748 net.cpp:150] Setting up conv1_postscale
I0411 01:04:24.899771 25748 net.cpp:157] Top shape: 1024 100 42 42 (180633600)
I0411 01:04:24.899775 25748 net.cpp:165] Memory required for data: 2918465536
I0411 01:04:24.899780 25748 layer_factory.hpp:77] Creating layer pool1
I0411 01:04:24.899787 25748 net.cpp:100] Creating Layer pool1
I0411 01:04:24.899792 25748 net.cpp:434] pool1 <- conv1
I0411 01:04:24.899797 25748 net.cpp:408] pool1 -> pool1
I0411 01:04:24.899840 25748 net.cpp:150] Setting up pool1
I0411 01:04:24.899848 25748 net.cpp:157] Top shape: 1024 100 21 21 (45158400)
I0411 01:04:24.899852 25748 net.cpp:165] Memory required for data: 3099099136
I0411 01:04:24.899854 25748 layer_factory.hpp:77] Creating layer conv2
I0411 01:04:24.899863 25748 net.cpp:100] Creating Layer conv2
I0411 01:04:24.899868 25748 net.cpp:434] conv2 <- pool1
I0411 01:04:24.899875 25748 net.cpp:408] conv2 -> conv2
I0411 01:04:24.907516 25748 net.cpp:150] Setting up conv2
I0411 01:04:24.907536 25748 net.cpp:157] Top shape: 1024 150 18 18 (49766400)
I0411 01:04:24.907539 25748 net.cpp:165] Memory required for data: 3298164736
I0411 01:04:24.907552 25748 layer_factory.hpp:77] Creating layer conv2_prescale
I0411 01:04:24.907562 25748 net.cpp:100] Creating Layer conv2_prescale
I0411 01:04:24.907565 25748 net.cpp:434] conv2_prescale <- conv2
I0411 01:04:24.907572 25748 net.cpp:395] conv2_prescale -> conv2 (in-place)
I0411 01:04:24.907688 25748 net.cpp:150] Setting up conv2_prescale
I0411 01:04:24.907698 25748 net.cpp:157] Top shape: 1024 150 18 18 (49766400)
I0411 01:04:24.907701 25748 net.cpp:165] Memory required for data: 3497230336
I0411 01:04:24.907706 25748 layer_factory.hpp:77] Creating layer conv2_sTanH
I0411 01:04:24.907712 25748 net.cpp:100] Creating Layer conv2_sTanH
I0411 01:04:24.907716 25748 net.cpp:434] conv2_sTanH <- conv2
I0411 01:04:24.907721 25748 net.cpp:395] conv2_sTanH -> conv2 (in-place)
I0411 01:04:24.908798 25748 net.cpp:150] Setting up conv2_sTanH
I0411 01:04:24.908819 25748 net.cpp:157] Top shape: 1024 150 18 18 (49766400)
I0411 01:04:24.908823 25748 net.cpp:165] Memory required for data: 3696295936
I0411 01:04:24.908826 25748 layer_factory.hpp:77] Creating layer conv2_postscale
I0411 01:04:24.908834 25748 net.cpp:100] Creating Layer conv2_postscale
I0411 01:04:24.908838 25748 net.cpp:434] conv2_postscale <- conv2
I0411 01:04:24.908844 25748 net.cpp:395] conv2_postscale -> conv2 (in-place)
I0411 01:04:24.908951 25748 net.cpp:150] Setting up conv2_postscale
I0411 01:04:24.908959 25748 net.cpp:157] Top shape: 1024 150 18 18 (49766400)
I0411 01:04:24.908962 25748 net.cpp:165] Memory required for data: 3895361536
I0411 01:04:24.908967 25748 layer_factory.hpp:77] Creating layer pool2
I0411 01:04:24.908991 25748 net.cpp:100] Creating Layer pool2
I0411 01:04:24.908998 25748 net.cpp:434] pool2 <- conv2
I0411 01:04:24.909003 25748 net.cpp:408] pool2 -> pool2
I0411 01:04:24.909051 25748 net.cpp:150] Setting up pool2
I0411 01:04:24.909060 25748 net.cpp:157] Top shape: 1024 150 9 9 (12441600)
I0411 01:04:24.909063 25748 net.cpp:165] Memory required for data: 3945127936
I0411 01:04:24.909066 25748 layer_factory.hpp:77] Creating layer conv3
I0411 01:04:24.909076 25748 net.cpp:100] Creating Layer conv3
I0411 01:04:24.909081 25748 net.cpp:434] conv3 <- pool2
I0411 01:04:24.909087 25748 net.cpp:408] conv3 -> conv3
I0411 01:04:24.915359 25748 net.cpp:150] Setting up conv3
I0411 01:04:24.915379 25748 net.cpp:157] Top shape: 1024 250 6 6 (9216000)
I0411 01:04:24.915385 25748 net.cpp:165] Memory required for data: 3981991936
I0411 01:04:24.915395 25748 layer_factory.hpp:77] Creating layer conv3_prescale
I0411 01:04:24.915402 25748 net.cpp:100] Creating Layer conv3_prescale
I0411 01:04:24.915406 25748 net.cpp:434] conv3_prescale <- conv3
I0411 01:04:24.915413 25748 net.cpp:395] conv3_prescale -> conv3 (in-place)
I0411 01:04:24.915511 25748 net.cpp:150] Setting up conv3_prescale
I0411 01:04:24.915521 25748 net.cpp:157] Top shape: 1024 250 6 6 (9216000)
I0411 01:04:24.915524 25748 net.cpp:165] Memory required for data: 4018855936
I0411 01:04:24.915529 25748 layer_factory.hpp:77] Creating layer conv3_sTanH
I0411 01:04:24.915544 25748 net.cpp:100] Creating Layer conv3_sTanH
I0411 01:04:24.915547 25748 net.cpp:434] conv3_sTanH <- conv3
I0411 01:04:24.915551 25748 net.cpp:395] conv3_sTanH -> conv3 (in-place)
I0411 01:04:24.918181 25748 net.cpp:150] Setting up conv3_sTanH
I0411 01:04:24.918200 25748 net.cpp:157] Top shape: 1024 250 6 6 (9216000)
I0411 01:04:24.918203 25748 net.cpp:165] Memory required for data: 4055719936
I0411 01:04:24.918206 25748 layer_factory.hpp:77] Creating layer conv3_postscale
I0411 01:04:24.918215 25748 net.cpp:100] Creating Layer conv3_postscale
I0411 01:04:24.918218 25748 net.cpp:434] conv3_postscale <- conv3
I0411 01:04:24.918227 25748 net.cpp:395] conv3_postscale -> conv3 (in-place)
I0411 01:04:24.918334 25748 net.cpp:150] Setting up conv3_postscale
I0411 01:04:24.918344 25748 net.cpp:157] Top shape: 1024 250 6 6 (9216000)
I0411 01:04:24.918345 25748 net.cpp:165] Memory required for data: 4092583936
I0411 01:04:24.918350 25748 layer_factory.hpp:77] Creating layer pool3
I0411 01:04:24.918360 25748 net.cpp:100] Creating Layer pool3
I0411 01:04:24.918366 25748 net.cpp:434] pool3 <- conv3
I0411 01:04:24.918372 25748 net.cpp:408] pool3 -> pool3
I0411 01:04:24.918418 25748 net.cpp:150] Setting up pool3
I0411 01:04:24.918426 25748 net.cpp:157] Top shape: 1024 250 3 3 (2304000)
I0411 01:04:24.918428 25748 net.cpp:165] Memory required for data: 4101799936
I0411 01:04:24.918431 25748 layer_factory.hpp:77] Creating layer fc4_300
I0411 01:04:24.918438 25748 net.cpp:100] Creating Layer fc4_300
I0411 01:04:24.918442 25748 net.cpp:434] fc4_300 <- pool3
I0411 01:04:24.918448 25748 net.cpp:408] fc4_300 -> fc4_300
I0411 01:04:24.924569 25748 net.cpp:150] Setting up fc4_300
I0411 01:04:24.924587 25748 net.cpp:157] Top shape: 1024 300 (307200)
I0411 01:04:24.924590 25748 net.cpp:165] Memory required for data: 4103028736
I0411 01:04:24.924597 25748 layer_factory.hpp:77] Creating layer fc4_prescale
I0411 01:04:24.924603 25748 net.cpp:100] Creating Layer fc4_prescale
I0411 01:04:24.924607 25748 net.cpp:434] fc4_prescale <- fc4_300
I0411 01:04:24.924613 25748 net.cpp:395] fc4_prescale -> fc4_300 (in-place)
I0411 01:04:24.924710 25748 net.cpp:150] Setting up fc4_prescale
I0411 01:04:24.924720 25748 net.cpp:157] Top shape: 1024 300 (307200)
I0411 01:04:24.924722 25748 net.cpp:165] Memory required for data: 4104257536
I0411 01:04:24.924727 25748 layer_factory.hpp:77] Creating layer fc4_sTanH
I0411 01:04:24.924732 25748 net.cpp:100] Creating Layer fc4_sTanH
I0411 01:04:24.924736 25748 net.cpp:434] fc4_sTanH <- fc4_300
I0411 01:04:24.924739 25748 net.cpp:395] fc4_sTanH -> fc4_300 (in-place)
I0411 01:04:24.924935 25748 net.cpp:150] Setting up fc4_sTanH
I0411 01:04:24.924962 25748 net.cpp:157] Top shape: 1024 300 (307200)
I0411 01:04:24.924965 25748 net.cpp:165] Memory required for data: 4105486336
I0411 01:04:24.924968 25748 layer_factory.hpp:77] Creating layer fc4_postscale
I0411 01:04:24.924974 25748 net.cpp:100] Creating Layer fc4_postscale
I0411 01:04:24.924978 25748 net.cpp:434] fc4_postscale <- fc4_300
I0411 01:04:24.924985 25748 net.cpp:395] fc4_postscale -> fc4_300 (in-place)
I0411 01:04:24.925088 25748 net.cpp:150] Setting up fc4_postscale
I0411 01:04:24.925096 25748 net.cpp:157] Top shape: 1024 300 (307200)
I0411 01:04:24.925099 25748 net.cpp:165] Memory required for data: 4106715136
I0411 01:04:24.925103 25748 layer_factory.hpp:77] Creating layer fc5_67
I0411 01:04:24.925112 25748 net.cpp:100] Creating Layer fc5_67
I0411 01:04:24.925117 25748 net.cpp:434] fc5_67 <- fc4_300
I0411 01:04:24.925122 25748 net.cpp:408] fc5_67 -> fc5_classes
I0411 01:04:24.925372 25748 net.cpp:150] Setting up fc5_67
I0411 01:04:24.925381 25748 net.cpp:157] Top shape: 1024 67 (68608)
I0411 01:04:24.925384 25748 net.cpp:165] Memory required for data: 4106989568
I0411 01:04:24.925395 25748 layer_factory.hpp:77] Creating layer fc5_classes_fc5_67_0_split
I0411 01:04:24.925405 25748 net.cpp:100] Creating Layer fc5_classes_fc5_67_0_split
I0411 01:04:24.925407 25748 net.cpp:434] fc5_classes_fc5_67_0_split <- fc5_classes
I0411 01:04:24.925412 25748 net.cpp:408] fc5_classes_fc5_67_0_split -> fc5_classes_fc5_67_0_split_0
I0411 01:04:24.925420 25748 net.cpp:408] fc5_classes_fc5_67_0_split -> fc5_classes_fc5_67_0_split_1
I0411 01:04:24.925426 25748 net.cpp:408] fc5_classes_fc5_67_0_split -> fc5_classes_fc5_67_0_split_2
I0411 01:04:24.925477 25748 net.cpp:150] Setting up fc5_classes_fc5_67_0_split
I0411 01:04:24.925484 25748 net.cpp:157] Top shape: 1024 67 (68608)
I0411 01:04:24.925488 25748 net.cpp:157] Top shape: 1024 67 (68608)
I0411 01:04:24.925493 25748 net.cpp:157] Top shape: 1024 67 (68608)
I0411 01:04:24.925504 25748 net.cpp:165] Memory required for data: 4107812864
I0411 01:04:24.925508 25748 layer_factory.hpp:77] Creating layer loss
I0411 01:04:24.925513 25748 net.cpp:100] Creating Layer loss
I0411 01:04:24.925515 25748 net.cpp:434] loss <- fc5_classes_fc5_67_0_split_0
I0411 01:04:24.925520 25748 net.cpp:434] loss <- label_data_1_split_0
I0411 01:04:24.925526 25748 net.cpp:408] loss -> loss
…
