…
I0508 10:17:29.459339 10283 solver.cpp:93] Creating training net from train_net file: ./Prototxt/experiment_15/RTSD/imajust/trial_4/train.prototxt
I0508 10:17:29.459911 10283 net.cpp:58] Initializing net from parameters: 
state {
  phase: TRAIN
  level: 0
  stage: ""
}
layer {
  name: "data"
  type: "Data"
  top: "data"
  top: "label"
  include {
    phase: TRAIN
  }
  transform_param {
    scale: 0.0039215689
    mirror: false
    crop_size: 48
    mean_value: 119
    mean_value: 113
    mean_value: 114
  }
  data_param {
    source: "../local_data/lmdb/RTSD/imajust/train/lmdb"
    batch_size: 1024
    backend: LMDB
  }
}
layer {
  name: "conv1"
  type: "Convolution"
  bottom: "data"
  top: "conv1"
  convolution_param {
    num_output: 100
    pad: 0
    kernel_size: 7
    group: 1
    stride: 1
    weight_filler {
      type: "xavier"
    }
  }
}
layer {
  name: "conv1_prescale"
  type: "Scale"
  bottom: "conv1"
  top: "conv1"
  param {
    lr_mult: 0
    decay_mult: 0
  }
  scale_param {
    filler {
      value: 0.6666
    }
    bias_term: false
  }
}
layer {
  name: "conv1_sTanH"
  type: "TanH"
  bottom: "conv1"
  top: "conv1"
}
layer {
  name: "conv1_postscale"
  type: "Scale"
  bottom: "conv1"
  top: "conv1"
  param {
    lr_mult: 0
    decay_mult: 0
  }
  scale_param {
    filler {
      value: 1.7159
    }
    bias_term: false
  }
}
layer {
  name: "pool1"
  type: "Pooling"
  bottom: "conv1"
  top: "pool1"
  pooling_param {
    pool: MAX
    kernel_size: 2
    stride: 2
  }
}
layer {
  name: "conv2"
  type: "Convolution"
  bottom: "pool1"
  top: "conv2"
  convolution_param {
    num_output: 150
    pad: 0
    kernel_size: 4
    group: 2
    stride: 1
    weight_filler {
      type: "xavier"
    }
  }
}
layer {
  name: "conv2_prescale"
  type: "Scale"
  bottom: "conv2"
  top: "conv2"
  param {
    lr_mult: 0
    decay_mult: 0
  }
  scale_param {
    filler {
      value: 0.6666
    }
    bias_term: false
  }
}
layer {
  name: "conv2_sTanH"
  type: "TanH"
  bottom: "conv2"
  top: "conv2"
}
layer {
  name: "conv2_postscale"
  type: "Scale"
  bottom: "conv2"
  top: "conv2"
  param {
    lr_mult: 0
    decay_mult: 0
  }
  scale_param {
    filler {
      value: 1.7159
    }
    bias_term: false
  }
}
layer {
  name: "pool2"
  type: "Pooling"
  bottom: "conv2"
  top: "pool2"
  pooling_param {
    pool: MAX
    kernel_size: 2
    stride: 2
  }
}
layer {
  name: "conv3"
  type: "Convolution"
  bottom: "pool2"
  top: "conv3"
  convolution_param {
    num_output: 250
    pad: 0
    kernel_size: 4
    group: 2
    stride: 1
    weight_filler {
      type: "xavier"
    }
  }
}
layer {
  name: "conv3_prescale"
  type: "Scale"
  bottom: "conv3"
  top: "conv3"
  param {
    lr_mult: 0
    decay_mult: 0
  }
  scale_param {
    filler {
      value: 0.6666
    }
    bias_term: false
  }
}
layer {
  name: "conv3_sTanH"
  type: "TanH"
  bottom: "conv3"
  top: "conv3"
}
layer {
  name: "conv3_postscale"
  type: "Scale"
  bottom: "conv3"
  top: "conv3"
  param {
    lr_mult: 0
    decay_mult: 0
  }
  scale_param {
    filler {
      value: 1.7159
    }
    bias_term: false
  }
}
layer {
  name: "pool3"
  type: "Pooling"
  bottom: "conv3"
  top: "pool3"
  pooling_param {
    pool: MAX
    kernel_size: 2
    stride: 2
  }
}
layer {
  name: "fc4_300"
  type: "InnerProduct"
  bottom: "pool3"
  top: "fc4_300"
  inner_product_param {
    num_output: 300
    weight_filler {
      type: "xavier"
    }
  }
}
layer {
  name: "fc4_prescale"
  type: "Scale"
  bottom: "fc4_300"
  top: "fc4_300"
  param {
    lr_mult: 0
    decay_mult: 0
  }
  scale_param {
    filler {
      value: 0.6666
    }
    bias_term: false
  }
}
layer {
  name: "fc4_sTanH"
  type: "TanH"
  bottom: "fc4_300"
  top: "fc4_300"
}
layer {
  name: "fc4_postscale"
  type: "Scale"
  bottom: "fc4_300"
  top: "fc4_300"
  param {
    lr_mult: 0
    decay_mult: 0
  }
  scale_param {
    filler {
      value: 1.7159
    }
    bias_term: false
  }
}
layer {
  name: "fc5_116"
  type: "InnerProduct"
  bottom: "fc4_300"
  top: "fc5_classes"
  inner_product_param {
    num_output: 116
    weight_filler {
      type: "xavier"
    }
  }
}
layer {
  name: "softmax"
  type: "Softmax"
  bottom: "fc5_classes"
  top: "softmax"
}
layer {
  name: "loss"
  type: "MultinomialLogisticLoss"
  bottom: "softmax"
  bottom: "label"
  top: "loss"
}
layer {
  name: "accuracy_1"
  type: "Accuracy"
  bottom: "fc5_classes"
  bottom: "label"
  top: "accuracy_1"
  accuracy_param {
    top_k: 1
  }
}
layer {
  name: "accuracy_5"
  type: "Accuracy"
  bottom: "fc5_classes"
  bottom: "label"
  top: "accuracy_5"
  accuracy_param {
    top_k: 5
  }
}
layer {
  name: "silence"
  type: "Silence"
  bottom: "accuracy_1"
  bottom: "accuracy_5"
}
I0508 10:17:29.460094 10283 layer_factory.hpp:77] Creating layer data
I0508 10:17:29.461457 10283 net.cpp:100] Creating Layer data
I0508 10:17:29.461478 10283 net.cpp:408] data -> data
I0508 10:17:29.461503 10283 net.cpp:408] data -> label
I0508 10:17:29.466630 10416 db_lmdb.cpp:35] Opened lmdb ../local_data/lmdb/RTSD/imajust/train/lmdb
I0508 10:17:29.492557 10283 data_layer.cpp:41] output data size: 1024,3,48,48
I0508 10:17:29.566264 10283 net.cpp:150] Setting up data
I0508 10:17:29.566295 10283 net.cpp:157] Top shape: 1024 3 48 48 (7077888)
I0508 10:17:29.566303 10283 net.cpp:157] Top shape: 1024 (1024)
I0508 10:17:29.566306 10283 net.cpp:165] Memory required for data: 28315648
I0508 10:17:29.566318 10283 layer_factory.hpp:77] Creating layer label_data_1_split
I0508 10:17:29.566337 10283 net.cpp:100] Creating Layer label_data_1_split
I0508 10:17:29.566345 10283 net.cpp:434] label_data_1_split <- label
I0508 10:17:29.566361 10283 net.cpp:408] label_data_1_split -> label_data_1_split_0
I0508 10:17:29.566376 10283 net.cpp:408] label_data_1_split -> label_data_1_split_1
I0508 10:17:29.566386 10283 net.cpp:408] label_data_1_split -> label_data_1_split_2
I0508 10:17:29.566458 10283 net.cpp:150] Setting up label_data_1_split
I0508 10:17:29.566468 10283 net.cpp:157] Top shape: 1024 (1024)
I0508 10:17:29.566473 10283 net.cpp:157] Top shape: 1024 (1024)
I0508 10:17:29.566478 10283 net.cpp:157] Top shape: 1024 (1024)
I0508 10:17:29.566483 10283 net.cpp:165] Memory required for data: 28327936
I0508 10:17:29.566486 10283 layer_factory.hpp:77] Creating layer conv1
I0508 10:17:29.566504 10283 net.cpp:100] Creating Layer conv1
I0508 10:17:29.566510 10283 net.cpp:434] conv1 <- data
I0508 10:17:29.566517 10283 net.cpp:408] conv1 -> conv1
I0508 10:17:30.003670 10283 net.cpp:150] Setting up conv1
I0508 10:17:30.003702 10283 net.cpp:157] Top shape: 1024 100 42 42 (180633600)
I0508 10:17:30.003706 10283 net.cpp:165] Memory required for data: 750862336
I0508 10:17:30.003731 10283 layer_factory.hpp:77] Creating layer conv1_prescale
I0508 10:17:30.003746 10283 net.cpp:100] Creating Layer conv1_prescale
I0508 10:17:30.003752 10283 net.cpp:434] conv1_prescale <- conv1
I0508 10:17:30.003760 10283 net.cpp:395] conv1_prescale -> conv1 (in-place)
I0508 10:17:30.003907 10283 net.cpp:150] Setting up conv1_prescale
I0508 10:17:30.003921 10283 net.cpp:157] Top shape: 1024 100 42 42 (180633600)
I0508 10:17:30.003935 10283 net.cpp:165] Memory required for data: 1473396736
I0508 10:17:30.003943 10283 layer_factory.hpp:77] Creating layer conv1_sTanH
I0508 10:17:30.003955 10283 net.cpp:100] Creating Layer conv1_sTanH
I0508 10:17:30.003960 10283 net.cpp:434] conv1_sTanH <- conv1
I0508 10:17:30.003965 10283 net.cpp:395] conv1_sTanH -> conv1 (in-place)
I0508 10:17:30.004209 10283 net.cpp:150] Setting up conv1_sTanH
I0508 10:17:30.004222 10283 net.cpp:157] Top shape: 1024 100 42 42 (180633600)
I0508 10:17:30.004251 10283 net.cpp:165] Memory required for data: 2195931136
I0508 10:17:30.004256 10283 layer_factory.hpp:77] Creating layer conv1_postscale
I0508 10:17:30.004266 10283 net.cpp:100] Creating Layer conv1_postscale
I0508 10:17:30.004271 10283 net.cpp:434] conv1_postscale <- conv1
I0508 10:17:30.004278 10283 net.cpp:395] conv1_postscale -> conv1 (in-place)
I0508 10:17:30.004400 10283 net.cpp:150] Setting up conv1_postscale
I0508 10:17:30.004410 10283 net.cpp:157] Top shape: 1024 100 42 42 (180633600)
I0508 10:17:30.004415 10283 net.cpp:165] Memory required for data: 2918465536
I0508 10:17:30.004420 10283 layer_factory.hpp:77] Creating layer pool1
I0508 10:17:30.004427 10283 net.cpp:100] Creating Layer pool1
I0508 10:17:30.004433 10283 net.cpp:434] pool1 <- conv1
I0508 10:17:30.004438 10283 net.cpp:408] pool1 -> pool1
I0508 10:17:30.004495 10283 net.cpp:150] Setting up pool1
I0508 10:17:30.004504 10283 net.cpp:157] Top shape: 1024 100 21 21 (45158400)
I0508 10:17:30.004509 10283 net.cpp:165] Memory required for data: 3099099136
I0508 10:17:30.004513 10283 layer_factory.hpp:77] Creating layer conv2
I0508 10:17:30.004524 10283 net.cpp:100] Creating Layer conv2
I0508 10:17:30.004529 10283 net.cpp:434] conv2 <- pool1
I0508 10:17:30.004535 10283 net.cpp:408] conv2 -> conv2
I0508 10:17:30.016867 10283 net.cpp:150] Setting up conv2
I0508 10:17:30.016888 10283 net.cpp:157] Top shape: 1024 150 18 18 (49766400)
I0508 10:17:30.016896 10283 net.cpp:165] Memory required for data: 3298164736
I0508 10:17:30.016908 10283 layer_factory.hpp:77] Creating layer conv2_prescale
I0508 10:17:30.016921 10283 net.cpp:100] Creating Layer conv2_prescale
I0508 10:17:30.016927 10283 net.cpp:434] conv2_prescale <- conv2
I0508 10:17:30.016934 10283 net.cpp:395] conv2_prescale -> conv2 (in-place)
I0508 10:17:30.017057 10283 net.cpp:150] Setting up conv2_prescale
I0508 10:17:30.017068 10283 net.cpp:157] Top shape: 1024 150 18 18 (49766400)
I0508 10:17:30.017073 10283 net.cpp:165] Memory required for data: 3497230336
I0508 10:17:30.017079 10283 layer_factory.hpp:77] Creating layer conv2_sTanH
I0508 10:17:30.017087 10283 net.cpp:100] Creating Layer conv2_sTanH
I0508 10:17:30.017092 10283 net.cpp:434] conv2_sTanH <- conv2
I0508 10:17:30.017097 10283 net.cpp:395] conv2_sTanH -> conv2 (in-place)
I0508 10:17:30.017313 10283 net.cpp:150] Setting up conv2_sTanH
I0508 10:17:30.017324 10283 net.cpp:157] Top shape: 1024 150 18 18 (49766400)
I0508 10:17:30.017329 10283 net.cpp:165] Memory required for data: 3696295936
I0508 10:17:30.017333 10283 layer_factory.hpp:77] Creating layer conv2_postscale
I0508 10:17:30.017341 10283 net.cpp:100] Creating Layer conv2_postscale
I0508 10:17:30.017346 10283 net.cpp:434] conv2_postscale <- conv2
I0508 10:17:30.017352 10283 net.cpp:395] conv2_postscale -> conv2 (in-place)
I0508 10:17:30.017464 10283 net.cpp:150] Setting up conv2_postscale
I0508 10:17:30.017473 10283 net.cpp:157] Top shape: 1024 150 18 18 (49766400)
I0508 10:17:30.017478 10283 net.cpp:165] Memory required for data: 3895361536
I0508 10:17:30.017484 10283 layer_factory.hpp:77] Creating layer pool2
I0508 10:17:30.017493 10283 net.cpp:100] Creating Layer pool2
I0508 10:17:30.017498 10283 net.cpp:434] pool2 <- conv2
I0508 10:17:30.017504 10283 net.cpp:408] pool2 -> pool2
I0508 10:17:30.017554 10283 net.cpp:150] Setting up pool2
I0508 10:17:30.017563 10283 net.cpp:157] Top shape: 1024 150 9 9 (12441600)
I0508 10:17:30.017568 10283 net.cpp:165] Memory required for data: 3945127936
I0508 10:17:30.017571 10283 layer_factory.hpp:77] Creating layer conv3
I0508 10:17:30.017581 10283 net.cpp:100] Creating Layer conv3
I0508 10:17:30.017586 10283 net.cpp:434] conv3 <- pool2
I0508 10:17:30.017592 10283 net.cpp:408] conv3 -> conv3
I0508 10:17:30.025785 10283 net.cpp:150] Setting up conv3
I0508 10:17:30.025809 10283 net.cpp:157] Top shape: 1024 250 6 6 (9216000)
I0508 10:17:30.025815 10283 net.cpp:165] Memory required for data: 3981991936
I0508 10:17:30.025827 10283 layer_factory.hpp:77] Creating layer conv3_prescale
I0508 10:17:30.025856 10283 net.cpp:100] Creating Layer conv3_prescale
I0508 10:17:30.025862 10283 net.cpp:434] conv3_prescale <- conv3
I0508 10:17:30.025871 10283 net.cpp:395] conv3_prescale -> conv3 (in-place)
I0508 10:17:30.025992 10283 net.cpp:150] Setting up conv3_prescale
I0508 10:17:30.026003 10283 net.cpp:157] Top shape: 1024 250 6 6 (9216000)
I0508 10:17:30.026008 10283 net.cpp:165] Memory required for data: 4018855936
I0508 10:17:30.026015 10283 layer_factory.hpp:77] Creating layer conv3_sTanH
I0508 10:17:30.026022 10283 net.cpp:100] Creating Layer conv3_sTanH
I0508 10:17:30.026027 10283 net.cpp:434] conv3_sTanH <- conv3
I0508 10:17:30.026033 10283 net.cpp:395] conv3_sTanH -> conv3 (in-place)
I0508 10:17:30.026266 10283 net.cpp:150] Setting up conv3_sTanH
I0508 10:17:30.026278 10283 net.cpp:157] Top shape: 1024 250 6 6 (9216000)
I0508 10:17:30.026283 10283 net.cpp:165] Memory required for data: 4055719936
I0508 10:17:30.026288 10283 layer_factory.hpp:77] Creating layer conv3_postscale
I0508 10:17:30.026296 10283 net.cpp:100] Creating Layer conv3_postscale
I0508 10:17:30.026301 10283 net.cpp:434] conv3_postscale <- conv3
I0508 10:17:30.026307 10283 net.cpp:395] conv3_postscale -> conv3 (in-place)
I0508 10:17:30.026424 10283 net.cpp:150] Setting up conv3_postscale
I0508 10:17:30.026434 10283 net.cpp:157] Top shape: 1024 250 6 6 (9216000)
I0508 10:17:30.026439 10283 net.cpp:165] Memory required for data: 4092583936
I0508 10:17:30.026444 10283 layer_factory.hpp:77] Creating layer pool3
I0508 10:17:30.026458 10283 net.cpp:100] Creating Layer pool3
I0508 10:17:30.026463 10283 net.cpp:434] pool3 <- conv3
I0508 10:17:30.026468 10283 net.cpp:408] pool3 -> pool3
I0508 10:17:30.026520 10283 net.cpp:150] Setting up pool3
I0508 10:17:30.026528 10283 net.cpp:157] Top shape: 1024 250 3 3 (2304000)
I0508 10:17:30.026533 10283 net.cpp:165] Memory required for data: 4101799936
I0508 10:17:30.026536 10283 layer_factory.hpp:77] Creating layer fc4_300
I0508 10:17:30.026543 10283 net.cpp:100] Creating Layer fc4_300
I0508 10:17:30.026549 10283 net.cpp:434] fc4_300 <- pool3
I0508 10:17:30.026557 10283 net.cpp:408] fc4_300 -> fc4_300
I0508 10:17:30.034783 10283 net.cpp:150] Setting up fc4_300
I0508 10:17:30.034806 10283 net.cpp:157] Top shape: 1024 300 (307200)
I0508 10:17:30.034811 10283 net.cpp:165] Memory required for data: 4103028736
I0508 10:17:30.034819 10283 layer_factory.hpp:77] Creating layer fc4_prescale
I0508 10:17:30.034837 10283 net.cpp:100] Creating Layer fc4_prescale
I0508 10:17:30.034842 10283 net.cpp:434] fc4_prescale <- fc4_300
I0508 10:17:30.034852 10283 net.cpp:395] fc4_prescale -> fc4_300 (in-place)
I0508 10:17:30.034970 10283 net.cpp:150] Setting up fc4_prescale
I0508 10:17:30.034979 10283 net.cpp:157] Top shape: 1024 300 (307200)
I0508 10:17:30.034984 10283 net.cpp:165] Memory required for data: 4104257536
I0508 10:17:30.034989 10283 layer_factory.hpp:77] Creating layer fc4_sTanH
I0508 10:17:30.034999 10283 net.cpp:100] Creating Layer fc4_sTanH
I0508 10:17:30.035004 10283 net.cpp:434] fc4_sTanH <- fc4_300
I0508 10:17:30.035009 10283 net.cpp:395] fc4_sTanH -> fc4_300 (in-place)
I0508 10:17:30.042541 10283 net.cpp:150] Setting up fc4_sTanH
I0508 10:17:30.042562 10283 net.cpp:157] Top shape: 1024 300 (307200)
I0508 10:17:30.042567 10283 net.cpp:165] Memory required for data: 4105486336
I0508 10:17:30.042572 10283 layer_factory.hpp:77] Creating layer fc4_postscale
I0508 10:17:30.042582 10283 net.cpp:100] Creating Layer fc4_postscale
I0508 10:17:30.042587 10283 net.cpp:434] fc4_postscale <- fc4_300
I0508 10:17:30.042596 10283 net.cpp:395] fc4_postscale -> fc4_300 (in-place)
I0508 10:17:30.042729 10283 net.cpp:150] Setting up fc4_postscale
I0508 10:17:30.042742 10283 net.cpp:157] Top shape: 1024 300 (307200)
I0508 10:17:30.042747 10283 net.cpp:165] Memory required for data: 4106715136
I0508 10:17:30.042752 10283 layer_factory.hpp:77] Creating layer fc5_116
I0508 10:17:30.042762 10283 net.cpp:100] Creating Layer fc5_116
I0508 10:17:30.042768 10283 net.cpp:434] fc5_116 <- fc4_300
I0508 10:17:30.042775 10283 net.cpp:408] fc5_116 -> fc5_classes
I0508 10:17:30.046895 10283 net.cpp:150] Setting up fc5_116
I0508 10:17:30.046916 10283 net.cpp:157] Top shape: 1024 116 (118784)
I0508 10:17:30.046922 10283 net.cpp:165] Memory required for data: 4107190272
I0508 10:17:30.046936 10283 layer_factory.hpp:77] Creating layer fc5_classes_fc5_116_0_split
I0508 10:17:30.046946 10283 net.cpp:100] Creating Layer fc5_classes_fc5_116_0_split
I0508 10:17:30.046952 10283 net.cpp:434] fc5_classes_fc5_116_0_split <- fc5_classes
I0508 10:17:30.046960 10283 net.cpp:408] fc5_classes_fc5_116_0_split -> fc5_classes_fc5_116_0_split_0
I0508 10:17:30.046972 10283 net.cpp:408] fc5_classes_fc5_116_0_split -> fc5_classes_fc5_116_0_split_1
I0508 10:17:30.046982 10283 net.cpp:408] fc5_classes_fc5_116_0_split -> fc5_classes_fc5_116_0_split_2
I0508 10:17:30.047049 10283 net.cpp:150] Setting up fc5_classes_fc5_116_0_split
I0508 10:17:30.047057 10283 net.cpp:157] Top shape: 1024 116 (118784)
I0508 10:17:30.047065 10283 net.cpp:157] Top shape: 1024 116 (118784)
I0508 10:17:30.047068 10283 net.cpp:157] Top shape: 1024 116 (118784)
I0508 10:17:30.047072 10283 net.cpp:165] Memory required for data: 4108615680
I0508 10:17:30.047076 10283 layer_factory.hpp:77] Creating layer softmax
I0508 10:17:30.047083 10283 net.cpp:100] Creating Layer softmax
I0508 10:17:30.047088 10283 net.cpp:434] softmax <- fc5_classes_fc5_116_0_split_0
I0508 10:17:30.047097 10283 net.cpp:408] softmax -> softmax
I0508 10:17:30.047415 10283 net.cpp:150] Setting up softmax
I0508 10:17:30.047430 10283 net.cpp:157] Top shape: 1024 116 (118784)
I0508 10:17:30.047435 10283 net.cpp:165] Memory required for data: 4109090816
I0508 10:17:30.047438 10283 layer_factory.hpp:77] Creating layer loss
I0508 10:17:30.047451 10283 net.cpp:100] Creating Layer loss
I0508 10:17:30.047457 10283 net.cpp:434] loss <- softmax
I0508 10:17:30.047462 10283 net.cpp:434] loss <- label_data_1_split_0
I0508 10:17:30.047471 10283 net.cpp:408] loss -> loss
…
