…
I0528 03:55:34.055194  3284 solver.cpp:81] Creating training net from train_net file: ./Prototxt/experiment_21/RTSD/AHE/trial_3/train.prototxt
I0528 03:55:34.055543  3284 net.cpp:58] Initializing net from parameters: 
state {
  phase: TRAIN
  level: 0
  stage: ""
}
layer {
  name: "data"
  type: "Data"
  top: "data"
  top: "label"
  include {
    phase: TRAIN
  }
  transform_param {
    scale: 0.0039215689
    mirror: false
    crop_size: 48
    mean_value: 133
    mean_value: 127
    mean_value: 126
  }
  data_param {
    source: "../local_data/lmdb/RTSD/AHE/train/lmdb"
    batch_size: 1024
    backend: LMDB
  }
}
layer {
  name: "conv1"
  type: "Convolution"
  bottom: "data"
  top: "conv1"
  convolution_param {
    num_output: 100
    pad: 0
    kernel_size: 7
    group: 1
    stride: 1
    weight_filler {
      type: "xavier"
    }
  }
}
layer {
  name: "conv1_relu"
  type: "ReLU"
  bottom: "conv1"
  top: "conv1"
}
layer {
  name: "pool1"
  type: "Pooling"
  bottom: "conv1"
  top: "pool1"
  pooling_param {
    pool: MAX
    kernel_size: 2
    stride: 2
  }
}
layer {
  name: "conv2"
  type: "Convolution"
  bottom: "pool1"
  top: "conv2"
  convolution_param {
    num_output: 150
    pad: 0
    kernel_size: 4
    group: 1
    stride: 1
    weight_filler {
      type: "xavier"
    }
  }
}
layer {
  name: "conv2_relu"
  type: "ReLU"
  bottom: "conv2"
  top: "conv2"
}
layer {
  name: "pool2"
  type: "Pooling"
  bottom: "conv2"
  top: "pool2"
  pooling_param {
    pool: MAX
    kernel_size: 2
    stride: 2
  }
}
layer {
  name: "conv3"
  type: "Convolution"
  bottom: "pool2"
  top: "conv3"
  convolution_param {
    num_output: 250
    pad: 0
    kernel_size: 4
    group: 1
    stride: 1
    weight_filler {
      type: "xavier"
    }
  }
}
layer {
  name: "conv3_relu"
  type: "ReLU"
  bottom: "conv3"
  top: "conv3"
}
layer {
  name: "pool3"
  type: "Pooling"
  bottom: "conv3"
  top: "pool3"
  pooling_param {
    pool: MAX
    kernel_size: 2
    stride: 2
  }
}
layer {
  name: "fc4_300"
  type: "InnerProduct"
  bottom: "pool3"
  top: "fc4_300"
  inner_product_param {
    num_output: 300
    weight_filler {
      type: "xavier"
    }
  }
}
layer {
  name: "fc4_relu"
  type: "ReLU"
  bottom: "fc4_300"
  top: "fc4_300"
}
layer {
  name: "fc5_116"
  type: "InnerProduct"
  bottom: "fc4_300"
  top: "fc5_classes"
  inner_product_param {
    num_output: 116
    weight_filler {
      type: "xavier"
    }
  }
}
layer {
  name: "softmax"
  type: "Softmax"
  bottom: "fc5_classes"
  top: "softmax"
}
layer {
  name: "loss"
  type: "MultinomialLogisticLoss"
  bottom: "softmax"
  bottom: "label"
  top: "loss"
}
layer {
  name: "accuracy_1"
  type: "Accuracy"
  bottom: "fc5_classes"
  bottom: "label"
  top: "accuracy_1"
  accuracy_param {
    top_k: 1
  }
}
layer {
  name: "accuracy_5"
  type: "Accuracy"
  bottom: "fc5_classes"
  bottom: "label"
  top: "accuracy_5"
  accuracy_param {
    top_k: 5
  }
}
layer {
  name: "silence"
  type: "Silence"
  bottom: "accuracy_1"
  bottom: "accuracy_5"
}
I0528 03:55:34.055630  3284 layer_factory.hpp:77] Creating layer data
I0528 03:55:34.056381  3284 net.cpp:100] Creating Layer data
I0528 03:55:34.056396  3284 net.cpp:408] data -> data
I0528 03:55:34.056427  3284 net.cpp:408] data -> label
I0528 03:55:34.057582  3343 db_lmdb.cpp:35] Opened lmdb ../local_data/lmdb/RTSD/AHE/train/lmdb
I0528 03:55:34.077476  3284 data_layer.cpp:41] output data size: 1024,3,48,48
I0528 03:55:34.138082  3284 net.cpp:150] Setting up data
I0528 03:55:34.138134  3284 net.cpp:157] Top shape: 1024 3 48 48 (7077888)
I0528 03:55:34.138140  3284 net.cpp:157] Top shape: 1024 (1024)
I0528 03:55:34.138144  3284 net.cpp:165] Memory required for data: 28315648
I0528 03:55:34.138154  3284 layer_factory.hpp:77] Creating layer label_data_1_split
I0528 03:55:34.138172  3284 net.cpp:100] Creating Layer label_data_1_split
I0528 03:55:34.138178  3284 net.cpp:434] label_data_1_split <- label
I0528 03:55:34.138198  3284 net.cpp:408] label_data_1_split -> label_data_1_split_0
I0528 03:55:34.138216  3284 net.cpp:408] label_data_1_split -> label_data_1_split_1
I0528 03:55:34.138221  3284 net.cpp:408] label_data_1_split -> label_data_1_split_2
I0528 03:55:34.138269  3284 net.cpp:150] Setting up label_data_1_split
I0528 03:55:34.138279  3284 net.cpp:157] Top shape: 1024 (1024)
I0528 03:55:34.138283  3284 net.cpp:157] Top shape: 1024 (1024)
I0528 03:55:34.138288  3284 net.cpp:157] Top shape: 1024 (1024)
I0528 03:55:34.138290  3284 net.cpp:165] Memory required for data: 28327936
I0528 03:55:34.138294  3284 layer_factory.hpp:77] Creating layer conv1
I0528 03:55:34.138309  3284 net.cpp:100] Creating Layer conv1
I0528 03:55:34.138322  3284 net.cpp:434] conv1 <- data
I0528 03:55:34.138329  3284 net.cpp:408] conv1 -> conv1
I0528 03:55:35.422349  3284 net.cpp:150] Setting up conv1
I0528 03:55:35.422380  3284 net.cpp:157] Top shape: 1024 100 42 42 (180633600)
I0528 03:55:35.422386  3284 net.cpp:165] Memory required for data: 750862336
I0528 03:55:35.422401  3284 layer_factory.hpp:77] Creating layer conv1_relu
I0528 03:55:35.422412  3284 net.cpp:100] Creating Layer conv1_relu
I0528 03:55:35.422417  3284 net.cpp:434] conv1_relu <- conv1
I0528 03:55:35.422425  3284 net.cpp:395] conv1_relu -> conv1 (in-place)
I0528 03:55:35.422575  3284 net.cpp:150] Setting up conv1_relu
I0528 03:55:35.422590  3284 net.cpp:157] Top shape: 1024 100 42 42 (180633600)
I0528 03:55:35.422595  3284 net.cpp:165] Memory required for data: 1473396736
I0528 03:55:35.422600  3284 layer_factory.hpp:77] Creating layer pool1
I0528 03:55:35.422610  3284 net.cpp:100] Creating Layer pool1
I0528 03:55:35.422621  3284 net.cpp:434] pool1 <- conv1
I0528 03:55:35.422627  3284 net.cpp:408] pool1 -> pool1
I0528 03:55:35.422668  3284 net.cpp:150] Setting up pool1
I0528 03:55:35.422678  3284 net.cpp:157] Top shape: 1024 100 21 21 (45158400)
I0528 03:55:35.422683  3284 net.cpp:165] Memory required for data: 1654030336
I0528 03:55:35.422686  3284 layer_factory.hpp:77] Creating layer conv2
I0528 03:55:35.422698  3284 net.cpp:100] Creating Layer conv2
I0528 03:55:35.422703  3284 net.cpp:434] conv2 <- pool1
I0528 03:55:35.422710  3284 net.cpp:408] conv2 -> conv2
I0528 03:55:35.426592  3284 net.cpp:150] Setting up conv2
I0528 03:55:35.426609  3284 net.cpp:157] Top shape: 1024 150 18 18 (49766400)
I0528 03:55:35.426615  3284 net.cpp:165] Memory required for data: 1853095936
I0528 03:55:35.426631  3284 layer_factory.hpp:77] Creating layer conv2_relu
I0528 03:55:35.426640  3284 net.cpp:100] Creating Layer conv2_relu
I0528 03:55:35.426647  3284 net.cpp:434] conv2_relu <- conv2
I0528 03:55:35.426656  3284 net.cpp:395] conv2_relu -> conv2 (in-place)
I0528 03:55:35.426797  3284 net.cpp:150] Setting up conv2_relu
I0528 03:55:35.426815  3284 net.cpp:157] Top shape: 1024 150 18 18 (49766400)
I0528 03:55:35.426825  3284 net.cpp:165] Memory required for data: 2052161536
I0528 03:55:35.426832  3284 layer_factory.hpp:77] Creating layer pool2
I0528 03:55:35.426844  3284 net.cpp:100] Creating Layer pool2
I0528 03:55:35.426851  3284 net.cpp:434] pool2 <- conv2
I0528 03:55:35.426859  3284 net.cpp:408] pool2 -> pool2
I0528 03:55:35.426903  3284 net.cpp:150] Setting up pool2
I0528 03:55:35.426915  3284 net.cpp:157] Top shape: 1024 150 9 9 (12441600)
I0528 03:55:35.426920  3284 net.cpp:165] Memory required for data: 2101927936
I0528 03:55:35.426928  3284 layer_factory.hpp:77] Creating layer conv3
I0528 03:55:35.426944  3284 net.cpp:100] Creating Layer conv3
I0528 03:55:35.426955  3284 net.cpp:434] conv3 <- pool2
I0528 03:55:35.426964  3284 net.cpp:408] conv3 -> conv3
I0528 03:55:35.438750  3284 net.cpp:150] Setting up conv3
I0528 03:55:35.438820  3284 net.cpp:157] Top shape: 1024 250 6 6 (9216000)
I0528 03:55:35.438853  3284 net.cpp:165] Memory required for data: 2138791936
I0528 03:55:35.438900  3284 layer_factory.hpp:77] Creating layer conv3_relu
I0528 03:55:35.438927  3284 net.cpp:100] Creating Layer conv3_relu
I0528 03:55:35.438941  3284 net.cpp:434] conv3_relu <- conv3
I0528 03:55:35.438966  3284 net.cpp:395] conv3_relu -> conv3 (in-place)
I0528 03:55:35.439445  3284 net.cpp:150] Setting up conv3_relu
I0528 03:55:35.439460  3284 net.cpp:157] Top shape: 1024 250 6 6 (9216000)
I0528 03:55:35.439465  3284 net.cpp:165] Memory required for data: 2175655936
I0528 03:55:35.439471  3284 layer_factory.hpp:77] Creating layer pool3
I0528 03:55:35.439491  3284 net.cpp:100] Creating Layer pool3
I0528 03:55:35.439498  3284 net.cpp:434] pool3 <- conv3
I0528 03:55:35.439507  3284 net.cpp:408] pool3 -> pool3
I0528 03:55:35.439556  3284 net.cpp:150] Setting up pool3
I0528 03:55:35.439566  3284 net.cpp:157] Top shape: 1024 250 3 3 (2304000)
I0528 03:55:35.439573  3284 net.cpp:165] Memory required for data: 2184871936
I0528 03:55:35.439579  3284 layer_factory.hpp:77] Creating layer fc4_300
I0528 03:55:35.439596  3284 net.cpp:100] Creating Layer fc4_300
I0528 03:55:35.439607  3284 net.cpp:434] fc4_300 <- pool3
I0528 03:55:35.439625  3284 net.cpp:408] fc4_300 -> fc4_300
I0528 03:55:35.444484  3284 net.cpp:150] Setting up fc4_300
I0528 03:55:35.444525  3284 net.cpp:157] Top shape: 1024 300 (307200)
I0528 03:55:35.444530  3284 net.cpp:165] Memory required for data: 2186100736
I0528 03:55:35.444547  3284 layer_factory.hpp:77] Creating layer fc4_relu
I0528 03:55:35.444566  3284 net.cpp:100] Creating Layer fc4_relu
I0528 03:55:35.444573  3284 net.cpp:434] fc4_relu <- fc4_300
I0528 03:55:35.444591  3284 net.cpp:395] fc4_relu -> fc4_300 (in-place)
I0528 03:55:35.444802  3284 net.cpp:150] Setting up fc4_relu
I0528 03:55:35.444813  3284 net.cpp:157] Top shape: 1024 300 (307200)
I0528 03:55:35.444819  3284 net.cpp:165] Memory required for data: 2187329536
I0528 03:55:35.444825  3284 layer_factory.hpp:77] Creating layer fc5_116
I0528 03:55:35.444836  3284 net.cpp:100] Creating Layer fc5_116
I0528 03:55:35.444842  3284 net.cpp:434] fc5_116 <- fc4_300
I0528 03:55:35.444854  3284 net.cpp:408] fc5_116 -> fc5_classes
I0528 03:55:35.445875  3284 net.cpp:150] Setting up fc5_116
I0528 03:55:35.445904  3284 net.cpp:157] Top shape: 1024 116 (118784)
I0528 03:55:35.445909  3284 net.cpp:165] Memory required for data: 2187804672
I0528 03:55:35.445924  3284 layer_factory.hpp:77] Creating layer fc5_classes_fc5_116_0_split
I0528 03:55:35.445941  3284 net.cpp:100] Creating Layer fc5_classes_fc5_116_0_split
I0528 03:55:35.445953  3284 net.cpp:434] fc5_classes_fc5_116_0_split <- fc5_classes
I0528 03:55:35.445972  3284 net.cpp:408] fc5_classes_fc5_116_0_split -> fc5_classes_fc5_116_0_split_0
I0528 03:55:35.445992  3284 net.cpp:408] fc5_classes_fc5_116_0_split -> fc5_classes_fc5_116_0_split_1
I0528 03:55:35.446004  3284 net.cpp:408] fc5_classes_fc5_116_0_split -> fc5_classes_fc5_116_0_split_2
I0528 03:55:35.446063  3284 net.cpp:150] Setting up fc5_classes_fc5_116_0_split
I0528 03:55:35.446074  3284 net.cpp:157] Top shape: 1024 116 (118784)
I0528 03:55:35.446080  3284 net.cpp:157] Top shape: 1024 116 (118784)
I0528 03:55:35.446087  3284 net.cpp:157] Top shape: 1024 116 (118784)
I0528 03:55:35.446094  3284 net.cpp:165] Memory required for data: 2189230080
I0528 03:55:35.446099  3284 layer_factory.hpp:77] Creating layer softmax
I0528 03:55:35.446115  3284 net.cpp:100] Creating Layer softmax
I0528 03:55:35.446121  3284 net.cpp:434] softmax <- fc5_classes_fc5_116_0_split_0
I0528 03:55:35.446130  3284 net.cpp:408] softmax -> softmax
I0528 03:55:35.446328  3284 net.cpp:150] Setting up softmax
I0528 03:55:35.446351  3284 net.cpp:157] Top shape: 1024 116 (118784)
I0528 03:55:35.446357  3284 net.cpp:165] Memory required for data: 2189705216
I0528 03:55:35.446362  3284 layer_factory.hpp:77] Creating layer loss
I0528 03:55:35.446383  3284 net.cpp:100] Creating Layer loss
I0528 03:55:35.446413  3284 net.cpp:434] loss <- softmax
I0528 03:55:35.446421  3284 net.cpp:434] loss <- label_data_1_split_0
I0528 03:55:35.446439  3284 net.cpp:408] loss -> loss
…
