…
I0414 10:43:11.517876 14963 solver.cpp:93] Creating training net from train_net file: ./Prototxt/experiment_11/rtsd-r3/orig/trial_3/train.prototxt
I0414 10:43:11.518362 14963 net.cpp:58] Initializing net from parameters: 
state {
  phase: TRAIN
  level: 0
  stage: ""
}
layer {
  name: "data"
  type: "Data"
  top: "data"
  top: "label"
  include {
    phase: TRAIN
  }
  transform_param {
    scale: 0.0039215689
    mirror: false
    crop_size: 48
    mean_value: 120
    mean_value: 113
    mean_value: 112
  }
  data_param {
    source: "../local_data/lmdb/rtsd-r3/orig/train/lmdb"
    batch_size: 1024
    backend: LMDB
  }
}
layer {
  name: "conv1"
  type: "Convolution"
  bottom: "data"
  top: "conv1"
  convolution_param {
    num_output: 100
    pad: 0
    kernel_size: 7
    group: 1
    stride: 1
    weight_filler {
      type: "xavier"
    }
  }
}
layer {
  name: "conv1_prescale"
  type: "Scale"
  bottom: "conv1"
  top: "conv1"
  param {
    lr_mult: 0
    decay_mult: 0
  }
  scale_param {
    filler {
      value: 0.6666
    }
    bias_term: false
  }
}
layer {
  name: "conv1_sTanH"
  type: "TanH"
  bottom: "conv1"
  top: "conv1"
}
layer {
  name: "conv1_postscale"
  type: "Scale"
  bottom: "conv1"
  top: "conv1"
  param {
    lr_mult: 0
    decay_mult: 0
  }
  scale_param {
    filler {
      value: 1.7159
    }
    bias_term: false
  }
}
layer {
  name: "pool1"
  type: "Pooling"
  bottom: "conv1"
  top: "pool1"
  pooling_param {
    pool: MAX
    kernel_size: 2
    stride: 2
  }
}
layer {
  name: "conv2"
  type: "Convolution"
  bottom: "pool1"
  top: "conv2"
  convolution_param {
    num_output: 150
    pad: 0
    kernel_size: 4
    group: 1
    stride: 1
    weight_filler {
      type: "xavier"
    }
  }
}
layer {
  name: "conv2_prescale"
  type: "Scale"
  bottom: "conv2"
  top: "conv2"
  param {
    lr_mult: 0
    decay_mult: 0
  }
  scale_param {
    filler {
      value: 0.6666
    }
    bias_term: false
  }
}
layer {
  name: "conv2_sTanH"
  type: "TanH"
  bottom: "conv2"
  top: "conv2"
}
layer {
  name: "conv2_postscale"
  type: "Scale"
  bottom: "conv2"
  top: "conv2"
  param {
    lr_mult: 0
    decay_mult: 0
  }
  scale_param {
    filler {
      value: 1.7159
    }
    bias_term: false
  }
}
layer {
  name: "pool2"
  type: "Pooling"
  bottom: "conv2"
  top: "pool2"
  pooling_param {
    pool: MAX
    kernel_size: 2
    stride: 2
  }
}
layer {
  name: "conv3"
  type: "Convolution"
  bottom: "pool2"
  top: "conv3"
  convolution_param {
    num_output: 250
    pad: 0
    kernel_size: 4
    group: 1
    stride: 1
    weight_filler {
      type: "xavier"
    }
  }
}
layer {
  name: "conv3_prescale"
  type: "Scale"
  bottom: "conv3"
  top: "conv3"
  param {
    lr_mult: 0
    decay_mult: 0
  }
  scale_param {
    filler {
      value: 0.6666
    }
    bias_term: false
  }
}
layer {
  name: "conv3_sTanH"
  type: "TanH"
  bottom: "conv3"
  top: "conv3"
}
layer {
  name: "conv3_postscale"
  type: "Scale"
  bottom: "conv3"
  top: "conv3"
  param {
    lr_mult: 0
    decay_mult: 0
  }
  scale_param {
    filler {
      value: 1.7159
    }
    bias_term: false
  }
}
layer {
  name: "pool3"
  type: "Pooling"
  bottom: "conv3"
  top: "pool3"
  pooling_param {
    pool: MAX
    kernel_size: 2
    stride: 2
  }
}
layer {
  name: "fc4_300"
  type: "InnerProduct"
  bottom: "pool3"
  top: "fc4_300"
  inner_product_param {
    num_output: 300
    weight_filler {
      type: "xavier"
    }
  }
}
layer {
  name: "fc4_prescale"
  type: "Scale"
  bottom: "fc4_300"
  top: "fc4_300"
  param {
    lr_mult: 0
    decay_mult: 0
  }
  scale_param {
    filler {
      value: 0.6666
    }
    bias_term: false
  }
}
layer {
  name: "fc4_sTanH"
  type: "TanH"
  bottom: "fc4_300"
  top: "fc4_300"
}
layer {
  name: "fc4_postscale"
  type: "Scale"
  bottom: "fc4_300"
  top: "fc4_300"
  param {
    lr_mult: 0
    decay_mult: 0
  }
  scale_param {
    filler {
      value: 1.7159
    }
    bias_term: false
  }
}
layer {
  name: "fc5_106"
  type: "InnerProduct"
  bottom: "fc4_300"
  top: "fc5_classes"
  inner_product_param {
    num_output: 106
    weight_filler {
      type: "xavier"
    }
  }
}
layer {
  name: "softmax"
  type: "Softmax"
  bottom: "fc5_classes"
  top: "softmax"
}
layer {
  name: "loss"
  type: "MultinomialLogisticLoss"
  bottom: "softmax"
  bottom: "label"
  top: "loss"
}
layer {
  name: "accuracy_1"
  type: "Accuracy"
  bottom: "fc5_classes"
  bottom: "label"
  top: "accuracy_1"
  accuracy_param {
    top_k: 1
  }
}
layer {
  name: "accuracy_5"
  type: "Accuracy"
  bottom: "fc5_classes"
  bottom: "label"
  top: "accuracy_5"
  accuracy_param {
    top_k: 5
  }
}
layer {
  name: "silence"
  type: "Silence"
  bottom: "accuracy_1"
  bottom: "accuracy_5"
}
I0414 10:43:11.518522 14963 layer_factory.hpp:77] Creating layer data
I0414 10:43:11.519624 14963 net.cpp:100] Creating Layer data
I0414 10:43:11.519640 14963 net.cpp:408] data -> data
I0414 10:43:11.519665 14963 net.cpp:408] data -> label
I0414 10:43:11.554544 15087 db_lmdb.cpp:35] Opened lmdb ../local_data/lmdb/rtsd-r3/orig/train/lmdb
I0414 10:43:11.572456 14963 data_layer.cpp:41] output data size: 1024,3,48,48
I0414 10:43:11.617591 14963 net.cpp:150] Setting up data
I0414 10:43:11.617624 14963 net.cpp:157] Top shape: 1024 3 48 48 (7077888)
I0414 10:43:11.617629 14963 net.cpp:157] Top shape: 1024 (1024)
I0414 10:43:11.617631 14963 net.cpp:165] Memory required for data: 28315648
I0414 10:43:11.617642 14963 layer_factory.hpp:77] Creating layer label_data_1_split
I0414 10:43:11.617655 14963 net.cpp:100] Creating Layer label_data_1_split
I0414 10:43:11.617661 14963 net.cpp:434] label_data_1_split <- label
I0414 10:43:11.617677 14963 net.cpp:408] label_data_1_split -> label_data_1_split_0
I0414 10:43:11.617691 14963 net.cpp:408] label_data_1_split -> label_data_1_split_1
I0414 10:43:11.617699 14963 net.cpp:408] label_data_1_split -> label_data_1_split_2
I0414 10:43:11.617784 14963 net.cpp:150] Setting up label_data_1_split
I0414 10:43:11.617794 14963 net.cpp:157] Top shape: 1024 (1024)
I0414 10:43:11.617797 14963 net.cpp:157] Top shape: 1024 (1024)
I0414 10:43:11.617800 14963 net.cpp:157] Top shape: 1024 (1024)
I0414 10:43:11.617804 14963 net.cpp:165] Memory required for data: 28327936
I0414 10:43:11.617806 14963 layer_factory.hpp:77] Creating layer conv1
I0414 10:43:11.617823 14963 net.cpp:100] Creating Layer conv1
I0414 10:43:11.617828 14963 net.cpp:434] conv1 <- data
I0414 10:43:11.617835 14963 net.cpp:408] conv1 -> conv1
I0414 10:43:11.962296 14963 net.cpp:150] Setting up conv1
I0414 10:43:11.962324 14963 net.cpp:157] Top shape: 1024 100 42 42 (180633600)
I0414 10:43:11.962327 14963 net.cpp:165] Memory required for data: 750862336
I0414 10:43:11.962349 14963 layer_factory.hpp:77] Creating layer conv1_prescale
I0414 10:43:11.962363 14963 net.cpp:100] Creating Layer conv1_prescale
I0414 10:43:11.962379 14963 net.cpp:434] conv1_prescale <- conv1
I0414 10:43:11.962386 14963 net.cpp:395] conv1_prescale -> conv1 (in-place)
I0414 10:43:11.962502 14963 net.cpp:150] Setting up conv1_prescale
I0414 10:43:11.962510 14963 net.cpp:157] Top shape: 1024 100 42 42 (180633600)
I0414 10:43:11.962514 14963 net.cpp:165] Memory required for data: 1473396736
I0414 10:43:11.962522 14963 layer_factory.hpp:77] Creating layer conv1_sTanH
I0414 10:43:11.962530 14963 net.cpp:100] Creating Layer conv1_sTanH
I0414 10:43:11.962534 14963 net.cpp:434] conv1_sTanH <- conv1
I0414 10:43:11.962539 14963 net.cpp:395] conv1_sTanH -> conv1 (in-place)
I0414 10:43:11.962734 14963 net.cpp:150] Setting up conv1_sTanH
I0414 10:43:11.962746 14963 net.cpp:157] Top shape: 1024 100 42 42 (180633600)
I0414 10:43:11.962769 14963 net.cpp:165] Memory required for data: 2195931136
I0414 10:43:11.962772 14963 layer_factory.hpp:77] Creating layer conv1_postscale
I0414 10:43:11.962779 14963 net.cpp:100] Creating Layer conv1_postscale
I0414 10:43:11.962785 14963 net.cpp:434] conv1_postscale <- conv1
I0414 10:43:11.962790 14963 net.cpp:395] conv1_postscale -> conv1 (in-place)
I0414 10:43:11.962887 14963 net.cpp:150] Setting up conv1_postscale
I0414 10:43:11.962895 14963 net.cpp:157] Top shape: 1024 100 42 42 (180633600)
I0414 10:43:11.962899 14963 net.cpp:165] Memory required for data: 2918465536
I0414 10:43:11.962904 14963 layer_factory.hpp:77] Creating layer pool1
I0414 10:43:11.962911 14963 net.cpp:100] Creating Layer pool1
I0414 10:43:11.962915 14963 net.cpp:434] pool1 <- conv1
I0414 10:43:11.962920 14963 net.cpp:408] pool1 -> pool1
I0414 10:43:11.962967 14963 net.cpp:150] Setting up pool1
I0414 10:43:11.962975 14963 net.cpp:157] Top shape: 1024 100 21 21 (45158400)
I0414 10:43:11.962980 14963 net.cpp:165] Memory required for data: 3099099136
I0414 10:43:11.962982 14963 layer_factory.hpp:77] Creating layer conv2
I0414 10:43:11.962992 14963 net.cpp:100] Creating Layer conv2
I0414 10:43:11.962996 14963 net.cpp:434] conv2 <- pool1
I0414 10:43:11.963001 14963 net.cpp:408] conv2 -> conv2
I0414 10:43:11.979818 14963 net.cpp:150] Setting up conv2
I0414 10:43:11.979837 14963 net.cpp:157] Top shape: 1024 150 18 18 (49766400)
I0414 10:43:11.979840 14963 net.cpp:165] Memory required for data: 3298164736
I0414 10:43:11.979851 14963 layer_factory.hpp:77] Creating layer conv2_prescale
I0414 10:43:11.979862 14963 net.cpp:100] Creating Layer conv2_prescale
I0414 10:43:11.979868 14963 net.cpp:434] conv2_prescale <- conv2
I0414 10:43:11.979873 14963 net.cpp:395] conv2_prescale -> conv2 (in-place)
I0414 10:43:11.979991 14963 net.cpp:150] Setting up conv2_prescale
I0414 10:43:11.980001 14963 net.cpp:157] Top shape: 1024 150 18 18 (49766400)
I0414 10:43:11.980005 14963 net.cpp:165] Memory required for data: 3497230336
I0414 10:43:11.980010 14963 layer_factory.hpp:77] Creating layer conv2_sTanH
I0414 10:43:11.980016 14963 net.cpp:100] Creating Layer conv2_sTanH
I0414 10:43:11.980020 14963 net.cpp:434] conv2_sTanH <- conv2
I0414 10:43:11.980023 14963 net.cpp:395] conv2_sTanH -> conv2 (in-place)
I0414 10:43:11.981633 14963 net.cpp:150] Setting up conv2_sTanH
I0414 10:43:11.981652 14963 net.cpp:157] Top shape: 1024 150 18 18 (49766400)
I0414 10:43:11.981657 14963 net.cpp:165] Memory required for data: 3696295936
I0414 10:43:11.981662 14963 layer_factory.hpp:77] Creating layer conv2_postscale
I0414 10:43:11.981670 14963 net.cpp:100] Creating Layer conv2_postscale
I0414 10:43:11.981675 14963 net.cpp:434] conv2_postscale <- conv2
I0414 10:43:11.981681 14963 net.cpp:395] conv2_postscale -> conv2 (in-place)
I0414 10:43:11.981778 14963 net.cpp:150] Setting up conv2_postscale
I0414 10:43:11.981787 14963 net.cpp:157] Top shape: 1024 150 18 18 (49766400)
I0414 10:43:11.981789 14963 net.cpp:165] Memory required for data: 3895361536
I0414 10:43:11.981796 14963 layer_factory.hpp:77] Creating layer pool2
I0414 10:43:11.981802 14963 net.cpp:100] Creating Layer pool2
I0414 10:43:11.981807 14963 net.cpp:434] pool2 <- conv2
I0414 10:43:11.981812 14963 net.cpp:408] pool2 -> pool2
I0414 10:43:11.981853 14963 net.cpp:150] Setting up pool2
I0414 10:43:11.981860 14963 net.cpp:157] Top shape: 1024 150 9 9 (12441600)
I0414 10:43:11.981863 14963 net.cpp:165] Memory required for data: 3945127936
I0414 10:43:11.981866 14963 layer_factory.hpp:77] Creating layer conv3
I0414 10:43:11.981875 14963 net.cpp:100] Creating Layer conv3
I0414 10:43:11.981879 14963 net.cpp:434] conv3 <- pool2
I0414 10:43:11.981884 14963 net.cpp:408] conv3 -> conv3
I0414 10:43:11.987874 14963 net.cpp:150] Setting up conv3
I0414 10:43:11.987900 14963 net.cpp:157] Top shape: 1024 250 6 6 (9216000)
I0414 10:43:11.987902 14963 net.cpp:165] Memory required for data: 3981991936
I0414 10:43:11.987913 14963 layer_factory.hpp:77] Creating layer conv3_prescale
I0414 10:43:11.987937 14963 net.cpp:100] Creating Layer conv3_prescale
I0414 10:43:11.987941 14963 net.cpp:434] conv3_prescale <- conv3
I0414 10:43:11.987947 14963 net.cpp:395] conv3_prescale -> conv3 (in-place)
I0414 10:43:11.988042 14963 net.cpp:150] Setting up conv3_prescale
I0414 10:43:11.988051 14963 net.cpp:157] Top shape: 1024 250 6 6 (9216000)
I0414 10:43:11.988054 14963 net.cpp:165] Memory required for data: 4018855936
I0414 10:43:11.988059 14963 layer_factory.hpp:77] Creating layer conv3_sTanH
I0414 10:43:11.988066 14963 net.cpp:100] Creating Layer conv3_sTanH
I0414 10:43:11.988070 14963 net.cpp:434] conv3_sTanH <- conv3
I0414 10:43:11.988073 14963 net.cpp:395] conv3_sTanH -> conv3 (in-place)
I0414 10:43:11.990136 14963 net.cpp:150] Setting up conv3_sTanH
I0414 10:43:11.990155 14963 net.cpp:157] Top shape: 1024 250 6 6 (9216000)
I0414 10:43:11.990159 14963 net.cpp:165] Memory required for data: 4055719936
I0414 10:43:11.990164 14963 layer_factory.hpp:77] Creating layer conv3_postscale
I0414 10:43:11.990171 14963 net.cpp:100] Creating Layer conv3_postscale
I0414 10:43:11.990176 14963 net.cpp:434] conv3_postscale <- conv3
I0414 10:43:11.990182 14963 net.cpp:395] conv3_postscale -> conv3 (in-place)
I0414 10:43:11.990283 14963 net.cpp:150] Setting up conv3_postscale
I0414 10:43:11.990293 14963 net.cpp:157] Top shape: 1024 250 6 6 (9216000)
I0414 10:43:11.990295 14963 net.cpp:165] Memory required for data: 4092583936
I0414 10:43:11.990300 14963 layer_factory.hpp:77] Creating layer pool3
I0414 10:43:11.990309 14963 net.cpp:100] Creating Layer pool3
I0414 10:43:11.990312 14963 net.cpp:434] pool3 <- conv3
I0414 10:43:11.990317 14963 net.cpp:408] pool3 -> pool3
I0414 10:43:11.990356 14963 net.cpp:150] Setting up pool3
I0414 10:43:11.990363 14963 net.cpp:157] Top shape: 1024 250 3 3 (2304000)
I0414 10:43:11.990366 14963 net.cpp:165] Memory required for data: 4101799936
I0414 10:43:11.990370 14963 layer_factory.hpp:77] Creating layer fc4_300
I0414 10:43:11.990376 14963 net.cpp:100] Creating Layer fc4_300
I0414 10:43:11.990381 14963 net.cpp:434] fc4_300 <- pool3
I0414 10:43:11.990386 14963 net.cpp:408] fc4_300 -> fc4_300
I0414 10:43:11.996114 14963 net.cpp:150] Setting up fc4_300
I0414 10:43:11.996129 14963 net.cpp:157] Top shape: 1024 300 (307200)
I0414 10:43:11.996134 14963 net.cpp:165] Memory required for data: 4103028736
I0414 10:43:11.996140 14963 layer_factory.hpp:77] Creating layer fc4_prescale
I0414 10:43:11.996150 14963 net.cpp:100] Creating Layer fc4_prescale
I0414 10:43:11.996155 14963 net.cpp:434] fc4_prescale <- fc4_300
I0414 10:43:11.996161 14963 net.cpp:395] fc4_prescale -> fc4_300 (in-place)
I0414 10:43:11.996249 14963 net.cpp:150] Setting up fc4_prescale
I0414 10:43:11.996258 14963 net.cpp:157] Top shape: 1024 300 (307200)
I0414 10:43:11.996260 14963 net.cpp:165] Memory required for data: 4104257536
I0414 10:43:11.996264 14963 layer_factory.hpp:77] Creating layer fc4_sTanH
I0414 10:43:11.996270 14963 net.cpp:100] Creating Layer fc4_sTanH
I0414 10:43:11.996274 14963 net.cpp:434] fc4_sTanH <- fc4_300
I0414 10:43:11.996279 14963 net.cpp:395] fc4_sTanH -> fc4_300 (in-place)
I0414 10:43:11.996462 14963 net.cpp:150] Setting up fc4_sTanH
I0414 10:43:11.996474 14963 net.cpp:157] Top shape: 1024 300 (307200)
I0414 10:43:11.996479 14963 net.cpp:165] Memory required for data: 4105486336
I0414 10:43:11.996482 14963 layer_factory.hpp:77] Creating layer fc4_postscale
I0414 10:43:11.996489 14963 net.cpp:100] Creating Layer fc4_postscale
I0414 10:43:11.996493 14963 net.cpp:434] fc4_postscale <- fc4_300
I0414 10:43:11.996498 14963 net.cpp:395] fc4_postscale -> fc4_300 (in-place)
I0414 10:43:11.996592 14963 net.cpp:150] Setting up fc4_postscale
I0414 10:43:11.996600 14963 net.cpp:157] Top shape: 1024 300 (307200)
I0414 10:43:11.996603 14963 net.cpp:165] Memory required for data: 4106715136
I0414 10:43:11.996608 14963 layer_factory.hpp:77] Creating layer fc5_106
I0414 10:43:11.996615 14963 net.cpp:100] Creating Layer fc5_106
I0414 10:43:11.996619 14963 net.cpp:434] fc5_106 <- fc4_300
I0414 10:43:11.996624 14963 net.cpp:408] fc5_106 -> fc5_classes
I0414 10:43:12.017433 14963 net.cpp:150] Setting up fc5_106
I0414 10:43:12.017452 14963 net.cpp:157] Top shape: 1024 106 (108544)
I0414 10:43:12.017457 14963 net.cpp:165] Memory required for data: 4107149312
I0414 10:43:12.017467 14963 layer_factory.hpp:77] Creating layer fc5_classes_fc5_106_0_split
I0414 10:43:12.017477 14963 net.cpp:100] Creating Layer fc5_classes_fc5_106_0_split
I0414 10:43:12.017482 14963 net.cpp:434] fc5_classes_fc5_106_0_split <- fc5_classes
I0414 10:43:12.017488 14963 net.cpp:408] fc5_classes_fc5_106_0_split -> fc5_classes_fc5_106_0_split_0
I0414 10:43:12.017495 14963 net.cpp:408] fc5_classes_fc5_106_0_split -> fc5_classes_fc5_106_0_split_1
I0414 10:43:12.017503 14963 net.cpp:408] fc5_classes_fc5_106_0_split -> fc5_classes_fc5_106_0_split_2
I0414 10:43:12.017556 14963 net.cpp:150] Setting up fc5_classes_fc5_106_0_split
I0414 10:43:12.017565 14963 net.cpp:157] Top shape: 1024 106 (108544)
I0414 10:43:12.017568 14963 net.cpp:157] Top shape: 1024 106 (108544)
I0414 10:43:12.017571 14963 net.cpp:157] Top shape: 1024 106 (108544)
I0414 10:43:12.017575 14963 net.cpp:165] Memory required for data: 4108451840
I0414 10:43:12.017577 14963 layer_factory.hpp:77] Creating layer softmax
I0414 10:43:12.017583 14963 net.cpp:100] Creating Layer softmax
I0414 10:43:12.017587 14963 net.cpp:434] softmax <- fc5_classes_fc5_106_0_split_0
I0414 10:43:12.017592 14963 net.cpp:408] softmax -> softmax
I0414 10:43:12.017848 14963 net.cpp:150] Setting up softmax
I0414 10:43:12.017859 14963 net.cpp:157] Top shape: 1024 106 (108544)
I0414 10:43:12.017864 14963 net.cpp:165] Memory required for data: 4108886016
I0414 10:43:12.017868 14963 layer_factory.hpp:77] Creating layer loss
I0414 10:43:12.017874 14963 net.cpp:100] Creating Layer loss
I0414 10:43:12.017879 14963 net.cpp:434] loss <- softmax
I0414 10:43:12.017884 14963 net.cpp:434] loss <- label_data_1_split_0
I0414 10:43:12.017889 14963 net.cpp:408] loss -> loss
…
