…
I0404 05:01:00.433957 16122 net.cpp:322] The NetState phase (0) differed from the phase (1) specified by a rule in layer accuracy_1
I0404 05:01:00.433977 16122 net.cpp:322] The NetState phase (0) differed from the phase (1) specified by a rule in layer accuracy_5
I0404 05:01:00.434212 16122 net.cpp:58] Initializing net from parameters: 
state {
  phase: TRAIN
  level: 0
  stage: ""
}
layer {
  name: "data"
  type: "Data"
  top: "data"
  top: "label"
  include {
    phase: TRAIN
  }
  transform_param {
    mirror: false
    crop_size: 48
  }
  data_param {
    source: "../local_data/lmdb/rtsd-r1/AHE/train/lmdb"
    batch_size: 1024
    backend: LMDB
  }
}
layer {
  name: "conv1"
  type: "Convolution"
  bottom: "data"
  top: "conv1"
  convolution_param {
    num_output: 100
    pad: 0
    kernel_size: 7
    group: 1
    stride: 1
    weight_filler {
      type: "xavier"
    }
  }
}
layer {
  name: "conv1_prescale"
  type: "Scale"
  bottom: "conv1"
  top: "conv1"
  param {
    lr_mult: 0
    decay_mult: 0
  }
  scale_param {
    filler {
      value: 0.6666
    }
  }
}
layer {
  name: "conv1_sTanH"
  type: "TanH"
  bottom: "conv1"
  top: "conv1"
}
layer {
  name: "conv1_postscale"
  type: "Scale"
  bottom: "conv1"
  top: "conv1"
  param {
    lr_mult: 0
    decay_mult: 0
  }
  scale_param {
    filler {
      value: 1.7159
    }
  }
}
layer {
  name: "pool1"
  type: "Pooling"
  bottom: "conv1"
  top: "pool1"
  pooling_param {
    pool: MAX
    kernel_size: 2
    stride: 2
  }
}
layer {
  name: "conv2"
  type: "Convolution"
  bottom: "pool1"
  top: "conv2"
  convolution_param {
    num_output: 150
    pad: 0
    kernel_size: 4
    group: 1
    stride: 1
    weight_filler {
      type: "xavier"
    }
  }
}
layer {
  name: "conv2_prescale"
  type: "Scale"
  bottom: "conv2"
  top: "conv2"
  param {
    lr_mult: 0
    decay_mult: 0
  }
  scale_param {
    filler {
      value: 0.6666
    }
  }
}
layer {
  name: "conv2_sTanH"
  type: "TanH"
  bottom: "conv2"
  top: "conv2"
}
layer {
  name: "conv2_postscale"
  type: "Scale"
  bottom: "conv2"
  top: "conv2"
  param {
    lr_mult: 0
    decay_mult: 0
  }
  scale_param {
    filler {
      value: 1.7159
    }
  }
}
layer {
  name: "pool2"
  type: "Pooling"
  bottom: "conv2"
  top: "pool2"
  pooling_param {
    pool: MAX
    kernel_size: 2
    stride: 2
  }
}
layer {
  name: "conv3"
  type: "Convolution"
  bottom: "pool2"
  top: "conv3"
  convolution_param {
    num_output: 250
    pad: 0
    kernel_size: 4
    group: 1
    stride: 1
    weight_filler {
      type: "xavier"
    }
  }
}
layer {
  name: "conv3_prescale"
  type: "Scale"
  bottom: "conv3"
  top: "conv3"
  param {
    lr_mult: 0
    decay_mult: 0
  }
  scale_param {
    filler {
      value: 0.6666
    }
  }
}
layer {
  name: "conv3_sTanH"
  type: "TanH"
  bottom: "conv3"
  top: "conv3"
}
layer {
  name: "conv3_postscale"
  type: "Scale"
  bottom: "conv3"
  top: "conv3"
  param {
    lr_mult: 0
    decay_mult: 0
  }
  scale_param {
    filler {
      value: 1.7159
    }
  }
}
layer {
  name: "pool3"
  type: "Pooling"
  bottom: "conv3"
  top: "pool3"
  pooling_param {
    pool: MAX
    kernel_size: 2
    stride: 2
  }
}
layer {
  name: "fc4_300"
  type: "InnerProduct"
  bottom: "pool3"
  top: "fc4_300"
  inner_product_param {
    num_output: 300
    weight_filler {
      type: "xavier"
    }
  }
}
layer {
  name: "fc4_relu"
  type: "ReLU"
  bottom: "fc4_300"
  top: "fc4_300"
}
layer {
  name: "drop4"
  type: "Dropout"
  bottom: "fc4_300"
  top: "fc4_300"
  dropout_param {
    dropout_ratio: 0.4
  }
}
layer {
  name: "fc5_67"
  type: "InnerProduct"
  bottom: "fc4_300"
  top: "fc5_classes"
  inner_product_param {
    num_output: 67
    weight_filler {
      type: "xavier"
    }
  }
}
layer {
  name: "loss"
  type: "SoftmaxWithLoss"
  bottom: "fc5_classes"
  bottom: "label"
  top: "loss"
}
I0404 05:01:00.434358 16122 layer_factory.hpp:77] Creating layer data
I0404 05:01:00.435992 16122 net.cpp:100] Creating Layer data
I0404 05:01:00.436012 16122 net.cpp:408] data -> data
I0404 05:01:00.436056 16122 net.cpp:408] data -> label
I0404 05:01:00.476013 16173 db_lmdb.cpp:35] Opened lmdb ../local_data/lmdb/rtsd-r1/AHE/train/lmdb
I0404 05:01:00.515607 16122 data_layer.cpp:41] output data size: 1024,3,48,48
I0404 05:01:00.557698 16122 net.cpp:150] Setting up data
I0404 05:01:00.557729 16122 net.cpp:157] Top shape: 1024 3 48 48 (7077888)
I0404 05:01:00.557734 16122 net.cpp:157] Top shape: 1024 (1024)
I0404 05:01:00.557737 16122 net.cpp:165] Memory required for data: 28315648
I0404 05:01:00.557746 16122 layer_factory.hpp:77] Creating layer conv1
I0404 05:01:00.557770 16122 net.cpp:100] Creating Layer conv1
I0404 05:01:00.557780 16122 net.cpp:434] conv1 <- data
I0404 05:01:00.557793 16122 net.cpp:408] conv1 -> conv1
I0404 05:01:00.565539 16189 blocking_queue.cpp:50] Waiting for data
I0404 05:01:00.800936 16122 net.cpp:150] Setting up conv1
I0404 05:01:00.800971 16122 net.cpp:157] Top shape: 1024 100 42 42 (180633600)
I0404 05:01:00.800976 16122 net.cpp:165] Memory required for data: 750850048
I0404 05:01:00.800997 16122 layer_factory.hpp:77] Creating layer conv1_prescale
I0404 05:01:00.801012 16122 net.cpp:100] Creating Layer conv1_prescale
I0404 05:01:00.801015 16122 net.cpp:434] conv1_prescale <- conv1
I0404 05:01:00.801021 16122 net.cpp:395] conv1_prescale -> conv1 (in-place)
I0404 05:01:00.801139 16122 net.cpp:150] Setting up conv1_prescale
I0404 05:01:00.801148 16122 net.cpp:157] Top shape: 1024 100 42 42 (180633600)
I0404 05:01:00.801152 16122 net.cpp:165] Memory required for data: 1473384448
I0404 05:01:00.801159 16122 layer_factory.hpp:77] Creating layer conv1_sTanH
I0404 05:01:00.801165 16122 net.cpp:100] Creating Layer conv1_sTanH
I0404 05:01:00.801168 16122 net.cpp:434] conv1_sTanH <- conv1
I0404 05:01:00.801177 16122 net.cpp:395] conv1_sTanH -> conv1 (in-place)
I0404 05:01:00.801373 16122 net.cpp:150] Setting up conv1_sTanH
I0404 05:01:00.801384 16122 net.cpp:157] Top shape: 1024 100 42 42 (180633600)
I0404 05:01:00.801388 16122 net.cpp:165] Memory required for data: 2195918848
I0404 05:01:00.801391 16122 layer_factory.hpp:77] Creating layer conv1_postscale
I0404 05:01:00.801399 16122 net.cpp:100] Creating Layer conv1_postscale
I0404 05:01:00.801403 16122 net.cpp:434] conv1_postscale <- conv1
I0404 05:01:00.801409 16122 net.cpp:395] conv1_postscale -> conv1 (in-place)
I0404 05:01:00.801501 16122 net.cpp:150] Setting up conv1_postscale
I0404 05:01:00.801509 16122 net.cpp:157] Top shape: 1024 100 42 42 (180633600)
I0404 05:01:00.801512 16122 net.cpp:165] Memory required for data: 2918453248
I0404 05:01:00.801517 16122 layer_factory.hpp:77] Creating layer pool1
I0404 05:01:00.801524 16122 net.cpp:100] Creating Layer pool1
I0404 05:01:00.801527 16122 net.cpp:434] pool1 <- conv1
I0404 05:01:00.801532 16122 net.cpp:408] pool1 -> pool1
I0404 05:01:00.801578 16122 net.cpp:150] Setting up pool1
I0404 05:01:00.801586 16122 net.cpp:157] Top shape: 1024 100 21 21 (45158400)
I0404 05:01:00.801589 16122 net.cpp:165] Memory required for data: 3099086848
I0404 05:01:00.801594 16122 layer_factory.hpp:77] Creating layer conv2
I0404 05:01:00.801602 16122 net.cpp:100] Creating Layer conv2
I0404 05:01:00.801606 16122 net.cpp:434] conv2 <- pool1
I0404 05:01:00.801610 16122 net.cpp:408] conv2 -> conv2
I0404 05:01:00.806252 16122 net.cpp:150] Setting up conv2
I0404 05:01:00.806268 16122 net.cpp:157] Top shape: 1024 150 18 18 (49766400)
I0404 05:01:00.806272 16122 net.cpp:165] Memory required for data: 3298152448
I0404 05:01:00.806299 16122 layer_factory.hpp:77] Creating layer conv2_prescale
I0404 05:01:00.806308 16122 net.cpp:100] Creating Layer conv2_prescale
I0404 05:01:00.806311 16122 net.cpp:434] conv2_prescale <- conv2
I0404 05:01:00.806316 16122 net.cpp:395] conv2_prescale -> conv2 (in-place)
I0404 05:01:00.806422 16122 net.cpp:150] Setting up conv2_prescale
I0404 05:01:00.806432 16122 net.cpp:157] Top shape: 1024 150 18 18 (49766400)
I0404 05:01:00.806434 16122 net.cpp:165] Memory required for data: 3497218048
I0404 05:01:00.806438 16122 layer_factory.hpp:77] Creating layer conv2_sTanH
I0404 05:01:00.806445 16122 net.cpp:100] Creating Layer conv2_sTanH
I0404 05:01:00.806448 16122 net.cpp:434] conv2_sTanH <- conv2
I0404 05:01:00.806452 16122 net.cpp:395] conv2_sTanH -> conv2 (in-place)
I0404 05:01:00.807199 16122 net.cpp:150] Setting up conv2_sTanH
I0404 05:01:00.807214 16122 net.cpp:157] Top shape: 1024 150 18 18 (49766400)
I0404 05:01:00.807217 16122 net.cpp:165] Memory required for data: 3696283648
I0404 05:01:00.807220 16122 layer_factory.hpp:77] Creating layer conv2_postscale
I0404 05:01:00.807229 16122 net.cpp:100] Creating Layer conv2_postscale
I0404 05:01:00.807231 16122 net.cpp:434] conv2_postscale <- conv2
I0404 05:01:00.807236 16122 net.cpp:395] conv2_postscale -> conv2 (in-place)
I0404 05:01:00.807327 16122 net.cpp:150] Setting up conv2_postscale
I0404 05:01:00.807334 16122 net.cpp:157] Top shape: 1024 150 18 18 (49766400)
I0404 05:01:00.807337 16122 net.cpp:165] Memory required for data: 3895349248
I0404 05:01:00.807343 16122 layer_factory.hpp:77] Creating layer pool2
I0404 05:01:00.807348 16122 net.cpp:100] Creating Layer pool2
I0404 05:01:00.807351 16122 net.cpp:434] pool2 <- conv2
I0404 05:01:00.807355 16122 net.cpp:408] pool2 -> pool2
I0404 05:01:00.807405 16122 net.cpp:150] Setting up pool2
I0404 05:01:00.807413 16122 net.cpp:157] Top shape: 1024 150 9 9 (12441600)
I0404 05:01:00.807416 16122 net.cpp:165] Memory required for data: 3945115648
I0404 05:01:00.807418 16122 layer_factory.hpp:77] Creating layer conv3
I0404 05:01:00.807426 16122 net.cpp:100] Creating Layer conv3
I0404 05:01:00.807430 16122 net.cpp:434] conv3 <- pool2
I0404 05:01:00.807435 16122 net.cpp:408] conv3 -> conv3
I0404 05:01:00.812796 16122 net.cpp:150] Setting up conv3
I0404 05:01:00.812813 16122 net.cpp:157] Top shape: 1024 250 6 6 (9216000)
I0404 05:01:00.812818 16122 net.cpp:165] Memory required for data: 3981979648
I0404 05:01:00.812826 16122 layer_factory.hpp:77] Creating layer conv3_prescale
I0404 05:01:00.812835 16122 net.cpp:100] Creating Layer conv3_prescale
I0404 05:01:00.812854 16122 net.cpp:434] conv3_prescale <- conv3
I0404 05:01:00.812858 16122 net.cpp:395] conv3_prescale -> conv3 (in-place)
I0404 05:01:00.812947 16122 net.cpp:150] Setting up conv3_prescale
I0404 05:01:00.812955 16122 net.cpp:157] Top shape: 1024 250 6 6 (9216000)
I0404 05:01:00.812958 16122 net.cpp:165] Memory required for data: 4018843648
I0404 05:01:00.812963 16122 layer_factory.hpp:77] Creating layer conv3_sTanH
I0404 05:01:00.812968 16122 net.cpp:100] Creating Layer conv3_sTanH
I0404 05:01:00.812971 16122 net.cpp:434] conv3_sTanH <- conv3
I0404 05:01:00.812975 16122 net.cpp:395] conv3_sTanH -> conv3 (in-place)
I0404 05:01:00.813866 16122 net.cpp:150] Setting up conv3_sTanH
I0404 05:01:00.813881 16122 net.cpp:157] Top shape: 1024 250 6 6 (9216000)
I0404 05:01:00.813884 16122 net.cpp:165] Memory required for data: 4055707648
I0404 05:01:00.813889 16122 layer_factory.hpp:77] Creating layer conv3_postscale
I0404 05:01:00.813896 16122 net.cpp:100] Creating Layer conv3_postscale
I0404 05:01:00.813899 16122 net.cpp:434] conv3_postscale <- conv3
I0404 05:01:00.813905 16122 net.cpp:395] conv3_postscale -> conv3 (in-place)
I0404 05:01:00.814009 16122 net.cpp:150] Setting up conv3_postscale
I0404 05:01:00.814018 16122 net.cpp:157] Top shape: 1024 250 6 6 (9216000)
I0404 05:01:00.814021 16122 net.cpp:165] Memory required for data: 4092571648
I0404 05:01:00.814025 16122 layer_factory.hpp:77] Creating layer pool3
I0404 05:01:00.814044 16122 net.cpp:100] Creating Layer pool3
I0404 05:01:00.814047 16122 net.cpp:434] pool3 <- conv3
I0404 05:01:00.814052 16122 net.cpp:408] pool3 -> pool3
I0404 05:01:00.814092 16122 net.cpp:150] Setting up pool3
I0404 05:01:00.814100 16122 net.cpp:157] Top shape: 1024 250 3 3 (2304000)
I0404 05:01:00.814103 16122 net.cpp:165] Memory required for data: 4101787648
I0404 05:01:00.814106 16122 layer_factory.hpp:77] Creating layer fc4_300
I0404 05:01:00.814115 16122 net.cpp:100] Creating Layer fc4_300
I0404 05:01:00.814117 16122 net.cpp:434] fc4_300 <- pool3
I0404 05:01:00.814122 16122 net.cpp:408] fc4_300 -> fc4_300
I0404 05:01:00.819681 16122 net.cpp:150] Setting up fc4_300
I0404 05:01:00.819696 16122 net.cpp:157] Top shape: 1024 300 (307200)
I0404 05:01:00.819700 16122 net.cpp:165] Memory required for data: 4103016448
I0404 05:01:00.819706 16122 layer_factory.hpp:77] Creating layer fc4_relu
I0404 05:01:00.819713 16122 net.cpp:100] Creating Layer fc4_relu
I0404 05:01:00.819716 16122 net.cpp:434] fc4_relu <- fc4_300
I0404 05:01:00.819720 16122 net.cpp:395] fc4_relu -> fc4_300 (in-place)
I0404 05:01:00.819913 16122 net.cpp:150] Setting up fc4_relu
I0404 05:01:00.819926 16122 net.cpp:157] Top shape: 1024 300 (307200)
I0404 05:01:00.819928 16122 net.cpp:165] Memory required for data: 4104245248
I0404 05:01:00.819931 16122 layer_factory.hpp:77] Creating layer drop4
I0404 05:01:00.819938 16122 net.cpp:100] Creating Layer drop4
I0404 05:01:00.819941 16122 net.cpp:434] drop4 <- fc4_300
I0404 05:01:00.819950 16122 net.cpp:395] drop4 -> fc4_300 (in-place)
I0404 05:01:00.819981 16122 net.cpp:150] Setting up drop4
I0404 05:01:00.819989 16122 net.cpp:157] Top shape: 1024 300 (307200)
I0404 05:01:00.819993 16122 net.cpp:165] Memory required for data: 4105474048
I0404 05:01:00.819995 16122 layer_factory.hpp:77] Creating layer fc5_67
I0404 05:01:00.820001 16122 net.cpp:100] Creating Layer fc5_67
I0404 05:01:00.820004 16122 net.cpp:434] fc5_67 <- fc4_300
I0404 05:01:00.820009 16122 net.cpp:408] fc5_67 -> fc5_classes
I0404 05:01:00.821194 16122 net.cpp:150] Setting up fc5_67
I0404 05:01:00.821208 16122 net.cpp:157] Top shape: 1024 67 (68608)
I0404 05:01:00.821223 16122 net.cpp:165] Memory required for data: 4105748480
I0404 05:01:00.821229 16122 layer_factory.hpp:77] Creating layer loss
I0404 05:01:00.821236 16122 net.cpp:100] Creating Layer loss
I0404 05:01:00.821239 16122 net.cpp:434] loss <- fc5_classes
I0404 05:01:00.821244 16122 net.cpp:434] loss <- label
I0404 05:01:00.821249 16122 net.cpp:408] loss -> loss
I0404 05:01:00.821262 16122 layer_factory.hpp:77] Creating layer loss
…
I0404 05:01:00.821713 16122 net.cpp:283] Network initialization done.
I0404 05:01:00.967172 16122 solver.cpp:193] Creating test net (#0) specified by test_net file: ./Prototxt/experiment_5/rtsd-r1/AHE/test.prototxt
I0404 05:01:00.967465 16122 net.cpp:58] Initializing net from parameters: 
state {
  phase: TEST
}
layer {
  name: "data"
  type: "Data"
  top: "data"
  top: "label"
  include {
    phase: TEST
  }
  transform_param {
    mirror: false
    crop_size: 48
  }
  data_param {
    source: "../local_data/lmdb/rtsd-r1/AHE/test/lmdb"
    batch_size: 1024
    backend: LMDB
  }
}
layer {
  name: "conv1"
  type: "Convolution"
  bottom: "data"
  top: "conv1"
  convolution_param {
    num_output: 100
    pad: 0
    kernel_size: 7
    group: 1
    stride: 1
    weight_filler {
      type: "xavier"
    }
  }
}
layer {
  name: "conv1_prescale"
  type: "Scale"
  bottom: "conv1"
  top: "conv1"
  param {
    lr_mult: 0
    decay_mult: 0
  }
  scale_param {
    filler {
      value: 0.6666
    }
  }
}
layer {
  name: "conv1_sTanH"
  type: "TanH"
  bottom: "conv1"
  top: "conv1"
}
layer {
  name: "conv1_postscale"
  type: "Scale"
  bottom: "conv1"
  top: "conv1"
  param {
    lr_mult: 0
    decay_mult: 0
  }
  scale_param {
    filler {
      value: 1.7159
    }
  }
}
layer {
  name: "pool1"
  type: "Pooling"
  bottom: "conv1"
  top: "pool1"
  pooling_param {
    pool: MAX
    kernel_size: 2
    stride: 2
  }
}
layer {
  name: "conv2"
  type: "Convolution"
  bottom: "pool1"
  top: "conv2"
  convolution_param {
    num_output: 150
    pad: 0
    kernel_size: 4
    group: 1
    stride: 1
    weight_filler {
      type: "xavier"
    }
  }
}
layer {
  name: "conv2_prescale"
  type: "Scale"
  bottom: "conv2"
  top: "conv2"
  param {
    lr_mult: 0
    decay_mult: 0
  }
  scale_param {
    filler {
      value: 0.6666
    }
  }
}
layer {
  name: "conv2_sTanH"
  type: "TanH"
  bottom: "conv2"
  top: "conv2"
}
layer {
  name: "conv2_postscale"
  type: "Scale"
  bottom: "conv2"
  top: "conv2"
  param {
    lr_mult: 0
    decay_mult: 0
  }
  scale_param {
    filler {
      value: 1.7159
    }
  }
}
layer {
  name: "pool2"
  type: "Pooling"
  bottom: "conv2"
  top: "pool2"
  pooling_param {
    pool: MAX
    kernel_size: 2
    stride: 2
  }
}
layer {
  name: "conv3"
  type: "Convolution"
  bottom: "pool2"
  top: "conv3"
  convolution_param {
    num_output: 250
    pad: 0
    kernel_size: 4
    group: 1
    stride: 1
    weight_filler {
      type: "xavier"
    }
  }
}
layer {
  name: "conv3_prescale"
  type: "Scale"
  bottom: "conv3"
  top: "conv3"
  param {
    lr_mult: 0
    decay_mult: 0
  }
  scale_param {
    filler {
      value: 0.6666
    }
  }
}
layer {
  name: "conv3_sTanH"
  type: "TanH"
  bottom: "conv3"
  top: "conv3"
}
layer {
  name: "conv3_postscale"
  type: "Scale"
  bottom: "conv3"
  top: "conv3"
  param {
    lr_mult: 0
    decay_mult: 0
  }
  scale_param {
    filler {
      value: 1.7159
    }
  }
}
layer {
  name: "pool3"
  type: "Pooling"
  bottom: "conv3"
  top: "pool3"
  pooling_param {
    pool: MAX
    kernel_size: 2
    stride: 2
  }
}
layer {
  name: "fc4_300"
  type: "InnerProduct"
  bottom: "pool3"
  top: "fc4_300"
  inner_product_param {
    num_output: 300
    weight_filler {
      type: "xavier"
    }
  }
}
layer {
  name: "fc4_relu"
  type: "ReLU"
  bottom: "fc4_300"
  top: "fc4_300"
}
layer {
  name: "drop4"
  type: "Dropout"
  bottom: "fc4_300"
  top: "fc4_300"
  dropout_param {
    dropout_ratio: 0.4
  }
}
layer {
  name: "fc5_67"
  type: "InnerProduct"
  bottom: "fc4_300"
  top: "fc5_classes"
  inner_product_param {
    num_output: 67
    weight_filler {
      type: "xavier"
    }
  }
}
layer {
  name: "loss"
  type: "SoftmaxWithLoss"
  bottom: "fc5_classes"
  bottom: "label"
  top: "loss"
}
layer {
  name: "accuracy_1"
  type: "Accuracy"
  bottom: "fc5_classes"
  bottom: "label"
  top: "accuracy_1"
  include {
    phase: TEST
  }
  accuracy_param {
    top_k: 1
  }
}
layer {
  name: "accuracy_5"
  type: "Accuracy"
  bottom: "fc5_classes"
  bottom: "label"
  top: "accuracy_5"
  include {
    phase: TEST
  }
  accuracy_param {
    top_k: 5
  }
}
I0404 05:01:00.967638 16122 layer_factory.hpp:77] Creating layer data
I0404 05:01:00.968688 16122 net.cpp:100] Creating Layer data
I0404 05:01:00.968716 16122 net.cpp:408] data -> data
I0404 05:01:00.968735 16122 net.cpp:408] data -> label
I0404 05:01:01.085088 16202 db_lmdb.cpp:35] Opened lmdb ../local_data/lmdb/rtsd-r1/AHE/test/lmdb
I0404 05:01:01.210774 16122 data_layer.cpp:41] output data size: 1024,3,48,48
I0404 05:01:01.260556 16122 net.cpp:150] Setting up data
I0404 05:01:01.260586 16122 net.cpp:157] Top shape: 1024 3 48 48 (7077888)
I0404 05:01:01.260591 16122 net.cpp:157] Top shape: 1024 (1024)
I0404 05:01:01.260594 16122 net.cpp:165] Memory required for data: 28315648
I0404 05:01:01.260601 16122 layer_factory.hpp:77] Creating layer label_data_1_split
I0404 05:01:01.260614 16122 net.cpp:100] Creating Layer label_data_1_split
I0404 05:01:01.260618 16122 net.cpp:434] label_data_1_split <- label
I0404 05:01:01.260634 16122 net.cpp:408] label_data_1_split -> label_data_1_split_0
I0404 05:01:01.260644 16122 net.cpp:408] label_data_1_split -> label_data_1_split_1
I0404 05:01:01.260650 16122 net.cpp:408] label_data_1_split -> label_data_1_split_2
I0404 05:01:01.260789 16122 net.cpp:150] Setting up label_data_1_split
I0404 05:01:01.260800 16122 net.cpp:157] Top shape: 1024 (1024)
I0404 05:01:01.260804 16122 net.cpp:157] Top shape: 1024 (1024)
I0404 05:01:01.260807 16122 net.cpp:157] Top shape: 1024 (1024)
I0404 05:01:01.260809 16122 net.cpp:165] Memory required for data: 28327936
I0404 05:01:01.260813 16122 layer_factory.hpp:77] Creating layer conv1
I0404 05:01:01.260826 16122 net.cpp:100] Creating Layer conv1
I0404 05:01:01.260830 16122 net.cpp:434] conv1 <- data
I0404 05:01:01.260838 16122 net.cpp:408] conv1 -> conv1
I0404 05:01:01.270949 16122 net.cpp:150] Setting up conv1
I0404 05:01:01.270983 16122 net.cpp:157] Top shape: 1024 100 42 42 (180633600)
I0404 05:01:01.270990 16122 net.cpp:165] Memory required for data: 750862336
I0404 05:01:01.271011 16122 layer_factory.hpp:77] Creating layer conv1_prescale
I0404 05:01:01.271028 16122 net.cpp:100] Creating Layer conv1_prescale
I0404 05:01:01.271034 16122 net.cpp:434] conv1_prescale <- conv1
I0404 05:01:01.271046 16122 net.cpp:395] conv1_prescale -> conv1 (in-place)
I0404 05:01:01.271250 16122 net.cpp:150] Setting up conv1_prescale
I0404 05:01:01.271265 16122 net.cpp:157] Top shape: 1024 100 42 42 (180633600)
I0404 05:01:01.271271 16122 net.cpp:165] Memory required for data: 1473396736
I0404 05:01:01.271283 16122 layer_factory.hpp:77] Creating layer conv1_sTanH
I0404 05:01:01.271301 16122 net.cpp:100] Creating Layer conv1_sTanH
I0404 05:01:01.271309 16122 net.cpp:434] conv1_sTanH <- conv1
I0404 05:01:01.271318 16122 net.cpp:395] conv1_sTanH -> conv1 (in-place)
I0404 05:01:01.271682 16122 net.cpp:150] Setting up conv1_sTanH
I0404 05:01:01.271702 16122 net.cpp:157] Top shape: 1024 100 42 42 (180633600)
I0404 05:01:01.271708 16122 net.cpp:165] Memory required for data: 2195931136
I0404 05:01:01.271713 16122 layer_factory.hpp:77] Creating layer conv1_postscale
I0404 05:01:01.271726 16122 net.cpp:100] Creating Layer conv1_postscale
I0404 05:01:01.271733 16122 net.cpp:434] conv1_postscale <- conv1
I0404 05:01:01.271745 16122 net.cpp:395] conv1_postscale -> conv1 (in-place)
I0404 05:01:01.271937 16122 net.cpp:150] Setting up conv1_postscale
I0404 05:01:01.271952 16122 net.cpp:157] Top shape: 1024 100 42 42 (180633600)
I0404 05:01:01.271957 16122 net.cpp:165] Memory required for data: 2918465536
I0404 05:01:01.271965 16122 layer_factory.hpp:77] Creating layer pool1
I0404 05:01:01.272012 16122 net.cpp:100] Creating Layer pool1
I0404 05:01:01.272022 16122 net.cpp:434] pool1 <- conv1
I0404 05:01:01.272032 16122 net.cpp:408] pool1 -> pool1
I0404 05:01:01.272111 16122 net.cpp:150] Setting up pool1
I0404 05:01:01.272130 16122 net.cpp:157] Top shape: 1024 100 21 21 (45158400)
I0404 05:01:01.272135 16122 net.cpp:165] Memory required for data: 3099099136
I0404 05:01:01.272140 16122 layer_factory.hpp:77] Creating layer conv2
I0404 05:01:01.272156 16122 net.cpp:100] Creating Layer conv2
I0404 05:01:01.272166 16122 net.cpp:434] conv2 <- pool1
I0404 05:01:01.272179 16122 net.cpp:408] conv2 -> conv2
I0404 05:01:01.279074 16122 net.cpp:150] Setting up conv2
I0404 05:01:01.279104 16122 net.cpp:157] Top shape: 1024 150 18 18 (49766400)
I0404 05:01:01.279110 16122 net.cpp:165] Memory required for data: 3298164736
I0404 05:01:01.279129 16122 layer_factory.hpp:77] Creating layer conv2_prescale
I0404 05:01:01.279150 16122 net.cpp:100] Creating Layer conv2_prescale
I0404 05:01:01.279160 16122 net.cpp:434] conv2_prescale <- conv2
I0404 05:01:01.279171 16122 net.cpp:395] conv2_prescale -> conv2 (in-place)
I0404 05:01:01.279369 16122 net.cpp:150] Setting up conv2_prescale
I0404 05:01:01.279384 16122 net.cpp:157] Top shape: 1024 150 18 18 (49766400)
I0404 05:01:01.279389 16122 net.cpp:165] Memory required for data: 3497230336
I0404 05:01:01.279398 16122 layer_factory.hpp:77] Creating layer conv2_sTanH
I0404 05:01:01.279407 16122 net.cpp:100] Creating Layer conv2_sTanH
I0404 05:01:01.279412 16122 net.cpp:434] conv2_sTanH <- conv2
I0404 05:01:01.279422 16122 net.cpp:395] conv2_sTanH -> conv2 (in-place)
I0404 05:01:01.280779 16122 net.cpp:150] Setting up conv2_sTanH
I0404 05:01:01.280807 16122 net.cpp:157] Top shape: 1024 150 18 18 (49766400)
I0404 05:01:01.280817 16122 net.cpp:165] Memory required for data: 3696295936
I0404 05:01:01.280824 16122 layer_factory.hpp:77] Creating layer conv2_postscale
I0404 05:01:01.280836 16122 net.cpp:100] Creating Layer conv2_postscale
I0404 05:01:01.280845 16122 net.cpp:434] conv2_postscale <- conv2
I0404 05:01:01.280858 16122 net.cpp:395] conv2_postscale -> conv2 (in-place)
I0404 05:01:01.281054 16122 net.cpp:150] Setting up conv2_postscale
I0404 05:01:01.281069 16122 net.cpp:157] Top shape: 1024 150 18 18 (49766400)
I0404 05:01:01.281075 16122 net.cpp:165] Memory required for data: 3895361536
I0404 05:01:01.281083 16122 layer_factory.hpp:77] Creating layer pool2
I0404 05:01:01.281093 16122 net.cpp:100] Creating Layer pool2
I0404 05:01:01.281100 16122 net.cpp:434] pool2 <- conv2
I0404 05:01:01.281111 16122 net.cpp:408] pool2 -> pool2
I0404 05:01:01.281188 16122 net.cpp:150] Setting up pool2
I0404 05:01:01.281204 16122 net.cpp:157] Top shape: 1024 150 9 9 (12441600)
I0404 05:01:01.281213 16122 net.cpp:165] Memory required for data: 3945127936
I0404 05:01:01.281219 16122 layer_factory.hpp:77] Creating layer conv3
I0404 05:01:01.281234 16122 net.cpp:100] Creating Layer conv3
I0404 05:01:01.281244 16122 net.cpp:434] conv3 <- pool2
I0404 05:01:01.281252 16122 net.cpp:408] conv3 -> conv3
I0404 05:01:01.291607 16122 net.cpp:150] Setting up conv3
I0404 05:01:01.291638 16122 net.cpp:157] Top shape: 1024 250 6 6 (9216000)
I0404 05:01:01.291645 16122 net.cpp:165] Memory required for data: 3981991936
I0404 05:01:01.291664 16122 layer_factory.hpp:77] Creating layer conv3_prescale
I0404 05:01:01.291682 16122 net.cpp:100] Creating Layer conv3_prescale
I0404 05:01:01.291689 16122 net.cpp:434] conv3_prescale <- conv3
I0404 05:01:01.291702 16122 net.cpp:395] conv3_prescale -> conv3 (in-place)
I0404 05:01:01.291865 16122 net.cpp:150] Setting up conv3_prescale
I0404 05:01:01.291879 16122 net.cpp:157] Top shape: 1024 250 6 6 (9216000)
I0404 05:01:01.291884 16122 net.cpp:165] Memory required for data: 4018855936
I0404 05:01:01.291893 16122 layer_factory.hpp:77] Creating layer conv3_sTanH
I0404 05:01:01.291903 16122 net.cpp:100] Creating Layer conv3_sTanH
I0404 05:01:01.291908 16122 net.cpp:434] conv3_sTanH <- conv3
I0404 05:01:01.291916 16122 net.cpp:395] conv3_sTanH -> conv3 (in-place)
I0404 05:01:01.293227 16122 net.cpp:150] Setting up conv3_sTanH
I0404 05:01:01.293258 16122 net.cpp:157] Top shape: 1024 250 6 6 (9216000)
I0404 05:01:01.293267 16122 net.cpp:165] Memory required for data: 4055719936
I0404 05:01:01.293273 16122 layer_factory.hpp:77] Creating layer conv3_postscale
I0404 05:01:01.293284 16122 net.cpp:100] Creating Layer conv3_postscale
I0404 05:01:01.293293 16122 net.cpp:434] conv3_postscale <- conv3
I0404 05:01:01.293308 16122 net.cpp:395] conv3_postscale -> conv3 (in-place)
I0404 05:01:01.293488 16122 net.cpp:150] Setting up conv3_postscale
I0404 05:01:01.293503 16122 net.cpp:157] Top shape: 1024 250 6 6 (9216000)
I0404 05:01:01.293509 16122 net.cpp:165] Memory required for data: 4092583936
I0404 05:01:01.293517 16122 layer_factory.hpp:77] Creating layer pool3
I0404 05:01:01.293532 16122 net.cpp:100] Creating Layer pool3
I0404 05:01:01.293540 16122 net.cpp:434] pool3 <- conv3
I0404 05:01:01.293550 16122 net.cpp:408] pool3 -> pool3
I0404 05:01:01.293619 16122 net.cpp:150] Setting up pool3
I0404 05:01:01.293632 16122 net.cpp:157] Top shape: 1024 250 3 3 (2304000)
I0404 05:01:01.293637 16122 net.cpp:165] Memory required for data: 4101799936
I0404 05:01:01.293642 16122 layer_factory.hpp:77] Creating layer fc4_300
I0404 05:01:01.293653 16122 net.cpp:100] Creating Layer fc4_300
I0404 05:01:01.293663 16122 net.cpp:434] fc4_300 <- pool3
I0404 05:01:01.293675 16122 net.cpp:408] fc4_300 -> fc4_300
I0404 05:01:01.302485 16122 net.cpp:150] Setting up fc4_300
I0404 05:01:01.302510 16122 net.cpp:157] Top shape: 1024 300 (307200)
I0404 05:01:01.302515 16122 net.cpp:165] Memory required for data: 4103028736
I0404 05:01:01.302525 16122 layer_factory.hpp:77] Creating layer fc4_relu
I0404 05:01:01.302536 16122 net.cpp:100] Creating Layer fc4_relu
I0404 05:01:01.302541 16122 net.cpp:434] fc4_relu <- fc4_300
I0404 05:01:01.302549 16122 net.cpp:395] fc4_relu -> fc4_300 (in-place)
I0404 05:01:01.302870 16122 net.cpp:150] Setting up fc4_relu
I0404 05:01:01.302886 16122 net.cpp:157] Top shape: 1024 300 (307200)
I0404 05:01:01.302891 16122 net.cpp:165] Memory required for data: 4104257536
I0404 05:01:01.302896 16122 layer_factory.hpp:77] Creating layer drop4
I0404 05:01:01.302907 16122 net.cpp:100] Creating Layer drop4
I0404 05:01:01.302913 16122 net.cpp:434] drop4 <- fc4_300
I0404 05:01:01.302923 16122 net.cpp:395] drop4 -> fc4_300 (in-place)
I0404 05:01:01.302969 16122 net.cpp:150] Setting up drop4
I0404 05:01:01.302983 16122 net.cpp:157] Top shape: 1024 300 (307200)
I0404 05:01:01.302987 16122 net.cpp:165] Memory required for data: 4105486336
I0404 05:01:01.302994 16122 layer_factory.hpp:77] Creating layer fc5_67
I0404 05:01:01.303004 16122 net.cpp:100] Creating Layer fc5_67
I0404 05:01:01.303009 16122 net.cpp:434] fc5_67 <- fc4_300
I0404 05:01:01.303015 16122 net.cpp:408] fc5_67 -> fc5_classes
I0404 05:01:01.303432 16122 net.cpp:150] Setting up fc5_67
I0404 05:01:01.303445 16122 net.cpp:157] Top shape: 1024 67 (68608)
I0404 05:01:01.303449 16122 net.cpp:165] Memory required for data: 4105760768
I0404 05:01:01.303459 16122 layer_factory.hpp:77] Creating layer fc5_classes_fc5_67_0_split
I0404 05:01:01.303469 16122 net.cpp:100] Creating Layer fc5_classes_fc5_67_0_split
I0404 05:01:01.303474 16122 net.cpp:434] fc5_classes_fc5_67_0_split <- fc5_classes
I0404 05:01:01.303484 16122 net.cpp:408] fc5_classes_fc5_67_0_split -> fc5_classes_fc5_67_0_split_0
I0404 05:01:01.303496 16122 net.cpp:408] fc5_classes_fc5_67_0_split -> fc5_classes_fc5_67_0_split_1
I0404 05:01:01.303510 16122 net.cpp:408] fc5_classes_fc5_67_0_split -> fc5_classes_fc5_67_0_split_2
I0404 05:01:01.303596 16122 net.cpp:150] Setting up fc5_classes_fc5_67_0_split
I0404 05:01:01.303606 16122 net.cpp:157] Top shape: 1024 67 (68608)
I0404 05:01:01.303612 16122 net.cpp:157] Top shape: 1024 67 (68608)
I0404 05:01:01.303618 16122 net.cpp:157] Top shape: 1024 67 (68608)
I0404 05:01:01.303622 16122 net.cpp:165] Memory required for data: 4106584064
I0404 05:01:01.303627 16122 layer_factory.hpp:77] Creating layer loss
I0404 05:01:01.303656 16122 net.cpp:100] Creating Layer loss
I0404 05:01:01.303663 16122 net.cpp:434] loss <- fc5_classes_fc5_67_0_split_0
I0404 05:01:01.303669 16122 net.cpp:434] loss <- label_data_1_split_0
I0404 05:01:01.303676 16122 net.cpp:408] loss -> loss
…
