…
I0326 15:16:01.459317 17389 net.cpp:322] The NetState phase (0) differed from the phase (1) specified by a rule in layer accuracy_5
I0326 15:16:01.459461 17389 net.cpp:58] Initializing net from parameters: 
state {
  phase: TRAIN
  level: 0
  stage: ""
}
layer {
  name: "data"
  type: "Data"
  top: "data"
  top: "label"
  include {
    phase: TRAIN
  }
  transform_param {
    mirror: false
    crop_size: 48
    mean_value: 122
    mean_value: 115
    mean_value: 129
  }
  data_param {
    source: "../local_data/lmdb/rtsd-r1/orig/train/lmdb"
    batch_size: 512
    backend: LMDB
  }
}
layer {
  name: "conv1"
  type: "Convolution"
  bottom: "data"
  top: "conv1"
  convolution_param {
    num_output: 100
    pad: 0
    kernel_size: 7
    group: 1
    stride: 1
    weight_filler {
      type: "xavier"
    }
  }
}
layer {
  name: "conv1_relu"
  type: "ReLU"
  bottom: "conv1"
  top: "conv1"
}
layer {
  name: "pool1"
  type: "Pooling"
  bottom: "conv1"
  top: "pool1"
  pooling_param {
    pool: MAX
    kernel_size: 2
    stride: 2
  }
}
layer {
  name: "conv2"
  type: "Convolution"
  bottom: "pool1"
  top: "conv2"
  convolution_param {
    num_output: 150
    pad: 0
    kernel_size: 4
    group: 1
    stride: 1
    weight_filler {
      type: "xavier"
    }
  }
}
layer {
  name: "conv2_relu"
  type: "ReLU"
  bottom: "conv2"
  top: "conv2"
}
layer {
  name: "pool2"
  type: "Pooling"
  bottom: "conv2"
  top: "pool2"
  pooling_param {
    pool: MAX
    kernel_size: 2
    stride: 2
  }
}
layer {
  name: "conv3"
  type: "Convolution"
  bottom: "pool2"
  top: "conv3"
  convolution_param {
    num_output: 250
    pad: 0
    kernel_size: 4
    group: 1
    stride: 1
    weight_filler {
      type: "xavier"
    }
  }
}
layer {
  name: "conv3_relu"
  type: "ReLU"
  bottom: "conv3"
  top: "conv3"
}
layer {
  name: "pool3"
  type: "Pooling"
  bottom: "conv3"
  top: "pool3"
  pooling_param {
    pool: MAX
    kernel_size: 2
    stride: 2
  }
}
layer {
  name: "fc4_300"
  type: "InnerProduct"
  bottom: "pool3"
  top: "fc4_300"
  inner_product_param {
    num_output: 300
    weight_filler {
      type: "xavier"
    }
  }
}
layer {
  name: "fc4_relu"
  type: "ReLU"
  bottom: "fc4_300"
  top: "fc4_300"
}
layer {
  name: "drop4"
  type: "Dropout"
  bottom: "fc4_300"
  top: "fc4_300"
  dropout_param {
    dropout_ratio: 0.4
  }
}
layer {
  name: "fc5_67"
  type: "InnerProduct"
  bottom: "fc4_300"
  top: "fc5_classes"
  inner_product_param {
    num_output: 67
    weight_filler {
      type: "xavier"
    }
  }
}
layer {
  name: "loss"
  type: "SoftmaxWithLoss"
  bottom: "fc5_classes"
  bottom: "label"
  top: "loss"
}
I0326 15:16:01.459568 17389 layer_factory.hpp:77] Creating layer data
I0326 15:16:01.460999 17389 net.cpp:100] Creating Layer data
I0326 15:16:01.461025 17389 net.cpp:408] data -> data
I0326 15:16:01.461057 17389 net.cpp:408] data -> label
I0326 15:16:01.465181 17447 db_lmdb.cpp:35] Opened lmdb ../local_data/lmdb/rtsd-r1/orig/train/lmdb
I0326 15:16:01.559957 17389 data_layer.cpp:41] output data size: 512,3,48,48
I0326 15:16:01.611397 17389 net.cpp:150] Setting up data
I0326 15:16:01.611433 17389 net.cpp:157] Top shape: 512 3 48 48 (3538944)
I0326 15:16:01.611441 17389 net.cpp:157] Top shape: 512 (512)
I0326 15:16:01.611445 17389 net.cpp:165] Memory required for data: 14157824
I0326 15:16:01.611479 17389 layer_factory.hpp:77] Creating layer conv1
I0326 15:16:01.611507 17389 net.cpp:100] Creating Layer conv1
I0326 15:16:01.611517 17389 net.cpp:434] conv1 <- data
I0326 15:16:01.611541 17389 net.cpp:408] conv1 -> conv1
I0326 15:16:02.101547 17389 net.cpp:150] Setting up conv1
I0326 15:16:02.101583 17389 net.cpp:157] Top shape: 512 100 42 42 (90316800)
I0326 15:16:02.101588 17389 net.cpp:165] Memory required for data: 375425024
I0326 15:16:02.101615 17389 layer_factory.hpp:77] Creating layer conv1_relu
I0326 15:16:02.101629 17389 net.cpp:100] Creating Layer conv1_relu
I0326 15:16:02.101635 17389 net.cpp:434] conv1_relu <- conv1
I0326 15:16:02.101642 17389 net.cpp:395] conv1_relu -> conv1 (in-place)
I0326 15:16:02.102460 17389 net.cpp:150] Setting up conv1_relu
I0326 15:16:02.102476 17389 net.cpp:157] Top shape: 512 100 42 42 (90316800)
I0326 15:16:02.102480 17389 net.cpp:165] Memory required for data: 736692224
I0326 15:16:02.102484 17389 layer_factory.hpp:77] Creating layer pool1
I0326 15:16:02.102493 17389 net.cpp:100] Creating Layer pool1
I0326 15:16:02.102496 17389 net.cpp:434] pool1 <- conv1
I0326 15:16:02.102504 17389 net.cpp:408] pool1 -> pool1
I0326 15:16:02.102567 17389 net.cpp:150] Setting up pool1
I0326 15:16:02.102578 17389 net.cpp:157] Top shape: 512 100 21 21 (22579200)
I0326 15:16:02.102582 17389 net.cpp:165] Memory required for data: 827009024
I0326 15:16:02.102586 17389 layer_factory.hpp:77] Creating layer conv2
I0326 15:16:02.102601 17389 net.cpp:100] Creating Layer conv2
I0326 15:16:02.102610 17389 net.cpp:434] conv2 <- pool1
I0326 15:16:02.102622 17389 net.cpp:408] conv2 -> conv2
I0326 15:16:02.110075 17389 net.cpp:150] Setting up conv2
I0326 15:16:02.110095 17389 net.cpp:157] Top shape: 512 150 18 18 (24883200)
I0326 15:16:02.110100 17389 net.cpp:165] Memory required for data: 926541824
I0326 15:16:02.110112 17389 layer_factory.hpp:77] Creating layer conv2_relu
I0326 15:16:02.110121 17389 net.cpp:100] Creating Layer conv2_relu
I0326 15:16:02.110126 17389 net.cpp:434] conv2_relu <- conv2
I0326 15:16:02.110131 17389 net.cpp:395] conv2_relu -> conv2 (in-place)
I0326 15:16:02.112851 17389 net.cpp:150] Setting up conv2_relu
I0326 15:16:02.112870 17389 net.cpp:157] Top shape: 512 150 18 18 (24883200)
I0326 15:16:02.112874 17389 net.cpp:165] Memory required for data: 1026074624
I0326 15:16:02.112879 17389 layer_factory.hpp:77] Creating layer pool2
I0326 15:16:02.112887 17389 net.cpp:100] Creating Layer pool2
I0326 15:16:02.112891 17389 net.cpp:434] pool2 <- conv2
I0326 15:16:02.112900 17389 net.cpp:408] pool2 -> pool2
I0326 15:16:02.112954 17389 net.cpp:150] Setting up pool2
I0326 15:16:02.112963 17389 net.cpp:157] Top shape: 512 150 9 9 (6220800)
I0326 15:16:02.112967 17389 net.cpp:165] Memory required for data: 1050957824
I0326 15:16:02.112972 17389 layer_factory.hpp:77] Creating layer conv3
I0326 15:16:02.112982 17389 net.cpp:100] Creating Layer conv3
I0326 15:16:02.112988 17389 net.cpp:434] conv3 <- pool2
I0326 15:16:02.112994 17389 net.cpp:408] conv3 -> conv3
I0326 15:16:02.122653 17389 net.cpp:150] Setting up conv3
I0326 15:16:02.122676 17389 net.cpp:157] Top shape: 512 250 6 6 (4608000)
I0326 15:16:02.122681 17389 net.cpp:165] Memory required for data: 1069389824
I0326 15:16:02.122694 17389 layer_factory.hpp:77] Creating layer conv3_relu
I0326 15:16:02.122704 17389 net.cpp:100] Creating Layer conv3_relu
I0326 15:16:02.122709 17389 net.cpp:434] conv3_relu <- conv3
I0326 15:16:02.122714 17389 net.cpp:395] conv3_relu -> conv3 (in-place)
I0326 15:16:02.124774 17389 net.cpp:150] Setting up conv3_relu
I0326 15:16:02.124794 17389 net.cpp:157] Top shape: 512 250 6 6 (4608000)
I0326 15:16:02.124799 17389 net.cpp:165] Memory required for data: 1087821824
I0326 15:16:02.124804 17389 layer_factory.hpp:77] Creating layer pool3
I0326 15:16:02.124811 17389 net.cpp:100] Creating Layer pool3
I0326 15:16:02.124816 17389 net.cpp:434] pool3 <- conv3
I0326 15:16:02.124824 17389 net.cpp:408] pool3 -> pool3
I0326 15:16:02.124881 17389 net.cpp:150] Setting up pool3
I0326 15:16:02.124912 17389 net.cpp:157] Top shape: 512 250 3 3 (1152000)
I0326 15:16:02.124917 17389 net.cpp:165] Memory required for data: 1092429824
I0326 15:16:02.124922 17389 layer_factory.hpp:77] Creating layer fc4_300
I0326 15:16:02.124929 17389 net.cpp:100] Creating Layer fc4_300
I0326 15:16:02.124933 17389 net.cpp:434] fc4_300 <- pool3
I0326 15:16:02.124940 17389 net.cpp:408] fc4_300 -> fc4_300
I0326 15:16:02.131492 17389 net.cpp:150] Setting up fc4_300
I0326 15:16:02.131513 17389 net.cpp:157] Top shape: 512 300 (153600)
I0326 15:16:02.131517 17389 net.cpp:165] Memory required for data: 1093044224
I0326 15:16:02.131525 17389 layer_factory.hpp:77] Creating layer fc4_relu
I0326 15:16:02.131533 17389 net.cpp:100] Creating Layer fc4_relu
I0326 15:16:02.131538 17389 net.cpp:434] fc4_relu <- fc4_300
I0326 15:16:02.131546 17389 net.cpp:395] fc4_relu -> fc4_300 (in-place)
I0326 15:16:02.131769 17389 net.cpp:150] Setting up fc4_relu
I0326 15:16:02.131783 17389 net.cpp:157] Top shape: 512 300 (153600)
I0326 15:16:02.131788 17389 net.cpp:165] Memory required for data: 1093658624
I0326 15:16:02.131791 17389 layer_factory.hpp:77] Creating layer drop4
I0326 15:16:02.131799 17389 net.cpp:100] Creating Layer drop4
I0326 15:16:02.131803 17389 net.cpp:434] drop4 <- fc4_300
I0326 15:16:02.131809 17389 net.cpp:395] drop4 -> fc4_300 (in-place)
I0326 15:16:02.131845 17389 net.cpp:150] Setting up drop4
I0326 15:16:02.131855 17389 net.cpp:157] Top shape: 512 300 (153600)
I0326 15:16:02.131858 17389 net.cpp:165] Memory required for data: 1094273024
I0326 15:16:02.131862 17389 layer_factory.hpp:77] Creating layer fc5_67
I0326 15:16:02.131870 17389 net.cpp:100] Creating Layer fc5_67
I0326 15:16:02.131873 17389 net.cpp:434] fc5_67 <- fc4_300
I0326 15:16:02.131880 17389 net.cpp:408] fc5_67 -> fc5_classes
I0326 15:16:02.134048 17389 net.cpp:150] Setting up fc5_67
I0326 15:16:02.134070 17389 net.cpp:157] Top shape: 512 67 (34304)
I0326 15:16:02.134074 17389 net.cpp:165] Memory required for data: 1094410240
I0326 15:16:02.134088 17389 layer_factory.hpp:77] Creating layer loss
I0326 15:16:02.134096 17389 net.cpp:100] Creating Layer loss
I0326 15:16:02.134100 17389 net.cpp:434] loss <- fc5_classes
I0326 15:16:02.134106 17389 net.cpp:434] loss <- label
I0326 15:16:02.134114 17389 net.cpp:408] loss -> loss
I0326 15:16:02.134129 17389 layer_factory.hpp:77] Creating layer loss
…
I0326 15:16:02.134855 17389 solver.cpp:193] Creating test net (#0) specified by test_net file: ./Prototxt/rtsd-r1/orig/test.prototxt
I0326 15:16:02.135010 17389 net.cpp:58] Initializing net from parameters: 
state {
  phase: TEST
}
layer {
  name: "data"
  type: "Data"
  top: "data"
  top: "label"
  include {
    phase: TEST
  }
  transform_param {
    mirror: false
    crop_size: 48
    mean_value: 113
    mean_value: 110
    mean_value: 132
  }
  data_param {
    source: "../local_data/lmdb/rtsd-r1/orig/test/lmdb"
    batch_size: 512
    backend: LMDB
  }
}
layer {
  name: "conv1"
  type: "Convolution"
  bottom: "data"
  top: "conv1"
  convolution_param {
    num_output: 100
    pad: 0
    kernel_size: 7
    group: 1
    stride: 1
    weight_filler {
      type: "xavier"
    }
  }
}
layer {
  name: "conv1_relu"
  type: "ReLU"
  bottom: "conv1"
  top: "conv1"
}
layer {
  name: "pool1"
  type: "Pooling"
  bottom: "conv1"
  top: "pool1"
  pooling_param {
    pool: MAX
    kernel_size: 2
    stride: 2
  }
}
layer {
  name: "conv2"
  type: "Convolution"
  bottom: "pool1"
  top: "conv2"
  convolution_param {
    num_output: 150
    pad: 0
    kernel_size: 4
    group: 1
    stride: 1
    weight_filler {
      type: "xavier"
    }
  }
}
layer {
  name: "conv2_relu"
  type: "ReLU"
  bottom: "conv2"
  top: "conv2"
}
layer {
  name: "pool2"
  type: "Pooling"
  bottom: "conv2"
  top: "pool2"
  pooling_param {
    pool: MAX
    kernel_size: 2
    stride: 2
  }
}
layer {
  name: "conv3"
  type: "Convolution"
  bottom: "pool2"
  top: "conv3"
  convolution_param {
    num_output: 250
    pad: 0
    kernel_size: 4
    group: 1
    stride: 1
    weight_filler {
      type: "xavier"
    }
  }
}
layer {
  name: "conv3_relu"
  type: "ReLU"
  bottom: "conv3"
  top: "conv3"
}
layer {
  name: "pool3"
  type: "Pooling"
  bottom: "conv3"
  top: "pool3"
  pooling_param {
    pool: MAX
    kernel_size: 2
    stride: 2
  }
}
layer {
  name: "fc4_300"
  type: "InnerProduct"
  bottom: "pool3"
  top: "fc4_300"
  inner_product_param {
    num_output: 300
    weight_filler {
      type: "xavier"
    }
  }
}
layer {
  name: "fc4_relu"
  type: "ReLU"
  bottom: "fc4_300"
  top: "fc4_300"
}
layer {
  name: "drop4"
  type: "Dropout"
  bottom: "fc4_300"
  top: "fc4_300"
  dropout_param {
    dropout_ratio: 0.4
  }
}
layer {
  name: "fc5_67"
  type: "InnerProduct"
  bottom: "fc4_300"
  top: "fc5_classes"
  inner_product_param {
    num_output: 67
    weight_filler {
      type: "xavier"
    }
  }
}
layer {
  name: "loss"
  type: "SoftmaxWithLoss"
  bottom: "fc5_classes"
  bottom: "label"
  top: "loss"
}
layer {
  name: "accuracy_1"
  type: "Accuracy"
  bottom: "fc5_classes"
  bottom: "label"
  top: "accuracy_1"
  include {
    phase: TEST
  }
  accuracy_param {
    top_k: 1
  }
}
layer {
  name: "accuracy_5"
  type: "Accuracy"
  bottom: "fc5_classes"
  bottom: "label"
  top: "accuracy_5"
  include {
    phase: TEST
  }
  accuracy_param {
    top_k: 5
  }
}
I0326 15:16:02.135128 17389 layer_factory.hpp:77] Creating layer data
I0326 15:16:02.135526 17389 net.cpp:100] Creating Layer data
I0326 15:16:02.135540 17389 net.cpp:408] data -> data
I0326 15:16:02.135551 17389 net.cpp:408] data -> label
I0326 15:16:02.140658 17467 db_lmdb.cpp:35] Opened lmdb ../local_data/lmdb/rtsd-r1/orig/test/lmdb
I0326 15:16:02.140919 17389 data_layer.cpp:41] output data size: 512,3,48,48
I0326 15:16:02.167906 17389 net.cpp:150] Setting up data
I0326 15:16:02.167937 17389 net.cpp:157] Top shape: 512 3 48 48 (3538944)
I0326 15:16:02.167944 17389 net.cpp:157] Top shape: 512 (512)
I0326 15:16:02.167948 17389 net.cpp:165] Memory required for data: 14157824
I0326 15:16:02.167954 17389 layer_factory.hpp:77] Creating layer label_data_1_split
I0326 15:16:02.167970 17389 net.cpp:100] Creating Layer label_data_1_split
I0326 15:16:02.167975 17389 net.cpp:434] label_data_1_split <- label
I0326 15:16:02.167984 17389 net.cpp:408] label_data_1_split -> label_data_1_split_0
I0326 15:16:02.167995 17389 net.cpp:408] label_data_1_split -> label_data_1_split_1
I0326 15:16:02.168002 17389 net.cpp:408] label_data_1_split -> label_data_1_split_2
I0326 15:16:02.168097 17389 net.cpp:150] Setting up label_data_1_split
I0326 15:16:02.168107 17389 net.cpp:157] Top shape: 512 (512)
I0326 15:16:02.168133 17389 net.cpp:157] Top shape: 512 (512)
I0326 15:16:02.168138 17389 net.cpp:157] Top shape: 512 (512)
I0326 15:16:02.168140 17389 net.cpp:165] Memory required for data: 14163968
I0326 15:16:02.168145 17389 layer_factory.hpp:77] Creating layer conv1
I0326 15:16:02.168159 17389 net.cpp:100] Creating Layer conv1
I0326 15:16:02.168166 17389 net.cpp:434] conv1 <- data
I0326 15:16:02.168174 17389 net.cpp:408] conv1 -> conv1
I0326 15:16:02.177023 17389 net.cpp:150] Setting up conv1
I0326 15:16:02.177048 17389 net.cpp:157] Top shape: 512 100 42 42 (90316800)
I0326 15:16:02.177054 17389 net.cpp:165] Memory required for data: 375431168
I0326 15:16:02.177069 17389 layer_factory.hpp:77] Creating layer conv1_relu
I0326 15:16:02.177078 17389 net.cpp:100] Creating Layer conv1_relu
I0326 15:16:02.177083 17389 net.cpp:434] conv1_relu <- conv1
I0326 15:16:02.177089 17389 net.cpp:395] conv1_relu -> conv1 (in-place)
I0326 15:16:02.177317 17389 net.cpp:150] Setting up conv1_relu
I0326 15:16:02.177331 17389 net.cpp:157] Top shape: 512 100 42 42 (90316800)
I0326 15:16:02.177335 17389 net.cpp:165] Memory required for data: 736698368
I0326 15:16:02.177340 17389 layer_factory.hpp:77] Creating layer pool1
I0326 15:16:02.177350 17389 net.cpp:100] Creating Layer pool1
I0326 15:16:02.177355 17389 net.cpp:434] pool1 <- conv1
I0326 15:16:02.177361 17389 net.cpp:408] pool1 -> pool1
I0326 15:16:02.177417 17389 net.cpp:150] Setting up pool1
I0326 15:16:02.177426 17389 net.cpp:157] Top shape: 512 100 21 21 (22579200)
I0326 15:16:02.177429 17389 net.cpp:165] Memory required for data: 827015168
I0326 15:16:02.177433 17389 layer_factory.hpp:77] Creating layer conv2
I0326 15:16:02.177443 17389 net.cpp:100] Creating Layer conv2
I0326 15:16:02.177448 17389 net.cpp:434] conv2 <- pool1
I0326 15:16:02.177453 17389 net.cpp:408] conv2 -> conv2
I0326 15:16:02.183641 17389 net.cpp:150] Setting up conv2
I0326 15:16:02.183661 17389 net.cpp:157] Top shape: 512 150 18 18 (24883200)
I0326 15:16:02.183666 17389 net.cpp:165] Memory required for data: 926547968
I0326 15:16:02.183691 17389 layer_factory.hpp:77] Creating layer conv2_relu
I0326 15:16:02.183702 17389 net.cpp:100] Creating Layer conv2_relu
I0326 15:16:02.183706 17389 net.cpp:434] conv2_relu <- conv2
I0326 15:16:02.183713 17389 net.cpp:395] conv2_relu -> conv2 (in-place)
I0326 15:16:02.184614 17389 net.cpp:150] Setting up conv2_relu
I0326 15:16:02.184636 17389 net.cpp:157] Top shape: 512 150 18 18 (24883200)
I0326 15:16:02.184641 17389 net.cpp:165] Memory required for data: 1026080768
I0326 15:16:02.184645 17389 layer_factory.hpp:77] Creating layer pool2
I0326 15:16:02.184659 17389 net.cpp:100] Creating Layer pool2
I0326 15:16:02.184664 17389 net.cpp:434] pool2 <- conv2
I0326 15:16:02.184670 17389 net.cpp:408] pool2 -> pool2
I0326 15:16:02.184734 17389 net.cpp:150] Setting up pool2
I0326 15:16:02.184746 17389 net.cpp:157] Top shape: 512 150 9 9 (6220800)
I0326 15:16:02.184749 17389 net.cpp:165] Memory required for data: 1050963968
I0326 15:16:02.184753 17389 layer_factory.hpp:77] Creating layer conv3
I0326 15:16:02.184768 17389 net.cpp:100] Creating Layer conv3
I0326 15:16:02.184788 17389 net.cpp:434] conv3 <- pool2
I0326 15:16:02.184797 17389 net.cpp:408] conv3 -> conv3
I0326 15:16:02.192185 17389 net.cpp:150] Setting up conv3
I0326 15:16:02.192206 17389 net.cpp:157] Top shape: 512 250 6 6 (4608000)
I0326 15:16:02.192211 17389 net.cpp:165] Memory required for data: 1069395968
I0326 15:16:02.192224 17389 layer_factory.hpp:77] Creating layer conv3_relu
I0326 15:16:02.192231 17389 net.cpp:100] Creating Layer conv3_relu
I0326 15:16:02.192235 17389 net.cpp:434] conv3_relu <- conv3
I0326 15:16:02.192253 17389 net.cpp:395] conv3_relu -> conv3 (in-place)
I0326 15:16:02.194794 17389 net.cpp:150] Setting up conv3_relu
I0326 15:16:02.194813 17389 net.cpp:157] Top shape: 512 250 6 6 (4608000)
I0326 15:16:02.194818 17389 net.cpp:165] Memory required for data: 1087827968
I0326 15:16:02.194823 17389 layer_factory.hpp:77] Creating layer pool3
I0326 15:16:02.194833 17389 net.cpp:100] Creating Layer pool3
I0326 15:16:02.194854 17389 net.cpp:434] pool3 <- conv3
I0326 15:16:02.194861 17389 net.cpp:408] pool3 -> pool3
I0326 15:16:02.194927 17389 net.cpp:150] Setting up pool3
I0326 15:16:02.194938 17389 net.cpp:157] Top shape: 512 250 3 3 (1152000)
I0326 15:16:02.194942 17389 net.cpp:165] Memory required for data: 1092435968
I0326 15:16:02.194947 17389 layer_factory.hpp:77] Creating layer fc4_300
I0326 15:16:02.194954 17389 net.cpp:100] Creating Layer fc4_300
I0326 15:16:02.194958 17389 net.cpp:434] fc4_300 <- pool3
I0326 15:16:02.194967 17389 net.cpp:408] fc4_300 -> fc4_300
I0326 15:16:02.202472 17389 net.cpp:150] Setting up fc4_300
I0326 15:16:02.202499 17389 net.cpp:157] Top shape: 512 300 (153600)
I0326 15:16:02.202504 17389 net.cpp:165] Memory required for data: 1093050368
I0326 15:16:02.202513 17389 layer_factory.hpp:77] Creating layer fc4_relu
I0326 15:16:02.202523 17389 net.cpp:100] Creating Layer fc4_relu
I0326 15:16:02.202527 17389 net.cpp:434] fc4_relu <- fc4_300
I0326 15:16:02.202534 17389 net.cpp:395] fc4_relu -> fc4_300 (in-place)
I0326 15:16:02.202821 17389 net.cpp:150] Setting up fc4_relu
I0326 15:16:02.202836 17389 net.cpp:157] Top shape: 512 300 (153600)
I0326 15:16:02.202841 17389 net.cpp:165] Memory required for data: 1093664768
I0326 15:16:02.202844 17389 layer_factory.hpp:77] Creating layer drop4
I0326 15:16:02.202853 17389 net.cpp:100] Creating Layer drop4
I0326 15:16:02.202857 17389 net.cpp:434] drop4 <- fc4_300
I0326 15:16:02.202867 17389 net.cpp:395] drop4 -> fc4_300 (in-place)
I0326 15:16:02.204035 17389 net.cpp:150] Setting up drop4
I0326 15:16:02.204046 17389 net.cpp:157] Top shape: 512 300 (153600)
I0326 15:16:02.204051 17389 net.cpp:165] Memory required for data: 1094279168
I0326 15:16:02.204054 17389 layer_factory.hpp:77] Creating layer fc5_67
I0326 15:16:02.204062 17389 net.cpp:100] Creating Layer fc5_67
I0326 15:16:02.204066 17389 net.cpp:434] fc5_67 <- fc4_300
I0326 15:16:02.204073 17389 net.cpp:408] fc5_67 -> fc5_classes
I0326 15:16:02.204499 17389 net.cpp:150] Setting up fc5_67
I0326 15:16:02.204510 17389 net.cpp:157] Top shape: 512 67 (34304)
I0326 15:16:02.204514 17389 net.cpp:165] Memory required for data: 1094416384
I0326 15:16:02.204527 17389 layer_factory.hpp:77] Creating layer fc5_classes_fc5_67_0_split
I0326 15:16:02.204537 17389 net.cpp:100] Creating Layer fc5_classes_fc5_67_0_split
I0326 15:16:02.204545 17389 net.cpp:434] fc5_classes_fc5_67_0_split <- fc5_classes
I0326 15:16:02.204552 17389 net.cpp:408] fc5_classes_fc5_67_0_split -> fc5_classes_fc5_67_0_split_0
I0326 15:16:02.204563 17389 net.cpp:408] fc5_classes_fc5_67_0_split -> fc5_classes_fc5_67_0_split_1
I0326 15:16:02.204571 17389 net.cpp:408] fc5_classes_fc5_67_0_split -> fc5_classes_fc5_67_0_split_2
I0326 15:16:02.204638 17389 net.cpp:150] Setting up fc5_classes_fc5_67_0_split
I0326 15:16:02.204648 17389 net.cpp:157] Top shape: 512 67 (34304)
I0326 15:16:02.204653 17389 net.cpp:157] Top shape: 512 67 (34304)
I0326 15:16:02.204656 17389 net.cpp:157] Top shape: 512 67 (34304)
I0326 15:16:02.204659 17389 net.cpp:165] Memory required for data: 1094828032
I0326 15:16:02.204663 17389 layer_factory.hpp:77] Creating layer loss
I0326 15:16:02.204675 17389 net.cpp:100] Creating Layer loss
I0326 15:16:02.204679 17389 net.cpp:434] loss <- fc5_classes_fc5_67_0_split_0
I0326 15:16:02.204684 17389 net.cpp:434] loss <- label_data_1_split_0
I0326 15:16:02.204690 17389 net.cpp:408] loss -> loss
…
