…
I0409 10:11:17.614181  2253 net.cpp:322] The NetState phase (0) differed from the phase (1) specified by a rule in layer accuracy_5
I0409 10:11:17.614297  2253 net.cpp:58] Initializing net from parameters: 
state {
  phase: TRAIN
  level: 0
  stage: ""
}
layer {
  name: "data"
  type: "Data"
  top: "data"
  top: "label"
  include {
    phase: TRAIN
  }
  transform_param {
    mirror: false
    crop_size: 48
    mean_value: 115
    mean_value: 108
    mean_value: 122
  }
  data_param {
    source: "../local_data/lmdb/rtsd-r1/imajust/train/lmdb"
    batch_size: 1024
    backend: LMDB
  }
}
layer {
  name: "conv1"
  type: "Convolution"
  bottom: "data"
  top: "conv1"
  convolution_param {
    num_output: 100
    pad: 0
    kernel_size: 7
    group: 1
    stride: 1
    weight_filler {
      type: "xavier"
    }
  }
}
layer {
  name: "conv1_relu"
  type: "ReLU"
  bottom: "conv1"
  top: "conv1"
}
layer {
  name: "pool1"
  type: "Pooling"
  bottom: "conv1"
  top: "pool1"
  pooling_param {
    pool: MAX
    kernel_size: 2
    stride: 2
  }
}
layer {
  name: "conv2"
  type: "Convolution"
  bottom: "pool1"
  top: "conv2"
  convolution_param {
    num_output: 150
    pad: 0
    kernel_size: 4
    group: 1
    stride: 1
    weight_filler {
      type: "xavier"
    }
  }
}
layer {
  name: "conv2_relu"
  type: "ReLU"
  bottom: "conv2"
  top: "conv2"
}
layer {
  name: "pool2"
  type: "Pooling"
  bottom: "conv2"
  top: "pool2"
  pooling_param {
    pool: MAX
    kernel_size: 2
    stride: 2
  }
}
layer {
  name: "conv3"
  type: "Convolution"
  bottom: "pool2"
  top: "conv3"
  convolution_param {
    num_output: 250
    pad: 0
    kernel_size: 4
    group: 1
    stride: 1
    weight_filler {
      type: "xavier"
    }
  }
}
layer {
  name: "conv3_relu"
  type: "ReLU"
  bottom: "conv3"
  top: "conv3"
}
layer {
  name: "pool3"
  type: "Pooling"
  bottom: "conv3"
  top: "pool3"
  pooling_param {
    pool: MAX
    kernel_size: 2
    stride: 2
  }
}
layer {
  name: "fc4_300"
  type: "InnerProduct"
  bottom: "pool3"
  top: "fc4_300"
  inner_product_param {
    num_output: 300
    weight_filler {
      type: "xavier"
    }
  }
}
layer {
  name: "fc4_relu"
  type: "ReLU"
  bottom: "fc4_300"
  top: "fc4_300"
}
layer {
  name: "drop4"
  type: "Dropout"
  bottom: "fc4_300"
  top: "fc4_300"
  dropout_param {
    dropout_ratio: 0.4
  }
}
layer {
  name: "fc5_67"
  type: "InnerProduct"
  bottom: "fc4_300"
  top: "fc5_classes"
  inner_product_param {
    num_output: 67
    weight_filler {
      type: "xavier"
    }
  }
}
layer {
  name: "loss"
  type: "SoftmaxWithLoss"
  bottom: "fc5_classes"
  bottom: "label"
  top: "loss"
}
I0409 10:11:17.614387  2253 layer_factory.hpp:77] Creating layer data
I0409 10:11:17.615654  2253 net.cpp:100] Creating Layer data
I0409 10:11:17.615672  2253 net.cpp:408] data -> data
I0409 10:11:17.615703  2253 net.cpp:408] data -> label
I0409 10:11:17.617306  2307 db_lmdb.cpp:35] Opened lmdb ../local_data/lmdb/rtsd-r1/imajust/train/lmdb
I0409 10:11:17.648212  2253 data_layer.cpp:41] output data size: 1024,3,48,48
I0409 10:11:17.700013  2253 net.cpp:150] Setting up data
I0409 10:11:17.700048  2253 net.cpp:157] Top shape: 1024 3 48 48 (7077888)
I0409 10:11:17.700083  2253 net.cpp:157] Top shape: 1024 (1024)
I0409 10:11:17.700086  2253 net.cpp:165] Memory required for data: 28315648
I0409 10:11:17.700098  2253 layer_factory.hpp:77] Creating layer conv1
I0409 10:11:17.700124  2253 net.cpp:100] Creating Layer conv1
I0409 10:11:17.700132  2253 net.cpp:434] conv1 <- data
I0409 10:11:17.700147  2253 net.cpp:408] conv1 -> conv1
I0409 10:11:18.037544  2253 net.cpp:150] Setting up conv1
I0409 10:11:18.037578  2253 net.cpp:157] Top shape: 1024 100 42 42 (180633600)
I0409 10:11:18.037583  2253 net.cpp:165] Memory required for data: 750850048
I0409 10:11:18.037609  2253 layer_factory.hpp:77] Creating layer conv1_relu
I0409 10:11:18.037623  2253 net.cpp:100] Creating Layer conv1_relu
I0409 10:11:18.037631  2253 net.cpp:434] conv1_relu <- conv1
I0409 10:11:18.037638  2253 net.cpp:395] conv1_relu -> conv1 (in-place)
I0409 10:11:18.037874  2253 net.cpp:150] Setting up conv1_relu
I0409 10:11:18.037889  2253 net.cpp:157] Top shape: 1024 100 42 42 (180633600)
I0409 10:11:18.037892  2253 net.cpp:165] Memory required for data: 1473384448
I0409 10:11:18.037897  2253 layer_factory.hpp:77] Creating layer pool1
I0409 10:11:18.037905  2253 net.cpp:100] Creating Layer pool1
I0409 10:11:18.037911  2253 net.cpp:434] pool1 <- conv1
I0409 10:11:18.037919  2253 net.cpp:408] pool1 -> pool1
I0409 10:11:18.037982  2253 net.cpp:150] Setting up pool1
I0409 10:11:18.037992  2253 net.cpp:157] Top shape: 1024 100 21 21 (45158400)
I0409 10:11:18.037997  2253 net.cpp:165] Memory required for data: 1654018048
I0409 10:11:18.038000  2253 layer_factory.hpp:77] Creating layer conv2
I0409 10:11:18.038013  2253 net.cpp:100] Creating Layer conv2
I0409 10:11:18.038019  2253 net.cpp:434] conv2 <- pool1
I0409 10:11:18.038025  2253 net.cpp:408] conv2 -> conv2
I0409 10:11:18.043256  2253 net.cpp:150] Setting up conv2
I0409 10:11:18.043277  2253 net.cpp:157] Top shape: 1024 150 18 18 (49766400)
I0409 10:11:18.043282  2253 net.cpp:165] Memory required for data: 1853083648
I0409 10:11:18.043294  2253 layer_factory.hpp:77] Creating layer conv2_relu
I0409 10:11:18.043303  2253 net.cpp:100] Creating Layer conv2_relu
I0409 10:11:18.043306  2253 net.cpp:434] conv2_relu <- conv2
I0409 10:11:18.043313  2253 net.cpp:395] conv2_relu -> conv2 (in-place)
I0409 10:11:18.044217  2253 net.cpp:150] Setting up conv2_relu
I0409 10:11:18.044236  2253 net.cpp:157] Top shape: 1024 150 18 18 (49766400)
I0409 10:11:18.044240  2253 net.cpp:165] Memory required for data: 2052149248
I0409 10:11:18.044245  2253 layer_factory.hpp:77] Creating layer pool2
I0409 10:11:18.044253  2253 net.cpp:100] Creating Layer pool2
I0409 10:11:18.044257  2253 net.cpp:434] pool2 <- conv2
I0409 10:11:18.044265  2253 net.cpp:408] pool2 -> pool2
I0409 10:11:18.044319  2253 net.cpp:150] Setting up pool2
I0409 10:11:18.044329  2253 net.cpp:157] Top shape: 1024 150 9 9 (12441600)
I0409 10:11:18.044333  2253 net.cpp:165] Memory required for data: 2101915648
I0409 10:11:18.044337  2253 layer_factory.hpp:77] Creating layer conv3
I0409 10:11:18.044347  2253 net.cpp:100] Creating Layer conv3
I0409 10:11:18.044350  2253 net.cpp:434] conv3 <- pool2
I0409 10:11:18.044356  2253 net.cpp:408] conv3 -> conv3
I0409 10:11:18.051008  2253 net.cpp:150] Setting up conv3
I0409 10:11:18.051029  2253 net.cpp:157] Top shape: 1024 250 6 6 (9216000)
I0409 10:11:18.051033  2253 net.cpp:165] Memory required for data: 2138779648
I0409 10:11:18.051045  2253 layer_factory.hpp:77] Creating layer conv3_relu
I0409 10:11:18.051055  2253 net.cpp:100] Creating Layer conv3_relu
I0409 10:11:18.051059  2253 net.cpp:434] conv3_relu <- conv3
I0409 10:11:18.051065  2253 net.cpp:395] conv3_relu -> conv3 (in-place)
I0409 10:11:18.051983  2253 net.cpp:150] Setting up conv3_relu
I0409 10:11:18.052002  2253 net.cpp:157] Top shape: 1024 250 6 6 (9216000)
I0409 10:11:18.052007  2253 net.cpp:165] Memory required for data: 2175643648
I0409 10:11:18.052011  2253 layer_factory.hpp:77] Creating layer pool3
I0409 10:11:18.052019  2253 net.cpp:100] Creating Layer pool3
I0409 10:11:18.052023  2253 net.cpp:434] pool3 <- conv3
I0409 10:11:18.052052  2253 net.cpp:408] pool3 -> pool3
I0409 10:11:18.052112  2253 net.cpp:150] Setting up pool3
I0409 10:11:18.052124  2253 net.cpp:157] Top shape: 1024 250 3 3 (2304000)
I0409 10:11:18.052127  2253 net.cpp:165] Memory required for data: 2184859648
I0409 10:11:18.052130  2253 layer_factory.hpp:77] Creating layer fc4_300
I0409 10:11:18.052139  2253 net.cpp:100] Creating Layer fc4_300
I0409 10:11:18.052144  2253 net.cpp:434] fc4_300 <- pool3
I0409 10:11:18.052148  2253 net.cpp:408] fc4_300 -> fc4_300
I0409 10:11:18.058720  2253 net.cpp:150] Setting up fc4_300
I0409 10:11:18.058740  2253 net.cpp:157] Top shape: 1024 300 (307200)
I0409 10:11:18.058745  2253 net.cpp:165] Memory required for data: 2186088448
I0409 10:11:18.058754  2253 layer_factory.hpp:77] Creating layer fc4_relu
I0409 10:11:18.058761  2253 net.cpp:100] Creating Layer fc4_relu
I0409 10:11:18.058765  2253 net.cpp:434] fc4_relu <- fc4_300
I0409 10:11:18.058771  2253 net.cpp:395] fc4_relu -> fc4_300 (in-place)
I0409 10:11:18.059002  2253 net.cpp:150] Setting up fc4_relu
I0409 10:11:18.059016  2253 net.cpp:157] Top shape: 1024 300 (307200)
I0409 10:11:18.059020  2253 net.cpp:165] Memory required for data: 2187317248
I0409 10:11:18.059026  2253 layer_factory.hpp:77] Creating layer drop4
I0409 10:11:18.059033  2253 net.cpp:100] Creating Layer drop4
I0409 10:11:18.059037  2253 net.cpp:434] drop4 <- fc4_300
I0409 10:11:18.059042  2253 net.cpp:395] drop4 -> fc4_300 (in-place)
I0409 10:11:18.059079  2253 net.cpp:150] Setting up drop4
I0409 10:11:18.059088  2253 net.cpp:157] Top shape: 1024 300 (307200)
I0409 10:11:18.059092  2253 net.cpp:165] Memory required for data: 2188546048
I0409 10:11:18.059095  2253 layer_factory.hpp:77] Creating layer fc5_67
I0409 10:11:18.059103  2253 net.cpp:100] Creating Layer fc5_67
I0409 10:11:18.059106  2253 net.cpp:434] fc5_67 <- fc4_300
I0409 10:11:18.059113  2253 net.cpp:408] fc5_67 -> fc5_classes
I0409 10:11:18.060510  2253 net.cpp:150] Setting up fc5_67
I0409 10:11:18.060529  2253 net.cpp:157] Top shape: 1024 67 (68608)
I0409 10:11:18.060534  2253 net.cpp:165] Memory required for data: 2188820480
I0409 10:11:18.060545  2253 layer_factory.hpp:77] Creating layer loss
I0409 10:11:18.060554  2253 net.cpp:100] Creating Layer loss
I0409 10:11:18.060557  2253 net.cpp:434] loss <- fc5_classes
I0409 10:11:18.060564  2253 net.cpp:434] loss <- label
I0409 10:11:18.060570  2253 net.cpp:408] loss -> loss
I0409 10:11:18.060590  2253 layer_factory.hpp:77] Creating layer loss
…
I0409 10:11:18.061357  2253 solver.cpp:193] Creating test net (#0) specified by test_net file: ./Prototxt/experiment_6/rtsd-r1/imajust/trial_3/test.prototxt
I0409 10:11:18.061532  2253 net.cpp:58] Initializing net from parameters: 
state {
  phase: TEST
}
layer {
  name: "data"
  type: "Data"
  top: "data"
  top: "label"
  include {
    phase: TEST
  }
  transform_param {
    mirror: false
    crop_size: 48
    mean_value: 109
    mean_value: 106
    mean_value: 126
  }
  data_param {
    source: "../local_data/lmdb/rtsd-r1/imajust/test/lmdb"
    batch_size: 1024
    backend: LMDB
  }
}
layer {
  name: "conv1"
  type: "Convolution"
  bottom: "data"
  top: "conv1"
  convolution_param {
    num_output: 100
    pad: 0
    kernel_size: 7
    group: 1
    stride: 1
    weight_filler {
      type: "xavier"
    }
  }
}
layer {
  name: "conv1_relu"
  type: "ReLU"
  bottom: "conv1"
  top: "conv1"
}
layer {
  name: "pool1"
  type: "Pooling"
  bottom: "conv1"
  top: "pool1"
  pooling_param {
    pool: MAX
    kernel_size: 2
    stride: 2
  }
}
layer {
  name: "conv2"
  type: "Convolution"
  bottom: "pool1"
  top: "conv2"
  convolution_param {
    num_output: 150
    pad: 0
    kernel_size: 4
    group: 1
    stride: 1
    weight_filler {
      type: "xavier"
    }
  }
}
layer {
  name: "conv2_relu"
  type: "ReLU"
  bottom: "conv2"
  top: "conv2"
}
layer {
  name: "pool2"
  type: "Pooling"
  bottom: "conv2"
  top: "pool2"
  pooling_param {
    pool: MAX
    kernel_size: 2
    stride: 2
  }
}
layer {
  name: "conv3"
  type: "Convolution"
  bottom: "pool2"
  top: "conv3"
  convolution_param {
    num_output: 250
    pad: 0
    kernel_size: 4
    group: 1
    stride: 1
    weight_filler {
      type: "xavier"
    }
  }
}
layer {
  name: "conv3_relu"
  type: "ReLU"
  bottom: "conv3"
  top: "conv3"
}
layer {
  name: "pool3"
  type: "Pooling"
  bottom: "conv3"
  top: "pool3"
  pooling_param {
    pool: MAX
    kernel_size: 2
    stride: 2
  }
}
layer {
  name: "fc4_300"
  type: "InnerProduct"
  bottom: "pool3"
  top: "fc4_300"
  inner_product_param {
    num_output: 300
    weight_filler {
      type: "xavier"
    }
  }
}
layer {
  name: "fc4_relu"
  type: "ReLU"
  bottom: "fc4_300"
  top: "fc4_300"
}
layer {
  name: "drop4"
  type: "Dropout"
  bottom: "fc4_300"
  top: "fc4_300"
  dropout_param {
    dropout_ratio: 0.4
  }
}
layer {
  name: "fc5_67"
  type: "InnerProduct"
  bottom: "fc4_300"
  top: "fc5_classes"
  inner_product_param {
    num_output: 67
    weight_filler {
      type: "xavier"
    }
  }
}
layer {
  name: "loss"
  type: "SoftmaxWithLoss"
  bottom: "fc5_classes"
  bottom: "label"
  top: "loss"
}
layer {
  name: "accuracy_1"
  type: "Accuracy"
  bottom: "fc5_classes"
  bottom: "label"
  top: "accuracy_1"
  include {
    phase: TEST
  }
  accuracy_param {
    top_k: 1
  }
}
layer {
  name: "accuracy_5"
  type: "Accuracy"
  bottom: "fc5_classes"
  bottom: "label"
  top: "accuracy_5"
  include {
    phase: TEST
  }
  accuracy_param {
    top_k: 5
  }
}
I0409 10:11:18.061635  2253 layer_factory.hpp:77] Creating layer data
I0409 10:11:18.062693  2253 net.cpp:100] Creating Layer data
I0409 10:11:18.062710  2253 net.cpp:408] data -> data
I0409 10:11:18.062722  2253 net.cpp:408] data -> label
I0409 10:11:18.063776  2318 db_lmdb.cpp:35] Opened lmdb ../local_data/lmdb/rtsd-r1/imajust/test/lmdb
I0409 10:11:18.064039  2253 data_layer.cpp:41] output data size: 1024,3,48,48
I0409 10:11:18.111150  2253 net.cpp:150] Setting up data
I0409 10:11:18.111181  2253 net.cpp:157] Top shape: 1024 3 48 48 (7077888)
I0409 10:11:18.111188  2253 net.cpp:157] Top shape: 1024 (1024)
I0409 10:11:18.111191  2253 net.cpp:165] Memory required for data: 28315648
I0409 10:11:18.111198  2253 layer_factory.hpp:77] Creating layer label_data_1_split
I0409 10:11:18.111212  2253 net.cpp:100] Creating Layer label_data_1_split
I0409 10:11:18.111217  2253 net.cpp:434] label_data_1_split <- label
I0409 10:11:18.111227  2253 net.cpp:408] label_data_1_split -> label_data_1_split_0
I0409 10:11:18.111239  2253 net.cpp:408] label_data_1_split -> label_data_1_split_1
I0409 10:11:18.111246  2253 net.cpp:408] label_data_1_split -> label_data_1_split_2
I0409 10:11:18.111449  2253 net.cpp:150] Setting up label_data_1_split
I0409 10:11:18.111461  2253 net.cpp:157] Top shape: 1024 (1024)
I0409 10:11:18.111465  2253 net.cpp:157] Top shape: 1024 (1024)
I0409 10:11:18.111471  2253 net.cpp:157] Top shape: 1024 (1024)
I0409 10:11:18.111474  2253 net.cpp:165] Memory required for data: 28327936
I0409 10:11:18.111477  2253 layer_factory.hpp:77] Creating layer conv1
I0409 10:11:18.111500  2253 net.cpp:100] Creating Layer conv1
I0409 10:11:18.111508  2253 net.cpp:434] conv1 <- data
I0409 10:11:18.111519  2253 net.cpp:408] conv1 -> conv1
I0409 10:11:18.115933  2253 net.cpp:150] Setting up conv1
I0409 10:11:18.115958  2253 net.cpp:157] Top shape: 1024 100 42 42 (180633600)
I0409 10:11:18.115962  2253 net.cpp:165] Memory required for data: 750862336
I0409 10:11:18.115978  2253 layer_factory.hpp:77] Creating layer conv1_relu
I0409 10:11:18.115990  2253 net.cpp:100] Creating Layer conv1_relu
I0409 10:11:18.115995  2253 net.cpp:434] conv1_relu <- conv1
I0409 10:11:18.116003  2253 net.cpp:395] conv1_relu -> conv1 (in-place)
I0409 10:11:18.116257  2253 net.cpp:150] Setting up conv1_relu
I0409 10:11:18.116272  2253 net.cpp:157] Top shape: 1024 100 42 42 (180633600)
I0409 10:11:18.116276  2253 net.cpp:165] Memory required for data: 1473396736
I0409 10:11:18.116281  2253 layer_factory.hpp:77] Creating layer pool1
I0409 10:11:18.116292  2253 net.cpp:100] Creating Layer pool1
I0409 10:11:18.116299  2253 net.cpp:434] pool1 <- conv1
I0409 10:11:18.116305  2253 net.cpp:408] pool1 -> pool1
I0409 10:11:18.116369  2253 net.cpp:150] Setting up pool1
I0409 10:11:18.116379  2253 net.cpp:157] Top shape: 1024 100 21 21 (45158400)
I0409 10:11:18.116382  2253 net.cpp:165] Memory required for data: 1654030336
I0409 10:11:18.116386  2253 layer_factory.hpp:77] Creating layer conv2
I0409 10:11:18.116400  2253 net.cpp:100] Creating Layer conv2
I0409 10:11:18.116405  2253 net.cpp:434] conv2 <- pool1
I0409 10:11:18.116413  2253 net.cpp:408] conv2 -> conv2
I0409 10:11:18.121315  2253 net.cpp:150] Setting up conv2
I0409 10:11:18.121335  2253 net.cpp:157] Top shape: 1024 150 18 18 (49766400)
I0409 10:11:18.121340  2253 net.cpp:165] Memory required for data: 1853095936
I0409 10:11:18.121351  2253 layer_factory.hpp:77] Creating layer conv2_relu
I0409 10:11:18.121359  2253 net.cpp:100] Creating Layer conv2_relu
I0409 10:11:18.121366  2253 net.cpp:434] conv2_relu <- conv2
I0409 10:11:18.121376  2253 net.cpp:395] conv2_relu -> conv2 (in-place)
I0409 10:11:18.122347  2253 net.cpp:150] Setting up conv2_relu
I0409 10:11:18.122370  2253 net.cpp:157] Top shape: 1024 150 18 18 (49766400)
I0409 10:11:18.122373  2253 net.cpp:165] Memory required for data: 2052161536
I0409 10:11:18.122378  2253 layer_factory.hpp:77] Creating layer pool2
I0409 10:11:18.122386  2253 net.cpp:100] Creating Layer pool2
I0409 10:11:18.122390  2253 net.cpp:434] pool2 <- conv2
I0409 10:11:18.122400  2253 net.cpp:408] pool2 -> pool2
I0409 10:11:18.122467  2253 net.cpp:150] Setting up pool2
I0409 10:11:18.122481  2253 net.cpp:157] Top shape: 1024 150 9 9 (12441600)
I0409 10:11:18.122485  2253 net.cpp:165] Memory required for data: 2101927936
I0409 10:11:18.122489  2253 layer_factory.hpp:77] Creating layer conv3
I0409 10:11:18.122503  2253 net.cpp:100] Creating Layer conv3
I0409 10:11:18.122509  2253 net.cpp:434] conv3 <- pool2
I0409 10:11:18.122517  2253 net.cpp:408] conv3 -> conv3
I0409 10:11:18.129601  2253 net.cpp:150] Setting up conv3
I0409 10:11:18.129621  2253 net.cpp:157] Top shape: 1024 250 6 6 (9216000)
I0409 10:11:18.129626  2253 net.cpp:165] Memory required for data: 2138791936
I0409 10:11:18.129637  2253 layer_factory.hpp:77] Creating layer conv3_relu
I0409 10:11:18.129653  2253 net.cpp:100] Creating Layer conv3_relu
I0409 10:11:18.129658  2253 net.cpp:434] conv3_relu <- conv3
I0409 10:11:18.129664  2253 net.cpp:395] conv3_relu -> conv3 (in-place)
I0409 10:11:18.131377  2253 net.cpp:150] Setting up conv3_relu
I0409 10:11:18.131395  2253 net.cpp:157] Top shape: 1024 250 6 6 (9216000)
I0409 10:11:18.131399  2253 net.cpp:165] Memory required for data: 2175655936
I0409 10:11:18.131423  2253 layer_factory.hpp:77] Creating layer pool3
I0409 10:11:18.131435  2253 net.cpp:100] Creating Layer pool3
I0409 10:11:18.131440  2253 net.cpp:434] pool3 <- conv3
I0409 10:11:18.131448  2253 net.cpp:408] pool3 -> pool3
I0409 10:11:18.131513  2253 net.cpp:150] Setting up pool3
I0409 10:11:18.131525  2253 net.cpp:157] Top shape: 1024 250 3 3 (2304000)
I0409 10:11:18.131528  2253 net.cpp:165] Memory required for data: 2184871936
I0409 10:11:18.131531  2253 layer_factory.hpp:77] Creating layer fc4_300
I0409 10:11:18.131541  2253 net.cpp:100] Creating Layer fc4_300
I0409 10:11:18.131549  2253 net.cpp:434] fc4_300 <- pool3
I0409 10:11:18.131556  2253 net.cpp:408] fc4_300 -> fc4_300
I0409 10:11:18.138411  2253 net.cpp:150] Setting up fc4_300
I0409 10:11:18.138429  2253 net.cpp:157] Top shape: 1024 300 (307200)
I0409 10:11:18.138433  2253 net.cpp:165] Memory required for data: 2186100736
I0409 10:11:18.138442  2253 layer_factory.hpp:77] Creating layer fc4_relu
I0409 10:11:18.138449  2253 net.cpp:100] Creating Layer fc4_relu
I0409 10:11:18.138453  2253 net.cpp:434] fc4_relu <- fc4_300
I0409 10:11:18.138461  2253 net.cpp:395] fc4_relu -> fc4_300 (in-place)
I0409 10:11:18.138705  2253 net.cpp:150] Setting up fc4_relu
I0409 10:11:18.138720  2253 net.cpp:157] Top shape: 1024 300 (307200)
I0409 10:11:18.138737  2253 net.cpp:165] Memory required for data: 2187329536
I0409 10:11:18.138744  2253 layer_factory.hpp:77] Creating layer drop4
I0409 10:11:18.138753  2253 net.cpp:100] Creating Layer drop4
I0409 10:11:18.138762  2253 net.cpp:434] drop4 <- fc4_300
I0409 10:11:18.138768  2253 net.cpp:395] drop4 -> fc4_300 (in-place)
I0409 10:11:18.138806  2253 net.cpp:150] Setting up drop4
I0409 10:11:18.138815  2253 net.cpp:157] Top shape: 1024 300 (307200)
I0409 10:11:18.138819  2253 net.cpp:165] Memory required for data: 2188558336
I0409 10:11:18.138823  2253 layer_factory.hpp:77] Creating layer fc5_67
I0409 10:11:18.138831  2253 net.cpp:100] Creating Layer fc5_67
I0409 10:11:18.138840  2253 net.cpp:434] fc5_67 <- fc4_300
I0409 10:11:18.138849  2253 net.cpp:408] fc5_67 -> fc5_classes
I0409 10:11:18.139160  2253 net.cpp:150] Setting up fc5_67
I0409 10:11:18.139178  2253 net.cpp:157] Top shape: 1024 67 (68608)
I0409 10:11:18.139181  2253 net.cpp:165] Memory required for data: 2188832768
I0409 10:11:18.139192  2253 layer_factory.hpp:77] Creating layer fc5_classes_fc5_67_0_split
I0409 10:11:18.139201  2253 net.cpp:100] Creating Layer fc5_classes_fc5_67_0_split
I0409 10:11:18.139205  2253 net.cpp:434] fc5_classes_fc5_67_0_split <- fc5_classes
I0409 10:11:18.139214  2253 net.cpp:408] fc5_classes_fc5_67_0_split -> fc5_classes_fc5_67_0_split_0
I0409 10:11:18.139222  2253 net.cpp:408] fc5_classes_fc5_67_0_split -> fc5_classes_fc5_67_0_split_1
I0409 10:11:18.139230  2253 net.cpp:408] fc5_classes_fc5_67_0_split -> fc5_classes_fc5_67_0_split_2
I0409 10:11:18.139297  2253 net.cpp:150] Setting up fc5_classes_fc5_67_0_split
I0409 10:11:18.139307  2253 net.cpp:157] Top shape: 1024 67 (68608)
I0409 10:11:18.139310  2253 net.cpp:157] Top shape: 1024 67 (68608)
I0409 10:11:18.139314  2253 net.cpp:157] Top shape: 1024 67 (68608)
I0409 10:11:18.139318  2253 net.cpp:165] Memory required for data: 2189656064
I0409 10:11:18.139322  2253 layer_factory.hpp:77] Creating layer loss
I0409 10:11:18.139334  2253 net.cpp:100] Creating Layer loss
I0409 10:11:18.139340  2253 net.cpp:434] loss <- fc5_classes_fc5_67_0_split_0
I0409 10:11:18.139345  2253 net.cpp:434] loss <- label_data_1_split_0
I0409 10:11:18.139353  2253 net.cpp:408] loss -> loss
…
