…
I0529 02:38:28.128672 27018 solver.cpp:81] Creating training net from train_net file: ./Prototxt/experiment_22/RTSD/orig/trial_4/train.prototxt
I0529 02:38:28.132370 27018 net.cpp:58] Initializing net from parameters: 
state {
  phase: TRAIN
  level: 0
  stage: ""
}
layer {
  name: "data"
  type: "Data"
  top: "data"
  top: "label"
  include {
    phase: TRAIN
  }
  transform_param {
    scale: 0.0039215689
    mirror: false
    crop_size: 48
    mean_value: 119
    mean_value: 113
    mean_value: 113
  }
  data_param {
    source: "../local_data/lmdb/RTSD/orig/train/lmdb"
    batch_size: 1024
    backend: LMDB
  }
}
layer {
  name: "conv1"
  type: "Convolution"
  bottom: "data"
  top: "conv1"
  convolution_param {
    num_output: 100
    pad: 0
    kernel_size: 7
    group: 1
    stride: 1
    weight_filler {
      type: "xavier"
    }
  }
}
layer {
  name: "conv1_relu"
  type: "ReLU"
  bottom: "conv1"
  top: "conv1"
}
layer {
  name: "pool1"
  type: "Pooling"
  bottom: "conv1"
  top: "pool1"
  pooling_param {
    pool: MAX
    kernel_size: 2
    stride: 2
  }
}
layer {
  name: "conv2"
  type: "Convolution"
  bottom: "pool1"
  top: "conv2"
  convolution_param {
    num_output: 150
    pad: 0
    kernel_size: 4
    group: 1
    stride: 1
    weight_filler {
      type: "xavier"
    }
  }
}
layer {
  name: "conv2_relu"
  type: "ReLU"
  bottom: "conv2"
  top: "conv2"
}
layer {
  name: "pool2"
  type: "Pooling"
  bottom: "conv2"
  top: "pool2"
  pooling_param {
    pool: MAX
    kernel_size: 2
    stride: 2
  }
}
layer {
  name: "conv3"
  type: "Convolution"
  bottom: "pool2"
  top: "conv3"
  convolution_param {
    num_output: 250
    pad: 0
    kernel_size: 4
    group: 1
    stride: 1
    weight_filler {
      type: "xavier"
    }
  }
}
layer {
  name: "conv3_relu"
  type: "ReLU"
  bottom: "conv3"
  top: "conv3"
}
layer {
  name: "pool3"
  type: "Pooling"
  bottom: "conv3"
  top: "pool3"
  pooling_param {
    pool: MAX
    kernel_size: 2
    stride: 2
  }
}
layer {
  name: "fc4_300"
  type: "InnerProduct"
  bottom: "pool3"
  top: "fc4_300"
  inner_product_param {
    num_output: 300
    weight_filler {
      type: "xavier"
    }
  }
}
layer {
  name: "fc4_relu"
  type: "ReLU"
  bottom: "fc4_300"
  top: "fc4_300"
}
layer {
  name: "fc5_116"
  type: "InnerProduct"
  bottom: "fc4_300"
  top: "fc5_classes"
  inner_product_param {
    num_output: 116
    weight_filler {
      type: "xavier"
    }
  }
}
layer {
  name: "softmax"
  type: "Softmax"
  bottom: "fc5_classes"
  top: "softmax"
}
layer {
  name: "loss"
  type: "MultinomialLogisticLoss"
  bottom: "softmax"
  bottom: "label"
  top: "loss"
}
layer {
  name: "accuracy_1"
  type: "Accuracy"
  bottom: "fc5_classes"
  bottom: "label"
  top: "accuracy_1"
  accuracy_param {
    top_k: 1
  }
}
layer {
  name: "accuracy_5"
  type: "Accuracy"
  bottom: "fc5_classes"
  bottom: "label"
  top: "accuracy_5"
  accuracy_param {
    top_k: 5
  }
}
layer {
  name: "silence"
  type: "Silence"
  bottom: "accuracy_1"
  bottom: "accuracy_5"
}
I0529 02:38:28.132469 27018 layer_factory.hpp:77] Creating layer data
I0529 02:38:28.133283 27018 net.cpp:100] Creating Layer data
I0529 02:38:28.133298 27018 net.cpp:408] data -> data
I0529 02:38:28.133348 27018 net.cpp:408] data -> label
I0529 02:38:28.134037 27068 db_lmdb.cpp:35] Opened lmdb ../local_data/lmdb/RTSD/orig/train/lmdb
I0529 02:38:28.151636 27018 data_layer.cpp:41] output data size: 1024,3,48,48
I0529 02:38:28.200453 27018 net.cpp:150] Setting up data
I0529 02:38:28.200502 27018 net.cpp:157] Top shape: 1024 3 48 48 (7077888)
I0529 02:38:28.200511 27018 net.cpp:157] Top shape: 1024 (1024)
I0529 02:38:28.200515 27018 net.cpp:165] Memory required for data: 28315648
I0529 02:38:28.200526 27018 layer_factory.hpp:77] Creating layer label_data_1_split
I0529 02:38:28.200538 27018 net.cpp:100] Creating Layer label_data_1_split
I0529 02:38:28.200546 27018 net.cpp:434] label_data_1_split <- label
I0529 02:38:28.200559 27018 net.cpp:408] label_data_1_split -> label_data_1_split_0
I0529 02:38:28.200569 27018 net.cpp:408] label_data_1_split -> label_data_1_split_1
I0529 02:38:28.200577 27018 net.cpp:408] label_data_1_split -> label_data_1_split_2
I0529 02:38:28.200623 27018 net.cpp:150] Setting up label_data_1_split
I0529 02:38:28.200634 27018 net.cpp:157] Top shape: 1024 (1024)
I0529 02:38:28.200637 27018 net.cpp:157] Top shape: 1024 (1024)
I0529 02:38:28.200644 27018 net.cpp:157] Top shape: 1024 (1024)
I0529 02:38:28.200647 27018 net.cpp:165] Memory required for data: 28327936
I0529 02:38:28.200654 27018 layer_factory.hpp:77] Creating layer conv1
I0529 02:38:28.200672 27018 net.cpp:100] Creating Layer conv1
I0529 02:38:28.200680 27018 net.cpp:434] conv1 <- data
I0529 02:38:28.200685 27018 net.cpp:408] conv1 -> conv1
I0529 02:38:28.536039 27018 net.cpp:150] Setting up conv1
I0529 02:38:28.536085 27018 net.cpp:157] Top shape: 1024 100 42 42 (180633600)
I0529 02:38:28.536093 27018 net.cpp:165] Memory required for data: 750862336
I0529 02:38:28.536118 27018 layer_factory.hpp:77] Creating layer conv1_relu
I0529 02:38:28.536139 27018 net.cpp:100] Creating Layer conv1_relu
I0529 02:38:28.536147 27018 net.cpp:434] conv1_relu <- conv1
I0529 02:38:28.536164 27018 net.cpp:395] conv1_relu -> conv1 (in-place)
I0529 02:38:28.536383 27018 net.cpp:150] Setting up conv1_relu
I0529 02:38:28.536399 27018 net.cpp:157] Top shape: 1024 100 42 42 (180633600)
I0529 02:38:28.536406 27018 net.cpp:165] Memory required for data: 1473396736
I0529 02:38:28.536412 27018 layer_factory.hpp:77] Creating layer pool1
I0529 02:38:28.536432 27018 net.cpp:100] Creating Layer pool1
I0529 02:38:28.536438 27018 net.cpp:434] pool1 <- conv1
I0529 02:38:28.536447 27018 net.cpp:408] pool1 -> pool1
I0529 02:38:28.536519 27018 net.cpp:150] Setting up pool1
I0529 02:38:28.536530 27018 net.cpp:157] Top shape: 1024 100 21 21 (45158400)
I0529 02:38:28.536536 27018 net.cpp:165] Memory required for data: 1654030336
I0529 02:38:28.536541 27018 layer_factory.hpp:77] Creating layer conv2
I0529 02:38:28.536561 27018 net.cpp:100] Creating Layer conv2
I0529 02:38:28.536571 27018 net.cpp:434] conv2 <- pool1
I0529 02:38:28.536578 27018 net.cpp:408] conv2 -> conv2
I0529 02:38:28.540777 27018 net.cpp:150] Setting up conv2
I0529 02:38:28.540810 27018 net.cpp:157] Top shape: 1024 150 18 18 (49766400)
I0529 02:38:28.540817 27018 net.cpp:165] Memory required for data: 1853095936
I0529 02:38:28.540835 27018 layer_factory.hpp:77] Creating layer conv2_relu
I0529 02:38:28.540845 27018 net.cpp:100] Creating Layer conv2_relu
I0529 02:38:28.540851 27018 net.cpp:434] conv2_relu <- conv2
I0529 02:38:28.540868 27018 net.cpp:395] conv2_relu -> conv2 (in-place)
I0529 02:38:28.541059 27018 net.cpp:150] Setting up conv2_relu
I0529 02:38:28.541082 27018 net.cpp:157] Top shape: 1024 150 18 18 (49766400)
I0529 02:38:28.541088 27018 net.cpp:165] Memory required for data: 2052161536
I0529 02:38:28.541095 27018 layer_factory.hpp:77] Creating layer pool2
I0529 02:38:28.541112 27018 net.cpp:100] Creating Layer pool2
I0529 02:38:28.541118 27018 net.cpp:434] pool2 <- conv2
I0529 02:38:28.541126 27018 net.cpp:408] pool2 -> pool2
I0529 02:38:28.541193 27018 net.cpp:150] Setting up pool2
I0529 02:38:28.541205 27018 net.cpp:157] Top shape: 1024 150 9 9 (12441600)
I0529 02:38:28.541211 27018 net.cpp:165] Memory required for data: 2101927936
I0529 02:38:28.541218 27018 layer_factory.hpp:77] Creating layer conv3
I0529 02:38:28.541234 27018 net.cpp:100] Creating Layer conv3
I0529 02:38:28.541245 27018 net.cpp:434] conv3 <- pool2
I0529 02:38:28.541254 27018 net.cpp:408] conv3 -> conv3
I0529 02:38:28.548332 27018 net.cpp:150] Setting up conv3
I0529 02:38:28.548368 27018 net.cpp:157] Top shape: 1024 250 6 6 (9216000)
I0529 02:38:28.548377 27018 net.cpp:165] Memory required for data: 2138791936
I0529 02:38:28.548399 27018 layer_factory.hpp:77] Creating layer conv3_relu
I0529 02:38:28.548410 27018 net.cpp:100] Creating Layer conv3_relu
I0529 02:38:28.548418 27018 net.cpp:434] conv3_relu <- conv3
I0529 02:38:28.548432 27018 net.cpp:395] conv3_relu -> conv3 (in-place)
I0529 02:38:28.548959 27018 net.cpp:150] Setting up conv3_relu
I0529 02:38:28.548985 27018 net.cpp:157] Top shape: 1024 250 6 6 (9216000)
I0529 02:38:28.548992 27018 net.cpp:165] Memory required for data: 2175655936
I0529 02:38:28.548998 27018 layer_factory.hpp:77] Creating layer pool3
I0529 02:38:28.549015 27018 net.cpp:100] Creating Layer pool3
I0529 02:38:28.549022 27018 net.cpp:434] pool3 <- conv3
I0529 02:38:28.549031 27018 net.cpp:408] pool3 -> pool3
I0529 02:38:28.549088 27018 net.cpp:150] Setting up pool3
I0529 02:38:28.549101 27018 net.cpp:157] Top shape: 1024 250 3 3 (2304000)
I0529 02:38:28.549106 27018 net.cpp:165] Memory required for data: 2184871936
I0529 02:38:28.549113 27018 layer_factory.hpp:77] Creating layer fc4_300
I0529 02:38:28.549123 27018 net.cpp:100] Creating Layer fc4_300
I0529 02:38:28.549127 27018 net.cpp:434] fc4_300 <- pool3
I0529 02:38:28.549135 27018 net.cpp:408] fc4_300 -> fc4_300
I0529 02:38:28.555384 27018 net.cpp:150] Setting up fc4_300
I0529 02:38:28.555420 27018 net.cpp:157] Top shape: 1024 300 (307200)
I0529 02:38:28.555428 27018 net.cpp:165] Memory required for data: 2186100736
I0529 02:38:28.555447 27018 layer_factory.hpp:77] Creating layer fc4_relu
I0529 02:38:28.555457 27018 net.cpp:100] Creating Layer fc4_relu
I0529 02:38:28.555464 27018 net.cpp:434] fc4_relu <- fc4_300
I0529 02:38:28.555480 27018 net.cpp:395] fc4_relu -> fc4_300 (in-place)
I0529 02:38:28.555692 27018 net.cpp:150] Setting up fc4_relu
I0529 02:38:28.555716 27018 net.cpp:157] Top shape: 1024 300 (307200)
I0529 02:38:28.555722 27018 net.cpp:165] Memory required for data: 2187329536
I0529 02:38:28.555728 27018 layer_factory.hpp:77] Creating layer fc5_116
I0529 02:38:28.555745 27018 net.cpp:100] Creating Layer fc5_116
I0529 02:38:28.555752 27018 net.cpp:434] fc5_116 <- fc4_300
I0529 02:38:28.555768 27018 net.cpp:408] fc5_116 -> fc5_classes
I0529 02:38:28.557178 27018 net.cpp:150] Setting up fc5_116
I0529 02:38:28.557204 27018 net.cpp:157] Top shape: 1024 116 (118784)
I0529 02:38:28.557210 27018 net.cpp:165] Memory required for data: 2187804672
I0529 02:38:28.557232 27018 layer_factory.hpp:77] Creating layer fc5_classes_fc5_116_0_split
I0529 02:38:28.557247 27018 net.cpp:100] Creating Layer fc5_classes_fc5_116_0_split
I0529 02:38:28.557253 27018 net.cpp:434] fc5_classes_fc5_116_0_split <- fc5_classes
I0529 02:38:28.557261 27018 net.cpp:408] fc5_classes_fc5_116_0_split -> fc5_classes_fc5_116_0_split_0
I0529 02:38:28.557281 27018 net.cpp:408] fc5_classes_fc5_116_0_split -> fc5_classes_fc5_116_0_split_1
I0529 02:38:28.557291 27018 net.cpp:408] fc5_classes_fc5_116_0_split -> fc5_classes_fc5_116_0_split_2
I0529 02:38:28.557348 27018 net.cpp:150] Setting up fc5_classes_fc5_116_0_split
I0529 02:38:28.557359 27018 net.cpp:157] Top shape: 1024 116 (118784)
I0529 02:38:28.557366 27018 net.cpp:157] Top shape: 1024 116 (118784)
I0529 02:38:28.557373 27018 net.cpp:157] Top shape: 1024 116 (118784)
I0529 02:38:28.557379 27018 net.cpp:165] Memory required for data: 2189230080
I0529 02:38:28.557384 27018 layer_factory.hpp:77] Creating layer softmax
I0529 02:38:28.557400 27018 net.cpp:100] Creating Layer softmax
I0529 02:38:28.557409 27018 net.cpp:434] softmax <- fc5_classes_fc5_116_0_split_0
I0529 02:38:28.557416 27018 net.cpp:408] softmax -> softmax
I0529 02:38:28.557694 27018 net.cpp:150] Setting up softmax
I0529 02:38:28.557721 27018 net.cpp:157] Top shape: 1024 116 (118784)
I0529 02:38:28.557727 27018 net.cpp:165] Memory required for data: 2189705216
I0529 02:38:28.557734 27018 layer_factory.hpp:77] Creating layer loss
I0529 02:38:28.557752 27018 net.cpp:100] Creating Layer loss
I0529 02:38:28.557776 27018 net.cpp:434] loss <- softmax
I0529 02:38:28.557785 27018 net.cpp:434] loss <- label_data_1_split_0
I0529 02:38:28.557792 27018 net.cpp:408] loss -> loss
…
