…
I0402 03:56:31.851325 13420 net.cpp:322] The NetState phase (0) differed from the phase (1) specified by a rule in layer accuracy_5
I0402 03:56:31.851415 13420 net.cpp:58] Initializing net from parameters: 
state {
  phase: TRAIN
  level: 0
  stage: ""
}
layer {
  name: "data"
  type: "Data"
  top: "data"
  top: "label"
  include {
    phase: TRAIN
  }
  transform_param {
    mirror: false
    crop_size: 48
    mean_value: 120
    mean_value: 113
    mean_value: 112
  }
  data_param {
    source: "../local_data/lmdb/rtsd-r3/orig/train/lmdb"
    batch_size: 1024
    backend: LMDB
  }
}
layer {
  name: "conv1"
  type: "Convolution"
  bottom: "data"
  top: "conv1"
  convolution_param {
    num_output: 100
    pad: 0
    kernel_size: 7
    group: 1
    stride: 1
    weight_filler {
      type: "xavier"
    }
  }
}
layer {
  name: "conv1_relu"
  type: "ReLU"
  bottom: "conv1"
  top: "conv1"
}
layer {
  name: "pool1"
  type: "Pooling"
  bottom: "conv1"
  top: "pool1"
  pooling_param {
    pool: MAX
    kernel_size: 2
    stride: 2
  }
}
layer {
  name: "conv2"
  type: "Convolution"
  bottom: "pool1"
  top: "conv2"
  convolution_param {
    num_output: 150
    pad: 0
    kernel_size: 4
    group: 1
    stride: 1
    weight_filler {
      type: "xavier"
    }
  }
}
layer {
  name: "conv2_relu"
  type: "ReLU"
  bottom: "conv2"
  top: "conv2"
}
layer {
  name: "pool2"
  type: "Pooling"
  bottom: "conv2"
  top: "pool2"
  pooling_param {
    pool: MAX
    kernel_size: 2
    stride: 2
  }
}
layer {
  name: "conv3"
  type: "Convolution"
  bottom: "pool2"
  top: "conv3"
  convolution_param {
    num_output: 250
    pad: 0
    kernel_size: 4
    group: 1
    stride: 1
    weight_filler {
      type: "xavier"
    }
  }
}
layer {
  name: "conv3_relu"
  type: "ReLU"
  bottom: "conv3"
  top: "conv3"
}
layer {
  name: "pool3"
  type: "Pooling"
  bottom: "conv3"
  top: "pool3"
  pooling_param {
    pool: MAX
    kernel_size: 2
    stride: 2
  }
}
layer {
  name: "fc4_300"
  type: "InnerProduct"
  bottom: "pool3"
  top: "fc4_300"
  inner_product_param {
    num_output: 300
    weight_filler {
      type: "xavier"
    }
  }
}
layer {
  name: "fc4_relu"
  type: "ReLU"
  bottom: "fc4_300"
  top: "fc4_300"
}
layer {
  name: "drop4"
  type: "Dropout"
  bottom: "fc4_300"
  top: "fc4_300"
  dropout_param {
    dropout_ratio: 0.4
  }
}
layer {
  name: "fc5_106"
  type: "InnerProduct"
  bottom: "fc4_300"
  top: "fc5_classes"
  inner_product_param {
    num_output: 106
    weight_filler {
      type: "xavier"
    }
  }
}
layer {
  name: "loss"
  type: "SoftmaxWithLoss"
  bottom: "fc5_classes"
  bottom: "label"
  top: "loss"
}
I0402 03:56:31.851490 13420 layer_factory.hpp:77] Creating layer data
I0402 03:56:31.852602 13420 net.cpp:100] Creating Layer data
I0402 03:56:31.852628 13420 net.cpp:408] data -> data
I0402 03:56:31.852651 13420 net.cpp:408] data -> label
I0402 03:56:31.854246 13465 db_lmdb.cpp:35] Opened lmdb ../local_data/lmdb/rtsd-r3/orig/train/lmdb
I0402 03:56:31.870371 13420 data_layer.cpp:41] output data size: 1024,3,48,48
I0402 03:56:31.911347 13420 net.cpp:150] Setting up data
I0402 03:56:31.911381 13420 net.cpp:157] Top shape: 1024 3 48 48 (7077888)
I0402 03:56:31.911386 13420 net.cpp:157] Top shape: 1024 (1024)
I0402 03:56:31.911389 13420 net.cpp:165] Memory required for data: 28315648
I0402 03:56:31.911422 13420 layer_factory.hpp:77] Creating layer conv1
I0402 03:56:31.911444 13420 net.cpp:100] Creating Layer conv1
I0402 03:56:31.911450 13420 net.cpp:434] conv1 <- data
I0402 03:56:31.911463 13420 net.cpp:408] conv1 -> conv1
I0402 03:56:32.173302 13420 net.cpp:150] Setting up conv1
I0402 03:56:32.173332 13420 net.cpp:157] Top shape: 1024 100 42 42 (180633600)
I0402 03:56:32.173336 13420 net.cpp:165] Memory required for data: 750850048
I0402 03:56:32.173357 13420 layer_factory.hpp:77] Creating layer conv1_relu
I0402 03:56:32.173369 13420 net.cpp:100] Creating Layer conv1_relu
I0402 03:56:32.173373 13420 net.cpp:434] conv1_relu <- conv1
I0402 03:56:32.173390 13420 net.cpp:395] conv1_relu -> conv1 (in-place)
I0402 03:56:32.173578 13420 net.cpp:150] Setting up conv1_relu
I0402 03:56:32.173589 13420 net.cpp:157] Top shape: 1024 100 42 42 (180633600)
I0402 03:56:32.173593 13420 net.cpp:165] Memory required for data: 1473384448
I0402 03:56:32.173596 13420 layer_factory.hpp:77] Creating layer pool1
I0402 03:56:32.173604 13420 net.cpp:100] Creating Layer pool1
I0402 03:56:32.173606 13420 net.cpp:434] pool1 <- conv1
I0402 03:56:32.173611 13420 net.cpp:408] pool1 -> pool1
I0402 03:56:32.173661 13420 net.cpp:150] Setting up pool1
I0402 03:56:32.173671 13420 net.cpp:157] Top shape: 1024 100 21 21 (45158400)
I0402 03:56:32.173673 13420 net.cpp:165] Memory required for data: 1654018048
I0402 03:56:32.173676 13420 layer_factory.hpp:77] Creating layer conv2
I0402 03:56:32.173687 13420 net.cpp:100] Creating Layer conv2
I0402 03:56:32.173691 13420 net.cpp:434] conv2 <- pool1
I0402 03:56:32.173696 13420 net.cpp:408] conv2 -> conv2
I0402 03:56:32.177973 13420 net.cpp:150] Setting up conv2
I0402 03:56:32.177989 13420 net.cpp:157] Top shape: 1024 150 18 18 (49766400)
I0402 03:56:32.177992 13420 net.cpp:165] Memory required for data: 1853083648
I0402 03:56:32.178002 13420 layer_factory.hpp:77] Creating layer conv2_relu
I0402 03:56:32.178009 13420 net.cpp:100] Creating Layer conv2_relu
I0402 03:56:32.178011 13420 net.cpp:434] conv2_relu <- conv2
I0402 03:56:32.178019 13420 net.cpp:395] conv2_relu -> conv2 (in-place)
I0402 03:56:32.178773 13420 net.cpp:150] Setting up conv2_relu
I0402 03:56:32.178788 13420 net.cpp:157] Top shape: 1024 150 18 18 (49766400)
I0402 03:56:32.178791 13420 net.cpp:165] Memory required for data: 2052149248
I0402 03:56:32.178795 13420 layer_factory.hpp:77] Creating layer pool2
I0402 03:56:32.178802 13420 net.cpp:100] Creating Layer pool2
I0402 03:56:32.178805 13420 net.cpp:434] pool2 <- conv2
I0402 03:56:32.178812 13420 net.cpp:408] pool2 -> pool2
I0402 03:56:32.178859 13420 net.cpp:150] Setting up pool2
I0402 03:56:32.178867 13420 net.cpp:157] Top shape: 1024 150 9 9 (12441600)
I0402 03:56:32.178870 13420 net.cpp:165] Memory required for data: 2101915648
I0402 03:56:32.178872 13420 layer_factory.hpp:77] Creating layer conv3
I0402 03:56:32.178884 13420 net.cpp:100] Creating Layer conv3
I0402 03:56:32.178886 13420 net.cpp:434] conv3 <- pool2
I0402 03:56:32.178891 13420 net.cpp:408] conv3 -> conv3
I0402 03:56:32.184331 13420 net.cpp:150] Setting up conv3
I0402 03:56:32.184348 13420 net.cpp:157] Top shape: 1024 250 6 6 (9216000)
I0402 03:56:32.184352 13420 net.cpp:165] Memory required for data: 2138779648
I0402 03:56:32.184365 13420 layer_factory.hpp:77] Creating layer conv3_relu
I0402 03:56:32.184373 13420 net.cpp:100] Creating Layer conv3_relu
I0402 03:56:32.184376 13420 net.cpp:434] conv3_relu <- conv3
I0402 03:56:32.184381 13420 net.cpp:395] conv3_relu -> conv3 (in-place)
I0402 03:56:32.185142 13420 net.cpp:150] Setting up conv3_relu
I0402 03:56:32.185170 13420 net.cpp:157] Top shape: 1024 250 6 6 (9216000)
I0402 03:56:32.185173 13420 net.cpp:165] Memory required for data: 2175643648
I0402 03:56:32.185178 13420 layer_factory.hpp:77] Creating layer pool3
I0402 03:56:32.185184 13420 net.cpp:100] Creating Layer pool3
I0402 03:56:32.185186 13420 net.cpp:434] pool3 <- conv3
I0402 03:56:32.185194 13420 net.cpp:408] pool3 -> pool3
I0402 03:56:32.185243 13420 net.cpp:150] Setting up pool3
I0402 03:56:32.185267 13420 net.cpp:157] Top shape: 1024 250 3 3 (2304000)
I0402 03:56:32.185271 13420 net.cpp:165] Memory required for data: 2184859648
I0402 03:56:32.185274 13420 layer_factory.hpp:77] Creating layer fc4_300
I0402 03:56:32.185283 13420 net.cpp:100] Creating Layer fc4_300
I0402 03:56:32.185287 13420 net.cpp:434] fc4_300 <- pool3
I0402 03:56:32.185292 13420 net.cpp:408] fc4_300 -> fc4_300
I0402 03:56:32.190560 13420 net.cpp:150] Setting up fc4_300
I0402 03:56:32.190588 13420 net.cpp:157] Top shape: 1024 300 (307200)
I0402 03:56:32.190593 13420 net.cpp:165] Memory required for data: 2186088448
I0402 03:56:32.190598 13420 layer_factory.hpp:77] Creating layer fc4_relu
I0402 03:56:32.190605 13420 net.cpp:100] Creating Layer fc4_relu
I0402 03:56:32.190608 13420 net.cpp:434] fc4_relu <- fc4_300
I0402 03:56:32.190613 13420 net.cpp:395] fc4_relu -> fc4_300 (in-place)
I0402 03:56:32.190800 13420 net.cpp:150] Setting up fc4_relu
I0402 03:56:32.190814 13420 net.cpp:157] Top shape: 1024 300 (307200)
I0402 03:56:32.190816 13420 net.cpp:165] Memory required for data: 2187317248
I0402 03:56:32.190819 13420 layer_factory.hpp:77] Creating layer drop4
I0402 03:56:32.190826 13420 net.cpp:100] Creating Layer drop4
I0402 03:56:32.190829 13420 net.cpp:434] drop4 <- fc4_300
I0402 03:56:32.190834 13420 net.cpp:395] drop4 -> fc4_300 (in-place)
I0402 03:56:32.190865 13420 net.cpp:150] Setting up drop4
I0402 03:56:32.190873 13420 net.cpp:157] Top shape: 1024 300 (307200)
I0402 03:56:32.190876 13420 net.cpp:165] Memory required for data: 2188546048
I0402 03:56:32.190878 13420 layer_factory.hpp:77] Creating layer fc5_106
I0402 03:56:32.190886 13420 net.cpp:100] Creating Layer fc5_106
I0402 03:56:32.190889 13420 net.cpp:434] fc5_106 <- fc4_300
I0402 03:56:32.190894 13420 net.cpp:408] fc5_106 -> fc5_classes
I0402 03:56:32.192165 13420 net.cpp:150] Setting up fc5_106
I0402 03:56:32.192179 13420 net.cpp:157] Top shape: 1024 106 (108544)
I0402 03:56:32.192194 13420 net.cpp:165] Memory required for data: 2188980224
I0402 03:56:32.192205 13420 layer_factory.hpp:77] Creating layer loss
I0402 03:56:32.192212 13420 net.cpp:100] Creating Layer loss
I0402 03:56:32.192215 13420 net.cpp:434] loss <- fc5_classes
I0402 03:56:32.192219 13420 net.cpp:434] loss <- label
I0402 03:56:32.192225 13420 net.cpp:408] loss -> loss
I0402 03:56:32.192236 13420 layer_factory.hpp:77] Creating layer loss
…
I0402 03:56:32.192939 13420 solver.cpp:193] Creating test net (#0) specified by test_net file: ./Prototxt/rtsd-r3/orig/test.prototxt
I0402 03:56:32.193078 13420 net.cpp:58] Initializing net from parameters: 
state {
  phase: TEST
}
layer {
  name: "data"
  type: "Data"
  top: "data"
  top: "label"
  include {
    phase: TEST
  }
  transform_param {
    mirror: false
    crop_size: 48
    mean_value: 116
    mean_value: 111
    mean_value: 112
  }
  data_param {
    source: "../local_data/lmdb/rtsd-r3/orig/test/lmdb"
    batch_size: 1024
    backend: LMDB
  }
}
layer {
  name: "conv1"
  type: "Convolution"
  bottom: "data"
  top: "conv1"
  convolution_param {
    num_output: 100
    pad: 0
    kernel_size: 7
    group: 1
    stride: 1
    weight_filler {
      type: "xavier"
    }
  }
}
layer {
  name: "conv1_relu"
  type: "ReLU"
  bottom: "conv1"
  top: "conv1"
}
layer {
  name: "pool1"
  type: "Pooling"
  bottom: "conv1"
  top: "pool1"
  pooling_param {
    pool: MAX
    kernel_size: 2
    stride: 2
  }
}
layer {
  name: "conv2"
  type: "Convolution"
  bottom: "pool1"
  top: "conv2"
  convolution_param {
    num_output: 150
    pad: 0
    kernel_size: 4
    group: 1
    stride: 1
    weight_filler {
      type: "xavier"
    }
  }
}
layer {
  name: "conv2_relu"
  type: "ReLU"
  bottom: "conv2"
  top: "conv2"
}
layer {
  name: "pool2"
  type: "Pooling"
  bottom: "conv2"
  top: "pool2"
  pooling_param {
    pool: MAX
    kernel_size: 2
    stride: 2
  }
}
layer {
  name: "conv3"
  type: "Convolution"
  bottom: "pool2"
  top: "conv3"
  convolution_param {
    num_output: 250
    pad: 0
    kernel_size: 4
    group: 1
    stride: 1
    weight_filler {
      type: "xavier"
    }
  }
}
layer {
  name: "conv3_relu"
  type: "ReLU"
  bottom: "conv3"
  top: "conv3"
}
layer {
  name: "pool3"
  type: "Pooling"
  bottom: "conv3"
  top: "pool3"
  pooling_param {
    pool: MAX
    kernel_size: 2
    stride: 2
  }
}
layer {
  name: "fc4_300"
  type: "InnerProduct"
  bottom: "pool3"
  top: "fc4_300"
  inner_product_param {
    num_output: 300
    weight_filler {
      type: "xavier"
    }
  }
}
layer {
  name: "fc4_relu"
  type: "ReLU"
  bottom: "fc4_300"
  top: "fc4_300"
}
layer {
  name: "drop4"
  type: "Dropout"
  bottom: "fc4_300"
  top: "fc4_300"
  dropout_param {
    dropout_ratio: 0.4
  }
}
layer {
  name: "fc5_106"
  type: "InnerProduct"
  bottom: "fc4_300"
  top: "fc5_classes"
  inner_product_param {
    num_output: 106
    weight_filler {
      type: "xavier"
    }
  }
}
layer {
  name: "loss"
  type: "SoftmaxWithLoss"
  bottom: "fc5_classes"
  bottom: "label"
  top: "loss"
}
layer {
  name: "accuracy_1"
  type: "Accuracy"
  bottom: "fc5_classes"
  bottom: "label"
  top: "accuracy_1"
  include {
    phase: TEST
  }
  accuracy_param {
    top_k: 1
  }
}
layer {
  name: "accuracy_5"
  type: "Accuracy"
  bottom: "fc5_classes"
  bottom: "label"
  top: "accuracy_5"
  include {
    phase: TEST
  }
  accuracy_param {
    top_k: 5
  }
}
I0402 03:56:32.193169 13420 layer_factory.hpp:77] Creating layer data
I0402 03:56:32.194087 13420 net.cpp:100] Creating Layer data
I0402 03:56:32.194102 13420 net.cpp:408] data -> data
I0402 03:56:32.194110 13420 net.cpp:408] data -> label
I0402 03:56:32.195289 13473 db_lmdb.cpp:35] Opened lmdb ../local_data/lmdb/rtsd-r3/orig/test/lmdb
I0402 03:56:32.195529 13420 data_layer.cpp:41] output data size: 1024,3,48,48
I0402 03:56:32.240826 13420 net.cpp:150] Setting up data
I0402 03:56:32.240855 13420 net.cpp:157] Top shape: 1024 3 48 48 (7077888)
I0402 03:56:32.240860 13420 net.cpp:157] Top shape: 1024 (1024)
I0402 03:56:32.240864 13420 net.cpp:165] Memory required for data: 28315648
I0402 03:56:32.240869 13420 layer_factory.hpp:77] Creating layer label_data_1_split
I0402 03:56:32.240882 13420 net.cpp:100] Creating Layer label_data_1_split
I0402 03:56:32.240886 13420 net.cpp:434] label_data_1_split <- label
I0402 03:56:32.240897 13420 net.cpp:408] label_data_1_split -> label_data_1_split_0
I0402 03:56:32.240909 13420 net.cpp:408] label_data_1_split -> label_data_1_split_1
I0402 03:56:32.240916 13420 net.cpp:408] label_data_1_split -> label_data_1_split_2
I0402 03:56:32.241088 13420 net.cpp:150] Setting up label_data_1_split
I0402 03:56:32.241113 13420 net.cpp:157] Top shape: 1024 (1024)
I0402 03:56:32.241118 13420 net.cpp:157] Top shape: 1024 (1024)
I0402 03:56:32.241125 13420 net.cpp:157] Top shape: 1024 (1024)
I0402 03:56:32.241128 13420 net.cpp:165] Memory required for data: 28327936
I0402 03:56:32.241132 13420 layer_factory.hpp:77] Creating layer conv1
I0402 03:56:32.241143 13420 net.cpp:100] Creating Layer conv1
I0402 03:56:32.241149 13420 net.cpp:434] conv1 <- data
I0402 03:56:32.241155 13420 net.cpp:408] conv1 -> conv1
I0402 03:56:32.245520 13420 net.cpp:150] Setting up conv1
I0402 03:56:32.245538 13420 net.cpp:157] Top shape: 1024 100 42 42 (180633600)
I0402 03:56:32.245543 13420 net.cpp:165] Memory required for data: 750862336
I0402 03:56:32.245554 13420 layer_factory.hpp:77] Creating layer conv1_relu
I0402 03:56:32.245561 13420 net.cpp:100] Creating Layer conv1_relu
I0402 03:56:32.245564 13420 net.cpp:434] conv1_relu <- conv1
I0402 03:56:32.245571 13420 net.cpp:395] conv1_relu -> conv1 (in-place)
I0402 03:56:32.245774 13420 net.cpp:150] Setting up conv1_relu
I0402 03:56:32.245786 13420 net.cpp:157] Top shape: 1024 100 42 42 (180633600)
I0402 03:56:32.245790 13420 net.cpp:165] Memory required for data: 1473396736
I0402 03:56:32.245793 13420 layer_factory.hpp:77] Creating layer pool1
I0402 03:56:32.245803 13420 net.cpp:100] Creating Layer pool1
I0402 03:56:32.245806 13420 net.cpp:434] pool1 <- conv1
I0402 03:56:32.245812 13420 net.cpp:408] pool1 -> pool1
I0402 03:56:32.245862 13420 net.cpp:150] Setting up pool1
I0402 03:56:32.245870 13420 net.cpp:157] Top shape: 1024 100 21 21 (45158400)
I0402 03:56:32.245873 13420 net.cpp:165] Memory required for data: 1654030336
I0402 03:56:32.245877 13420 layer_factory.hpp:77] Creating layer conv2
I0402 03:56:32.245885 13420 net.cpp:100] Creating Layer conv2
I0402 03:56:32.245888 13420 net.cpp:434] conv2 <- pool1
I0402 03:56:32.245894 13420 net.cpp:408] conv2 -> conv2
I0402 03:56:32.257655 13420 net.cpp:150] Setting up conv2
I0402 03:56:32.257676 13420 net.cpp:157] Top shape: 1024 150 18 18 (49766400)
I0402 03:56:32.257680 13420 net.cpp:165] Memory required for data: 1853095936
I0402 03:56:32.257691 13420 layer_factory.hpp:77] Creating layer conv2_relu
I0402 03:56:32.257699 13420 net.cpp:100] Creating Layer conv2_relu
I0402 03:56:32.257702 13420 net.cpp:434] conv2_relu <- conv2
I0402 03:56:32.257707 13420 net.cpp:395] conv2_relu -> conv2 (in-place)
I0402 03:56:32.269783 13420 net.cpp:150] Setting up conv2_relu
I0402 03:56:32.269806 13420 net.cpp:157] Top shape: 1024 150 18 18 (49766400)
I0402 03:56:32.269811 13420 net.cpp:165] Memory required for data: 2052161536
I0402 03:56:32.269817 13420 layer_factory.hpp:77] Creating layer pool2
I0402 03:56:32.269826 13420 net.cpp:100] Creating Layer pool2
I0402 03:56:32.269830 13420 net.cpp:434] pool2 <- conv2
I0402 03:56:32.269837 13420 net.cpp:408] pool2 -> pool2
I0402 03:56:32.269901 13420 net.cpp:150] Setting up pool2
I0402 03:56:32.269912 13420 net.cpp:157] Top shape: 1024 150 9 9 (12441600)
I0402 03:56:32.269917 13420 net.cpp:165] Memory required for data: 2101927936
I0402 03:56:32.269919 13420 layer_factory.hpp:77] Creating layer conv3
I0402 03:56:32.269934 13420 net.cpp:100] Creating Layer conv3
I0402 03:56:32.269939 13420 net.cpp:434] conv3 <- pool2
I0402 03:56:32.269946 13420 net.cpp:408] conv3 -> conv3
I0402 03:56:32.277463 13420 net.cpp:150] Setting up conv3
I0402 03:56:32.277484 13420 net.cpp:157] Top shape: 1024 250 6 6 (9216000)
I0402 03:56:32.277489 13420 net.cpp:165] Memory required for data: 2138791936
I0402 03:56:32.277503 13420 layer_factory.hpp:77] Creating layer conv3_relu
I0402 03:56:32.277510 13420 net.cpp:100] Creating Layer conv3_relu
I0402 03:56:32.277515 13420 net.cpp:434] conv3_relu <- conv3
I0402 03:56:32.277524 13420 net.cpp:395] conv3_relu -> conv3 (in-place)
I0402 03:56:32.278607 13420 net.cpp:150] Setting up conv3_relu
I0402 03:56:32.278625 13420 net.cpp:157] Top shape: 1024 250 6 6 (9216000)
I0402 03:56:32.278630 13420 net.cpp:165] Memory required for data: 2175655936
I0402 03:56:32.278635 13420 layer_factory.hpp:77] Creating layer pool3
I0402 03:56:32.278664 13420 net.cpp:100] Creating Layer pool3
I0402 03:56:32.278669 13420 net.cpp:434] pool3 <- conv3
I0402 03:56:32.278676 13420 net.cpp:408] pool3 -> pool3
I0402 03:56:32.278738 13420 net.cpp:150] Setting up pool3
I0402 03:56:32.278748 13420 net.cpp:157] Top shape: 1024 250 3 3 (2304000)
I0402 03:56:32.278751 13420 net.cpp:165] Memory required for data: 2184871936
I0402 03:56:32.278755 13420 layer_factory.hpp:77] Creating layer fc4_300
I0402 03:56:32.278762 13420 net.cpp:100] Creating Layer fc4_300
I0402 03:56:32.278766 13420 net.cpp:434] fc4_300 <- pool3
I0402 03:56:32.278774 13420 net.cpp:408] fc4_300 -> fc4_300
I0402 03:56:32.286167 13420 net.cpp:150] Setting up fc4_300
I0402 03:56:32.286190 13420 net.cpp:157] Top shape: 1024 300 (307200)
I0402 03:56:32.286195 13420 net.cpp:165] Memory required for data: 2186100736
I0402 03:56:32.286203 13420 layer_factory.hpp:77] Creating layer fc4_relu
I0402 03:56:32.286211 13420 net.cpp:100] Creating Layer fc4_relu
I0402 03:56:32.286214 13420 net.cpp:434] fc4_relu <- fc4_300
I0402 03:56:32.286221 13420 net.cpp:395] fc4_relu -> fc4_300 (in-place)
I0402 03:56:32.286448 13420 net.cpp:150] Setting up fc4_relu
I0402 03:56:32.286460 13420 net.cpp:157] Top shape: 1024 300 (307200)
I0402 03:56:32.286464 13420 net.cpp:165] Memory required for data: 2187329536
I0402 03:56:32.286468 13420 layer_factory.hpp:77] Creating layer drop4
I0402 03:56:32.286484 13420 net.cpp:100] Creating Layer drop4
I0402 03:56:32.286487 13420 net.cpp:434] drop4 <- fc4_300
I0402 03:56:32.286494 13420 net.cpp:395] drop4 -> fc4_300 (in-place)
I0402 03:56:32.286530 13420 net.cpp:150] Setting up drop4
I0402 03:56:32.286540 13420 net.cpp:157] Top shape: 1024 300 (307200)
I0402 03:56:32.286542 13420 net.cpp:165] Memory required for data: 2188558336
I0402 03:56:32.286545 13420 layer_factory.hpp:77] Creating layer fc5_106
I0402 03:56:32.286552 13420 net.cpp:100] Creating Layer fc5_106
I0402 03:56:32.286556 13420 net.cpp:434] fc5_106 <- fc4_300
I0402 03:56:32.286561 13420 net.cpp:408] fc5_106 -> fc5_classes
I0402 03:56:32.286932 13420 net.cpp:150] Setting up fc5_106
I0402 03:56:32.286943 13420 net.cpp:157] Top shape: 1024 106 (108544)
I0402 03:56:32.286947 13420 net.cpp:165] Memory required for data: 2188992512
I0402 03:56:32.286958 13420 layer_factory.hpp:77] Creating layer fc5_classes_fc5_106_0_split
I0402 03:56:32.286967 13420 net.cpp:100] Creating Layer fc5_classes_fc5_106_0_split
I0402 03:56:32.286972 13420 net.cpp:434] fc5_classes_fc5_106_0_split <- fc5_classes
I0402 03:56:32.286978 13420 net.cpp:408] fc5_classes_fc5_106_0_split -> fc5_classes_fc5_106_0_split_0
I0402 03:56:32.286986 13420 net.cpp:408] fc5_classes_fc5_106_0_split -> fc5_classes_fc5_106_0_split_1
I0402 03:56:32.286994 13420 net.cpp:408] fc5_classes_fc5_106_0_split -> fc5_classes_fc5_106_0_split_2
I0402 03:56:32.287053 13420 net.cpp:150] Setting up fc5_classes_fc5_106_0_split
I0402 03:56:32.287061 13420 net.cpp:157] Top shape: 1024 106 (108544)
I0402 03:56:32.287066 13420 net.cpp:157] Top shape: 1024 106 (108544)
I0402 03:56:32.287070 13420 net.cpp:157] Top shape: 1024 106 (108544)
I0402 03:56:32.287072 13420 net.cpp:165] Memory required for data: 2190295040
I0402 03:56:32.287076 13420 layer_factory.hpp:77] Creating layer loss
I0402 03:56:32.287086 13420 net.cpp:100] Creating Layer loss
I0402 03:56:32.287101 13420 net.cpp:434] loss <- fc5_classes_fc5_106_0_split_0
I0402 03:56:32.287106 13420 net.cpp:434] loss <- label_data_1_split_0
I0402 03:56:32.287112 13420 net.cpp:408] loss -> loss
…
