…
I0508 02:45:19.614055 25829 solver.cpp:93] Creating training net from train_net file: ./Prototxt/experiment_15/RTSD/orig/trial_5/train.prototxt
I0508 02:45:19.614606 25829 net.cpp:58] Initializing net from parameters: 
state {
  phase: TRAIN
  level: 0
  stage: ""
}
layer {
  name: "data"
  type: "Data"
  top: "data"
  top: "label"
  include {
    phase: TRAIN
  }
  transform_param {
    scale: 0.0039215689
    mirror: false
    crop_size: 48
    mean_value: 119
    mean_value: 113
    mean_value: 113
  }
  data_param {
    source: "../local_data/lmdb/RTSD/orig/train/lmdb"
    batch_size: 1024
    backend: LMDB
  }
}
layer {
  name: "conv1"
  type: "Convolution"
  bottom: "data"
  top: "conv1"
  convolution_param {
    num_output: 100
    pad: 0
    kernel_size: 7
    group: 1
    stride: 1
    weight_filler {
      type: "xavier"
    }
  }
}
layer {
  name: "conv1_prescale"
  type: "Scale"
  bottom: "conv1"
  top: "conv1"
  param {
    lr_mult: 0
    decay_mult: 0
  }
  scale_param {
    filler {
      value: 0.6666
    }
    bias_term: false
  }
}
layer {
  name: "conv1_sTanH"
  type: "TanH"
  bottom: "conv1"
  top: "conv1"
}
layer {
  name: "conv1_postscale"
  type: "Scale"
  bottom: "conv1"
  top: "conv1"
  param {
    lr_mult: 0
    decay_mult: 0
  }
  scale_param {
    filler {
      value: 1.7159
    }
    bias_term: false
  }
}
layer {
  name: "pool1"
  type: "Pooling"
  bottom: "conv1"
  top: "pool1"
  pooling_param {
    pool: MAX
    kernel_size: 2
    stride: 2
  }
}
layer {
  name: "conv2"
  type: "Convolution"
  bottom: "pool1"
  top: "conv2"
  convolution_param {
    num_output: 150
    pad: 0
    kernel_size: 4
    group: 2
    stride: 1
    weight_filler {
      type: "xavier"
    }
  }
}
layer {
  name: "conv2_prescale"
  type: "Scale"
  bottom: "conv2"
  top: "conv2"
  param {
    lr_mult: 0
    decay_mult: 0
  }
  scale_param {
    filler {
      value: 0.6666
    }
    bias_term: false
  }
}
layer {
  name: "conv2_sTanH"
  type: "TanH"
  bottom: "conv2"
  top: "conv2"
}
layer {
  name: "conv2_postscale"
  type: "Scale"
  bottom: "conv2"
  top: "conv2"
  param {
    lr_mult: 0
    decay_mult: 0
  }
  scale_param {
    filler {
      value: 1.7159
    }
    bias_term: false
  }
}
layer {
  name: "pool2"
  type: "Pooling"
  bottom: "conv2"
  top: "pool2"
  pooling_param {
    pool: MAX
    kernel_size: 2
    stride: 2
  }
}
layer {
  name: "conv3"
  type: "Convolution"
  bottom: "pool2"
  top: "conv3"
  convolution_param {
    num_output: 250
    pad: 0
    kernel_size: 4
    group: 2
    stride: 1
    weight_filler {
      type: "xavier"
    }
  }
}
layer {
  name: "conv3_prescale"
  type: "Scale"
  bottom: "conv3"
  top: "conv3"
  param {
    lr_mult: 0
    decay_mult: 0
  }
  scale_param {
    filler {
      value: 0.6666
    }
    bias_term: false
  }
}
layer {
  name: "conv3_sTanH"
  type: "TanH"
  bottom: "conv3"
  top: "conv3"
}
layer {
  name: "conv3_postscale"
  type: "Scale"
  bottom: "conv3"
  top: "conv3"
  param {
    lr_mult: 0
    decay_mult: 0
  }
  scale_param {
    filler {
      value: 1.7159
    }
    bias_term: false
  }
}
layer {
  name: "pool3"
  type: "Pooling"
  bottom: "conv3"
  top: "pool3"
  pooling_param {
    pool: MAX
    kernel_size: 2
    stride: 2
  }
}
layer {
  name: "fc4_300"
  type: "InnerProduct"
  bottom: "pool3"
  top: "fc4_300"
  inner_product_param {
    num_output: 300
    weight_filler {
      type: "xavier"
    }
  }
}
layer {
  name: "fc4_prescale"
  type: "Scale"
  bottom: "fc4_300"
  top: "fc4_300"
  param {
    lr_mult: 0
    decay_mult: 0
  }
  scale_param {
    filler {
      value: 0.6666
    }
    bias_term: false
  }
}
layer {
  name: "fc4_sTanH"
  type: "TanH"
  bottom: "fc4_300"
  top: "fc4_300"
}
layer {
  name: "fc4_postscale"
  type: "Scale"
  bottom: "fc4_300"
  top: "fc4_300"
  param {
    lr_mult: 0
    decay_mult: 0
  }
  scale_param {
    filler {
      value: 1.7159
    }
    bias_term: false
  }
}
layer {
  name: "fc5_116"
  type: "InnerProduct"
  bottom: "fc4_300"
  top: "fc5_classes"
  inner_product_param {
    num_output: 116
    weight_filler {
      type: "xavier"
    }
  }
}
layer {
  name: "softmax"
  type: "Softmax"
  bottom: "fc5_classes"
  top: "softmax"
}
layer {
  name: "loss"
  type: "MultinomialLogisticLoss"
  bottom: "softmax"
  bottom: "label"
  top: "loss"
}
layer {
  name: "accuracy_1"
  type: "Accuracy"
  bottom: "fc5_classes"
  bottom: "label"
  top: "accuracy_1"
  accuracy_param {
    top_k: 1
  }
}
layer {
  name: "accuracy_5"
  type: "Accuracy"
  bottom: "fc5_classes"
  bottom: "label"
  top: "accuracy_5"
  accuracy_param {
    top_k: 5
  }
}
layer {
  name: "silence"
  type: "Silence"
  bottom: "accuracy_1"
  bottom: "accuracy_5"
}
I0508 02:45:19.614783 25829 layer_factory.hpp:77] Creating layer data
I0508 02:45:19.615957 25829 net.cpp:100] Creating Layer data
I0508 02:45:19.615975 25829 net.cpp:408] data -> data
I0508 02:45:19.616003 25829 net.cpp:408] data -> label
I0508 02:45:19.625766 25941 db_lmdb.cpp:35] Opened lmdb ../local_data/lmdb/RTSD/orig/train/lmdb
I0508 02:45:19.647637 25829 data_layer.cpp:41] output data size: 1024,3,48,48
I0508 02:45:19.727213 25829 net.cpp:150] Setting up data
I0508 02:45:19.727244 25829 net.cpp:157] Top shape: 1024 3 48 48 (7077888)
I0508 02:45:19.727250 25829 net.cpp:157] Top shape: 1024 (1024)
I0508 02:45:19.727253 25829 net.cpp:165] Memory required for data: 28315648
I0508 02:45:19.727264 25829 layer_factory.hpp:77] Creating layer label_data_1_split
I0508 02:45:19.727278 25829 net.cpp:100] Creating Layer label_data_1_split
I0508 02:45:19.727284 25829 net.cpp:434] label_data_1_split <- label
I0508 02:45:19.727298 25829 net.cpp:408] label_data_1_split -> label_data_1_split_0
I0508 02:45:19.727308 25829 net.cpp:408] label_data_1_split -> label_data_1_split_1
I0508 02:45:19.727315 25829 net.cpp:408] label_data_1_split -> label_data_1_split_2
I0508 02:45:19.727409 25829 net.cpp:150] Setting up label_data_1_split
I0508 02:45:19.727418 25829 net.cpp:157] Top shape: 1024 (1024)
I0508 02:45:19.727422 25829 net.cpp:157] Top shape: 1024 (1024)
I0508 02:45:19.727427 25829 net.cpp:157] Top shape: 1024 (1024)
I0508 02:45:19.727429 25829 net.cpp:165] Memory required for data: 28327936
I0508 02:45:19.727432 25829 layer_factory.hpp:77] Creating layer conv1
I0508 02:45:19.727449 25829 net.cpp:100] Creating Layer conv1
I0508 02:45:19.727454 25829 net.cpp:434] conv1 <- data
I0508 02:45:19.727460 25829 net.cpp:408] conv1 -> conv1
I0508 02:45:20.130163 25829 net.cpp:150] Setting up conv1
I0508 02:45:20.130187 25829 net.cpp:157] Top shape: 1024 100 42 42 (180633600)
I0508 02:45:20.130190 25829 net.cpp:165] Memory required for data: 750862336
I0508 02:45:20.130213 25829 layer_factory.hpp:77] Creating layer conv1_prescale
I0508 02:45:20.130224 25829 net.cpp:100] Creating Layer conv1_prescale
I0508 02:45:20.130230 25829 net.cpp:434] conv1_prescale <- conv1
I0508 02:45:20.130237 25829 net.cpp:395] conv1_prescale -> conv1 (in-place)
I0508 02:45:20.130342 25829 net.cpp:150] Setting up conv1_prescale
I0508 02:45:20.130352 25829 net.cpp:157] Top shape: 1024 100 42 42 (180633600)
I0508 02:45:20.130355 25829 net.cpp:165] Memory required for data: 1473396736
I0508 02:45:20.130362 25829 layer_factory.hpp:77] Creating layer conv1_sTanH
I0508 02:45:20.130369 25829 net.cpp:100] Creating Layer conv1_sTanH
I0508 02:45:20.130374 25829 net.cpp:434] conv1_sTanH <- conv1
I0508 02:45:20.130379 25829 net.cpp:395] conv1_sTanH -> conv1 (in-place)
I0508 02:45:20.130570 25829 net.cpp:150] Setting up conv1_sTanH
I0508 02:45:20.130583 25829 net.cpp:157] Top shape: 1024 100 42 42 (180633600)
I0508 02:45:20.130607 25829 net.cpp:165] Memory required for data: 2195931136
I0508 02:45:20.130611 25829 layer_factory.hpp:77] Creating layer conv1_postscale
I0508 02:45:20.130620 25829 net.cpp:100] Creating Layer conv1_postscale
I0508 02:45:20.130622 25829 net.cpp:434] conv1_postscale <- conv1
I0508 02:45:20.130628 25829 net.cpp:395] conv1_postscale -> conv1 (in-place)
I0508 02:45:20.130723 25829 net.cpp:150] Setting up conv1_postscale
I0508 02:45:20.130731 25829 net.cpp:157] Top shape: 1024 100 42 42 (180633600)
I0508 02:45:20.130739 25829 net.cpp:165] Memory required for data: 2918465536
I0508 02:45:20.130744 25829 layer_factory.hpp:77] Creating layer pool1
I0508 02:45:20.130751 25829 net.cpp:100] Creating Layer pool1
I0508 02:45:20.130754 25829 net.cpp:434] pool1 <- conv1
I0508 02:45:20.130759 25829 net.cpp:408] pool1 -> pool1
I0508 02:45:20.130805 25829 net.cpp:150] Setting up pool1
I0508 02:45:20.130813 25829 net.cpp:157] Top shape: 1024 100 21 21 (45158400)
I0508 02:45:20.130817 25829 net.cpp:165] Memory required for data: 3099099136
I0508 02:45:20.130820 25829 layer_factory.hpp:77] Creating layer conv2
I0508 02:45:20.130831 25829 net.cpp:100] Creating Layer conv2
I0508 02:45:20.130836 25829 net.cpp:434] conv2 <- pool1
I0508 02:45:20.130842 25829 net.cpp:408] conv2 -> conv2
I0508 02:45:20.136144 25829 net.cpp:150] Setting up conv2
I0508 02:45:20.136162 25829 net.cpp:157] Top shape: 1024 150 18 18 (49766400)
I0508 02:45:20.136167 25829 net.cpp:165] Memory required for data: 3298164736
I0508 02:45:20.136176 25829 layer_factory.hpp:77] Creating layer conv2_prescale
I0508 02:45:20.136186 25829 net.cpp:100] Creating Layer conv2_prescale
I0508 02:45:20.136190 25829 net.cpp:434] conv2_prescale <- conv2
I0508 02:45:20.136195 25829 net.cpp:395] conv2_prescale -> conv2 (in-place)
I0508 02:45:20.136291 25829 net.cpp:150] Setting up conv2_prescale
I0508 02:45:20.136301 25829 net.cpp:157] Top shape: 1024 150 18 18 (49766400)
I0508 02:45:20.136303 25829 net.cpp:165] Memory required for data: 3497230336
I0508 02:45:20.136308 25829 layer_factory.hpp:77] Creating layer conv2_sTanH
I0508 02:45:20.136313 25829 net.cpp:100] Creating Layer conv2_sTanH
I0508 02:45:20.136317 25829 net.cpp:434] conv2_sTanH <- conv2
I0508 02:45:20.136322 25829 net.cpp:395] conv2_sTanH -> conv2 (in-place)
I0508 02:45:20.136499 25829 net.cpp:150] Setting up conv2_sTanH
I0508 02:45:20.136510 25829 net.cpp:157] Top shape: 1024 150 18 18 (49766400)
I0508 02:45:20.136513 25829 net.cpp:165] Memory required for data: 3696295936
I0508 02:45:20.136517 25829 layer_factory.hpp:77] Creating layer conv2_postscale
I0508 02:45:20.136523 25829 net.cpp:100] Creating Layer conv2_postscale
I0508 02:45:20.136526 25829 net.cpp:434] conv2_postscale <- conv2
I0508 02:45:20.136533 25829 net.cpp:395] conv2_postscale -> conv2 (in-place)
I0508 02:45:20.136620 25829 net.cpp:150] Setting up conv2_postscale
I0508 02:45:20.136629 25829 net.cpp:157] Top shape: 1024 150 18 18 (49766400)
I0508 02:45:20.136632 25829 net.cpp:165] Memory required for data: 3895361536
I0508 02:45:20.136636 25829 layer_factory.hpp:77] Creating layer pool2
I0508 02:45:20.136643 25829 net.cpp:100] Creating Layer pool2
I0508 02:45:20.136646 25829 net.cpp:434] pool2 <- conv2
I0508 02:45:20.136651 25829 net.cpp:408] pool2 -> pool2
I0508 02:45:20.136692 25829 net.cpp:150] Setting up pool2
I0508 02:45:20.136699 25829 net.cpp:157] Top shape: 1024 150 9 9 (12441600)
I0508 02:45:20.136703 25829 net.cpp:165] Memory required for data: 3945127936
I0508 02:45:20.136706 25829 layer_factory.hpp:77] Creating layer conv3
I0508 02:45:20.136713 25829 net.cpp:100] Creating Layer conv3
I0508 02:45:20.136718 25829 net.cpp:434] conv3 <- pool2
I0508 02:45:20.136723 25829 net.cpp:408] conv3 -> conv3
I0508 02:45:20.142864 25829 net.cpp:150] Setting up conv3
I0508 02:45:20.142884 25829 net.cpp:157] Top shape: 1024 250 6 6 (9216000)
I0508 02:45:20.142887 25829 net.cpp:165] Memory required for data: 3981991936
I0508 02:45:20.142897 25829 layer_factory.hpp:77] Creating layer conv3_prescale
I0508 02:45:20.142922 25829 net.cpp:100] Creating Layer conv3_prescale
I0508 02:45:20.142927 25829 net.cpp:434] conv3_prescale <- conv3
I0508 02:45:20.142933 25829 net.cpp:395] conv3_prescale -> conv3 (in-place)
I0508 02:45:20.143025 25829 net.cpp:150] Setting up conv3_prescale
I0508 02:45:20.143034 25829 net.cpp:157] Top shape: 1024 250 6 6 (9216000)
I0508 02:45:20.143038 25829 net.cpp:165] Memory required for data: 4018855936
I0508 02:45:20.143043 25829 layer_factory.hpp:77] Creating layer conv3_sTanH
I0508 02:45:20.143049 25829 net.cpp:100] Creating Layer conv3_sTanH
I0508 02:45:20.143051 25829 net.cpp:434] conv3_sTanH <- conv3
I0508 02:45:20.143056 25829 net.cpp:395] conv3_sTanH -> conv3 (in-place)
I0508 02:45:20.143234 25829 net.cpp:150] Setting up conv3_sTanH
I0508 02:45:20.143245 25829 net.cpp:157] Top shape: 1024 250 6 6 (9216000)
I0508 02:45:20.143247 25829 net.cpp:165] Memory required for data: 4055719936
I0508 02:45:20.143251 25829 layer_factory.hpp:77] Creating layer conv3_postscale
I0508 02:45:20.143259 25829 net.cpp:100] Creating Layer conv3_postscale
I0508 02:45:20.143261 25829 net.cpp:434] conv3_postscale <- conv3
I0508 02:45:20.143267 25829 net.cpp:395] conv3_postscale -> conv3 (in-place)
I0508 02:45:20.143355 25829 net.cpp:150] Setting up conv3_postscale
I0508 02:45:20.143363 25829 net.cpp:157] Top shape: 1024 250 6 6 (9216000)
I0508 02:45:20.143366 25829 net.cpp:165] Memory required for data: 4092583936
I0508 02:45:20.143371 25829 layer_factory.hpp:77] Creating layer pool3
I0508 02:45:20.143380 25829 net.cpp:100] Creating Layer pool3
I0508 02:45:20.143384 25829 net.cpp:434] pool3 <- conv3
I0508 02:45:20.143390 25829 net.cpp:408] pool3 -> pool3
I0508 02:45:20.143427 25829 net.cpp:150] Setting up pool3
I0508 02:45:20.143435 25829 net.cpp:157] Top shape: 1024 250 3 3 (2304000)
I0508 02:45:20.143437 25829 net.cpp:165] Memory required for data: 4101799936
I0508 02:45:20.143440 25829 layer_factory.hpp:77] Creating layer fc4_300
I0508 02:45:20.143447 25829 net.cpp:100] Creating Layer fc4_300
I0508 02:45:20.143450 25829 net.cpp:434] fc4_300 <- pool3
I0508 02:45:20.143456 25829 net.cpp:408] fc4_300 -> fc4_300
I0508 02:45:20.149107 25829 net.cpp:150] Setting up fc4_300
I0508 02:45:20.149124 25829 net.cpp:157] Top shape: 1024 300 (307200)
I0508 02:45:20.149127 25829 net.cpp:165] Memory required for data: 4103028736
I0508 02:45:20.149134 25829 layer_factory.hpp:77] Creating layer fc4_prescale
I0508 02:45:20.149142 25829 net.cpp:100] Creating Layer fc4_prescale
I0508 02:45:20.149145 25829 net.cpp:434] fc4_prescale <- fc4_300
I0508 02:45:20.149150 25829 net.cpp:395] fc4_prescale -> fc4_300 (in-place)
I0508 02:45:20.149238 25829 net.cpp:150] Setting up fc4_prescale
I0508 02:45:20.149247 25829 net.cpp:157] Top shape: 1024 300 (307200)
I0508 02:45:20.149250 25829 net.cpp:165] Memory required for data: 4104257536
I0508 02:45:20.149255 25829 layer_factory.hpp:77] Creating layer fc4_sTanH
I0508 02:45:20.149260 25829 net.cpp:100] Creating Layer fc4_sTanH
I0508 02:45:20.149265 25829 net.cpp:434] fc4_sTanH <- fc4_300
I0508 02:45:20.149268 25829 net.cpp:395] fc4_sTanH -> fc4_300 (in-place)
I0508 02:45:20.154094 25829 net.cpp:150] Setting up fc4_sTanH
I0508 02:45:20.154114 25829 net.cpp:157] Top shape: 1024 300 (307200)
I0508 02:45:20.154117 25829 net.cpp:165] Memory required for data: 4105486336
I0508 02:45:20.154121 25829 layer_factory.hpp:77] Creating layer fc4_postscale
I0508 02:45:20.154129 25829 net.cpp:100] Creating Layer fc4_postscale
I0508 02:45:20.154134 25829 net.cpp:434] fc4_postscale <- fc4_300
I0508 02:45:20.154139 25829 net.cpp:395] fc4_postscale -> fc4_300 (in-place)
I0508 02:45:20.154239 25829 net.cpp:150] Setting up fc4_postscale
I0508 02:45:20.154249 25829 net.cpp:157] Top shape: 1024 300 (307200)
I0508 02:45:20.154253 25829 net.cpp:165] Memory required for data: 4106715136
I0508 02:45:20.154258 25829 layer_factory.hpp:77] Creating layer fc5_116
I0508 02:45:20.154264 25829 net.cpp:100] Creating Layer fc5_116
I0508 02:45:20.154268 25829 net.cpp:434] fc5_116 <- fc4_300
I0508 02:45:20.154273 25829 net.cpp:408] fc5_116 -> fc5_classes
I0508 02:45:20.160516 25829 net.cpp:150] Setting up fc5_116
I0508 02:45:20.160533 25829 net.cpp:157] Top shape: 1024 116 (118784)
I0508 02:45:20.160537 25829 net.cpp:165] Memory required for data: 4107190272
I0508 02:45:20.160549 25829 layer_factory.hpp:77] Creating layer fc5_classes_fc5_116_0_split
I0508 02:45:20.160557 25829 net.cpp:100] Creating Layer fc5_classes_fc5_116_0_split
I0508 02:45:20.160560 25829 net.cpp:434] fc5_classes_fc5_116_0_split <- fc5_classes
I0508 02:45:20.160567 25829 net.cpp:408] fc5_classes_fc5_116_0_split -> fc5_classes_fc5_116_0_split_0
I0508 02:45:20.160574 25829 net.cpp:408] fc5_classes_fc5_116_0_split -> fc5_classes_fc5_116_0_split_1
I0508 02:45:20.160580 25829 net.cpp:408] fc5_classes_fc5_116_0_split -> fc5_classes_fc5_116_0_split_2
I0508 02:45:20.160630 25829 net.cpp:150] Setting up fc5_classes_fc5_116_0_split
I0508 02:45:20.160639 25829 net.cpp:157] Top shape: 1024 116 (118784)
I0508 02:45:20.160642 25829 net.cpp:157] Top shape: 1024 116 (118784)
I0508 02:45:20.160646 25829 net.cpp:157] Top shape: 1024 116 (118784)
I0508 02:45:20.160648 25829 net.cpp:165] Memory required for data: 4108615680
I0508 02:45:20.160651 25829 layer_factory.hpp:77] Creating layer softmax
I0508 02:45:20.160658 25829 net.cpp:100] Creating Layer softmax
I0508 02:45:20.160661 25829 net.cpp:434] softmax <- fc5_classes_fc5_116_0_split_0
I0508 02:45:20.160667 25829 net.cpp:408] softmax -> softmax
I0508 02:45:20.160909 25829 net.cpp:150] Setting up softmax
I0508 02:45:20.160923 25829 net.cpp:157] Top shape: 1024 116 (118784)
I0508 02:45:20.160925 25829 net.cpp:165] Memory required for data: 4109090816
I0508 02:45:20.160928 25829 layer_factory.hpp:77] Creating layer loss
I0508 02:45:20.160936 25829 net.cpp:100] Creating Layer loss
I0508 02:45:20.160939 25829 net.cpp:434] loss <- softmax
I0508 02:45:20.160944 25829 net.cpp:434] loss <- label_data_1_split_0
I0508 02:45:20.160950 25829 net.cpp:408] loss -> loss
…
