…
I0415 01:36:32.304016 23874 solver.cpp:93] Creating training net from train_net file: ./Prototxt/experiment_12/rtsd-r1/CoNorm/trial_5/train.prototxt
I0415 01:36:32.314661 23874 net.cpp:58] Initializing net from parameters: 
state {
  phase: TRAIN
  level: 0
  stage: ""
}
layer {
  name: "data"
  type: "Data"
  top: "data"
  top: "label"
  include {
    phase: TRAIN
  }
  transform_param {
    scale: 0.0039215689
    mirror: false
    crop_size: 48
    mean_value: 132
    mean_value: 132
    mean_value: 131
  }
  data_param {
    source: "../local_data/lmdb/rtsd-r1/CoNorm/train/lmdb"
    batch_size: 1024
    backend: LMDB
  }
}
layer {
  name: "conv1"
  type: "Convolution"
  bottom: "data"
  top: "conv1"
  convolution_param {
    num_output: 100
    pad: 0
    kernel_size: 7
    group: 1
    stride: 1
    weight_filler {
      type: "xavier"
    }
  }
}
layer {
  name: "conv1_relu"
  type: "ReLU"
  bottom: "conv1"
  top: "conv1"
}
layer {
  name: "pool1"
  type: "Pooling"
  bottom: "conv1"
  top: "pool1"
  pooling_param {
    pool: MAX
    kernel_size: 2
    stride: 2
  }
}
layer {
  name: "conv2"
  type: "Convolution"
  bottom: "pool1"
  top: "conv2"
  convolution_param {
    num_output: 150
    pad: 0
    kernel_size: 4
    group: 1
    stride: 1
    weight_filler {
      type: "xavier"
    }
  }
}
layer {
  name: "conv2_relu"
  type: "ReLU"
  bottom: "conv2"
  top: "conv2"
}
layer {
  name: "pool2"
  type: "Pooling"
  bottom: "conv2"
  top: "pool2"
  pooling_param {
    pool: MAX
    kernel_size: 2
    stride: 2
  }
}
layer {
  name: "conv3"
  type: "Convolution"
  bottom: "pool2"
  top: "conv3"
  convolution_param {
    num_output: 250
    pad: 0
    kernel_size: 4
    group: 1
    stride: 1
    weight_filler {
      type: "xavier"
    }
  }
}
layer {
  name: "conv3_relu"
  type: "ReLU"
  bottom: "conv3"
  top: "conv3"
}
layer {
  name: "pool3"
  type: "Pooling"
  bottom: "conv3"
  top: "pool3"
  pooling_param {
    pool: MAX
    kernel_size: 2
    stride: 2
  }
}
layer {
  name: "fc4_300"
  type: "InnerProduct"
  bottom: "pool3"
  top: "fc4_300"
  inner_product_param {
    num_output: 300
    weight_filler {
      type: "xavier"
    }
  }
}
layer {
  name: "fc4_relu"
  type: "ReLU"
  bottom: "fc4_300"
  top: "fc4_300"
}
layer {
  name: "drop4"
  type: "Dropout"
  bottom: "fc4_300"
  top: "fc4_300"
  dropout_param {
    dropout_ratio: 0.5
  }
}
layer {
  name: "fc5_67"
  type: "InnerProduct"
  bottom: "fc4_300"
  top: "fc5_classes"
  inner_product_param {
    num_output: 67
    weight_filler {
      type: "xavier"
    }
  }
}
layer {
  name: "softmax"
  type: "Softmax"
  bottom: "fc5_classes"
  top: "softmax"
}
layer {
  name: "loss"
  type: "MultinomialLogisticLoss"
  bottom: "softmax"
  bottom: "label"
  top: "loss"
}
layer {
  name: "accuracy_1"
  type: "Accuracy"
  bottom: "fc5_classes"
  bottom: "label"
  top: "accuracy_1"
  accuracy_param {
    top_k: 1
  }
}
layer {
  name: "accuracy_5"
  type: "Accuracy"
  bottom: "fc5_classes"
  bottom: "label"
  top: "accuracy_5"
  accuracy_param {
    top_k: 5
  }
}
layer {
  name: "silence"
  type: "Silence"
  bottom: "accuracy_1"
  bottom: "accuracy_5"
}
I0415 01:36:32.314813 23874 layer_factory.hpp:77] Creating layer data
I0415 01:36:32.315923 23874 net.cpp:100] Creating Layer data
I0415 01:36:32.315939 23874 net.cpp:408] data -> data
I0415 01:36:32.315964 23874 net.cpp:408] data -> label
I0415 01:36:32.318452 24035 db_lmdb.cpp:35] Opened lmdb ../local_data/lmdb/rtsd-r1/CoNorm/train/lmdb
I0415 01:36:32.335129 23874 data_layer.cpp:41] output data size: 1024,3,48,48
I0415 01:36:32.403800 23874 net.cpp:150] Setting up data
I0415 01:36:32.403831 23874 net.cpp:157] Top shape: 1024 3 48 48 (7077888)
I0415 01:36:32.403836 23874 net.cpp:157] Top shape: 1024 (1024)
I0415 01:36:32.403838 23874 net.cpp:165] Memory required for data: 28315648
I0415 01:36:32.403849 23874 layer_factory.hpp:77] Creating layer label_data_1_split
I0415 01:36:32.403863 23874 net.cpp:100] Creating Layer label_data_1_split
I0415 01:36:32.403872 23874 net.cpp:434] label_data_1_split <- label
I0415 01:36:32.403908 23874 net.cpp:408] label_data_1_split -> label_data_1_split_0
I0415 01:36:32.403923 23874 net.cpp:408] label_data_1_split -> label_data_1_split_1
I0415 01:36:32.403931 23874 net.cpp:408] label_data_1_split -> label_data_1_split_2
I0415 01:36:32.404031 23874 net.cpp:150] Setting up label_data_1_split
I0415 01:36:32.404042 23874 net.cpp:157] Top shape: 1024 (1024)
I0415 01:36:32.404045 23874 net.cpp:157] Top shape: 1024 (1024)
I0415 01:36:32.404048 23874 net.cpp:157] Top shape: 1024 (1024)
I0415 01:36:32.404052 23874 net.cpp:165] Memory required for data: 28327936
I0415 01:36:32.404054 23874 layer_factory.hpp:77] Creating layer conv1
I0415 01:36:32.404074 23874 net.cpp:100] Creating Layer conv1
I0415 01:36:32.404080 23874 net.cpp:434] conv1 <- data
I0415 01:36:32.404088 23874 net.cpp:408] conv1 -> conv1
I0415 01:36:33.504577 23874 net.cpp:150] Setting up conv1
I0415 01:36:33.504613 23874 net.cpp:157] Top shape: 1024 100 42 42 (180633600)
I0415 01:36:33.504621 23874 net.cpp:165] Memory required for data: 750862336
I0415 01:36:33.504652 23874 layer_factory.hpp:77] Creating layer conv1_relu
I0415 01:36:33.504672 23874 net.cpp:100] Creating Layer conv1_relu
I0415 01:36:33.504683 23874 net.cpp:434] conv1_relu <- conv1
I0415 01:36:33.504695 23874 net.cpp:395] conv1_relu -> conv1 (in-place)
I0415 01:36:33.504993 23874 net.cpp:150] Setting up conv1_relu
I0415 01:36:33.505012 23874 net.cpp:157] Top shape: 1024 100 42 42 (180633600)
I0415 01:36:33.505020 23874 net.cpp:165] Memory required for data: 1473396736
I0415 01:36:33.505028 23874 layer_factory.hpp:77] Creating layer pool1
I0415 01:36:33.505045 23874 net.cpp:100] Creating Layer pool1
I0415 01:36:33.505054 23874 net.cpp:434] pool1 <- conv1
I0415 01:36:33.505066 23874 net.cpp:408] pool1 -> pool1
I0415 01:36:33.505146 23874 net.cpp:150] Setting up pool1
I0415 01:36:33.505161 23874 net.cpp:157] Top shape: 1024 100 21 21 (45158400)
I0415 01:36:33.505168 23874 net.cpp:165] Memory required for data: 1654030336
I0415 01:36:33.505177 23874 layer_factory.hpp:77] Creating layer conv2
I0415 01:36:33.505193 23874 net.cpp:100] Creating Layer conv2
I0415 01:36:33.505203 23874 net.cpp:434] conv2 <- pool1
I0415 01:36:33.505214 23874 net.cpp:408] conv2 -> conv2
I0415 01:36:33.524876 23874 net.cpp:150] Setting up conv2
I0415 01:36:33.524896 23874 net.cpp:157] Top shape: 1024 150 18 18 (49766400)
I0415 01:36:33.524899 23874 net.cpp:165] Memory required for data: 1853095936
I0415 01:36:33.524911 23874 layer_factory.hpp:77] Creating layer conv2_relu
I0415 01:36:33.524920 23874 net.cpp:100] Creating Layer conv2_relu
I0415 01:36:33.524924 23874 net.cpp:434] conv2_relu <- conv2
I0415 01:36:33.524931 23874 net.cpp:395] conv2_relu -> conv2 (in-place)
I0415 01:36:33.526206 23874 net.cpp:150] Setting up conv2_relu
I0415 01:36:33.526226 23874 net.cpp:157] Top shape: 1024 150 18 18 (49766400)
I0415 01:36:33.526228 23874 net.cpp:165] Memory required for data: 2052161536
I0415 01:36:33.526234 23874 layer_factory.hpp:77] Creating layer pool2
I0415 01:36:33.526242 23874 net.cpp:100] Creating Layer pool2
I0415 01:36:33.526245 23874 net.cpp:434] pool2 <- conv2
I0415 01:36:33.526250 23874 net.cpp:408] pool2 -> pool2
I0415 01:36:33.526307 23874 net.cpp:150] Setting up pool2
I0415 01:36:33.526316 23874 net.cpp:157] Top shape: 1024 150 9 9 (12441600)
I0415 01:36:33.526319 23874 net.cpp:165] Memory required for data: 2101927936
I0415 01:36:33.526322 23874 layer_factory.hpp:77] Creating layer conv3
I0415 01:36:33.526371 23874 net.cpp:100] Creating Layer conv3
I0415 01:36:33.526378 23874 net.cpp:434] conv3 <- pool2
I0415 01:36:33.526386 23874 net.cpp:408] conv3 -> conv3
I0415 01:36:33.540639 23874 net.cpp:150] Setting up conv3
I0415 01:36:33.540658 23874 net.cpp:157] Top shape: 1024 250 6 6 (9216000)
I0415 01:36:33.540663 23874 net.cpp:165] Memory required for data: 2138791936
I0415 01:36:33.540673 23874 layer_factory.hpp:77] Creating layer conv3_relu
I0415 01:36:33.540680 23874 net.cpp:100] Creating Layer conv3_relu
I0415 01:36:33.540683 23874 net.cpp:434] conv3_relu <- conv3
I0415 01:36:33.540689 23874 net.cpp:395] conv3_relu -> conv3 (in-place)
I0415 01:36:33.545362 23874 net.cpp:150] Setting up conv3_relu
I0415 01:36:33.545398 23874 net.cpp:157] Top shape: 1024 250 6 6 (9216000)
I0415 01:36:33.545408 23874 net.cpp:165] Memory required for data: 2175655936
I0415 01:36:33.545415 23874 layer_factory.hpp:77] Creating layer pool3
I0415 01:36:33.545431 23874 net.cpp:100] Creating Layer pool3
I0415 01:36:33.545438 23874 net.cpp:434] pool3 <- conv3
I0415 01:36:33.545444 23874 net.cpp:408] pool3 -> pool3
I0415 01:36:33.545492 23874 net.cpp:150] Setting up pool3
I0415 01:36:33.545501 23874 net.cpp:157] Top shape: 1024 250 3 3 (2304000)
I0415 01:36:33.545506 23874 net.cpp:165] Memory required for data: 2184871936
I0415 01:36:33.545509 23874 layer_factory.hpp:77] Creating layer fc4_300
I0415 01:36:33.545516 23874 net.cpp:100] Creating Layer fc4_300
I0415 01:36:33.545522 23874 net.cpp:434] fc4_300 <- pool3
I0415 01:36:33.545529 23874 net.cpp:408] fc4_300 -> fc4_300
I0415 01:36:33.562747 23874 net.cpp:150] Setting up fc4_300
I0415 01:36:33.562767 23874 net.cpp:157] Top shape: 1024 300 (307200)
I0415 01:36:33.562769 23874 net.cpp:165] Memory required for data: 2186100736
I0415 01:36:33.562777 23874 layer_factory.hpp:77] Creating layer fc4_relu
I0415 01:36:33.562784 23874 net.cpp:100] Creating Layer fc4_relu
I0415 01:36:33.562790 23874 net.cpp:434] fc4_relu <- fc4_300
I0415 01:36:33.562799 23874 net.cpp:395] fc4_relu -> fc4_300 (in-place)
I0415 01:36:33.563014 23874 net.cpp:150] Setting up fc4_relu
I0415 01:36:33.563030 23874 net.cpp:157] Top shape: 1024 300 (307200)
I0415 01:36:33.563035 23874 net.cpp:165] Memory required for data: 2187329536
I0415 01:36:33.563040 23874 layer_factory.hpp:77] Creating layer drop4
I0415 01:36:33.563053 23874 net.cpp:100] Creating Layer drop4
I0415 01:36:33.563060 23874 net.cpp:434] drop4 <- fc4_300
I0415 01:36:33.563067 23874 net.cpp:395] drop4 -> fc4_300 (in-place)
I0415 01:36:33.563109 23874 net.cpp:150] Setting up drop4
I0415 01:36:33.563119 23874 net.cpp:157] Top shape: 1024 300 (307200)
I0415 01:36:33.563125 23874 net.cpp:165] Memory required for data: 2188558336
I0415 01:36:33.563129 23874 layer_factory.hpp:77] Creating layer fc5_67
I0415 01:36:33.563138 23874 net.cpp:100] Creating Layer fc5_67
I0415 01:36:33.563143 23874 net.cpp:434] fc5_67 <- fc4_300
I0415 01:36:33.563148 23874 net.cpp:408] fc5_67 -> fc5_classes
I0415 01:36:33.565376 23874 net.cpp:150] Setting up fc5_67
I0415 01:36:33.565394 23874 net.cpp:157] Top shape: 1024 67 (68608)
I0415 01:36:33.565399 23874 net.cpp:165] Memory required for data: 2188832768
I0415 01:36:33.565410 23874 layer_factory.hpp:77] Creating layer fc5_classes_fc5_67_0_split
I0415 01:36:33.565419 23874 net.cpp:100] Creating Layer fc5_classes_fc5_67_0_split
I0415 01:36:33.565424 23874 net.cpp:434] fc5_classes_fc5_67_0_split <- fc5_classes
I0415 01:36:33.565430 23874 net.cpp:408] fc5_classes_fc5_67_0_split -> fc5_classes_fc5_67_0_split_0
I0415 01:36:33.565440 23874 net.cpp:408] fc5_classes_fc5_67_0_split -> fc5_classes_fc5_67_0_split_1
I0415 01:36:33.565448 23874 net.cpp:408] fc5_classes_fc5_67_0_split -> fc5_classes_fc5_67_0_split_2
I0415 01:36:33.565498 23874 net.cpp:150] Setting up fc5_classes_fc5_67_0_split
I0415 01:36:33.565505 23874 net.cpp:157] Top shape: 1024 67 (68608)
I0415 01:36:33.565510 23874 net.cpp:157] Top shape: 1024 67 (68608)
I0415 01:36:33.565512 23874 net.cpp:157] Top shape: 1024 67 (68608)
I0415 01:36:33.565515 23874 net.cpp:165] Memory required for data: 2189656064
I0415 01:36:33.565536 23874 layer_factory.hpp:77] Creating layer softmax
I0415 01:36:33.565546 23874 net.cpp:100] Creating Layer softmax
I0415 01:36:33.565551 23874 net.cpp:434] softmax <- fc5_classes_fc5_67_0_split_0
I0415 01:36:33.565557 23874 net.cpp:408] softmax -> softmax
I0415 01:36:33.565814 23874 net.cpp:150] Setting up softmax
I0415 01:36:33.565827 23874 net.cpp:157] Top shape: 1024 67 (68608)
I0415 01:36:33.565832 23874 net.cpp:165] Memory required for data: 2189930496
I0415 01:36:33.565835 23874 layer_factory.hpp:77] Creating layer loss
I0415 01:36:33.565841 23874 net.cpp:100] Creating Layer loss
I0415 01:36:33.565846 23874 net.cpp:434] loss <- softmax
I0415 01:36:33.565857 23874 net.cpp:434] loss <- label_data_1_split_0
I0415 01:36:33.565865 23874 net.cpp:408] loss -> loss
…
