…
I0507 04:07:17.526391 30766 solver.cpp:93] Creating training net from train_net file: ./Prototxt/experiment_14/RTSD/AHE/trial_4/train.prototxt
I0507 04:07:17.526798 30766 net.cpp:58] Initializing net from parameters: 
state {
  phase: TRAIN
  level: 0
  stage: ""
}
layer {
  name: "data"
  type: "Data"
  top: "data"
  top: "label"
  include {
    phase: TRAIN
  }
  transform_param {
    scale: 0.0039215689
    mirror: false
    crop_size: 48
    mean_value: 133
    mean_value: 127
    mean_value: 126
  }
  data_param {
    source: "../local_data/lmdb/RTSD/AHE/train/lmdb"
    batch_size: 512
    backend: LMDB
  }
}
layer {
  name: "conv1"
  type: "Convolution"
  bottom: "data"
  top: "conv1"
  convolution_param {
    num_output: 100
    pad: 0
    kernel_size: 7
    group: 1
    stride: 1
    weight_filler {
      type: "xavier"
    }
  }
}
layer {
  name: "conv1_relu"
  type: "ReLU"
  bottom: "conv1"
  top: "conv1"
}
layer {
  name: "pool1"
  type: "Pooling"
  bottom: "conv1"
  top: "pool1"
  pooling_param {
    pool: MAX
    kernel_size: 2
    stride: 2
  }
}
layer {
  name: "conv2"
  type: "Convolution"
  bottom: "pool1"
  top: "conv2"
  convolution_param {
    num_output: 150
    pad: 0
    kernel_size: 4
    group: 1
    stride: 1
    weight_filler {
      type: "xavier"
    }
  }
}
layer {
  name: "conv2_relu"
  type: "ReLU"
  bottom: "conv2"
  top: "conv2"
}
layer {
  name: "pool2"
  type: "Pooling"
  bottom: "conv2"
  top: "pool2"
  pooling_param {
    pool: MAX
    kernel_size: 2
    stride: 2
  }
}
layer {
  name: "conv3"
  type: "Convolution"
  bottom: "pool2"
  top: "conv3"
  convolution_param {
    num_output: 250
    pad: 0
    kernel_size: 4
    group: 1
    stride: 1
    weight_filler {
      type: "xavier"
    }
  }
}
layer {
  name: "conv3_relu"
  type: "ReLU"
  bottom: "conv3"
  top: "conv3"
}
layer {
  name: "pool3"
  type: "Pooling"
  bottom: "conv3"
  top: "pool3"
  pooling_param {
    pool: MAX
    kernel_size: 2
    stride: 2
  }
}
layer {
  name: "fc4_300"
  type: "InnerProduct"
  bottom: "pool3"
  top: "fc4_300"
  inner_product_param {
    num_output: 300
    weight_filler {
      type: "xavier"
    }
  }
}
layer {
  name: "fc4_relu"
  type: "ReLU"
  bottom: "fc4_300"
  top: "fc4_300"
}
layer {
  name: "fc5_116"
  type: "InnerProduct"
  bottom: "fc4_300"
  top: "fc5_classes"
  inner_product_param {
    num_output: 116
    weight_filler {
      type: "xavier"
    }
  }
}
layer {
  name: "softmax"
  type: "Softmax"
  bottom: "fc5_classes"
  top: "softmax"
}
layer {
  name: "loss"
  type: "MultinomialLogisticLoss"
  bottom: "softmax"
  bottom: "label"
  top: "loss"
}
layer {
  name: "accuracy_1"
  type: "Accuracy"
  bottom: "fc5_classes"
  bottom: "label"
  top: "accuracy_1"
  accuracy_param {
    top_k: 1
  }
}
layer {
  name: "accuracy_5"
  type: "Accuracy"
  bottom: "fc5_classes"
  bottom: "label"
  top: "accuracy_5"
  accuracy_param {
    top_k: 5
  }
}
layer {
  name: "silence"
  type: "Silence"
  bottom: "accuracy_1"
  bottom: "accuracy_5"
}
I0507 04:07:17.526942 30766 layer_factory.hpp:77] Creating layer data
I0507 04:07:17.528093 30766 net.cpp:100] Creating Layer data
I0507 04:07:17.528113 30766 net.cpp:408] data -> data
I0507 04:07:17.528139 30766 net.cpp:408] data -> label
I0507 04:07:17.552139 30892 db_lmdb.cpp:35] Opened lmdb ../local_data/lmdb/RTSD/AHE/train/lmdb
I0507 04:07:17.583421 30766 data_layer.cpp:41] output data size: 512,3,48,48
I0507 04:07:17.635318 30766 net.cpp:150] Setting up data
I0507 04:07:17.635380 30766 net.cpp:157] Top shape: 512 3 48 48 (3538944)
I0507 04:07:17.635386 30766 net.cpp:157] Top shape: 512 (512)
I0507 04:07:17.635390 30766 net.cpp:165] Memory required for data: 14157824
I0507 04:07:17.635402 30766 layer_factory.hpp:77] Creating layer label_data_1_split
I0507 04:07:17.635418 30766 net.cpp:100] Creating Layer label_data_1_split
I0507 04:07:17.635427 30766 net.cpp:434] label_data_1_split <- label
I0507 04:07:17.635442 30766 net.cpp:408] label_data_1_split -> label_data_1_split_0
I0507 04:07:17.635457 30766 net.cpp:408] label_data_1_split -> label_data_1_split_1
I0507 04:07:17.635464 30766 net.cpp:408] label_data_1_split -> label_data_1_split_2
I0507 04:07:17.635535 30766 net.cpp:150] Setting up label_data_1_split
I0507 04:07:17.635545 30766 net.cpp:157] Top shape: 512 (512)
I0507 04:07:17.635550 30766 net.cpp:157] Top shape: 512 (512)
I0507 04:07:17.635555 30766 net.cpp:157] Top shape: 512 (512)
I0507 04:07:17.635557 30766 net.cpp:165] Memory required for data: 14163968
I0507 04:07:17.635561 30766 layer_factory.hpp:77] Creating layer conv1
I0507 04:07:17.635579 30766 net.cpp:100] Creating Layer conv1
I0507 04:07:17.635583 30766 net.cpp:434] conv1 <- data
I0507 04:07:17.635591 30766 net.cpp:408] conv1 -> conv1
I0507 04:07:18.090853 30766 net.cpp:150] Setting up conv1
I0507 04:07:18.090880 30766 net.cpp:157] Top shape: 512 100 42 42 (90316800)
I0507 04:07:18.090884 30766 net.cpp:165] Memory required for data: 375431168
I0507 04:07:18.090905 30766 layer_factory.hpp:77] Creating layer conv1_relu
I0507 04:07:18.090917 30766 net.cpp:100] Creating Layer conv1_relu
I0507 04:07:18.090921 30766 net.cpp:434] conv1_relu <- conv1
I0507 04:07:18.090926 30766 net.cpp:395] conv1_relu -> conv1 (in-place)
I0507 04:07:18.091123 30766 net.cpp:150] Setting up conv1_relu
I0507 04:07:18.091135 30766 net.cpp:157] Top shape: 512 100 42 42 (90316800)
I0507 04:07:18.091138 30766 net.cpp:165] Memory required for data: 736698368
I0507 04:07:18.091142 30766 layer_factory.hpp:77] Creating layer pool1
I0507 04:07:18.091151 30766 net.cpp:100] Creating Layer pool1
I0507 04:07:18.091156 30766 net.cpp:434] pool1 <- conv1
I0507 04:07:18.091161 30766 net.cpp:408] pool1 -> pool1
I0507 04:07:18.091214 30766 net.cpp:150] Setting up pool1
I0507 04:07:18.091222 30766 net.cpp:157] Top shape: 512 100 21 21 (22579200)
I0507 04:07:18.091224 30766 net.cpp:165] Memory required for data: 827015168
I0507 04:07:18.091228 30766 layer_factory.hpp:77] Creating layer conv2
I0507 04:07:18.091238 30766 net.cpp:100] Creating Layer conv2
I0507 04:07:18.091241 30766 net.cpp:434] conv2 <- pool1
I0507 04:07:18.091246 30766 net.cpp:408] conv2 -> conv2
I0507 04:07:18.096484 30766 net.cpp:150] Setting up conv2
I0507 04:07:18.096501 30766 net.cpp:157] Top shape: 512 150 18 18 (24883200)
I0507 04:07:18.096504 30766 net.cpp:165] Memory required for data: 926547968
I0507 04:07:18.096514 30766 layer_factory.hpp:77] Creating layer conv2_relu
I0507 04:07:18.096521 30766 net.cpp:100] Creating Layer conv2_relu
I0507 04:07:18.096524 30766 net.cpp:434] conv2_relu <- conv2
I0507 04:07:18.096529 30766 net.cpp:395] conv2_relu -> conv2 (in-place)
I0507 04:07:18.097460 30766 net.cpp:150] Setting up conv2_relu
I0507 04:07:18.097476 30766 net.cpp:157] Top shape: 512 150 18 18 (24883200)
I0507 04:07:18.097479 30766 net.cpp:165] Memory required for data: 1026080768
I0507 04:07:18.097482 30766 layer_factory.hpp:77] Creating layer pool2
I0507 04:07:18.097489 30766 net.cpp:100] Creating Layer pool2
I0507 04:07:18.097493 30766 net.cpp:434] pool2 <- conv2
I0507 04:07:18.097498 30766 net.cpp:408] pool2 -> pool2
I0507 04:07:18.097546 30766 net.cpp:150] Setting up pool2
I0507 04:07:18.097554 30766 net.cpp:157] Top shape: 512 150 9 9 (6220800)
I0507 04:07:18.097558 30766 net.cpp:165] Memory required for data: 1050963968
I0507 04:07:18.097560 30766 layer_factory.hpp:77] Creating layer conv3
I0507 04:07:18.097570 30766 net.cpp:100] Creating Layer conv3
I0507 04:07:18.097574 30766 net.cpp:434] conv3 <- pool2
I0507 04:07:18.097579 30766 net.cpp:408] conv3 -> conv3
I0507 04:07:18.103572 30766 net.cpp:150] Setting up conv3
I0507 04:07:18.103615 30766 net.cpp:157] Top shape: 512 250 6 6 (4608000)
I0507 04:07:18.103621 30766 net.cpp:165] Memory required for data: 1069395968
I0507 04:07:18.103631 30766 layer_factory.hpp:77] Creating layer conv3_relu
I0507 04:07:18.103641 30766 net.cpp:100] Creating Layer conv3_relu
I0507 04:07:18.103646 30766 net.cpp:434] conv3_relu <- conv3
I0507 04:07:18.103652 30766 net.cpp:395] conv3_relu -> conv3 (in-place)
I0507 04:07:18.111907 30766 net.cpp:150] Setting up conv3_relu
I0507 04:07:18.111927 30766 net.cpp:157] Top shape: 512 250 6 6 (4608000)
I0507 04:07:18.111929 30766 net.cpp:165] Memory required for data: 1087827968
I0507 04:07:18.111933 30766 layer_factory.hpp:77] Creating layer pool3
I0507 04:07:18.111941 30766 net.cpp:100] Creating Layer pool3
I0507 04:07:18.111944 30766 net.cpp:434] pool3 <- conv3
I0507 04:07:18.111950 30766 net.cpp:408] pool3 -> pool3
I0507 04:07:18.112000 30766 net.cpp:150] Setting up pool3
I0507 04:07:18.112010 30766 net.cpp:157] Top shape: 512 250 3 3 (1152000)
I0507 04:07:18.112012 30766 net.cpp:165] Memory required for data: 1092435968
I0507 04:07:18.112015 30766 layer_factory.hpp:77] Creating layer fc4_300
I0507 04:07:18.112022 30766 net.cpp:100] Creating Layer fc4_300
I0507 04:07:18.112026 30766 net.cpp:434] fc4_300 <- pool3
I0507 04:07:18.112032 30766 net.cpp:408] fc4_300 -> fc4_300
I0507 04:07:18.117686 30766 net.cpp:150] Setting up fc4_300
I0507 04:07:18.117703 30766 net.cpp:157] Top shape: 512 300 (153600)
I0507 04:07:18.117707 30766 net.cpp:165] Memory required for data: 1093050368
I0507 04:07:18.117713 30766 layer_factory.hpp:77] Creating layer fc4_relu
I0507 04:07:18.117720 30766 net.cpp:100] Creating Layer fc4_relu
I0507 04:07:18.117723 30766 net.cpp:434] fc4_relu <- fc4_300
I0507 04:07:18.117728 30766 net.cpp:395] fc4_relu -> fc4_300 (in-place)
I0507 04:07:18.117913 30766 net.cpp:150] Setting up fc4_relu
I0507 04:07:18.117924 30766 net.cpp:157] Top shape: 512 300 (153600)
I0507 04:07:18.117928 30766 net.cpp:165] Memory required for data: 1093664768
I0507 04:07:18.117930 30766 layer_factory.hpp:77] Creating layer fc5_116
I0507 04:07:18.117938 30766 net.cpp:100] Creating Layer fc5_116
I0507 04:07:18.117940 30766 net.cpp:434] fc5_116 <- fc4_300
I0507 04:07:18.117946 30766 net.cpp:408] fc5_116 -> fc5_classes
I0507 04:07:18.124915 30766 net.cpp:150] Setting up fc5_116
I0507 04:07:18.124933 30766 net.cpp:157] Top shape: 512 116 (59392)
I0507 04:07:18.124938 30766 net.cpp:165] Memory required for data: 1093902336
I0507 04:07:18.124948 30766 layer_factory.hpp:77] Creating layer fc5_classes_fc5_116_0_split
I0507 04:07:18.124960 30766 net.cpp:100] Creating Layer fc5_classes_fc5_116_0_split
I0507 04:07:18.124964 30766 net.cpp:434] fc5_classes_fc5_116_0_split <- fc5_classes
I0507 04:07:18.124970 30766 net.cpp:408] fc5_classes_fc5_116_0_split -> fc5_classes_fc5_116_0_split_0
I0507 04:07:18.124977 30766 net.cpp:408] fc5_classes_fc5_116_0_split -> fc5_classes_fc5_116_0_split_1
I0507 04:07:18.124984 30766 net.cpp:408] fc5_classes_fc5_116_0_split -> fc5_classes_fc5_116_0_split_2
I0507 04:07:18.125035 30766 net.cpp:150] Setting up fc5_classes_fc5_116_0_split
I0507 04:07:18.125042 30766 net.cpp:157] Top shape: 512 116 (59392)
I0507 04:07:18.125046 30766 net.cpp:157] Top shape: 512 116 (59392)
I0507 04:07:18.125049 30766 net.cpp:157] Top shape: 512 116 (59392)
I0507 04:07:18.125052 30766 net.cpp:165] Memory required for data: 1094615040
I0507 04:07:18.125056 30766 layer_factory.hpp:77] Creating layer softmax
I0507 04:07:18.125061 30766 net.cpp:100] Creating Layer softmax
I0507 04:07:18.125064 30766 net.cpp:434] softmax <- fc5_classes_fc5_116_0_split_0
I0507 04:07:18.125069 30766 net.cpp:408] softmax -> softmax
I0507 04:07:18.125318 30766 net.cpp:150] Setting up softmax
I0507 04:07:18.125329 30766 net.cpp:157] Top shape: 512 116 (59392)
I0507 04:07:18.125332 30766 net.cpp:165] Memory required for data: 1094852608
I0507 04:07:18.125335 30766 layer_factory.hpp:77] Creating layer loss
I0507 04:07:18.125344 30766 net.cpp:100] Creating Layer loss
I0507 04:07:18.125361 30766 net.cpp:434] loss <- softmax
I0507 04:07:18.125366 30766 net.cpp:434] loss <- label_data_1_split_0
I0507 04:07:18.125372 30766 net.cpp:408] loss -> loss
…
