…
I0414 10:57:09.179265 17321 solver.cpp:93] Creating training net from train_net file: ./Prototxt/experiment_10/rtsd-r3/CoNorm/trial_3/train.prototxt
I0414 10:57:09.179656 17321 net.cpp:58] Initializing net from parameters: 
state {
  phase: TRAIN
  level: 0
  stage: ""
}
layer {
  name: "data"
  type: "Data"
  top: "data"
  top: "label"
  include {
    phase: TRAIN
  }
  transform_param {
    scale: 0.0039215689
    mirror: false
    crop_size: 48
    mean_value: 135
    mean_value: 134
    mean_value: 134
  }
  data_param {
    source: "../local_data/lmdb/rtsd-r3/CoNorm/train/lmdb"
    batch_size: 1024
    backend: LMDB
  }
}
layer {
  name: "conv1"
  type: "Convolution"
  bottom: "data"
  top: "conv1"
  convolution_param {
    num_output: 100
    pad: 0
    kernel_size: 7
    group: 1
    stride: 1
    weight_filler {
      type: "xavier"
    }
  }
}
layer {
  name: "conv1_relu"
  type: "ReLU"
  bottom: "conv1"
  top: "conv1"
}
layer {
  name: "pool1"
  type: "Pooling"
  bottom: "conv1"
  top: "pool1"
  pooling_param {
    pool: MAX
    kernel_size: 2
    stride: 2
  }
}
layer {
  name: "conv2"
  type: "Convolution"
  bottom: "pool1"
  top: "conv2"
  convolution_param {
    num_output: 150
    pad: 0
    kernel_size: 4
    group: 1
    stride: 1
    weight_filler {
      type: "xavier"
    }
  }
}
layer {
  name: "conv2_relu"
  type: "ReLU"
  bottom: "conv2"
  top: "conv2"
}
layer {
  name: "pool2"
  type: "Pooling"
  bottom: "conv2"
  top: "pool2"
  pooling_param {
    pool: MAX
    kernel_size: 2
    stride: 2
  }
}
layer {
  name: "conv3"
  type: "Convolution"
  bottom: "pool2"
  top: "conv3"
  convolution_param {
    num_output: 250
    pad: 0
    kernel_size: 4
    group: 1
    stride: 1
    weight_filler {
      type: "xavier"
    }
  }
}
layer {
  name: "conv3_relu"
  type: "ReLU"
  bottom: "conv3"
  top: "conv3"
}
layer {
  name: "pool3"
  type: "Pooling"
  bottom: "conv3"
  top: "pool3"
  pooling_param {
    pool: MAX
    kernel_size: 2
    stride: 2
  }
}
layer {
  name: "fc4_300"
  type: "InnerProduct"
  bottom: "pool3"
  top: "fc4_300"
  inner_product_param {
    num_output: 300
    weight_filler {
      type: "xavier"
    }
  }
}
layer {
  name: "fc4_relu"
  type: "ReLU"
  bottom: "fc4_300"
  top: "fc4_300"
}
layer {
  name: "fc5_106"
  type: "InnerProduct"
  bottom: "fc4_300"
  top: "fc5_classes"
  inner_product_param {
    num_output: 106
    weight_filler {
      type: "xavier"
    }
  }
}
layer {
  name: "softmax"
  type: "Softmax"
  bottom: "fc5_classes"
  top: "softmax"
}
layer {
  name: "loss"
  type: "MultinomialLogisticLoss"
  bottom: "softmax"
  bottom: "label"
  top: "loss"
}
layer {
  name: "accuracy_1"
  type: "Accuracy"
  bottom: "fc5_classes"
  bottom: "label"
  top: "accuracy_1"
  accuracy_param {
    top_k: 1
  }
}
layer {
  name: "accuracy_5"
  type: "Accuracy"
  bottom: "fc5_classes"
  bottom: "label"
  top: "accuracy_5"
  accuracy_param {
    top_k: 5
  }
}
layer {
  name: "silence"
  type: "Silence"
  bottom: "accuracy_1"
  bottom: "accuracy_5"
}
I0414 10:57:09.179796 17321 layer_factory.hpp:77] Creating layer data
I0414 10:57:09.181077 17321 net.cpp:100] Creating Layer data
I0414 10:57:09.181097 17321 net.cpp:408] data -> data
I0414 10:57:09.181123 17321 net.cpp:408] data -> label
I0414 10:57:09.185062 17445 db_lmdb.cpp:35] Opened lmdb ../local_data/lmdb/rtsd-r3/CoNorm/train/lmdb
I0414 10:57:09.205176 17321 data_layer.cpp:41] output data size: 1024,3,48,48
I0414 10:57:09.303572 17321 net.cpp:150] Setting up data
I0414 10:57:09.303629 17321 net.cpp:157] Top shape: 1024 3 48 48 (7077888)
I0414 10:57:09.303635 17321 net.cpp:157] Top shape: 1024 (1024)
I0414 10:57:09.303638 17321 net.cpp:165] Memory required for data: 28315648
I0414 10:57:09.303649 17321 layer_factory.hpp:77] Creating layer label_data_1_split
I0414 10:57:09.303664 17321 net.cpp:100] Creating Layer label_data_1_split
I0414 10:57:09.303671 17321 net.cpp:434] label_data_1_split <- label
I0414 10:57:09.303688 17321 net.cpp:408] label_data_1_split -> label_data_1_split_0
I0414 10:57:09.303711 17321 net.cpp:408] label_data_1_split -> label_data_1_split_1
I0414 10:57:09.303724 17321 net.cpp:408] label_data_1_split -> label_data_1_split_2
I0414 10:57:09.303795 17321 net.cpp:150] Setting up label_data_1_split
I0414 10:57:09.303804 17321 net.cpp:157] Top shape: 1024 (1024)
I0414 10:57:09.303808 17321 net.cpp:157] Top shape: 1024 (1024)
I0414 10:57:09.303812 17321 net.cpp:157] Top shape: 1024 (1024)
I0414 10:57:09.303814 17321 net.cpp:165] Memory required for data: 28327936
I0414 10:57:09.303818 17321 layer_factory.hpp:77] Creating layer conv1
I0414 10:57:09.303838 17321 net.cpp:100] Creating Layer conv1
I0414 10:57:09.303843 17321 net.cpp:434] conv1 <- data
I0414 10:57:09.303848 17321 net.cpp:408] conv1 -> conv1
I0414 10:57:09.768831 17321 net.cpp:150] Setting up conv1
I0414 10:57:09.768863 17321 net.cpp:157] Top shape: 1024 100 42 42 (180633600)
I0414 10:57:09.768868 17321 net.cpp:165] Memory required for data: 750862336
I0414 10:57:09.768893 17321 layer_factory.hpp:77] Creating layer conv1_relu
I0414 10:57:09.768905 17321 net.cpp:100] Creating Layer conv1_relu
I0414 10:57:09.768911 17321 net.cpp:434] conv1_relu <- conv1
I0414 10:57:09.768919 17321 net.cpp:395] conv1_relu -> conv1 (in-place)
I0414 10:57:09.769157 17321 net.cpp:150] Setting up conv1_relu
I0414 10:57:09.769171 17321 net.cpp:157] Top shape: 1024 100 42 42 (180633600)
I0414 10:57:09.769177 17321 net.cpp:165] Memory required for data: 1473396736
I0414 10:57:09.769181 17321 layer_factory.hpp:77] Creating layer pool1
I0414 10:57:09.769192 17321 net.cpp:100] Creating Layer pool1
I0414 10:57:09.769198 17321 net.cpp:434] pool1 <- conv1
I0414 10:57:09.769204 17321 net.cpp:408] pool1 -> pool1
I0414 10:57:09.769270 17321 net.cpp:150] Setting up pool1
I0414 10:57:09.769280 17321 net.cpp:157] Top shape: 1024 100 21 21 (45158400)
I0414 10:57:09.769285 17321 net.cpp:165] Memory required for data: 1654030336
I0414 10:57:09.769289 17321 layer_factory.hpp:77] Creating layer conv2
I0414 10:57:09.769301 17321 net.cpp:100] Creating Layer conv2
I0414 10:57:09.769307 17321 net.cpp:434] conv2 <- pool1
I0414 10:57:09.769314 17321 net.cpp:408] conv2 -> conv2
I0414 10:57:09.777467 17321 net.cpp:150] Setting up conv2
I0414 10:57:09.777489 17321 net.cpp:157] Top shape: 1024 150 18 18 (49766400)
I0414 10:57:09.777496 17321 net.cpp:165] Memory required for data: 1853095936
I0414 10:57:09.777508 17321 layer_factory.hpp:77] Creating layer conv2_relu
I0414 10:57:09.777518 17321 net.cpp:100] Creating Layer conv2_relu
I0414 10:57:09.777523 17321 net.cpp:434] conv2_relu <- conv2
I0414 10:57:09.777530 17321 net.cpp:395] conv2_relu -> conv2 (in-place)
I0414 10:57:09.790606 17321 net.cpp:150] Setting up conv2_relu
I0414 10:57:09.790629 17321 net.cpp:157] Top shape: 1024 150 18 18 (49766400)
I0414 10:57:09.790635 17321 net.cpp:165] Memory required for data: 2052161536
I0414 10:57:09.790640 17321 layer_factory.hpp:77] Creating layer pool2
I0414 10:57:09.790650 17321 net.cpp:100] Creating Layer pool2
I0414 10:57:09.790657 17321 net.cpp:434] pool2 <- conv2
I0414 10:57:09.790663 17321 net.cpp:408] pool2 -> pool2
I0414 10:57:09.790725 17321 net.cpp:150] Setting up pool2
I0414 10:57:09.790735 17321 net.cpp:157] Top shape: 1024 150 9 9 (12441600)
I0414 10:57:09.790740 17321 net.cpp:165] Memory required for data: 2101927936
I0414 10:57:09.790743 17321 layer_factory.hpp:77] Creating layer conv3
I0414 10:57:09.790755 17321 net.cpp:100] Creating Layer conv3
I0414 10:57:09.790761 17321 net.cpp:434] conv3 <- pool2
I0414 10:57:09.790767 17321 net.cpp:408] conv3 -> conv3
I0414 10:57:09.798686 17321 net.cpp:150] Setting up conv3
I0414 10:57:09.798710 17321 net.cpp:157] Top shape: 1024 250 6 6 (9216000)
I0414 10:57:09.798717 17321 net.cpp:165] Memory required for data: 2138791936
I0414 10:57:09.798728 17321 layer_factory.hpp:77] Creating layer conv3_relu
I0414 10:57:09.798738 17321 net.cpp:100] Creating Layer conv3_relu
I0414 10:57:09.798744 17321 net.cpp:434] conv3_relu <- conv3
I0414 10:57:09.798753 17321 net.cpp:395] conv3_relu -> conv3 (in-place)
I0414 10:57:09.801322 17321 net.cpp:150] Setting up conv3_relu
I0414 10:57:09.801345 17321 net.cpp:157] Top shape: 1024 250 6 6 (9216000)
I0414 10:57:09.801352 17321 net.cpp:165] Memory required for data: 2175655936
I0414 10:57:09.801357 17321 layer_factory.hpp:77] Creating layer pool3
I0414 10:57:09.801367 17321 net.cpp:100] Creating Layer pool3
I0414 10:57:09.801373 17321 net.cpp:434] pool3 <- conv3
I0414 10:57:09.801380 17321 net.cpp:408] pool3 -> pool3
I0414 10:57:09.801445 17321 net.cpp:150] Setting up pool3
I0414 10:57:09.801455 17321 net.cpp:157] Top shape: 1024 250 3 3 (2304000)
I0414 10:57:09.801460 17321 net.cpp:165] Memory required for data: 2184871936
I0414 10:57:09.801465 17321 layer_factory.hpp:77] Creating layer fc4_300
I0414 10:57:09.801472 17321 net.cpp:100] Creating Layer fc4_300
I0414 10:57:09.801477 17321 net.cpp:434] fc4_300 <- pool3
I0414 10:57:09.801484 17321 net.cpp:408] fc4_300 -> fc4_300
I0414 10:57:09.810297 17321 net.cpp:150] Setting up fc4_300
I0414 10:57:09.810322 17321 net.cpp:157] Top shape: 1024 300 (307200)
I0414 10:57:09.810326 17321 net.cpp:165] Memory required for data: 2186100736
I0414 10:57:09.810335 17321 layer_factory.hpp:77] Creating layer fc4_relu
I0414 10:57:09.810343 17321 net.cpp:100] Creating Layer fc4_relu
I0414 10:57:09.810348 17321 net.cpp:434] fc4_relu <- fc4_300
I0414 10:57:09.810354 17321 net.cpp:395] fc4_relu -> fc4_300 (in-place)
I0414 10:57:09.810606 17321 net.cpp:150] Setting up fc4_relu
I0414 10:57:09.810621 17321 net.cpp:157] Top shape: 1024 300 (307200)
I0414 10:57:09.810626 17321 net.cpp:165] Memory required for data: 2187329536
I0414 10:57:09.810629 17321 layer_factory.hpp:77] Creating layer fc5_106
I0414 10:57:09.810638 17321 net.cpp:100] Creating Layer fc5_106
I0414 10:57:09.810644 17321 net.cpp:434] fc5_106 <- fc4_300
I0414 10:57:09.810653 17321 net.cpp:408] fc5_106 -> fc5_classes
I0414 10:57:09.812934 17321 net.cpp:150] Setting up fc5_106
I0414 10:57:09.812955 17321 net.cpp:157] Top shape: 1024 106 (108544)
I0414 10:57:09.812960 17321 net.cpp:165] Memory required for data: 2187763712
I0414 10:57:09.812973 17321 layer_factory.hpp:77] Creating layer fc5_classes_fc5_106_0_split
I0414 10:57:09.812981 17321 net.cpp:100] Creating Layer fc5_classes_fc5_106_0_split
I0414 10:57:09.812985 17321 net.cpp:434] fc5_classes_fc5_106_0_split <- fc5_classes
I0414 10:57:09.812994 17321 net.cpp:408] fc5_classes_fc5_106_0_split -> fc5_classes_fc5_106_0_split_0
I0414 10:57:09.813005 17321 net.cpp:408] fc5_classes_fc5_106_0_split -> fc5_classes_fc5_106_0_split_1
I0414 10:57:09.813015 17321 net.cpp:408] fc5_classes_fc5_106_0_split -> fc5_classes_fc5_106_0_split_2
I0414 10:57:09.813083 17321 net.cpp:150] Setting up fc5_classes_fc5_106_0_split
I0414 10:57:09.813093 17321 net.cpp:157] Top shape: 1024 106 (108544)
I0414 10:57:09.813098 17321 net.cpp:157] Top shape: 1024 106 (108544)
I0414 10:57:09.813102 17321 net.cpp:157] Top shape: 1024 106 (108544)
I0414 10:57:09.813105 17321 net.cpp:165] Memory required for data: 2189066240
I0414 10:57:09.813109 17321 layer_factory.hpp:77] Creating layer softmax
I0414 10:57:09.813117 17321 net.cpp:100] Creating Layer softmax
I0414 10:57:09.813120 17321 net.cpp:434] softmax <- fc5_classes_fc5_106_0_split_0
I0414 10:57:09.813128 17321 net.cpp:408] softmax -> softmax
I0414 10:57:09.813438 17321 net.cpp:150] Setting up softmax
I0414 10:57:09.813452 17321 net.cpp:157] Top shape: 1024 106 (108544)
I0414 10:57:09.813457 17321 net.cpp:165] Memory required for data: 2189500416
I0414 10:57:09.813459 17321 layer_factory.hpp:77] Creating layer loss
I0414 10:57:09.813491 17321 net.cpp:100] Creating Layer loss
I0414 10:57:09.813498 17321 net.cpp:434] loss <- softmax
I0414 10:57:09.813503 17321 net.cpp:434] loss <- label_data_1_split_0
I0414 10:57:09.813508 17321 net.cpp:408] loss -> loss
…
