…
I0508 05:48:56.439415  5042 solver.cpp:93] Creating training net from train_net file: ./Prototxt/experiment_16/RTSD/imajust/trial_4/train.prototxt
I0508 05:48:56.439810  5042 net.cpp:58] Initializing net from parameters: 
state {
  phase: TRAIN
  level: 0
  stage: ""
}
layer {
  name: "data"
  type: "Data"
  top: "data"
  top: "label"
  include {
    phase: TRAIN
  }
  transform_param {
    scale: 0.0039215689
    mirror: false
    crop_size: 48
    mean_value: 119
    mean_value: 113
    mean_value: 114
  }
  data_param {
    source: "../local_data/lmdb/RTSD/imajust/train/lmdb"
    batch_size: 1024
    backend: LMDB
  }
}
layer {
  name: "conv1"
  type: "Convolution"
  bottom: "data"
  top: "conv1"
  convolution_param {
    num_output: 100
    pad: 0
    kernel_size: 7
    group: 1
    stride: 1
    weight_filler {
      type: "xavier"
    }
  }
}
layer {
  name: "conv1_relu"
  type: "ReLU"
  bottom: "conv1"
  top: "conv1"
}
layer {
  name: "pool1"
  type: "Pooling"
  bottom: "conv1"
  top: "pool1"
  pooling_param {
    pool: MAX
    kernel_size: 2
    stride: 2
  }
}
layer {
  name: "conv2"
  type: "Convolution"
  bottom: "pool1"
  top: "conv2"
  convolution_param {
    num_output: 150
    pad: 0
    kernel_size: 4
    group: 2
    stride: 1
    weight_filler {
      type: "xavier"
    }
  }
}
layer {
  name: "conv2_relu"
  type: "ReLU"
  bottom: "conv2"
  top: "conv2"
}
layer {
  name: "pool2"
  type: "Pooling"
  bottom: "conv2"
  top: "pool2"
  pooling_param {
    pool: MAX
    kernel_size: 2
    stride: 2
  }
}
layer {
  name: "conv3"
  type: "Convolution"
  bottom: "pool2"
  top: "conv3"
  convolution_param {
    num_output: 250
    pad: 0
    kernel_size: 4
    group: 2
    stride: 1
    weight_filler {
      type: "xavier"
    }
  }
}
layer {
  name: "conv3_relu"
  type: "ReLU"
  bottom: "conv3"
  top: "conv3"
}
layer {
  name: "pool3"
  type: "Pooling"
  bottom: "conv3"
  top: "pool3"
  pooling_param {
    pool: MAX
    kernel_size: 2
    stride: 2
  }
}
layer {
  name: "fc4_300"
  type: "InnerProduct"
  bottom: "pool3"
  top: "fc4_300"
  inner_product_param {
    num_output: 300
    weight_filler {
      type: "xavier"
    }
  }
}
layer {
  name: "fc4_relu"
  type: "ReLU"
  bottom: "fc4_300"
  top: "fc4_300"
}
layer {
  name: "fc5_116"
  type: "InnerProduct"
  bottom: "fc4_300"
  top: "fc5_classes"
  inner_product_param {
    num_output: 116
    weight_filler {
      type: "xavier"
    }
  }
}
layer {
  name: "softmax"
  type: "Softmax"
  bottom: "fc5_classes"
  top: "softmax"
}
layer {
  name: "loss"
  type: "MultinomialLogisticLoss"
  bottom: "softmax"
  bottom: "label"
  top: "loss"
}
layer {
  name: "accuracy_1"
  type: "Accuracy"
  bottom: "fc5_classes"
  bottom: "label"
  top: "accuracy_1"
  accuracy_param {
    top_k: 1
  }
}
layer {
  name: "accuracy_5"
  type: "Accuracy"
  bottom: "fc5_classes"
  bottom: "label"
  top: "accuracy_5"
  accuracy_param {
    top_k: 5
  }
}
layer {
  name: "silence"
  type: "Silence"
  bottom: "accuracy_1"
  bottom: "accuracy_5"
}
I0508 05:48:56.439966  5042 layer_factory.hpp:77] Creating layer data
I0508 05:48:56.441480  5042 net.cpp:100] Creating Layer data
I0508 05:48:56.441498  5042 net.cpp:408] data -> data
I0508 05:48:56.441524  5042 net.cpp:408] data -> label
I0508 05:48:56.445575  5204 db_lmdb.cpp:35] Opened lmdb ../local_data/lmdb/RTSD/imajust/train/lmdb
I0508 05:48:56.466594  5042 data_layer.cpp:41] output data size: 1024,3,48,48
I0508 05:48:56.542544  5042 net.cpp:150] Setting up data
I0508 05:48:56.542618  5042 net.cpp:157] Top shape: 1024 3 48 48 (7077888)
I0508 05:48:56.542626  5042 net.cpp:157] Top shape: 1024 (1024)
I0508 05:48:56.542629  5042 net.cpp:165] Memory required for data: 28315648
I0508 05:48:56.542642  5042 layer_factory.hpp:77] Creating layer label_data_1_split
I0508 05:48:56.542659  5042 net.cpp:100] Creating Layer label_data_1_split
I0508 05:48:56.542667  5042 net.cpp:434] label_data_1_split <- label
I0508 05:48:56.542681  5042 net.cpp:408] label_data_1_split -> label_data_1_split_0
I0508 05:48:56.542696  5042 net.cpp:408] label_data_1_split -> label_data_1_split_1
I0508 05:48:56.542709  5042 net.cpp:408] label_data_1_split -> label_data_1_split_2
I0508 05:48:56.542788  5042 net.cpp:150] Setting up label_data_1_split
I0508 05:48:56.542798  5042 net.cpp:157] Top shape: 1024 (1024)
I0508 05:48:56.542805  5042 net.cpp:157] Top shape: 1024 (1024)
I0508 05:48:56.542809  5042 net.cpp:157] Top shape: 1024 (1024)
I0508 05:48:56.542812  5042 net.cpp:165] Memory required for data: 28327936
I0508 05:48:56.542816  5042 layer_factory.hpp:77] Creating layer conv1
I0508 05:48:56.542837  5042 net.cpp:100] Creating Layer conv1
I0508 05:48:56.542845  5042 net.cpp:434] conv1 <- data
I0508 05:48:56.542852  5042 net.cpp:408] conv1 -> conv1
I0508 05:48:56.956347  5042 net.cpp:150] Setting up conv1
I0508 05:48:56.956388  5042 net.cpp:157] Top shape: 1024 100 42 42 (180633600)
I0508 05:48:56.956396  5042 net.cpp:165] Memory required for data: 750862336
I0508 05:48:56.956431  5042 layer_factory.hpp:77] Creating layer conv1_relu
I0508 05:48:56.956449  5042 net.cpp:100] Creating Layer conv1_relu
I0508 05:48:56.956459  5042 net.cpp:434] conv1_relu <- conv1
I0508 05:48:56.956470  5042 net.cpp:395] conv1_relu -> conv1 (in-place)
I0508 05:48:56.956823  5042 net.cpp:150] Setting up conv1_relu
I0508 05:48:56.956843  5042 net.cpp:157] Top shape: 1024 100 42 42 (180633600)
I0508 05:48:56.956849  5042 net.cpp:165] Memory required for data: 1473396736
I0508 05:48:56.956856  5042 layer_factory.hpp:77] Creating layer pool1
I0508 05:48:56.956871  5042 net.cpp:100] Creating Layer pool1
I0508 05:48:56.956877  5042 net.cpp:434] pool1 <- conv1
I0508 05:48:56.956889  5042 net.cpp:408] pool1 -> pool1
I0508 05:48:56.956981  5042 net.cpp:150] Setting up pool1
I0508 05:48:56.956995  5042 net.cpp:157] Top shape: 1024 100 21 21 (45158400)
I0508 05:48:56.957003  5042 net.cpp:165] Memory required for data: 1654030336
I0508 05:48:56.957010  5042 layer_factory.hpp:77] Creating layer conv2
I0508 05:48:56.957027  5042 net.cpp:100] Creating Layer conv2
I0508 05:48:56.957036  5042 net.cpp:434] conv2 <- pool1
I0508 05:48:56.957046  5042 net.cpp:408] conv2 -> conv2
I0508 05:48:56.966683  5042 net.cpp:150] Setting up conv2
I0508 05:48:56.966712  5042 net.cpp:157] Top shape: 1024 150 18 18 (49766400)
I0508 05:48:56.966719  5042 net.cpp:165] Memory required for data: 1853095936
I0508 05:48:56.966737  5042 layer_factory.hpp:77] Creating layer conv2_relu
I0508 05:48:56.966750  5042 net.cpp:100] Creating Layer conv2_relu
I0508 05:48:56.966758  5042 net.cpp:434] conv2_relu <- conv2
I0508 05:48:56.966768  5042 net.cpp:395] conv2_relu -> conv2 (in-place)
I0508 05:48:56.967061  5042 net.cpp:150] Setting up conv2_relu
I0508 05:48:56.967078  5042 net.cpp:157] Top shape: 1024 150 18 18 (49766400)
I0508 05:48:56.967085  5042 net.cpp:165] Memory required for data: 2052161536
I0508 05:48:56.967092  5042 layer_factory.hpp:77] Creating layer pool2
I0508 05:48:56.967103  5042 net.cpp:100] Creating Layer pool2
I0508 05:48:56.967111  5042 net.cpp:434] pool2 <- conv2
I0508 05:48:56.967119  5042 net.cpp:408] pool2 -> pool2
I0508 05:48:56.967195  5042 net.cpp:150] Setting up pool2
I0508 05:48:56.967207  5042 net.cpp:157] Top shape: 1024 150 9 9 (12441600)
I0508 05:48:56.967214  5042 net.cpp:165] Memory required for data: 2101927936
I0508 05:48:56.967219  5042 layer_factory.hpp:77] Creating layer conv3
I0508 05:48:56.967236  5042 net.cpp:100] Creating Layer conv3
I0508 05:48:56.967243  5042 net.cpp:434] conv3 <- pool2
I0508 05:48:56.967252  5042 net.cpp:408] conv3 -> conv3
I0508 05:48:56.977231  5042 net.cpp:150] Setting up conv3
I0508 05:48:56.977258  5042 net.cpp:157] Top shape: 1024 250 6 6 (9216000)
I0508 05:48:56.977265  5042 net.cpp:165] Memory required for data: 2138791936
I0508 05:48:56.977283  5042 layer_factory.hpp:77] Creating layer conv3_relu
I0508 05:48:56.977295  5042 net.cpp:100] Creating Layer conv3_relu
I0508 05:48:56.977303  5042 net.cpp:434] conv3_relu <- conv3
I0508 05:48:56.977313  5042 net.cpp:395] conv3_relu -> conv3 (in-place)
I0508 05:48:56.977608  5042 net.cpp:150] Setting up conv3_relu
I0508 05:48:56.977627  5042 net.cpp:157] Top shape: 1024 250 6 6 (9216000)
I0508 05:48:56.977633  5042 net.cpp:165] Memory required for data: 2175655936
I0508 05:48:56.977638  5042 layer_factory.hpp:77] Creating layer pool3
I0508 05:48:56.977650  5042 net.cpp:100] Creating Layer pool3
I0508 05:48:56.977658  5042 net.cpp:434] pool3 <- conv3
I0508 05:48:56.977665  5042 net.cpp:408] pool3 -> pool3
I0508 05:48:56.977740  5042 net.cpp:150] Setting up pool3
I0508 05:48:56.977751  5042 net.cpp:157] Top shape: 1024 250 3 3 (2304000)
I0508 05:48:56.977756  5042 net.cpp:165] Memory required for data: 2184871936
I0508 05:48:56.977761  5042 layer_factory.hpp:77] Creating layer fc4_300
I0508 05:48:56.977771  5042 net.cpp:100] Creating Layer fc4_300
I0508 05:48:56.977778  5042 net.cpp:434] fc4_300 <- pool3
I0508 05:48:56.977787  5042 net.cpp:408] fc4_300 -> fc4_300
I0508 05:48:56.987561  5042 net.cpp:150] Setting up fc4_300
I0508 05:48:56.987586  5042 net.cpp:157] Top shape: 1024 300 (307200)
I0508 05:48:56.987592  5042 net.cpp:165] Memory required for data: 2186100736
I0508 05:48:56.987604  5042 layer_factory.hpp:77] Creating layer fc4_relu
I0508 05:48:56.987617  5042 net.cpp:100] Creating Layer fc4_relu
I0508 05:48:56.987625  5042 net.cpp:434] fc4_relu <- fc4_300
I0508 05:48:56.987634  5042 net.cpp:395] fc4_relu -> fc4_300 (in-place)
I0508 05:48:56.995095  5042 net.cpp:150] Setting up fc4_relu
I0508 05:48:56.995120  5042 net.cpp:157] Top shape: 1024 300 (307200)
I0508 05:48:56.995124  5042 net.cpp:165] Memory required for data: 2187329536
I0508 05:48:56.995131  5042 layer_factory.hpp:77] Creating layer fc5_116
I0508 05:48:56.995141  5042 net.cpp:100] Creating Layer fc5_116
I0508 05:48:56.995146  5042 net.cpp:434] fc5_116 <- fc4_300
I0508 05:48:56.995156  5042 net.cpp:408] fc5_116 -> fc5_classes
I0508 05:48:56.997797  5042 net.cpp:150] Setting up fc5_116
I0508 05:48:56.997822  5042 net.cpp:157] Top shape: 1024 116 (118784)
I0508 05:48:56.997826  5042 net.cpp:165] Memory required for data: 2187804672
I0508 05:48:56.997843  5042 layer_factory.hpp:77] Creating layer fc5_classes_fc5_116_0_split
I0508 05:48:56.997853  5042 net.cpp:100] Creating Layer fc5_classes_fc5_116_0_split
I0508 05:48:56.997859  5042 net.cpp:434] fc5_classes_fc5_116_0_split <- fc5_classes
I0508 05:48:56.997867  5042 net.cpp:408] fc5_classes_fc5_116_0_split -> fc5_classes_fc5_116_0_split_0
I0508 05:48:56.997884  5042 net.cpp:408] fc5_classes_fc5_116_0_split -> fc5_classes_fc5_116_0_split_1
I0508 05:48:56.997895  5042 net.cpp:408] fc5_classes_fc5_116_0_split -> fc5_classes_fc5_116_0_split_2
I0508 05:48:56.997974  5042 net.cpp:150] Setting up fc5_classes_fc5_116_0_split
I0508 05:48:56.997992  5042 net.cpp:157] Top shape: 1024 116 (118784)
I0508 05:48:56.997997  5042 net.cpp:157] Top shape: 1024 116 (118784)
I0508 05:48:56.998003  5042 net.cpp:157] Top shape: 1024 116 (118784)
I0508 05:48:56.998008  5042 net.cpp:165] Memory required for data: 2189230080
I0508 05:48:56.998013  5042 layer_factory.hpp:77] Creating layer softmax
I0508 05:48:56.998021  5042 net.cpp:100] Creating Layer softmax
I0508 05:48:56.998028  5042 net.cpp:434] softmax <- fc5_classes_fc5_116_0_split_0
I0508 05:48:56.998036  5042 net.cpp:408] softmax -> softmax
I0508 05:48:56.998437  5042 net.cpp:150] Setting up softmax
I0508 05:48:56.998456  5042 net.cpp:157] Top shape: 1024 116 (118784)
I0508 05:48:56.998461  5042 net.cpp:165] Memory required for data: 2189705216
I0508 05:48:56.998466  5042 layer_factory.hpp:77] Creating layer loss
I0508 05:48:56.998502  5042 net.cpp:100] Creating Layer loss
I0508 05:48:56.998508  5042 net.cpp:434] loss <- softmax
I0508 05:48:56.998517  5042 net.cpp:434] loss <- label_data_1_split_0
I0508 05:48:56.998527  5042 net.cpp:408] loss -> loss
…
