…
I0412 00:03:34.483322 25986 net.cpp:322] The NetState phase (0) differed from the phase (1) specified by a rule in layer accuracy_5
I0412 00:03:34.483510 25986 net.cpp:58] Initializing net from parameters: 
state {
  phase: TRAIN
  level: 0
  stage: ""
}
layer {
  name: "data"
  type: "Data"
  top: "data"
  top: "label"
  include {
    phase: TRAIN
  }
  transform_param {
    scale: 0.0039215689
    mirror: false
    crop_size: 48
    mean_value: 130
    mean_value: 123
    mean_value: 137
  }
  data_param {
    source: "../local_data/lmdb/rtsd-r1/histeq/train/lmdb"
    batch_size: 1024
    backend: LMDB
  }
}
layer {
  name: "conv1"
  type: "Convolution"
  bottom: "data"
  top: "conv1"
  convolution_param {
    num_output: 100
    pad: 0
    kernel_size: 7
    group: 1
    stride: 1
    weight_filler {
      type: "xavier"
    }
  }
}
layer {
  name: "conv1_prescale"
  type: "Scale"
  bottom: "conv1"
  top: "conv1"
  param {
    lr_mult: 0
    decay_mult: 0
  }
  scale_param {
    filler {
      value: 0.6666
    }
    bias_term: false
  }
}
layer {
  name: "conv1_sTanH"
  type: "TanH"
  bottom: "conv1"
  top: "conv1"
}
layer {
  name: "conv1_postscale"
  type: "Scale"
  bottom: "conv1"
  top: "conv1"
  param {
    lr_mult: 0
    decay_mult: 0
  }
  scale_param {
    filler {
      value: 1.7159
    }
    bias_term: false
  }
}
layer {
  name: "pool1"
  type: "Pooling"
  bottom: "conv1"
  top: "pool1"
  pooling_param {
    pool: MAX
    kernel_size: 2
    stride: 2
  }
}
layer {
  name: "conv2"
  type: "Convolution"
  bottom: "pool1"
  top: "conv2"
  convolution_param {
    num_output: 150
    pad: 0
    kernel_size: 4
    group: 1
    stride: 1
    weight_filler {
      type: "xavier"
    }
  }
}
layer {
  name: "conv2_prescale"
  type: "Scale"
  bottom: "conv2"
  top: "conv2"
  param {
    lr_mult: 0
    decay_mult: 0
  }
  scale_param {
    filler {
      value: 0.6666
    }
    bias_term: false
  }
}
layer {
  name: "conv2_sTanH"
  type: "TanH"
  bottom: "conv2"
  top: "conv2"
}
layer {
  name: "conv2_postscale"
  type: "Scale"
  bottom: "conv2"
  top: "conv2"
  param {
    lr_mult: 0
    decay_mult: 0
  }
  scale_param {
    filler {
      value: 1.7159
    }
    bias_term: false
  }
}
layer {
  name: "pool2"
  type: "Pooling"
  bottom: "conv2"
  top: "pool2"
  pooling_param {
    pool: MAX
    kernel_size: 2
    stride: 2
  }
}
layer {
  name: "conv3"
  type: "Convolution"
  bottom: "pool2"
  top: "conv3"
  convolution_param {
    num_output: 250
    pad: 0
    kernel_size: 4
    group: 1
    stride: 1
    weight_filler {
      type: "xavier"
    }
  }
}
layer {
  name: "conv3_prescale"
  type: "Scale"
  bottom: "conv3"
  top: "conv3"
  param {
    lr_mult: 0
    decay_mult: 0
  }
  scale_param {
    filler {
      value: 0.6666
    }
    bias_term: false
  }
}
layer {
  name: "conv3_sTanH"
  type: "TanH"
  bottom: "conv3"
  top: "conv3"
}
layer {
  name: "conv3_postscale"
  type: "Scale"
  bottom: "conv3"
  top: "conv3"
  param {
    lr_mult: 0
    decay_mult: 0
  }
  scale_param {
    filler {
      value: 1.7159
    }
    bias_term: false
  }
}
layer {
  name: "pool3"
  type: "Pooling"
  bottom: "conv3"
  top: "pool3"
  pooling_param {
    pool: MAX
    kernel_size: 2
    stride: 2
  }
}
layer {
  name: "fc4_300"
  type: "InnerProduct"
  bottom: "pool3"
  top: "fc4_300"
  inner_product_param {
    num_output: 300
    weight_filler {
      type: "xavier"
    }
  }
}
layer {
  name: "fc4_prescale"
  type: "Scale"
  bottom: "fc4_300"
  top: "fc4_300"
  param {
    lr_mult: 0
    decay_mult: 0
  }
  scale_param {
    filler {
      value: 0.6666
    }
    bias_term: false
  }
}
layer {
  name: "fc4_sTanH"
  type: "TanH"
  bottom: "fc4_300"
  top: "fc4_300"
}
layer {
  name: "fc4_postscale"
  type: "Scale"
  bottom: "fc4_300"
  top: "fc4_300"
  param {
    lr_mult: 0
    decay_mult: 0
  }
  scale_param {
    filler {
      value: 1.7159
    }
    bias_term: false
  }
}
layer {
  name: "drop4"
  type: "Dropout"
  bottom: "fc4_300"
  top: "fc4_300"
  dropout_param {
    dropout_ratio: 0.1
  }
}
layer {
  name: "fc5_67"
  type: "InnerProduct"
  bottom: "fc4_300"
  top: "fc5_classes"
  inner_product_param {
    num_output: 67
    weight_filler {
      type: "xavier"
    }
  }
}
layer {
  name: "loss"
  type: "SoftmaxWithLoss"
  bottom: "fc5_classes"
  bottom: "label"
  top: "loss"
}
I0412 00:03:34.483650 25986 layer_factory.hpp:77] Creating layer data
I0412 00:03:34.484969 25986 net.cpp:100] Creating Layer data
I0412 00:03:34.484992 25986 net.cpp:408] data -> data
I0412 00:03:34.485016 25986 net.cpp:408] data -> label
I0412 00:03:34.488263 26106 db_lmdb.cpp:35] Opened lmdb ../local_data/lmdb/rtsd-r1/histeq/train/lmdb
I0412 00:03:34.513489 25986 data_layer.cpp:41] output data size: 1024,3,48,48
I0412 00:03:34.573211 25986 net.cpp:150] Setting up data
I0412 00:03:34.573246 25986 net.cpp:157] Top shape: 1024 3 48 48 (7077888)
I0412 00:03:34.573252 25986 net.cpp:157] Top shape: 1024 (1024)
I0412 00:03:34.573258 25986 net.cpp:165] Memory required for data: 28315648
I0412 00:03:34.573271 25986 layer_factory.hpp:77] Creating layer conv1
I0412 00:03:34.573297 25986 net.cpp:100] Creating Layer conv1
I0412 00:03:34.573307 25986 net.cpp:434] conv1 <- data
I0412 00:03:34.573323 25986 net.cpp:408] conv1 -> conv1
I0412 00:03:34.909075 25986 net.cpp:150] Setting up conv1
I0412 00:03:34.909103 25986 net.cpp:157] Top shape: 1024 100 42 42 (180633600)
I0412 00:03:34.909107 25986 net.cpp:165] Memory required for data: 750850048
I0412 00:03:34.909128 25986 layer_factory.hpp:77] Creating layer conv1_prescale
I0412 00:03:34.909142 25986 net.cpp:100] Creating Layer conv1_prescale
I0412 00:03:34.909148 25986 net.cpp:434] conv1_prescale <- conv1
I0412 00:03:34.909157 25986 net.cpp:395] conv1_prescale -> conv1 (in-place)
I0412 00:03:34.909263 25986 net.cpp:150] Setting up conv1_prescale
I0412 00:03:34.909272 25986 net.cpp:157] Top shape: 1024 100 42 42 (180633600)
I0412 00:03:34.909276 25986 net.cpp:165] Memory required for data: 1473384448
I0412 00:03:34.909284 25986 layer_factory.hpp:77] Creating layer conv1_sTanH
I0412 00:03:34.909291 25986 net.cpp:100] Creating Layer conv1_sTanH
I0412 00:03:34.909296 25986 net.cpp:434] conv1_sTanH <- conv1
I0412 00:03:34.909301 25986 net.cpp:395] conv1_sTanH -> conv1 (in-place)
I0412 00:03:34.909493 25986 net.cpp:150] Setting up conv1_sTanH
I0412 00:03:34.909504 25986 net.cpp:157] Top shape: 1024 100 42 42 (180633600)
I0412 00:03:34.909509 25986 net.cpp:165] Memory required for data: 2195918848
I0412 00:03:34.909512 25986 layer_factory.hpp:77] Creating layer conv1_postscale
I0412 00:03:34.909520 25986 net.cpp:100] Creating Layer conv1_postscale
I0412 00:03:34.909525 25986 net.cpp:434] conv1_postscale <- conv1
I0412 00:03:34.909530 25986 net.cpp:395] conv1_postscale -> conv1 (in-place)
I0412 00:03:34.909624 25986 net.cpp:150] Setting up conv1_postscale
I0412 00:03:34.909632 25986 net.cpp:157] Top shape: 1024 100 42 42 (180633600)
I0412 00:03:34.909637 25986 net.cpp:165] Memory required for data: 2918453248
I0412 00:03:34.909641 25986 layer_factory.hpp:77] Creating layer pool1
I0412 00:03:34.909648 25986 net.cpp:100] Creating Layer pool1
I0412 00:03:34.909652 25986 net.cpp:434] pool1 <- conv1
I0412 00:03:34.909657 25986 net.cpp:408] pool1 -> pool1
I0412 00:03:34.909726 25986 net.cpp:150] Setting up pool1
I0412 00:03:34.909735 25986 net.cpp:157] Top shape: 1024 100 21 21 (45158400)
I0412 00:03:34.909739 25986 net.cpp:165] Memory required for data: 3099086848
I0412 00:03:34.909744 25986 layer_factory.hpp:77] Creating layer conv2
I0412 00:03:34.909752 25986 net.cpp:100] Creating Layer conv2
I0412 00:03:34.909757 25986 net.cpp:434] conv2 <- pool1
I0412 00:03:34.909762 25986 net.cpp:408] conv2 -> conv2
I0412 00:03:34.918947 25986 net.cpp:150] Setting up conv2
I0412 00:03:34.918965 25986 net.cpp:157] Top shape: 1024 150 18 18 (49766400)
I0412 00:03:34.918969 25986 net.cpp:165] Memory required for data: 3298152448
I0412 00:03:34.918979 25986 layer_factory.hpp:77] Creating layer conv2_prescale
I0412 00:03:34.918987 25986 net.cpp:100] Creating Layer conv2_prescale
I0412 00:03:34.918992 25986 net.cpp:434] conv2_prescale <- conv2
I0412 00:03:34.918997 25986 net.cpp:395] conv2_prescale -> conv2 (in-place)
I0412 00:03:34.919106 25986 net.cpp:150] Setting up conv2_prescale
I0412 00:03:34.919116 25986 net.cpp:157] Top shape: 1024 150 18 18 (49766400)
I0412 00:03:34.919118 25986 net.cpp:165] Memory required for data: 3497218048
I0412 00:03:34.919122 25986 layer_factory.hpp:77] Creating layer conv2_sTanH
I0412 00:03:34.919131 25986 net.cpp:100] Creating Layer conv2_sTanH
I0412 00:03:34.919134 25986 net.cpp:434] conv2_sTanH <- conv2
I0412 00:03:34.919139 25986 net.cpp:395] conv2_sTanH -> conv2 (in-place)
I0412 00:03:34.920209 25986 net.cpp:150] Setting up conv2_sTanH
I0412 00:03:34.920225 25986 net.cpp:157] Top shape: 1024 150 18 18 (49766400)
I0412 00:03:34.920228 25986 net.cpp:165] Memory required for data: 3696283648
I0412 00:03:34.920233 25986 layer_factory.hpp:77] Creating layer conv2_postscale
I0412 00:03:34.920239 25986 net.cpp:100] Creating Layer conv2_postscale
I0412 00:03:34.920243 25986 net.cpp:434] conv2_postscale <- conv2
I0412 00:03:34.920249 25986 net.cpp:395] conv2_postscale -> conv2 (in-place)
I0412 00:03:34.920344 25986 net.cpp:150] Setting up conv2_postscale
I0412 00:03:34.920352 25986 net.cpp:157] Top shape: 1024 150 18 18 (49766400)
I0412 00:03:34.920356 25986 net.cpp:165] Memory required for data: 3895349248
I0412 00:03:34.920361 25986 layer_factory.hpp:77] Creating layer pool2
I0412 00:03:34.920367 25986 net.cpp:100] Creating Layer pool2
I0412 00:03:34.920372 25986 net.cpp:434] pool2 <- conv2
I0412 00:03:34.920377 25986 net.cpp:408] pool2 -> pool2
I0412 00:03:34.920416 25986 net.cpp:150] Setting up pool2
I0412 00:03:34.920423 25986 net.cpp:157] Top shape: 1024 150 9 9 (12441600)
I0412 00:03:34.920426 25986 net.cpp:165] Memory required for data: 3945115648
I0412 00:03:34.920429 25986 layer_factory.hpp:77] Creating layer conv3
I0412 00:03:34.920438 25986 net.cpp:100] Creating Layer conv3
I0412 00:03:34.920441 25986 net.cpp:434] conv3 <- pool2
I0412 00:03:34.920446 25986 net.cpp:408] conv3 -> conv3
I0412 00:03:34.926172 25986 net.cpp:150] Setting up conv3
I0412 00:03:34.926192 25986 net.cpp:157] Top shape: 1024 250 6 6 (9216000)
I0412 00:03:34.926196 25986 net.cpp:165] Memory required for data: 3981979648
I0412 00:03:34.926206 25986 layer_factory.hpp:77] Creating layer conv3_prescale
I0412 00:03:34.926215 25986 net.cpp:100] Creating Layer conv3_prescale
I0412 00:03:34.926218 25986 net.cpp:434] conv3_prescale <- conv3
I0412 00:03:34.926224 25986 net.cpp:395] conv3_prescale -> conv3 (in-place)
I0412 00:03:34.926317 25986 net.cpp:150] Setting up conv3_prescale
I0412 00:03:34.926326 25986 net.cpp:157] Top shape: 1024 250 6 6 (9216000)
I0412 00:03:34.926329 25986 net.cpp:165] Memory required for data: 4018843648
I0412 00:03:34.926334 25986 layer_factory.hpp:77] Creating layer conv3_sTanH
I0412 00:03:34.926340 25986 net.cpp:100] Creating Layer conv3_sTanH
I0412 00:03:34.926344 25986 net.cpp:434] conv3_sTanH <- conv3
I0412 00:03:34.926349 25986 net.cpp:395] conv3_sTanH -> conv3 (in-place)
I0412 00:03:34.927476 25986 net.cpp:150] Setting up conv3_sTanH
I0412 00:03:34.927492 25986 net.cpp:157] Top shape: 1024 250 6 6 (9216000)
I0412 00:03:34.927495 25986 net.cpp:165] Memory required for data: 4055707648
I0412 00:03:34.927515 25986 layer_factory.hpp:77] Creating layer conv3_postscale
I0412 00:03:34.927523 25986 net.cpp:100] Creating Layer conv3_postscale
I0412 00:03:34.927528 25986 net.cpp:434] conv3_postscale <- conv3
I0412 00:03:34.927534 25986 net.cpp:395] conv3_postscale -> conv3 (in-place)
I0412 00:03:34.927634 25986 net.cpp:150] Setting up conv3_postscale
I0412 00:03:34.927641 25986 net.cpp:157] Top shape: 1024 250 6 6 (9216000)
I0412 00:03:34.927645 25986 net.cpp:165] Memory required for data: 4092571648
I0412 00:03:34.927650 25986 layer_factory.hpp:77] Creating layer pool3
I0412 00:03:34.927657 25986 net.cpp:100] Creating Layer pool3
I0412 00:03:34.927662 25986 net.cpp:434] pool3 <- conv3
I0412 00:03:34.927667 25986 net.cpp:408] pool3 -> pool3
I0412 00:03:34.927705 25986 net.cpp:150] Setting up pool3
I0412 00:03:34.927711 25986 net.cpp:157] Top shape: 1024 250 3 3 (2304000)
I0412 00:03:34.927714 25986 net.cpp:165] Memory required for data: 4101787648
I0412 00:03:34.927717 25986 layer_factory.hpp:77] Creating layer fc4_300
I0412 00:03:34.927726 25986 net.cpp:100] Creating Layer fc4_300
I0412 00:03:34.927729 25986 net.cpp:434] fc4_300 <- pool3
I0412 00:03:34.927736 25986 net.cpp:408] fc4_300 -> fc4_300
I0412 00:03:34.934356 25986 net.cpp:150] Setting up fc4_300
I0412 00:03:34.934375 25986 net.cpp:157] Top shape: 1024 300 (307200)
I0412 00:03:34.934377 25986 net.cpp:165] Memory required for data: 4103016448
I0412 00:03:34.934384 25986 layer_factory.hpp:77] Creating layer fc4_prescale
I0412 00:03:34.934391 25986 net.cpp:100] Creating Layer fc4_prescale
I0412 00:03:34.934396 25986 net.cpp:434] fc4_prescale <- fc4_300
I0412 00:03:34.934401 25986 net.cpp:395] fc4_prescale -> fc4_300 (in-place)
I0412 00:03:34.934489 25986 net.cpp:150] Setting up fc4_prescale
I0412 00:03:34.934497 25986 net.cpp:157] Top shape: 1024 300 (307200)
I0412 00:03:34.934500 25986 net.cpp:165] Memory required for data: 4104245248
I0412 00:03:34.934504 25986 layer_factory.hpp:77] Creating layer fc4_sTanH
I0412 00:03:34.934510 25986 net.cpp:100] Creating Layer fc4_sTanH
I0412 00:03:34.934514 25986 net.cpp:434] fc4_sTanH <- fc4_300
I0412 00:03:34.934518 25986 net.cpp:395] fc4_sTanH -> fc4_300 (in-place)
I0412 00:03:34.934702 25986 net.cpp:150] Setting up fc4_sTanH
I0412 00:03:34.934713 25986 net.cpp:157] Top shape: 1024 300 (307200)
I0412 00:03:34.934718 25986 net.cpp:165] Memory required for data: 4105474048
I0412 00:03:34.934721 25986 layer_factory.hpp:77] Creating layer fc4_postscale
I0412 00:03:34.934728 25986 net.cpp:100] Creating Layer fc4_postscale
I0412 00:03:34.934732 25986 net.cpp:434] fc4_postscale <- fc4_300
I0412 00:03:34.934737 25986 net.cpp:395] fc4_postscale -> fc4_300 (in-place)
I0412 00:03:34.934829 25986 net.cpp:150] Setting up fc4_postscale
I0412 00:03:34.934837 25986 net.cpp:157] Top shape: 1024 300 (307200)
I0412 00:03:34.934840 25986 net.cpp:165] Memory required for data: 4106702848
I0412 00:03:34.934845 25986 layer_factory.hpp:77] Creating layer drop4
I0412 00:03:34.934852 25986 net.cpp:100] Creating Layer drop4
I0412 00:03:34.934856 25986 net.cpp:434] drop4 <- fc4_300
I0412 00:03:34.934861 25986 net.cpp:395] drop4 -> fc4_300 (in-place)
I0412 00:03:34.934886 25986 net.cpp:150] Setting up drop4
I0412 00:03:34.934893 25986 net.cpp:157] Top shape: 1024 300 (307200)
I0412 00:03:34.934896 25986 net.cpp:165] Memory required for data: 4107931648
I0412 00:03:34.934900 25986 layer_factory.hpp:77] Creating layer fc5_67
I0412 00:03:34.934906 25986 net.cpp:100] Creating Layer fc5_67
I0412 00:03:34.934909 25986 net.cpp:434] fc5_67 <- fc4_300
I0412 00:03:34.934914 25986 net.cpp:408] fc5_67 -> fc5_classes
I0412 00:03:34.936192 25986 net.cpp:150] Setting up fc5_67
I0412 00:03:34.936208 25986 net.cpp:157] Top shape: 1024 67 (68608)
I0412 00:03:34.936213 25986 net.cpp:165] Memory required for data: 4108206080
I0412 00:03:34.936223 25986 layer_factory.hpp:77] Creating layer loss
I0412 00:03:34.936231 25986 net.cpp:100] Creating Layer loss
I0412 00:03:34.936236 25986 net.cpp:434] loss <- fc5_classes
I0412 00:03:34.936255 25986 net.cpp:434] loss <- label
I0412 00:03:34.936262 25986 net.cpp:408] loss -> loss
I0412 00:03:34.936276 25986 layer_factory.hpp:77] Creating layer loss
…
I0412 00:03:34.937114 25986 solver.cpp:193] Creating test net (#0) specified by test_net file: ./Prototxt/experiment_9/rtsd-r1/histeq/trial_2/test.prototxt
I0412 00:03:34.937299 25986 net.cpp:58] Initializing net from parameters: 
state {
  phase: TEST
}
layer {
  name: "data"
  type: "Data"
  top: "data"
  top: "label"
  include {
    phase: TEST
  }
  transform_param {
    scale: 0.0039215689
    mirror: false
    crop_size: 48
    mean_value: 124
    mean_value: 121
    mean_value: 142
  }
  data_param {
    source: "../local_data/lmdb/rtsd-r1/histeq/test/lmdb"
    batch_size: 1024
    backend: LMDB
  }
}
layer {
  name: "conv1"
  type: "Convolution"
  bottom: "data"
  top: "conv1"
  convolution_param {
    num_output: 100
    pad: 0
    kernel_size: 7
    group: 1
    stride: 1
    weight_filler {
      type: "xavier"
    }
  }
}
layer {
  name: "conv1_prescale"
  type: "Scale"
  bottom: "conv1"
  top: "conv1"
  param {
    lr_mult: 0
    decay_mult: 0
  }
  scale_param {
    filler {
      value: 0.6666
    }
    bias_term: false
  }
}
layer {
  name: "conv1_sTanH"
  type: "TanH"
  bottom: "conv1"
  top: "conv1"
}
layer {
  name: "conv1_postscale"
  type: "Scale"
  bottom: "conv1"
  top: "conv1"
  param {
    lr_mult: 0
    decay_mult: 0
  }
  scale_param {
    filler {
      value: 1.7159
    }
    bias_term: false
  }
}
layer {
  name: "pool1"
  type: "Pooling"
  bottom: "conv1"
  top: "pool1"
  pooling_param {
    pool: MAX
    kernel_size: 2
    stride: 2
  }
}
layer {
  name: "conv2"
  type: "Convolution"
  bottom: "pool1"
  top: "conv2"
  convolution_param {
    num_output: 150
    pad: 0
    kernel_size: 4
    group: 1
    stride: 1
    weight_filler {
      type: "xavier"
    }
  }
}
layer {
  name: "conv2_prescale"
  type: "Scale"
  bottom: "conv2"
  top: "conv2"
  param {
    lr_mult: 0
    decay_mult: 0
  }
  scale_param {
    filler {
      value: 0.6666
    }
    bias_term: false
  }
}
layer {
  name: "conv2_sTanH"
  type: "TanH"
  bottom: "conv2"
  top: "conv2"
}
layer {
  name: "conv2_postscale"
  type: "Scale"
  bottom: "conv2"
  top: "conv2"
  param {
    lr_mult: 0
    decay_mult: 0
  }
  scale_param {
    filler {
      value: 1.7159
    }
    bias_term: false
  }
}
layer {
  name: "pool2"
  type: "Pooling"
  bottom: "conv2"
  top: "pool2"
  pooling_param {
    pool: MAX
    kernel_size: 2
    stride: 2
  }
}
layer {
  name: "conv3"
  type: "Convolution"
  bottom: "pool2"
  top: "conv3"
  convolution_param {
    num_output: 250
    pad: 0
    kernel_size: 4
    group: 1
    stride: 1
    weight_filler {
      type: "xavier"
    }
  }
}
layer {
  name: "conv3_prescale"
  type: "Scale"
  bottom: "conv3"
  top: "conv3"
  param {
    lr_mult: 0
    decay_mult: 0
  }
  scale_param {
    filler {
      value: 0.6666
    }
    bias_term: false
  }
}
layer {
  name: "conv3_sTanH"
  type: "TanH"
  bottom: "conv3"
  top: "conv3"
}
layer {
  name: "conv3_postscale"
  type: "Scale"
  bottom: "conv3"
  top: "conv3"
  param {
    lr_mult: 0
    decay_mult: 0
  }
  scale_param {
    filler {
      value: 1.7159
    }
    bias_term: false
  }
}
layer {
  name: "pool3"
  type: "Pooling"
  bottom: "conv3"
  top: "pool3"
  pooling_param {
    pool: MAX
    kernel_size: 2
    stride: 2
  }
}
layer {
  name: "fc4_300"
  type: "InnerProduct"
  bottom: "pool3"
  top: "fc4_300"
  inner_product_param {
    num_output: 300
    weight_filler {
      type: "xavier"
    }
  }
}
layer {
  name: "fc4_prescale"
  type: "Scale"
  bottom: "fc4_300"
  top: "fc4_300"
  param {
    lr_mult: 0
    decay_mult: 0
  }
  scale_param {
    filler {
      value: 0.6666
    }
    bias_term: false
  }
}
layer {
  name: "fc4_sTanH"
  type: "TanH"
  bottom: "fc4_300"
  top: "fc4_300"
}
layer {
  name: "fc4_postscale"
  type: "Scale"
  bottom: "fc4_300"
  top: "fc4_300"
  param {
    lr_mult: 0
    decay_mult: 0
  }
  scale_param {
    filler {
      value: 1.7159
    }
    bias_term: false
  }
}
layer {
  name: "drop4"
  type: "Dropout"
  bottom: "fc4_300"
  top: "fc4_300"
  dropout_param {
    dropout_ratio: 0.1
  }
}
layer {
  name: "fc5_67"
  type: "InnerProduct"
  bottom: "fc4_300"
  top: "fc5_classes"
  inner_product_param {
    num_output: 67
    weight_filler {
      type: "xavier"
    }
  }
}
layer {
  name: "loss"
  type: "SoftmaxWithLoss"
  bottom: "fc5_classes"
  bottom: "label"
  top: "loss"
}
layer {
  name: "accuracy_1"
  type: "Accuracy"
  bottom: "fc5_classes"
  bottom: "label"
  top: "accuracy_1"
  include {
    phase: TEST
  }
  accuracy_param {
    top_k: 1
  }
}
layer {
  name: "accuracy_5"
  type: "Accuracy"
  bottom: "fc5_classes"
  bottom: "label"
  top: "accuracy_5"
  include {
    phase: TEST
  }
  accuracy_param {
    top_k: 5
  }
}
I0412 00:03:34.937409 25986 layer_factory.hpp:77] Creating layer data
I0412 00:03:34.937988 25986 net.cpp:100] Creating Layer data
I0412 00:03:34.937997 25986 net.cpp:408] data -> data
I0412 00:03:34.938006 25986 net.cpp:408] data -> label
I0412 00:03:34.942425 26154 db_lmdb.cpp:35] Opened lmdb ../local_data/lmdb/rtsd-r1/histeq/test/lmdb
I0412 00:03:34.942592 25986 data_layer.cpp:41] output data size: 1024,3,48,48
I0412 00:03:34.995770 25986 net.cpp:150] Setting up data
I0412 00:03:34.995800 25986 net.cpp:157] Top shape: 1024 3 48 48 (7077888)
I0412 00:03:34.995805 25986 net.cpp:157] Top shape: 1024 (1024)
I0412 00:03:34.995807 25986 net.cpp:165] Memory required for data: 28315648
I0412 00:03:34.995815 25986 layer_factory.hpp:77] Creating layer label_data_1_split
I0412 00:03:34.995827 25986 net.cpp:100] Creating Layer label_data_1_split
I0412 00:03:34.995832 25986 net.cpp:434] label_data_1_split <- label
I0412 00:03:34.995839 25986 net.cpp:408] label_data_1_split -> label_data_1_split_0
I0412 00:03:34.995852 25986 net.cpp:408] label_data_1_split -> label_data_1_split_1
I0412 00:03:34.995884 25986 net.cpp:408] label_data_1_split -> label_data_1_split_2
I0412 00:03:34.996001 25986 net.cpp:150] Setting up label_data_1_split
I0412 00:03:34.996011 25986 net.cpp:157] Top shape: 1024 (1024)
I0412 00:03:34.996016 25986 net.cpp:157] Top shape: 1024 (1024)
I0412 00:03:34.996021 25986 net.cpp:157] Top shape: 1024 (1024)
I0412 00:03:34.996022 25986 net.cpp:165] Memory required for data: 28327936
I0412 00:03:34.996026 25986 layer_factory.hpp:77] Creating layer conv1
I0412 00:03:34.996038 25986 net.cpp:100] Creating Layer conv1
I0412 00:03:34.996043 25986 net.cpp:434] conv1 <- data
I0412 00:03:34.996049 25986 net.cpp:408] conv1 -> conv1
I0412 00:03:34.999893 25986 net.cpp:150] Setting up conv1
I0412 00:03:34.999914 25986 net.cpp:157] Top shape: 1024 100 42 42 (180633600)
I0412 00:03:34.999918 25986 net.cpp:165] Memory required for data: 750862336
I0412 00:03:34.999930 25986 layer_factory.hpp:77] Creating layer conv1_prescale
I0412 00:03:34.999950 25986 net.cpp:100] Creating Layer conv1_prescale
I0412 00:03:34.999955 25986 net.cpp:434] conv1_prescale <- conv1
I0412 00:03:34.999960 25986 net.cpp:395] conv1_prescale -> conv1 (in-place)
I0412 00:03:35.000073 25986 net.cpp:150] Setting up conv1_prescale
I0412 00:03:35.000083 25986 net.cpp:157] Top shape: 1024 100 42 42 (180633600)
I0412 00:03:35.000088 25986 net.cpp:165] Memory required for data: 1473396736
I0412 00:03:35.000095 25986 layer_factory.hpp:77] Creating layer conv1_sTanH
I0412 00:03:35.000103 25986 net.cpp:100] Creating Layer conv1_sTanH
I0412 00:03:35.000108 25986 net.cpp:434] conv1_sTanH <- conv1
I0412 00:03:35.000113 25986 net.cpp:395] conv1_sTanH -> conv1 (in-place)
I0412 00:03:35.000313 25986 net.cpp:150] Setting up conv1_sTanH
I0412 00:03:35.000325 25986 net.cpp:157] Top shape: 1024 100 42 42 (180633600)
I0412 00:03:35.000330 25986 net.cpp:165] Memory required for data: 2195931136
I0412 00:03:35.000334 25986 layer_factory.hpp:77] Creating layer conv1_postscale
I0412 00:03:35.000339 25986 net.cpp:100] Creating Layer conv1_postscale
I0412 00:03:35.000342 25986 net.cpp:434] conv1_postscale <- conv1
I0412 00:03:35.000349 25986 net.cpp:395] conv1_postscale -> conv1 (in-place)
I0412 00:03:35.000461 25986 net.cpp:150] Setting up conv1_postscale
I0412 00:03:35.000469 25986 net.cpp:157] Top shape: 1024 100 42 42 (180633600)
I0412 00:03:35.000474 25986 net.cpp:165] Memory required for data: 2918465536
I0412 00:03:35.000478 25986 layer_factory.hpp:77] Creating layer pool1
I0412 00:03:35.000486 25986 net.cpp:100] Creating Layer pool1
I0412 00:03:35.000491 25986 net.cpp:434] pool1 <- conv1
I0412 00:03:35.000499 25986 net.cpp:408] pool1 -> pool1
I0412 00:03:35.000545 25986 net.cpp:150] Setting up pool1
I0412 00:03:35.000553 25986 net.cpp:157] Top shape: 1024 100 21 21 (45158400)
I0412 00:03:35.000556 25986 net.cpp:165] Memory required for data: 3099099136
I0412 00:03:35.000571 25986 layer_factory.hpp:77] Creating layer conv2
I0412 00:03:35.000581 25986 net.cpp:100] Creating Layer conv2
I0412 00:03:35.000586 25986 net.cpp:434] conv2 <- pool1
I0412 00:03:35.000591 25986 net.cpp:408] conv2 -> conv2
I0412 00:03:35.004847 25986 net.cpp:150] Setting up conv2
I0412 00:03:35.004866 25986 net.cpp:157] Top shape: 1024 150 18 18 (49766400)
I0412 00:03:35.004871 25986 net.cpp:165] Memory required for data: 3298164736
I0412 00:03:35.004881 25986 layer_factory.hpp:77] Creating layer conv2_prescale
I0412 00:03:35.004891 25986 net.cpp:100] Creating Layer conv2_prescale
I0412 00:03:35.004895 25986 net.cpp:434] conv2_prescale <- conv2
I0412 00:03:35.004901 25986 net.cpp:395] conv2_prescale -> conv2 (in-place)
I0412 00:03:35.005014 25986 net.cpp:150] Setting up conv2_prescale
I0412 00:03:35.005023 25986 net.cpp:157] Top shape: 1024 150 18 18 (49766400)
I0412 00:03:35.005026 25986 net.cpp:165] Memory required for data: 3497230336
I0412 00:03:35.005031 25986 layer_factory.hpp:77] Creating layer conv2_sTanH
I0412 00:03:35.005036 25986 net.cpp:100] Creating Layer conv2_sTanH
I0412 00:03:35.005040 25986 net.cpp:434] conv2_sTanH <- conv2
I0412 00:03:35.005048 25986 net.cpp:395] conv2_sTanH -> conv2 (in-place)
I0412 00:03:35.007431 25986 net.cpp:150] Setting up conv2_sTanH
I0412 00:03:35.007447 25986 net.cpp:157] Top shape: 1024 150 18 18 (49766400)
I0412 00:03:35.007449 25986 net.cpp:165] Memory required for data: 3696295936
I0412 00:03:35.007453 25986 layer_factory.hpp:77] Creating layer conv2_postscale
I0412 00:03:35.007462 25986 net.cpp:100] Creating Layer conv2_postscale
I0412 00:03:35.007467 25986 net.cpp:434] conv2_postscale <- conv2
I0412 00:03:35.007474 25986 net.cpp:395] conv2_postscale -> conv2 (in-place)
I0412 00:03:35.007580 25986 net.cpp:150] Setting up conv2_postscale
I0412 00:03:35.007591 25986 net.cpp:157] Top shape: 1024 150 18 18 (49766400)
I0412 00:03:35.007594 25986 net.cpp:165] Memory required for data: 3895361536
I0412 00:03:35.007599 25986 layer_factory.hpp:77] Creating layer pool2
I0412 00:03:35.007608 25986 net.cpp:100] Creating Layer pool2
I0412 00:03:35.007612 25986 net.cpp:434] pool2 <- conv2
I0412 00:03:35.007617 25986 net.cpp:408] pool2 -> pool2
I0412 00:03:35.007668 25986 net.cpp:150] Setting up pool2
I0412 00:03:35.007676 25986 net.cpp:157] Top shape: 1024 150 9 9 (12441600)
I0412 00:03:35.007679 25986 net.cpp:165] Memory required for data: 3945127936
I0412 00:03:35.007692 25986 layer_factory.hpp:77] Creating layer conv3
I0412 00:03:35.007701 25986 net.cpp:100] Creating Layer conv3
I0412 00:03:35.007706 25986 net.cpp:434] conv3 <- pool2
I0412 00:03:35.007714 25986 net.cpp:408] conv3 -> conv3
I0412 00:03:35.013468 25986 net.cpp:150] Setting up conv3
I0412 00:03:35.013486 25986 net.cpp:157] Top shape: 1024 250 6 6 (9216000)
I0412 00:03:35.013490 25986 net.cpp:165] Memory required for data: 3981991936
I0412 00:03:35.013501 25986 layer_factory.hpp:77] Creating layer conv3_prescale
I0412 00:03:35.013512 25986 net.cpp:100] Creating Layer conv3_prescale
I0412 00:03:35.013517 25986 net.cpp:434] conv3_prescale <- conv3
I0412 00:03:35.013525 25986 net.cpp:395] conv3_prescale -> conv3 (in-place)
I0412 00:03:35.013630 25986 net.cpp:150] Setting up conv3_prescale
I0412 00:03:35.013638 25986 net.cpp:157] Top shape: 1024 250 6 6 (9216000)
I0412 00:03:35.013641 25986 net.cpp:165] Memory required for data: 4018855936
I0412 00:03:35.013648 25986 layer_factory.hpp:77] Creating layer conv3_sTanH
I0412 00:03:35.013658 25986 net.cpp:100] Creating Layer conv3_sTanH
I0412 00:03:35.013661 25986 net.cpp:434] conv3_sTanH <- conv3
I0412 00:03:35.013666 25986 net.cpp:395] conv3_sTanH -> conv3 (in-place)
I0412 00:03:35.014571 25986 net.cpp:150] Setting up conv3_sTanH
I0412 00:03:35.014586 25986 net.cpp:157] Top shape: 1024 250 6 6 (9216000)
I0412 00:03:35.014591 25986 net.cpp:165] Memory required for data: 4055719936
I0412 00:03:35.014595 25986 layer_factory.hpp:77] Creating layer conv3_postscale
I0412 00:03:35.014603 25986 net.cpp:100] Creating Layer conv3_postscale
I0412 00:03:35.014608 25986 net.cpp:434] conv3_postscale <- conv3
I0412 00:03:35.014616 25986 net.cpp:395] conv3_postscale -> conv3 (in-place)
I0412 00:03:35.014725 25986 net.cpp:150] Setting up conv3_postscale
I0412 00:03:35.014735 25986 net.cpp:157] Top shape: 1024 250 6 6 (9216000)
I0412 00:03:35.014739 25986 net.cpp:165] Memory required for data: 4092583936
I0412 00:03:35.014744 25986 layer_factory.hpp:77] Creating layer pool3
I0412 00:03:35.014755 25986 net.cpp:100] Creating Layer pool3
I0412 00:03:35.014760 25986 net.cpp:434] pool3 <- conv3
I0412 00:03:35.014765 25986 net.cpp:408] pool3 -> pool3
I0412 00:03:35.014807 25986 net.cpp:150] Setting up pool3
I0412 00:03:35.014814 25986 net.cpp:157] Top shape: 1024 250 3 3 (2304000)
I0412 00:03:35.014822 25986 net.cpp:165] Memory required for data: 4101799936
I0412 00:03:35.014827 25986 layer_factory.hpp:77] Creating layer fc4_300
I0412 00:03:35.014833 25986 net.cpp:100] Creating Layer fc4_300
I0412 00:03:35.014838 25986 net.cpp:434] fc4_300 <- pool3
I0412 00:03:35.014844 25986 net.cpp:408] fc4_300 -> fc4_300
I0412 00:03:35.020615 25986 net.cpp:150] Setting up fc4_300
I0412 00:03:35.020633 25986 net.cpp:157] Top shape: 1024 300 (307200)
I0412 00:03:35.020637 25986 net.cpp:165] Memory required for data: 4103028736
I0412 00:03:35.020660 25986 layer_factory.hpp:77] Creating layer fc4_prescale
I0412 00:03:35.020674 25986 net.cpp:100] Creating Layer fc4_prescale
I0412 00:03:35.020680 25986 net.cpp:434] fc4_prescale <- fc4_300
I0412 00:03:35.020687 25986 net.cpp:395] fc4_prescale -> fc4_300 (in-place)
I0412 00:03:35.020787 25986 net.cpp:150] Setting up fc4_prescale
I0412 00:03:35.020795 25986 net.cpp:157] Top shape: 1024 300 (307200)
I0412 00:03:35.020798 25986 net.cpp:165] Memory required for data: 4104257536
I0412 00:03:35.020803 25986 layer_factory.hpp:77] Creating layer fc4_sTanH
I0412 00:03:35.020810 25986 net.cpp:100] Creating Layer fc4_sTanH
I0412 00:03:35.020813 25986 net.cpp:434] fc4_sTanH <- fc4_300
I0412 00:03:35.020819 25986 net.cpp:395] fc4_sTanH -> fc4_300 (in-place)
I0412 00:03:35.021023 25986 net.cpp:150] Setting up fc4_sTanH
I0412 00:03:35.021034 25986 net.cpp:157] Top shape: 1024 300 (307200)
I0412 00:03:35.021039 25986 net.cpp:165] Memory required for data: 4105486336
I0412 00:03:35.021041 25986 layer_factory.hpp:77] Creating layer fc4_postscale
I0412 00:03:35.021050 25986 net.cpp:100] Creating Layer fc4_postscale
I0412 00:03:35.021054 25986 net.cpp:434] fc4_postscale <- fc4_300
I0412 00:03:35.021061 25986 net.cpp:395] fc4_postscale -> fc4_300 (in-place)
I0412 00:03:35.021163 25986 net.cpp:150] Setting up fc4_postscale
I0412 00:03:35.021170 25986 net.cpp:157] Top shape: 1024 300 (307200)
I0412 00:03:35.021173 25986 net.cpp:165] Memory required for data: 4106715136
I0412 00:03:35.021178 25986 layer_factory.hpp:77] Creating layer drop4
I0412 00:03:35.021188 25986 net.cpp:100] Creating Layer drop4
I0412 00:03:35.021193 25986 net.cpp:434] drop4 <- fc4_300
I0412 00:03:35.021196 25986 net.cpp:395] drop4 -> fc4_300 (in-place)
I0412 00:03:35.021222 25986 net.cpp:150] Setting up drop4
I0412 00:03:35.021229 25986 net.cpp:157] Top shape: 1024 300 (307200)
I0412 00:03:35.021232 25986 net.cpp:165] Memory required for data: 4107943936
I0412 00:03:35.021234 25986 layer_factory.hpp:77] Creating layer fc5_67
I0412 00:03:35.021245 25986 net.cpp:100] Creating Layer fc5_67
I0412 00:03:35.021250 25986 net.cpp:434] fc5_67 <- fc4_300
I0412 00:03:35.021255 25986 net.cpp:408] fc5_67 -> fc5_classes
I0412 00:03:35.021507 25986 net.cpp:150] Setting up fc5_67
I0412 00:03:35.021515 25986 net.cpp:157] Top shape: 1024 67 (68608)
I0412 00:03:35.021518 25986 net.cpp:165] Memory required for data: 4108218368
I0412 00:03:35.021529 25986 layer_factory.hpp:77] Creating layer fc5_classes_fc5_67_0_split
I0412 00:03:35.021540 25986 net.cpp:100] Creating Layer fc5_classes_fc5_67_0_split
I0412 00:03:35.021545 25986 net.cpp:434] fc5_classes_fc5_67_0_split <- fc5_classes
I0412 00:03:35.021550 25986 net.cpp:408] fc5_classes_fc5_67_0_split -> fc5_classes_fc5_67_0_split_0
I0412 00:03:35.021558 25986 net.cpp:408] fc5_classes_fc5_67_0_split -> fc5_classes_fc5_67_0_split_1
I0412 00:03:35.021566 25986 net.cpp:408] fc5_classes_fc5_67_0_split -> fc5_classes_fc5_67_0_split_2
I0412 00:03:35.021621 25986 net.cpp:150] Setting up fc5_classes_fc5_67_0_split
I0412 00:03:35.021631 25986 net.cpp:157] Top shape: 1024 67 (68608)
I0412 00:03:35.021634 25986 net.cpp:157] Top shape: 1024 67 (68608)
I0412 00:03:35.021637 25986 net.cpp:157] Top shape: 1024 67 (68608)
I0412 00:03:35.021639 25986 net.cpp:165] Memory required for data: 4109041664
I0412 00:03:35.021642 25986 layer_factory.hpp:77] Creating layer loss
I0412 00:03:35.021648 25986 net.cpp:100] Creating Layer loss
I0412 00:03:35.021651 25986 net.cpp:434] loss <- fc5_classes_fc5_67_0_split_0
I0412 00:03:35.021656 25986 net.cpp:434] loss <- label_data_1_split_0
I0412 00:03:35.021662 25986 net.cpp:408] loss -> loss
…
