…
I0414 17:39:53.723704 28194 solver.cpp:93] Creating training net from train_net file: ./Prototxt/experiment_10/rtsd-r3/AHE/trial_2/train.prototxt
I0414 17:39:53.742081 28194 net.cpp:58] Initializing net from parameters: 
state {
  phase: TRAIN
  level: 0
  stage: ""
}
layer {
  name: "data"
  type: "Data"
  top: "data"
  top: "label"
  include {
    phase: TRAIN
  }
  transform_param {
    scale: 0.0039215689
    mirror: false
    crop_size: 48
    mean_value: 133
    mean_value: 126
    mean_value: 125
  }
  data_param {
    source: "../local_data/lmdb/rtsd-r3/AHE/train/lmdb"
    batch_size: 1024
    backend: LMDB
  }
}
layer {
  name: "conv1"
  type: "Convolution"
  bottom: "data"
  top: "conv1"
  convolution_param {
    num_output: 100
    pad: 0
    kernel_size: 7
    group: 1
    stride: 1
    weight_filler {
      type: "xavier"
    }
  }
}
layer {
  name: "conv1_relu"
  type: "ReLU"
  bottom: "conv1"
  top: "conv1"
}
layer {
  name: "pool1"
  type: "Pooling"
  bottom: "conv1"
  top: "pool1"
  pooling_param {
    pool: MAX
    kernel_size: 2
    stride: 2
  }
}
layer {
  name: "conv2"
  type: "Convolution"
  bottom: "pool1"
  top: "conv2"
  convolution_param {
    num_output: 150
    pad: 0
    kernel_size: 4
    group: 1
    stride: 1
    weight_filler {
      type: "xavier"
    }
  }
}
layer {
  name: "conv2_relu"
  type: "ReLU"
  bottom: "conv2"
  top: "conv2"
}
layer {
  name: "pool2"
  type: "Pooling"
  bottom: "conv2"
  top: "pool2"
  pooling_param {
    pool: MAX
    kernel_size: 2
    stride: 2
  }
}
layer {
  name: "conv3"
  type: "Convolution"
  bottom: "pool2"
  top: "conv3"
  convolution_param {
    num_output: 250
    pad: 0
    kernel_size: 4
    group: 1
    stride: 1
    weight_filler {
      type: "xavier"
    }
  }
}
layer {
  name: "conv3_relu"
  type: "ReLU"
  bottom: "conv3"
  top: "conv3"
}
layer {
  name: "pool3"
  type: "Pooling"
  bottom: "conv3"
  top: "pool3"
  pooling_param {
    pool: MAX
    kernel_size: 2
    stride: 2
  }
}
layer {
  name: "fc4_300"
  type: "InnerProduct"
  bottom: "pool3"
  top: "fc4_300"
  inner_product_param {
    num_output: 300
    weight_filler {
      type: "xavier"
    }
  }
}
layer {
  name: "fc4_relu"
  type: "ReLU"
  bottom: "fc4_300"
  top: "fc4_300"
}
layer {
  name: "fc5_106"
  type: "InnerProduct"
  bottom: "fc4_300"
  top: "fc5_classes"
  inner_product_param {
    num_output: 106
    weight_filler {
      type: "xavier"
    }
  }
}
layer {
  name: "softmax"
  type: "Softmax"
  bottom: "fc5_classes"
  top: "softmax"
}
layer {
  name: "loss"
  type: "MultinomialLogisticLoss"
  bottom: "softmax"
  bottom: "label"
  top: "loss"
}
layer {
  name: "accuracy_1"
  type: "Accuracy"
  bottom: "fc5_classes"
  bottom: "label"
  top: "accuracy_1"
  accuracy_param {
    top_k: 1
  }
}
layer {
  name: "accuracy_5"
  type: "Accuracy"
  bottom: "fc5_classes"
  bottom: "label"
  top: "accuracy_5"
  accuracy_param {
    top_k: 5
  }
}
layer {
  name: "silence"
  type: "Silence"
  bottom: "accuracy_1"
  bottom: "accuracy_5"
}
I0414 17:39:53.742240 28194 layer_factory.hpp:77] Creating layer data
I0414 17:39:53.747212 28194 net.cpp:100] Creating Layer data
I0414 17:39:53.747241 28194 net.cpp:408] data -> data
I0414 17:39:53.747269 28194 net.cpp:408] data -> label
I0414 17:39:53.749047 28312 db_lmdb.cpp:35] Opened lmdb ../local_data/lmdb/rtsd-r3/AHE/train/lmdb
I0414 17:39:53.772183 28194 data_layer.cpp:41] output data size: 1024,3,48,48
I0414 17:39:53.845739 28194 net.cpp:150] Setting up data
I0414 17:39:53.845789 28194 net.cpp:157] Top shape: 1024 3 48 48 (7077888)
I0414 17:39:53.845798 28194 net.cpp:157] Top shape: 1024 (1024)
I0414 17:39:53.845803 28194 net.cpp:165] Memory required for data: 28315648
I0414 17:39:53.845819 28194 layer_factory.hpp:77] Creating layer label_data_1_split
I0414 17:39:53.845836 28194 net.cpp:100] Creating Layer label_data_1_split
I0414 17:39:53.845845 28194 net.cpp:434] label_data_1_split <- label
I0414 17:39:53.845862 28194 net.cpp:408] label_data_1_split -> label_data_1_split_0
I0414 17:39:53.845876 28194 net.cpp:408] label_data_1_split -> label_data_1_split_1
I0414 17:39:53.845885 28194 net.cpp:408] label_data_1_split -> label_data_1_split_2
I0414 17:39:53.845952 28194 net.cpp:150] Setting up label_data_1_split
I0414 17:39:53.845959 28194 net.cpp:157] Top shape: 1024 (1024)
I0414 17:39:53.845966 28194 net.cpp:157] Top shape: 1024 (1024)
I0414 17:39:53.845973 28194 net.cpp:157] Top shape: 1024 (1024)
I0414 17:39:53.845978 28194 net.cpp:165] Memory required for data: 28327936
I0414 17:39:53.845983 28194 layer_factory.hpp:77] Creating layer conv1
I0414 17:39:53.846004 28194 net.cpp:100] Creating Layer conv1
I0414 17:39:53.846009 28194 net.cpp:434] conv1 <- data
I0414 17:39:53.846016 28194 net.cpp:408] conv1 -> conv1
I0414 17:39:54.257577 28194 net.cpp:150] Setting up conv1
I0414 17:39:54.257607 28194 net.cpp:157] Top shape: 1024 100 42 42 (180633600)
I0414 17:39:54.257612 28194 net.cpp:165] Memory required for data: 750862336
I0414 17:39:54.257634 28194 layer_factory.hpp:77] Creating layer conv1_relu
I0414 17:39:54.257647 28194 net.cpp:100] Creating Layer conv1_relu
I0414 17:39:54.257652 28194 net.cpp:434] conv1_relu <- conv1
I0414 17:39:54.257659 28194 net.cpp:395] conv1_relu -> conv1 (in-place)
I0414 17:39:54.257855 28194 net.cpp:150] Setting up conv1_relu
I0414 17:39:54.257868 28194 net.cpp:157] Top shape: 1024 100 42 42 (180633600)
I0414 17:39:54.257872 28194 net.cpp:165] Memory required for data: 1473396736
I0414 17:39:54.257876 28194 layer_factory.hpp:77] Creating layer pool1
I0414 17:39:54.257885 28194 net.cpp:100] Creating Layer pool1
I0414 17:39:54.257901 28194 net.cpp:434] pool1 <- conv1
I0414 17:39:54.257906 28194 net.cpp:408] pool1 -> pool1
I0414 17:39:54.257961 28194 net.cpp:150] Setting up pool1
I0414 17:39:54.257968 28194 net.cpp:157] Top shape: 1024 100 21 21 (45158400)
I0414 17:39:54.257972 28194 net.cpp:165] Memory required for data: 1654030336
I0414 17:39:54.257974 28194 layer_factory.hpp:77] Creating layer conv2
I0414 17:39:54.257985 28194 net.cpp:100] Creating Layer conv2
I0414 17:39:54.257989 28194 net.cpp:434] conv2 <- pool1
I0414 17:39:54.257994 28194 net.cpp:408] conv2 -> conv2
I0414 17:39:54.268937 28194 net.cpp:150] Setting up conv2
I0414 17:39:54.268955 28194 net.cpp:157] Top shape: 1024 150 18 18 (49766400)
I0414 17:39:54.268960 28194 net.cpp:165] Memory required for data: 1853095936
I0414 17:39:54.268971 28194 layer_factory.hpp:77] Creating layer conv2_relu
I0414 17:39:54.268980 28194 net.cpp:100] Creating Layer conv2_relu
I0414 17:39:54.268985 28194 net.cpp:434] conv2_relu <- conv2
I0414 17:39:54.268990 28194 net.cpp:395] conv2_relu -> conv2 (in-place)
I0414 17:39:54.270033 28194 net.cpp:150] Setting up conv2_relu
I0414 17:39:54.270048 28194 net.cpp:157] Top shape: 1024 150 18 18 (49766400)
I0414 17:39:54.270052 28194 net.cpp:165] Memory required for data: 2052161536
I0414 17:39:54.270056 28194 layer_factory.hpp:77] Creating layer pool2
I0414 17:39:54.270062 28194 net.cpp:100] Creating Layer pool2
I0414 17:39:54.270066 28194 net.cpp:434] pool2 <- conv2
I0414 17:39:54.270071 28194 net.cpp:408] pool2 -> pool2
I0414 17:39:54.270122 28194 net.cpp:150] Setting up pool2
I0414 17:39:54.270130 28194 net.cpp:157] Top shape: 1024 150 9 9 (12441600)
I0414 17:39:54.270133 28194 net.cpp:165] Memory required for data: 2101927936
I0414 17:39:54.270135 28194 layer_factory.hpp:77] Creating layer conv3
I0414 17:39:54.270146 28194 net.cpp:100] Creating Layer conv3
I0414 17:39:54.270151 28194 net.cpp:434] conv3 <- pool2
I0414 17:39:54.270156 28194 net.cpp:408] conv3 -> conv3
I0414 17:39:54.275758 28194 net.cpp:150] Setting up conv3
I0414 17:39:54.275775 28194 net.cpp:157] Top shape: 1024 250 6 6 (9216000)
I0414 17:39:54.275781 28194 net.cpp:165] Memory required for data: 2138791936
I0414 17:39:54.275791 28194 layer_factory.hpp:77] Creating layer conv3_relu
I0414 17:39:54.275799 28194 net.cpp:100] Creating Layer conv3_relu
I0414 17:39:54.275804 28194 net.cpp:434] conv3_relu <- conv3
I0414 17:39:54.275809 28194 net.cpp:395] conv3_relu -> conv3 (in-place)
I0414 17:39:54.276803 28194 net.cpp:150] Setting up conv3_relu
I0414 17:39:54.276819 28194 net.cpp:157] Top shape: 1024 250 6 6 (9216000)
I0414 17:39:54.276823 28194 net.cpp:165] Memory required for data: 2175655936
I0414 17:39:54.276826 28194 layer_factory.hpp:77] Creating layer pool3
I0414 17:39:54.276832 28194 net.cpp:100] Creating Layer pool3
I0414 17:39:54.276836 28194 net.cpp:434] pool3 <- conv3
I0414 17:39:54.276842 28194 net.cpp:408] pool3 -> pool3
I0414 17:39:54.276888 28194 net.cpp:150] Setting up pool3
I0414 17:39:54.276896 28194 net.cpp:157] Top shape: 1024 250 3 3 (2304000)
I0414 17:39:54.276899 28194 net.cpp:165] Memory required for data: 2184871936
I0414 17:39:54.276902 28194 layer_factory.hpp:77] Creating layer fc4_300
I0414 17:39:54.276908 28194 net.cpp:100] Creating Layer fc4_300
I0414 17:39:54.276912 28194 net.cpp:434] fc4_300 <- pool3
I0414 17:39:54.276916 28194 net.cpp:408] fc4_300 -> fc4_300
I0414 17:39:54.289281 28194 net.cpp:150] Setting up fc4_300
I0414 17:39:54.289300 28194 net.cpp:157] Top shape: 1024 300 (307200)
I0414 17:39:54.289304 28194 net.cpp:165] Memory required for data: 2186100736
I0414 17:39:54.289311 28194 layer_factory.hpp:77] Creating layer fc4_relu
I0414 17:39:54.289317 28194 net.cpp:100] Creating Layer fc4_relu
I0414 17:39:54.289321 28194 net.cpp:434] fc4_relu <- fc4_300
I0414 17:39:54.289326 28194 net.cpp:395] fc4_relu -> fc4_300 (in-place)
I0414 17:39:54.289511 28194 net.cpp:150] Setting up fc4_relu
I0414 17:39:54.289523 28194 net.cpp:157] Top shape: 1024 300 (307200)
I0414 17:39:54.289527 28194 net.cpp:165] Memory required for data: 2187329536
I0414 17:39:54.289530 28194 layer_factory.hpp:77] Creating layer fc5_106
I0414 17:39:54.289537 28194 net.cpp:100] Creating Layer fc5_106
I0414 17:39:54.289541 28194 net.cpp:434] fc5_106 <- fc4_300
I0414 17:39:54.289547 28194 net.cpp:408] fc5_106 -> fc5_classes
I0414 17:39:54.295140 28194 net.cpp:150] Setting up fc5_106
I0414 17:39:54.295159 28194 net.cpp:157] Top shape: 1024 106 (108544)
I0414 17:39:54.295162 28194 net.cpp:165] Memory required for data: 2187763712
I0414 17:39:54.295173 28194 layer_factory.hpp:77] Creating layer fc5_classes_fc5_106_0_split
I0414 17:39:54.295181 28194 net.cpp:100] Creating Layer fc5_classes_fc5_106_0_split
I0414 17:39:54.295186 28194 net.cpp:434] fc5_classes_fc5_106_0_split <- fc5_classes
I0414 17:39:54.295192 28194 net.cpp:408] fc5_classes_fc5_106_0_split -> fc5_classes_fc5_106_0_split_0
I0414 17:39:54.295199 28194 net.cpp:408] fc5_classes_fc5_106_0_split -> fc5_classes_fc5_106_0_split_1
I0414 17:39:54.295205 28194 net.cpp:408] fc5_classes_fc5_106_0_split -> fc5_classes_fc5_106_0_split_2
I0414 17:39:54.295256 28194 net.cpp:150] Setting up fc5_classes_fc5_106_0_split
I0414 17:39:54.295264 28194 net.cpp:157] Top shape: 1024 106 (108544)
I0414 17:39:54.295267 28194 net.cpp:157] Top shape: 1024 106 (108544)
I0414 17:39:54.295271 28194 net.cpp:157] Top shape: 1024 106 (108544)
I0414 17:39:54.295274 28194 net.cpp:165] Memory required for data: 2189066240
I0414 17:39:54.295276 28194 layer_factory.hpp:77] Creating layer softmax
I0414 17:39:54.295282 28194 net.cpp:100] Creating Layer softmax
I0414 17:39:54.295289 28194 net.cpp:434] softmax <- fc5_classes_fc5_106_0_split_0
I0414 17:39:54.295294 28194 net.cpp:408] softmax -> softmax
I0414 17:39:54.295542 28194 net.cpp:150] Setting up softmax
I0414 17:39:54.295553 28194 net.cpp:157] Top shape: 1024 106 (108544)
I0414 17:39:54.295557 28194 net.cpp:165] Memory required for data: 2189500416
I0414 17:39:54.295559 28194 layer_factory.hpp:77] Creating layer loss
I0414 17:39:54.295598 28194 net.cpp:100] Creating Layer loss
I0414 17:39:54.295603 28194 net.cpp:434] loss <- softmax
I0414 17:39:54.295608 28194 net.cpp:434] loss <- label_data_1_split_0
I0414 17:39:54.295613 28194 net.cpp:408] loss -> loss
…
