…
I0508 01:32:23.417053 17749 solver.cpp:93] Creating training net from train_net file: ./Prototxt/experiment_15/RTSD/orig/trial_2/train.prototxt
I0508 01:32:23.417531 17749 net.cpp:58] Initializing net from parameters: 
state {
  phase: TRAIN
  level: 0
  stage: ""
}
layer {
  name: "data"
  type: "Data"
  top: "data"
  top: "label"
  include {
    phase: TRAIN
  }
  transform_param {
    scale: 0.0039215689
    mirror: false
    crop_size: 48
    mean_value: 119
    mean_value: 113
    mean_value: 113
  }
  data_param {
    source: "../local_data/lmdb/RTSD/orig/train/lmdb"
    batch_size: 1024
    backend: LMDB
  }
}
layer {
  name: "conv1"
  type: "Convolution"
  bottom: "data"
  top: "conv1"
  convolution_param {
    num_output: 100
    pad: 0
    kernel_size: 7
    group: 1
    stride: 1
    weight_filler {
      type: "xavier"
    }
  }
}
layer {
  name: "conv1_prescale"
  type: "Scale"
  bottom: "conv1"
  top: "conv1"
  param {
    lr_mult: 0
    decay_mult: 0
  }
  scale_param {
    filler {
      value: 0.6666
    }
    bias_term: false
  }
}
layer {
  name: "conv1_sTanH"
  type: "TanH"
  bottom: "conv1"
  top: "conv1"
}
layer {
  name: "conv1_postscale"
  type: "Scale"
  bottom: "conv1"
  top: "conv1"
  param {
    lr_mult: 0
    decay_mult: 0
  }
  scale_param {
    filler {
      value: 1.7159
    }
    bias_term: false
  }
}
layer {
  name: "pool1"
  type: "Pooling"
  bottom: "conv1"
  top: "pool1"
  pooling_param {
    pool: MAX
    kernel_size: 2
    stride: 2
  }
}
layer {
  name: "conv2"
  type: "Convolution"
  bottom: "pool1"
  top: "conv2"
  convolution_param {
    num_output: 150
    pad: 0
    kernel_size: 4
    group: 2
    stride: 1
    weight_filler {
      type: "xavier"
    }
  }
}
layer {
  name: "conv2_prescale"
  type: "Scale"
  bottom: "conv2"
  top: "conv2"
  param {
    lr_mult: 0
    decay_mult: 0
  }
  scale_param {
    filler {
      value: 0.6666
    }
    bias_term: false
  }
}
layer {
  name: "conv2_sTanH"
  type: "TanH"
  bottom: "conv2"
  top: "conv2"
}
layer {
  name: "conv2_postscale"
  type: "Scale"
  bottom: "conv2"
  top: "conv2"
  param {
    lr_mult: 0
    decay_mult: 0
  }
  scale_param {
    filler {
      value: 1.7159
    }
    bias_term: false
  }
}
layer {
  name: "pool2"
  type: "Pooling"
  bottom: "conv2"
  top: "pool2"
  pooling_param {
    pool: MAX
    kernel_size: 2
    stride: 2
  }
}
layer {
  name: "conv3"
  type: "Convolution"
  bottom: "pool2"
  top: "conv3"
  convolution_param {
    num_output: 250
    pad: 0
    kernel_size: 4
    group: 2
    stride: 1
    weight_filler {
      type: "xavier"
    }
  }
}
layer {
  name: "conv3_prescale"
  type: "Scale"
  bottom: "conv3"
  top: "conv3"
  param {
    lr_mult: 0
    decay_mult: 0
  }
  scale_param {
    filler {
      value: 0.6666
    }
    bias_term: false
  }
}
layer {
  name: "conv3_sTanH"
  type: "TanH"
  bottom: "conv3"
  top: "conv3"
}
layer {
  name: "conv3_postscale"
  type: "Scale"
  bottom: "conv3"
  top: "conv3"
  param {
    lr_mult: 0
    decay_mult: 0
  }
  scale_param {
    filler {
      value: 1.7159
    }
    bias_term: false
  }
}
layer {
  name: "pool3"
  type: "Pooling"
  bottom: "conv3"
  top: "pool3"
  pooling_param {
    pool: MAX
    kernel_size: 2
    stride: 2
  }
}
layer {
  name: "fc4_300"
  type: "InnerProduct"
  bottom: "pool3"
  top: "fc4_300"
  inner_product_param {
    num_output: 300
    weight_filler {
      type: "xavier"
    }
  }
}
layer {
  name: "fc4_prescale"
  type: "Scale"
  bottom: "fc4_300"
  top: "fc4_300"
  param {
    lr_mult: 0
    decay_mult: 0
  }
  scale_param {
    filler {
      value: 0.6666
    }
    bias_term: false
  }
}
layer {
  name: "fc4_sTanH"
  type: "TanH"
  bottom: "fc4_300"
  top: "fc4_300"
}
layer {
  name: "fc4_postscale"
  type: "Scale"
  bottom: "fc4_300"
  top: "fc4_300"
  param {
    lr_mult: 0
    decay_mult: 0
  }
  scale_param {
    filler {
      value: 1.7159
    }
    bias_term: false
  }
}
layer {
  name: "fc5_116"
  type: "InnerProduct"
  bottom: "fc4_300"
  top: "fc5_classes"
  inner_product_param {
    num_output: 116
    weight_filler {
      type: "xavier"
    }
  }
}
layer {
  name: "softmax"
  type: "Softmax"
  bottom: "fc5_classes"
  top: "softmax"
}
layer {
  name: "loss"
  type: "MultinomialLogisticLoss"
  bottom: "softmax"
  bottom: "label"
  top: "loss"
}
layer {
  name: "accuracy_1"
  type: "Accuracy"
  bottom: "fc5_classes"
  bottom: "label"
  top: "accuracy_1"
  accuracy_param {
    top_k: 1
  }
}
layer {
  name: "accuracy_5"
  type: "Accuracy"
  bottom: "fc5_classes"
  bottom: "label"
  top: "accuracy_5"
  accuracy_param {
    top_k: 5
  }
}
layer {
  name: "silence"
  type: "Silence"
  bottom: "accuracy_1"
  bottom: "accuracy_5"
}
I0508 01:32:23.417696 17749 layer_factory.hpp:77] Creating layer data
I0508 01:32:23.418766 17749 net.cpp:100] Creating Layer data
I0508 01:32:23.418781 17749 net.cpp:408] data -> data
I0508 01:32:23.418803 17749 net.cpp:408] data -> label
I0508 01:32:23.419906 17859 db_lmdb.cpp:35] Opened lmdb ../local_data/lmdb/RTSD/orig/train/lmdb
I0508 01:32:23.453507 17749 data_layer.cpp:41] output data size: 1024,3,48,48
I0508 01:32:23.515391 17749 net.cpp:150] Setting up data
I0508 01:32:23.515422 17749 net.cpp:157] Top shape: 1024 3 48 48 (7077888)
I0508 01:32:23.515427 17749 net.cpp:157] Top shape: 1024 (1024)
I0508 01:32:23.515430 17749 net.cpp:165] Memory required for data: 28315648
I0508 01:32:23.515442 17749 layer_factory.hpp:77] Creating layer label_data_1_split
I0508 01:32:23.515456 17749 net.cpp:100] Creating Layer label_data_1_split
I0508 01:32:23.515463 17749 net.cpp:434] label_data_1_split <- label
I0508 01:32:23.515477 17749 net.cpp:408] label_data_1_split -> label_data_1_split_0
I0508 01:32:23.515491 17749 net.cpp:408] label_data_1_split -> label_data_1_split_1
I0508 01:32:23.515501 17749 net.cpp:408] label_data_1_split -> label_data_1_split_2
I0508 01:32:23.515576 17749 net.cpp:150] Setting up label_data_1_split
I0508 01:32:23.515585 17749 net.cpp:157] Top shape: 1024 (1024)
I0508 01:32:23.515591 17749 net.cpp:157] Top shape: 1024 (1024)
I0508 01:32:23.515594 17749 net.cpp:157] Top shape: 1024 (1024)
I0508 01:32:23.515597 17749 net.cpp:165] Memory required for data: 28327936
I0508 01:32:23.515600 17749 layer_factory.hpp:77] Creating layer conv1
I0508 01:32:23.515619 17749 net.cpp:100] Creating Layer conv1
I0508 01:32:23.515625 17749 net.cpp:434] conv1 <- data
I0508 01:32:23.515631 17749 net.cpp:408] conv1 -> conv1
I0508 01:32:23.971843 17749 net.cpp:150] Setting up conv1
I0508 01:32:23.971873 17749 net.cpp:157] Top shape: 1024 100 42 42 (180633600)
I0508 01:32:23.971887 17749 net.cpp:165] Memory required for data: 750862336
I0508 01:32:23.971912 17749 layer_factory.hpp:77] Creating layer conv1_prescale
I0508 01:32:23.971926 17749 net.cpp:100] Creating Layer conv1_prescale
I0508 01:32:23.971932 17749 net.cpp:434] conv1_prescale <- conv1
I0508 01:32:23.971940 17749 net.cpp:395] conv1_prescale -> conv1 (in-place)
I0508 01:32:23.972055 17749 net.cpp:150] Setting up conv1_prescale
I0508 01:32:23.972064 17749 net.cpp:157] Top shape: 1024 100 42 42 (180633600)
I0508 01:32:23.972069 17749 net.cpp:165] Memory required for data: 1473396736
I0508 01:32:23.972075 17749 layer_factory.hpp:77] Creating layer conv1_sTanH
I0508 01:32:23.972084 17749 net.cpp:100] Creating Layer conv1_sTanH
I0508 01:32:23.972086 17749 net.cpp:434] conv1_sTanH <- conv1
I0508 01:32:23.972091 17749 net.cpp:395] conv1_sTanH -> conv1 (in-place)
I0508 01:32:23.972292 17749 net.cpp:150] Setting up conv1_sTanH
I0508 01:32:23.972304 17749 net.cpp:157] Top shape: 1024 100 42 42 (180633600)
I0508 01:32:23.972328 17749 net.cpp:165] Memory required for data: 2195931136
I0508 01:32:23.972333 17749 layer_factory.hpp:77] Creating layer conv1_postscale
I0508 01:32:23.972340 17749 net.cpp:100] Creating Layer conv1_postscale
I0508 01:32:23.972345 17749 net.cpp:434] conv1_postscale <- conv1
I0508 01:32:23.972350 17749 net.cpp:395] conv1_postscale -> conv1 (in-place)
I0508 01:32:23.972450 17749 net.cpp:150] Setting up conv1_postscale
I0508 01:32:23.972457 17749 net.cpp:157] Top shape: 1024 100 42 42 (180633600)
I0508 01:32:23.972461 17749 net.cpp:165] Memory required for data: 2918465536
I0508 01:32:23.972467 17749 layer_factory.hpp:77] Creating layer pool1
I0508 01:32:23.972473 17749 net.cpp:100] Creating Layer pool1
I0508 01:32:23.972478 17749 net.cpp:434] pool1 <- conv1
I0508 01:32:23.972483 17749 net.cpp:408] pool1 -> pool1
I0508 01:32:23.972532 17749 net.cpp:150] Setting up pool1
I0508 01:32:23.972540 17749 net.cpp:157] Top shape: 1024 100 21 21 (45158400)
I0508 01:32:23.972544 17749 net.cpp:165] Memory required for data: 3099099136
I0508 01:32:23.972548 17749 layer_factory.hpp:77] Creating layer conv2
I0508 01:32:23.972558 17749 net.cpp:100] Creating Layer conv2
I0508 01:32:23.972563 17749 net.cpp:434] conv2 <- pool1
I0508 01:32:23.972568 17749 net.cpp:408] conv2 -> conv2
I0508 01:32:23.982373 17749 net.cpp:150] Setting up conv2
I0508 01:32:23.982398 17749 net.cpp:157] Top shape: 1024 150 18 18 (49766400)
I0508 01:32:23.982403 17749 net.cpp:165] Memory required for data: 3298164736
I0508 01:32:23.982414 17749 layer_factory.hpp:77] Creating layer conv2_prescale
I0508 01:32:23.982429 17749 net.cpp:100] Creating Layer conv2_prescale
I0508 01:32:23.982434 17749 net.cpp:434] conv2_prescale <- conv2
I0508 01:32:23.982440 17749 net.cpp:395] conv2_prescale -> conv2 (in-place)
I0508 01:32:23.982545 17749 net.cpp:150] Setting up conv2_prescale
I0508 01:32:23.982554 17749 net.cpp:157] Top shape: 1024 150 18 18 (49766400)
I0508 01:32:23.982558 17749 net.cpp:165] Memory required for data: 3497230336
I0508 01:32:23.982563 17749 layer_factory.hpp:77] Creating layer conv2_sTanH
I0508 01:32:23.982569 17749 net.cpp:100] Creating Layer conv2_sTanH
I0508 01:32:23.982574 17749 net.cpp:434] conv2_sTanH <- conv2
I0508 01:32:23.982578 17749 net.cpp:395] conv2_sTanH -> conv2 (in-place)
I0508 01:32:23.982758 17749 net.cpp:150] Setting up conv2_sTanH
I0508 01:32:23.982769 17749 net.cpp:157] Top shape: 1024 150 18 18 (49766400)
I0508 01:32:23.982772 17749 net.cpp:165] Memory required for data: 3696295936
I0508 01:32:23.982776 17749 layer_factory.hpp:77] Creating layer conv2_postscale
I0508 01:32:23.982782 17749 net.cpp:100] Creating Layer conv2_postscale
I0508 01:32:23.982787 17749 net.cpp:434] conv2_postscale <- conv2
I0508 01:32:23.982792 17749 net.cpp:395] conv2_postscale -> conv2 (in-place)
I0508 01:32:23.982883 17749 net.cpp:150] Setting up conv2_postscale
I0508 01:32:23.982892 17749 net.cpp:157] Top shape: 1024 150 18 18 (49766400)
I0508 01:32:23.982895 17749 net.cpp:165] Memory required for data: 3895361536
I0508 01:32:23.982900 17749 layer_factory.hpp:77] Creating layer pool2
I0508 01:32:23.982908 17749 net.cpp:100] Creating Layer pool2
I0508 01:32:23.982911 17749 net.cpp:434] pool2 <- conv2
I0508 01:32:23.982916 17749 net.cpp:408] pool2 -> pool2
I0508 01:32:23.982959 17749 net.cpp:150] Setting up pool2
I0508 01:32:23.982967 17749 net.cpp:157] Top shape: 1024 150 9 9 (12441600)
I0508 01:32:23.982970 17749 net.cpp:165] Memory required for data: 3945127936
I0508 01:32:23.982973 17749 layer_factory.hpp:77] Creating layer conv3
I0508 01:32:23.982983 17749 net.cpp:100] Creating Layer conv3
I0508 01:32:23.982988 17749 net.cpp:434] conv3 <- pool2
I0508 01:32:23.982993 17749 net.cpp:408] conv3 -> conv3
I0508 01:32:23.991812 17749 net.cpp:150] Setting up conv3
I0508 01:32:23.991837 17749 net.cpp:157] Top shape: 1024 250 6 6 (9216000)
I0508 01:32:23.991840 17749 net.cpp:165] Memory required for data: 3981991936
I0508 01:32:23.991854 17749 layer_factory.hpp:77] Creating layer conv3_prescale
I0508 01:32:23.991899 17749 net.cpp:100] Creating Layer conv3_prescale
I0508 01:32:23.991906 17749 net.cpp:434] conv3_prescale <- conv3
I0508 01:32:23.991914 17749 net.cpp:395] conv3_prescale -> conv3 (in-place)
I0508 01:32:23.992013 17749 net.cpp:150] Setting up conv3_prescale
I0508 01:32:23.992022 17749 net.cpp:157] Top shape: 1024 250 6 6 (9216000)
I0508 01:32:23.992027 17749 net.cpp:165] Memory required for data: 4018855936
I0508 01:32:23.992032 17749 layer_factory.hpp:77] Creating layer conv3_sTanH
I0508 01:32:23.992038 17749 net.cpp:100] Creating Layer conv3_sTanH
I0508 01:32:23.992041 17749 net.cpp:434] conv3_sTanH <- conv3
I0508 01:32:23.992049 17749 net.cpp:395] conv3_sTanH -> conv3 (in-place)
I0508 01:32:23.992249 17749 net.cpp:150] Setting up conv3_sTanH
I0508 01:32:23.992260 17749 net.cpp:157] Top shape: 1024 250 6 6 (9216000)
I0508 01:32:23.992264 17749 net.cpp:165] Memory required for data: 4055719936
I0508 01:32:23.992267 17749 layer_factory.hpp:77] Creating layer conv3_postscale
I0508 01:32:23.992274 17749 net.cpp:100] Creating Layer conv3_postscale
I0508 01:32:23.992278 17749 net.cpp:434] conv3_postscale <- conv3
I0508 01:32:23.992285 17749 net.cpp:395] conv3_postscale -> conv3 (in-place)
I0508 01:32:23.992382 17749 net.cpp:150] Setting up conv3_postscale
I0508 01:32:23.992390 17749 net.cpp:157] Top shape: 1024 250 6 6 (9216000)
I0508 01:32:23.992393 17749 net.cpp:165] Memory required for data: 4092583936
I0508 01:32:23.992398 17749 layer_factory.hpp:77] Creating layer pool3
I0508 01:32:23.992410 17749 net.cpp:100] Creating Layer pool3
I0508 01:32:23.992415 17749 net.cpp:434] pool3 <- conv3
I0508 01:32:23.992421 17749 net.cpp:408] pool3 -> pool3
I0508 01:32:23.992463 17749 net.cpp:150] Setting up pool3
I0508 01:32:23.992470 17749 net.cpp:157] Top shape: 1024 250 3 3 (2304000)
I0508 01:32:23.992475 17749 net.cpp:165] Memory required for data: 4101799936
I0508 01:32:23.992478 17749 layer_factory.hpp:77] Creating layer fc4_300
I0508 01:32:23.992486 17749 net.cpp:100] Creating Layer fc4_300
I0508 01:32:23.992491 17749 net.cpp:434] fc4_300 <- pool3
I0508 01:32:23.992496 17749 net.cpp:408] fc4_300 -> fc4_300
I0508 01:32:23.998399 17749 net.cpp:150] Setting up fc4_300
I0508 01:32:23.998419 17749 net.cpp:157] Top shape: 1024 300 (307200)
I0508 01:32:23.998422 17749 net.cpp:165] Memory required for data: 4103028736
I0508 01:32:23.998430 17749 layer_factory.hpp:77] Creating layer fc4_prescale
I0508 01:32:23.998440 17749 net.cpp:100] Creating Layer fc4_prescale
I0508 01:32:23.998443 17749 net.cpp:434] fc4_prescale <- fc4_300
I0508 01:32:23.998448 17749 net.cpp:395] fc4_prescale -> fc4_300 (in-place)
I0508 01:32:23.998541 17749 net.cpp:150] Setting up fc4_prescale
I0508 01:32:23.998549 17749 net.cpp:157] Top shape: 1024 300 (307200)
I0508 01:32:23.998553 17749 net.cpp:165] Memory required for data: 4104257536
I0508 01:32:23.998558 17749 layer_factory.hpp:77] Creating layer fc4_sTanH
I0508 01:32:23.998564 17749 net.cpp:100] Creating Layer fc4_sTanH
I0508 01:32:23.998569 17749 net.cpp:434] fc4_sTanH <- fc4_300
I0508 01:32:23.998574 17749 net.cpp:395] fc4_sTanH -> fc4_300 (in-place)
I0508 01:32:24.002305 17749 net.cpp:150] Setting up fc4_sTanH
I0508 01:32:24.002323 17749 net.cpp:157] Top shape: 1024 300 (307200)
I0508 01:32:24.002327 17749 net.cpp:165] Memory required for data: 4105486336
I0508 01:32:24.002331 17749 layer_factory.hpp:77] Creating layer fc4_postscale
I0508 01:32:24.002341 17749 net.cpp:100] Creating Layer fc4_postscale
I0508 01:32:24.002344 17749 net.cpp:434] fc4_postscale <- fc4_300
I0508 01:32:24.002349 17749 net.cpp:395] fc4_postscale -> fc4_300 (in-place)
I0508 01:32:24.002460 17749 net.cpp:150] Setting up fc4_postscale
I0508 01:32:24.002470 17749 net.cpp:157] Top shape: 1024 300 (307200)
I0508 01:32:24.002472 17749 net.cpp:165] Memory required for data: 4106715136
I0508 01:32:24.002477 17749 layer_factory.hpp:77] Creating layer fc5_116
I0508 01:32:24.002485 17749 net.cpp:100] Creating Layer fc5_116
I0508 01:32:24.002490 17749 net.cpp:434] fc5_116 <- fc4_300
I0508 01:32:24.002497 17749 net.cpp:408] fc5_116 -> fc5_classes
I0508 01:32:24.004715 17749 net.cpp:150] Setting up fc5_116
I0508 01:32:24.004734 17749 net.cpp:157] Top shape: 1024 116 (118784)
I0508 01:32:24.004737 17749 net.cpp:165] Memory required for data: 4107190272
I0508 01:32:24.004750 17749 layer_factory.hpp:77] Creating layer fc5_classes_fc5_116_0_split
I0508 01:32:24.004760 17749 net.cpp:100] Creating Layer fc5_classes_fc5_116_0_split
I0508 01:32:24.004765 17749 net.cpp:434] fc5_classes_fc5_116_0_split <- fc5_classes
I0508 01:32:24.004771 17749 net.cpp:408] fc5_classes_fc5_116_0_split -> fc5_classes_fc5_116_0_split_0
I0508 01:32:24.004781 17749 net.cpp:408] fc5_classes_fc5_116_0_split -> fc5_classes_fc5_116_0_split_1
I0508 01:32:24.004788 17749 net.cpp:408] fc5_classes_fc5_116_0_split -> fc5_classes_fc5_116_0_split_2
I0508 01:32:24.004843 17749 net.cpp:150] Setting up fc5_classes_fc5_116_0_split
I0508 01:32:24.004851 17749 net.cpp:157] Top shape: 1024 116 (118784)
I0508 01:32:24.004855 17749 net.cpp:157] Top shape: 1024 116 (118784)
I0508 01:32:24.004860 17749 net.cpp:157] Top shape: 1024 116 (118784)
I0508 01:32:24.004863 17749 net.cpp:165] Memory required for data: 4108615680
I0508 01:32:24.004866 17749 layer_factory.hpp:77] Creating layer softmax
I0508 01:32:24.004875 17749 net.cpp:100] Creating Layer softmax
I0508 01:32:24.004880 17749 net.cpp:434] softmax <- fc5_classes_fc5_116_0_split_0
I0508 01:32:24.004885 17749 net.cpp:408] softmax -> softmax
I0508 01:32:24.005146 17749 net.cpp:150] Setting up softmax
I0508 01:32:24.005163 17749 net.cpp:157] Top shape: 1024 116 (118784)
I0508 01:32:24.005168 17749 net.cpp:165] Memory required for data: 4109090816
I0508 01:32:24.005172 17749 layer_factory.hpp:77] Creating layer loss
I0508 01:32:24.005178 17749 net.cpp:100] Creating Layer loss
I0508 01:32:24.005183 17749 net.cpp:434] loss <- softmax
I0508 01:32:24.005187 17749 net.cpp:434] loss <- label_data_1_split_0
I0508 01:32:24.005192 17749 net.cpp:408] loss -> loss
…
