…
I0411 02:23:21.579965  7478 net.cpp:322] The NetState phase (0) differed from the phase (1) specified by a rule in layer accuracy_5
I0411 02:23:21.580109  7478 net.cpp:58] Initializing net from parameters: 
state {
  phase: TRAIN
  level: 0
  stage: ""
}
layer {
  name: "data"
  type: "Data"
  top: "data"
  top: "label"
  include {
    phase: TRAIN
  }
  transform_param {
    scale: 0.0039215689
    mirror: false
    crop_size: 48
    mean_value: 132
    mean_value: 132
    mean_value: 131
  }
  data_param {
    source: "../local_data/lmdb/rtsd-r1/CoNorm/train/lmdb"
    batch_size: 1024
    backend: LMDB
  }
}
layer {
  name: "conv1"
  type: "Convolution"
  bottom: "data"
  top: "conv1"
  convolution_param {
    num_output: 100
    pad: 0
    kernel_size: 7
    group: 1
    stride: 1
    weight_filler {
      type: "xavier"
    }
  }
}
layer {
  name: "conv1_prescale"
  type: "Scale"
  bottom: "conv1"
  top: "conv1"
  param {
    lr_mult: 0
    decay_mult: 0
  }
  scale_param {
    filler {
      value: 0.6666
    }
    bias_term: false
  }
}
layer {
  name: "conv1_sTanH"
  type: "TanH"
  bottom: "conv1"
  top: "conv1"
}
layer {
  name: "conv1_postscale"
  type: "Scale"
  bottom: "conv1"
  top: "conv1"
  param {
    lr_mult: 0
    decay_mult: 0
  }
  scale_param {
    filler {
      value: 1.7159
    }
    bias_term: false
  }
}
layer {
  name: "pool1"
  type: "Pooling"
  bottom: "conv1"
  top: "pool1"
  pooling_param {
    pool: MAX
    kernel_size: 2
    stride: 2
  }
}
layer {
  name: "conv2"
  type: "Convolution"
  bottom: "pool1"
  top: "conv2"
  convolution_param {
    num_output: 150
    pad: 0
    kernel_size: 4
    group: 1
    stride: 1
    weight_filler {
      type: "xavier"
    }
  }
}
layer {
  name: "conv2_prescale"
  type: "Scale"
  bottom: "conv2"
  top: "conv2"
  param {
    lr_mult: 0
    decay_mult: 0
  }
  scale_param {
    filler {
      value: 0.6666
    }
    bias_term: false
  }
}
layer {
  name: "conv2_sTanH"
  type: "TanH"
  bottom: "conv2"
  top: "conv2"
}
layer {
  name: "conv2_postscale"
  type: "Scale"
  bottom: "conv2"
  top: "conv2"
  param {
    lr_mult: 0
    decay_mult: 0
  }
  scale_param {
    filler {
      value: 1.7159
    }
    bias_term: false
  }
}
layer {
  name: "pool2"
  type: "Pooling"
  bottom: "conv2"
  top: "pool2"
  pooling_param {
    pool: MAX
    kernel_size: 2
    stride: 2
  }
}
layer {
  name: "conv3"
  type: "Convolution"
  bottom: "pool2"
  top: "conv3"
  convolution_param {
    num_output: 250
    pad: 0
    kernel_size: 4
    group: 1
    stride: 1
    weight_filler {
      type: "xavier"
    }
  }
}
layer {
  name: "conv3_prescale"
  type: "Scale"
  bottom: "conv3"
  top: "conv3"
  param {
    lr_mult: 0
    decay_mult: 0
  }
  scale_param {
    filler {
      value: 0.6666
    }
    bias_term: false
  }
}
layer {
  name: "conv3_sTanH"
  type: "TanH"
  bottom: "conv3"
  top: "conv3"
}
layer {
  name: "conv3_postscale"
  type: "Scale"
  bottom: "conv3"
  top: "conv3"
  param {
    lr_mult: 0
    decay_mult: 0
  }
  scale_param {
    filler {
      value: 1.7159
    }
    bias_term: false
  }
}
layer {
  name: "pool3"
  type: "Pooling"
  bottom: "conv3"
  top: "pool3"
  pooling_param {
    pool: MAX
    kernel_size: 2
    stride: 2
  }
}
layer {
  name: "fc4_300"
  type: "InnerProduct"
  bottom: "pool3"
  top: "fc4_300"
  inner_product_param {
    num_output: 300
    weight_filler {
      type: "xavier"
    }
  }
}
layer {
  name: "fc4_prescale"
  type: "Scale"
  bottom: "fc4_300"
  top: "fc4_300"
  param {
    lr_mult: 0
    decay_mult: 0
  }
  scale_param {
    filler {
      value: 0.6666
    }
    bias_term: false
  }
}
layer {
  name: "fc4_sTanH"
  type: "TanH"
  bottom: "fc4_300"
  top: "fc4_300"
}
layer {
  name: "fc4_postscale"
  type: "Scale"
  bottom: "fc4_300"
  top: "fc4_300"
  param {
    lr_mult: 0
    decay_mult: 0
  }
  scale_param {
    filler {
      value: 1.7159
    }
    bias_term: false
  }
}
layer {
  name: "fc5_67"
  type: "InnerProduct"
  bottom: "fc4_300"
  top: "fc5_classes"
  inner_product_param {
    num_output: 67
    weight_filler {
      type: "xavier"
    }
  }
}
layer {
  name: "loss"
  type: "SoftmaxWithLoss"
  bottom: "fc5_classes"
  bottom: "label"
  top: "loss"
}
I0411 02:23:21.580217  7478 layer_factory.hpp:77] Creating layer data
I0411 02:23:21.581269  7478 net.cpp:100] Creating Layer data
I0411 02:23:21.581284  7478 net.cpp:408] data -> data
I0411 02:23:21.581317  7478 net.cpp:408] data -> label
I0411 02:23:21.582542  7580 db_lmdb.cpp:35] Opened lmdb ../local_data/lmdb/rtsd-r1/CoNorm/train/lmdb
I0411 02:23:21.599215  7478 data_layer.cpp:41] output data size: 1024,3,48,48
I0411 02:23:21.641896  7478 net.cpp:150] Setting up data
I0411 02:23:21.641942  7478 net.cpp:157] Top shape: 1024 3 48 48 (7077888)
I0411 02:23:21.641947  7478 net.cpp:157] Top shape: 1024 (1024)
I0411 02:23:21.641950  7478 net.cpp:165] Memory required for data: 28315648
I0411 02:23:21.641960  7478 layer_factory.hpp:77] Creating layer conv1
I0411 02:23:21.641981  7478 net.cpp:100] Creating Layer conv1
I0411 02:23:21.641988  7478 net.cpp:434] conv1 <- data
I0411 02:23:21.642000  7478 net.cpp:408] conv1 -> conv1
I0411 02:23:21.926587  7478 net.cpp:150] Setting up conv1
I0411 02:23:21.926615  7478 net.cpp:157] Top shape: 1024 100 42 42 (180633600)
I0411 02:23:21.926618  7478 net.cpp:165] Memory required for data: 750850048
I0411 02:23:21.926641  7478 layer_factory.hpp:77] Creating layer conv1_prescale
I0411 02:23:21.926656  7478 net.cpp:100] Creating Layer conv1_prescale
I0411 02:23:21.926659  7478 net.cpp:434] conv1_prescale <- conv1
I0411 02:23:21.926666  7478 net.cpp:395] conv1_prescale -> conv1 (in-place)
I0411 02:23:21.926779  7478 net.cpp:150] Setting up conv1_prescale
I0411 02:23:21.926789  7478 net.cpp:157] Top shape: 1024 100 42 42 (180633600)
I0411 02:23:21.926792  7478 net.cpp:165] Memory required for data: 1473384448
I0411 02:23:21.926798  7478 layer_factory.hpp:77] Creating layer conv1_sTanH
I0411 02:23:21.926805  7478 net.cpp:100] Creating Layer conv1_sTanH
I0411 02:23:21.926807  7478 net.cpp:434] conv1_sTanH <- conv1
I0411 02:23:21.926811  7478 net.cpp:395] conv1_sTanH -> conv1 (in-place)
I0411 02:23:21.927006  7478 net.cpp:150] Setting up conv1_sTanH
I0411 02:23:21.927018  7478 net.cpp:157] Top shape: 1024 100 42 42 (180633600)
I0411 02:23:21.927021  7478 net.cpp:165] Memory required for data: 2195918848
I0411 02:23:21.927024  7478 layer_factory.hpp:77] Creating layer conv1_postscale
I0411 02:23:21.927032  7478 net.cpp:100] Creating Layer conv1_postscale
I0411 02:23:21.927036  7478 net.cpp:434] conv1_postscale <- conv1
I0411 02:23:21.927040  7478 net.cpp:395] conv1_postscale -> conv1 (in-place)
I0411 02:23:21.927131  7478 net.cpp:150] Setting up conv1_postscale
I0411 02:23:21.927139  7478 net.cpp:157] Top shape: 1024 100 42 42 (180633600)
I0411 02:23:21.927142  7478 net.cpp:165] Memory required for data: 2918453248
I0411 02:23:21.927147  7478 layer_factory.hpp:77] Creating layer pool1
I0411 02:23:21.927153  7478 net.cpp:100] Creating Layer pool1
I0411 02:23:21.927156  7478 net.cpp:434] pool1 <- conv1
I0411 02:23:21.927161  7478 net.cpp:408] pool1 -> pool1
I0411 02:23:21.927206  7478 net.cpp:150] Setting up pool1
I0411 02:23:21.927214  7478 net.cpp:157] Top shape: 1024 100 21 21 (45158400)
I0411 02:23:21.927235  7478 net.cpp:165] Memory required for data: 3099086848
I0411 02:23:21.927239  7478 layer_factory.hpp:77] Creating layer conv2
I0411 02:23:21.927249  7478 net.cpp:100] Creating Layer conv2
I0411 02:23:21.927253  7478 net.cpp:434] conv2 <- pool1
I0411 02:23:21.927258  7478 net.cpp:408] conv2 -> conv2
I0411 02:23:21.935945  7478 net.cpp:150] Setting up conv2
I0411 02:23:21.935962  7478 net.cpp:157] Top shape: 1024 150 18 18 (49766400)
I0411 02:23:21.935966  7478 net.cpp:165] Memory required for data: 3298152448
I0411 02:23:21.935981  7478 layer_factory.hpp:77] Creating layer conv2_prescale
I0411 02:23:21.935989  7478 net.cpp:100] Creating Layer conv2_prescale
I0411 02:23:21.935993  7478 net.cpp:434] conv2_prescale <- conv2
I0411 02:23:21.935998  7478 net.cpp:395] conv2_prescale -> conv2 (in-place)
I0411 02:23:21.936107  7478 net.cpp:150] Setting up conv2_prescale
I0411 02:23:21.936116  7478 net.cpp:157] Top shape: 1024 150 18 18 (49766400)
I0411 02:23:21.936120  7478 net.cpp:165] Memory required for data: 3497218048
I0411 02:23:21.936125  7478 layer_factory.hpp:77] Creating layer conv2_sTanH
I0411 02:23:21.936131  7478 net.cpp:100] Creating Layer conv2_sTanH
I0411 02:23:21.936133  7478 net.cpp:434] conv2_sTanH <- conv2
I0411 02:23:21.936137  7478 net.cpp:395] conv2_sTanH -> conv2 (in-place)
I0411 02:23:21.937418  7478 net.cpp:150] Setting up conv2_sTanH
I0411 02:23:21.937439  7478 net.cpp:157] Top shape: 1024 150 18 18 (49766400)
I0411 02:23:21.937443  7478 net.cpp:165] Memory required for data: 3696283648
I0411 02:23:21.937448  7478 layer_factory.hpp:77] Creating layer conv2_postscale
I0411 02:23:21.937455  7478 net.cpp:100] Creating Layer conv2_postscale
I0411 02:23:21.937458  7478 net.cpp:434] conv2_postscale <- conv2
I0411 02:23:21.937464  7478 net.cpp:395] conv2_postscale -> conv2 (in-place)
I0411 02:23:21.937561  7478 net.cpp:150] Setting up conv2_postscale
I0411 02:23:21.937571  7478 net.cpp:157] Top shape: 1024 150 18 18 (49766400)
I0411 02:23:21.937573  7478 net.cpp:165] Memory required for data: 3895349248
I0411 02:23:21.937578  7478 layer_factory.hpp:77] Creating layer pool2
I0411 02:23:21.937583  7478 net.cpp:100] Creating Layer pool2
I0411 02:23:21.937587  7478 net.cpp:434] pool2 <- conv2
I0411 02:23:21.937592  7478 net.cpp:408] pool2 -> pool2
I0411 02:23:21.937629  7478 net.cpp:150] Setting up pool2
I0411 02:23:21.937638  7478 net.cpp:157] Top shape: 1024 150 9 9 (12441600)
I0411 02:23:21.937640  7478 net.cpp:165] Memory required for data: 3945115648
I0411 02:23:21.937644  7478 layer_factory.hpp:77] Creating layer conv3
I0411 02:23:21.937651  7478 net.cpp:100] Creating Layer conv3
I0411 02:23:21.937654  7478 net.cpp:434] conv3 <- pool2
I0411 02:23:21.937659  7478 net.cpp:408] conv3 -> conv3
I0411 02:23:21.943266  7478 net.cpp:150] Setting up conv3
I0411 02:23:21.943284  7478 net.cpp:157] Top shape: 1024 250 6 6 (9216000)
I0411 02:23:21.943287  7478 net.cpp:165] Memory required for data: 3981979648
I0411 02:23:21.943296  7478 layer_factory.hpp:77] Creating layer conv3_prescale
I0411 02:23:21.943306  7478 net.cpp:100] Creating Layer conv3_prescale
I0411 02:23:21.943310  7478 net.cpp:434] conv3_prescale <- conv3
I0411 02:23:21.943315  7478 net.cpp:395] conv3_prescale -> conv3 (in-place)
I0411 02:23:21.943414  7478 net.cpp:150] Setting up conv3_prescale
I0411 02:23:21.943423  7478 net.cpp:157] Top shape: 1024 250 6 6 (9216000)
I0411 02:23:21.943426  7478 net.cpp:165] Memory required for data: 4018843648
I0411 02:23:21.943430  7478 layer_factory.hpp:77] Creating layer conv3_sTanH
I0411 02:23:21.943435  7478 net.cpp:100] Creating Layer conv3_sTanH
I0411 02:23:21.943439  7478 net.cpp:434] conv3_sTanH <- conv3
I0411 02:23:21.943444  7478 net.cpp:395] conv3_sTanH -> conv3 (in-place)
I0411 02:23:21.944311  7478 net.cpp:150] Setting up conv3_sTanH
I0411 02:23:21.944327  7478 net.cpp:157] Top shape: 1024 250 6 6 (9216000)
I0411 02:23:21.944331  7478 net.cpp:165] Memory required for data: 4055707648
I0411 02:23:21.944334  7478 layer_factory.hpp:77] Creating layer conv3_postscale
I0411 02:23:21.944355  7478 net.cpp:100] Creating Layer conv3_postscale
I0411 02:23:21.944360  7478 net.cpp:434] conv3_postscale <- conv3
I0411 02:23:21.944365  7478 net.cpp:395] conv3_postscale -> conv3 (in-place)
I0411 02:23:21.944468  7478 net.cpp:150] Setting up conv3_postscale
I0411 02:23:21.944478  7478 net.cpp:157] Top shape: 1024 250 6 6 (9216000)
I0411 02:23:21.944480  7478 net.cpp:165] Memory required for data: 4092571648
I0411 02:23:21.944485  7478 layer_factory.hpp:77] Creating layer pool3
I0411 02:23:21.944494  7478 net.cpp:100] Creating Layer pool3
I0411 02:23:21.944496  7478 net.cpp:434] pool3 <- conv3
I0411 02:23:21.944501  7478 net.cpp:408] pool3 -> pool3
I0411 02:23:21.944543  7478 net.cpp:150] Setting up pool3
I0411 02:23:21.944551  7478 net.cpp:157] Top shape: 1024 250 3 3 (2304000)
I0411 02:23:21.944555  7478 net.cpp:165] Memory required for data: 4101787648
I0411 02:23:21.944556  7478 layer_factory.hpp:77] Creating layer fc4_300
I0411 02:23:21.944566  7478 net.cpp:100] Creating Layer fc4_300
I0411 02:23:21.944571  7478 net.cpp:434] fc4_300 <- pool3
I0411 02:23:21.944576  7478 net.cpp:408] fc4_300 -> fc4_300
I0411 02:23:21.950266  7478 net.cpp:150] Setting up fc4_300
I0411 02:23:21.950284  7478 net.cpp:157] Top shape: 1024 300 (307200)
I0411 02:23:21.950286  7478 net.cpp:165] Memory required for data: 4103016448
I0411 02:23:21.950292  7478 layer_factory.hpp:77] Creating layer fc4_prescale
I0411 02:23:21.950299  7478 net.cpp:100] Creating Layer fc4_prescale
I0411 02:23:21.950304  7478 net.cpp:434] fc4_prescale <- fc4_300
I0411 02:23:21.950309  7478 net.cpp:395] fc4_prescale -> fc4_300 (in-place)
I0411 02:23:21.950407  7478 net.cpp:150] Setting up fc4_prescale
I0411 02:23:21.950417  7478 net.cpp:157] Top shape: 1024 300 (307200)
I0411 02:23:21.950420  7478 net.cpp:165] Memory required for data: 4104245248
I0411 02:23:21.950424  7478 layer_factory.hpp:77] Creating layer fc4_sTanH
I0411 02:23:21.950429  7478 net.cpp:100] Creating Layer fc4_sTanH
I0411 02:23:21.950433  7478 net.cpp:434] fc4_sTanH <- fc4_300
I0411 02:23:21.950441  7478 net.cpp:395] fc4_sTanH -> fc4_300 (in-place)
I0411 02:23:21.950631  7478 net.cpp:150] Setting up fc4_sTanH
I0411 02:23:21.950642  7478 net.cpp:157] Top shape: 1024 300 (307200)
I0411 02:23:21.950645  7478 net.cpp:165] Memory required for data: 4105474048
I0411 02:23:21.950649  7478 layer_factory.hpp:77] Creating layer fc4_postscale
I0411 02:23:21.950659  7478 net.cpp:100] Creating Layer fc4_postscale
I0411 02:23:21.950664  7478 net.cpp:434] fc4_postscale <- fc4_300
I0411 02:23:21.950669  7478 net.cpp:395] fc4_postscale -> fc4_300 (in-place)
I0411 02:23:21.950768  7478 net.cpp:150] Setting up fc4_postscale
I0411 02:23:21.950776  7478 net.cpp:157] Top shape: 1024 300 (307200)
I0411 02:23:21.950779  7478 net.cpp:165] Memory required for data: 4106702848
I0411 02:23:21.950784  7478 layer_factory.hpp:77] Creating layer fc5_67
I0411 02:23:21.950790  7478 net.cpp:100] Creating Layer fc5_67
I0411 02:23:21.950793  7478 net.cpp:434] fc5_67 <- fc4_300
I0411 02:23:21.950799  7478 net.cpp:408] fc5_67 -> fc5_classes
I0411 02:23:21.952011  7478 net.cpp:150] Setting up fc5_67
I0411 02:23:21.952026  7478 net.cpp:157] Top shape: 1024 67 (68608)
I0411 02:23:21.952029  7478 net.cpp:165] Memory required for data: 4106977280
I0411 02:23:21.952041  7478 layer_factory.hpp:77] Creating layer loss
I0411 02:23:21.952050  7478 net.cpp:100] Creating Layer loss
I0411 02:23:21.952054  7478 net.cpp:434] loss <- fc5_classes
I0411 02:23:21.952057  7478 net.cpp:434] loss <- label
I0411 02:23:21.952064  7478 net.cpp:408] loss -> loss
I0411 02:23:21.952076  7478 layer_factory.hpp:77] Creating layer loss
…
I0411 02:23:21.952814  7478 solver.cpp:193] Creating test net (#0) specified by test_net file: ./Prototxt/experiment_8/rtsd-r1/CoNorm/trial_4/test.prototxt
I0411 02:23:21.952991  7478 net.cpp:58] Initializing net from parameters: 
state {
  phase: TEST
}
layer {
  name: "data"
  type: "Data"
  top: "data"
  top: "label"
  include {
    phase: TEST
  }
  transform_param {
    scale: 0.0039215689
    mirror: false
    crop_size: 48
    mean_value: 133
    mean_value: 133
    mean_value: 132
  }
  data_param {
    source: "../local_data/lmdb/rtsd-r1/CoNorm/test/lmdb"
    batch_size: 1024
    backend: LMDB
  }
}
layer {
  name: "conv1"
  type: "Convolution"
  bottom: "data"
  top: "conv1"
  convolution_param {
    num_output: 100
    pad: 0
    kernel_size: 7
    group: 1
    stride: 1
    weight_filler {
      type: "xavier"
    }
  }
}
layer {
  name: "conv1_prescale"
  type: "Scale"
  bottom: "conv1"
  top: "conv1"
  param {
    lr_mult: 0
    decay_mult: 0
  }
  scale_param {
    filler {
      value: 0.6666
    }
    bias_term: false
  }
}
layer {
  name: "conv1_sTanH"
  type: "TanH"
  bottom: "conv1"
  top: "conv1"
}
layer {
  name: "conv1_postscale"
  type: "Scale"
  bottom: "conv1"
  top: "conv1"
  param {
    lr_mult: 0
    decay_mult: 0
  }
  scale_param {
    filler {
      value: 1.7159
    }
    bias_term: false
  }
}
layer {
  name: "pool1"
  type: "Pooling"
  bottom: "conv1"
  top: "pool1"
  pooling_param {
    pool: MAX
    kernel_size: 2
    stride: 2
  }
}
layer {
  name: "conv2"
  type: "Convolution"
  bottom: "pool1"
  top: "conv2"
  convolution_param {
    num_output: 150
    pad: 0
    kernel_size: 4
    group: 1
    stride: 1
    weight_filler {
      type: "xavier"
    }
  }
}
layer {
  name: "conv2_prescale"
  type: "Scale"
  bottom: "conv2"
  top: "conv2"
  param {
    lr_mult: 0
    decay_mult: 0
  }
  scale_param {
    filler {
      value: 0.6666
    }
    bias_term: false
  }
}
layer {
  name: "conv2_sTanH"
  type: "TanH"
  bottom: "conv2"
  top: "conv2"
}
layer {
  name: "conv2_postscale"
  type: "Scale"
  bottom: "conv2"
  top: "conv2"
  param {
    lr_mult: 0
    decay_mult: 0
  }
  scale_param {
    filler {
      value: 1.7159
    }
    bias_term: false
  }
}
layer {
  name: "pool2"
  type: "Pooling"
  bottom: "conv2"
  top: "pool2"
  pooling_param {
    pool: MAX
    kernel_size: 2
    stride: 2
  }
}
layer {
  name: "conv3"
  type: "Convolution"
  bottom: "pool2"
  top: "conv3"
  convolution_param {
    num_output: 250
    pad: 0
    kernel_size: 4
    group: 1
    stride: 1
    weight_filler {
      type: "xavier"
    }
  }
}
layer {
  name: "conv3_prescale"
  type: "Scale"
  bottom: "conv3"
  top: "conv3"
  param {
    lr_mult: 0
    decay_mult: 0
  }
  scale_param {
    filler {
      value: 0.6666
    }
    bias_term: false
  }
}
layer {
  name: "conv3_sTanH"
  type: "TanH"
  bottom: "conv3"
  top: "conv3"
}
layer {
  name: "conv3_postscale"
  type: "Scale"
  bottom: "conv3"
  top: "conv3"
  param {
    lr_mult: 0
    decay_mult: 0
  }
  scale_param {
    filler {
      value: 1.7159
    }
    bias_term: false
  }
}
layer {
  name: "pool3"
  type: "Pooling"
  bottom: "conv3"
  top: "pool3"
  pooling_param {
    pool: MAX
    kernel_size: 2
    stride: 2
  }
}
layer {
  name: "fc4_300"
  type: "InnerProduct"
  bottom: "pool3"
  top: "fc4_300"
  inner_product_param {
    num_output: 300
    weight_filler {
      type: "xavier"
    }
  }
}
layer {
  name: "fc4_prescale"
  type: "Scale"
  bottom: "fc4_300"
  top: "fc4_300"
  param {
    lr_mult: 0
    decay_mult: 0
  }
  scale_param {
    filler {
      value: 0.6666
    }
    bias_term: false
  }
}
layer {
  name: "fc4_sTanH"
  type: "TanH"
  bottom: "fc4_300"
  top: "fc4_300"
}
layer {
  name: "fc4_postscale"
  type: "Scale"
  bottom: "fc4_300"
  top: "fc4_300"
  param {
    lr_mult: 0
    decay_mult: 0
  }
  scale_param {
    filler {
      value: 1.7159
    }
    bias_term: false
  }
}
layer {
  name: "fc5_67"
  type: "InnerProduct"
  bottom: "fc4_300"
  top: "fc5_classes"
  inner_product_param {
    num_output: 67
    weight_filler {
      type: "xavier"
    }
  }
}
layer {
  name: "loss"
  type: "SoftmaxWithLoss"
  bottom: "fc5_classes"
  bottom: "label"
  top: "loss"
}
layer {
  name: "accuracy_1"
  type: "Accuracy"
  bottom: "fc5_classes"
  bottom: "label"
  top: "accuracy_1"
  include {
    phase: TEST
  }
  accuracy_param {
    top_k: 1
  }
}
layer {
  name: "accuracy_5"
  type: "Accuracy"
  bottom: "fc5_classes"
  bottom: "label"
  top: "accuracy_5"
  include {
    phase: TEST
  }
  accuracy_param {
    top_k: 5
  }
}
I0411 02:23:21.953109  7478 layer_factory.hpp:77] Creating layer data
I0411 02:23:21.953774  7478 net.cpp:100] Creating Layer data
I0411 02:23:21.953788  7478 net.cpp:408] data -> data
I0411 02:23:21.953796  7478 net.cpp:408] data -> label
I0411 02:23:21.955018  7610 db_lmdb.cpp:35] Opened lmdb ../local_data/lmdb/rtsd-r1/CoNorm/test/lmdb
I0411 02:23:21.955153  7478 data_layer.cpp:41] output data size: 1024,3,48,48
I0411 02:23:21.994068  7478 net.cpp:150] Setting up data
I0411 02:23:21.994097  7478 net.cpp:157] Top shape: 1024 3 48 48 (7077888)
I0411 02:23:21.994103  7478 net.cpp:157] Top shape: 1024 (1024)
I0411 02:23:21.994105  7478 net.cpp:165] Memory required for data: 28315648
I0411 02:23:21.994112  7478 layer_factory.hpp:77] Creating layer label_data_1_split
I0411 02:23:21.994128  7478 net.cpp:100] Creating Layer label_data_1_split
I0411 02:23:21.994132  7478 net.cpp:434] label_data_1_split <- label
I0411 02:23:21.994139  7478 net.cpp:408] label_data_1_split -> label_data_1_split_0
I0411 02:23:21.994149  7478 net.cpp:408] label_data_1_split -> label_data_1_split_1
I0411 02:23:21.994159  7478 net.cpp:408] label_data_1_split -> label_data_1_split_2
I0411 02:23:21.994282  7478 net.cpp:150] Setting up label_data_1_split
I0411 02:23:21.994292  7478 net.cpp:157] Top shape: 1024 (1024)
I0411 02:23:21.994294  7478 net.cpp:157] Top shape: 1024 (1024)
I0411 02:23:21.994298  7478 net.cpp:157] Top shape: 1024 (1024)
I0411 02:23:21.994302  7478 net.cpp:165] Memory required for data: 28327936
I0411 02:23:21.994304  7478 layer_factory.hpp:77] Creating layer conv1
I0411 02:23:21.994319  7478 net.cpp:100] Creating Layer conv1
I0411 02:23:21.994324  7478 net.cpp:434] conv1 <- data
I0411 02:23:21.994336  7478 net.cpp:408] conv1 -> conv1
I0411 02:23:21.998253  7478 net.cpp:150] Setting up conv1
I0411 02:23:21.998270  7478 net.cpp:157] Top shape: 1024 100 42 42 (180633600)
I0411 02:23:21.998303  7478 net.cpp:165] Memory required for data: 750862336
I0411 02:23:21.998317  7478 layer_factory.hpp:77] Creating layer conv1_prescale
I0411 02:23:21.998329  7478 net.cpp:100] Creating Layer conv1_prescale
I0411 02:23:21.998338  7478 net.cpp:434] conv1_prescale <- conv1
I0411 02:23:21.998344  7478 net.cpp:395] conv1_prescale -> conv1 (in-place)
I0411 02:23:21.998455  7478 net.cpp:150] Setting up conv1_prescale
I0411 02:23:21.998464  7478 net.cpp:157] Top shape: 1024 100 42 42 (180633600)
I0411 02:23:21.998466  7478 net.cpp:165] Memory required for data: 1473396736
I0411 02:23:21.998476  7478 layer_factory.hpp:77] Creating layer conv1_sTanH
I0411 02:23:21.998483  7478 net.cpp:100] Creating Layer conv1_sTanH
I0411 02:23:21.998488  7478 net.cpp:434] conv1_sTanH <- conv1
I0411 02:23:21.998493  7478 net.cpp:395] conv1_sTanH -> conv1 (in-place)
I0411 02:23:21.998698  7478 net.cpp:150] Setting up conv1_sTanH
I0411 02:23:21.998709  7478 net.cpp:157] Top shape: 1024 100 42 42 (180633600)
I0411 02:23:21.998713  7478 net.cpp:165] Memory required for data: 2195931136
I0411 02:23:21.998716  7478 layer_factory.hpp:77] Creating layer conv1_postscale
I0411 02:23:21.998723  7478 net.cpp:100] Creating Layer conv1_postscale
I0411 02:23:21.998725  7478 net.cpp:434] conv1_postscale <- conv1
I0411 02:23:21.998733  7478 net.cpp:395] conv1_postscale -> conv1 (in-place)
I0411 02:23:21.998847  7478 net.cpp:150] Setting up conv1_postscale
I0411 02:23:21.998857  7478 net.cpp:157] Top shape: 1024 100 42 42 (180633600)
I0411 02:23:21.998862  7478 net.cpp:165] Memory required for data: 2918465536
I0411 02:23:21.998867  7478 layer_factory.hpp:77] Creating layer pool1
I0411 02:23:21.998873  7478 net.cpp:100] Creating Layer pool1
I0411 02:23:21.998877  7478 net.cpp:434] pool1 <- conv1
I0411 02:23:21.998883  7478 net.cpp:408] pool1 -> pool1
I0411 02:23:21.998929  7478 net.cpp:150] Setting up pool1
I0411 02:23:21.998937  7478 net.cpp:157] Top shape: 1024 100 21 21 (45158400)
I0411 02:23:21.998940  7478 net.cpp:165] Memory required for data: 3099099136
I0411 02:23:21.998944  7478 layer_factory.hpp:77] Creating layer conv2
I0411 02:23:21.998953  7478 net.cpp:100] Creating Layer conv2
I0411 02:23:21.998960  7478 net.cpp:434] conv2 <- pool1
I0411 02:23:21.998966  7478 net.cpp:408] conv2 -> conv2
I0411 02:23:22.002890  7478 net.cpp:150] Setting up conv2
I0411 02:23:22.002907  7478 net.cpp:157] Top shape: 1024 150 18 18 (49766400)
I0411 02:23:22.002910  7478 net.cpp:165] Memory required for data: 3298164736
I0411 02:23:22.002920  7478 layer_factory.hpp:77] Creating layer conv2_prescale
I0411 02:23:22.002931  7478 net.cpp:100] Creating Layer conv2_prescale
I0411 02:23:22.002935  7478 net.cpp:434] conv2_prescale <- conv2
I0411 02:23:22.002941  7478 net.cpp:395] conv2_prescale -> conv2 (in-place)
I0411 02:23:22.003062  7478 net.cpp:150] Setting up conv2_prescale
I0411 02:23:22.003072  7478 net.cpp:157] Top shape: 1024 150 18 18 (49766400)
I0411 02:23:22.003075  7478 net.cpp:165] Memory required for data: 3497230336
I0411 02:23:22.003080  7478 layer_factory.hpp:77] Creating layer conv2_sTanH
I0411 02:23:22.003085  7478 net.cpp:100] Creating Layer conv2_sTanH
I0411 02:23:22.003088  7478 net.cpp:434] conv2_sTanH <- conv2
I0411 02:23:22.003094  7478 net.cpp:395] conv2_sTanH -> conv2 (in-place)
I0411 02:23:22.003911  7478 net.cpp:150] Setting up conv2_sTanH
I0411 02:23:22.003926  7478 net.cpp:157] Top shape: 1024 150 18 18 (49766400)
I0411 02:23:22.003929  7478 net.cpp:165] Memory required for data: 3696295936
I0411 02:23:22.003933  7478 layer_factory.hpp:77] Creating layer conv2_postscale
I0411 02:23:22.003942  7478 net.cpp:100] Creating Layer conv2_postscale
I0411 02:23:22.003948  7478 net.cpp:434] conv2_postscale <- conv2
I0411 02:23:22.003954  7478 net.cpp:395] conv2_postscale -> conv2 (in-place)
I0411 02:23:22.004067  7478 net.cpp:150] Setting up conv2_postscale
I0411 02:23:22.004086  7478 net.cpp:157] Top shape: 1024 150 18 18 (49766400)
I0411 02:23:22.004089  7478 net.cpp:165] Memory required for data: 3895361536
I0411 02:23:22.004111  7478 layer_factory.hpp:77] Creating layer pool2
I0411 02:23:22.004117  7478 net.cpp:100] Creating Layer pool2
I0411 02:23:22.004120  7478 net.cpp:434] pool2 <- conv2
I0411 02:23:22.004128  7478 net.cpp:408] pool2 -> pool2
I0411 02:23:22.004178  7478 net.cpp:150] Setting up pool2
I0411 02:23:22.004186  7478 net.cpp:157] Top shape: 1024 150 9 9 (12441600)
I0411 02:23:22.004190  7478 net.cpp:165] Memory required for data: 3945127936
I0411 02:23:22.004192  7478 layer_factory.hpp:77] Creating layer conv3
I0411 02:23:22.004202  7478 net.cpp:100] Creating Layer conv3
I0411 02:23:22.004206  7478 net.cpp:434] conv3 <- pool2
I0411 02:23:22.004211  7478 net.cpp:408] conv3 -> conv3
I0411 02:23:22.009793  7478 net.cpp:150] Setting up conv3
I0411 02:23:22.009814  7478 net.cpp:157] Top shape: 1024 250 6 6 (9216000)
I0411 02:23:22.009817  7478 net.cpp:165] Memory required for data: 3981991936
I0411 02:23:22.009829  7478 layer_factory.hpp:77] Creating layer conv3_prescale
I0411 02:23:22.009838  7478 net.cpp:100] Creating Layer conv3_prescale
I0411 02:23:22.009842  7478 net.cpp:434] conv3_prescale <- conv3
I0411 02:23:22.009850  7478 net.cpp:395] conv3_prescale -> conv3 (in-place)
I0411 02:23:22.009951  7478 net.cpp:150] Setting up conv3_prescale
I0411 02:23:22.009963  7478 net.cpp:157] Top shape: 1024 250 6 6 (9216000)
I0411 02:23:22.009965  7478 net.cpp:165] Memory required for data: 4018855936
I0411 02:23:22.009970  7478 layer_factory.hpp:77] Creating layer conv3_sTanH
I0411 02:23:22.009975  7478 net.cpp:100] Creating Layer conv3_sTanH
I0411 02:23:22.009979  7478 net.cpp:434] conv3_sTanH <- conv3
I0411 02:23:22.009984  7478 net.cpp:395] conv3_sTanH -> conv3 (in-place)
I0411 02:23:22.010761  7478 net.cpp:150] Setting up conv3_sTanH
I0411 02:23:22.010781  7478 net.cpp:157] Top shape: 1024 250 6 6 (9216000)
I0411 02:23:22.010784  7478 net.cpp:165] Memory required for data: 4055719936
I0411 02:23:22.010787  7478 layer_factory.hpp:77] Creating layer conv3_postscale
I0411 02:23:22.010794  7478 net.cpp:100] Creating Layer conv3_postscale
I0411 02:23:22.010797  7478 net.cpp:434] conv3_postscale <- conv3
I0411 02:23:22.010804  7478 net.cpp:395] conv3_postscale -> conv3 (in-place)
I0411 02:23:22.010908  7478 net.cpp:150] Setting up conv3_postscale
I0411 02:23:22.010918  7478 net.cpp:157] Top shape: 1024 250 6 6 (9216000)
I0411 02:23:22.010921  7478 net.cpp:165] Memory required for data: 4092583936
I0411 02:23:22.010926  7478 layer_factory.hpp:77] Creating layer pool3
I0411 02:23:22.010938  7478 net.cpp:100] Creating Layer pool3
I0411 02:23:22.010943  7478 net.cpp:434] pool3 <- conv3
I0411 02:23:22.010949  7478 net.cpp:408] pool3 -> pool3
I0411 02:23:22.010993  7478 net.cpp:150] Setting up pool3
I0411 02:23:22.011003  7478 net.cpp:157] Top shape: 1024 250 3 3 (2304000)
I0411 02:23:22.011005  7478 net.cpp:165] Memory required for data: 4101799936
I0411 02:23:22.011008  7478 layer_factory.hpp:77] Creating layer fc4_300
I0411 02:23:22.011015  7478 net.cpp:100] Creating Layer fc4_300
I0411 02:23:22.011019  7478 net.cpp:434] fc4_300 <- pool3
I0411 02:23:22.011025  7478 net.cpp:408] fc4_300 -> fc4_300
I0411 02:23:22.016345  7478 net.cpp:150] Setting up fc4_300
I0411 02:23:22.016360  7478 net.cpp:157] Top shape: 1024 300 (307200)
I0411 02:23:22.016363  7478 net.cpp:165] Memory required for data: 4103028736
I0411 02:23:22.016369  7478 layer_factory.hpp:77] Creating layer fc4_prescale
I0411 02:23:22.016378  7478 net.cpp:100] Creating Layer fc4_prescale
I0411 02:23:22.016382  7478 net.cpp:434] fc4_prescale <- fc4_300
I0411 02:23:22.016387  7478 net.cpp:395] fc4_prescale -> fc4_300 (in-place)
I0411 02:23:22.016480  7478 net.cpp:150] Setting up fc4_prescale
I0411 02:23:22.016489  7478 net.cpp:157] Top shape: 1024 300 (307200)
I0411 02:23:22.016492  7478 net.cpp:165] Memory required for data: 4104257536
I0411 02:23:22.016496  7478 layer_factory.hpp:77] Creating layer fc4_sTanH
I0411 02:23:22.016501  7478 net.cpp:100] Creating Layer fc4_sTanH
I0411 02:23:22.016505  7478 net.cpp:434] fc4_sTanH <- fc4_300
I0411 02:23:22.016508  7478 net.cpp:395] fc4_sTanH -> fc4_300 (in-place)
I0411 02:23:22.016726  7478 net.cpp:150] Setting up fc4_sTanH
I0411 02:23:22.016738  7478 net.cpp:157] Top shape: 1024 300 (307200)
I0411 02:23:22.016744  7478 net.cpp:165] Memory required for data: 4105486336
I0411 02:23:22.016748  7478 layer_factory.hpp:77] Creating layer fc4_postscale
I0411 02:23:22.016754  7478 net.cpp:100] Creating Layer fc4_postscale
I0411 02:23:22.016757  7478 net.cpp:434] fc4_postscale <- fc4_300
I0411 02:23:22.016762  7478 net.cpp:395] fc4_postscale -> fc4_300 (in-place)
I0411 02:23:22.016865  7478 net.cpp:150] Setting up fc4_postscale
I0411 02:23:22.016873  7478 net.cpp:157] Top shape: 1024 300 (307200)
I0411 02:23:22.016876  7478 net.cpp:165] Memory required for data: 4106715136
I0411 02:23:22.016881  7478 layer_factory.hpp:77] Creating layer fc5_67
I0411 02:23:22.016888  7478 net.cpp:100] Creating Layer fc5_67
I0411 02:23:22.016893  7478 net.cpp:434] fc5_67 <- fc4_300
I0411 02:23:22.016898  7478 net.cpp:408] fc5_67 -> fc5_classes
I0411 02:23:22.017150  7478 net.cpp:150] Setting up fc5_67
I0411 02:23:22.017159  7478 net.cpp:157] Top shape: 1024 67 (68608)
I0411 02:23:22.017163  7478 net.cpp:165] Memory required for data: 4106989568
I0411 02:23:22.017174  7478 layer_factory.hpp:77] Creating layer fc5_classes_fc5_67_0_split
I0411 02:23:22.017180  7478 net.cpp:100] Creating Layer fc5_classes_fc5_67_0_split
I0411 02:23:22.017184  7478 net.cpp:434] fc5_classes_fc5_67_0_split <- fc5_classes
I0411 02:23:22.017189  7478 net.cpp:408] fc5_classes_fc5_67_0_split -> fc5_classes_fc5_67_0_split_0
I0411 02:23:22.017199  7478 net.cpp:408] fc5_classes_fc5_67_0_split -> fc5_classes_fc5_67_0_split_1
I0411 02:23:22.017205  7478 net.cpp:408] fc5_classes_fc5_67_0_split -> fc5_classes_fc5_67_0_split_2
I0411 02:23:22.017261  7478 net.cpp:150] Setting up fc5_classes_fc5_67_0_split
I0411 02:23:22.017268  7478 net.cpp:157] Top shape: 1024 67 (68608)
I0411 02:23:22.017272  7478 net.cpp:157] Top shape: 1024 67 (68608)
I0411 02:23:22.017276  7478 net.cpp:157] Top shape: 1024 67 (68608)
I0411 02:23:22.017277  7478 net.cpp:165] Memory required for data: 4107812864
I0411 02:23:22.017280  7478 layer_factory.hpp:77] Creating layer loss
I0411 02:23:22.017287  7478 net.cpp:100] Creating Layer loss
I0411 02:23:22.017292  7478 net.cpp:434] loss <- fc5_classes_fc5_67_0_split_0
I0411 02:23:22.017295  7478 net.cpp:434] loss <- label_data_1_split_0
I0411 02:23:22.017302  7478 net.cpp:408] loss -> loss
…
