…
I0412 08:39:15.786622 22229 solver.cpp:93] Creating training net from train_net file: ./Prototxt/experiment_10/rtsd-r1/histeq/trial_5/train.prototxt
I0412 08:39:15.787022 22229 net.cpp:58] Initializing net from parameters: 
state {
  phase: TRAIN
  level: 0
  stage: ""
}
layer {
  name: "data"
  type: "Data"
  top: "data"
  top: "label"
  include {
    phase: TRAIN
  }
  transform_param {
    scale: 0.0039215689
    mirror: false
    crop_size: 48
    mean_value: 130
    mean_value: 123
    mean_value: 137
  }
  data_param {
    source: "../local_data/lmdb/rtsd-r1/histeq/train/lmdb"
    batch_size: 1024
    backend: LMDB
  }
}
layer {
  name: "conv1"
  type: "Convolution"
  bottom: "data"
  top: "conv1"
  convolution_param {
    num_output: 100
    pad: 0
    kernel_size: 7
    group: 1
    stride: 1
    weight_filler {
      type: "xavier"
    }
  }
}
layer {
  name: "conv1_relu"
  type: "ReLU"
  bottom: "conv1"
  top: "conv1"
}
layer {
  name: "pool1"
  type: "Pooling"
  bottom: "conv1"
  top: "pool1"
  pooling_param {
    pool: MAX
    kernel_size: 2
    stride: 2
  }
}
layer {
  name: "conv2"
  type: "Convolution"
  bottom: "pool1"
  top: "conv2"
  convolution_param {
    num_output: 150
    pad: 0
    kernel_size: 4
    group: 1
    stride: 1
    weight_filler {
      type: "xavier"
    }
  }
}
layer {
  name: "conv2_relu"
  type: "ReLU"
  bottom: "conv2"
  top: "conv2"
}
layer {
  name: "pool2"
  type: "Pooling"
  bottom: "conv2"
  top: "pool2"
  pooling_param {
    pool: MAX
    kernel_size: 2
    stride: 2
  }
}
layer {
  name: "conv3"
  type: "Convolution"
  bottom: "pool2"
  top: "conv3"
  convolution_param {
    num_output: 250
    pad: 0
    kernel_size: 4
    group: 1
    stride: 1
    weight_filler {
      type: "xavier"
    }
  }
}
layer {
  name: "conv3_relu"
  type: "ReLU"
  bottom: "conv3"
  top: "conv3"
}
layer {
  name: "pool3"
  type: "Pooling"
  bottom: "conv3"
  top: "pool3"
  pooling_param {
    pool: MAX
    kernel_size: 2
    stride: 2
  }
}
layer {
  name: "fc4_300"
  type: "InnerProduct"
  bottom: "pool3"
  top: "fc4_300"
  inner_product_param {
    num_output: 300
    weight_filler {
      type: "xavier"
    }
  }
}
layer {
  name: "fc4_relu"
  type: "ReLU"
  bottom: "fc4_300"
  top: "fc4_300"
}
layer {
  name: "drop4"
  type: "Dropout"
  bottom: "fc4_300"
  top: "fc4_300"
  dropout_param {
    dropout_ratio: 0.4
  }
}
layer {
  name: "fc5_67"
  type: "InnerProduct"
  bottom: "fc4_300"
  top: "fc5_classes"
  inner_product_param {
    num_output: 67
    weight_filler {
      type: "xavier"
    }
  }
}
layer {
  name: "softmax"
  type: "Softmax"
  bottom: "fc5_classes"
  top: "softmax"
}
layer {
  name: "loss"
  type: "MultinomialLogisticLoss"
  bottom: "softmax"
  bottom: "label"
  top: "loss"
}
layer {
  name: "accuracy_1"
  type: "Accuracy"
  bottom: "fc5_classes"
  bottom: "label"
  top: "accuracy_1"
  accuracy_param {
    top_k: 1
  }
}
layer {
  name: "accuracy_5"
  type: "Accuracy"
  bottom: "fc5_classes"
  bottom: "label"
  top: "accuracy_5"
  accuracy_param {
    top_k: 5
  }
}
I0412 08:39:15.787209 22229 layer_factory.hpp:77] Creating layer data
I0412 08:39:15.788503 22229 net.cpp:100] Creating Layer data
I0412 08:39:15.788527 22229 net.cpp:408] data -> data
I0412 08:39:15.788558 22229 net.cpp:408] data -> label
I0412 08:39:15.792292 22348 db_lmdb.cpp:35] Opened lmdb ../local_data/lmdb/rtsd-r1/histeq/train/lmdb
I0412 08:39:15.812237 22229 data_layer.cpp:41] output data size: 1024,3,48,48
I0412 08:39:15.870935 22229 net.cpp:150] Setting up data
I0412 08:39:15.870966 22229 net.cpp:157] Top shape: 1024 3 48 48 (7077888)
I0412 08:39:15.870973 22229 net.cpp:157] Top shape: 1024 (1024)
I0412 08:39:15.870976 22229 net.cpp:165] Memory required for data: 28315648
I0412 08:39:15.870988 22229 layer_factory.hpp:77] Creating layer label_data_1_split
I0412 08:39:15.871004 22229 net.cpp:100] Creating Layer label_data_1_split
I0412 08:39:15.871011 22229 net.cpp:434] label_data_1_split <- label
I0412 08:39:15.871026 22229 net.cpp:408] label_data_1_split -> label_data_1_split_0
I0412 08:39:15.871042 22229 net.cpp:408] label_data_1_split -> label_data_1_split_1
I0412 08:39:15.871050 22229 net.cpp:408] label_data_1_split -> label_data_1_split_2
I0412 08:39:15.871166 22229 net.cpp:150] Setting up label_data_1_split
I0412 08:39:15.871178 22229 net.cpp:157] Top shape: 1024 (1024)
I0412 08:39:15.871184 22229 net.cpp:157] Top shape: 1024 (1024)
I0412 08:39:15.871189 22229 net.cpp:157] Top shape: 1024 (1024)
I0412 08:39:15.871192 22229 net.cpp:165] Memory required for data: 28327936
I0412 08:39:15.871196 22229 layer_factory.hpp:77] Creating layer conv1
I0412 08:39:15.871220 22229 net.cpp:100] Creating Layer conv1
I0412 08:39:15.871229 22229 net.cpp:434] conv1 <- data
I0412 08:39:15.871237 22229 net.cpp:408] conv1 -> conv1
I0412 08:39:16.238677 22229 net.cpp:150] Setting up conv1
I0412 08:39:16.238713 22229 net.cpp:157] Top shape: 1024 100 42 42 (180633600)
I0412 08:39:16.238718 22229 net.cpp:165] Memory required for data: 750862336
I0412 08:39:16.238742 22229 layer_factory.hpp:77] Creating layer conv1_relu
I0412 08:39:16.238761 22229 net.cpp:100] Creating Layer conv1_relu
I0412 08:39:16.238770 22229 net.cpp:434] conv1_relu <- conv1
I0412 08:39:16.238776 22229 net.cpp:395] conv1_relu -> conv1 (in-place)
I0412 08:39:16.239007 22229 net.cpp:150] Setting up conv1_relu
I0412 08:39:16.239020 22229 net.cpp:157] Top shape: 1024 100 42 42 (180633600)
I0412 08:39:16.239027 22229 net.cpp:165] Memory required for data: 1473396736
I0412 08:39:16.239030 22229 layer_factory.hpp:77] Creating layer pool1
I0412 08:39:16.239042 22229 net.cpp:100] Creating Layer pool1
I0412 08:39:16.239048 22229 net.cpp:434] pool1 <- conv1
I0412 08:39:16.239053 22229 net.cpp:408] pool1 -> pool1
I0412 08:39:16.239117 22229 net.cpp:150] Setting up pool1
I0412 08:39:16.239127 22229 net.cpp:157] Top shape: 1024 100 21 21 (45158400)
I0412 08:39:16.239132 22229 net.cpp:165] Memory required for data: 1654030336
I0412 08:39:16.239136 22229 layer_factory.hpp:77] Creating layer conv2
I0412 08:39:16.239150 22229 net.cpp:100] Creating Layer conv2
I0412 08:39:16.239154 22229 net.cpp:434] conv2 <- pool1
I0412 08:39:16.239161 22229 net.cpp:408] conv2 -> conv2
I0412 08:39:16.244369 22229 net.cpp:150] Setting up conv2
I0412 08:39:16.244390 22229 net.cpp:157] Top shape: 1024 150 18 18 (49766400)
I0412 08:39:16.244396 22229 net.cpp:165] Memory required for data: 1853095936
I0412 08:39:16.244408 22229 layer_factory.hpp:77] Creating layer conv2_relu
I0412 08:39:16.244417 22229 net.cpp:100] Creating Layer conv2_relu
I0412 08:39:16.244423 22229 net.cpp:434] conv2_relu <- conv2
I0412 08:39:16.244429 22229 net.cpp:395] conv2_relu -> conv2 (in-place)
I0412 08:39:16.245311 22229 net.cpp:150] Setting up conv2_relu
I0412 08:39:16.245328 22229 net.cpp:157] Top shape: 1024 150 18 18 (49766400)
I0412 08:39:16.245333 22229 net.cpp:165] Memory required for data: 2052161536
I0412 08:39:16.245338 22229 layer_factory.hpp:77] Creating layer pool2
I0412 08:39:16.245347 22229 net.cpp:100] Creating Layer pool2
I0412 08:39:16.245352 22229 net.cpp:434] pool2 <- conv2
I0412 08:39:16.245358 22229 net.cpp:408] pool2 -> pool2
I0412 08:39:16.245414 22229 net.cpp:150] Setting up pool2
I0412 08:39:16.245425 22229 net.cpp:157] Top shape: 1024 150 9 9 (12441600)
I0412 08:39:16.245429 22229 net.cpp:165] Memory required for data: 2101927936
I0412 08:39:16.245434 22229 layer_factory.hpp:77] Creating layer conv3
I0412 08:39:16.245445 22229 net.cpp:100] Creating Layer conv3
I0412 08:39:16.245451 22229 net.cpp:434] conv3 <- pool2
I0412 08:39:16.245479 22229 net.cpp:408] conv3 -> conv3
I0412 08:39:16.252161 22229 net.cpp:150] Setting up conv3
I0412 08:39:16.252179 22229 net.cpp:157] Top shape: 1024 250 6 6 (9216000)
I0412 08:39:16.252185 22229 net.cpp:165] Memory required for data: 2138791936
I0412 08:39:16.252197 22229 layer_factory.hpp:77] Creating layer conv3_relu
I0412 08:39:16.252207 22229 net.cpp:100] Creating Layer conv3_relu
I0412 08:39:16.252213 22229 net.cpp:434] conv3_relu <- conv3
I0412 08:39:16.252218 22229 net.cpp:395] conv3_relu -> conv3 (in-place)
I0412 08:39:16.253105 22229 net.cpp:150] Setting up conv3_relu
I0412 08:39:16.253123 22229 net.cpp:157] Top shape: 1024 250 6 6 (9216000)
I0412 08:39:16.253129 22229 net.cpp:165] Memory required for data: 2175655936
I0412 08:39:16.253134 22229 layer_factory.hpp:77] Creating layer pool3
I0412 08:39:16.253144 22229 net.cpp:100] Creating Layer pool3
I0412 08:39:16.253149 22229 net.cpp:434] pool3 <- conv3
I0412 08:39:16.253156 22229 net.cpp:408] pool3 -> pool3
I0412 08:39:16.253211 22229 net.cpp:150] Setting up pool3
I0412 08:39:16.253221 22229 net.cpp:157] Top shape: 1024 250 3 3 (2304000)
I0412 08:39:16.253226 22229 net.cpp:165] Memory required for data: 2184871936
I0412 08:39:16.253228 22229 layer_factory.hpp:77] Creating layer fc4_300
I0412 08:39:16.253237 22229 net.cpp:100] Creating Layer fc4_300
I0412 08:39:16.253242 22229 net.cpp:434] fc4_300 <- pool3
I0412 08:39:16.253247 22229 net.cpp:408] fc4_300 -> fc4_300
I0412 08:39:16.259846 22229 net.cpp:150] Setting up fc4_300
I0412 08:39:16.259865 22229 net.cpp:157] Top shape: 1024 300 (307200)
I0412 08:39:16.259869 22229 net.cpp:165] Memory required for data: 2186100736
I0412 08:39:16.259884 22229 layer_factory.hpp:77] Creating layer fc4_relu
I0412 08:39:16.259899 22229 net.cpp:100] Creating Layer fc4_relu
I0412 08:39:16.259903 22229 net.cpp:434] fc4_relu <- fc4_300
I0412 08:39:16.259909 22229 net.cpp:395] fc4_relu -> fc4_300 (in-place)
I0412 08:39:16.260128 22229 net.cpp:150] Setting up fc4_relu
I0412 08:39:16.260140 22229 net.cpp:157] Top shape: 1024 300 (307200)
I0412 08:39:16.260145 22229 net.cpp:165] Memory required for data: 2187329536
I0412 08:39:16.260149 22229 layer_factory.hpp:77] Creating layer drop4
I0412 08:39:16.260157 22229 net.cpp:100] Creating Layer drop4
I0412 08:39:16.260164 22229 net.cpp:434] drop4 <- fc4_300
I0412 08:39:16.260169 22229 net.cpp:395] drop4 -> fc4_300 (in-place)
I0412 08:39:16.260203 22229 net.cpp:150] Setting up drop4
I0412 08:39:16.260212 22229 net.cpp:157] Top shape: 1024 300 (307200)
I0412 08:39:16.260217 22229 net.cpp:165] Memory required for data: 2188558336
I0412 08:39:16.260221 22229 layer_factory.hpp:77] Creating layer fc5_67
I0412 08:39:16.260228 22229 net.cpp:100] Creating Layer fc5_67
I0412 08:39:16.260233 22229 net.cpp:434] fc5_67 <- fc4_300
I0412 08:39:16.260239 22229 net.cpp:408] fc5_67 -> fc5_classes
I0412 08:39:16.261848 22229 net.cpp:150] Setting up fc5_67
I0412 08:39:16.261867 22229 net.cpp:157] Top shape: 1024 67 (68608)
I0412 08:39:16.261871 22229 net.cpp:165] Memory required for data: 2188832768
I0412 08:39:16.261883 22229 layer_factory.hpp:77] Creating layer fc5_classes_fc5_67_0_split
I0412 08:39:16.261893 22229 net.cpp:100] Creating Layer fc5_classes_fc5_67_0_split
I0412 08:39:16.261899 22229 net.cpp:434] fc5_classes_fc5_67_0_split <- fc5_classes
I0412 08:39:16.261906 22229 net.cpp:408] fc5_classes_fc5_67_0_split -> fc5_classes_fc5_67_0_split_0
I0412 08:39:16.261917 22229 net.cpp:408] fc5_classes_fc5_67_0_split -> fc5_classes_fc5_67_0_split_1
I0412 08:39:16.261925 22229 net.cpp:408] fc5_classes_fc5_67_0_split -> fc5_classes_fc5_67_0_split_2
I0412 08:39:16.261984 22229 net.cpp:150] Setting up fc5_classes_fc5_67_0_split
I0412 08:39:16.261993 22229 net.cpp:157] Top shape: 1024 67 (68608)
I0412 08:39:16.261997 22229 net.cpp:157] Top shape: 1024 67 (68608)
I0412 08:39:16.262003 22229 net.cpp:157] Top shape: 1024 67 (68608)
I0412 08:39:16.262006 22229 net.cpp:165] Memory required for data: 2189656064
I0412 08:39:16.262011 22229 layer_factory.hpp:77] Creating layer softmax
I0412 08:39:16.262037 22229 net.cpp:100] Creating Layer softmax
I0412 08:39:16.262044 22229 net.cpp:434] softmax <- fc5_classes_fc5_67_0_split_0
I0412 08:39:16.262051 22229 net.cpp:408] softmax -> softmax
I0412 08:39:16.262342 22229 net.cpp:150] Setting up softmax
I0412 08:39:16.262356 22229 net.cpp:157] Top shape: 1024 67 (68608)
I0412 08:39:16.262361 22229 net.cpp:165] Memory required for data: 2189930496
I0412 08:39:16.262364 22229 layer_factory.hpp:77] Creating layer loss
I0412 08:39:16.262372 22229 net.cpp:100] Creating Layer loss
I0412 08:39:16.262378 22229 net.cpp:434] loss <- softmax
I0412 08:39:16.262383 22229 net.cpp:434] loss <- label_data_1_split_0
I0412 08:39:16.262390 22229 net.cpp:408] loss -> loss
…
