…
I0414 07:52:42.590956 10920 solver.cpp:93] Creating training net from train_net file: ./Prototxt/experiment_10/rtsd-r1/histeq/trial_5/train.prototxt
I0414 07:52:42.591347 10920 net.cpp:58] Initializing net from parameters: 
state {
  phase: TRAIN
  level: 0
  stage: ""
}
layer {
  name: "data"
  type: "Data"
  top: "data"
  top: "label"
  include {
    phase: TRAIN
  }
  transform_param {
    scale: 0.0039215689
    mirror: false
    crop_size: 48
    mean_value: 130
    mean_value: 123
    mean_value: 137
  }
  data_param {
    source: "../local_data/lmdb/rtsd-r1/histeq/train/lmdb"
    batch_size: 1024
    backend: LMDB
  }
}
layer {
  name: "conv1"
  type: "Convolution"
  bottom: "data"
  top: "conv1"
  convolution_param {
    num_output: 100
    pad: 0
    kernel_size: 7
    group: 1
    stride: 1
    weight_filler {
      type: "xavier"
    }
  }
}
layer {
  name: "conv1_relu"
  type: "ReLU"
  bottom: "conv1"
  top: "conv1"
}
layer {
  name: "pool1"
  type: "Pooling"
  bottom: "conv1"
  top: "pool1"
  pooling_param {
    pool: MAX
    kernel_size: 2
    stride: 2
  }
}
layer {
  name: "conv2"
  type: "Convolution"
  bottom: "pool1"
  top: "conv2"
  convolution_param {
    num_output: 150
    pad: 0
    kernel_size: 4
    group: 1
    stride: 1
    weight_filler {
      type: "xavier"
    }
  }
}
layer {
  name: "conv2_relu"
  type: "ReLU"
  bottom: "conv2"
  top: "conv2"
}
layer {
  name: "pool2"
  type: "Pooling"
  bottom: "conv2"
  top: "pool2"
  pooling_param {
    pool: MAX
    kernel_size: 2
    stride: 2
  }
}
layer {
  name: "conv3"
  type: "Convolution"
  bottom: "pool2"
  top: "conv3"
  convolution_param {
    num_output: 250
    pad: 0
    kernel_size: 4
    group: 1
    stride: 1
    weight_filler {
      type: "xavier"
    }
  }
}
layer {
  name: "conv3_relu"
  type: "ReLU"
  bottom: "conv3"
  top: "conv3"
}
layer {
  name: "pool3"
  type: "Pooling"
  bottom: "conv3"
  top: "pool3"
  pooling_param {
    pool: MAX
    kernel_size: 2
    stride: 2
  }
}
layer {
  name: "fc4_300"
  type: "InnerProduct"
  bottom: "pool3"
  top: "fc4_300"
  inner_product_param {
    num_output: 300
    weight_filler {
      type: "xavier"
    }
  }
}
layer {
  name: "fc4_relu"
  type: "ReLU"
  bottom: "fc4_300"
  top: "fc4_300"
}
layer {
  name: "fc5_67"
  type: "InnerProduct"
  bottom: "fc4_300"
  top: "fc5_classes"
  inner_product_param {
    num_output: 67
    weight_filler {
      type: "xavier"
    }
  }
}
layer {
  name: "softmax"
  type: "Softmax"
  bottom: "fc5_classes"
  top: "softmax"
}
layer {
  name: "loss"
  type: "MultinomialLogisticLoss"
  bottom: "softmax"
  bottom: "label"
  top: "loss"
}
layer {
  name: "accuracy_1"
  type: "Accuracy"
  bottom: "fc5_classes"
  bottom: "label"
  top: "accuracy_1"
  accuracy_param {
    top_k: 1
  }
}
layer {
  name: "accuracy_5"
  type: "Accuracy"
  bottom: "fc5_classes"
  bottom: "label"
  top: "accuracy_5"
  accuracy_param {
    top_k: 5
  }
}
layer {
  name: "silence"
  type: "Silence"
  bottom: "accuracy_1"
  bottom: "accuracy_5"
}
I0414 07:52:42.591485 10920 layer_factory.hpp:77] Creating layer data
I0414 07:52:42.592712 10920 net.cpp:100] Creating Layer data
I0414 07:52:42.592731 10920 net.cpp:408] data -> data
I0414 07:52:42.592757 10920 net.cpp:408] data -> label
I0414 07:52:42.607254 11035 db_lmdb.cpp:35] Opened lmdb ../local_data/lmdb/rtsd-r1/histeq/train/lmdb
I0414 07:52:42.626396 10920 data_layer.cpp:41] output data size: 1024,3,48,48
I0414 07:52:42.690851 10920 net.cpp:150] Setting up data
I0414 07:52:42.690901 10920 net.cpp:157] Top shape: 1024 3 48 48 (7077888)
I0414 07:52:42.690907 10920 net.cpp:157] Top shape: 1024 (1024)
I0414 07:52:42.690909 10920 net.cpp:165] Memory required for data: 28315648
I0414 07:52:42.690920 10920 layer_factory.hpp:77] Creating layer label_data_1_split
I0414 07:52:42.690937 10920 net.cpp:100] Creating Layer label_data_1_split
I0414 07:52:42.690943 10920 net.cpp:434] label_data_1_split <- label
I0414 07:52:42.690958 10920 net.cpp:408] label_data_1_split -> label_data_1_split_0
I0414 07:52:42.690970 10920 net.cpp:408] label_data_1_split -> label_data_1_split_1
I0414 07:52:42.690979 10920 net.cpp:408] label_data_1_split -> label_data_1_split_2
I0414 07:52:42.691062 10920 net.cpp:150] Setting up label_data_1_split
I0414 07:52:42.691071 10920 net.cpp:157] Top shape: 1024 (1024)
I0414 07:52:42.691074 10920 net.cpp:157] Top shape: 1024 (1024)
I0414 07:52:42.691078 10920 net.cpp:157] Top shape: 1024 (1024)
I0414 07:52:42.691082 10920 net.cpp:165] Memory required for data: 28327936
I0414 07:52:42.691084 10920 layer_factory.hpp:77] Creating layer conv1
I0414 07:52:42.691102 10920 net.cpp:100] Creating Layer conv1
I0414 07:52:42.691107 10920 net.cpp:434] conv1 <- data
I0414 07:52:42.691113 10920 net.cpp:408] conv1 -> conv1
I0414 07:52:43.140825 10920 net.cpp:150] Setting up conv1
I0414 07:52:43.140851 10920 net.cpp:157] Top shape: 1024 100 42 42 (180633600)
I0414 07:52:43.140856 10920 net.cpp:165] Memory required for data: 750862336
I0414 07:52:43.140877 10920 layer_factory.hpp:77] Creating layer conv1_relu
I0414 07:52:43.140887 10920 net.cpp:100] Creating Layer conv1_relu
I0414 07:52:43.140892 10920 net.cpp:434] conv1_relu <- conv1
I0414 07:52:43.140897 10920 net.cpp:395] conv1_relu -> conv1 (in-place)
I0414 07:52:43.141094 10920 net.cpp:150] Setting up conv1_relu
I0414 07:52:43.141106 10920 net.cpp:157] Top shape: 1024 100 42 42 (180633600)
I0414 07:52:43.141110 10920 net.cpp:165] Memory required for data: 1473396736
I0414 07:52:43.141114 10920 layer_factory.hpp:77] Creating layer pool1
I0414 07:52:43.141124 10920 net.cpp:100] Creating Layer pool1
I0414 07:52:43.141129 10920 net.cpp:434] pool1 <- conv1
I0414 07:52:43.141134 10920 net.cpp:408] pool1 -> pool1
I0414 07:52:43.141187 10920 net.cpp:150] Setting up pool1
I0414 07:52:43.141196 10920 net.cpp:157] Top shape: 1024 100 21 21 (45158400)
I0414 07:52:43.141201 10920 net.cpp:165] Memory required for data: 1654030336
I0414 07:52:43.141204 10920 layer_factory.hpp:77] Creating layer conv2
I0414 07:52:43.141214 10920 net.cpp:100] Creating Layer conv2
I0414 07:52:43.141219 10920 net.cpp:434] conv2 <- pool1
I0414 07:52:43.141224 10920 net.cpp:408] conv2 -> conv2
I0414 07:52:43.152559 10920 net.cpp:150] Setting up conv2
I0414 07:52:43.152575 10920 net.cpp:157] Top shape: 1024 150 18 18 (49766400)
I0414 07:52:43.152580 10920 net.cpp:165] Memory required for data: 1853095936
I0414 07:52:43.152590 10920 layer_factory.hpp:77] Creating layer conv2_relu
I0414 07:52:43.152596 10920 net.cpp:100] Creating Layer conv2_relu
I0414 07:52:43.152600 10920 net.cpp:434] conv2_relu <- conv2
I0414 07:52:43.152604 10920 net.cpp:395] conv2_relu -> conv2 (in-place)
I0414 07:52:43.154587 10920 net.cpp:150] Setting up conv2_relu
I0414 07:52:43.154605 10920 net.cpp:157] Top shape: 1024 150 18 18 (49766400)
I0414 07:52:43.154608 10920 net.cpp:165] Memory required for data: 2052161536
I0414 07:52:43.154613 10920 layer_factory.hpp:77] Creating layer pool2
I0414 07:52:43.154619 10920 net.cpp:100] Creating Layer pool2
I0414 07:52:43.154623 10920 net.cpp:434] pool2 <- conv2
I0414 07:52:43.154628 10920 net.cpp:408] pool2 -> pool2
I0414 07:52:43.154675 10920 net.cpp:150] Setting up pool2
I0414 07:52:43.154685 10920 net.cpp:157] Top shape: 1024 150 9 9 (12441600)
I0414 07:52:43.154687 10920 net.cpp:165] Memory required for data: 2101927936
I0414 07:52:43.154690 10920 layer_factory.hpp:77] Creating layer conv3
I0414 07:52:43.154700 10920 net.cpp:100] Creating Layer conv3
I0414 07:52:43.154705 10920 net.cpp:434] conv3 <- pool2
I0414 07:52:43.154709 10920 net.cpp:408] conv3 -> conv3
I0414 07:52:43.161306 10920 net.cpp:150] Setting up conv3
I0414 07:52:43.161325 10920 net.cpp:157] Top shape: 1024 250 6 6 (9216000)
I0414 07:52:43.161329 10920 net.cpp:165] Memory required for data: 2138791936
I0414 07:52:43.161339 10920 layer_factory.hpp:77] Creating layer conv3_relu
I0414 07:52:43.161345 10920 net.cpp:100] Creating Layer conv3_relu
I0414 07:52:43.161350 10920 net.cpp:434] conv3_relu <- conv3
I0414 07:52:43.161353 10920 net.cpp:395] conv3_relu -> conv3 (in-place)
I0414 07:52:43.174204 10920 net.cpp:150] Setting up conv3_relu
I0414 07:52:43.174222 10920 net.cpp:157] Top shape: 1024 250 6 6 (9216000)
I0414 07:52:43.174226 10920 net.cpp:165] Memory required for data: 2175655936
I0414 07:52:43.174229 10920 layer_factory.hpp:77] Creating layer pool3
I0414 07:52:43.174237 10920 net.cpp:100] Creating Layer pool3
I0414 07:52:43.174239 10920 net.cpp:434] pool3 <- conv3
I0414 07:52:43.174245 10920 net.cpp:408] pool3 -> pool3
I0414 07:52:43.174293 10920 net.cpp:150] Setting up pool3
I0414 07:52:43.174300 10920 net.cpp:157] Top shape: 1024 250 3 3 (2304000)
I0414 07:52:43.174304 10920 net.cpp:165] Memory required for data: 2184871936
I0414 07:52:43.174306 10920 layer_factory.hpp:77] Creating layer fc4_300
I0414 07:52:43.174314 10920 net.cpp:100] Creating Layer fc4_300
I0414 07:52:43.174316 10920 net.cpp:434] fc4_300 <- pool3
I0414 07:52:43.174321 10920 net.cpp:408] fc4_300 -> fc4_300
I0414 07:52:43.181828 10920 net.cpp:150] Setting up fc4_300
I0414 07:52:43.181848 10920 net.cpp:157] Top shape: 1024 300 (307200)
I0414 07:52:43.181851 10920 net.cpp:165] Memory required for data: 2186100736
I0414 07:52:43.181859 10920 layer_factory.hpp:77] Creating layer fc4_relu
I0414 07:52:43.181864 10920 net.cpp:100] Creating Layer fc4_relu
I0414 07:52:43.181869 10920 net.cpp:434] fc4_relu <- fc4_300
I0414 07:52:43.181874 10920 net.cpp:395] fc4_relu -> fc4_300 (in-place)
I0414 07:52:43.182065 10920 net.cpp:150] Setting up fc4_relu
I0414 07:52:43.182078 10920 net.cpp:157] Top shape: 1024 300 (307200)
I0414 07:52:43.182081 10920 net.cpp:165] Memory required for data: 2187329536
I0414 07:52:43.182085 10920 layer_factory.hpp:77] Creating layer fc5_67
I0414 07:52:43.182091 10920 net.cpp:100] Creating Layer fc5_67
I0414 07:52:43.182095 10920 net.cpp:434] fc5_67 <- fc4_300
I0414 07:52:43.182101 10920 net.cpp:408] fc5_67 -> fc5_classes
I0414 07:52:43.188545 10920 net.cpp:150] Setting up fc5_67
I0414 07:52:43.188561 10920 net.cpp:157] Top shape: 1024 67 (68608)
I0414 07:52:43.188565 10920 net.cpp:165] Memory required for data: 2187603968
I0414 07:52:43.188576 10920 layer_factory.hpp:77] Creating layer fc5_classes_fc5_67_0_split
I0414 07:52:43.188585 10920 net.cpp:100] Creating Layer fc5_classes_fc5_67_0_split
I0414 07:52:43.188588 10920 net.cpp:434] fc5_classes_fc5_67_0_split <- fc5_classes
I0414 07:52:43.188596 10920 net.cpp:408] fc5_classes_fc5_67_0_split -> fc5_classes_fc5_67_0_split_0
I0414 07:52:43.188603 10920 net.cpp:408] fc5_classes_fc5_67_0_split -> fc5_classes_fc5_67_0_split_1
I0414 07:52:43.188611 10920 net.cpp:408] fc5_classes_fc5_67_0_split -> fc5_classes_fc5_67_0_split_2
I0414 07:52:43.188666 10920 net.cpp:150] Setting up fc5_classes_fc5_67_0_split
I0414 07:52:43.188673 10920 net.cpp:157] Top shape: 1024 67 (68608)
I0414 07:52:43.188678 10920 net.cpp:157] Top shape: 1024 67 (68608)
I0414 07:52:43.188680 10920 net.cpp:157] Top shape: 1024 67 (68608)
I0414 07:52:43.188683 10920 net.cpp:165] Memory required for data: 2188427264
I0414 07:52:43.188685 10920 layer_factory.hpp:77] Creating layer softmax
I0414 07:52:43.188691 10920 net.cpp:100] Creating Layer softmax
I0414 07:52:43.188694 10920 net.cpp:434] softmax <- fc5_classes_fc5_67_0_split_0
I0414 07:52:43.188702 10920 net.cpp:408] softmax -> softmax
I0414 07:52:43.188962 10920 net.cpp:150] Setting up softmax
I0414 07:52:43.188974 10920 net.cpp:157] Top shape: 1024 67 (68608)
I0414 07:52:43.188977 10920 net.cpp:165] Memory required for data: 2188701696
I0414 07:52:43.188980 10920 layer_factory.hpp:77] Creating layer loss
I0414 07:52:43.188990 10920 net.cpp:100] Creating Layer loss
I0414 07:52:43.189008 10920 net.cpp:434] loss <- softmax
I0414 07:52:43.189013 10920 net.cpp:434] loss <- label_data_1_split_0
I0414 07:52:43.189018 10920 net.cpp:408] loss -> loss
…
