…
I0529 01:52:17.287839 21194 solver.cpp:81] Creating training net from train_net file: ./Prototxt/experiment_22/RTSD/orig/trial_1/train.prototxt
I0529 01:52:17.296927 21194 net.cpp:58] Initializing net from parameters: 
state {
  phase: TRAIN
  level: 0
  stage: ""
}
layer {
  name: "data"
  type: "Data"
  top: "data"
  top: "label"
  include {
    phase: TRAIN
  }
  transform_param {
    scale: 0.0039215689
    mirror: false
    crop_size: 48
    mean_value: 119
    mean_value: 113
    mean_value: 113
  }
  data_param {
    source: "../local_data/lmdb/RTSD/orig/train/lmdb"
    batch_size: 1024
    backend: LMDB
  }
}
layer {
  name: "conv1"
  type: "Convolution"
  bottom: "data"
  top: "conv1"
  convolution_param {
    num_output: 100
    pad: 0
    kernel_size: 7
    group: 1
    stride: 1
    weight_filler {
      type: "xavier"
    }
  }
}
layer {
  name: "conv1_relu"
  type: "ReLU"
  bottom: "conv1"
  top: "conv1"
}
layer {
  name: "pool1"
  type: "Pooling"
  bottom: "conv1"
  top: "pool1"
  pooling_param {
    pool: MAX
    kernel_size: 2
    stride: 2
  }
}
layer {
  name: "conv2"
  type: "Convolution"
  bottom: "pool1"
  top: "conv2"
  convolution_param {
    num_output: 150
    pad: 0
    kernel_size: 4
    group: 1
    stride: 1
    weight_filler {
      type: "xavier"
    }
  }
}
layer {
  name: "conv2_relu"
  type: "ReLU"
  bottom: "conv2"
  top: "conv2"
}
layer {
  name: "pool2"
  type: "Pooling"
  bottom: "conv2"
  top: "pool2"
  pooling_param {
    pool: MAX
    kernel_size: 2
    stride: 2
  }
}
layer {
  name: "conv3"
  type: "Convolution"
  bottom: "pool2"
  top: "conv3"
  convolution_param {
    num_output: 250
    pad: 0
    kernel_size: 4
    group: 1
    stride: 1
    weight_filler {
      type: "xavier"
    }
  }
}
layer {
  name: "conv3_relu"
  type: "ReLU"
  bottom: "conv3"
  top: "conv3"
}
layer {
  name: "pool3"
  type: "Pooling"
  bottom: "conv3"
  top: "pool3"
  pooling_param {
    pool: MAX
    kernel_size: 2
    stride: 2
  }
}
layer {
  name: "fc4_300"
  type: "InnerProduct"
  bottom: "pool3"
  top: "fc4_300"
  inner_product_param {
    num_output: 300
    weight_filler {
      type: "xavier"
    }
  }
}
layer {
  name: "fc4_relu"
  type: "ReLU"
  bottom: "fc4_300"
  top: "fc4_300"
}
layer {
  name: "fc5_116"
  type: "InnerProduct"
  bottom: "fc4_300"
  top: "fc5_classes"
  inner_product_param {
    num_output: 116
    weight_filler {
      type: "xavier"
    }
  }
}
layer {
  name: "softmax"
  type: "Softmax"
  bottom: "fc5_classes"
  top: "softmax"
}
layer {
  name: "loss"
  type: "MultinomialLogisticLoss"
  bottom: "softmax"
  bottom: "label"
  top: "loss"
}
layer {
  name: "accuracy_1"
  type: "Accuracy"
  bottom: "fc5_classes"
  bottom: "label"
  top: "accuracy_1"
  accuracy_param {
    top_k: 1
  }
}
layer {
  name: "accuracy_5"
  type: "Accuracy"
  bottom: "fc5_classes"
  bottom: "label"
  top: "accuracy_5"
  accuracy_param {
    top_k: 5
  }
}
layer {
  name: "silence"
  type: "Silence"
  bottom: "accuracy_1"
  bottom: "accuracy_5"
}
I0529 01:52:17.297040 21194 layer_factory.hpp:77] Creating layer data
I0529 01:52:17.301194 21194 net.cpp:100] Creating Layer data
I0529 01:52:17.301209 21194 net.cpp:408] data -> data
I0529 01:52:17.301242 21194 net.cpp:408] data -> label
I0529 01:52:17.320097 21241 db_lmdb.cpp:35] Opened lmdb ../local_data/lmdb/RTSD/orig/train/lmdb
I0529 01:52:17.350808 21194 data_layer.cpp:41] output data size: 1024,3,48,48
I0529 01:52:17.391876 21194 net.cpp:150] Setting up data
I0529 01:52:17.391943 21194 net.cpp:157] Top shape: 1024 3 48 48 (7077888)
I0529 01:52:17.391955 21194 net.cpp:157] Top shape: 1024 (1024)
I0529 01:52:17.391963 21194 net.cpp:165] Memory required for data: 28315648
I0529 01:52:17.391975 21194 layer_factory.hpp:77] Creating layer label_data_1_split
I0529 01:52:17.391991 21194 net.cpp:100] Creating Layer label_data_1_split
I0529 01:52:17.392001 21194 net.cpp:434] label_data_1_split <- label
I0529 01:52:17.392017 21194 net.cpp:408] label_data_1_split -> label_data_1_split_0
I0529 01:52:17.392032 21194 net.cpp:408] label_data_1_split -> label_data_1_split_1
I0529 01:52:17.392051 21194 net.cpp:408] label_data_1_split -> label_data_1_split_2
I0529 01:52:17.392314 21194 net.cpp:150] Setting up label_data_1_split
I0529 01:52:17.392331 21194 net.cpp:157] Top shape: 1024 (1024)
I0529 01:52:17.392336 21194 net.cpp:157] Top shape: 1024 (1024)
I0529 01:52:17.392341 21194 net.cpp:157] Top shape: 1024 (1024)
I0529 01:52:17.392350 21194 net.cpp:165] Memory required for data: 28327936
I0529 01:52:17.392359 21194 layer_factory.hpp:77] Creating layer conv1
I0529 01:52:17.392382 21194 net.cpp:100] Creating Layer conv1
I0529 01:52:17.392395 21194 net.cpp:434] conv1 <- data
I0529 01:52:17.392405 21194 net.cpp:408] conv1 -> conv1
I0529 01:52:17.451072 21245 blocking_queue.cpp:50] Waiting for data
I0529 01:52:17.715067 21194 net.cpp:150] Setting up conv1
I0529 01:52:17.715111 21194 net.cpp:157] Top shape: 1024 100 42 42 (180633600)
I0529 01:52:17.715121 21194 net.cpp:165] Memory required for data: 750862336
I0529 01:52:17.715143 21194 layer_factory.hpp:77] Creating layer conv1_relu
I0529 01:52:17.715165 21194 net.cpp:100] Creating Layer conv1_relu
I0529 01:52:17.715175 21194 net.cpp:434] conv1_relu <- conv1
I0529 01:52:17.715193 21194 net.cpp:395] conv1_relu -> conv1 (in-place)
I0529 01:52:17.715422 21194 net.cpp:150] Setting up conv1_relu
I0529 01:52:17.715436 21194 net.cpp:157] Top shape: 1024 100 42 42 (180633600)
I0529 01:52:17.715443 21194 net.cpp:165] Memory required for data: 1473396736
I0529 01:52:17.715450 21194 layer_factory.hpp:77] Creating layer pool1
I0529 01:52:17.715462 21194 net.cpp:100] Creating Layer pool1
I0529 01:52:17.715469 21194 net.cpp:434] pool1 <- conv1
I0529 01:52:17.715478 21194 net.cpp:408] pool1 -> pool1
I0529 01:52:17.715540 21194 net.cpp:150] Setting up pool1
I0529 01:52:17.715554 21194 net.cpp:157] Top shape: 1024 100 21 21 (45158400)
I0529 01:52:17.715560 21194 net.cpp:165] Memory required for data: 1654030336
I0529 01:52:17.715567 21194 layer_factory.hpp:77] Creating layer conv2
I0529 01:52:17.715591 21194 net.cpp:100] Creating Layer conv2
I0529 01:52:17.715598 21194 net.cpp:434] conv2 <- pool1
I0529 01:52:17.715606 21194 net.cpp:408] conv2 -> conv2
I0529 01:52:17.734139 21194 net.cpp:150] Setting up conv2
I0529 01:52:17.734175 21194 net.cpp:157] Top shape: 1024 150 18 18 (49766400)
I0529 01:52:17.734185 21194 net.cpp:165] Memory required for data: 1853095936
I0529 01:52:17.734205 21194 layer_factory.hpp:77] Creating layer conv2_relu
I0529 01:52:17.734220 21194 net.cpp:100] Creating Layer conv2_relu
I0529 01:52:17.734233 21194 net.cpp:434] conv2_relu <- conv2
I0529 01:52:17.734249 21194 net.cpp:395] conv2_relu -> conv2 (in-place)
I0529 01:52:17.734452 21194 net.cpp:150] Setting up conv2_relu
I0529 01:52:17.734468 21194 net.cpp:157] Top shape: 1024 150 18 18 (49766400)
I0529 01:52:17.734477 21194 net.cpp:165] Memory required for data: 2052161536
I0529 01:52:17.734485 21194 layer_factory.hpp:77] Creating layer pool2
I0529 01:52:17.734495 21194 net.cpp:100] Creating Layer pool2
I0529 01:52:17.734501 21194 net.cpp:434] pool2 <- conv2
I0529 01:52:17.734509 21194 net.cpp:408] pool2 -> pool2
I0529 01:52:17.734558 21194 net.cpp:150] Setting up pool2
I0529 01:52:17.734601 21194 net.cpp:157] Top shape: 1024 150 9 9 (12441600)
I0529 01:52:17.734629 21194 net.cpp:165] Memory required for data: 2101927936
I0529 01:52:17.734642 21194 layer_factory.hpp:77] Creating layer conv3
I0529 01:52:17.734661 21194 net.cpp:100] Creating Layer conv3
I0529 01:52:17.734668 21194 net.cpp:434] conv3 <- pool2
I0529 01:52:17.734699 21194 net.cpp:408] conv3 -> conv3
I0529 01:52:17.741544 21194 net.cpp:150] Setting up conv3
I0529 01:52:17.741570 21194 net.cpp:157] Top shape: 1024 250 6 6 (9216000)
I0529 01:52:17.741578 21194 net.cpp:165] Memory required for data: 2138791936
I0529 01:52:17.741593 21194 layer_factory.hpp:77] Creating layer conv3_relu
I0529 01:52:17.741605 21194 net.cpp:100] Creating Layer conv3_relu
I0529 01:52:17.741612 21194 net.cpp:434] conv3_relu <- conv3
I0529 01:52:17.741622 21194 net.cpp:395] conv3_relu -> conv3 (in-place)
I0529 01:52:17.742183 21194 net.cpp:150] Setting up conv3_relu
I0529 01:52:17.742220 21194 net.cpp:157] Top shape: 1024 250 6 6 (9216000)
I0529 01:52:17.742244 21194 net.cpp:165] Memory required for data: 2175655936
I0529 01:52:17.742275 21194 layer_factory.hpp:77] Creating layer pool3
I0529 01:52:17.742301 21194 net.cpp:100] Creating Layer pool3
I0529 01:52:17.742326 21194 net.cpp:434] pool3 <- conv3
I0529 01:52:17.742336 21194 net.cpp:408] pool3 -> pool3
I0529 01:52:17.742398 21194 net.cpp:150] Setting up pool3
I0529 01:52:17.742411 21194 net.cpp:157] Top shape: 1024 250 3 3 (2304000)
I0529 01:52:17.742420 21194 net.cpp:165] Memory required for data: 2184871936
I0529 01:52:17.742439 21194 layer_factory.hpp:77] Creating layer fc4_300
I0529 01:52:17.742461 21194 net.cpp:100] Creating Layer fc4_300
I0529 01:52:17.742466 21194 net.cpp:434] fc4_300 <- pool3
I0529 01:52:17.742491 21194 net.cpp:408] fc4_300 -> fc4_300
I0529 01:52:17.749081 21194 net.cpp:150] Setting up fc4_300
I0529 01:52:17.749109 21194 net.cpp:157] Top shape: 1024 300 (307200)
I0529 01:52:17.749117 21194 net.cpp:165] Memory required for data: 2186100736
I0529 01:52:17.749127 21194 layer_factory.hpp:77] Creating layer fc4_relu
I0529 01:52:17.749138 21194 net.cpp:100] Creating Layer fc4_relu
I0529 01:52:17.749147 21194 net.cpp:434] fc4_relu <- fc4_300
I0529 01:52:17.749156 21194 net.cpp:395] fc4_relu -> fc4_300 (in-place)
I0529 01:52:17.749358 21194 net.cpp:150] Setting up fc4_relu
I0529 01:52:17.749373 21194 net.cpp:157] Top shape: 1024 300 (307200)
I0529 01:52:17.749387 21194 net.cpp:165] Memory required for data: 2187329536
I0529 01:52:17.749400 21194 layer_factory.hpp:77] Creating layer fc5_116
I0529 01:52:17.749425 21194 net.cpp:100] Creating Layer fc5_116
I0529 01:52:17.749436 21194 net.cpp:434] fc5_116 <- fc4_300
I0529 01:52:17.749447 21194 net.cpp:408] fc5_116 -> fc5_classes
I0529 01:52:17.750811 21194 net.cpp:150] Setting up fc5_116
I0529 01:52:17.750839 21194 net.cpp:157] Top shape: 1024 116 (118784)
I0529 01:52:17.750857 21194 net.cpp:165] Memory required for data: 2187804672
I0529 01:52:17.750872 21194 layer_factory.hpp:77] Creating layer fc5_classes_fc5_116_0_split
I0529 01:52:17.750887 21194 net.cpp:100] Creating Layer fc5_classes_fc5_116_0_split
I0529 01:52:17.750908 21194 net.cpp:434] fc5_classes_fc5_116_0_split <- fc5_classes
I0529 01:52:17.750932 21194 net.cpp:408] fc5_classes_fc5_116_0_split -> fc5_classes_fc5_116_0_split_0
I0529 01:52:17.750944 21194 net.cpp:408] fc5_classes_fc5_116_0_split -> fc5_classes_fc5_116_0_split_1
I0529 01:52:17.750965 21194 net.cpp:408] fc5_classes_fc5_116_0_split -> fc5_classes_fc5_116_0_split_2
I0529 01:52:17.751035 21194 net.cpp:150] Setting up fc5_classes_fc5_116_0_split
I0529 01:52:17.751057 21194 net.cpp:157] Top shape: 1024 116 (118784)
I0529 01:52:17.751078 21194 net.cpp:157] Top shape: 1024 116 (118784)
I0529 01:52:17.751088 21194 net.cpp:157] Top shape: 1024 116 (118784)
I0529 01:52:17.751111 21194 net.cpp:165] Memory required for data: 2189230080
I0529 01:52:17.751132 21194 layer_factory.hpp:77] Creating layer softmax
I0529 01:52:17.751154 21194 net.cpp:100] Creating Layer softmax
I0529 01:52:17.751176 21194 net.cpp:434] softmax <- fc5_classes_fc5_116_0_split_0
I0529 01:52:17.751199 21194 net.cpp:408] softmax -> softmax
I0529 01:52:17.751454 21194 net.cpp:150] Setting up softmax
I0529 01:52:17.751471 21194 net.cpp:157] Top shape: 1024 116 (118784)
I0529 01:52:17.751492 21194 net.cpp:165] Memory required for data: 2189705216
I0529 01:52:17.751502 21194 layer_factory.hpp:77] Creating layer loss
I0529 01:52:17.751529 21194 net.cpp:100] Creating Layer loss
I0529 01:52:17.751551 21194 net.cpp:434] loss <- softmax
I0529 01:52:17.751559 21194 net.cpp:434] loss <- label_data_1_split_0
I0529 01:52:17.751572 21194 net.cpp:408] loss -> loss
…
