…
I0529 01:22:50.008962 30447 solver.cpp:81] Creating training net from train_net file: ./Prototxt/experiment_22/RTSD/imajust/trial_4/train.prototxt
I0529 01:22:50.013914 30447 net.cpp:58] Initializing net from parameters: 
state {
  phase: TRAIN
  level: 0
  stage: ""
}
layer {
  name: "data"
  type: "Data"
  top: "data"
  top: "label"
  include {
    phase: TRAIN
  }
  transform_param {
    scale: 0.0039215689
    mirror: false
    crop_size: 48
    mean_value: 119
    mean_value: 113
    mean_value: 114
  }
  data_param {
    source: "../local_data/lmdb/RTSD/imajust/train/lmdb"
    batch_size: 1024
    backend: LMDB
  }
}
layer {
  name: "conv1"
  type: "Convolution"
  bottom: "data"
  top: "conv1"
  convolution_param {
    num_output: 100
    pad: 0
    kernel_size: 7
    group: 1
    stride: 1
    weight_filler {
      type: "xavier"
    }
  }
}
layer {
  name: "conv1_relu"
  type: "ReLU"
  bottom: "conv1"
  top: "conv1"
}
layer {
  name: "pool1"
  type: "Pooling"
  bottom: "conv1"
  top: "pool1"
  pooling_param {
    pool: MAX
    kernel_size: 2
    stride: 2
  }
}
layer {
  name: "conv2"
  type: "Convolution"
  bottom: "pool1"
  top: "conv2"
  convolution_param {
    num_output: 150
    pad: 0
    kernel_size: 4
    group: 1
    stride: 1
    weight_filler {
      type: "xavier"
    }
  }
}
layer {
  name: "conv2_relu"
  type: "ReLU"
  bottom: "conv2"
  top: "conv2"
}
layer {
  name: "pool2"
  type: "Pooling"
  bottom: "conv2"
  top: "pool2"
  pooling_param {
    pool: MAX
    kernel_size: 2
    stride: 2
  }
}
layer {
  name: "conv3"
  type: "Convolution"
  bottom: "pool2"
  top: "conv3"
  convolution_param {
    num_output: 250
    pad: 0
    kernel_size: 4
    group: 1
    stride: 1
    weight_filler {
      type: "xavier"
    }
  }
}
layer {
  name: "conv3_relu"
  type: "ReLU"
  bottom: "conv3"
  top: "conv3"
}
layer {
  name: "pool3"
  type: "Pooling"
  bottom: "conv3"
  top: "pool3"
  pooling_param {
    pool: MAX
    kernel_size: 2
    stride: 2
  }
}
layer {
  name: "fc4_300"
  type: "InnerProduct"
  bottom: "pool3"
  top: "fc4_300"
  inner_product_param {
    num_output: 300
    weight_filler {
      type: "xavier"
    }
  }
}
layer {
  name: "fc4_relu"
  type: "ReLU"
  bottom: "fc4_300"
  top: "fc4_300"
}
layer {
  name: "fc5_116"
  type: "InnerProduct"
  bottom: "fc4_300"
  top: "fc5_classes"
  inner_product_param {
    num_output: 116
    weight_filler {
      type: "xavier"
    }
  }
}
layer {
  name: "softmax"
  type: "Softmax"
  bottom: "fc5_classes"
  top: "softmax"
}
layer {
  name: "loss"
  type: "MultinomialLogisticLoss"
  bottom: "softmax"
  bottom: "label"
  top: "loss"
}
layer {
  name: "accuracy_1"
  type: "Accuracy"
  bottom: "fc5_classes"
  bottom: "label"
  top: "accuracy_1"
  accuracy_param {
    top_k: 1
  }
}
layer {
  name: "accuracy_5"
  type: "Accuracy"
  bottom: "fc5_classes"
  bottom: "label"
  top: "accuracy_5"
  accuracy_param {
    top_k: 5
  }
}
layer {
  name: "silence"
  type: "Silence"
  bottom: "accuracy_1"
  bottom: "accuracy_5"
}
I0529 01:22:50.014070 30447 layer_factory.hpp:77] Creating layer data
I0529 01:22:50.015333 30447 net.cpp:100] Creating Layer data
I0529 01:22:50.015353 30447 net.cpp:408] data -> data
I0529 01:22:50.015383 30447 net.cpp:408] data -> label
I0529 01:22:50.016144 30482 db_lmdb.cpp:35] Opened lmdb ../local_data/lmdb/RTSD/imajust/train/lmdb
I0529 01:22:50.041467 30447 data_layer.cpp:41] output data size: 1024,3,48,48
I0529 01:22:50.084354 30447 net.cpp:150] Setting up data
I0529 01:22:50.084415 30447 net.cpp:157] Top shape: 1024 3 48 48 (7077888)
I0529 01:22:50.084424 30447 net.cpp:157] Top shape: 1024 (1024)
I0529 01:22:50.084427 30447 net.cpp:165] Memory required for data: 28315648
I0529 01:22:50.084437 30447 layer_factory.hpp:77] Creating layer label_data_1_split
I0529 01:22:50.084450 30447 net.cpp:100] Creating Layer label_data_1_split
I0529 01:22:50.084455 30447 net.cpp:434] label_data_1_split <- label
I0529 01:22:50.084466 30447 net.cpp:408] label_data_1_split -> label_data_1_split_0
I0529 01:22:50.084477 30447 net.cpp:408] label_data_1_split -> label_data_1_split_1
I0529 01:22:50.084482 30447 net.cpp:408] label_data_1_split -> label_data_1_split_2
I0529 01:22:50.084542 30447 net.cpp:150] Setting up label_data_1_split
I0529 01:22:50.084553 30447 net.cpp:157] Top shape: 1024 (1024)
I0529 01:22:50.084561 30447 net.cpp:157] Top shape: 1024 (1024)
I0529 01:22:50.084569 30447 net.cpp:157] Top shape: 1024 (1024)
I0529 01:22:50.084574 30447 net.cpp:165] Memory required for data: 28327936
I0529 01:22:50.084581 30447 layer_factory.hpp:77] Creating layer conv1
I0529 01:22:50.084604 30447 net.cpp:100] Creating Layer conv1
I0529 01:22:50.084614 30447 net.cpp:434] conv1 <- data
I0529 01:22:50.084626 30447 net.cpp:408] conv1 -> conv1
I0529 01:22:50.369670 30447 net.cpp:150] Setting up conv1
I0529 01:22:50.369707 30447 net.cpp:157] Top shape: 1024 100 42 42 (180633600)
I0529 01:22:50.369712 30447 net.cpp:165] Memory required for data: 750862336
I0529 01:22:50.369735 30447 layer_factory.hpp:77] Creating layer conv1_relu
I0529 01:22:50.369753 30447 net.cpp:100] Creating Layer conv1_relu
I0529 01:22:50.369758 30447 net.cpp:434] conv1_relu <- conv1
I0529 01:22:50.369763 30447 net.cpp:395] conv1_relu -> conv1 (in-place)
I0529 01:22:50.369921 30447 net.cpp:150] Setting up conv1_relu
I0529 01:22:50.369932 30447 net.cpp:157] Top shape: 1024 100 42 42 (180633600)
I0529 01:22:50.369936 30447 net.cpp:165] Memory required for data: 1473396736
I0529 01:22:50.369940 30447 layer_factory.hpp:77] Creating layer pool1
I0529 01:22:50.369948 30447 net.cpp:100] Creating Layer pool1
I0529 01:22:50.369952 30447 net.cpp:434] pool1 <- conv1
I0529 01:22:50.369958 30447 net.cpp:408] pool1 -> pool1
I0529 01:22:50.370007 30447 net.cpp:150] Setting up pool1
I0529 01:22:50.370015 30447 net.cpp:157] Top shape: 1024 100 21 21 (45158400)
I0529 01:22:50.370018 30447 net.cpp:165] Memory required for data: 1654030336
I0529 01:22:50.370034 30447 layer_factory.hpp:77] Creating layer conv2
I0529 01:22:50.370056 30447 net.cpp:100] Creating Layer conv2
I0529 01:22:50.370061 30447 net.cpp:434] conv2 <- pool1
I0529 01:22:50.370067 30447 net.cpp:408] conv2 -> conv2
I0529 01:22:50.374433 30447 net.cpp:150] Setting up conv2
I0529 01:22:50.374452 30447 net.cpp:157] Top shape: 1024 150 18 18 (49766400)
I0529 01:22:50.374457 30447 net.cpp:165] Memory required for data: 1853095936
I0529 01:22:50.374469 30447 layer_factory.hpp:77] Creating layer conv2_relu
I0529 01:22:50.374477 30447 net.cpp:100] Creating Layer conv2_relu
I0529 01:22:50.374482 30447 net.cpp:434] conv2_relu <- conv2
I0529 01:22:50.374490 30447 net.cpp:395] conv2_relu -> conv2 (in-place)
I0529 01:22:50.374621 30447 net.cpp:150] Setting up conv2_relu
I0529 01:22:50.374632 30447 net.cpp:157] Top shape: 1024 150 18 18 (49766400)
I0529 01:22:50.374639 30447 net.cpp:165] Memory required for data: 2052161536
I0529 01:22:50.374644 30447 layer_factory.hpp:77] Creating layer pool2
I0529 01:22:50.374651 30447 net.cpp:100] Creating Layer pool2
I0529 01:22:50.374656 30447 net.cpp:434] pool2 <- conv2
I0529 01:22:50.374663 30447 net.cpp:408] pool2 -> pool2
I0529 01:22:50.374698 30447 net.cpp:150] Setting up pool2
I0529 01:22:50.374704 30447 net.cpp:157] Top shape: 1024 150 9 9 (12441600)
I0529 01:22:50.374708 30447 net.cpp:165] Memory required for data: 2101927936
I0529 01:22:50.374711 30447 layer_factory.hpp:77] Creating layer conv3
I0529 01:22:50.374723 30447 net.cpp:100] Creating Layer conv3
I0529 01:22:50.374727 30447 net.cpp:434] conv3 <- pool2
I0529 01:22:50.374732 30447 net.cpp:408] conv3 -> conv3
I0529 01:22:50.380328 30447 net.cpp:150] Setting up conv3
I0529 01:22:50.380367 30447 net.cpp:157] Top shape: 1024 250 6 6 (9216000)
I0529 01:22:50.380373 30447 net.cpp:165] Memory required for data: 2138791936
I0529 01:22:50.380383 30447 layer_factory.hpp:77] Creating layer conv3_relu
I0529 01:22:50.380400 30447 net.cpp:100] Creating Layer conv3_relu
I0529 01:22:50.380404 30447 net.cpp:434] conv3_relu <- conv3
I0529 01:22:50.380410 30447 net.cpp:395] conv3_relu -> conv3 (in-place)
I0529 01:22:50.380877 30447 net.cpp:150] Setting up conv3_relu
I0529 01:22:50.380890 30447 net.cpp:157] Top shape: 1024 250 6 6 (9216000)
I0529 01:22:50.380894 30447 net.cpp:165] Memory required for data: 2175655936
I0529 01:22:50.380898 30447 layer_factory.hpp:77] Creating layer pool3
I0529 01:22:50.380906 30447 net.cpp:100] Creating Layer pool3
I0529 01:22:50.380910 30447 net.cpp:434] pool3 <- conv3
I0529 01:22:50.380918 30447 net.cpp:408] pool3 -> pool3
I0529 01:22:50.380954 30447 net.cpp:150] Setting up pool3
I0529 01:22:50.380959 30447 net.cpp:157] Top shape: 1024 250 3 3 (2304000)
I0529 01:22:50.380964 30447 net.cpp:165] Memory required for data: 2184871936
I0529 01:22:50.380967 30447 layer_factory.hpp:77] Creating layer fc4_300
I0529 01:22:50.380983 30447 net.cpp:100] Creating Layer fc4_300
I0529 01:22:50.380987 30447 net.cpp:434] fc4_300 <- pool3
I0529 01:22:50.380991 30447 net.cpp:408] fc4_300 -> fc4_300
I0529 01:22:50.385627 30447 net.cpp:150] Setting up fc4_300
I0529 01:22:50.385648 30447 net.cpp:157] Top shape: 1024 300 (307200)
I0529 01:22:50.385653 30447 net.cpp:165] Memory required for data: 2186100736
I0529 01:22:50.385661 30447 layer_factory.hpp:77] Creating layer fc4_relu
I0529 01:22:50.385669 30447 net.cpp:100] Creating Layer fc4_relu
I0529 01:22:50.385675 30447 net.cpp:434] fc4_relu <- fc4_300
I0529 01:22:50.385684 30447 net.cpp:395] fc4_relu -> fc4_300 (in-place)
I0529 01:22:50.385838 30447 net.cpp:150] Setting up fc4_relu
I0529 01:22:50.385850 30447 net.cpp:157] Top shape: 1024 300 (307200)
I0529 01:22:50.385856 30447 net.cpp:165] Memory required for data: 2187329536
I0529 01:22:50.385860 30447 layer_factory.hpp:77] Creating layer fc5_116
I0529 01:22:50.385870 30447 net.cpp:100] Creating Layer fc5_116
I0529 01:22:50.385874 30447 net.cpp:434] fc5_116 <- fc4_300
I0529 01:22:50.385881 30447 net.cpp:408] fc5_116 -> fc5_classes
I0529 01:22:50.389770 30447 net.cpp:150] Setting up fc5_116
I0529 01:22:50.389803 30447 net.cpp:157] Top shape: 1024 116 (118784)
I0529 01:22:50.389808 30447 net.cpp:165] Memory required for data: 2187804672
I0529 01:22:50.389827 30447 layer_factory.hpp:77] Creating layer fc5_classes_fc5_116_0_split
I0529 01:22:50.389842 30447 net.cpp:100] Creating Layer fc5_classes_fc5_116_0_split
I0529 01:22:50.389847 30447 net.cpp:434] fc5_classes_fc5_116_0_split <- fc5_classes
I0529 01:22:50.389852 30447 net.cpp:408] fc5_classes_fc5_116_0_split -> fc5_classes_fc5_116_0_split_0
I0529 01:22:50.389858 30447 net.cpp:408] fc5_classes_fc5_116_0_split -> fc5_classes_fc5_116_0_split_1
I0529 01:22:50.389864 30447 net.cpp:408] fc5_classes_fc5_116_0_split -> fc5_classes_fc5_116_0_split_2
I0529 01:22:50.389910 30447 net.cpp:150] Setting up fc5_classes_fc5_116_0_split
I0529 01:22:50.389916 30447 net.cpp:157] Top shape: 1024 116 (118784)
I0529 01:22:50.389920 30447 net.cpp:157] Top shape: 1024 116 (118784)
I0529 01:22:50.389925 30447 net.cpp:157] Top shape: 1024 116 (118784)
I0529 01:22:50.389927 30447 net.cpp:165] Memory required for data: 2189230080
I0529 01:22:50.389930 30447 layer_factory.hpp:77] Creating layer softmax
I0529 01:22:50.389935 30447 net.cpp:100] Creating Layer softmax
I0529 01:22:50.389940 30447 net.cpp:434] softmax <- fc5_classes_fc5_116_0_split_0
I0529 01:22:50.389945 30447 net.cpp:408] softmax -> softmax
I0529 01:22:50.390147 30447 net.cpp:150] Setting up softmax
I0529 01:22:50.390156 30447 net.cpp:157] Top shape: 1024 116 (118784)
I0529 01:22:50.390161 30447 net.cpp:165] Memory required for data: 2189705216
I0529 01:22:50.390163 30447 layer_factory.hpp:77] Creating layer loss
I0529 01:22:50.390192 30447 net.cpp:100] Creating Layer loss
I0529 01:22:50.390197 30447 net.cpp:434] loss <- softmax
I0529 01:22:50.390202 30447 net.cpp:434] loss <- label_data_1_split_0
I0529 01:22:50.390208 30447 net.cpp:408] loss -> loss
…
