…
I0528 02:47:58.551514  4932 solver.cpp:81] Creating training net from train_net file: ./Prototxt/experiment_21/RTSD/CoNorm/trial_4/train.prototxt
I0528 02:47:58.551870  4932 net.cpp:58] Initializing net from parameters: 
state {
  phase: TRAIN
  level: 0
  stage: ""
}
layer {
  name: "data"
  type: "Data"
  top: "data"
  top: "label"
  include {
    phase: TRAIN
  }
  transform_param {
    scale: 0.0039215689
    mirror: false
    crop_size: 48
    mean_value: 135
    mean_value: 135
    mean_value: 134
  }
  data_param {
    source: "../local_data/lmdb/RTSD/CoNorm/train/lmdb"
    batch_size: 1024
    backend: LMDB
  }
}
layer {
  name: "conv1"
  type: "Convolution"
  bottom: "data"
  top: "conv1"
  convolution_param {
    num_output: 100
    pad: 0
    kernel_size: 7
    group: 1
    stride: 1
    weight_filler {
      type: "xavier"
    }
  }
}
layer {
  name: "conv1_relu"
  type: "ReLU"
  bottom: "conv1"
  top: "conv1"
}
layer {
  name: "pool1"
  type: "Pooling"
  bottom: "conv1"
  top: "pool1"
  pooling_param {
    pool: MAX
    kernel_size: 2
    stride: 2
  }
}
layer {
  name: "conv2"
  type: "Convolution"
  bottom: "pool1"
  top: "conv2"
  convolution_param {
    num_output: 150
    pad: 0
    kernel_size: 4
    group: 1
    stride: 1
    weight_filler {
      type: "xavier"
    }
  }
}
layer {
  name: "conv2_relu"
  type: "ReLU"
  bottom: "conv2"
  top: "conv2"
}
layer {
  name: "pool2"
  type: "Pooling"
  bottom: "conv2"
  top: "pool2"
  pooling_param {
    pool: MAX
    kernel_size: 2
    stride: 2
  }
}
layer {
  name: "conv3"
  type: "Convolution"
  bottom: "pool2"
  top: "conv3"
  convolution_param {
    num_output: 250
    pad: 0
    kernel_size: 4
    group: 1
    stride: 1
    weight_filler {
      type: "xavier"
    }
  }
}
layer {
  name: "conv3_relu"
  type: "ReLU"
  bottom: "conv3"
  top: "conv3"
}
layer {
  name: "pool3"
  type: "Pooling"
  bottom: "conv3"
  top: "pool3"
  pooling_param {
    pool: MAX
    kernel_size: 2
    stride: 2
  }
}
layer {
  name: "fc4_300"
  type: "InnerProduct"
  bottom: "pool3"
  top: "fc4_300"
  inner_product_param {
    num_output: 300
    weight_filler {
      type: "xavier"
    }
  }
}
layer {
  name: "fc4_relu"
  type: "ReLU"
  bottom: "fc4_300"
  top: "fc4_300"
}
layer {
  name: "fc5_116"
  type: "InnerProduct"
  bottom: "fc4_300"
  top: "fc5_classes"
  inner_product_param {
    num_output: 116
    weight_filler {
      type: "xavier"
    }
  }
}
layer {
  name: "softmax"
  type: "Softmax"
  bottom: "fc5_classes"
  top: "softmax"
}
layer {
  name: "loss"
  type: "MultinomialLogisticLoss"
  bottom: "softmax"
  bottom: "label"
  top: "loss"
}
layer {
  name: "accuracy_1"
  type: "Accuracy"
  bottom: "fc5_classes"
  bottom: "label"
  top: "accuracy_1"
  accuracy_param {
    top_k: 1
  }
}
layer {
  name: "accuracy_5"
  type: "Accuracy"
  bottom: "fc5_classes"
  bottom: "label"
  top: "accuracy_5"
  accuracy_param {
    top_k: 5
  }
}
layer {
  name: "silence"
  type: "Silence"
  bottom: "accuracy_1"
  bottom: "accuracy_5"
}
I0528 02:47:58.551998  4932 layer_factory.hpp:77] Creating layer data
I0528 02:47:58.556255  4932 net.cpp:100] Creating Layer data
I0528 02:47:58.556277  4932 net.cpp:408] data -> data
I0528 02:47:58.556313  4932 net.cpp:408] data -> label
I0528 02:47:58.557273  4958 db_lmdb.cpp:35] Opened lmdb ../local_data/lmdb/RTSD/CoNorm/train/lmdb
I0528 02:47:58.573490  4932 data_layer.cpp:41] output data size: 1024,3,48,48
I0528 02:47:58.621047  4932 net.cpp:150] Setting up data
I0528 02:47:58.621110  4932 net.cpp:157] Top shape: 1024 3 48 48 (7077888)
I0528 02:47:58.621129  4932 net.cpp:157] Top shape: 1024 (1024)
I0528 02:47:58.621134  4932 net.cpp:165] Memory required for data: 28315648
I0528 02:47:58.621155  4932 layer_factory.hpp:77] Creating layer label_data_1_split
I0528 02:47:58.621197  4932 net.cpp:100] Creating Layer label_data_1_split
I0528 02:47:58.621228  4932 net.cpp:434] label_data_1_split <- label
I0528 02:47:58.621264  4932 net.cpp:408] label_data_1_split -> label_data_1_split_0
I0528 02:47:58.621304  4932 net.cpp:408] label_data_1_split -> label_data_1_split_1
I0528 02:47:58.621335  4932 net.cpp:408] label_data_1_split -> label_data_1_split_2
I0528 02:47:58.621426  4932 net.cpp:150] Setting up label_data_1_split
I0528 02:47:58.621438  4932 net.cpp:157] Top shape: 1024 (1024)
I0528 02:47:58.621445  4932 net.cpp:157] Top shape: 1024 (1024)
I0528 02:47:58.621453  4932 net.cpp:157] Top shape: 1024 (1024)
I0528 02:47:58.621457  4932 net.cpp:165] Memory required for data: 28327936
I0528 02:47:58.621464  4932 layer_factory.hpp:77] Creating layer conv1
I0528 02:47:58.621491  4932 net.cpp:100] Creating Layer conv1
I0528 02:47:58.621510  4932 net.cpp:434] conv1 <- data
I0528 02:47:58.621532  4932 net.cpp:408] conv1 -> conv1
I0528 02:47:58.886803  4932 net.cpp:150] Setting up conv1
I0528 02:47:58.886839  4932 net.cpp:157] Top shape: 1024 100 42 42 (180633600)
I0528 02:47:58.886848  4932 net.cpp:165] Memory required for data: 750862336
I0528 02:47:58.886870  4932 layer_factory.hpp:77] Creating layer conv1_relu
I0528 02:47:58.886886  4932 net.cpp:100] Creating Layer conv1_relu
I0528 02:47:58.886895  4932 net.cpp:434] conv1_relu <- conv1
I0528 02:47:58.886904  4932 net.cpp:395] conv1_relu -> conv1 (in-place)
I0528 02:47:58.887122  4932 net.cpp:150] Setting up conv1_relu
I0528 02:47:58.887140  4932 net.cpp:157] Top shape: 1024 100 42 42 (180633600)
I0528 02:47:58.887147  4932 net.cpp:165] Memory required for data: 1473396736
I0528 02:47:58.887154  4932 layer_factory.hpp:77] Creating layer pool1
I0528 02:47:58.887167  4932 net.cpp:100] Creating Layer pool1
I0528 02:47:58.887177  4932 net.cpp:434] pool1 <- conv1
I0528 02:47:58.887187  4932 net.cpp:408] pool1 -> pool1
I0528 02:47:58.887248  4932 net.cpp:150] Setting up pool1
I0528 02:47:58.887259  4932 net.cpp:157] Top shape: 1024 100 21 21 (45158400)
I0528 02:47:58.887264  4932 net.cpp:165] Memory required for data: 1654030336
I0528 02:47:58.887271  4932 layer_factory.hpp:77] Creating layer conv2
I0528 02:47:58.887286  4932 net.cpp:100] Creating Layer conv2
I0528 02:47:58.887297  4932 net.cpp:434] conv2 <- pool1
I0528 02:47:58.887307  4932 net.cpp:408] conv2 -> conv2
I0528 02:47:58.892910  4932 net.cpp:150] Setting up conv2
I0528 02:47:58.892945  4932 net.cpp:157] Top shape: 1024 150 18 18 (49766400)
I0528 02:47:58.892953  4932 net.cpp:165] Memory required for data: 1853095936
I0528 02:47:58.892972  4932 layer_factory.hpp:77] Creating layer conv2_relu
I0528 02:47:58.892987  4932 net.cpp:100] Creating Layer conv2_relu
I0528 02:47:58.893000  4932 net.cpp:434] conv2_relu <- conv2
I0528 02:47:58.893012  4932 net.cpp:395] conv2_relu -> conv2 (in-place)
I0528 02:47:58.893236  4932 net.cpp:150] Setting up conv2_relu
I0528 02:47:58.893254  4932 net.cpp:157] Top shape: 1024 150 18 18 (49766400)
I0528 02:47:58.893261  4932 net.cpp:165] Memory required for data: 2052161536
I0528 02:47:58.893270  4932 layer_factory.hpp:77] Creating layer pool2
I0528 02:47:58.893280  4932 net.cpp:100] Creating Layer pool2
I0528 02:47:58.893293  4932 net.cpp:434] pool2 <- conv2
I0528 02:47:58.893302  4932 net.cpp:408] pool2 -> pool2
I0528 02:47:58.893368  4932 net.cpp:150] Setting up pool2
I0528 02:47:58.893378  4932 net.cpp:157] Top shape: 1024 150 9 9 (12441600)
I0528 02:47:58.893384  4932 net.cpp:165] Memory required for data: 2101927936
I0528 02:47:58.893391  4932 layer_factory.hpp:77] Creating layer conv3
I0528 02:47:58.893409  4932 net.cpp:100] Creating Layer conv3
I0528 02:47:58.893419  4932 net.cpp:434] conv3 <- pool2
I0528 02:47:58.893429  4932 net.cpp:408] conv3 -> conv3
I0528 02:47:58.902065  4932 net.cpp:150] Setting up conv3
I0528 02:47:58.902096  4932 net.cpp:157] Top shape: 1024 250 6 6 (9216000)
I0528 02:47:58.902101  4932 net.cpp:165] Memory required for data: 2138791936
I0528 02:47:58.902118  4932 layer_factory.hpp:77] Creating layer conv3_relu
I0528 02:47:58.902132  4932 net.cpp:100] Creating Layer conv3_relu
I0528 02:47:58.902139  4932 net.cpp:434] conv3_relu <- conv3
I0528 02:47:58.902149  4932 net.cpp:395] conv3_relu -> conv3 (in-place)
I0528 02:47:58.902909  4932 net.cpp:150] Setting up conv3_relu
I0528 02:47:58.902926  4932 net.cpp:157] Top shape: 1024 250 6 6 (9216000)
I0528 02:47:58.902933  4932 net.cpp:165] Memory required for data: 2175655936
I0528 02:47:58.902941  4932 layer_factory.hpp:77] Creating layer pool3
I0528 02:47:58.902953  4932 net.cpp:100] Creating Layer pool3
I0528 02:47:58.902961  4932 net.cpp:434] pool3 <- conv3
I0528 02:47:58.902969  4932 net.cpp:408] pool3 -> pool3
I0528 02:47:58.903017  4932 net.cpp:150] Setting up pool3
I0528 02:47:58.903029  4932 net.cpp:157] Top shape: 1024 250 3 3 (2304000)
I0528 02:47:58.903035  4932 net.cpp:165] Memory required for data: 2184871936
I0528 02:47:58.903040  4932 layer_factory.hpp:77] Creating layer fc4_300
I0528 02:47:58.903050  4932 net.cpp:100] Creating Layer fc4_300
I0528 02:47:58.903062  4932 net.cpp:434] fc4_300 <- pool3
I0528 02:47:58.903071  4932 net.cpp:408] fc4_300 -> fc4_300
I0528 02:47:58.909389  4932 net.cpp:150] Setting up fc4_300
I0528 02:47:58.909425  4932 net.cpp:157] Top shape: 1024 300 (307200)
I0528 02:47:58.909431  4932 net.cpp:165] Memory required for data: 2186100736
I0528 02:47:58.909443  4932 layer_factory.hpp:77] Creating layer fc4_relu
I0528 02:47:58.909456  4932 net.cpp:100] Creating Layer fc4_relu
I0528 02:47:58.909463  4932 net.cpp:434] fc4_relu <- fc4_300
I0528 02:47:58.909472  4932 net.cpp:395] fc4_relu -> fc4_300 (in-place)
I0528 02:47:58.909689  4932 net.cpp:150] Setting up fc4_relu
I0528 02:47:58.909704  4932 net.cpp:157] Top shape: 1024 300 (307200)
I0528 02:47:58.909711  4932 net.cpp:165] Memory required for data: 2187329536
I0528 02:47:58.909718  4932 layer_factory.hpp:77] Creating layer fc5_116
I0528 02:47:58.909730  4932 net.cpp:100] Creating Layer fc5_116
I0528 02:47:58.909744  4932 net.cpp:434] fc5_116 <- fc4_300
I0528 02:47:58.909754  4932 net.cpp:408] fc5_116 -> fc5_classes
I0528 02:47:58.911134  4932 net.cpp:150] Setting up fc5_116
I0528 02:47:58.911154  4932 net.cpp:157] Top shape: 1024 116 (118784)
I0528 02:47:58.911160  4932 net.cpp:165] Memory required for data: 2187804672
I0528 02:47:58.911175  4932 layer_factory.hpp:77] Creating layer fc5_classes_fc5_116_0_split
I0528 02:47:58.911185  4932 net.cpp:100] Creating Layer fc5_classes_fc5_116_0_split
I0528 02:47:58.911192  4932 net.cpp:434] fc5_classes_fc5_116_0_split <- fc5_classes
I0528 02:47:58.911201  4932 net.cpp:408] fc5_classes_fc5_116_0_split -> fc5_classes_fc5_116_0_split_0
I0528 02:47:58.911211  4932 net.cpp:408] fc5_classes_fc5_116_0_split -> fc5_classes_fc5_116_0_split_1
I0528 02:47:58.911221  4932 net.cpp:408] fc5_classes_fc5_116_0_split -> fc5_classes_fc5_116_0_split_2
I0528 02:47:58.911270  4932 net.cpp:150] Setting up fc5_classes_fc5_116_0_split
I0528 02:47:58.911278  4932 net.cpp:157] Top shape: 1024 116 (118784)
I0528 02:47:58.911284  4932 net.cpp:157] Top shape: 1024 116 (118784)
I0528 02:47:58.911291  4932 net.cpp:157] Top shape: 1024 116 (118784)
I0528 02:47:58.911296  4932 net.cpp:165] Memory required for data: 2189230080
I0528 02:47:58.911301  4932 layer_factory.hpp:77] Creating layer softmax
I0528 02:47:58.911309  4932 net.cpp:100] Creating Layer softmax
I0528 02:47:58.911316  4932 net.cpp:434] softmax <- fc5_classes_fc5_116_0_split_0
I0528 02:47:58.911324  4932 net.cpp:408] softmax -> softmax
I0528 02:47:58.911577  4932 net.cpp:150] Setting up softmax
I0528 02:47:58.911595  4932 net.cpp:157] Top shape: 1024 116 (118784)
I0528 02:47:58.911602  4932 net.cpp:165] Memory required for data: 2189705216
I0528 02:47:58.911608  4932 layer_factory.hpp:77] Creating layer loss
I0528 02:47:58.911648  4932 net.cpp:100] Creating Layer loss
I0528 02:47:58.911655  4932 net.cpp:434] loss <- softmax
I0528 02:47:58.911677  4932 net.cpp:434] loss <- label_data_1_split_0
I0528 02:47:58.911685  4932 net.cpp:408] loss -> loss
…
