…
I0414 22:55:03.320289 18487 solver.cpp:93] Creating training net from train_net file: ./Prototxt/experiment_10/rtsd-r3/histeq/trial_4/train.prototxt
I0414 22:55:03.338328 18487 net.cpp:58] Initializing net from parameters: 
state {
  phase: TRAIN
  level: 0
  stage: ""
}
layer {
  name: "data"
  type: "Data"
  top: "data"
  top: "label"
  include {
    phase: TRAIN
  }
  transform_param {
    scale: 0.0039215689
    mirror: false
    crop_size: 48
    mean_value: 135
    mean_value: 128
    mean_value: 128
  }
  data_param {
    source: "../local_data/lmdb/rtsd-r3/histeq/train/lmdb"
    batch_size: 1024
    backend: LMDB
  }
}
layer {
  name: "conv1"
  type: "Convolution"
  bottom: "data"
  top: "conv1"
  convolution_param {
    num_output: 100
    pad: 0
    kernel_size: 7
    group: 1
    stride: 1
    weight_filler {
      type: "xavier"
    }
  }
}
layer {
  name: "conv1_relu"
  type: "ReLU"
  bottom: "conv1"
  top: "conv1"
}
layer {
  name: "pool1"
  type: "Pooling"
  bottom: "conv1"
  top: "pool1"
  pooling_param {
    pool: MAX
    kernel_size: 2
    stride: 2
  }
}
layer {
  name: "conv2"
  type: "Convolution"
  bottom: "pool1"
  top: "conv2"
  convolution_param {
    num_output: 150
    pad: 0
    kernel_size: 4
    group: 1
    stride: 1
    weight_filler {
      type: "xavier"
    }
  }
}
layer {
  name: "conv2_relu"
  type: "ReLU"
  bottom: "conv2"
  top: "conv2"
}
layer {
  name: "pool2"
  type: "Pooling"
  bottom: "conv2"
  top: "pool2"
  pooling_param {
    pool: MAX
    kernel_size: 2
    stride: 2
  }
}
layer {
  name: "conv3"
  type: "Convolution"
  bottom: "pool2"
  top: "conv3"
  convolution_param {
    num_output: 250
    pad: 0
    kernel_size: 4
    group: 1
    stride: 1
    weight_filler {
      type: "xavier"
    }
  }
}
layer {
  name: "conv3_relu"
  type: "ReLU"
  bottom: "conv3"
  top: "conv3"
}
layer {
  name: "pool3"
  type: "Pooling"
  bottom: "conv3"
  top: "pool3"
  pooling_param {
    pool: MAX
    kernel_size: 2
    stride: 2
  }
}
layer {
  name: "fc4_300"
  type: "InnerProduct"
  bottom: "pool3"
  top: "fc4_300"
  inner_product_param {
    num_output: 300
    weight_filler {
      type: "xavier"
    }
  }
}
layer {
  name: "fc4_relu"
  type: "ReLU"
  bottom: "fc4_300"
  top: "fc4_300"
}
layer {
  name: "fc5_106"
  type: "InnerProduct"
  bottom: "fc4_300"
  top: "fc5_classes"
  inner_product_param {
    num_output: 106
    weight_filler {
      type: "xavier"
    }
  }
}
layer {
  name: "softmax"
  type: "Softmax"
  bottom: "fc5_classes"
  top: "softmax"
}
layer {
  name: "loss"
  type: "MultinomialLogisticLoss"
  bottom: "softmax"
  bottom: "label"
  top: "loss"
}
layer {
  name: "accuracy_1"
  type: "Accuracy"
  bottom: "fc5_classes"
  bottom: "label"
  top: "accuracy_1"
  accuracy_param {
    top_k: 1
  }
}
layer {
  name: "accuracy_5"
  type: "Accuracy"
  bottom: "fc5_classes"
  bottom: "label"
  top: "accuracy_5"
  accuracy_param {
    top_k: 5
  }
}
layer {
  name: "silence"
  type: "Silence"
  bottom: "accuracy_1"
  bottom: "accuracy_5"
}
I0414 22:55:03.338454 18487 layer_factory.hpp:77] Creating layer data
I0414 22:55:03.343425 18487 net.cpp:100] Creating Layer data
I0414 22:55:03.343441 18487 net.cpp:408] data -> data
I0414 22:55:03.343464 18487 net.cpp:408] data -> label
I0414 22:55:03.344497 18608 db_lmdb.cpp:35] Opened lmdb ../local_data/lmdb/rtsd-r3/histeq/train/lmdb
I0414 22:55:03.360966 18487 data_layer.cpp:41] output data size: 1024,3,48,48
I0414 22:55:03.414947 18487 net.cpp:150] Setting up data
I0414 22:55:03.415000 18487 net.cpp:157] Top shape: 1024 3 48 48 (7077888)
I0414 22:55:03.415007 18487 net.cpp:157] Top shape: 1024 (1024)
I0414 22:55:03.415010 18487 net.cpp:165] Memory required for data: 28315648
I0414 22:55:03.415021 18487 layer_factory.hpp:77] Creating layer label_data_1_split
I0414 22:55:03.415035 18487 net.cpp:100] Creating Layer label_data_1_split
I0414 22:55:03.415041 18487 net.cpp:434] label_data_1_split <- label
I0414 22:55:03.415058 18487 net.cpp:408] label_data_1_split -> label_data_1_split_0
I0414 22:55:03.415071 18487 net.cpp:408] label_data_1_split -> label_data_1_split_1
I0414 22:55:03.415078 18487 net.cpp:408] label_data_1_split -> label_data_1_split_2
I0414 22:55:03.415176 18487 net.cpp:150] Setting up label_data_1_split
I0414 22:55:03.415186 18487 net.cpp:157] Top shape: 1024 (1024)
I0414 22:55:03.415191 18487 net.cpp:157] Top shape: 1024 (1024)
I0414 22:55:03.415194 18487 net.cpp:157] Top shape: 1024 (1024)
I0414 22:55:03.415197 18487 net.cpp:165] Memory required for data: 28327936
I0414 22:55:03.415200 18487 layer_factory.hpp:77] Creating layer conv1
I0414 22:55:03.415218 18487 net.cpp:100] Creating Layer conv1
I0414 22:55:03.415223 18487 net.cpp:434] conv1 <- data
I0414 22:55:03.415231 18487 net.cpp:408] conv1 -> conv1
I0414 22:55:03.812422 18487 net.cpp:150] Setting up conv1
I0414 22:55:03.812450 18487 net.cpp:157] Top shape: 1024 100 42 42 (180633600)
I0414 22:55:03.812454 18487 net.cpp:165] Memory required for data: 750862336
I0414 22:55:03.812476 18487 layer_factory.hpp:77] Creating layer conv1_relu
I0414 22:55:03.812487 18487 net.cpp:100] Creating Layer conv1_relu
I0414 22:55:03.812491 18487 net.cpp:434] conv1_relu <- conv1
I0414 22:55:03.812497 18487 net.cpp:395] conv1_relu -> conv1 (in-place)
I0414 22:55:03.812688 18487 net.cpp:150] Setting up conv1_relu
I0414 22:55:03.812700 18487 net.cpp:157] Top shape: 1024 100 42 42 (180633600)
I0414 22:55:03.812703 18487 net.cpp:165] Memory required for data: 1473396736
I0414 22:55:03.812707 18487 layer_factory.hpp:77] Creating layer pool1
I0414 22:55:03.812716 18487 net.cpp:100] Creating Layer pool1
I0414 22:55:03.812719 18487 net.cpp:434] pool1 <- conv1
I0414 22:55:03.812731 18487 net.cpp:408] pool1 -> pool1
I0414 22:55:03.812786 18487 net.cpp:150] Setting up pool1
I0414 22:55:03.812795 18487 net.cpp:157] Top shape: 1024 100 21 21 (45158400)
I0414 22:55:03.812798 18487 net.cpp:165] Memory required for data: 1654030336
I0414 22:55:03.812801 18487 layer_factory.hpp:77] Creating layer conv2
I0414 22:55:03.812811 18487 net.cpp:100] Creating Layer conv2
I0414 22:55:03.812814 18487 net.cpp:434] conv2 <- pool1
I0414 22:55:03.812819 18487 net.cpp:408] conv2 -> conv2
I0414 22:55:03.820384 18487 net.cpp:150] Setting up conv2
I0414 22:55:03.820405 18487 net.cpp:157] Top shape: 1024 150 18 18 (49766400)
I0414 22:55:03.820408 18487 net.cpp:165] Memory required for data: 1853095936
I0414 22:55:03.820418 18487 layer_factory.hpp:77] Creating layer conv2_relu
I0414 22:55:03.820428 18487 net.cpp:100] Creating Layer conv2_relu
I0414 22:55:03.820435 18487 net.cpp:434] conv2_relu <- conv2
I0414 22:55:03.820439 18487 net.cpp:395] conv2_relu -> conv2 (in-place)
I0414 22:55:03.822381 18487 net.cpp:150] Setting up conv2_relu
I0414 22:55:03.822399 18487 net.cpp:157] Top shape: 1024 150 18 18 (49766400)
I0414 22:55:03.822404 18487 net.cpp:165] Memory required for data: 2052161536
I0414 22:55:03.822408 18487 layer_factory.hpp:77] Creating layer pool2
I0414 22:55:03.822418 18487 net.cpp:100] Creating Layer pool2
I0414 22:55:03.822424 18487 net.cpp:434] pool2 <- conv2
I0414 22:55:03.822429 18487 net.cpp:408] pool2 -> pool2
I0414 22:55:03.822484 18487 net.cpp:150] Setting up pool2
I0414 22:55:03.822494 18487 net.cpp:157] Top shape: 1024 150 9 9 (12441600)
I0414 22:55:03.822497 18487 net.cpp:165] Memory required for data: 2101927936
I0414 22:55:03.822500 18487 layer_factory.hpp:77] Creating layer conv3
I0414 22:55:03.822512 18487 net.cpp:100] Creating Layer conv3
I0414 22:55:03.822517 18487 net.cpp:434] conv3 <- pool2
I0414 22:55:03.822523 18487 net.cpp:408] conv3 -> conv3
I0414 22:55:03.830253 18487 net.cpp:150] Setting up conv3
I0414 22:55:03.830272 18487 net.cpp:157] Top shape: 1024 250 6 6 (9216000)
I0414 22:55:03.830276 18487 net.cpp:165] Memory required for data: 2138791936
I0414 22:55:03.830286 18487 layer_factory.hpp:77] Creating layer conv3_relu
I0414 22:55:03.830296 18487 net.cpp:100] Creating Layer conv3_relu
I0414 22:55:03.830301 18487 net.cpp:434] conv3_relu <- conv3
I0414 22:55:03.830308 18487 net.cpp:395] conv3_relu -> conv3 (in-place)
I0414 22:55:03.832509 18487 net.cpp:150] Setting up conv3_relu
I0414 22:55:03.832527 18487 net.cpp:157] Top shape: 1024 250 6 6 (9216000)
I0414 22:55:03.832530 18487 net.cpp:165] Memory required for data: 2175655936
I0414 22:55:03.832535 18487 layer_factory.hpp:77] Creating layer pool3
I0414 22:55:03.832543 18487 net.cpp:100] Creating Layer pool3
I0414 22:55:03.832547 18487 net.cpp:434] pool3 <- conv3
I0414 22:55:03.832552 18487 net.cpp:408] pool3 -> pool3
I0414 22:55:03.832604 18487 net.cpp:150] Setting up pool3
I0414 22:55:03.832612 18487 net.cpp:157] Top shape: 1024 250 3 3 (2304000)
I0414 22:55:03.832615 18487 net.cpp:165] Memory required for data: 2184871936
I0414 22:55:03.832618 18487 layer_factory.hpp:77] Creating layer fc4_300
I0414 22:55:03.832625 18487 net.cpp:100] Creating Layer fc4_300
I0414 22:55:03.832630 18487 net.cpp:434] fc4_300 <- pool3
I0414 22:55:03.832636 18487 net.cpp:408] fc4_300 -> fc4_300
I0414 22:55:03.839574 18487 net.cpp:150] Setting up fc4_300
I0414 22:55:03.839591 18487 net.cpp:157] Top shape: 1024 300 (307200)
I0414 22:55:03.839594 18487 net.cpp:165] Memory required for data: 2186100736
I0414 22:55:03.839601 18487 layer_factory.hpp:77] Creating layer fc4_relu
I0414 22:55:03.839608 18487 net.cpp:100] Creating Layer fc4_relu
I0414 22:55:03.839612 18487 net.cpp:434] fc4_relu <- fc4_300
I0414 22:55:03.839618 18487 net.cpp:395] fc4_relu -> fc4_300 (in-place)
I0414 22:55:03.839807 18487 net.cpp:150] Setting up fc4_relu
I0414 22:55:03.839819 18487 net.cpp:157] Top shape: 1024 300 (307200)
I0414 22:55:03.839823 18487 net.cpp:165] Memory required for data: 2187329536
I0414 22:55:03.839828 18487 layer_factory.hpp:77] Creating layer fc5_106
I0414 22:55:03.839833 18487 net.cpp:100] Creating Layer fc5_106
I0414 22:55:03.839838 18487 net.cpp:434] fc5_106 <- fc4_300
I0414 22:55:03.839845 18487 net.cpp:408] fc5_106 -> fc5_classes
I0414 22:55:03.841367 18487 net.cpp:150] Setting up fc5_106
I0414 22:55:03.841382 18487 net.cpp:157] Top shape: 1024 106 (108544)
I0414 22:55:03.841385 18487 net.cpp:165] Memory required for data: 2187763712
I0414 22:55:03.841394 18487 layer_factory.hpp:77] Creating layer fc5_classes_fc5_106_0_split
I0414 22:55:03.841403 18487 net.cpp:100] Creating Layer fc5_classes_fc5_106_0_split
I0414 22:55:03.841405 18487 net.cpp:434] fc5_classes_fc5_106_0_split <- fc5_classes
I0414 22:55:03.841413 18487 net.cpp:408] fc5_classes_fc5_106_0_split -> fc5_classes_fc5_106_0_split_0
I0414 22:55:03.841423 18487 net.cpp:408] fc5_classes_fc5_106_0_split -> fc5_classes_fc5_106_0_split_1
I0414 22:55:03.841431 18487 net.cpp:408] fc5_classes_fc5_106_0_split -> fc5_classes_fc5_106_0_split_2
I0414 22:55:03.841486 18487 net.cpp:150] Setting up fc5_classes_fc5_106_0_split
I0414 22:55:03.841495 18487 net.cpp:157] Top shape: 1024 106 (108544)
I0414 22:55:03.841498 18487 net.cpp:157] Top shape: 1024 106 (108544)
I0414 22:55:03.841501 18487 net.cpp:157] Top shape: 1024 106 (108544)
I0414 22:55:03.841505 18487 net.cpp:165] Memory required for data: 2189066240
I0414 22:55:03.841507 18487 layer_factory.hpp:77] Creating layer softmax
I0414 22:55:03.841513 18487 net.cpp:100] Creating Layer softmax
I0414 22:55:03.841517 18487 net.cpp:434] softmax <- fc5_classes_fc5_106_0_split_0
I0414 22:55:03.841524 18487 net.cpp:408] softmax -> softmax
I0414 22:55:03.841781 18487 net.cpp:150] Setting up softmax
I0414 22:55:03.841794 18487 net.cpp:157] Top shape: 1024 106 (108544)
I0414 22:55:03.841797 18487 net.cpp:165] Memory required for data: 2189500416
I0414 22:55:03.841801 18487 layer_factory.hpp:77] Creating layer loss
I0414 22:55:03.841828 18487 net.cpp:100] Creating Layer loss
I0414 22:55:03.841833 18487 net.cpp:434] loss <- softmax
I0414 22:55:03.841838 18487 net.cpp:434] loss <- label_data_1_split_0
I0414 22:55:03.841843 18487 net.cpp:408] loss -> loss
…
