…
I0508 05:05:44.537426 10110 solver.cpp:93] Creating training net from train_net file: ./Prototxt/experiment_16/RTSD/histeq/trial_5/train.prototxt
I0508 05:05:44.537763 10110 net.cpp:58] Initializing net from parameters: 
state {
  phase: TRAIN
  level: 0
  stage: ""
}
layer {
  name: "data"
  type: "Data"
  top: "data"
  top: "label"
  include {
    phase: TRAIN
  }
  transform_param {
    scale: 0.0039215689
    mirror: false
    crop_size: 48
    mean_value: 134
    mean_value: 128
    mean_value: 128
  }
  data_param {
    source: "../local_data/lmdb/RTSD/histeq/train/lmdb"
    batch_size: 1024
    backend: LMDB
  }
}
layer {
  name: "conv1"
  type: "Convolution"
  bottom: "data"
  top: "conv1"
  convolution_param {
    num_output: 100
    pad: 0
    kernel_size: 7
    group: 1
    stride: 1
    weight_filler {
      type: "xavier"
    }
  }
}
layer {
  name: "conv1_relu"
  type: "ReLU"
  bottom: "conv1"
  top: "conv1"
}
layer {
  name: "pool1"
  type: "Pooling"
  bottom: "conv1"
  top: "pool1"
  pooling_param {
    pool: MAX
    kernel_size: 2
    stride: 2
  }
}
layer {
  name: "conv2"
  type: "Convolution"
  bottom: "pool1"
  top: "conv2"
  convolution_param {
    num_output: 150
    pad: 0
    kernel_size: 4
    group: 2
    stride: 1
    weight_filler {
      type: "xavier"
    }
  }
}
layer {
  name: "conv2_relu"
  type: "ReLU"
  bottom: "conv2"
  top: "conv2"
}
layer {
  name: "pool2"
  type: "Pooling"
  bottom: "conv2"
  top: "pool2"
  pooling_param {
    pool: MAX
    kernel_size: 2
    stride: 2
  }
}
layer {
  name: "conv3"
  type: "Convolution"
  bottom: "pool2"
  top: "conv3"
  convolution_param {
    num_output: 250
    pad: 0
    kernel_size: 4
    group: 2
    stride: 1
    weight_filler {
      type: "xavier"
    }
  }
}
layer {
  name: "conv3_relu"
  type: "ReLU"
  bottom: "conv3"
  top: "conv3"
}
layer {
  name: "pool3"
  type: "Pooling"
  bottom: "conv3"
  top: "pool3"
  pooling_param {
    pool: MAX
    kernel_size: 2
    stride: 2
  }
}
layer {
  name: "fc4_300"
  type: "InnerProduct"
  bottom: "pool3"
  top: "fc4_300"
  inner_product_param {
    num_output: 300
    weight_filler {
      type: "xavier"
    }
  }
}
layer {
  name: "fc4_relu"
  type: "ReLU"
  bottom: "fc4_300"
  top: "fc4_300"
}
layer {
  name: "fc5_116"
  type: "InnerProduct"
  bottom: "fc4_300"
  top: "fc5_classes"
  inner_product_param {
    num_output: 116
    weight_filler {
      type: "xavier"
    }
  }
}
layer {
  name: "softmax"
  type: "Softmax"
  bottom: "fc5_classes"
  top: "softmax"
}
layer {
  name: "loss"
  type: "MultinomialLogisticLoss"
  bottom: "softmax"
  bottom: "label"
  top: "loss"
}
layer {
  name: "accuracy_1"
  type: "Accuracy"
  bottom: "fc5_classes"
  bottom: "label"
  top: "accuracy_1"
  accuracy_param {
    top_k: 1
  }
}
layer {
  name: "accuracy_5"
  type: "Accuracy"
  bottom: "fc5_classes"
  bottom: "label"
  top: "accuracy_5"
  accuracy_param {
    top_k: 5
  }
}
layer {
  name: "silence"
  type: "Silence"
  bottom: "accuracy_1"
  bottom: "accuracy_5"
}
I0508 05:05:44.537889 10110 layer_factory.hpp:77] Creating layer data
I0508 05:05:44.538950 10110 net.cpp:100] Creating Layer data
I0508 05:05:44.538966 10110 net.cpp:408] data -> data
I0508 05:05:44.538990 10110 net.cpp:408] data -> label
I0508 05:05:44.558946 10211 db_lmdb.cpp:35] Opened lmdb ../local_data/lmdb/RTSD/histeq/train/lmdb
I0508 05:05:44.581171 10110 data_layer.cpp:41] output data size: 1024,3,48,48
I0508 05:05:44.662583 10110 net.cpp:150] Setting up data
I0508 05:05:44.662641 10110 net.cpp:157] Top shape: 1024 3 48 48 (7077888)
I0508 05:05:44.662648 10110 net.cpp:157] Top shape: 1024 (1024)
I0508 05:05:44.662652 10110 net.cpp:165] Memory required for data: 28315648
I0508 05:05:44.662663 10110 layer_factory.hpp:77] Creating layer label_data_1_split
I0508 05:05:44.662679 10110 net.cpp:100] Creating Layer label_data_1_split
I0508 05:05:44.662685 10110 net.cpp:434] label_data_1_split <- label
I0508 05:05:44.662703 10110 net.cpp:408] label_data_1_split -> label_data_1_split_0
I0508 05:05:44.662716 10110 net.cpp:408] label_data_1_split -> label_data_1_split_1
I0508 05:05:44.662725 10110 net.cpp:408] label_data_1_split -> label_data_1_split_2
I0508 05:05:44.662796 10110 net.cpp:150] Setting up label_data_1_split
I0508 05:05:44.662806 10110 net.cpp:157] Top shape: 1024 (1024)
I0508 05:05:44.662809 10110 net.cpp:157] Top shape: 1024 (1024)
I0508 05:05:44.662813 10110 net.cpp:157] Top shape: 1024 (1024)
I0508 05:05:44.662817 10110 net.cpp:165] Memory required for data: 28327936
I0508 05:05:44.662820 10110 layer_factory.hpp:77] Creating layer conv1
I0508 05:05:44.662839 10110 net.cpp:100] Creating Layer conv1
I0508 05:05:44.662845 10110 net.cpp:434] conv1 <- data
I0508 05:05:44.662852 10110 net.cpp:408] conv1 -> conv1
I0508 05:05:45.019767 10110 net.cpp:150] Setting up conv1
I0508 05:05:45.019795 10110 net.cpp:157] Top shape: 1024 100 42 42 (180633600)
I0508 05:05:45.019800 10110 net.cpp:165] Memory required for data: 750862336
I0508 05:05:45.019824 10110 layer_factory.hpp:77] Creating layer conv1_relu
I0508 05:05:45.019834 10110 net.cpp:100] Creating Layer conv1_relu
I0508 05:05:45.019840 10110 net.cpp:434] conv1_relu <- conv1
I0508 05:05:45.019846 10110 net.cpp:395] conv1_relu -> conv1 (in-place)
I0508 05:05:45.020058 10110 net.cpp:150] Setting up conv1_relu
I0508 05:05:45.020072 10110 net.cpp:157] Top shape: 1024 100 42 42 (180633600)
I0508 05:05:45.020076 10110 net.cpp:165] Memory required for data: 1473396736
I0508 05:05:45.020081 10110 layer_factory.hpp:77] Creating layer pool1
I0508 05:05:45.020092 10110 net.cpp:100] Creating Layer pool1
I0508 05:05:45.020095 10110 net.cpp:434] pool1 <- conv1
I0508 05:05:45.020100 10110 net.cpp:408] pool1 -> pool1
I0508 05:05:45.020157 10110 net.cpp:150] Setting up pool1
I0508 05:05:45.020167 10110 net.cpp:157] Top shape: 1024 100 21 21 (45158400)
I0508 05:05:45.020170 10110 net.cpp:165] Memory required for data: 1654030336
I0508 05:05:45.020174 10110 layer_factory.hpp:77] Creating layer conv2
I0508 05:05:45.020185 10110 net.cpp:100] Creating Layer conv2
I0508 05:05:45.020190 10110 net.cpp:434] conv2 <- pool1
I0508 05:05:45.020196 10110 net.cpp:408] conv2 -> conv2
I0508 05:05:45.029719 10110 net.cpp:150] Setting up conv2
I0508 05:05:45.029739 10110 net.cpp:157] Top shape: 1024 150 18 18 (49766400)
I0508 05:05:45.029743 10110 net.cpp:165] Memory required for data: 1853095936
I0508 05:05:45.029754 10110 layer_factory.hpp:77] Creating layer conv2_relu
I0508 05:05:45.029762 10110 net.cpp:100] Creating Layer conv2_relu
I0508 05:05:45.029765 10110 net.cpp:434] conv2_relu <- conv2
I0508 05:05:45.029770 10110 net.cpp:395] conv2_relu -> conv2 (in-place)
I0508 05:05:45.029958 10110 net.cpp:150] Setting up conv2_relu
I0508 05:05:45.029970 10110 net.cpp:157] Top shape: 1024 150 18 18 (49766400)
I0508 05:05:45.029973 10110 net.cpp:165] Memory required for data: 2052161536
I0508 05:05:45.029976 10110 layer_factory.hpp:77] Creating layer pool2
I0508 05:05:45.029984 10110 net.cpp:100] Creating Layer pool2
I0508 05:05:45.029988 10110 net.cpp:434] pool2 <- conv2
I0508 05:05:45.029996 10110 net.cpp:408] pool2 -> pool2
I0508 05:05:45.030047 10110 net.cpp:150] Setting up pool2
I0508 05:05:45.030057 10110 net.cpp:157] Top shape: 1024 150 9 9 (12441600)
I0508 05:05:45.030061 10110 net.cpp:165] Memory required for data: 2101927936
I0508 05:05:45.030063 10110 layer_factory.hpp:77] Creating layer conv3
I0508 05:05:45.030076 10110 net.cpp:100] Creating Layer conv3
I0508 05:05:45.030079 10110 net.cpp:434] conv3 <- pool2
I0508 05:05:45.030086 10110 net.cpp:408] conv3 -> conv3
I0508 05:05:45.038175 10110 net.cpp:150] Setting up conv3
I0508 05:05:45.038195 10110 net.cpp:157] Top shape: 1024 250 6 6 (9216000)
I0508 05:05:45.038199 10110 net.cpp:165] Memory required for data: 2138791936
I0508 05:05:45.038211 10110 layer_factory.hpp:77] Creating layer conv3_relu
I0508 05:05:45.038219 10110 net.cpp:100] Creating Layer conv3_relu
I0508 05:05:45.038223 10110 net.cpp:434] conv3_relu <- conv3
I0508 05:05:45.038229 10110 net.cpp:395] conv3_relu -> conv3 (in-place)
I0508 05:05:45.038427 10110 net.cpp:150] Setting up conv3_relu
I0508 05:05:45.038440 10110 net.cpp:157] Top shape: 1024 250 6 6 (9216000)
I0508 05:05:45.038444 10110 net.cpp:165] Memory required for data: 2175655936
I0508 05:05:45.038449 10110 layer_factory.hpp:77] Creating layer pool3
I0508 05:05:45.038455 10110 net.cpp:100] Creating Layer pool3
I0508 05:05:45.038460 10110 net.cpp:434] pool3 <- conv3
I0508 05:05:45.038465 10110 net.cpp:408] pool3 -> pool3
I0508 05:05:45.038514 10110 net.cpp:150] Setting up pool3
I0508 05:05:45.038523 10110 net.cpp:157] Top shape: 1024 250 3 3 (2304000)
I0508 05:05:45.038527 10110 net.cpp:165] Memory required for data: 2184871936
I0508 05:05:45.038530 10110 layer_factory.hpp:77] Creating layer fc4_300
I0508 05:05:45.038539 10110 net.cpp:100] Creating Layer fc4_300
I0508 05:05:45.038544 10110 net.cpp:434] fc4_300 <- pool3
I0508 05:05:45.038549 10110 net.cpp:408] fc4_300 -> fc4_300
I0508 05:05:45.044556 10110 net.cpp:150] Setting up fc4_300
I0508 05:05:45.044574 10110 net.cpp:157] Top shape: 1024 300 (307200)
I0508 05:05:45.044579 10110 net.cpp:165] Memory required for data: 2186100736
I0508 05:05:45.044585 10110 layer_factory.hpp:77] Creating layer fc4_relu
I0508 05:05:45.044592 10110 net.cpp:100] Creating Layer fc4_relu
I0508 05:05:45.044596 10110 net.cpp:434] fc4_relu <- fc4_300
I0508 05:05:45.044603 10110 net.cpp:395] fc4_relu -> fc4_300 (in-place)
I0508 05:05:45.051043 10110 net.cpp:150] Setting up fc4_relu
I0508 05:05:45.051062 10110 net.cpp:157] Top shape: 1024 300 (307200)
I0508 05:05:45.051067 10110 net.cpp:165] Memory required for data: 2187329536
I0508 05:05:45.051071 10110 layer_factory.hpp:77] Creating layer fc5_116
I0508 05:05:45.051079 10110 net.cpp:100] Creating Layer fc5_116
I0508 05:05:45.051084 10110 net.cpp:434] fc5_116 <- fc4_300
I0508 05:05:45.051090 10110 net.cpp:408] fc5_116 -> fc5_classes
I0508 05:05:45.062981 10110 net.cpp:150] Setting up fc5_116
I0508 05:05:45.063001 10110 net.cpp:157] Top shape: 1024 116 (118784)
I0508 05:05:45.063004 10110 net.cpp:165] Memory required for data: 2187804672
I0508 05:05:45.063017 10110 layer_factory.hpp:77] Creating layer fc5_classes_fc5_116_0_split
I0508 05:05:45.063029 10110 net.cpp:100] Creating Layer fc5_classes_fc5_116_0_split
I0508 05:05:45.063033 10110 net.cpp:434] fc5_classes_fc5_116_0_split <- fc5_classes
I0508 05:05:45.063040 10110 net.cpp:408] fc5_classes_fc5_116_0_split -> fc5_classes_fc5_116_0_split_0
I0508 05:05:45.063050 10110 net.cpp:408] fc5_classes_fc5_116_0_split -> fc5_classes_fc5_116_0_split_1
I0508 05:05:45.063058 10110 net.cpp:408] fc5_classes_fc5_116_0_split -> fc5_classes_fc5_116_0_split_2
I0508 05:05:45.063115 10110 net.cpp:150] Setting up fc5_classes_fc5_116_0_split
I0508 05:05:45.063125 10110 net.cpp:157] Top shape: 1024 116 (118784)
I0508 05:05:45.063129 10110 net.cpp:157] Top shape: 1024 116 (118784)
I0508 05:05:45.063133 10110 net.cpp:157] Top shape: 1024 116 (118784)
I0508 05:05:45.063136 10110 net.cpp:165] Memory required for data: 2189230080
I0508 05:05:45.063139 10110 layer_factory.hpp:77] Creating layer softmax
I0508 05:05:45.063146 10110 net.cpp:100] Creating Layer softmax
I0508 05:05:45.063149 10110 net.cpp:434] softmax <- fc5_classes_fc5_116_0_split_0
I0508 05:05:45.063155 10110 net.cpp:408] softmax -> softmax
I0508 05:05:45.063424 10110 net.cpp:150] Setting up softmax
I0508 05:05:45.063438 10110 net.cpp:157] Top shape: 1024 116 (118784)
I0508 05:05:45.063448 10110 net.cpp:165] Memory required for data: 2189705216
I0508 05:05:45.063452 10110 layer_factory.hpp:77] Creating layer loss
I0508 05:05:45.063482 10110 net.cpp:100] Creating Layer loss
I0508 05:05:45.063488 10110 net.cpp:434] loss <- softmax
I0508 05:05:45.063493 10110 net.cpp:434] loss <- label_data_1_split_0
I0508 05:05:45.063499 10110 net.cpp:408] loss -> loss
…
