…
I0415 12:44:19.150189 12876 solver.cpp:93] Creating training net from train_net file: ./Prototxt/experiment_12/rtsd-r3/orig/trial_4/train.prototxt
I0415 12:44:19.169198 12876 net.cpp:58] Initializing net from parameters: 
state {
  phase: TRAIN
  level: 0
  stage: ""
}
layer {
  name: "data"
  type: "Data"
  top: "data"
  top: "label"
  include {
    phase: TRAIN
  }
  transform_param {
    scale: 0.0039215689
    mirror: false
    crop_size: 48
    mean_value: 120
    mean_value: 113
    mean_value: 112
  }
  data_param {
    source: "../local_data/lmdb/rtsd-r3/orig/train/lmdb"
    batch_size: 1024
    backend: LMDB
  }
}
layer {
  name: "conv1"
  type: "Convolution"
  bottom: "data"
  top: "conv1"
  convolution_param {
    num_output: 100
    pad: 0
    kernel_size: 7
    group: 1
    stride: 1
    weight_filler {
      type: "xavier"
    }
  }
}
layer {
  name: "conv1_relu"
  type: "ReLU"
  bottom: "conv1"
  top: "conv1"
}
layer {
  name: "pool1"
  type: "Pooling"
  bottom: "conv1"
  top: "pool1"
  pooling_param {
    pool: MAX
    kernel_size: 2
    stride: 2
  }
}
layer {
  name: "conv2"
  type: "Convolution"
  bottom: "pool1"
  top: "conv2"
  convolution_param {
    num_output: 150
    pad: 0
    kernel_size: 4
    group: 1
    stride: 1
    weight_filler {
      type: "xavier"
    }
  }
}
layer {
  name: "conv2_relu"
  type: "ReLU"
  bottom: "conv2"
  top: "conv2"
}
layer {
  name: "pool2"
  type: "Pooling"
  bottom: "conv2"
  top: "pool2"
  pooling_param {
    pool: MAX
    kernel_size: 2
    stride: 2
  }
}
layer {
  name: "conv3"
  type: "Convolution"
  bottom: "pool2"
  top: "conv3"
  convolution_param {
    num_output: 250
    pad: 0
    kernel_size: 4
    group: 1
    stride: 1
    weight_filler {
      type: "xavier"
    }
  }
}
layer {
  name: "conv3_relu"
  type: "ReLU"
  bottom: "conv3"
  top: "conv3"
}
layer {
  name: "pool3"
  type: "Pooling"
  bottom: "conv3"
  top: "pool3"
  pooling_param {
    pool: MAX
    kernel_size: 2
    stride: 2
  }
}
layer {
  name: "fc4_300"
  type: "InnerProduct"
  bottom: "pool3"
  top: "fc4_300"
  inner_product_param {
    num_output: 300
    weight_filler {
      type: "xavier"
    }
  }
}
layer {
  name: "fc4_relu"
  type: "ReLU"
  bottom: "fc4_300"
  top: "fc4_300"
}
layer {
  name: "drop4"
  type: "Dropout"
  bottom: "fc4_300"
  top: "fc4_300"
  dropout_param {
    dropout_ratio: 0.5
  }
}
layer {
  name: "fc5_106"
  type: "InnerProduct"
  bottom: "fc4_300"
  top: "fc5_classes"
  inner_product_param {
    num_output: 106
    weight_filler {
      type: "xavier"
    }
  }
}
layer {
  name: "softmax"
  type: "Softmax"
  bottom: "fc5_classes"
  top: "softmax"
}
layer {
  name: "loss"
  type: "MultinomialLogisticLoss"
  bottom: "softmax"
  bottom: "label"
  top: "loss"
}
layer {
  name: "accuracy_1"
  type: "Accuracy"
  bottom: "fc5_classes"
  bottom: "label"
  top: "accuracy_1"
  accuracy_param {
    top_k: 1
  }
}
layer {
  name: "accuracy_5"
  type: "Accuracy"
  bottom: "fc5_classes"
  bottom: "label"
  top: "accuracy_5"
  accuracy_param {
    top_k: 5
  }
}
layer {
  name: "silence"
  type: "Silence"
  bottom: "accuracy_1"
  bottom: "accuracy_5"
}
I0415 12:44:19.169384 12876 layer_factory.hpp:77] Creating layer data
I0415 12:44:19.171026 12876 net.cpp:100] Creating Layer data
I0415 12:44:19.171061 12876 net.cpp:408] data -> data
I0415 12:44:19.171095 12876 net.cpp:408] data -> label
I0415 12:44:19.172629 12985 db_lmdb.cpp:35] Opened lmdb ../local_data/lmdb/rtsd-r3/orig/train/lmdb
I0415 12:44:19.195930 12876 data_layer.cpp:41] output data size: 1024,3,48,48
I0415 12:44:19.250509 12876 net.cpp:150] Setting up data
I0415 12:44:19.250540 12876 net.cpp:157] Top shape: 1024 3 48 48 (7077888)
I0415 12:44:19.250547 12876 net.cpp:157] Top shape: 1024 (1024)
I0415 12:44:19.250550 12876 net.cpp:165] Memory required for data: 28315648
I0415 12:44:19.250562 12876 layer_factory.hpp:77] Creating layer label_data_1_split
I0415 12:44:19.250582 12876 net.cpp:100] Creating Layer label_data_1_split
I0415 12:44:19.250589 12876 net.cpp:434] label_data_1_split <- label
I0415 12:44:19.250610 12876 net.cpp:408] label_data_1_split -> label_data_1_split_0
I0415 12:44:19.250625 12876 net.cpp:408] label_data_1_split -> label_data_1_split_1
I0415 12:44:19.250634 12876 net.cpp:408] label_data_1_split -> label_data_1_split_2
I0415 12:44:19.250711 12876 net.cpp:150] Setting up label_data_1_split
I0415 12:44:19.250720 12876 net.cpp:157] Top shape: 1024 (1024)
I0415 12:44:19.250726 12876 net.cpp:157] Top shape: 1024 (1024)
I0415 12:44:19.250730 12876 net.cpp:157] Top shape: 1024 (1024)
I0415 12:44:19.250733 12876 net.cpp:165] Memory required for data: 28327936
I0415 12:44:19.250737 12876 layer_factory.hpp:77] Creating layer conv1
I0415 12:44:19.250756 12876 net.cpp:100] Creating Layer conv1
I0415 12:44:19.250761 12876 net.cpp:434] conv1 <- data
I0415 12:44:19.250768 12876 net.cpp:408] conv1 -> conv1
I0415 12:44:19.612128 12876 net.cpp:150] Setting up conv1
I0415 12:44:19.612159 12876 net.cpp:157] Top shape: 1024 100 42 42 (180633600)
I0415 12:44:19.612162 12876 net.cpp:165] Memory required for data: 750862336
I0415 12:44:19.612187 12876 layer_factory.hpp:77] Creating layer conv1_relu
I0415 12:44:19.612201 12876 net.cpp:100] Creating Layer conv1_relu
I0415 12:44:19.612207 12876 net.cpp:434] conv1_relu <- conv1
I0415 12:44:19.612215 12876 net.cpp:395] conv1_relu -> conv1 (in-place)
I0415 12:44:19.612450 12876 net.cpp:150] Setting up conv1_relu
I0415 12:44:19.612464 12876 net.cpp:157] Top shape: 1024 100 42 42 (180633600)
I0415 12:44:19.612468 12876 net.cpp:165] Memory required for data: 1473396736
I0415 12:44:19.612473 12876 layer_factory.hpp:77] Creating layer pool1
I0415 12:44:19.612483 12876 net.cpp:100] Creating Layer pool1
I0415 12:44:19.612488 12876 net.cpp:434] pool1 <- conv1
I0415 12:44:19.612494 12876 net.cpp:408] pool1 -> pool1
I0415 12:44:19.612558 12876 net.cpp:150] Setting up pool1
I0415 12:44:19.612566 12876 net.cpp:157] Top shape: 1024 100 21 21 (45158400)
I0415 12:44:19.612571 12876 net.cpp:165] Memory required for data: 1654030336
I0415 12:44:19.612573 12876 layer_factory.hpp:77] Creating layer conv2
I0415 12:44:19.612586 12876 net.cpp:100] Creating Layer conv2
I0415 12:44:19.612591 12876 net.cpp:434] conv2 <- pool1
I0415 12:44:19.612596 12876 net.cpp:408] conv2 -> conv2
I0415 12:44:19.622037 12876 net.cpp:150] Setting up conv2
I0415 12:44:19.622059 12876 net.cpp:157] Top shape: 1024 150 18 18 (49766400)
I0415 12:44:19.622067 12876 net.cpp:165] Memory required for data: 1853095936
I0415 12:44:19.622079 12876 layer_factory.hpp:77] Creating layer conv2_relu
I0415 12:44:19.622087 12876 net.cpp:100] Creating Layer conv2_relu
I0415 12:44:19.622099 12876 net.cpp:434] conv2_relu <- conv2
I0415 12:44:19.622105 12876 net.cpp:395] conv2_relu -> conv2 (in-place)
I0415 12:44:19.624239 12876 net.cpp:150] Setting up conv2_relu
I0415 12:44:19.624258 12876 net.cpp:157] Top shape: 1024 150 18 18 (49766400)
I0415 12:44:19.624263 12876 net.cpp:165] Memory required for data: 2052161536
I0415 12:44:19.624267 12876 layer_factory.hpp:77] Creating layer pool2
I0415 12:44:19.624275 12876 net.cpp:100] Creating Layer pool2
I0415 12:44:19.624279 12876 net.cpp:434] pool2 <- conv2
I0415 12:44:19.624286 12876 net.cpp:408] pool2 -> pool2
I0415 12:44:19.624343 12876 net.cpp:150] Setting up pool2
I0415 12:44:19.624354 12876 net.cpp:157] Top shape: 1024 150 9 9 (12441600)
I0415 12:44:19.624358 12876 net.cpp:165] Memory required for data: 2101927936
I0415 12:44:19.624362 12876 layer_factory.hpp:77] Creating layer conv3
I0415 12:44:19.624373 12876 net.cpp:100] Creating Layer conv3
I0415 12:44:19.624399 12876 net.cpp:434] conv3 <- pool2
I0415 12:44:19.624406 12876 net.cpp:408] conv3 -> conv3
I0415 12:44:19.631361 12876 net.cpp:150] Setting up conv3
I0415 12:44:19.631382 12876 net.cpp:157] Top shape: 1024 250 6 6 (9216000)
I0415 12:44:19.631386 12876 net.cpp:165] Memory required for data: 2138791936
I0415 12:44:19.631398 12876 layer_factory.hpp:77] Creating layer conv3_relu
I0415 12:44:19.631405 12876 net.cpp:100] Creating Layer conv3_relu
I0415 12:44:19.631409 12876 net.cpp:434] conv3_relu <- conv3
I0415 12:44:19.631415 12876 net.cpp:395] conv3_relu -> conv3 (in-place)
I0415 12:44:19.632946 12876 net.cpp:150] Setting up conv3_relu
I0415 12:44:19.632963 12876 net.cpp:157] Top shape: 1024 250 6 6 (9216000)
I0415 12:44:19.632967 12876 net.cpp:165] Memory required for data: 2175655936
I0415 12:44:19.632972 12876 layer_factory.hpp:77] Creating layer pool3
I0415 12:44:19.632979 12876 net.cpp:100] Creating Layer pool3
I0415 12:44:19.632984 12876 net.cpp:434] pool3 <- conv3
I0415 12:44:19.632990 12876 net.cpp:408] pool3 -> pool3
I0415 12:44:19.633045 12876 net.cpp:150] Setting up pool3
I0415 12:44:19.633055 12876 net.cpp:157] Top shape: 1024 250 3 3 (2304000)
I0415 12:44:19.633060 12876 net.cpp:165] Memory required for data: 2184871936
I0415 12:44:19.633064 12876 layer_factory.hpp:77] Creating layer fc4_300
I0415 12:44:19.633071 12876 net.cpp:100] Creating Layer fc4_300
I0415 12:44:19.633076 12876 net.cpp:434] fc4_300 <- pool3
I0415 12:44:19.633081 12876 net.cpp:408] fc4_300 -> fc4_300
I0415 12:44:19.640120 12876 net.cpp:150] Setting up fc4_300
I0415 12:44:19.640138 12876 net.cpp:157] Top shape: 1024 300 (307200)
I0415 12:44:19.640142 12876 net.cpp:165] Memory required for data: 2186100736
I0415 12:44:19.640151 12876 layer_factory.hpp:77] Creating layer fc4_relu
I0415 12:44:19.640158 12876 net.cpp:100] Creating Layer fc4_relu
I0415 12:44:19.640163 12876 net.cpp:434] fc4_relu <- fc4_300
I0415 12:44:19.640169 12876 net.cpp:395] fc4_relu -> fc4_300 (in-place)
I0415 12:44:19.640401 12876 net.cpp:150] Setting up fc4_relu
I0415 12:44:19.640414 12876 net.cpp:157] Top shape: 1024 300 (307200)
I0415 12:44:19.640419 12876 net.cpp:165] Memory required for data: 2187329536
I0415 12:44:19.640426 12876 layer_factory.hpp:77] Creating layer drop4
I0415 12:44:19.640434 12876 net.cpp:100] Creating Layer drop4
I0415 12:44:19.640439 12876 net.cpp:434] drop4 <- fc4_300
I0415 12:44:19.640446 12876 net.cpp:395] drop4 -> fc4_300 (in-place)
I0415 12:44:19.640487 12876 net.cpp:150] Setting up drop4
I0415 12:44:19.640496 12876 net.cpp:157] Top shape: 1024 300 (307200)
I0415 12:44:19.640501 12876 net.cpp:165] Memory required for data: 2188558336
I0415 12:44:19.640504 12876 layer_factory.hpp:77] Creating layer fc5_106
I0415 12:44:19.640512 12876 net.cpp:100] Creating Layer fc5_106
I0415 12:44:19.640517 12876 net.cpp:434] fc5_106 <- fc4_300
I0415 12:44:19.640524 12876 net.cpp:408] fc5_106 -> fc5_classes
I0415 12:44:19.642496 12876 net.cpp:150] Setting up fc5_106
I0415 12:44:19.642515 12876 net.cpp:157] Top shape: 1024 106 (108544)
I0415 12:44:19.642520 12876 net.cpp:165] Memory required for data: 2188992512
I0415 12:44:19.642532 12876 layer_factory.hpp:77] Creating layer fc5_classes_fc5_106_0_split
I0415 12:44:19.642544 12876 net.cpp:100] Creating Layer fc5_classes_fc5_106_0_split
I0415 12:44:19.642549 12876 net.cpp:434] fc5_classes_fc5_106_0_split <- fc5_classes
I0415 12:44:19.642557 12876 net.cpp:408] fc5_classes_fc5_106_0_split -> fc5_classes_fc5_106_0_split_0
I0415 12:44:19.642568 12876 net.cpp:408] fc5_classes_fc5_106_0_split -> fc5_classes_fc5_106_0_split_1
I0415 12:44:19.642577 12876 net.cpp:408] fc5_classes_fc5_106_0_split -> fc5_classes_fc5_106_0_split_2
I0415 12:44:19.642648 12876 net.cpp:150] Setting up fc5_classes_fc5_106_0_split
I0415 12:44:19.642657 12876 net.cpp:157] Top shape: 1024 106 (108544)
I0415 12:44:19.642663 12876 net.cpp:157] Top shape: 1024 106 (108544)
I0415 12:44:19.642668 12876 net.cpp:157] Top shape: 1024 106 (108544)
I0415 12:44:19.642670 12876 net.cpp:165] Memory required for data: 2190295040
I0415 12:44:19.642690 12876 layer_factory.hpp:77] Creating layer softmax
I0415 12:44:19.642704 12876 net.cpp:100] Creating Layer softmax
I0415 12:44:19.642709 12876 net.cpp:434] softmax <- fc5_classes_fc5_106_0_split_0
I0415 12:44:19.642715 12876 net.cpp:408] softmax -> softmax
I0415 12:44:19.643028 12876 net.cpp:150] Setting up softmax
I0415 12:44:19.643044 12876 net.cpp:157] Top shape: 1024 106 (108544)
I0415 12:44:19.643049 12876 net.cpp:165] Memory required for data: 2190729216
I0415 12:44:19.643054 12876 layer_factory.hpp:77] Creating layer loss
I0415 12:44:19.643061 12876 net.cpp:100] Creating Layer loss
I0415 12:44:19.643066 12876 net.cpp:434] loss <- softmax
I0415 12:44:19.643072 12876 net.cpp:434] loss <- label_data_1_split_0
I0415 12:44:19.643079 12876 net.cpp:408] loss -> loss
…
