…
I0411 06:32:17.618407 18420 net.cpp:322] The NetState phase (0) differed from the phase (1) specified by a rule in layer accuracy_5
I0411 06:32:17.618583 18420 net.cpp:58] Initializing net from parameters: 
state {
  phase: TRAIN
  level: 0
  stage: ""
}
layer {
  name: "data"
  type: "Data"
  top: "data"
  top: "label"
  include {
    phase: TRAIN
  }
  transform_param {
    scale: 0.0039215689
    mirror: false
    crop_size: 48
    mean_value: 130
    mean_value: 123
    mean_value: 137
  }
  data_param {
    source: "../local_data/lmdb/rtsd-r1/histeq/train/lmdb"
    batch_size: 1024
    backend: LMDB
  }
}
layer {
  name: "conv1"
  type: "Convolution"
  bottom: "data"
  top: "conv1"
  convolution_param {
    num_output: 100
    pad: 0
    kernel_size: 7
    group: 1
    stride: 1
    weight_filler {
      type: "xavier"
    }
  }
}
layer {
  name: "conv1_prescale"
  type: "Scale"
  bottom: "conv1"
  top: "conv1"
  param {
    lr_mult: 0
    decay_mult: 0
  }
  scale_param {
    filler {
      value: 0.6666
    }
    bias_term: false
  }
}
layer {
  name: "conv1_sTanH"
  type: "TanH"
  bottom: "conv1"
  top: "conv1"
}
layer {
  name: "conv1_postscale"
  type: "Scale"
  bottom: "conv1"
  top: "conv1"
  param {
    lr_mult: 0
    decay_mult: 0
  }
  scale_param {
    filler {
      value: 1.7159
    }
    bias_term: false
  }
}
layer {
  name: "pool1"
  type: "Pooling"
  bottom: "conv1"
  top: "pool1"
  pooling_param {
    pool: MAX
    kernel_size: 2
    stride: 2
  }
}
layer {
  name: "conv2"
  type: "Convolution"
  bottom: "pool1"
  top: "conv2"
  convolution_param {
    num_output: 150
    pad: 0
    kernel_size: 4
    group: 1
    stride: 1
    weight_filler {
      type: "xavier"
    }
  }
}
layer {
  name: "conv2_prescale"
  type: "Scale"
  bottom: "conv2"
  top: "conv2"
  param {
    lr_mult: 0
    decay_mult: 0
  }
  scale_param {
    filler {
      value: 0.6666
    }
    bias_term: false
  }
}
layer {
  name: "conv2_sTanH"
  type: "TanH"
  bottom: "conv2"
  top: "conv2"
}
layer {
  name: "conv2_postscale"
  type: "Scale"
  bottom: "conv2"
  top: "conv2"
  param {
    lr_mult: 0
    decay_mult: 0
  }
  scale_param {
    filler {
      value: 1.7159
    }
    bias_term: false
  }
}
layer {
  name: "pool2"
  type: "Pooling"
  bottom: "conv2"
  top: "pool2"
  pooling_param {
    pool: MAX
    kernel_size: 2
    stride: 2
  }
}
layer {
  name: "conv3"
  type: "Convolution"
  bottom: "pool2"
  top: "conv3"
  convolution_param {
    num_output: 250
    pad: 0
    kernel_size: 4
    group: 1
    stride: 1
    weight_filler {
      type: "xavier"
    }
  }
}
layer {
  name: "conv3_prescale"
  type: "Scale"
  bottom: "conv3"
  top: "conv3"
  param {
    lr_mult: 0
    decay_mult: 0
  }
  scale_param {
    filler {
      value: 0.6666
    }
    bias_term: false
  }
}
layer {
  name: "conv3_sTanH"
  type: "TanH"
  bottom: "conv3"
  top: "conv3"
}
layer {
  name: "conv3_postscale"
  type: "Scale"
  bottom: "conv3"
  top: "conv3"
  param {
    lr_mult: 0
    decay_mult: 0
  }
  scale_param {
    filler {
      value: 1.7159
    }
    bias_term: false
  }
}
layer {
  name: "pool3"
  type: "Pooling"
  bottom: "conv3"
  top: "pool3"
  pooling_param {
    pool: MAX
    kernel_size: 2
    stride: 2
  }
}
layer {
  name: "fc4_300"
  type: "InnerProduct"
  bottom: "pool3"
  top: "fc4_300"
  inner_product_param {
    num_output: 300
    weight_filler {
      type: "xavier"
    }
  }
}
layer {
  name: "fc4_prescale"
  type: "Scale"
  bottom: "fc4_300"
  top: "fc4_300"
  param {
    lr_mult: 0
    decay_mult: 0
  }
  scale_param {
    filler {
      value: 0.6666
    }
    bias_term: false
  }
}
layer {
  name: "fc4_sTanH"
  type: "TanH"
  bottom: "fc4_300"
  top: "fc4_300"
}
layer {
  name: "fc4_postscale"
  type: "Scale"
  bottom: "fc4_300"
  top: "fc4_300"
  param {
    lr_mult: 0
    decay_mult: 0
  }
  scale_param {
    filler {
      value: 1.7159
    }
    bias_term: false
  }
}
layer {
  name: "fc5_67"
  type: "InnerProduct"
  bottom: "fc4_300"
  top: "fc5_classes"
  inner_product_param {
    num_output: 67
    weight_filler {
      type: "xavier"
    }
  }
}
layer {
  name: "loss"
  type: "SoftmaxWithLoss"
  bottom: "fc5_classes"
  bottom: "label"
  top: "loss"
}
I0411 06:32:17.618711 18420 layer_factory.hpp:77] Creating layer data
I0411 06:32:17.619992 18420 net.cpp:100] Creating Layer data
I0411 06:32:17.620012 18420 net.cpp:408] data -> data
I0411 06:32:17.620036 18420 net.cpp:408] data -> label
I0411 06:32:17.621156 18517 db_lmdb.cpp:35] Opened lmdb ../local_data/lmdb/rtsd-r1/histeq/train/lmdb
I0411 06:32:17.641752 18420 data_layer.cpp:41] output data size: 1024,3,48,48
I0411 06:32:17.688109 18420 net.cpp:150] Setting up data
I0411 06:32:17.688146 18420 net.cpp:157] Top shape: 1024 3 48 48 (7077888)
I0411 06:32:17.688153 18420 net.cpp:157] Top shape: 1024 (1024)
I0411 06:32:17.688158 18420 net.cpp:165] Memory required for data: 28315648
I0411 06:32:17.688169 18420 layer_factory.hpp:77] Creating layer conv1
I0411 06:32:17.688196 18420 net.cpp:100] Creating Layer conv1
I0411 06:32:17.688210 18420 net.cpp:434] conv1 <- data
I0411 06:32:17.688225 18420 net.cpp:408] conv1 -> conv1
I0411 06:32:18.021118 18420 net.cpp:150] Setting up conv1
I0411 06:32:18.021149 18420 net.cpp:157] Top shape: 1024 100 42 42 (180633600)
I0411 06:32:18.021154 18420 net.cpp:165] Memory required for data: 750850048
I0411 06:32:18.021178 18420 layer_factory.hpp:77] Creating layer conv1_prescale
I0411 06:32:18.021195 18420 net.cpp:100] Creating Layer conv1_prescale
I0411 06:32:18.021204 18420 net.cpp:434] conv1_prescale <- conv1
I0411 06:32:18.021214 18420 net.cpp:395] conv1_prescale -> conv1 (in-place)
I0411 06:32:18.021342 18420 net.cpp:150] Setting up conv1_prescale
I0411 06:32:18.021353 18420 net.cpp:157] Top shape: 1024 100 42 42 (180633600)
I0411 06:32:18.021356 18420 net.cpp:165] Memory required for data: 1473384448
I0411 06:32:18.021364 18420 layer_factory.hpp:77] Creating layer conv1_sTanH
I0411 06:32:18.021373 18420 net.cpp:100] Creating Layer conv1_sTanH
I0411 06:32:18.021378 18420 net.cpp:434] conv1_sTanH <- conv1
I0411 06:32:18.021384 18420 net.cpp:395] conv1_sTanH -> conv1 (in-place)
I0411 06:32:18.021612 18420 net.cpp:150] Setting up conv1_sTanH
I0411 06:32:18.021625 18420 net.cpp:157] Top shape: 1024 100 42 42 (180633600)
I0411 06:32:18.021631 18420 net.cpp:165] Memory required for data: 2195918848
I0411 06:32:18.021636 18420 layer_factory.hpp:77] Creating layer conv1_postscale
I0411 06:32:18.021644 18420 net.cpp:100] Creating Layer conv1_postscale
I0411 06:32:18.021651 18420 net.cpp:434] conv1_postscale <- conv1
I0411 06:32:18.021662 18420 net.cpp:395] conv1_postscale -> conv1 (in-place)
I0411 06:32:18.021776 18420 net.cpp:150] Setting up conv1_postscale
I0411 06:32:18.021786 18420 net.cpp:157] Top shape: 1024 100 42 42 (180633600)
I0411 06:32:18.021790 18420 net.cpp:165] Memory required for data: 2918453248
I0411 06:32:18.021795 18420 layer_factory.hpp:77] Creating layer pool1
I0411 06:32:18.021806 18420 net.cpp:100] Creating Layer pool1
I0411 06:32:18.021811 18420 net.cpp:434] pool1 <- conv1
I0411 06:32:18.021816 18420 net.cpp:408] pool1 -> pool1
I0411 06:32:18.021870 18420 net.cpp:150] Setting up pool1
I0411 06:32:18.021878 18420 net.cpp:157] Top shape: 1024 100 21 21 (45158400)
I0411 06:32:18.021905 18420 net.cpp:165] Memory required for data: 3099086848
I0411 06:32:18.021911 18420 layer_factory.hpp:77] Creating layer conv2
I0411 06:32:18.021922 18420 net.cpp:100] Creating Layer conv2
I0411 06:32:18.021927 18420 net.cpp:434] conv2 <- pool1
I0411 06:32:18.021934 18420 net.cpp:408] conv2 -> conv2
I0411 06:32:18.027089 18420 net.cpp:150] Setting up conv2
I0411 06:32:18.027109 18420 net.cpp:157] Top shape: 1024 150 18 18 (49766400)
I0411 06:32:18.027115 18420 net.cpp:165] Memory required for data: 3298152448
I0411 06:32:18.027127 18420 layer_factory.hpp:77] Creating layer conv2_prescale
I0411 06:32:18.027138 18420 net.cpp:100] Creating Layer conv2_prescale
I0411 06:32:18.027144 18420 net.cpp:434] conv2_prescale <- conv2
I0411 06:32:18.027151 18420 net.cpp:395] conv2_prescale -> conv2 (in-place)
I0411 06:32:18.027274 18420 net.cpp:150] Setting up conv2_prescale
I0411 06:32:18.027284 18420 net.cpp:157] Top shape: 1024 150 18 18 (49766400)
I0411 06:32:18.027289 18420 net.cpp:165] Memory required for data: 3497218048
I0411 06:32:18.027295 18420 layer_factory.hpp:77] Creating layer conv2_sTanH
I0411 06:32:18.027305 18420 net.cpp:100] Creating Layer conv2_sTanH
I0411 06:32:18.027312 18420 net.cpp:434] conv2_sTanH <- conv2
I0411 06:32:18.027317 18420 net.cpp:395] conv2_sTanH -> conv2 (in-place)
I0411 06:32:18.028209 18420 net.cpp:150] Setting up conv2_sTanH
I0411 06:32:18.028228 18420 net.cpp:157] Top shape: 1024 150 18 18 (49766400)
I0411 06:32:18.028234 18420 net.cpp:165] Memory required for data: 3696283648
I0411 06:32:18.028239 18420 layer_factory.hpp:77] Creating layer conv2_postscale
I0411 06:32:18.028247 18420 net.cpp:100] Creating Layer conv2_postscale
I0411 06:32:18.028252 18420 net.cpp:434] conv2_postscale <- conv2
I0411 06:32:18.028259 18420 net.cpp:395] conv2_postscale -> conv2 (in-place)
I0411 06:32:18.028373 18420 net.cpp:150] Setting up conv2_postscale
I0411 06:32:18.028383 18420 net.cpp:157] Top shape: 1024 150 18 18 (49766400)
I0411 06:32:18.028385 18420 net.cpp:165] Memory required for data: 3895349248
I0411 06:32:18.028393 18420 layer_factory.hpp:77] Creating layer pool2
I0411 06:32:18.028400 18420 net.cpp:100] Creating Layer pool2
I0411 06:32:18.028405 18420 net.cpp:434] pool2 <- conv2
I0411 06:32:18.028411 18420 net.cpp:408] pool2 -> pool2
I0411 06:32:18.028456 18420 net.cpp:150] Setting up pool2
I0411 06:32:18.028465 18420 net.cpp:157] Top shape: 1024 150 9 9 (12441600)
I0411 06:32:18.028468 18420 net.cpp:165] Memory required for data: 3945115648
I0411 06:32:18.028472 18420 layer_factory.hpp:77] Creating layer conv3
I0411 06:32:18.028481 18420 net.cpp:100] Creating Layer conv3
I0411 06:32:18.028486 18420 net.cpp:434] conv3 <- pool2
I0411 06:32:18.028492 18420 net.cpp:408] conv3 -> conv3
I0411 06:32:18.035105 18420 net.cpp:150] Setting up conv3
I0411 06:32:18.035125 18420 net.cpp:157] Top shape: 1024 250 6 6 (9216000)
I0411 06:32:18.035131 18420 net.cpp:165] Memory required for data: 3981979648
I0411 06:32:18.035143 18420 layer_factory.hpp:77] Creating layer conv3_prescale
I0411 06:32:18.035154 18420 net.cpp:100] Creating Layer conv3_prescale
I0411 06:32:18.035159 18420 net.cpp:434] conv3_prescale <- conv3
I0411 06:32:18.035166 18420 net.cpp:395] conv3_prescale -> conv3 (in-place)
I0411 06:32:18.035279 18420 net.cpp:150] Setting up conv3_prescale
I0411 06:32:18.035287 18420 net.cpp:157] Top shape: 1024 250 6 6 (9216000)
I0411 06:32:18.035291 18420 net.cpp:165] Memory required for data: 4018843648
I0411 06:32:18.035297 18420 layer_factory.hpp:77] Creating layer conv3_sTanH
I0411 06:32:18.035305 18420 net.cpp:100] Creating Layer conv3_sTanH
I0411 06:32:18.035308 18420 net.cpp:434] conv3_sTanH <- conv3
I0411 06:32:18.035313 18420 net.cpp:395] conv3_sTanH -> conv3 (in-place)
I0411 06:32:18.036214 18420 net.cpp:150] Setting up conv3_sTanH
I0411 06:32:18.036233 18420 net.cpp:157] Top shape: 1024 250 6 6 (9216000)
I0411 06:32:18.036239 18420 net.cpp:165] Memory required for data: 4055707648
I0411 06:32:18.036244 18420 layer_factory.hpp:77] Creating layer conv3_postscale
I0411 06:32:18.036269 18420 net.cpp:100] Creating Layer conv3_postscale
I0411 06:32:18.036276 18420 net.cpp:434] conv3_postscale <- conv3
I0411 06:32:18.036283 18420 net.cpp:395] conv3_postscale -> conv3 (in-place)
I0411 06:32:18.036401 18420 net.cpp:150] Setting up conv3_postscale
I0411 06:32:18.036412 18420 net.cpp:157] Top shape: 1024 250 6 6 (9216000)
I0411 06:32:18.036417 18420 net.cpp:165] Memory required for data: 4092571648
I0411 06:32:18.036423 18420 layer_factory.hpp:77] Creating layer pool3
I0411 06:32:18.036432 18420 net.cpp:100] Creating Layer pool3
I0411 06:32:18.036437 18420 net.cpp:434] pool3 <- conv3
I0411 06:32:18.036443 18420 net.cpp:408] pool3 -> pool3
I0411 06:32:18.036487 18420 net.cpp:150] Setting up pool3
I0411 06:32:18.036496 18420 net.cpp:157] Top shape: 1024 250 3 3 (2304000)
I0411 06:32:18.036499 18420 net.cpp:165] Memory required for data: 4101787648
I0411 06:32:18.036504 18420 layer_factory.hpp:77] Creating layer fc4_300
I0411 06:32:18.036514 18420 net.cpp:100] Creating Layer fc4_300
I0411 06:32:18.036519 18420 net.cpp:434] fc4_300 <- pool3
I0411 06:32:18.036525 18420 net.cpp:408] fc4_300 -> fc4_300
I0411 06:32:18.043001 18420 net.cpp:150] Setting up fc4_300
I0411 06:32:18.043020 18420 net.cpp:157] Top shape: 1024 300 (307200)
I0411 06:32:18.043026 18420 net.cpp:165] Memory required for data: 4103016448
I0411 06:32:18.043035 18420 layer_factory.hpp:77] Creating layer fc4_prescale
I0411 06:32:18.043045 18420 net.cpp:100] Creating Layer fc4_prescale
I0411 06:32:18.043051 18420 net.cpp:434] fc4_prescale <- fc4_300
I0411 06:32:18.043057 18420 net.cpp:395] fc4_prescale -> fc4_300 (in-place)
I0411 06:32:18.043164 18420 net.cpp:150] Setting up fc4_prescale
I0411 06:32:18.043172 18420 net.cpp:157] Top shape: 1024 300 (307200)
I0411 06:32:18.043176 18420 net.cpp:165] Memory required for data: 4104245248
I0411 06:32:18.043182 18420 layer_factory.hpp:77] Creating layer fc4_sTanH
I0411 06:32:18.043190 18420 net.cpp:100] Creating Layer fc4_sTanH
I0411 06:32:18.043193 18420 net.cpp:434] fc4_sTanH <- fc4_300
I0411 06:32:18.043200 18420 net.cpp:395] fc4_sTanH -> fc4_300 (in-place)
I0411 06:32:18.043417 18420 net.cpp:150] Setting up fc4_sTanH
I0411 06:32:18.043431 18420 net.cpp:157] Top shape: 1024 300 (307200)
I0411 06:32:18.043436 18420 net.cpp:165] Memory required for data: 4105474048
I0411 06:32:18.043438 18420 layer_factory.hpp:77] Creating layer fc4_postscale
I0411 06:32:18.043447 18420 net.cpp:100] Creating Layer fc4_postscale
I0411 06:32:18.043452 18420 net.cpp:434] fc4_postscale <- fc4_300
I0411 06:32:18.043458 18420 net.cpp:395] fc4_postscale -> fc4_300 (in-place)
I0411 06:32:18.043568 18420 net.cpp:150] Setting up fc4_postscale
I0411 06:32:18.043577 18420 net.cpp:157] Top shape: 1024 300 (307200)
I0411 06:32:18.043581 18420 net.cpp:165] Memory required for data: 4106702848
I0411 06:32:18.043586 18420 layer_factory.hpp:77] Creating layer fc5_67
I0411 06:32:18.043596 18420 net.cpp:100] Creating Layer fc5_67
I0411 06:32:18.043601 18420 net.cpp:434] fc5_67 <- fc4_300
I0411 06:32:18.043607 18420 net.cpp:408] fc5_67 -> fc5_classes
I0411 06:32:18.044986 18420 net.cpp:150] Setting up fc5_67
I0411 06:32:18.045004 18420 net.cpp:157] Top shape: 1024 67 (68608)
I0411 06:32:18.045009 18420 net.cpp:165] Memory required for data: 4106977280
I0411 06:32:18.045022 18420 layer_factory.hpp:77] Creating layer loss
I0411 06:32:18.045032 18420 net.cpp:100] Creating Layer loss
I0411 06:32:18.045037 18420 net.cpp:434] loss <- fc5_classes
I0411 06:32:18.045043 18420 net.cpp:434] loss <- label
I0411 06:32:18.045050 18420 net.cpp:408] loss -> loss
I0411 06:32:18.045065 18420 layer_factory.hpp:77] Creating layer loss
…
I0411 06:32:18.045946 18420 solver.cpp:193] Creating test net (#0) specified by test_net file: ./Prototxt/experiment_8/rtsd-r1/histeq/trial_3/test.prototxt
I0411 06:32:18.046167 18420 net.cpp:58] Initializing net from parameters: 
state {
  phase: TEST
}
layer {
  name: "data"
  type: "Data"
  top: "data"
  top: "label"
  include {
    phase: TEST
  }
  transform_param {
    scale: 0.0039215689
    mirror: false
    crop_size: 48
    mean_value: 124
    mean_value: 121
    mean_value: 142
  }
  data_param {
    source: "../local_data/lmdb/rtsd-r1/histeq/test/lmdb"
    batch_size: 1024
    backend: LMDB
  }
}
layer {
  name: "conv1"
  type: "Convolution"
  bottom: "data"
  top: "conv1"
  convolution_param {
    num_output: 100
    pad: 0
    kernel_size: 7
    group: 1
    stride: 1
    weight_filler {
      type: "xavier"
    }
  }
}
layer {
  name: "conv1_prescale"
  type: "Scale"
  bottom: "conv1"
  top: "conv1"
  param {
    lr_mult: 0
    decay_mult: 0
  }
  scale_param {
    filler {
      value: 0.6666
    }
    bias_term: false
  }
}
layer {
  name: "conv1_sTanH"
  type: "TanH"
  bottom: "conv1"
  top: "conv1"
}
layer {
  name: "conv1_postscale"
  type: "Scale"
  bottom: "conv1"
  top: "conv1"
  param {
    lr_mult: 0
    decay_mult: 0
  }
  scale_param {
    filler {
      value: 1.7159
    }
    bias_term: false
  }
}
layer {
  name: "pool1"
  type: "Pooling"
  bottom: "conv1"
  top: "pool1"
  pooling_param {
    pool: MAX
    kernel_size: 2
    stride: 2
  }
}
layer {
  name: "conv2"
  type: "Convolution"
  bottom: "pool1"
  top: "conv2"
  convolution_param {
    num_output: 150
    pad: 0
    kernel_size: 4
    group: 1
    stride: 1
    weight_filler {
      type: "xavier"
    }
  }
}
layer {
  name: "conv2_prescale"
  type: "Scale"
  bottom: "conv2"
  top: "conv2"
  param {
    lr_mult: 0
    decay_mult: 0
  }
  scale_param {
    filler {
      value: 0.6666
    }
    bias_term: false
  }
}
layer {
  name: "conv2_sTanH"
  type: "TanH"
  bottom: "conv2"
  top: "conv2"
}
layer {
  name: "conv2_postscale"
  type: "Scale"
  bottom: "conv2"
  top: "conv2"
  param {
    lr_mult: 0
    decay_mult: 0
  }
  scale_param {
    filler {
      value: 1.7159
    }
    bias_term: false
  }
}
layer {
  name: "pool2"
  type: "Pooling"
  bottom: "conv2"
  top: "pool2"
  pooling_param {
    pool: MAX
    kernel_size: 2
    stride: 2
  }
}
layer {
  name: "conv3"
  type: "Convolution"
  bottom: "pool2"
  top: "conv3"
  convolution_param {
    num_output: 250
    pad: 0
    kernel_size: 4
    group: 1
    stride: 1
    weight_filler {
      type: "xavier"
    }
  }
}
layer {
  name: "conv3_prescale"
  type: "Scale"
  bottom: "conv3"
  top: "conv3"
  param {
    lr_mult: 0
    decay_mult: 0
  }
  scale_param {
    filler {
      value: 0.6666
    }
    bias_term: false
  }
}
layer {
  name: "conv3_sTanH"
  type: "TanH"
  bottom: "conv3"
  top: "conv3"
}
layer {
  name: "conv3_postscale"
  type: "Scale"
  bottom: "conv3"
  top: "conv3"
  param {
    lr_mult: 0
    decay_mult: 0
  }
  scale_param {
    filler {
      value: 1.7159
    }
    bias_term: false
  }
}
layer {
  name: "pool3"
  type: "Pooling"
  bottom: "conv3"
  top: "pool3"
  pooling_param {
    pool: MAX
    kernel_size: 2
    stride: 2
  }
}
layer {
  name: "fc4_300"
  type: "InnerProduct"
  bottom: "pool3"
  top: "fc4_300"
  inner_product_param {
    num_output: 300
    weight_filler {
      type: "xavier"
    }
  }
}
layer {
  name: "fc4_prescale"
  type: "Scale"
  bottom: "fc4_300"
  top: "fc4_300"
  param {
    lr_mult: 0
    decay_mult: 0
  }
  scale_param {
    filler {
      value: 0.6666
    }
    bias_term: false
  }
}
layer {
  name: "fc4_sTanH"
  type: "TanH"
  bottom: "fc4_300"
  top: "fc4_300"
}
layer {
  name: "fc4_postscale"
  type: "Scale"
  bottom: "fc4_300"
  top: "fc4_300"
  param {
    lr_mult: 0
    decay_mult: 0
  }
  scale_param {
    filler {
      value: 1.7159
    }
    bias_term: false
  }
}
layer {
  name: "fc5_67"
  type: "InnerProduct"
  bottom: "fc4_300"
  top: "fc5_classes"
  inner_product_param {
    num_output: 67
    weight_filler {
      type: "xavier"
    }
  }
}
layer {
  name: "loss"
  type: "SoftmaxWithLoss"
  bottom: "fc5_classes"
  bottom: "label"
  top: "loss"
}
layer {
  name: "accuracy_1"
  type: "Accuracy"
  bottom: "fc5_classes"
  bottom: "label"
  top: "accuracy_1"
  include {
    phase: TEST
  }
  accuracy_param {
    top_k: 1
  }
}
layer {
  name: "accuracy_5"
  type: "Accuracy"
  bottom: "fc5_classes"
  bottom: "label"
  top: "accuracy_5"
  include {
    phase: TEST
  }
  accuracy_param {
    top_k: 5
  }
}
I0411 06:32:18.046308 18420 layer_factory.hpp:77] Creating layer data
I0411 06:32:18.047125 18420 net.cpp:100] Creating Layer data
I0411 06:32:18.047138 18420 net.cpp:408] data -> data
I0411 06:32:18.047152 18420 net.cpp:408] data -> label
I0411 06:32:18.048730 18548 db_lmdb.cpp:35] Opened lmdb ../local_data/lmdb/rtsd-r1/histeq/test/lmdb
I0411 06:32:18.048938 18420 data_layer.cpp:41] output data size: 1024,3,48,48
I0411 06:32:18.104195 18420 net.cpp:150] Setting up data
I0411 06:32:18.104228 18420 net.cpp:157] Top shape: 1024 3 48 48 (7077888)
I0411 06:32:18.104233 18420 net.cpp:157] Top shape: 1024 (1024)
I0411 06:32:18.104238 18420 net.cpp:165] Memory required for data: 28315648
I0411 06:32:18.104244 18420 layer_factory.hpp:77] Creating layer label_data_1_split
I0411 06:32:18.104260 18420 net.cpp:100] Creating Layer label_data_1_split
I0411 06:32:18.104265 18420 net.cpp:434] label_data_1_split <- label
I0411 06:32:18.104277 18420 net.cpp:408] label_data_1_split -> label_data_1_split_0
I0411 06:32:18.104291 18420 net.cpp:408] label_data_1_split -> label_data_1_split_1
I0411 06:32:18.104300 18420 net.cpp:408] label_data_1_split -> label_data_1_split_2
I0411 06:32:18.104403 18420 net.cpp:150] Setting up label_data_1_split
I0411 06:32:18.104413 18420 net.cpp:157] Top shape: 1024 (1024)
I0411 06:32:18.104418 18420 net.cpp:157] Top shape: 1024 (1024)
I0411 06:32:18.104423 18420 net.cpp:157] Top shape: 1024 (1024)
I0411 06:32:18.104425 18420 net.cpp:165] Memory required for data: 28327936
I0411 06:32:18.104429 18420 layer_factory.hpp:77] Creating layer conv1
I0411 06:32:18.104445 18420 net.cpp:100] Creating Layer conv1
I0411 06:32:18.104451 18420 net.cpp:434] conv1 <- data
I0411 06:32:18.104459 18420 net.cpp:408] conv1 -> conv1
I0411 06:32:18.107401 18420 net.cpp:150] Setting up conv1
I0411 06:32:18.107420 18420 net.cpp:157] Top shape: 1024 100 42 42 (180633600)
I0411 06:32:18.107445 18420 net.cpp:165] Memory required for data: 750862336
I0411 06:32:18.107460 18420 layer_factory.hpp:77] Creating layer conv1_prescale
I0411 06:32:18.107471 18420 net.cpp:100] Creating Layer conv1_prescale
I0411 06:32:18.107475 18420 net.cpp:434] conv1_prescale <- conv1
I0411 06:32:18.107482 18420 net.cpp:395] conv1_prescale -> conv1 (in-place)
I0411 06:32:18.107623 18420 net.cpp:150] Setting up conv1_prescale
I0411 06:32:18.107635 18420 net.cpp:157] Top shape: 1024 100 42 42 (180633600)
I0411 06:32:18.107638 18420 net.cpp:165] Memory required for data: 1473396736
I0411 06:32:18.107650 18420 layer_factory.hpp:77] Creating layer conv1_sTanH
I0411 06:32:18.107661 18420 net.cpp:100] Creating Layer conv1_sTanH
I0411 06:32:18.107666 18420 net.cpp:434] conv1_sTanH <- conv1
I0411 06:32:18.107671 18420 net.cpp:395] conv1_sTanH -> conv1 (in-place)
I0411 06:32:18.107925 18420 net.cpp:150] Setting up conv1_sTanH
I0411 06:32:18.107940 18420 net.cpp:157] Top shape: 1024 100 42 42 (180633600)
I0411 06:32:18.107944 18420 net.cpp:165] Memory required for data: 2195931136
I0411 06:32:18.107949 18420 layer_factory.hpp:77] Creating layer conv1_postscale
I0411 06:32:18.107957 18420 net.cpp:100] Creating Layer conv1_postscale
I0411 06:32:18.107961 18420 net.cpp:434] conv1_postscale <- conv1
I0411 06:32:18.107969 18420 net.cpp:395] conv1_postscale -> conv1 (in-place)
I0411 06:32:18.108105 18420 net.cpp:150] Setting up conv1_postscale
I0411 06:32:18.108115 18420 net.cpp:157] Top shape: 1024 100 42 42 (180633600)
I0411 06:32:18.108119 18420 net.cpp:165] Memory required for data: 2918465536
I0411 06:32:18.108125 18420 layer_factory.hpp:77] Creating layer pool1
I0411 06:32:18.108134 18420 net.cpp:100] Creating Layer pool1
I0411 06:32:18.108137 18420 net.cpp:434] pool1 <- conv1
I0411 06:32:18.108144 18420 net.cpp:408] pool1 -> pool1
I0411 06:32:18.108194 18420 net.cpp:150] Setting up pool1
I0411 06:32:18.108206 18420 net.cpp:157] Top shape: 1024 100 21 21 (45158400)
I0411 06:32:18.108211 18420 net.cpp:165] Memory required for data: 3099099136
I0411 06:32:18.108214 18420 layer_factory.hpp:77] Creating layer conv2
I0411 06:32:18.108223 18420 net.cpp:100] Creating Layer conv2
I0411 06:32:18.108227 18420 net.cpp:434] conv2 <- pool1
I0411 06:32:18.108234 18420 net.cpp:408] conv2 -> conv2
I0411 06:32:18.115644 18420 net.cpp:150] Setting up conv2
I0411 06:32:18.115667 18420 net.cpp:157] Top shape: 1024 150 18 18 (49766400)
I0411 06:32:18.115671 18420 net.cpp:165] Memory required for data: 3298164736
I0411 06:32:18.115684 18420 layer_factory.hpp:77] Creating layer conv2_prescale
I0411 06:32:18.115703 18420 net.cpp:100] Creating Layer conv2_prescale
I0411 06:32:18.115708 18420 net.cpp:434] conv2_prescale <- conv2
I0411 06:32:18.115716 18420 net.cpp:395] conv2_prescale -> conv2 (in-place)
I0411 06:32:18.115854 18420 net.cpp:150] Setting up conv2_prescale
I0411 06:32:18.115864 18420 net.cpp:157] Top shape: 1024 150 18 18 (49766400)
I0411 06:32:18.115869 18420 net.cpp:165] Memory required for data: 3497230336
I0411 06:32:18.115875 18420 layer_factory.hpp:77] Creating layer conv2_sTanH
I0411 06:32:18.115893 18420 net.cpp:100] Creating Layer conv2_sTanH
I0411 06:32:18.115898 18420 net.cpp:434] conv2_sTanH <- conv2
I0411 06:32:18.115906 18420 net.cpp:395] conv2_sTanH -> conv2 (in-place)
I0411 06:32:18.117375 18420 net.cpp:150] Setting up conv2_sTanH
I0411 06:32:18.117395 18420 net.cpp:157] Top shape: 1024 150 18 18 (49766400)
I0411 06:32:18.117399 18420 net.cpp:165] Memory required for data: 3696295936
I0411 06:32:18.117403 18420 layer_factory.hpp:77] Creating layer conv2_postscale
I0411 06:32:18.117415 18420 net.cpp:100] Creating Layer conv2_postscale
I0411 06:32:18.117421 18420 net.cpp:434] conv2_postscale <- conv2
I0411 06:32:18.117427 18420 net.cpp:395] conv2_postscale -> conv2 (in-place)
I0411 06:32:18.117557 18420 net.cpp:150] Setting up conv2_postscale
I0411 06:32:18.117568 18420 net.cpp:157] Top shape: 1024 150 18 18 (49766400)
I0411 06:32:18.117571 18420 net.cpp:165] Memory required for data: 3895361536
I0411 06:32:18.117599 18420 layer_factory.hpp:77] Creating layer pool2
I0411 06:32:18.117607 18420 net.cpp:100] Creating Layer pool2
I0411 06:32:18.117611 18420 net.cpp:434] pool2 <- conv2
I0411 06:32:18.117619 18420 net.cpp:408] pool2 -> pool2
I0411 06:32:18.117682 18420 net.cpp:150] Setting up pool2
I0411 06:32:18.117693 18420 net.cpp:157] Top shape: 1024 150 9 9 (12441600)
I0411 06:32:18.117697 18420 net.cpp:165] Memory required for data: 3945127936
I0411 06:32:18.117700 18420 layer_factory.hpp:77] Creating layer conv3
I0411 06:32:18.117712 18420 net.cpp:100] Creating Layer conv3
I0411 06:32:18.117718 18420 net.cpp:434] conv3 <- pool2
I0411 06:32:18.117725 18420 net.cpp:408] conv3 -> conv3
I0411 06:32:18.125437 18420 net.cpp:150] Setting up conv3
I0411 06:32:18.125457 18420 net.cpp:157] Top shape: 1024 250 6 6 (9216000)
I0411 06:32:18.125461 18420 net.cpp:165] Memory required for data: 3981991936
I0411 06:32:18.125475 18420 layer_factory.hpp:77] Creating layer conv3_prescale
I0411 06:32:18.125484 18420 net.cpp:100] Creating Layer conv3_prescale
I0411 06:32:18.125488 18420 net.cpp:434] conv3_prescale <- conv3
I0411 06:32:18.125495 18420 net.cpp:395] conv3_prescale -> conv3 (in-place)
I0411 06:32:18.125615 18420 net.cpp:150] Setting up conv3_prescale
I0411 06:32:18.125627 18420 net.cpp:157] Top shape: 1024 250 6 6 (9216000)
I0411 06:32:18.125630 18420 net.cpp:165] Memory required for data: 4018855936
I0411 06:32:18.125636 18420 layer_factory.hpp:77] Creating layer conv3_sTanH
I0411 06:32:18.125644 18420 net.cpp:100] Creating Layer conv3_sTanH
I0411 06:32:18.125648 18420 net.cpp:434] conv3_sTanH <- conv3
I0411 06:32:18.125653 18420 net.cpp:395] conv3_sTanH -> conv3 (in-place)
I0411 06:32:18.128110 18420 net.cpp:150] Setting up conv3_sTanH
I0411 06:32:18.128130 18420 net.cpp:157] Top shape: 1024 250 6 6 (9216000)
I0411 06:32:18.128134 18420 net.cpp:165] Memory required for data: 4055719936
I0411 06:32:18.128139 18420 layer_factory.hpp:77] Creating layer conv3_postscale
I0411 06:32:18.128150 18420 net.cpp:100] Creating Layer conv3_postscale
I0411 06:32:18.128155 18420 net.cpp:434] conv3_postscale <- conv3
I0411 06:32:18.128163 18420 net.cpp:395] conv3_postscale -> conv3 (in-place)
I0411 06:32:18.128291 18420 net.cpp:150] Setting up conv3_postscale
I0411 06:32:18.128301 18420 net.cpp:157] Top shape: 1024 250 6 6 (9216000)
I0411 06:32:18.128305 18420 net.cpp:165] Memory required for data: 4092583936
I0411 06:32:18.128311 18420 layer_factory.hpp:77] Creating layer pool3
I0411 06:32:18.128324 18420 net.cpp:100] Creating Layer pool3
I0411 06:32:18.128331 18420 net.cpp:434] pool3 <- conv3
I0411 06:32:18.128338 18420 net.cpp:408] pool3 -> pool3
I0411 06:32:18.128387 18420 net.cpp:150] Setting up pool3
I0411 06:32:18.128397 18420 net.cpp:157] Top shape: 1024 250 3 3 (2304000)
I0411 06:32:18.128401 18420 net.cpp:165] Memory required for data: 4101799936
I0411 06:32:18.128404 18420 layer_factory.hpp:77] Creating layer fc4_300
I0411 06:32:18.128413 18420 net.cpp:100] Creating Layer fc4_300
I0411 06:32:18.128419 18420 net.cpp:434] fc4_300 <- pool3
I0411 06:32:18.128425 18420 net.cpp:408] fc4_300 -> fc4_300
I0411 06:32:18.136801 18420 net.cpp:150] Setting up fc4_300
I0411 06:32:18.136821 18420 net.cpp:157] Top shape: 1024 300 (307200)
I0411 06:32:18.136824 18420 net.cpp:165] Memory required for data: 4103028736
I0411 06:32:18.136833 18420 layer_factory.hpp:77] Creating layer fc4_prescale
I0411 06:32:18.136844 18420 net.cpp:100] Creating Layer fc4_prescale
I0411 06:32:18.136849 18420 net.cpp:434] fc4_prescale <- fc4_300
I0411 06:32:18.136855 18420 net.cpp:395] fc4_prescale -> fc4_300 (in-place)
I0411 06:32:18.136971 18420 net.cpp:150] Setting up fc4_prescale
I0411 06:32:18.136981 18420 net.cpp:157] Top shape: 1024 300 (307200)
I0411 06:32:18.136984 18420 net.cpp:165] Memory required for data: 4104257536
I0411 06:32:18.136991 18420 layer_factory.hpp:77] Creating layer fc4_sTanH
I0411 06:32:18.136997 18420 net.cpp:100] Creating Layer fc4_sTanH
I0411 06:32:18.137001 18420 net.cpp:434] fc4_sTanH <- fc4_300
I0411 06:32:18.137006 18420 net.cpp:395] fc4_sTanH -> fc4_300 (in-place)
I0411 06:32:18.137266 18420 net.cpp:150] Setting up fc4_sTanH
I0411 06:32:18.137279 18420 net.cpp:157] Top shape: 1024 300 (307200)
I0411 06:32:18.137284 18420 net.cpp:165] Memory required for data: 4105486336
I0411 06:32:18.137287 18420 layer_factory.hpp:77] Creating layer fc4_postscale
I0411 06:32:18.137297 18420 net.cpp:100] Creating Layer fc4_postscale
I0411 06:32:18.137305 18420 net.cpp:434] fc4_postscale <- fc4_300
I0411 06:32:18.137316 18420 net.cpp:395] fc4_postscale -> fc4_300 (in-place)
I0411 06:32:18.137444 18420 net.cpp:150] Setting up fc4_postscale
I0411 06:32:18.137454 18420 net.cpp:157] Top shape: 1024 300 (307200)
I0411 06:32:18.137461 18420 net.cpp:165] Memory required for data: 4106715136
I0411 06:32:18.137467 18420 layer_factory.hpp:77] Creating layer fc5_67
I0411 06:32:18.137475 18420 net.cpp:100] Creating Layer fc5_67
I0411 06:32:18.137480 18420 net.cpp:434] fc5_67 <- fc4_300
I0411 06:32:18.137487 18420 net.cpp:408] fc5_67 -> fc5_classes
I0411 06:32:18.137795 18420 net.cpp:150] Setting up fc5_67
I0411 06:32:18.137809 18420 net.cpp:157] Top shape: 1024 67 (68608)
I0411 06:32:18.137811 18420 net.cpp:165] Memory required for data: 4106989568
I0411 06:32:18.137822 18420 layer_factory.hpp:77] Creating layer fc5_classes_fc5_67_0_split
I0411 06:32:18.137831 18420 net.cpp:100] Creating Layer fc5_classes_fc5_67_0_split
I0411 06:32:18.137835 18420 net.cpp:434] fc5_classes_fc5_67_0_split <- fc5_classes
I0411 06:32:18.137842 18420 net.cpp:408] fc5_classes_fc5_67_0_split -> fc5_classes_fc5_67_0_split_0
I0411 06:32:18.137850 18420 net.cpp:408] fc5_classes_fc5_67_0_split -> fc5_classes_fc5_67_0_split_1
I0411 06:32:18.137857 18420 net.cpp:408] fc5_classes_fc5_67_0_split -> fc5_classes_fc5_67_0_split_2
I0411 06:32:18.137920 18420 net.cpp:150] Setting up fc5_classes_fc5_67_0_split
I0411 06:32:18.137928 18420 net.cpp:157] Top shape: 1024 67 (68608)
I0411 06:32:18.137933 18420 net.cpp:157] Top shape: 1024 67 (68608)
I0411 06:32:18.137938 18420 net.cpp:157] Top shape: 1024 67 (68608)
I0411 06:32:18.137940 18420 net.cpp:165] Memory required for data: 4107812864
I0411 06:32:18.137944 18420 layer_factory.hpp:77] Creating layer loss
I0411 06:32:18.137953 18420 net.cpp:100] Creating Layer loss
I0411 06:32:18.137959 18420 net.cpp:434] loss <- fc5_classes_fc5_67_0_split_0
I0411 06:32:18.137964 18420 net.cpp:434] loss <- label_data_1_split_0
I0411 06:32:18.137969 18420 net.cpp:408] loss -> loss
…
