…
I0414 20:39:50.237604 26471 solver.cpp:93] Creating training net from train_net file: ./Prototxt/experiment_10/rtsd-r3/histeq/trial_1/train.prototxt
I0414 20:39:50.258793 26471 net.cpp:58] Initializing net from parameters: 
state {
  phase: TRAIN
  level: 0
  stage: ""
}
layer {
  name: "data"
  type: "Data"
  top: "data"
  top: "label"
  include {
    phase: TRAIN
  }
  transform_param {
    scale: 0.0039215689
    mirror: false
    crop_size: 48
    mean_value: 135
    mean_value: 128
    mean_value: 128
  }
  data_param {
    source: "../local_data/lmdb/rtsd-r3/histeq/train/lmdb"
    batch_size: 1024
    backend: LMDB
  }
}
layer {
  name: "conv1"
  type: "Convolution"
  bottom: "data"
  top: "conv1"
  convolution_param {
    num_output: 100
    pad: 0
    kernel_size: 7
    group: 1
    stride: 1
    weight_filler {
      type: "xavier"
    }
  }
}
layer {
  name: "conv1_relu"
  type: "ReLU"
  bottom: "conv1"
  top: "conv1"
}
layer {
  name: "pool1"
  type: "Pooling"
  bottom: "conv1"
  top: "pool1"
  pooling_param {
    pool: MAX
    kernel_size: 2
    stride: 2
  }
}
layer {
  name: "conv2"
  type: "Convolution"
  bottom: "pool1"
  top: "conv2"
  convolution_param {
    num_output: 150
    pad: 0
    kernel_size: 4
    group: 1
    stride: 1
    weight_filler {
      type: "xavier"
    }
  }
}
layer {
  name: "conv2_relu"
  type: "ReLU"
  bottom: "conv2"
  top: "conv2"
}
layer {
  name: "pool2"
  type: "Pooling"
  bottom: "conv2"
  top: "pool2"
  pooling_param {
    pool: MAX
    kernel_size: 2
    stride: 2
  }
}
layer {
  name: "conv3"
  type: "Convolution"
  bottom: "pool2"
  top: "conv3"
  convolution_param {
    num_output: 250
    pad: 0
    kernel_size: 4
    group: 1
    stride: 1
    weight_filler {
      type: "xavier"
    }
  }
}
layer {
  name: "conv3_relu"
  type: "ReLU"
  bottom: "conv3"
  top: "conv3"
}
layer {
  name: "pool3"
  type: "Pooling"
  bottom: "conv3"
  top: "pool3"
  pooling_param {
    pool: MAX
    kernel_size: 2
    stride: 2
  }
}
layer {
  name: "fc4_300"
  type: "InnerProduct"
  bottom: "pool3"
  top: "fc4_300"
  inner_product_param {
    num_output: 300
    weight_filler {
      type: "xavier"
    }
  }
}
layer {
  name: "fc4_relu"
  type: "ReLU"
  bottom: "fc4_300"
  top: "fc4_300"
}
layer {
  name: "fc5_106"
  type: "InnerProduct"
  bottom: "fc4_300"
  top: "fc5_classes"
  inner_product_param {
    num_output: 106
    weight_filler {
      type: "xavier"
    }
  }
}
layer {
  name: "softmax"
  type: "Softmax"
  bottom: "fc5_classes"
  top: "softmax"
}
layer {
  name: "loss"
  type: "MultinomialLogisticLoss"
  bottom: "softmax"
  bottom: "label"
  top: "loss"
}
layer {
  name: "accuracy_1"
  type: "Accuracy"
  bottom: "fc5_classes"
  bottom: "label"
  top: "accuracy_1"
  accuracy_param {
    top_k: 1
  }
}
layer {
  name: "accuracy_5"
  type: "Accuracy"
  bottom: "fc5_classes"
  bottom: "label"
  top: "accuracy_5"
  accuracy_param {
    top_k: 5
  }
}
layer {
  name: "silence"
  type: "Silence"
  bottom: "accuracy_1"
  bottom: "accuracy_5"
}
I0414 20:39:50.258986 26471 layer_factory.hpp:77] Creating layer data
I0414 20:39:50.260591 26471 net.cpp:100] Creating Layer data
I0414 20:39:50.260615 26471 net.cpp:408] data -> data
I0414 20:39:50.260646 26471 net.cpp:408] data -> label
I0414 20:39:50.301472 26619 db_lmdb.cpp:35] Opened lmdb ../local_data/lmdb/rtsd-r3/histeq/train/lmdb
I0414 20:39:50.339309 26471 data_layer.cpp:41] output data size: 1024,3,48,48
I0414 20:39:50.391733 26471 net.cpp:150] Setting up data
I0414 20:39:50.391784 26471 net.cpp:157] Top shape: 1024 3 48 48 (7077888)
I0414 20:39:50.391791 26471 net.cpp:157] Top shape: 1024 (1024)
I0414 20:39:50.391793 26471 net.cpp:165] Memory required for data: 28315648
I0414 20:39:50.391804 26471 layer_factory.hpp:77] Creating layer label_data_1_split
I0414 20:39:50.391819 26471 net.cpp:100] Creating Layer label_data_1_split
I0414 20:39:50.391826 26471 net.cpp:434] label_data_1_split <- label
I0414 20:39:50.391840 26471 net.cpp:408] label_data_1_split -> label_data_1_split_0
I0414 20:39:50.391856 26471 net.cpp:408] label_data_1_split -> label_data_1_split_1
I0414 20:39:50.391863 26471 net.cpp:408] label_data_1_split -> label_data_1_split_2
I0414 20:39:50.391939 26471 net.cpp:150] Setting up label_data_1_split
I0414 20:39:50.391950 26471 net.cpp:157] Top shape: 1024 (1024)
I0414 20:39:50.391955 26471 net.cpp:157] Top shape: 1024 (1024)
I0414 20:39:50.391958 26471 net.cpp:157] Top shape: 1024 (1024)
I0414 20:39:50.391962 26471 net.cpp:165] Memory required for data: 28327936
I0414 20:39:50.391965 26471 layer_factory.hpp:77] Creating layer conv1
I0414 20:39:50.391983 26471 net.cpp:100] Creating Layer conv1
I0414 20:39:50.391988 26471 net.cpp:434] conv1 <- data
I0414 20:39:50.391994 26471 net.cpp:408] conv1 -> conv1
I0414 20:39:50.399073 26639 blocking_queue.cpp:50] Waiting for data
I0414 20:39:50.835125 26471 net.cpp:150] Setting up conv1
I0414 20:39:50.835161 26471 net.cpp:157] Top shape: 1024 100 42 42 (180633600)
I0414 20:39:50.835167 26471 net.cpp:165] Memory required for data: 750862336
I0414 20:39:50.835197 26471 layer_factory.hpp:77] Creating layer conv1_relu
I0414 20:39:50.835214 26471 net.cpp:100] Creating Layer conv1_relu
I0414 20:39:50.835222 26471 net.cpp:434] conv1_relu <- conv1
I0414 20:39:50.835232 26471 net.cpp:395] conv1_relu -> conv1 (in-place)
I0414 20:39:50.835547 26471 net.cpp:150] Setting up conv1_relu
I0414 20:39:50.835566 26471 net.cpp:157] Top shape: 1024 100 42 42 (180633600)
I0414 20:39:50.835571 26471 net.cpp:165] Memory required for data: 1473396736
I0414 20:39:50.835578 26471 layer_factory.hpp:77] Creating layer pool1
I0414 20:39:50.835592 26471 net.cpp:100] Creating Layer pool1
I0414 20:39:50.835599 26471 net.cpp:434] pool1 <- conv1
I0414 20:39:50.835608 26471 net.cpp:408] pool1 -> pool1
I0414 20:39:50.835691 26471 net.cpp:150] Setting up pool1
I0414 20:39:50.835705 26471 net.cpp:157] Top shape: 1024 100 21 21 (45158400)
I0414 20:39:50.835710 26471 net.cpp:165] Memory required for data: 1654030336
I0414 20:39:50.835713 26471 layer_factory.hpp:77] Creating layer conv2
I0414 20:39:50.835728 26471 net.cpp:100] Creating Layer conv2
I0414 20:39:50.835736 26471 net.cpp:434] conv2 <- pool1
I0414 20:39:50.835744 26471 net.cpp:408] conv2 -> conv2
I0414 20:39:50.843588 26471 net.cpp:150] Setting up conv2
I0414 20:39:50.843612 26471 net.cpp:157] Top shape: 1024 150 18 18 (49766400)
I0414 20:39:50.843617 26471 net.cpp:165] Memory required for data: 1853095936
I0414 20:39:50.843634 26471 layer_factory.hpp:77] Creating layer conv2_relu
I0414 20:39:50.843646 26471 net.cpp:100] Creating Layer conv2_relu
I0414 20:39:50.843652 26471 net.cpp:434] conv2_relu <- conv2
I0414 20:39:50.843660 26471 net.cpp:395] conv2_relu -> conv2 (in-place)
I0414 20:39:50.846189 26471 net.cpp:150] Setting up conv2_relu
I0414 20:39:50.846215 26471 net.cpp:157] Top shape: 1024 150 18 18 (49766400)
I0414 20:39:50.846220 26471 net.cpp:165] Memory required for data: 2052161536
I0414 20:39:50.846226 26471 layer_factory.hpp:77] Creating layer pool2
I0414 20:39:50.846237 26471 net.cpp:100] Creating Layer pool2
I0414 20:39:50.846242 26471 net.cpp:434] pool2 <- conv2
I0414 20:39:50.846251 26471 net.cpp:408] pool2 -> pool2
I0414 20:39:50.846328 26471 net.cpp:150] Setting up pool2
I0414 20:39:50.846340 26471 net.cpp:157] Top shape: 1024 150 9 9 (12441600)
I0414 20:39:50.846346 26471 net.cpp:165] Memory required for data: 2101927936
I0414 20:39:50.846350 26471 layer_factory.hpp:77] Creating layer conv3
I0414 20:39:50.846367 26471 net.cpp:100] Creating Layer conv3
I0414 20:39:50.846408 26471 net.cpp:434] conv3 <- pool2
I0414 20:39:50.846421 26471 net.cpp:408] conv3 -> conv3
I0414 20:39:50.855146 26471 net.cpp:150] Setting up conv3
I0414 20:39:50.855172 26471 net.cpp:157] Top shape: 1024 250 6 6 (9216000)
I0414 20:39:50.855177 26471 net.cpp:165] Memory required for data: 2138791936
I0414 20:39:50.855193 26471 layer_factory.hpp:77] Creating layer conv3_relu
I0414 20:39:50.855204 26471 net.cpp:100] Creating Layer conv3_relu
I0414 20:39:50.855212 26471 net.cpp:434] conv3_relu <- conv3
I0414 20:39:50.855222 26471 net.cpp:395] conv3_relu -> conv3 (in-place)
I0414 20:39:50.856631 26471 net.cpp:150] Setting up conv3_relu
I0414 20:39:50.856652 26471 net.cpp:157] Top shape: 1024 250 6 6 (9216000)
I0414 20:39:50.856657 26471 net.cpp:165] Memory required for data: 2175655936
I0414 20:39:50.856662 26471 layer_factory.hpp:77] Creating layer pool3
I0414 20:39:50.856672 26471 net.cpp:100] Creating Layer pool3
I0414 20:39:50.856676 26471 net.cpp:434] pool3 <- conv3
I0414 20:39:50.856684 26471 net.cpp:408] pool3 -> pool3
I0414 20:39:50.856750 26471 net.cpp:150] Setting up pool3
I0414 20:39:50.856761 26471 net.cpp:157] Top shape: 1024 250 3 3 (2304000)
I0414 20:39:50.856767 26471 net.cpp:165] Memory required for data: 2184871936
I0414 20:39:50.856771 26471 layer_factory.hpp:77] Creating layer fc4_300
I0414 20:39:50.856781 26471 net.cpp:100] Creating Layer fc4_300
I0414 20:39:50.856787 26471 net.cpp:434] fc4_300 <- pool3
I0414 20:39:50.856793 26471 net.cpp:408] fc4_300 -> fc4_300
I0414 20:39:50.865224 26471 net.cpp:150] Setting up fc4_300
I0414 20:39:50.865247 26471 net.cpp:157] Top shape: 1024 300 (307200)
I0414 20:39:50.865252 26471 net.cpp:165] Memory required for data: 2186100736
I0414 20:39:50.865262 26471 layer_factory.hpp:77] Creating layer fc4_relu
I0414 20:39:50.865272 26471 net.cpp:100] Creating Layer fc4_relu
I0414 20:39:50.865278 26471 net.cpp:434] fc4_relu <- fc4_300
I0414 20:39:50.865284 26471 net.cpp:395] fc4_relu -> fc4_300 (in-place)
I0414 20:39:50.865556 26471 net.cpp:150] Setting up fc4_relu
I0414 20:39:50.865571 26471 net.cpp:157] Top shape: 1024 300 (307200)
I0414 20:39:50.865576 26471 net.cpp:165] Memory required for data: 2187329536
I0414 20:39:50.865579 26471 layer_factory.hpp:77] Creating layer fc5_106
I0414 20:39:50.865589 26471 net.cpp:100] Creating Layer fc5_106
I0414 20:39:50.865594 26471 net.cpp:434] fc5_106 <- fc4_300
I0414 20:39:50.865600 26471 net.cpp:408] fc5_106 -> fc5_classes
I0414 20:39:50.868059 26471 net.cpp:150] Setting up fc5_106
I0414 20:39:50.868080 26471 net.cpp:157] Top shape: 1024 106 (108544)
I0414 20:39:50.868084 26471 net.cpp:165] Memory required for data: 2187763712
I0414 20:39:50.868099 26471 layer_factory.hpp:77] Creating layer fc5_classes_fc5_106_0_split
I0414 20:39:50.868111 26471 net.cpp:100] Creating Layer fc5_classes_fc5_106_0_split
I0414 20:39:50.868118 26471 net.cpp:434] fc5_classes_fc5_106_0_split <- fc5_classes
I0414 20:39:50.868129 26471 net.cpp:408] fc5_classes_fc5_106_0_split -> fc5_classes_fc5_106_0_split_0
I0414 20:39:50.868140 26471 net.cpp:408] fc5_classes_fc5_106_0_split -> fc5_classes_fc5_106_0_split_1
I0414 20:39:50.868155 26471 net.cpp:408] fc5_classes_fc5_106_0_split -> fc5_classes_fc5_106_0_split_2
I0414 20:39:50.868221 26471 net.cpp:150] Setting up fc5_classes_fc5_106_0_split
I0414 20:39:50.868232 26471 net.cpp:157] Top shape: 1024 106 (108544)
I0414 20:39:50.868238 26471 net.cpp:157] Top shape: 1024 106 (108544)
I0414 20:39:50.868244 26471 net.cpp:157] Top shape: 1024 106 (108544)
I0414 20:39:50.868248 26471 net.cpp:165] Memory required for data: 2189066240
I0414 20:39:50.868252 26471 layer_factory.hpp:77] Creating layer softmax
I0414 20:39:50.868261 26471 net.cpp:100] Creating Layer softmax
I0414 20:39:50.868268 26471 net.cpp:434] softmax <- fc5_classes_fc5_106_0_split_0
I0414 20:39:50.868274 26471 net.cpp:408] softmax -> softmax
I0414 20:39:50.868612 26471 net.cpp:150] Setting up softmax
I0414 20:39:50.868628 26471 net.cpp:157] Top shape: 1024 106 (108544)
I0414 20:39:50.868633 26471 net.cpp:165] Memory required for data: 2189500416
I0414 20:39:50.868660 26471 layer_factory.hpp:77] Creating layer loss
I0414 20:39:50.868674 26471 net.cpp:100] Creating Layer loss
I0414 20:39:50.868680 26471 net.cpp:434] loss <- softmax
I0414 20:39:50.868685 26471 net.cpp:434] loss <- label_data_1_split_0
I0414 20:39:50.868695 26471 net.cpp:408] loss -> loss
…
