…
I0414 16:02:48.198351 23923 solver.cpp:93] Creating training net from train_net file: ./Prototxt/experiment_11/rtsd-r3/histeq/trial_5/train.prototxt
I0414 16:02:48.214682 23923 net.cpp:58] Initializing net from parameters: 
state {
  phase: TRAIN
  level: 0
  stage: ""
}
layer {
  name: "data"
  type: "Data"
  top: "data"
  top: "label"
  include {
    phase: TRAIN
  }
  transform_param {
    scale: 0.0039215689
    mirror: false
    crop_size: 48
    mean_value: 135
    mean_value: 128
    mean_value: 128
  }
  data_param {
    source: "../local_data/lmdb/rtsd-r3/histeq/train/lmdb"
    batch_size: 1024
    backend: LMDB
  }
}
layer {
  name: "conv1"
  type: "Convolution"
  bottom: "data"
  top: "conv1"
  convolution_param {
    num_output: 100
    pad: 0
    kernel_size: 7
    group: 1
    stride: 1
    weight_filler {
      type: "xavier"
    }
  }
}
layer {
  name: "conv1_prescale"
  type: "Scale"
  bottom: "conv1"
  top: "conv1"
  param {
    lr_mult: 0
    decay_mult: 0
  }
  scale_param {
    filler {
      value: 0.6666
    }
    bias_term: false
  }
}
layer {
  name: "conv1_sTanH"
  type: "TanH"
  bottom: "conv1"
  top: "conv1"
}
layer {
  name: "conv1_postscale"
  type: "Scale"
  bottom: "conv1"
  top: "conv1"
  param {
    lr_mult: 0
    decay_mult: 0
  }
  scale_param {
    filler {
      value: 1.7159
    }
    bias_term: false
  }
}
layer {
  name: "pool1"
  type: "Pooling"
  bottom: "conv1"
  top: "pool1"
  pooling_param {
    pool: MAX
    kernel_size: 2
    stride: 2
  }
}
layer {
  name: "conv2"
  type: "Convolution"
  bottom: "pool1"
  top: "conv2"
  convolution_param {
    num_output: 150
    pad: 0
    kernel_size: 4
    group: 1
    stride: 1
    weight_filler {
      type: "xavier"
    }
  }
}
layer {
  name: "conv2_prescale"
  type: "Scale"
  bottom: "conv2"
  top: "conv2"
  param {
    lr_mult: 0
    decay_mult: 0
  }
  scale_param {
    filler {
      value: 0.6666
    }
    bias_term: false
  }
}
layer {
  name: "conv2_sTanH"
  type: "TanH"
  bottom: "conv2"
  top: "conv2"
}
layer {
  name: "conv2_postscale"
  type: "Scale"
  bottom: "conv2"
  top: "conv2"
  param {
    lr_mult: 0
    decay_mult: 0
  }
  scale_param {
    filler {
      value: 1.7159
    }
    bias_term: false
  }
}
layer {
  name: "pool2"
  type: "Pooling"
  bottom: "conv2"
  top: "pool2"
  pooling_param {
    pool: MAX
    kernel_size: 2
    stride: 2
  }
}
layer {
  name: "conv3"
  type: "Convolution"
  bottom: "pool2"
  top: "conv3"
  convolution_param {
    num_output: 250
    pad: 0
    kernel_size: 4
    group: 1
    stride: 1
    weight_filler {
      type: "xavier"
    }
  }
}
layer {
  name: "conv3_prescale"
  type: "Scale"
  bottom: "conv3"
  top: "conv3"
  param {
    lr_mult: 0
    decay_mult: 0
  }
  scale_param {
    filler {
      value: 0.6666
    }
    bias_term: false
  }
}
layer {
  name: "conv3_sTanH"
  type: "TanH"
  bottom: "conv3"
  top: "conv3"
}
layer {
  name: "conv3_postscale"
  type: "Scale"
  bottom: "conv3"
  top: "conv3"
  param {
    lr_mult: 0
    decay_mult: 0
  }
  scale_param {
    filler {
      value: 1.7159
    }
    bias_term: false
  }
}
layer {
  name: "pool3"
  type: "Pooling"
  bottom: "conv3"
  top: "pool3"
  pooling_param {
    pool: MAX
    kernel_size: 2
    stride: 2
  }
}
layer {
  name: "fc4_300"
  type: "InnerProduct"
  bottom: "pool3"
  top: "fc4_300"
  inner_product_param {
    num_output: 300
    weight_filler {
      type: "xavier"
    }
  }
}
layer {
  name: "fc4_prescale"
  type: "Scale"
  bottom: "fc4_300"
  top: "fc4_300"
  param {
    lr_mult: 0
    decay_mult: 0
  }
  scale_param {
    filler {
      value: 0.6666
    }
    bias_term: false
  }
}
layer {
  name: "fc4_sTanH"
  type: "TanH"
  bottom: "fc4_300"
  top: "fc4_300"
}
layer {
  name: "fc4_postscale"
  type: "Scale"
  bottom: "fc4_300"
  top: "fc4_300"
  param {
    lr_mult: 0
    decay_mult: 0
  }
  scale_param {
    filler {
      value: 1.7159
    }
    bias_term: false
  }
}
layer {
  name: "fc5_106"
  type: "InnerProduct"
  bottom: "fc4_300"
  top: "fc5_classes"
  inner_product_param {
    num_output: 106
    weight_filler {
      type: "xavier"
    }
  }
}
layer {
  name: "softmax"
  type: "Softmax"
  bottom: "fc5_classes"
  top: "softmax"
}
layer {
  name: "loss"
  type: "MultinomialLogisticLoss"
  bottom: "softmax"
  bottom: "label"
  top: "loss"
}
layer {
  name: "accuracy_1"
  type: "Accuracy"
  bottom: "fc5_classes"
  bottom: "label"
  top: "accuracy_1"
  accuracy_param {
    top_k: 1
  }
}
layer {
  name: "accuracy_5"
  type: "Accuracy"
  bottom: "fc5_classes"
  bottom: "label"
  top: "accuracy_5"
  accuracy_param {
    top_k: 5
  }
}
layer {
  name: "silence"
  type: "Silence"
  bottom: "accuracy_1"
  bottom: "accuracy_5"
}
I0414 16:02:48.214865 23923 layer_factory.hpp:77] Creating layer data
I0414 16:02:48.216042 23923 net.cpp:100] Creating Layer data
I0414 16:02:48.216064 23923 net.cpp:408] data -> data
I0414 16:02:48.216091 23923 net.cpp:408] data -> label
I0414 16:02:48.219339 24040 db_lmdb.cpp:35] Opened lmdb ../local_data/lmdb/rtsd-r3/histeq/train/lmdb
I0414 16:02:48.237931 23923 data_layer.cpp:41] output data size: 1024,3,48,48
I0414 16:02:48.343391 23923 net.cpp:150] Setting up data
I0414 16:02:48.343436 23923 net.cpp:157] Top shape: 1024 3 48 48 (7077888)
I0414 16:02:48.343446 23923 net.cpp:157] Top shape: 1024 (1024)
I0414 16:02:48.343451 23923 net.cpp:165] Memory required for data: 28315648
I0414 16:02:48.343469 23923 layer_factory.hpp:77] Creating layer label_data_1_split
I0414 16:02:48.343492 23923 net.cpp:100] Creating Layer label_data_1_split
I0414 16:02:48.343502 23923 net.cpp:434] label_data_1_split <- label
I0414 16:02:48.343524 23923 net.cpp:408] label_data_1_split -> label_data_1_split_0
I0414 16:02:48.343546 23923 net.cpp:408] label_data_1_split -> label_data_1_split_1
I0414 16:02:48.343560 23923 net.cpp:408] label_data_1_split -> label_data_1_split_2
I0414 16:02:48.343746 23923 net.cpp:150] Setting up label_data_1_split
I0414 16:02:48.343762 23923 net.cpp:157] Top shape: 1024 (1024)
I0414 16:02:48.343771 23923 net.cpp:157] Top shape: 1024 (1024)
I0414 16:02:48.343778 23923 net.cpp:157] Top shape: 1024 (1024)
I0414 16:02:48.343785 23923 net.cpp:165] Memory required for data: 28327936
I0414 16:02:48.343792 23923 layer_factory.hpp:77] Creating layer conv1
I0414 16:02:48.343828 23923 net.cpp:100] Creating Layer conv1
I0414 16:02:48.343838 23923 net.cpp:434] conv1 <- data
I0414 16:02:48.343853 23923 net.cpp:408] conv1 -> conv1
I0414 16:02:49.169137 23923 net.cpp:150] Setting up conv1
I0414 16:02:49.169164 23923 net.cpp:157] Top shape: 1024 100 42 42 (180633600)
I0414 16:02:49.169167 23923 net.cpp:165] Memory required for data: 750862336
I0414 16:02:49.169189 23923 layer_factory.hpp:77] Creating layer conv1_prescale
I0414 16:02:49.169203 23923 net.cpp:100] Creating Layer conv1_prescale
I0414 16:02:49.169206 23923 net.cpp:434] conv1_prescale <- conv1
I0414 16:02:49.169216 23923 net.cpp:395] conv1_prescale -> conv1 (in-place)
I0414 16:02:49.169325 23923 net.cpp:150] Setting up conv1_prescale
I0414 16:02:49.169334 23923 net.cpp:157] Top shape: 1024 100 42 42 (180633600)
I0414 16:02:49.169337 23923 net.cpp:165] Memory required for data: 1473396736
I0414 16:02:49.169343 23923 layer_factory.hpp:77] Creating layer conv1_sTanH
I0414 16:02:49.169353 23923 net.cpp:100] Creating Layer conv1_sTanH
I0414 16:02:49.169358 23923 net.cpp:434] conv1_sTanH <- conv1
I0414 16:02:49.169363 23923 net.cpp:395] conv1_sTanH -> conv1 (in-place)
I0414 16:02:49.169567 23923 net.cpp:150] Setting up conv1_sTanH
I0414 16:02:49.169602 23923 net.cpp:157] Top shape: 1024 100 42 42 (180633600)
I0414 16:02:49.169606 23923 net.cpp:165] Memory required for data: 2195931136
I0414 16:02:49.169610 23923 layer_factory.hpp:77] Creating layer conv1_postscale
I0414 16:02:49.169617 23923 net.cpp:100] Creating Layer conv1_postscale
I0414 16:02:49.169622 23923 net.cpp:434] conv1_postscale <- conv1
I0414 16:02:49.169628 23923 net.cpp:395] conv1_postscale -> conv1 (in-place)
I0414 16:02:49.169725 23923 net.cpp:150] Setting up conv1_postscale
I0414 16:02:49.169734 23923 net.cpp:157] Top shape: 1024 100 42 42 (180633600)
I0414 16:02:49.169736 23923 net.cpp:165] Memory required for data: 2918465536
I0414 16:02:49.169742 23923 layer_factory.hpp:77] Creating layer pool1
I0414 16:02:49.169749 23923 net.cpp:100] Creating Layer pool1
I0414 16:02:49.169754 23923 net.cpp:434] pool1 <- conv1
I0414 16:02:49.169759 23923 net.cpp:408] pool1 -> pool1
I0414 16:02:49.169811 23923 net.cpp:150] Setting up pool1
I0414 16:02:49.169819 23923 net.cpp:157] Top shape: 1024 100 21 21 (45158400)
I0414 16:02:49.169822 23923 net.cpp:165] Memory required for data: 3099099136
I0414 16:02:49.169826 23923 layer_factory.hpp:77] Creating layer conv2
I0414 16:02:49.169837 23923 net.cpp:100] Creating Layer conv2
I0414 16:02:49.169842 23923 net.cpp:434] conv2 <- pool1
I0414 16:02:49.169848 23923 net.cpp:408] conv2 -> conv2
I0414 16:02:49.192734 23923 net.cpp:150] Setting up conv2
I0414 16:02:49.192757 23923 net.cpp:157] Top shape: 1024 150 18 18 (49766400)
I0414 16:02:49.192761 23923 net.cpp:165] Memory required for data: 3298164736
I0414 16:02:49.192776 23923 layer_factory.hpp:77] Creating layer conv2_prescale
I0414 16:02:49.192788 23923 net.cpp:100] Creating Layer conv2_prescale
I0414 16:02:49.192792 23923 net.cpp:434] conv2_prescale <- conv2
I0414 16:02:49.192800 23923 net.cpp:395] conv2_prescale -> conv2 (in-place)
I0414 16:02:49.192924 23923 net.cpp:150] Setting up conv2_prescale
I0414 16:02:49.192934 23923 net.cpp:157] Top shape: 1024 150 18 18 (49766400)
I0414 16:02:49.192936 23923 net.cpp:165] Memory required for data: 3497230336
I0414 16:02:49.192941 23923 layer_factory.hpp:77] Creating layer conv2_sTanH
I0414 16:02:49.192947 23923 net.cpp:100] Creating Layer conv2_sTanH
I0414 16:02:49.192952 23923 net.cpp:434] conv2_sTanH <- conv2
I0414 16:02:49.192957 23923 net.cpp:395] conv2_sTanH -> conv2 (in-place)
I0414 16:02:49.194844 23923 net.cpp:150] Setting up conv2_sTanH
I0414 16:02:49.194864 23923 net.cpp:157] Top shape: 1024 150 18 18 (49766400)
I0414 16:02:49.194869 23923 net.cpp:165] Memory required for data: 3696295936
I0414 16:02:49.194872 23923 layer_factory.hpp:77] Creating layer conv2_postscale
I0414 16:02:49.194880 23923 net.cpp:100] Creating Layer conv2_postscale
I0414 16:02:49.194887 23923 net.cpp:434] conv2_postscale <- conv2
I0414 16:02:49.194893 23923 net.cpp:395] conv2_postscale -> conv2 (in-place)
I0414 16:02:49.195003 23923 net.cpp:150] Setting up conv2_postscale
I0414 16:02:49.195011 23923 net.cpp:157] Top shape: 1024 150 18 18 (49766400)
I0414 16:02:49.195014 23923 net.cpp:165] Memory required for data: 3895361536
I0414 16:02:49.195019 23923 layer_factory.hpp:77] Creating layer pool2
I0414 16:02:49.195029 23923 net.cpp:100] Creating Layer pool2
I0414 16:02:49.195032 23923 net.cpp:434] pool2 <- conv2
I0414 16:02:49.195039 23923 net.cpp:408] pool2 -> pool2
I0414 16:02:49.195086 23923 net.cpp:150] Setting up pool2
I0414 16:02:49.195096 23923 net.cpp:157] Top shape: 1024 150 9 9 (12441600)
I0414 16:02:49.195099 23923 net.cpp:165] Memory required for data: 3945127936
I0414 16:02:49.195102 23923 layer_factory.hpp:77] Creating layer conv3
I0414 16:02:49.195112 23923 net.cpp:100] Creating Layer conv3
I0414 16:02:49.195118 23923 net.cpp:434] conv3 <- pool2
I0414 16:02:49.195123 23923 net.cpp:408] conv3 -> conv3
I0414 16:02:49.207056 23923 net.cpp:150] Setting up conv3
I0414 16:02:49.207100 23923 net.cpp:157] Top shape: 1024 250 6 6 (9216000)
I0414 16:02:49.207113 23923 net.cpp:165] Memory required for data: 3981991936
I0414 16:02:49.207134 23923 layer_factory.hpp:77] Creating layer conv3_prescale
I0414 16:02:49.207195 23923 net.cpp:100] Creating Layer conv3_prescale
I0414 16:02:49.207208 23923 net.cpp:434] conv3_prescale <- conv3
I0414 16:02:49.207227 23923 net.cpp:395] conv3_prescale -> conv3 (in-place)
I0414 16:02:49.207471 23923 net.cpp:150] Setting up conv3_prescale
I0414 16:02:49.207485 23923 net.cpp:157] Top shape: 1024 250 6 6 (9216000)
I0414 16:02:49.207494 23923 net.cpp:165] Memory required for data: 4018855936
I0414 16:02:49.207507 23923 layer_factory.hpp:77] Creating layer conv3_sTanH
I0414 16:02:49.207525 23923 net.cpp:100] Creating Layer conv3_sTanH
I0414 16:02:49.207535 23923 net.cpp:434] conv3_sTanH <- conv3
I0414 16:02:49.207548 23923 net.cpp:395] conv3_sTanH -> conv3 (in-place)
I0414 16:02:49.209501 23923 net.cpp:150] Setting up conv3_sTanH
I0414 16:02:49.209522 23923 net.cpp:157] Top shape: 1024 250 6 6 (9216000)
I0414 16:02:49.209527 23923 net.cpp:165] Memory required for data: 4055719936
I0414 16:02:49.209532 23923 layer_factory.hpp:77] Creating layer conv3_postscale
I0414 16:02:49.209539 23923 net.cpp:100] Creating Layer conv3_postscale
I0414 16:02:49.209544 23923 net.cpp:434] conv3_postscale <- conv3
I0414 16:02:49.209553 23923 net.cpp:395] conv3_postscale -> conv3 (in-place)
I0414 16:02:49.209661 23923 net.cpp:150] Setting up conv3_postscale
I0414 16:02:49.209671 23923 net.cpp:157] Top shape: 1024 250 6 6 (9216000)
I0414 16:02:49.209674 23923 net.cpp:165] Memory required for data: 4092583936
I0414 16:02:49.209681 23923 layer_factory.hpp:77] Creating layer pool3
I0414 16:02:49.209692 23923 net.cpp:100] Creating Layer pool3
I0414 16:02:49.209697 23923 net.cpp:434] pool3 <- conv3
I0414 16:02:49.209703 23923 net.cpp:408] pool3 -> pool3
I0414 16:02:49.209749 23923 net.cpp:150] Setting up pool3
I0414 16:02:49.209756 23923 net.cpp:157] Top shape: 1024 250 3 3 (2304000)
I0414 16:02:49.209759 23923 net.cpp:165] Memory required for data: 4101799936
I0414 16:02:49.209763 23923 layer_factory.hpp:77] Creating layer fc4_300
I0414 16:02:49.209771 23923 net.cpp:100] Creating Layer fc4_300
I0414 16:02:49.209776 23923 net.cpp:434] fc4_300 <- pool3
I0414 16:02:49.209782 23923 net.cpp:408] fc4_300 -> fc4_300
I0414 16:02:49.220425 23923 net.cpp:150] Setting up fc4_300
I0414 16:02:49.220443 23923 net.cpp:157] Top shape: 1024 300 (307200)
I0414 16:02:49.220448 23923 net.cpp:165] Memory required for data: 4103028736
I0414 16:02:49.220455 23923 layer_factory.hpp:77] Creating layer fc4_prescale
I0414 16:02:49.220465 23923 net.cpp:100] Creating Layer fc4_prescale
I0414 16:02:49.220471 23923 net.cpp:434] fc4_prescale <- fc4_300
I0414 16:02:49.220477 23923 net.cpp:395] fc4_prescale -> fc4_300 (in-place)
I0414 16:02:49.220594 23923 net.cpp:150] Setting up fc4_prescale
I0414 16:02:49.220605 23923 net.cpp:157] Top shape: 1024 300 (307200)
I0414 16:02:49.220608 23923 net.cpp:165] Memory required for data: 4104257536
I0414 16:02:49.220613 23923 layer_factory.hpp:77] Creating layer fc4_sTanH
I0414 16:02:49.220620 23923 net.cpp:100] Creating Layer fc4_sTanH
I0414 16:02:49.220623 23923 net.cpp:434] fc4_sTanH <- fc4_300
I0414 16:02:49.220630 23923 net.cpp:395] fc4_sTanH -> fc4_300 (in-place)
I0414 16:02:49.220829 23923 net.cpp:150] Setting up fc4_sTanH
I0414 16:02:49.220839 23923 net.cpp:157] Top shape: 1024 300 (307200)
I0414 16:02:49.220844 23923 net.cpp:165] Memory required for data: 4105486336
I0414 16:02:49.220847 23923 layer_factory.hpp:77] Creating layer fc4_postscale
I0414 16:02:49.220855 23923 net.cpp:100] Creating Layer fc4_postscale
I0414 16:02:49.220860 23923 net.cpp:434] fc4_postscale <- fc4_300
I0414 16:02:49.220866 23923 net.cpp:395] fc4_postscale -> fc4_300 (in-place)
I0414 16:02:49.220994 23923 net.cpp:150] Setting up fc4_postscale
I0414 16:02:49.221009 23923 net.cpp:157] Top shape: 1024 300 (307200)
I0414 16:02:49.221014 23923 net.cpp:165] Memory required for data: 4106715136
I0414 16:02:49.221021 23923 layer_factory.hpp:77] Creating layer fc5_106
I0414 16:02:49.221034 23923 net.cpp:100] Creating Layer fc5_106
I0414 16:02:49.221040 23923 net.cpp:434] fc5_106 <- fc4_300
I0414 16:02:49.221050 23923 net.cpp:408] fc5_106 -> fc5_classes
I0414 16:02:49.224972 23923 net.cpp:150] Setting up fc5_106
I0414 16:02:49.225004 23923 net.cpp:157] Top shape: 1024 106 (108544)
I0414 16:02:49.225015 23923 net.cpp:165] Memory required for data: 4107149312
I0414 16:02:49.225040 23923 layer_factory.hpp:77] Creating layer fc5_classes_fc5_106_0_split
I0414 16:02:49.225059 23923 net.cpp:100] Creating Layer fc5_classes_fc5_106_0_split
I0414 16:02:49.225071 23923 net.cpp:434] fc5_classes_fc5_106_0_split <- fc5_classes
I0414 16:02:49.225086 23923 net.cpp:408] fc5_classes_fc5_106_0_split -> fc5_classes_fc5_106_0_split_0
I0414 16:02:49.225107 23923 net.cpp:408] fc5_classes_fc5_106_0_split -> fc5_classes_fc5_106_0_split_1
I0414 16:02:49.225124 23923 net.cpp:408] fc5_classes_fc5_106_0_split -> fc5_classes_fc5_106_0_split_2
I0414 16:02:49.225245 23923 net.cpp:150] Setting up fc5_classes_fc5_106_0_split
I0414 16:02:49.225261 23923 net.cpp:157] Top shape: 1024 106 (108544)
I0414 16:02:49.225271 23923 net.cpp:157] Top shape: 1024 106 (108544)
I0414 16:02:49.225282 23923 net.cpp:157] Top shape: 1024 106 (108544)
I0414 16:02:49.225289 23923 net.cpp:165] Memory required for data: 4108451840
I0414 16:02:49.225298 23923 layer_factory.hpp:77] Creating layer softmax
I0414 16:02:49.225318 23923 net.cpp:100] Creating Layer softmax
I0414 16:02:49.225327 23923 net.cpp:434] softmax <- fc5_classes_fc5_106_0_split_0
I0414 16:02:49.225340 23923 net.cpp:408] softmax -> softmax
I0414 16:02:49.225975 23923 net.cpp:150] Setting up softmax
I0414 16:02:49.226006 23923 net.cpp:157] Top shape: 1024 106 (108544)
I0414 16:02:49.226016 23923 net.cpp:165] Memory required for data: 4108886016
I0414 16:02:49.226024 23923 layer_factory.hpp:77] Creating layer loss
I0414 16:02:49.226042 23923 net.cpp:100] Creating Layer loss
I0414 16:02:49.226052 23923 net.cpp:434] loss <- softmax
I0414 16:02:49.226065 23923 net.cpp:434] loss <- label_data_1_split_0
I0414 16:02:49.226081 23923 net.cpp:408] loss -> loss
…
