…
I0402 15:07:17.191293  6988 net.cpp:322] The NetState phase (0) differed from the phase (1) specified by a rule in layer accuracy_5
I0402 15:07:17.191381  6988 net.cpp:58] Initializing net from parameters: 
state {
  phase: TRAIN
  level: 0
  stage: ""
}
layer {
  name: "data"
  type: "Data"
  top: "data"
  top: "label"
  include {
    phase: TRAIN
  }
  transform_param {
    mirror: false
    crop_size: 48
    mean_value: 115
    mean_value: 108
    mean_value: 122
  }
  data_param {
    source: "../local_data/lmdb/rtsd-r1/imajust/train/lmdb"
    batch_size: 1024
    backend: LMDB
  }
}
layer {
  name: "conv1"
  type: "Convolution"
  bottom: "data"
  top: "conv1"
  convolution_param {
    num_output: 100
    pad: 0
    kernel_size: 7
    group: 1
    stride: 1
    weight_filler {
      type: "xavier"
    }
  }
}
layer {
  name: "conv1_relu"
  type: "ReLU"
  bottom: "conv1"
  top: "conv1"
}
layer {
  name: "pool1"
  type: "Pooling"
  bottom: "conv1"
  top: "pool1"
  pooling_param {
    pool: MAX
    kernel_size: 2
    stride: 2
  }
}
layer {
  name: "conv2"
  type: "Convolution"
  bottom: "pool1"
  top: "conv2"
  convolution_param {
    num_output: 150
    pad: 0
    kernel_size: 4
    group: 1
    stride: 1
    weight_filler {
      type: "xavier"
    }
  }
}
layer {
  name: "conv2_relu"
  type: "ReLU"
  bottom: "conv2"
  top: "conv2"
}
layer {
  name: "pool2"
  type: "Pooling"
  bottom: "conv2"
  top: "pool2"
  pooling_param {
    pool: MAX
    kernel_size: 2
    stride: 2
  }
}
layer {
  name: "conv3"
  type: "Convolution"
  bottom: "pool2"
  top: "conv3"
  convolution_param {
    num_output: 250
    pad: 0
    kernel_size: 4
    group: 1
    stride: 1
    weight_filler {
      type: "xavier"
    }
  }
}
layer {
  name: "conv3_relu"
  type: "ReLU"
  bottom: "conv3"
  top: "conv3"
}
layer {
  name: "pool3"
  type: "Pooling"
  bottom: "conv3"
  top: "pool3"
  pooling_param {
    pool: MAX
    kernel_size: 2
    stride: 2
  }
}
layer {
  name: "fc4_300"
  type: "InnerProduct"
  bottom: "pool3"
  top: "fc4_300"
  inner_product_param {
    num_output: 300
    weight_filler {
      type: "xavier"
    }
  }
}
layer {
  name: "fc4_relu"
  type: "ReLU"
  bottom: "fc4_300"
  top: "fc4_300"
}
layer {
  name: "drop4"
  type: "Dropout"
  bottom: "fc4_300"
  top: "fc4_300"
  dropout_param {
    dropout_ratio: 0.4
  }
}
layer {
  name: "fc5_67"
  type: "InnerProduct"
  bottom: "fc4_300"
  top: "fc5_classes"
  inner_product_param {
    num_output: 67
    weight_filler {
      type: "xavier"
    }
  }
}
layer {
  name: "loss"
  type: "SoftmaxWithLoss"
  bottom: "fc5_classes"
  bottom: "label"
  top: "loss"
}
I0402 15:07:17.191454  6988 layer_factory.hpp:77] Creating layer data
I0402 15:07:17.192754  6988 net.cpp:100] Creating Layer data
I0402 15:07:17.192775  6988 net.cpp:408] data -> data
I0402 15:07:17.192796  6988 net.cpp:408] data -> label
I0402 15:07:17.194259  7039 db_lmdb.cpp:35] Opened lmdb ../local_data/lmdb/rtsd-r1/imajust/train/lmdb
I0402 15:07:17.211819  6988 data_layer.cpp:41] output data size: 1024,3,48,48
I0402 15:07:17.270584  6988 net.cpp:150] Setting up data
I0402 15:07:17.270620  6988 net.cpp:157] Top shape: 1024 3 48 48 (7077888)
I0402 15:07:17.270627  6988 net.cpp:157] Top shape: 1024 (1024)
I0402 15:07:17.270653  6988 net.cpp:165] Memory required for data: 28315648
I0402 15:07:17.270665  6988 layer_factory.hpp:77] Creating layer conv1
I0402 15:07:17.270689  6988 net.cpp:100] Creating Layer conv1
I0402 15:07:17.270697  6988 net.cpp:434] conv1 <- data
I0402 15:07:17.270710  6988 net.cpp:408] conv1 -> conv1
I0402 15:07:17.534353  6988 net.cpp:150] Setting up conv1
I0402 15:07:17.534381  6988 net.cpp:157] Top shape: 1024 100 42 42 (180633600)
I0402 15:07:17.534386  6988 net.cpp:165] Memory required for data: 750850048
I0402 15:07:17.534409  6988 layer_factory.hpp:77] Creating layer conv1_relu
I0402 15:07:17.534421  6988 net.cpp:100] Creating Layer conv1_relu
I0402 15:07:17.534425  6988 net.cpp:434] conv1_relu <- conv1
I0402 15:07:17.534432  6988 net.cpp:395] conv1_relu -> conv1 (in-place)
I0402 15:07:17.534627  6988 net.cpp:150] Setting up conv1_relu
I0402 15:07:17.534641  6988 net.cpp:157] Top shape: 1024 100 42 42 (180633600)
I0402 15:07:17.534643  6988 net.cpp:165] Memory required for data: 1473384448
I0402 15:07:17.534648  6988 layer_factory.hpp:77] Creating layer pool1
I0402 15:07:17.534656  6988 net.cpp:100] Creating Layer pool1
I0402 15:07:17.534662  6988 net.cpp:434] pool1 <- conv1
I0402 15:07:17.534667  6988 net.cpp:408] pool1 -> pool1
I0402 15:07:17.534721  6988 net.cpp:150] Setting up pool1
I0402 15:07:17.534730  6988 net.cpp:157] Top shape: 1024 100 21 21 (45158400)
I0402 15:07:17.534734  6988 net.cpp:165] Memory required for data: 1654018048
I0402 15:07:17.534737  6988 layer_factory.hpp:77] Creating layer conv2
I0402 15:07:17.534750  6988 net.cpp:100] Creating Layer conv2
I0402 15:07:17.534755  6988 net.cpp:434] conv2 <- pool1
I0402 15:07:17.534761  6988 net.cpp:408] conv2 -> conv2
I0402 15:07:17.550065  6988 net.cpp:150] Setting up conv2
I0402 15:07:17.550083  6988 net.cpp:157] Top shape: 1024 150 18 18 (49766400)
I0402 15:07:17.550087  6988 net.cpp:165] Memory required for data: 1853083648
I0402 15:07:17.550098  6988 layer_factory.hpp:77] Creating layer conv2_relu
I0402 15:07:17.550106  6988 net.cpp:100] Creating Layer conv2_relu
I0402 15:07:17.550109  6988 net.cpp:434] conv2_relu <- conv2
I0402 15:07:17.550115  6988 net.cpp:395] conv2_relu -> conv2 (in-place)
I0402 15:07:17.553431  6988 net.cpp:150] Setting up conv2_relu
I0402 15:07:17.553449  6988 net.cpp:157] Top shape: 1024 150 18 18 (49766400)
I0402 15:07:17.553453  6988 net.cpp:165] Memory required for data: 2052149248
I0402 15:07:17.553457  6988 layer_factory.hpp:77] Creating layer pool2
I0402 15:07:17.553465  6988 net.cpp:100] Creating Layer pool2
I0402 15:07:17.553469  6988 net.cpp:434] pool2 <- conv2
I0402 15:07:17.553475  6988 net.cpp:408] pool2 -> pool2
I0402 15:07:17.553522  6988 net.cpp:150] Setting up pool2
I0402 15:07:17.553531  6988 net.cpp:157] Top shape: 1024 150 9 9 (12441600)
I0402 15:07:17.553534  6988 net.cpp:165] Memory required for data: 2101915648
I0402 15:07:17.553539  6988 layer_factory.hpp:77] Creating layer conv3
I0402 15:07:17.553547  6988 net.cpp:100] Creating Layer conv3
I0402 15:07:17.553552  6988 net.cpp:434] conv3 <- pool2
I0402 15:07:17.553557  6988 net.cpp:408] conv3 -> conv3
I0402 15:07:17.559116  6988 net.cpp:150] Setting up conv3
I0402 15:07:17.559134  6988 net.cpp:157] Top shape: 1024 250 6 6 (9216000)
I0402 15:07:17.559149  6988 net.cpp:165] Memory required for data: 2138779648
I0402 15:07:17.559160  6988 layer_factory.hpp:77] Creating layer conv3_relu
I0402 15:07:17.559168  6988 net.cpp:100] Creating Layer conv3_relu
I0402 15:07:17.559172  6988 net.cpp:434] conv3_relu <- conv3
I0402 15:07:17.559178  6988 net.cpp:395] conv3_relu -> conv3 (in-place)
I0402 15:07:17.559948  6988 net.cpp:150] Setting up conv3_relu
I0402 15:07:17.559964  6988 net.cpp:157] Top shape: 1024 250 6 6 (9216000)
I0402 15:07:17.559968  6988 net.cpp:165] Memory required for data: 2175643648
I0402 15:07:17.559973  6988 layer_factory.hpp:77] Creating layer pool3
I0402 15:07:17.559979  6988 net.cpp:100] Creating Layer pool3
I0402 15:07:17.559983  6988 net.cpp:434] pool3 <- conv3
I0402 15:07:17.559989  6988 net.cpp:408] pool3 -> pool3
I0402 15:07:17.560061  6988 net.cpp:150] Setting up pool3
I0402 15:07:17.560071  6988 net.cpp:157] Top shape: 1024 250 3 3 (2304000)
I0402 15:07:17.560075  6988 net.cpp:165] Memory required for data: 2184859648
I0402 15:07:17.560080  6988 layer_factory.hpp:77] Creating layer fc4_300
I0402 15:07:17.560087  6988 net.cpp:100] Creating Layer fc4_300
I0402 15:07:17.560092  6988 net.cpp:434] fc4_300 <- pool3
I0402 15:07:17.560099  6988 net.cpp:408] fc4_300 -> fc4_300
I0402 15:07:17.565383  6988 net.cpp:150] Setting up fc4_300
I0402 15:07:17.565399  6988 net.cpp:157] Top shape: 1024 300 (307200)
I0402 15:07:17.565403  6988 net.cpp:165] Memory required for data: 2186088448
I0402 15:07:17.565410  6988 layer_factory.hpp:77] Creating layer fc4_relu
I0402 15:07:17.565418  6988 net.cpp:100] Creating Layer fc4_relu
I0402 15:07:17.565421  6988 net.cpp:434] fc4_relu <- fc4_300
I0402 15:07:17.565428  6988 net.cpp:395] fc4_relu -> fc4_300 (in-place)
I0402 15:07:17.565618  6988 net.cpp:150] Setting up fc4_relu
I0402 15:07:17.565629  6988 net.cpp:157] Top shape: 1024 300 (307200)
I0402 15:07:17.565632  6988 net.cpp:165] Memory required for data: 2187317248
I0402 15:07:17.565636  6988 layer_factory.hpp:77] Creating layer drop4
I0402 15:07:17.565644  6988 net.cpp:100] Creating Layer drop4
I0402 15:07:17.565649  6988 net.cpp:434] drop4 <- fc4_300
I0402 15:07:17.565656  6988 net.cpp:395] drop4 -> fc4_300 (in-place)
I0402 15:07:17.565690  6988 net.cpp:150] Setting up drop4
I0402 15:07:17.565698  6988 net.cpp:157] Top shape: 1024 300 (307200)
I0402 15:07:17.565702  6988 net.cpp:165] Memory required for data: 2188546048
I0402 15:07:17.565706  6988 layer_factory.hpp:77] Creating layer fc5_67
I0402 15:07:17.565712  6988 net.cpp:100] Creating Layer fc5_67
I0402 15:07:17.565716  6988 net.cpp:434] fc5_67 <- fc4_300
I0402 15:07:17.565724  6988 net.cpp:408] fc5_67 -> fc5_classes
I0402 15:07:17.566926  6988 net.cpp:150] Setting up fc5_67
I0402 15:07:17.566941  6988 net.cpp:157] Top shape: 1024 67 (68608)
I0402 15:07:17.566956  6988 net.cpp:165] Memory required for data: 2188820480
I0402 15:07:17.566967  6988 layer_factory.hpp:77] Creating layer loss
I0402 15:07:17.566975  6988 net.cpp:100] Creating Layer loss
I0402 15:07:17.566978  6988 net.cpp:434] loss <- fc5_classes
I0402 15:07:17.566984  6988 net.cpp:434] loss <- label
I0402 15:07:17.566990  6988 net.cpp:408] loss -> loss
I0402 15:07:17.567005  6988 layer_factory.hpp:77] Creating layer loss
…
I0402 15:07:17.567662  6988 solver.cpp:193] Creating test net (#0) specified by test_net file: ./Prototxt/experiment_3/rtsd-r1/imajust/test.prototxt
I0402 15:07:17.567801  6988 net.cpp:58] Initializing net from parameters: 
state {
  phase: TEST
}
layer {
  name: "data"
  type: "Data"
  top: "data"
  top: "label"
  include {
    phase: TEST
  }
  transform_param {
    mirror: false
    crop_size: 48
    mean_value: 109
    mean_value: 106
    mean_value: 126
  }
  data_param {
    source: "../local_data/lmdb/rtsd-r1/imajust/test/lmdb"
    batch_size: 1024
    backend: LMDB
  }
}
layer {
  name: "conv1"
  type: "Convolution"
  bottom: "data"
  top: "conv1"
  convolution_param {
    num_output: 100
    pad: 0
    kernel_size: 7
    group: 1
    stride: 1
    weight_filler {
      type: "xavier"
    }
  }
}
layer {
  name: "conv1_relu"
  type: "ReLU"
  bottom: "conv1"
  top: "conv1"
}
layer {
  name: "pool1"
  type: "Pooling"
  bottom: "conv1"
  top: "pool1"
  pooling_param {
    pool: MAX
    kernel_size: 2
    stride: 2
  }
}
layer {
  name: "conv2"
  type: "Convolution"
  bottom: "pool1"
  top: "conv2"
  convolution_param {
    num_output: 150
    pad: 0
    kernel_size: 4
    group: 1
    stride: 1
    weight_filler {
      type: "xavier"
    }
  }
}
layer {
  name: "conv2_relu"
  type: "ReLU"
  bottom: "conv2"
  top: "conv2"
}
layer {
  name: "pool2"
  type: "Pooling"
  bottom: "conv2"
  top: "pool2"
  pooling_param {
    pool: MAX
    kernel_size: 2
    stride: 2
  }
}
layer {
  name: "conv3"
  type: "Convolution"
  bottom: "pool2"
  top: "conv3"
  convolution_param {
    num_output: 250
    pad: 0
    kernel_size: 4
    group: 1
    stride: 1
    weight_filler {
      type: "xavier"
    }
  }
}
layer {
  name: "conv3_relu"
  type: "ReLU"
  bottom: "conv3"
  top: "conv3"
}
layer {
  name: "pool3"
  type: "Pooling"
  bottom: "conv3"
  top: "pool3"
  pooling_param {
    pool: MAX
    kernel_size: 2
    stride: 2
  }
}
layer {
  name: "fc4_300"
  type: "InnerProduct"
  bottom: "pool3"
  top: "fc4_300"
  inner_product_param {
    num_output: 300
    weight_filler {
      type: "xavier"
    }
  }
}
layer {
  name: "fc4_relu"
  type: "ReLU"
  bottom: "fc4_300"
  top: "fc4_300"
}
layer {
  name: "drop4"
  type: "Dropout"
  bottom: "fc4_300"
  top: "fc4_300"
  dropout_param {
    dropout_ratio: 0.4
  }
}
layer {
  name: "fc5_67"
  type: "InnerProduct"
  bottom: "fc4_300"
  top: "fc5_classes"
  inner_product_param {
    num_output: 67
    weight_filler {
      type: "xavier"
    }
  }
}
layer {
  name: "loss"
  type: "SoftmaxWithLoss"
  bottom: "fc5_classes"
  bottom: "label"
  top: "loss"
}
layer {
  name: "accuracy_1"
  type: "Accuracy"
  bottom: "fc5_classes"
  bottom: "label"
  top: "accuracy_1"
  include {
    phase: TEST
  }
  accuracy_param {
    top_k: 1
  }
}
layer {
  name: "accuracy_5"
  type: "Accuracy"
  bottom: "fc5_classes"
  bottom: "label"
  top: "accuracy_5"
  include {
    phase: TEST
  }
  accuracy_param {
    top_k: 5
  }
}
I0402 15:07:17.567894  6988 layer_factory.hpp:77] Creating layer data
I0402 15:07:17.568562  6988 net.cpp:100] Creating Layer data
I0402 15:07:17.568573  6988 net.cpp:408] data -> data
I0402 15:07:17.568583  6988 net.cpp:408] data -> label
I0402 15:07:17.570217  7050 db_lmdb.cpp:35] Opened lmdb ../local_data/lmdb/rtsd-r1/imajust/test/lmdb
I0402 15:07:17.570375  6988 data_layer.cpp:41] output data size: 1024,3,48,48
I0402 15:07:17.616111  6988 net.cpp:150] Setting up data
I0402 15:07:17.616142  6988 net.cpp:157] Top shape: 1024 3 48 48 (7077888)
I0402 15:07:17.616148  6988 net.cpp:157] Top shape: 1024 (1024)
I0402 15:07:17.616152  6988 net.cpp:165] Memory required for data: 28315648
I0402 15:07:17.616158  6988 layer_factory.hpp:77] Creating layer label_data_1_split
I0402 15:07:17.616176  6988 net.cpp:100] Creating Layer label_data_1_split
I0402 15:07:17.616181  6988 net.cpp:434] label_data_1_split <- label
I0402 15:07:17.616190  6988 net.cpp:408] label_data_1_split -> label_data_1_split_0
I0402 15:07:17.616204  6988 net.cpp:408] label_data_1_split -> label_data_1_split_1
I0402 15:07:17.616211  6988 net.cpp:408] label_data_1_split -> label_data_1_split_2
I0402 15:07:17.616397  6988 net.cpp:150] Setting up label_data_1_split
I0402 15:07:17.616410  6988 net.cpp:157] Top shape: 1024 (1024)
I0402 15:07:17.616413  6988 net.cpp:157] Top shape: 1024 (1024)
I0402 15:07:17.616417  6988 net.cpp:157] Top shape: 1024 (1024)
I0402 15:07:17.616420  6988 net.cpp:165] Memory required for data: 28327936
I0402 15:07:17.616425  6988 layer_factory.hpp:77] Creating layer conv1
I0402 15:07:17.616444  6988 net.cpp:100] Creating Layer conv1
I0402 15:07:17.616451  6988 net.cpp:434] conv1 <- data
I0402 15:07:17.616457  6988 net.cpp:408] conv1 -> conv1
I0402 15:07:17.620517  6988 net.cpp:150] Setting up conv1
I0402 15:07:17.620537  6988 net.cpp:157] Top shape: 1024 100 42 42 (180633600)
I0402 15:07:17.620542  6988 net.cpp:165] Memory required for data: 750862336
I0402 15:07:17.620554  6988 layer_factory.hpp:77] Creating layer conv1_relu
I0402 15:07:17.620563  6988 net.cpp:100] Creating Layer conv1_relu
I0402 15:07:17.620569  6988 net.cpp:434] conv1_relu <- conv1
I0402 15:07:17.620574  6988 net.cpp:395] conv1_relu -> conv1 (in-place)
I0402 15:07:17.620775  6988 net.cpp:150] Setting up conv1_relu
I0402 15:07:17.620787  6988 net.cpp:157] Top shape: 1024 100 42 42 (180633600)
I0402 15:07:17.620790  6988 net.cpp:165] Memory required for data: 1473396736
I0402 15:07:17.620810  6988 layer_factory.hpp:77] Creating layer pool1
I0402 15:07:17.620828  6988 net.cpp:100] Creating Layer pool1
I0402 15:07:17.620834  6988 net.cpp:434] pool1 <- conv1
I0402 15:07:17.620841  6988 net.cpp:408] pool1 -> pool1
I0402 15:07:17.620893  6988 net.cpp:150] Setting up pool1
I0402 15:07:17.620903  6988 net.cpp:157] Top shape: 1024 100 21 21 (45158400)
I0402 15:07:17.620906  6988 net.cpp:165] Memory required for data: 1654030336
I0402 15:07:17.620910  6988 layer_factory.hpp:77] Creating layer conv2
I0402 15:07:17.620920  6988 net.cpp:100] Creating Layer conv2
I0402 15:07:17.620925  6988 net.cpp:434] conv2 <- pool1
I0402 15:07:17.620936  6988 net.cpp:408] conv2 -> conv2
I0402 15:07:17.626122  6988 net.cpp:150] Setting up conv2
I0402 15:07:17.626142  6988 net.cpp:157] Top shape: 1024 150 18 18 (49766400)
I0402 15:07:17.626147  6988 net.cpp:165] Memory required for data: 1853095936
I0402 15:07:17.626158  6988 layer_factory.hpp:77] Creating layer conv2_relu
I0402 15:07:17.626169  6988 net.cpp:100] Creating Layer conv2_relu
I0402 15:07:17.626175  6988 net.cpp:434] conv2_relu <- conv2
I0402 15:07:17.626181  6988 net.cpp:395] conv2_relu -> conv2 (in-place)
I0402 15:07:17.626973  6988 net.cpp:150] Setting up conv2_relu
I0402 15:07:17.626992  6988 net.cpp:157] Top shape: 1024 150 18 18 (49766400)
I0402 15:07:17.626996  6988 net.cpp:165] Memory required for data: 2052161536
I0402 15:07:17.627002  6988 layer_factory.hpp:77] Creating layer pool2
I0402 15:07:17.627010  6988 net.cpp:100] Creating Layer pool2
I0402 15:07:17.627017  6988 net.cpp:434] pool2 <- conv2
I0402 15:07:17.627022  6988 net.cpp:408] pool2 -> pool2
I0402 15:07:17.627079  6988 net.cpp:150] Setting up pool2
I0402 15:07:17.627087  6988 net.cpp:157] Top shape: 1024 150 9 9 (12441600)
I0402 15:07:17.627091  6988 net.cpp:165] Memory required for data: 2101927936
I0402 15:07:17.627095  6988 layer_factory.hpp:77] Creating layer conv3
I0402 15:07:17.627109  6988 net.cpp:100] Creating Layer conv3
I0402 15:07:17.627115  6988 net.cpp:434] conv3 <- pool2
I0402 15:07:17.627120  6988 net.cpp:408] conv3 -> conv3
I0402 15:07:17.632731  6988 net.cpp:150] Setting up conv3
I0402 15:07:17.632750  6988 net.cpp:157] Top shape: 1024 250 6 6 (9216000)
I0402 15:07:17.632755  6988 net.cpp:165] Memory required for data: 2138791936
I0402 15:07:17.632766  6988 layer_factory.hpp:77] Creating layer conv3_relu
I0402 15:07:17.632776  6988 net.cpp:100] Creating Layer conv3_relu
I0402 15:07:17.632783  6988 net.cpp:434] conv3_relu <- conv3
I0402 15:07:17.632789  6988 net.cpp:395] conv3_relu -> conv3 (in-place)
I0402 15:07:17.633576  6988 net.cpp:150] Setting up conv3_relu
I0402 15:07:17.633596  6988 net.cpp:157] Top shape: 1024 250 6 6 (9216000)
I0402 15:07:17.633604  6988 net.cpp:165] Memory required for data: 2175655936
I0402 15:07:17.633623  6988 layer_factory.hpp:77] Creating layer pool3
I0402 15:07:17.633631  6988 net.cpp:100] Creating Layer pool3
I0402 15:07:17.633636  6988 net.cpp:434] pool3 <- conv3
I0402 15:07:17.633642  6988 net.cpp:408] pool3 -> pool3
I0402 15:07:17.633697  6988 net.cpp:150] Setting up pool3
I0402 15:07:17.633707  6988 net.cpp:157] Top shape: 1024 250 3 3 (2304000)
I0402 15:07:17.633709  6988 net.cpp:165] Memory required for data: 2184871936
I0402 15:07:17.633715  6988 layer_factory.hpp:77] Creating layer fc4_300
I0402 15:07:17.633726  6988 net.cpp:100] Creating Layer fc4_300
I0402 15:07:17.633730  6988 net.cpp:434] fc4_300 <- pool3
I0402 15:07:17.633735  6988 net.cpp:408] fc4_300 -> fc4_300
I0402 15:07:17.639065  6988 net.cpp:150] Setting up fc4_300
I0402 15:07:17.639086  6988 net.cpp:157] Top shape: 1024 300 (307200)
I0402 15:07:17.639089  6988 net.cpp:165] Memory required for data: 2186100736
I0402 15:07:17.639097  6988 layer_factory.hpp:77] Creating layer fc4_relu
I0402 15:07:17.639103  6988 net.cpp:100] Creating Layer fc4_relu
I0402 15:07:17.639109  6988 net.cpp:434] fc4_relu <- fc4_300
I0402 15:07:17.639117  6988 net.cpp:395] fc4_relu -> fc4_300 (in-place)
I0402 15:07:17.639317  6988 net.cpp:150] Setting up fc4_relu
I0402 15:07:17.639328  6988 net.cpp:157] Top shape: 1024 300 (307200)
I0402 15:07:17.639333  6988 net.cpp:165] Memory required for data: 2187329536
I0402 15:07:17.639338  6988 layer_factory.hpp:77] Creating layer drop4
I0402 15:07:17.639348  6988 net.cpp:100] Creating Layer drop4
I0402 15:07:17.639353  6988 net.cpp:434] drop4 <- fc4_300
I0402 15:07:17.639358  6988 net.cpp:395] drop4 -> fc4_300 (in-place)
I0402 15:07:17.639390  6988 net.cpp:150] Setting up drop4
I0402 15:07:17.639400  6988 net.cpp:157] Top shape: 1024 300 (307200)
I0402 15:07:17.639402  6988 net.cpp:165] Memory required for data: 2188558336
I0402 15:07:17.639405  6988 layer_factory.hpp:77] Creating layer fc5_67
I0402 15:07:17.639413  6988 net.cpp:100] Creating Layer fc5_67
I0402 15:07:17.639417  6988 net.cpp:434] fc5_67 <- fc4_300
I0402 15:07:17.639425  6988 net.cpp:408] fc5_67 -> fc5_classes
I0402 15:07:17.639685  6988 net.cpp:150] Setting up fc5_67
I0402 15:07:17.639694  6988 net.cpp:157] Top shape: 1024 67 (68608)
I0402 15:07:17.639698  6988 net.cpp:165] Memory required for data: 2188832768
I0402 15:07:17.639708  6988 layer_factory.hpp:77] Creating layer fc5_classes_fc5_67_0_split
I0402 15:07:17.639716  6988 net.cpp:100] Creating Layer fc5_classes_fc5_67_0_split
I0402 15:07:17.639720  6988 net.cpp:434] fc5_classes_fc5_67_0_split <- fc5_classes
I0402 15:07:17.639727  6988 net.cpp:408] fc5_classes_fc5_67_0_split -> fc5_classes_fc5_67_0_split_0
I0402 15:07:17.639734  6988 net.cpp:408] fc5_classes_fc5_67_0_split -> fc5_classes_fc5_67_0_split_1
I0402 15:07:17.639741  6988 net.cpp:408] fc5_classes_fc5_67_0_split -> fc5_classes_fc5_67_0_split_2
I0402 15:07:17.639797  6988 net.cpp:150] Setting up fc5_classes_fc5_67_0_split
I0402 15:07:17.639806  6988 net.cpp:157] Top shape: 1024 67 (68608)
I0402 15:07:17.639809  6988 net.cpp:157] Top shape: 1024 67 (68608)
I0402 15:07:17.639813  6988 net.cpp:157] Top shape: 1024 67 (68608)
I0402 15:07:17.639816  6988 net.cpp:165] Memory required for data: 2189656064
I0402 15:07:17.639819  6988 layer_factory.hpp:77] Creating layer loss
I0402 15:07:17.639829  6988 net.cpp:100] Creating Layer loss
I0402 15:07:17.639833  6988 net.cpp:434] loss <- fc5_classes_fc5_67_0_split_0
I0402 15:07:17.639838  6988 net.cpp:434] loss <- label_data_1_split_0
I0402 15:07:17.639843  6988 net.cpp:408] loss -> loss
…
