…
I0507 03:13:10.613842  1768 solver.cpp:93] Creating training net from train_net file: ./Prototxt/experiment_14/RTSD/AHE/trial_2/train.prototxt
I0507 03:13:10.614231  1768 net.cpp:58] Initializing net from parameters: 
state {
  phase: TRAIN
  level: 0
  stage: ""
}
layer {
  name: "data"
  type: "Data"
  top: "data"
  top: "label"
  include {
    phase: TRAIN
  }
  transform_param {
    scale: 0.0039215689
    mirror: false
    crop_size: 48
    mean_value: 133
    mean_value: 127
    mean_value: 126
  }
  data_param {
    source: "../local_data/lmdb/RTSD/AHE/train/lmdb"
    batch_size: 512
    backend: LMDB
  }
}
layer {
  name: "conv1"
  type: "Convolution"
  bottom: "data"
  top: "conv1"
  convolution_param {
    num_output: 100
    pad: 0
    kernel_size: 7
    group: 1
    stride: 1
    weight_filler {
      type: "xavier"
    }
  }
}
layer {
  name: "conv1_relu"
  type: "ReLU"
  bottom: "conv1"
  top: "conv1"
}
layer {
  name: "pool1"
  type: "Pooling"
  bottom: "conv1"
  top: "pool1"
  pooling_param {
    pool: MAX
    kernel_size: 2
    stride: 2
  }
}
layer {
  name: "conv2"
  type: "Convolution"
  bottom: "pool1"
  top: "conv2"
  convolution_param {
    num_output: 150
    pad: 0
    kernel_size: 4
    group: 1
    stride: 1
    weight_filler {
      type: "xavier"
    }
  }
}
layer {
  name: "conv2_relu"
  type: "ReLU"
  bottom: "conv2"
  top: "conv2"
}
layer {
  name: "pool2"
  type: "Pooling"
  bottom: "conv2"
  top: "pool2"
  pooling_param {
    pool: MAX
    kernel_size: 2
    stride: 2
  }
}
layer {
  name: "conv3"
  type: "Convolution"
  bottom: "pool2"
  top: "conv3"
  convolution_param {
    num_output: 250
    pad: 0
    kernel_size: 4
    group: 1
    stride: 1
    weight_filler {
      type: "xavier"
    }
  }
}
layer {
  name: "conv3_relu"
  type: "ReLU"
  bottom: "conv3"
  top: "conv3"
}
layer {
  name: "pool3"
  type: "Pooling"
  bottom: "conv3"
  top: "pool3"
  pooling_param {
    pool: MAX
    kernel_size: 2
    stride: 2
  }
}
layer {
  name: "fc4_300"
  type: "InnerProduct"
  bottom: "pool3"
  top: "fc4_300"
  inner_product_param {
    num_output: 300
    weight_filler {
      type: "xavier"
    }
  }
}
layer {
  name: "fc4_relu"
  type: "ReLU"
  bottom: "fc4_300"
  top: "fc4_300"
}
layer {
  name: "fc5_116"
  type: "InnerProduct"
  bottom: "fc4_300"
  top: "fc5_classes"
  inner_product_param {
    num_output: 116
    weight_filler {
      type: "xavier"
    }
  }
}
layer {
  name: "softmax"
  type: "Softmax"
  bottom: "fc5_classes"
  top: "softmax"
}
layer {
  name: "loss"
  type: "MultinomialLogisticLoss"
  bottom: "softmax"
  bottom: "label"
  top: "loss"
}
layer {
  name: "accuracy_1"
  type: "Accuracy"
  bottom: "fc5_classes"
  bottom: "label"
  top: "accuracy_1"
  accuracy_param {
    top_k: 1
  }
}
layer {
  name: "accuracy_5"
  type: "Accuracy"
  bottom: "fc5_classes"
  bottom: "label"
  top: "accuracy_5"
  accuracy_param {
    top_k: 5
  }
}
layer {
  name: "silence"
  type: "Silence"
  bottom: "accuracy_1"
  bottom: "accuracy_5"
}
I0507 03:13:10.614382  1768 layer_factory.hpp:77] Creating layer data
I0507 03:13:10.615234  1768 net.cpp:100] Creating Layer data
I0507 03:13:10.615250  1768 net.cpp:408] data -> data
I0507 03:13:10.615275  1768 net.cpp:408] data -> label
I0507 03:13:10.621310  1929 db_lmdb.cpp:35] Opened lmdb ../local_data/lmdb/RTSD/AHE/train/lmdb
I0507 03:13:10.638808  1768 data_layer.cpp:41] output data size: 512,3,48,48
I0507 03:13:10.700366  1768 net.cpp:150] Setting up data
I0507 03:13:10.700424  1768 net.cpp:157] Top shape: 512 3 48 48 (3538944)
I0507 03:13:10.700431  1768 net.cpp:157] Top shape: 512 (512)
I0507 03:13:10.700434  1768 net.cpp:165] Memory required for data: 14157824
I0507 03:13:10.700446  1768 layer_factory.hpp:77] Creating layer label_data_1_split
I0507 03:13:10.700459  1768 net.cpp:100] Creating Layer label_data_1_split
I0507 03:13:10.700467  1768 net.cpp:434] label_data_1_split <- label
I0507 03:13:10.700482  1768 net.cpp:408] label_data_1_split -> label_data_1_split_0
I0507 03:13:10.700496  1768 net.cpp:408] label_data_1_split -> label_data_1_split_1
I0507 03:13:10.700506  1768 net.cpp:408] label_data_1_split -> label_data_1_split_2
I0507 03:13:10.700572  1768 net.cpp:150] Setting up label_data_1_split
I0507 03:13:10.700580  1768 net.cpp:157] Top shape: 512 (512)
I0507 03:13:10.700584  1768 net.cpp:157] Top shape: 512 (512)
I0507 03:13:10.700588  1768 net.cpp:157] Top shape: 512 (512)
I0507 03:13:10.700592  1768 net.cpp:165] Memory required for data: 14163968
I0507 03:13:10.700594  1768 layer_factory.hpp:77] Creating layer conv1
I0507 03:13:10.700613  1768 net.cpp:100] Creating Layer conv1
I0507 03:13:10.700619  1768 net.cpp:434] conv1 <- data
I0507 03:13:10.700628  1768 net.cpp:408] conv1 -> conv1
I0507 03:13:11.139773  1768 net.cpp:150] Setting up conv1
I0507 03:13:11.139804  1768 net.cpp:157] Top shape: 512 100 42 42 (90316800)
I0507 03:13:11.139808  1768 net.cpp:165] Memory required for data: 375431168
I0507 03:13:11.139832  1768 layer_factory.hpp:77] Creating layer conv1_relu
I0507 03:13:11.139843  1768 net.cpp:100] Creating Layer conv1_relu
I0507 03:13:11.139852  1768 net.cpp:434] conv1_relu <- conv1
I0507 03:13:11.139858  1768 net.cpp:395] conv1_relu -> conv1 (in-place)
I0507 03:13:11.140075  1768 net.cpp:150] Setting up conv1_relu
I0507 03:13:11.140090  1768 net.cpp:157] Top shape: 512 100 42 42 (90316800)
I0507 03:13:11.140095  1768 net.cpp:165] Memory required for data: 736698368
I0507 03:13:11.140100  1768 layer_factory.hpp:77] Creating layer pool1
I0507 03:13:11.140110  1768 net.cpp:100] Creating Layer pool1
I0507 03:13:11.140116  1768 net.cpp:434] pool1 <- conv1
I0507 03:13:11.140122  1768 net.cpp:408] pool1 -> pool1
I0507 03:13:11.140182  1768 net.cpp:150] Setting up pool1
I0507 03:13:11.140192  1768 net.cpp:157] Top shape: 512 100 21 21 (22579200)
I0507 03:13:11.140197  1768 net.cpp:165] Memory required for data: 827015168
I0507 03:13:11.140200  1768 layer_factory.hpp:77] Creating layer conv2
I0507 03:13:11.140211  1768 net.cpp:100] Creating Layer conv2
I0507 03:13:11.140216  1768 net.cpp:434] conv2 <- pool1
I0507 03:13:11.140223  1768 net.cpp:408] conv2 -> conv2
I0507 03:13:11.163064  1768 net.cpp:150] Setting up conv2
I0507 03:13:11.163086  1768 net.cpp:157] Top shape: 512 150 18 18 (24883200)
I0507 03:13:11.163091  1768 net.cpp:165] Memory required for data: 926547968
I0507 03:13:11.163105  1768 layer_factory.hpp:77] Creating layer conv2_relu
I0507 03:13:11.163116  1768 net.cpp:100] Creating Layer conv2_relu
I0507 03:13:11.163122  1768 net.cpp:434] conv2_relu <- conv2
I0507 03:13:11.163130  1768 net.cpp:395] conv2_relu -> conv2 (in-place)
I0507 03:13:11.167613  1768 net.cpp:150] Setting up conv2_relu
I0507 03:13:11.167636  1768 net.cpp:157] Top shape: 512 150 18 18 (24883200)
I0507 03:13:11.167641  1768 net.cpp:165] Memory required for data: 1026080768
I0507 03:13:11.167646  1768 layer_factory.hpp:77] Creating layer pool2
I0507 03:13:11.167659  1768 net.cpp:100] Creating Layer pool2
I0507 03:13:11.167665  1768 net.cpp:434] pool2 <- conv2
I0507 03:13:11.167672  1768 net.cpp:408] pool2 -> pool2
I0507 03:13:11.167740  1768 net.cpp:150] Setting up pool2
I0507 03:13:11.167752  1768 net.cpp:157] Top shape: 512 150 9 9 (6220800)
I0507 03:13:11.167757  1768 net.cpp:165] Memory required for data: 1050963968
I0507 03:13:11.167760  1768 layer_factory.hpp:77] Creating layer conv3
I0507 03:13:11.167776  1768 net.cpp:100] Creating Layer conv3
I0507 03:13:11.167783  1768 net.cpp:434] conv3 <- pool2
I0507 03:13:11.167790  1768 net.cpp:408] conv3 -> conv3
I0507 03:13:11.179131  1768 net.cpp:150] Setting up conv3
I0507 03:13:11.179179  1768 net.cpp:157] Top shape: 512 250 6 6 (4608000)
I0507 03:13:11.179186  1768 net.cpp:165] Memory required for data: 1069395968
I0507 03:13:11.179198  1768 layer_factory.hpp:77] Creating layer conv3_relu
I0507 03:13:11.179213  1768 net.cpp:100] Creating Layer conv3_relu
I0507 03:13:11.179219  1768 net.cpp:434] conv3_relu <- conv3
I0507 03:13:11.179225  1768 net.cpp:395] conv3_relu -> conv3 (in-place)
I0507 03:13:11.181113  1768 net.cpp:150] Setting up conv3_relu
I0507 03:13:11.181134  1768 net.cpp:157] Top shape: 512 250 6 6 (4608000)
I0507 03:13:11.181139  1768 net.cpp:165] Memory required for data: 1087827968
I0507 03:13:11.181143  1768 layer_factory.hpp:77] Creating layer pool3
I0507 03:13:11.181152  1768 net.cpp:100] Creating Layer pool3
I0507 03:13:11.181157  1768 net.cpp:434] pool3 <- conv3
I0507 03:13:11.181164  1768 net.cpp:408] pool3 -> pool3
I0507 03:13:11.181227  1768 net.cpp:150] Setting up pool3
I0507 03:13:11.181238  1768 net.cpp:157] Top shape: 512 250 3 3 (1152000)
I0507 03:13:11.181242  1768 net.cpp:165] Memory required for data: 1092435968
I0507 03:13:11.181246  1768 layer_factory.hpp:77] Creating layer fc4_300
I0507 03:13:11.181254  1768 net.cpp:100] Creating Layer fc4_300
I0507 03:13:11.181262  1768 net.cpp:434] fc4_300 <- pool3
I0507 03:13:11.181270  1768 net.cpp:408] fc4_300 -> fc4_300
I0507 03:13:11.188478  1768 net.cpp:150] Setting up fc4_300
I0507 03:13:11.188499  1768 net.cpp:157] Top shape: 512 300 (153600)
I0507 03:13:11.188503  1768 net.cpp:165] Memory required for data: 1093050368
I0507 03:13:11.188513  1768 layer_factory.hpp:77] Creating layer fc4_relu
I0507 03:13:11.188520  1768 net.cpp:100] Creating Layer fc4_relu
I0507 03:13:11.188525  1768 net.cpp:434] fc4_relu <- fc4_300
I0507 03:13:11.188536  1768 net.cpp:395] fc4_relu -> fc4_300 (in-place)
I0507 03:13:11.188792  1768 net.cpp:150] Setting up fc4_relu
I0507 03:13:11.188807  1768 net.cpp:157] Top shape: 512 300 (153600)
I0507 03:13:11.188812  1768 net.cpp:165] Memory required for data: 1093664768
I0507 03:13:11.188817  1768 layer_factory.hpp:77] Creating layer fc5_116
I0507 03:13:11.188827  1768 net.cpp:100] Creating Layer fc5_116
I0507 03:13:11.188832  1768 net.cpp:434] fc5_116 <- fc4_300
I0507 03:13:11.188839  1768 net.cpp:408] fc5_116 -> fc5_classes
I0507 03:13:11.194211  1768 net.cpp:150] Setting up fc5_116
I0507 03:13:11.194229  1768 net.cpp:157] Top shape: 512 116 (59392)
I0507 03:13:11.194233  1768 net.cpp:165] Memory required for data: 1093902336
I0507 03:13:11.194245  1768 layer_factory.hpp:77] Creating layer fc5_classes_fc5_116_0_split
I0507 03:13:11.194255  1768 net.cpp:100] Creating Layer fc5_classes_fc5_116_0_split
I0507 03:13:11.194262  1768 net.cpp:434] fc5_classes_fc5_116_0_split <- fc5_classes
I0507 03:13:11.194267  1768 net.cpp:408] fc5_classes_fc5_116_0_split -> fc5_classes_fc5_116_0_split_0
I0507 03:13:11.194278  1768 net.cpp:408] fc5_classes_fc5_116_0_split -> fc5_classes_fc5_116_0_split_1
I0507 03:13:11.194288  1768 net.cpp:408] fc5_classes_fc5_116_0_split -> fc5_classes_fc5_116_0_split_2
I0507 03:13:11.194342  1768 net.cpp:150] Setting up fc5_classes_fc5_116_0_split
I0507 03:13:11.194350  1768 net.cpp:157] Top shape: 512 116 (59392)
I0507 03:13:11.194355  1768 net.cpp:157] Top shape: 512 116 (59392)
I0507 03:13:11.194357  1768 net.cpp:157] Top shape: 512 116 (59392)
I0507 03:13:11.194360  1768 net.cpp:165] Memory required for data: 1094615040
I0507 03:13:11.194363  1768 layer_factory.hpp:77] Creating layer softmax
I0507 03:13:11.194370  1768 net.cpp:100] Creating Layer softmax
I0507 03:13:11.194375  1768 net.cpp:434] softmax <- fc5_classes_fc5_116_0_split_0
I0507 03:13:11.194381  1768 net.cpp:408] softmax -> softmax
I0507 03:13:11.194649  1768 net.cpp:150] Setting up softmax
I0507 03:13:11.194664  1768 net.cpp:157] Top shape: 512 116 (59392)
I0507 03:13:11.194666  1768 net.cpp:165] Memory required for data: 1094852608
I0507 03:13:11.194669  1768 layer_factory.hpp:77] Creating layer loss
I0507 03:13:11.194682  1768 net.cpp:100] Creating Layer loss
I0507 03:13:11.194705  1768 net.cpp:434] loss <- softmax
I0507 03:13:11.194710  1768 net.cpp:434] loss <- label_data_1_split_0
I0507 03:13:11.194718  1768 net.cpp:408] loss -> loss
…
