…
I0415 00:51:47.542553 25423 solver.cpp:93] Creating training net from train_net file: ./Prototxt/experiment_12/rtsd-r1/CoNorm/trial_2/train.prototxt
I0415 00:51:47.542922 25423 net.cpp:58] Initializing net from parameters: 
state {
  phase: TRAIN
  level: 0
  stage: ""
}
layer {
  name: "data"
  type: "Data"
  top: "data"
  top: "label"
  include {
    phase: TRAIN
  }
  transform_param {
    scale: 0.0039215689
    mirror: false
    crop_size: 48
    mean_value: 132
    mean_value: 132
    mean_value: 131
  }
  data_param {
    source: "../local_data/lmdb/rtsd-r1/CoNorm/train/lmdb"
    batch_size: 1024
    backend: LMDB
  }
}
layer {
  name: "conv1"
  type: "Convolution"
  bottom: "data"
  top: "conv1"
  convolution_param {
    num_output: 100
    pad: 0
    kernel_size: 7
    group: 1
    stride: 1
    weight_filler {
      type: "xavier"
    }
  }
}
layer {
  name: "conv1_relu"
  type: "ReLU"
  bottom: "conv1"
  top: "conv1"
}
layer {
  name: "pool1"
  type: "Pooling"
  bottom: "conv1"
  top: "pool1"
  pooling_param {
    pool: MAX
    kernel_size: 2
    stride: 2
  }
}
layer {
  name: "conv2"
  type: "Convolution"
  bottom: "pool1"
  top: "conv2"
  convolution_param {
    num_output: 150
    pad: 0
    kernel_size: 4
    group: 1
    stride: 1
    weight_filler {
      type: "xavier"
    }
  }
}
layer {
  name: "conv2_relu"
  type: "ReLU"
  bottom: "conv2"
  top: "conv2"
}
layer {
  name: "pool2"
  type: "Pooling"
  bottom: "conv2"
  top: "pool2"
  pooling_param {
    pool: MAX
    kernel_size: 2
    stride: 2
  }
}
layer {
  name: "conv3"
  type: "Convolution"
  bottom: "pool2"
  top: "conv3"
  convolution_param {
    num_output: 250
    pad: 0
    kernel_size: 4
    group: 1
    stride: 1
    weight_filler {
      type: "xavier"
    }
  }
}
layer {
  name: "conv3_relu"
  type: "ReLU"
  bottom: "conv3"
  top: "conv3"
}
layer {
  name: "pool3"
  type: "Pooling"
  bottom: "conv3"
  top: "pool3"
  pooling_param {
    pool: MAX
    kernel_size: 2
    stride: 2
  }
}
layer {
  name: "fc4_300"
  type: "InnerProduct"
  bottom: "pool3"
  top: "fc4_300"
  inner_product_param {
    num_output: 300
    weight_filler {
      type: "xavier"
    }
  }
}
layer {
  name: "fc4_relu"
  type: "ReLU"
  bottom: "fc4_300"
  top: "fc4_300"
}
layer {
  name: "drop4"
  type: "Dropout"
  bottom: "fc4_300"
  top: "fc4_300"
  dropout_param {
    dropout_ratio: 0.5
  }
}
layer {
  name: "fc5_67"
  type: "InnerProduct"
  bottom: "fc4_300"
  top: "fc5_classes"
  inner_product_param {
    num_output: 67
    weight_filler {
      type: "xavier"
    }
  }
}
layer {
  name: "softmax"
  type: "Softmax"
  bottom: "fc5_classes"
  top: "softmax"
}
layer {
  name: "loss"
  type: "MultinomialLogisticLoss"
  bottom: "softmax"
  bottom: "label"
  top: "loss"
}
layer {
  name: "accuracy_1"
  type: "Accuracy"
  bottom: "fc5_classes"
  bottom: "label"
  top: "accuracy_1"
  accuracy_param {
    top_k: 1
  }
}
layer {
  name: "accuracy_5"
  type: "Accuracy"
  bottom: "fc5_classes"
  bottom: "label"
  top: "accuracy_5"
  accuracy_param {
    top_k: 5
  }
}
layer {
  name: "silence"
  type: "Silence"
  bottom: "accuracy_1"
  bottom: "accuracy_5"
}
I0415 00:51:47.543050 25423 layer_factory.hpp:77] Creating layer data
I0415 00:51:47.550966 25423 net.cpp:100] Creating Layer data
I0415 00:51:47.550983 25423 net.cpp:408] data -> data
I0415 00:51:47.551008 25423 net.cpp:408] data -> label
I0415 00:51:47.557586 25565 db_lmdb.cpp:35] Opened lmdb ../local_data/lmdb/rtsd-r1/CoNorm/train/lmdb
I0415 00:51:47.719094 25423 data_layer.cpp:41] output data size: 1024,3,48,48
I0415 00:51:47.786145 25423 net.cpp:150] Setting up data
I0415 00:51:47.786172 25423 net.cpp:157] Top shape: 1024 3 48 48 (7077888)
I0415 00:51:47.786178 25423 net.cpp:157] Top shape: 1024 (1024)
I0415 00:51:47.786181 25423 net.cpp:165] Memory required for data: 28315648
I0415 00:51:47.786193 25423 layer_factory.hpp:77] Creating layer label_data_1_split
I0415 00:51:47.786209 25423 net.cpp:100] Creating Layer label_data_1_split
I0415 00:51:47.786217 25423 net.cpp:434] label_data_1_split <- label
I0415 00:51:47.786232 25423 net.cpp:408] label_data_1_split -> label_data_1_split_0
I0415 00:51:47.786247 25423 net.cpp:408] label_data_1_split -> label_data_1_split_1
I0415 00:51:47.786257 25423 net.cpp:408] label_data_1_split -> label_data_1_split_2
I0415 00:51:47.786324 25423 net.cpp:150] Setting up label_data_1_split
I0415 00:51:47.786334 25423 net.cpp:157] Top shape: 1024 (1024)
I0415 00:51:47.786339 25423 net.cpp:157] Top shape: 1024 (1024)
I0415 00:51:47.786342 25423 net.cpp:157] Top shape: 1024 (1024)
I0415 00:51:47.786345 25423 net.cpp:165] Memory required for data: 28327936
I0415 00:51:47.786348 25423 layer_factory.hpp:77] Creating layer conv1
I0415 00:51:47.786367 25423 net.cpp:100] Creating Layer conv1
I0415 00:51:47.786373 25423 net.cpp:434] conv1 <- data
I0415 00:51:47.786379 25423 net.cpp:408] conv1 -> conv1
I0415 00:51:48.248314 25423 net.cpp:150] Setting up conv1
I0415 00:51:48.248342 25423 net.cpp:157] Top shape: 1024 100 42 42 (180633600)
I0415 00:51:48.248347 25423 net.cpp:165] Memory required for data: 750862336
I0415 00:51:48.248369 25423 layer_factory.hpp:77] Creating layer conv1_relu
I0415 00:51:48.248381 25423 net.cpp:100] Creating Layer conv1_relu
I0415 00:51:48.248386 25423 net.cpp:434] conv1_relu <- conv1
I0415 00:51:48.248394 25423 net.cpp:395] conv1_relu -> conv1 (in-place)
I0415 00:51:48.248606 25423 net.cpp:150] Setting up conv1_relu
I0415 00:51:48.248618 25423 net.cpp:157] Top shape: 1024 100 42 42 (180633600)
I0415 00:51:48.248622 25423 net.cpp:165] Memory required for data: 1473396736
I0415 00:51:48.248626 25423 layer_factory.hpp:77] Creating layer pool1
I0415 00:51:48.248638 25423 net.cpp:100] Creating Layer pool1
I0415 00:51:48.248644 25423 net.cpp:434] pool1 <- conv1
I0415 00:51:48.248651 25423 net.cpp:408] pool1 -> pool1
I0415 00:51:48.248708 25423 net.cpp:150] Setting up pool1
I0415 00:51:48.248716 25423 net.cpp:157] Top shape: 1024 100 21 21 (45158400)
I0415 00:51:48.248721 25423 net.cpp:165] Memory required for data: 1654030336
I0415 00:51:48.248724 25423 layer_factory.hpp:77] Creating layer conv2
I0415 00:51:48.248735 25423 net.cpp:100] Creating Layer conv2
I0415 00:51:48.248741 25423 net.cpp:434] conv2 <- pool1
I0415 00:51:48.248746 25423 net.cpp:408] conv2 -> conv2
I0415 00:51:48.254066 25423 net.cpp:150] Setting up conv2
I0415 00:51:48.254086 25423 net.cpp:157] Top shape: 1024 150 18 18 (49766400)
I0415 00:51:48.254089 25423 net.cpp:165] Memory required for data: 1853095936
I0415 00:51:48.254101 25423 layer_factory.hpp:77] Creating layer conv2_relu
I0415 00:51:48.254112 25423 net.cpp:100] Creating Layer conv2_relu
I0415 00:51:48.254117 25423 net.cpp:434] conv2_relu <- conv2
I0415 00:51:48.254122 25423 net.cpp:395] conv2_relu -> conv2 (in-place)
I0415 00:51:48.255693 25423 net.cpp:150] Setting up conv2_relu
I0415 00:51:48.255710 25423 net.cpp:157] Top shape: 1024 150 18 18 (49766400)
I0415 00:51:48.255714 25423 net.cpp:165] Memory required for data: 2052161536
I0415 00:51:48.255718 25423 layer_factory.hpp:77] Creating layer pool2
I0415 00:51:48.255725 25423 net.cpp:100] Creating Layer pool2
I0415 00:51:48.255730 25423 net.cpp:434] pool2 <- conv2
I0415 00:51:48.255736 25423 net.cpp:408] pool2 -> pool2
I0415 00:51:48.255789 25423 net.cpp:150] Setting up pool2
I0415 00:51:48.255797 25423 net.cpp:157] Top shape: 1024 150 9 9 (12441600)
I0415 00:51:48.255802 25423 net.cpp:165] Memory required for data: 2101927936
I0415 00:51:48.255806 25423 layer_factory.hpp:77] Creating layer conv3
I0415 00:51:48.255839 25423 net.cpp:100] Creating Layer conv3
I0415 00:51:48.255846 25423 net.cpp:434] conv3 <- pool2
I0415 00:51:48.255851 25423 net.cpp:408] conv3 -> conv3
I0415 00:51:48.261467 25423 net.cpp:150] Setting up conv3
I0415 00:51:48.261485 25423 net.cpp:157] Top shape: 1024 250 6 6 (9216000)
I0415 00:51:48.261490 25423 net.cpp:165] Memory required for data: 2138791936
I0415 00:51:48.261503 25423 layer_factory.hpp:77] Creating layer conv3_relu
I0415 00:51:48.261512 25423 net.cpp:100] Creating Layer conv3_relu
I0415 00:51:48.261518 25423 net.cpp:434] conv3_relu <- conv3
I0415 00:51:48.261523 25423 net.cpp:395] conv3_relu -> conv3 (in-place)
I0415 00:51:48.262281 25423 net.cpp:150] Setting up conv3_relu
I0415 00:51:48.262298 25423 net.cpp:157] Top shape: 1024 250 6 6 (9216000)
I0415 00:51:48.262303 25423 net.cpp:165] Memory required for data: 2175655936
I0415 00:51:48.262307 25423 layer_factory.hpp:77] Creating layer pool3
I0415 00:51:48.262315 25423 net.cpp:100] Creating Layer pool3
I0415 00:51:48.262320 25423 net.cpp:434] pool3 <- conv3
I0415 00:51:48.262326 25423 net.cpp:408] pool3 -> pool3
I0415 00:51:48.262377 25423 net.cpp:150] Setting up pool3
I0415 00:51:48.262385 25423 net.cpp:157] Top shape: 1024 250 3 3 (2304000)
I0415 00:51:48.262389 25423 net.cpp:165] Memory required for data: 2184871936
I0415 00:51:48.262392 25423 layer_factory.hpp:77] Creating layer fc4_300
I0415 00:51:48.262401 25423 net.cpp:100] Creating Layer fc4_300
I0415 00:51:48.262406 25423 net.cpp:434] fc4_300 <- pool3
I0415 00:51:48.262411 25423 net.cpp:408] fc4_300 -> fc4_300
I0415 00:51:48.267838 25423 net.cpp:150] Setting up fc4_300
I0415 00:51:48.267854 25423 net.cpp:157] Top shape: 1024 300 (307200)
I0415 00:51:48.267858 25423 net.cpp:165] Memory required for data: 2186100736
I0415 00:51:48.267869 25423 layer_factory.hpp:77] Creating layer fc4_relu
I0415 00:51:48.267884 25423 net.cpp:100] Creating Layer fc4_relu
I0415 00:51:48.267894 25423 net.cpp:434] fc4_relu <- fc4_300
I0415 00:51:48.267902 25423 net.cpp:395] fc4_relu -> fc4_300 (in-place)
I0415 00:51:48.268122 25423 net.cpp:150] Setting up fc4_relu
I0415 00:51:48.268134 25423 net.cpp:157] Top shape: 1024 300 (307200)
I0415 00:51:48.268139 25423 net.cpp:165] Memory required for data: 2187329536
I0415 00:51:48.268143 25423 layer_factory.hpp:77] Creating layer drop4
I0415 00:51:48.268152 25423 net.cpp:100] Creating Layer drop4
I0415 00:51:48.268157 25423 net.cpp:434] drop4 <- fc4_300
I0415 00:51:48.268162 25423 net.cpp:395] drop4 -> fc4_300 (in-place)
I0415 00:51:48.268200 25423 net.cpp:150] Setting up drop4
I0415 00:51:48.268210 25423 net.cpp:157] Top shape: 1024 300 (307200)
I0415 00:51:48.268214 25423 net.cpp:165] Memory required for data: 2188558336
I0415 00:51:48.268218 25423 layer_factory.hpp:77] Creating layer fc5_67
I0415 00:51:48.268225 25423 net.cpp:100] Creating Layer fc5_67
I0415 00:51:48.268229 25423 net.cpp:434] fc5_67 <- fc4_300
I0415 00:51:48.268236 25423 net.cpp:408] fc5_67 -> fc5_classes
I0415 00:51:48.274675 25423 net.cpp:150] Setting up fc5_67
I0415 00:51:48.274708 25423 net.cpp:157] Top shape: 1024 67 (68608)
I0415 00:51:48.274710 25423 net.cpp:165] Memory required for data: 2188832768
I0415 00:51:48.274729 25423 layer_factory.hpp:77] Creating layer fc5_classes_fc5_67_0_split
I0415 00:51:48.274741 25423 net.cpp:100] Creating Layer fc5_classes_fc5_67_0_split
I0415 00:51:48.274747 25423 net.cpp:434] fc5_classes_fc5_67_0_split <- fc5_classes
I0415 00:51:48.274756 25423 net.cpp:408] fc5_classes_fc5_67_0_split -> fc5_classes_fc5_67_0_split_0
I0415 00:51:48.274768 25423 net.cpp:408] fc5_classes_fc5_67_0_split -> fc5_classes_fc5_67_0_split_1
I0415 00:51:48.274776 25423 net.cpp:408] fc5_classes_fc5_67_0_split -> fc5_classes_fc5_67_0_split_2
I0415 00:51:48.274833 25423 net.cpp:150] Setting up fc5_classes_fc5_67_0_split
I0415 00:51:48.274840 25423 net.cpp:157] Top shape: 1024 67 (68608)
I0415 00:51:48.274844 25423 net.cpp:157] Top shape: 1024 67 (68608)
I0415 00:51:48.274848 25423 net.cpp:157] Top shape: 1024 67 (68608)
I0415 00:51:48.274852 25423 net.cpp:165] Memory required for data: 2189656064
I0415 00:51:48.274873 25423 layer_factory.hpp:77] Creating layer softmax
I0415 00:51:48.274883 25423 net.cpp:100] Creating Layer softmax
I0415 00:51:48.274888 25423 net.cpp:434] softmax <- fc5_classes_fc5_67_0_split_0
I0415 00:51:48.274895 25423 net.cpp:408] softmax -> softmax
I0415 00:51:48.275202 25423 net.cpp:150] Setting up softmax
I0415 00:51:48.275216 25423 net.cpp:157] Top shape: 1024 67 (68608)
I0415 00:51:48.275220 25423 net.cpp:165] Memory required for data: 2189930496
I0415 00:51:48.275224 25423 layer_factory.hpp:77] Creating layer loss
I0415 00:51:48.275231 25423 net.cpp:100] Creating Layer loss
I0415 00:51:48.275235 25423 net.cpp:434] loss <- softmax
I0415 00:51:48.275240 25423 net.cpp:434] loss <- label_data_1_split_0
I0415 00:51:48.275245 25423 net.cpp:408] loss -> loss
…
