…
I0508 03:09:39.722784 23275 solver.cpp:93] Creating training net from train_net file: ./Prototxt/experiment_15/RTSD/CoNorm/trial_1/train.prototxt
I0508 03:09:39.723248 23275 net.cpp:58] Initializing net from parameters: 
state {
  phase: TRAIN
  level: 0
  stage: ""
}
layer {
  name: "data"
  type: "Data"
  top: "data"
  top: "label"
  include {
    phase: TRAIN
  }
  transform_param {
    scale: 0.0039215689
    mirror: false
    crop_size: 48
    mean_value: 135
    mean_value: 135
    mean_value: 134
  }
  data_param {
    source: "../local_data/lmdb/RTSD/CoNorm/train/lmdb"
    batch_size: 1024
    backend: LMDB
  }
}
layer {
  name: "conv1"
  type: "Convolution"
  bottom: "data"
  top: "conv1"
  convolution_param {
    num_output: 100
    pad: 0
    kernel_size: 7
    group: 1
    stride: 1
    weight_filler {
      type: "xavier"
    }
  }
}
layer {
  name: "conv1_prescale"
  type: "Scale"
  bottom: "conv1"
  top: "conv1"
  param {
    lr_mult: 0
    decay_mult: 0
  }
  scale_param {
    filler {
      value: 0.6666
    }
    bias_term: false
  }
}
layer {
  name: "conv1_sTanH"
  type: "TanH"
  bottom: "conv1"
  top: "conv1"
}
layer {
  name: "conv1_postscale"
  type: "Scale"
  bottom: "conv1"
  top: "conv1"
  param {
    lr_mult: 0
    decay_mult: 0
  }
  scale_param {
    filler {
      value: 1.7159
    }
    bias_term: false
  }
}
layer {
  name: "pool1"
  type: "Pooling"
  bottom: "conv1"
  top: "pool1"
  pooling_param {
    pool: MAX
    kernel_size: 2
    stride: 2
  }
}
layer {
  name: "conv2"
  type: "Convolution"
  bottom: "pool1"
  top: "conv2"
  convolution_param {
    num_output: 150
    pad: 0
    kernel_size: 4
    group: 2
    stride: 1
    weight_filler {
      type: "xavier"
    }
  }
}
layer {
  name: "conv2_prescale"
  type: "Scale"
  bottom: "conv2"
  top: "conv2"
  param {
    lr_mult: 0
    decay_mult: 0
  }
  scale_param {
    filler {
      value: 0.6666
    }
    bias_term: false
  }
}
layer {
  name: "conv2_sTanH"
  type: "TanH"
  bottom: "conv2"
  top: "conv2"
}
layer {
  name: "conv2_postscale"
  type: "Scale"
  bottom: "conv2"
  top: "conv2"
  param {
    lr_mult: 0
    decay_mult: 0
  }
  scale_param {
    filler {
      value: 1.7159
    }
    bias_term: false
  }
}
layer {
  name: "pool2"
  type: "Pooling"
  bottom: "conv2"
  top: "pool2"
  pooling_param {
    pool: MAX
    kernel_size: 2
    stride: 2
  }
}
layer {
  name: "conv3"
  type: "Convolution"
  bottom: "pool2"
  top: "conv3"
  convolution_param {
    num_output: 250
    pad: 0
    kernel_size: 4
    group: 2
    stride: 1
    weight_filler {
      type: "xavier"
    }
  }
}
layer {
  name: "conv3_prescale"
  type: "Scale"
  bottom: "conv3"
  top: "conv3"
  param {
    lr_mult: 0
    decay_mult: 0
  }
  scale_param {
    filler {
      value: 0.6666
    }
    bias_term: false
  }
}
layer {
  name: "conv3_sTanH"
  type: "TanH"
  bottom: "conv3"
  top: "conv3"
}
layer {
  name: "conv3_postscale"
  type: "Scale"
  bottom: "conv3"
  top: "conv3"
  param {
    lr_mult: 0
    decay_mult: 0
  }
  scale_param {
    filler {
      value: 1.7159
    }
    bias_term: false
  }
}
layer {
  name: "pool3"
  type: "Pooling"
  bottom: "conv3"
  top: "pool3"
  pooling_param {
    pool: MAX
    kernel_size: 2
    stride: 2
  }
}
layer {
  name: "fc4_300"
  type: "InnerProduct"
  bottom: "pool3"
  top: "fc4_300"
  inner_product_param {
    num_output: 300
    weight_filler {
      type: "xavier"
    }
  }
}
layer {
  name: "fc4_prescale"
  type: "Scale"
  bottom: "fc4_300"
  top: "fc4_300"
  param {
    lr_mult: 0
    decay_mult: 0
  }
  scale_param {
    filler {
      value: 0.6666
    }
    bias_term: false
  }
}
layer {
  name: "fc4_sTanH"
  type: "TanH"
  bottom: "fc4_300"
  top: "fc4_300"
}
layer {
  name: "fc4_postscale"
  type: "Scale"
  bottom: "fc4_300"
  top: "fc4_300"
  param {
    lr_mult: 0
    decay_mult: 0
  }
  scale_param {
    filler {
      value: 1.7159
    }
    bias_term: false
  }
}
layer {
  name: "fc5_116"
  type: "InnerProduct"
  bottom: "fc4_300"
  top: "fc5_classes"
  inner_product_param {
    num_output: 116
    weight_filler {
      type: "xavier"
    }
  }
}
layer {
  name: "softmax"
  type: "Softmax"
  bottom: "fc5_classes"
  top: "softmax"
}
layer {
  name: "loss"
  type: "MultinomialLogisticLoss"
  bottom: "softmax"
  bottom: "label"
  top: "loss"
}
layer {
  name: "accuracy_1"
  type: "Accuracy"
  bottom: "fc5_classes"
  bottom: "label"
  top: "accuracy_1"
  accuracy_param {
    top_k: 1
  }
}
layer {
  name: "accuracy_5"
  type: "Accuracy"
  bottom: "fc5_classes"
  bottom: "label"
  top: "accuracy_5"
  accuracy_param {
    top_k: 5
  }
}
layer {
  name: "silence"
  type: "Silence"
  bottom: "accuracy_1"
  bottom: "accuracy_5"
}
I0508 03:09:39.723399 23275 layer_factory.hpp:77] Creating layer data
I0508 03:09:39.724481 23275 net.cpp:100] Creating Layer data
I0508 03:09:39.724496 23275 net.cpp:408] data -> data
I0508 03:09:39.724522 23275 net.cpp:408] data -> label
I0508 03:09:39.738555 23388 db_lmdb.cpp:35] Opened lmdb ../local_data/lmdb/RTSD/CoNorm/train/lmdb
I0508 03:09:39.755655 23275 data_layer.cpp:41] output data size: 1024,3,48,48
I0508 03:09:39.815273 23275 net.cpp:150] Setting up data
I0508 03:09:39.815304 23275 net.cpp:157] Top shape: 1024 3 48 48 (7077888)
I0508 03:09:39.815311 23275 net.cpp:157] Top shape: 1024 (1024)
I0508 03:09:39.815315 23275 net.cpp:165] Memory required for data: 28315648
I0508 03:09:39.815326 23275 layer_factory.hpp:77] Creating layer label_data_1_split
I0508 03:09:39.815341 23275 net.cpp:100] Creating Layer label_data_1_split
I0508 03:09:39.815366 23275 net.cpp:434] label_data_1_split <- label
I0508 03:09:39.815382 23275 net.cpp:408] label_data_1_split -> label_data_1_split_0
I0508 03:09:39.815397 23275 net.cpp:408] label_data_1_split -> label_data_1_split_1
I0508 03:09:39.815407 23275 net.cpp:408] label_data_1_split -> label_data_1_split_2
I0508 03:09:39.815479 23275 net.cpp:150] Setting up label_data_1_split
I0508 03:09:39.815487 23275 net.cpp:157] Top shape: 1024 (1024)
I0508 03:09:39.815492 23275 net.cpp:157] Top shape: 1024 (1024)
I0508 03:09:39.815496 23275 net.cpp:157] Top shape: 1024 (1024)
I0508 03:09:39.815500 23275 net.cpp:165] Memory required for data: 28327936
I0508 03:09:39.815503 23275 layer_factory.hpp:77] Creating layer conv1
I0508 03:09:39.815521 23275 net.cpp:100] Creating Layer conv1
I0508 03:09:39.815527 23275 net.cpp:434] conv1 <- data
I0508 03:09:39.815534 23275 net.cpp:408] conv1 -> conv1
I0508 03:09:40.239394 23275 net.cpp:150] Setting up conv1
I0508 03:09:40.239421 23275 net.cpp:157] Top shape: 1024 100 42 42 (180633600)
I0508 03:09:40.239425 23275 net.cpp:165] Memory required for data: 750862336
I0508 03:09:40.239447 23275 layer_factory.hpp:77] Creating layer conv1_prescale
I0508 03:09:40.239460 23275 net.cpp:100] Creating Layer conv1_prescale
I0508 03:09:40.239466 23275 net.cpp:434] conv1_prescale <- conv1
I0508 03:09:40.239472 23275 net.cpp:395] conv1_prescale -> conv1 (in-place)
I0508 03:09:40.239579 23275 net.cpp:150] Setting up conv1_prescale
I0508 03:09:40.239588 23275 net.cpp:157] Top shape: 1024 100 42 42 (180633600)
I0508 03:09:40.239591 23275 net.cpp:165] Memory required for data: 1473396736
I0508 03:09:40.239598 23275 layer_factory.hpp:77] Creating layer conv1_sTanH
I0508 03:09:40.239606 23275 net.cpp:100] Creating Layer conv1_sTanH
I0508 03:09:40.239611 23275 net.cpp:434] conv1_sTanH <- conv1
I0508 03:09:40.239615 23275 net.cpp:395] conv1_sTanH -> conv1 (in-place)
I0508 03:09:40.239809 23275 net.cpp:150] Setting up conv1_sTanH
I0508 03:09:40.239821 23275 net.cpp:157] Top shape: 1024 100 42 42 (180633600)
I0508 03:09:40.239847 23275 net.cpp:165] Memory required for data: 2195931136
I0508 03:09:40.239851 23275 layer_factory.hpp:77] Creating layer conv1_postscale
I0508 03:09:40.239859 23275 net.cpp:100] Creating Layer conv1_postscale
I0508 03:09:40.239863 23275 net.cpp:434] conv1_postscale <- conv1
I0508 03:09:40.239869 23275 net.cpp:395] conv1_postscale -> conv1 (in-place)
I0508 03:09:40.239979 23275 net.cpp:150] Setting up conv1_postscale
I0508 03:09:40.239987 23275 net.cpp:157] Top shape: 1024 100 42 42 (180633600)
I0508 03:09:40.239990 23275 net.cpp:165] Memory required for data: 2918465536
I0508 03:09:40.239996 23275 layer_factory.hpp:77] Creating layer pool1
I0508 03:09:40.240003 23275 net.cpp:100] Creating Layer pool1
I0508 03:09:40.240006 23275 net.cpp:434] pool1 <- conv1
I0508 03:09:40.240011 23275 net.cpp:408] pool1 -> pool1
I0508 03:09:40.240057 23275 net.cpp:150] Setting up pool1
I0508 03:09:40.240067 23275 net.cpp:157] Top shape: 1024 100 21 21 (45158400)
I0508 03:09:40.240069 23275 net.cpp:165] Memory required for data: 3099099136
I0508 03:09:40.240072 23275 layer_factory.hpp:77] Creating layer conv2
I0508 03:09:40.240082 23275 net.cpp:100] Creating Layer conv2
I0508 03:09:40.240085 23275 net.cpp:434] conv2 <- pool1
I0508 03:09:40.240092 23275 net.cpp:408] conv2 -> conv2
I0508 03:09:40.245913 23275 net.cpp:150] Setting up conv2
I0508 03:09:40.245930 23275 net.cpp:157] Top shape: 1024 150 18 18 (49766400)
I0508 03:09:40.245934 23275 net.cpp:165] Memory required for data: 3298164736
I0508 03:09:40.245947 23275 layer_factory.hpp:77] Creating layer conv2_prescale
I0508 03:09:40.245959 23275 net.cpp:100] Creating Layer conv2_prescale
I0508 03:09:40.245964 23275 net.cpp:434] conv2_prescale <- conv2
I0508 03:09:40.245970 23275 net.cpp:395] conv2_prescale -> conv2 (in-place)
I0508 03:09:40.246075 23275 net.cpp:150] Setting up conv2_prescale
I0508 03:09:40.246084 23275 net.cpp:157] Top shape: 1024 150 18 18 (49766400)
I0508 03:09:40.246088 23275 net.cpp:165] Memory required for data: 3497230336
I0508 03:09:40.246093 23275 layer_factory.hpp:77] Creating layer conv2_sTanH
I0508 03:09:40.246098 23275 net.cpp:100] Creating Layer conv2_sTanH
I0508 03:09:40.246101 23275 net.cpp:434] conv2_sTanH <- conv2
I0508 03:09:40.246107 23275 net.cpp:395] conv2_sTanH -> conv2 (in-place)
I0508 03:09:40.246289 23275 net.cpp:150] Setting up conv2_sTanH
I0508 03:09:40.246301 23275 net.cpp:157] Top shape: 1024 150 18 18 (49766400)
I0508 03:09:40.246304 23275 net.cpp:165] Memory required for data: 3696295936
I0508 03:09:40.246307 23275 layer_factory.hpp:77] Creating layer conv2_postscale
I0508 03:09:40.246315 23275 net.cpp:100] Creating Layer conv2_postscale
I0508 03:09:40.246318 23275 net.cpp:434] conv2_postscale <- conv2
I0508 03:09:40.246322 23275 net.cpp:395] conv2_postscale -> conv2 (in-place)
I0508 03:09:40.246420 23275 net.cpp:150] Setting up conv2_postscale
I0508 03:09:40.246428 23275 net.cpp:157] Top shape: 1024 150 18 18 (49766400)
I0508 03:09:40.246431 23275 net.cpp:165] Memory required for data: 3895361536
I0508 03:09:40.246435 23275 layer_factory.hpp:77] Creating layer pool2
I0508 03:09:40.246441 23275 net.cpp:100] Creating Layer pool2
I0508 03:09:40.246444 23275 net.cpp:434] pool2 <- conv2
I0508 03:09:40.246450 23275 net.cpp:408] pool2 -> pool2
I0508 03:09:40.246493 23275 net.cpp:150] Setting up pool2
I0508 03:09:40.246501 23275 net.cpp:157] Top shape: 1024 150 9 9 (12441600)
I0508 03:09:40.246505 23275 net.cpp:165] Memory required for data: 3945127936
I0508 03:09:40.246506 23275 layer_factory.hpp:77] Creating layer conv3
I0508 03:09:40.246516 23275 net.cpp:100] Creating Layer conv3
I0508 03:09:40.246520 23275 net.cpp:434] conv3 <- pool2
I0508 03:09:40.246525 23275 net.cpp:408] conv3 -> conv3
I0508 03:09:40.252951 23275 net.cpp:150] Setting up conv3
I0508 03:09:40.252969 23275 net.cpp:157] Top shape: 1024 250 6 6 (9216000)
I0508 03:09:40.252974 23275 net.cpp:165] Memory required for data: 3981991936
I0508 03:09:40.252985 23275 layer_factory.hpp:77] Creating layer conv3_prescale
I0508 03:09:40.253008 23275 net.cpp:100] Creating Layer conv3_prescale
I0508 03:09:40.253013 23275 net.cpp:434] conv3_prescale <- conv3
I0508 03:09:40.253021 23275 net.cpp:395] conv3_prescale -> conv3 (in-place)
I0508 03:09:40.253125 23275 net.cpp:150] Setting up conv3_prescale
I0508 03:09:40.253134 23275 net.cpp:157] Top shape: 1024 250 6 6 (9216000)
I0508 03:09:40.253137 23275 net.cpp:165] Memory required for data: 4018855936
I0508 03:09:40.253142 23275 layer_factory.hpp:77] Creating layer conv3_sTanH
I0508 03:09:40.253147 23275 net.cpp:100] Creating Layer conv3_sTanH
I0508 03:09:40.253150 23275 net.cpp:434] conv3_sTanH <- conv3
I0508 03:09:40.253156 23275 net.cpp:395] conv3_sTanH -> conv3 (in-place)
I0508 03:09:40.253341 23275 net.cpp:150] Setting up conv3_sTanH
I0508 03:09:40.253352 23275 net.cpp:157] Top shape: 1024 250 6 6 (9216000)
I0508 03:09:40.253355 23275 net.cpp:165] Memory required for data: 4055719936
I0508 03:09:40.253358 23275 layer_factory.hpp:77] Creating layer conv3_postscale
I0508 03:09:40.253366 23275 net.cpp:100] Creating Layer conv3_postscale
I0508 03:09:40.253371 23275 net.cpp:434] conv3_postscale <- conv3
I0508 03:09:40.253377 23275 net.cpp:395] conv3_postscale -> conv3 (in-place)
I0508 03:09:40.253475 23275 net.cpp:150] Setting up conv3_postscale
I0508 03:09:40.253482 23275 net.cpp:157] Top shape: 1024 250 6 6 (9216000)
I0508 03:09:40.253485 23275 net.cpp:165] Memory required for data: 4092583936
I0508 03:09:40.253490 23275 layer_factory.hpp:77] Creating layer pool3
I0508 03:09:40.253502 23275 net.cpp:100] Creating Layer pool3
I0508 03:09:40.253507 23275 net.cpp:434] pool3 <- conv3
I0508 03:09:40.253512 23275 net.cpp:408] pool3 -> pool3
I0508 03:09:40.253551 23275 net.cpp:150] Setting up pool3
I0508 03:09:40.253561 23275 net.cpp:157] Top shape: 1024 250 3 3 (2304000)
I0508 03:09:40.253563 23275 net.cpp:165] Memory required for data: 4101799936
I0508 03:09:40.253566 23275 layer_factory.hpp:77] Creating layer fc4_300
I0508 03:09:40.253573 23275 net.cpp:100] Creating Layer fc4_300
I0508 03:09:40.253577 23275 net.cpp:434] fc4_300 <- pool3
I0508 03:09:40.253582 23275 net.cpp:408] fc4_300 -> fc4_300
I0508 03:09:40.263948 23275 net.cpp:150] Setting up fc4_300
I0508 03:09:40.263967 23275 net.cpp:157] Top shape: 1024 300 (307200)
I0508 03:09:40.263970 23275 net.cpp:165] Memory required for data: 4103028736
I0508 03:09:40.263978 23275 layer_factory.hpp:77] Creating layer fc4_prescale
I0508 03:09:40.263988 23275 net.cpp:100] Creating Layer fc4_prescale
I0508 03:09:40.263993 23275 net.cpp:434] fc4_prescale <- fc4_300
I0508 03:09:40.263999 23275 net.cpp:395] fc4_prescale -> fc4_300 (in-place)
I0508 03:09:40.264096 23275 net.cpp:150] Setting up fc4_prescale
I0508 03:09:40.264103 23275 net.cpp:157] Top shape: 1024 300 (307200)
I0508 03:09:40.264106 23275 net.cpp:165] Memory required for data: 4104257536
I0508 03:09:40.264111 23275 layer_factory.hpp:77] Creating layer fc4_sTanH
I0508 03:09:40.264117 23275 net.cpp:100] Creating Layer fc4_sTanH
I0508 03:09:40.264120 23275 net.cpp:434] fc4_sTanH <- fc4_300
I0508 03:09:40.264125 23275 net.cpp:395] fc4_sTanH -> fc4_300 (in-place)
I0508 03:09:40.265759 23275 net.cpp:150] Setting up fc4_sTanH
I0508 03:09:40.265777 23275 net.cpp:157] Top shape: 1024 300 (307200)
I0508 03:09:40.265782 23275 net.cpp:165] Memory required for data: 4105486336
I0508 03:09:40.265786 23275 layer_factory.hpp:77] Creating layer fc4_postscale
I0508 03:09:40.265795 23275 net.cpp:100] Creating Layer fc4_postscale
I0508 03:09:40.265801 23275 net.cpp:434] fc4_postscale <- fc4_300
I0508 03:09:40.265806 23275 net.cpp:395] fc4_postscale -> fc4_300 (in-place)
I0508 03:09:40.265918 23275 net.cpp:150] Setting up fc4_postscale
I0508 03:09:40.265928 23275 net.cpp:157] Top shape: 1024 300 (307200)
I0508 03:09:40.265930 23275 net.cpp:165] Memory required for data: 4106715136
I0508 03:09:40.265935 23275 layer_factory.hpp:77] Creating layer fc5_116
I0508 03:09:40.265944 23275 net.cpp:100] Creating Layer fc5_116
I0508 03:09:40.265949 23275 net.cpp:434] fc5_116 <- fc4_300
I0508 03:09:40.265954 23275 net.cpp:408] fc5_116 -> fc5_classes
I0508 03:09:40.268019 23275 net.cpp:150] Setting up fc5_116
I0508 03:09:40.268038 23275 net.cpp:157] Top shape: 1024 116 (118784)
I0508 03:09:40.268040 23275 net.cpp:165] Memory required for data: 4107190272
I0508 03:09:40.268051 23275 layer_factory.hpp:77] Creating layer fc5_classes_fc5_116_0_split
I0508 03:09:40.268062 23275 net.cpp:100] Creating Layer fc5_classes_fc5_116_0_split
I0508 03:09:40.268069 23275 net.cpp:434] fc5_classes_fc5_116_0_split <- fc5_classes
I0508 03:09:40.268074 23275 net.cpp:408] fc5_classes_fc5_116_0_split -> fc5_classes_fc5_116_0_split_0
I0508 03:09:40.268084 23275 net.cpp:408] fc5_classes_fc5_116_0_split -> fc5_classes_fc5_116_0_split_1
I0508 03:09:40.268091 23275 net.cpp:408] fc5_classes_fc5_116_0_split -> fc5_classes_fc5_116_0_split_2
I0508 03:09:40.268146 23275 net.cpp:150] Setting up fc5_classes_fc5_116_0_split
I0508 03:09:40.268153 23275 net.cpp:157] Top shape: 1024 116 (118784)
I0508 03:09:40.268157 23275 net.cpp:157] Top shape: 1024 116 (118784)
I0508 03:09:40.268162 23275 net.cpp:157] Top shape: 1024 116 (118784)
I0508 03:09:40.268163 23275 net.cpp:165] Memory required for data: 4108615680
I0508 03:09:40.268167 23275 layer_factory.hpp:77] Creating layer softmax
I0508 03:09:40.268175 23275 net.cpp:100] Creating Layer softmax
I0508 03:09:40.268180 23275 net.cpp:434] softmax <- fc5_classes_fc5_116_0_split_0
I0508 03:09:40.268185 23275 net.cpp:408] softmax -> softmax
I0508 03:09:40.268442 23275 net.cpp:150] Setting up softmax
I0508 03:09:40.268455 23275 net.cpp:157] Top shape: 1024 116 (118784)
I0508 03:09:40.268460 23275 net.cpp:165] Memory required for data: 4109090816
I0508 03:09:40.268463 23275 layer_factory.hpp:77] Creating layer loss
I0508 03:09:40.268471 23275 net.cpp:100] Creating Layer loss
I0508 03:09:40.268476 23275 net.cpp:434] loss <- softmax
I0508 03:09:40.268481 23275 net.cpp:434] loss <- label_data_1_split_0
I0508 03:09:40.268488 23275 net.cpp:408] loss -> loss
…
