…
I0412 09:08:48.602421 22864 solver.cpp:93] Creating training net from train_net file: ./Prototxt/experiment_10/rtsd-r1/imajust/trial_2/train.prototxt
I0412 09:08:48.602771 22864 net.cpp:58] Initializing net from parameters: 
state {
  phase: TRAIN
  level: 0
  stage: ""
}
layer {
  name: "data"
  type: "Data"
  top: "data"
  top: "label"
  include {
    phase: TRAIN
  }
  transform_param {
    scale: 0.0039215689
    mirror: false
    crop_size: 48
    mean_value: 115
    mean_value: 108
    mean_value: 122
  }
  data_param {
    source: "../local_data/lmdb/rtsd-r1/imajust/train/lmdb"
    batch_size: 1024
    backend: LMDB
  }
}
layer {
  name: "conv1"
  type: "Convolution"
  bottom: "data"
  top: "conv1"
  convolution_param {
    num_output: 100
    pad: 0
    kernel_size: 7
    group: 1
    stride: 1
    weight_filler {
      type: "xavier"
    }
  }
}
layer {
  name: "conv1_relu"
  type: "ReLU"
  bottom: "conv1"
  top: "conv1"
}
layer {
  name: "pool1"
  type: "Pooling"
  bottom: "conv1"
  top: "pool1"
  pooling_param {
    pool: MAX
    kernel_size: 2
    stride: 2
  }
}
layer {
  name: "conv2"
  type: "Convolution"
  bottom: "pool1"
  top: "conv2"
  convolution_param {
    num_output: 150
    pad: 0
    kernel_size: 4
    group: 1
    stride: 1
    weight_filler {
      type: "xavier"
    }
  }
}
layer {
  name: "conv2_relu"
  type: "ReLU"
  bottom: "conv2"
  top: "conv2"
}
layer {
  name: "pool2"
  type: "Pooling"
  bottom: "conv2"
  top: "pool2"
  pooling_param {
    pool: MAX
    kernel_size: 2
    stride: 2
  }
}
layer {
  name: "conv3"
  type: "Convolution"
  bottom: "pool2"
  top: "conv3"
  convolution_param {
    num_output: 250
    pad: 0
    kernel_size: 4
    group: 1
    stride: 1
    weight_filler {
      type: "xavier"
    }
  }
}
layer {
  name: "conv3_relu"
  type: "ReLU"
  bottom: "conv3"
  top: "conv3"
}
layer {
  name: "pool3"
  type: "Pooling"
  bottom: "conv3"
  top: "pool3"
  pooling_param {
    pool: MAX
    kernel_size: 2
    stride: 2
  }
}
layer {
  name: "fc4_300"
  type: "InnerProduct"
  bottom: "pool3"
  top: "fc4_300"
  inner_product_param {
    num_output: 300
    weight_filler {
      type: "xavier"
    }
  }
}
layer {
  name: "fc4_relu"
  type: "ReLU"
  bottom: "fc4_300"
  top: "fc4_300"
}
layer {
  name: "drop4"
  type: "Dropout"
  bottom: "fc4_300"
  top: "fc4_300"
  dropout_param {
    dropout_ratio: 0.4
  }
}
layer {
  name: "fc5_67"
  type: "InnerProduct"
  bottom: "fc4_300"
  top: "fc5_classes"
  inner_product_param {
    num_output: 67
    weight_filler {
      type: "xavier"
    }
  }
}
layer {
  name: "softmax"
  type: "Softmax"
  bottom: "fc5_classes"
  top: "softmax"
}
layer {
  name: "loss"
  type: "MultinomialLogisticLoss"
  bottom: "softmax"
  bottom: "label"
  top: "loss"
}
layer {
  name: "accuracy_1"
  type: "Accuracy"
  bottom: "fc5_classes"
  bottom: "label"
  top: "accuracy_1"
  accuracy_param {
    top_k: 1
  }
}
layer {
  name: "accuracy_5"
  type: "Accuracy"
  bottom: "fc5_classes"
  bottom: "label"
  top: "accuracy_5"
  accuracy_param {
    top_k: 5
  }
}
I0412 09:08:48.602900 22864 layer_factory.hpp:77] Creating layer data
I0412 09:08:48.604050 22864 net.cpp:100] Creating Layer data
I0412 09:08:48.604082 22864 net.cpp:408] data -> data
I0412 09:08:48.604110 22864 net.cpp:408] data -> label
I0412 09:08:48.605507 22973 db_lmdb.cpp:35] Opened lmdb ../local_data/lmdb/rtsd-r1/imajust/train/lmdb
I0412 09:08:48.622624 22864 data_layer.cpp:41] output data size: 1024,3,48,48
I0412 09:08:48.667641 22864 net.cpp:150] Setting up data
I0412 09:08:48.667670 22864 net.cpp:157] Top shape: 1024 3 48 48 (7077888)
I0412 09:08:48.667675 22864 net.cpp:157] Top shape: 1024 (1024)
I0412 09:08:48.667678 22864 net.cpp:165] Memory required for data: 28315648
I0412 09:08:48.667688 22864 layer_factory.hpp:77] Creating layer label_data_1_split
I0412 09:08:48.667703 22864 net.cpp:100] Creating Layer label_data_1_split
I0412 09:08:48.667709 22864 net.cpp:434] label_data_1_split <- label
I0412 09:08:48.667723 22864 net.cpp:408] label_data_1_split -> label_data_1_split_0
I0412 09:08:48.667734 22864 net.cpp:408] label_data_1_split -> label_data_1_split_1
I0412 09:08:48.667742 22864 net.cpp:408] label_data_1_split -> label_data_1_split_2
I0412 09:08:48.667814 22864 net.cpp:150] Setting up label_data_1_split
I0412 09:08:48.667824 22864 net.cpp:157] Top shape: 1024 (1024)
I0412 09:08:48.667829 22864 net.cpp:157] Top shape: 1024 (1024)
I0412 09:08:48.667832 22864 net.cpp:157] Top shape: 1024 (1024)
I0412 09:08:48.667834 22864 net.cpp:165] Memory required for data: 28327936
I0412 09:08:48.667837 22864 layer_factory.hpp:77] Creating layer conv1
I0412 09:08:48.667855 22864 net.cpp:100] Creating Layer conv1
I0412 09:08:48.667858 22864 net.cpp:434] conv1 <- data
I0412 09:08:48.667865 22864 net.cpp:408] conv1 -> conv1
I0412 09:08:48.985970 22864 net.cpp:150] Setting up conv1
I0412 09:08:48.985996 22864 net.cpp:157] Top shape: 1024 100 42 42 (180633600)
I0412 09:08:48.986001 22864 net.cpp:165] Memory required for data: 750862336
I0412 09:08:48.986021 22864 layer_factory.hpp:77] Creating layer conv1_relu
I0412 09:08:48.986033 22864 net.cpp:100] Creating Layer conv1_relu
I0412 09:08:48.986038 22864 net.cpp:434] conv1_relu <- conv1
I0412 09:08:48.986044 22864 net.cpp:395] conv1_relu -> conv1 (in-place)
I0412 09:08:48.986238 22864 net.cpp:150] Setting up conv1_relu
I0412 09:08:48.986249 22864 net.cpp:157] Top shape: 1024 100 42 42 (180633600)
I0412 09:08:48.986253 22864 net.cpp:165] Memory required for data: 1473396736
I0412 09:08:48.986258 22864 layer_factory.hpp:77] Creating layer pool1
I0412 09:08:48.986266 22864 net.cpp:100] Creating Layer pool1
I0412 09:08:48.986270 22864 net.cpp:434] pool1 <- conv1
I0412 09:08:48.986275 22864 net.cpp:408] pool1 -> pool1
I0412 09:08:48.986327 22864 net.cpp:150] Setting up pool1
I0412 09:08:48.986336 22864 net.cpp:157] Top shape: 1024 100 21 21 (45158400)
I0412 09:08:48.986340 22864 net.cpp:165] Memory required for data: 1654030336
I0412 09:08:48.986343 22864 layer_factory.hpp:77] Creating layer conv2
I0412 09:08:48.986354 22864 net.cpp:100] Creating Layer conv2
I0412 09:08:48.986359 22864 net.cpp:434] conv2 <- pool1
I0412 09:08:48.986364 22864 net.cpp:408] conv2 -> conv2
I0412 09:08:48.993727 22864 net.cpp:150] Setting up conv2
I0412 09:08:48.993743 22864 net.cpp:157] Top shape: 1024 150 18 18 (49766400)
I0412 09:08:48.993747 22864 net.cpp:165] Memory required for data: 1853095936
I0412 09:08:48.993757 22864 layer_factory.hpp:77] Creating layer conv2_relu
I0412 09:08:48.993764 22864 net.cpp:100] Creating Layer conv2_relu
I0412 09:08:48.993767 22864 net.cpp:434] conv2_relu <- conv2
I0412 09:08:48.993773 22864 net.cpp:395] conv2_relu -> conv2 (in-place)
I0412 09:08:48.994711 22864 net.cpp:150] Setting up conv2_relu
I0412 09:08:48.994727 22864 net.cpp:157] Top shape: 1024 150 18 18 (49766400)
I0412 09:08:48.994730 22864 net.cpp:165] Memory required for data: 2052161536
I0412 09:08:48.994735 22864 layer_factory.hpp:77] Creating layer pool2
I0412 09:08:48.994741 22864 net.cpp:100] Creating Layer pool2
I0412 09:08:48.994745 22864 net.cpp:434] pool2 <- conv2
I0412 09:08:48.994750 22864 net.cpp:408] pool2 -> pool2
I0412 09:08:48.994797 22864 net.cpp:150] Setting up pool2
I0412 09:08:48.994807 22864 net.cpp:157] Top shape: 1024 150 9 9 (12441600)
I0412 09:08:48.994809 22864 net.cpp:165] Memory required for data: 2101927936
I0412 09:08:48.994813 22864 layer_factory.hpp:77] Creating layer conv3
I0412 09:08:48.994822 22864 net.cpp:100] Creating Layer conv3
I0412 09:08:48.994827 22864 net.cpp:434] conv3 <- pool2
I0412 09:08:48.994850 22864 net.cpp:408] conv3 -> conv3
I0412 09:08:49.000701 22864 net.cpp:150] Setting up conv3
I0412 09:08:49.000718 22864 net.cpp:157] Top shape: 1024 250 6 6 (9216000)
I0412 09:08:49.000722 22864 net.cpp:165] Memory required for data: 2138791936
I0412 09:08:49.000732 22864 layer_factory.hpp:77] Creating layer conv3_relu
I0412 09:08:49.000740 22864 net.cpp:100] Creating Layer conv3_relu
I0412 09:08:49.000743 22864 net.cpp:434] conv3_relu <- conv3
I0412 09:08:49.000748 22864 net.cpp:395] conv3_relu -> conv3 (in-place)
I0412 09:08:49.002403 22864 net.cpp:150] Setting up conv3_relu
I0412 09:08:49.002418 22864 net.cpp:157] Top shape: 1024 250 6 6 (9216000)
I0412 09:08:49.002423 22864 net.cpp:165] Memory required for data: 2175655936
I0412 09:08:49.002426 22864 layer_factory.hpp:77] Creating layer pool3
I0412 09:08:49.002432 22864 net.cpp:100] Creating Layer pool3
I0412 09:08:49.002436 22864 net.cpp:434] pool3 <- conv3
I0412 09:08:49.002442 22864 net.cpp:408] pool3 -> pool3
I0412 09:08:49.002486 22864 net.cpp:150] Setting up pool3
I0412 09:08:49.002496 22864 net.cpp:157] Top shape: 1024 250 3 3 (2304000)
I0412 09:08:49.002498 22864 net.cpp:165] Memory required for data: 2184871936
I0412 09:08:49.002501 22864 layer_factory.hpp:77] Creating layer fc4_300
I0412 09:08:49.002508 22864 net.cpp:100] Creating Layer fc4_300
I0412 09:08:49.002511 22864 net.cpp:434] fc4_300 <- pool3
I0412 09:08:49.002516 22864 net.cpp:408] fc4_300 -> fc4_300
I0412 09:08:49.012995 22864 net.cpp:150] Setting up fc4_300
I0412 09:08:49.013012 22864 net.cpp:157] Top shape: 1024 300 (307200)
I0412 09:08:49.013016 22864 net.cpp:165] Memory required for data: 2186100736
I0412 09:08:49.013025 22864 layer_factory.hpp:77] Creating layer fc4_relu
I0412 09:08:49.013031 22864 net.cpp:100] Creating Layer fc4_relu
I0412 09:08:49.013036 22864 net.cpp:434] fc4_relu <- fc4_300
I0412 09:08:49.013041 22864 net.cpp:395] fc4_relu -> fc4_300 (in-place)
I0412 09:08:49.013221 22864 net.cpp:150] Setting up fc4_relu
I0412 09:08:49.013234 22864 net.cpp:157] Top shape: 1024 300 (307200)
I0412 09:08:49.013237 22864 net.cpp:165] Memory required for data: 2187329536
I0412 09:08:49.013242 22864 layer_factory.hpp:77] Creating layer drop4
I0412 09:08:49.013248 22864 net.cpp:100] Creating Layer drop4
I0412 09:08:49.013252 22864 net.cpp:434] drop4 <- fc4_300
I0412 09:08:49.013258 22864 net.cpp:395] drop4 -> fc4_300 (in-place)
I0412 09:08:49.013289 22864 net.cpp:150] Setting up drop4
I0412 09:08:49.013296 22864 net.cpp:157] Top shape: 1024 300 (307200)
I0412 09:08:49.013300 22864 net.cpp:165] Memory required for data: 2188558336
I0412 09:08:49.013303 22864 layer_factory.hpp:77] Creating layer fc5_67
I0412 09:08:49.013310 22864 net.cpp:100] Creating Layer fc5_67
I0412 09:08:49.013314 22864 net.cpp:434] fc5_67 <- fc4_300
I0412 09:08:49.013319 22864 net.cpp:408] fc5_67 -> fc5_classes
I0412 09:08:49.020380 22864 net.cpp:150] Setting up fc5_67
I0412 09:08:49.020397 22864 net.cpp:157] Top shape: 1024 67 (68608)
I0412 09:08:49.020401 22864 net.cpp:165] Memory required for data: 2188832768
I0412 09:08:49.020411 22864 layer_factory.hpp:77] Creating layer fc5_classes_fc5_67_0_split
I0412 09:08:49.020419 22864 net.cpp:100] Creating Layer fc5_classes_fc5_67_0_split
I0412 09:08:49.020423 22864 net.cpp:434] fc5_classes_fc5_67_0_split <- fc5_classes
I0412 09:08:49.020429 22864 net.cpp:408] fc5_classes_fc5_67_0_split -> fc5_classes_fc5_67_0_split_0
I0412 09:08:49.020437 22864 net.cpp:408] fc5_classes_fc5_67_0_split -> fc5_classes_fc5_67_0_split_1
I0412 09:08:49.020443 22864 net.cpp:408] fc5_classes_fc5_67_0_split -> fc5_classes_fc5_67_0_split_2
I0412 09:08:49.020493 22864 net.cpp:150] Setting up fc5_classes_fc5_67_0_split
I0412 09:08:49.020500 22864 net.cpp:157] Top shape: 1024 67 (68608)
I0412 09:08:49.020504 22864 net.cpp:157] Top shape: 1024 67 (68608)
I0412 09:08:49.020508 22864 net.cpp:157] Top shape: 1024 67 (68608)
I0412 09:08:49.020510 22864 net.cpp:165] Memory required for data: 2189656064
I0412 09:08:49.020514 22864 layer_factory.hpp:77] Creating layer softmax
I0412 09:08:49.020539 22864 net.cpp:100] Creating Layer softmax
I0412 09:08:49.020545 22864 net.cpp:434] softmax <- fc5_classes_fc5_67_0_split_0
I0412 09:08:49.020550 22864 net.cpp:408] softmax -> softmax
I0412 09:08:49.020792 22864 net.cpp:150] Setting up softmax
I0412 09:08:49.020805 22864 net.cpp:157] Top shape: 1024 67 (68608)
I0412 09:08:49.020808 22864 net.cpp:165] Memory required for data: 2189930496
I0412 09:08:49.020812 22864 layer_factory.hpp:77] Creating layer loss
I0412 09:08:49.020819 22864 net.cpp:100] Creating Layer loss
I0412 09:08:49.020823 22864 net.cpp:434] loss <- softmax
I0412 09:08:49.020828 22864 net.cpp:434] loss <- label_data_1_split_0
I0412 09:08:49.020833 22864 net.cpp:408] loss -> loss
…
