…
I0414 08:24:43.335817  4356 solver.cpp:93] Creating training net from train_net file: ./Prototxt/experiment_10/rtsd-r1/imajust/trial_2/train.prototxt
I0414 08:24:43.336340  4356 net.cpp:58] Initializing net from parameters: 
state {
  phase: TRAIN
  level: 0
  stage: ""
}
layer {
  name: "data"
  type: "Data"
  top: "data"
  top: "label"
  include {
    phase: TRAIN
  }
  transform_param {
    scale: 0.0039215689
    mirror: false
    crop_size: 48
    mean_value: 115
    mean_value: 108
    mean_value: 122
  }
  data_param {
    source: "../local_data/lmdb/rtsd-r1/imajust/train/lmdb"
    batch_size: 1024
    backend: LMDB
  }
}
layer {
  name: "conv1"
  type: "Convolution"
  bottom: "data"
  top: "conv1"
  convolution_param {
    num_output: 100
    pad: 0
    kernel_size: 7
    group: 1
    stride: 1
    weight_filler {
      type: "xavier"
    }
  }
}
layer {
  name: "conv1_relu"
  type: "ReLU"
  bottom: "conv1"
  top: "conv1"
}
layer {
  name: "pool1"
  type: "Pooling"
  bottom: "conv1"
  top: "pool1"
  pooling_param {
    pool: MAX
    kernel_size: 2
    stride: 2
  }
}
layer {
  name: "conv2"
  type: "Convolution"
  bottom: "pool1"
  top: "conv2"
  convolution_param {
    num_output: 150
    pad: 0
    kernel_size: 4
    group: 1
    stride: 1
    weight_filler {
      type: "xavier"
    }
  }
}
layer {
  name: "conv2_relu"
  type: "ReLU"
  bottom: "conv2"
  top: "conv2"
}
layer {
  name: "pool2"
  type: "Pooling"
  bottom: "conv2"
  top: "pool2"
  pooling_param {
    pool: MAX
    kernel_size: 2
    stride: 2
  }
}
layer {
  name: "conv3"
  type: "Convolution"
  bottom: "pool2"
  top: "conv3"
  convolution_param {
    num_output: 250
    pad: 0
    kernel_size: 4
    group: 1
    stride: 1
    weight_filler {
      type: "xavier"
    }
  }
}
layer {
  name: "conv3_relu"
  type: "ReLU"
  bottom: "conv3"
  top: "conv3"
}
layer {
  name: "pool3"
  type: "Pooling"
  bottom: "conv3"
  top: "pool3"
  pooling_param {
    pool: MAX
    kernel_size: 2
    stride: 2
  }
}
layer {
  name: "fc4_300"
  type: "InnerProduct"
  bottom: "pool3"
  top: "fc4_300"
  inner_product_param {
    num_output: 300
    weight_filler {
      type: "xavier"
    }
  }
}
layer {
  name: "fc4_relu"
  type: "ReLU"
  bottom: "fc4_300"
  top: "fc4_300"
}
layer {
  name: "fc5_67"
  type: "InnerProduct"
  bottom: "fc4_300"
  top: "fc5_classes"
  inner_product_param {
    num_output: 67
    weight_filler {
      type: "xavier"
    }
  }
}
layer {
  name: "softmax"
  type: "Softmax"
  bottom: "fc5_classes"
  top: "softmax"
}
layer {
  name: "loss"
  type: "MultinomialLogisticLoss"
  bottom: "softmax"
  bottom: "label"
  top: "loss"
}
layer {
  name: "accuracy_1"
  type: "Accuracy"
  bottom: "fc5_classes"
  bottom: "label"
  top: "accuracy_1"
  accuracy_param {
    top_k: 1
  }
}
layer {
  name: "accuracy_5"
  type: "Accuracy"
  bottom: "fc5_classes"
  bottom: "label"
  top: "accuracy_5"
  accuracy_param {
    top_k: 5
  }
}
layer {
  name: "silence"
  type: "Silence"
  bottom: "accuracy_1"
  bottom: "accuracy_5"
}
I0414 08:24:43.336514  4356 layer_factory.hpp:77] Creating layer data
I0414 08:24:43.338166  4356 net.cpp:100] Creating Layer data
I0414 08:24:43.338191  4356 net.cpp:408] data -> data
I0414 08:24:43.338223  4356 net.cpp:408] data -> label
I0414 08:24:43.339392  4468 db_lmdb.cpp:35] Opened lmdb ../local_data/lmdb/rtsd-r1/imajust/train/lmdb
I0414 08:24:43.375793  4356 data_layer.cpp:41] output data size: 1024,3,48,48
I0414 08:24:43.464567  4356 net.cpp:150] Setting up data
I0414 08:24:43.464625  4356 net.cpp:157] Top shape: 1024 3 48 48 (7077888)
I0414 08:24:43.464632  4356 net.cpp:157] Top shape: 1024 (1024)
I0414 08:24:43.464637  4356 net.cpp:165] Memory required for data: 28315648
I0414 08:24:43.464648  4356 layer_factory.hpp:77] Creating layer label_data_1_split
I0414 08:24:43.464663  4356 net.cpp:100] Creating Layer label_data_1_split
I0414 08:24:43.464673  4356 net.cpp:434] label_data_1_split <- label
I0414 08:24:43.464686  4356 net.cpp:408] label_data_1_split -> label_data_1_split_0
I0414 08:24:43.464700  4356 net.cpp:408] label_data_1_split -> label_data_1_split_1
I0414 08:24:43.464709  4356 net.cpp:408] label_data_1_split -> label_data_1_split_2
I0414 08:24:43.464804  4356 net.cpp:150] Setting up label_data_1_split
I0414 08:24:43.464814  4356 net.cpp:157] Top shape: 1024 (1024)
I0414 08:24:43.464819  4356 net.cpp:157] Top shape: 1024 (1024)
I0414 08:24:43.464823  4356 net.cpp:157] Top shape: 1024 (1024)
I0414 08:24:43.464826  4356 net.cpp:165] Memory required for data: 28327936
I0414 08:24:43.464830  4356 layer_factory.hpp:77] Creating layer conv1
I0414 08:24:43.464848  4356 net.cpp:100] Creating Layer conv1
I0414 08:24:43.464854  4356 net.cpp:434] conv1 <- data
I0414 08:24:43.464861  4356 net.cpp:408] conv1 -> conv1
I0414 08:24:43.954236  4356 net.cpp:150] Setting up conv1
I0414 08:24:43.954267  4356 net.cpp:157] Top shape: 1024 100 42 42 (180633600)
I0414 08:24:43.954270  4356 net.cpp:165] Memory required for data: 750862336
I0414 08:24:43.954295  4356 layer_factory.hpp:77] Creating layer conv1_relu
I0414 08:24:43.954308  4356 net.cpp:100] Creating Layer conv1_relu
I0414 08:24:43.954316  4356 net.cpp:434] conv1_relu <- conv1
I0414 08:24:43.954324  4356 net.cpp:395] conv1_relu -> conv1 (in-place)
I0414 08:24:43.954558  4356 net.cpp:150] Setting up conv1_relu
I0414 08:24:43.954571  4356 net.cpp:157] Top shape: 1024 100 42 42 (180633600)
I0414 08:24:43.954576  4356 net.cpp:165] Memory required for data: 1473396736
I0414 08:24:43.954579  4356 layer_factory.hpp:77] Creating layer pool1
I0414 08:24:43.954591  4356 net.cpp:100] Creating Layer pool1
I0414 08:24:43.954596  4356 net.cpp:434] pool1 <- conv1
I0414 08:24:43.954602  4356 net.cpp:408] pool1 -> pool1
I0414 08:24:43.954663  4356 net.cpp:150] Setting up pool1
I0414 08:24:43.954672  4356 net.cpp:157] Top shape: 1024 100 21 21 (45158400)
I0414 08:24:43.954676  4356 net.cpp:165] Memory required for data: 1654030336
I0414 08:24:43.954680  4356 layer_factory.hpp:77] Creating layer conv2
I0414 08:24:43.954694  4356 net.cpp:100] Creating Layer conv2
I0414 08:24:43.954700  4356 net.cpp:434] conv2 <- pool1
I0414 08:24:43.954706  4356 net.cpp:408] conv2 -> conv2
I0414 08:24:43.964514  4356 net.cpp:150] Setting up conv2
I0414 08:24:43.964535  4356 net.cpp:157] Top shape: 1024 150 18 18 (49766400)
I0414 08:24:43.964542  4356 net.cpp:165] Memory required for data: 1853095936
I0414 08:24:43.964555  4356 layer_factory.hpp:77] Creating layer conv2_relu
I0414 08:24:43.964565  4356 net.cpp:100] Creating Layer conv2_relu
I0414 08:24:43.964570  4356 net.cpp:434] conv2_relu <- conv2
I0414 08:24:43.964576  4356 net.cpp:395] conv2_relu -> conv2 (in-place)
I0414 08:24:43.967139  4356 net.cpp:150] Setting up conv2_relu
I0414 08:24:43.967160  4356 net.cpp:157] Top shape: 1024 150 18 18 (49766400)
I0414 08:24:43.967165  4356 net.cpp:165] Memory required for data: 2052161536
I0414 08:24:43.967170  4356 layer_factory.hpp:77] Creating layer pool2
I0414 08:24:43.967178  4356 net.cpp:100] Creating Layer pool2
I0414 08:24:43.967182  4356 net.cpp:434] pool2 <- conv2
I0414 08:24:43.967190  4356 net.cpp:408] pool2 -> pool2
I0414 08:24:43.967249  4356 net.cpp:150] Setting up pool2
I0414 08:24:43.967259  4356 net.cpp:157] Top shape: 1024 150 9 9 (12441600)
I0414 08:24:43.967263  4356 net.cpp:165] Memory required for data: 2101927936
I0414 08:24:43.967267  4356 layer_factory.hpp:77] Creating layer conv3
I0414 08:24:43.967278  4356 net.cpp:100] Creating Layer conv3
I0414 08:24:43.967284  4356 net.cpp:434] conv3 <- pool2
I0414 08:24:43.967317  4356 net.cpp:408] conv3 -> conv3
I0414 08:24:43.974287  4356 net.cpp:150] Setting up conv3
I0414 08:24:43.974308  4356 net.cpp:157] Top shape: 1024 250 6 6 (9216000)
I0414 08:24:43.974313  4356 net.cpp:165] Memory required for data: 2138791936
I0414 08:24:43.974326  4356 layer_factory.hpp:77] Creating layer conv3_relu
I0414 08:24:43.974334  4356 net.cpp:100] Creating Layer conv3_relu
I0414 08:24:43.974339  4356 net.cpp:434] conv3_relu <- conv3
I0414 08:24:43.974345  4356 net.cpp:395] conv3_relu -> conv3 (in-place)
I0414 08:24:43.975679  4356 net.cpp:150] Setting up conv3_relu
I0414 08:24:43.975697  4356 net.cpp:157] Top shape: 1024 250 6 6 (9216000)
I0414 08:24:43.975702  4356 net.cpp:165] Memory required for data: 2175655936
I0414 08:24:43.975705  4356 layer_factory.hpp:77] Creating layer pool3
I0414 08:24:43.975713  4356 net.cpp:100] Creating Layer pool3
I0414 08:24:43.975718  4356 net.cpp:434] pool3 <- conv3
I0414 08:24:43.975725  4356 net.cpp:408] pool3 -> pool3
I0414 08:24:43.975785  4356 net.cpp:150] Setting up pool3
I0414 08:24:43.975795  4356 net.cpp:157] Top shape: 1024 250 3 3 (2304000)
I0414 08:24:43.975798  4356 net.cpp:165] Memory required for data: 2184871936
I0414 08:24:43.975802  4356 layer_factory.hpp:77] Creating layer fc4_300
I0414 08:24:43.975812  4356 net.cpp:100] Creating Layer fc4_300
I0414 08:24:43.975816  4356 net.cpp:434] fc4_300 <- pool3
I0414 08:24:43.975823  4356 net.cpp:408] fc4_300 -> fc4_300
I0414 08:24:43.983680  4356 net.cpp:150] Setting up fc4_300
I0414 08:24:43.983700  4356 net.cpp:157] Top shape: 1024 300 (307200)
I0414 08:24:43.983703  4356 net.cpp:165] Memory required for data: 2186100736
I0414 08:24:43.983711  4356 layer_factory.hpp:77] Creating layer fc4_relu
I0414 08:24:43.983724  4356 net.cpp:100] Creating Layer fc4_relu
I0414 08:24:43.983732  4356 net.cpp:434] fc4_relu <- fc4_300
I0414 08:24:43.983739  4356 net.cpp:395] fc4_relu -> fc4_300 (in-place)
I0414 08:24:43.983978  4356 net.cpp:150] Setting up fc4_relu
I0414 08:24:43.983992  4356 net.cpp:157] Top shape: 1024 300 (307200)
I0414 08:24:43.983996  4356 net.cpp:165] Memory required for data: 2187329536
I0414 08:24:43.984000  4356 layer_factory.hpp:77] Creating layer fc5_67
I0414 08:24:43.984009  4356 net.cpp:100] Creating Layer fc5_67
I0414 08:24:43.984015  4356 net.cpp:434] fc5_67 <- fc4_300
I0414 08:24:43.984024  4356 net.cpp:408] fc5_67 -> fc5_classes
I0414 08:24:43.985932  4356 net.cpp:150] Setting up fc5_67
I0414 08:24:43.985950  4356 net.cpp:157] Top shape: 1024 67 (68608)
I0414 08:24:43.985954  4356 net.cpp:165] Memory required for data: 2187603968
I0414 08:24:43.985968  4356 layer_factory.hpp:77] Creating layer fc5_classes_fc5_67_0_split
I0414 08:24:43.985977  4356 net.cpp:100] Creating Layer fc5_classes_fc5_67_0_split
I0414 08:24:43.985985  4356 net.cpp:434] fc5_classes_fc5_67_0_split <- fc5_classes
I0414 08:24:43.985993  4356 net.cpp:408] fc5_classes_fc5_67_0_split -> fc5_classes_fc5_67_0_split_0
I0414 08:24:43.986004  4356 net.cpp:408] fc5_classes_fc5_67_0_split -> fc5_classes_fc5_67_0_split_1
I0414 08:24:43.986013  4356 net.cpp:408] fc5_classes_fc5_67_0_split -> fc5_classes_fc5_67_0_split_2
I0414 08:24:43.986078  4356 net.cpp:150] Setting up fc5_classes_fc5_67_0_split
I0414 08:24:43.986085  4356 net.cpp:157] Top shape: 1024 67 (68608)
I0414 08:24:43.986090  4356 net.cpp:157] Top shape: 1024 67 (68608)
I0414 08:24:43.986094  4356 net.cpp:157] Top shape: 1024 67 (68608)
I0414 08:24:43.986098  4356 net.cpp:165] Memory required for data: 2188427264
I0414 08:24:43.986101  4356 layer_factory.hpp:77] Creating layer softmax
I0414 08:24:43.986111  4356 net.cpp:100] Creating Layer softmax
I0414 08:24:43.986115  4356 net.cpp:434] softmax <- fc5_classes_fc5_67_0_split_0
I0414 08:24:43.986121  4356 net.cpp:408] softmax -> softmax
I0414 08:24:43.986434  4356 net.cpp:150] Setting up softmax
I0414 08:24:43.986448  4356 net.cpp:157] Top shape: 1024 67 (68608)
I0414 08:24:43.986451  4356 net.cpp:165] Memory required for data: 2188701696
I0414 08:24:43.986455  4356 layer_factory.hpp:77] Creating layer loss
I0414 08:24:43.986466  4356 net.cpp:100] Creating Layer loss
I0414 08:24:43.986486  4356 net.cpp:434] loss <- softmax
I0414 08:24:43.986492  4356 net.cpp:434] loss <- label_data_1_split_0
I0414 08:24:43.986500  4356 net.cpp:408] loss -> loss
…
