…
I0508 09:06:24.359597 21273 solver.cpp:93] Creating training net from train_net file: ./Prototxt/experiment_15/RTSD/imajust/trial_1/train.prototxt
I0508 09:06:24.360180 21273 net.cpp:58] Initializing net from parameters: 
state {
  phase: TRAIN
  level: 0
  stage: ""
}
layer {
  name: "data"
  type: "Data"
  top: "data"
  top: "label"
  include {
    phase: TRAIN
  }
  transform_param {
    scale: 0.0039215689
    mirror: false
    crop_size: 48
    mean_value: 119
    mean_value: 113
    mean_value: 114
  }
  data_param {
    source: "../local_data/lmdb/RTSD/imajust/train/lmdb"
    batch_size: 1024
    backend: LMDB
  }
}
layer {
  name: "conv1"
  type: "Convolution"
  bottom: "data"
  top: "conv1"
  convolution_param {
    num_output: 100
    pad: 0
    kernel_size: 7
    group: 1
    stride: 1
    weight_filler {
      type: "xavier"
    }
  }
}
layer {
  name: "conv1_prescale"
  type: "Scale"
  bottom: "conv1"
  top: "conv1"
  param {
    lr_mult: 0
    decay_mult: 0
  }
  scale_param {
    filler {
      value: 0.6666
    }
    bias_term: false
  }
}
layer {
  name: "conv1_sTanH"
  type: "TanH"
  bottom: "conv1"
  top: "conv1"
}
layer {
  name: "conv1_postscale"
  type: "Scale"
  bottom: "conv1"
  top: "conv1"
  param {
    lr_mult: 0
    decay_mult: 0
  }
  scale_param {
    filler {
      value: 1.7159
    }
    bias_term: false
  }
}
layer {
  name: "pool1"
  type: "Pooling"
  bottom: "conv1"
  top: "pool1"
  pooling_param {
    pool: MAX
    kernel_size: 2
    stride: 2
  }
}
layer {
  name: "conv2"
  type: "Convolution"
  bottom: "pool1"
  top: "conv2"
  convolution_param {
    num_output: 150
    pad: 0
    kernel_size: 4
    group: 2
    stride: 1
    weight_filler {
      type: "xavier"
    }
  }
}
layer {
  name: "conv2_prescale"
  type: "Scale"
  bottom: "conv2"
  top: "conv2"
  param {
    lr_mult: 0
    decay_mult: 0
  }
  scale_param {
    filler {
      value: 0.6666
    }
    bias_term: false
  }
}
layer {
  name: "conv2_sTanH"
  type: "TanH"
  bottom: "conv2"
  top: "conv2"
}
layer {
  name: "conv2_postscale"
  type: "Scale"
  bottom: "conv2"
  top: "conv2"
  param {
    lr_mult: 0
    decay_mult: 0
  }
  scale_param {
    filler {
      value: 1.7159
    }
    bias_term: false
  }
}
layer {
  name: "pool2"
  type: "Pooling"
  bottom: "conv2"
  top: "pool2"
  pooling_param {
    pool: MAX
    kernel_size: 2
    stride: 2
  }
}
layer {
  name: "conv3"
  type: "Convolution"
  bottom: "pool2"
  top: "conv3"
  convolution_param {
    num_output: 250
    pad: 0
    kernel_size: 4
    group: 2
    stride: 1
    weight_filler {
      type: "xavier"
    }
  }
}
layer {
  name: "conv3_prescale"
  type: "Scale"
  bottom: "conv3"
  top: "conv3"
  param {
    lr_mult: 0
    decay_mult: 0
  }
  scale_param {
    filler {
      value: 0.6666
    }
    bias_term: false
  }
}
layer {
  name: "conv3_sTanH"
  type: "TanH"
  bottom: "conv3"
  top: "conv3"
}
layer {
  name: "conv3_postscale"
  type: "Scale"
  bottom: "conv3"
  top: "conv3"
  param {
    lr_mult: 0
    decay_mult: 0
  }
  scale_param {
    filler {
      value: 1.7159
    }
    bias_term: false
  }
}
layer {
  name: "pool3"
  type: "Pooling"
  bottom: "conv3"
  top: "pool3"
  pooling_param {
    pool: MAX
    kernel_size: 2
    stride: 2
  }
}
layer {
  name: "fc4_300"
  type: "InnerProduct"
  bottom: "pool3"
  top: "fc4_300"
  inner_product_param {
    num_output: 300
    weight_filler {
      type: "xavier"
    }
  }
}
layer {
  name: "fc4_prescale"
  type: "Scale"
  bottom: "fc4_300"
  top: "fc4_300"
  param {
    lr_mult: 0
    decay_mult: 0
  }
  scale_param {
    filler {
      value: 0.6666
    }
    bias_term: false
  }
}
layer {
  name: "fc4_sTanH"
  type: "TanH"
  bottom: "fc4_300"
  top: "fc4_300"
}
layer {
  name: "fc4_postscale"
  type: "Scale"
  bottom: "fc4_300"
  top: "fc4_300"
  param {
    lr_mult: 0
    decay_mult: 0
  }
  scale_param {
    filler {
      value: 1.7159
    }
    bias_term: false
  }
}
layer {
  name: "fc5_116"
  type: "InnerProduct"
  bottom: "fc4_300"
  top: "fc5_classes"
  inner_product_param {
    num_output: 116
    weight_filler {
      type: "xavier"
    }
  }
}
layer {
  name: "softmax"
  type: "Softmax"
  bottom: "fc5_classes"
  top: "softmax"
}
layer {
  name: "loss"
  type: "MultinomialLogisticLoss"
  bottom: "softmax"
  bottom: "label"
  top: "loss"
}
layer {
  name: "accuracy_1"
  type: "Accuracy"
  bottom: "fc5_classes"
  bottom: "label"
  top: "accuracy_1"
  accuracy_param {
    top_k: 1
  }
}
layer {
  name: "accuracy_5"
  type: "Accuracy"
  bottom: "fc5_classes"
  bottom: "label"
  top: "accuracy_5"
  accuracy_param {
    top_k: 5
  }
}
layer {
  name: "silence"
  type: "Silence"
  bottom: "accuracy_1"
  bottom: "accuracy_5"
}
I0508 09:06:24.360379 21273 layer_factory.hpp:77] Creating layer data
I0508 09:06:24.361683 21273 net.cpp:100] Creating Layer data
I0508 09:06:24.361701 21273 net.cpp:408] data -> data
I0508 09:06:24.361729 21273 net.cpp:408] data -> label
I0508 09:06:24.371453 21401 db_lmdb.cpp:35] Opened lmdb ../local_data/lmdb/RTSD/imajust/train/lmdb
I0508 09:06:24.392299 21273 data_layer.cpp:41] output data size: 1024,3,48,48
I0508 09:06:24.459159 21273 net.cpp:150] Setting up data
I0508 09:06:24.459210 21273 net.cpp:157] Top shape: 1024 3 48 48 (7077888)
I0508 09:06:24.459221 21273 net.cpp:157] Top shape: 1024 (1024)
I0508 09:06:24.459228 21273 net.cpp:165] Memory required for data: 28315648
I0508 09:06:24.459244 21273 layer_factory.hpp:77] Creating layer label_data_1_split
I0508 09:06:24.459266 21273 net.cpp:100] Creating Layer label_data_1_split
I0508 09:06:24.459276 21273 net.cpp:434] label_data_1_split <- label
I0508 09:06:24.459297 21273 net.cpp:408] label_data_1_split -> label_data_1_split_0
I0508 09:06:24.459321 21273 net.cpp:408] label_data_1_split -> label_data_1_split_1
I0508 09:06:24.459333 21273 net.cpp:408] label_data_1_split -> label_data_1_split_2
I0508 09:06:24.459441 21273 net.cpp:150] Setting up label_data_1_split
I0508 09:06:24.459455 21273 net.cpp:157] Top shape: 1024 (1024)
I0508 09:06:24.459461 21273 net.cpp:157] Top shape: 1024 (1024)
I0508 09:06:24.459468 21273 net.cpp:157] Top shape: 1024 (1024)
I0508 09:06:24.459473 21273 net.cpp:165] Memory required for data: 28327936
I0508 09:06:24.459481 21273 layer_factory.hpp:77] Creating layer conv1
I0508 09:06:24.459511 21273 net.cpp:100] Creating Layer conv1
I0508 09:06:24.459517 21273 net.cpp:434] conv1 <- data
I0508 09:06:24.459529 21273 net.cpp:408] conv1 -> conv1
I0508 09:06:24.871561 21273 net.cpp:150] Setting up conv1
I0508 09:06:24.871590 21273 net.cpp:157] Top shape: 1024 100 42 42 (180633600)
I0508 09:06:24.871595 21273 net.cpp:165] Memory required for data: 750862336
I0508 09:06:24.871621 21273 layer_factory.hpp:77] Creating layer conv1_prescale
I0508 09:06:24.871635 21273 net.cpp:100] Creating Layer conv1_prescale
I0508 09:06:24.871642 21273 net.cpp:434] conv1_prescale <- conv1
I0508 09:06:24.871650 21273 net.cpp:395] conv1_prescale -> conv1 (in-place)
I0508 09:06:24.871783 21273 net.cpp:150] Setting up conv1_prescale
I0508 09:06:24.871793 21273 net.cpp:157] Top shape: 1024 100 42 42 (180633600)
I0508 09:06:24.871798 21273 net.cpp:165] Memory required for data: 1473396736
I0508 09:06:24.871805 21273 layer_factory.hpp:77] Creating layer conv1_sTanH
I0508 09:06:24.871815 21273 net.cpp:100] Creating Layer conv1_sTanH
I0508 09:06:24.871821 21273 net.cpp:434] conv1_sTanH <- conv1
I0508 09:06:24.871827 21273 net.cpp:395] conv1_sTanH -> conv1 (in-place)
I0508 09:06:24.872081 21273 net.cpp:150] Setting up conv1_sTanH
I0508 09:06:24.872095 21273 net.cpp:157] Top shape: 1024 100 42 42 (180633600)
I0508 09:06:24.872125 21273 net.cpp:165] Memory required for data: 2195931136
I0508 09:06:24.872130 21273 layer_factory.hpp:77] Creating layer conv1_postscale
I0508 09:06:24.872139 21273 net.cpp:100] Creating Layer conv1_postscale
I0508 09:06:24.872145 21273 net.cpp:434] conv1_postscale <- conv1
I0508 09:06:24.872151 21273 net.cpp:395] conv1_postscale -> conv1 (in-place)
I0508 09:06:24.872269 21273 net.cpp:150] Setting up conv1_postscale
I0508 09:06:24.872279 21273 net.cpp:157] Top shape: 1024 100 42 42 (180633600)
I0508 09:06:24.872282 21273 net.cpp:165] Memory required for data: 2918465536
I0508 09:06:24.872289 21273 layer_factory.hpp:77] Creating layer pool1
I0508 09:06:24.872297 21273 net.cpp:100] Creating Layer pool1
I0508 09:06:24.872303 21273 net.cpp:434] pool1 <- conv1
I0508 09:06:24.872308 21273 net.cpp:408] pool1 -> pool1
I0508 09:06:24.872364 21273 net.cpp:150] Setting up pool1
I0508 09:06:24.872381 21273 net.cpp:157] Top shape: 1024 100 21 21 (45158400)
I0508 09:06:24.872385 21273 net.cpp:165] Memory required for data: 3099099136
I0508 09:06:24.872390 21273 layer_factory.hpp:77] Creating layer conv2
I0508 09:06:24.872400 21273 net.cpp:100] Creating Layer conv2
I0508 09:06:24.872406 21273 net.cpp:434] conv2 <- pool1
I0508 09:06:24.872412 21273 net.cpp:408] conv2 -> conv2
I0508 09:06:24.878923 21273 net.cpp:150] Setting up conv2
I0508 09:06:24.878945 21273 net.cpp:157] Top shape: 1024 150 18 18 (49766400)
I0508 09:06:24.878950 21273 net.cpp:165] Memory required for data: 3298164736
I0508 09:06:24.878963 21273 layer_factory.hpp:77] Creating layer conv2_prescale
I0508 09:06:24.878975 21273 net.cpp:100] Creating Layer conv2_prescale
I0508 09:06:24.878980 21273 net.cpp:434] conv2_prescale <- conv2
I0508 09:06:24.878988 21273 net.cpp:395] conv2_prescale -> conv2 (in-place)
I0508 09:06:24.879107 21273 net.cpp:150] Setting up conv2_prescale
I0508 09:06:24.879117 21273 net.cpp:157] Top shape: 1024 150 18 18 (49766400)
I0508 09:06:24.879122 21273 net.cpp:165] Memory required for data: 3497230336
I0508 09:06:24.879127 21273 layer_factory.hpp:77] Creating layer conv2_sTanH
I0508 09:06:24.879134 21273 net.cpp:100] Creating Layer conv2_sTanH
I0508 09:06:24.879137 21273 net.cpp:434] conv2_sTanH <- conv2
I0508 09:06:24.879143 21273 net.cpp:395] conv2_sTanH -> conv2 (in-place)
I0508 09:06:24.879355 21273 net.cpp:150] Setting up conv2_sTanH
I0508 09:06:24.879367 21273 net.cpp:157] Top shape: 1024 150 18 18 (49766400)
I0508 09:06:24.879371 21273 net.cpp:165] Memory required for data: 3696295936
I0508 09:06:24.879375 21273 layer_factory.hpp:77] Creating layer conv2_postscale
I0508 09:06:24.879384 21273 net.cpp:100] Creating Layer conv2_postscale
I0508 09:06:24.879386 21273 net.cpp:434] conv2_postscale <- conv2
I0508 09:06:24.879392 21273 net.cpp:395] conv2_postscale -> conv2 (in-place)
I0508 09:06:24.879501 21273 net.cpp:150] Setting up conv2_postscale
I0508 09:06:24.879510 21273 net.cpp:157] Top shape: 1024 150 18 18 (49766400)
I0508 09:06:24.879514 21273 net.cpp:165] Memory required for data: 3895361536
I0508 09:06:24.879520 21273 layer_factory.hpp:77] Creating layer pool2
I0508 09:06:24.879528 21273 net.cpp:100] Creating Layer pool2
I0508 09:06:24.879531 21273 net.cpp:434] pool2 <- conv2
I0508 09:06:24.879537 21273 net.cpp:408] pool2 -> pool2
I0508 09:06:24.879585 21273 net.cpp:150] Setting up pool2
I0508 09:06:24.879595 21273 net.cpp:157] Top shape: 1024 150 9 9 (12441600)
I0508 09:06:24.879598 21273 net.cpp:165] Memory required for data: 3945127936
I0508 09:06:24.879603 21273 layer_factory.hpp:77] Creating layer conv3
I0508 09:06:24.879613 21273 net.cpp:100] Creating Layer conv3
I0508 09:06:24.879618 21273 net.cpp:434] conv3 <- pool2
I0508 09:06:24.879624 21273 net.cpp:408] conv3 -> conv3
I0508 09:06:24.885387 21273 net.cpp:150] Setting up conv3
I0508 09:06:24.885407 21273 net.cpp:157] Top shape: 1024 250 6 6 (9216000)
I0508 09:06:24.885411 21273 net.cpp:165] Memory required for data: 3981991936
I0508 09:06:24.885423 21273 layer_factory.hpp:77] Creating layer conv3_prescale
I0508 09:06:24.885452 21273 net.cpp:100] Creating Layer conv3_prescale
I0508 09:06:24.885457 21273 net.cpp:434] conv3_prescale <- conv3
I0508 09:06:24.885463 21273 net.cpp:395] conv3_prescale -> conv3 (in-place)
I0508 09:06:24.885571 21273 net.cpp:150] Setting up conv3_prescale
I0508 09:06:24.885583 21273 net.cpp:157] Top shape: 1024 250 6 6 (9216000)
I0508 09:06:24.885586 21273 net.cpp:165] Memory required for data: 4018855936
I0508 09:06:24.885592 21273 layer_factory.hpp:77] Creating layer conv3_sTanH
I0508 09:06:24.885598 21273 net.cpp:100] Creating Layer conv3_sTanH
I0508 09:06:24.885602 21273 net.cpp:434] conv3_sTanH <- conv3
I0508 09:06:24.885608 21273 net.cpp:395] conv3_sTanH -> conv3 (in-place)
I0508 09:06:24.885821 21273 net.cpp:150] Setting up conv3_sTanH
I0508 09:06:24.885834 21273 net.cpp:157] Top shape: 1024 250 6 6 (9216000)
I0508 09:06:24.885838 21273 net.cpp:165] Memory required for data: 4055719936
I0508 09:06:24.885843 21273 layer_factory.hpp:77] Creating layer conv3_postscale
I0508 09:06:24.885850 21273 net.cpp:100] Creating Layer conv3_postscale
I0508 09:06:24.885854 21273 net.cpp:434] conv3_postscale <- conv3
I0508 09:06:24.885860 21273 net.cpp:395] conv3_postscale -> conv3 (in-place)
I0508 09:06:24.885967 21273 net.cpp:150] Setting up conv3_postscale
I0508 09:06:24.885977 21273 net.cpp:157] Top shape: 1024 250 6 6 (9216000)
I0508 09:06:24.885980 21273 net.cpp:165] Memory required for data: 4092583936
I0508 09:06:24.885987 21273 layer_factory.hpp:77] Creating layer pool3
I0508 09:06:24.885998 21273 net.cpp:100] Creating Layer pool3
I0508 09:06:24.886001 21273 net.cpp:434] pool3 <- conv3
I0508 09:06:24.886008 21273 net.cpp:408] pool3 -> pool3
I0508 09:06:24.886051 21273 net.cpp:150] Setting up pool3
I0508 09:06:24.886059 21273 net.cpp:157] Top shape: 1024 250 3 3 (2304000)
I0508 09:06:24.886063 21273 net.cpp:165] Memory required for data: 4101799936
I0508 09:06:24.886066 21273 layer_factory.hpp:77] Creating layer fc4_300
I0508 09:06:24.886075 21273 net.cpp:100] Creating Layer fc4_300
I0508 09:06:24.886078 21273 net.cpp:434] fc4_300 <- pool3
I0508 09:06:24.886083 21273 net.cpp:408] fc4_300 -> fc4_300
I0508 09:06:24.897583 21273 net.cpp:150] Setting up fc4_300
I0508 09:06:24.897605 21273 net.cpp:157] Top shape: 1024 300 (307200)
I0508 09:06:24.897609 21273 net.cpp:165] Memory required for data: 4103028736
I0508 09:06:24.897620 21273 layer_factory.hpp:77] Creating layer fc4_prescale
I0508 09:06:24.897630 21273 net.cpp:100] Creating Layer fc4_prescale
I0508 09:06:24.897634 21273 net.cpp:434] fc4_prescale <- fc4_300
I0508 09:06:24.897641 21273 net.cpp:395] fc4_prescale -> fc4_300 (in-place)
I0508 09:06:24.897748 21273 net.cpp:150] Setting up fc4_prescale
I0508 09:06:24.897758 21273 net.cpp:157] Top shape: 1024 300 (307200)
I0508 09:06:24.897763 21273 net.cpp:165] Memory required for data: 4104257536
I0508 09:06:24.897768 21273 layer_factory.hpp:77] Creating layer fc4_sTanH
I0508 09:06:24.897774 21273 net.cpp:100] Creating Layer fc4_sTanH
I0508 09:06:24.897778 21273 net.cpp:434] fc4_sTanH <- fc4_300
I0508 09:06:24.897783 21273 net.cpp:395] fc4_sTanH -> fc4_300 (in-place)
I0508 09:06:24.902593 21273 net.cpp:150] Setting up fc4_sTanH
I0508 09:06:24.902616 21273 net.cpp:157] Top shape: 1024 300 (307200)
I0508 09:06:24.902619 21273 net.cpp:165] Memory required for data: 4105486336
I0508 09:06:24.902624 21273 layer_factory.hpp:77] Creating layer fc4_postscale
I0508 09:06:24.902634 21273 net.cpp:100] Creating Layer fc4_postscale
I0508 09:06:24.902638 21273 net.cpp:434] fc4_postscale <- fc4_300
I0508 09:06:24.902645 21273 net.cpp:395] fc4_postscale -> fc4_300 (in-place)
I0508 09:06:24.902775 21273 net.cpp:150] Setting up fc4_postscale
I0508 09:06:24.902786 21273 net.cpp:157] Top shape: 1024 300 (307200)
I0508 09:06:24.902788 21273 net.cpp:165] Memory required for data: 4106715136
I0508 09:06:24.902796 21273 layer_factory.hpp:77] Creating layer fc5_116
I0508 09:06:24.902802 21273 net.cpp:100] Creating Layer fc5_116
I0508 09:06:24.902809 21273 net.cpp:434] fc5_116 <- fc4_300
I0508 09:06:24.902815 21273 net.cpp:408] fc5_116 -> fc5_classes
I0508 09:06:24.904911 21273 net.cpp:150] Setting up fc5_116
I0508 09:06:24.904930 21273 net.cpp:157] Top shape: 1024 116 (118784)
I0508 09:06:24.904934 21273 net.cpp:165] Memory required for data: 4107190272
I0508 09:06:24.904947 21273 layer_factory.hpp:77] Creating layer fc5_classes_fc5_116_0_split
I0508 09:06:24.904956 21273 net.cpp:100] Creating Layer fc5_classes_fc5_116_0_split
I0508 09:06:24.904960 21273 net.cpp:434] fc5_classes_fc5_116_0_split <- fc5_classes
I0508 09:06:24.904968 21273 net.cpp:408] fc5_classes_fc5_116_0_split -> fc5_classes_fc5_116_0_split_0
I0508 09:06:24.904976 21273 net.cpp:408] fc5_classes_fc5_116_0_split -> fc5_classes_fc5_116_0_split_1
I0508 09:06:24.904984 21273 net.cpp:408] fc5_classes_fc5_116_0_split -> fc5_classes_fc5_116_0_split_2
I0508 09:06:24.905043 21273 net.cpp:150] Setting up fc5_classes_fc5_116_0_split
I0508 09:06:24.905052 21273 net.cpp:157] Top shape: 1024 116 (118784)
I0508 09:06:24.905057 21273 net.cpp:157] Top shape: 1024 116 (118784)
I0508 09:06:24.905061 21273 net.cpp:157] Top shape: 1024 116 (118784)
I0508 09:06:24.905064 21273 net.cpp:165] Memory required for data: 4108615680
I0508 09:06:24.905069 21273 layer_factory.hpp:77] Creating layer softmax
I0508 09:06:24.905076 21273 net.cpp:100] Creating Layer softmax
I0508 09:06:24.905081 21273 net.cpp:434] softmax <- fc5_classes_fc5_116_0_split_0
I0508 09:06:24.905086 21273 net.cpp:408] softmax -> softmax
I0508 09:06:24.905382 21273 net.cpp:150] Setting up softmax
I0508 09:06:24.905395 21273 net.cpp:157] Top shape: 1024 116 (118784)
I0508 09:06:24.905400 21273 net.cpp:165] Memory required for data: 4109090816
I0508 09:06:24.905403 21273 layer_factory.hpp:77] Creating layer loss
I0508 09:06:24.905411 21273 net.cpp:100] Creating Layer loss
I0508 09:06:24.905414 21273 net.cpp:434] loss <- softmax
I0508 09:06:24.905421 21273 net.cpp:434] loss <- label_data_1_split_0
I0508 09:06:24.905426 21273 net.cpp:408] loss -> loss
…
