…
I0507 02:18:58.860368 21415 solver.cpp:93] Creating training net from train_net file: ./Prototxt/experiment_14/RTSD/CoNorm/trial_5/train.prototxt
I0507 02:18:58.860893 21415 net.cpp:58] Initializing net from parameters: 
state {
  phase: TRAIN
  level: 0
  stage: ""
}
layer {
  name: "data"
  type: "Data"
  top: "data"
  top: "label"
  include {
    phase: TRAIN
  }
  transform_param {
    scale: 0.0039215689
    mirror: false
    crop_size: 48
    mean_value: 135
    mean_value: 135
    mean_value: 134
  }
  data_param {
    source: "../local_data/lmdb/RTSD/CoNorm/train/lmdb"
    batch_size: 512
    backend: LMDB
  }
}
layer {
  name: "conv1"
  type: "Convolution"
  bottom: "data"
  top: "conv1"
  convolution_param {
    num_output: 100
    pad: 0
    kernel_size: 7
    group: 1
    stride: 1
    weight_filler {
      type: "xavier"
    }
  }
}
layer {
  name: "conv1_relu"
  type: "ReLU"
  bottom: "conv1"
  top: "conv1"
}
layer {
  name: "pool1"
  type: "Pooling"
  bottom: "conv1"
  top: "pool1"
  pooling_param {
    pool: MAX
    kernel_size: 2
    stride: 2
  }
}
layer {
  name: "conv2"
  type: "Convolution"
  bottom: "pool1"
  top: "conv2"
  convolution_param {
    num_output: 150
    pad: 0
    kernel_size: 4
    group: 1
    stride: 1
    weight_filler {
      type: "xavier"
    }
  }
}
layer {
  name: "conv2_relu"
  type: "ReLU"
  bottom: "conv2"
  top: "conv2"
}
layer {
  name: "pool2"
  type: "Pooling"
  bottom: "conv2"
  top: "pool2"
  pooling_param {
    pool: MAX
    kernel_size: 2
    stride: 2
  }
}
layer {
  name: "conv3"
  type: "Convolution"
  bottom: "pool2"
  top: "conv3"
  convolution_param {
    num_output: 250
    pad: 0
    kernel_size: 4
    group: 1
    stride: 1
    weight_filler {
      type: "xavier"
    }
  }
}
layer {
  name: "conv3_relu"
  type: "ReLU"
  bottom: "conv3"
  top: "conv3"
}
layer {
  name: "pool3"
  type: "Pooling"
  bottom: "conv3"
  top: "pool3"
  pooling_param {
    pool: MAX
    kernel_size: 2
    stride: 2
  }
}
layer {
  name: "fc4_300"
  type: "InnerProduct"
  bottom: "pool3"
  top: "fc4_300"
  inner_product_param {
    num_output: 300
    weight_filler {
      type: "xavier"
    }
  }
}
layer {
  name: "fc4_relu"
  type: "ReLU"
  bottom: "fc4_300"
  top: "fc4_300"
}
layer {
  name: "fc5_116"
  type: "InnerProduct"
  bottom: "fc4_300"
  top: "fc5_classes"
  inner_product_param {
    num_output: 116
    weight_filler {
      type: "xavier"
    }
  }
}
layer {
  name: "softmax"
  type: "Softmax"
  bottom: "fc5_classes"
  top: "softmax"
}
layer {
  name: "loss"
  type: "MultinomialLogisticLoss"
  bottom: "softmax"
  bottom: "label"
  top: "loss"
}
layer {
  name: "accuracy_1"
  type: "Accuracy"
  bottom: "fc5_classes"
  bottom: "label"
  top: "accuracy_1"
  accuracy_param {
    top_k: 1
  }
}
layer {
  name: "accuracy_5"
  type: "Accuracy"
  bottom: "fc5_classes"
  bottom: "label"
  top: "accuracy_5"
  accuracy_param {
    top_k: 5
  }
}
layer {
  name: "silence"
  type: "Silence"
  bottom: "accuracy_1"
  bottom: "accuracy_5"
}
I0507 02:18:58.861081 21415 layer_factory.hpp:77] Creating layer data
I0507 02:18:58.862473 21415 net.cpp:100] Creating Layer data
I0507 02:18:58.862498 21415 net.cpp:408] data -> data
I0507 02:18:58.862535 21415 net.cpp:408] data -> label
I0507 02:18:58.875536 21559 db_lmdb.cpp:35] Opened lmdb ../local_data/lmdb/RTSD/CoNorm/train/lmdb
I0507 02:18:58.901590 21415 data_layer.cpp:41] output data size: 512,3,48,48
I0507 02:18:58.977845 21415 net.cpp:150] Setting up data
I0507 02:18:58.977916 21415 net.cpp:157] Top shape: 512 3 48 48 (3538944)
I0507 02:18:58.977926 21415 net.cpp:157] Top shape: 512 (512)
I0507 02:18:58.977932 21415 net.cpp:165] Memory required for data: 14157824
I0507 02:18:58.977952 21415 layer_factory.hpp:77] Creating layer label_data_1_split
I0507 02:18:58.977973 21415 net.cpp:100] Creating Layer label_data_1_split
I0507 02:18:58.977984 21415 net.cpp:434] label_data_1_split <- label
I0507 02:18:58.978005 21415 net.cpp:408] label_data_1_split -> label_data_1_split_0
I0507 02:18:58.978027 21415 net.cpp:408] label_data_1_split -> label_data_1_split_1
I0507 02:18:58.978039 21415 net.cpp:408] label_data_1_split -> label_data_1_split_2
I0507 02:18:58.978127 21415 net.cpp:150] Setting up label_data_1_split
I0507 02:18:58.978138 21415 net.cpp:157] Top shape: 512 (512)
I0507 02:18:58.978147 21415 net.cpp:157] Top shape: 512 (512)
I0507 02:18:58.978154 21415 net.cpp:157] Top shape: 512 (512)
I0507 02:18:58.978162 21415 net.cpp:165] Memory required for data: 14163968
I0507 02:18:58.978168 21415 layer_factory.hpp:77] Creating layer conv1
I0507 02:18:58.978193 21415 net.cpp:100] Creating Layer conv1
I0507 02:18:58.978200 21415 net.cpp:434] conv1 <- data
I0507 02:18:58.978211 21415 net.cpp:408] conv1 -> conv1
I0507 02:18:59.475630 21415 net.cpp:150] Setting up conv1
I0507 02:18:59.475659 21415 net.cpp:157] Top shape: 512 100 42 42 (90316800)
I0507 02:18:59.475663 21415 net.cpp:165] Memory required for data: 375431168
I0507 02:18:59.475687 21415 layer_factory.hpp:77] Creating layer conv1_relu
I0507 02:18:59.475699 21415 net.cpp:100] Creating Layer conv1_relu
I0507 02:18:59.475704 21415 net.cpp:434] conv1_relu <- conv1
I0507 02:18:59.475710 21415 net.cpp:395] conv1_relu -> conv1 (in-place)
I0507 02:18:59.475929 21415 net.cpp:150] Setting up conv1_relu
I0507 02:18:59.475944 21415 net.cpp:157] Top shape: 512 100 42 42 (90316800)
I0507 02:18:59.475946 21415 net.cpp:165] Memory required for data: 736698368
I0507 02:18:59.475950 21415 layer_factory.hpp:77] Creating layer pool1
I0507 02:18:59.475961 21415 net.cpp:100] Creating Layer pool1
I0507 02:18:59.475966 21415 net.cpp:434] pool1 <- conv1
I0507 02:18:59.475971 21415 net.cpp:408] pool1 -> pool1
I0507 02:18:59.476028 21415 net.cpp:150] Setting up pool1
I0507 02:18:59.476037 21415 net.cpp:157] Top shape: 512 100 21 21 (22579200)
I0507 02:18:59.476039 21415 net.cpp:165] Memory required for data: 827015168
I0507 02:18:59.476045 21415 layer_factory.hpp:77] Creating layer conv2
I0507 02:18:59.476056 21415 net.cpp:100] Creating Layer conv2
I0507 02:18:59.476060 21415 net.cpp:434] conv2 <- pool1
I0507 02:18:59.476066 21415 net.cpp:408] conv2 -> conv2
I0507 02:18:59.483125 21415 net.cpp:150] Setting up conv2
I0507 02:18:59.483144 21415 net.cpp:157] Top shape: 512 150 18 18 (24883200)
I0507 02:18:59.483147 21415 net.cpp:165] Memory required for data: 926547968
I0507 02:18:59.483158 21415 layer_factory.hpp:77] Creating layer conv2_relu
I0507 02:18:59.483168 21415 net.cpp:100] Creating Layer conv2_relu
I0507 02:18:59.483171 21415 net.cpp:434] conv2_relu <- conv2
I0507 02:18:59.483177 21415 net.cpp:395] conv2_relu -> conv2 (in-place)
I0507 02:18:59.484216 21415 net.cpp:150] Setting up conv2_relu
I0507 02:18:59.484235 21415 net.cpp:157] Top shape: 512 150 18 18 (24883200)
I0507 02:18:59.484237 21415 net.cpp:165] Memory required for data: 1026080768
I0507 02:18:59.484241 21415 layer_factory.hpp:77] Creating layer pool2
I0507 02:18:59.484249 21415 net.cpp:100] Creating Layer pool2
I0507 02:18:59.484252 21415 net.cpp:434] pool2 <- conv2
I0507 02:18:59.484258 21415 net.cpp:408] pool2 -> pool2
I0507 02:18:59.484308 21415 net.cpp:150] Setting up pool2
I0507 02:18:59.484316 21415 net.cpp:157] Top shape: 512 150 9 9 (6220800)
I0507 02:18:59.484319 21415 net.cpp:165] Memory required for data: 1050963968
I0507 02:18:59.484323 21415 layer_factory.hpp:77] Creating layer conv3
I0507 02:18:59.484333 21415 net.cpp:100] Creating Layer conv3
I0507 02:18:59.484338 21415 net.cpp:434] conv3 <- pool2
I0507 02:18:59.484344 21415 net.cpp:408] conv3 -> conv3
I0507 02:18:59.490635 21415 net.cpp:150] Setting up conv3
I0507 02:18:59.490653 21415 net.cpp:157] Top shape: 512 250 6 6 (4608000)
I0507 02:18:59.490658 21415 net.cpp:165] Memory required for data: 1069395968
I0507 02:18:59.490667 21415 layer_factory.hpp:77] Creating layer conv3_relu
I0507 02:18:59.490674 21415 net.cpp:100] Creating Layer conv3_relu
I0507 02:18:59.490679 21415 net.cpp:434] conv3_relu <- conv3
I0507 02:18:59.490684 21415 net.cpp:395] conv3_relu -> conv3 (in-place)
I0507 02:18:59.493194 21415 net.cpp:150] Setting up conv3_relu
I0507 02:18:59.493212 21415 net.cpp:157] Top shape: 512 250 6 6 (4608000)
I0507 02:18:59.493216 21415 net.cpp:165] Memory required for data: 1087827968
I0507 02:18:59.493219 21415 layer_factory.hpp:77] Creating layer pool3
I0507 02:18:59.493227 21415 net.cpp:100] Creating Layer pool3
I0507 02:18:59.493232 21415 net.cpp:434] pool3 <- conv3
I0507 02:18:59.493238 21415 net.cpp:408] pool3 -> pool3
I0507 02:18:59.493288 21415 net.cpp:150] Setting up pool3
I0507 02:18:59.493295 21415 net.cpp:157] Top shape: 512 250 3 3 (1152000)
I0507 02:18:59.493299 21415 net.cpp:165] Memory required for data: 1092435968
I0507 02:18:59.493301 21415 layer_factory.hpp:77] Creating layer fc4_300
I0507 02:18:59.493309 21415 net.cpp:100] Creating Layer fc4_300
I0507 02:18:59.493314 21415 net.cpp:434] fc4_300 <- pool3
I0507 02:18:59.493317 21415 net.cpp:408] fc4_300 -> fc4_300
I0507 02:18:59.498960 21415 net.cpp:150] Setting up fc4_300
I0507 02:18:59.498977 21415 net.cpp:157] Top shape: 512 300 (153600)
I0507 02:18:59.498980 21415 net.cpp:165] Memory required for data: 1093050368
I0507 02:18:59.498987 21415 layer_factory.hpp:77] Creating layer fc4_relu
I0507 02:18:59.498993 21415 net.cpp:100] Creating Layer fc4_relu
I0507 02:18:59.498997 21415 net.cpp:434] fc4_relu <- fc4_300
I0507 02:18:59.499002 21415 net.cpp:395] fc4_relu -> fc4_300 (in-place)
I0507 02:18:59.499198 21415 net.cpp:150] Setting up fc4_relu
I0507 02:18:59.499212 21415 net.cpp:157] Top shape: 512 300 (153600)
I0507 02:18:59.499214 21415 net.cpp:165] Memory required for data: 1093664768
I0507 02:18:59.499217 21415 layer_factory.hpp:77] Creating layer fc5_116
I0507 02:18:59.499224 21415 net.cpp:100] Creating Layer fc5_116
I0507 02:18:59.499228 21415 net.cpp:434] fc5_116 <- fc4_300
I0507 02:18:59.499233 21415 net.cpp:408] fc5_116 -> fc5_classes
I0507 02:18:59.500785 21415 net.cpp:150] Setting up fc5_116
I0507 02:18:59.500802 21415 net.cpp:157] Top shape: 512 116 (59392)
I0507 02:18:59.500805 21415 net.cpp:165] Memory required for data: 1093902336
I0507 02:18:59.500814 21415 layer_factory.hpp:77] Creating layer fc5_classes_fc5_116_0_split
I0507 02:18:59.500823 21415 net.cpp:100] Creating Layer fc5_classes_fc5_116_0_split
I0507 02:18:59.500828 21415 net.cpp:434] fc5_classes_fc5_116_0_split <- fc5_classes
I0507 02:18:59.500836 21415 net.cpp:408] fc5_classes_fc5_116_0_split -> fc5_classes_fc5_116_0_split_0
I0507 02:18:59.500845 21415 net.cpp:408] fc5_classes_fc5_116_0_split -> fc5_classes_fc5_116_0_split_1
I0507 02:18:59.500855 21415 net.cpp:408] fc5_classes_fc5_116_0_split -> fc5_classes_fc5_116_0_split_2
I0507 02:18:59.500910 21415 net.cpp:150] Setting up fc5_classes_fc5_116_0_split
I0507 02:18:59.500917 21415 net.cpp:157] Top shape: 512 116 (59392)
I0507 02:18:59.500921 21415 net.cpp:157] Top shape: 512 116 (59392)
I0507 02:18:59.500924 21415 net.cpp:157] Top shape: 512 116 (59392)
I0507 02:18:59.500926 21415 net.cpp:165] Memory required for data: 1094615040
I0507 02:18:59.500929 21415 layer_factory.hpp:77] Creating layer softmax
I0507 02:18:59.500936 21415 net.cpp:100] Creating Layer softmax
I0507 02:18:59.500939 21415 net.cpp:434] softmax <- fc5_classes_fc5_116_0_split_0
I0507 02:18:59.500946 21415 net.cpp:408] softmax -> softmax
I0507 02:18:59.501205 21415 net.cpp:150] Setting up softmax
I0507 02:18:59.501219 21415 net.cpp:157] Top shape: 512 116 (59392)
I0507 02:18:59.501224 21415 net.cpp:165] Memory required for data: 1094852608
I0507 02:18:59.501226 21415 layer_factory.hpp:77] Creating layer loss
I0507 02:18:59.501237 21415 net.cpp:100] Creating Layer loss
I0507 02:18:59.501255 21415 net.cpp:434] loss <- softmax
I0507 02:18:59.501261 21415 net.cpp:434] loss <- label_data_1_split_0
I0507 02:18:59.501268 21415 net.cpp:408] loss -> loss
…
