…
I0508 02:01:57.001821 29040 solver.cpp:93] Creating training net from train_net file: ./Prototxt/experiment_16/RTSD/orig/trial_3/train.prototxt
I0508 02:01:57.002168 29040 net.cpp:58] Initializing net from parameters: 
state {
  phase: TRAIN
  level: 0
  stage: ""
}
layer {
  name: "data"
  type: "Data"
  top: "data"
  top: "label"
  include {
    phase: TRAIN
  }
  transform_param {
    scale: 0.0039215689
    mirror: false
    crop_size: 48
    mean_value: 119
    mean_value: 113
    mean_value: 113
  }
  data_param {
    source: "../local_data/lmdb/RTSD/orig/train/lmdb"
    batch_size: 1024
    backend: LMDB
  }
}
layer {
  name: "conv1"
  type: "Convolution"
  bottom: "data"
  top: "conv1"
  convolution_param {
    num_output: 100
    pad: 0
    kernel_size: 7
    group: 1
    stride: 1
    weight_filler {
      type: "xavier"
    }
  }
}
layer {
  name: "conv1_relu"
  type: "ReLU"
  bottom: "conv1"
  top: "conv1"
}
layer {
  name: "pool1"
  type: "Pooling"
  bottom: "conv1"
  top: "pool1"
  pooling_param {
    pool: MAX
    kernel_size: 2
    stride: 2
  }
}
layer {
  name: "conv2"
  type: "Convolution"
  bottom: "pool1"
  top: "conv2"
  convolution_param {
    num_output: 150
    pad: 0
    kernel_size: 4
    group: 2
    stride: 1
    weight_filler {
      type: "xavier"
    }
  }
}
layer {
  name: "conv2_relu"
  type: "ReLU"
  bottom: "conv2"
  top: "conv2"
}
layer {
  name: "pool2"
  type: "Pooling"
  bottom: "conv2"
  top: "pool2"
  pooling_param {
    pool: MAX
    kernel_size: 2
    stride: 2
  }
}
layer {
  name: "conv3"
  type: "Convolution"
  bottom: "pool2"
  top: "conv3"
  convolution_param {
    num_output: 250
    pad: 0
    kernel_size: 4
    group: 2
    stride: 1
    weight_filler {
      type: "xavier"
    }
  }
}
layer {
  name: "conv3_relu"
  type: "ReLU"
  bottom: "conv3"
  top: "conv3"
}
layer {
  name: "pool3"
  type: "Pooling"
  bottom: "conv3"
  top: "pool3"
  pooling_param {
    pool: MAX
    kernel_size: 2
    stride: 2
  }
}
layer {
  name: "fc4_300"
  type: "InnerProduct"
  bottom: "pool3"
  top: "fc4_300"
  inner_product_param {
    num_output: 300
    weight_filler {
      type: "xavier"
    }
  }
}
layer {
  name: "fc4_relu"
  type: "ReLU"
  bottom: "fc4_300"
  top: "fc4_300"
}
layer {
  name: "fc5_116"
  type: "InnerProduct"
  bottom: "fc4_300"
  top: "fc5_classes"
  inner_product_param {
    num_output: 116
    weight_filler {
      type: "xavier"
    }
  }
}
layer {
  name: "softmax"
  type: "Softmax"
  bottom: "fc5_classes"
  top: "softmax"
}
layer {
  name: "loss"
  type: "MultinomialLogisticLoss"
  bottom: "softmax"
  bottom: "label"
  top: "loss"
}
layer {
  name: "accuracy_1"
  type: "Accuracy"
  bottom: "fc5_classes"
  bottom: "label"
  top: "accuracy_1"
  accuracy_param {
    top_k: 1
  }
}
layer {
  name: "accuracy_5"
  type: "Accuracy"
  bottom: "fc5_classes"
  bottom: "label"
  top: "accuracy_5"
  accuracy_param {
    top_k: 5
  }
}
layer {
  name: "silence"
  type: "Silence"
  bottom: "accuracy_1"
  bottom: "accuracy_5"
}
I0508 02:01:57.002286 29040 layer_factory.hpp:77] Creating layer data
I0508 02:01:57.003368 29040 net.cpp:100] Creating Layer data
I0508 02:01:57.003386 29040 net.cpp:408] data -> data
I0508 02:01:57.003408 29040 net.cpp:408] data -> label
I0508 02:01:57.009784 29141 db_lmdb.cpp:35] Opened lmdb ../local_data/lmdb/RTSD/orig/train/lmdb
I0508 02:01:57.035315 29040 data_layer.cpp:41] output data size: 1024,3,48,48
I0508 02:01:57.115696 29040 net.cpp:150] Setting up data
I0508 02:01:57.115753 29040 net.cpp:157] Top shape: 1024 3 48 48 (7077888)
I0508 02:01:57.115759 29040 net.cpp:157] Top shape: 1024 (1024)
I0508 02:01:57.115762 29040 net.cpp:165] Memory required for data: 28315648
I0508 02:01:57.115773 29040 layer_factory.hpp:77] Creating layer label_data_1_split
I0508 02:01:57.115790 29040 net.cpp:100] Creating Layer label_data_1_split
I0508 02:01:57.115798 29040 net.cpp:434] label_data_1_split <- label
I0508 02:01:57.115813 29040 net.cpp:408] label_data_1_split -> label_data_1_split_0
I0508 02:01:57.115825 29040 net.cpp:408] label_data_1_split -> label_data_1_split_1
I0508 02:01:57.115834 29040 net.cpp:408] label_data_1_split -> label_data_1_split_2
I0508 02:01:57.115921 29040 net.cpp:150] Setting up label_data_1_split
I0508 02:01:57.115932 29040 net.cpp:157] Top shape: 1024 (1024)
I0508 02:01:57.115936 29040 net.cpp:157] Top shape: 1024 (1024)
I0508 02:01:57.115941 29040 net.cpp:157] Top shape: 1024 (1024)
I0508 02:01:57.115942 29040 net.cpp:165] Memory required for data: 28327936
I0508 02:01:57.115947 29040 layer_factory.hpp:77] Creating layer conv1
I0508 02:01:57.115963 29040 net.cpp:100] Creating Layer conv1
I0508 02:01:57.115968 29040 net.cpp:434] conv1 <- data
I0508 02:01:57.115975 29040 net.cpp:408] conv1 -> conv1
I0508 02:01:57.536721 29040 net.cpp:150] Setting up conv1
I0508 02:01:57.536751 29040 net.cpp:157] Top shape: 1024 100 42 42 (180633600)
I0508 02:01:57.536754 29040 net.cpp:165] Memory required for data: 750862336
I0508 02:01:57.536777 29040 layer_factory.hpp:77] Creating layer conv1_relu
I0508 02:01:57.536788 29040 net.cpp:100] Creating Layer conv1_relu
I0508 02:01:57.536793 29040 net.cpp:434] conv1_relu <- conv1
I0508 02:01:57.536798 29040 net.cpp:395] conv1_relu -> conv1 (in-place)
I0508 02:01:57.536999 29040 net.cpp:150] Setting up conv1_relu
I0508 02:01:57.537012 29040 net.cpp:157] Top shape: 1024 100 42 42 (180633600)
I0508 02:01:57.537017 29040 net.cpp:165] Memory required for data: 1473396736
I0508 02:01:57.537020 29040 layer_factory.hpp:77] Creating layer pool1
I0508 02:01:57.537030 29040 net.cpp:100] Creating Layer pool1
I0508 02:01:57.537035 29040 net.cpp:434] pool1 <- conv1
I0508 02:01:57.537041 29040 net.cpp:408] pool1 -> pool1
I0508 02:01:57.537096 29040 net.cpp:150] Setting up pool1
I0508 02:01:57.537103 29040 net.cpp:157] Top shape: 1024 100 21 21 (45158400)
I0508 02:01:57.537106 29040 net.cpp:165] Memory required for data: 1654030336
I0508 02:01:57.537109 29040 layer_factory.hpp:77] Creating layer conv2
I0508 02:01:57.537120 29040 net.cpp:100] Creating Layer conv2
I0508 02:01:57.537125 29040 net.cpp:434] conv2 <- pool1
I0508 02:01:57.537130 29040 net.cpp:408] conv2 -> conv2
I0508 02:01:57.542366 29040 net.cpp:150] Setting up conv2
I0508 02:01:57.542384 29040 net.cpp:157] Top shape: 1024 150 18 18 (49766400)
I0508 02:01:57.542388 29040 net.cpp:165] Memory required for data: 1853095936
I0508 02:01:57.542402 29040 layer_factory.hpp:77] Creating layer conv2_relu
I0508 02:01:57.542408 29040 net.cpp:100] Creating Layer conv2_relu
I0508 02:01:57.542412 29040 net.cpp:434] conv2_relu <- conv2
I0508 02:01:57.542417 29040 net.cpp:395] conv2_relu -> conv2 (in-place)
I0508 02:01:57.542613 29040 net.cpp:150] Setting up conv2_relu
I0508 02:01:57.542625 29040 net.cpp:157] Top shape: 1024 150 18 18 (49766400)
I0508 02:01:57.542630 29040 net.cpp:165] Memory required for data: 2052161536
I0508 02:01:57.542634 29040 layer_factory.hpp:77] Creating layer pool2
I0508 02:01:57.542640 29040 net.cpp:100] Creating Layer pool2
I0508 02:01:57.542644 29040 net.cpp:434] pool2 <- conv2
I0508 02:01:57.542650 29040 net.cpp:408] pool2 -> pool2
I0508 02:01:57.542701 29040 net.cpp:150] Setting up pool2
I0508 02:01:57.542708 29040 net.cpp:157] Top shape: 1024 150 9 9 (12441600)
I0508 02:01:57.542711 29040 net.cpp:165] Memory required for data: 2101927936
I0508 02:01:57.542714 29040 layer_factory.hpp:77] Creating layer conv3
I0508 02:01:57.542727 29040 net.cpp:100] Creating Layer conv3
I0508 02:01:57.542732 29040 net.cpp:434] conv3 <- pool2
I0508 02:01:57.542738 29040 net.cpp:408] conv3 -> conv3
I0508 02:01:57.561805 29040 net.cpp:150] Setting up conv3
I0508 02:01:57.561826 29040 net.cpp:157] Top shape: 1024 250 6 6 (9216000)
I0508 02:01:57.561830 29040 net.cpp:165] Memory required for data: 2138791936
I0508 02:01:57.561842 29040 layer_factory.hpp:77] Creating layer conv3_relu
I0508 02:01:57.561849 29040 net.cpp:100] Creating Layer conv3_relu
I0508 02:01:57.561853 29040 net.cpp:434] conv3_relu <- conv3
I0508 02:01:57.561861 29040 net.cpp:395] conv3_relu -> conv3 (in-place)
I0508 02:01:57.562052 29040 net.cpp:150] Setting up conv3_relu
I0508 02:01:57.562065 29040 net.cpp:157] Top shape: 1024 250 6 6 (9216000)
I0508 02:01:57.562069 29040 net.cpp:165] Memory required for data: 2175655936
I0508 02:01:57.562073 29040 layer_factory.hpp:77] Creating layer pool3
I0508 02:01:57.562081 29040 net.cpp:100] Creating Layer pool3
I0508 02:01:57.562086 29040 net.cpp:434] pool3 <- conv3
I0508 02:01:57.562093 29040 net.cpp:408] pool3 -> pool3
I0508 02:01:57.562142 29040 net.cpp:150] Setting up pool3
I0508 02:01:57.562150 29040 net.cpp:157] Top shape: 1024 250 3 3 (2304000)
I0508 02:01:57.562153 29040 net.cpp:165] Memory required for data: 2184871936
I0508 02:01:57.562156 29040 layer_factory.hpp:77] Creating layer fc4_300
I0508 02:01:57.562163 29040 net.cpp:100] Creating Layer fc4_300
I0508 02:01:57.562170 29040 net.cpp:434] fc4_300 <- pool3
I0508 02:01:57.562175 29040 net.cpp:408] fc4_300 -> fc4_300
I0508 02:01:57.568583 29040 net.cpp:150] Setting up fc4_300
I0508 02:01:57.568601 29040 net.cpp:157] Top shape: 1024 300 (307200)
I0508 02:01:57.568605 29040 net.cpp:165] Memory required for data: 2186100736
I0508 02:01:57.568612 29040 layer_factory.hpp:77] Creating layer fc4_relu
I0508 02:01:57.568619 29040 net.cpp:100] Creating Layer fc4_relu
I0508 02:01:57.568622 29040 net.cpp:434] fc4_relu <- fc4_300
I0508 02:01:57.568629 29040 net.cpp:395] fc4_relu -> fc4_300 (in-place)
I0508 02:01:57.569450 29040 net.cpp:150] Setting up fc4_relu
I0508 02:01:57.569468 29040 net.cpp:157] Top shape: 1024 300 (307200)
I0508 02:01:57.569470 29040 net.cpp:165] Memory required for data: 2187329536
I0508 02:01:57.569474 29040 layer_factory.hpp:77] Creating layer fc5_116
I0508 02:01:57.569483 29040 net.cpp:100] Creating Layer fc5_116
I0508 02:01:57.569489 29040 net.cpp:434] fc5_116 <- fc4_300
I0508 02:01:57.569494 29040 net.cpp:408] fc5_116 -> fc5_classes
I0508 02:01:57.573472 29040 net.cpp:150] Setting up fc5_116
I0508 02:01:57.573490 29040 net.cpp:157] Top shape: 1024 116 (118784)
I0508 02:01:57.573494 29040 net.cpp:165] Memory required for data: 2187804672
I0508 02:01:57.573505 29040 layer_factory.hpp:77] Creating layer fc5_classes_fc5_116_0_split
I0508 02:01:57.573515 29040 net.cpp:100] Creating Layer fc5_classes_fc5_116_0_split
I0508 02:01:57.573520 29040 net.cpp:434] fc5_classes_fc5_116_0_split <- fc5_classes
I0508 02:01:57.573529 29040 net.cpp:408] fc5_classes_fc5_116_0_split -> fc5_classes_fc5_116_0_split_0
I0508 02:01:57.573539 29040 net.cpp:408] fc5_classes_fc5_116_0_split -> fc5_classes_fc5_116_0_split_1
I0508 02:01:57.573547 29040 net.cpp:408] fc5_classes_fc5_116_0_split -> fc5_classes_fc5_116_0_split_2
I0508 02:01:57.573604 29040 net.cpp:150] Setting up fc5_classes_fc5_116_0_split
I0508 02:01:57.573611 29040 net.cpp:157] Top shape: 1024 116 (118784)
I0508 02:01:57.573616 29040 net.cpp:157] Top shape: 1024 116 (118784)
I0508 02:01:57.573619 29040 net.cpp:157] Top shape: 1024 116 (118784)
I0508 02:01:57.573622 29040 net.cpp:165] Memory required for data: 2189230080
I0508 02:01:57.573626 29040 layer_factory.hpp:77] Creating layer softmax
I0508 02:01:57.573633 29040 net.cpp:100] Creating Layer softmax
I0508 02:01:57.573637 29040 net.cpp:434] softmax <- fc5_classes_fc5_116_0_split_0
I0508 02:01:57.573643 29040 net.cpp:408] softmax -> softmax
I0508 02:01:57.573904 29040 net.cpp:150] Setting up softmax
I0508 02:01:57.573918 29040 net.cpp:157] Top shape: 1024 116 (118784)
I0508 02:01:57.573922 29040 net.cpp:165] Memory required for data: 2189705216
I0508 02:01:57.573926 29040 layer_factory.hpp:77] Creating layer loss
I0508 02:01:57.573938 29040 net.cpp:100] Creating Layer loss
I0508 02:01:57.573959 29040 net.cpp:434] loss <- softmax
I0508 02:01:57.573966 29040 net.cpp:434] loss <- label_data_1_split_0
I0508 02:01:57.573972 29040 net.cpp:408] loss -> loss
…
