…
I0402 17:25:49.175350 16979 net.cpp:322] The NetState phase (0) differed from the phase (1) specified by a rule in layer accuracy_5
I0402 17:25:49.175467 16979 net.cpp:58] Initializing net from parameters: 
state {
  phase: TRAIN
  level: 0
  stage: ""
}
layer {
  name: "data"
  type: "Data"
  top: "data"
  top: "label"
  include {
    phase: TRAIN
  }
  transform_param {
    mirror: false
    crop_size: 48
    mean_value: 135
    mean_value: 128
    mean_value: 128
  }
  data_param {
    source: "../local_data/lmdb/rtsd-r3/histeq/train/lmdb"
    batch_size: 1024
    backend: LMDB
  }
}
layer {
  name: "conv1"
  type: "Convolution"
  bottom: "data"
  top: "conv1"
  convolution_param {
    num_output: 100
    pad: 0
    kernel_size: 7
    group: 1
    stride: 1
    weight_filler {
      type: "xavier"
    }
  }
}
layer {
  name: "conv1_relu"
  type: "ReLU"
  bottom: "conv1"
  top: "conv1"
}
layer {
  name: "pool1"
  type: "Pooling"
  bottom: "conv1"
  top: "pool1"
  pooling_param {
    pool: MAX
    kernel_size: 2
    stride: 2
  }
}
layer {
  name: "conv2"
  type: "Convolution"
  bottom: "pool1"
  top: "conv2"
  convolution_param {
    num_output: 150
    pad: 0
    kernel_size: 4
    group: 1
    stride: 1
    weight_filler {
      type: "xavier"
    }
  }
}
layer {
  name: "conv2_relu"
  type: "ReLU"
  bottom: "conv2"
  top: "conv2"
}
layer {
  name: "pool2"
  type: "Pooling"
  bottom: "conv2"
  top: "pool2"
  pooling_param {
    pool: MAX
    kernel_size: 2
    stride: 2
  }
}
layer {
  name: "conv3"
  type: "Convolution"
  bottom: "pool2"
  top: "conv3"
  convolution_param {
    num_output: 250
    pad: 0
    kernel_size: 4
    group: 1
    stride: 1
    weight_filler {
      type: "xavier"
    }
  }
}
layer {
  name: "conv3_relu"
  type: "ReLU"
  bottom: "conv3"
  top: "conv3"
}
layer {
  name: "pool3"
  type: "Pooling"
  bottom: "conv3"
  top: "pool3"
  pooling_param {
    pool: MAX
    kernel_size: 2
    stride: 2
  }
}
layer {
  name: "fc4_300"
  type: "InnerProduct"
  bottom: "pool3"
  top: "fc4_300"
  inner_product_param {
    num_output: 300
    weight_filler {
      type: "xavier"
    }
  }
}
layer {
  name: "fc4_relu"
  type: "ReLU"
  bottom: "fc4_300"
  top: "fc4_300"
}
layer {
  name: "drop4"
  type: "Dropout"
  bottom: "fc4_300"
  top: "fc4_300"
  dropout_param {
    dropout_ratio: 0.4
  }
}
layer {
  name: "fc5_106"
  type: "InnerProduct"
  bottom: "fc4_300"
  top: "fc5_classes"
  inner_product_param {
    num_output: 106
    weight_filler {
      type: "xavier"
    }
  }
}
layer {
  name: "loss"
  type: "SoftmaxWithLoss"
  bottom: "fc5_classes"
  bottom: "label"
  top: "loss"
}
I0402 17:25:49.175556 16979 layer_factory.hpp:77] Creating layer data
I0402 17:25:49.176863 16979 net.cpp:100] Creating Layer data
I0402 17:25:49.176882 16979 net.cpp:408] data -> data
I0402 17:25:49.176908 16979 net.cpp:408] data -> label
I0402 17:25:49.178138 17029 db_lmdb.cpp:35] Opened lmdb ../local_data/lmdb/rtsd-r3/histeq/train/lmdb
I0402 17:25:49.199084 16979 data_layer.cpp:41] output data size: 1024,3,48,48
I0402 17:25:49.255117 16979 net.cpp:150] Setting up data
I0402 17:25:49.255154 16979 net.cpp:157] Top shape: 1024 3 48 48 (7077888)
I0402 17:25:49.255162 16979 net.cpp:157] Top shape: 1024 (1024)
I0402 17:25:49.255189 16979 net.cpp:165] Memory required for data: 28315648
I0402 17:25:49.255203 16979 layer_factory.hpp:77] Creating layer conv1
I0402 17:25:49.255233 16979 net.cpp:100] Creating Layer conv1
I0402 17:25:49.255241 16979 net.cpp:434] conv1 <- data
I0402 17:25:49.255256 16979 net.cpp:408] conv1 -> conv1
I0402 17:25:49.576529 16979 net.cpp:150] Setting up conv1
I0402 17:25:49.576565 16979 net.cpp:157] Top shape: 1024 100 42 42 (180633600)
I0402 17:25:49.576570 16979 net.cpp:165] Memory required for data: 750850048
I0402 17:25:49.576594 16979 layer_factory.hpp:77] Creating layer conv1_relu
I0402 17:25:49.576609 16979 net.cpp:100] Creating Layer conv1_relu
I0402 17:25:49.576617 16979 net.cpp:434] conv1_relu <- conv1
I0402 17:25:49.576624 16979 net.cpp:395] conv1_relu -> conv1 (in-place)
I0402 17:25:49.576864 16979 net.cpp:150] Setting up conv1_relu
I0402 17:25:49.576879 16979 net.cpp:157] Top shape: 1024 100 42 42 (180633600)
I0402 17:25:49.576882 16979 net.cpp:165] Memory required for data: 1473384448
I0402 17:25:49.576887 16979 layer_factory.hpp:77] Creating layer pool1
I0402 17:25:49.576895 16979 net.cpp:100] Creating Layer pool1
I0402 17:25:49.576901 16979 net.cpp:434] pool1 <- conv1
I0402 17:25:49.576907 16979 net.cpp:408] pool1 -> pool1
I0402 17:25:49.576973 16979 net.cpp:150] Setting up pool1
I0402 17:25:49.576988 16979 net.cpp:157] Top shape: 1024 100 21 21 (45158400)
I0402 17:25:49.576994 16979 net.cpp:165] Memory required for data: 1654018048
I0402 17:25:49.576999 16979 layer_factory.hpp:77] Creating layer conv2
I0402 17:25:49.577013 16979 net.cpp:100] Creating Layer conv2
I0402 17:25:49.577018 16979 net.cpp:434] conv2 <- pool1
I0402 17:25:49.577024 16979 net.cpp:408] conv2 -> conv2
I0402 17:25:49.582322 16979 net.cpp:150] Setting up conv2
I0402 17:25:49.582343 16979 net.cpp:157] Top shape: 1024 150 18 18 (49766400)
I0402 17:25:49.582348 16979 net.cpp:165] Memory required for data: 1853083648
I0402 17:25:49.582360 16979 layer_factory.hpp:77] Creating layer conv2_relu
I0402 17:25:49.582367 16979 net.cpp:100] Creating Layer conv2_relu
I0402 17:25:49.582371 16979 net.cpp:434] conv2_relu <- conv2
I0402 17:25:49.582377 16979 net.cpp:395] conv2_relu -> conv2 (in-place)
I0402 17:25:49.583272 16979 net.cpp:150] Setting up conv2_relu
I0402 17:25:49.583292 16979 net.cpp:157] Top shape: 1024 150 18 18 (49766400)
I0402 17:25:49.583295 16979 net.cpp:165] Memory required for data: 2052149248
I0402 17:25:49.583299 16979 layer_factory.hpp:77] Creating layer pool2
I0402 17:25:49.583307 16979 net.cpp:100] Creating Layer pool2
I0402 17:25:49.583312 16979 net.cpp:434] pool2 <- conv2
I0402 17:25:49.583318 16979 net.cpp:408] pool2 -> pool2
I0402 17:25:49.583374 16979 net.cpp:150] Setting up pool2
I0402 17:25:49.583384 16979 net.cpp:157] Top shape: 1024 150 9 9 (12441600)
I0402 17:25:49.583387 16979 net.cpp:165] Memory required for data: 2101915648
I0402 17:25:49.583391 16979 layer_factory.hpp:77] Creating layer conv3
I0402 17:25:49.583401 16979 net.cpp:100] Creating Layer conv3
I0402 17:25:49.583407 16979 net.cpp:434] conv3 <- pool2
I0402 17:25:49.583413 16979 net.cpp:408] conv3 -> conv3
I0402 17:25:49.590191 16979 net.cpp:150] Setting up conv3
I0402 17:25:49.590212 16979 net.cpp:157] Top shape: 1024 250 6 6 (9216000)
I0402 17:25:49.590216 16979 net.cpp:165] Memory required for data: 2138779648
I0402 17:25:49.590229 16979 layer_factory.hpp:77] Creating layer conv3_relu
I0402 17:25:49.590237 16979 net.cpp:100] Creating Layer conv3_relu
I0402 17:25:49.590241 16979 net.cpp:434] conv3_relu <- conv3
I0402 17:25:49.590247 16979 net.cpp:395] conv3_relu -> conv3 (in-place)
I0402 17:25:49.591151 16979 net.cpp:150] Setting up conv3_relu
I0402 17:25:49.591171 16979 net.cpp:157] Top shape: 1024 250 6 6 (9216000)
I0402 17:25:49.591174 16979 net.cpp:165] Memory required for data: 2175643648
I0402 17:25:49.591178 16979 layer_factory.hpp:77] Creating layer pool3
I0402 17:25:49.591187 16979 net.cpp:100] Creating Layer pool3
I0402 17:25:49.591192 16979 net.cpp:434] pool3 <- conv3
I0402 17:25:49.591198 16979 net.cpp:408] pool3 -> pool3
I0402 17:25:49.591280 16979 net.cpp:150] Setting up pool3
I0402 17:25:49.591292 16979 net.cpp:157] Top shape: 1024 250 3 3 (2304000)
I0402 17:25:49.591296 16979 net.cpp:165] Memory required for data: 2184859648
I0402 17:25:49.591300 16979 layer_factory.hpp:77] Creating layer fc4_300
I0402 17:25:49.591308 16979 net.cpp:100] Creating Layer fc4_300
I0402 17:25:49.591312 16979 net.cpp:434] fc4_300 <- pool3
I0402 17:25:49.591317 16979 net.cpp:408] fc4_300 -> fc4_300
I0402 17:25:49.597918 16979 net.cpp:150] Setting up fc4_300
I0402 17:25:49.597937 16979 net.cpp:157] Top shape: 1024 300 (307200)
I0402 17:25:49.597944 16979 net.cpp:165] Memory required for data: 2186088448
I0402 17:25:49.597954 16979 layer_factory.hpp:77] Creating layer fc4_relu
I0402 17:25:49.597960 16979 net.cpp:100] Creating Layer fc4_relu
I0402 17:25:49.597965 16979 net.cpp:434] fc4_relu <- fc4_300
I0402 17:25:49.597970 16979 net.cpp:395] fc4_relu -> fc4_300 (in-place)
I0402 17:25:49.598225 16979 net.cpp:150] Setting up fc4_relu
I0402 17:25:49.598242 16979 net.cpp:157] Top shape: 1024 300 (307200)
I0402 17:25:49.598245 16979 net.cpp:165] Memory required for data: 2187317248
I0402 17:25:49.598249 16979 layer_factory.hpp:77] Creating layer drop4
I0402 17:25:49.598259 16979 net.cpp:100] Creating Layer drop4
I0402 17:25:49.598264 16979 net.cpp:434] drop4 <- fc4_300
I0402 17:25:49.598270 16979 net.cpp:395] drop4 -> fc4_300 (in-place)
I0402 17:25:49.598311 16979 net.cpp:150] Setting up drop4
I0402 17:25:49.598320 16979 net.cpp:157] Top shape: 1024 300 (307200)
I0402 17:25:49.598323 16979 net.cpp:165] Memory required for data: 2188546048
I0402 17:25:49.598327 16979 layer_factory.hpp:77] Creating layer fc5_106
I0402 17:25:49.598335 16979 net.cpp:100] Creating Layer fc5_106
I0402 17:25:49.598340 16979 net.cpp:434] fc5_106 <- fc4_300
I0402 17:25:49.598345 16979 net.cpp:408] fc5_106 -> fc5_classes
I0402 17:25:49.599858 16979 net.cpp:150] Setting up fc5_106
I0402 17:25:49.599879 16979 net.cpp:157] Top shape: 1024 106 (108544)
I0402 17:25:49.599884 16979 net.cpp:165] Memory required for data: 2188980224
I0402 17:25:49.599895 16979 layer_factory.hpp:77] Creating layer loss
I0402 17:25:49.599905 16979 net.cpp:100] Creating Layer loss
I0402 17:25:49.599911 16979 net.cpp:434] loss <- fc5_classes
I0402 17:25:49.599916 16979 net.cpp:434] loss <- label
I0402 17:25:49.599923 16979 net.cpp:408] loss -> loss
I0402 17:25:49.599939 16979 layer_factory.hpp:77] Creating layer loss
…
I0402 17:25:49.600735 16979 solver.cpp:193] Creating test net (#0) specified by test_net file: ./Prototxt/experiment_3/rtsd-r3/histeq/test.prototxt
I0402 17:25:49.600905 16979 net.cpp:58] Initializing net from parameters: 
state {
  phase: TEST
}
layer {
  name: "data"
  type: "Data"
  top: "data"
  top: "label"
  include {
    phase: TEST
  }
  transform_param {
    mirror: false
    crop_size: 48
    mean_value: 133
    mean_value: 128
    mean_value: 129
  }
  data_param {
    source: "../local_data/lmdb/rtsd-r3/histeq/test/lmdb"
    batch_size: 1024
    backend: LMDB
  }
}
layer {
  name: "conv1"
  type: "Convolution"
  bottom: "data"
  top: "conv1"
  convolution_param {
    num_output: 100
    pad: 0
    kernel_size: 7
    group: 1
    stride: 1
    weight_filler {
      type: "xavier"
    }
  }
}
layer {
  name: "conv1_relu"
  type: "ReLU"
  bottom: "conv1"
  top: "conv1"
}
layer {
  name: "pool1"
  type: "Pooling"
  bottom: "conv1"
  top: "pool1"
  pooling_param {
    pool: MAX
    kernel_size: 2
    stride: 2
  }
}
layer {
  name: "conv2"
  type: "Convolution"
  bottom: "pool1"
  top: "conv2"
  convolution_param {
    num_output: 150
    pad: 0
    kernel_size: 4
    group: 1
    stride: 1
    weight_filler {
      type: "xavier"
    }
  }
}
layer {
  name: "conv2_relu"
  type: "ReLU"
  bottom: "conv2"
  top: "conv2"
}
layer {
  name: "pool2"
  type: "Pooling"
  bottom: "conv2"
  top: "pool2"
  pooling_param {
    pool: MAX
    kernel_size: 2
    stride: 2
  }
}
layer {
  name: "conv3"
  type: "Convolution"
  bottom: "pool2"
  top: "conv3"
  convolution_param {
    num_output: 250
    pad: 0
    kernel_size: 4
    group: 1
    stride: 1
    weight_filler {
      type: "xavier"
    }
  }
}
layer {
  name: "conv3_relu"
  type: "ReLU"
  bottom: "conv3"
  top: "conv3"
}
layer {
  name: "pool3"
  type: "Pooling"
  bottom: "conv3"
  top: "pool3"
  pooling_param {
    pool: MAX
    kernel_size: 2
    stride: 2
  }
}
layer {
  name: "fc4_300"
  type: "InnerProduct"
  bottom: "pool3"
  top: "fc4_300"
  inner_product_param {
    num_output: 300
    weight_filler {
      type: "xavier"
    }
  }
}
layer {
  name: "fc4_relu"
  type: "ReLU"
  bottom: "fc4_300"
  top: "fc4_300"
}
layer {
  name: "drop4"
  type: "Dropout"
  bottom: "fc4_300"
  top: "fc4_300"
  dropout_param {
    dropout_ratio: 0.4
  }
}
layer {
  name: "fc5_106"
  type: "InnerProduct"
  bottom: "fc4_300"
  top: "fc5_classes"
  inner_product_param {
    num_output: 106
    weight_filler {
      type: "xavier"
    }
  }
}
layer {
  name: "loss"
  type: "SoftmaxWithLoss"
  bottom: "fc5_classes"
  bottom: "label"
  top: "loss"
}
layer {
  name: "accuracy_1"
  type: "Accuracy"
  bottom: "fc5_classes"
  bottom: "label"
  top: "accuracy_1"
  include {
    phase: TEST
  }
  accuracy_param {
    top_k: 1
  }
}
layer {
  name: "accuracy_5"
  type: "Accuracy"
  bottom: "fc5_classes"
  bottom: "label"
  top: "accuracy_5"
  include {
    phase: TEST
  }
  accuracy_param {
    top_k: 5
  }
}
I0402 17:25:49.601006 16979 layer_factory.hpp:77] Creating layer data
I0402 17:25:49.601702 16979 net.cpp:100] Creating Layer data
I0402 17:25:49.601714 16979 net.cpp:408] data -> data
I0402 17:25:49.601725 16979 net.cpp:408] data -> label
I0402 17:25:49.603317 17040 db_lmdb.cpp:35] Opened lmdb ../local_data/lmdb/rtsd-r3/histeq/test/lmdb
I0402 17:25:49.603492 16979 data_layer.cpp:41] output data size: 1024,3,48,48
I0402 17:25:49.651324 16979 net.cpp:150] Setting up data
I0402 17:25:49.651363 16979 net.cpp:157] Top shape: 1024 3 48 48 (7077888)
I0402 17:25:49.651370 16979 net.cpp:157] Top shape: 1024 (1024)
I0402 17:25:49.651372 16979 net.cpp:165] Memory required for data: 28315648
I0402 17:25:49.651378 16979 layer_factory.hpp:77] Creating layer label_data_1_split
I0402 17:25:49.651392 16979 net.cpp:100] Creating Layer label_data_1_split
I0402 17:25:49.651396 16979 net.cpp:434] label_data_1_split <- label
I0402 17:25:49.651402 16979 net.cpp:408] label_data_1_split -> label_data_1_split_0
I0402 17:25:49.651413 16979 net.cpp:408] label_data_1_split -> label_data_1_split_1
I0402 17:25:49.651422 16979 net.cpp:408] label_data_1_split -> label_data_1_split_2
I0402 17:25:49.651571 16979 net.cpp:150] Setting up label_data_1_split
I0402 17:25:49.651582 16979 net.cpp:157] Top shape: 1024 (1024)
I0402 17:25:49.651584 16979 net.cpp:157] Top shape: 1024 (1024)
I0402 17:25:49.651588 16979 net.cpp:157] Top shape: 1024 (1024)
I0402 17:25:49.651592 16979 net.cpp:165] Memory required for data: 28327936
I0402 17:25:49.651594 16979 layer_factory.hpp:77] Creating layer conv1
I0402 17:25:49.651608 16979 net.cpp:100] Creating Layer conv1
I0402 17:25:49.651613 16979 net.cpp:434] conv1 <- data
I0402 17:25:49.651618 16979 net.cpp:408] conv1 -> conv1
I0402 17:25:49.653610 16979 net.cpp:150] Setting up conv1
I0402 17:25:49.653627 16979 net.cpp:157] Top shape: 1024 100 42 42 (180633600)
I0402 17:25:49.653633 16979 net.cpp:165] Memory required for data: 750862336
I0402 17:25:49.653645 16979 layer_factory.hpp:77] Creating layer conv1_relu
I0402 17:25:49.653653 16979 net.cpp:100] Creating Layer conv1_relu
I0402 17:25:49.653658 16979 net.cpp:434] conv1_relu <- conv1
I0402 17:25:49.653663 16979 net.cpp:395] conv1_relu -> conv1 (in-place)
I0402 17:25:49.653846 16979 net.cpp:150] Setting up conv1_relu
I0402 17:25:49.653858 16979 net.cpp:157] Top shape: 1024 100 42 42 (180633600)
I0402 17:25:49.653861 16979 net.cpp:165] Memory required for data: 1473396736
I0402 17:25:49.653864 16979 layer_factory.hpp:77] Creating layer pool1
I0402 17:25:49.653873 16979 net.cpp:100] Creating Layer pool1
I0402 17:25:49.653878 16979 net.cpp:434] pool1 <- conv1
I0402 17:25:49.653883 16979 net.cpp:408] pool1 -> pool1
I0402 17:25:49.653931 16979 net.cpp:150] Setting up pool1
I0402 17:25:49.653939 16979 net.cpp:157] Top shape: 1024 100 21 21 (45158400)
I0402 17:25:49.653942 16979 net.cpp:165] Memory required for data: 1654030336
I0402 17:25:49.653945 16979 layer_factory.hpp:77] Creating layer conv2
I0402 17:25:49.653954 16979 net.cpp:100] Creating Layer conv2
I0402 17:25:49.653959 16979 net.cpp:434] conv2 <- pool1
I0402 17:25:49.653964 16979 net.cpp:408] conv2 -> conv2
I0402 17:25:49.660578 16979 net.cpp:150] Setting up conv2
I0402 17:25:49.660596 16979 net.cpp:157] Top shape: 1024 150 18 18 (49766400)
I0402 17:25:49.660599 16979 net.cpp:165] Memory required for data: 1853095936
I0402 17:25:49.660614 16979 layer_factory.hpp:77] Creating layer conv2_relu
I0402 17:25:49.660626 16979 net.cpp:100] Creating Layer conv2_relu
I0402 17:25:49.660630 16979 net.cpp:434] conv2_relu <- conv2
I0402 17:25:49.660636 16979 net.cpp:395] conv2_relu -> conv2 (in-place)
I0402 17:25:49.663192 16979 net.cpp:150] Setting up conv2_relu
I0402 17:25:49.663211 16979 net.cpp:157] Top shape: 1024 150 18 18 (49766400)
I0402 17:25:49.663214 16979 net.cpp:165] Memory required for data: 2052161536
I0402 17:25:49.663218 16979 layer_factory.hpp:77] Creating layer pool2
I0402 17:25:49.663225 16979 net.cpp:100] Creating Layer pool2
I0402 17:25:49.663228 16979 net.cpp:434] pool2 <- conv2
I0402 17:25:49.663234 16979 net.cpp:408] pool2 -> pool2
I0402 17:25:49.663286 16979 net.cpp:150] Setting up pool2
I0402 17:25:49.663295 16979 net.cpp:157] Top shape: 1024 150 9 9 (12441600)
I0402 17:25:49.663298 16979 net.cpp:165] Memory required for data: 2101927936
I0402 17:25:49.663301 16979 layer_factory.hpp:77] Creating layer conv3
I0402 17:25:49.663311 16979 net.cpp:100] Creating Layer conv3
I0402 17:25:49.663316 16979 net.cpp:434] conv3 <- pool2
I0402 17:25:49.663321 16979 net.cpp:408] conv3 -> conv3
I0402 17:25:49.668866 16979 net.cpp:150] Setting up conv3
I0402 17:25:49.668895 16979 net.cpp:157] Top shape: 1024 250 6 6 (9216000)
I0402 17:25:49.668898 16979 net.cpp:165] Memory required for data: 2138791936
I0402 17:25:49.668908 16979 layer_factory.hpp:77] Creating layer conv3_relu
I0402 17:25:49.668915 16979 net.cpp:100] Creating Layer conv3_relu
I0402 17:25:49.668918 16979 net.cpp:434] conv3_relu <- conv3
I0402 17:25:49.668923 16979 net.cpp:395] conv3_relu -> conv3 (in-place)
I0402 17:25:49.675843 16979 net.cpp:150] Setting up conv3_relu
I0402 17:25:49.675860 16979 net.cpp:157] Top shape: 1024 250 6 6 (9216000)
I0402 17:25:49.675863 16979 net.cpp:165] Memory required for data: 2175655936
I0402 17:25:49.675886 16979 layer_factory.hpp:77] Creating layer pool3
I0402 17:25:49.675894 16979 net.cpp:100] Creating Layer pool3
I0402 17:25:49.675899 16979 net.cpp:434] pool3 <- conv3
I0402 17:25:49.675904 16979 net.cpp:408] pool3 -> pool3
I0402 17:25:49.675961 16979 net.cpp:150] Setting up pool3
I0402 17:25:49.675971 16979 net.cpp:157] Top shape: 1024 250 3 3 (2304000)
I0402 17:25:49.675972 16979 net.cpp:165] Memory required for data: 2184871936
I0402 17:25:49.675976 16979 layer_factory.hpp:77] Creating layer fc4_300
I0402 17:25:49.675982 16979 net.cpp:100] Creating Layer fc4_300
I0402 17:25:49.675987 16979 net.cpp:434] fc4_300 <- pool3
I0402 17:25:49.675990 16979 net.cpp:408] fc4_300 -> fc4_300
I0402 17:25:49.684087 16979 net.cpp:150] Setting up fc4_300
I0402 17:25:49.684103 16979 net.cpp:157] Top shape: 1024 300 (307200)
I0402 17:25:49.684106 16979 net.cpp:165] Memory required for data: 2186100736
I0402 17:25:49.684113 16979 layer_factory.hpp:77] Creating layer fc4_relu
I0402 17:25:49.684119 16979 net.cpp:100] Creating Layer fc4_relu
I0402 17:25:49.684123 16979 net.cpp:434] fc4_relu <- fc4_300
I0402 17:25:49.684128 16979 net.cpp:395] fc4_relu -> fc4_300 (in-place)
I0402 17:25:49.684332 16979 net.cpp:150] Setting up fc4_relu
I0402 17:25:49.684346 16979 net.cpp:157] Top shape: 1024 300 (307200)
I0402 17:25:49.684350 16979 net.cpp:165] Memory required for data: 2187329536
I0402 17:25:49.684352 16979 layer_factory.hpp:77] Creating layer drop4
I0402 17:25:49.684360 16979 net.cpp:100] Creating Layer drop4
I0402 17:25:49.684365 16979 net.cpp:434] drop4 <- fc4_300
I0402 17:25:49.684370 16979 net.cpp:395] drop4 -> fc4_300 (in-place)
I0402 17:25:49.684399 16979 net.cpp:150] Setting up drop4
I0402 17:25:49.684406 16979 net.cpp:157] Top shape: 1024 300 (307200)
I0402 17:25:49.684409 16979 net.cpp:165] Memory required for data: 2188558336
I0402 17:25:49.684412 16979 layer_factory.hpp:77] Creating layer fc5_106
I0402 17:25:49.684418 16979 net.cpp:100] Creating Layer fc5_106
I0402 17:25:49.684420 16979 net.cpp:434] fc5_106 <- fc4_300
I0402 17:25:49.684425 16979 net.cpp:408] fc5_106 -> fc5_classes
I0402 17:25:49.684749 16979 net.cpp:150] Setting up fc5_106
I0402 17:25:49.684757 16979 net.cpp:157] Top shape: 1024 106 (108544)
I0402 17:25:49.684761 16979 net.cpp:165] Memory required for data: 2188992512
I0402 17:25:49.684770 16979 layer_factory.hpp:77] Creating layer fc5_classes_fc5_106_0_split
I0402 17:25:49.684777 16979 net.cpp:100] Creating Layer fc5_classes_fc5_106_0_split
I0402 17:25:49.684782 16979 net.cpp:434] fc5_classes_fc5_106_0_split <- fc5_classes
I0402 17:25:49.684787 16979 net.cpp:408] fc5_classes_fc5_106_0_split -> fc5_classes_fc5_106_0_split_0
I0402 17:25:49.684793 16979 net.cpp:408] fc5_classes_fc5_106_0_split -> fc5_classes_fc5_106_0_split_1
I0402 17:25:49.684799 16979 net.cpp:408] fc5_classes_fc5_106_0_split -> fc5_classes_fc5_106_0_split_2
I0402 17:25:49.684849 16979 net.cpp:150] Setting up fc5_classes_fc5_106_0_split
I0402 17:25:49.684856 16979 net.cpp:157] Top shape: 1024 106 (108544)
I0402 17:25:49.684860 16979 net.cpp:157] Top shape: 1024 106 (108544)
I0402 17:25:49.684864 16979 net.cpp:157] Top shape: 1024 106 (108544)
I0402 17:25:49.684866 16979 net.cpp:165] Memory required for data: 2190295040
I0402 17:25:49.684870 16979 layer_factory.hpp:77] Creating layer loss
I0402 17:25:49.684880 16979 net.cpp:100] Creating Layer loss
I0402 17:25:49.684883 16979 net.cpp:434] loss <- fc5_classes_fc5_106_0_split_0
I0402 17:25:49.684888 16979 net.cpp:434] loss <- label_data_1_split_0
I0402 17:25:49.684893 16979 net.cpp:408] loss -> loss
…
