…
I0414 09:49:59.791949  9665 solver.cpp:93] Creating training net from train_net file: ./Prototxt/experiment_11/rtsd-r3/orig/trial_1/train.prototxt
I0414 09:49:59.792688  9665 net.cpp:58] Initializing net from parameters: 
state {
  phase: TRAIN
  level: 0
  stage: ""
}
layer {
  name: "data"
  type: "Data"
  top: "data"
  top: "label"
  include {
    phase: TRAIN
  }
  transform_param {
    scale: 0.0039215689
    mirror: false
    crop_size: 48
    mean_value: 120
    mean_value: 113
    mean_value: 112
  }
  data_param {
    source: "../local_data/lmdb/rtsd-r3/orig/train/lmdb"
    batch_size: 1024
    backend: LMDB
  }
}
layer {
  name: "conv1"
  type: "Convolution"
  bottom: "data"
  top: "conv1"
  convolution_param {
    num_output: 100
    pad: 0
    kernel_size: 7
    group: 1
    stride: 1
    weight_filler {
      type: "xavier"
    }
  }
}
layer {
  name: "conv1_prescale"
  type: "Scale"
  bottom: "conv1"
  top: "conv1"
  param {
    lr_mult: 0
    decay_mult: 0
  }
  scale_param {
    filler {
      value: 0.6666
    }
    bias_term: false
  }
}
layer {
  name: "conv1_sTanH"
  type: "TanH"
  bottom: "conv1"
  top: "conv1"
}
layer {
  name: "conv1_postscale"
  type: "Scale"
  bottom: "conv1"
  top: "conv1"
  param {
    lr_mult: 0
    decay_mult: 0
  }
  scale_param {
    filler {
      value: 1.7159
    }
    bias_term: false
  }
}
layer {
  name: "pool1"
  type: "Pooling"
  bottom: "conv1"
  top: "pool1"
  pooling_param {
    pool: MAX
    kernel_size: 2
    stride: 2
  }
}
layer {
  name: "conv2"
  type: "Convolution"
  bottom: "pool1"
  top: "conv2"
  convolution_param {
    num_output: 150
    pad: 0
    kernel_size: 4
    group: 1
    stride: 1
    weight_filler {
      type: "xavier"
    }
  }
}
layer {
  name: "conv2_prescale"
  type: "Scale"
  bottom: "conv2"
  top: "conv2"
  param {
    lr_mult: 0
    decay_mult: 0
  }
  scale_param {
    filler {
      value: 0.6666
    }
    bias_term: false
  }
}
layer {
  name: "conv2_sTanH"
  type: "TanH"
  bottom: "conv2"
  top: "conv2"
}
layer {
  name: "conv2_postscale"
  type: "Scale"
  bottom: "conv2"
  top: "conv2"
  param {
    lr_mult: 0
    decay_mult: 0
  }
  scale_param {
    filler {
      value: 1.7159
    }
    bias_term: false
  }
}
layer {
  name: "pool2"
  type: "Pooling"
  bottom: "conv2"
  top: "pool2"
  pooling_param {
    pool: MAX
    kernel_size: 2
    stride: 2
  }
}
layer {
  name: "conv3"
  type: "Convolution"
  bottom: "pool2"
  top: "conv3"
  convolution_param {
    num_output: 250
    pad: 0
    kernel_size: 4
    group: 1
    stride: 1
    weight_filler {
      type: "xavier"
    }
  }
}
layer {
  name: "conv3_prescale"
  type: "Scale"
  bottom: "conv3"
  top: "conv3"
  param {
    lr_mult: 0
    decay_mult: 0
  }
  scale_param {
    filler {
      value: 0.6666
    }
    bias_term: false
  }
}
layer {
  name: "conv3_sTanH"
  type: "TanH"
  bottom: "conv3"
  top: "conv3"
}
layer {
  name: "conv3_postscale"
  type: "Scale"
  bottom: "conv3"
  top: "conv3"
  param {
    lr_mult: 0
    decay_mult: 0
  }
  scale_param {
    filler {
      value: 1.7159
    }
    bias_term: false
  }
}
layer {
  name: "pool3"
  type: "Pooling"
  bottom: "conv3"
  top: "pool3"
  pooling_param {
    pool: MAX
    kernel_size: 2
    stride: 2
  }
}
layer {
  name: "fc4_300"
  type: "InnerProduct"
  bottom: "pool3"
  top: "fc4_300"
  inner_product_param {
    num_output: 300
    weight_filler {
      type: "xavier"
    }
  }
}
layer {
  name: "fc4_prescale"
  type: "Scale"
  bottom: "fc4_300"
  top: "fc4_300"
  param {
    lr_mult: 0
    decay_mult: 0
  }
  scale_param {
    filler {
      value: 0.6666
    }
    bias_term: false
  }
}
layer {
  name: "fc4_sTanH"
  type: "TanH"
  bottom: "fc4_300"
  top: "fc4_300"
}
layer {
  name: "fc4_postscale"
  type: "Scale"
  bottom: "fc4_300"
  top: "fc4_300"
  param {
    lr_mult: 0
    decay_mult: 0
  }
  scale_param {
    filler {
      value: 1.7159
    }
    bias_term: false
  }
}
layer {
  name: "fc5_106"
  type: "InnerProduct"
  bottom: "fc4_300"
  top: "fc5_classes"
  inner_product_param {
    num_output: 106
    weight_filler {
      type: "xavier"
    }
  }
}
layer {
  name: "softmax"
  type: "Softmax"
  bottom: "fc5_classes"
  top: "softmax"
}
layer {
  name: "loss"
  type: "MultinomialLogisticLoss"
  bottom: "softmax"
  bottom: "label"
  top: "loss"
}
layer {
  name: "accuracy_1"
  type: "Accuracy"
  bottom: "fc5_classes"
  bottom: "label"
  top: "accuracy_1"
  accuracy_param {
    top_k: 1
  }
}
layer {
  name: "accuracy_5"
  type: "Accuracy"
  bottom: "fc5_classes"
  bottom: "label"
  top: "accuracy_5"
  accuracy_param {
    top_k: 5
  }
}
layer {
  name: "silence"
  type: "Silence"
  bottom: "accuracy_1"
  bottom: "accuracy_5"
}
I0414 09:49:59.792939  9665 layer_factory.hpp:77] Creating layer data
I0414 09:49:59.794708  9665 net.cpp:100] Creating Layer data
I0414 09:49:59.794731  9665 net.cpp:408] data -> data
I0414 09:49:59.794764  9665 net.cpp:408] data -> label
I0414 09:49:59.876940  9761 db_lmdb.cpp:35] Opened lmdb ../local_data/lmdb/rtsd-r3/orig/train/lmdb
I0414 09:49:59.922811  9665 data_layer.cpp:41] output data size: 1024,3,48,48
I0414 09:50:00.010110  9665 net.cpp:150] Setting up data
I0414 09:50:00.010143  9665 net.cpp:157] Top shape: 1024 3 48 48 (7077888)
I0414 09:50:00.010149  9665 net.cpp:157] Top shape: 1024 (1024)
I0414 09:50:00.010152  9665 net.cpp:165] Memory required for data: 28315648
I0414 09:50:00.010164  9665 layer_factory.hpp:77] Creating layer label_data_1_split
I0414 09:50:00.010179  9665 net.cpp:100] Creating Layer label_data_1_split
I0414 09:50:00.010185  9665 net.cpp:434] label_data_1_split <- label
I0414 09:50:00.010200  9665 net.cpp:408] label_data_1_split -> label_data_1_split_0
I0414 09:50:00.010218  9665 net.cpp:408] label_data_1_split -> label_data_1_split_1
I0414 09:50:00.010228  9665 net.cpp:408] label_data_1_split -> label_data_1_split_2
I0414 09:50:00.010303  9665 net.cpp:150] Setting up label_data_1_split
I0414 09:50:00.010313  9665 net.cpp:157] Top shape: 1024 (1024)
I0414 09:50:00.010318  9665 net.cpp:157] Top shape: 1024 (1024)
I0414 09:50:00.010321  9665 net.cpp:157] Top shape: 1024 (1024)
I0414 09:50:00.010324  9665 net.cpp:165] Memory required for data: 28327936
I0414 09:50:00.010329  9665 layer_factory.hpp:77] Creating layer conv1
I0414 09:50:00.010347  9665 net.cpp:100] Creating Layer conv1
I0414 09:50:00.010354  9665 net.cpp:434] conv1 <- data
I0414 09:50:00.010360  9665 net.cpp:408] conv1 -> conv1
I0414 09:50:00.134130  9780 blocking_queue.cpp:50] Waiting for data
I0414 09:50:00.352969  9665 net.cpp:150] Setting up conv1
I0414 09:50:00.352999  9665 net.cpp:157] Top shape: 1024 100 42 42 (180633600)
I0414 09:50:00.353005  9665 net.cpp:165] Memory required for data: 750862336
I0414 09:50:00.353034  9665 layer_factory.hpp:77] Creating layer conv1_prescale
I0414 09:50:00.353052  9665 net.cpp:100] Creating Layer conv1_prescale
I0414 09:50:00.353060  9665 net.cpp:434] conv1_prescale <- conv1
I0414 09:50:00.353070  9665 net.cpp:395] conv1_prescale -> conv1 (in-place)
I0414 09:50:00.353184  9665 net.cpp:150] Setting up conv1_prescale
I0414 09:50:00.353195  9665 net.cpp:157] Top shape: 1024 100 42 42 (180633600)
I0414 09:50:00.353200  9665 net.cpp:165] Memory required for data: 1473396736
I0414 09:50:00.353211  9665 layer_factory.hpp:77] Creating layer conv1_sTanH
I0414 09:50:00.353224  9665 net.cpp:100] Creating Layer conv1_sTanH
I0414 09:50:00.353231  9665 net.cpp:434] conv1_sTanH <- conv1
I0414 09:50:00.353240  9665 net.cpp:395] conv1_sTanH -> conv1 (in-place)
I0414 09:50:00.353444  9665 net.cpp:150] Setting up conv1_sTanH
I0414 09:50:00.353474  9665 net.cpp:157] Top shape: 1024 100 42 42 (180633600)
I0414 09:50:00.353480  9665 net.cpp:165] Memory required for data: 2195931136
I0414 09:50:00.353487  9665 layer_factory.hpp:77] Creating layer conv1_postscale
I0414 09:50:00.353497  9665 net.cpp:100] Creating Layer conv1_postscale
I0414 09:50:00.353503  9665 net.cpp:434] conv1_postscale <- conv1
I0414 09:50:00.353513  9665 net.cpp:395] conv1_postscale -> conv1 (in-place)
I0414 09:50:00.353615  9665 net.cpp:150] Setting up conv1_postscale
I0414 09:50:00.353626  9665 net.cpp:157] Top shape: 1024 100 42 42 (180633600)
I0414 09:50:00.353631  9665 net.cpp:165] Memory required for data: 2918465536
I0414 09:50:00.353639  9665 layer_factory.hpp:77] Creating layer pool1
I0414 09:50:00.353652  9665 net.cpp:100] Creating Layer pool1
I0414 09:50:00.353659  9665 net.cpp:434] pool1 <- conv1
I0414 09:50:00.353667  9665 net.cpp:408] pool1 -> pool1
I0414 09:50:00.353720  9665 net.cpp:150] Setting up pool1
I0414 09:50:00.353732  9665 net.cpp:157] Top shape: 1024 100 21 21 (45158400)
I0414 09:50:00.353737  9665 net.cpp:165] Memory required for data: 3099099136
I0414 09:50:00.353742  9665 layer_factory.hpp:77] Creating layer conv2
I0414 09:50:00.353756  9665 net.cpp:100] Creating Layer conv2
I0414 09:50:00.353762  9665 net.cpp:434] conv2 <- pool1
I0414 09:50:00.353771  9665 net.cpp:408] conv2 -> conv2
I0414 09:50:00.373342  9665 net.cpp:150] Setting up conv2
I0414 09:50:00.373361  9665 net.cpp:157] Top shape: 1024 150 18 18 (49766400)
I0414 09:50:00.373368  9665 net.cpp:165] Memory required for data: 3298164736
I0414 09:50:00.373383  9665 layer_factory.hpp:77] Creating layer conv2_prescale
I0414 09:50:00.373399  9665 net.cpp:100] Creating Layer conv2_prescale
I0414 09:50:00.373406  9665 net.cpp:434] conv2_prescale <- conv2
I0414 09:50:00.373415  9665 net.cpp:395] conv2_prescale -> conv2 (in-place)
I0414 09:50:00.373525  9665 net.cpp:150] Setting up conv2_prescale
I0414 09:50:00.373536  9665 net.cpp:157] Top shape: 1024 150 18 18 (49766400)
I0414 09:50:00.373543  9665 net.cpp:165] Memory required for data: 3497230336
I0414 09:50:00.373550  9665 layer_factory.hpp:77] Creating layer conv2_sTanH
I0414 09:50:00.373561  9665 net.cpp:100] Creating Layer conv2_sTanH
I0414 09:50:00.373569  9665 net.cpp:434] conv2_sTanH <- conv2
I0414 09:50:00.373576  9665 net.cpp:395] conv2_sTanH -> conv2 (in-place)
I0414 09:50:00.374462  9665 net.cpp:150] Setting up conv2_sTanH
I0414 09:50:00.374480  9665 net.cpp:157] Top shape: 1024 150 18 18 (49766400)
I0414 09:50:00.374485  9665 net.cpp:165] Memory required for data: 3696295936
I0414 09:50:00.374490  9665 layer_factory.hpp:77] Creating layer conv2_postscale
I0414 09:50:00.374501  9665 net.cpp:100] Creating Layer conv2_postscale
I0414 09:50:00.374508  9665 net.cpp:434] conv2_postscale <- conv2
I0414 09:50:00.374518  9665 net.cpp:395] conv2_postscale -> conv2 (in-place)
I0414 09:50:00.374619  9665 net.cpp:150] Setting up conv2_postscale
I0414 09:50:00.374631  9665 net.cpp:157] Top shape: 1024 150 18 18 (49766400)
I0414 09:50:00.374636  9665 net.cpp:165] Memory required for data: 3895361536
I0414 09:50:00.374645  9665 layer_factory.hpp:77] Creating layer pool2
I0414 09:50:00.374656  9665 net.cpp:100] Creating Layer pool2
I0414 09:50:00.374663  9665 net.cpp:434] pool2 <- conv2
I0414 09:50:00.374671  9665 net.cpp:408] pool2 -> pool2
I0414 09:50:00.374721  9665 net.cpp:150] Setting up pool2
I0414 09:50:00.374732  9665 net.cpp:157] Top shape: 1024 150 9 9 (12441600)
I0414 09:50:00.374737  9665 net.cpp:165] Memory required for data: 3945127936
I0414 09:50:00.374742  9665 layer_factory.hpp:77] Creating layer conv3
I0414 09:50:00.374754  9665 net.cpp:100] Creating Layer conv3
I0414 09:50:00.374761  9665 net.cpp:434] conv3 <- pool2
I0414 09:50:00.374769  9665 net.cpp:408] conv3 -> conv3
I0414 09:50:00.380818  9665 net.cpp:150] Setting up conv3
I0414 09:50:00.380841  9665 net.cpp:157] Top shape: 1024 250 6 6 (9216000)
I0414 09:50:00.380847  9665 net.cpp:165] Memory required for data: 3981991936
I0414 09:50:00.380882  9665 layer_factory.hpp:77] Creating layer conv3_prescale
I0414 09:50:00.380894  9665 net.cpp:100] Creating Layer conv3_prescale
I0414 09:50:00.380900  9665 net.cpp:434] conv3_prescale <- conv3
I0414 09:50:00.380909  9665 net.cpp:395] conv3_prescale -> conv3 (in-place)
I0414 09:50:00.381036  9665 net.cpp:150] Setting up conv3_prescale
I0414 09:50:00.381050  9665 net.cpp:157] Top shape: 1024 250 6 6 (9216000)
I0414 09:50:00.381057  9665 net.cpp:165] Memory required for data: 4018855936
I0414 09:50:00.381064  9665 layer_factory.hpp:77] Creating layer conv3_sTanH
I0414 09:50:00.381075  9665 net.cpp:100] Creating Layer conv3_sTanH
I0414 09:50:00.381080  9665 net.cpp:434] conv3_sTanH <- conv3
I0414 09:50:00.381088  9665 net.cpp:395] conv3_sTanH -> conv3 (in-place)
I0414 09:50:00.382654  9665 net.cpp:150] Setting up conv3_sTanH
I0414 09:50:00.382670  9665 net.cpp:157] Top shape: 1024 250 6 6 (9216000)
I0414 09:50:00.382673  9665 net.cpp:165] Memory required for data: 4055719936
I0414 09:50:00.382678  9665 layer_factory.hpp:77] Creating layer conv3_postscale
I0414 09:50:00.382684  9665 net.cpp:100] Creating Layer conv3_postscale
I0414 09:50:00.382688  9665 net.cpp:434] conv3_postscale <- conv3
I0414 09:50:00.382694  9665 net.cpp:395] conv3_postscale -> conv3 (in-place)
I0414 09:50:00.382787  9665 net.cpp:150] Setting up conv3_postscale
I0414 09:50:00.382796  9665 net.cpp:157] Top shape: 1024 250 6 6 (9216000)
I0414 09:50:00.382798  9665 net.cpp:165] Memory required for data: 4092583936
I0414 09:50:00.382803  9665 layer_factory.hpp:77] Creating layer pool3
I0414 09:50:00.382812  9665 net.cpp:100] Creating Layer pool3
I0414 09:50:00.382814  9665 net.cpp:434] pool3 <- conv3
I0414 09:50:00.382820  9665 net.cpp:408] pool3 -> pool3
I0414 09:50:00.382855  9665 net.cpp:150] Setting up pool3
I0414 09:50:00.382864  9665 net.cpp:157] Top shape: 1024 250 3 3 (2304000)
I0414 09:50:00.382868  9665 net.cpp:165] Memory required for data: 4101799936
I0414 09:50:00.382870  9665 layer_factory.hpp:77] Creating layer fc4_300
I0414 09:50:00.382876  9665 net.cpp:100] Creating Layer fc4_300
I0414 09:50:00.382879  9665 net.cpp:434] fc4_300 <- pool3
I0414 09:50:00.382884  9665 net.cpp:408] fc4_300 -> fc4_300
I0414 09:50:00.388695  9665 net.cpp:150] Setting up fc4_300
I0414 09:50:00.388713  9665 net.cpp:157] Top shape: 1024 300 (307200)
I0414 09:50:00.388717  9665 net.cpp:165] Memory required for data: 4103028736
I0414 09:50:00.388725  9665 layer_factory.hpp:77] Creating layer fc4_prescale
I0414 09:50:00.388732  9665 net.cpp:100] Creating Layer fc4_prescale
I0414 09:50:00.388736  9665 net.cpp:434] fc4_prescale <- fc4_300
I0414 09:50:00.388741  9665 net.cpp:395] fc4_prescale -> fc4_300 (in-place)
I0414 09:50:00.388828  9665 net.cpp:150] Setting up fc4_prescale
I0414 09:50:00.388836  9665 net.cpp:157] Top shape: 1024 300 (307200)
I0414 09:50:00.388839  9665 net.cpp:165] Memory required for data: 4104257536
I0414 09:50:00.388844  9665 layer_factory.hpp:77] Creating layer fc4_sTanH
I0414 09:50:00.388849  9665 net.cpp:100] Creating Layer fc4_sTanH
I0414 09:50:00.388851  9665 net.cpp:434] fc4_sTanH <- fc4_300
I0414 09:50:00.388855  9665 net.cpp:395] fc4_sTanH -> fc4_300 (in-place)
I0414 09:50:00.389039  9665 net.cpp:150] Setting up fc4_sTanH
I0414 09:50:00.389050  9665 net.cpp:157] Top shape: 1024 300 (307200)
I0414 09:50:00.389053  9665 net.cpp:165] Memory required for data: 4105486336
I0414 09:50:00.389056  9665 layer_factory.hpp:77] Creating layer fc4_postscale
I0414 09:50:00.389063  9665 net.cpp:100] Creating Layer fc4_postscale
I0414 09:50:00.389066  9665 net.cpp:434] fc4_postscale <- fc4_300
I0414 09:50:00.389071  9665 net.cpp:395] fc4_postscale -> fc4_300 (in-place)
I0414 09:50:00.389161  9665 net.cpp:150] Setting up fc4_postscale
I0414 09:50:00.389170  9665 net.cpp:157] Top shape: 1024 300 (307200)
I0414 09:50:00.389173  9665 net.cpp:165] Memory required for data: 4106715136
I0414 09:50:00.389178  9665 layer_factory.hpp:77] Creating layer fc5_106
I0414 09:50:00.389183  9665 net.cpp:100] Creating Layer fc5_106
I0414 09:50:00.389186  9665 net.cpp:434] fc5_106 <- fc4_300
I0414 09:50:00.389206  9665 net.cpp:408] fc5_106 -> fc5_classes
I0414 09:50:00.394979  9665 net.cpp:150] Setting up fc5_106
I0414 09:50:00.394994  9665 net.cpp:157] Top shape: 1024 106 (108544)
I0414 09:50:00.394999  9665 net.cpp:165] Memory required for data: 4107149312
I0414 09:50:00.395009  9665 layer_factory.hpp:77] Creating layer fc5_classes_fc5_106_0_split
I0414 09:50:00.395018  9665 net.cpp:100] Creating Layer fc5_classes_fc5_106_0_split
I0414 09:50:00.395023  9665 net.cpp:434] fc5_classes_fc5_106_0_split <- fc5_classes
I0414 09:50:00.395030  9665 net.cpp:408] fc5_classes_fc5_106_0_split -> fc5_classes_fc5_106_0_split_0
I0414 09:50:00.395036  9665 net.cpp:408] fc5_classes_fc5_106_0_split -> fc5_classes_fc5_106_0_split_1
I0414 09:50:00.395045  9665 net.cpp:408] fc5_classes_fc5_106_0_split -> fc5_classes_fc5_106_0_split_2
I0414 09:50:00.395093  9665 net.cpp:150] Setting up fc5_classes_fc5_106_0_split
I0414 09:50:00.395100  9665 net.cpp:157] Top shape: 1024 106 (108544)
I0414 09:50:00.395104  9665 net.cpp:157] Top shape: 1024 106 (108544)
I0414 09:50:00.395108  9665 net.cpp:157] Top shape: 1024 106 (108544)
I0414 09:50:00.395112  9665 net.cpp:165] Memory required for data: 4108451840
I0414 09:50:00.395114  9665 layer_factory.hpp:77] Creating layer softmax
I0414 09:50:00.395119  9665 net.cpp:100] Creating Layer softmax
I0414 09:50:00.395123  9665 net.cpp:434] softmax <- fc5_classes_fc5_106_0_split_0
I0414 09:50:00.395128  9665 net.cpp:408] softmax -> softmax
I0414 09:50:00.395375  9665 net.cpp:150] Setting up softmax
I0414 09:50:00.395387  9665 net.cpp:157] Top shape: 1024 106 (108544)
I0414 09:50:00.395392  9665 net.cpp:165] Memory required for data: 4108886016
I0414 09:50:00.395395  9665 layer_factory.hpp:77] Creating layer loss
I0414 09:50:00.395402  9665 net.cpp:100] Creating Layer loss
I0414 09:50:00.395406  9665 net.cpp:434] loss <- softmax
I0414 09:50:00.395411  9665 net.cpp:434] loss <- label_data_1_split_0
I0414 09:50:00.395416  9665 net.cpp:408] loss -> loss
…
