…
I0528 08:42:51.764053 17954 solver.cpp:81] Creating training net from train_net file: ./Prototxt/experiment_21/RTSD/orig/trial_5/train.prototxt
I0528 08:42:51.764434 17954 net.cpp:58] Initializing net from parameters: 
state {
  phase: TRAIN
  level: 0
  stage: ""
}
layer {
  name: "data"
  type: "Data"
  top: "data"
  top: "label"
  include {
    phase: TRAIN
  }
  transform_param {
    scale: 0.0039215689
    mirror: false
    crop_size: 48
    mean_value: 119
    mean_value: 113
    mean_value: 113
  }
  data_param {
    source: "../local_data/lmdb/RTSD/orig/train/lmdb"
    batch_size: 1024
    backend: LMDB
  }
}
layer {
  name: "conv1"
  type: "Convolution"
  bottom: "data"
  top: "conv1"
  convolution_param {
    num_output: 100
    pad: 0
    kernel_size: 7
    group: 1
    stride: 1
    weight_filler {
      type: "xavier"
    }
  }
}
layer {
  name: "conv1_relu"
  type: "ReLU"
  bottom: "conv1"
  top: "conv1"
}
layer {
  name: "pool1"
  type: "Pooling"
  bottom: "conv1"
  top: "pool1"
  pooling_param {
    pool: MAX
    kernel_size: 2
    stride: 2
  }
}
layer {
  name: "conv2"
  type: "Convolution"
  bottom: "pool1"
  top: "conv2"
  convolution_param {
    num_output: 150
    pad: 0
    kernel_size: 4
    group: 1
    stride: 1
    weight_filler {
      type: "xavier"
    }
  }
}
layer {
  name: "conv2_relu"
  type: "ReLU"
  bottom: "conv2"
  top: "conv2"
}
layer {
  name: "pool2"
  type: "Pooling"
  bottom: "conv2"
  top: "pool2"
  pooling_param {
    pool: MAX
    kernel_size: 2
    stride: 2
  }
}
layer {
  name: "conv3"
  type: "Convolution"
  bottom: "pool2"
  top: "conv3"
  convolution_param {
    num_output: 250
    pad: 0
    kernel_size: 4
    group: 1
    stride: 1
    weight_filler {
      type: "xavier"
    }
  }
}
layer {
  name: "conv3_relu"
  type: "ReLU"
  bottom: "conv3"
  top: "conv3"
}
layer {
  name: "pool3"
  type: "Pooling"
  bottom: "conv3"
  top: "pool3"
  pooling_param {
    pool: MAX
    kernel_size: 2
    stride: 2
  }
}
layer {
  name: "fc4_300"
  type: "InnerProduct"
  bottom: "pool3"
  top: "fc4_300"
  inner_product_param {
    num_output: 300
    weight_filler {
      type: "xavier"
    }
  }
}
layer {
  name: "fc4_relu"
  type: "ReLU"
  bottom: "fc4_300"
  top: "fc4_300"
}
layer {
  name: "fc5_116"
  type: "InnerProduct"
  bottom: "fc4_300"
  top: "fc5_classes"
  inner_product_param {
    num_output: 116
    weight_filler {
      type: "xavier"
    }
  }
}
layer {
  name: "softmax"
  type: "Softmax"
  bottom: "fc5_classes"
  top: "softmax"
}
layer {
  name: "loss"
  type: "MultinomialLogisticLoss"
  bottom: "softmax"
  bottom: "label"
  top: "loss"
}
layer {
  name: "accuracy_1"
  type: "Accuracy"
  bottom: "fc5_classes"
  bottom: "label"
  top: "accuracy_1"
  accuracy_param {
    top_k: 1
  }
}
layer {
  name: "accuracy_5"
  type: "Accuracy"
  bottom: "fc5_classes"
  bottom: "label"
  top: "accuracy_5"
  accuracy_param {
    top_k: 5
  }
}
layer {
  name: "silence"
  type: "Silence"
  bottom: "accuracy_1"
  bottom: "accuracy_5"
}
I0528 08:42:51.764546 17954 layer_factory.hpp:77] Creating layer data
I0528 08:42:51.765331 17954 net.cpp:100] Creating Layer data
I0528 08:42:51.765346 17954 net.cpp:408] data -> data
I0528 08:42:51.765399 17954 net.cpp:408] data -> label
I0528 08:42:51.766394 17999 db_lmdb.cpp:35] Opened lmdb ../local_data/lmdb/RTSD/orig/train/lmdb
I0528 08:42:51.789254 17954 data_layer.cpp:41] output data size: 1024,3,48,48
I0528 08:42:51.845417 17954 net.cpp:150] Setting up data
I0528 08:42:51.845487 17954 net.cpp:157] Top shape: 1024 3 48 48 (7077888)
I0528 08:42:51.845506 17954 net.cpp:157] Top shape: 1024 (1024)
I0528 08:42:51.845513 17954 net.cpp:165] Memory required for data: 28315648
I0528 08:42:51.845535 17954 layer_factory.hpp:77] Creating layer label_data_1_split
I0528 08:42:51.845554 17954 net.cpp:100] Creating Layer label_data_1_split
I0528 08:42:51.845571 17954 net.cpp:434] label_data_1_split <- label
I0528 08:42:51.845599 17954 net.cpp:408] label_data_1_split -> label_data_1_split_0
I0528 08:42:51.845614 17954 net.cpp:408] label_data_1_split -> label_data_1_split_1
I0528 08:42:51.845625 17954 net.cpp:408] label_data_1_split -> label_data_1_split_2
I0528 08:42:51.845932 17954 net.cpp:150] Setting up label_data_1_split
I0528 08:42:51.845960 17954 net.cpp:157] Top shape: 1024 (1024)
I0528 08:42:51.845968 17954 net.cpp:157] Top shape: 1024 (1024)
I0528 08:42:51.845975 17954 net.cpp:157] Top shape: 1024 (1024)
I0528 08:42:51.845980 17954 net.cpp:165] Memory required for data: 28327936
I0528 08:42:51.845986 17954 layer_factory.hpp:77] Creating layer conv1
I0528 08:42:51.846005 17954 net.cpp:100] Creating Layer conv1
I0528 08:42:51.846024 17954 net.cpp:434] conv1 <- data
I0528 08:42:51.846034 17954 net.cpp:408] conv1 -> conv1
I0528 08:42:52.452523 17954 net.cpp:150] Setting up conv1
I0528 08:42:52.452555 17954 net.cpp:157] Top shape: 1024 100 42 42 (180633600)
I0528 08:42:52.452561 17954 net.cpp:165] Memory required for data: 750862336
I0528 08:42:52.452577 17954 layer_factory.hpp:77] Creating layer conv1_relu
I0528 08:42:52.452589 17954 net.cpp:100] Creating Layer conv1_relu
I0528 08:42:52.452594 17954 net.cpp:434] conv1_relu <- conv1
I0528 08:42:52.452600 17954 net.cpp:395] conv1_relu -> conv1 (in-place)
I0528 08:42:52.452774 17954 net.cpp:150] Setting up conv1_relu
I0528 08:42:52.452790 17954 net.cpp:157] Top shape: 1024 100 42 42 (180633600)
I0528 08:42:52.452795 17954 net.cpp:165] Memory required for data: 1473396736
I0528 08:42:52.452802 17954 layer_factory.hpp:77] Creating layer pool1
I0528 08:42:52.452816 17954 net.cpp:100] Creating Layer pool1
I0528 08:42:52.452822 17954 net.cpp:434] pool1 <- conv1
I0528 08:42:52.452838 17954 net.cpp:408] pool1 -> pool1
I0528 08:42:52.452885 17954 net.cpp:150] Setting up pool1
I0528 08:42:52.452895 17954 net.cpp:157] Top shape: 1024 100 21 21 (45158400)
I0528 08:42:52.452900 17954 net.cpp:165] Memory required for data: 1654030336
I0528 08:42:52.452906 17954 layer_factory.hpp:77] Creating layer conv2
I0528 08:42:52.452929 17954 net.cpp:100] Creating Layer conv2
I0528 08:42:52.452936 17954 net.cpp:434] conv2 <- pool1
I0528 08:42:52.452953 17954 net.cpp:408] conv2 -> conv2
I0528 08:42:52.455916 17954 net.cpp:150] Setting up conv2
I0528 08:42:52.455950 17954 net.cpp:157] Top shape: 1024 150 18 18 (49766400)
I0528 08:42:52.455956 17954 net.cpp:165] Memory required for data: 1853095936
I0528 08:42:52.455972 17954 layer_factory.hpp:77] Creating layer conv2_relu
I0528 08:42:52.455983 17954 net.cpp:100] Creating Layer conv2_relu
I0528 08:42:52.455991 17954 net.cpp:434] conv2_relu <- conv2
I0528 08:42:52.456007 17954 net.cpp:395] conv2_relu -> conv2 (in-place)
I0528 08:42:52.456154 17954 net.cpp:150] Setting up conv2_relu
I0528 08:42:52.456167 17954 net.cpp:157] Top shape: 1024 150 18 18 (49766400)
I0528 08:42:52.456173 17954 net.cpp:165] Memory required for data: 2052161536
I0528 08:42:52.456179 17954 layer_factory.hpp:77] Creating layer pool2
I0528 08:42:52.456197 17954 net.cpp:100] Creating Layer pool2
I0528 08:42:52.456204 17954 net.cpp:434] pool2 <- conv2
I0528 08:42:52.456212 17954 net.cpp:408] pool2 -> pool2
I0528 08:42:52.456257 17954 net.cpp:150] Setting up pool2
I0528 08:42:52.456269 17954 net.cpp:157] Top shape: 1024 150 9 9 (12441600)
I0528 08:42:52.456274 17954 net.cpp:165] Memory required for data: 2101927936
I0528 08:42:52.456279 17954 layer_factory.hpp:77] Creating layer conv3
I0528 08:42:52.456300 17954 net.cpp:100] Creating Layer conv3
I0528 08:42:52.456308 17954 net.cpp:434] conv3 <- pool2
I0528 08:42:52.456326 17954 net.cpp:408] conv3 -> conv3
I0528 08:42:52.460948 17954 net.cpp:150] Setting up conv3
I0528 08:42:52.460968 17954 net.cpp:157] Top shape: 1024 250 6 6 (9216000)
I0528 08:42:52.460975 17954 net.cpp:165] Memory required for data: 2138791936
I0528 08:42:52.460988 17954 layer_factory.hpp:77] Creating layer conv3_relu
I0528 08:42:52.460999 17954 net.cpp:100] Creating Layer conv3_relu
I0528 08:42:52.461007 17954 net.cpp:434] conv3_relu <- conv3
I0528 08:42:52.461016 17954 net.cpp:395] conv3_relu -> conv3 (in-place)
I0528 08:42:52.461366 17954 net.cpp:150] Setting up conv3_relu
I0528 08:42:52.461381 17954 net.cpp:157] Top shape: 1024 250 6 6 (9216000)
I0528 08:42:52.461387 17954 net.cpp:165] Memory required for data: 2175655936
I0528 08:42:52.461395 17954 layer_factory.hpp:77] Creating layer pool3
I0528 08:42:52.461405 17954 net.cpp:100] Creating Layer pool3
I0528 08:42:52.461412 17954 net.cpp:434] pool3 <- conv3
I0528 08:42:52.461421 17954 net.cpp:408] pool3 -> pool3
I0528 08:42:52.461465 17954 net.cpp:150] Setting up pool3
I0528 08:42:52.461477 17954 net.cpp:157] Top shape: 1024 250 3 3 (2304000)
I0528 08:42:52.461483 17954 net.cpp:165] Memory required for data: 2184871936
I0528 08:42:52.461488 17954 layer_factory.hpp:77] Creating layer fc4_300
I0528 08:42:52.461499 17954 net.cpp:100] Creating Layer fc4_300
I0528 08:42:52.461510 17954 net.cpp:434] fc4_300 <- pool3
I0528 08:42:52.461520 17954 net.cpp:408] fc4_300 -> fc4_300
I0528 08:42:52.465914 17954 net.cpp:150] Setting up fc4_300
I0528 08:42:52.465932 17954 net.cpp:157] Top shape: 1024 300 (307200)
I0528 08:42:52.465939 17954 net.cpp:165] Memory required for data: 2186100736
I0528 08:42:52.465950 17954 layer_factory.hpp:77] Creating layer fc4_relu
I0528 08:42:52.465960 17954 net.cpp:100] Creating Layer fc4_relu
I0528 08:42:52.465966 17954 net.cpp:434] fc4_relu <- fc4_300
I0528 08:42:52.465975 17954 net.cpp:395] fc4_relu -> fc4_300 (in-place)
I0528 08:42:52.466120 17954 net.cpp:150] Setting up fc4_relu
I0528 08:42:52.466132 17954 net.cpp:157] Top shape: 1024 300 (307200)
I0528 08:42:52.466140 17954 net.cpp:165] Memory required for data: 2187329536
I0528 08:42:52.466146 17954 layer_factory.hpp:77] Creating layer fc5_116
I0528 08:42:52.466158 17954 net.cpp:100] Creating Layer fc5_116
I0528 08:42:52.466166 17954 net.cpp:434] fc5_116 <- fc4_300
I0528 08:42:52.466177 17954 net.cpp:408] fc5_116 -> fc5_classes
I0528 08:42:52.467123 17954 net.cpp:150] Setting up fc5_116
I0528 08:42:52.467139 17954 net.cpp:157] Top shape: 1024 116 (118784)
I0528 08:42:52.467145 17954 net.cpp:165] Memory required for data: 2187804672
I0528 08:42:52.467159 17954 layer_factory.hpp:77] Creating layer fc5_classes_fc5_116_0_split
I0528 08:42:52.467170 17954 net.cpp:100] Creating Layer fc5_classes_fc5_116_0_split
I0528 08:42:52.467181 17954 net.cpp:434] fc5_classes_fc5_116_0_split <- fc5_classes
I0528 08:42:52.467190 17954 net.cpp:408] fc5_classes_fc5_116_0_split -> fc5_classes_fc5_116_0_split_0
I0528 08:42:52.467202 17954 net.cpp:408] fc5_classes_fc5_116_0_split -> fc5_classes_fc5_116_0_split_1
I0528 08:42:52.467216 17954 net.cpp:408] fc5_classes_fc5_116_0_split -> fc5_classes_fc5_116_0_split_2
I0528 08:42:52.467263 17954 net.cpp:150] Setting up fc5_classes_fc5_116_0_split
I0528 08:42:52.467275 17954 net.cpp:157] Top shape: 1024 116 (118784)
I0528 08:42:52.467283 17954 net.cpp:157] Top shape: 1024 116 (118784)
I0528 08:42:52.467289 17954 net.cpp:157] Top shape: 1024 116 (118784)
I0528 08:42:52.467295 17954 net.cpp:165] Memory required for data: 2189230080
I0528 08:42:52.467301 17954 layer_factory.hpp:77] Creating layer softmax
I0528 08:42:52.467310 17954 net.cpp:100] Creating Layer softmax
I0528 08:42:52.467321 17954 net.cpp:434] softmax <- fc5_classes_fc5_116_0_split_0
I0528 08:42:52.467330 17954 net.cpp:408] softmax -> softmax
I0528 08:42:52.467522 17954 net.cpp:150] Setting up softmax
I0528 08:42:52.467536 17954 net.cpp:157] Top shape: 1024 116 (118784)
I0528 08:42:52.467543 17954 net.cpp:165] Memory required for data: 2189705216
I0528 08:42:52.467550 17954 layer_factory.hpp:77] Creating layer loss
I0528 08:42:52.467562 17954 net.cpp:100] Creating Layer loss
I0528 08:42:52.467586 17954 net.cpp:434] loss <- softmax
I0528 08:42:52.467595 17954 net.cpp:434] loss <- label_data_1_split_0
I0528 08:42:52.467604 17954 net.cpp:408] loss -> loss
…
