…
I0402 00:07:46.262323  9927 net.cpp:322] The NetState phase (0) differed from the phase (1) specified by a rule in layer accuracy_5
I0402 00:07:46.262472  9927 net.cpp:58] Initializing net from parameters: 
state {
  phase: TRAIN
  level: 0
  stage: ""
}
layer {
  name: "data"
  type: "Data"
  top: "data"
  top: "label"
  include {
    phase: TRAIN
  }
  transform_param {
    mirror: false
    crop_size: 48
    mean_value: 122
    mean_value: 115
    mean_value: 129
  }
  data_param {
    source: "../local_data/lmdb/rtsd-r1/orig/train/lmdb"
    batch_size: 512
    backend: LMDB
  }
}
layer {
  name: "conv1"
  type: "Convolution"
  bottom: "data"
  top: "conv1"
  convolution_param {
    num_output: 100
    pad: 0
    kernel_size: 7
    group: 1
    stride: 1
    weight_filler {
      type: "xavier"
    }
  }
}
layer {
  name: "conv1_relu"
  type: "ReLU"
  bottom: "conv1"
  top: "conv1"
}
layer {
  name: "pool1"
  type: "Pooling"
  bottom: "conv1"
  top: "pool1"
  pooling_param {
    pool: MAX
    kernel_size: 2
    stride: 2
  }
}
layer {
  name: "conv2"
  type: "Convolution"
  bottom: "pool1"
  top: "conv2"
  convolution_param {
    num_output: 150
    pad: 0
    kernel_size: 4
    group: 1
    stride: 1
    weight_filler {
      type: "xavier"
    }
  }
}
layer {
  name: "conv2_relu"
  type: "ReLU"
  bottom: "conv2"
  top: "conv2"
}
layer {
  name: "pool2"
  type: "Pooling"
  bottom: "conv2"
  top: "pool2"
  pooling_param {
    pool: MAX
    kernel_size: 2
    stride: 2
  }
}
layer {
  name: "conv3"
  type: "Convolution"
  bottom: "pool2"
  top: "conv3"
  convolution_param {
    num_output: 250
    pad: 0
    kernel_size: 4
    group: 1
    stride: 1
    weight_filler {
      type: "xavier"
    }
  }
}
layer {
  name: "conv3_relu"
  type: "ReLU"
  bottom: "conv3"
  top: "conv3"
}
layer {
  name: "pool3"
  type: "Pooling"
  bottom: "conv3"
  top: "pool3"
  pooling_param {
    pool: MAX
    kernel_size: 2
    stride: 2
  }
}
layer {
  name: "fc4_300"
  type: "InnerProduct"
  bottom: "pool3"
  top: "fc4_300"
  inner_product_param {
    num_output: 300
    weight_filler {
      type: "xavier"
    }
  }
}
layer {
  name: "fc4_relu"
  type: "ReLU"
  bottom: "fc4_300"
  top: "fc4_300"
}
layer {
  name: "drop4"
  type: "Dropout"
  bottom: "fc4_300"
  top: "fc4_300"
  dropout_param {
    dropout_ratio: 0.4
  }
}
layer {
  name: "fc5_67"
  type: "InnerProduct"
  bottom: "fc4_300"
  top: "fc5_classes"
  inner_product_param {
    num_output: 67
    weight_filler {
      type: "xavier"
    }
  }
}
layer {
  name: "loss"
  type: "SoftmaxWithLoss"
  bottom: "fc5_classes"
  bottom: "label"
  top: "loss"
}
I0402 00:07:46.262573  9927 layer_factory.hpp:77] Creating layer data
I0402 00:07:46.263380  9927 net.cpp:100] Creating Layer data
I0402 00:07:46.263417  9927 net.cpp:408] data -> data
I0402 00:07:46.263442  9927 net.cpp:408] data -> label
I0402 00:07:46.264647  9965 db_lmdb.cpp:35] Opened lmdb ../local_data/lmdb/rtsd-r1/orig/train/lmdb
I0402 00:07:46.281765  9927 data_layer.cpp:41] output data size: 512,3,48,48
I0402 00:07:46.305601  9927 net.cpp:150] Setting up data
I0402 00:07:46.305635  9927 net.cpp:157] Top shape: 512 3 48 48 (3538944)
I0402 00:07:46.305640  9927 net.cpp:157] Top shape: 512 (512)
I0402 00:07:46.305644  9927 net.cpp:165] Memory required for data: 14157824
I0402 00:07:46.305675  9927 layer_factory.hpp:77] Creating layer conv1
I0402 00:07:46.305697  9927 net.cpp:100] Creating Layer conv1
I0402 00:07:46.305703  9927 net.cpp:434] conv1 <- data
I0402 00:07:46.305717  9927 net.cpp:408] conv1 -> conv1
I0402 00:07:46.561671  9927 net.cpp:150] Setting up conv1
I0402 00:07:46.561713  9927 net.cpp:157] Top shape: 512 100 42 42 (90316800)
I0402 00:07:46.561717  9927 net.cpp:165] Memory required for data: 375425024
I0402 00:07:46.561738  9927 layer_factory.hpp:77] Creating layer conv1_relu
I0402 00:07:46.561750  9927 net.cpp:100] Creating Layer conv1_relu
I0402 00:07:46.561755  9927 net.cpp:434] conv1_relu <- conv1
I0402 00:07:46.561761  9927 net.cpp:395] conv1_relu -> conv1 (in-place)
I0402 00:07:46.561950  9927 net.cpp:150] Setting up conv1_relu
I0402 00:07:46.561962  9927 net.cpp:157] Top shape: 512 100 42 42 (90316800)
I0402 00:07:46.561965  9927 net.cpp:165] Memory required for data: 736692224
I0402 00:07:46.561969  9927 layer_factory.hpp:77] Creating layer pool1
I0402 00:07:46.561975  9927 net.cpp:100] Creating Layer pool1
I0402 00:07:46.561980  9927 net.cpp:434] pool1 <- conv1
I0402 00:07:46.561985  9927 net.cpp:408] pool1 -> pool1
I0402 00:07:46.562036  9927 net.cpp:150] Setting up pool1
I0402 00:07:46.562044  9927 net.cpp:157] Top shape: 512 100 21 21 (22579200)
I0402 00:07:46.562047  9927 net.cpp:165] Memory required for data: 827009024
I0402 00:07:46.562050  9927 layer_factory.hpp:77] Creating layer conv2
I0402 00:07:46.562062  9927 net.cpp:100] Creating Layer conv2
I0402 00:07:46.562067  9927 net.cpp:434] conv2 <- pool1
I0402 00:07:46.562072  9927 net.cpp:408] conv2 -> conv2
I0402 00:07:46.566309  9927 net.cpp:150] Setting up conv2
I0402 00:07:46.566326  9927 net.cpp:157] Top shape: 512 150 18 18 (24883200)
I0402 00:07:46.566329  9927 net.cpp:165] Memory required for data: 926541824
I0402 00:07:46.566339  9927 layer_factory.hpp:77] Creating layer conv2_relu
I0402 00:07:46.566345  9927 net.cpp:100] Creating Layer conv2_relu
I0402 00:07:46.566349  9927 net.cpp:434] conv2_relu <- conv2
I0402 00:07:46.566354  9927 net.cpp:395] conv2_relu -> conv2 (in-place)
I0402 00:07:46.567075  9927 net.cpp:150] Setting up conv2_relu
I0402 00:07:46.567090  9927 net.cpp:157] Top shape: 512 150 18 18 (24883200)
I0402 00:07:46.567093  9927 net.cpp:165] Memory required for data: 1026074624
I0402 00:07:46.567096  9927 layer_factory.hpp:77] Creating layer pool2
I0402 00:07:46.567103  9927 net.cpp:100] Creating Layer pool2
I0402 00:07:46.567106  9927 net.cpp:434] pool2 <- conv2
I0402 00:07:46.567112  9927 net.cpp:408] pool2 -> pool2
I0402 00:07:46.567154  9927 net.cpp:150] Setting up pool2
I0402 00:07:46.567163  9927 net.cpp:157] Top shape: 512 150 9 9 (6220800)
I0402 00:07:46.567167  9927 net.cpp:165] Memory required for data: 1050957824
I0402 00:07:46.567169  9927 layer_factory.hpp:77] Creating layer conv3
I0402 00:07:46.567178  9927 net.cpp:100] Creating Layer conv3
I0402 00:07:46.567180  9927 net.cpp:434] conv3 <- pool2
I0402 00:07:46.567185  9927 net.cpp:408] conv3 -> conv3
I0402 00:07:46.572574  9927 net.cpp:150] Setting up conv3
I0402 00:07:46.572592  9927 net.cpp:157] Top shape: 512 250 6 6 (4608000)
I0402 00:07:46.572597  9927 net.cpp:165] Memory required for data: 1069389824
I0402 00:07:46.572607  9927 layer_factory.hpp:77] Creating layer conv3_relu
I0402 00:07:46.572614  9927 net.cpp:100] Creating Layer conv3_relu
I0402 00:07:46.572618  9927 net.cpp:434] conv3_relu <- conv3
I0402 00:07:46.572623  9927 net.cpp:395] conv3_relu -> conv3 (in-place)
I0402 00:07:46.573359  9927 net.cpp:150] Setting up conv3_relu
I0402 00:07:46.573374  9927 net.cpp:157] Top shape: 512 250 6 6 (4608000)
I0402 00:07:46.573377  9927 net.cpp:165] Memory required for data: 1087821824
I0402 00:07:46.573381  9927 layer_factory.hpp:77] Creating layer pool3
I0402 00:07:46.573387  9927 net.cpp:100] Creating Layer pool3
I0402 00:07:46.573391  9927 net.cpp:434] pool3 <- conv3
I0402 00:07:46.573396  9927 net.cpp:408] pool3 -> pool3
I0402 00:07:46.573441  9927 net.cpp:150] Setting up pool3
I0402 00:07:46.573465  9927 net.cpp:157] Top shape: 512 250 3 3 (1152000)
I0402 00:07:46.573469  9927 net.cpp:165] Memory required for data: 1092429824
I0402 00:07:46.573473  9927 layer_factory.hpp:77] Creating layer fc4_300
I0402 00:07:46.573480  9927 net.cpp:100] Creating Layer fc4_300
I0402 00:07:46.573483  9927 net.cpp:434] fc4_300 <- pool3
I0402 00:07:46.573488  9927 net.cpp:408] fc4_300 -> fc4_300
I0402 00:07:46.580111  9927 net.cpp:150] Setting up fc4_300
I0402 00:07:46.580128  9927 net.cpp:157] Top shape: 512 300 (153600)
I0402 00:07:46.580143  9927 net.cpp:165] Memory required for data: 1093044224
I0402 00:07:46.580152  9927 layer_factory.hpp:77] Creating layer fc4_relu
I0402 00:07:46.580157  9927 net.cpp:100] Creating Layer fc4_relu
I0402 00:07:46.580162  9927 net.cpp:434] fc4_relu <- fc4_300
I0402 00:07:46.580166  9927 net.cpp:395] fc4_relu -> fc4_300 (in-place)
I0402 00:07:46.580351  9927 net.cpp:150] Setting up fc4_relu
I0402 00:07:46.580364  9927 net.cpp:157] Top shape: 512 300 (153600)
I0402 00:07:46.580368  9927 net.cpp:165] Memory required for data: 1093658624
I0402 00:07:46.580370  9927 layer_factory.hpp:77] Creating layer drop4
I0402 00:07:46.580379  9927 net.cpp:100] Creating Layer drop4
I0402 00:07:46.580382  9927 net.cpp:434] drop4 <- fc4_300
I0402 00:07:46.580387  9927 net.cpp:395] drop4 -> fc4_300 (in-place)
I0402 00:07:46.580416  9927 net.cpp:150] Setting up drop4
I0402 00:07:46.580425  9927 net.cpp:157] Top shape: 512 300 (153600)
I0402 00:07:46.580427  9927 net.cpp:165] Memory required for data: 1094273024
I0402 00:07:46.580430  9927 layer_factory.hpp:77] Creating layer fc5_67
I0402 00:07:46.580436  9927 net.cpp:100] Creating Layer fc5_67
I0402 00:07:46.580440  9927 net.cpp:434] fc5_67 <- fc4_300
I0402 00:07:46.580443  9927 net.cpp:408] fc5_67 -> fc5_classes
I0402 00:07:46.581624  9927 net.cpp:150] Setting up fc5_67
I0402 00:07:46.581639  9927 net.cpp:157] Top shape: 512 67 (34304)
I0402 00:07:46.581642  9927 net.cpp:165] Memory required for data: 1094410240
I0402 00:07:46.581652  9927 layer_factory.hpp:77] Creating layer loss
I0402 00:07:46.581658  9927 net.cpp:100] Creating Layer loss
I0402 00:07:46.581662  9927 net.cpp:434] loss <- fc5_classes
I0402 00:07:46.581666  9927 net.cpp:434] loss <- label
I0402 00:07:46.581672  9927 net.cpp:408] loss -> loss
I0402 00:07:46.581684  9927 layer_factory.hpp:77] Creating layer loss
…
I0402 00:07:46.582267  9927 solver.cpp:193] Creating test net (#0) specified by test_net file: ./Prototxt/rtsd-r1/orig/test.prototxt
I0402 00:07:46.582403  9927 net.cpp:58] Initializing net from parameters: 
state {
  phase: TEST
}
layer {
  name: "data"
  type: "Data"
  top: "data"
  top: "label"
  include {
    phase: TEST
  }
  transform_param {
    mirror: false
    crop_size: 48
    mean_value: 113
    mean_value: 110
    mean_value: 132
  }
  data_param {
    source: "../local_data/lmdb/rtsd-r1/orig/test/lmdb"
    batch_size: 512
    backend: LMDB
  }
}
layer {
  name: "conv1"
  type: "Convolution"
  bottom: "data"
  top: "conv1"
  convolution_param {
    num_output: 100
    pad: 0
    kernel_size: 7
    group: 1
    stride: 1
    weight_filler {
      type: "xavier"
    }
  }
}
layer {
  name: "conv1_relu"
  type: "ReLU"
  bottom: "conv1"
  top: "conv1"
}
layer {
  name: "pool1"
  type: "Pooling"
  bottom: "conv1"
  top: "pool1"
  pooling_param {
    pool: MAX
    kernel_size: 2
    stride: 2
  }
}
layer {
  name: "conv2"
  type: "Convolution"
  bottom: "pool1"
  top: "conv2"
  convolution_param {
    num_output: 150
    pad: 0
    kernel_size: 4
    group: 1
    stride: 1
    weight_filler {
      type: "xavier"
    }
  }
}
layer {
  name: "conv2_relu"
  type: "ReLU"
  bottom: "conv2"
  top: "conv2"
}
layer {
  name: "pool2"
  type: "Pooling"
  bottom: "conv2"
  top: "pool2"
  pooling_param {
    pool: MAX
    kernel_size: 2
    stride: 2
  }
}
layer {
  name: "conv3"
  type: "Convolution"
  bottom: "pool2"
  top: "conv3"
  convolution_param {
    num_output: 250
    pad: 0
    kernel_size: 4
    group: 1
    stride: 1
    weight_filler {
      type: "xavier"
    }
  }
}
layer {
  name: "conv3_relu"
  type: "ReLU"
  bottom: "conv3"
  top: "conv3"
}
layer {
  name: "pool3"
  type: "Pooling"
  bottom: "conv3"
  top: "pool3"
  pooling_param {
    pool: MAX
    kernel_size: 2
    stride: 2
  }
}
layer {
  name: "fc4_300"
  type: "InnerProduct"
  bottom: "pool3"
  top: "fc4_300"
  inner_product_param {
    num_output: 300
    weight_filler {
      type: "xavier"
    }
  }
}
layer {
  name: "fc4_relu"
  type: "ReLU"
  bottom: "fc4_300"
  top: "fc4_300"
}
layer {
  name: "drop4"
  type: "Dropout"
  bottom: "fc4_300"
  top: "fc4_300"
  dropout_param {
    dropout_ratio: 0.4
  }
}
layer {
  name: "fc5_67"
  type: "InnerProduct"
  bottom: "fc4_300"
  top: "fc5_classes"
  inner_product_param {
    num_output: 67
    weight_filler {
      type: "xavier"
    }
  }
}
layer {
  name: "loss"
  type: "SoftmaxWithLoss"
  bottom: "fc5_classes"
  bottom: "label"
  top: "loss"
}
layer {
  name: "accuracy_1"
  type: "Accuracy"
  bottom: "fc5_classes"
  bottom: "label"
  top: "accuracy_1"
  include {
    phase: TEST
  }
  accuracy_param {
    top_k: 1
  }
}
layer {
  name: "accuracy_5"
  type: "Accuracy"
  bottom: "fc5_classes"
  bottom: "label"
  top: "accuracy_5"
  include {
    phase: TEST
  }
  accuracy_param {
    top_k: 5
  }
}
I0402 00:07:46.582484  9927 layer_factory.hpp:77] Creating layer data
I0402 00:07:46.582806  9927 net.cpp:100] Creating Layer data
I0402 00:07:46.582818  9927 net.cpp:408] data -> data
I0402 00:07:46.582828  9927 net.cpp:408] data -> label
I0402 00:07:46.584451  9967 db_lmdb.cpp:35] Opened lmdb ../local_data/lmdb/rtsd-r1/orig/test/lmdb
I0402 00:07:46.584599  9927 data_layer.cpp:41] output data size: 512,3,48,48
I0402 00:07:46.610081  9927 net.cpp:150] Setting up data
I0402 00:07:46.610110  9927 net.cpp:157] Top shape: 512 3 48 48 (3538944)
I0402 00:07:46.610116  9927 net.cpp:157] Top shape: 512 (512)
I0402 00:07:46.610117  9927 net.cpp:165] Memory required for data: 14157824
I0402 00:07:46.610123  9927 layer_factory.hpp:77] Creating layer label_data_1_split
I0402 00:07:46.610137  9927 net.cpp:100] Creating Layer label_data_1_split
I0402 00:07:46.610142  9927 net.cpp:434] label_data_1_split <- label
I0402 00:07:46.610149  9927 net.cpp:408] label_data_1_split -> label_data_1_split_0
I0402 00:07:46.610159  9927 net.cpp:408] label_data_1_split -> label_data_1_split_1
I0402 00:07:46.610165  9927 net.cpp:408] label_data_1_split -> label_data_1_split_2
I0402 00:07:46.610303  9927 net.cpp:150] Setting up label_data_1_split
I0402 00:07:46.610313  9927 net.cpp:157] Top shape: 512 (512)
I0402 00:07:46.610334  9927 net.cpp:157] Top shape: 512 (512)
I0402 00:07:46.610339  9927 net.cpp:157] Top shape: 512 (512)
I0402 00:07:46.610342  9927 net.cpp:165] Memory required for data: 14163968
I0402 00:07:46.610345  9927 layer_factory.hpp:77] Creating layer conv1
I0402 00:07:46.610359  9927 net.cpp:100] Creating Layer conv1
I0402 00:07:46.610366  9927 net.cpp:434] conv1 <- data
I0402 00:07:46.610373  9927 net.cpp:408] conv1 -> conv1
I0402 00:07:46.613067  9927 net.cpp:150] Setting up conv1
I0402 00:07:46.613085  9927 net.cpp:157] Top shape: 512 100 42 42 (90316800)
I0402 00:07:46.613090  9927 net.cpp:165] Memory required for data: 375431168
I0402 00:07:46.613101  9927 layer_factory.hpp:77] Creating layer conv1_relu
I0402 00:07:46.613109  9927 net.cpp:100] Creating Layer conv1_relu
I0402 00:07:46.613114  9927 net.cpp:434] conv1_relu <- conv1
I0402 00:07:46.613119  9927 net.cpp:395] conv1_relu -> conv1 (in-place)
I0402 00:07:46.613293  9927 net.cpp:150] Setting up conv1_relu
I0402 00:07:46.613304  9927 net.cpp:157] Top shape: 512 100 42 42 (90316800)
I0402 00:07:46.613307  9927 net.cpp:165] Memory required for data: 736698368
I0402 00:07:46.613312  9927 layer_factory.hpp:77] Creating layer pool1
I0402 00:07:46.613320  9927 net.cpp:100] Creating Layer pool1
I0402 00:07:46.613323  9927 net.cpp:434] pool1 <- conv1
I0402 00:07:46.613328  9927 net.cpp:408] pool1 -> pool1
I0402 00:07:46.613371  9927 net.cpp:150] Setting up pool1
I0402 00:07:46.613379  9927 net.cpp:157] Top shape: 512 100 21 21 (22579200)
I0402 00:07:46.613384  9927 net.cpp:165] Memory required for data: 827015168
I0402 00:07:46.613386  9927 layer_factory.hpp:77] Creating layer conv2
I0402 00:07:46.613394  9927 net.cpp:100] Creating Layer conv2
I0402 00:07:46.613397  9927 net.cpp:434] conv2 <- pool1
I0402 00:07:46.613404  9927 net.cpp:408] conv2 -> conv2
I0402 00:07:46.616237  9927 net.cpp:150] Setting up conv2
I0402 00:07:46.616272  9927 net.cpp:157] Top shape: 512 150 18 18 (24883200)
I0402 00:07:46.616276  9927 net.cpp:165] Memory required for data: 926547968
I0402 00:07:46.616286  9927 layer_factory.hpp:77] Creating layer conv2_relu
I0402 00:07:46.616292  9927 net.cpp:100] Creating Layer conv2_relu
I0402 00:07:46.616295  9927 net.cpp:434] conv2_relu <- conv2
I0402 00:07:46.616302  9927 net.cpp:395] conv2_relu -> conv2 (in-place)
I0402 00:07:46.617064  9927 net.cpp:150] Setting up conv2_relu
I0402 00:07:46.617079  9927 net.cpp:157] Top shape: 512 150 18 18 (24883200)
I0402 00:07:46.617095  9927 net.cpp:165] Memory required for data: 1026080768
I0402 00:07:46.617099  9927 layer_factory.hpp:77] Creating layer pool2
I0402 00:07:46.617105  9927 net.cpp:100] Creating Layer pool2
I0402 00:07:46.617108  9927 net.cpp:434] pool2 <- conv2
I0402 00:07:46.617115  9927 net.cpp:408] pool2 -> pool2
I0402 00:07:46.617161  9927 net.cpp:150] Setting up pool2
I0402 00:07:46.617171  9927 net.cpp:157] Top shape: 512 150 9 9 (6220800)
I0402 00:07:46.617173  9927 net.cpp:165] Memory required for data: 1050963968
I0402 00:07:46.617177  9927 layer_factory.hpp:77] Creating layer conv3
I0402 00:07:46.617185  9927 net.cpp:100] Creating Layer conv3
I0402 00:07:46.617189  9927 net.cpp:434] conv3 <- pool2
I0402 00:07:46.617194  9927 net.cpp:408] conv3 -> conv3
I0402 00:07:46.625257  9927 net.cpp:150] Setting up conv3
I0402 00:07:46.625275  9927 net.cpp:157] Top shape: 512 250 6 6 (4608000)
I0402 00:07:46.625279  9927 net.cpp:165] Memory required for data: 1069395968
I0402 00:07:46.625290  9927 layer_factory.hpp:77] Creating layer conv3_relu
I0402 00:07:46.625296  9927 net.cpp:100] Creating Layer conv3_relu
I0402 00:07:46.625300  9927 net.cpp:434] conv3_relu <- conv3
I0402 00:07:46.625305  9927 net.cpp:395] conv3_relu -> conv3 (in-place)
I0402 00:07:46.626050  9927 net.cpp:150] Setting up conv3_relu
I0402 00:07:46.626065  9927 net.cpp:157] Top shape: 512 250 6 6 (4608000)
I0402 00:07:46.626070  9927 net.cpp:165] Memory required for data: 1087827968
I0402 00:07:46.626073  9927 layer_factory.hpp:77] Creating layer pool3
I0402 00:07:46.626080  9927 net.cpp:100] Creating Layer pool3
I0402 00:07:46.626098  9927 net.cpp:434] pool3 <- conv3
I0402 00:07:46.626106  9927 net.cpp:408] pool3 -> pool3
I0402 00:07:46.626153  9927 net.cpp:150] Setting up pool3
I0402 00:07:46.626161  9927 net.cpp:157] Top shape: 512 250 3 3 (1152000)
I0402 00:07:46.626165  9927 net.cpp:165] Memory required for data: 1092435968
I0402 00:07:46.626168  9927 layer_factory.hpp:77] Creating layer fc4_300
I0402 00:07:46.626175  9927 net.cpp:100] Creating Layer fc4_300
I0402 00:07:46.626178  9927 net.cpp:434] fc4_300 <- pool3
I0402 00:07:46.626183  9927 net.cpp:408] fc4_300 -> fc4_300
I0402 00:07:46.631561  9927 net.cpp:150] Setting up fc4_300
I0402 00:07:46.631579  9927 net.cpp:157] Top shape: 512 300 (153600)
I0402 00:07:46.631582  9927 net.cpp:165] Memory required for data: 1093050368
I0402 00:07:46.631590  9927 layer_factory.hpp:77] Creating layer fc4_relu
I0402 00:07:46.631597  9927 net.cpp:100] Creating Layer fc4_relu
I0402 00:07:46.631602  9927 net.cpp:434] fc4_relu <- fc4_300
I0402 00:07:46.631606  9927 net.cpp:395] fc4_relu -> fc4_300 (in-place)
I0402 00:07:46.631793  9927 net.cpp:150] Setting up fc4_relu
I0402 00:07:46.631804  9927 net.cpp:157] Top shape: 512 300 (153600)
I0402 00:07:46.631808  9927 net.cpp:165] Memory required for data: 1093664768
I0402 00:07:46.631810  9927 layer_factory.hpp:77] Creating layer drop4
I0402 00:07:46.631817  9927 net.cpp:100] Creating Layer drop4
I0402 00:07:46.631820  9927 net.cpp:434] drop4 <- fc4_300
I0402 00:07:46.631825  9927 net.cpp:395] drop4 -> fc4_300 (in-place)
I0402 00:07:46.631852  9927 net.cpp:150] Setting up drop4
I0402 00:07:46.631860  9927 net.cpp:157] Top shape: 512 300 (153600)
I0402 00:07:46.631863  9927 net.cpp:165] Memory required for data: 1094279168
I0402 00:07:46.631865  9927 layer_factory.hpp:77] Creating layer fc5_67
I0402 00:07:46.631872  9927 net.cpp:100] Creating Layer fc5_67
I0402 00:07:46.631875  9927 net.cpp:434] fc5_67 <- fc4_300
I0402 00:07:46.631880  9927 net.cpp:408] fc5_67 -> fc5_classes
I0402 00:07:46.633183  9927 net.cpp:150] Setting up fc5_67
I0402 00:07:46.633195  9927 net.cpp:157] Top shape: 512 67 (34304)
I0402 00:07:46.633198  9927 net.cpp:165] Memory required for data: 1094416384
I0402 00:07:46.633208  9927 layer_factory.hpp:77] Creating layer fc5_classes_fc5_67_0_split
I0402 00:07:46.633220  9927 net.cpp:100] Creating Layer fc5_classes_fc5_67_0_split
I0402 00:07:46.633224  9927 net.cpp:434] fc5_classes_fc5_67_0_split <- fc5_classes
I0402 00:07:46.633230  9927 net.cpp:408] fc5_classes_fc5_67_0_split -> fc5_classes_fc5_67_0_split_0
I0402 00:07:46.633237  9927 net.cpp:408] fc5_classes_fc5_67_0_split -> fc5_classes_fc5_67_0_split_1
I0402 00:07:46.633244  9927 net.cpp:408] fc5_classes_fc5_67_0_split -> fc5_classes_fc5_67_0_split_2
I0402 00:07:46.633302  9927 net.cpp:150] Setting up fc5_classes_fc5_67_0_split
I0402 00:07:46.633311  9927 net.cpp:157] Top shape: 512 67 (34304)
I0402 00:07:46.633314  9927 net.cpp:157] Top shape: 512 67 (34304)
I0402 00:07:46.633318  9927 net.cpp:157] Top shape: 512 67 (34304)
I0402 00:07:46.633321  9927 net.cpp:165] Memory required for data: 1094828032
I0402 00:07:46.633323  9927 layer_factory.hpp:77] Creating layer loss
I0402 00:07:46.633332  9927 net.cpp:100] Creating Layer loss
I0402 00:07:46.633335  9927 net.cpp:434] loss <- fc5_classes_fc5_67_0_split_0
I0402 00:07:46.633340  9927 net.cpp:434] loss <- label_data_1_split_0
I0402 00:07:46.633345  9927 net.cpp:408] loss -> loss
…
