…
I0402 02:03:23.905246 12316 net.cpp:322] The NetState phase (0) differed from the phase (1) specified by a rule in layer accuracy_5
I0402 02:03:23.905428 12316 net.cpp:58] Initializing net from parameters: 
state {
  phase: TRAIN
  level: 0
  stage: ""
}
layer {
  name: "data"
  type: "Data"
  top: "data"
  top: "label"
  include {
    phase: TRAIN
  }
  transform_param {
    mirror: false
    crop_size: 48
    mean_value: 122
    mean_value: 115
    mean_value: 129
  }
  data_param {
    source: "../local_data/lmdb/rtsd-r1/orig/train/lmdb"
    batch_size: 512
    backend: LMDB
  }
}
layer {
  name: "conv1"
  type: "Convolution"
  bottom: "data"
  top: "conv1"
  convolution_param {
    num_output: 100
    pad: 0
    kernel_size: 7
    group: 1
    stride: 1
    weight_filler {
      type: "xavier"
    }
  }
}
layer {
  name: "conv1_relu"
  type: "ReLU"
  bottom: "conv1"
  top: "conv1"
}
layer {
  name: "pool1"
  type: "Pooling"
  bottom: "conv1"
  top: "pool1"
  pooling_param {
    pool: MAX
    kernel_size: 2
    stride: 2
  }
}
layer {
  name: "conv2"
  type: "Convolution"
  bottom: "pool1"
  top: "conv2"
  convolution_param {
    num_output: 150
    pad: 0
    kernel_size: 4
    group: 1
    stride: 1
    weight_filler {
      type: "xavier"
    }
  }
}
layer {
  name: "conv2_relu"
  type: "ReLU"
  bottom: "conv2"
  top: "conv2"
}
layer {
  name: "pool2"
  type: "Pooling"
  bottom: "conv2"
  top: "pool2"
  pooling_param {
    pool: MAX
    kernel_size: 2
    stride: 2
  }
}
layer {
  name: "conv3"
  type: "Convolution"
  bottom: "pool2"
  top: "conv3"
  convolution_param {
    num_output: 250
    pad: 0
    kernel_size: 4
    group: 1
    stride: 1
    weight_filler {
      type: "xavier"
    }
  }
}
layer {
  name: "conv3_relu"
  type: "ReLU"
  bottom: "conv3"
  top: "conv3"
}
layer {
  name: "pool3"
  type: "Pooling"
  bottom: "conv3"
  top: "pool3"
  pooling_param {
    pool: MAX
    kernel_size: 2
    stride: 2
  }
}
layer {
  name: "fc4_300"
  type: "InnerProduct"
  bottom: "pool3"
  top: "fc4_300"
  inner_product_param {
    num_output: 300
    weight_filler {
      type: "xavier"
    }
  }
}
layer {
  name: "fc4_relu"
  type: "ReLU"
  bottom: "fc4_300"
  top: "fc4_300"
}
layer {
  name: "drop4"
  type: "Dropout"
  bottom: "fc4_300"
  top: "fc4_300"
  dropout_param {
    dropout_ratio: 0.4
  }
}
layer {
  name: "fc5_67"
  type: "InnerProduct"
  bottom: "fc4_300"
  top: "fc5_classes"
  inner_product_param {
    num_output: 67
    weight_filler {
      type: "xavier"
    }
  }
}
layer {
  name: "loss"
  type: "SoftmaxWithLoss"
  bottom: "fc5_classes"
  bottom: "label"
  top: "loss"
}
I0402 02:03:23.905565 12316 layer_factory.hpp:77] Creating layer data
I0402 02:03:23.906924 12316 net.cpp:100] Creating Layer data
I0402 02:03:23.906949 12316 net.cpp:408] data -> data
I0402 02:03:23.906985 12316 net.cpp:408] data -> label
I0402 02:03:23.908113 12363 db_lmdb.cpp:35] Opened lmdb ../local_data/lmdb/rtsd-r1/orig/train/lmdb
I0402 02:03:23.938886 12316 data_layer.cpp:41] output data size: 512,3,48,48
I0402 02:03:23.971925 12316 net.cpp:150] Setting up data
I0402 02:03:23.971969 12316 net.cpp:157] Top shape: 512 3 48 48 (3538944)
I0402 02:03:23.971979 12316 net.cpp:157] Top shape: 512 (512)
I0402 02:03:23.971984 12316 net.cpp:165] Memory required for data: 14157824
I0402 02:03:23.972026 12316 layer_factory.hpp:77] Creating layer conv1
I0402 02:03:23.972059 12316 net.cpp:100] Creating Layer conv1
I0402 02:03:23.972070 12316 net.cpp:434] conv1 <- data
I0402 02:03:23.972090 12316 net.cpp:408] conv1 -> conv1
I0402 02:03:24.308336 12316 net.cpp:150] Setting up conv1
I0402 02:03:24.308372 12316 net.cpp:157] Top shape: 512 100 42 42 (90316800)
I0402 02:03:24.308377 12316 net.cpp:165] Memory required for data: 375425024
I0402 02:03:24.308401 12316 layer_factory.hpp:77] Creating layer conv1_relu
I0402 02:03:24.308415 12316 net.cpp:100] Creating Layer conv1_relu
I0402 02:03:24.308421 12316 net.cpp:434] conv1_relu <- conv1
I0402 02:03:24.308429 12316 net.cpp:395] conv1_relu -> conv1 (in-place)
I0402 02:03:24.308687 12316 net.cpp:150] Setting up conv1_relu
I0402 02:03:24.308704 12316 net.cpp:157] Top shape: 512 100 42 42 (90316800)
I0402 02:03:24.308709 12316 net.cpp:165] Memory required for data: 736692224
I0402 02:03:24.308714 12316 layer_factory.hpp:77] Creating layer pool1
I0402 02:03:24.308723 12316 net.cpp:100] Creating Layer pool1
I0402 02:03:24.308727 12316 net.cpp:434] pool1 <- conv1
I0402 02:03:24.308734 12316 net.cpp:408] pool1 -> pool1
I0402 02:03:24.308800 12316 net.cpp:150] Setting up pool1
I0402 02:03:24.308811 12316 net.cpp:157] Top shape: 512 100 21 21 (22579200)
I0402 02:03:24.308815 12316 net.cpp:165] Memory required for data: 827009024
I0402 02:03:24.308820 12316 layer_factory.hpp:77] Creating layer conv2
I0402 02:03:24.308835 12316 net.cpp:100] Creating Layer conv2
I0402 02:03:24.308840 12316 net.cpp:434] conv2 <- pool1
I0402 02:03:24.308846 12316 net.cpp:408] conv2 -> conv2
I0402 02:03:24.314157 12316 net.cpp:150] Setting up conv2
I0402 02:03:24.314184 12316 net.cpp:157] Top shape: 512 150 18 18 (24883200)
I0402 02:03:24.314190 12316 net.cpp:165] Memory required for data: 926541824
I0402 02:03:24.314203 12316 layer_factory.hpp:77] Creating layer conv2_relu
I0402 02:03:24.314211 12316 net.cpp:100] Creating Layer conv2_relu
I0402 02:03:24.314215 12316 net.cpp:434] conv2_relu <- conv2
I0402 02:03:24.314224 12316 net.cpp:395] conv2_relu -> conv2 (in-place)
I0402 02:03:24.315176 12316 net.cpp:150] Setting up conv2_relu
I0402 02:03:24.315196 12316 net.cpp:157] Top shape: 512 150 18 18 (24883200)
I0402 02:03:24.315201 12316 net.cpp:165] Memory required for data: 1026074624
I0402 02:03:24.315204 12316 layer_factory.hpp:77] Creating layer pool2
I0402 02:03:24.315212 12316 net.cpp:100] Creating Layer pool2
I0402 02:03:24.315217 12316 net.cpp:434] pool2 <- conv2
I0402 02:03:24.315224 12316 net.cpp:408] pool2 -> pool2
I0402 02:03:24.315279 12316 net.cpp:150] Setting up pool2
I0402 02:03:24.315289 12316 net.cpp:157] Top shape: 512 150 9 9 (6220800)
I0402 02:03:24.315292 12316 net.cpp:165] Memory required for data: 1050957824
I0402 02:03:24.315296 12316 layer_factory.hpp:77] Creating layer conv3
I0402 02:03:24.315306 12316 net.cpp:100] Creating Layer conv3
I0402 02:03:24.315311 12316 net.cpp:434] conv3 <- pool2
I0402 02:03:24.315317 12316 net.cpp:408] conv3 -> conv3
I0402 02:03:24.322154 12316 net.cpp:150] Setting up conv3
I0402 02:03:24.322175 12316 net.cpp:157] Top shape: 512 250 6 6 (4608000)
I0402 02:03:24.322180 12316 net.cpp:165] Memory required for data: 1069389824
I0402 02:03:24.322193 12316 layer_factory.hpp:77] Creating layer conv3_relu
I0402 02:03:24.322203 12316 net.cpp:100] Creating Layer conv3_relu
I0402 02:03:24.322208 12316 net.cpp:434] conv3_relu <- conv3
I0402 02:03:24.322214 12316 net.cpp:395] conv3_relu -> conv3 (in-place)
I0402 02:03:24.323174 12316 net.cpp:150] Setting up conv3_relu
I0402 02:03:24.323194 12316 net.cpp:157] Top shape: 512 250 6 6 (4608000)
I0402 02:03:24.323197 12316 net.cpp:165] Memory required for data: 1087821824
I0402 02:03:24.323202 12316 layer_factory.hpp:77] Creating layer pool3
I0402 02:03:24.323210 12316 net.cpp:100] Creating Layer pool3
I0402 02:03:24.323215 12316 net.cpp:434] pool3 <- conv3
I0402 02:03:24.323227 12316 net.cpp:408] pool3 -> pool3
I0402 02:03:24.323287 12316 net.cpp:150] Setting up pool3
I0402 02:03:24.323317 12316 net.cpp:157] Top shape: 512 250 3 3 (1152000)
I0402 02:03:24.323321 12316 net.cpp:165] Memory required for data: 1092429824
I0402 02:03:24.323325 12316 layer_factory.hpp:77] Creating layer fc4_300
I0402 02:03:24.323334 12316 net.cpp:100] Creating Layer fc4_300
I0402 02:03:24.323338 12316 net.cpp:434] fc4_300 <- pool3
I0402 02:03:24.323344 12316 net.cpp:408] fc4_300 -> fc4_300
I0402 02:03:24.330096 12316 net.cpp:150] Setting up fc4_300
I0402 02:03:24.330117 12316 net.cpp:157] Top shape: 512 300 (153600)
I0402 02:03:24.330122 12316 net.cpp:165] Memory required for data: 1093044224
I0402 02:03:24.330130 12316 layer_factory.hpp:77] Creating layer fc4_relu
I0402 02:03:24.330138 12316 net.cpp:100] Creating Layer fc4_relu
I0402 02:03:24.330142 12316 net.cpp:434] fc4_relu <- fc4_300
I0402 02:03:24.330149 12316 net.cpp:395] fc4_relu -> fc4_300 (in-place)
I0402 02:03:24.330389 12316 net.cpp:150] Setting up fc4_relu
I0402 02:03:24.330404 12316 net.cpp:157] Top shape: 512 300 (153600)
I0402 02:03:24.330406 12316 net.cpp:165] Memory required for data: 1093658624
I0402 02:03:24.330412 12316 layer_factory.hpp:77] Creating layer drop4
I0402 02:03:24.330420 12316 net.cpp:100] Creating Layer drop4
I0402 02:03:24.330425 12316 net.cpp:434] drop4 <- fc4_300
I0402 02:03:24.330432 12316 net.cpp:395] drop4 -> fc4_300 (in-place)
I0402 02:03:24.330473 12316 net.cpp:150] Setting up drop4
I0402 02:03:24.330484 12316 net.cpp:157] Top shape: 512 300 (153600)
I0402 02:03:24.330488 12316 net.cpp:165] Memory required for data: 1094273024
I0402 02:03:24.330492 12316 layer_factory.hpp:77] Creating layer fc5_67
I0402 02:03:24.330500 12316 net.cpp:100] Creating Layer fc5_67
I0402 02:03:24.330504 12316 net.cpp:434] fc5_67 <- fc4_300
I0402 02:03:24.330510 12316 net.cpp:408] fc5_67 -> fc5_classes
I0402 02:03:24.331998 12316 net.cpp:150] Setting up fc5_67
I0402 02:03:24.332017 12316 net.cpp:157] Top shape: 512 67 (34304)
I0402 02:03:24.332021 12316 net.cpp:165] Memory required for data: 1094410240
I0402 02:03:24.332036 12316 layer_factory.hpp:77] Creating layer loss
I0402 02:03:24.332044 12316 net.cpp:100] Creating Layer loss
I0402 02:03:24.332048 12316 net.cpp:434] loss <- fc5_classes
I0402 02:03:24.332054 12316 net.cpp:434] loss <- label
I0402 02:03:24.332062 12316 net.cpp:408] loss -> loss
I0402 02:03:24.332077 12316 layer_factory.hpp:77] Creating layer loss
…
I0402 02:03:24.332862 12316 solver.cpp:193] Creating test net (#0) specified by test_net file: ./Prototxt/rtsd-r1/orig/test.prototxt
I0402 02:03:24.333032 12316 net.cpp:58] Initializing net from parameters: 
state {
  phase: TEST
}
layer {
  name: "data"
  type: "Data"
  top: "data"
  top: "label"
  include {
    phase: TEST
  }
  transform_param {
    mirror: false
    crop_size: 48
    mean_value: 113
    mean_value: 110
    mean_value: 132
  }
  data_param {
    source: "../local_data/lmdb/rtsd-r1/orig/test/lmdb"
    batch_size: 512
    backend: LMDB
  }
}
layer {
  name: "conv1"
  type: "Convolution"
  bottom: "data"
  top: "conv1"
  convolution_param {
    num_output: 100
    pad: 0
    kernel_size: 7
    group: 1
    stride: 1
    weight_filler {
      type: "xavier"
    }
  }
}
layer {
  name: "conv1_relu"
  type: "ReLU"
  bottom: "conv1"
  top: "conv1"
}
layer {
  name: "pool1"
  type: "Pooling"
  bottom: "conv1"
  top: "pool1"
  pooling_param {
    pool: MAX
    kernel_size: 2
    stride: 2
  }
}
layer {
  name: "conv2"
  type: "Convolution"
  bottom: "pool1"
  top: "conv2"
  convolution_param {
    num_output: 150
    pad: 0
    kernel_size: 4
    group: 1
    stride: 1
    weight_filler {
      type: "xavier"
    }
  }
}
layer {
  name: "conv2_relu"
  type: "ReLU"
  bottom: "conv2"
  top: "conv2"
}
layer {
  name: "pool2"
  type: "Pooling"
  bottom: "conv2"
  top: "pool2"
  pooling_param {
    pool: MAX
    kernel_size: 2
    stride: 2
  }
}
layer {
  name: "conv3"
  type: "Convolution"
  bottom: "pool2"
  top: "conv3"
  convolution_param {
    num_output: 250
    pad: 0
    kernel_size: 4
    group: 1
    stride: 1
    weight_filler {
      type: "xavier"
    }
  }
}
layer {
  name: "conv3_relu"
  type: "ReLU"
  bottom: "conv3"
  top: "conv3"
}
layer {
  name: "pool3"
  type: "Pooling"
  bottom: "conv3"
  top: "pool3"
  pooling_param {
    pool: MAX
    kernel_size: 2
    stride: 2
  }
}
layer {
  name: "fc4_300"
  type: "InnerProduct"
  bottom: "pool3"
  top: "fc4_300"
  inner_product_param {
    num_output: 300
    weight_filler {
      type: "xavier"
    }
  }
}
layer {
  name: "fc4_relu"
  type: "ReLU"
  bottom: "fc4_300"
  top: "fc4_300"
}
layer {
  name: "drop4"
  type: "Dropout"
  bottom: "fc4_300"
  top: "fc4_300"
  dropout_param {
    dropout_ratio: 0.4
  }
}
layer {
  name: "fc5_67"
  type: "InnerProduct"
  bottom: "fc4_300"
  top: "fc5_classes"
  inner_product_param {
    num_output: 67
    weight_filler {
      type: "xavier"
    }
  }
}
layer {
  name: "loss"
  type: "SoftmaxWithLoss"
  bottom: "fc5_classes"
  bottom: "label"
  top: "loss"
}
layer {
  name: "accuracy_1"
  type: "Accuracy"
  bottom: "fc5_classes"
  bottom: "label"
  top: "accuracy_1"
  include {
    phase: TEST
  }
  accuracy_param {
    top_k: 1
  }
}
layer {
  name: "accuracy_5"
  type: "Accuracy"
  bottom: "fc5_classes"
  bottom: "label"
  top: "accuracy_5"
  include {
    phase: TEST
  }
  accuracy_param {
    top_k: 5
  }
}
I0402 02:03:24.333153 12316 layer_factory.hpp:77] Creating layer data
I0402 02:03:24.333619 12316 net.cpp:100] Creating Layer data
I0402 02:03:24.333634 12316 net.cpp:408] data -> data
I0402 02:03:24.333645 12316 net.cpp:408] data -> label
I0402 02:03:24.335278 12374 db_lmdb.cpp:35] Opened lmdb ../local_data/lmdb/rtsd-r1/orig/test/lmdb
I0402 02:03:24.335556 12316 data_layer.cpp:41] output data size: 512,3,48,48
I0402 02:03:24.360672 12316 net.cpp:150] Setting up data
I0402 02:03:24.360705 12316 net.cpp:157] Top shape: 512 3 48 48 (3538944)
I0402 02:03:24.360713 12316 net.cpp:157] Top shape: 512 (512)
I0402 02:03:24.360715 12316 net.cpp:165] Memory required for data: 14157824
I0402 02:03:24.360723 12316 layer_factory.hpp:77] Creating layer label_data_1_split
I0402 02:03:24.360739 12316 net.cpp:100] Creating Layer label_data_1_split
I0402 02:03:24.360744 12316 net.cpp:434] label_data_1_split <- label
I0402 02:03:24.360754 12316 net.cpp:408] label_data_1_split -> label_data_1_split_0
I0402 02:03:24.360769 12316 net.cpp:408] label_data_1_split -> label_data_1_split_1
I0402 02:03:24.360780 12316 net.cpp:408] label_data_1_split -> label_data_1_split_2
I0402 02:03:24.360911 12316 net.cpp:150] Setting up label_data_1_split
I0402 02:03:24.360925 12316 net.cpp:157] Top shape: 512 (512)
I0402 02:03:24.360950 12316 net.cpp:157] Top shape: 512 (512)
I0402 02:03:24.360956 12316 net.cpp:157] Top shape: 512 (512)
I0402 02:03:24.360960 12316 net.cpp:165] Memory required for data: 14163968
I0402 02:03:24.360965 12316 layer_factory.hpp:77] Creating layer conv1
I0402 02:03:24.360981 12316 net.cpp:100] Creating Layer conv1
I0402 02:03:24.360987 12316 net.cpp:434] conv1 <- data
I0402 02:03:24.360996 12316 net.cpp:408] conv1 -> conv1
I0402 02:03:24.364222 12316 net.cpp:150] Setting up conv1
I0402 02:03:24.364262 12316 net.cpp:157] Top shape: 512 100 42 42 (90316800)
I0402 02:03:24.364269 12316 net.cpp:165] Memory required for data: 375431168
I0402 02:03:24.364284 12316 layer_factory.hpp:77] Creating layer conv1_relu
I0402 02:03:24.364293 12316 net.cpp:100] Creating Layer conv1_relu
I0402 02:03:24.364298 12316 net.cpp:434] conv1_relu <- conv1
I0402 02:03:24.364308 12316 net.cpp:395] conv1_relu -> conv1 (in-place)
I0402 02:03:24.364565 12316 net.cpp:150] Setting up conv1_relu
I0402 02:03:24.364580 12316 net.cpp:157] Top shape: 512 100 42 42 (90316800)
I0402 02:03:24.364584 12316 net.cpp:165] Memory required for data: 736698368
I0402 02:03:24.364589 12316 layer_factory.hpp:77] Creating layer pool1
I0402 02:03:24.364601 12316 net.cpp:100] Creating Layer pool1
I0402 02:03:24.364609 12316 net.cpp:434] pool1 <- conv1
I0402 02:03:24.364616 12316 net.cpp:408] pool1 -> pool1
I0402 02:03:24.364679 12316 net.cpp:150] Setting up pool1
I0402 02:03:24.364691 12316 net.cpp:157] Top shape: 512 100 21 21 (22579200)
I0402 02:03:24.364694 12316 net.cpp:165] Memory required for data: 827015168
I0402 02:03:24.364698 12316 layer_factory.hpp:77] Creating layer conv2
I0402 02:03:24.364711 12316 net.cpp:100] Creating Layer conv2
I0402 02:03:24.364717 12316 net.cpp:434] conv2 <- pool1
I0402 02:03:24.364724 12316 net.cpp:408] conv2 -> conv2
I0402 02:03:24.368366 12316 net.cpp:150] Setting up conv2
I0402 02:03:24.368386 12316 net.cpp:157] Top shape: 512 150 18 18 (24883200)
I0402 02:03:24.368391 12316 net.cpp:165] Memory required for data: 926547968
I0402 02:03:24.368403 12316 layer_factory.hpp:77] Creating layer conv2_relu
I0402 02:03:24.368414 12316 net.cpp:100] Creating Layer conv2_relu
I0402 02:03:24.368419 12316 net.cpp:434] conv2_relu <- conv2
I0402 02:03:24.368425 12316 net.cpp:395] conv2_relu -> conv2 (in-place)
I0402 02:03:24.369397 12316 net.cpp:150] Setting up conv2_relu
I0402 02:03:24.369417 12316 net.cpp:157] Top shape: 512 150 18 18 (24883200)
I0402 02:03:24.369426 12316 net.cpp:165] Memory required for data: 1026080768
I0402 02:03:24.369431 12316 layer_factory.hpp:77] Creating layer pool2
I0402 02:03:24.369438 12316 net.cpp:100] Creating Layer pool2
I0402 02:03:24.369453 12316 net.cpp:434] pool2 <- conv2
I0402 02:03:24.369460 12316 net.cpp:408] pool2 -> pool2
I0402 02:03:24.369524 12316 net.cpp:150] Setting up pool2
I0402 02:03:24.369536 12316 net.cpp:157] Top shape: 512 150 9 9 (6220800)
I0402 02:03:24.369540 12316 net.cpp:165] Memory required for data: 1050963968
I0402 02:03:24.369545 12316 layer_factory.hpp:77] Creating layer conv3
I0402 02:03:24.369560 12316 net.cpp:100] Creating Layer conv3
I0402 02:03:24.369566 12316 net.cpp:434] conv3 <- pool2
I0402 02:03:24.369573 12316 net.cpp:408] conv3 -> conv3
I0402 02:03:24.376474 12316 net.cpp:150] Setting up conv3
I0402 02:03:24.376497 12316 net.cpp:157] Top shape: 512 250 6 6 (4608000)
I0402 02:03:24.376502 12316 net.cpp:165] Memory required for data: 1069395968
I0402 02:03:24.376514 12316 layer_factory.hpp:77] Creating layer conv3_relu
I0402 02:03:24.376523 12316 net.cpp:100] Creating Layer conv3_relu
I0402 02:03:24.376528 12316 net.cpp:434] conv3_relu <- conv3
I0402 02:03:24.376536 12316 net.cpp:395] conv3_relu -> conv3 (in-place)
I0402 02:03:24.377490 12316 net.cpp:150] Setting up conv3_relu
I0402 02:03:24.377511 12316 net.cpp:157] Top shape: 512 250 6 6 (4608000)
I0402 02:03:24.377514 12316 net.cpp:165] Memory required for data: 1087827968
I0402 02:03:24.377519 12316 layer_factory.hpp:77] Creating layer pool3
I0402 02:03:24.377527 12316 net.cpp:100] Creating Layer pool3
I0402 02:03:24.377548 12316 net.cpp:434] pool3 <- conv3
I0402 02:03:24.377559 12316 net.cpp:408] pool3 -> pool3
I0402 02:03:24.377629 12316 net.cpp:150] Setting up pool3
I0402 02:03:24.377638 12316 net.cpp:157] Top shape: 512 250 3 3 (1152000)
I0402 02:03:24.377642 12316 net.cpp:165] Memory required for data: 1092435968
I0402 02:03:24.377646 12316 layer_factory.hpp:77] Creating layer fc4_300
I0402 02:03:24.377657 12316 net.cpp:100] Creating Layer fc4_300
I0402 02:03:24.377665 12316 net.cpp:434] fc4_300 <- pool3
I0402 02:03:24.377672 12316 net.cpp:408] fc4_300 -> fc4_300
I0402 02:03:24.384336 12316 net.cpp:150] Setting up fc4_300
I0402 02:03:24.384356 12316 net.cpp:157] Top shape: 512 300 (153600)
I0402 02:03:24.384359 12316 net.cpp:165] Memory required for data: 1093050368
I0402 02:03:24.384368 12316 layer_factory.hpp:77] Creating layer fc4_relu
I0402 02:03:24.384378 12316 net.cpp:100] Creating Layer fc4_relu
I0402 02:03:24.384383 12316 net.cpp:434] fc4_relu <- fc4_300
I0402 02:03:24.384389 12316 net.cpp:395] fc4_relu -> fc4_300 (in-place)
I0402 02:03:24.384635 12316 net.cpp:150] Setting up fc4_relu
I0402 02:03:24.384651 12316 net.cpp:157] Top shape: 512 300 (153600)
I0402 02:03:24.384655 12316 net.cpp:165] Memory required for data: 1093664768
I0402 02:03:24.384660 12316 layer_factory.hpp:77] Creating layer drop4
I0402 02:03:24.384667 12316 net.cpp:100] Creating Layer drop4
I0402 02:03:24.384671 12316 net.cpp:434] drop4 <- fc4_300
I0402 02:03:24.384680 12316 net.cpp:395] drop4 -> fc4_300 (in-place)
I0402 02:03:24.384719 12316 net.cpp:150] Setting up drop4
I0402 02:03:24.384728 12316 net.cpp:157] Top shape: 512 300 (153600)
I0402 02:03:24.384732 12316 net.cpp:165] Memory required for data: 1094279168
I0402 02:03:24.384737 12316 layer_factory.hpp:77] Creating layer fc5_67
I0402 02:03:24.384747 12316 net.cpp:100] Creating Layer fc5_67
I0402 02:03:24.384753 12316 net.cpp:434] fc5_67 <- fc4_300
I0402 02:03:24.384759 12316 net.cpp:408] fc5_67 -> fc5_classes
I0402 02:03:24.385066 12316 net.cpp:150] Setting up fc5_67
I0402 02:03:24.385076 12316 net.cpp:157] Top shape: 512 67 (34304)
I0402 02:03:24.385079 12316 net.cpp:165] Memory required for data: 1094416384
I0402 02:03:24.385090 12316 layer_factory.hpp:77] Creating layer fc5_classes_fc5_67_0_split
I0402 02:03:24.385100 12316 net.cpp:100] Creating Layer fc5_classes_fc5_67_0_split
I0402 02:03:24.385104 12316 net.cpp:434] fc5_classes_fc5_67_0_split <- fc5_classes
I0402 02:03:24.385112 12316 net.cpp:408] fc5_classes_fc5_67_0_split -> fc5_classes_fc5_67_0_split_0
I0402 02:03:24.385119 12316 net.cpp:408] fc5_classes_fc5_67_0_split -> fc5_classes_fc5_67_0_split_1
I0402 02:03:24.385128 12316 net.cpp:408] fc5_classes_fc5_67_0_split -> fc5_classes_fc5_67_0_split_2
I0402 02:03:24.385193 12316 net.cpp:150] Setting up fc5_classes_fc5_67_0_split
I0402 02:03:24.385203 12316 net.cpp:157] Top shape: 512 67 (34304)
I0402 02:03:24.385207 12316 net.cpp:157] Top shape: 512 67 (34304)
I0402 02:03:24.385211 12316 net.cpp:157] Top shape: 512 67 (34304)
I0402 02:03:24.385215 12316 net.cpp:165] Memory required for data: 1094828032
I0402 02:03:24.385218 12316 layer_factory.hpp:77] Creating layer loss
I0402 02:03:24.385228 12316 net.cpp:100] Creating Layer loss
I0402 02:03:24.385233 12316 net.cpp:434] loss <- fc5_classes_fc5_67_0_split_0
I0402 02:03:24.385238 12316 net.cpp:434] loss <- label_data_1_split_0
I0402 02:03:24.385246 12316 net.cpp:408] loss -> loss
…
