…
I0402 02:25:17.498862 17603 net.cpp:322] The NetState phase (0) differed from the phase (1) specified by a rule in layer accuracy_5
I0402 02:25:17.498953 17603 net.cpp:58] Initializing net from parameters: 
state {
  phase: TRAIN
  level: 0
  stage: ""
}
layer {
  name: "data"
  type: "Data"
  top: "data"
  top: "label"
  include {
    phase: TRAIN
  }
  transform_param {
    mirror: false
    crop_size: 48
    mean_value: 122
    mean_value: 115
    mean_value: 129
  }
  data_param {
    source: "../local_data/lmdb/rtsd-r1/orig/train/lmdb"
    batch_size: 1024
    backend: LMDB
  }
}
layer {
  name: "conv1"
  type: "Convolution"
  bottom: "data"
  top: "conv1"
  convolution_param {
    num_output: 100
    pad: 0
    kernel_size: 7
    group: 1
    stride: 1
    weight_filler {
      type: "xavier"
    }
  }
}
layer {
  name: "conv1_relu"
  type: "ReLU"
  bottom: "conv1"
  top: "conv1"
}
layer {
  name: "pool1"
  type: "Pooling"
  bottom: "conv1"
  top: "pool1"
  pooling_param {
    pool: MAX
    kernel_size: 2
    stride: 2
  }
}
layer {
  name: "conv2"
  type: "Convolution"
  bottom: "pool1"
  top: "conv2"
  convolution_param {
    num_output: 150
    pad: 0
    kernel_size: 4
    group: 1
    stride: 1
    weight_filler {
      type: "xavier"
    }
  }
}
layer {
  name: "conv2_relu"
  type: "ReLU"
  bottom: "conv2"
  top: "conv2"
}
layer {
  name: "pool2"
  type: "Pooling"
  bottom: "conv2"
  top: "pool2"
  pooling_param {
    pool: MAX
    kernel_size: 2
    stride: 2
  }
}
layer {
  name: "conv3"
  type: "Convolution"
  bottom: "pool2"
  top: "conv3"
  convolution_param {
    num_output: 250
    pad: 0
    kernel_size: 4
    group: 1
    stride: 1
    weight_filler {
      type: "xavier"
    }
  }
}
layer {
  name: "conv3_relu"
  type: "ReLU"
  bottom: "conv3"
  top: "conv3"
}
layer {
  name: "pool3"
  type: "Pooling"
  bottom: "conv3"
  top: "pool3"
  pooling_param {
    pool: MAX
    kernel_size: 2
    stride: 2
  }
}
layer {
  name: "fc4_300"
  type: "InnerProduct"
  bottom: "pool3"
  top: "fc4_300"
  inner_product_param {
    num_output: 300
    weight_filler {
      type: "xavier"
    }
  }
}
layer {
  name: "fc4_relu"
  type: "ReLU"
  bottom: "fc4_300"
  top: "fc4_300"
}
layer {
  name: "drop4"
  type: "Dropout"
  bottom: "fc4_300"
  top: "fc4_300"
  dropout_param {
    dropout_ratio: 0.4
  }
}
layer {
  name: "fc5_67"
  type: "InnerProduct"
  bottom: "fc4_300"
  top: "fc5_classes"
  inner_product_param {
    num_output: 67
    weight_filler {
      type: "xavier"
    }
  }
}
layer {
  name: "loss"
  type: "SoftmaxWithLoss"
  bottom: "fc5_classes"
  bottom: "label"
  top: "loss"
}
I0402 02:25:17.499024 17603 layer_factory.hpp:77] Creating layer data
I0402 02:25:17.500083 17603 net.cpp:100] Creating Layer data
I0402 02:25:17.500097 17603 net.cpp:408] data -> data
I0402 02:25:17.500118 17603 net.cpp:408] data -> label
I0402 02:25:17.501785 17651 db_lmdb.cpp:35] Opened lmdb ../local_data/lmdb/rtsd-r1/orig/train/lmdb
I0402 02:25:17.518311 17603 data_layer.cpp:41] output data size: 1024,3,48,48
I0402 02:25:17.564316 17603 net.cpp:150] Setting up data
I0402 02:25:17.564347 17603 net.cpp:157] Top shape: 1024 3 48 48 (7077888)
I0402 02:25:17.564352 17603 net.cpp:157] Top shape: 1024 (1024)
I0402 02:25:17.564355 17603 net.cpp:165] Memory required for data: 28315648
I0402 02:25:17.564384 17603 layer_factory.hpp:77] Creating layer conv1
I0402 02:25:17.564410 17603 net.cpp:100] Creating Layer conv1
I0402 02:25:17.564419 17603 net.cpp:434] conv1 <- data
I0402 02:25:17.564430 17603 net.cpp:408] conv1 -> conv1
I0402 02:25:17.869076 17603 net.cpp:150] Setting up conv1
I0402 02:25:17.869103 17603 net.cpp:157] Top shape: 1024 100 42 42 (180633600)
I0402 02:25:17.869107 17603 net.cpp:165] Memory required for data: 750850048
I0402 02:25:17.869128 17603 layer_factory.hpp:77] Creating layer conv1_relu
I0402 02:25:17.869156 17603 net.cpp:100] Creating Layer conv1_relu
I0402 02:25:17.869161 17603 net.cpp:434] conv1_relu <- conv1
I0402 02:25:17.869168 17603 net.cpp:395] conv1_relu -> conv1 (in-place)
I0402 02:25:17.869355 17603 net.cpp:150] Setting up conv1_relu
I0402 02:25:17.869367 17603 net.cpp:157] Top shape: 1024 100 42 42 (180633600)
I0402 02:25:17.869370 17603 net.cpp:165] Memory required for data: 1473384448
I0402 02:25:17.869374 17603 layer_factory.hpp:77] Creating layer pool1
I0402 02:25:17.869381 17603 net.cpp:100] Creating Layer pool1
I0402 02:25:17.869385 17603 net.cpp:434] pool1 <- conv1
I0402 02:25:17.869390 17603 net.cpp:408] pool1 -> pool1
I0402 02:25:17.869442 17603 net.cpp:150] Setting up pool1
I0402 02:25:17.869451 17603 net.cpp:157] Top shape: 1024 100 21 21 (45158400)
I0402 02:25:17.869453 17603 net.cpp:165] Memory required for data: 1654018048
I0402 02:25:17.869457 17603 layer_factory.hpp:77] Creating layer conv2
I0402 02:25:17.869468 17603 net.cpp:100] Creating Layer conv2
I0402 02:25:17.869472 17603 net.cpp:434] conv2 <- pool1
I0402 02:25:17.869478 17603 net.cpp:408] conv2 -> conv2
I0402 02:25:17.882513 17603 net.cpp:150] Setting up conv2
I0402 02:25:17.882530 17603 net.cpp:157] Top shape: 1024 150 18 18 (49766400)
I0402 02:25:17.882534 17603 net.cpp:165] Memory required for data: 1853083648
I0402 02:25:17.882544 17603 layer_factory.hpp:77] Creating layer conv2_relu
I0402 02:25:17.882550 17603 net.cpp:100] Creating Layer conv2_relu
I0402 02:25:17.882553 17603 net.cpp:434] conv2_relu <- conv2
I0402 02:25:17.882558 17603 net.cpp:395] conv2_relu -> conv2 (in-place)
I0402 02:25:17.883476 17603 net.cpp:150] Setting up conv2_relu
I0402 02:25:17.883491 17603 net.cpp:157] Top shape: 1024 150 18 18 (49766400)
I0402 02:25:17.883493 17603 net.cpp:165] Memory required for data: 2052149248
I0402 02:25:17.883496 17603 layer_factory.hpp:77] Creating layer pool2
I0402 02:25:17.883503 17603 net.cpp:100] Creating Layer pool2
I0402 02:25:17.883507 17603 net.cpp:434] pool2 <- conv2
I0402 02:25:17.883512 17603 net.cpp:408] pool2 -> pool2
I0402 02:25:17.883555 17603 net.cpp:150] Setting up pool2
I0402 02:25:17.883563 17603 net.cpp:157] Top shape: 1024 150 9 9 (12441600)
I0402 02:25:17.883565 17603 net.cpp:165] Memory required for data: 2101915648
I0402 02:25:17.883569 17603 layer_factory.hpp:77] Creating layer conv3
I0402 02:25:17.883577 17603 net.cpp:100] Creating Layer conv3
I0402 02:25:17.883594 17603 net.cpp:434] conv3 <- pool2
I0402 02:25:17.883599 17603 net.cpp:408] conv3 -> conv3
I0402 02:25:17.889012 17603 net.cpp:150] Setting up conv3
I0402 02:25:17.889029 17603 net.cpp:157] Top shape: 1024 250 6 6 (9216000)
I0402 02:25:17.889034 17603 net.cpp:165] Memory required for data: 2138779648
I0402 02:25:17.889044 17603 layer_factory.hpp:77] Creating layer conv3_relu
I0402 02:25:17.889051 17603 net.cpp:100] Creating Layer conv3_relu
I0402 02:25:17.889056 17603 net.cpp:434] conv3_relu <- conv3
I0402 02:25:17.889061 17603 net.cpp:395] conv3_relu -> conv3 (in-place)
I0402 02:25:17.889837 17603 net.cpp:150] Setting up conv3_relu
I0402 02:25:17.889853 17603 net.cpp:157] Top shape: 1024 250 6 6 (9216000)
I0402 02:25:17.889856 17603 net.cpp:165] Memory required for data: 2175643648
I0402 02:25:17.889860 17603 layer_factory.hpp:77] Creating layer pool3
I0402 02:25:17.889868 17603 net.cpp:100] Creating Layer pool3
I0402 02:25:17.889871 17603 net.cpp:434] pool3 <- conv3
I0402 02:25:17.889878 17603 net.cpp:408] pool3 -> pool3
I0402 02:25:17.889928 17603 net.cpp:150] Setting up pool3
I0402 02:25:17.889955 17603 net.cpp:157] Top shape: 1024 250 3 3 (2304000)
I0402 02:25:17.889958 17603 net.cpp:165] Memory required for data: 2184859648
I0402 02:25:17.889961 17603 layer_factory.hpp:77] Creating layer fc4_300
I0402 02:25:17.889968 17603 net.cpp:100] Creating Layer fc4_300
I0402 02:25:17.889971 17603 net.cpp:434] fc4_300 <- pool3
I0402 02:25:17.889976 17603 net.cpp:408] fc4_300 -> fc4_300
I0402 02:25:17.895278 17603 net.cpp:150] Setting up fc4_300
I0402 02:25:17.895295 17603 net.cpp:157] Top shape: 1024 300 (307200)
I0402 02:25:17.895299 17603 net.cpp:165] Memory required for data: 2186088448
I0402 02:25:17.895305 17603 layer_factory.hpp:77] Creating layer fc4_relu
I0402 02:25:17.895311 17603 net.cpp:100] Creating Layer fc4_relu
I0402 02:25:17.895314 17603 net.cpp:434] fc4_relu <- fc4_300
I0402 02:25:17.895319 17603 net.cpp:395] fc4_relu -> fc4_300 (in-place)
I0402 02:25:17.895520 17603 net.cpp:150] Setting up fc4_relu
I0402 02:25:17.895531 17603 net.cpp:157] Top shape: 1024 300 (307200)
I0402 02:25:17.895534 17603 net.cpp:165] Memory required for data: 2187317248
I0402 02:25:17.895539 17603 layer_factory.hpp:77] Creating layer drop4
I0402 02:25:17.895545 17603 net.cpp:100] Creating Layer drop4
I0402 02:25:17.895550 17603 net.cpp:434] drop4 <- fc4_300
I0402 02:25:17.895555 17603 net.cpp:395] drop4 -> fc4_300 (in-place)
I0402 02:25:17.895586 17603 net.cpp:150] Setting up drop4
I0402 02:25:17.895596 17603 net.cpp:157] Top shape: 1024 300 (307200)
I0402 02:25:17.895598 17603 net.cpp:165] Memory required for data: 2188546048
I0402 02:25:17.895601 17603 layer_factory.hpp:77] Creating layer fc5_67
I0402 02:25:17.895607 17603 net.cpp:100] Creating Layer fc5_67
I0402 02:25:17.895611 17603 net.cpp:434] fc5_67 <- fc4_300
I0402 02:25:17.895615 17603 net.cpp:408] fc5_67 -> fc5_classes
I0402 02:25:17.896893 17603 net.cpp:150] Setting up fc5_67
I0402 02:25:17.896906 17603 net.cpp:157] Top shape: 1024 67 (68608)
I0402 02:25:17.896921 17603 net.cpp:165] Memory required for data: 2188820480
I0402 02:25:17.896934 17603 layer_factory.hpp:77] Creating layer loss
I0402 02:25:17.896940 17603 net.cpp:100] Creating Layer loss
I0402 02:25:17.896944 17603 net.cpp:434] loss <- fc5_classes
I0402 02:25:17.896947 17603 net.cpp:434] loss <- label
I0402 02:25:17.896953 17603 net.cpp:408] loss -> loss
I0402 02:25:17.896965 17603 layer_factory.hpp:77] Creating layer loss
…
I0402 02:25:17.897620 17603 solver.cpp:193] Creating test net (#0) specified by test_net file: ./Prototxt/rtsd-r1/orig/test.prototxt
I0402 02:25:17.897769 17603 net.cpp:58] Initializing net from parameters: 
state {
  phase: TEST
}
layer {
  name: "data"
  type: "Data"
  top: "data"
  top: "label"
  include {
    phase: TEST
  }
  transform_param {
    mirror: false
    crop_size: 48
    mean_value: 113
    mean_value: 110
    mean_value: 132
  }
  data_param {
    source: "../local_data/lmdb/rtsd-r1/orig/test/lmdb"
    batch_size: 1024
    backend: LMDB
  }
}
layer {
  name: "conv1"
  type: "Convolution"
  bottom: "data"
  top: "conv1"
  convolution_param {
    num_output: 100
    pad: 0
    kernel_size: 7
    group: 1
    stride: 1
    weight_filler {
      type: "xavier"
    }
  }
}
layer {
  name: "conv1_relu"
  type: "ReLU"
  bottom: "conv1"
  top: "conv1"
}
layer {
  name: "pool1"
  type: "Pooling"
  bottom: "conv1"
  top: "pool1"
  pooling_param {
    pool: MAX
    kernel_size: 2
    stride: 2
  }
}
layer {
  name: "conv2"
  type: "Convolution"
  bottom: "pool1"
  top: "conv2"
  convolution_param {
    num_output: 150
    pad: 0
    kernel_size: 4
    group: 1
    stride: 1
    weight_filler {
      type: "xavier"
    }
  }
}
layer {
  name: "conv2_relu"
  type: "ReLU"
  bottom: "conv2"
  top: "conv2"
}
layer {
  name: "pool2"
  type: "Pooling"
  bottom: "conv2"
  top: "pool2"
  pooling_param {
    pool: MAX
    kernel_size: 2
    stride: 2
  }
}
layer {
  name: "conv3"
  type: "Convolution"
  bottom: "pool2"
  top: "conv3"
  convolution_param {
    num_output: 250
    pad: 0
    kernel_size: 4
    group: 1
    stride: 1
    weight_filler {
      type: "xavier"
    }
  }
}
layer {
  name: "conv3_relu"
  type: "ReLU"
  bottom: "conv3"
  top: "conv3"
}
layer {
  name: "pool3"
  type: "Pooling"
  bottom: "conv3"
  top: "pool3"
  pooling_param {
    pool: MAX
    kernel_size: 2
    stride: 2
  }
}
layer {
  name: "fc4_300"
  type: "InnerProduct"
  bottom: "pool3"
  top: "fc4_300"
  inner_product_param {
    num_output: 300
    weight_filler {
      type: "xavier"
    }
  }
}
layer {
  name: "fc4_relu"
  type: "ReLU"
  bottom: "fc4_300"
  top: "fc4_300"
}
layer {
  name: "drop4"
  type: "Dropout"
  bottom: "fc4_300"
  top: "fc4_300"
  dropout_param {
    dropout_ratio: 0.4
  }
}
layer {
  name: "fc5_67"
  type: "InnerProduct"
  bottom: "fc4_300"
  top: "fc5_classes"
  inner_product_param {
    num_output: 67
    weight_filler {
      type: "xavier"
    }
  }
}
layer {
  name: "loss"
  type: "SoftmaxWithLoss"
  bottom: "fc5_classes"
  bottom: "label"
  top: "loss"
}
layer {
  name: "accuracy_1"
  type: "Accuracy"
  bottom: "fc5_classes"
  bottom: "label"
  top: "accuracy_1"
  include {
    phase: TEST
  }
  accuracy_param {
    top_k: 1
  }
}
layer {
  name: "accuracy_5"
  type: "Accuracy"
  bottom: "fc5_classes"
  bottom: "label"
  top: "accuracy_5"
  include {
    phase: TEST
  }
  accuracy_param {
    top_k: 5
  }
}
I0402 02:25:17.897881 17603 layer_factory.hpp:77] Creating layer data
I0402 02:25:17.898571 17603 net.cpp:100] Creating Layer data
I0402 02:25:17.898584 17603 net.cpp:408] data -> data
I0402 02:25:17.898593 17603 net.cpp:408] data -> label
I0402 02:25:17.899915 17662 db_lmdb.cpp:35] Opened lmdb ../local_data/lmdb/rtsd-r1/orig/test/lmdb
I0402 02:25:17.900055 17603 data_layer.cpp:41] output data size: 1024,3,48,48
I0402 02:25:17.940313 17603 net.cpp:150] Setting up data
I0402 02:25:17.940343 17603 net.cpp:157] Top shape: 1024 3 48 48 (7077888)
I0402 02:25:17.940348 17603 net.cpp:157] Top shape: 1024 (1024)
I0402 02:25:17.940351 17603 net.cpp:165] Memory required for data: 28315648
I0402 02:25:17.940357 17603 layer_factory.hpp:77] Creating layer label_data_1_split
I0402 02:25:17.940378 17603 net.cpp:100] Creating Layer label_data_1_split
I0402 02:25:17.940383 17603 net.cpp:434] label_data_1_split <- label
I0402 02:25:17.940394 17603 net.cpp:408] label_data_1_split -> label_data_1_split_0
I0402 02:25:17.940408 17603 net.cpp:408] label_data_1_split -> label_data_1_split_1
I0402 02:25:17.940415 17603 net.cpp:408] label_data_1_split -> label_data_1_split_2
I0402 02:25:17.940551 17603 net.cpp:150] Setting up label_data_1_split
I0402 02:25:17.940577 17603 net.cpp:157] Top shape: 1024 (1024)
I0402 02:25:17.940582 17603 net.cpp:157] Top shape: 1024 (1024)
I0402 02:25:17.940585 17603 net.cpp:157] Top shape: 1024 (1024)
I0402 02:25:17.940587 17603 net.cpp:165] Memory required for data: 28327936
I0402 02:25:17.940590 17603 layer_factory.hpp:77] Creating layer conv1
I0402 02:25:17.940608 17603 net.cpp:100] Creating Layer conv1
I0402 02:25:17.940620 17603 net.cpp:434] conv1 <- data
I0402 02:25:17.940626 17603 net.cpp:408] conv1 -> conv1
I0402 02:25:17.944535 17603 net.cpp:150] Setting up conv1
I0402 02:25:17.944553 17603 net.cpp:157] Top shape: 1024 100 42 42 (180633600)
I0402 02:25:17.944557 17603 net.cpp:165] Memory required for data: 750862336
I0402 02:25:17.944569 17603 layer_factory.hpp:77] Creating layer conv1_relu
I0402 02:25:17.944577 17603 net.cpp:100] Creating Layer conv1_relu
I0402 02:25:17.944583 17603 net.cpp:434] conv1_relu <- conv1
I0402 02:25:17.944587 17603 net.cpp:395] conv1_relu -> conv1 (in-place)
I0402 02:25:17.944792 17603 net.cpp:150] Setting up conv1_relu
I0402 02:25:17.944805 17603 net.cpp:157] Top shape: 1024 100 42 42 (180633600)
I0402 02:25:17.944810 17603 net.cpp:165] Memory required for data: 1473396736
I0402 02:25:17.944813 17603 layer_factory.hpp:77] Creating layer pool1
I0402 02:25:17.944823 17603 net.cpp:100] Creating Layer pool1
I0402 02:25:17.944826 17603 net.cpp:434] pool1 <- conv1
I0402 02:25:17.944831 17603 net.cpp:408] pool1 -> pool1
I0402 02:25:17.944890 17603 net.cpp:150] Setting up pool1
I0402 02:25:17.944898 17603 net.cpp:157] Top shape: 1024 100 21 21 (45158400)
I0402 02:25:17.944901 17603 net.cpp:165] Memory required for data: 1654030336
I0402 02:25:17.944905 17603 layer_factory.hpp:77] Creating layer conv2
I0402 02:25:17.944918 17603 net.cpp:100] Creating Layer conv2
I0402 02:25:17.944921 17603 net.cpp:434] conv2 <- pool1
I0402 02:25:17.944928 17603 net.cpp:408] conv2 -> conv2
I0402 02:25:17.948808 17603 net.cpp:150] Setting up conv2
I0402 02:25:17.948824 17603 net.cpp:157] Top shape: 1024 150 18 18 (49766400)
I0402 02:25:17.948828 17603 net.cpp:165] Memory required for data: 1853095936
I0402 02:25:17.948838 17603 layer_factory.hpp:77] Creating layer conv2_relu
I0402 02:25:17.948844 17603 net.cpp:100] Creating Layer conv2_relu
I0402 02:25:17.948848 17603 net.cpp:434] conv2_relu <- conv2
I0402 02:25:17.948855 17603 net.cpp:395] conv2_relu -> conv2 (in-place)
I0402 02:25:17.949662 17603 net.cpp:150] Setting up conv2_relu
I0402 02:25:17.949678 17603 net.cpp:157] Top shape: 1024 150 18 18 (49766400)
I0402 02:25:17.949686 17603 net.cpp:165] Memory required for data: 2052161536
I0402 02:25:17.949690 17603 layer_factory.hpp:77] Creating layer pool2
I0402 02:25:17.949697 17603 net.cpp:100] Creating Layer pool2
I0402 02:25:17.949700 17603 net.cpp:434] pool2 <- conv2
I0402 02:25:17.949710 17603 net.cpp:408] pool2 -> pool2
I0402 02:25:17.949764 17603 net.cpp:150] Setting up pool2
I0402 02:25:17.949775 17603 net.cpp:157] Top shape: 1024 150 9 9 (12441600)
I0402 02:25:17.949779 17603 net.cpp:165] Memory required for data: 2101927936
I0402 02:25:17.949782 17603 layer_factory.hpp:77] Creating layer conv3
I0402 02:25:17.949795 17603 net.cpp:100] Creating Layer conv3
I0402 02:25:17.949801 17603 net.cpp:434] conv3 <- pool2
I0402 02:25:17.949807 17603 net.cpp:408] conv3 -> conv3
I0402 02:25:17.955351 17603 net.cpp:150] Setting up conv3
I0402 02:25:17.955368 17603 net.cpp:157] Top shape: 1024 250 6 6 (9216000)
I0402 02:25:17.955373 17603 net.cpp:165] Memory required for data: 2138791936
I0402 02:25:17.955381 17603 layer_factory.hpp:77] Creating layer conv3_relu
I0402 02:25:17.955389 17603 net.cpp:100] Creating Layer conv3_relu
I0402 02:25:17.955391 17603 net.cpp:434] conv3_relu <- conv3
I0402 02:25:17.955400 17603 net.cpp:395] conv3_relu -> conv3 (in-place)
I0402 02:25:17.956254 17603 net.cpp:150] Setting up conv3_relu
I0402 02:25:17.956270 17603 net.cpp:157] Top shape: 1024 250 6 6 (9216000)
I0402 02:25:17.956274 17603 net.cpp:165] Memory required for data: 2175655936
I0402 02:25:17.956277 17603 layer_factory.hpp:77] Creating layer pool3
I0402 02:25:17.956300 17603 net.cpp:100] Creating Layer pool3
I0402 02:25:17.956305 17603 net.cpp:434] pool3 <- conv3
I0402 02:25:17.956312 17603 net.cpp:408] pool3 -> pool3
I0402 02:25:17.956367 17603 net.cpp:150] Setting up pool3
I0402 02:25:17.956377 17603 net.cpp:157] Top shape: 1024 250 3 3 (2304000)
I0402 02:25:17.956382 17603 net.cpp:165] Memory required for data: 2184871936
I0402 02:25:17.956384 17603 layer_factory.hpp:77] Creating layer fc4_300
I0402 02:25:17.956392 17603 net.cpp:100] Creating Layer fc4_300
I0402 02:25:17.956394 17603 net.cpp:434] fc4_300 <- pool3
I0402 02:25:17.956400 17603 net.cpp:408] fc4_300 -> fc4_300
I0402 02:25:17.961732 17603 net.cpp:150] Setting up fc4_300
I0402 02:25:17.961750 17603 net.cpp:157] Top shape: 1024 300 (307200)
I0402 02:25:17.961755 17603 net.cpp:165] Memory required for data: 2186100736
I0402 02:25:17.961762 17603 layer_factory.hpp:77] Creating layer fc4_relu
I0402 02:25:17.961771 17603 net.cpp:100] Creating Layer fc4_relu
I0402 02:25:17.961774 17603 net.cpp:434] fc4_relu <- fc4_300
I0402 02:25:17.961779 17603 net.cpp:395] fc4_relu -> fc4_300 (in-place)
I0402 02:25:17.961998 17603 net.cpp:150] Setting up fc4_relu
I0402 02:25:17.962011 17603 net.cpp:157] Top shape: 1024 300 (307200)
I0402 02:25:17.962015 17603 net.cpp:165] Memory required for data: 2187329536
I0402 02:25:17.962018 17603 layer_factory.hpp:77] Creating layer drop4
I0402 02:25:17.962025 17603 net.cpp:100] Creating Layer drop4
I0402 02:25:17.962028 17603 net.cpp:434] drop4 <- fc4_300
I0402 02:25:17.962033 17603 net.cpp:395] drop4 -> fc4_300 (in-place)
I0402 02:25:17.962065 17603 net.cpp:150] Setting up drop4
I0402 02:25:17.962074 17603 net.cpp:157] Top shape: 1024 300 (307200)
I0402 02:25:17.962076 17603 net.cpp:165] Memory required for data: 2188558336
I0402 02:25:17.962080 17603 layer_factory.hpp:77] Creating layer fc5_67
I0402 02:25:17.962085 17603 net.cpp:100] Creating Layer fc5_67
I0402 02:25:17.962088 17603 net.cpp:434] fc5_67 <- fc4_300
I0402 02:25:17.962095 17603 net.cpp:408] fc5_67 -> fc5_classes
I0402 02:25:17.962359 17603 net.cpp:150] Setting up fc5_67
I0402 02:25:17.962370 17603 net.cpp:157] Top shape: 1024 67 (68608)
I0402 02:25:17.962373 17603 net.cpp:165] Memory required for data: 2188832768
I0402 02:25:17.962383 17603 layer_factory.hpp:77] Creating layer fc5_classes_fc5_67_0_split
I0402 02:25:17.962389 17603 net.cpp:100] Creating Layer fc5_classes_fc5_67_0_split
I0402 02:25:17.962393 17603 net.cpp:434] fc5_classes_fc5_67_0_split <- fc5_classes
I0402 02:25:17.962399 17603 net.cpp:408] fc5_classes_fc5_67_0_split -> fc5_classes_fc5_67_0_split_0
I0402 02:25:17.962407 17603 net.cpp:408] fc5_classes_fc5_67_0_split -> fc5_classes_fc5_67_0_split_1
I0402 02:25:17.962414 17603 net.cpp:408] fc5_classes_fc5_67_0_split -> fc5_classes_fc5_67_0_split_2
I0402 02:25:17.962468 17603 net.cpp:150] Setting up fc5_classes_fc5_67_0_split
I0402 02:25:17.962476 17603 net.cpp:157] Top shape: 1024 67 (68608)
I0402 02:25:17.962479 17603 net.cpp:157] Top shape: 1024 67 (68608)
I0402 02:25:17.962482 17603 net.cpp:157] Top shape: 1024 67 (68608)
I0402 02:25:17.962484 17603 net.cpp:165] Memory required for data: 2189656064
I0402 02:25:17.962487 17603 layer_factory.hpp:77] Creating layer loss
I0402 02:25:17.962497 17603 net.cpp:100] Creating Layer loss
I0402 02:25:17.962502 17603 net.cpp:434] loss <- fc5_classes_fc5_67_0_split_0
I0402 02:25:17.962507 17603 net.cpp:434] loss <- label_data_1_split_0
I0402 02:25:17.962512 17603 net.cpp:408] loss -> loss
…
