…
I0402 00:54:42.238401 29719 net.cpp:322] The NetState phase (0) differed from the phase (1) specified by a rule in layer accuracy_5
I0402 00:54:42.238490 29719 net.cpp:58] Initializing net from parameters: 
state {
  phase: TRAIN
  level: 0
  stage: ""
}
layer {
  name: "data"
  type: "Data"
  top: "data"
  top: "label"
  include {
    phase: TRAIN
  }
  transform_param {
    mirror: false
    crop_size: 48
    mean_value: 122
    mean_value: 115
    mean_value: 129
  }
  data_param {
    source: "../local_data/lmdb/rtsd-r1/orig/train/lmdb"
    batch_size: 512
    backend: LMDB
  }
}
layer {
  name: "conv1"
  type: "Convolution"
  bottom: "data"
  top: "conv1"
  convolution_param {
    num_output: 100
    pad: 0
    kernel_size: 7
    group: 1
    stride: 1
    weight_filler {
      type: "xavier"
    }
  }
}
layer {
  name: "conv1_relu"
  type: "ReLU"
  bottom: "conv1"
  top: "conv1"
}
layer {
  name: "pool1"
  type: "Pooling"
  bottom: "conv1"
  top: "pool1"
  pooling_param {
    pool: MAX
    kernel_size: 2
    stride: 2
  }
}
layer {
  name: "conv2"
  type: "Convolution"
  bottom: "pool1"
  top: "conv2"
  convolution_param {
    num_output: 150
    pad: 0
    kernel_size: 4
    group: 1
    stride: 1
    weight_filler {
      type: "xavier"
    }
  }
}
layer {
  name: "conv2_relu"
  type: "ReLU"
  bottom: "conv2"
  top: "conv2"
}
layer {
  name: "pool2"
  type: "Pooling"
  bottom: "conv2"
  top: "pool2"
  pooling_param {
    pool: MAX
    kernel_size: 2
    stride: 2
  }
}
layer {
  name: "conv3"
  type: "Convolution"
  bottom: "pool2"
  top: "conv3"
  convolution_param {
    num_output: 250
    pad: 0
    kernel_size: 4
    group: 1
    stride: 1
    weight_filler {
      type: "xavier"
    }
  }
}
layer {
  name: "conv3_relu"
  type: "ReLU"
  bottom: "conv3"
  top: "conv3"
}
layer {
  name: "pool3"
  type: "Pooling"
  bottom: "conv3"
  top: "pool3"
  pooling_param {
    pool: MAX
    kernel_size: 2
    stride: 2
  }
}
layer {
  name: "fc4_300"
  type: "InnerProduct"
  bottom: "pool3"
  top: "fc4_300"
  inner_product_param {
    num_output: 300
    weight_filler {
      type: "xavier"
    }
  }
}
layer {
  name: "fc4_relu"
  type: "ReLU"
  bottom: "fc4_300"
  top: "fc4_300"
}
layer {
  name: "drop4"
  type: "Dropout"
  bottom: "fc4_300"
  top: "fc4_300"
  dropout_param {
    dropout_ratio: 0.4
  }
}
layer {
  name: "fc5_67"
  type: "InnerProduct"
  bottom: "fc4_300"
  top: "fc5_classes"
  inner_product_param {
    num_output: 67
    weight_filler {
      type: "xavier"
    }
  }
}
layer {
  name: "loss"
  type: "SoftmaxWithLoss"
  bottom: "fc5_classes"
  bottom: "label"
  top: "loss"
}
I0402 00:54:42.238562 29719 layer_factory.hpp:77] Creating layer data
I0402 00:54:42.239326 29719 net.cpp:100] Creating Layer data
I0402 00:54:42.239341 29719 net.cpp:408] data -> data
I0402 00:54:42.239367 29719 net.cpp:408] data -> label
I0402 00:54:42.241060 29760 db_lmdb.cpp:35] Opened lmdb ../local_data/lmdb/rtsd-r1/orig/train/lmdb
I0402 00:54:42.258600 29719 data_layer.cpp:41] output data size: 512,3,48,48
I0402 00:54:42.281610 29719 net.cpp:150] Setting up data
I0402 00:54:42.281694 29719 net.cpp:157] Top shape: 512 3 48 48 (3538944)
I0402 00:54:42.281718 29719 net.cpp:157] Top shape: 512 (512)
I0402 00:54:42.281749 29719 net.cpp:165] Memory required for data: 14157824
I0402 00:54:42.281792 29719 layer_factory.hpp:77] Creating layer conv1
I0402 00:54:42.281836 29719 net.cpp:100] Creating Layer conv1
I0402 00:54:42.281858 29719 net.cpp:434] conv1 <- data
I0402 00:54:42.281890 29719 net.cpp:408] conv1 -> conv1
I0402 00:54:42.600739 29719 net.cpp:150] Setting up conv1
I0402 00:54:42.600775 29719 net.cpp:157] Top shape: 512 100 42 42 (90316800)
I0402 00:54:42.600780 29719 net.cpp:165] Memory required for data: 375425024
I0402 00:54:42.600802 29719 layer_factory.hpp:77] Creating layer conv1_relu
I0402 00:54:42.600826 29719 net.cpp:100] Creating Layer conv1_relu
I0402 00:54:42.600831 29719 net.cpp:434] conv1_relu <- conv1
I0402 00:54:42.600837 29719 net.cpp:395] conv1_relu -> conv1 (in-place)
I0402 00:54:42.601058 29719 net.cpp:150] Setting up conv1_relu
I0402 00:54:42.601073 29719 net.cpp:157] Top shape: 512 100 42 42 (90316800)
I0402 00:54:42.601076 29719 net.cpp:165] Memory required for data: 736692224
I0402 00:54:42.601080 29719 layer_factory.hpp:77] Creating layer pool1
I0402 00:54:42.601088 29719 net.cpp:100] Creating Layer pool1
I0402 00:54:42.601091 29719 net.cpp:434] pool1 <- conv1
I0402 00:54:42.601099 29719 net.cpp:408] pool1 -> pool1
I0402 00:54:42.601156 29719 net.cpp:150] Setting up pool1
I0402 00:54:42.601168 29719 net.cpp:157] Top shape: 512 100 21 21 (22579200)
I0402 00:54:42.601171 29719 net.cpp:165] Memory required for data: 827009024
I0402 00:54:42.601174 29719 layer_factory.hpp:77] Creating layer conv2
I0402 00:54:42.601187 29719 net.cpp:100] Creating Layer conv2
I0402 00:54:42.601192 29719 net.cpp:434] conv2 <- pool1
I0402 00:54:42.601198 29719 net.cpp:408] conv2 -> conv2
I0402 00:54:42.605664 29719 net.cpp:150] Setting up conv2
I0402 00:54:42.605693 29719 net.cpp:157] Top shape: 512 150 18 18 (24883200)
I0402 00:54:42.605697 29719 net.cpp:165] Memory required for data: 926541824
I0402 00:54:42.605711 29719 layer_factory.hpp:77] Creating layer conv2_relu
I0402 00:54:42.605723 29719 net.cpp:100] Creating Layer conv2_relu
I0402 00:54:42.605727 29719 net.cpp:434] conv2_relu <- conv2
I0402 00:54:42.605734 29719 net.cpp:395] conv2_relu -> conv2 (in-place)
I0402 00:54:42.606498 29719 net.cpp:150] Setting up conv2_relu
I0402 00:54:42.606515 29719 net.cpp:157] Top shape: 512 150 18 18 (24883200)
I0402 00:54:42.606519 29719 net.cpp:165] Memory required for data: 1026074624
I0402 00:54:42.606523 29719 layer_factory.hpp:77] Creating layer pool2
I0402 00:54:42.606530 29719 net.cpp:100] Creating Layer pool2
I0402 00:54:42.606534 29719 net.cpp:434] pool2 <- conv2
I0402 00:54:42.606539 29719 net.cpp:408] pool2 -> pool2
I0402 00:54:42.606602 29719 net.cpp:150] Setting up pool2
I0402 00:54:42.606611 29719 net.cpp:157] Top shape: 512 150 9 9 (6220800)
I0402 00:54:42.606614 29719 net.cpp:165] Memory required for data: 1050957824
I0402 00:54:42.606617 29719 layer_factory.hpp:77] Creating layer conv3
I0402 00:54:42.606628 29719 net.cpp:100] Creating Layer conv3
I0402 00:54:42.606633 29719 net.cpp:434] conv3 <- pool2
I0402 00:54:42.606640 29719 net.cpp:408] conv3 -> conv3
I0402 00:54:42.612380 29719 net.cpp:150] Setting up conv3
I0402 00:54:42.612416 29719 net.cpp:157] Top shape: 512 250 6 6 (4608000)
I0402 00:54:42.612419 29719 net.cpp:165] Memory required for data: 1069389824
I0402 00:54:42.612433 29719 layer_factory.hpp:77] Creating layer conv3_relu
I0402 00:54:42.612447 29719 net.cpp:100] Creating Layer conv3_relu
I0402 00:54:42.612452 29719 net.cpp:434] conv3_relu <- conv3
I0402 00:54:42.612459 29719 net.cpp:395] conv3_relu -> conv3 (in-place)
I0402 00:54:42.613322 29719 net.cpp:150] Setting up conv3_relu
I0402 00:54:42.613338 29719 net.cpp:157] Top shape: 512 250 6 6 (4608000)
I0402 00:54:42.613354 29719 net.cpp:165] Memory required for data: 1087821824
I0402 00:54:42.613358 29719 layer_factory.hpp:77] Creating layer pool3
I0402 00:54:42.613368 29719 net.cpp:100] Creating Layer pool3
I0402 00:54:42.613370 29719 net.cpp:434] pool3 <- conv3
I0402 00:54:42.613376 29719 net.cpp:408] pool3 -> pool3
I0402 00:54:42.613430 29719 net.cpp:150] Setting up pool3
I0402 00:54:42.613456 29719 net.cpp:157] Top shape: 512 250 3 3 (1152000)
I0402 00:54:42.613459 29719 net.cpp:165] Memory required for data: 1092429824
I0402 00:54:42.613462 29719 layer_factory.hpp:77] Creating layer fc4_300
I0402 00:54:42.613471 29719 net.cpp:100] Creating Layer fc4_300
I0402 00:54:42.613473 29719 net.cpp:434] fc4_300 <- pool3
I0402 00:54:42.613481 29719 net.cpp:408] fc4_300 -> fc4_300
I0402 00:54:42.618885 29719 net.cpp:150] Setting up fc4_300
I0402 00:54:42.618921 29719 net.cpp:157] Top shape: 512 300 (153600)
I0402 00:54:42.618926 29719 net.cpp:165] Memory required for data: 1093044224
I0402 00:54:42.618935 29719 layer_factory.hpp:77] Creating layer fc4_relu
I0402 00:54:42.618947 29719 net.cpp:100] Creating Layer fc4_relu
I0402 00:54:42.618950 29719 net.cpp:434] fc4_relu <- fc4_300
I0402 00:54:42.618959 29719 net.cpp:395] fc4_relu -> fc4_300 (in-place)
I0402 00:54:42.619202 29719 net.cpp:150] Setting up fc4_relu
I0402 00:54:42.619215 29719 net.cpp:157] Top shape: 512 300 (153600)
I0402 00:54:42.619217 29719 net.cpp:165] Memory required for data: 1093658624
I0402 00:54:42.619221 29719 layer_factory.hpp:77] Creating layer drop4
I0402 00:54:42.619228 29719 net.cpp:100] Creating Layer drop4
I0402 00:54:42.619235 29719 net.cpp:434] drop4 <- fc4_300
I0402 00:54:42.619240 29719 net.cpp:395] drop4 -> fc4_300 (in-place)
I0402 00:54:42.619272 29719 net.cpp:150] Setting up drop4
I0402 00:54:42.619280 29719 net.cpp:157] Top shape: 512 300 (153600)
I0402 00:54:42.619283 29719 net.cpp:165] Memory required for data: 1094273024
I0402 00:54:42.619287 29719 layer_factory.hpp:77] Creating layer fc5_67
I0402 00:54:42.619297 29719 net.cpp:100] Creating Layer fc5_67
I0402 00:54:42.619302 29719 net.cpp:434] fc5_67 <- fc4_300
I0402 00:54:42.619307 29719 net.cpp:408] fc5_67 -> fc5_classes
I0402 00:54:42.620734 29719 net.cpp:150] Setting up fc5_67
I0402 00:54:42.620750 29719 net.cpp:157] Top shape: 512 67 (34304)
I0402 00:54:42.620765 29719 net.cpp:165] Memory required for data: 1094410240
I0402 00:54:42.620780 29719 layer_factory.hpp:77] Creating layer loss
I0402 00:54:42.620789 29719 net.cpp:100] Creating Layer loss
I0402 00:54:42.620791 29719 net.cpp:434] loss <- fc5_classes
I0402 00:54:42.620796 29719 net.cpp:434] loss <- label
I0402 00:54:42.620805 29719 net.cpp:408] loss -> loss
I0402 00:54:42.620822 29719 layer_factory.hpp:77] Creating layer loss
…
I0402 00:54:42.621544 29719 solver.cpp:193] Creating test net (#0) specified by test_net file: ./Prototxt/rtsd-r1/orig/test.prototxt
I0402 00:54:42.621702 29719 net.cpp:58] Initializing net from parameters: 
state {
  phase: TEST
}
layer {
  name: "data"
  type: "Data"
  top: "data"
  top: "label"
  include {
    phase: TEST
  }
  transform_param {
    mirror: false
    crop_size: 48
    mean_value: 113
    mean_value: 110
    mean_value: 132
  }
  data_param {
    source: "../local_data/lmdb/rtsd-r1/orig/test/lmdb"
    batch_size: 512
    backend: LMDB
  }
}
layer {
  name: "conv1"
  type: "Convolution"
  bottom: "data"
  top: "conv1"
  convolution_param {
    num_output: 100
    pad: 0
    kernel_size: 7
    group: 1
    stride: 1
    weight_filler {
      type: "xavier"
    }
  }
}
layer {
  name: "conv1_relu"
  type: "ReLU"
  bottom: "conv1"
  top: "conv1"
}
layer {
  name: "pool1"
  type: "Pooling"
  bottom: "conv1"
  top: "pool1"
  pooling_param {
    pool: MAX
    kernel_size: 2
    stride: 2
  }
}
layer {
  name: "conv2"
  type: "Convolution"
  bottom: "pool1"
  top: "conv2"
  convolution_param {
    num_output: 150
    pad: 0
    kernel_size: 4
    group: 1
    stride: 1
    weight_filler {
      type: "xavier"
    }
  }
}
layer {
  name: "conv2_relu"
  type: "ReLU"
  bottom: "conv2"
  top: "conv2"
}
layer {
  name: "pool2"
  type: "Pooling"
  bottom: "conv2"
  top: "pool2"
  pooling_param {
    pool: MAX
    kernel_size: 2
    stride: 2
  }
}
layer {
  name: "conv3"
  type: "Convolution"
  bottom: "pool2"
  top: "conv3"
  convolution_param {
    num_output: 250
    pad: 0
    kernel_size: 4
    group: 1
    stride: 1
    weight_filler {
      type: "xavier"
    }
  }
}
layer {
  name: "conv3_relu"
  type: "ReLU"
  bottom: "conv3"
  top: "conv3"
}
layer {
  name: "pool3"
  type: "Pooling"
  bottom: "conv3"
  top: "pool3"
  pooling_param {
    pool: MAX
    kernel_size: 2
    stride: 2
  }
}
layer {
  name: "fc4_300"
  type: "InnerProduct"
  bottom: "pool3"
  top: "fc4_300"
  inner_product_param {
    num_output: 300
    weight_filler {
      type: "xavier"
    }
  }
}
layer {
  name: "fc4_relu"
  type: "ReLU"
  bottom: "fc4_300"
  top: "fc4_300"
}
layer {
  name: "drop4"
  type: "Dropout"
  bottom: "fc4_300"
  top: "fc4_300"
  dropout_param {
    dropout_ratio: 0.4
  }
}
layer {
  name: "fc5_67"
  type: "InnerProduct"
  bottom: "fc4_300"
  top: "fc5_classes"
  inner_product_param {
    num_output: 67
    weight_filler {
      type: "xavier"
    }
  }
}
layer {
  name: "loss"
  type: "SoftmaxWithLoss"
  bottom: "fc5_classes"
  bottom: "label"
  top: "loss"
}
layer {
  name: "accuracy_1"
  type: "Accuracy"
  bottom: "fc5_classes"
  bottom: "label"
  top: "accuracy_1"
  include {
    phase: TEST
  }
  accuracy_param {
    top_k: 1
  }
}
layer {
  name: "accuracy_5"
  type: "Accuracy"
  bottom: "fc5_classes"
  bottom: "label"
  top: "accuracy_5"
  include {
    phase: TEST
  }
  accuracy_param {
    top_k: 5
  }
}
I0402 00:54:42.621809 29719 layer_factory.hpp:77] Creating layer data
I0402 00:54:42.622179 29719 net.cpp:100] Creating Layer data
I0402 00:54:42.622195 29719 net.cpp:408] data -> data
I0402 00:54:42.622206 29719 net.cpp:408] data -> label
I0402 00:54:42.623430 29762 db_lmdb.cpp:35] Opened lmdb ../local_data/lmdb/rtsd-r1/orig/test/lmdb
I0402 00:54:42.623582 29719 data_layer.cpp:41] output data size: 512,3,48,48
I0402 00:54:42.647927 29719 net.cpp:150] Setting up data
I0402 00:54:42.647981 29719 net.cpp:157] Top shape: 512 3 48 48 (3538944)
I0402 00:54:42.647987 29719 net.cpp:157] Top shape: 512 (512)
I0402 00:54:42.647990 29719 net.cpp:165] Memory required for data: 14157824
I0402 00:54:42.647997 29719 layer_factory.hpp:77] Creating layer label_data_1_split
I0402 00:54:42.648022 29719 net.cpp:100] Creating Layer label_data_1_split
I0402 00:54:42.648026 29719 net.cpp:434] label_data_1_split <- label
I0402 00:54:42.648049 29719 net.cpp:408] label_data_1_split -> label_data_1_split_0
I0402 00:54:42.648061 29719 net.cpp:408] label_data_1_split -> label_data_1_split_1
I0402 00:54:42.648066 29719 net.cpp:408] label_data_1_split -> label_data_1_split_2
I0402 00:54:42.648175 29719 net.cpp:150] Setting up label_data_1_split
I0402 00:54:42.648185 29719 net.cpp:157] Top shape: 512 (512)
I0402 00:54:42.648205 29719 net.cpp:157] Top shape: 512 (512)
I0402 00:54:42.648210 29719 net.cpp:157] Top shape: 512 (512)
I0402 00:54:42.648212 29719 net.cpp:165] Memory required for data: 14163968
I0402 00:54:42.648216 29719 layer_factory.hpp:77] Creating layer conv1
I0402 00:54:42.648231 29719 net.cpp:100] Creating Layer conv1
I0402 00:54:42.648236 29719 net.cpp:434] conv1 <- data
I0402 00:54:42.648272 29719 net.cpp:408] conv1 -> conv1
I0402 00:54:42.650285 29719 net.cpp:150] Setting up conv1
I0402 00:54:42.650303 29719 net.cpp:157] Top shape: 512 100 42 42 (90316800)
I0402 00:54:42.650307 29719 net.cpp:165] Memory required for data: 375431168
I0402 00:54:42.650319 29719 layer_factory.hpp:77] Creating layer conv1_relu
I0402 00:54:42.650326 29719 net.cpp:100] Creating Layer conv1_relu
I0402 00:54:42.650332 29719 net.cpp:434] conv1_relu <- conv1
I0402 00:54:42.650338 29719 net.cpp:395] conv1_relu -> conv1 (in-place)
I0402 00:54:42.650557 29719 net.cpp:150] Setting up conv1_relu
I0402 00:54:42.650568 29719 net.cpp:157] Top shape: 512 100 42 42 (90316800)
I0402 00:54:42.650573 29719 net.cpp:165] Memory required for data: 736698368
I0402 00:54:42.650575 29719 layer_factory.hpp:77] Creating layer pool1
I0402 00:54:42.650586 29719 net.cpp:100] Creating Layer pool1
I0402 00:54:42.650590 29719 net.cpp:434] pool1 <- conv1
I0402 00:54:42.650596 29719 net.cpp:408] pool1 -> pool1
I0402 00:54:42.650648 29719 net.cpp:150] Setting up pool1
I0402 00:54:42.650657 29719 net.cpp:157] Top shape: 512 100 21 21 (22579200)
I0402 00:54:42.650660 29719 net.cpp:165] Memory required for data: 827015168
I0402 00:54:42.650663 29719 layer_factory.hpp:77] Creating layer conv2
I0402 00:54:42.650674 29719 net.cpp:100] Creating Layer conv2
I0402 00:54:42.650677 29719 net.cpp:434] conv2 <- pool1
I0402 00:54:42.650682 29719 net.cpp:408] conv2 -> conv2
I0402 00:54:42.653944 29719 net.cpp:150] Setting up conv2
I0402 00:54:42.653969 29719 net.cpp:157] Top shape: 512 150 18 18 (24883200)
I0402 00:54:42.653972 29719 net.cpp:165] Memory required for data: 926547968
I0402 00:54:42.653985 29719 layer_factory.hpp:77] Creating layer conv2_relu
I0402 00:54:42.653995 29719 net.cpp:100] Creating Layer conv2_relu
I0402 00:54:42.653998 29719 net.cpp:434] conv2_relu <- conv2
I0402 00:54:42.654006 29719 net.cpp:395] conv2_relu -> conv2 (in-place)
I0402 00:54:42.654856 29719 net.cpp:150] Setting up conv2_relu
I0402 00:54:42.654873 29719 net.cpp:157] Top shape: 512 150 18 18 (24883200)
I0402 00:54:42.654876 29719 net.cpp:165] Memory required for data: 1026080768
I0402 00:54:42.654881 29719 layer_factory.hpp:77] Creating layer pool2
I0402 00:54:42.654888 29719 net.cpp:100] Creating Layer pool2
I0402 00:54:42.654891 29719 net.cpp:434] pool2 <- conv2
I0402 00:54:42.654899 29719 net.cpp:408] pool2 -> pool2
I0402 00:54:42.654956 29719 net.cpp:150] Setting up pool2
I0402 00:54:42.654966 29719 net.cpp:157] Top shape: 512 150 9 9 (6220800)
I0402 00:54:42.654969 29719 net.cpp:165] Memory required for data: 1050963968
I0402 00:54:42.654973 29719 layer_factory.hpp:77] Creating layer conv3
I0402 00:54:42.654985 29719 net.cpp:100] Creating Layer conv3
I0402 00:54:42.654992 29719 net.cpp:434] conv3 <- pool2
I0402 00:54:42.655005 29719 net.cpp:408] conv3 -> conv3
I0402 00:54:42.660946 29719 net.cpp:150] Setting up conv3
I0402 00:54:42.660975 29719 net.cpp:157] Top shape: 512 250 6 6 (4608000)
I0402 00:54:42.660979 29719 net.cpp:165] Memory required for data: 1069395968
I0402 00:54:42.661001 29719 layer_factory.hpp:77] Creating layer conv3_relu
I0402 00:54:42.661012 29719 net.cpp:100] Creating Layer conv3_relu
I0402 00:54:42.661016 29719 net.cpp:434] conv3_relu <- conv3
I0402 00:54:42.661023 29719 net.cpp:395] conv3_relu -> conv3 (in-place)
I0402 00:54:42.661916 29719 net.cpp:150] Setting up conv3_relu
I0402 00:54:42.661944 29719 net.cpp:157] Top shape: 512 250 6 6 (4608000)
I0402 00:54:42.661947 29719 net.cpp:165] Memory required for data: 1087827968
I0402 00:54:42.661952 29719 layer_factory.hpp:77] Creating layer pool3
I0402 00:54:42.661963 29719 net.cpp:100] Creating Layer pool3
I0402 00:54:42.661985 29719 net.cpp:434] pool3 <- conv3
I0402 00:54:42.661993 29719 net.cpp:408] pool3 -> pool3
I0402 00:54:42.662052 29719 net.cpp:150] Setting up pool3
I0402 00:54:42.662062 29719 net.cpp:157] Top shape: 512 250 3 3 (1152000)
I0402 00:54:42.662065 29719 net.cpp:165] Memory required for data: 1092435968
I0402 00:54:42.662068 29719 layer_factory.hpp:77] Creating layer fc4_300
I0402 00:54:42.662075 29719 net.cpp:100] Creating Layer fc4_300
I0402 00:54:42.662078 29719 net.cpp:434] fc4_300 <- pool3
I0402 00:54:42.662084 29719 net.cpp:408] fc4_300 -> fc4_300
I0402 00:54:42.667675 29719 net.cpp:150] Setting up fc4_300
I0402 00:54:42.667716 29719 net.cpp:157] Top shape: 512 300 (153600)
I0402 00:54:42.667721 29719 net.cpp:165] Memory required for data: 1093050368
I0402 00:54:42.667732 29719 layer_factory.hpp:77] Creating layer fc4_relu
I0402 00:54:42.667742 29719 net.cpp:100] Creating Layer fc4_relu
I0402 00:54:42.667747 29719 net.cpp:434] fc4_relu <- fc4_300
I0402 00:54:42.667754 29719 net.cpp:395] fc4_relu -> fc4_300 (in-place)
I0402 00:54:42.668025 29719 net.cpp:150] Setting up fc4_relu
I0402 00:54:42.668038 29719 net.cpp:157] Top shape: 512 300 (153600)
I0402 00:54:42.668051 29719 net.cpp:165] Memory required for data: 1093664768
I0402 00:54:42.668056 29719 layer_factory.hpp:77] Creating layer drop4
I0402 00:54:42.668063 29719 net.cpp:100] Creating Layer drop4
I0402 00:54:42.668066 29719 net.cpp:434] drop4 <- fc4_300
I0402 00:54:42.668073 29719 net.cpp:395] drop4 -> fc4_300 (in-place)
I0402 00:54:42.668107 29719 net.cpp:150] Setting up drop4
I0402 00:54:42.668117 29719 net.cpp:157] Top shape: 512 300 (153600)
I0402 00:54:42.668119 29719 net.cpp:165] Memory required for data: 1094279168
I0402 00:54:42.668123 29719 layer_factory.hpp:77] Creating layer fc5_67
I0402 00:54:42.668129 29719 net.cpp:100] Creating Layer fc5_67
I0402 00:54:42.668140 29719 net.cpp:434] fc5_67 <- fc4_300
I0402 00:54:42.668150 29719 net.cpp:408] fc5_67 -> fc5_classes
I0402 00:54:42.668426 29719 net.cpp:150] Setting up fc5_67
I0402 00:54:42.668444 29719 net.cpp:157] Top shape: 512 67 (34304)
I0402 00:54:42.668447 29719 net.cpp:165] Memory required for data: 1094416384
I0402 00:54:42.668458 29719 layer_factory.hpp:77] Creating layer fc5_classes_fc5_67_0_split
I0402 00:54:42.668467 29719 net.cpp:100] Creating Layer fc5_classes_fc5_67_0_split
I0402 00:54:42.668470 29719 net.cpp:434] fc5_classes_fc5_67_0_split <- fc5_classes
I0402 00:54:42.668475 29719 net.cpp:408] fc5_classes_fc5_67_0_split -> fc5_classes_fc5_67_0_split_0
I0402 00:54:42.668493 29719 net.cpp:408] fc5_classes_fc5_67_0_split -> fc5_classes_fc5_67_0_split_1
I0402 00:54:42.668499 29719 net.cpp:408] fc5_classes_fc5_67_0_split -> fc5_classes_fc5_67_0_split_2
I0402 00:54:42.668555 29719 net.cpp:150] Setting up fc5_classes_fc5_67_0_split
I0402 00:54:42.668562 29719 net.cpp:157] Top shape: 512 67 (34304)
I0402 00:54:42.668565 29719 net.cpp:157] Top shape: 512 67 (34304)
I0402 00:54:42.668568 29719 net.cpp:157] Top shape: 512 67 (34304)
I0402 00:54:42.668572 29719 net.cpp:165] Memory required for data: 1094828032
I0402 00:54:42.668576 29719 layer_factory.hpp:77] Creating layer loss
I0402 00:54:42.668587 29719 net.cpp:100] Creating Layer loss
I0402 00:54:42.668592 29719 net.cpp:434] loss <- fc5_classes_fc5_67_0_split_0
I0402 00:54:42.668598 29719 net.cpp:434] loss <- label_data_1_split_0
I0402 00:54:42.668603 29719 net.cpp:408] loss -> loss
…
