…
I0402 01:38:39.844312 16891 net.cpp:322] The NetState phase (0) differed from the phase (1) specified by a rule in layer accuracy_5
I0402 01:38:39.844521 16891 net.cpp:58] Initializing net from parameters: 
state {
  phase: TRAIN
  level: 0
  stage: ""
}
layer {
  name: "data"
  type: "Data"
  top: "data"
  top: "label"
  include {
    phase: TRAIN
  }
  transform_param {
    mirror: false
    crop_size: 48
    mean_value: 122
    mean_value: 115
    mean_value: 129
  }
  data_param {
    source: "../local_data/lmdb/rtsd-r1/orig/train/lmdb"
    batch_size: 512
    backend: LMDB
  }
}
layer {
  name: "conv1"
  type: "Convolution"
  bottom: "data"
  top: "conv1"
  convolution_param {
    num_output: 100
    pad: 0
    kernel_size: 7
    group: 1
    stride: 1
    weight_filler {
      type: "xavier"
    }
  }
}
layer {
  name: "conv1_relu"
  type: "ReLU"
  bottom: "conv1"
  top: "conv1"
}
layer {
  name: "pool1"
  type: "Pooling"
  bottom: "conv1"
  top: "pool1"
  pooling_param {
    pool: MAX
    kernel_size: 2
    stride: 2
  }
}
layer {
  name: "conv2"
  type: "Convolution"
  bottom: "pool1"
  top: "conv2"
  convolution_param {
    num_output: 150
    pad: 0
    kernel_size: 4
    group: 1
    stride: 1
    weight_filler {
      type: "xavier"
    }
  }
}
layer {
  name: "conv2_relu"
  type: "ReLU"
  bottom: "conv2"
  top: "conv2"
}
layer {
  name: "pool2"
  type: "Pooling"
  bottom: "conv2"
  top: "pool2"
  pooling_param {
    pool: MAX
    kernel_size: 2
    stride: 2
  }
}
layer {
  name: "conv3"
  type: "Convolution"
  bottom: "pool2"
  top: "conv3"
  convolution_param {
    num_output: 250
    pad: 0
    kernel_size: 4
    group: 1
    stride: 1
    weight_filler {
      type: "xavier"
    }
  }
}
layer {
  name: "conv3_relu"
  type: "ReLU"
  bottom: "conv3"
  top: "conv3"
}
layer {
  name: "pool3"
  type: "Pooling"
  bottom: "conv3"
  top: "pool3"
  pooling_param {
    pool: MAX
    kernel_size: 2
    stride: 2
  }
}
layer {
  name: "fc4_300"
  type: "InnerProduct"
  bottom: "pool3"
  top: "fc4_300"
  inner_product_param {
    num_output: 300
    weight_filler {
      type: "xavier"
    }
  }
}
layer {
  name: "fc4_relu"
  type: "ReLU"
  bottom: "fc4_300"
  top: "fc4_300"
}
layer {
  name: "drop4"
  type: "Dropout"
  bottom: "fc4_300"
  top: "fc4_300"
  dropout_param {
    dropout_ratio: 0.4
  }
}
layer {
  name: "fc5_67"
  type: "InnerProduct"
  bottom: "fc4_300"
  top: "fc5_classes"
  inner_product_param {
    num_output: 67
    weight_filler {
      type: "xavier"
    }
  }
}
layer {
  name: "loss"
  type: "SoftmaxWithLoss"
  bottom: "fc5_classes"
  bottom: "label"
  top: "loss"
}
I0402 01:38:39.844975 16891 layer_factory.hpp:77] Creating layer data
I0402 01:38:39.846407 16891 net.cpp:100] Creating Layer data
I0402 01:38:39.846456 16891 net.cpp:408] data -> data
I0402 01:38:39.846509 16891 net.cpp:408] data -> label
I0402 01:38:39.848170 16931 db_lmdb.cpp:35] Opened lmdb ../local_data/lmdb/rtsd-r1/orig/train/lmdb
I0402 01:38:39.877393 16891 data_layer.cpp:41] output data size: 512,3,48,48
I0402 01:38:39.913995 16891 net.cpp:150] Setting up data
I0402 01:38:39.914036 16891 net.cpp:157] Top shape: 512 3 48 48 (3538944)
I0402 01:38:39.914042 16891 net.cpp:157] Top shape: 512 (512)
I0402 01:38:39.914047 16891 net.cpp:165] Memory required for data: 14157824
I0402 01:38:39.914089 16891 layer_factory.hpp:77] Creating layer conv1
I0402 01:38:39.914119 16891 net.cpp:100] Creating Layer conv1
I0402 01:38:39.914129 16891 net.cpp:434] conv1 <- data
I0402 01:38:39.914144 16891 net.cpp:408] conv1 -> conv1
I0402 01:38:40.220743 16891 net.cpp:150] Setting up conv1
I0402 01:38:40.220791 16891 net.cpp:157] Top shape: 512 100 42 42 (90316800)
I0402 01:38:40.220798 16891 net.cpp:165] Memory required for data: 375425024
I0402 01:38:40.220824 16891 layer_factory.hpp:77] Creating layer conv1_relu
I0402 01:38:40.220839 16891 net.cpp:100] Creating Layer conv1_relu
I0402 01:38:40.220844 16891 net.cpp:434] conv1_relu <- conv1
I0402 01:38:40.220854 16891 net.cpp:395] conv1_relu -> conv1 (in-place)
I0402 01:38:40.221114 16891 net.cpp:150] Setting up conv1_relu
I0402 01:38:40.221132 16891 net.cpp:157] Top shape: 512 100 42 42 (90316800)
I0402 01:38:40.221135 16891 net.cpp:165] Memory required for data: 736692224
I0402 01:38:40.221140 16891 layer_factory.hpp:77] Creating layer pool1
I0402 01:38:40.221149 16891 net.cpp:100] Creating Layer pool1
I0402 01:38:40.221154 16891 net.cpp:434] pool1 <- conv1
I0402 01:38:40.221161 16891 net.cpp:408] pool1 -> pool1
I0402 01:38:40.221230 16891 net.cpp:150] Setting up pool1
I0402 01:38:40.221242 16891 net.cpp:157] Top shape: 512 100 21 21 (22579200)
I0402 01:38:40.221246 16891 net.cpp:165] Memory required for data: 827009024
I0402 01:38:40.221251 16891 layer_factory.hpp:77] Creating layer conv2
I0402 01:38:40.221264 16891 net.cpp:100] Creating Layer conv2
I0402 01:38:40.221271 16891 net.cpp:434] conv2 <- pool1
I0402 01:38:40.221278 16891 net.cpp:408] conv2 -> conv2
I0402 01:38:40.226837 16891 net.cpp:150] Setting up conv2
I0402 01:38:40.226861 16891 net.cpp:157] Top shape: 512 150 18 18 (24883200)
I0402 01:38:40.226866 16891 net.cpp:165] Memory required for data: 926541824
I0402 01:38:40.226881 16891 layer_factory.hpp:77] Creating layer conv2_relu
I0402 01:38:40.226889 16891 net.cpp:100] Creating Layer conv2_relu
I0402 01:38:40.226894 16891 net.cpp:434] conv2_relu <- conv2
I0402 01:38:40.226900 16891 net.cpp:395] conv2_relu -> conv2 (in-place)
I0402 01:38:40.227841 16891 net.cpp:150] Setting up conv2_relu
I0402 01:38:40.227861 16891 net.cpp:157] Top shape: 512 150 18 18 (24883200)
I0402 01:38:40.227866 16891 net.cpp:165] Memory required for data: 1026074624
I0402 01:38:40.227871 16891 layer_factory.hpp:77] Creating layer pool2
I0402 01:38:40.227880 16891 net.cpp:100] Creating Layer pool2
I0402 01:38:40.227885 16891 net.cpp:434] pool2 <- conv2
I0402 01:38:40.227893 16891 net.cpp:408] pool2 -> pool2
I0402 01:38:40.227952 16891 net.cpp:150] Setting up pool2
I0402 01:38:40.227962 16891 net.cpp:157] Top shape: 512 150 9 9 (6220800)
I0402 01:38:40.227967 16891 net.cpp:165] Memory required for data: 1050957824
I0402 01:38:40.227970 16891 layer_factory.hpp:77] Creating layer conv3
I0402 01:38:40.227982 16891 net.cpp:100] Creating Layer conv3
I0402 01:38:40.227988 16891 net.cpp:434] conv3 <- pool2
I0402 01:38:40.227994 16891 net.cpp:408] conv3 -> conv3
I0402 01:38:40.235044 16891 net.cpp:150] Setting up conv3
I0402 01:38:40.235070 16891 net.cpp:157] Top shape: 512 250 6 6 (4608000)
I0402 01:38:40.235079 16891 net.cpp:165] Memory required for data: 1069389824
I0402 01:38:40.235093 16891 layer_factory.hpp:77] Creating layer conv3_relu
I0402 01:38:40.235106 16891 net.cpp:100] Creating Layer conv3_relu
I0402 01:38:40.235116 16891 net.cpp:434] conv3_relu <- conv3
I0402 01:38:40.235123 16891 net.cpp:395] conv3_relu -> conv3 (in-place)
I0402 01:38:40.236052 16891 net.cpp:150] Setting up conv3_relu
I0402 01:38:40.236073 16891 net.cpp:157] Top shape: 512 250 6 6 (4608000)
I0402 01:38:40.236076 16891 net.cpp:165] Memory required for data: 1087821824
I0402 01:38:40.236081 16891 layer_factory.hpp:77] Creating layer pool3
I0402 01:38:40.236089 16891 net.cpp:100] Creating Layer pool3
I0402 01:38:40.236093 16891 net.cpp:434] pool3 <- conv3
I0402 01:38:40.236102 16891 net.cpp:408] pool3 -> pool3
I0402 01:38:40.236171 16891 net.cpp:150] Setting up pool3
I0402 01:38:40.236202 16891 net.cpp:157] Top shape: 512 250 3 3 (1152000)
I0402 01:38:40.236207 16891 net.cpp:165] Memory required for data: 1092429824
I0402 01:38:40.236212 16891 layer_factory.hpp:77] Creating layer fc4_300
I0402 01:38:40.236220 16891 net.cpp:100] Creating Layer fc4_300
I0402 01:38:40.236224 16891 net.cpp:434] fc4_300 <- pool3
I0402 01:38:40.236232 16891 net.cpp:408] fc4_300 -> fc4_300
I0402 01:38:40.242971 16891 net.cpp:150] Setting up fc4_300
I0402 01:38:40.242996 16891 net.cpp:157] Top shape: 512 300 (153600)
I0402 01:38:40.243001 16891 net.cpp:165] Memory required for data: 1093044224
I0402 01:38:40.243011 16891 layer_factory.hpp:77] Creating layer fc4_relu
I0402 01:38:40.243021 16891 net.cpp:100] Creating Layer fc4_relu
I0402 01:38:40.243026 16891 net.cpp:434] fc4_relu <- fc4_300
I0402 01:38:40.243031 16891 net.cpp:395] fc4_relu -> fc4_300 (in-place)
I0402 01:38:40.243299 16891 net.cpp:150] Setting up fc4_relu
I0402 01:38:40.243314 16891 net.cpp:157] Top shape: 512 300 (153600)
I0402 01:38:40.243319 16891 net.cpp:165] Memory required for data: 1093658624
I0402 01:38:40.243324 16891 layer_factory.hpp:77] Creating layer drop4
I0402 01:38:40.243341 16891 net.cpp:100] Creating Layer drop4
I0402 01:38:40.243347 16891 net.cpp:434] drop4 <- fc4_300
I0402 01:38:40.243355 16891 net.cpp:395] drop4 -> fc4_300 (in-place)
I0402 01:38:40.243393 16891 net.cpp:150] Setting up drop4
I0402 01:38:40.243403 16891 net.cpp:157] Top shape: 512 300 (153600)
I0402 01:38:40.243407 16891 net.cpp:165] Memory required for data: 1094273024
I0402 01:38:40.243412 16891 layer_factory.hpp:77] Creating layer fc5_67
I0402 01:38:40.243420 16891 net.cpp:100] Creating Layer fc5_67
I0402 01:38:40.243423 16891 net.cpp:434] fc5_67 <- fc4_300
I0402 01:38:40.243432 16891 net.cpp:408] fc5_67 -> fc5_classes
I0402 01:38:40.245002 16891 net.cpp:150] Setting up fc5_67
I0402 01:38:40.245023 16891 net.cpp:157] Top shape: 512 67 (34304)
I0402 01:38:40.245028 16891 net.cpp:165] Memory required for data: 1094410240
I0402 01:38:40.245041 16891 layer_factory.hpp:77] Creating layer loss
I0402 01:38:40.245049 16891 net.cpp:100] Creating Layer loss
I0402 01:38:40.245054 16891 net.cpp:434] loss <- fc5_classes
I0402 01:38:40.245059 16891 net.cpp:434] loss <- label
I0402 01:38:40.245069 16891 net.cpp:408] loss -> loss
I0402 01:38:40.245085 16891 layer_factory.hpp:77] Creating layer loss
…
I0402 01:38:40.245857 16891 solver.cpp:193] Creating test net (#0) specified by test_net file: ./Prototxt/rtsd-r1/orig/test.prototxt
I0402 01:38:40.246031 16891 net.cpp:58] Initializing net from parameters: 
state {
  phase: TEST
}
layer {
  name: "data"
  type: "Data"
  top: "data"
  top: "label"
  include {
    phase: TEST
  }
  transform_param {
    mirror: false
    crop_size: 48
    mean_value: 113
    mean_value: 110
    mean_value: 132
  }
  data_param {
    source: "../local_data/lmdb/rtsd-r1/orig/test/lmdb"
    batch_size: 512
    backend: LMDB
  }
}
layer {
  name: "conv1"
  type: "Convolution"
  bottom: "data"
  top: "conv1"
  convolution_param {
    num_output: 100
    pad: 0
    kernel_size: 7
    group: 1
    stride: 1
    weight_filler {
      type: "xavier"
    }
  }
}
layer {
  name: "conv1_relu"
  type: "ReLU"
  bottom: "conv1"
  top: "conv1"
}
layer {
  name: "pool1"
  type: "Pooling"
  bottom: "conv1"
  top: "pool1"
  pooling_param {
    pool: MAX
    kernel_size: 2
    stride: 2
  }
}
layer {
  name: "conv2"
  type: "Convolution"
  bottom: "pool1"
  top: "conv2"
  convolution_param {
    num_output: 150
    pad: 0
    kernel_size: 4
    group: 1
    stride: 1
    weight_filler {
      type: "xavier"
    }
  }
}
layer {
  name: "conv2_relu"
  type: "ReLU"
  bottom: "conv2"
  top: "conv2"
}
layer {
  name: "pool2"
  type: "Pooling"
  bottom: "conv2"
  top: "pool2"
  pooling_param {
    pool: MAX
    kernel_size: 2
    stride: 2
  }
}
layer {
  name: "conv3"
  type: "Convolution"
  bottom: "pool2"
  top: "conv3"
  convolution_param {
    num_output: 250
    pad: 0
    kernel_size: 4
    group: 1
    stride: 1
    weight_filler {
      type: "xavier"
    }
  }
}
layer {
  name: "conv3_relu"
  type: "ReLU"
  bottom: "conv3"
  top: "conv3"
}
layer {
  name: "pool3"
  type: "Pooling"
  bottom: "conv3"
  top: "pool3"
  pooling_param {
    pool: MAX
    kernel_size: 2
    stride: 2
  }
}
layer {
  name: "fc4_300"
  type: "InnerProduct"
  bottom: "pool3"
  top: "fc4_300"
  inner_product_param {
    num_output: 300
    weight_filler {
      type: "xavier"
    }
  }
}
layer {
  name: "fc4_relu"
  type: "ReLU"
  bottom: "fc4_300"
  top: "fc4_300"
}
layer {
  name: "drop4"
  type: "Dropout"
  bottom: "fc4_300"
  top: "fc4_300"
  dropout_param {
    dropout_ratio: 0.4
  }
}
layer {
  name: "fc5_67"
  type: "InnerProduct"
  bottom: "fc4_300"
  top: "fc5_classes"
  inner_product_param {
    num_output: 67
    weight_filler {
      type: "xavier"
    }
  }
}
layer {
  name: "loss"
  type: "SoftmaxWithLoss"
  bottom: "fc5_classes"
  bottom: "label"
  top: "loss"
}
layer {
  name: "accuracy_1"
  type: "Accuracy"
  bottom: "fc5_classes"
  bottom: "label"
  top: "accuracy_1"
  include {
    phase: TEST
  }
  accuracy_param {
    top_k: 1
  }
}
layer {
  name: "accuracy_5"
  type: "Accuracy"
  bottom: "fc5_classes"
  bottom: "label"
  top: "accuracy_5"
  include {
    phase: TEST
  }
  accuracy_param {
    top_k: 5
  }
}
I0402 01:38:40.246146 16891 layer_factory.hpp:77] Creating layer data
I0402 01:38:40.246835 16891 net.cpp:100] Creating Layer data
I0402 01:38:40.246850 16891 net.cpp:408] data -> data
I0402 01:38:40.246868 16891 net.cpp:408] data -> label
I0402 01:38:40.247994 16940 db_lmdb.cpp:35] Opened lmdb ../local_data/lmdb/rtsd-r1/orig/test/lmdb
I0402 01:38:40.248217 16891 data_layer.cpp:41] output data size: 512,3,48,48
I0402 01:38:40.274102 16891 net.cpp:150] Setting up data
I0402 01:38:40.274137 16891 net.cpp:157] Top shape: 512 3 48 48 (3538944)
I0402 01:38:40.274144 16891 net.cpp:157] Top shape: 512 (512)
I0402 01:38:40.274147 16891 net.cpp:165] Memory required for data: 14157824
I0402 01:38:40.274155 16891 layer_factory.hpp:77] Creating layer label_data_1_split
I0402 01:38:40.274173 16891 net.cpp:100] Creating Layer label_data_1_split
I0402 01:38:40.274178 16891 net.cpp:434] label_data_1_split <- label
I0402 01:38:40.274188 16891 net.cpp:408] label_data_1_split -> label_data_1_split_0
I0402 01:38:40.274202 16891 net.cpp:408] label_data_1_split -> label_data_1_split_1
I0402 01:38:40.274215 16891 net.cpp:408] label_data_1_split -> label_data_1_split_2
I0402 01:38:40.274411 16891 net.cpp:150] Setting up label_data_1_split
I0402 01:38:40.274425 16891 net.cpp:157] Top shape: 512 (512)
I0402 01:38:40.274449 16891 net.cpp:157] Top shape: 512 (512)
I0402 01:38:40.274454 16891 net.cpp:157] Top shape: 512 (512)
I0402 01:38:40.274457 16891 net.cpp:165] Memory required for data: 14163968
I0402 01:38:40.274462 16891 layer_factory.hpp:77] Creating layer conv1
I0402 01:38:40.274482 16891 net.cpp:100] Creating Layer conv1
I0402 01:38:40.274489 16891 net.cpp:434] conv1 <- data
I0402 01:38:40.274497 16891 net.cpp:408] conv1 -> conv1
I0402 01:38:40.277794 16891 net.cpp:150] Setting up conv1
I0402 01:38:40.277819 16891 net.cpp:157] Top shape: 512 100 42 42 (90316800)
I0402 01:38:40.277825 16891 net.cpp:165] Memory required for data: 375431168
I0402 01:38:40.277840 16891 layer_factory.hpp:77] Creating layer conv1_relu
I0402 01:38:40.277850 16891 net.cpp:100] Creating Layer conv1_relu
I0402 01:38:40.277854 16891 net.cpp:434] conv1_relu <- conv1
I0402 01:38:40.277864 16891 net.cpp:395] conv1_relu -> conv1 (in-place)
I0402 01:38:40.278102 16891 net.cpp:150] Setting up conv1_relu
I0402 01:38:40.278117 16891 net.cpp:157] Top shape: 512 100 42 42 (90316800)
I0402 01:38:40.278123 16891 net.cpp:165] Memory required for data: 736698368
I0402 01:38:40.278128 16891 layer_factory.hpp:77] Creating layer pool1
I0402 01:38:40.278141 16891 net.cpp:100] Creating Layer pool1
I0402 01:38:40.278148 16891 net.cpp:434] pool1 <- conv1
I0402 01:38:40.278154 16891 net.cpp:408] pool1 -> pool1
I0402 01:38:40.278218 16891 net.cpp:150] Setting up pool1
I0402 01:38:40.278228 16891 net.cpp:157] Top shape: 512 100 21 21 (22579200)
I0402 01:38:40.278231 16891 net.cpp:165] Memory required for data: 827015168
I0402 01:38:40.278235 16891 layer_factory.hpp:77] Creating layer conv2
I0402 01:38:40.278247 16891 net.cpp:100] Creating Layer conv2
I0402 01:38:40.278254 16891 net.cpp:434] conv2 <- pool1
I0402 01:38:40.278260 16891 net.cpp:408] conv2 -> conv2
I0402 01:38:40.281903 16891 net.cpp:150] Setting up conv2
I0402 01:38:40.281926 16891 net.cpp:157] Top shape: 512 150 18 18 (24883200)
I0402 01:38:40.281931 16891 net.cpp:165] Memory required for data: 926547968
I0402 01:38:40.281944 16891 layer_factory.hpp:77] Creating layer conv2_relu
I0402 01:38:40.281952 16891 net.cpp:100] Creating Layer conv2_relu
I0402 01:38:40.281957 16891 net.cpp:434] conv2_relu <- conv2
I0402 01:38:40.281963 16891 net.cpp:395] conv2_relu -> conv2 (in-place)
I0402 01:38:40.282897 16891 net.cpp:150] Setting up conv2_relu
I0402 01:38:40.282917 16891 net.cpp:157] Top shape: 512 150 18 18 (24883200)
I0402 01:38:40.282920 16891 net.cpp:165] Memory required for data: 1026080768
I0402 01:38:40.282925 16891 layer_factory.hpp:77] Creating layer pool2
I0402 01:38:40.282935 16891 net.cpp:100] Creating Layer pool2
I0402 01:38:40.282939 16891 net.cpp:434] pool2 <- conv2
I0402 01:38:40.282953 16891 net.cpp:408] pool2 -> pool2
I0402 01:38:40.283018 16891 net.cpp:150] Setting up pool2
I0402 01:38:40.283030 16891 net.cpp:157] Top shape: 512 150 9 9 (6220800)
I0402 01:38:40.283035 16891 net.cpp:165] Memory required for data: 1050963968
I0402 01:38:40.283038 16891 layer_factory.hpp:77] Creating layer conv3
I0402 01:38:40.283054 16891 net.cpp:100] Creating Layer conv3
I0402 01:38:40.283061 16891 net.cpp:434] conv3 <- pool2
I0402 01:38:40.283069 16891 net.cpp:408] conv3 -> conv3
I0402 01:38:40.290052 16891 net.cpp:150] Setting up conv3
I0402 01:38:40.290079 16891 net.cpp:157] Top shape: 512 250 6 6 (4608000)
I0402 01:38:40.290084 16891 net.cpp:165] Memory required for data: 1069395968
I0402 01:38:40.290101 16891 layer_factory.hpp:77] Creating layer conv3_relu
I0402 01:38:40.290110 16891 net.cpp:100] Creating Layer conv3_relu
I0402 01:38:40.290122 16891 net.cpp:434] conv3_relu <- conv3
I0402 01:38:40.290129 16891 net.cpp:395] conv3_relu -> conv3 (in-place)
I0402 01:38:40.291100 16891 net.cpp:150] Setting up conv3_relu
I0402 01:38:40.291119 16891 net.cpp:157] Top shape: 512 250 6 6 (4608000)
I0402 01:38:40.291124 16891 net.cpp:165] Memory required for data: 1087827968
I0402 01:38:40.291129 16891 layer_factory.hpp:77] Creating layer pool3
I0402 01:38:40.291139 16891 net.cpp:100] Creating Layer pool3
I0402 01:38:40.291162 16891 net.cpp:434] pool3 <- conv3
I0402 01:38:40.291172 16891 net.cpp:408] pool3 -> pool3
I0402 01:38:40.291241 16891 net.cpp:150] Setting up pool3
I0402 01:38:40.291254 16891 net.cpp:157] Top shape: 512 250 3 3 (1152000)
I0402 01:38:40.291259 16891 net.cpp:165] Memory required for data: 1092435968
I0402 01:38:40.291262 16891 layer_factory.hpp:77] Creating layer fc4_300
I0402 01:38:40.291272 16891 net.cpp:100] Creating Layer fc4_300
I0402 01:38:40.291278 16891 net.cpp:434] fc4_300 <- pool3
I0402 01:38:40.291285 16891 net.cpp:408] fc4_300 -> fc4_300
I0402 01:38:40.298041 16891 net.cpp:150] Setting up fc4_300
I0402 01:38:40.298065 16891 net.cpp:157] Top shape: 512 300 (153600)
I0402 01:38:40.298076 16891 net.cpp:165] Memory required for data: 1093050368
I0402 01:38:40.298086 16891 layer_factory.hpp:77] Creating layer fc4_relu
I0402 01:38:40.298095 16891 net.cpp:100] Creating Layer fc4_relu
I0402 01:38:40.298099 16891 net.cpp:434] fc4_relu <- fc4_300
I0402 01:38:40.298108 16891 net.cpp:395] fc4_relu -> fc4_300 (in-place)
I0402 01:38:40.298372 16891 net.cpp:150] Setting up fc4_relu
I0402 01:38:40.298388 16891 net.cpp:157] Top shape: 512 300 (153600)
I0402 01:38:40.298391 16891 net.cpp:165] Memory required for data: 1093664768
I0402 01:38:40.298396 16891 layer_factory.hpp:77] Creating layer drop4
I0402 01:38:40.298408 16891 net.cpp:100] Creating Layer drop4
I0402 01:38:40.298414 16891 net.cpp:434] drop4 <- fc4_300
I0402 01:38:40.298421 16891 net.cpp:395] drop4 -> fc4_300 (in-place)
I0402 01:38:40.298460 16891 net.cpp:150] Setting up drop4
I0402 01:38:40.298470 16891 net.cpp:157] Top shape: 512 300 (153600)
I0402 01:38:40.298473 16891 net.cpp:165] Memory required for data: 1094279168
I0402 01:38:40.298478 16891 layer_factory.hpp:77] Creating layer fc5_67
I0402 01:38:40.298486 16891 net.cpp:100] Creating Layer fc5_67
I0402 01:38:40.298490 16891 net.cpp:434] fc5_67 <- fc4_300
I0402 01:38:40.298498 16891 net.cpp:408] fc5_67 -> fc5_classes
I0402 01:38:40.298810 16891 net.cpp:150] Setting up fc5_67
I0402 01:38:40.298821 16891 net.cpp:157] Top shape: 512 67 (34304)
I0402 01:38:40.298825 16891 net.cpp:165] Memory required for data: 1094416384
I0402 01:38:40.298838 16891 layer_factory.hpp:77] Creating layer fc5_classes_fc5_67_0_split
I0402 01:38:40.298847 16891 net.cpp:100] Creating Layer fc5_classes_fc5_67_0_split
I0402 01:38:40.298856 16891 net.cpp:434] fc5_classes_fc5_67_0_split <- fc5_classes
I0402 01:38:40.298873 16891 net.cpp:408] fc5_classes_fc5_67_0_split -> fc5_classes_fc5_67_0_split_0
I0402 01:38:40.298884 16891 net.cpp:408] fc5_classes_fc5_67_0_split -> fc5_classes_fc5_67_0_split_1
I0402 01:38:40.298893 16891 net.cpp:408] fc5_classes_fc5_67_0_split -> fc5_classes_fc5_67_0_split_2
I0402 01:38:40.298966 16891 net.cpp:150] Setting up fc5_classes_fc5_67_0_split
I0402 01:38:40.298977 16891 net.cpp:157] Top shape: 512 67 (34304)
I0402 01:38:40.298982 16891 net.cpp:157] Top shape: 512 67 (34304)
I0402 01:38:40.298986 16891 net.cpp:157] Top shape: 512 67 (34304)
I0402 01:38:40.298990 16891 net.cpp:165] Memory required for data: 1094828032
I0402 01:38:40.298993 16891 layer_factory.hpp:77] Creating layer loss
I0402 01:38:40.299010 16891 net.cpp:100] Creating Layer loss
I0402 01:38:40.299015 16891 net.cpp:434] loss <- fc5_classes_fc5_67_0_split_0
I0402 01:38:40.299021 16891 net.cpp:434] loss <- label_data_1_split_0
I0402 01:38:40.299028 16891 net.cpp:408] loss -> loss
…
