…
I0411 05:03:27.751372  3260 net.cpp:322] The NetState phase (0) differed from the phase (1) specified by a rule in layer accuracy_5
I0411 05:03:27.751572  3260 net.cpp:58] Initializing net from parameters: 
state {
  phase: TRAIN
  level: 0
  stage: ""
}
layer {
  name: "data"
  type: "Data"
  top: "data"
  top: "label"
  include {
    phase: TRAIN
  }
  transform_param {
    scale: 0.0039215689
    mirror: false
    crop_size: 48
    mean_value: 132
    mean_value: 126
    mean_value: 140
  }
  data_param {
    source: "../local_data/lmdb/rtsd-r1/AHE/train/lmdb"
    batch_size: 1024
    backend: LMDB
  }
}
layer {
  name: "conv1"
  type: "Convolution"
  bottom: "data"
  top: "conv1"
  convolution_param {
    num_output: 100
    pad: 0
    kernel_size: 7
    group: 1
    stride: 1
    weight_filler {
      type: "xavier"
    }
  }
}
layer {
  name: "conv1_prescale"
  type: "Scale"
  bottom: "conv1"
  top: "conv1"
  param {
    lr_mult: 0
    decay_mult: 0
  }
  scale_param {
    filler {
      value: 0.6666
    }
    bias_term: false
  }
}
layer {
  name: "conv1_sTanH"
  type: "TanH"
  bottom: "conv1"
  top: "conv1"
}
layer {
  name: "conv1_postscale"
  type: "Scale"
  bottom: "conv1"
  top: "conv1"
  param {
    lr_mult: 0
    decay_mult: 0
  }
  scale_param {
    filler {
      value: 1.7159
    }
    bias_term: false
  }
}
layer {
  name: "pool1"
  type: "Pooling"
  bottom: "conv1"
  top: "pool1"
  pooling_param {
    pool: MAX
    kernel_size: 2
    stride: 2
  }
}
layer {
  name: "conv2"
  type: "Convolution"
  bottom: "pool1"
  top: "conv2"
  convolution_param {
    num_output: 150
    pad: 0
    kernel_size: 4
    group: 1
    stride: 1
    weight_filler {
      type: "xavier"
    }
  }
}
layer {
  name: "conv2_prescale"
  type: "Scale"
  bottom: "conv2"
  top: "conv2"
  param {
    lr_mult: 0
    decay_mult: 0
  }
  scale_param {
    filler {
      value: 0.6666
    }
    bias_term: false
  }
}
layer {
  name: "conv2_sTanH"
  type: "TanH"
  bottom: "conv2"
  top: "conv2"
}
layer {
  name: "conv2_postscale"
  type: "Scale"
  bottom: "conv2"
  top: "conv2"
  param {
    lr_mult: 0
    decay_mult: 0
  }
  scale_param {
    filler {
      value: 1.7159
    }
    bias_term: false
  }
}
layer {
  name: "pool2"
  type: "Pooling"
  bottom: "conv2"
  top: "pool2"
  pooling_param {
    pool: MAX
    kernel_size: 2
    stride: 2
  }
}
layer {
  name: "conv3"
  type: "Convolution"
  bottom: "pool2"
  top: "conv3"
  convolution_param {
    num_output: 250
    pad: 0
    kernel_size: 4
    group: 1
    stride: 1
    weight_filler {
      type: "xavier"
    }
  }
}
layer {
  name: "conv3_prescale"
  type: "Scale"
  bottom: "conv3"
  top: "conv3"
  param {
    lr_mult: 0
    decay_mult: 0
  }
  scale_param {
    filler {
      value: 0.6666
    }
    bias_term: false
  }
}
layer {
  name: "conv3_sTanH"
  type: "TanH"
  bottom: "conv3"
  top: "conv3"
}
layer {
  name: "conv3_postscale"
  type: "Scale"
  bottom: "conv3"
  top: "conv3"
  param {
    lr_mult: 0
    decay_mult: 0
  }
  scale_param {
    filler {
      value: 1.7159
    }
    bias_term: false
  }
}
layer {
  name: "pool3"
  type: "Pooling"
  bottom: "conv3"
  top: "pool3"
  pooling_param {
    pool: MAX
    kernel_size: 2
    stride: 2
  }
}
layer {
  name: "fc4_300"
  type: "InnerProduct"
  bottom: "pool3"
  top: "fc4_300"
  inner_product_param {
    num_output: 300
    weight_filler {
      type: "xavier"
    }
  }
}
layer {
  name: "fc4_prescale"
  type: "Scale"
  bottom: "fc4_300"
  top: "fc4_300"
  param {
    lr_mult: 0
    decay_mult: 0
  }
  scale_param {
    filler {
      value: 0.6666
    }
    bias_term: false
  }
}
layer {
  name: "fc4_sTanH"
  type: "TanH"
  bottom: "fc4_300"
  top: "fc4_300"
}
layer {
  name: "fc4_postscale"
  type: "Scale"
  bottom: "fc4_300"
  top: "fc4_300"
  param {
    lr_mult: 0
    decay_mult: 0
  }
  scale_param {
    filler {
      value: 1.7159
    }
    bias_term: false
  }
}
layer {
  name: "fc5_67"
  type: "InnerProduct"
  bottom: "fc4_300"
  top: "fc5_classes"
  inner_product_param {
    num_output: 67
    weight_filler {
      type: "xavier"
    }
  }
}
layer {
  name: "loss"
  type: "SoftmaxWithLoss"
  bottom: "fc5_classes"
  bottom: "label"
  top: "loss"
}
I0411 05:03:27.751709  3260 layer_factory.hpp:77] Creating layer data
I0411 05:03:27.753208  3260 net.cpp:100] Creating Layer data
I0411 05:03:27.753233  3260 net.cpp:408] data -> data
I0411 05:03:27.753264  3260 net.cpp:408] data -> label
I0411 05:03:27.754403  3363 db_lmdb.cpp:35] Opened lmdb ../local_data/lmdb/rtsd-r1/AHE/train/lmdb
I0411 05:03:27.776610  3260 data_layer.cpp:41] output data size: 1024,3,48,48
I0411 05:03:27.824656  3260 net.cpp:150] Setting up data
I0411 05:03:27.824689  3260 net.cpp:157] Top shape: 1024 3 48 48 (7077888)
I0411 05:03:27.824695  3260 net.cpp:157] Top shape: 1024 (1024)
I0411 05:03:27.824698  3260 net.cpp:165] Memory required for data: 28315648
I0411 05:03:27.824709  3260 layer_factory.hpp:77] Creating layer conv1
I0411 05:03:27.824735  3260 net.cpp:100] Creating Layer conv1
I0411 05:03:27.824743  3260 net.cpp:434] conv1 <- data
I0411 05:03:27.824759  3260 net.cpp:408] conv1 -> conv1
I0411 05:03:28.123764  3260 net.cpp:150] Setting up conv1
I0411 05:03:28.123793  3260 net.cpp:157] Top shape: 1024 100 42 42 (180633600)
I0411 05:03:28.123797  3260 net.cpp:165] Memory required for data: 750850048
I0411 05:03:28.123819  3260 layer_factory.hpp:77] Creating layer conv1_prescale
I0411 05:03:28.123833  3260 net.cpp:100] Creating Layer conv1_prescale
I0411 05:03:28.123837  3260 net.cpp:434] conv1_prescale <- conv1
I0411 05:03:28.123843  3260 net.cpp:395] conv1_prescale -> conv1 (in-place)
I0411 05:03:28.123973  3260 net.cpp:150] Setting up conv1_prescale
I0411 05:03:28.123984  3260 net.cpp:157] Top shape: 1024 100 42 42 (180633600)
I0411 05:03:28.123986  3260 net.cpp:165] Memory required for data: 1473384448
I0411 05:03:28.123993  3260 layer_factory.hpp:77] Creating layer conv1_sTanH
I0411 05:03:28.124001  3260 net.cpp:100] Creating Layer conv1_sTanH
I0411 05:03:28.124004  3260 net.cpp:434] conv1_sTanH <- conv1
I0411 05:03:28.124008  3260 net.cpp:395] conv1_sTanH -> conv1 (in-place)
I0411 05:03:28.124212  3260 net.cpp:150] Setting up conv1_sTanH
I0411 05:03:28.124224  3260 net.cpp:157] Top shape: 1024 100 42 42 (180633600)
I0411 05:03:28.124228  3260 net.cpp:165] Memory required for data: 2195918848
I0411 05:03:28.124230  3260 layer_factory.hpp:77] Creating layer conv1_postscale
I0411 05:03:28.124249  3260 net.cpp:100] Creating Layer conv1_postscale
I0411 05:03:28.124254  3260 net.cpp:434] conv1_postscale <- conv1
I0411 05:03:28.124259  3260 net.cpp:395] conv1_postscale -> conv1 (in-place)
I0411 05:03:28.124352  3260 net.cpp:150] Setting up conv1_postscale
I0411 05:03:28.124361  3260 net.cpp:157] Top shape: 1024 100 42 42 (180633600)
I0411 05:03:28.124363  3260 net.cpp:165] Memory required for data: 2918453248
I0411 05:03:28.124368  3260 layer_factory.hpp:77] Creating layer pool1
I0411 05:03:28.124374  3260 net.cpp:100] Creating Layer pool1
I0411 05:03:28.124377  3260 net.cpp:434] pool1 <- conv1
I0411 05:03:28.124382  3260 net.cpp:408] pool1 -> pool1
I0411 05:03:28.124434  3260 net.cpp:150] Setting up pool1
I0411 05:03:28.124442  3260 net.cpp:157] Top shape: 1024 100 21 21 (45158400)
I0411 05:03:28.124464  3260 net.cpp:165] Memory required for data: 3099086848
I0411 05:03:28.124469  3260 layer_factory.hpp:77] Creating layer conv2
I0411 05:03:28.124478  3260 net.cpp:100] Creating Layer conv2
I0411 05:03:28.124482  3260 net.cpp:434] conv2 <- pool1
I0411 05:03:28.124486  3260 net.cpp:408] conv2 -> conv2
I0411 05:03:28.128808  3260 net.cpp:150] Setting up conv2
I0411 05:03:28.128824  3260 net.cpp:157] Top shape: 1024 150 18 18 (49766400)
I0411 05:03:28.128828  3260 net.cpp:165] Memory required for data: 3298152448
I0411 05:03:28.128837  3260 layer_factory.hpp:77] Creating layer conv2_prescale
I0411 05:03:28.128845  3260 net.cpp:100] Creating Layer conv2_prescale
I0411 05:03:28.128849  3260 net.cpp:434] conv2_prescale <- conv2
I0411 05:03:28.128857  3260 net.cpp:395] conv2_prescale -> conv2 (in-place)
I0411 05:03:28.128971  3260 net.cpp:150] Setting up conv2_prescale
I0411 05:03:28.128980  3260 net.cpp:157] Top shape: 1024 150 18 18 (49766400)
I0411 05:03:28.128983  3260 net.cpp:165] Memory required for data: 3497218048
I0411 05:03:28.128988  3260 layer_factory.hpp:77] Creating layer conv2_sTanH
I0411 05:03:28.128994  3260 net.cpp:100] Creating Layer conv2_sTanH
I0411 05:03:28.128998  3260 net.cpp:434] conv2_sTanH <- conv2
I0411 05:03:28.129001  3260 net.cpp:395] conv2_sTanH -> conv2 (in-place)
I0411 05:03:28.129930  3260 net.cpp:150] Setting up conv2_sTanH
I0411 05:03:28.129943  3260 net.cpp:157] Top shape: 1024 150 18 18 (49766400)
I0411 05:03:28.129946  3260 net.cpp:165] Memory required for data: 3696283648
I0411 05:03:28.129950  3260 layer_factory.hpp:77] Creating layer conv2_postscale
I0411 05:03:28.129956  3260 net.cpp:100] Creating Layer conv2_postscale
I0411 05:03:28.129959  3260 net.cpp:434] conv2_postscale <- conv2
I0411 05:03:28.129964  3260 net.cpp:395] conv2_postscale -> conv2 (in-place)
I0411 05:03:28.130067  3260 net.cpp:150] Setting up conv2_postscale
I0411 05:03:28.130076  3260 net.cpp:157] Top shape: 1024 150 18 18 (49766400)
I0411 05:03:28.130079  3260 net.cpp:165] Memory required for data: 3895349248
I0411 05:03:28.130084  3260 layer_factory.hpp:77] Creating layer pool2
I0411 05:03:28.130089  3260 net.cpp:100] Creating Layer pool2
I0411 05:03:28.130092  3260 net.cpp:434] pool2 <- conv2
I0411 05:03:28.130096  3260 net.cpp:408] pool2 -> pool2
I0411 05:03:28.130133  3260 net.cpp:150] Setting up pool2
I0411 05:03:28.130141  3260 net.cpp:157] Top shape: 1024 150 9 9 (12441600)
I0411 05:03:28.130143  3260 net.cpp:165] Memory required for data: 3945115648
I0411 05:03:28.130146  3260 layer_factory.hpp:77] Creating layer conv3
I0411 05:03:28.130154  3260 net.cpp:100] Creating Layer conv3
I0411 05:03:28.130157  3260 net.cpp:434] conv3 <- pool2
I0411 05:03:28.130162  3260 net.cpp:408] conv3 -> conv3
I0411 05:03:28.135618  3260 net.cpp:150] Setting up conv3
I0411 05:03:28.135634  3260 net.cpp:157] Top shape: 1024 250 6 6 (9216000)
I0411 05:03:28.135650  3260 net.cpp:165] Memory required for data: 3981979648
I0411 05:03:28.135660  3260 layer_factory.hpp:77] Creating layer conv3_prescale
I0411 05:03:28.135668  3260 net.cpp:100] Creating Layer conv3_prescale
I0411 05:03:28.135670  3260 net.cpp:434] conv3_prescale <- conv3
I0411 05:03:28.135676  3260 net.cpp:395] conv3_prescale -> conv3 (in-place)
I0411 05:03:28.135766  3260 net.cpp:150] Setting up conv3_prescale
I0411 05:03:28.135774  3260 net.cpp:157] Top shape: 1024 250 6 6 (9216000)
I0411 05:03:28.135777  3260 net.cpp:165] Memory required for data: 4018843648
I0411 05:03:28.135782  3260 layer_factory.hpp:77] Creating layer conv3_sTanH
I0411 05:03:28.135787  3260 net.cpp:100] Creating Layer conv3_sTanH
I0411 05:03:28.135790  3260 net.cpp:434] conv3_sTanH <- conv3
I0411 05:03:28.135794  3260 net.cpp:395] conv3_sTanH -> conv3 (in-place)
I0411 05:03:28.136639  3260 net.cpp:150] Setting up conv3_sTanH
I0411 05:03:28.136654  3260 net.cpp:157] Top shape: 1024 250 6 6 (9216000)
I0411 05:03:28.136657  3260 net.cpp:165] Memory required for data: 4055707648
I0411 05:03:28.136662  3260 layer_factory.hpp:77] Creating layer conv3_postscale
I0411 05:03:28.136667  3260 net.cpp:100] Creating Layer conv3_postscale
I0411 05:03:28.136684  3260 net.cpp:434] conv3_postscale <- conv3
I0411 05:03:28.136703  3260 net.cpp:395] conv3_postscale -> conv3 (in-place)
I0411 05:03:28.136797  3260 net.cpp:150] Setting up conv3_postscale
I0411 05:03:28.136806  3260 net.cpp:157] Top shape: 1024 250 6 6 (9216000)
I0411 05:03:28.136808  3260 net.cpp:165] Memory required for data: 4092571648
I0411 05:03:28.136813  3260 layer_factory.hpp:77] Creating layer pool3
I0411 05:03:28.136819  3260 net.cpp:100] Creating Layer pool3
I0411 05:03:28.136821  3260 net.cpp:434] pool3 <- conv3
I0411 05:03:28.136826  3260 net.cpp:408] pool3 -> pool3
I0411 05:03:28.136862  3260 net.cpp:150] Setting up pool3
I0411 05:03:28.136868  3260 net.cpp:157] Top shape: 1024 250 3 3 (2304000)
I0411 05:03:28.136871  3260 net.cpp:165] Memory required for data: 4101787648
I0411 05:03:28.136874  3260 layer_factory.hpp:77] Creating layer fc4_300
I0411 05:03:28.136883  3260 net.cpp:100] Creating Layer fc4_300
I0411 05:03:28.136886  3260 net.cpp:434] fc4_300 <- pool3
I0411 05:03:28.136891  3260 net.cpp:408] fc4_300 -> fc4_300
I0411 05:03:28.142184  3260 net.cpp:150] Setting up fc4_300
I0411 05:03:28.142199  3260 net.cpp:157] Top shape: 1024 300 (307200)
I0411 05:03:28.142215  3260 net.cpp:165] Memory required for data: 4103016448
I0411 05:03:28.142232  3260 layer_factory.hpp:77] Creating layer fc4_prescale
I0411 05:03:28.142240  3260 net.cpp:100] Creating Layer fc4_prescale
I0411 05:03:28.142242  3260 net.cpp:434] fc4_prescale <- fc4_300
I0411 05:03:28.142259  3260 net.cpp:395] fc4_prescale -> fc4_300 (in-place)
I0411 05:03:28.142346  3260 net.cpp:150] Setting up fc4_prescale
I0411 05:03:28.142354  3260 net.cpp:157] Top shape: 1024 300 (307200)
I0411 05:03:28.142357  3260 net.cpp:165] Memory required for data: 4104245248
I0411 05:03:28.142361  3260 layer_factory.hpp:77] Creating layer fc4_sTanH
I0411 05:03:28.142366  3260 net.cpp:100] Creating Layer fc4_sTanH
I0411 05:03:28.142369  3260 net.cpp:434] fc4_sTanH <- fc4_300
I0411 05:03:28.142374  3260 net.cpp:395] fc4_sTanH -> fc4_300 (in-place)
I0411 05:03:28.142550  3260 net.cpp:150] Setting up fc4_sTanH
I0411 05:03:28.142561  3260 net.cpp:157] Top shape: 1024 300 (307200)
I0411 05:03:28.142565  3260 net.cpp:165] Memory required for data: 4105474048
I0411 05:03:28.142567  3260 layer_factory.hpp:77] Creating layer fc4_postscale
I0411 05:03:28.142575  3260 net.cpp:100] Creating Layer fc4_postscale
I0411 05:03:28.142577  3260 net.cpp:434] fc4_postscale <- fc4_300
I0411 05:03:28.142581  3260 net.cpp:395] fc4_postscale -> fc4_300 (in-place)
I0411 05:03:28.142670  3260 net.cpp:150] Setting up fc4_postscale
I0411 05:03:28.142678  3260 net.cpp:157] Top shape: 1024 300 (307200)
I0411 05:03:28.142680  3260 net.cpp:165] Memory required for data: 4106702848
I0411 05:03:28.142684  3260 layer_factory.hpp:77] Creating layer fc5_67
I0411 05:03:28.142690  3260 net.cpp:100] Creating Layer fc5_67
I0411 05:03:28.142693  3260 net.cpp:434] fc5_67 <- fc4_300
I0411 05:03:28.142699  3260 net.cpp:408] fc5_67 -> fc5_classes
I0411 05:03:28.145205  3260 net.cpp:150] Setting up fc5_67
I0411 05:03:28.145220  3260 net.cpp:157] Top shape: 1024 67 (68608)
I0411 05:03:28.145234  3260 net.cpp:165] Memory required for data: 4106977280
I0411 05:03:28.145246  3260 layer_factory.hpp:77] Creating layer loss
I0411 05:03:28.145252  3260 net.cpp:100] Creating Layer loss
I0411 05:03:28.145256  3260 net.cpp:434] loss <- fc5_classes
I0411 05:03:28.145259  3260 net.cpp:434] loss <- label
I0411 05:03:28.145265  3260 net.cpp:408] loss -> loss
I0411 05:03:28.145280  3260 layer_factory.hpp:77] Creating layer loss
…
I0411 05:03:28.145993  3260 solver.cpp:193] Creating test net (#0) specified by test_net file: ./Prototxt/experiment_8/rtsd-r1/AHE/trial_3/test.prototxt
I0411 05:03:28.146170  3260 net.cpp:58] Initializing net from parameters: 
state {
  phase: TEST
}
layer {
  name: "data"
  type: "Data"
  top: "data"
  top: "label"
  include {
    phase: TEST
  }
  transform_param {
    scale: 0.0039215689
    mirror: false
    crop_size: 48
    mean_value: 126
    mean_value: 124
    mean_value: 145
  }
  data_param {
    source: "../local_data/lmdb/rtsd-r1/AHE/test/lmdb"
    batch_size: 1024
    backend: LMDB
  }
}
layer {
  name: "conv1"
  type: "Convolution"
  bottom: "data"
  top: "conv1"
  convolution_param {
    num_output: 100
    pad: 0
    kernel_size: 7
    group: 1
    stride: 1
    weight_filler {
      type: "xavier"
    }
  }
}
layer {
  name: "conv1_prescale"
  type: "Scale"
  bottom: "conv1"
  top: "conv1"
  param {
    lr_mult: 0
    decay_mult: 0
  }
  scale_param {
    filler {
      value: 0.6666
    }
    bias_term: false
  }
}
layer {
  name: "conv1_sTanH"
  type: "TanH"
  bottom: "conv1"
  top: "conv1"
}
layer {
  name: "conv1_postscale"
  type: "Scale"
  bottom: "conv1"
  top: "conv1"
  param {
    lr_mult: 0
    decay_mult: 0
  }
  scale_param {
    filler {
      value: 1.7159
    }
    bias_term: false
  }
}
layer {
  name: "pool1"
  type: "Pooling"
  bottom: "conv1"
  top: "pool1"
  pooling_param {
    pool: MAX
    kernel_size: 2
    stride: 2
  }
}
layer {
  name: "conv2"
  type: "Convolution"
  bottom: "pool1"
  top: "conv2"
  convolution_param {
    num_output: 150
    pad: 0
    kernel_size: 4
    group: 1
    stride: 1
    weight_filler {
      type: "xavier"
    }
  }
}
layer {
  name: "conv2_prescale"
  type: "Scale"
  bottom: "conv2"
  top: "conv2"
  param {
    lr_mult: 0
    decay_mult: 0
  }
  scale_param {
    filler {
      value: 0.6666
    }
    bias_term: false
  }
}
layer {
  name: "conv2_sTanH"
  type: "TanH"
  bottom: "conv2"
  top: "conv2"
}
layer {
  name: "conv2_postscale"
  type: "Scale"
  bottom: "conv2"
  top: "conv2"
  param {
    lr_mult: 0
    decay_mult: 0
  }
  scale_param {
    filler {
      value: 1.7159
    }
    bias_term: false
  }
}
layer {
  name: "pool2"
  type: "Pooling"
  bottom: "conv2"
  top: "pool2"
  pooling_param {
    pool: MAX
    kernel_size: 2
    stride: 2
  }
}
layer {
  name: "conv3"
  type: "Convolution"
  bottom: "pool2"
  top: "conv3"
  convolution_param {
    num_output: 250
    pad: 0
    kernel_size: 4
    group: 1
    stride: 1
    weight_filler {
      type: "xavier"
    }
  }
}
layer {
  name: "conv3_prescale"
  type: "Scale"
  bottom: "conv3"
  top: "conv3"
  param {
    lr_mult: 0
    decay_mult: 0
  }
  scale_param {
    filler {
      value: 0.6666
    }
    bias_term: false
  }
}
layer {
  name: "conv3_sTanH"
  type: "TanH"
  bottom: "conv3"
  top: "conv3"
}
layer {
  name: "conv3_postscale"
  type: "Scale"
  bottom: "conv3"
  top: "conv3"
  param {
    lr_mult: 0
    decay_mult: 0
  }
  scale_param {
    filler {
      value: 1.7159
    }
    bias_term: false
  }
}
layer {
  name: "pool3"
  type: "Pooling"
  bottom: "conv3"
  top: "pool3"
  pooling_param {
    pool: MAX
    kernel_size: 2
    stride: 2
  }
}
layer {
  name: "fc4_300"
  type: "InnerProduct"
  bottom: "pool3"
  top: "fc4_300"
  inner_product_param {
    num_output: 300
    weight_filler {
      type: "xavier"
    }
  }
}
layer {
  name: "fc4_prescale"
  type: "Scale"
  bottom: "fc4_300"
  top: "fc4_300"
  param {
    lr_mult: 0
    decay_mult: 0
  }
  scale_param {
    filler {
      value: 0.6666
    }
    bias_term: false
  }
}
layer {
  name: "fc4_sTanH"
  type: "TanH"
  bottom: "fc4_300"
  top: "fc4_300"
}
layer {
  name: "fc4_postscale"
  type: "Scale"
  bottom: "fc4_300"
  top: "fc4_300"
  param {
    lr_mult: 0
    decay_mult: 0
  }
  scale_param {
    filler {
      value: 1.7159
    }
    bias_term: false
  }
}
layer {
  name: "fc5_67"
  type: "InnerProduct"
  bottom: "fc4_300"
  top: "fc5_classes"
  inner_product_param {
    num_output: 67
    weight_filler {
      type: "xavier"
    }
  }
}
layer {
  name: "loss"
  type: "SoftmaxWithLoss"
  bottom: "fc5_classes"
  bottom: "label"
  top: "loss"
}
layer {
  name: "accuracy_1"
  type: "Accuracy"
  bottom: "fc5_classes"
  bottom: "label"
  top: "accuracy_1"
  include {
    phase: TEST
  }
  accuracy_param {
    top_k: 1
  }
}
layer {
  name: "accuracy_5"
  type: "Accuracy"
  bottom: "fc5_classes"
  bottom: "label"
  top: "accuracy_5"
  include {
    phase: TEST
  }
  accuracy_param {
    top_k: 5
  }
}
I0411 05:03:28.146277  3260 layer_factory.hpp:77] Creating layer data
I0411 05:03:28.146915  3260 net.cpp:100] Creating Layer data
I0411 05:03:28.146929  3260 net.cpp:408] data -> data
I0411 05:03:28.146937  3260 net.cpp:408] data -> label
I0411 05:03:28.150595  3399 db_lmdb.cpp:35] Opened lmdb ../local_data/lmdb/rtsd-r1/AHE/test/lmdb
I0411 05:03:28.150759  3260 data_layer.cpp:41] output data size: 1024,3,48,48
I0411 05:03:28.192831  3260 net.cpp:150] Setting up data
I0411 05:03:28.192862  3260 net.cpp:157] Top shape: 1024 3 48 48 (7077888)
I0411 05:03:28.192868  3260 net.cpp:157] Top shape: 1024 (1024)
I0411 05:03:28.192870  3260 net.cpp:165] Memory required for data: 28315648
I0411 05:03:28.192876  3260 layer_factory.hpp:77] Creating layer label_data_1_split
I0411 05:03:28.192905  3260 net.cpp:100] Creating Layer label_data_1_split
I0411 05:03:28.192910  3260 net.cpp:434] label_data_1_split <- label
I0411 05:03:28.192920  3260 net.cpp:408] label_data_1_split -> label_data_1_split_0
I0411 05:03:28.192934  3260 net.cpp:408] label_data_1_split -> label_data_1_split_1
I0411 05:03:28.192941  3260 net.cpp:408] label_data_1_split -> label_data_1_split_2
I0411 05:03:28.193119  3260 net.cpp:150] Setting up label_data_1_split
I0411 05:03:28.193127  3260 net.cpp:157] Top shape: 1024 (1024)
I0411 05:03:28.193131  3260 net.cpp:157] Top shape: 1024 (1024)
I0411 05:03:28.193135  3260 net.cpp:157] Top shape: 1024 (1024)
I0411 05:03:28.193137  3260 net.cpp:165] Memory required for data: 28327936
I0411 05:03:28.193140  3260 layer_factory.hpp:77] Creating layer conv1
I0411 05:03:28.193157  3260 net.cpp:100] Creating Layer conv1
I0411 05:03:28.193163  3260 net.cpp:434] conv1 <- data
I0411 05:03:28.193168  3260 net.cpp:408] conv1 -> conv1
I0411 05:03:28.195324  3260 net.cpp:150] Setting up conv1
I0411 05:03:28.195340  3260 net.cpp:157] Top shape: 1024 100 42 42 (180633600)
I0411 05:03:28.195360  3260 net.cpp:165] Memory required for data: 750862336
I0411 05:03:28.195372  3260 layer_factory.hpp:77] Creating layer conv1_prescale
I0411 05:03:28.195381  3260 net.cpp:100] Creating Layer conv1_prescale
I0411 05:03:28.195384  3260 net.cpp:434] conv1_prescale <- conv1
I0411 05:03:28.195391  3260 net.cpp:395] conv1_prescale -> conv1 (in-place)
I0411 05:03:28.195505  3260 net.cpp:150] Setting up conv1_prescale
I0411 05:03:28.195513  3260 net.cpp:157] Top shape: 1024 100 42 42 (180633600)
I0411 05:03:28.195516  3260 net.cpp:165] Memory required for data: 1473396736
I0411 05:03:28.195523  3260 layer_factory.hpp:77] Creating layer conv1_sTanH
I0411 05:03:28.195531  3260 net.cpp:100] Creating Layer conv1_sTanH
I0411 05:03:28.195536  3260 net.cpp:434] conv1_sTanH <- conv1
I0411 05:03:28.195545  3260 net.cpp:395] conv1_sTanH -> conv1 (in-place)
I0411 05:03:28.195739  3260 net.cpp:150] Setting up conv1_sTanH
I0411 05:03:28.195750  3260 net.cpp:157] Top shape: 1024 100 42 42 (180633600)
I0411 05:03:28.195754  3260 net.cpp:165] Memory required for data: 2195931136
I0411 05:03:28.195762  3260 layer_factory.hpp:77] Creating layer conv1_postscale
I0411 05:03:28.195770  3260 net.cpp:100] Creating Layer conv1_postscale
I0411 05:03:28.195772  3260 net.cpp:434] conv1_postscale <- conv1
I0411 05:03:28.195777  3260 net.cpp:395] conv1_postscale -> conv1 (in-place)
I0411 05:03:28.195896  3260 net.cpp:150] Setting up conv1_postscale
I0411 05:03:28.195905  3260 net.cpp:157] Top shape: 1024 100 42 42 (180633600)
I0411 05:03:28.195909  3260 net.cpp:165] Memory required for data: 2918465536
I0411 05:03:28.195914  3260 layer_factory.hpp:77] Creating layer pool1
I0411 05:03:28.195921  3260 net.cpp:100] Creating Layer pool1
I0411 05:03:28.195925  3260 net.cpp:434] pool1 <- conv1
I0411 05:03:28.195930  3260 net.cpp:408] pool1 -> pool1
I0411 05:03:28.195981  3260 net.cpp:150] Setting up pool1
I0411 05:03:28.195988  3260 net.cpp:157] Top shape: 1024 100 21 21 (45158400)
I0411 05:03:28.195991  3260 net.cpp:165] Memory required for data: 3099099136
I0411 05:03:28.195994  3260 layer_factory.hpp:77] Creating layer conv2
I0411 05:03:28.196003  3260 net.cpp:100] Creating Layer conv2
I0411 05:03:28.196007  3260 net.cpp:434] conv2 <- pool1
I0411 05:03:28.196012  3260 net.cpp:408] conv2 -> conv2
I0411 05:03:28.202626  3260 net.cpp:150] Setting up conv2
I0411 05:03:28.202644  3260 net.cpp:157] Top shape: 1024 150 18 18 (49766400)
I0411 05:03:28.202647  3260 net.cpp:165] Memory required for data: 3298164736
I0411 05:03:28.202659  3260 layer_factory.hpp:77] Creating layer conv2_prescale
I0411 05:03:28.202669  3260 net.cpp:100] Creating Layer conv2_prescale
I0411 05:03:28.202673  3260 net.cpp:434] conv2_prescale <- conv2
I0411 05:03:28.202680  3260 net.cpp:395] conv2_prescale -> conv2 (in-place)
I0411 05:03:28.202798  3260 net.cpp:150] Setting up conv2_prescale
I0411 05:03:28.202808  3260 net.cpp:157] Top shape: 1024 150 18 18 (49766400)
I0411 05:03:28.202811  3260 net.cpp:165] Memory required for data: 3497230336
I0411 05:03:28.202816  3260 layer_factory.hpp:77] Creating layer conv2_sTanH
I0411 05:03:28.202821  3260 net.cpp:100] Creating Layer conv2_sTanH
I0411 05:03:28.202826  3260 net.cpp:434] conv2_sTanH <- conv2
I0411 05:03:28.202837  3260 net.cpp:395] conv2_sTanH -> conv2 (in-place)
I0411 05:03:28.204221  3260 net.cpp:150] Setting up conv2_sTanH
I0411 05:03:28.204237  3260 net.cpp:157] Top shape: 1024 150 18 18 (49766400)
I0411 05:03:28.204241  3260 net.cpp:165] Memory required for data: 3696295936
I0411 05:03:28.204252  3260 layer_factory.hpp:77] Creating layer conv2_postscale
I0411 05:03:28.204268  3260 net.cpp:100] Creating Layer conv2_postscale
I0411 05:03:28.204272  3260 net.cpp:434] conv2_postscale <- conv2
I0411 05:03:28.204277  3260 net.cpp:395] conv2_postscale -> conv2 (in-place)
I0411 05:03:28.204386  3260 net.cpp:150] Setting up conv2_postscale
I0411 05:03:28.204399  3260 net.cpp:157] Top shape: 1024 150 18 18 (49766400)
I0411 05:03:28.204402  3260 net.cpp:165] Memory required for data: 3895361536
I0411 05:03:28.204407  3260 layer_factory.hpp:77] Creating layer pool2
I0411 05:03:28.204430  3260 net.cpp:100] Creating Layer pool2
I0411 05:03:28.204435  3260 net.cpp:434] pool2 <- conv2
I0411 05:03:28.204443  3260 net.cpp:408] pool2 -> pool2
I0411 05:03:28.204499  3260 net.cpp:150] Setting up pool2
I0411 05:03:28.204506  3260 net.cpp:157] Top shape: 1024 150 9 9 (12441600)
I0411 05:03:28.204509  3260 net.cpp:165] Memory required for data: 3945127936
I0411 05:03:28.204512  3260 layer_factory.hpp:77] Creating layer conv3
I0411 05:03:28.204521  3260 net.cpp:100] Creating Layer conv3
I0411 05:03:28.204525  3260 net.cpp:434] conv3 <- pool2
I0411 05:03:28.204530  3260 net.cpp:408] conv3 -> conv3
I0411 05:03:28.210867  3260 net.cpp:150] Setting up conv3
I0411 05:03:28.210883  3260 net.cpp:157] Top shape: 1024 250 6 6 (9216000)
I0411 05:03:28.210887  3260 net.cpp:165] Memory required for data: 3981991936
I0411 05:03:28.210898  3260 layer_factory.hpp:77] Creating layer conv3_prescale
I0411 05:03:28.210907  3260 net.cpp:100] Creating Layer conv3_prescale
I0411 05:03:28.210911  3260 net.cpp:434] conv3_prescale <- conv3
I0411 05:03:28.210917  3260 net.cpp:395] conv3_prescale -> conv3 (in-place)
I0411 05:03:28.211015  3260 net.cpp:150] Setting up conv3_prescale
I0411 05:03:28.211025  3260 net.cpp:157] Top shape: 1024 250 6 6 (9216000)
I0411 05:03:28.211030  3260 net.cpp:165] Memory required for data: 4018855936
I0411 05:03:28.211035  3260 layer_factory.hpp:77] Creating layer conv3_sTanH
I0411 05:03:28.211040  3260 net.cpp:100] Creating Layer conv3_sTanH
I0411 05:03:28.211045  3260 net.cpp:434] conv3_sTanH <- conv3
I0411 05:03:28.211048  3260 net.cpp:395] conv3_sTanH -> conv3 (in-place)
I0411 05:03:28.219833  3260 net.cpp:150] Setting up conv3_sTanH
I0411 05:03:28.219854  3260 net.cpp:157] Top shape: 1024 250 6 6 (9216000)
I0411 05:03:28.219861  3260 net.cpp:165] Memory required for data: 4055719936
I0411 05:03:28.219866  3260 layer_factory.hpp:77] Creating layer conv3_postscale
I0411 05:03:28.219874  3260 net.cpp:100] Creating Layer conv3_postscale
I0411 05:03:28.219888  3260 net.cpp:434] conv3_postscale <- conv3
I0411 05:03:28.219897  3260 net.cpp:395] conv3_postscale -> conv3 (in-place)
I0411 05:03:28.220006  3260 net.cpp:150] Setting up conv3_postscale
I0411 05:03:28.220017  3260 net.cpp:157] Top shape: 1024 250 6 6 (9216000)
I0411 05:03:28.220021  3260 net.cpp:165] Memory required for data: 4092583936
I0411 05:03:28.220026  3260 layer_factory.hpp:77] Creating layer pool3
I0411 05:03:28.220036  3260 net.cpp:100] Creating Layer pool3
I0411 05:03:28.220041  3260 net.cpp:434] pool3 <- conv3
I0411 05:03:28.220046  3260 net.cpp:408] pool3 -> pool3
I0411 05:03:28.220093  3260 net.cpp:150] Setting up pool3
I0411 05:03:28.220101  3260 net.cpp:157] Top shape: 1024 250 3 3 (2304000)
I0411 05:03:28.220104  3260 net.cpp:165] Memory required for data: 4101799936
I0411 05:03:28.220108  3260 layer_factory.hpp:77] Creating layer fc4_300
I0411 05:03:28.220114  3260 net.cpp:100] Creating Layer fc4_300
I0411 05:03:28.220118  3260 net.cpp:434] fc4_300 <- pool3
I0411 05:03:28.220121  3260 net.cpp:408] fc4_300 -> fc4_300
I0411 05:03:28.232271  3260 net.cpp:150] Setting up fc4_300
I0411 05:03:28.232292  3260 net.cpp:157] Top shape: 1024 300 (307200)
I0411 05:03:28.232296  3260 net.cpp:165] Memory required for data: 4103028736
I0411 05:03:28.232305  3260 layer_factory.hpp:77] Creating layer fc4_prescale
I0411 05:03:28.232313  3260 net.cpp:100] Creating Layer fc4_prescale
I0411 05:03:28.232317  3260 net.cpp:434] fc4_prescale <- fc4_300
I0411 05:03:28.232323  3260 net.cpp:395] fc4_prescale -> fc4_300 (in-place)
I0411 05:03:28.232432  3260 net.cpp:150] Setting up fc4_prescale
I0411 05:03:28.232441  3260 net.cpp:157] Top shape: 1024 300 (307200)
I0411 05:03:28.232445  3260 net.cpp:165] Memory required for data: 4104257536
I0411 05:03:28.232450  3260 layer_factory.hpp:77] Creating layer fc4_sTanH
I0411 05:03:28.232455  3260 net.cpp:100] Creating Layer fc4_sTanH
I0411 05:03:28.232458  3260 net.cpp:434] fc4_sTanH <- fc4_300
I0411 05:03:28.232463  3260 net.cpp:395] fc4_sTanH -> fc4_300 (in-place)
I0411 05:03:28.232686  3260 net.cpp:150] Setting up fc4_sTanH
I0411 05:03:28.232699  3260 net.cpp:157] Top shape: 1024 300 (307200)
I0411 05:03:28.232703  3260 net.cpp:165] Memory required for data: 4105486336
I0411 05:03:28.232707  3260 layer_factory.hpp:77] Creating layer fc4_postscale
I0411 05:03:28.232715  3260 net.cpp:100] Creating Layer fc4_postscale
I0411 05:03:28.232718  3260 net.cpp:434] fc4_postscale <- fc4_300
I0411 05:03:28.232724  3260 net.cpp:395] fc4_postscale -> fc4_300 (in-place)
I0411 05:03:28.232833  3260 net.cpp:150] Setting up fc4_postscale
I0411 05:03:28.232841  3260 net.cpp:157] Top shape: 1024 300 (307200)
I0411 05:03:28.232844  3260 net.cpp:165] Memory required for data: 4106715136
I0411 05:03:28.232851  3260 layer_factory.hpp:77] Creating layer fc5_67
I0411 05:03:28.232858  3260 net.cpp:100] Creating Layer fc5_67
I0411 05:03:28.232862  3260 net.cpp:434] fc5_67 <- fc4_300
I0411 05:03:28.232867  3260 net.cpp:408] fc5_67 -> fc5_classes
I0411 05:03:28.233129  3260 net.cpp:150] Setting up fc5_67
I0411 05:03:28.233137  3260 net.cpp:157] Top shape: 1024 67 (68608)
I0411 05:03:28.233140  3260 net.cpp:165] Memory required for data: 4106989568
I0411 05:03:28.233150  3260 layer_factory.hpp:77] Creating layer fc5_classes_fc5_67_0_split
I0411 05:03:28.233160  3260 net.cpp:100] Creating Layer fc5_classes_fc5_67_0_split
I0411 05:03:28.233162  3260 net.cpp:434] fc5_classes_fc5_67_0_split <- fc5_classes
I0411 05:03:28.233168  3260 net.cpp:408] fc5_classes_fc5_67_0_split -> fc5_classes_fc5_67_0_split_0
I0411 05:03:28.233175  3260 net.cpp:408] fc5_classes_fc5_67_0_split -> fc5_classes_fc5_67_0_split_1
I0411 05:03:28.233181  3260 net.cpp:408] fc5_classes_fc5_67_0_split -> fc5_classes_fc5_67_0_split_2
I0411 05:03:28.233235  3260 net.cpp:150] Setting up fc5_classes_fc5_67_0_split
I0411 05:03:28.233243  3260 net.cpp:157] Top shape: 1024 67 (68608)
I0411 05:03:28.233247  3260 net.cpp:157] Top shape: 1024 67 (68608)
I0411 05:03:28.233249  3260 net.cpp:157] Top shape: 1024 67 (68608)
I0411 05:03:28.233253  3260 net.cpp:165] Memory required for data: 4107812864
I0411 05:03:28.233255  3260 layer_factory.hpp:77] Creating layer loss
I0411 05:03:28.233263  3260 net.cpp:100] Creating Layer loss
I0411 05:03:28.233266  3260 net.cpp:434] loss <- fc5_classes_fc5_67_0_split_0
I0411 05:03:28.233271  3260 net.cpp:434] loss <- label_data_1_split_0
I0411 05:03:28.233278  3260 net.cpp:408] loss -> loss
…
