…
I0415 07:47:09.803319 24707 solver.cpp:93] Creating training net from train_net file: ./Prototxt/experiment_12/rtsd-r3/CoNorm/trial_2/train.prototxt
I0415 07:47:09.815102 24707 net.cpp:58] Initializing net from parameters: 
state {
  phase: TRAIN
  level: 0
  stage: ""
}
layer {
  name: "data"
  type: "Data"
  top: "data"
  top: "label"
  include {
    phase: TRAIN
  }
  transform_param {
    scale: 0.0039215689
    mirror: false
    crop_size: 48
    mean_value: 135
    mean_value: 134
    mean_value: 134
  }
  data_param {
    source: "../local_data/lmdb/rtsd-r3/CoNorm/train/lmdb"
    batch_size: 1024
    backend: LMDB
  }
}
layer {
  name: "conv1"
  type: "Convolution"
  bottom: "data"
  top: "conv1"
  convolution_param {
    num_output: 100
    pad: 0
    kernel_size: 7
    group: 1
    stride: 1
    weight_filler {
      type: "xavier"
    }
  }
}
layer {
  name: "conv1_relu"
  type: "ReLU"
  bottom: "conv1"
  top: "conv1"
}
layer {
  name: "pool1"
  type: "Pooling"
  bottom: "conv1"
  top: "pool1"
  pooling_param {
    pool: MAX
    kernel_size: 2
    stride: 2
  }
}
layer {
  name: "conv2"
  type: "Convolution"
  bottom: "pool1"
  top: "conv2"
  convolution_param {
    num_output: 150
    pad: 0
    kernel_size: 4
    group: 1
    stride: 1
    weight_filler {
      type: "xavier"
    }
  }
}
layer {
  name: "conv2_relu"
  type: "ReLU"
  bottom: "conv2"
  top: "conv2"
}
layer {
  name: "pool2"
  type: "Pooling"
  bottom: "conv2"
  top: "pool2"
  pooling_param {
    pool: MAX
    kernel_size: 2
    stride: 2
  }
}
layer {
  name: "conv3"
  type: "Convolution"
  bottom: "pool2"
  top: "conv3"
  convolution_param {
    num_output: 250
    pad: 0
    kernel_size: 4
    group: 1
    stride: 1
    weight_filler {
      type: "xavier"
    }
  }
}
layer {
  name: "conv3_relu"
  type: "ReLU"
  bottom: "conv3"
  top: "conv3"
}
layer {
  name: "pool3"
  type: "Pooling"
  bottom: "conv3"
  top: "pool3"
  pooling_param {
    pool: MAX
    kernel_size: 2
    stride: 2
  }
}
layer {
  name: "fc4_300"
  type: "InnerProduct"
  bottom: "pool3"
  top: "fc4_300"
  inner_product_param {
    num_output: 300
    weight_filler {
      type: "xavier"
    }
  }
}
layer {
  name: "fc4_relu"
  type: "ReLU"
  bottom: "fc4_300"
  top: "fc4_300"
}
layer {
  name: "drop4"
  type: "Dropout"
  bottom: "fc4_300"
  top: "fc4_300"
  dropout_param {
    dropout_ratio: 0.5
  }
}
layer {
  name: "fc5_106"
  type: "InnerProduct"
  bottom: "fc4_300"
  top: "fc5_classes"
  inner_product_param {
    num_output: 106
    weight_filler {
      type: "xavier"
    }
  }
}
layer {
  name: "softmax"
  type: "Softmax"
  bottom: "fc5_classes"
  top: "softmax"
}
layer {
  name: "loss"
  type: "MultinomialLogisticLoss"
  bottom: "softmax"
  bottom: "label"
  top: "loss"
}
layer {
  name: "accuracy_1"
  type: "Accuracy"
  bottom: "fc5_classes"
  bottom: "label"
  top: "accuracy_1"
  accuracy_param {
    top_k: 1
  }
}
layer {
  name: "accuracy_5"
  type: "Accuracy"
  bottom: "fc5_classes"
  bottom: "label"
  top: "accuracy_5"
  accuracy_param {
    top_k: 5
  }
}
layer {
  name: "silence"
  type: "Silence"
  bottom: "accuracy_1"
  bottom: "accuracy_5"
}
I0415 07:47:09.815297 24707 layer_factory.hpp:77] Creating layer data
I0415 07:47:09.859993 24707 net.cpp:100] Creating Layer data
I0415 07:47:09.860039 24707 net.cpp:408] data -> data
I0415 07:47:09.860076 24707 net.cpp:408] data -> label
I0415 07:47:09.861649 24924 db_lmdb.cpp:35] Opened lmdb ../local_data/lmdb/rtsd-r3/CoNorm/train/lmdb
I0415 07:47:09.884670 24707 data_layer.cpp:41] output data size: 1024,3,48,48
I0415 07:47:09.943850 24707 net.cpp:150] Setting up data
I0415 07:47:09.943902 24707 net.cpp:157] Top shape: 1024 3 48 48 (7077888)
I0415 07:47:09.943908 24707 net.cpp:157] Top shape: 1024 (1024)
I0415 07:47:09.943912 24707 net.cpp:165] Memory required for data: 28315648
I0415 07:47:09.943924 24707 layer_factory.hpp:77] Creating layer label_data_1_split
I0415 07:47:09.943939 24707 net.cpp:100] Creating Layer label_data_1_split
I0415 07:47:09.943946 24707 net.cpp:434] label_data_1_split <- label
I0415 07:47:09.943964 24707 net.cpp:408] label_data_1_split -> label_data_1_split_0
I0415 07:47:09.943977 24707 net.cpp:408] label_data_1_split -> label_data_1_split_1
I0415 07:47:09.943987 24707 net.cpp:408] label_data_1_split -> label_data_1_split_2
I0415 07:47:09.944077 24707 net.cpp:150] Setting up label_data_1_split
I0415 07:47:09.944087 24707 net.cpp:157] Top shape: 1024 (1024)
I0415 07:47:09.944093 24707 net.cpp:157] Top shape: 1024 (1024)
I0415 07:47:09.944097 24707 net.cpp:157] Top shape: 1024 (1024)
I0415 07:47:09.944099 24707 net.cpp:165] Memory required for data: 28327936
I0415 07:47:09.944103 24707 layer_factory.hpp:77] Creating layer conv1
I0415 07:47:09.944121 24707 net.cpp:100] Creating Layer conv1
I0415 07:47:09.944128 24707 net.cpp:434] conv1 <- data
I0415 07:47:09.944135 24707 net.cpp:408] conv1 -> conv1
I0415 07:47:11.307458 24707 net.cpp:150] Setting up conv1
I0415 07:47:11.307490 24707 net.cpp:157] Top shape: 1024 100 42 42 (180633600)
I0415 07:47:11.307494 24707 net.cpp:165] Memory required for data: 750862336
I0415 07:47:11.307519 24707 layer_factory.hpp:77] Creating layer conv1_relu
I0415 07:47:11.307531 24707 net.cpp:100] Creating Layer conv1_relu
I0415 07:47:11.307538 24707 net.cpp:434] conv1_relu <- conv1
I0415 07:47:11.307545 24707 net.cpp:395] conv1_relu -> conv1 (in-place)
I0415 07:47:11.307746 24707 net.cpp:150] Setting up conv1_relu
I0415 07:47:11.307759 24707 net.cpp:157] Top shape: 1024 100 42 42 (180633600)
I0415 07:47:11.307763 24707 net.cpp:165] Memory required for data: 1473396736
I0415 07:47:11.307767 24707 layer_factory.hpp:77] Creating layer pool1
I0415 07:47:11.307776 24707 net.cpp:100] Creating Layer pool1
I0415 07:47:11.307782 24707 net.cpp:434] pool1 <- conv1
I0415 07:47:11.307787 24707 net.cpp:408] pool1 -> pool1
I0415 07:47:11.307845 24707 net.cpp:150] Setting up pool1
I0415 07:47:11.307854 24707 net.cpp:157] Top shape: 1024 100 21 21 (45158400)
I0415 07:47:11.307859 24707 net.cpp:165] Memory required for data: 1654030336
I0415 07:47:11.307863 24707 layer_factory.hpp:77] Creating layer conv2
I0415 07:47:11.307874 24707 net.cpp:100] Creating Layer conv2
I0415 07:47:11.307896 24707 net.cpp:434] conv2 <- pool1
I0415 07:47:11.307904 24707 net.cpp:408] conv2 -> conv2
I0415 07:47:11.315099 24707 net.cpp:150] Setting up conv2
I0415 07:47:11.315152 24707 net.cpp:157] Top shape: 1024 150 18 18 (49766400)
I0415 07:47:11.315165 24707 net.cpp:165] Memory required for data: 1853095936
I0415 07:47:11.315196 24707 layer_factory.hpp:77] Creating layer conv2_relu
I0415 07:47:11.315214 24707 net.cpp:100] Creating Layer conv2_relu
I0415 07:47:11.315224 24707 net.cpp:434] conv2_relu <- conv2
I0415 07:47:11.315245 24707 net.cpp:395] conv2_relu -> conv2 (in-place)
I0415 07:47:11.316954 24707 net.cpp:150] Setting up conv2_relu
I0415 07:47:11.316982 24707 net.cpp:157] Top shape: 1024 150 18 18 (49766400)
I0415 07:47:11.316993 24707 net.cpp:165] Memory required for data: 2052161536
I0415 07:47:11.317003 24707 layer_factory.hpp:77] Creating layer pool2
I0415 07:47:11.317028 24707 net.cpp:100] Creating Layer pool2
I0415 07:47:11.317039 24707 net.cpp:434] pool2 <- conv2
I0415 07:47:11.317054 24707 net.cpp:408] pool2 -> pool2
I0415 07:47:11.317188 24707 net.cpp:150] Setting up pool2
I0415 07:47:11.317209 24707 net.cpp:157] Top shape: 1024 150 9 9 (12441600)
I0415 07:47:11.317219 24707 net.cpp:165] Memory required for data: 2101927936
I0415 07:47:11.317229 24707 layer_factory.hpp:77] Creating layer conv3
I0415 07:47:11.317293 24707 net.cpp:100] Creating Layer conv3
I0415 07:47:11.317306 24707 net.cpp:434] conv3 <- pool2
I0415 07:47:11.317313 24707 net.cpp:408] conv3 -> conv3
I0415 07:47:11.323382 24707 net.cpp:150] Setting up conv3
I0415 07:47:11.323426 24707 net.cpp:157] Top shape: 1024 250 6 6 (9216000)
I0415 07:47:11.323431 24707 net.cpp:165] Memory required for data: 2138791936
I0415 07:47:11.323444 24707 layer_factory.hpp:77] Creating layer conv3_relu
I0415 07:47:11.323453 24707 net.cpp:100] Creating Layer conv3_relu
I0415 07:47:11.323458 24707 net.cpp:434] conv3_relu <- conv3
I0415 07:47:11.323467 24707 net.cpp:395] conv3_relu -> conv3 (in-place)
I0415 07:47:11.324311 24707 net.cpp:150] Setting up conv3_relu
I0415 07:47:11.324326 24707 net.cpp:157] Top shape: 1024 250 6 6 (9216000)
I0415 07:47:11.324331 24707 net.cpp:165] Memory required for data: 2175655936
I0415 07:47:11.324333 24707 layer_factory.hpp:77] Creating layer pool3
I0415 07:47:11.324343 24707 net.cpp:100] Creating Layer pool3
I0415 07:47:11.324347 24707 net.cpp:434] pool3 <- conv3
I0415 07:47:11.324352 24707 net.cpp:408] pool3 -> pool3
I0415 07:47:11.324419 24707 net.cpp:150] Setting up pool3
I0415 07:47:11.324427 24707 net.cpp:157] Top shape: 1024 250 3 3 (2304000)
I0415 07:47:11.324431 24707 net.cpp:165] Memory required for data: 2184871936
I0415 07:47:11.324434 24707 layer_factory.hpp:77] Creating layer fc4_300
I0415 07:47:11.324442 24707 net.cpp:100] Creating Layer fc4_300
I0415 07:47:11.324446 24707 net.cpp:434] fc4_300 <- pool3
I0415 07:47:11.324455 24707 net.cpp:408] fc4_300 -> fc4_300
I0415 07:47:11.333112 24707 net.cpp:150] Setting up fc4_300
I0415 07:47:11.333132 24707 net.cpp:157] Top shape: 1024 300 (307200)
I0415 07:47:11.333137 24707 net.cpp:165] Memory required for data: 2186100736
I0415 07:47:11.333147 24707 layer_factory.hpp:77] Creating layer fc4_relu
I0415 07:47:11.333158 24707 net.cpp:100] Creating Layer fc4_relu
I0415 07:47:11.333163 24707 net.cpp:434] fc4_relu <- fc4_300
I0415 07:47:11.333174 24707 net.cpp:395] fc4_relu -> fc4_300 (in-place)
I0415 07:47:11.333406 24707 net.cpp:150] Setting up fc4_relu
I0415 07:47:11.333418 24707 net.cpp:157] Top shape: 1024 300 (307200)
I0415 07:47:11.333423 24707 net.cpp:165] Memory required for data: 2187329536
I0415 07:47:11.333426 24707 layer_factory.hpp:77] Creating layer drop4
I0415 07:47:11.333434 24707 net.cpp:100] Creating Layer drop4
I0415 07:47:11.333439 24707 net.cpp:434] drop4 <- fc4_300
I0415 07:47:11.333446 24707 net.cpp:395] drop4 -> fc4_300 (in-place)
I0415 07:47:11.333480 24707 net.cpp:150] Setting up drop4
I0415 07:47:11.333488 24707 net.cpp:157] Top shape: 1024 300 (307200)
I0415 07:47:11.333493 24707 net.cpp:165] Memory required for data: 2188558336
I0415 07:47:11.333497 24707 layer_factory.hpp:77] Creating layer fc5_106
I0415 07:47:11.333505 24707 net.cpp:100] Creating Layer fc5_106
I0415 07:47:11.333511 24707 net.cpp:434] fc5_106 <- fc4_300
I0415 07:47:11.333519 24707 net.cpp:408] fc5_106 -> fc5_classes
I0415 07:47:11.335382 24707 net.cpp:150] Setting up fc5_106
I0415 07:47:11.335412 24707 net.cpp:157] Top shape: 1024 106 (108544)
I0415 07:47:11.335418 24707 net.cpp:165] Memory required for data: 2188992512
I0415 07:47:11.335438 24707 layer_factory.hpp:77] Creating layer fc5_classes_fc5_106_0_split
I0415 07:47:11.335448 24707 net.cpp:100] Creating Layer fc5_classes_fc5_106_0_split
I0415 07:47:11.335453 24707 net.cpp:434] fc5_classes_fc5_106_0_split <- fc5_classes
I0415 07:47:11.335460 24707 net.cpp:408] fc5_classes_fc5_106_0_split -> fc5_classes_fc5_106_0_split_0
I0415 07:47:11.335469 24707 net.cpp:408] fc5_classes_fc5_106_0_split -> fc5_classes_fc5_106_0_split_1
I0415 07:47:11.335477 24707 net.cpp:408] fc5_classes_fc5_106_0_split -> fc5_classes_fc5_106_0_split_2
I0415 07:47:11.335533 24707 net.cpp:150] Setting up fc5_classes_fc5_106_0_split
I0415 07:47:11.335541 24707 net.cpp:157] Top shape: 1024 106 (108544)
I0415 07:47:11.335547 24707 net.cpp:157] Top shape: 1024 106 (108544)
I0415 07:47:11.335551 24707 net.cpp:157] Top shape: 1024 106 (108544)
I0415 07:47:11.335554 24707 net.cpp:165] Memory required for data: 2190295040
I0415 07:47:11.335575 24707 layer_factory.hpp:77] Creating layer softmax
I0415 07:47:11.335588 24707 net.cpp:100] Creating Layer softmax
I0415 07:47:11.335594 24707 net.cpp:434] softmax <- fc5_classes_fc5_106_0_split_0
I0415 07:47:11.335600 24707 net.cpp:408] softmax -> softmax
I0415 07:47:11.335894 24707 net.cpp:150] Setting up softmax
I0415 07:47:11.335908 24707 net.cpp:157] Top shape: 1024 106 (108544)
I0415 07:47:11.335912 24707 net.cpp:165] Memory required for data: 2190729216
I0415 07:47:11.335916 24707 layer_factory.hpp:77] Creating layer loss
I0415 07:47:11.335924 24707 net.cpp:100] Creating Layer loss
I0415 07:47:11.335930 24707 net.cpp:434] loss <- softmax
I0415 07:47:11.335935 24707 net.cpp:434] loss <- label_data_1_split_0
I0415 07:47:11.335942 24707 net.cpp:408] loss -> loss
…
