…
I0527 19:45:19.825875 10885 solver.cpp:81] Creating training net from train_net file: ./Prototxt/experiment_20/RTSD/orig/trial_5/train.prototxt
I0527 19:45:19.826416 10885 net.cpp:58] Initializing net from parameters: 
state {
  phase: TRAIN
  level: 0
  stage: ""
}
layer {
  name: "data"
  type: "Data"
  top: "data"
  top: "label"
  include {
    phase: TRAIN
  }
  transform_param {
    scale: 0.0039215689
    mirror: false
    crop_size: 48
    mean_value: 119
    mean_value: 113
    mean_value: 113
  }
  data_param {
    source: "../local_data/lmdb/RTSD/orig/train/lmdb"
    batch_size: 1024
    backend: LMDB
  }
}
layer {
  name: "conv1"
  type: "Convolution"
  bottom: "data"
  top: "conv1"
  convolution_param {
    num_output: 100
    pad: 0
    kernel_size: 7
    group: 1
    stride: 1
    weight_filler {
      type: "xavier"
    }
  }
}
layer {
  name: "conv1_relu"
  type: "ReLU"
  bottom: "conv1"
  top: "conv1"
}
layer {
  name: "pool1"
  type: "Pooling"
  bottom: "conv1"
  top: "pool1"
  pooling_param {
    pool: MAX
    kernel_size: 2
    stride: 2
  }
}
layer {
  name: "conv2"
  type: "Convolution"
  bottom: "pool1"
  top: "conv2"
  convolution_param {
    num_output: 150
    pad: 0
    kernel_size: 4
    group: 1
    stride: 1
    weight_filler {
      type: "xavier"
    }
  }
}
layer {
  name: "conv2_relu"
  type: "ReLU"
  bottom: "conv2"
  top: "conv2"
}
layer {
  name: "pool2"
  type: "Pooling"
  bottom: "conv2"
  top: "pool2"
  pooling_param {
    pool: MAX
    kernel_size: 2
    stride: 2
  }
}
layer {
  name: "conv3"
  type: "Convolution"
  bottom: "pool2"
  top: "conv3"
  convolution_param {
    num_output: 250
    pad: 0
    kernel_size: 4
    group: 1
    stride: 1
    weight_filler {
      type: "xavier"
    }
  }
}
layer {
  name: "conv3_relu"
  type: "ReLU"
  bottom: "conv3"
  top: "conv3"
}
layer {
  name: "pool3"
  type: "Pooling"
  bottom: "conv3"
  top: "pool3"
  pooling_param {
    pool: MAX
    kernel_size: 2
    stride: 2
  }
}
layer {
  name: "fc4_300"
  type: "InnerProduct"
  bottom: "pool3"
  top: "fc4_300"
  inner_product_param {
    num_output: 300
    weight_filler {
      type: "xavier"
    }
  }
}
layer {
  name: "fc4_relu"
  type: "ReLU"
  bottom: "fc4_300"
  top: "fc4_300"
}
layer {
  name: "fc5_116"
  type: "InnerProduct"
  bottom: "fc4_300"
  top: "fc5_classes"
  inner_product_param {
    num_output: 116
    weight_filler {
      type: "xavier"
    }
  }
}
layer {
  name: "softmax"
  type: "Softmax"
  bottom: "fc5_classes"
  top: "softmax"
}
layer {
  name: "loss"
  type: "MultinomialLogisticLoss"
  bottom: "softmax"
  bottom: "label"
  top: "loss"
}
layer {
  name: "accuracy_1"
  type: "Accuracy"
  bottom: "fc5_classes"
  bottom: "label"
  top: "accuracy_1"
  accuracy_param {
    top_k: 1
  }
}
layer {
  name: "accuracy_5"
  type: "Accuracy"
  bottom: "fc5_classes"
  bottom: "label"
  top: "accuracy_5"
  accuracy_param {
    top_k: 5
  }
}
layer {
  name: "silence"
  type: "Silence"
  bottom: "accuracy_1"
  bottom: "accuracy_5"
}
I0527 19:45:19.826568 10885 layer_factory.hpp:77] Creating layer data
I0527 19:45:19.827814 10885 net.cpp:100] Creating Layer data
I0527 19:45:19.827844 10885 net.cpp:408] data -> data
I0527 19:45:19.827885 10885 net.cpp:408] data -> label
I0527 19:45:19.829897 10941 db_lmdb.cpp:35] Opened lmdb ../local_data/lmdb/RTSD/orig/train/lmdb
I0527 19:45:19.883334 10885 data_layer.cpp:41] output data size: 1024,3,48,48
I0527 19:45:19.990356 10885 net.cpp:150] Setting up data
I0527 19:45:19.990449 10885 net.cpp:157] Top shape: 1024 3 48 48 (7077888)
I0527 19:45:19.990463 10885 net.cpp:157] Top shape: 1024 (1024)
I0527 19:45:19.990470 10885 net.cpp:165] Memory required for data: 28315648
I0527 19:45:19.990484 10885 layer_factory.hpp:77] Creating layer label_data_1_split
I0527 19:45:19.990502 10885 net.cpp:100] Creating Layer label_data_1_split
I0527 19:45:19.990520 10885 net.cpp:434] label_data_1_split <- label
I0527 19:45:19.990543 10885 net.cpp:408] label_data_1_split -> label_data_1_split_0
I0527 19:45:19.990568 10885 net.cpp:408] label_data_1_split -> label_data_1_split_1
I0527 19:45:19.990584 10885 net.cpp:408] label_data_1_split -> label_data_1_split_2
I0527 19:45:19.990661 10885 net.cpp:150] Setting up label_data_1_split
I0527 19:45:19.990679 10885 net.cpp:157] Top shape: 1024 (1024)
I0527 19:45:19.990687 10885 net.cpp:157] Top shape: 1024 (1024)
I0527 19:45:19.990700 10885 net.cpp:157] Top shape: 1024 (1024)
I0527 19:45:19.990707 10885 net.cpp:165] Memory required for data: 28327936
I0527 19:45:19.990717 10885 layer_factory.hpp:77] Creating layer conv1
I0527 19:45:19.990749 10885 net.cpp:100] Creating Layer conv1
I0527 19:45:19.990764 10885 net.cpp:434] conv1 <- data
I0527 19:45:19.990779 10885 net.cpp:408] conv1 -> conv1
I0527 19:45:20.451416 10885 net.cpp:150] Setting up conv1
I0527 19:45:20.451453 10885 net.cpp:157] Top shape: 1024 100 42 42 (180633600)
I0527 19:45:20.451463 10885 net.cpp:165] Memory required for data: 750862336
I0527 19:45:20.451490 10885 layer_factory.hpp:77] Creating layer conv1_relu
I0527 19:45:20.451512 10885 net.cpp:100] Creating Layer conv1_relu
I0527 19:45:20.451529 10885 net.cpp:434] conv1_relu <- conv1
I0527 19:45:20.451546 10885 net.cpp:395] conv1_relu -> conv1 (in-place)
I0527 19:45:20.451745 10885 net.cpp:150] Setting up conv1_relu
I0527 19:45:20.451767 10885 net.cpp:157] Top shape: 1024 100 42 42 (180633600)
I0527 19:45:20.451779 10885 net.cpp:165] Memory required for data: 1473396736
I0527 19:45:20.451789 10885 layer_factory.hpp:77] Creating layer pool1
I0527 19:45:20.451805 10885 net.cpp:100] Creating Layer pool1
I0527 19:45:20.451819 10885 net.cpp:434] pool1 <- conv1
I0527 19:45:20.451833 10885 net.cpp:408] pool1 -> pool1
I0527 19:45:20.451896 10885 net.cpp:150] Setting up pool1
I0527 19:45:20.451917 10885 net.cpp:157] Top shape: 1024 100 21 21 (45158400)
I0527 19:45:20.451933 10885 net.cpp:165] Memory required for data: 1654030336
I0527 19:45:20.451943 10885 layer_factory.hpp:77] Creating layer conv2
I0527 19:45:20.451970 10885 net.cpp:100] Creating Layer conv2
I0527 19:45:20.451980 10885 net.cpp:434] conv2 <- pool1
I0527 19:45:20.451997 10885 net.cpp:408] conv2 -> conv2
I0527 19:45:20.467823 10885 net.cpp:150] Setting up conv2
I0527 19:45:20.467860 10885 net.cpp:157] Top shape: 1024 150 18 18 (49766400)
I0527 19:45:20.467870 10885 net.cpp:165] Memory required for data: 1853095936
I0527 19:45:20.467897 10885 layer_factory.hpp:77] Creating layer conv2_relu
I0527 19:45:20.467921 10885 net.cpp:100] Creating Layer conv2_relu
I0527 19:45:20.467932 10885 net.cpp:434] conv2_relu <- conv2
I0527 19:45:20.467948 10885 net.cpp:395] conv2_relu -> conv2 (in-place)
I0527 19:45:20.468158 10885 net.cpp:150] Setting up conv2_relu
I0527 19:45:20.468178 10885 net.cpp:157] Top shape: 1024 150 18 18 (49766400)
I0527 19:45:20.468192 10885 net.cpp:165] Memory required for data: 2052161536
I0527 19:45:20.468211 10885 layer_factory.hpp:77] Creating layer pool2
I0527 19:45:20.468226 10885 net.cpp:100] Creating Layer pool2
I0527 19:45:20.468245 10885 net.cpp:434] pool2 <- conv2
I0527 19:45:20.468263 10885 net.cpp:408] pool2 -> pool2
I0527 19:45:20.468327 10885 net.cpp:150] Setting up pool2
I0527 19:45:20.468343 10885 net.cpp:157] Top shape: 1024 150 9 9 (12441600)
I0527 19:45:20.468353 10885 net.cpp:165] Memory required for data: 2101927936
I0527 19:45:20.468365 10885 layer_factory.hpp:77] Creating layer conv3
I0527 19:45:20.468391 10885 net.cpp:100] Creating Layer conv3
I0527 19:45:20.468403 10885 net.cpp:434] conv3 <- pool2
I0527 19:45:20.468412 10885 net.cpp:408] conv3 -> conv3
I0527 19:45:20.478729 10885 net.cpp:150] Setting up conv3
I0527 19:45:20.478761 10885 net.cpp:157] Top shape: 1024 250 6 6 (9216000)
I0527 19:45:20.478770 10885 net.cpp:165] Memory required for data: 2138791936
I0527 19:45:20.478790 10885 layer_factory.hpp:77] Creating layer conv3_relu
I0527 19:45:20.478807 10885 net.cpp:100] Creating Layer conv3_relu
I0527 19:45:20.478817 10885 net.cpp:434] conv3_relu <- conv3
I0527 19:45:20.478827 10885 net.cpp:395] conv3_relu -> conv3 (in-place)
I0527 19:45:20.484189 10885 net.cpp:150] Setting up conv3_relu
I0527 19:45:20.484208 10885 net.cpp:157] Top shape: 1024 250 6 6 (9216000)
I0527 19:45:20.484215 10885 net.cpp:165] Memory required for data: 2175655936
I0527 19:45:20.484223 10885 layer_factory.hpp:77] Creating layer pool3
I0527 19:45:20.484233 10885 net.cpp:100] Creating Layer pool3
I0527 19:45:20.484246 10885 net.cpp:434] pool3 <- conv3
I0527 19:45:20.484253 10885 net.cpp:408] pool3 -> pool3
I0527 19:45:20.484303 10885 net.cpp:150] Setting up pool3
I0527 19:45:20.484314 10885 net.cpp:157] Top shape: 1024 250 3 3 (2304000)
I0527 19:45:20.484321 10885 net.cpp:165] Memory required for data: 2184871936
I0527 19:45:20.484328 10885 layer_factory.hpp:77] Creating layer fc4_300
I0527 19:45:20.484339 10885 net.cpp:100] Creating Layer fc4_300
I0527 19:45:20.484350 10885 net.cpp:434] fc4_300 <- pool3
I0527 19:45:20.484359 10885 net.cpp:408] fc4_300 -> fc4_300
I0527 19:45:20.489619 10885 net.cpp:150] Setting up fc4_300
I0527 19:45:20.489640 10885 net.cpp:157] Top shape: 1024 300 (307200)
I0527 19:45:20.489650 10885 net.cpp:165] Memory required for data: 2186100736
I0527 19:45:20.489670 10885 layer_factory.hpp:77] Creating layer fc4_relu
I0527 19:45:20.489686 10885 net.cpp:100] Creating Layer fc4_relu
I0527 19:45:20.489696 10885 net.cpp:434] fc4_relu <- fc4_300
I0527 19:45:20.489711 10885 net.cpp:395] fc4_relu -> fc4_300 (in-place)
I0527 19:45:20.489900 10885 net.cpp:150] Setting up fc4_relu
I0527 19:45:20.489918 10885 net.cpp:157] Top shape: 1024 300 (307200)
I0527 19:45:20.489926 10885 net.cpp:165] Memory required for data: 2187329536
I0527 19:45:20.489938 10885 layer_factory.hpp:77] Creating layer fc5_116
I0527 19:45:20.489948 10885 net.cpp:100] Creating Layer fc5_116
I0527 19:45:20.489960 10885 net.cpp:434] fc5_116 <- fc4_300
I0527 19:45:20.489976 10885 net.cpp:408] fc5_116 -> fc5_classes
I0527 19:45:20.491344 10885 net.cpp:150] Setting up fc5_116
I0527 19:45:20.491365 10885 net.cpp:157] Top shape: 1024 116 (118784)
I0527 19:45:20.491374 10885 net.cpp:165] Memory required for data: 2187804672
I0527 19:45:20.491394 10885 layer_factory.hpp:77] Creating layer fc5_classes_fc5_116_0_split
I0527 19:45:20.491410 10885 net.cpp:100] Creating Layer fc5_classes_fc5_116_0_split
I0527 19:45:20.491420 10885 net.cpp:434] fc5_classes_fc5_116_0_split <- fc5_classes
I0527 19:45:20.491433 10885 net.cpp:408] fc5_classes_fc5_116_0_split -> fc5_classes_fc5_116_0_split_0
I0527 19:45:20.491451 10885 net.cpp:408] fc5_classes_fc5_116_0_split -> fc5_classes_fc5_116_0_split_1
I0527 19:45:20.491466 10885 net.cpp:408] fc5_classes_fc5_116_0_split -> fc5_classes_fc5_116_0_split_2
I0527 19:45:20.491531 10885 net.cpp:150] Setting up fc5_classes_fc5_116_0_split
I0527 19:45:20.491547 10885 net.cpp:157] Top shape: 1024 116 (118784)
I0527 19:45:20.491557 10885 net.cpp:157] Top shape: 1024 116 (118784)
I0527 19:45:20.491569 10885 net.cpp:157] Top shape: 1024 116 (118784)
I0527 19:45:20.491580 10885 net.cpp:165] Memory required for data: 2189230080
I0527 19:45:20.491588 10885 layer_factory.hpp:77] Creating layer softmax
I0527 19:45:20.491605 10885 net.cpp:100] Creating Layer softmax
I0527 19:45:20.491612 10885 net.cpp:434] softmax <- fc5_classes_fc5_116_0_split_0
I0527 19:45:20.491626 10885 net.cpp:408] softmax -> softmax
I0527 19:45:20.491914 10885 net.cpp:150] Setting up softmax
I0527 19:45:20.491935 10885 net.cpp:157] Top shape: 1024 116 (118784)
I0527 19:45:20.491950 10885 net.cpp:165] Memory required for data: 2189705216
I0527 19:45:20.491962 10885 layer_factory.hpp:77] Creating layer loss
I0527 19:45:20.491976 10885 net.cpp:100] Creating Layer loss
I0527 19:45:20.492002 10885 net.cpp:434] loss <- softmax
I0527 19:45:20.492012 10885 net.cpp:434] loss <- label_data_1_split_0
I0527 19:45:20.492023 10885 net.cpp:408] loss -> loss
…
