…
I0528 22:25:17.192872 21201 solver.cpp:81] Creating training net from train_net file: ./Prototxt/experiment_22/RTSD/AHE/trial_2/train.prototxt
I0528 22:25:17.209101 21201 net.cpp:58] Initializing net from parameters: 
state {
  phase: TRAIN
  level: 0
  stage: ""
}
layer {
  name: "data"
  type: "Data"
  top: "data"
  top: "label"
  include {
    phase: TRAIN
  }
  transform_param {
    scale: 0.0039215689
    mirror: false
    crop_size: 48
    mean_value: 133
    mean_value: 127
    mean_value: 126
  }
  data_param {
    source: "../local_data/lmdb/RTSD/AHE/train/lmdb"
    batch_size: 1024
    backend: LMDB
  }
}
layer {
  name: "conv1"
  type: "Convolution"
  bottom: "data"
  top: "conv1"
  convolution_param {
    num_output: 100
    pad: 0
    kernel_size: 7
    group: 1
    stride: 1
    weight_filler {
      type: "xavier"
    }
  }
}
layer {
  name: "conv1_relu"
  type: "ReLU"
  bottom: "conv1"
  top: "conv1"
}
layer {
  name: "pool1"
  type: "Pooling"
  bottom: "conv1"
  top: "pool1"
  pooling_param {
    pool: MAX
    kernel_size: 2
    stride: 2
  }
}
layer {
  name: "conv2"
  type: "Convolution"
  bottom: "pool1"
  top: "conv2"
  convolution_param {
    num_output: 150
    pad: 0
    kernel_size: 4
    group: 1
    stride: 1
    weight_filler {
      type: "xavier"
    }
  }
}
layer {
  name: "conv2_relu"
  type: "ReLU"
  bottom: "conv2"
  top: "conv2"
}
layer {
  name: "pool2"
  type: "Pooling"
  bottom: "conv2"
  top: "pool2"
  pooling_param {
    pool: MAX
    kernel_size: 2
    stride: 2
  }
}
layer {
  name: "conv3"
  type: "Convolution"
  bottom: "pool2"
  top: "conv3"
  convolution_param {
    num_output: 250
    pad: 0
    kernel_size: 4
    group: 1
    stride: 1
    weight_filler {
      type: "xavier"
    }
  }
}
layer {
  name: "conv3_relu"
  type: "ReLU"
  bottom: "conv3"
  top: "conv3"
}
layer {
  name: "pool3"
  type: "Pooling"
  bottom: "conv3"
  top: "pool3"
  pooling_param {
    pool: MAX
    kernel_size: 2
    stride: 2
  }
}
layer {
  name: "fc4_300"
  type: "InnerProduct"
  bottom: "pool3"
  top: "fc4_300"
  inner_product_param {
    num_output: 300
    weight_filler {
      type: "xavier"
    }
  }
}
layer {
  name: "fc4_relu"
  type: "ReLU"
  bottom: "fc4_300"
  top: "fc4_300"
}
layer {
  name: "fc5_116"
  type: "InnerProduct"
  bottom: "fc4_300"
  top: "fc5_classes"
  inner_product_param {
    num_output: 116
    weight_filler {
      type: "xavier"
    }
  }
}
layer {
  name: "softmax"
  type: "Softmax"
  bottom: "fc5_classes"
  top: "softmax"
}
layer {
  name: "loss"
  type: "MultinomialLogisticLoss"
  bottom: "softmax"
  bottom: "label"
  top: "loss"
}
layer {
  name: "accuracy_1"
  type: "Accuracy"
  bottom: "fc5_classes"
  bottom: "label"
  top: "accuracy_1"
  accuracy_param {
    top_k: 1
  }
}
layer {
  name: "accuracy_5"
  type: "Accuracy"
  bottom: "fc5_classes"
  bottom: "label"
  top: "accuracy_5"
  accuracy_param {
    top_k: 5
  }
}
layer {
  name: "silence"
  type: "Silence"
  bottom: "accuracy_1"
  bottom: "accuracy_5"
}
I0528 22:25:17.209234 21201 layer_factory.hpp:77] Creating layer data
I0528 22:25:17.210253 21201 net.cpp:100] Creating Layer data
I0528 22:25:17.210273 21201 net.cpp:408] data -> data
I0528 22:25:17.210307 21201 net.cpp:408] data -> label
I0528 22:25:17.219152 21240 db_lmdb.cpp:35] Opened lmdb ../local_data/lmdb/RTSD/AHE/train/lmdb
I0528 22:25:17.243077 21201 data_layer.cpp:41] output data size: 1024,3,48,48
I0528 22:25:17.286031 21201 net.cpp:150] Setting up data
I0528 22:25:17.286103 21201 net.cpp:157] Top shape: 1024 3 48 48 (7077888)
I0528 22:25:17.286120 21201 net.cpp:157] Top shape: 1024 (1024)
I0528 22:25:17.286128 21201 net.cpp:165] Memory required for data: 28315648
I0528 22:25:17.286150 21201 layer_factory.hpp:77] Creating layer label_data_1_split
I0528 22:25:17.286178 21201 net.cpp:100] Creating Layer label_data_1_split
I0528 22:25:17.286190 21201 net.cpp:434] label_data_1_split <- label
I0528 22:25:17.286208 21201 net.cpp:408] label_data_1_split -> label_data_1_split_0
I0528 22:25:17.286234 21201 net.cpp:408] label_data_1_split -> label_data_1_split_1
I0528 22:25:17.286245 21201 net.cpp:408] label_data_1_split -> label_data_1_split_2
I0528 22:25:17.286319 21201 net.cpp:150] Setting up label_data_1_split
I0528 22:25:17.286332 21201 net.cpp:157] Top shape: 1024 (1024)
I0528 22:25:17.286339 21201 net.cpp:157] Top shape: 1024 (1024)
I0528 22:25:17.286347 21201 net.cpp:157] Top shape: 1024 (1024)
I0528 22:25:17.286352 21201 net.cpp:165] Memory required for data: 28327936
I0528 22:25:17.286360 21201 layer_factory.hpp:77] Creating layer conv1
I0528 22:25:17.286384 21201 net.cpp:100] Creating Layer conv1
I0528 22:25:17.286393 21201 net.cpp:434] conv1 <- data
I0528 22:25:17.286413 21201 net.cpp:408] conv1 -> conv1
I0528 22:25:17.565255 21201 net.cpp:150] Setting up conv1
I0528 22:25:17.565302 21201 net.cpp:157] Top shape: 1024 100 42 42 (180633600)
I0528 22:25:17.565310 21201 net.cpp:165] Memory required for data: 750862336
I0528 22:25:17.565336 21201 layer_factory.hpp:77] Creating layer conv1_relu
I0528 22:25:17.565348 21201 net.cpp:100] Creating Layer conv1_relu
I0528 22:25:17.565364 21201 net.cpp:434] conv1_relu <- conv1
I0528 22:25:17.565381 21201 net.cpp:395] conv1_relu -> conv1 (in-place)
I0528 22:25:17.565592 21201 net.cpp:150] Setting up conv1_relu
I0528 22:25:17.565613 21201 net.cpp:157] Top shape: 1024 100 42 42 (180633600)
I0528 22:25:17.565618 21201 net.cpp:165] Memory required for data: 1473396736
I0528 22:25:17.565626 21201 layer_factory.hpp:77] Creating layer pool1
I0528 22:25:17.565637 21201 net.cpp:100] Creating Layer pool1
I0528 22:25:17.565644 21201 net.cpp:434] pool1 <- conv1
I0528 22:25:17.565654 21201 net.cpp:408] pool1 -> pool1
I0528 22:25:17.565717 21201 net.cpp:150] Setting up pool1
I0528 22:25:17.565728 21201 net.cpp:157] Top shape: 1024 100 21 21 (45158400)
I0528 22:25:17.565732 21201 net.cpp:165] Memory required for data: 1654030336
I0528 22:25:17.565737 21201 layer_factory.hpp:77] Creating layer conv2
I0528 22:25:17.565750 21201 net.cpp:100] Creating Layer conv2
I0528 22:25:17.565759 21201 net.cpp:434] conv2 <- pool1
I0528 22:25:17.565767 21201 net.cpp:408] conv2 -> conv2
I0528 22:25:17.571496 21201 net.cpp:150] Setting up conv2
I0528 22:25:17.571534 21201 net.cpp:157] Top shape: 1024 150 18 18 (49766400)
I0528 22:25:17.571542 21201 net.cpp:165] Memory required for data: 1853095936
I0528 22:25:17.571563 21201 layer_factory.hpp:77] Creating layer conv2_relu
I0528 22:25:17.571576 21201 net.cpp:100] Creating Layer conv2_relu
I0528 22:25:17.571584 21201 net.cpp:434] conv2_relu <- conv2
I0528 22:25:17.571593 21201 net.cpp:395] conv2_relu -> conv2 (in-place)
I0528 22:25:17.571835 21201 net.cpp:150] Setting up conv2_relu
I0528 22:25:17.571847 21201 net.cpp:157] Top shape: 1024 150 18 18 (49766400)
I0528 22:25:17.571852 21201 net.cpp:165] Memory required for data: 2052161536
I0528 22:25:17.571857 21201 layer_factory.hpp:77] Creating layer pool2
I0528 22:25:17.571866 21201 net.cpp:100] Creating Layer pool2
I0528 22:25:17.571872 21201 net.cpp:434] pool2 <- conv2
I0528 22:25:17.571882 21201 net.cpp:408] pool2 -> pool2
I0528 22:25:17.571935 21201 net.cpp:150] Setting up pool2
I0528 22:25:17.571945 21201 net.cpp:157] Top shape: 1024 150 9 9 (12441600)
I0528 22:25:17.571950 21201 net.cpp:165] Memory required for data: 2101927936
I0528 22:25:17.571955 21201 layer_factory.hpp:77] Creating layer conv3
I0528 22:25:17.571972 21201 net.cpp:100] Creating Layer conv3
I0528 22:25:17.571979 21201 net.cpp:434] conv3 <- pool2
I0528 22:25:17.571986 21201 net.cpp:408] conv3 -> conv3
I0528 22:25:17.578501 21201 net.cpp:150] Setting up conv3
I0528 22:25:17.578544 21201 net.cpp:157] Top shape: 1024 250 6 6 (9216000)
I0528 22:25:17.578550 21201 net.cpp:165] Memory required for data: 2138791936
I0528 22:25:17.578572 21201 layer_factory.hpp:77] Creating layer conv3_relu
I0528 22:25:17.578588 21201 net.cpp:100] Creating Layer conv3_relu
I0528 22:25:17.578594 21201 net.cpp:434] conv3_relu <- conv3
I0528 22:25:17.578601 21201 net.cpp:395] conv3_relu -> conv3 (in-place)
I0528 22:25:17.579069 21201 net.cpp:150] Setting up conv3_relu
I0528 22:25:17.579102 21201 net.cpp:157] Top shape: 1024 250 6 6 (9216000)
I0528 22:25:17.579107 21201 net.cpp:165] Memory required for data: 2175655936
I0528 22:25:17.579113 21201 layer_factory.hpp:77] Creating layer pool3
I0528 22:25:17.579121 21201 net.cpp:100] Creating Layer pool3
I0528 22:25:17.579125 21201 net.cpp:434] pool3 <- conv3
I0528 22:25:17.579133 21201 net.cpp:408] pool3 -> pool3
I0528 22:25:17.579191 21201 net.cpp:150] Setting up pool3
I0528 22:25:17.579201 21201 net.cpp:157] Top shape: 1024 250 3 3 (2304000)
I0528 22:25:17.579205 21201 net.cpp:165] Memory required for data: 2184871936
I0528 22:25:17.579210 21201 layer_factory.hpp:77] Creating layer fc4_300
I0528 22:25:17.579226 21201 net.cpp:100] Creating Layer fc4_300
I0528 22:25:17.579233 21201 net.cpp:434] fc4_300 <- pool3
I0528 22:25:17.579241 21201 net.cpp:408] fc4_300 -> fc4_300
I0528 22:25:17.585325 21201 net.cpp:150] Setting up fc4_300
I0528 22:25:17.585350 21201 net.cpp:157] Top shape: 1024 300 (307200)
I0528 22:25:17.585356 21201 net.cpp:165] Memory required for data: 2186100736
I0528 22:25:17.585366 21201 layer_factory.hpp:77] Creating layer fc4_relu
I0528 22:25:17.585376 21201 net.cpp:100] Creating Layer fc4_relu
I0528 22:25:17.585382 21201 net.cpp:434] fc4_relu <- fc4_300
I0528 22:25:17.585391 21201 net.cpp:395] fc4_relu -> fc4_300 (in-place)
I0528 22:25:17.585593 21201 net.cpp:150] Setting up fc4_relu
I0528 22:25:17.585606 21201 net.cpp:157] Top shape: 1024 300 (307200)
I0528 22:25:17.585611 21201 net.cpp:165] Memory required for data: 2187329536
I0528 22:25:17.585615 21201 layer_factory.hpp:77] Creating layer fc5_116
I0528 22:25:17.585630 21201 net.cpp:100] Creating Layer fc5_116
I0528 22:25:17.585638 21201 net.cpp:434] fc5_116 <- fc4_300
I0528 22:25:17.585646 21201 net.cpp:408] fc5_116 -> fc5_classes
I0528 22:25:17.586923 21201 net.cpp:150] Setting up fc5_116
I0528 22:25:17.586941 21201 net.cpp:157] Top shape: 1024 116 (118784)
I0528 22:25:17.586946 21201 net.cpp:165] Memory required for data: 2187804672
I0528 22:25:17.586956 21201 layer_factory.hpp:77] Creating layer fc5_classes_fc5_116_0_split
I0528 22:25:17.586966 21201 net.cpp:100] Creating Layer fc5_classes_fc5_116_0_split
I0528 22:25:17.586971 21201 net.cpp:434] fc5_classes_fc5_116_0_split <- fc5_classes
I0528 22:25:17.586978 21201 net.cpp:408] fc5_classes_fc5_116_0_split -> fc5_classes_fc5_116_0_split_0
I0528 22:25:17.586987 21201 net.cpp:408] fc5_classes_fc5_116_0_split -> fc5_classes_fc5_116_0_split_1
I0528 22:25:17.586998 21201 net.cpp:408] fc5_classes_fc5_116_0_split -> fc5_classes_fc5_116_0_split_2
I0528 22:25:17.587052 21201 net.cpp:150] Setting up fc5_classes_fc5_116_0_split
I0528 22:25:17.587062 21201 net.cpp:157] Top shape: 1024 116 (118784)
I0528 22:25:17.587067 21201 net.cpp:157] Top shape: 1024 116 (118784)
I0528 22:25:17.587074 21201 net.cpp:157] Top shape: 1024 116 (118784)
I0528 22:25:17.587077 21201 net.cpp:165] Memory required for data: 2189230080
I0528 22:25:17.587081 21201 layer_factory.hpp:77] Creating layer softmax
I0528 22:25:17.587092 21201 net.cpp:100] Creating Layer softmax
I0528 22:25:17.587098 21201 net.cpp:434] softmax <- fc5_classes_fc5_116_0_split_0
I0528 22:25:17.587105 21201 net.cpp:408] softmax -> softmax
I0528 22:25:17.587365 21201 net.cpp:150] Setting up softmax
I0528 22:25:17.587378 21201 net.cpp:157] Top shape: 1024 116 (118784)
I0528 22:25:17.587383 21201 net.cpp:165] Memory required for data: 2189705216
I0528 22:25:17.587388 21201 layer_factory.hpp:77] Creating layer loss
I0528 22:25:17.587399 21201 net.cpp:100] Creating Layer loss
I0528 22:25:17.587420 21201 net.cpp:434] loss <- softmax
I0528 22:25:17.587427 21201 net.cpp:434] loss <- label_data_1_split_0
I0528 22:25:17.587435 21201 net.cpp:408] loss -> loss
…
