…
I0409 06:01:13.422303 31161 net.cpp:322] The NetState phase (0) differed from the phase (1) specified by a rule in layer accuracy_5
I0409 06:01:13.422404 31161 net.cpp:58] Initializing net from parameters: 
state {
  phase: TRAIN
  level: 0
  stage: ""
}
layer {
  name: "data"
  type: "Data"
  top: "data"
  top: "label"
  include {
    phase: TRAIN
  }
  transform_param {
    mirror: false
    crop_size: 48
    mean_value: 122
    mean_value: 115
    mean_value: 129
  }
  data_param {
    source: "../local_data/lmdb/rtsd-r1/orig/train/lmdb"
    batch_size: 1024
    backend: LMDB
  }
}
layer {
  name: "conv1"
  type: "Convolution"
  bottom: "data"
  top: "conv1"
  convolution_param {
    num_output: 100
    pad: 0
    kernel_size: 7
    group: 1
    stride: 1
    weight_filler {
      type: "xavier"
    }
  }
}
layer {
  name: "conv1_relu"
  type: "ReLU"
  bottom: "conv1"
  top: "conv1"
}
layer {
  name: "pool1"
  type: "Pooling"
  bottom: "conv1"
  top: "pool1"
  pooling_param {
    pool: MAX
    kernel_size: 2
    stride: 2
  }
}
layer {
  name: "conv2"
  type: "Convolution"
  bottom: "pool1"
  top: "conv2"
  convolution_param {
    num_output: 150
    pad: 0
    kernel_size: 4
    group: 1
    stride: 1
    weight_filler {
      type: "xavier"
    }
  }
}
layer {
  name: "conv2_relu"
  type: "ReLU"
  bottom: "conv2"
  top: "conv2"
}
layer {
  name: "pool2"
  type: "Pooling"
  bottom: "conv2"
  top: "pool2"
  pooling_param {
    pool: MAX
    kernel_size: 2
    stride: 2
  }
}
layer {
  name: "conv3"
  type: "Convolution"
  bottom: "pool2"
  top: "conv3"
  convolution_param {
    num_output: 250
    pad: 0
    kernel_size: 4
    group: 1
    stride: 1
    weight_filler {
      type: "xavier"
    }
  }
}
layer {
  name: "conv3_relu"
  type: "ReLU"
  bottom: "conv3"
  top: "conv3"
}
layer {
  name: "pool3"
  type: "Pooling"
  bottom: "conv3"
  top: "pool3"
  pooling_param {
    pool: MAX
    kernel_size: 2
    stride: 2
  }
}
layer {
  name: "fc4_300"
  type: "InnerProduct"
  bottom: "pool3"
  top: "fc4_300"
  inner_product_param {
    num_output: 300
    weight_filler {
      type: "xavier"
    }
  }
}
layer {
  name: "fc4_relu"
  type: "ReLU"
  bottom: "fc4_300"
  top: "fc4_300"
}
layer {
  name: "drop4"
  type: "Dropout"
  bottom: "fc4_300"
  top: "fc4_300"
  dropout_param {
    dropout_ratio: 0.4
  }
}
layer {
  name: "fc5_67"
  type: "InnerProduct"
  bottom: "fc4_300"
  top: "fc5_classes"
  inner_product_param {
    num_output: 67
    weight_filler {
      type: "xavier"
    }
  }
}
layer {
  name: "loss"
  type: "SoftmaxWithLoss"
  bottom: "fc5_classes"
  bottom: "label"
  top: "loss"
}
I0409 06:01:13.422480 31161 layer_factory.hpp:77] Creating layer data
I0409 06:01:13.423794 31161 net.cpp:100] Creating Layer data
I0409 06:01:13.423810 31161 net.cpp:408] data -> data
I0409 06:01:13.423832 31161 net.cpp:408] data -> label
I0409 06:01:13.425478 31212 db_lmdb.cpp:35] Opened lmdb ../local_data/lmdb/rtsd-r1/orig/train/lmdb
I0409 06:01:13.441704 31161 data_layer.cpp:41] output data size: 1024,3,48,48
I0409 06:01:13.484167 31161 net.cpp:150] Setting up data
I0409 06:01:13.484212 31161 net.cpp:157] Top shape: 1024 3 48 48 (7077888)
I0409 06:01:13.484218 31161 net.cpp:157] Top shape: 1024 (1024)
I0409 06:01:13.484256 31161 net.cpp:165] Memory required for data: 28315648
I0409 06:01:13.484266 31161 layer_factory.hpp:77] Creating layer conv1
I0409 06:01:13.484289 31161 net.cpp:100] Creating Layer conv1
I0409 06:01:13.484297 31161 net.cpp:434] conv1 <- data
I0409 06:01:13.484318 31161 net.cpp:408] conv1 -> conv1
I0409 06:01:13.750650 31161 net.cpp:150] Setting up conv1
I0409 06:01:13.750682 31161 net.cpp:157] Top shape: 1024 100 42 42 (180633600)
I0409 06:01:13.750686 31161 net.cpp:165] Memory required for data: 750850048
I0409 06:01:13.750721 31161 layer_factory.hpp:77] Creating layer conv1_relu
I0409 06:01:13.750735 31161 net.cpp:100] Creating Layer conv1_relu
I0409 06:01:13.750741 31161 net.cpp:434] conv1_relu <- conv1
I0409 06:01:13.750746 31161 net.cpp:395] conv1_relu -> conv1 (in-place)
I0409 06:01:13.750941 31161 net.cpp:150] Setting up conv1_relu
I0409 06:01:13.750952 31161 net.cpp:157] Top shape: 1024 100 42 42 (180633600)
I0409 06:01:13.750957 31161 net.cpp:165] Memory required for data: 1473384448
I0409 06:01:13.750959 31161 layer_factory.hpp:77] Creating layer pool1
I0409 06:01:13.750967 31161 net.cpp:100] Creating Layer pool1
I0409 06:01:13.750970 31161 net.cpp:434] pool1 <- conv1
I0409 06:01:13.750975 31161 net.cpp:408] pool1 -> pool1
I0409 06:01:13.751029 31161 net.cpp:150] Setting up pool1
I0409 06:01:13.751037 31161 net.cpp:157] Top shape: 1024 100 21 21 (45158400)
I0409 06:01:13.751040 31161 net.cpp:165] Memory required for data: 1654018048
I0409 06:01:13.751044 31161 layer_factory.hpp:77] Creating layer conv2
I0409 06:01:13.751055 31161 net.cpp:100] Creating Layer conv2
I0409 06:01:13.751060 31161 net.cpp:434] conv2 <- pool1
I0409 06:01:13.751065 31161 net.cpp:408] conv2 -> conv2
I0409 06:01:13.755293 31161 net.cpp:150] Setting up conv2
I0409 06:01:13.755311 31161 net.cpp:157] Top shape: 1024 150 18 18 (49766400)
I0409 06:01:13.755316 31161 net.cpp:165] Memory required for data: 1853083648
I0409 06:01:13.755337 31161 layer_factory.hpp:77] Creating layer conv2_relu
I0409 06:01:13.755347 31161 net.cpp:100] Creating Layer conv2_relu
I0409 06:01:13.755349 31161 net.cpp:434] conv2_relu <- conv2
I0409 06:01:13.755354 31161 net.cpp:395] conv2_relu -> conv2 (in-place)
I0409 06:01:13.756124 31161 net.cpp:150] Setting up conv2_relu
I0409 06:01:13.756140 31161 net.cpp:157] Top shape: 1024 150 18 18 (49766400)
I0409 06:01:13.756156 31161 net.cpp:165] Memory required for data: 2052149248
I0409 06:01:13.756160 31161 layer_factory.hpp:77] Creating layer pool2
I0409 06:01:13.756166 31161 net.cpp:100] Creating Layer pool2
I0409 06:01:13.756170 31161 net.cpp:434] pool2 <- conv2
I0409 06:01:13.756177 31161 net.cpp:408] pool2 -> pool2
I0409 06:01:13.756245 31161 net.cpp:150] Setting up pool2
I0409 06:01:13.756254 31161 net.cpp:157] Top shape: 1024 150 9 9 (12441600)
I0409 06:01:13.756258 31161 net.cpp:165] Memory required for data: 2101915648
I0409 06:01:13.756260 31161 layer_factory.hpp:77] Creating layer conv3
I0409 06:01:13.756273 31161 net.cpp:100] Creating Layer conv3
I0409 06:01:13.756276 31161 net.cpp:434] conv3 <- pool2
I0409 06:01:13.756281 31161 net.cpp:408] conv3 -> conv3
I0409 06:01:13.761548 31161 net.cpp:150] Setting up conv3
I0409 06:01:13.761565 31161 net.cpp:157] Top shape: 1024 250 6 6 (9216000)
I0409 06:01:13.761569 31161 net.cpp:165] Memory required for data: 2138779648
I0409 06:01:13.761579 31161 layer_factory.hpp:77] Creating layer conv3_relu
I0409 06:01:13.761585 31161 net.cpp:100] Creating Layer conv3_relu
I0409 06:01:13.761590 31161 net.cpp:434] conv3_relu <- conv3
I0409 06:01:13.761593 31161 net.cpp:395] conv3_relu -> conv3 (in-place)
I0409 06:01:13.762369 31161 net.cpp:150] Setting up conv3_relu
I0409 06:01:13.762385 31161 net.cpp:157] Top shape: 1024 250 6 6 (9216000)
I0409 06:01:13.762389 31161 net.cpp:165] Memory required for data: 2175643648
I0409 06:01:13.762392 31161 layer_factory.hpp:77] Creating layer pool3
I0409 06:01:13.762399 31161 net.cpp:100] Creating Layer pool3
I0409 06:01:13.762403 31161 net.cpp:434] pool3 <- conv3
I0409 06:01:13.762409 31161 net.cpp:408] pool3 -> pool3
I0409 06:01:13.762490 31161 net.cpp:150] Setting up pool3
I0409 06:01:13.762500 31161 net.cpp:157] Top shape: 1024 250 3 3 (2304000)
I0409 06:01:13.762502 31161 net.cpp:165] Memory required for data: 2184859648
I0409 06:01:13.762506 31161 layer_factory.hpp:77] Creating layer fc4_300
I0409 06:01:13.762514 31161 net.cpp:100] Creating Layer fc4_300
I0409 06:01:13.762517 31161 net.cpp:434] fc4_300 <- pool3
I0409 06:01:13.762523 31161 net.cpp:408] fc4_300 -> fc4_300
I0409 06:01:13.767758 31161 net.cpp:150] Setting up fc4_300
I0409 06:01:13.767774 31161 net.cpp:157] Top shape: 1024 300 (307200)
I0409 06:01:13.767789 31161 net.cpp:165] Memory required for data: 2186088448
I0409 06:01:13.767796 31161 layer_factory.hpp:77] Creating layer fc4_relu
I0409 06:01:13.767804 31161 net.cpp:100] Creating Layer fc4_relu
I0409 06:01:13.767808 31161 net.cpp:434] fc4_relu <- fc4_300
I0409 06:01:13.767813 31161 net.cpp:395] fc4_relu -> fc4_300 (in-place)
I0409 06:01:13.768013 31161 net.cpp:150] Setting up fc4_relu
I0409 06:01:13.768025 31161 net.cpp:157] Top shape: 1024 300 (307200)
I0409 06:01:13.768028 31161 net.cpp:165] Memory required for data: 2187317248
I0409 06:01:13.768031 31161 layer_factory.hpp:77] Creating layer drop4
I0409 06:01:13.768039 31161 net.cpp:100] Creating Layer drop4
I0409 06:01:13.768043 31161 net.cpp:434] drop4 <- fc4_300
I0409 06:01:13.768049 31161 net.cpp:395] drop4 -> fc4_300 (in-place)
I0409 06:01:13.768081 31161 net.cpp:150] Setting up drop4
I0409 06:01:13.768090 31161 net.cpp:157] Top shape: 1024 300 (307200)
I0409 06:01:13.768092 31161 net.cpp:165] Memory required for data: 2188546048
I0409 06:01:13.768095 31161 layer_factory.hpp:77] Creating layer fc5_67
I0409 06:01:13.768105 31161 net.cpp:100] Creating Layer fc5_67
I0409 06:01:13.768107 31161 net.cpp:434] fc5_67 <- fc4_300
I0409 06:01:13.768112 31161 net.cpp:408] fc5_67 -> fc5_classes
I0409 06:01:13.769315 31161 net.cpp:150] Setting up fc5_67
I0409 06:01:13.769331 31161 net.cpp:157] Top shape: 1024 67 (68608)
I0409 06:01:13.769335 31161 net.cpp:165] Memory required for data: 2188820480
I0409 06:01:13.769345 31161 layer_factory.hpp:77] Creating layer loss
I0409 06:01:13.769352 31161 net.cpp:100] Creating Layer loss
I0409 06:01:13.769356 31161 net.cpp:434] loss <- fc5_classes
I0409 06:01:13.769361 31161 net.cpp:434] loss <- label
I0409 06:01:13.769368 31161 net.cpp:408] loss -> loss
I0409 06:01:13.769379 31161 layer_factory.hpp:77] Creating layer loss
…
I0409 06:01:13.770023 31161 solver.cpp:193] Creating test net (#0) specified by test_net file: ./Prototxt/experiment_6/rtsd-r1/orig/trial_1/test.prototxt
I0409 06:01:13.770164 31161 net.cpp:58] Initializing net from parameters: 
state {
  phase: TEST
}
layer {
  name: "data"
  type: "Data"
  top: "data"
  top: "label"
  include {
    phase: TEST
  }
  transform_param {
    mirror: false
    crop_size: 48
    mean_value: 113
    mean_value: 110
    mean_value: 132
  }
  data_param {
    source: "../local_data/lmdb/rtsd-r1/orig/test/lmdb"
    batch_size: 1024
    backend: LMDB
  }
}
layer {
  name: "conv1"
  type: "Convolution"
  bottom: "data"
  top: "conv1"
  convolution_param {
    num_output: 100
    pad: 0
    kernel_size: 7
    group: 1
    stride: 1
    weight_filler {
      type: "xavier"
    }
  }
}
layer {
  name: "conv1_relu"
  type: "ReLU"
  bottom: "conv1"
  top: "conv1"
}
layer {
  name: "pool1"
  type: "Pooling"
  bottom: "conv1"
  top: "pool1"
  pooling_param {
    pool: MAX
    kernel_size: 2
    stride: 2
  }
}
layer {
  name: "conv2"
  type: "Convolution"
  bottom: "pool1"
  top: "conv2"
  convolution_param {
    num_output: 150
    pad: 0
    kernel_size: 4
    group: 1
    stride: 1
    weight_filler {
      type: "xavier"
    }
  }
}
layer {
  name: "conv2_relu"
  type: "ReLU"
  bottom: "conv2"
  top: "conv2"
}
layer {
  name: "pool2"
  type: "Pooling"
  bottom: "conv2"
  top: "pool2"
  pooling_param {
    pool: MAX
    kernel_size: 2
    stride: 2
  }
}
layer {
  name: "conv3"
  type: "Convolution"
  bottom: "pool2"
  top: "conv3"
  convolution_param {
    num_output: 250
    pad: 0
    kernel_size: 4
    group: 1
    stride: 1
    weight_filler {
      type: "xavier"
    }
  }
}
layer {
  name: "conv3_relu"
  type: "ReLU"
  bottom: "conv3"
  top: "conv3"
}
layer {
  name: "pool3"
  type: "Pooling"
  bottom: "conv3"
  top: "pool3"
  pooling_param {
    pool: MAX
    kernel_size: 2
    stride: 2
  }
}
layer {
  name: "fc4_300"
  type: "InnerProduct"
  bottom: "pool3"
  top: "fc4_300"
  inner_product_param {
    num_output: 300
    weight_filler {
      type: "xavier"
    }
  }
}
layer {
  name: "fc4_relu"
  type: "ReLU"
  bottom: "fc4_300"
  top: "fc4_300"
}
layer {
  name: "drop4"
  type: "Dropout"
  bottom: "fc4_300"
  top: "fc4_300"
  dropout_param {
    dropout_ratio: 0.4
  }
}
layer {
  name: "fc5_67"
  type: "InnerProduct"
  bottom: "fc4_300"
  top: "fc5_classes"
  inner_product_param {
    num_output: 67
    weight_filler {
      type: "xavier"
    }
  }
}
layer {
  name: "loss"
  type: "SoftmaxWithLoss"
  bottom: "fc5_classes"
  bottom: "label"
  top: "loss"
}
layer {
  name: "accuracy_1"
  type: "Accuracy"
  bottom: "fc5_classes"
  bottom: "label"
  top: "accuracy_1"
  include {
    phase: TEST
  }
  accuracy_param {
    top_k: 1
  }
}
layer {
  name: "accuracy_5"
  type: "Accuracy"
  bottom: "fc5_classes"
  bottom: "label"
  top: "accuracy_5"
  include {
    phase: TEST
  }
  accuracy_param {
    top_k: 5
  }
}
I0409 06:01:13.770253 31161 layer_factory.hpp:77] Creating layer data
I0409 06:01:13.770963 31161 net.cpp:100] Creating Layer data
I0409 06:01:13.770977 31161 net.cpp:408] data -> data
I0409 06:01:13.770987 31161 net.cpp:408] data -> label
I0409 06:01:13.772685 31220 db_lmdb.cpp:35] Opened lmdb ../local_data/lmdb/rtsd-r1/orig/test/lmdb
I0409 06:01:13.772872 31161 data_layer.cpp:41] output data size: 1024,3,48,48
I0409 06:01:13.827616 31161 net.cpp:150] Setting up data
I0409 06:01:13.827643 31161 net.cpp:157] Top shape: 1024 3 48 48 (7077888)
I0409 06:01:13.827648 31161 net.cpp:157] Top shape: 1024 (1024)
I0409 06:01:13.827651 31161 net.cpp:165] Memory required for data: 28315648
I0409 06:01:13.827669 31161 layer_factory.hpp:77] Creating layer label_data_1_split
I0409 06:01:13.827687 31161 net.cpp:100] Creating Layer label_data_1_split
I0409 06:01:13.827694 31161 net.cpp:434] label_data_1_split <- label
I0409 06:01:13.827702 31161 net.cpp:408] label_data_1_split -> label_data_1_split_0
I0409 06:01:13.827713 31161 net.cpp:408] label_data_1_split -> label_data_1_split_1
I0409 06:01:13.827723 31161 net.cpp:408] label_data_1_split -> label_data_1_split_2
I0409 06:01:13.827829 31161 net.cpp:150] Setting up label_data_1_split
I0409 06:01:13.827839 31161 net.cpp:157] Top shape: 1024 (1024)
I0409 06:01:13.827842 31161 net.cpp:157] Top shape: 1024 (1024)
I0409 06:01:13.827847 31161 net.cpp:157] Top shape: 1024 (1024)
I0409 06:01:13.827848 31161 net.cpp:165] Memory required for data: 28327936
I0409 06:01:13.827852 31161 layer_factory.hpp:77] Creating layer conv1
I0409 06:01:13.827864 31161 net.cpp:100] Creating Layer conv1
I0409 06:01:13.827869 31161 net.cpp:434] conv1 <- data
I0409 06:01:13.827875 31161 net.cpp:408] conv1 -> conv1
I0409 06:01:13.831908 31161 net.cpp:150] Setting up conv1
I0409 06:01:13.831928 31161 net.cpp:157] Top shape: 1024 100 42 42 (180633600)
I0409 06:01:13.831933 31161 net.cpp:165] Memory required for data: 750862336
I0409 06:01:13.831946 31161 layer_factory.hpp:77] Creating layer conv1_relu
I0409 06:01:13.831954 31161 net.cpp:100] Creating Layer conv1_relu
I0409 06:01:13.831957 31161 net.cpp:434] conv1_relu <- conv1
I0409 06:01:13.831964 31161 net.cpp:395] conv1_relu -> conv1 (in-place)
I0409 06:01:13.832170 31161 net.cpp:150] Setting up conv1_relu
I0409 06:01:13.832182 31161 net.cpp:157] Top shape: 1024 100 42 42 (180633600)
I0409 06:01:13.832186 31161 net.cpp:165] Memory required for data: 1473396736
I0409 06:01:13.832190 31161 layer_factory.hpp:77] Creating layer pool1
I0409 06:01:13.832214 31161 net.cpp:100] Creating Layer pool1
I0409 06:01:13.832219 31161 net.cpp:434] pool1 <- conv1
I0409 06:01:13.832226 31161 net.cpp:408] pool1 -> pool1
I0409 06:01:13.832278 31161 net.cpp:150] Setting up pool1
I0409 06:01:13.832286 31161 net.cpp:157] Top shape: 1024 100 21 21 (45158400)
I0409 06:01:13.832289 31161 net.cpp:165] Memory required for data: 1654030336
I0409 06:01:13.832293 31161 layer_factory.hpp:77] Creating layer conv2
I0409 06:01:13.832304 31161 net.cpp:100] Creating Layer conv2
I0409 06:01:13.832306 31161 net.cpp:434] conv2 <- pool1
I0409 06:01:13.832314 31161 net.cpp:408] conv2 -> conv2
I0409 06:01:13.836249 31161 net.cpp:150] Setting up conv2
I0409 06:01:13.836267 31161 net.cpp:157] Top shape: 1024 150 18 18 (49766400)
I0409 06:01:13.836271 31161 net.cpp:165] Memory required for data: 1853095936
I0409 06:01:13.836280 31161 layer_factory.hpp:77] Creating layer conv2_relu
I0409 06:01:13.836289 31161 net.cpp:100] Creating Layer conv2_relu
I0409 06:01:13.836292 31161 net.cpp:434] conv2_relu <- conv2
I0409 06:01:13.836299 31161 net.cpp:395] conv2_relu -> conv2 (in-place)
I0409 06:01:13.837080 31161 net.cpp:150] Setting up conv2_relu
I0409 06:01:13.837096 31161 net.cpp:157] Top shape: 1024 150 18 18 (49766400)
I0409 06:01:13.837100 31161 net.cpp:165] Memory required for data: 2052161536
I0409 06:01:13.837105 31161 layer_factory.hpp:77] Creating layer pool2
I0409 06:01:13.837111 31161 net.cpp:100] Creating Layer pool2
I0409 06:01:13.837115 31161 net.cpp:434] pool2 <- conv2
I0409 06:01:13.837121 31161 net.cpp:408] pool2 -> pool2
I0409 06:01:13.837175 31161 net.cpp:150] Setting up pool2
I0409 06:01:13.837188 31161 net.cpp:157] Top shape: 1024 150 9 9 (12441600)
I0409 06:01:13.837191 31161 net.cpp:165] Memory required for data: 2101927936
I0409 06:01:13.837194 31161 layer_factory.hpp:77] Creating layer conv3
I0409 06:01:13.837206 31161 net.cpp:100] Creating Layer conv3
I0409 06:01:13.837211 31161 net.cpp:434] conv3 <- pool2
I0409 06:01:13.837218 31161 net.cpp:408] conv3 -> conv3
I0409 06:01:13.842663 31161 net.cpp:150] Setting up conv3
I0409 06:01:13.842679 31161 net.cpp:157] Top shape: 1024 250 6 6 (9216000)
I0409 06:01:13.842695 31161 net.cpp:165] Memory required for data: 2138791936
I0409 06:01:13.842705 31161 layer_factory.hpp:77] Creating layer conv3_relu
I0409 06:01:13.842711 31161 net.cpp:100] Creating Layer conv3_relu
I0409 06:01:13.842715 31161 net.cpp:434] conv3_relu <- conv3
I0409 06:01:13.842722 31161 net.cpp:395] conv3_relu -> conv3 (in-place)
I0409 06:01:13.843505 31161 net.cpp:150] Setting up conv3_relu
I0409 06:01:13.843521 31161 net.cpp:157] Top shape: 1024 250 6 6 (9216000)
I0409 06:01:13.843536 31161 net.cpp:165] Memory required for data: 2175655936
I0409 06:01:13.843556 31161 layer_factory.hpp:77] Creating layer pool3
I0409 06:01:13.843565 31161 net.cpp:100] Creating Layer pool3
I0409 06:01:13.843569 31161 net.cpp:434] pool3 <- conv3
I0409 06:01:13.843575 31161 net.cpp:408] pool3 -> pool3
I0409 06:01:13.843629 31161 net.cpp:150] Setting up pool3
I0409 06:01:13.843639 31161 net.cpp:157] Top shape: 1024 250 3 3 (2304000)
I0409 06:01:13.843642 31161 net.cpp:165] Memory required for data: 2184871936
I0409 06:01:13.843646 31161 layer_factory.hpp:77] Creating layer fc4_300
I0409 06:01:13.843652 31161 net.cpp:100] Creating Layer fc4_300
I0409 06:01:13.843659 31161 net.cpp:434] fc4_300 <- pool3
I0409 06:01:13.843665 31161 net.cpp:408] fc4_300 -> fc4_300
I0409 06:01:13.849025 31161 net.cpp:150] Setting up fc4_300
I0409 06:01:13.849041 31161 net.cpp:157] Top shape: 1024 300 (307200)
I0409 06:01:13.849056 31161 net.cpp:165] Memory required for data: 2186100736
I0409 06:01:13.849063 31161 layer_factory.hpp:77] Creating layer fc4_relu
I0409 06:01:13.849069 31161 net.cpp:100] Creating Layer fc4_relu
I0409 06:01:13.849082 31161 net.cpp:434] fc4_relu <- fc4_300
I0409 06:01:13.849090 31161 net.cpp:395] fc4_relu -> fc4_300 (in-place)
I0409 06:01:13.849287 31161 net.cpp:150] Setting up fc4_relu
I0409 06:01:13.849300 31161 net.cpp:157] Top shape: 1024 300 (307200)
I0409 06:01:13.849303 31161 net.cpp:165] Memory required for data: 2187329536
I0409 06:01:13.849306 31161 layer_factory.hpp:77] Creating layer drop4
I0409 06:01:13.849313 31161 net.cpp:100] Creating Layer drop4
I0409 06:01:13.849316 31161 net.cpp:434] drop4 <- fc4_300
I0409 06:01:13.849329 31161 net.cpp:395] drop4 -> fc4_300 (in-place)
I0409 06:01:13.849361 31161 net.cpp:150] Setting up drop4
I0409 06:01:13.849370 31161 net.cpp:157] Top shape: 1024 300 (307200)
I0409 06:01:13.849372 31161 net.cpp:165] Memory required for data: 2188558336
I0409 06:01:13.849375 31161 layer_factory.hpp:77] Creating layer fc5_67
I0409 06:01:13.849383 31161 net.cpp:100] Creating Layer fc5_67
I0409 06:01:13.849386 31161 net.cpp:434] fc5_67 <- fc4_300
I0409 06:01:13.849393 31161 net.cpp:408] fc5_67 -> fc5_classes
I0409 06:01:13.849649 31161 net.cpp:150] Setting up fc5_67
I0409 06:01:13.849658 31161 net.cpp:157] Top shape: 1024 67 (68608)
I0409 06:01:13.849661 31161 net.cpp:165] Memory required for data: 2188832768
I0409 06:01:13.849673 31161 layer_factory.hpp:77] Creating layer fc5_classes_fc5_67_0_split
I0409 06:01:13.849679 31161 net.cpp:100] Creating Layer fc5_classes_fc5_67_0_split
I0409 06:01:13.849683 31161 net.cpp:434] fc5_classes_fc5_67_0_split <- fc5_classes
I0409 06:01:13.849689 31161 net.cpp:408] fc5_classes_fc5_67_0_split -> fc5_classes_fc5_67_0_split_0
I0409 06:01:13.849696 31161 net.cpp:408] fc5_classes_fc5_67_0_split -> fc5_classes_fc5_67_0_split_1
I0409 06:01:13.849702 31161 net.cpp:408] fc5_classes_fc5_67_0_split -> fc5_classes_fc5_67_0_split_2
I0409 06:01:13.849756 31161 net.cpp:150] Setting up fc5_classes_fc5_67_0_split
I0409 06:01:13.849762 31161 net.cpp:157] Top shape: 1024 67 (68608)
I0409 06:01:13.849766 31161 net.cpp:157] Top shape: 1024 67 (68608)
I0409 06:01:13.849769 31161 net.cpp:157] Top shape: 1024 67 (68608)
I0409 06:01:13.849772 31161 net.cpp:165] Memory required for data: 2189656064
I0409 06:01:13.849776 31161 layer_factory.hpp:77] Creating layer loss
I0409 06:01:13.849786 31161 net.cpp:100] Creating Layer loss
I0409 06:01:13.849791 31161 net.cpp:434] loss <- fc5_classes_fc5_67_0_split_0
I0409 06:01:13.849795 31161 net.cpp:434] loss <- label_data_1_split_0
I0409 06:01:13.849800 31161 net.cpp:408] loss -> loss
…
