…
I0508 03:06:49.105823  8773 solver.cpp:93] Creating training net from train_net file: ./Prototxt/experiment_16/RTSD/CoNorm/trial_4/train.prototxt
I0508 03:06:49.106187  8773 net.cpp:58] Initializing net from parameters: 
state {
  phase: TRAIN
  level: 0
  stage: ""
}
layer {
  name: "data"
  type: "Data"
  top: "data"
  top: "label"
  include {
    phase: TRAIN
  }
  transform_param {
    scale: 0.0039215689
    mirror: false
    crop_size: 48
    mean_value: 135
    mean_value: 135
    mean_value: 134
  }
  data_param {
    source: "../local_data/lmdb/RTSD/CoNorm/train/lmdb"
    batch_size: 1024
    backend: LMDB
  }
}
layer {
  name: "conv1"
  type: "Convolution"
  bottom: "data"
  top: "conv1"
  convolution_param {
    num_output: 100
    pad: 0
    kernel_size: 7
    group: 1
    stride: 1
    weight_filler {
      type: "xavier"
    }
  }
}
layer {
  name: "conv1_relu"
  type: "ReLU"
  bottom: "conv1"
  top: "conv1"
}
layer {
  name: "pool1"
  type: "Pooling"
  bottom: "conv1"
  top: "pool1"
  pooling_param {
    pool: MAX
    kernel_size: 2
    stride: 2
  }
}
layer {
  name: "conv2"
  type: "Convolution"
  bottom: "pool1"
  top: "conv2"
  convolution_param {
    num_output: 150
    pad: 0
    kernel_size: 4
    group: 2
    stride: 1
    weight_filler {
      type: "xavier"
    }
  }
}
layer {
  name: "conv2_relu"
  type: "ReLU"
  bottom: "conv2"
  top: "conv2"
}
layer {
  name: "pool2"
  type: "Pooling"
  bottom: "conv2"
  top: "pool2"
  pooling_param {
    pool: MAX
    kernel_size: 2
    stride: 2
  }
}
layer {
  name: "conv3"
  type: "Convolution"
  bottom: "pool2"
  top: "conv3"
  convolution_param {
    num_output: 250
    pad: 0
    kernel_size: 4
    group: 2
    stride: 1
    weight_filler {
      type: "xavier"
    }
  }
}
layer {
  name: "conv3_relu"
  type: "ReLU"
  bottom: "conv3"
  top: "conv3"
}
layer {
  name: "pool3"
  type: "Pooling"
  bottom: "conv3"
  top: "pool3"
  pooling_param {
    pool: MAX
    kernel_size: 2
    stride: 2
  }
}
layer {
  name: "fc4_300"
  type: "InnerProduct"
  bottom: "pool3"
  top: "fc4_300"
  inner_product_param {
    num_output: 300
    weight_filler {
      type: "xavier"
    }
  }
}
layer {
  name: "fc4_relu"
  type: "ReLU"
  bottom: "fc4_300"
  top: "fc4_300"
}
layer {
  name: "fc5_116"
  type: "InnerProduct"
  bottom: "fc4_300"
  top: "fc5_classes"
  inner_product_param {
    num_output: 116
    weight_filler {
      type: "xavier"
    }
  }
}
layer {
  name: "softmax"
  type: "Softmax"
  bottom: "fc5_classes"
  top: "softmax"
}
layer {
  name: "loss"
  type: "MultinomialLogisticLoss"
  bottom: "softmax"
  bottom: "label"
  top: "loss"
}
layer {
  name: "accuracy_1"
  type: "Accuracy"
  bottom: "fc5_classes"
  bottom: "label"
  top: "accuracy_1"
  accuracy_param {
    top_k: 1
  }
}
layer {
  name: "accuracy_5"
  type: "Accuracy"
  bottom: "fc5_classes"
  bottom: "label"
  top: "accuracy_5"
  accuracy_param {
    top_k: 5
  }
}
layer {
  name: "silence"
  type: "Silence"
  bottom: "accuracy_1"
  bottom: "accuracy_5"
}
I0508 03:06:49.106315  8773 layer_factory.hpp:77] Creating layer data
I0508 03:06:49.107460  8773 net.cpp:100] Creating Layer data
I0508 03:06:49.107478  8773 net.cpp:408] data -> data
I0508 03:06:49.107503  8773 net.cpp:408] data -> label
I0508 03:06:49.111981  8884 db_lmdb.cpp:35] Opened lmdb ../local_data/lmdb/RTSD/CoNorm/train/lmdb
I0508 03:06:49.132024  8773 data_layer.cpp:41] output data size: 1024,3,48,48
I0508 03:06:49.203624  8773 net.cpp:150] Setting up data
I0508 03:06:49.203680  8773 net.cpp:157] Top shape: 1024 3 48 48 (7077888)
I0508 03:06:49.203687  8773 net.cpp:157] Top shape: 1024 (1024)
I0508 03:06:49.203691  8773 net.cpp:165] Memory required for data: 28315648
I0508 03:06:49.203703  8773 layer_factory.hpp:77] Creating layer label_data_1_split
I0508 03:06:49.203718  8773 net.cpp:100] Creating Layer label_data_1_split
I0508 03:06:49.203734  8773 net.cpp:434] label_data_1_split <- label
I0508 03:06:49.203747  8773 net.cpp:408] label_data_1_split -> label_data_1_split_0
I0508 03:06:49.203760  8773 net.cpp:408] label_data_1_split -> label_data_1_split_1
I0508 03:06:49.203769  8773 net.cpp:408] label_data_1_split -> label_data_1_split_2
I0508 03:06:49.203846  8773 net.cpp:150] Setting up label_data_1_split
I0508 03:06:49.203855  8773 net.cpp:157] Top shape: 1024 (1024)
I0508 03:06:49.203860  8773 net.cpp:157] Top shape: 1024 (1024)
I0508 03:06:49.203862  8773 net.cpp:157] Top shape: 1024 (1024)
I0508 03:06:49.203866  8773 net.cpp:165] Memory required for data: 28327936
I0508 03:06:49.203869  8773 layer_factory.hpp:77] Creating layer conv1
I0508 03:06:49.203904  8773 net.cpp:100] Creating Layer conv1
I0508 03:06:49.203912  8773 net.cpp:434] conv1 <- data
I0508 03:06:49.203917  8773 net.cpp:408] conv1 -> conv1
I0508 03:06:49.588423  8773 net.cpp:150] Setting up conv1
I0508 03:06:49.588451  8773 net.cpp:157] Top shape: 1024 100 42 42 (180633600)
I0508 03:06:49.588455  8773 net.cpp:165] Memory required for data: 750862336
I0508 03:06:49.588479  8773 layer_factory.hpp:77] Creating layer conv1_relu
I0508 03:06:49.588490  8773 net.cpp:100] Creating Layer conv1_relu
I0508 03:06:49.588495  8773 net.cpp:434] conv1_relu <- conv1
I0508 03:06:49.588500  8773 net.cpp:395] conv1_relu -> conv1 (in-place)
I0508 03:06:49.588712  8773 net.cpp:150] Setting up conv1_relu
I0508 03:06:49.588726  8773 net.cpp:157] Top shape: 1024 100 42 42 (180633600)
I0508 03:06:49.588729  8773 net.cpp:165] Memory required for data: 1473396736
I0508 03:06:49.588733  8773 layer_factory.hpp:77] Creating layer pool1
I0508 03:06:49.588743  8773 net.cpp:100] Creating Layer pool1
I0508 03:06:49.588748  8773 net.cpp:434] pool1 <- conv1
I0508 03:06:49.588753  8773 net.cpp:408] pool1 -> pool1
I0508 03:06:49.588811  8773 net.cpp:150] Setting up pool1
I0508 03:06:49.588821  8773 net.cpp:157] Top shape: 1024 100 21 21 (45158400)
I0508 03:06:49.588824  8773 net.cpp:165] Memory required for data: 1654030336
I0508 03:06:49.588827  8773 layer_factory.hpp:77] Creating layer conv2
I0508 03:06:49.588838  8773 net.cpp:100] Creating Layer conv2
I0508 03:06:49.588842  8773 net.cpp:434] conv2 <- pool1
I0508 03:06:49.588848  8773 net.cpp:408] conv2 -> conv2
I0508 03:06:49.597991  8773 net.cpp:150] Setting up conv2
I0508 03:06:49.598012  8773 net.cpp:157] Top shape: 1024 150 18 18 (49766400)
I0508 03:06:49.598016  8773 net.cpp:165] Memory required for data: 1853095936
I0508 03:06:49.598027  8773 layer_factory.hpp:77] Creating layer conv2_relu
I0508 03:06:49.598036  8773 net.cpp:100] Creating Layer conv2_relu
I0508 03:06:49.598038  8773 net.cpp:434] conv2_relu <- conv2
I0508 03:06:49.598043  8773 net.cpp:395] conv2_relu -> conv2 (in-place)
I0508 03:06:49.598237  8773 net.cpp:150] Setting up conv2_relu
I0508 03:06:49.598248  8773 net.cpp:157] Top shape: 1024 150 18 18 (49766400)
I0508 03:06:49.598253  8773 net.cpp:165] Memory required for data: 2052161536
I0508 03:06:49.598256  8773 layer_factory.hpp:77] Creating layer pool2
I0508 03:06:49.598263  8773 net.cpp:100] Creating Layer pool2
I0508 03:06:49.598268  8773 net.cpp:434] pool2 <- conv2
I0508 03:06:49.598273  8773 net.cpp:408] pool2 -> pool2
I0508 03:06:49.598321  8773 net.cpp:150] Setting up pool2
I0508 03:06:49.598330  8773 net.cpp:157] Top shape: 1024 150 9 9 (12441600)
I0508 03:06:49.598335  8773 net.cpp:165] Memory required for data: 2101927936
I0508 03:06:49.598338  8773 layer_factory.hpp:77] Creating layer conv3
I0508 03:06:49.598350  8773 net.cpp:100] Creating Layer conv3
I0508 03:06:49.598353  8773 net.cpp:434] conv3 <- pool2
I0508 03:06:49.598359  8773 net.cpp:408] conv3 -> conv3
I0508 03:06:49.609014  8773 net.cpp:150] Setting up conv3
I0508 03:06:49.609035  8773 net.cpp:157] Top shape: 1024 250 6 6 (9216000)
I0508 03:06:49.609038  8773 net.cpp:165] Memory required for data: 2138791936
I0508 03:06:49.609050  8773 layer_factory.hpp:77] Creating layer conv3_relu
I0508 03:06:49.609056  8773 net.cpp:100] Creating Layer conv3_relu
I0508 03:06:49.609061  8773 net.cpp:434] conv3_relu <- conv3
I0508 03:06:49.609067  8773 net.cpp:395] conv3_relu -> conv3 (in-place)
I0508 03:06:49.609273  8773 net.cpp:150] Setting up conv3_relu
I0508 03:06:49.609285  8773 net.cpp:157] Top shape: 1024 250 6 6 (9216000)
I0508 03:06:49.609289  8773 net.cpp:165] Memory required for data: 2175655936
I0508 03:06:49.609292  8773 layer_factory.hpp:77] Creating layer pool3
I0508 03:06:49.609300  8773 net.cpp:100] Creating Layer pool3
I0508 03:06:49.609305  8773 net.cpp:434] pool3 <- conv3
I0508 03:06:49.609310  8773 net.cpp:408] pool3 -> pool3
I0508 03:06:49.609361  8773 net.cpp:150] Setting up pool3
I0508 03:06:49.609369  8773 net.cpp:157] Top shape: 1024 250 3 3 (2304000)
I0508 03:06:49.609372  8773 net.cpp:165] Memory required for data: 2184871936
I0508 03:06:49.609375  8773 layer_factory.hpp:77] Creating layer fc4_300
I0508 03:06:49.609381  8773 net.cpp:100] Creating Layer fc4_300
I0508 03:06:49.609386  8773 net.cpp:434] fc4_300 <- pool3
I0508 03:06:49.609392  8773 net.cpp:408] fc4_300 -> fc4_300
I0508 03:06:49.615306  8773 net.cpp:150] Setting up fc4_300
I0508 03:06:49.615322  8773 net.cpp:157] Top shape: 1024 300 (307200)
I0508 03:06:49.615326  8773 net.cpp:165] Memory required for data: 2186100736
I0508 03:06:49.615334  8773 layer_factory.hpp:77] Creating layer fc4_relu
I0508 03:06:49.615339  8773 net.cpp:100] Creating Layer fc4_relu
I0508 03:06:49.615342  8773 net.cpp:434] fc4_relu <- fc4_300
I0508 03:06:49.615347  8773 net.cpp:395] fc4_relu -> fc4_300 (in-place)
I0508 03:06:49.616225  8773 net.cpp:150] Setting up fc4_relu
I0508 03:06:49.616240  8773 net.cpp:157] Top shape: 1024 300 (307200)
I0508 03:06:49.616245  8773 net.cpp:165] Memory required for data: 2187329536
I0508 03:06:49.616247  8773 layer_factory.hpp:77] Creating layer fc5_116
I0508 03:06:49.616255  8773 net.cpp:100] Creating Layer fc5_116
I0508 03:06:49.616257  8773 net.cpp:434] fc5_116 <- fc4_300
I0508 03:06:49.616266  8773 net.cpp:408] fc5_116 -> fc5_classes
I0508 03:06:49.626662  8773 net.cpp:150] Setting up fc5_116
I0508 03:06:49.626680  8773 net.cpp:157] Top shape: 1024 116 (118784)
I0508 03:06:49.626683  8773 net.cpp:165] Memory required for data: 2187804672
I0508 03:06:49.626696  8773 layer_factory.hpp:77] Creating layer fc5_classes_fc5_116_0_split
I0508 03:06:49.626704  8773 net.cpp:100] Creating Layer fc5_classes_fc5_116_0_split
I0508 03:06:49.626708  8773 net.cpp:434] fc5_classes_fc5_116_0_split <- fc5_classes
I0508 03:06:49.626715  8773 net.cpp:408] fc5_classes_fc5_116_0_split -> fc5_classes_fc5_116_0_split_0
I0508 03:06:49.626725  8773 net.cpp:408] fc5_classes_fc5_116_0_split -> fc5_classes_fc5_116_0_split_1
I0508 03:06:49.626734  8773 net.cpp:408] fc5_classes_fc5_116_0_split -> fc5_classes_fc5_116_0_split_2
I0508 03:06:49.626797  8773 net.cpp:150] Setting up fc5_classes_fc5_116_0_split
I0508 03:06:49.626806  8773 net.cpp:157] Top shape: 1024 116 (118784)
I0508 03:06:49.626811  8773 net.cpp:157] Top shape: 1024 116 (118784)
I0508 03:06:49.626813  8773 net.cpp:157] Top shape: 1024 116 (118784)
I0508 03:06:49.626816  8773 net.cpp:165] Memory required for data: 2189230080
I0508 03:06:49.626819  8773 layer_factory.hpp:77] Creating layer softmax
I0508 03:06:49.626826  8773 net.cpp:100] Creating Layer softmax
I0508 03:06:49.626828  8773 net.cpp:434] softmax <- fc5_classes_fc5_116_0_split_0
I0508 03:06:49.626835  8773 net.cpp:408] softmax -> softmax
I0508 03:06:49.627120  8773 net.cpp:150] Setting up softmax
I0508 03:06:49.627135  8773 net.cpp:157] Top shape: 1024 116 (118784)
I0508 03:06:49.627137  8773 net.cpp:165] Memory required for data: 2189705216
I0508 03:06:49.627140  8773 layer_factory.hpp:77] Creating layer loss
I0508 03:06:49.627166  8773 net.cpp:100] Creating Layer loss
I0508 03:06:49.627172  8773 net.cpp:434] loss <- softmax
I0508 03:06:49.627177  8773 net.cpp:434] loss <- label_data_1_split_0
I0508 03:06:49.627183  8773 net.cpp:408] loss -> loss
…
