…
I0414 14:16:07.275244 17539 solver.cpp:93] Creating training net from train_net file: ./Prototxt/experiment_11/rtsd-r3/histeq/trial_1/train.prototxt
I0414 14:16:07.296692 17539 net.cpp:58] Initializing net from parameters: 
state {
  phase: TRAIN
  level: 0
  stage: ""
}
layer {
  name: "data"
  type: "Data"
  top: "data"
  top: "label"
  include {
    phase: TRAIN
  }
  transform_param {
    scale: 0.0039215689
    mirror: false
    crop_size: 48
    mean_value: 135
    mean_value: 128
    mean_value: 128
  }
  data_param {
    source: "../local_data/lmdb/rtsd-r3/histeq/train/lmdb"
    batch_size: 1024
    backend: LMDB
  }
}
layer {
  name: "conv1"
  type: "Convolution"
  bottom: "data"
  top: "conv1"
  convolution_param {
    num_output: 100
    pad: 0
    kernel_size: 7
    group: 1
    stride: 1
    weight_filler {
      type: "xavier"
    }
  }
}
layer {
  name: "conv1_prescale"
  type: "Scale"
  bottom: "conv1"
  top: "conv1"
  param {
    lr_mult: 0
    decay_mult: 0
  }
  scale_param {
    filler {
      value: 0.6666
    }
    bias_term: false
  }
}
layer {
  name: "conv1_sTanH"
  type: "TanH"
  bottom: "conv1"
  top: "conv1"
}
layer {
  name: "conv1_postscale"
  type: "Scale"
  bottom: "conv1"
  top: "conv1"
  param {
    lr_mult: 0
    decay_mult: 0
  }
  scale_param {
    filler {
      value: 1.7159
    }
    bias_term: false
  }
}
layer {
  name: "pool1"
  type: "Pooling"
  bottom: "conv1"
  top: "pool1"
  pooling_param {
    pool: MAX
    kernel_size: 2
    stride: 2
  }
}
layer {
  name: "conv2"
  type: "Convolution"
  bottom: "pool1"
  top: "conv2"
  convolution_param {
    num_output: 150
    pad: 0
    kernel_size: 4
    group: 1
    stride: 1
    weight_filler {
      type: "xavier"
    }
  }
}
layer {
  name: "conv2_prescale"
  type: "Scale"
  bottom: "conv2"
  top: "conv2"
  param {
    lr_mult: 0
    decay_mult: 0
  }
  scale_param {
    filler {
      value: 0.6666
    }
    bias_term: false
  }
}
layer {
  name: "conv2_sTanH"
  type: "TanH"
  bottom: "conv2"
  top: "conv2"
}
layer {
  name: "conv2_postscale"
  type: "Scale"
  bottom: "conv2"
  top: "conv2"
  param {
    lr_mult: 0
    decay_mult: 0
  }
  scale_param {
    filler {
      value: 1.7159
    }
    bias_term: false
  }
}
layer {
  name: "pool2"
  type: "Pooling"
  bottom: "conv2"
  top: "pool2"
  pooling_param {
    pool: MAX
    kernel_size: 2
    stride: 2
  }
}
layer {
  name: "conv3"
  type: "Convolution"
  bottom: "pool2"
  top: "conv3"
  convolution_param {
    num_output: 250
    pad: 0
    kernel_size: 4
    group: 1
    stride: 1
    weight_filler {
      type: "xavier"
    }
  }
}
layer {
  name: "conv3_prescale"
  type: "Scale"
  bottom: "conv3"
  top: "conv3"
  param {
    lr_mult: 0
    decay_mult: 0
  }
  scale_param {
    filler {
      value: 0.6666
    }
    bias_term: false
  }
}
layer {
  name: "conv3_sTanH"
  type: "TanH"
  bottom: "conv3"
  top: "conv3"
}
layer {
  name: "conv3_postscale"
  type: "Scale"
  bottom: "conv3"
  top: "conv3"
  param {
    lr_mult: 0
    decay_mult: 0
  }
  scale_param {
    filler {
      value: 1.7159
    }
    bias_term: false
  }
}
layer {
  name: "pool3"
  type: "Pooling"
  bottom: "conv3"
  top: "pool3"
  pooling_param {
    pool: MAX
    kernel_size: 2
    stride: 2
  }
}
layer {
  name: "fc4_300"
  type: "InnerProduct"
  bottom: "pool3"
  top: "fc4_300"
  inner_product_param {
    num_output: 300
    weight_filler {
      type: "xavier"
    }
  }
}
layer {
  name: "fc4_prescale"
  type: "Scale"
  bottom: "fc4_300"
  top: "fc4_300"
  param {
    lr_mult: 0
    decay_mult: 0
  }
  scale_param {
    filler {
      value: 0.6666
    }
    bias_term: false
  }
}
layer {
  name: "fc4_sTanH"
  type: "TanH"
  bottom: "fc4_300"
  top: "fc4_300"
}
layer {
  name: "fc4_postscale"
  type: "Scale"
  bottom: "fc4_300"
  top: "fc4_300"
  param {
    lr_mult: 0
    decay_mult: 0
  }
  scale_param {
    filler {
      value: 1.7159
    }
    bias_term: false
  }
}
layer {
  name: "fc5_106"
  type: "InnerProduct"
  bottom: "fc4_300"
  top: "fc5_classes"
  inner_product_param {
    num_output: 106
    weight_filler {
      type: "xavier"
    }
  }
}
layer {
  name: "softmax"
  type: "Softmax"
  bottom: "fc5_classes"
  top: "softmax"
}
layer {
  name: "loss"
  type: "MultinomialLogisticLoss"
  bottom: "softmax"
  bottom: "label"
  top: "loss"
}
layer {
  name: "accuracy_1"
  type: "Accuracy"
  bottom: "fc5_classes"
  bottom: "label"
  top: "accuracy_1"
  accuracy_param {
    top_k: 1
  }
}
layer {
  name: "accuracy_5"
  type: "Accuracy"
  bottom: "fc5_classes"
  bottom: "label"
  top: "accuracy_5"
  accuracy_param {
    top_k: 5
  }
}
layer {
  name: "silence"
  type: "Silence"
  bottom: "accuracy_1"
  bottom: "accuracy_5"
}
I0414 14:16:07.296850 17539 layer_factory.hpp:77] Creating layer data
I0414 14:16:07.297920 17539 net.cpp:100] Creating Layer data
I0414 14:16:07.297935 17539 net.cpp:408] data -> data
I0414 14:16:07.297957 17539 net.cpp:408] data -> label
I0414 14:16:07.362447 17675 db_lmdb.cpp:35] Opened lmdb ../local_data/lmdb/rtsd-r3/histeq/train/lmdb
I0414 14:16:10.655277 17539 data_layer.cpp:41] output data size: 1024,3,48,48
I0414 14:16:10.721061 17539 net.cpp:150] Setting up data
I0414 14:16:10.721091 17539 net.cpp:157] Top shape: 1024 3 48 48 (7077888)
I0414 14:16:10.721096 17539 net.cpp:157] Top shape: 1024 (1024)
I0414 14:16:10.721099 17539 net.cpp:165] Memory required for data: 28315648
I0414 14:16:10.721110 17539 layer_factory.hpp:77] Creating layer label_data_1_split
I0414 14:16:10.721125 17539 net.cpp:100] Creating Layer label_data_1_split
I0414 14:16:10.721132 17539 net.cpp:434] label_data_1_split <- label
I0414 14:16:10.721148 17539 net.cpp:408] label_data_1_split -> label_data_1_split_0
I0414 14:16:10.721160 17539 net.cpp:408] label_data_1_split -> label_data_1_split_1
I0414 14:16:10.721168 17539 net.cpp:408] label_data_1_split -> label_data_1_split_2
I0414 14:16:10.724506 17539 net.cpp:150] Setting up label_data_1_split
I0414 14:16:10.724524 17539 net.cpp:157] Top shape: 1024 (1024)
I0414 14:16:10.724529 17539 net.cpp:157] Top shape: 1024 (1024)
I0414 14:16:10.724532 17539 net.cpp:157] Top shape: 1024 (1024)
I0414 14:16:10.724537 17539 net.cpp:165] Memory required for data: 28327936
I0414 14:16:10.724541 17539 layer_factory.hpp:77] Creating layer conv1
I0414 14:16:10.724560 17539 net.cpp:100] Creating Layer conv1
I0414 14:16:10.724565 17539 net.cpp:434] conv1 <- data
I0414 14:16:10.724572 17539 net.cpp:408] conv1 -> conv1
I0414 14:16:11.508411 17539 net.cpp:150] Setting up conv1
I0414 14:16:11.508440 17539 net.cpp:157] Top shape: 1024 100 42 42 (180633600)
I0414 14:16:11.508443 17539 net.cpp:165] Memory required for data: 750862336
I0414 14:16:11.508465 17539 layer_factory.hpp:77] Creating layer conv1_prescale
I0414 14:16:11.508477 17539 net.cpp:100] Creating Layer conv1_prescale
I0414 14:16:11.508481 17539 net.cpp:434] conv1_prescale <- conv1
I0414 14:16:11.508488 17539 net.cpp:395] conv1_prescale -> conv1 (in-place)
I0414 14:16:11.508595 17539 net.cpp:150] Setting up conv1_prescale
I0414 14:16:11.508605 17539 net.cpp:157] Top shape: 1024 100 42 42 (180633600)
I0414 14:16:11.508607 17539 net.cpp:165] Memory required for data: 1473396736
I0414 14:16:11.508613 17539 layer_factory.hpp:77] Creating layer conv1_sTanH
I0414 14:16:11.508623 17539 net.cpp:100] Creating Layer conv1_sTanH
I0414 14:16:11.508628 17539 net.cpp:434] conv1_sTanH <- conv1
I0414 14:16:11.508632 17539 net.cpp:395] conv1_sTanH -> conv1 (in-place)
I0414 14:16:11.508826 17539 net.cpp:150] Setting up conv1_sTanH
I0414 14:16:11.508863 17539 net.cpp:157] Top shape: 1024 100 42 42 (180633600)
I0414 14:16:11.508867 17539 net.cpp:165] Memory required for data: 2195931136
I0414 14:16:11.508872 17539 layer_factory.hpp:77] Creating layer conv1_postscale
I0414 14:16:11.508878 17539 net.cpp:100] Creating Layer conv1_postscale
I0414 14:16:11.508882 17539 net.cpp:434] conv1_postscale <- conv1
I0414 14:16:11.508888 17539 net.cpp:395] conv1_postscale -> conv1 (in-place)
I0414 14:16:11.508985 17539 net.cpp:150] Setting up conv1_postscale
I0414 14:16:11.508994 17539 net.cpp:157] Top shape: 1024 100 42 42 (180633600)
I0414 14:16:11.508997 17539 net.cpp:165] Memory required for data: 2918465536
I0414 14:16:11.509002 17539 layer_factory.hpp:77] Creating layer pool1
I0414 14:16:11.509011 17539 net.cpp:100] Creating Layer pool1
I0414 14:16:11.509014 17539 net.cpp:434] pool1 <- conv1
I0414 14:16:11.509019 17539 net.cpp:408] pool1 -> pool1
I0414 14:16:11.509070 17539 net.cpp:150] Setting up pool1
I0414 14:16:11.509079 17539 net.cpp:157] Top shape: 1024 100 21 21 (45158400)
I0414 14:16:11.509083 17539 net.cpp:165] Memory required for data: 3099099136
I0414 14:16:11.509088 17539 layer_factory.hpp:77] Creating layer conv2
I0414 14:16:11.509097 17539 net.cpp:100] Creating Layer conv2
I0414 14:16:11.509101 17539 net.cpp:434] conv2 <- pool1
I0414 14:16:11.509107 17539 net.cpp:408] conv2 -> conv2
I0414 14:16:11.514853 17539 net.cpp:150] Setting up conv2
I0414 14:16:11.514870 17539 net.cpp:157] Top shape: 1024 150 18 18 (49766400)
I0414 14:16:11.514874 17539 net.cpp:165] Memory required for data: 3298164736
I0414 14:16:11.514884 17539 layer_factory.hpp:77] Creating layer conv2_prescale
I0414 14:16:11.514896 17539 net.cpp:100] Creating Layer conv2_prescale
I0414 14:16:11.514902 17539 net.cpp:434] conv2_prescale <- conv2
I0414 14:16:11.514909 17539 net.cpp:395] conv2_prescale -> conv2 (in-place)
I0414 14:16:11.515020 17539 net.cpp:150] Setting up conv2_prescale
I0414 14:16:11.515029 17539 net.cpp:157] Top shape: 1024 150 18 18 (49766400)
I0414 14:16:11.515033 17539 net.cpp:165] Memory required for data: 3497230336
I0414 14:16:11.515038 17539 layer_factory.hpp:77] Creating layer conv2_sTanH
I0414 14:16:11.515045 17539 net.cpp:100] Creating Layer conv2_sTanH
I0414 14:16:11.515050 17539 net.cpp:434] conv2_sTanH <- conv2
I0414 14:16:11.515054 17539 net.cpp:395] conv2_sTanH -> conv2 (in-place)
I0414 14:16:11.516011 17539 net.cpp:150] Setting up conv2_sTanH
I0414 14:16:11.516026 17539 net.cpp:157] Top shape: 1024 150 18 18 (49766400)
I0414 14:16:11.516032 17539 net.cpp:165] Memory required for data: 3696295936
I0414 14:16:11.516036 17539 layer_factory.hpp:77] Creating layer conv2_postscale
I0414 14:16:11.516042 17539 net.cpp:100] Creating Layer conv2_postscale
I0414 14:16:11.516047 17539 net.cpp:434] conv2_postscale <- conv2
I0414 14:16:11.516054 17539 net.cpp:395] conv2_postscale -> conv2 (in-place)
I0414 14:16:11.516156 17539 net.cpp:150] Setting up conv2_postscale
I0414 14:16:11.516165 17539 net.cpp:157] Top shape: 1024 150 18 18 (49766400)
I0414 14:16:11.516170 17539 net.cpp:165] Memory required for data: 3895361536
I0414 14:16:11.516175 17539 layer_factory.hpp:77] Creating layer pool2
I0414 14:16:11.516181 17539 net.cpp:100] Creating Layer pool2
I0414 14:16:11.516185 17539 net.cpp:434] pool2 <- conv2
I0414 14:16:11.516191 17539 net.cpp:408] pool2 -> pool2
I0414 14:16:11.516237 17539 net.cpp:150] Setting up pool2
I0414 14:16:11.516247 17539 net.cpp:157] Top shape: 1024 150 9 9 (12441600)
I0414 14:16:11.516252 17539 net.cpp:165] Memory required for data: 3945127936
I0414 14:16:11.516254 17539 layer_factory.hpp:77] Creating layer conv3
I0414 14:16:11.516269 17539 net.cpp:100] Creating Layer conv3
I0414 14:16:11.516274 17539 net.cpp:434] conv3 <- pool2
I0414 14:16:11.516279 17539 net.cpp:408] conv3 -> conv3
I0414 14:16:11.527060 17539 net.cpp:150] Setting up conv3
I0414 14:16:11.527084 17539 net.cpp:157] Top shape: 1024 250 6 6 (9216000)
I0414 14:16:11.527088 17539 net.cpp:165] Memory required for data: 3981991936
I0414 14:16:11.527103 17539 layer_factory.hpp:77] Creating layer conv3_prescale
I0414 14:16:11.527132 17539 net.cpp:100] Creating Layer conv3_prescale
I0414 14:16:11.527137 17539 net.cpp:434] conv3_prescale <- conv3
I0414 14:16:11.527144 17539 net.cpp:395] conv3_prescale -> conv3 (in-place)
I0414 14:16:11.527250 17539 net.cpp:150] Setting up conv3_prescale
I0414 14:16:11.527258 17539 net.cpp:157] Top shape: 1024 250 6 6 (9216000)
I0414 14:16:11.527262 17539 net.cpp:165] Memory required for data: 4018855936
I0414 14:16:11.527267 17539 layer_factory.hpp:77] Creating layer conv3_sTanH
I0414 14:16:11.527274 17539 net.cpp:100] Creating Layer conv3_sTanH
I0414 14:16:11.527279 17539 net.cpp:434] conv3_sTanH <- conv3
I0414 14:16:11.527283 17539 net.cpp:395] conv3_sTanH -> conv3 (in-place)
I0414 14:16:11.530787 17539 net.cpp:150] Setting up conv3_sTanH
I0414 14:16:11.530805 17539 net.cpp:157] Top shape: 1024 250 6 6 (9216000)
I0414 14:16:11.530808 17539 net.cpp:165] Memory required for data: 4055719936
I0414 14:16:11.530812 17539 layer_factory.hpp:77] Creating layer conv3_postscale
I0414 14:16:11.530822 17539 net.cpp:100] Creating Layer conv3_postscale
I0414 14:16:11.530827 17539 net.cpp:434] conv3_postscale <- conv3
I0414 14:16:11.530833 17539 net.cpp:395] conv3_postscale -> conv3 (in-place)
I0414 14:16:11.530936 17539 net.cpp:150] Setting up conv3_postscale
I0414 14:16:11.530946 17539 net.cpp:157] Top shape: 1024 250 6 6 (9216000)
I0414 14:16:11.530951 17539 net.cpp:165] Memory required for data: 4092583936
I0414 14:16:11.530957 17539 layer_factory.hpp:77] Creating layer pool3
I0414 14:16:11.530971 17539 net.cpp:100] Creating Layer pool3
I0414 14:16:11.530974 17539 net.cpp:434] pool3 <- conv3
I0414 14:16:11.530980 17539 net.cpp:408] pool3 -> pool3
I0414 14:16:11.531023 17539 net.cpp:150] Setting up pool3
I0414 14:16:11.531030 17539 net.cpp:157] Top shape: 1024 250 3 3 (2304000)
I0414 14:16:11.531033 17539 net.cpp:165] Memory required for data: 4101799936
I0414 14:16:11.531036 17539 layer_factory.hpp:77] Creating layer fc4_300
I0414 14:16:11.531044 17539 net.cpp:100] Creating Layer fc4_300
I0414 14:16:11.531049 17539 net.cpp:434] fc4_300 <- pool3
I0414 14:16:11.531054 17539 net.cpp:408] fc4_300 -> fc4_300
I0414 14:16:11.536716 17539 net.cpp:150] Setting up fc4_300
I0414 14:16:11.536736 17539 net.cpp:157] Top shape: 1024 300 (307200)
I0414 14:16:11.536738 17539 net.cpp:165] Memory required for data: 4103028736
I0414 14:16:11.536746 17539 layer_factory.hpp:77] Creating layer fc4_prescale
I0414 14:16:11.536756 17539 net.cpp:100] Creating Layer fc4_prescale
I0414 14:16:11.536759 17539 net.cpp:434] fc4_prescale <- fc4_300
I0414 14:16:11.536765 17539 net.cpp:395] fc4_prescale -> fc4_300 (in-place)
I0414 14:16:11.536856 17539 net.cpp:150] Setting up fc4_prescale
I0414 14:16:11.536864 17539 net.cpp:157] Top shape: 1024 300 (307200)
I0414 14:16:11.536867 17539 net.cpp:165] Memory required for data: 4104257536
I0414 14:16:11.536872 17539 layer_factory.hpp:77] Creating layer fc4_sTanH
I0414 14:16:11.536877 17539 net.cpp:100] Creating Layer fc4_sTanH
I0414 14:16:11.536882 17539 net.cpp:434] fc4_sTanH <- fc4_300
I0414 14:16:11.536887 17539 net.cpp:395] fc4_sTanH -> fc4_300 (in-place)
I0414 14:16:11.537098 17539 net.cpp:150] Setting up fc4_sTanH
I0414 14:16:11.537111 17539 net.cpp:157] Top shape: 1024 300 (307200)
I0414 14:16:11.537116 17539 net.cpp:165] Memory required for data: 4105486336
I0414 14:16:11.537118 17539 layer_factory.hpp:77] Creating layer fc4_postscale
I0414 14:16:11.537127 17539 net.cpp:100] Creating Layer fc4_postscale
I0414 14:16:11.537130 17539 net.cpp:434] fc4_postscale <- fc4_300
I0414 14:16:11.537135 17539 net.cpp:395] fc4_postscale -> fc4_300 (in-place)
I0414 14:16:11.537235 17539 net.cpp:150] Setting up fc4_postscale
I0414 14:16:11.537243 17539 net.cpp:157] Top shape: 1024 300 (307200)
I0414 14:16:11.537245 17539 net.cpp:165] Memory required for data: 4106715136
I0414 14:16:11.537250 17539 layer_factory.hpp:77] Creating layer fc5_106
I0414 14:16:11.537258 17539 net.cpp:100] Creating Layer fc5_106
I0414 14:16:11.537262 17539 net.cpp:434] fc5_106 <- fc4_300
I0414 14:16:11.537269 17539 net.cpp:408] fc5_106 -> fc5_classes
I0414 14:16:11.540513 17539 net.cpp:150] Setting up fc5_106
I0414 14:16:11.540531 17539 net.cpp:157] Top shape: 1024 106 (108544)
I0414 14:16:11.540534 17539 net.cpp:165] Memory required for data: 4107149312
I0414 14:16:11.540549 17539 layer_factory.hpp:77] Creating layer fc5_classes_fc5_106_0_split
I0414 14:16:11.540556 17539 net.cpp:100] Creating Layer fc5_classes_fc5_106_0_split
I0414 14:16:11.540560 17539 net.cpp:434] fc5_classes_fc5_106_0_split <- fc5_classes
I0414 14:16:11.540565 17539 net.cpp:408] fc5_classes_fc5_106_0_split -> fc5_classes_fc5_106_0_split_0
I0414 14:16:11.540575 17539 net.cpp:408] fc5_classes_fc5_106_0_split -> fc5_classes_fc5_106_0_split_1
I0414 14:16:11.540582 17539 net.cpp:408] fc5_classes_fc5_106_0_split -> fc5_classes_fc5_106_0_split_2
I0414 14:16:11.540637 17539 net.cpp:150] Setting up fc5_classes_fc5_106_0_split
I0414 14:16:11.540647 17539 net.cpp:157] Top shape: 1024 106 (108544)
I0414 14:16:11.540652 17539 net.cpp:157] Top shape: 1024 106 (108544)
I0414 14:16:11.540655 17539 net.cpp:157] Top shape: 1024 106 (108544)
I0414 14:16:11.540658 17539 net.cpp:165] Memory required for data: 4108451840
I0414 14:16:11.540660 17539 layer_factory.hpp:77] Creating layer softmax
I0414 14:16:11.540668 17539 net.cpp:100] Creating Layer softmax
I0414 14:16:11.540671 17539 net.cpp:434] softmax <- fc5_classes_fc5_106_0_split_0
I0414 14:16:11.540678 17539 net.cpp:408] softmax -> softmax
I0414 14:16:11.540954 17539 net.cpp:150] Setting up softmax
I0414 14:16:11.540969 17539 net.cpp:157] Top shape: 1024 106 (108544)
I0414 14:16:11.540973 17539 net.cpp:165] Memory required for data: 4108886016
I0414 14:16:11.540977 17539 layer_factory.hpp:77] Creating layer loss
I0414 14:16:11.540983 17539 net.cpp:100] Creating Layer loss
I0414 14:16:11.540988 17539 net.cpp:434] loss <- softmax
I0414 14:16:11.540992 17539 net.cpp:434] loss <- label_data_1_split_0
I0414 14:16:11.540997 17539 net.cpp:408] loss -> loss
…
