…
I0414 06:49:18.552739 27511 solver.cpp:93] Creating training net from train_net file: ./Prototxt/experiment_11/rtsd-r1/imajust/trial_1/train.prototxt
I0414 06:49:18.553197 27511 net.cpp:58] Initializing net from parameters: 
state {
  phase: TRAIN
  level: 0
  stage: ""
}
layer {
  name: "data"
  type: "Data"
  top: "data"
  top: "label"
  include {
    phase: TRAIN
  }
  transform_param {
    scale: 0.0039215689
    mirror: false
    crop_size: 48
    mean_value: 115
    mean_value: 108
    mean_value: 122
  }
  data_param {
    source: "../local_data/lmdb/rtsd-r1/imajust/train/lmdb"
    batch_size: 1024
    backend: LMDB
  }
}
layer {
  name: "conv1"
  type: "Convolution"
  bottom: "data"
  top: "conv1"
  convolution_param {
    num_output: 100
    pad: 0
    kernel_size: 7
    group: 1
    stride: 1
    weight_filler {
      type: "xavier"
    }
  }
}
layer {
  name: "conv1_prescale"
  type: "Scale"
  bottom: "conv1"
  top: "conv1"
  param {
    lr_mult: 0
    decay_mult: 0
  }
  scale_param {
    filler {
      value: 0.6666
    }
    bias_term: false
  }
}
layer {
  name: "conv1_sTanH"
  type: "TanH"
  bottom: "conv1"
  top: "conv1"
}
layer {
  name: "conv1_postscale"
  type: "Scale"
  bottom: "conv1"
  top: "conv1"
  param {
    lr_mult: 0
    decay_mult: 0
  }
  scale_param {
    filler {
      value: 1.7159
    }
    bias_term: false
  }
}
layer {
  name: "pool1"
  type: "Pooling"
  bottom: "conv1"
  top: "pool1"
  pooling_param {
    pool: MAX
    kernel_size: 2
    stride: 2
  }
}
layer {
  name: "conv2"
  type: "Convolution"
  bottom: "pool1"
  top: "conv2"
  convolution_param {
    num_output: 150
    pad: 0
    kernel_size: 4
    group: 1
    stride: 1
    weight_filler {
      type: "xavier"
    }
  }
}
layer {
  name: "conv2_prescale"
  type: "Scale"
  bottom: "conv2"
  top: "conv2"
  param {
    lr_mult: 0
    decay_mult: 0
  }
  scale_param {
    filler {
      value: 0.6666
    }
    bias_term: false
  }
}
layer {
  name: "conv2_sTanH"
  type: "TanH"
  bottom: "conv2"
  top: "conv2"
}
layer {
  name: "conv2_postscale"
  type: "Scale"
  bottom: "conv2"
  top: "conv2"
  param {
    lr_mult: 0
    decay_mult: 0
  }
  scale_param {
    filler {
      value: 1.7159
    }
    bias_term: false
  }
}
layer {
  name: "pool2"
  type: "Pooling"
  bottom: "conv2"
  top: "pool2"
  pooling_param {
    pool: MAX
    kernel_size: 2
    stride: 2
  }
}
layer {
  name: "conv3"
  type: "Convolution"
  bottom: "pool2"
  top: "conv3"
  convolution_param {
    num_output: 250
    pad: 0
    kernel_size: 4
    group: 1
    stride: 1
    weight_filler {
      type: "xavier"
    }
  }
}
layer {
  name: "conv3_prescale"
  type: "Scale"
  bottom: "conv3"
  top: "conv3"
  param {
    lr_mult: 0
    decay_mult: 0
  }
  scale_param {
    filler {
      value: 0.6666
    }
    bias_term: false
  }
}
layer {
  name: "conv3_sTanH"
  type: "TanH"
  bottom: "conv3"
  top: "conv3"
}
layer {
  name: "conv3_postscale"
  type: "Scale"
  bottom: "conv3"
  top: "conv3"
  param {
    lr_mult: 0
    decay_mult: 0
  }
  scale_param {
    filler {
      value: 1.7159
    }
    bias_term: false
  }
}
layer {
  name: "pool3"
  type: "Pooling"
  bottom: "conv3"
  top: "pool3"
  pooling_param {
    pool: MAX
    kernel_size: 2
    stride: 2
  }
}
layer {
  name: "fc4_300"
  type: "InnerProduct"
  bottom: "pool3"
  top: "fc4_300"
  inner_product_param {
    num_output: 300
    weight_filler {
      type: "xavier"
    }
  }
}
layer {
  name: "fc4_prescale"
  type: "Scale"
  bottom: "fc4_300"
  top: "fc4_300"
  param {
    lr_mult: 0
    decay_mult: 0
  }
  scale_param {
    filler {
      value: 0.6666
    }
    bias_term: false
  }
}
layer {
  name: "fc4_sTanH"
  type: "TanH"
  bottom: "fc4_300"
  top: "fc4_300"
}
layer {
  name: "fc4_postscale"
  type: "Scale"
  bottom: "fc4_300"
  top: "fc4_300"
  param {
    lr_mult: 0
    decay_mult: 0
  }
  scale_param {
    filler {
      value: 1.7159
    }
    bias_term: false
  }
}
layer {
  name: "fc5_67"
  type: "InnerProduct"
  bottom: "fc4_300"
  top: "fc5_classes"
  inner_product_param {
    num_output: 67
    weight_filler {
      type: "xavier"
    }
  }
}
layer {
  name: "softmax"
  type: "Softmax"
  bottom: "fc5_classes"
  top: "softmax"
}
layer {
  name: "loss"
  type: "MultinomialLogisticLoss"
  bottom: "softmax"
  bottom: "label"
  top: "loss"
}
layer {
  name: "accuracy_1"
  type: "Accuracy"
  bottom: "fc5_classes"
  bottom: "label"
  top: "accuracy_1"
  accuracy_param {
    top_k: 1
  }
}
layer {
  name: "accuracy_5"
  type: "Accuracy"
  bottom: "fc5_classes"
  bottom: "label"
  top: "accuracy_5"
  accuracy_param {
    top_k: 5
  }
}
layer {
  name: "silence"
  type: "Silence"
  bottom: "accuracy_1"
  bottom: "accuracy_5"
}
I0414 06:49:18.553354 27511 layer_factory.hpp:77] Creating layer data
I0414 06:49:18.554666 27511 net.cpp:100] Creating Layer data
I0414 06:49:18.554682 27511 net.cpp:408] data -> data
I0414 06:49:18.554705 27511 net.cpp:408] data -> label
I0414 06:49:18.593438 27622 db_lmdb.cpp:35] Opened lmdb ../local_data/lmdb/rtsd-r1/imajust/train/lmdb
I0414 06:49:18.616417 27511 data_layer.cpp:41] output data size: 1024,3,48,48
I0414 06:49:18.693534 27511 net.cpp:150] Setting up data
I0414 06:49:18.693564 27511 net.cpp:157] Top shape: 1024 3 48 48 (7077888)
I0414 06:49:18.693570 27511 net.cpp:157] Top shape: 1024 (1024)
I0414 06:49:18.693573 27511 net.cpp:165] Memory required for data: 28315648
I0414 06:49:18.693585 27511 layer_factory.hpp:77] Creating layer label_data_1_split
I0414 06:49:18.693600 27511 net.cpp:100] Creating Layer label_data_1_split
I0414 06:49:18.693609 27511 net.cpp:434] label_data_1_split <- label
I0414 06:49:18.693624 27511 net.cpp:408] label_data_1_split -> label_data_1_split_0
I0414 06:49:18.693637 27511 net.cpp:408] label_data_1_split -> label_data_1_split_1
I0414 06:49:18.693645 27511 net.cpp:408] label_data_1_split -> label_data_1_split_2
I0414 06:49:18.693740 27511 net.cpp:150] Setting up label_data_1_split
I0414 06:49:18.693750 27511 net.cpp:157] Top shape: 1024 (1024)
I0414 06:49:18.693754 27511 net.cpp:157] Top shape: 1024 (1024)
I0414 06:49:18.693761 27511 net.cpp:157] Top shape: 1024 (1024)
I0414 06:49:18.693764 27511 net.cpp:165] Memory required for data: 28327936
I0414 06:49:18.693768 27511 layer_factory.hpp:77] Creating layer conv1
I0414 06:49:18.693789 27511 net.cpp:100] Creating Layer conv1
I0414 06:49:18.693794 27511 net.cpp:434] conv1 <- data
I0414 06:49:18.693800 27511 net.cpp:408] conv1 -> conv1
I0414 06:49:18.726141 27638 blocking_queue.cpp:50] Waiting for data
I0414 06:49:19.104687 27511 net.cpp:150] Setting up conv1
I0414 06:49:19.104717 27511 net.cpp:157] Top shape: 1024 100 42 42 (180633600)
I0414 06:49:19.104720 27511 net.cpp:165] Memory required for data: 750862336
I0414 06:49:19.104744 27511 layer_factory.hpp:77] Creating layer conv1_prescale
I0414 06:49:19.104758 27511 net.cpp:100] Creating Layer conv1_prescale
I0414 06:49:19.104763 27511 net.cpp:434] conv1_prescale <- conv1
I0414 06:49:19.104770 27511 net.cpp:395] conv1_prescale -> conv1 (in-place)
I0414 06:49:19.104889 27511 net.cpp:150] Setting up conv1_prescale
I0414 06:49:19.104900 27511 net.cpp:157] Top shape: 1024 100 42 42 (180633600)
I0414 06:49:19.104903 27511 net.cpp:165] Memory required for data: 1473396736
I0414 06:49:19.104912 27511 layer_factory.hpp:77] Creating layer conv1_sTanH
I0414 06:49:19.104935 27511 net.cpp:100] Creating Layer conv1_sTanH
I0414 06:49:19.104941 27511 net.cpp:434] conv1_sTanH <- conv1
I0414 06:49:19.104946 27511 net.cpp:395] conv1_sTanH -> conv1 (in-place)
I0414 06:49:19.105187 27511 net.cpp:150] Setting up conv1_sTanH
I0414 06:49:19.105211 27511 net.cpp:157] Top shape: 1024 100 42 42 (180633600)
I0414 06:49:19.105216 27511 net.cpp:165] Memory required for data: 2195931136
I0414 06:49:19.105222 27511 layer_factory.hpp:77] Creating layer conv1_postscale
I0414 06:49:19.105233 27511 net.cpp:100] Creating Layer conv1_postscale
I0414 06:49:19.105239 27511 net.cpp:434] conv1_postscale <- conv1
I0414 06:49:19.105250 27511 net.cpp:395] conv1_postscale -> conv1 (in-place)
I0414 06:49:19.105396 27511 net.cpp:150] Setting up conv1_postscale
I0414 06:49:19.105408 27511 net.cpp:157] Top shape: 1024 100 42 42 (180633600)
I0414 06:49:19.105413 27511 net.cpp:165] Memory required for data: 2918465536
I0414 06:49:19.105422 27511 layer_factory.hpp:77] Creating layer pool1
I0414 06:49:19.105432 27511 net.cpp:100] Creating Layer pool1
I0414 06:49:19.105437 27511 net.cpp:434] pool1 <- conv1
I0414 06:49:19.105448 27511 net.cpp:408] pool1 -> pool1
I0414 06:49:19.105517 27511 net.cpp:150] Setting up pool1
I0414 06:49:19.105528 27511 net.cpp:157] Top shape: 1024 100 21 21 (45158400)
I0414 06:49:19.105533 27511 net.cpp:165] Memory required for data: 3099099136
I0414 06:49:19.105538 27511 layer_factory.hpp:77] Creating layer conv2
I0414 06:49:19.105556 27511 net.cpp:100] Creating Layer conv2
I0414 06:49:19.105561 27511 net.cpp:434] conv2 <- pool1
I0414 06:49:19.105571 27511 net.cpp:408] conv2 -> conv2
I0414 06:49:19.116722 27511 net.cpp:150] Setting up conv2
I0414 06:49:19.116744 27511 net.cpp:157] Top shape: 1024 150 18 18 (49766400)
I0414 06:49:19.116747 27511 net.cpp:165] Memory required for data: 3298164736
I0414 06:49:19.116760 27511 layer_factory.hpp:77] Creating layer conv2_prescale
I0414 06:49:19.116772 27511 net.cpp:100] Creating Layer conv2_prescale
I0414 06:49:19.116776 27511 net.cpp:434] conv2_prescale <- conv2
I0414 06:49:19.116783 27511 net.cpp:395] conv2_prescale -> conv2 (in-place)
I0414 06:49:19.116904 27511 net.cpp:150] Setting up conv2_prescale
I0414 06:49:19.116914 27511 net.cpp:157] Top shape: 1024 150 18 18 (49766400)
I0414 06:49:19.116916 27511 net.cpp:165] Memory required for data: 3497230336
I0414 06:49:19.116922 27511 layer_factory.hpp:77] Creating layer conv2_sTanH
I0414 06:49:19.116930 27511 net.cpp:100] Creating Layer conv2_sTanH
I0414 06:49:19.116935 27511 net.cpp:434] conv2_sTanH <- conv2
I0414 06:49:19.116941 27511 net.cpp:395] conv2_sTanH -> conv2 (in-place)
I0414 06:49:19.118450 27511 net.cpp:150] Setting up conv2_sTanH
I0414 06:49:19.118468 27511 net.cpp:157] Top shape: 1024 150 18 18 (49766400)
I0414 06:49:19.118474 27511 net.cpp:165] Memory required for data: 3696295936
I0414 06:49:19.118476 27511 layer_factory.hpp:77] Creating layer conv2_postscale
I0414 06:49:19.118484 27511 net.cpp:100] Creating Layer conv2_postscale
I0414 06:49:19.118491 27511 net.cpp:434] conv2_postscale <- conv2
I0414 06:49:19.118497 27511 net.cpp:395] conv2_postscale -> conv2 (in-place)
I0414 06:49:19.118603 27511 net.cpp:150] Setting up conv2_postscale
I0414 06:49:19.118613 27511 net.cpp:157] Top shape: 1024 150 18 18 (49766400)
I0414 06:49:19.118616 27511 net.cpp:165] Memory required for data: 3895361536
I0414 06:49:19.118621 27511 layer_factory.hpp:77] Creating layer pool2
I0414 06:49:19.118633 27511 net.cpp:100] Creating Layer pool2
I0414 06:49:19.118638 27511 net.cpp:434] pool2 <- conv2
I0414 06:49:19.118643 27511 net.cpp:408] pool2 -> pool2
I0414 06:49:19.118690 27511 net.cpp:150] Setting up pool2
I0414 06:49:19.118700 27511 net.cpp:157] Top shape: 1024 150 9 9 (12441600)
I0414 06:49:19.118702 27511 net.cpp:165] Memory required for data: 3945127936
I0414 06:49:19.118705 27511 layer_factory.hpp:77] Creating layer conv3
I0414 06:49:19.118716 27511 net.cpp:100] Creating Layer conv3
I0414 06:49:19.118721 27511 net.cpp:434] conv3 <- pool2
I0414 06:49:19.118728 27511 net.cpp:408] conv3 -> conv3
I0414 06:49:19.129120 27511 net.cpp:150] Setting up conv3
I0414 06:49:19.129143 27511 net.cpp:157] Top shape: 1024 250 6 6 (9216000)
I0414 06:49:19.129148 27511 net.cpp:165] Memory required for data: 3981991936
I0414 06:49:19.129176 27511 layer_factory.hpp:77] Creating layer conv3_prescale
I0414 06:49:19.129187 27511 net.cpp:100] Creating Layer conv3_prescale
I0414 06:49:19.129194 27511 net.cpp:434] conv3_prescale <- conv3
I0414 06:49:19.129200 27511 net.cpp:395] conv3_prescale -> conv3 (in-place)
I0414 06:49:19.129307 27511 net.cpp:150] Setting up conv3_prescale
I0414 06:49:19.129317 27511 net.cpp:157] Top shape: 1024 250 6 6 (9216000)
I0414 06:49:19.129320 27511 net.cpp:165] Memory required for data: 4018855936
I0414 06:49:19.129326 27511 layer_factory.hpp:77] Creating layer conv3_sTanH
I0414 06:49:19.129333 27511 net.cpp:100] Creating Layer conv3_sTanH
I0414 06:49:19.129339 27511 net.cpp:434] conv3_sTanH <- conv3
I0414 06:49:19.129346 27511 net.cpp:395] conv3_sTanH -> conv3 (in-place)
I0414 06:49:19.134515 27511 net.cpp:150] Setting up conv3_sTanH
I0414 06:49:19.134533 27511 net.cpp:157] Top shape: 1024 250 6 6 (9216000)
I0414 06:49:19.134537 27511 net.cpp:165] Memory required for data: 4055719936
I0414 06:49:19.134541 27511 layer_factory.hpp:77] Creating layer conv3_postscale
I0414 06:49:19.134552 27511 net.cpp:100] Creating Layer conv3_postscale
I0414 06:49:19.134557 27511 net.cpp:434] conv3_postscale <- conv3
I0414 06:49:19.134563 27511 net.cpp:395] conv3_postscale -> conv3 (in-place)
I0414 06:49:19.134672 27511 net.cpp:150] Setting up conv3_postscale
I0414 06:49:19.134682 27511 net.cpp:157] Top shape: 1024 250 6 6 (9216000)
I0414 06:49:19.134685 27511 net.cpp:165] Memory required for data: 4092583936
I0414 06:49:19.134690 27511 layer_factory.hpp:77] Creating layer pool3
I0414 06:49:19.134704 27511 net.cpp:100] Creating Layer pool3
I0414 06:49:19.134709 27511 net.cpp:434] pool3 <- conv3
I0414 06:49:19.134716 27511 net.cpp:408] pool3 -> pool3
I0414 06:49:19.134760 27511 net.cpp:150] Setting up pool3
I0414 06:49:19.134768 27511 net.cpp:157] Top shape: 1024 250 3 3 (2304000)
I0414 06:49:19.134771 27511 net.cpp:165] Memory required for data: 4101799936
I0414 06:49:19.134775 27511 layer_factory.hpp:77] Creating layer fc4_300
I0414 06:49:19.134783 27511 net.cpp:100] Creating Layer fc4_300
I0414 06:49:19.134789 27511 net.cpp:434] fc4_300 <- pool3
I0414 06:49:19.134794 27511 net.cpp:408] fc4_300 -> fc4_300
I0414 06:49:19.140540 27511 net.cpp:150] Setting up fc4_300
I0414 06:49:19.140558 27511 net.cpp:157] Top shape: 1024 300 (307200)
I0414 06:49:19.140561 27511 net.cpp:165] Memory required for data: 4103028736
I0414 06:49:19.140569 27511 layer_factory.hpp:77] Creating layer fc4_prescale
I0414 06:49:19.140578 27511 net.cpp:100] Creating Layer fc4_prescale
I0414 06:49:19.140584 27511 net.cpp:434] fc4_prescale <- fc4_300
I0414 06:49:19.140592 27511 net.cpp:395] fc4_prescale -> fc4_300 (in-place)
I0414 06:49:19.140686 27511 net.cpp:150] Setting up fc4_prescale
I0414 06:49:19.140696 27511 net.cpp:157] Top shape: 1024 300 (307200)
I0414 06:49:19.140698 27511 net.cpp:165] Memory required for data: 4104257536
I0414 06:49:19.140703 27511 layer_factory.hpp:77] Creating layer fc4_sTanH
I0414 06:49:19.140712 27511 net.cpp:100] Creating Layer fc4_sTanH
I0414 06:49:19.140717 27511 net.cpp:434] fc4_sTanH <- fc4_300
I0414 06:49:19.140722 27511 net.cpp:395] fc4_sTanH -> fc4_300 (in-place)
I0414 06:49:19.140918 27511 net.cpp:150] Setting up fc4_sTanH
I0414 06:49:19.140929 27511 net.cpp:157] Top shape: 1024 300 (307200)
I0414 06:49:19.140934 27511 net.cpp:165] Memory required for data: 4105486336
I0414 06:49:19.140938 27511 layer_factory.hpp:77] Creating layer fc4_postscale
I0414 06:49:19.140946 27511 net.cpp:100] Creating Layer fc4_postscale
I0414 06:49:19.140951 27511 net.cpp:434] fc4_postscale <- fc4_300
I0414 06:49:19.140959 27511 net.cpp:395] fc4_postscale -> fc4_300 (in-place)
I0414 06:49:19.141062 27511 net.cpp:150] Setting up fc4_postscale
I0414 06:49:19.141070 27511 net.cpp:157] Top shape: 1024 300 (307200)
I0414 06:49:19.141073 27511 net.cpp:165] Memory required for data: 4106715136
I0414 06:49:19.141078 27511 layer_factory.hpp:77] Creating layer fc5_67
I0414 06:49:19.141089 27511 net.cpp:100] Creating Layer fc5_67
I0414 06:49:19.141108 27511 net.cpp:434] fc5_67 <- fc4_300
I0414 06:49:19.141118 27511 net.cpp:408] fc5_67 -> fc5_classes
I0414 06:49:19.146163 27511 net.cpp:150] Setting up fc5_67
I0414 06:49:19.146180 27511 net.cpp:157] Top shape: 1024 67 (68608)
I0414 06:49:19.146183 27511 net.cpp:165] Memory required for data: 4106989568
I0414 06:49:19.146198 27511 layer_factory.hpp:77] Creating layer fc5_classes_fc5_67_0_split
I0414 06:49:19.146205 27511 net.cpp:100] Creating Layer fc5_classes_fc5_67_0_split
I0414 06:49:19.146209 27511 net.cpp:434] fc5_classes_fc5_67_0_split <- fc5_classes
I0414 06:49:19.146215 27511 net.cpp:408] fc5_classes_fc5_67_0_split -> fc5_classes_fc5_67_0_split_0
I0414 06:49:19.146226 27511 net.cpp:408] fc5_classes_fc5_67_0_split -> fc5_classes_fc5_67_0_split_1
I0414 06:49:19.146235 27511 net.cpp:408] fc5_classes_fc5_67_0_split -> fc5_classes_fc5_67_0_split_2
I0414 06:49:19.146291 27511 net.cpp:150] Setting up fc5_classes_fc5_67_0_split
I0414 06:49:19.146299 27511 net.cpp:157] Top shape: 1024 67 (68608)
I0414 06:49:19.146303 27511 net.cpp:157] Top shape: 1024 67 (68608)
I0414 06:49:19.146306 27511 net.cpp:157] Top shape: 1024 67 (68608)
I0414 06:49:19.146309 27511 net.cpp:165] Memory required for data: 4107812864
I0414 06:49:19.146312 27511 layer_factory.hpp:77] Creating layer softmax
I0414 06:49:19.146318 27511 net.cpp:100] Creating Layer softmax
I0414 06:49:19.146324 27511 net.cpp:434] softmax <- fc5_classes_fc5_67_0_split_0
I0414 06:49:19.146329 27511 net.cpp:408] softmax -> softmax
I0414 06:49:19.146605 27511 net.cpp:150] Setting up softmax
I0414 06:49:19.146617 27511 net.cpp:157] Top shape: 1024 67 (68608)
I0414 06:49:19.146621 27511 net.cpp:165] Memory required for data: 4108087296
I0414 06:49:19.146625 27511 layer_factory.hpp:77] Creating layer loss
I0414 06:49:19.146634 27511 net.cpp:100] Creating Layer loss
I0414 06:49:19.146641 27511 net.cpp:434] loss <- softmax
I0414 06:49:19.146644 27511 net.cpp:434] loss <- label_data_1_split_0
I0414 06:49:19.146651 27511 net.cpp:408] loss -> loss
…
