…
I0417 20:04:25.844048 18182 solver.cpp:93] Creating training net from train_net file: ./Prototxt/experiment_11/rtsd-r1/imajust/trial_1/train.prototxt
I0417 20:04:25.844808 18182 net.cpp:58] Initializing net from parameters: 
state {
  phase: TRAIN
  level: 0
  stage: ""
}
layer {
  name: "data"
  type: "Data"
  top: "data"
  top: "label"
  include {
    phase: TRAIN
  }
  transform_param {
    scale: 0.0039215689
    mirror: false
    crop_size: 48
    mean_value: 115
    mean_value: 108
    mean_value: 122
  }
  data_param {
    source: "../local_data/lmdb/rtsd-r1/imajust/train/lmdb"
    batch_size: 1024
    backend: LMDB
  }
}
layer {
  name: "conv1"
  type: "Convolution"
  bottom: "data"
  top: "conv1"
  convolution_param {
    num_output: 100
    pad: 0
    kernel_size: 7
    group: 1
    stride: 1
    weight_filler {
      type: "xavier"
    }
  }
}
layer {
  name: "conv1_prescale"
  type: "Scale"
  bottom: "conv1"
  top: "conv1"
  param {
    lr_mult: 0
    decay_mult: 0
  }
  scale_param {
    filler {
      value: 0.6666
    }
    bias_term: false
  }
}
layer {
  name: "conv1_sTanH"
  type: "TanH"
  bottom: "conv1"
  top: "conv1"
}
layer {
  name: "conv1_postscale"
  type: "Scale"
  bottom: "conv1"
  top: "conv1"
  param {
    lr_mult: 0
    decay_mult: 0
  }
  scale_param {
    filler {
      value: 1.7159
    }
    bias_term: false
  }
}
layer {
  name: "pool1"
  type: "Pooling"
  bottom: "conv1"
  top: "pool1"
  pooling_param {
    pool: MAX
    kernel_size: 2
    stride: 2
  }
}
layer {
  name: "conv2"
  type: "Convolution"
  bottom: "pool1"
  top: "conv2"
  convolution_param {
    num_output: 150
    pad: 0
    kernel_size: 4
    group: 1
    stride: 1
    weight_filler {
      type: "xavier"
    }
  }
}
layer {
  name: "conv2_prescale"
  type: "Scale"
  bottom: "conv2"
  top: "conv2"
  param {
    lr_mult: 0
    decay_mult: 0
  }
  scale_param {
    filler {
      value: 0.6666
    }
    bias_term: false
  }
}
layer {
  name: "conv2_sTanH"
  type: "TanH"
  bottom: "conv2"
  top: "conv2"
}
layer {
  name: "conv2_postscale"
  type: "Scale"
  bottom: "conv2"
  top: "conv2"
  param {
    lr_mult: 0
    decay_mult: 0
  }
  scale_param {
    filler {
      value: 1.7159
    }
    bias_term: false
  }
}
layer {
  name: "pool2"
  type: "Pooling"
  bottom: "conv2"
  top: "pool2"
  pooling_param {
    pool: MAX
    kernel_size: 2
    stride: 2
  }
}
layer {
  name: "conv3"
  type: "Convolution"
  bottom: "pool2"
  top: "conv3"
  convolution_param {
    num_output: 250
    pad: 0
    kernel_size: 4
    group: 1
    stride: 1
    weight_filler {
      type: "xavier"
    }
  }
}
layer {
  name: "conv3_prescale"
  type: "Scale"
  bottom: "conv3"
  top: "conv3"
  param {
    lr_mult: 0
    decay_mult: 0
  }
  scale_param {
    filler {
      value: 0.6666
    }
    bias_term: false
  }
}
layer {
  name: "conv3_sTanH"
  type: "TanH"
  bottom: "conv3"
  top: "conv3"
}
layer {
  name: "conv3_postscale"
  type: "Scale"
  bottom: "conv3"
  top: "conv3"
  param {
    lr_mult: 0
    decay_mult: 0
  }
  scale_param {
    filler {
      value: 1.7159
    }
    bias_term: false
  }
}
layer {
  name: "pool3"
  type: "Pooling"
  bottom: "conv3"
  top: "pool3"
  pooling_param {
    pool: MAX
    kernel_size: 2
    stride: 2
  }
}
layer {
  name: "fc4_300"
  type: "InnerProduct"
  bottom: "pool3"
  top: "fc4_300"
  inner_product_param {
    num_output: 300
    weight_filler {
      type: "xavier"
    }
  }
}
layer {
  name: "fc4_prescale"
  type: "Scale"
  bottom: "fc4_300"
  top: "fc4_300"
  param {
    lr_mult: 0
    decay_mult: 0
  }
  scale_param {
    filler {
      value: 0.6666
    }
    bias_term: false
  }
}
layer {
  name: "fc4_sTanH"
  type: "TanH"
  bottom: "fc4_300"
  top: "fc4_300"
}
layer {
  name: "fc4_postscale"
  type: "Scale"
  bottom: "fc4_300"
  top: "fc4_300"
  param {
    lr_mult: 0
    decay_mult: 0
  }
  scale_param {
    filler {
      value: 1.7159
    }
    bias_term: false
  }
}
layer {
  name: "fc5_67"
  type: "InnerProduct"
  bottom: "fc4_300"
  top: "fc5_classes"
  inner_product_param {
    num_output: 67
    weight_filler {
      type: "xavier"
    }
  }
}
layer {
  name: "softmax"
  type: "Softmax"
  bottom: "fc5_classes"
  top: "softmax"
}
layer {
  name: "loss"
  type: "MultinomialLogisticLoss"
  bottom: "softmax"
  bottom: "label"
  top: "loss"
}
layer {
  name: "accuracy_1"
  type: "Accuracy"
  bottom: "fc5_classes"
  bottom: "label"
  top: "accuracy_1"
  accuracy_param {
    top_k: 1
  }
}
layer {
  name: "accuracy_5"
  type: "Accuracy"
  bottom: "fc5_classes"
  bottom: "label"
  top: "accuracy_5"
  accuracy_param {
    top_k: 5
  }
}
layer {
  name: "silence"
  type: "Silence"
  bottom: "accuracy_1"
  bottom: "accuracy_5"
}
I0417 20:04:25.845031 18182 layer_factory.hpp:77] Creating layer data
I0417 20:04:25.846526 18182 net.cpp:100] Creating Layer data
I0417 20:04:25.846544 18182 net.cpp:408] data -> data
I0417 20:04:25.846575 18182 net.cpp:408] data -> label
I0417 20:04:25.945444 18428 db_lmdb.cpp:35] Opened lmdb ../local_data/lmdb/rtsd-r1/imajust/train/lmdb
I0417 20:04:25.969698 18182 data_layer.cpp:41] output data size: 1024,3,48,48
I0417 20:04:26.032829 18182 net.cpp:150] Setting up data
I0417 20:04:26.032857 18182 net.cpp:157] Top shape: 1024 3 48 48 (7077888)
I0417 20:04:26.032863 18182 net.cpp:157] Top shape: 1024 (1024)
I0417 20:04:26.032866 18182 net.cpp:165] Memory required for data: 28315648
I0417 20:04:26.032878 18182 layer_factory.hpp:77] Creating layer label_data_1_split
I0417 20:04:26.032891 18182 net.cpp:100] Creating Layer label_data_1_split
I0417 20:04:26.032897 18182 net.cpp:434] label_data_1_split <- label
I0417 20:04:26.032912 18182 net.cpp:408] label_data_1_split -> label_data_1_split_0
I0417 20:04:26.032925 18182 net.cpp:408] label_data_1_split -> label_data_1_split_1
I0417 20:04:26.032933 18182 net.cpp:408] label_data_1_split -> label_data_1_split_2
I0417 20:04:26.033048 18182 net.cpp:150] Setting up label_data_1_split
I0417 20:04:26.033058 18182 net.cpp:157] Top shape: 1024 (1024)
I0417 20:04:26.033062 18182 net.cpp:157] Top shape: 1024 (1024)
I0417 20:04:26.033066 18182 net.cpp:157] Top shape: 1024 (1024)
I0417 20:04:26.033068 18182 net.cpp:165] Memory required for data: 28327936
I0417 20:04:26.033072 18182 layer_factory.hpp:77] Creating layer conv1
I0417 20:04:26.033088 18182 net.cpp:100] Creating Layer conv1
I0417 20:04:26.033093 18182 net.cpp:434] conv1 <- data
I0417 20:04:26.033099 18182 net.cpp:408] conv1 -> conv1
I0417 20:04:26.122222 18444 blocking_queue.cpp:50] Waiting for data
I0417 20:04:26.443828 18182 net.cpp:150] Setting up conv1
I0417 20:04:26.443861 18182 net.cpp:157] Top shape: 1024 100 42 42 (180633600)
I0417 20:04:26.443866 18182 net.cpp:165] Memory required for data: 750862336
I0417 20:04:26.443907 18182 layer_factory.hpp:77] Creating layer conv1_prescale
I0417 20:04:26.443927 18182 net.cpp:100] Creating Layer conv1_prescale
I0417 20:04:26.443933 18182 net.cpp:434] conv1_prescale <- conv1
I0417 20:04:26.443941 18182 net.cpp:395] conv1_prescale -> conv1 (in-place)
I0417 20:04:26.444075 18182 net.cpp:150] Setting up conv1_prescale
I0417 20:04:26.444087 18182 net.cpp:157] Top shape: 1024 100 42 42 (180633600)
I0417 20:04:26.444090 18182 net.cpp:165] Memory required for data: 1473396736
I0417 20:04:26.444098 18182 layer_factory.hpp:77] Creating layer conv1_sTanH
I0417 20:04:26.444109 18182 net.cpp:100] Creating Layer conv1_sTanH
I0417 20:04:26.444114 18182 net.cpp:434] conv1_sTanH <- conv1
I0417 20:04:26.444119 18182 net.cpp:395] conv1_sTanH -> conv1 (in-place)
I0417 20:04:26.444396 18182 net.cpp:150] Setting up conv1_sTanH
I0417 20:04:26.444411 18182 net.cpp:157] Top shape: 1024 100 42 42 (180633600)
I0417 20:04:26.444416 18182 net.cpp:165] Memory required for data: 2195931136
I0417 20:04:26.444420 18182 layer_factory.hpp:77] Creating layer conv1_postscale
I0417 20:04:26.444428 18182 net.cpp:100] Creating Layer conv1_postscale
I0417 20:04:26.444434 18182 net.cpp:434] conv1_postscale <- conv1
I0417 20:04:26.444440 18182 net.cpp:395] conv1_postscale -> conv1 (in-place)
I0417 20:04:26.444558 18182 net.cpp:150] Setting up conv1_postscale
I0417 20:04:26.444568 18182 net.cpp:157] Top shape: 1024 100 42 42 (180633600)
I0417 20:04:26.444571 18182 net.cpp:165] Memory required for data: 2918465536
I0417 20:04:26.444577 18182 layer_factory.hpp:77] Creating layer pool1
I0417 20:04:26.444586 18182 net.cpp:100] Creating Layer pool1
I0417 20:04:26.444592 18182 net.cpp:434] pool1 <- conv1
I0417 20:04:26.444597 18182 net.cpp:408] pool1 -> pool1
I0417 20:04:26.444659 18182 net.cpp:150] Setting up pool1
I0417 20:04:26.444669 18182 net.cpp:157] Top shape: 1024 100 21 21 (45158400)
I0417 20:04:26.444674 18182 net.cpp:165] Memory required for data: 3099099136
I0417 20:04:26.444677 18182 layer_factory.hpp:77] Creating layer conv2
I0417 20:04:26.444689 18182 net.cpp:100] Creating Layer conv2
I0417 20:04:26.444694 18182 net.cpp:434] conv2 <- pool1
I0417 20:04:26.444700 18182 net.cpp:408] conv2 -> conv2
I0417 20:04:26.461279 18182 net.cpp:150] Setting up conv2
I0417 20:04:26.461302 18182 net.cpp:157] Top shape: 1024 150 18 18 (49766400)
I0417 20:04:26.461305 18182 net.cpp:165] Memory required for data: 3298164736
I0417 20:04:26.461319 18182 layer_factory.hpp:77] Creating layer conv2_prescale
I0417 20:04:26.461333 18182 net.cpp:100] Creating Layer conv2_prescale
I0417 20:04:26.461339 18182 net.cpp:434] conv2_prescale <- conv2
I0417 20:04:26.461346 18182 net.cpp:395] conv2_prescale -> conv2 (in-place)
I0417 20:04:26.461473 18182 net.cpp:150] Setting up conv2_prescale
I0417 20:04:26.461484 18182 net.cpp:157] Top shape: 1024 150 18 18 (49766400)
I0417 20:04:26.461488 18182 net.cpp:165] Memory required for data: 3497230336
I0417 20:04:26.461493 18182 layer_factory.hpp:77] Creating layer conv2_sTanH
I0417 20:04:26.461501 18182 net.cpp:100] Creating Layer conv2_sTanH
I0417 20:04:26.461508 18182 net.cpp:434] conv2_sTanH <- conv2
I0417 20:04:26.461513 18182 net.cpp:395] conv2_sTanH -> conv2 (in-place)
I0417 20:04:26.462760 18182 net.cpp:150] Setting up conv2_sTanH
I0417 20:04:26.462779 18182 net.cpp:157] Top shape: 1024 150 18 18 (49766400)
I0417 20:04:26.462783 18182 net.cpp:165] Memory required for data: 3696295936
I0417 20:04:26.462787 18182 layer_factory.hpp:77] Creating layer conv2_postscale
I0417 20:04:26.462796 18182 net.cpp:100] Creating Layer conv2_postscale
I0417 20:04:26.462801 18182 net.cpp:434] conv2_postscale <- conv2
I0417 20:04:26.462808 18182 net.cpp:395] conv2_postscale -> conv2 (in-place)
I0417 20:04:26.462924 18182 net.cpp:150] Setting up conv2_postscale
I0417 20:04:26.462934 18182 net.cpp:157] Top shape: 1024 150 18 18 (49766400)
I0417 20:04:26.462937 18182 net.cpp:165] Memory required for data: 3895361536
I0417 20:04:26.462944 18182 layer_factory.hpp:77] Creating layer pool2
I0417 20:04:26.462952 18182 net.cpp:100] Creating Layer pool2
I0417 20:04:26.462960 18182 net.cpp:434] pool2 <- conv2
I0417 20:04:26.462965 18182 net.cpp:408] pool2 -> pool2
I0417 20:04:26.463016 18182 net.cpp:150] Setting up pool2
I0417 20:04:26.463024 18182 net.cpp:157] Top shape: 1024 150 9 9 (12441600)
I0417 20:04:26.463029 18182 net.cpp:165] Memory required for data: 3945127936
I0417 20:04:26.463033 18182 layer_factory.hpp:77] Creating layer conv3
I0417 20:04:26.463043 18182 net.cpp:100] Creating Layer conv3
I0417 20:04:26.463048 18182 net.cpp:434] conv3 <- pool2
I0417 20:04:26.463054 18182 net.cpp:408] conv3 -> conv3
I0417 20:04:26.469943 18182 net.cpp:150] Setting up conv3
I0417 20:04:26.469964 18182 net.cpp:157] Top shape: 1024 250 6 6 (9216000)
I0417 20:04:26.469969 18182 net.cpp:165] Memory required for data: 3981991936
I0417 20:04:26.470000 18182 layer_factory.hpp:77] Creating layer conv3_prescale
I0417 20:04:26.470012 18182 net.cpp:100] Creating Layer conv3_prescale
I0417 20:04:26.470017 18182 net.cpp:434] conv3_prescale <- conv3
I0417 20:04:26.470024 18182 net.cpp:395] conv3_prescale -> conv3 (in-place)
I0417 20:04:26.470139 18182 net.cpp:150] Setting up conv3_prescale
I0417 20:04:26.470147 18182 net.cpp:157] Top shape: 1024 250 6 6 (9216000)
I0417 20:04:26.470151 18182 net.cpp:165] Memory required for data: 4018855936
I0417 20:04:26.470157 18182 layer_factory.hpp:77] Creating layer conv3_sTanH
I0417 20:04:26.470163 18182 net.cpp:100] Creating Layer conv3_sTanH
I0417 20:04:26.470166 18182 net.cpp:434] conv3_sTanH <- conv3
I0417 20:04:26.470172 18182 net.cpp:395] conv3_sTanH -> conv3 (in-place)
I0417 20:04:26.471230 18182 net.cpp:150] Setting up conv3_sTanH
I0417 20:04:26.471248 18182 net.cpp:157] Top shape: 1024 250 6 6 (9216000)
I0417 20:04:26.471252 18182 net.cpp:165] Memory required for data: 4055719936
I0417 20:04:26.471256 18182 layer_factory.hpp:77] Creating layer conv3_postscale
I0417 20:04:26.471266 18182 net.cpp:100] Creating Layer conv3_postscale
I0417 20:04:26.471271 18182 net.cpp:434] conv3_postscale <- conv3
I0417 20:04:26.471278 18182 net.cpp:395] conv3_postscale -> conv3 (in-place)
I0417 20:04:26.471398 18182 net.cpp:150] Setting up conv3_postscale
I0417 20:04:26.471408 18182 net.cpp:157] Top shape: 1024 250 6 6 (9216000)
I0417 20:04:26.471412 18182 net.cpp:165] Memory required for data: 4092583936
I0417 20:04:26.471418 18182 layer_factory.hpp:77] Creating layer pool3
I0417 20:04:26.471427 18182 net.cpp:100] Creating Layer pool3
I0417 20:04:26.471433 18182 net.cpp:434] pool3 <- conv3
I0417 20:04:26.471439 18182 net.cpp:408] pool3 -> pool3
I0417 20:04:26.471485 18182 net.cpp:150] Setting up pool3
I0417 20:04:26.471494 18182 net.cpp:157] Top shape: 1024 250 3 3 (2304000)
I0417 20:04:26.471498 18182 net.cpp:165] Memory required for data: 4101799936
I0417 20:04:26.471501 18182 layer_factory.hpp:77] Creating layer fc4_300
I0417 20:04:26.471508 18182 net.cpp:100] Creating Layer fc4_300
I0417 20:04:26.471513 18182 net.cpp:434] fc4_300 <- pool3
I0417 20:04:26.471518 18182 net.cpp:408] fc4_300 -> fc4_300
I0417 20:04:26.479627 18182 net.cpp:150] Setting up fc4_300
I0417 20:04:26.479646 18182 net.cpp:157] Top shape: 1024 300 (307200)
I0417 20:04:26.479651 18182 net.cpp:165] Memory required for data: 4103028736
I0417 20:04:26.479660 18182 layer_factory.hpp:77] Creating layer fc4_prescale
I0417 20:04:26.479670 18182 net.cpp:100] Creating Layer fc4_prescale
I0417 20:04:26.479676 18182 net.cpp:434] fc4_prescale <- fc4_300
I0417 20:04:26.479681 18182 net.cpp:395] fc4_prescale -> fc4_300 (in-place)
I0417 20:04:26.479789 18182 net.cpp:150] Setting up fc4_prescale
I0417 20:04:26.479799 18182 net.cpp:157] Top shape: 1024 300 (307200)
I0417 20:04:26.479802 18182 net.cpp:165] Memory required for data: 4104257536
I0417 20:04:26.479809 18182 layer_factory.hpp:77] Creating layer fc4_sTanH
I0417 20:04:26.479815 18182 net.cpp:100] Creating Layer fc4_sTanH
I0417 20:04:26.479820 18182 net.cpp:434] fc4_sTanH <- fc4_300
I0417 20:04:26.479825 18182 net.cpp:395] fc4_sTanH -> fc4_300 (in-place)
I0417 20:04:26.480068 18182 net.cpp:150] Setting up fc4_sTanH
I0417 20:04:26.480082 18182 net.cpp:157] Top shape: 1024 300 (307200)
I0417 20:04:26.480088 18182 net.cpp:165] Memory required for data: 4105486336
I0417 20:04:26.480093 18182 layer_factory.hpp:77] Creating layer fc4_postscale
I0417 20:04:26.480100 18182 net.cpp:100] Creating Layer fc4_postscale
I0417 20:04:26.480105 18182 net.cpp:434] fc4_postscale <- fc4_300
I0417 20:04:26.480111 18182 net.cpp:395] fc4_postscale -> fc4_300 (in-place)
I0417 20:04:26.480227 18182 net.cpp:150] Setting up fc4_postscale
I0417 20:04:26.480237 18182 net.cpp:157] Top shape: 1024 300 (307200)
I0417 20:04:26.480240 18182 net.cpp:165] Memory required for data: 4106715136
I0417 20:04:26.480247 18182 layer_factory.hpp:77] Creating layer fc5_67
I0417 20:04:26.480255 18182 net.cpp:100] Creating Layer fc5_67
I0417 20:04:26.480275 18182 net.cpp:434] fc5_67 <- fc4_300
I0417 20:04:26.480283 18182 net.cpp:408] fc5_67 -> fc5_classes
I0417 20:04:26.482072 18182 net.cpp:150] Setting up fc5_67
I0417 20:04:26.482089 18182 net.cpp:157] Top shape: 1024 67 (68608)
I0417 20:04:26.482095 18182 net.cpp:165] Memory required for data: 4106989568
I0417 20:04:26.482107 18182 layer_factory.hpp:77] Creating layer fc5_classes_fc5_67_0_split
I0417 20:04:26.482118 18182 net.cpp:100] Creating Layer fc5_classes_fc5_67_0_split
I0417 20:04:26.482125 18182 net.cpp:434] fc5_classes_fc5_67_0_split <- fc5_classes
I0417 20:04:26.482132 18182 net.cpp:408] fc5_classes_fc5_67_0_split -> fc5_classes_fc5_67_0_split_0
I0417 20:04:26.482142 18182 net.cpp:408] fc5_classes_fc5_67_0_split -> fc5_classes_fc5_67_0_split_1
I0417 20:04:26.482151 18182 net.cpp:408] fc5_classes_fc5_67_0_split -> fc5_classes_fc5_67_0_split_2
I0417 20:04:26.482221 18182 net.cpp:150] Setting up fc5_classes_fc5_67_0_split
I0417 20:04:26.482230 18182 net.cpp:157] Top shape: 1024 67 (68608)
I0417 20:04:26.482235 18182 net.cpp:157] Top shape: 1024 67 (68608)
I0417 20:04:26.482241 18182 net.cpp:157] Top shape: 1024 67 (68608)
I0417 20:04:26.482249 18182 net.cpp:165] Memory required for data: 4107812864
I0417 20:04:26.482254 18182 layer_factory.hpp:77] Creating layer softmax
I0417 20:04:26.482261 18182 net.cpp:100] Creating Layer softmax
I0417 20:04:26.482266 18182 net.cpp:434] softmax <- fc5_classes_fc5_67_0_split_0
I0417 20:04:26.482273 18182 net.cpp:408] softmax -> softmax
I0417 20:04:26.482606 18182 net.cpp:150] Setting up softmax
I0417 20:04:26.482620 18182 net.cpp:157] Top shape: 1024 67 (68608)
I0417 20:04:26.482625 18182 net.cpp:165] Memory required for data: 4108087296
I0417 20:04:26.482630 18182 layer_factory.hpp:77] Creating layer loss
I0417 20:04:26.482636 18182 net.cpp:100] Creating Layer loss
I0417 20:04:26.482641 18182 net.cpp:434] loss <- softmax
I0417 20:04:26.482646 18182 net.cpp:434] loss <- label_data_1_split_0
I0417 20:04:26.482652 18182 net.cpp:408] loss -> loss
…
