…
I0414 23:40:03.244719 22724 solver.cpp:93] Creating training net from train_net file: ./Prototxt/experiment_10/rtsd-r3/histeq/trial_5/train.prototxt
I0414 23:40:03.315933 22724 net.cpp:58] Initializing net from parameters: 
state {
  phase: TRAIN
  level: 0
  stage: ""
}
layer {
  name: "data"
  type: "Data"
  top: "data"
  top: "label"
  include {
    phase: TRAIN
  }
  transform_param {
    scale: 0.0039215689
    mirror: false
    crop_size: 48
    mean_value: 135
    mean_value: 128
    mean_value: 128
  }
  data_param {
    source: "../local_data/lmdb/rtsd-r3/histeq/train/lmdb"
    batch_size: 1024
    backend: LMDB
  }
}
layer {
  name: "conv1"
  type: "Convolution"
  bottom: "data"
  top: "conv1"
  convolution_param {
    num_output: 100
    pad: 0
    kernel_size: 7
    group: 1
    stride: 1
    weight_filler {
      type: "xavier"
    }
  }
}
layer {
  name: "conv1_relu"
  type: "ReLU"
  bottom: "conv1"
  top: "conv1"
}
layer {
  name: "pool1"
  type: "Pooling"
  bottom: "conv1"
  top: "pool1"
  pooling_param {
    pool: MAX
    kernel_size: 2
    stride: 2
  }
}
layer {
  name: "conv2"
  type: "Convolution"
  bottom: "pool1"
  top: "conv2"
  convolution_param {
    num_output: 150
    pad: 0
    kernel_size: 4
    group: 1
    stride: 1
    weight_filler {
      type: "xavier"
    }
  }
}
layer {
  name: "conv2_relu"
  type: "ReLU"
  bottom: "conv2"
  top: "conv2"
}
layer {
  name: "pool2"
  type: "Pooling"
  bottom: "conv2"
  top: "pool2"
  pooling_param {
    pool: MAX
    kernel_size: 2
    stride: 2
  }
}
layer {
  name: "conv3"
  type: "Convolution"
  bottom: "pool2"
  top: "conv3"
  convolution_param {
    num_output: 250
    pad: 0
    kernel_size: 4
    group: 1
    stride: 1
    weight_filler {
      type: "xavier"
    }
  }
}
layer {
  name: "conv3_relu"
  type: "ReLU"
  bottom: "conv3"
  top: "conv3"
}
layer {
  name: "pool3"
  type: "Pooling"
  bottom: "conv3"
  top: "pool3"
  pooling_param {
    pool: MAX
    kernel_size: 2
    stride: 2
  }
}
layer {
  name: "fc4_300"
  type: "InnerProduct"
  bottom: "pool3"
  top: "fc4_300"
  inner_product_param {
    num_output: 300
    weight_filler {
      type: "xavier"
    }
  }
}
layer {
  name: "fc4_relu"
  type: "ReLU"
  bottom: "fc4_300"
  top: "fc4_300"
}
layer {
  name: "fc5_106"
  type: "InnerProduct"
  bottom: "fc4_300"
  top: "fc5_classes"
  inner_product_param {
    num_output: 106
    weight_filler {
      type: "xavier"
    }
  }
}
layer {
  name: "softmax"
  type: "Softmax"
  bottom: "fc5_classes"
  top: "softmax"
}
layer {
  name: "loss"
  type: "MultinomialLogisticLoss"
  bottom: "softmax"
  bottom: "label"
  top: "loss"
}
layer {
  name: "accuracy_1"
  type: "Accuracy"
  bottom: "fc5_classes"
  bottom: "label"
  top: "accuracy_1"
  accuracy_param {
    top_k: 1
  }
}
layer {
  name: "accuracy_5"
  type: "Accuracy"
  bottom: "fc5_classes"
  bottom: "label"
  top: "accuracy_5"
  accuracy_param {
    top_k: 5
  }
}
layer {
  name: "silence"
  type: "Silence"
  bottom: "accuracy_1"
  bottom: "accuracy_5"
}
I0414 23:40:03.316220 22724 layer_factory.hpp:77] Creating layer data
I0414 23:40:03.317946 22724 net.cpp:100] Creating Layer data
I0414 23:40:03.317991 22724 net.cpp:408] data -> data
I0414 23:40:03.318037 22724 net.cpp:408] data -> label
I0414 23:40:03.319600 22845 db_lmdb.cpp:35] Opened lmdb ../local_data/lmdb/rtsd-r3/histeq/train/lmdb
I0414 23:40:03.347543 22724 data_layer.cpp:41] output data size: 1024,3,48,48
I0414 23:40:03.440505 22724 net.cpp:150] Setting up data
I0414 23:40:03.440596 22724 net.cpp:157] Top shape: 1024 3 48 48 (7077888)
I0414 23:40:03.440619 22724 net.cpp:157] Top shape: 1024 (1024)
I0414 23:40:03.440629 22724 net.cpp:165] Memory required for data: 28315648
I0414 23:40:03.440659 22724 layer_factory.hpp:77] Creating layer label_data_1_split
I0414 23:40:03.440692 22724 net.cpp:100] Creating Layer label_data_1_split
I0414 23:40:03.440711 22724 net.cpp:434] label_data_1_split <- label
I0414 23:40:03.440747 22724 net.cpp:408] label_data_1_split -> label_data_1_split_0
I0414 23:40:03.440779 22724 net.cpp:408] label_data_1_split -> label_data_1_split_1
I0414 23:40:03.440804 22724 net.cpp:408] label_data_1_split -> label_data_1_split_2
I0414 23:40:03.440922 22724 net.cpp:150] Setting up label_data_1_split
I0414 23:40:03.440937 22724 net.cpp:157] Top shape: 1024 (1024)
I0414 23:40:03.440945 22724 net.cpp:157] Top shape: 1024 (1024)
I0414 23:40:03.440956 22724 net.cpp:157] Top shape: 1024 (1024)
I0414 23:40:03.440966 22724 net.cpp:165] Memory required for data: 28327936
I0414 23:40:03.440979 22724 layer_factory.hpp:77] Creating layer conv1
I0414 23:40:03.441015 22724 net.cpp:100] Creating Layer conv1
I0414 23:40:03.441022 22724 net.cpp:434] conv1 <- data
I0414 23:40:03.441033 22724 net.cpp:408] conv1 -> conv1
I0414 23:40:03.896384 22724 net.cpp:150] Setting up conv1
I0414 23:40:03.896445 22724 net.cpp:157] Top shape: 1024 100 42 42 (180633600)
I0414 23:40:03.896468 22724 net.cpp:165] Memory required for data: 750862336
I0414 23:40:03.896520 22724 layer_factory.hpp:77] Creating layer conv1_relu
I0414 23:40:03.896549 22724 net.cpp:100] Creating Layer conv1_relu
I0414 23:40:03.896560 22724 net.cpp:434] conv1_relu <- conv1
I0414 23:40:03.896581 22724 net.cpp:395] conv1_relu -> conv1 (in-place)
I0414 23:40:03.896944 22724 net.cpp:150] Setting up conv1_relu
I0414 23:40:03.896973 22724 net.cpp:157] Top shape: 1024 100 42 42 (180633600)
I0414 23:40:03.896996 22724 net.cpp:165] Memory required for data: 1473396736
I0414 23:40:03.897011 22724 layer_factory.hpp:77] Creating layer pool1
I0414 23:40:03.897037 22724 net.cpp:100] Creating Layer pool1
I0414 23:40:03.897049 22724 net.cpp:434] pool1 <- conv1
I0414 23:40:03.897066 22724 net.cpp:408] pool1 -> pool1
I0414 23:40:03.897198 22724 net.cpp:150] Setting up pool1
I0414 23:40:03.897217 22724 net.cpp:157] Top shape: 1024 100 21 21 (45158400)
I0414 23:40:03.897228 22724 net.cpp:165] Memory required for data: 1654030336
I0414 23:40:03.897241 22724 layer_factory.hpp:77] Creating layer conv2
I0414 23:40:03.897267 22724 net.cpp:100] Creating Layer conv2
I0414 23:40:03.897277 22724 net.cpp:434] conv2 <- pool1
I0414 23:40:03.897296 22724 net.cpp:408] conv2 -> conv2
I0414 23:40:03.907021 22724 net.cpp:150] Setting up conv2
I0414 23:40:03.907049 22724 net.cpp:157] Top shape: 1024 150 18 18 (49766400)
I0414 23:40:03.907057 22724 net.cpp:165] Memory required for data: 1853095936
I0414 23:40:03.907083 22724 layer_factory.hpp:77] Creating layer conv2_relu
I0414 23:40:03.907104 22724 net.cpp:100] Creating Layer conv2_relu
I0414 23:40:03.907117 22724 net.cpp:434] conv2_relu <- conv2
I0414 23:40:03.907137 22724 net.cpp:395] conv2_relu -> conv2 (in-place)
I0414 23:40:03.908706 22724 net.cpp:150] Setting up conv2_relu
I0414 23:40:03.908733 22724 net.cpp:157] Top shape: 1024 150 18 18 (49766400)
I0414 23:40:03.908740 22724 net.cpp:165] Memory required for data: 2052161536
I0414 23:40:03.908748 22724 layer_factory.hpp:77] Creating layer pool2
I0414 23:40:03.908758 22724 net.cpp:100] Creating Layer pool2
I0414 23:40:03.908766 22724 net.cpp:434] pool2 <- conv2
I0414 23:40:03.908776 22724 net.cpp:408] pool2 -> pool2
I0414 23:40:03.908838 22724 net.cpp:150] Setting up pool2
I0414 23:40:03.908854 22724 net.cpp:157] Top shape: 1024 150 9 9 (12441600)
I0414 23:40:03.908864 22724 net.cpp:165] Memory required for data: 2101927936
I0414 23:40:03.908870 22724 layer_factory.hpp:77] Creating layer conv3
I0414 23:40:03.908896 22724 net.cpp:100] Creating Layer conv3
I0414 23:40:03.908907 22724 net.cpp:434] conv3 <- pool2
I0414 23:40:03.908929 22724 net.cpp:408] conv3 -> conv3
I0414 23:40:03.922899 22724 net.cpp:150] Setting up conv3
I0414 23:40:03.922932 22724 net.cpp:157] Top shape: 1024 250 6 6 (9216000)
I0414 23:40:03.922940 22724 net.cpp:165] Memory required for data: 2138791936
I0414 23:40:03.922974 22724 layer_factory.hpp:77] Creating layer conv3_relu
I0414 23:40:03.922996 22724 net.cpp:100] Creating Layer conv3_relu
I0414 23:40:03.923012 22724 net.cpp:434] conv3_relu <- conv3
I0414 23:40:03.923032 22724 net.cpp:395] conv3_relu -> conv3 (in-place)
I0414 23:40:03.924448 22724 net.cpp:150] Setting up conv3_relu
I0414 23:40:03.924490 22724 net.cpp:157] Top shape: 1024 250 6 6 (9216000)
I0414 23:40:03.924509 22724 net.cpp:165] Memory required for data: 2175655936
I0414 23:40:03.924526 22724 layer_factory.hpp:77] Creating layer pool3
I0414 23:40:03.924552 22724 net.cpp:100] Creating Layer pool3
I0414 23:40:03.924566 22724 net.cpp:434] pool3 <- conv3
I0414 23:40:03.924590 22724 net.cpp:408] pool3 -> pool3
I0414 23:40:03.924712 22724 net.cpp:150] Setting up pool3
I0414 23:40:03.924739 22724 net.cpp:157] Top shape: 1024 250 3 3 (2304000)
I0414 23:40:03.924751 22724 net.cpp:165] Memory required for data: 2184871936
I0414 23:40:03.924768 22724 layer_factory.hpp:77] Creating layer fc4_300
I0414 23:40:03.924789 22724 net.cpp:100] Creating Layer fc4_300
I0414 23:40:03.924801 22724 net.cpp:434] fc4_300 <- pool3
I0414 23:40:03.924823 22724 net.cpp:408] fc4_300 -> fc4_300
I0414 23:40:03.933928 22724 net.cpp:150] Setting up fc4_300
I0414 23:40:03.933960 22724 net.cpp:157] Top shape: 1024 300 (307200)
I0414 23:40:03.933990 22724 net.cpp:165] Memory required for data: 2186100736
I0414 23:40:03.934015 22724 layer_factory.hpp:77] Creating layer fc4_relu
I0414 23:40:03.934033 22724 net.cpp:100] Creating Layer fc4_relu
I0414 23:40:03.934046 22724 net.cpp:434] fc4_relu <- fc4_300
I0414 23:40:03.934067 22724 net.cpp:395] fc4_relu -> fc4_300 (in-place)
I0414 23:40:03.934321 22724 net.cpp:150] Setting up fc4_relu
I0414 23:40:03.934345 22724 net.cpp:157] Top shape: 1024 300 (307200)
I0414 23:40:03.934355 22724 net.cpp:165] Memory required for data: 2187329536
I0414 23:40:03.934365 22724 layer_factory.hpp:77] Creating layer fc5_106
I0414 23:40:03.934381 22724 net.cpp:100] Creating Layer fc5_106
I0414 23:40:03.934391 22724 net.cpp:434] fc5_106 <- fc4_300
I0414 23:40:03.934412 22724 net.cpp:408] fc5_106 -> fc5_classes
I0414 23:40:03.942106 22724 net.cpp:150] Setting up fc5_106
I0414 23:40:03.942137 22724 net.cpp:157] Top shape: 1024 106 (108544)
I0414 23:40:03.942152 22724 net.cpp:165] Memory required for data: 2187763712
I0414 23:40:03.942188 22724 layer_factory.hpp:77] Creating layer fc5_classes_fc5_106_0_split
I0414 23:40:03.942206 22724 net.cpp:100] Creating Layer fc5_classes_fc5_106_0_split
I0414 23:40:03.942217 22724 net.cpp:434] fc5_classes_fc5_106_0_split <- fc5_classes
I0414 23:40:03.942232 22724 net.cpp:408] fc5_classes_fc5_106_0_split -> fc5_classes_fc5_106_0_split_0
I0414 23:40:03.942255 22724 net.cpp:408] fc5_classes_fc5_106_0_split -> fc5_classes_fc5_106_0_split_1
I0414 23:40:03.942278 22724 net.cpp:408] fc5_classes_fc5_106_0_split -> fc5_classes_fc5_106_0_split_2
I0414 23:40:03.942397 22724 net.cpp:150] Setting up fc5_classes_fc5_106_0_split
I0414 23:40:03.942417 22724 net.cpp:157] Top shape: 1024 106 (108544)
I0414 23:40:03.942435 22724 net.cpp:157] Top shape: 1024 106 (108544)
I0414 23:40:03.942451 22724 net.cpp:157] Top shape: 1024 106 (108544)
I0414 23:40:03.942461 22724 net.cpp:165] Memory required for data: 2189066240
I0414 23:40:03.942476 22724 layer_factory.hpp:77] Creating layer softmax
I0414 23:40:03.942488 22724 net.cpp:100] Creating Layer softmax
I0414 23:40:03.942497 22724 net.cpp:434] softmax <- fc5_classes_fc5_106_0_split_0
I0414 23:40:03.942505 22724 net.cpp:408] softmax -> softmax
I0414 23:40:03.942832 22724 net.cpp:150] Setting up softmax
I0414 23:40:03.942853 22724 net.cpp:157] Top shape: 1024 106 (108544)
I0414 23:40:03.942864 22724 net.cpp:165] Memory required for data: 2189500416
I0414 23:40:03.942878 22724 layer_factory.hpp:77] Creating layer loss
I0414 23:40:03.942929 22724 net.cpp:100] Creating Layer loss
I0414 23:40:03.942944 22724 net.cpp:434] loss <- softmax
I0414 23:40:03.942960 22724 net.cpp:434] loss <- label_data_1_split_0
I0414 23:40:03.942977 22724 net.cpp:408] loss -> loss
…
