…
I0414 07:27:25.164299  5745 solver.cpp:93] Creating training net from train_net file: ./Prototxt/experiment_11/rtsd-r1/imajust/trial_5/train.prototxt
I0414 07:27:25.164881  5745 net.cpp:58] Initializing net from parameters: 
state {
  phase: TRAIN
  level: 0
  stage: ""
}
layer {
  name: "data"
  type: "Data"
  top: "data"
  top: "label"
  include {
    phase: TRAIN
  }
  transform_param {
    scale: 0.0039215689
    mirror: false
    crop_size: 48
    mean_value: 115
    mean_value: 108
    mean_value: 122
  }
  data_param {
    source: "../local_data/lmdb/rtsd-r1/imajust/train/lmdb"
    batch_size: 1024
    backend: LMDB
  }
}
layer {
  name: "conv1"
  type: "Convolution"
  bottom: "data"
  top: "conv1"
  convolution_param {
    num_output: 100
    pad: 0
    kernel_size: 7
    group: 1
    stride: 1
    weight_filler {
      type: "xavier"
    }
  }
}
layer {
  name: "conv1_prescale"
  type: "Scale"
  bottom: "conv1"
  top: "conv1"
  param {
    lr_mult: 0
    decay_mult: 0
  }
  scale_param {
    filler {
      value: 0.6666
    }
    bias_term: false
  }
}
layer {
  name: "conv1_sTanH"
  type: "TanH"
  bottom: "conv1"
  top: "conv1"
}
layer {
  name: "conv1_postscale"
  type: "Scale"
  bottom: "conv1"
  top: "conv1"
  param {
    lr_mult: 0
    decay_mult: 0
  }
  scale_param {
    filler {
      value: 1.7159
    }
    bias_term: false
  }
}
layer {
  name: "pool1"
  type: "Pooling"
  bottom: "conv1"
  top: "pool1"
  pooling_param {
    pool: MAX
    kernel_size: 2
    stride: 2
  }
}
layer {
  name: "conv2"
  type: "Convolution"
  bottom: "pool1"
  top: "conv2"
  convolution_param {
    num_output: 150
    pad: 0
    kernel_size: 4
    group: 1
    stride: 1
    weight_filler {
      type: "xavier"
    }
  }
}
layer {
  name: "conv2_prescale"
  type: "Scale"
  bottom: "conv2"
  top: "conv2"
  param {
    lr_mult: 0
    decay_mult: 0
  }
  scale_param {
    filler {
      value: 0.6666
    }
    bias_term: false
  }
}
layer {
  name: "conv2_sTanH"
  type: "TanH"
  bottom: "conv2"
  top: "conv2"
}
layer {
  name: "conv2_postscale"
  type: "Scale"
  bottom: "conv2"
  top: "conv2"
  param {
    lr_mult: 0
    decay_mult: 0
  }
  scale_param {
    filler {
      value: 1.7159
    }
    bias_term: false
  }
}
layer {
  name: "pool2"
  type: "Pooling"
  bottom: "conv2"
  top: "pool2"
  pooling_param {
    pool: MAX
    kernel_size: 2
    stride: 2
  }
}
layer {
  name: "conv3"
  type: "Convolution"
  bottom: "pool2"
  top: "conv3"
  convolution_param {
    num_output: 250
    pad: 0
    kernel_size: 4
    group: 1
    stride: 1
    weight_filler {
      type: "xavier"
    }
  }
}
layer {
  name: "conv3_prescale"
  type: "Scale"
  bottom: "conv3"
  top: "conv3"
  param {
    lr_mult: 0
    decay_mult: 0
  }
  scale_param {
    filler {
      value: 0.6666
    }
    bias_term: false
  }
}
layer {
  name: "conv3_sTanH"
  type: "TanH"
  bottom: "conv3"
  top: "conv3"
}
layer {
  name: "conv3_postscale"
  type: "Scale"
  bottom: "conv3"
  top: "conv3"
  param {
    lr_mult: 0
    decay_mult: 0
  }
  scale_param {
    filler {
      value: 1.7159
    }
    bias_term: false
  }
}
layer {
  name: "pool3"
  type: "Pooling"
  bottom: "conv3"
  top: "pool3"
  pooling_param {
    pool: MAX
    kernel_size: 2
    stride: 2
  }
}
layer {
  name: "fc4_300"
  type: "InnerProduct"
  bottom: "pool3"
  top: "fc4_300"
  inner_product_param {
    num_output: 300
    weight_filler {
      type: "xavier"
    }
  }
}
layer {
  name: "fc4_prescale"
  type: "Scale"
  bottom: "fc4_300"
  top: "fc4_300"
  param {
    lr_mult: 0
    decay_mult: 0
  }
  scale_param {
    filler {
      value: 0.6666
    }
    bias_term: false
  }
}
layer {
  name: "fc4_sTanH"
  type: "TanH"
  bottom: "fc4_300"
  top: "fc4_300"
}
layer {
  name: "fc4_postscale"
  type: "Scale"
  bottom: "fc4_300"
  top: "fc4_300"
  param {
    lr_mult: 0
    decay_mult: 0
  }
  scale_param {
    filler {
      value: 1.7159
    }
    bias_term: false
  }
}
layer {
  name: "fc5_67"
  type: "InnerProduct"
  bottom: "fc4_300"
  top: "fc5_classes"
  inner_product_param {
    num_output: 67
    weight_filler {
      type: "xavier"
    }
  }
}
layer {
  name: "softmax"
  type: "Softmax"
  bottom: "fc5_classes"
  top: "softmax"
}
layer {
  name: "loss"
  type: "MultinomialLogisticLoss"
  bottom: "softmax"
  bottom: "label"
  top: "loss"
}
layer {
  name: "accuracy_1"
  type: "Accuracy"
  bottom: "fc5_classes"
  bottom: "label"
  top: "accuracy_1"
  accuracy_param {
    top_k: 1
  }
}
layer {
  name: "accuracy_5"
  type: "Accuracy"
  bottom: "fc5_classes"
  bottom: "label"
  top: "accuracy_5"
  accuracy_param {
    top_k: 5
  }
}
layer {
  name: "silence"
  type: "Silence"
  bottom: "accuracy_1"
  bottom: "accuracy_5"
}
I0414 07:27:25.165076  5745 layer_factory.hpp:77] Creating layer data
I0414 07:27:25.166427  5745 net.cpp:100] Creating Layer data
I0414 07:27:25.166447  5745 net.cpp:408] data -> data
I0414 07:27:25.166476  5745 net.cpp:408] data -> label
I0414 07:27:25.167588  5848 db_lmdb.cpp:35] Opened lmdb ../local_data/lmdb/rtsd-r1/imajust/train/lmdb
I0414 07:27:25.191355  5745 data_layer.cpp:41] output data size: 1024,3,48,48
I0414 07:27:25.271499  5745 net.cpp:150] Setting up data
I0414 07:27:25.271531  5745 net.cpp:157] Top shape: 1024 3 48 48 (7077888)
I0414 07:27:25.271538  5745 net.cpp:157] Top shape: 1024 (1024)
I0414 07:27:25.271541  5745 net.cpp:165] Memory required for data: 28315648
I0414 07:27:25.271555  5745 layer_factory.hpp:77] Creating layer label_data_1_split
I0414 07:27:25.271571  5745 net.cpp:100] Creating Layer label_data_1_split
I0414 07:27:25.271579  5745 net.cpp:434] label_data_1_split <- label
I0414 07:27:25.271596  5745 net.cpp:408] label_data_1_split -> label_data_1_split_0
I0414 07:27:25.271611  5745 net.cpp:408] label_data_1_split -> label_data_1_split_1
I0414 07:27:25.271621  5745 net.cpp:408] label_data_1_split -> label_data_1_split_2
I0414 07:27:25.271708  5745 net.cpp:150] Setting up label_data_1_split
I0414 07:27:25.271718  5745 net.cpp:157] Top shape: 1024 (1024)
I0414 07:27:25.271725  5745 net.cpp:157] Top shape: 1024 (1024)
I0414 07:27:25.271733  5745 net.cpp:157] Top shape: 1024 (1024)
I0414 07:27:25.271736  5745 net.cpp:165] Memory required for data: 28327936
I0414 07:27:25.271740  5745 layer_factory.hpp:77] Creating layer conv1
I0414 07:27:25.271759  5745 net.cpp:100] Creating Layer conv1
I0414 07:27:25.271765  5745 net.cpp:434] conv1 <- data
I0414 07:27:25.271775  5745 net.cpp:408] conv1 -> conv1
I0414 07:27:25.738690  5745 net.cpp:150] Setting up conv1
I0414 07:27:25.738720  5745 net.cpp:157] Top shape: 1024 100 42 42 (180633600)
I0414 07:27:25.738725  5745 net.cpp:165] Memory required for data: 750862336
I0414 07:27:25.738749  5745 layer_factory.hpp:77] Creating layer conv1_prescale
I0414 07:27:25.738765  5745 net.cpp:100] Creating Layer conv1_prescale
I0414 07:27:25.738770  5745 net.cpp:434] conv1_prescale <- conv1
I0414 07:27:25.738776  5745 net.cpp:395] conv1_prescale -> conv1 (in-place)
I0414 07:27:25.738886  5745 net.cpp:150] Setting up conv1_prescale
I0414 07:27:25.738895  5745 net.cpp:157] Top shape: 1024 100 42 42 (180633600)
I0414 07:27:25.738898  5745 net.cpp:165] Memory required for data: 1473396736
I0414 07:27:25.738905  5745 layer_factory.hpp:77] Creating layer conv1_sTanH
I0414 07:27:25.738916  5745 net.cpp:100] Creating Layer conv1_sTanH
I0414 07:27:25.738922  5745 net.cpp:434] conv1_sTanH <- conv1
I0414 07:27:25.738926  5745 net.cpp:395] conv1_sTanH -> conv1 (in-place)
I0414 07:27:25.739120  5745 net.cpp:150] Setting up conv1_sTanH
I0414 07:27:25.739154  5745 net.cpp:157] Top shape: 1024 100 42 42 (180633600)
I0414 07:27:25.739158  5745 net.cpp:165] Memory required for data: 2195931136
I0414 07:27:25.739162  5745 layer_factory.hpp:77] Creating layer conv1_postscale
I0414 07:27:25.739171  5745 net.cpp:100] Creating Layer conv1_postscale
I0414 07:27:25.739176  5745 net.cpp:434] conv1_postscale <- conv1
I0414 07:27:25.739182  5745 net.cpp:395] conv1_postscale -> conv1 (in-place)
I0414 07:27:25.739279  5745 net.cpp:150] Setting up conv1_postscale
I0414 07:27:25.739287  5745 net.cpp:157] Top shape: 1024 100 42 42 (180633600)
I0414 07:27:25.739290  5745 net.cpp:165] Memory required for data: 2918465536
I0414 07:27:25.739295  5745 layer_factory.hpp:77] Creating layer pool1
I0414 07:27:25.739302  5745 net.cpp:100] Creating Layer pool1
I0414 07:27:25.739305  5745 net.cpp:434] pool1 <- conv1
I0414 07:27:25.739310  5745 net.cpp:408] pool1 -> pool1
I0414 07:27:25.739357  5745 net.cpp:150] Setting up pool1
I0414 07:27:25.739367  5745 net.cpp:157] Top shape: 1024 100 21 21 (45158400)
I0414 07:27:25.739369  5745 net.cpp:165] Memory required for data: 3099099136
I0414 07:27:25.739372  5745 layer_factory.hpp:77] Creating layer conv2
I0414 07:27:25.739382  5745 net.cpp:100] Creating Layer conv2
I0414 07:27:25.739387  5745 net.cpp:434] conv2 <- pool1
I0414 07:27:25.739392  5745 net.cpp:408] conv2 -> conv2
I0414 07:27:25.749263  5745 net.cpp:150] Setting up conv2
I0414 07:27:25.749282  5745 net.cpp:157] Top shape: 1024 150 18 18 (49766400)
I0414 07:27:25.749286  5745 net.cpp:165] Memory required for data: 3298164736
I0414 07:27:25.749297  5745 layer_factory.hpp:77] Creating layer conv2_prescale
I0414 07:27:25.749310  5745 net.cpp:100] Creating Layer conv2_prescale
I0414 07:27:25.749315  5745 net.cpp:434] conv2_prescale <- conv2
I0414 07:27:25.749320  5745 net.cpp:395] conv2_prescale -> conv2 (in-place)
I0414 07:27:25.749431  5745 net.cpp:150] Setting up conv2_prescale
I0414 07:27:25.749441  5745 net.cpp:157] Top shape: 1024 150 18 18 (49766400)
I0414 07:27:25.749444  5745 net.cpp:165] Memory required for data: 3497230336
I0414 07:27:25.749449  5745 layer_factory.hpp:77] Creating layer conv2_sTanH
I0414 07:27:25.749455  5745 net.cpp:100] Creating Layer conv2_sTanH
I0414 07:27:25.749459  5745 net.cpp:434] conv2_sTanH <- conv2
I0414 07:27:25.749462  5745 net.cpp:395] conv2_sTanH -> conv2 (in-place)
I0414 07:27:25.750975  5745 net.cpp:150] Setting up conv2_sTanH
I0414 07:27:25.750993  5745 net.cpp:157] Top shape: 1024 150 18 18 (49766400)
I0414 07:27:25.750996  5745 net.cpp:165] Memory required for data: 3696295936
I0414 07:27:25.750999  5745 layer_factory.hpp:77] Creating layer conv2_postscale
I0414 07:27:25.751008  5745 net.cpp:100] Creating Layer conv2_postscale
I0414 07:27:25.751010  5745 net.cpp:434] conv2_postscale <- conv2
I0414 07:27:25.751016  5745 net.cpp:395] conv2_postscale -> conv2 (in-place)
I0414 07:27:25.751111  5745 net.cpp:150] Setting up conv2_postscale
I0414 07:27:25.751119  5745 net.cpp:157] Top shape: 1024 150 18 18 (49766400)
I0414 07:27:25.751122  5745 net.cpp:165] Memory required for data: 3895361536
I0414 07:27:25.751127  5745 layer_factory.hpp:77] Creating layer pool2
I0414 07:27:25.751134  5745 net.cpp:100] Creating Layer pool2
I0414 07:27:25.751137  5745 net.cpp:434] pool2 <- conv2
I0414 07:27:25.751142  5745 net.cpp:408] pool2 -> pool2
I0414 07:27:25.751184  5745 net.cpp:150] Setting up pool2
I0414 07:27:25.751193  5745 net.cpp:157] Top shape: 1024 150 9 9 (12441600)
I0414 07:27:25.751195  5745 net.cpp:165] Memory required for data: 3945127936
I0414 07:27:25.751199  5745 layer_factory.hpp:77] Creating layer conv3
I0414 07:27:25.751207  5745 net.cpp:100] Creating Layer conv3
I0414 07:27:25.751210  5745 net.cpp:434] conv3 <- pool2
I0414 07:27:25.751215  5745 net.cpp:408] conv3 -> conv3
I0414 07:27:25.764374  5745 net.cpp:150] Setting up conv3
I0414 07:27:25.764395  5745 net.cpp:157] Top shape: 1024 250 6 6 (9216000)
I0414 07:27:25.764400  5745 net.cpp:165] Memory required for data: 3981991936
I0414 07:27:25.764410  5745 layer_factory.hpp:77] Creating layer conv3_prescale
I0414 07:27:25.764436  5745 net.cpp:100] Creating Layer conv3_prescale
I0414 07:27:25.764443  5745 net.cpp:434] conv3_prescale <- conv3
I0414 07:27:25.764448  5745 net.cpp:395] conv3_prescale -> conv3 (in-place)
I0414 07:27:25.764541  5745 net.cpp:150] Setting up conv3_prescale
I0414 07:27:25.764551  5745 net.cpp:157] Top shape: 1024 250 6 6 (9216000)
I0414 07:27:25.764554  5745 net.cpp:165] Memory required for data: 4018855936
I0414 07:27:25.764559  5745 layer_factory.hpp:77] Creating layer conv3_sTanH
I0414 07:27:25.764564  5745 net.cpp:100] Creating Layer conv3_sTanH
I0414 07:27:25.764569  5745 net.cpp:434] conv3_sTanH <- conv3
I0414 07:27:25.764572  5745 net.cpp:395] conv3_sTanH -> conv3 (in-place)
I0414 07:27:25.769403  5745 net.cpp:150] Setting up conv3_sTanH
I0414 07:27:25.769423  5745 net.cpp:157] Top shape: 1024 250 6 6 (9216000)
I0414 07:27:25.769426  5745 net.cpp:165] Memory required for data: 4055719936
I0414 07:27:25.769430  5745 layer_factory.hpp:77] Creating layer conv3_postscale
I0414 07:27:25.769439  5745 net.cpp:100] Creating Layer conv3_postscale
I0414 07:27:25.769443  5745 net.cpp:434] conv3_postscale <- conv3
I0414 07:27:25.769448  5745 net.cpp:395] conv3_postscale -> conv3 (in-place)
I0414 07:27:25.769556  5745 net.cpp:150] Setting up conv3_postscale
I0414 07:27:25.769567  5745 net.cpp:157] Top shape: 1024 250 6 6 (9216000)
I0414 07:27:25.769569  5745 net.cpp:165] Memory required for data: 4092583936
I0414 07:27:25.769574  5745 layer_factory.hpp:77] Creating layer pool3
I0414 07:27:25.769585  5745 net.cpp:100] Creating Layer pool3
I0414 07:27:25.769590  5745 net.cpp:434] pool3 <- conv3
I0414 07:27:25.769596  5745 net.cpp:408] pool3 -> pool3
I0414 07:27:25.769639  5745 net.cpp:150] Setting up pool3
I0414 07:27:25.769646  5745 net.cpp:157] Top shape: 1024 250 3 3 (2304000)
I0414 07:27:25.769649  5745 net.cpp:165] Memory required for data: 4101799936
I0414 07:27:25.769654  5745 layer_factory.hpp:77] Creating layer fc4_300
I0414 07:27:25.769666  5745 net.cpp:100] Creating Layer fc4_300
I0414 07:27:25.769671  5745 net.cpp:434] fc4_300 <- pool3
I0414 07:27:25.769676  5745 net.cpp:408] fc4_300 -> fc4_300
I0414 07:27:25.779701  5745 net.cpp:150] Setting up fc4_300
I0414 07:27:25.779724  5745 net.cpp:157] Top shape: 1024 300 (307200)
I0414 07:27:25.779728  5745 net.cpp:165] Memory required for data: 4103028736
I0414 07:27:25.779736  5745 layer_factory.hpp:77] Creating layer fc4_prescale
I0414 07:27:25.779745  5745 net.cpp:100] Creating Layer fc4_prescale
I0414 07:27:25.779750  5745 net.cpp:434] fc4_prescale <- fc4_300
I0414 07:27:25.779758  5745 net.cpp:395] fc4_prescale -> fc4_300 (in-place)
I0414 07:27:25.779855  5745 net.cpp:150] Setting up fc4_prescale
I0414 07:27:25.779863  5745 net.cpp:157] Top shape: 1024 300 (307200)
I0414 07:27:25.779867  5745 net.cpp:165] Memory required for data: 4104257536
I0414 07:27:25.779872  5745 layer_factory.hpp:77] Creating layer fc4_sTanH
I0414 07:27:25.779884  5745 net.cpp:100] Creating Layer fc4_sTanH
I0414 07:27:25.779888  5745 net.cpp:434] fc4_sTanH <- fc4_300
I0414 07:27:25.779893  5745 net.cpp:395] fc4_sTanH -> fc4_300 (in-place)
I0414 07:27:25.780104  5745 net.cpp:150] Setting up fc4_sTanH
I0414 07:27:25.780117  5745 net.cpp:157] Top shape: 1024 300 (307200)
I0414 07:27:25.780120  5745 net.cpp:165] Memory required for data: 4105486336
I0414 07:27:25.780124  5745 layer_factory.hpp:77] Creating layer fc4_postscale
I0414 07:27:25.780131  5745 net.cpp:100] Creating Layer fc4_postscale
I0414 07:27:25.780134  5745 net.cpp:434] fc4_postscale <- fc4_300
I0414 07:27:25.780143  5745 net.cpp:395] fc4_postscale -> fc4_300 (in-place)
I0414 07:27:25.780246  5745 net.cpp:150] Setting up fc4_postscale
I0414 07:27:25.780253  5745 net.cpp:157] Top shape: 1024 300 (307200)
I0414 07:27:25.780256  5745 net.cpp:165] Memory required for data: 4106715136
I0414 07:27:25.780261  5745 layer_factory.hpp:77] Creating layer fc5_67
I0414 07:27:25.780268  5745 net.cpp:100] Creating Layer fc5_67
I0414 07:27:25.780273  5745 net.cpp:434] fc5_67 <- fc4_300
I0414 07:27:25.780279  5745 net.cpp:408] fc5_67 -> fc5_classes
I0414 07:27:25.785547  5745 net.cpp:150] Setting up fc5_67
I0414 07:27:25.785564  5745 net.cpp:157] Top shape: 1024 67 (68608)
I0414 07:27:25.785568  5745 net.cpp:165] Memory required for data: 4106989568
I0414 07:27:25.785579  5745 layer_factory.hpp:77] Creating layer fc5_classes_fc5_67_0_split
I0414 07:27:25.785590  5745 net.cpp:100] Creating Layer fc5_classes_fc5_67_0_split
I0414 07:27:25.785594  5745 net.cpp:434] fc5_classes_fc5_67_0_split <- fc5_classes
I0414 07:27:25.785599  5745 net.cpp:408] fc5_classes_fc5_67_0_split -> fc5_classes_fc5_67_0_split_0
I0414 07:27:25.785607  5745 net.cpp:408] fc5_classes_fc5_67_0_split -> fc5_classes_fc5_67_0_split_1
I0414 07:27:25.785614  5745 net.cpp:408] fc5_classes_fc5_67_0_split -> fc5_classes_fc5_67_0_split_2
I0414 07:27:25.785667  5745 net.cpp:150] Setting up fc5_classes_fc5_67_0_split
I0414 07:27:25.785676  5745 net.cpp:157] Top shape: 1024 67 (68608)
I0414 07:27:25.785679  5745 net.cpp:157] Top shape: 1024 67 (68608)
I0414 07:27:25.785682  5745 net.cpp:157] Top shape: 1024 67 (68608)
I0414 07:27:25.785686  5745 net.cpp:165] Memory required for data: 4107812864
I0414 07:27:25.785688  5745 layer_factory.hpp:77] Creating layer softmax
I0414 07:27:25.785698  5745 net.cpp:100] Creating Layer softmax
I0414 07:27:25.785703  5745 net.cpp:434] softmax <- fc5_classes_fc5_67_0_split_0
I0414 07:27:25.785708  5745 net.cpp:408] softmax -> softmax
I0414 07:27:25.785974  5745 net.cpp:150] Setting up softmax
I0414 07:27:25.785986  5745 net.cpp:157] Top shape: 1024 67 (68608)
I0414 07:27:25.785989  5745 net.cpp:165] Memory required for data: 4108087296
I0414 07:27:25.785993  5745 layer_factory.hpp:77] Creating layer loss
I0414 07:27:25.786001  5745 net.cpp:100] Creating Layer loss
I0414 07:27:25.786005  5745 net.cpp:434] loss <- softmax
I0414 07:27:25.786010  5745 net.cpp:434] loss <- label_data_1_split_0
I0414 07:27:25.786015  5745 net.cpp:408] loss -> loss
…
