…
I0417 20:49:28.451071 19609 solver.cpp:93] Creating training net from train_net file: ./Prototxt/experiment_11/rtsd-r1/imajust/trial_5/train.prototxt
I0417 20:49:28.451814 19609 net.cpp:58] Initializing net from parameters: 
state {
  phase: TRAIN
  level: 0
  stage: ""
}
layer {
  name: "data"
  type: "Data"
  top: "data"
  top: "label"
  include {
    phase: TRAIN
  }
  transform_param {
    scale: 0.0039215689
    mirror: false
    crop_size: 48
    mean_value: 115
    mean_value: 108
    mean_value: 122
  }
  data_param {
    source: "../local_data/lmdb/rtsd-r1/imajust/train/lmdb"
    batch_size: 1024
    backend: LMDB
  }
}
layer {
  name: "conv1"
  type: "Convolution"
  bottom: "data"
  top: "conv1"
  convolution_param {
    num_output: 100
    pad: 0
    kernel_size: 7
    group: 1
    stride: 1
    weight_filler {
      type: "xavier"
    }
  }
}
layer {
  name: "conv1_prescale"
  type: "Scale"
  bottom: "conv1"
  top: "conv1"
  param {
    lr_mult: 0
    decay_mult: 0
  }
  scale_param {
    filler {
      value: 0.6666
    }
    bias_term: false
  }
}
layer {
  name: "conv1_sTanH"
  type: "TanH"
  bottom: "conv1"
  top: "conv1"
}
layer {
  name: "conv1_postscale"
  type: "Scale"
  bottom: "conv1"
  top: "conv1"
  param {
    lr_mult: 0
    decay_mult: 0
  }
  scale_param {
    filler {
      value: 1.7159
    }
    bias_term: false
  }
}
layer {
  name: "pool1"
  type: "Pooling"
  bottom: "conv1"
  top: "pool1"
  pooling_param {
    pool: MAX
    kernel_size: 2
    stride: 2
  }
}
layer {
  name: "conv2"
  type: "Convolution"
  bottom: "pool1"
  top: "conv2"
  convolution_param {
    num_output: 150
    pad: 0
    kernel_size: 4
    group: 1
    stride: 1
    weight_filler {
      type: "xavier"
    }
  }
}
layer {
  name: "conv2_prescale"
  type: "Scale"
  bottom: "conv2"
  top: "conv2"
  param {
    lr_mult: 0
    decay_mult: 0
  }
  scale_param {
    filler {
      value: 0.6666
    }
    bias_term: false
  }
}
layer {
  name: "conv2_sTanH"
  type: "TanH"
  bottom: "conv2"
  top: "conv2"
}
layer {
  name: "conv2_postscale"
  type: "Scale"
  bottom: "conv2"
  top: "conv2"
  param {
    lr_mult: 0
    decay_mult: 0
  }
  scale_param {
    filler {
      value: 1.7159
    }
    bias_term: false
  }
}
layer {
  name: "pool2"
  type: "Pooling"
  bottom: "conv2"
  top: "pool2"
  pooling_param {
    pool: MAX
    kernel_size: 2
    stride: 2
  }
}
layer {
  name: "conv3"
  type: "Convolution"
  bottom: "pool2"
  top: "conv3"
  convolution_param {
    num_output: 250
    pad: 0
    kernel_size: 4
    group: 1
    stride: 1
    weight_filler {
      type: "xavier"
    }
  }
}
layer {
  name: "conv3_prescale"
  type: "Scale"
  bottom: "conv3"
  top: "conv3"
  param {
    lr_mult: 0
    decay_mult: 0
  }
  scale_param {
    filler {
      value: 0.6666
    }
    bias_term: false
  }
}
layer {
  name: "conv3_sTanH"
  type: "TanH"
  bottom: "conv3"
  top: "conv3"
}
layer {
  name: "conv3_postscale"
  type: "Scale"
  bottom: "conv3"
  top: "conv3"
  param {
    lr_mult: 0
    decay_mult: 0
  }
  scale_param {
    filler {
      value: 1.7159
    }
    bias_term: false
  }
}
layer {
  name: "pool3"
  type: "Pooling"
  bottom: "conv3"
  top: "pool3"
  pooling_param {
    pool: MAX
    kernel_size: 2
    stride: 2
  }
}
layer {
  name: "fc4_300"
  type: "InnerProduct"
  bottom: "pool3"
  top: "fc4_300"
  inner_product_param {
    num_output: 300
    weight_filler {
      type: "xavier"
    }
  }
}
layer {
  name: "fc4_prescale"
  type: "Scale"
  bottom: "fc4_300"
  top: "fc4_300"
  param {
    lr_mult: 0
    decay_mult: 0
  }
  scale_param {
    filler {
      value: 0.6666
    }
    bias_term: false
  }
}
layer {
  name: "fc4_sTanH"
  type: "TanH"
  bottom: "fc4_300"
  top: "fc4_300"
}
layer {
  name: "fc4_postscale"
  type: "Scale"
  bottom: "fc4_300"
  top: "fc4_300"
  param {
    lr_mult: 0
    decay_mult: 0
  }
  scale_param {
    filler {
      value: 1.7159
    }
    bias_term: false
  }
}
layer {
  name: "fc5_67"
  type: "InnerProduct"
  bottom: "fc4_300"
  top: "fc5_classes"
  inner_product_param {
    num_output: 67
    weight_filler {
      type: "xavier"
    }
  }
}
layer {
  name: "softmax"
  type: "Softmax"
  bottom: "fc5_classes"
  top: "softmax"
}
layer {
  name: "loss"
  type: "MultinomialLogisticLoss"
  bottom: "softmax"
  bottom: "label"
  top: "loss"
}
layer {
  name: "accuracy_1"
  type: "Accuracy"
  bottom: "fc5_classes"
  bottom: "label"
  top: "accuracy_1"
  accuracy_param {
    top_k: 1
  }
}
layer {
  name: "accuracy_5"
  type: "Accuracy"
  bottom: "fc5_classes"
  bottom: "label"
  top: "accuracy_5"
  accuracy_param {
    top_k: 5
  }
}
layer {
  name: "silence"
  type: "Silence"
  bottom: "accuracy_1"
  bottom: "accuracy_5"
}
I0417 20:49:28.452064 19609 layer_factory.hpp:77] Creating layer data
I0417 20:49:28.453711 19609 net.cpp:100] Creating Layer data
I0417 20:49:28.453732 19609 net.cpp:408] data -> data
I0417 20:49:28.453760 19609 net.cpp:408] data -> label
I0417 20:49:28.470571 19785 db_lmdb.cpp:35] Opened lmdb ../local_data/lmdb/rtsd-r1/imajust/train/lmdb
I0417 20:49:28.493059 19609 data_layer.cpp:41] output data size: 1024,3,48,48
I0417 20:49:28.557852 19609 net.cpp:150] Setting up data
I0417 20:49:28.557885 19609 net.cpp:157] Top shape: 1024 3 48 48 (7077888)
I0417 20:49:28.557893 19609 net.cpp:157] Top shape: 1024 (1024)
I0417 20:49:28.557898 19609 net.cpp:165] Memory required for data: 28315648
I0417 20:49:28.557914 19609 layer_factory.hpp:77] Creating layer label_data_1_split
I0417 20:49:28.557932 19609 net.cpp:100] Creating Layer label_data_1_split
I0417 20:49:28.557943 19609 net.cpp:434] label_data_1_split <- label
I0417 20:49:28.557965 19609 net.cpp:408] label_data_1_split -> label_data_1_split_0
I0417 20:49:28.557983 19609 net.cpp:408] label_data_1_split -> label_data_1_split_1
I0417 20:49:28.557996 19609 net.cpp:408] label_data_1_split -> label_data_1_split_2
I0417 20:49:28.558099 19609 net.cpp:150] Setting up label_data_1_split
I0417 20:49:28.558111 19609 net.cpp:157] Top shape: 1024 (1024)
I0417 20:49:28.558118 19609 net.cpp:157] Top shape: 1024 (1024)
I0417 20:49:28.558125 19609 net.cpp:157] Top shape: 1024 (1024)
I0417 20:49:28.558130 19609 net.cpp:165] Memory required for data: 28327936
I0417 20:49:28.558135 19609 layer_factory.hpp:77] Creating layer conv1
I0417 20:49:28.558157 19609 net.cpp:100] Creating Layer conv1
I0417 20:49:28.558166 19609 net.cpp:434] conv1 <- data
I0417 20:49:28.558174 19609 net.cpp:408] conv1 -> conv1
I0417 20:49:29.088423 19609 net.cpp:150] Setting up conv1
I0417 20:49:29.088461 19609 net.cpp:157] Top shape: 1024 100 42 42 (180633600)
I0417 20:49:29.088469 19609 net.cpp:165] Memory required for data: 750862336
I0417 20:49:29.088495 19609 layer_factory.hpp:77] Creating layer conv1_prescale
I0417 20:49:29.088510 19609 net.cpp:100] Creating Layer conv1_prescale
I0417 20:49:29.088524 19609 net.cpp:434] conv1_prescale <- conv1
I0417 20:49:29.088534 19609 net.cpp:395] conv1_prescale -> conv1 (in-place)
I0417 20:49:29.088704 19609 net.cpp:150] Setting up conv1_prescale
I0417 20:49:29.088721 19609 net.cpp:157] Top shape: 1024 100 42 42 (180633600)
I0417 20:49:29.088726 19609 net.cpp:165] Memory required for data: 1473396736
I0417 20:49:29.088735 19609 layer_factory.hpp:77] Creating layer conv1_sTanH
I0417 20:49:29.088747 19609 net.cpp:100] Creating Layer conv1_sTanH
I0417 20:49:29.088757 19609 net.cpp:434] conv1_sTanH <- conv1
I0417 20:49:29.088765 19609 net.cpp:395] conv1_sTanH -> conv1 (in-place)
I0417 20:49:29.089047 19609 net.cpp:150] Setting up conv1_sTanH
I0417 20:49:29.089097 19609 net.cpp:157] Top shape: 1024 100 42 42 (180633600)
I0417 20:49:29.089104 19609 net.cpp:165] Memory required for data: 2195931136
I0417 20:49:29.089115 19609 layer_factory.hpp:77] Creating layer conv1_postscale
I0417 20:49:29.089130 19609 net.cpp:100] Creating Layer conv1_postscale
I0417 20:49:29.089141 19609 net.cpp:434] conv1_postscale <- conv1
I0417 20:49:29.089151 19609 net.cpp:395] conv1_postscale -> conv1 (in-place)
I0417 20:49:29.089292 19609 net.cpp:150] Setting up conv1_postscale
I0417 20:49:29.089310 19609 net.cpp:157] Top shape: 1024 100 42 42 (180633600)
I0417 20:49:29.089318 19609 net.cpp:165] Memory required for data: 2918465536
I0417 20:49:29.089324 19609 layer_factory.hpp:77] Creating layer pool1
I0417 20:49:29.089332 19609 net.cpp:100] Creating Layer pool1
I0417 20:49:29.089339 19609 net.cpp:434] pool1 <- conv1
I0417 20:49:29.089344 19609 net.cpp:408] pool1 -> pool1
I0417 20:49:29.089411 19609 net.cpp:150] Setting up pool1
I0417 20:49:29.089426 19609 net.cpp:157] Top shape: 1024 100 21 21 (45158400)
I0417 20:49:29.089433 19609 net.cpp:165] Memory required for data: 3099099136
I0417 20:49:29.089439 19609 layer_factory.hpp:77] Creating layer conv2
I0417 20:49:29.089454 19609 net.cpp:100] Creating Layer conv2
I0417 20:49:29.089464 19609 net.cpp:434] conv2 <- pool1
I0417 20:49:29.089471 19609 net.cpp:408] conv2 -> conv2
I0417 20:49:29.097558 19609 net.cpp:150] Setting up conv2
I0417 20:49:29.097582 19609 net.cpp:157] Top shape: 1024 150 18 18 (49766400)
I0417 20:49:29.097592 19609 net.cpp:165] Memory required for data: 3298164736
I0417 20:49:29.097610 19609 layer_factory.hpp:77] Creating layer conv2_prescale
I0417 20:49:29.097628 19609 net.cpp:100] Creating Layer conv2_prescale
I0417 20:49:29.097637 19609 net.cpp:434] conv2_prescale <- conv2
I0417 20:49:29.097646 19609 net.cpp:395] conv2_prescale -> conv2 (in-place)
I0417 20:49:29.097815 19609 net.cpp:150] Setting up conv2_prescale
I0417 20:49:29.097831 19609 net.cpp:157] Top shape: 1024 150 18 18 (49766400)
I0417 20:49:29.097838 19609 net.cpp:165] Memory required for data: 3497230336
I0417 20:49:29.097847 19609 layer_factory.hpp:77] Creating layer conv2_sTanH
I0417 20:49:29.097859 19609 net.cpp:100] Creating Layer conv2_sTanH
I0417 20:49:29.097867 19609 net.cpp:434] conv2_sTanH <- conv2
I0417 20:49:29.097874 19609 net.cpp:395] conv2_sTanH -> conv2 (in-place)
I0417 20:49:29.099383 19609 net.cpp:150] Setting up conv2_sTanH
I0417 20:49:29.099406 19609 net.cpp:157] Top shape: 1024 150 18 18 (49766400)
I0417 20:49:29.099416 19609 net.cpp:165] Memory required for data: 3696295936
I0417 20:49:29.099422 19609 layer_factory.hpp:77] Creating layer conv2_postscale
I0417 20:49:29.099436 19609 net.cpp:100] Creating Layer conv2_postscale
I0417 20:49:29.099444 19609 net.cpp:434] conv2_postscale <- conv2
I0417 20:49:29.099455 19609 net.cpp:395] conv2_postscale -> conv2 (in-place)
I0417 20:49:29.099611 19609 net.cpp:150] Setting up conv2_postscale
I0417 20:49:29.099627 19609 net.cpp:157] Top shape: 1024 150 18 18 (49766400)
I0417 20:49:29.099635 19609 net.cpp:165] Memory required for data: 3895361536
I0417 20:49:29.099643 19609 layer_factory.hpp:77] Creating layer pool2
I0417 20:49:29.099650 19609 net.cpp:100] Creating Layer pool2
I0417 20:49:29.099656 19609 net.cpp:434] pool2 <- conv2
I0417 20:49:29.099663 19609 net.cpp:408] pool2 -> pool2
I0417 20:49:29.099714 19609 net.cpp:150] Setting up pool2
I0417 20:49:29.099723 19609 net.cpp:157] Top shape: 1024 150 9 9 (12441600)
I0417 20:49:29.099726 19609 net.cpp:165] Memory required for data: 3945127936
I0417 20:49:29.099730 19609 layer_factory.hpp:77] Creating layer conv3
I0417 20:49:29.099740 19609 net.cpp:100] Creating Layer conv3
I0417 20:49:29.099745 19609 net.cpp:434] conv3 <- pool2
I0417 20:49:29.099751 19609 net.cpp:408] conv3 -> conv3
I0417 20:49:29.107877 19609 net.cpp:150] Setting up conv3
I0417 20:49:29.107911 19609 net.cpp:157] Top shape: 1024 250 6 6 (9216000)
I0417 20:49:29.107921 19609 net.cpp:165] Memory required for data: 3981991936
I0417 20:49:29.107942 19609 layer_factory.hpp:77] Creating layer conv3_prescale
I0417 20:49:29.107977 19609 net.cpp:100] Creating Layer conv3_prescale
I0417 20:49:29.107986 19609 net.cpp:434] conv3_prescale <- conv3
I0417 20:49:29.107996 19609 net.cpp:395] conv3_prescale -> conv3 (in-place)
I0417 20:49:29.108153 19609 net.cpp:150] Setting up conv3_prescale
I0417 20:49:29.108172 19609 net.cpp:157] Top shape: 1024 250 6 6 (9216000)
I0417 20:49:29.108180 19609 net.cpp:165] Memory required for data: 4018855936
I0417 20:49:29.108192 19609 layer_factory.hpp:77] Creating layer conv3_sTanH
I0417 20:49:29.108204 19609 net.cpp:100] Creating Layer conv3_sTanH
I0417 20:49:29.108211 19609 net.cpp:434] conv3_sTanH <- conv3
I0417 20:49:29.108222 19609 net.cpp:395] conv3_sTanH -> conv3 (in-place)
I0417 20:49:29.114286 19609 net.cpp:150] Setting up conv3_sTanH
I0417 20:49:29.114306 19609 net.cpp:157] Top shape: 1024 250 6 6 (9216000)
I0417 20:49:29.114311 19609 net.cpp:165] Memory required for data: 4055719936
I0417 20:49:29.114315 19609 layer_factory.hpp:77] Creating layer conv3_postscale
I0417 20:49:29.114325 19609 net.cpp:100] Creating Layer conv3_postscale
I0417 20:49:29.114331 19609 net.cpp:434] conv3_postscale <- conv3
I0417 20:49:29.114336 19609 net.cpp:395] conv3_postscale -> conv3 (in-place)
I0417 20:49:29.114472 19609 net.cpp:150] Setting up conv3_postscale
I0417 20:49:29.114485 19609 net.cpp:157] Top shape: 1024 250 6 6 (9216000)
I0417 20:49:29.114490 19609 net.cpp:165] Memory required for data: 4092583936
I0417 20:49:29.114496 19609 layer_factory.hpp:77] Creating layer pool3
I0417 20:49:29.114507 19609 net.cpp:100] Creating Layer pool3
I0417 20:49:29.114513 19609 net.cpp:434] pool3 <- conv3
I0417 20:49:29.114519 19609 net.cpp:408] pool3 -> pool3
I0417 20:49:29.114564 19609 net.cpp:150] Setting up pool3
I0417 20:49:29.114573 19609 net.cpp:157] Top shape: 1024 250 3 3 (2304000)
I0417 20:49:29.114576 19609 net.cpp:165] Memory required for data: 4101799936
I0417 20:49:29.114579 19609 layer_factory.hpp:77] Creating layer fc4_300
I0417 20:49:29.114588 19609 net.cpp:100] Creating Layer fc4_300
I0417 20:49:29.114591 19609 net.cpp:434] fc4_300 <- pool3
I0417 20:49:29.114598 19609 net.cpp:408] fc4_300 -> fc4_300
I0417 20:49:29.130995 19609 net.cpp:150] Setting up fc4_300
I0417 20:49:29.131018 19609 net.cpp:157] Top shape: 1024 300 (307200)
I0417 20:49:29.131022 19609 net.cpp:165] Memory required for data: 4103028736
I0417 20:49:29.131031 19609 layer_factory.hpp:77] Creating layer fc4_prescale
I0417 20:49:29.131042 19609 net.cpp:100] Creating Layer fc4_prescale
I0417 20:49:29.131047 19609 net.cpp:434] fc4_prescale <- fc4_300
I0417 20:49:29.131053 19609 net.cpp:395] fc4_prescale -> fc4_300 (in-place)
I0417 20:49:29.131170 19609 net.cpp:150] Setting up fc4_prescale
I0417 20:49:29.131182 19609 net.cpp:157] Top shape: 1024 300 (307200)
I0417 20:49:29.131186 19609 net.cpp:165] Memory required for data: 4104257536
I0417 20:49:29.131191 19609 layer_factory.hpp:77] Creating layer fc4_sTanH
I0417 20:49:29.131197 19609 net.cpp:100] Creating Layer fc4_sTanH
I0417 20:49:29.131201 19609 net.cpp:434] fc4_sTanH <- fc4_300
I0417 20:49:29.131206 19609 net.cpp:395] fc4_sTanH -> fc4_300 (in-place)
I0417 20:49:29.131454 19609 net.cpp:150] Setting up fc4_sTanH
I0417 20:49:29.131467 19609 net.cpp:157] Top shape: 1024 300 (307200)
I0417 20:49:29.131470 19609 net.cpp:165] Memory required for data: 4105486336
I0417 20:49:29.131474 19609 layer_factory.hpp:77] Creating layer fc4_postscale
I0417 20:49:29.131482 19609 net.cpp:100] Creating Layer fc4_postscale
I0417 20:49:29.131486 19609 net.cpp:434] fc4_postscale <- fc4_300
I0417 20:49:29.131492 19609 net.cpp:395] fc4_postscale -> fc4_300 (in-place)
I0417 20:49:29.131603 19609 net.cpp:150] Setting up fc4_postscale
I0417 20:49:29.131613 19609 net.cpp:157] Top shape: 1024 300 (307200)
I0417 20:49:29.131618 19609 net.cpp:165] Memory required for data: 4106715136
I0417 20:49:29.131623 19609 layer_factory.hpp:77] Creating layer fc5_67
I0417 20:49:29.131630 19609 net.cpp:100] Creating Layer fc5_67
I0417 20:49:29.131633 19609 net.cpp:434] fc5_67 <- fc4_300
I0417 20:49:29.131639 19609 net.cpp:408] fc5_67 -> fc5_classes
I0417 20:49:29.133292 19609 net.cpp:150] Setting up fc5_67
I0417 20:49:29.133311 19609 net.cpp:157] Top shape: 1024 67 (68608)
I0417 20:49:29.133316 19609 net.cpp:165] Memory required for data: 4106989568
I0417 20:49:29.133328 19609 layer_factory.hpp:77] Creating layer fc5_classes_fc5_67_0_split
I0417 20:49:29.133338 19609 net.cpp:100] Creating Layer fc5_classes_fc5_67_0_split
I0417 20:49:29.133342 19609 net.cpp:434] fc5_classes_fc5_67_0_split <- fc5_classes
I0417 20:49:29.133349 19609 net.cpp:408] fc5_classes_fc5_67_0_split -> fc5_classes_fc5_67_0_split_0
I0417 20:49:29.133360 19609 net.cpp:408] fc5_classes_fc5_67_0_split -> fc5_classes_fc5_67_0_split_1
I0417 20:49:29.133369 19609 net.cpp:408] fc5_classes_fc5_67_0_split -> fc5_classes_fc5_67_0_split_2
I0417 20:49:29.133429 19609 net.cpp:150] Setting up fc5_classes_fc5_67_0_split
I0417 20:49:29.133436 19609 net.cpp:157] Top shape: 1024 67 (68608)
I0417 20:49:29.133440 19609 net.cpp:157] Top shape: 1024 67 (68608)
I0417 20:49:29.133445 19609 net.cpp:157] Top shape: 1024 67 (68608)
I0417 20:49:29.133447 19609 net.cpp:165] Memory required for data: 4107812864
I0417 20:49:29.133451 19609 layer_factory.hpp:77] Creating layer softmax
I0417 20:49:29.133457 19609 net.cpp:100] Creating Layer softmax
I0417 20:49:29.133463 19609 net.cpp:434] softmax <- fc5_classes_fc5_67_0_split_0
I0417 20:49:29.133469 19609 net.cpp:408] softmax -> softmax
I0417 20:49:29.133762 19609 net.cpp:150] Setting up softmax
I0417 20:49:29.133775 19609 net.cpp:157] Top shape: 1024 67 (68608)
I0417 20:49:29.133780 19609 net.cpp:165] Memory required for data: 4108087296
I0417 20:49:29.133783 19609 layer_factory.hpp:77] Creating layer loss
I0417 20:49:29.133790 19609 net.cpp:100] Creating Layer loss
I0417 20:49:29.133795 19609 net.cpp:434] loss <- softmax
I0417 20:49:29.133801 19609 net.cpp:434] loss <- label_data_1_split_0
I0417 20:49:29.133806 19609 net.cpp:408] loss -> loss
…
