…
I0409 22:28:40.985857  2587 net.cpp:322] The NetState phase (0) differed from the phase (1) specified by a rule in layer accuracy_5
I0409 22:28:40.985947  2587 net.cpp:58] Initializing net from parameters: 
state {
  phase: TRAIN
  level: 0
  stage: ""
}
layer {
  name: "data"
  type: "Data"
  top: "data"
  top: "label"
  include {
    phase: TRAIN
  }
  transform_param {
    mirror: false
    crop_size: 48
    mean_value: 122
    mean_value: 115
    mean_value: 129
  }
  data_param {
    source: "../local_data/lmdb/rtsd-r1/orig/train/lmdb"
    batch_size: 1024
    backend: LMDB
  }
}
layer {
  name: "conv1"
  type: "Convolution"
  bottom: "data"
  top: "conv1"
  convolution_param {
    num_output: 100
    pad: 0
    kernel_size: 7
    group: 1
    stride: 1
    weight_filler {
      type: "xavier"
    }
  }
}
layer {
  name: "conv1_sTanH"
  type: "TanH"
  bottom: "conv1"
  top: "conv1"
}
layer {
  name: "pool1"
  type: "Pooling"
  bottom: "conv1"
  top: "pool1"
  pooling_param {
    pool: MAX
    kernel_size: 2
    stride: 2
  }
}
layer {
  name: "conv2"
  type: "Convolution"
  bottom: "pool1"
  top: "conv2"
  convolution_param {
    num_output: 150
    pad: 0
    kernel_size: 4
    group: 1
    stride: 1
    weight_filler {
      type: "xavier"
    }
  }
}
layer {
  name: "conv2_sTanH"
  type: "TanH"
  bottom: "conv2"
  top: "conv2"
}
layer {
  name: "pool2"
  type: "Pooling"
  bottom: "conv2"
  top: "pool2"
  pooling_param {
    pool: MAX
    kernel_size: 2
    stride: 2
  }
}
layer {
  name: "conv3"
  type: "Convolution"
  bottom: "pool2"
  top: "conv3"
  convolution_param {
    num_output: 250
    pad: 0
    kernel_size: 4
    group: 1
    stride: 1
    weight_filler {
      type: "xavier"
    }
  }
}
layer {
  name: "conv3_sTanH"
  type: "TanH"
  bottom: "conv3"
  top: "conv3"
}
layer {
  name: "pool3"
  type: "Pooling"
  bottom: "conv3"
  top: "pool3"
  pooling_param {
    pool: MAX
    kernel_size: 2
    stride: 2
  }
}
layer {
  name: "fc4_300"
  type: "InnerProduct"
  bottom: "pool3"
  top: "fc4_300"
  inner_product_param {
    num_output: 300
    weight_filler {
      type: "xavier"
    }
  }
}
layer {
  name: "fc4_sTanH"
  type: "TanH"
  bottom: "fc4_300"
  top: "fc4_300"
}
layer {
  name: "drop4"
  type: "Dropout"
  bottom: "fc4_300"
  top: "fc4_300"
  dropout_param {
    dropout_ratio: 0.4
  }
}
layer {
  name: "fc5_67"
  type: "InnerProduct"
  bottom: "fc4_300"
  top: "fc5_classes"
  inner_product_param {
    num_output: 67
    weight_filler {
      type: "xavier"
    }
  }
}
layer {
  name: "loss"
  type: "SoftmaxWithLoss"
  bottom: "fc5_classes"
  bottom: "label"
  top: "loss"
}
I0409 22:28:40.986022  2587 layer_factory.hpp:77] Creating layer data
I0409 22:28:40.987102  2587 net.cpp:100] Creating Layer data
I0409 22:28:40.987115  2587 net.cpp:408] data -> data
I0409 22:28:40.987138  2587 net.cpp:408] data -> label
I0409 22:28:40.988533  2660 db_lmdb.cpp:35] Opened lmdb ../local_data/lmdb/rtsd-r1/orig/train/lmdb
I0409 22:28:41.004103  2587 data_layer.cpp:41] output data size: 1024,3,48,48
I0409 22:28:41.047760  2587 net.cpp:150] Setting up data
I0409 22:28:41.047804  2587 net.cpp:157] Top shape: 1024 3 48 48 (7077888)
I0409 22:28:41.047811  2587 net.cpp:157] Top shape: 1024 (1024)
I0409 22:28:41.047837  2587 net.cpp:165] Memory required for data: 28315648
I0409 22:28:41.047848  2587 layer_factory.hpp:77] Creating layer conv1
I0409 22:28:41.047870  2587 net.cpp:100] Creating Layer conv1
I0409 22:28:41.047886  2587 net.cpp:434] conv1 <- data
I0409 22:28:41.047904  2587 net.cpp:408] conv1 -> conv1
I0409 22:28:41.313292  2587 net.cpp:150] Setting up conv1
I0409 22:28:41.313333  2587 net.cpp:157] Top shape: 1024 100 42 42 (180633600)
I0409 22:28:41.313338  2587 net.cpp:165] Memory required for data: 750850048
I0409 22:28:41.313359  2587 layer_factory.hpp:77] Creating layer conv1_sTanH
I0409 22:28:41.313371  2587 net.cpp:100] Creating Layer conv1_sTanH
I0409 22:28:41.313375  2587 net.cpp:434] conv1_sTanH <- conv1
I0409 22:28:41.313381  2587 net.cpp:395] conv1_sTanH -> conv1 (in-place)
I0409 22:28:41.313575  2587 net.cpp:150] Setting up conv1_sTanH
I0409 22:28:41.313586  2587 net.cpp:157] Top shape: 1024 100 42 42 (180633600)
I0409 22:28:41.313590  2587 net.cpp:165] Memory required for data: 1473384448
I0409 22:28:41.313593  2587 layer_factory.hpp:77] Creating layer pool1
I0409 22:28:41.313601  2587 net.cpp:100] Creating Layer pool1
I0409 22:28:41.313606  2587 net.cpp:434] pool1 <- conv1
I0409 22:28:41.313611  2587 net.cpp:408] pool1 -> pool1
I0409 22:28:41.313663  2587 net.cpp:150] Setting up pool1
I0409 22:28:41.313671  2587 net.cpp:157] Top shape: 1024 100 21 21 (45158400)
I0409 22:28:41.313674  2587 net.cpp:165] Memory required for data: 1654018048
I0409 22:28:41.313678  2587 layer_factory.hpp:77] Creating layer conv2
I0409 22:28:41.313689  2587 net.cpp:100] Creating Layer conv2
I0409 22:28:41.313694  2587 net.cpp:434] conv2 <- pool1
I0409 22:28:41.313699  2587 net.cpp:408] conv2 -> conv2
I0409 22:28:41.317944  2587 net.cpp:150] Setting up conv2
I0409 22:28:41.317961  2587 net.cpp:157] Top shape: 1024 150 18 18 (49766400)
I0409 22:28:41.317965  2587 net.cpp:165] Memory required for data: 1853083648
I0409 22:28:41.317975  2587 layer_factory.hpp:77] Creating layer conv2_sTanH
I0409 22:28:41.317981  2587 net.cpp:100] Creating Layer conv2_sTanH
I0409 22:28:41.317984  2587 net.cpp:434] conv2_sTanH <- conv2
I0409 22:28:41.317989  2587 net.cpp:395] conv2_sTanH -> conv2 (in-place)
I0409 22:28:41.318739  2587 net.cpp:150] Setting up conv2_sTanH
I0409 22:28:41.318754  2587 net.cpp:157] Top shape: 1024 150 18 18 (49766400)
I0409 22:28:41.318758  2587 net.cpp:165] Memory required for data: 2052149248
I0409 22:28:41.318761  2587 layer_factory.hpp:77] Creating layer pool2
I0409 22:28:41.318768  2587 net.cpp:100] Creating Layer pool2
I0409 22:28:41.318770  2587 net.cpp:434] pool2 <- conv2
I0409 22:28:41.318775  2587 net.cpp:408] pool2 -> pool2
I0409 22:28:41.318821  2587 net.cpp:150] Setting up pool2
I0409 22:28:41.318830  2587 net.cpp:157] Top shape: 1024 150 9 9 (12441600)
I0409 22:28:41.318832  2587 net.cpp:165] Memory required for data: 2101915648
I0409 22:28:41.318835  2587 layer_factory.hpp:77] Creating layer conv3
I0409 22:28:41.318842  2587 net.cpp:100] Creating Layer conv3
I0409 22:28:41.318846  2587 net.cpp:434] conv3 <- pool2
I0409 22:28:41.318850  2587 net.cpp:408] conv3 -> conv3
I0409 22:28:41.324349  2587 net.cpp:150] Setting up conv3
I0409 22:28:41.324365  2587 net.cpp:157] Top shape: 1024 250 6 6 (9216000)
I0409 22:28:41.324368  2587 net.cpp:165] Memory required for data: 2138779648
I0409 22:28:41.324379  2587 layer_factory.hpp:77] Creating layer conv3_sTanH
I0409 22:28:41.324386  2587 net.cpp:100] Creating Layer conv3_sTanH
I0409 22:28:41.324390  2587 net.cpp:434] conv3_sTanH <- conv3
I0409 22:28:41.324395  2587 net.cpp:395] conv3_sTanH -> conv3 (in-place)
I0409 22:28:41.325181  2587 net.cpp:150] Setting up conv3_sTanH
I0409 22:28:41.325196  2587 net.cpp:157] Top shape: 1024 250 6 6 (9216000)
I0409 22:28:41.325201  2587 net.cpp:165] Memory required for data: 2175643648
I0409 22:28:41.325203  2587 layer_factory.hpp:77] Creating layer pool3
I0409 22:28:41.325211  2587 net.cpp:100] Creating Layer pool3
I0409 22:28:41.325213  2587 net.cpp:434] pool3 <- conv3
I0409 22:28:41.325240  2587 net.cpp:408] pool3 -> pool3
I0409 22:28:41.325290  2587 net.cpp:150] Setting up pool3
I0409 22:28:41.325301  2587 net.cpp:157] Top shape: 1024 250 3 3 (2304000)
I0409 22:28:41.325304  2587 net.cpp:165] Memory required for data: 2184859648
I0409 22:28:41.325307  2587 layer_factory.hpp:77] Creating layer fc4_300
I0409 22:28:41.325314  2587 net.cpp:100] Creating Layer fc4_300
I0409 22:28:41.325317  2587 net.cpp:434] fc4_300 <- pool3
I0409 22:28:41.325322  2587 net.cpp:408] fc4_300 -> fc4_300
I0409 22:28:41.330595  2587 net.cpp:150] Setting up fc4_300
I0409 22:28:41.330612  2587 net.cpp:157] Top shape: 1024 300 (307200)
I0409 22:28:41.330615  2587 net.cpp:165] Memory required for data: 2186088448
I0409 22:28:41.330622  2587 layer_factory.hpp:77] Creating layer fc4_sTanH
I0409 22:28:41.330627  2587 net.cpp:100] Creating Layer fc4_sTanH
I0409 22:28:41.330631  2587 net.cpp:434] fc4_sTanH <- fc4_300
I0409 22:28:41.330636  2587 net.cpp:395] fc4_sTanH -> fc4_300 (in-place)
I0409 22:28:41.330821  2587 net.cpp:150] Setting up fc4_sTanH
I0409 22:28:41.330832  2587 net.cpp:157] Top shape: 1024 300 (307200)
I0409 22:28:41.330834  2587 net.cpp:165] Memory required for data: 2187317248
I0409 22:28:41.330837  2587 layer_factory.hpp:77] Creating layer drop4
I0409 22:28:41.330844  2587 net.cpp:100] Creating Layer drop4
I0409 22:28:41.330847  2587 net.cpp:434] drop4 <- fc4_300
I0409 22:28:41.330853  2587 net.cpp:395] drop4 -> fc4_300 (in-place)
I0409 22:28:41.330883  2587 net.cpp:150] Setting up drop4
I0409 22:28:41.330893  2587 net.cpp:157] Top shape: 1024 300 (307200)
I0409 22:28:41.330894  2587 net.cpp:165] Memory required for data: 2188546048
I0409 22:28:41.330898  2587 layer_factory.hpp:77] Creating layer fc5_67
I0409 22:28:41.330904  2587 net.cpp:100] Creating Layer fc5_67
I0409 22:28:41.330909  2587 net.cpp:434] fc5_67 <- fc4_300
I0409 22:28:41.330914  2587 net.cpp:408] fc5_67 -> fc5_classes
I0409 22:28:41.332111  2587 net.cpp:150] Setting up fc5_67
I0409 22:28:41.332128  2587 net.cpp:157] Top shape: 1024 67 (68608)
I0409 22:28:41.332130  2587 net.cpp:165] Memory required for data: 2188820480
I0409 22:28:41.332141  2587 layer_factory.hpp:77] Creating layer loss
I0409 22:28:41.332147  2587 net.cpp:100] Creating Layer loss
I0409 22:28:41.332151  2587 net.cpp:434] loss <- fc5_classes
I0409 22:28:41.332155  2587 net.cpp:434] loss <- label
I0409 22:28:41.332161  2587 net.cpp:408] loss -> loss
I0409 22:28:41.332173  2587 layer_factory.hpp:77] Creating layer loss
…
I0409 22:28:41.332841  2587 solver.cpp:193] Creating test net (#0) specified by test_net file: ./Prototxt/experiment_7/rtsd-r1/orig/trial_1/test.prototxt
I0409 22:28:41.332988  2587 net.cpp:58] Initializing net from parameters: 
state {
  phase: TEST
}
layer {
  name: "data"
  type: "Data"
  top: "data"
  top: "label"
  include {
    phase: TEST
  }
  transform_param {
    mirror: false
    crop_size: 48
    mean_value: 113
    mean_value: 110
    mean_value: 132
  }
  data_param {
    source: "../local_data/lmdb/rtsd-r1/orig/test/lmdb"
    batch_size: 1024
    backend: LMDB
  }
}
layer {
  name: "conv1"
  type: "Convolution"
  bottom: "data"
  top: "conv1"
  convolution_param {
    num_output: 100
    pad: 0
    kernel_size: 7
    group: 1
    stride: 1
    weight_filler {
      type: "xavier"
    }
  }
}
layer {
  name: "conv1_sTanH"
  type: "TanH"
  bottom: "conv1"
  top: "conv1"
}
layer {
  name: "pool1"
  type: "Pooling"
  bottom: "conv1"
  top: "pool1"
  pooling_param {
    pool: MAX
    kernel_size: 2
    stride: 2
  }
}
layer {
  name: "conv2"
  type: "Convolution"
  bottom: "pool1"
  top: "conv2"
  convolution_param {
    num_output: 150
    pad: 0
    kernel_size: 4
    group: 1
    stride: 1
    weight_filler {
      type: "xavier"
    }
  }
}
layer {
  name: "conv2_sTanH"
  type: "TanH"
  bottom: "conv2"
  top: "conv2"
}
layer {
  name: "pool2"
  type: "Pooling"
  bottom: "conv2"
  top: "pool2"
  pooling_param {
    pool: MAX
    kernel_size: 2
    stride: 2
  }
}
layer {
  name: "conv3"
  type: "Convolution"
  bottom: "pool2"
  top: "conv3"
  convolution_param {
    num_output: 250
    pad: 0
    kernel_size: 4
    group: 1
    stride: 1
    weight_filler {
      type: "xavier"
    }
  }
}
layer {
  name: "conv3_sTanH"
  type: "TanH"
  bottom: "conv3"
  top: "conv3"
}
layer {
  name: "pool3"
  type: "Pooling"
  bottom: "conv3"
  top: "pool3"
  pooling_param {
    pool: MAX
    kernel_size: 2
    stride: 2
  }
}
layer {
  name: "fc4_300"
  type: "InnerProduct"
  bottom: "pool3"
  top: "fc4_300"
  inner_product_param {
    num_output: 300
    weight_filler {
      type: "xavier"
    }
  }
}
layer {
  name: "fc4_sTanH"
  type: "TanH"
  bottom: "fc4_300"
  top: "fc4_300"
}
layer {
  name: "drop4"
  type: "Dropout"
  bottom: "fc4_300"
  top: "fc4_300"
  dropout_param {
    dropout_ratio: 0.4
  }
}
layer {
  name: "fc5_67"
  type: "InnerProduct"
  bottom: "fc4_300"
  top: "fc5_classes"
  inner_product_param {
    num_output: 67
    weight_filler {
      type: "xavier"
    }
  }
}
layer {
  name: "loss"
  type: "SoftmaxWithLoss"
  bottom: "fc5_classes"
  bottom: "label"
  top: "loss"
}
layer {
  name: "accuracy_1"
  type: "Accuracy"
  bottom: "fc5_classes"
  bottom: "label"
  top: "accuracy_1"
  include {
    phase: TEST
  }
  accuracy_param {
    top_k: 1
  }
}
layer {
  name: "accuracy_5"
  type: "Accuracy"
  bottom: "fc5_classes"
  bottom: "label"
  top: "accuracy_5"
  include {
    phase: TEST
  }
  accuracy_param {
    top_k: 5
  }
}
I0409 22:28:41.333077  2587 layer_factory.hpp:77] Creating layer data
I0409 22:28:41.333760  2587 net.cpp:100] Creating Layer data
I0409 22:28:41.333772  2587 net.cpp:408] data -> data
I0409 22:28:41.333797  2587 net.cpp:408] data -> label
I0409 22:28:41.335150  2688 db_lmdb.cpp:35] Opened lmdb ../local_data/lmdb/rtsd-r1/orig/test/lmdb
I0409 22:28:41.335296  2587 data_layer.cpp:41] output data size: 1024,3,48,48
I0409 22:28:41.378296  2587 net.cpp:150] Setting up data
I0409 22:28:41.378324  2587 net.cpp:157] Top shape: 1024 3 48 48 (7077888)
I0409 22:28:41.378329  2587 net.cpp:157] Top shape: 1024 (1024)
I0409 22:28:41.378331  2587 net.cpp:165] Memory required for data: 28315648
I0409 22:28:41.378337  2587 layer_factory.hpp:77] Creating layer label_data_1_split
I0409 22:28:41.378351  2587 net.cpp:100] Creating Layer label_data_1_split
I0409 22:28:41.378357  2587 net.cpp:434] label_data_1_split <- label
I0409 22:28:41.378365  2587 net.cpp:408] label_data_1_split -> label_data_1_split_0
I0409 22:28:41.378376  2587 net.cpp:408] label_data_1_split -> label_data_1_split_1
I0409 22:28:41.378384  2587 net.cpp:408] label_data_1_split -> label_data_1_split_2
I0409 22:28:41.378568  2587 net.cpp:150] Setting up label_data_1_split
I0409 22:28:41.378578  2587 net.cpp:157] Top shape: 1024 (1024)
I0409 22:28:41.378582  2587 net.cpp:157] Top shape: 1024 (1024)
I0409 22:28:41.378585  2587 net.cpp:157] Top shape: 1024 (1024)
I0409 22:28:41.378588  2587 net.cpp:165] Memory required for data: 28327936
I0409 22:28:41.378592  2587 layer_factory.hpp:77] Creating layer conv1
I0409 22:28:41.378603  2587 net.cpp:100] Creating Layer conv1
I0409 22:28:41.378608  2587 net.cpp:434] conv1 <- data
I0409 22:28:41.378615  2587 net.cpp:408] conv1 -> conv1
I0409 22:28:41.381054  2587 net.cpp:150] Setting up conv1
I0409 22:28:41.381072  2587 net.cpp:157] Top shape: 1024 100 42 42 (180633600)
I0409 22:28:41.381077  2587 net.cpp:165] Memory required for data: 750862336
I0409 22:28:41.381088  2587 layer_factory.hpp:77] Creating layer conv1_sTanH
I0409 22:28:41.381096  2587 net.cpp:100] Creating Layer conv1_sTanH
I0409 22:28:41.381099  2587 net.cpp:434] conv1_sTanH <- conv1
I0409 22:28:41.381104  2587 net.cpp:395] conv1_sTanH -> conv1 (in-place)
I0409 22:28:41.381304  2587 net.cpp:150] Setting up conv1_sTanH
I0409 22:28:41.381315  2587 net.cpp:157] Top shape: 1024 100 42 42 (180633600)
I0409 22:28:41.381319  2587 net.cpp:165] Memory required for data: 1473396736
I0409 22:28:41.381321  2587 layer_factory.hpp:77] Creating layer pool1
I0409 22:28:41.381330  2587 net.cpp:100] Creating Layer pool1
I0409 22:28:41.381336  2587 net.cpp:434] pool1 <- conv1
I0409 22:28:41.381341  2587 net.cpp:408] pool1 -> pool1
I0409 22:28:41.381389  2587 net.cpp:150] Setting up pool1
I0409 22:28:41.381399  2587 net.cpp:157] Top shape: 1024 100 21 21 (45158400)
I0409 22:28:41.381403  2587 net.cpp:165] Memory required for data: 1654030336
I0409 22:28:41.381407  2587 layer_factory.hpp:77] Creating layer conv2
I0409 22:28:41.381417  2587 net.cpp:100] Creating Layer conv2
I0409 22:28:41.381422  2587 net.cpp:434] conv2 <- pool1
I0409 22:28:41.381428  2587 net.cpp:408] conv2 -> conv2
I0409 22:28:41.396121  2587 net.cpp:150] Setting up conv2
I0409 22:28:41.396144  2587 net.cpp:157] Top shape: 1024 150 18 18 (49766400)
I0409 22:28:41.396148  2587 net.cpp:165] Memory required for data: 1853095936
I0409 22:28:41.396164  2587 layer_factory.hpp:77] Creating layer conv2_sTanH
I0409 22:28:41.396178  2587 net.cpp:100] Creating Layer conv2_sTanH
I0409 22:28:41.396183  2587 net.cpp:434] conv2_sTanH <- conv2
I0409 22:28:41.396191  2587 net.cpp:395] conv2_sTanH -> conv2 (in-place)
I0409 22:28:41.403714  2587 net.cpp:150] Setting up conv2_sTanH
I0409 22:28:41.403733  2587 net.cpp:157] Top shape: 1024 150 18 18 (49766400)
I0409 22:28:41.403738  2587 net.cpp:165] Memory required for data: 2052161536
I0409 22:28:41.403743  2587 layer_factory.hpp:77] Creating layer pool2
I0409 22:28:41.403751  2587 net.cpp:100] Creating Layer pool2
I0409 22:28:41.403755  2587 net.cpp:434] pool2 <- conv2
I0409 22:28:41.403762  2587 net.cpp:408] pool2 -> pool2
I0409 22:28:41.403820  2587 net.cpp:150] Setting up pool2
I0409 22:28:41.403831  2587 net.cpp:157] Top shape: 1024 150 9 9 (12441600)
I0409 22:28:41.403834  2587 net.cpp:165] Memory required for data: 2101927936
I0409 22:28:41.403837  2587 layer_factory.hpp:77] Creating layer conv3
I0409 22:28:41.403851  2587 net.cpp:100] Creating Layer conv3
I0409 22:28:41.403856  2587 net.cpp:434] conv3 <- pool2
I0409 22:28:41.403870  2587 net.cpp:408] conv3 -> conv3
I0409 22:28:41.410217  2587 net.cpp:150] Setting up conv3
I0409 22:28:41.410235  2587 net.cpp:157] Top shape: 1024 250 6 6 (9216000)
I0409 22:28:41.410238  2587 net.cpp:165] Memory required for data: 2138791936
I0409 22:28:41.410251  2587 layer_factory.hpp:77] Creating layer conv3_sTanH
I0409 22:28:41.410259  2587 net.cpp:100] Creating Layer conv3_sTanH
I0409 22:28:41.410264  2587 net.cpp:434] conv3_sTanH <- conv3
I0409 22:28:41.410271  2587 net.cpp:395] conv3_sTanH -> conv3 (in-place)
I0409 22:28:41.411731  2587 net.cpp:150] Setting up conv3_sTanH
I0409 22:28:41.411747  2587 net.cpp:157] Top shape: 1024 250 6 6 (9216000)
I0409 22:28:41.411770  2587 net.cpp:165] Memory required for data: 2175655936
I0409 22:28:41.411775  2587 layer_factory.hpp:77] Creating layer pool3
I0409 22:28:41.411783  2587 net.cpp:100] Creating Layer pool3
I0409 22:28:41.411787  2587 net.cpp:434] pool3 <- conv3
I0409 22:28:41.411792  2587 net.cpp:408] pool3 -> pool3
I0409 22:28:41.411861  2587 net.cpp:150] Setting up pool3
I0409 22:28:41.411871  2587 net.cpp:157] Top shape: 1024 250 3 3 (2304000)
I0409 22:28:41.411875  2587 net.cpp:165] Memory required for data: 2184871936
I0409 22:28:41.411890  2587 layer_factory.hpp:77] Creating layer fc4_300
I0409 22:28:41.411896  2587 net.cpp:100] Creating Layer fc4_300
I0409 22:28:41.411901  2587 net.cpp:434] fc4_300 <- pool3
I0409 22:28:41.411911  2587 net.cpp:408] fc4_300 -> fc4_300
I0409 22:28:41.417755  2587 net.cpp:150] Setting up fc4_300
I0409 22:28:41.417774  2587 net.cpp:157] Top shape: 1024 300 (307200)
I0409 22:28:41.417778  2587 net.cpp:165] Memory required for data: 2186100736
I0409 22:28:41.417785  2587 layer_factory.hpp:77] Creating layer fc4_sTanH
I0409 22:28:41.417793  2587 net.cpp:100] Creating Layer fc4_sTanH
I0409 22:28:41.417798  2587 net.cpp:434] fc4_sTanH <- fc4_300
I0409 22:28:41.417804  2587 net.cpp:395] fc4_sTanH -> fc4_300 (in-place)
I0409 22:28:41.418016  2587 net.cpp:150] Setting up fc4_sTanH
I0409 22:28:41.418030  2587 net.cpp:157] Top shape: 1024 300 (307200)
I0409 22:28:41.418033  2587 net.cpp:165] Memory required for data: 2187329536
I0409 22:28:41.418037  2587 layer_factory.hpp:77] Creating layer drop4
I0409 22:28:41.418045  2587 net.cpp:100] Creating Layer drop4
I0409 22:28:41.418047  2587 net.cpp:434] drop4 <- fc4_300
I0409 22:28:41.418053  2587 net.cpp:395] drop4 -> fc4_300 (in-place)
I0409 22:28:41.418087  2587 net.cpp:150] Setting up drop4
I0409 22:28:41.418095  2587 net.cpp:157] Top shape: 1024 300 (307200)
I0409 22:28:41.418103  2587 net.cpp:165] Memory required for data: 2188558336
I0409 22:28:41.418107  2587 layer_factory.hpp:77] Creating layer fc5_67
I0409 22:28:41.418113  2587 net.cpp:100] Creating Layer fc5_67
I0409 22:28:41.418117  2587 net.cpp:434] fc5_67 <- fc4_300
I0409 22:28:41.418126  2587 net.cpp:408] fc5_67 -> fc5_classes
I0409 22:28:41.418396  2587 net.cpp:150] Setting up fc5_67
I0409 22:28:41.418406  2587 net.cpp:157] Top shape: 1024 67 (68608)
I0409 22:28:41.418408  2587 net.cpp:165] Memory required for data: 2188832768
I0409 22:28:41.418419  2587 layer_factory.hpp:77] Creating layer fc5_classes_fc5_67_0_split
I0409 22:28:41.418427  2587 net.cpp:100] Creating Layer fc5_classes_fc5_67_0_split
I0409 22:28:41.418432  2587 net.cpp:434] fc5_classes_fc5_67_0_split <- fc5_classes
I0409 22:28:41.418439  2587 net.cpp:408] fc5_classes_fc5_67_0_split -> fc5_classes_fc5_67_0_split_0
I0409 22:28:41.418448  2587 net.cpp:408] fc5_classes_fc5_67_0_split -> fc5_classes_fc5_67_0_split_1
I0409 22:28:41.418457  2587 net.cpp:408] fc5_classes_fc5_67_0_split -> fc5_classes_fc5_67_0_split_2
I0409 22:28:41.418514  2587 net.cpp:150] Setting up fc5_classes_fc5_67_0_split
I0409 22:28:41.418520  2587 net.cpp:157] Top shape: 1024 67 (68608)
I0409 22:28:41.418524  2587 net.cpp:157] Top shape: 1024 67 (68608)
I0409 22:28:41.418527  2587 net.cpp:157] Top shape: 1024 67 (68608)
I0409 22:28:41.418529  2587 net.cpp:165] Memory required for data: 2189656064
I0409 22:28:41.418534  2587 layer_factory.hpp:77] Creating layer loss
I0409 22:28:41.418543  2587 net.cpp:100] Creating Layer loss
I0409 22:28:41.418547  2587 net.cpp:434] loss <- fc5_classes_fc5_67_0_split_0
I0409 22:28:41.418552  2587 net.cpp:434] loss <- label_data_1_split_0
I0409 22:28:41.418557  2587 net.cpp:408] loss -> loss
…
