…
I0402 12:41:46.987246 15846 net.cpp:322] The NetState phase (0) differed from the phase (1) specified by a rule in layer accuracy_5
I0402 12:41:46.987340 15846 net.cpp:58] Initializing net from parameters: 
state {
  phase: TRAIN
  level: 0
  stage: ""
}
layer {
  name: "data"
  type: "Data"
  top: "data"
  top: "label"
  include {
    phase: TRAIN
  }
  transform_param {
    mirror: false
    crop_size: 48
    mean_value: 130
    mean_value: 123
    mean_value: 137
  }
  data_param {
    source: "../local_data/lmdb/rtsd-r1/histeq/train/lmdb"
    batch_size: 1024
    backend: LMDB
  }
}
layer {
  name: "conv1"
  type: "Convolution"
  bottom: "data"
  top: "conv1"
  convolution_param {
    num_output: 100
    pad: 0
    kernel_size: 7
    group: 1
    stride: 1
    weight_filler {
      type: "xavier"
    }
  }
}
layer {
  name: "conv1_relu"
  type: "ReLU"
  bottom: "conv1"
  top: "conv1"
}
layer {
  name: "pool1"
  type: "Pooling"
  bottom: "conv1"
  top: "pool1"
  pooling_param {
    pool: MAX
    kernel_size: 2
    stride: 2
  }
}
layer {
  name: "conv2"
  type: "Convolution"
  bottom: "pool1"
  top: "conv2"
  convolution_param {
    num_output: 150
    pad: 0
    kernel_size: 4
    group: 1
    stride: 1
    weight_filler {
      type: "xavier"
    }
  }
}
layer {
  name: "conv2_relu"
  type: "ReLU"
  bottom: "conv2"
  top: "conv2"
}
layer {
  name: "pool2"
  type: "Pooling"
  bottom: "conv2"
  top: "pool2"
  pooling_param {
    pool: MAX
    kernel_size: 2
    stride: 2
  }
}
layer {
  name: "conv3"
  type: "Convolution"
  bottom: "pool2"
  top: "conv3"
  convolution_param {
    num_output: 250
    pad: 0
    kernel_size: 4
    group: 1
    stride: 1
    weight_filler {
      type: "xavier"
    }
  }
}
layer {
  name: "conv3_relu"
  type: "ReLU"
  bottom: "conv3"
  top: "conv3"
}
layer {
  name: "pool3"
  type: "Pooling"
  bottom: "conv3"
  top: "pool3"
  pooling_param {
    pool: MAX
    kernel_size: 2
    stride: 2
  }
}
layer {
  name: "fc4_300"
  type: "InnerProduct"
  bottom: "pool3"
  top: "fc4_300"
  inner_product_param {
    num_output: 300
    weight_filler {
      type: "xavier"
    }
  }
}
layer {
  name: "fc4_relu"
  type: "ReLU"
  bottom: "fc4_300"
  top: "fc4_300"
}
layer {
  name: "drop4"
  type: "Dropout"
  bottom: "fc4_300"
  top: "fc4_300"
  dropout_param {
    dropout_ratio: 0.4
  }
}
layer {
  name: "fc5_67"
  type: "InnerProduct"
  bottom: "fc4_300"
  top: "fc5_classes"
  inner_product_param {
    num_output: 67
    weight_filler {
      type: "xavier"
    }
  }
}
layer {
  name: "loss"
  type: "SoftmaxWithLoss"
  bottom: "fc5_classes"
  bottom: "label"
  top: "loss"
}
I0402 12:41:46.987416 15846 layer_factory.hpp:77] Creating layer data
I0402 12:41:46.988499 15846 net.cpp:100] Creating Layer data
I0402 12:41:46.988515 15846 net.cpp:408] data -> data
I0402 12:41:46.988538 15846 net.cpp:408] data -> label
I0402 12:41:46.990002 15890 db_lmdb.cpp:35] Opened lmdb ../local_data/lmdb/rtsd-r1/histeq/train/lmdb
I0402 12:41:47.006409 15846 data_layer.cpp:41] output data size: 1024,3,48,48
I0402 12:41:47.054345 15846 net.cpp:150] Setting up data
I0402 12:41:47.054376 15846 net.cpp:157] Top shape: 1024 3 48 48 (7077888)
I0402 12:41:47.054383 15846 net.cpp:157] Top shape: 1024 (1024)
I0402 12:41:47.054385 15846 net.cpp:165] Memory required for data: 28315648
I0402 12:41:47.054419 15846 layer_factory.hpp:77] Creating layer conv1
I0402 12:41:47.054443 15846 net.cpp:100] Creating Layer conv1
I0402 12:41:47.054450 15846 net.cpp:434] conv1 <- data
I0402 12:41:47.054462 15846 net.cpp:408] conv1 -> conv1
I0402 12:41:47.334564 15846 net.cpp:150] Setting up conv1
I0402 12:41:47.334592 15846 net.cpp:157] Top shape: 1024 100 42 42 (180633600)
I0402 12:41:47.334596 15846 net.cpp:165] Memory required for data: 750850048
I0402 12:41:47.334619 15846 layer_factory.hpp:77] Creating layer conv1_relu
I0402 12:41:47.334645 15846 net.cpp:100] Creating Layer conv1_relu
I0402 12:41:47.334650 15846 net.cpp:434] conv1_relu <- conv1
I0402 12:41:47.334657 15846 net.cpp:395] conv1_relu -> conv1 (in-place)
I0402 12:41:47.334866 15846 net.cpp:150] Setting up conv1_relu
I0402 12:41:47.334877 15846 net.cpp:157] Top shape: 1024 100 42 42 (180633600)
I0402 12:41:47.334880 15846 net.cpp:165] Memory required for data: 1473384448
I0402 12:41:47.334884 15846 layer_factory.hpp:77] Creating layer pool1
I0402 12:41:47.334892 15846 net.cpp:100] Creating Layer pool1
I0402 12:41:47.334897 15846 net.cpp:434] pool1 <- conv1
I0402 12:41:47.334905 15846 net.cpp:408] pool1 -> pool1
I0402 12:41:47.334964 15846 net.cpp:150] Setting up pool1
I0402 12:41:47.334975 15846 net.cpp:157] Top shape: 1024 100 21 21 (45158400)
I0402 12:41:47.334978 15846 net.cpp:165] Memory required for data: 1654018048
I0402 12:41:47.334982 15846 layer_factory.hpp:77] Creating layer conv2
I0402 12:41:47.334995 15846 net.cpp:100] Creating Layer conv2
I0402 12:41:47.335000 15846 net.cpp:434] conv2 <- pool1
I0402 12:41:47.335005 15846 net.cpp:408] conv2 -> conv2
I0402 12:41:47.341033 15846 net.cpp:150] Setting up conv2
I0402 12:41:47.341063 15846 net.cpp:157] Top shape: 1024 150 18 18 (49766400)
I0402 12:41:47.341065 15846 net.cpp:165] Memory required for data: 1853083648
I0402 12:41:47.341075 15846 layer_factory.hpp:77] Creating layer conv2_relu
I0402 12:41:47.341084 15846 net.cpp:100] Creating Layer conv2_relu
I0402 12:41:47.341086 15846 net.cpp:434] conv2_relu <- conv2
I0402 12:41:47.341091 15846 net.cpp:395] conv2_relu -> conv2 (in-place)
I0402 12:41:47.342113 15846 net.cpp:150] Setting up conv2_relu
I0402 12:41:47.342128 15846 net.cpp:157] Top shape: 1024 150 18 18 (49766400)
I0402 12:41:47.342131 15846 net.cpp:165] Memory required for data: 2052149248
I0402 12:41:47.342135 15846 layer_factory.hpp:77] Creating layer pool2
I0402 12:41:47.342154 15846 net.cpp:100] Creating Layer pool2
I0402 12:41:47.342157 15846 net.cpp:434] pool2 <- conv2
I0402 12:41:47.342164 15846 net.cpp:408] pool2 -> pool2
I0402 12:41:47.342211 15846 net.cpp:150] Setting up pool2
I0402 12:41:47.342218 15846 net.cpp:157] Top shape: 1024 150 9 9 (12441600)
I0402 12:41:47.342221 15846 net.cpp:165] Memory required for data: 2101915648
I0402 12:41:47.342224 15846 layer_factory.hpp:77] Creating layer conv3
I0402 12:41:47.342232 15846 net.cpp:100] Creating Layer conv3
I0402 12:41:47.342236 15846 net.cpp:434] conv3 <- pool2
I0402 12:41:47.342241 15846 net.cpp:408] conv3 -> conv3
I0402 12:41:47.348489 15846 net.cpp:150] Setting up conv3
I0402 12:41:47.348506 15846 net.cpp:157] Top shape: 1024 250 6 6 (9216000)
I0402 12:41:47.348510 15846 net.cpp:165] Memory required for data: 2138779648
I0402 12:41:47.348520 15846 layer_factory.hpp:77] Creating layer conv3_relu
I0402 12:41:47.348527 15846 net.cpp:100] Creating Layer conv3_relu
I0402 12:41:47.348531 15846 net.cpp:434] conv3_relu <- conv3
I0402 12:41:47.348536 15846 net.cpp:395] conv3_relu -> conv3 (in-place)
I0402 12:41:47.349411 15846 net.cpp:150] Setting up conv3_relu
I0402 12:41:47.349426 15846 net.cpp:157] Top shape: 1024 250 6 6 (9216000)
I0402 12:41:47.349431 15846 net.cpp:165] Memory required for data: 2175643648
I0402 12:41:47.349433 15846 layer_factory.hpp:77] Creating layer pool3
I0402 12:41:47.349439 15846 net.cpp:100] Creating Layer pool3
I0402 12:41:47.349443 15846 net.cpp:434] pool3 <- conv3
I0402 12:41:47.349447 15846 net.cpp:408] pool3 -> pool3
I0402 12:41:47.349504 15846 net.cpp:150] Setting up pool3
I0402 12:41:47.349530 15846 net.cpp:157] Top shape: 1024 250 3 3 (2304000)
I0402 12:41:47.349534 15846 net.cpp:165] Memory required for data: 2184859648
I0402 12:41:47.349536 15846 layer_factory.hpp:77] Creating layer fc4_300
I0402 12:41:47.349544 15846 net.cpp:100] Creating Layer fc4_300
I0402 12:41:47.349546 15846 net.cpp:434] fc4_300 <- pool3
I0402 12:41:47.349551 15846 net.cpp:408] fc4_300 -> fc4_300
I0402 12:41:47.354965 15846 net.cpp:150] Setting up fc4_300
I0402 12:41:47.354981 15846 net.cpp:157] Top shape: 1024 300 (307200)
I0402 12:41:47.354996 15846 net.cpp:165] Memory required for data: 2186088448
I0402 12:41:47.355003 15846 layer_factory.hpp:77] Creating layer fc4_relu
I0402 12:41:47.355010 15846 net.cpp:100] Creating Layer fc4_relu
I0402 12:41:47.355012 15846 net.cpp:434] fc4_relu <- fc4_300
I0402 12:41:47.355017 15846 net.cpp:395] fc4_relu -> fc4_300 (in-place)
I0402 12:41:47.355199 15846 net.cpp:150] Setting up fc4_relu
I0402 12:41:47.355211 15846 net.cpp:157] Top shape: 1024 300 (307200)
I0402 12:41:47.355214 15846 net.cpp:165] Memory required for data: 2187317248
I0402 12:41:47.355217 15846 layer_factory.hpp:77] Creating layer drop4
I0402 12:41:47.355223 15846 net.cpp:100] Creating Layer drop4
I0402 12:41:47.355226 15846 net.cpp:434] drop4 <- fc4_300
I0402 12:41:47.355232 15846 net.cpp:395] drop4 -> fc4_300 (in-place)
I0402 12:41:47.355262 15846 net.cpp:150] Setting up drop4
I0402 12:41:47.355268 15846 net.cpp:157] Top shape: 1024 300 (307200)
I0402 12:41:47.355271 15846 net.cpp:165] Memory required for data: 2188546048
I0402 12:41:47.355274 15846 layer_factory.hpp:77] Creating layer fc5_67
I0402 12:41:47.355280 15846 net.cpp:100] Creating Layer fc5_67
I0402 12:41:47.355283 15846 net.cpp:434] fc5_67 <- fc4_300
I0402 12:41:47.355289 15846 net.cpp:408] fc5_67 -> fc5_classes
I0402 12:41:47.356604 15846 net.cpp:150] Setting up fc5_67
I0402 12:41:47.356621 15846 net.cpp:157] Top shape: 1024 67 (68608)
I0402 12:41:47.356623 15846 net.cpp:165] Memory required for data: 2188820480
I0402 12:41:47.356632 15846 layer_factory.hpp:77] Creating layer loss
I0402 12:41:47.356639 15846 net.cpp:100] Creating Layer loss
I0402 12:41:47.356642 15846 net.cpp:434] loss <- fc5_classes
I0402 12:41:47.356647 15846 net.cpp:434] loss <- label
I0402 12:41:47.356652 15846 net.cpp:408] loss -> loss
I0402 12:41:47.356664 15846 layer_factory.hpp:77] Creating layer loss
…
I0402 12:41:47.357288 15846 solver.cpp:193] Creating test net (#0) specified by test_net file: ./Prototxt/rtsd-r1/histeq/test.prototxt
I0402 12:41:47.357427 15846 net.cpp:58] Initializing net from parameters: 
state {
  phase: TEST
}
layer {
  name: "data"
  type: "Data"
  top: "data"
  top: "label"
  include {
    phase: TEST
  }
  transform_param {
    mirror: false
    crop_size: 48
    mean_value: 124
    mean_value: 121
    mean_value: 142
  }
  data_param {
    source: "../local_data/lmdb/rtsd-r1/histeq/test/lmdb"
    batch_size: 1024
    backend: LMDB
  }
}
layer {
  name: "conv1"
  type: "Convolution"
  bottom: "data"
  top: "conv1"
  convolution_param {
    num_output: 100
    pad: 0
    kernel_size: 7
    group: 1
    stride: 1
    weight_filler {
      type: "xavier"
    }
  }
}
layer {
  name: "conv1_relu"
  type: "ReLU"
  bottom: "conv1"
  top: "conv1"
}
layer {
  name: "pool1"
  type: "Pooling"
  bottom: "conv1"
  top: "pool1"
  pooling_param {
    pool: MAX
    kernel_size: 2
    stride: 2
  }
}
layer {
  name: "conv2"
  type: "Convolution"
  bottom: "pool1"
  top: "conv2"
  convolution_param {
    num_output: 150
    pad: 0
    kernel_size: 4
    group: 1
    stride: 1
    weight_filler {
      type: "xavier"
    }
  }
}
layer {
  name: "conv2_relu"
  type: "ReLU"
  bottom: "conv2"
  top: "conv2"
}
layer {
  name: "pool2"
  type: "Pooling"
  bottom: "conv2"
  top: "pool2"
  pooling_param {
    pool: MAX
    kernel_size: 2
    stride: 2
  }
}
layer {
  name: "conv3"
  type: "Convolution"
  bottom: "pool2"
  top: "conv3"
  convolution_param {
    num_output: 250
    pad: 0
    kernel_size: 4
    group: 1
    stride: 1
    weight_filler {
      type: "xavier"
    }
  }
}
layer {
  name: "conv3_relu"
  type: "ReLU"
  bottom: "conv3"
  top: "conv3"
}
layer {
  name: "pool3"
  type: "Pooling"
  bottom: "conv3"
  top: "pool3"
  pooling_param {
    pool: MAX
    kernel_size: 2
    stride: 2
  }
}
layer {
  name: "fc4_300"
  type: "InnerProduct"
  bottom: "pool3"
  top: "fc4_300"
  inner_product_param {
    num_output: 300
    weight_filler {
      type: "xavier"
    }
  }
}
layer {
  name: "fc4_relu"
  type: "ReLU"
  bottom: "fc4_300"
  top: "fc4_300"
}
layer {
  name: "drop4"
  type: "Dropout"
  bottom: "fc4_300"
  top: "fc4_300"
  dropout_param {
    dropout_ratio: 0.4
  }
}
layer {
  name: "fc5_67"
  type: "InnerProduct"
  bottom: "fc4_300"
  top: "fc5_classes"
  inner_product_param {
    num_output: 67
    weight_filler {
      type: "xavier"
    }
  }
}
layer {
  name: "loss"
  type: "SoftmaxWithLoss"
  bottom: "fc5_classes"
  bottom: "label"
  top: "loss"
}
layer {
  name: "accuracy_1"
  type: "Accuracy"
  bottom: "fc5_classes"
  bottom: "label"
  top: "accuracy_1"
  include {
    phase: TEST
  }
  accuracy_param {
    top_k: 1
  }
}
layer {
  name: "accuracy_5"
  type: "Accuracy"
  bottom: "fc5_classes"
  bottom: "label"
  top: "accuracy_5"
  include {
    phase: TEST
  }
  accuracy_param {
    top_k: 5
  }
}
I0402 12:41:47.357507 15846 layer_factory.hpp:77] Creating layer data
I0402 12:41:47.358070 15846 net.cpp:100] Creating Layer data
I0402 12:41:47.358080 15846 net.cpp:408] data -> data
I0402 12:41:47.358089 15846 net.cpp:408] data -> label
I0402 12:41:47.361572 15915 db_lmdb.cpp:35] Opened lmdb ../local_data/lmdb/rtsd-r1/histeq/test/lmdb
I0402 12:41:47.361703 15846 data_layer.cpp:41] output data size: 1024,3,48,48
I0402 12:41:47.406870 15846 net.cpp:150] Setting up data
I0402 12:41:47.406901 15846 net.cpp:157] Top shape: 1024 3 48 48 (7077888)
I0402 12:41:47.406906 15846 net.cpp:157] Top shape: 1024 (1024)
I0402 12:41:47.406909 15846 net.cpp:165] Memory required for data: 28315648
I0402 12:41:47.406915 15846 layer_factory.hpp:77] Creating layer label_data_1_split
I0402 12:41:47.406929 15846 net.cpp:100] Creating Layer label_data_1_split
I0402 12:41:47.406934 15846 net.cpp:434] label_data_1_split <- label
I0402 12:41:47.406940 15846 net.cpp:408] label_data_1_split -> label_data_1_split_0
I0402 12:41:47.406951 15846 net.cpp:408] label_data_1_split -> label_data_1_split_1
I0402 12:41:47.406960 15846 net.cpp:408] label_data_1_split -> label_data_1_split_2
I0402 12:41:47.407120 15846 net.cpp:150] Setting up label_data_1_split
I0402 12:41:47.407145 15846 net.cpp:157] Top shape: 1024 (1024)
I0402 12:41:47.407150 15846 net.cpp:157] Top shape: 1024 (1024)
I0402 12:41:47.407153 15846 net.cpp:157] Top shape: 1024 (1024)
I0402 12:41:47.407155 15846 net.cpp:165] Memory required for data: 28327936
I0402 12:41:47.407160 15846 layer_factory.hpp:77] Creating layer conv1
I0402 12:41:47.407172 15846 net.cpp:100] Creating Layer conv1
I0402 12:41:47.407178 15846 net.cpp:434] conv1 <- data
I0402 12:41:47.407184 15846 net.cpp:408] conv1 -> conv1
I0402 12:41:47.408917 15846 net.cpp:150] Setting up conv1
I0402 12:41:47.408936 15846 net.cpp:157] Top shape: 1024 100 42 42 (180633600)
I0402 12:41:47.408939 15846 net.cpp:165] Memory required for data: 750862336
I0402 12:41:47.408951 15846 layer_factory.hpp:77] Creating layer conv1_relu
I0402 12:41:47.408958 15846 net.cpp:100] Creating Layer conv1_relu
I0402 12:41:47.408962 15846 net.cpp:434] conv1_relu <- conv1
I0402 12:41:47.408967 15846 net.cpp:395] conv1_relu -> conv1 (in-place)
I0402 12:41:47.409219 15846 net.cpp:150] Setting up conv1_relu
I0402 12:41:47.409230 15846 net.cpp:157] Top shape: 1024 100 42 42 (180633600)
I0402 12:41:47.409234 15846 net.cpp:165] Memory required for data: 1473396736
I0402 12:41:47.409237 15846 layer_factory.hpp:77] Creating layer pool1
I0402 12:41:47.409245 15846 net.cpp:100] Creating Layer pool1
I0402 12:41:47.409248 15846 net.cpp:434] pool1 <- conv1
I0402 12:41:47.409255 15846 net.cpp:408] pool1 -> pool1
I0402 12:41:47.411469 15846 net.cpp:150] Setting up pool1
I0402 12:41:47.411479 15846 net.cpp:157] Top shape: 1024 100 21 21 (45158400)
I0402 12:41:47.411483 15846 net.cpp:165] Memory required for data: 1654030336
I0402 12:41:47.411485 15846 layer_factory.hpp:77] Creating layer conv2
I0402 12:41:47.411505 15846 net.cpp:100] Creating Layer conv2
I0402 12:41:47.411510 15846 net.cpp:434] conv2 <- pool1
I0402 12:41:47.411515 15846 net.cpp:408] conv2 -> conv2
I0402 12:41:47.415271 15846 net.cpp:150] Setting up conv2
I0402 12:41:47.415288 15846 net.cpp:157] Top shape: 1024 150 18 18 (49766400)
I0402 12:41:47.415292 15846 net.cpp:165] Memory required for data: 1853095936
I0402 12:41:47.415313 15846 layer_factory.hpp:77] Creating layer conv2_relu
I0402 12:41:47.415321 15846 net.cpp:100] Creating Layer conv2_relu
I0402 12:41:47.415326 15846 net.cpp:434] conv2_relu <- conv2
I0402 12:41:47.415331 15846 net.cpp:395] conv2_relu -> conv2 (in-place)
I0402 12:41:47.416095 15846 net.cpp:150] Setting up conv2_relu
I0402 12:41:47.416115 15846 net.cpp:157] Top shape: 1024 150 18 18 (49766400)
I0402 12:41:47.416117 15846 net.cpp:165] Memory required for data: 2052161536
I0402 12:41:47.416121 15846 layer_factory.hpp:77] Creating layer pool2
I0402 12:41:47.416128 15846 net.cpp:100] Creating Layer pool2
I0402 12:41:47.416131 15846 net.cpp:434] pool2 <- conv2
I0402 12:41:47.416136 15846 net.cpp:408] pool2 -> pool2
I0402 12:41:47.416190 15846 net.cpp:150] Setting up pool2
I0402 12:41:47.416199 15846 net.cpp:157] Top shape: 1024 150 9 9 (12441600)
I0402 12:41:47.416203 15846 net.cpp:165] Memory required for data: 2101927936
I0402 12:41:47.416204 15846 layer_factory.hpp:77] Creating layer conv3
I0402 12:41:47.416215 15846 net.cpp:100] Creating Layer conv3
I0402 12:41:47.416219 15846 net.cpp:434] conv3 <- pool2
I0402 12:41:47.416225 15846 net.cpp:408] conv3 -> conv3
I0402 12:41:47.421758 15846 net.cpp:150] Setting up conv3
I0402 12:41:47.421777 15846 net.cpp:157] Top shape: 1024 250 6 6 (9216000)
I0402 12:41:47.421779 15846 net.cpp:165] Memory required for data: 2138791936
I0402 12:41:47.421789 15846 layer_factory.hpp:77] Creating layer conv3_relu
I0402 12:41:47.421797 15846 net.cpp:100] Creating Layer conv3_relu
I0402 12:41:47.421802 15846 net.cpp:434] conv3_relu <- conv3
I0402 12:41:47.421823 15846 net.cpp:395] conv3_relu -> conv3 (in-place)
I0402 12:41:47.422608 15846 net.cpp:150] Setting up conv3_relu
I0402 12:41:47.422624 15846 net.cpp:157] Top shape: 1024 250 6 6 (9216000)
I0402 12:41:47.422627 15846 net.cpp:165] Memory required for data: 2175655936
I0402 12:41:47.422642 15846 layer_factory.hpp:77] Creating layer pool3
I0402 12:41:47.422664 15846 net.cpp:100] Creating Layer pool3
I0402 12:41:47.422670 15846 net.cpp:434] pool3 <- conv3
I0402 12:41:47.422675 15846 net.cpp:408] pool3 -> pool3
I0402 12:41:47.422726 15846 net.cpp:150] Setting up pool3
I0402 12:41:47.422735 15846 net.cpp:157] Top shape: 1024 250 3 3 (2304000)
I0402 12:41:47.422739 15846 net.cpp:165] Memory required for data: 2184871936
I0402 12:41:47.422741 15846 layer_factory.hpp:77] Creating layer fc4_300
I0402 12:41:47.422747 15846 net.cpp:100] Creating Layer fc4_300
I0402 12:41:47.422752 15846 net.cpp:434] fc4_300 <- pool3
I0402 12:41:47.422757 15846 net.cpp:408] fc4_300 -> fc4_300
I0402 12:41:47.428149 15846 net.cpp:150] Setting up fc4_300
I0402 12:41:47.428169 15846 net.cpp:157] Top shape: 1024 300 (307200)
I0402 12:41:47.428171 15846 net.cpp:165] Memory required for data: 2186100736
I0402 12:41:47.428179 15846 layer_factory.hpp:77] Creating layer fc4_relu
I0402 12:41:47.428186 15846 net.cpp:100] Creating Layer fc4_relu
I0402 12:41:47.428191 15846 net.cpp:434] fc4_relu <- fc4_300
I0402 12:41:47.428196 15846 net.cpp:395] fc4_relu -> fc4_300 (in-place)
I0402 12:41:47.428396 15846 net.cpp:150] Setting up fc4_relu
I0402 12:41:47.428408 15846 net.cpp:157] Top shape: 1024 300 (307200)
I0402 12:41:47.428411 15846 net.cpp:165] Memory required for data: 2187329536
I0402 12:41:47.428416 15846 layer_factory.hpp:77] Creating layer drop4
I0402 12:41:47.428421 15846 net.cpp:100] Creating Layer drop4
I0402 12:41:47.428426 15846 net.cpp:434] drop4 <- fc4_300
I0402 12:41:47.428431 15846 net.cpp:395] drop4 -> fc4_300 (in-place)
I0402 12:41:47.428462 15846 net.cpp:150] Setting up drop4
I0402 12:41:47.428468 15846 net.cpp:157] Top shape: 1024 300 (307200)
I0402 12:41:47.428472 15846 net.cpp:165] Memory required for data: 2188558336
I0402 12:41:47.428474 15846 layer_factory.hpp:77] Creating layer fc5_67
I0402 12:41:47.428480 15846 net.cpp:100] Creating Layer fc5_67
I0402 12:41:47.428483 15846 net.cpp:434] fc5_67 <- fc4_300
I0402 12:41:47.428488 15846 net.cpp:408] fc5_67 -> fc5_classes
I0402 12:41:47.428737 15846 net.cpp:150] Setting up fc5_67
I0402 12:41:47.428746 15846 net.cpp:157] Top shape: 1024 67 (68608)
I0402 12:41:47.428750 15846 net.cpp:165] Memory required for data: 2188832768
I0402 12:41:47.428758 15846 layer_factory.hpp:77] Creating layer fc5_classes_fc5_67_0_split
I0402 12:41:47.428766 15846 net.cpp:100] Creating Layer fc5_classes_fc5_67_0_split
I0402 12:41:47.428771 15846 net.cpp:434] fc5_classes_fc5_67_0_split <- fc5_classes
I0402 12:41:47.428776 15846 net.cpp:408] fc5_classes_fc5_67_0_split -> fc5_classes_fc5_67_0_split_0
I0402 12:41:47.428782 15846 net.cpp:408] fc5_classes_fc5_67_0_split -> fc5_classes_fc5_67_0_split_1
I0402 12:41:47.428788 15846 net.cpp:408] fc5_classes_fc5_67_0_split -> fc5_classes_fc5_67_0_split_2
I0402 12:41:47.428841 15846 net.cpp:150] Setting up fc5_classes_fc5_67_0_split
I0402 12:41:47.428848 15846 net.cpp:157] Top shape: 1024 67 (68608)
I0402 12:41:47.428851 15846 net.cpp:157] Top shape: 1024 67 (68608)
I0402 12:41:47.428854 15846 net.cpp:157] Top shape: 1024 67 (68608)
I0402 12:41:47.428858 15846 net.cpp:165] Memory required for data: 2189656064
I0402 12:41:47.428860 15846 layer_factory.hpp:77] Creating layer loss
I0402 12:41:47.428867 15846 net.cpp:100] Creating Layer loss
I0402 12:41:47.428874 15846 net.cpp:434] loss <- fc5_classes_fc5_67_0_split_0
I0402 12:41:47.428877 15846 net.cpp:434] loss <- label_data_1_split_0
I0402 12:41:47.428882 15846 net.cpp:408] loss -> loss
…
