…
I0402 05:10:44.014559 12111 net.cpp:322] The NetState phase (0) differed from the phase (1) specified by a rule in layer accuracy_5
I0402 05:10:44.014645 12111 net.cpp:58] Initializing net from parameters: 
state {
  phase: TRAIN
  level: 0
  stage: ""
}
layer {
  name: "data"
  type: "Data"
  top: "data"
  top: "label"
  include {
    phase: TRAIN
  }
  transform_param {
    mirror: false
    crop_size: 48
    mean_value: 135
    mean_value: 128
    mean_value: 128
  }
  data_param {
    source: "../local_data/lmdb/rtsd-r3/histeq/train/lmdb"
    batch_size: 1024
    backend: LMDB
  }
}
layer {
  name: "conv1"
  type: "Convolution"
  bottom: "data"
  top: "conv1"
  convolution_param {
    num_output: 100
    pad: 0
    kernel_size: 7
    group: 1
    stride: 1
    weight_filler {
      type: "xavier"
    }
  }
}
layer {
  name: "conv1_relu"
  type: "ReLU"
  bottom: "conv1"
  top: "conv1"
}
layer {
  name: "pool1"
  type: "Pooling"
  bottom: "conv1"
  top: "pool1"
  pooling_param {
    pool: MAX
    kernel_size: 2
    stride: 2
  }
}
layer {
  name: "conv2"
  type: "Convolution"
  bottom: "pool1"
  top: "conv2"
  convolution_param {
    num_output: 150
    pad: 0
    kernel_size: 4
    group: 1
    stride: 1
    weight_filler {
      type: "xavier"
    }
  }
}
layer {
  name: "conv2_relu"
  type: "ReLU"
  bottom: "conv2"
  top: "conv2"
}
layer {
  name: "pool2"
  type: "Pooling"
  bottom: "conv2"
  top: "pool2"
  pooling_param {
    pool: MAX
    kernel_size: 2
    stride: 2
  }
}
layer {
  name: "conv3"
  type: "Convolution"
  bottom: "pool2"
  top: "conv3"
  convolution_param {
    num_output: 250
    pad: 0
    kernel_size: 4
    group: 1
    stride: 1
    weight_filler {
      type: "xavier"
    }
  }
}
layer {
  name: "conv3_relu"
  type: "ReLU"
  bottom: "conv3"
  top: "conv3"
}
layer {
  name: "pool3"
  type: "Pooling"
  bottom: "conv3"
  top: "pool3"
  pooling_param {
    pool: MAX
    kernel_size: 2
    stride: 2
  }
}
layer {
  name: "fc4_300"
  type: "InnerProduct"
  bottom: "pool3"
  top: "fc4_300"
  inner_product_param {
    num_output: 300
    weight_filler {
      type: "xavier"
    }
  }
}
layer {
  name: "fc4_relu"
  type: "ReLU"
  bottom: "fc4_300"
  top: "fc4_300"
}
layer {
  name: "drop4"
  type: "Dropout"
  bottom: "fc4_300"
  top: "fc4_300"
  dropout_param {
    dropout_ratio: 0.4
  }
}
layer {
  name: "fc5_106"
  type: "InnerProduct"
  bottom: "fc4_300"
  top: "fc5_classes"
  inner_product_param {
    num_output: 106
    weight_filler {
      type: "xavier"
    }
  }
}
layer {
  name: "loss"
  type: "SoftmaxWithLoss"
  bottom: "fc5_classes"
  bottom: "label"
  top: "loss"
}
I0402 05:10:44.014739 12111 layer_factory.hpp:77] Creating layer data
I0402 05:10:44.015799 12111 net.cpp:100] Creating Layer data
I0402 05:10:44.015815 12111 net.cpp:408] data -> data
I0402 05:10:44.015836 12111 net.cpp:408] data -> label
I0402 05:10:44.017331 12164 db_lmdb.cpp:35] Opened lmdb ../local_data/lmdb/rtsd-r3/histeq/train/lmdb
I0402 05:10:44.034723 12111 data_layer.cpp:41] output data size: 1024,3,48,48
I0402 05:10:44.078467 12111 net.cpp:150] Setting up data
I0402 05:10:44.078512 12111 net.cpp:157] Top shape: 1024 3 48 48 (7077888)
I0402 05:10:44.078519 12111 net.cpp:157] Top shape: 1024 (1024)
I0402 05:10:44.078522 12111 net.cpp:165] Memory required for data: 28315648
I0402 05:10:44.078557 12111 layer_factory.hpp:77] Creating layer conv1
I0402 05:10:44.078580 12111 net.cpp:100] Creating Layer conv1
I0402 05:10:44.078588 12111 net.cpp:434] conv1 <- data
I0402 05:10:44.078603 12111 net.cpp:408] conv1 -> conv1
I0402 05:10:44.340066 12111 net.cpp:150] Setting up conv1
I0402 05:10:44.340108 12111 net.cpp:157] Top shape: 1024 100 42 42 (180633600)
I0402 05:10:44.340112 12111 net.cpp:165] Memory required for data: 750850048
I0402 05:10:44.340145 12111 layer_factory.hpp:77] Creating layer conv1_relu
I0402 05:10:44.340158 12111 net.cpp:100] Creating Layer conv1_relu
I0402 05:10:44.340164 12111 net.cpp:434] conv1_relu <- conv1
I0402 05:10:44.340171 12111 net.cpp:395] conv1_relu -> conv1 (in-place)
I0402 05:10:44.340404 12111 net.cpp:150] Setting up conv1_relu
I0402 05:10:44.340418 12111 net.cpp:157] Top shape: 1024 100 42 42 (180633600)
I0402 05:10:44.340421 12111 net.cpp:165] Memory required for data: 1473384448
I0402 05:10:44.340425 12111 layer_factory.hpp:77] Creating layer pool1
I0402 05:10:44.340433 12111 net.cpp:100] Creating Layer pool1
I0402 05:10:44.340436 12111 net.cpp:434] pool1 <- conv1
I0402 05:10:44.340442 12111 net.cpp:408] pool1 -> pool1
I0402 05:10:44.340500 12111 net.cpp:150] Setting up pool1
I0402 05:10:44.340510 12111 net.cpp:157] Top shape: 1024 100 21 21 (45158400)
I0402 05:10:44.340513 12111 net.cpp:165] Memory required for data: 1654018048
I0402 05:10:44.340517 12111 layer_factory.hpp:77] Creating layer conv2
I0402 05:10:44.340529 12111 net.cpp:100] Creating Layer conv2
I0402 05:10:44.340535 12111 net.cpp:434] conv2 <- pool1
I0402 05:10:44.340543 12111 net.cpp:408] conv2 -> conv2
I0402 05:10:44.344972 12111 net.cpp:150] Setting up conv2
I0402 05:10:44.345001 12111 net.cpp:157] Top shape: 1024 150 18 18 (49766400)
I0402 05:10:44.345005 12111 net.cpp:165] Memory required for data: 1853083648
I0402 05:10:44.345016 12111 layer_factory.hpp:77] Creating layer conv2_relu
I0402 05:10:44.345022 12111 net.cpp:100] Creating Layer conv2_relu
I0402 05:10:44.345026 12111 net.cpp:434] conv2_relu <- conv2
I0402 05:10:44.345031 12111 net.cpp:395] conv2_relu -> conv2 (in-place)
I0402 05:10:44.345862 12111 net.cpp:150] Setting up conv2_relu
I0402 05:10:44.345890 12111 net.cpp:157] Top shape: 1024 150 18 18 (49766400)
I0402 05:10:44.345893 12111 net.cpp:165] Memory required for data: 2052149248
I0402 05:10:44.345909 12111 layer_factory.hpp:77] Creating layer pool2
I0402 05:10:44.345916 12111 net.cpp:100] Creating Layer pool2
I0402 05:10:44.345919 12111 net.cpp:434] pool2 <- conv2
I0402 05:10:44.345927 12111 net.cpp:408] pool2 -> pool2
I0402 05:10:44.345975 12111 net.cpp:150] Setting up pool2
I0402 05:10:44.345984 12111 net.cpp:157] Top shape: 1024 150 9 9 (12441600)
I0402 05:10:44.345988 12111 net.cpp:165] Memory required for data: 2101915648
I0402 05:10:44.345990 12111 layer_factory.hpp:77] Creating layer conv3
I0402 05:10:44.346004 12111 net.cpp:100] Creating Layer conv3
I0402 05:10:44.346011 12111 net.cpp:434] conv3 <- pool2
I0402 05:10:44.346019 12111 net.cpp:408] conv3 -> conv3
I0402 05:10:44.351270 12111 net.cpp:150] Setting up conv3
I0402 05:10:44.351285 12111 net.cpp:157] Top shape: 1024 250 6 6 (9216000)
I0402 05:10:44.351300 12111 net.cpp:165] Memory required for data: 2138779648
I0402 05:10:44.351310 12111 layer_factory.hpp:77] Creating layer conv3_relu
I0402 05:10:44.351320 12111 net.cpp:100] Creating Layer conv3_relu
I0402 05:10:44.351336 12111 net.cpp:434] conv3_relu <- conv3
I0402 05:10:44.351344 12111 net.cpp:395] conv3_relu -> conv3 (in-place)
I0402 05:10:44.352166 12111 net.cpp:150] Setting up conv3_relu
I0402 05:10:44.352200 12111 net.cpp:157] Top shape: 1024 250 6 6 (9216000)
I0402 05:10:44.352205 12111 net.cpp:165] Memory required for data: 2175643648
I0402 05:10:44.352210 12111 layer_factory.hpp:77] Creating layer pool3
I0402 05:10:44.352218 12111 net.cpp:100] Creating Layer pool3
I0402 05:10:44.352221 12111 net.cpp:434] pool3 <- conv3
I0402 05:10:44.352227 12111 net.cpp:408] pool3 -> pool3
I0402 05:10:44.352289 12111 net.cpp:150] Setting up pool3
I0402 05:10:44.352315 12111 net.cpp:157] Top shape: 1024 250 3 3 (2304000)
I0402 05:10:44.352319 12111 net.cpp:165] Memory required for data: 2184859648
I0402 05:10:44.352324 12111 layer_factory.hpp:77] Creating layer fc4_300
I0402 05:10:44.352330 12111 net.cpp:100] Creating Layer fc4_300
I0402 05:10:44.352334 12111 net.cpp:434] fc4_300 <- pool3
I0402 05:10:44.352341 12111 net.cpp:408] fc4_300 -> fc4_300
I0402 05:10:44.357537 12111 net.cpp:150] Setting up fc4_300
I0402 05:10:44.357553 12111 net.cpp:157] Top shape: 1024 300 (307200)
I0402 05:10:44.357568 12111 net.cpp:165] Memory required for data: 2186088448
I0402 05:10:44.357574 12111 layer_factory.hpp:77] Creating layer fc4_relu
I0402 05:10:44.357580 12111 net.cpp:100] Creating Layer fc4_relu
I0402 05:10:44.357584 12111 net.cpp:434] fc4_relu <- fc4_300
I0402 05:10:44.357602 12111 net.cpp:395] fc4_relu -> fc4_300 (in-place)
I0402 05:10:44.357820 12111 net.cpp:150] Setting up fc4_relu
I0402 05:10:44.357832 12111 net.cpp:157] Top shape: 1024 300 (307200)
I0402 05:10:44.357836 12111 net.cpp:165] Memory required for data: 2187317248
I0402 05:10:44.357839 12111 layer_factory.hpp:77] Creating layer drop4
I0402 05:10:44.357847 12111 net.cpp:100] Creating Layer drop4
I0402 05:10:44.357851 12111 net.cpp:434] drop4 <- fc4_300
I0402 05:10:44.357856 12111 net.cpp:395] drop4 -> fc4_300 (in-place)
I0402 05:10:44.357890 12111 net.cpp:150] Setting up drop4
I0402 05:10:44.357899 12111 net.cpp:157] Top shape: 1024 300 (307200)
I0402 05:10:44.357903 12111 net.cpp:165] Memory required for data: 2188546048
I0402 05:10:44.357905 12111 layer_factory.hpp:77] Creating layer fc5_106
I0402 05:10:44.357911 12111 net.cpp:100] Creating Layer fc5_106
I0402 05:10:44.357915 12111 net.cpp:434] fc5_106 <- fc4_300
I0402 05:10:44.357923 12111 net.cpp:408] fc5_106 -> fc5_classes
I0402 05:10:44.359251 12111 net.cpp:150] Setting up fc5_106
I0402 05:10:44.359266 12111 net.cpp:157] Top shape: 1024 106 (108544)
I0402 05:10:44.359280 12111 net.cpp:165] Memory required for data: 2188980224
I0402 05:10:44.359290 12111 layer_factory.hpp:77] Creating layer loss
I0402 05:10:44.359297 12111 net.cpp:100] Creating Layer loss
I0402 05:10:44.359302 12111 net.cpp:434] loss <- fc5_classes
I0402 05:10:44.359305 12111 net.cpp:434] loss <- label
I0402 05:10:44.359313 12111 net.cpp:408] loss -> loss
I0402 05:10:44.359336 12111 layer_factory.hpp:77] Creating layer loss
…
I0402 05:10:44.360026 12111 solver.cpp:193] Creating test net (#0) specified by test_net file: ./Prototxt/rtsd-r3/histeq/test.prototxt
I0402 05:10:44.360167 12111 net.cpp:58] Initializing net from parameters: 
state {
  phase: TEST
}
layer {
  name: "data"
  type: "Data"
  top: "data"
  top: "label"
  include {
    phase: TEST
  }
  transform_param {
    mirror: false
    crop_size: 48
    mean_value: 133
    mean_value: 128
    mean_value: 129
  }
  data_param {
    source: "../local_data/lmdb/rtsd-r3/histeq/test/lmdb"
    batch_size: 1024
    backend: LMDB
  }
}
layer {
  name: "conv1"
  type: "Convolution"
  bottom: "data"
  top: "conv1"
  convolution_param {
    num_output: 100
    pad: 0
    kernel_size: 7
    group: 1
    stride: 1
    weight_filler {
      type: "xavier"
    }
  }
}
layer {
  name: "conv1_relu"
  type: "ReLU"
  bottom: "conv1"
  top: "conv1"
}
layer {
  name: "pool1"
  type: "Pooling"
  bottom: "conv1"
  top: "pool1"
  pooling_param {
    pool: MAX
    kernel_size: 2
    stride: 2
  }
}
layer {
  name: "conv2"
  type: "Convolution"
  bottom: "pool1"
  top: "conv2"
  convolution_param {
    num_output: 150
    pad: 0
    kernel_size: 4
    group: 1
    stride: 1
    weight_filler {
      type: "xavier"
    }
  }
}
layer {
  name: "conv2_relu"
  type: "ReLU"
  bottom: "conv2"
  top: "conv2"
}
layer {
  name: "pool2"
  type: "Pooling"
  bottom: "conv2"
  top: "pool2"
  pooling_param {
    pool: MAX
    kernel_size: 2
    stride: 2
  }
}
layer {
  name: "conv3"
  type: "Convolution"
  bottom: "pool2"
  top: "conv3"
  convolution_param {
    num_output: 250
    pad: 0
    kernel_size: 4
    group: 1
    stride: 1
    weight_filler {
      type: "xavier"
    }
  }
}
layer {
  name: "conv3_relu"
  type: "ReLU"
  bottom: "conv3"
  top: "conv3"
}
layer {
  name: "pool3"
  type: "Pooling"
  bottom: "conv3"
  top: "pool3"
  pooling_param {
    pool: MAX
    kernel_size: 2
    stride: 2
  }
}
layer {
  name: "fc4_300"
  type: "InnerProduct"
  bottom: "pool3"
  top: "fc4_300"
  inner_product_param {
    num_output: 300
    weight_filler {
      type: "xavier"
    }
  }
}
layer {
  name: "fc4_relu"
  type: "ReLU"
  bottom: "fc4_300"
  top: "fc4_300"
}
layer {
  name: "drop4"
  type: "Dropout"
  bottom: "fc4_300"
  top: "fc4_300"
  dropout_param {
    dropout_ratio: 0.4
  }
}
layer {
  name: "fc5_106"
  type: "InnerProduct"
  bottom: "fc4_300"
  top: "fc5_classes"
  inner_product_param {
    num_output: 106
    weight_filler {
      type: "xavier"
    }
  }
}
layer {
  name: "loss"
  type: "SoftmaxWithLoss"
  bottom: "fc5_classes"
  bottom: "label"
  top: "loss"
}
layer {
  name: "accuracy_1"
  type: "Accuracy"
  bottom: "fc5_classes"
  bottom: "label"
  top: "accuracy_1"
  include {
    phase: TEST
  }
  accuracy_param {
    top_k: 1
  }
}
layer {
  name: "accuracy_5"
  type: "Accuracy"
  bottom: "fc5_classes"
  bottom: "label"
  top: "accuracy_5"
  include {
    phase: TEST
  }
  accuracy_param {
    top_k: 5
  }
}
I0402 05:10:44.360268 12111 layer_factory.hpp:77] Creating layer data
I0402 05:10:44.360955 12111 net.cpp:100] Creating Layer data
I0402 05:10:44.360967 12111 net.cpp:408] data -> data
I0402 05:10:44.360978 12111 net.cpp:408] data -> label
I0402 05:10:44.362197 12172 db_lmdb.cpp:35] Opened lmdb ../local_data/lmdb/rtsd-r3/histeq/test/lmdb
I0402 05:10:44.362376 12111 data_layer.cpp:41] output data size: 1024,3,48,48
I0402 05:10:44.415567 12111 net.cpp:150] Setting up data
I0402 05:10:44.415608 12111 net.cpp:157] Top shape: 1024 3 48 48 (7077888)
I0402 05:10:44.415614 12111 net.cpp:157] Top shape: 1024 (1024)
I0402 05:10:44.415617 12111 net.cpp:165] Memory required for data: 28315648
I0402 05:10:44.415623 12111 layer_factory.hpp:77] Creating layer label_data_1_split
I0402 05:10:44.415642 12111 net.cpp:100] Creating Layer label_data_1_split
I0402 05:10:44.415647 12111 net.cpp:434] label_data_1_split <- label
I0402 05:10:44.415659 12111 net.cpp:408] label_data_1_split -> label_data_1_split_0
I0402 05:10:44.415673 12111 net.cpp:408] label_data_1_split -> label_data_1_split_1
I0402 05:10:44.415681 12111 net.cpp:408] label_data_1_split -> label_data_1_split_2
I0402 05:10:44.415778 12111 net.cpp:150] Setting up label_data_1_split
I0402 05:10:44.415807 12111 net.cpp:157] Top shape: 1024 (1024)
I0402 05:10:44.415812 12111 net.cpp:157] Top shape: 1024 (1024)
I0402 05:10:44.415814 12111 net.cpp:157] Top shape: 1024 (1024)
I0402 05:10:44.415817 12111 net.cpp:165] Memory required for data: 28327936
I0402 05:10:44.415820 12111 layer_factory.hpp:77] Creating layer conv1
I0402 05:10:44.415835 12111 net.cpp:100] Creating Layer conv1
I0402 05:10:44.415840 12111 net.cpp:434] conv1 <- data
I0402 05:10:44.415848 12111 net.cpp:408] conv1 -> conv1
I0402 05:10:44.419845 12111 net.cpp:150] Setting up conv1
I0402 05:10:44.419865 12111 net.cpp:157] Top shape: 1024 100 42 42 (180633600)
I0402 05:10:44.419869 12111 net.cpp:165] Memory required for data: 750862336
I0402 05:10:44.419881 12111 layer_factory.hpp:77] Creating layer conv1_relu
I0402 05:10:44.419894 12111 net.cpp:100] Creating Layer conv1_relu
I0402 05:10:44.419898 12111 net.cpp:434] conv1_relu <- conv1
I0402 05:10:44.419903 12111 net.cpp:395] conv1_relu -> conv1 (in-place)
I0402 05:10:44.420119 12111 net.cpp:150] Setting up conv1_relu
I0402 05:10:44.420135 12111 net.cpp:157] Top shape: 1024 100 42 42 (180633600)
I0402 05:10:44.420138 12111 net.cpp:165] Memory required for data: 1473396736
I0402 05:10:44.420141 12111 layer_factory.hpp:77] Creating layer pool1
I0402 05:10:44.420151 12111 net.cpp:100] Creating Layer pool1
I0402 05:10:44.420155 12111 net.cpp:434] pool1 <- conv1
I0402 05:10:44.420168 12111 net.cpp:408] pool1 -> pool1
I0402 05:10:44.420223 12111 net.cpp:150] Setting up pool1
I0402 05:10:44.420233 12111 net.cpp:157] Top shape: 1024 100 21 21 (45158400)
I0402 05:10:44.420235 12111 net.cpp:165] Memory required for data: 1654030336
I0402 05:10:44.420238 12111 layer_factory.hpp:77] Creating layer conv2
I0402 05:10:44.420264 12111 net.cpp:100] Creating Layer conv2
I0402 05:10:44.420267 12111 net.cpp:434] conv2 <- pool1
I0402 05:10:44.420275 12111 net.cpp:408] conv2 -> conv2
I0402 05:10:44.424276 12111 net.cpp:150] Setting up conv2
I0402 05:10:44.424294 12111 net.cpp:157] Top shape: 1024 150 18 18 (49766400)
I0402 05:10:44.424299 12111 net.cpp:165] Memory required for data: 1853095936
I0402 05:10:44.424309 12111 layer_factory.hpp:77] Creating layer conv2_relu
I0402 05:10:44.424317 12111 net.cpp:100] Creating Layer conv2_relu
I0402 05:10:44.424321 12111 net.cpp:434] conv2_relu <- conv2
I0402 05:10:44.424329 12111 net.cpp:395] conv2_relu -> conv2 (in-place)
I0402 05:10:44.425129 12111 net.cpp:150] Setting up conv2_relu
I0402 05:10:44.425159 12111 net.cpp:157] Top shape: 1024 150 18 18 (49766400)
I0402 05:10:44.425163 12111 net.cpp:165] Memory required for data: 2052161536
I0402 05:10:44.425166 12111 layer_factory.hpp:77] Creating layer pool2
I0402 05:10:44.425175 12111 net.cpp:100] Creating Layer pool2
I0402 05:10:44.425179 12111 net.cpp:434] pool2 <- conv2
I0402 05:10:44.425189 12111 net.cpp:408] pool2 -> pool2
I0402 05:10:44.425245 12111 net.cpp:150] Setting up pool2
I0402 05:10:44.425254 12111 net.cpp:157] Top shape: 1024 150 9 9 (12441600)
I0402 05:10:44.425257 12111 net.cpp:165] Memory required for data: 2101927936
I0402 05:10:44.425261 12111 layer_factory.hpp:77] Creating layer conv3
I0402 05:10:44.425271 12111 net.cpp:100] Creating Layer conv3
I0402 05:10:44.425276 12111 net.cpp:434] conv3 <- pool2
I0402 05:10:44.425283 12111 net.cpp:408] conv3 -> conv3
I0402 05:10:44.430760 12111 net.cpp:150] Setting up conv3
I0402 05:10:44.430778 12111 net.cpp:157] Top shape: 1024 250 6 6 (9216000)
I0402 05:10:44.430794 12111 net.cpp:165] Memory required for data: 2138791936
I0402 05:10:44.430804 12111 layer_factory.hpp:77] Creating layer conv3_relu
I0402 05:10:44.430812 12111 net.cpp:100] Creating Layer conv3_relu
I0402 05:10:44.430829 12111 net.cpp:434] conv3_relu <- conv3
I0402 05:10:44.430836 12111 net.cpp:395] conv3_relu -> conv3 (in-place)
I0402 05:10:44.431680 12111 net.cpp:150] Setting up conv3_relu
I0402 05:10:44.431697 12111 net.cpp:157] Top shape: 1024 250 6 6 (9216000)
I0402 05:10:44.431700 12111 net.cpp:165] Memory required for data: 2175655936
I0402 05:10:44.431704 12111 layer_factory.hpp:77] Creating layer pool3
I0402 05:10:44.431727 12111 net.cpp:100] Creating Layer pool3
I0402 05:10:44.431732 12111 net.cpp:434] pool3 <- conv3
I0402 05:10:44.431740 12111 net.cpp:408] pool3 -> pool3
I0402 05:10:44.431797 12111 net.cpp:150] Setting up pool3
I0402 05:10:44.431807 12111 net.cpp:157] Top shape: 1024 250 3 3 (2304000)
I0402 05:10:44.431809 12111 net.cpp:165] Memory required for data: 2184871936
I0402 05:10:44.431813 12111 layer_factory.hpp:77] Creating layer fc4_300
I0402 05:10:44.431823 12111 net.cpp:100] Creating Layer fc4_300
I0402 05:10:44.431825 12111 net.cpp:434] fc4_300 <- pool3
I0402 05:10:44.431831 12111 net.cpp:408] fc4_300 -> fc4_300
I0402 05:10:44.437360 12111 net.cpp:150] Setting up fc4_300
I0402 05:10:44.437377 12111 net.cpp:157] Top shape: 1024 300 (307200)
I0402 05:10:44.437381 12111 net.cpp:165] Memory required for data: 2186100736
I0402 05:10:44.437389 12111 layer_factory.hpp:77] Creating layer fc4_relu
I0402 05:10:44.437397 12111 net.cpp:100] Creating Layer fc4_relu
I0402 05:10:44.437405 12111 net.cpp:434] fc4_relu <- fc4_300
I0402 05:10:44.437412 12111 net.cpp:395] fc4_relu -> fc4_300 (in-place)
I0402 05:10:44.437624 12111 net.cpp:150] Setting up fc4_relu
I0402 05:10:44.437638 12111 net.cpp:157] Top shape: 1024 300 (307200)
I0402 05:10:44.437641 12111 net.cpp:165] Memory required for data: 2187329536
I0402 05:10:44.437645 12111 layer_factory.hpp:77] Creating layer drop4
I0402 05:10:44.437652 12111 net.cpp:100] Creating Layer drop4
I0402 05:10:44.437655 12111 net.cpp:434] drop4 <- fc4_300
I0402 05:10:44.437661 12111 net.cpp:395] drop4 -> fc4_300 (in-place)
I0402 05:10:44.437700 12111 net.cpp:150] Setting up drop4
I0402 05:10:44.437708 12111 net.cpp:157] Top shape: 1024 300 (307200)
I0402 05:10:44.437712 12111 net.cpp:165] Memory required for data: 2188558336
I0402 05:10:44.437716 12111 layer_factory.hpp:77] Creating layer fc5_106
I0402 05:10:44.437722 12111 net.cpp:100] Creating Layer fc5_106
I0402 05:10:44.437726 12111 net.cpp:434] fc5_106 <- fc4_300
I0402 05:10:44.437733 12111 net.cpp:408] fc5_106 -> fc5_classes
I0402 05:10:44.438064 12111 net.cpp:150] Setting up fc5_106
I0402 05:10:44.438076 12111 net.cpp:157] Top shape: 1024 106 (108544)
I0402 05:10:44.438079 12111 net.cpp:165] Memory required for data: 2188992512
I0402 05:10:44.438088 12111 layer_factory.hpp:77] Creating layer fc5_classes_fc5_106_0_split
I0402 05:10:44.438099 12111 net.cpp:100] Creating Layer fc5_classes_fc5_106_0_split
I0402 05:10:44.438104 12111 net.cpp:434] fc5_classes_fc5_106_0_split <- fc5_classes
I0402 05:10:44.438110 12111 net.cpp:408] fc5_classes_fc5_106_0_split -> fc5_classes_fc5_106_0_split_0
I0402 05:10:44.438117 12111 net.cpp:408] fc5_classes_fc5_106_0_split -> fc5_classes_fc5_106_0_split_1
I0402 05:10:44.438125 12111 net.cpp:408] fc5_classes_fc5_106_0_split -> fc5_classes_fc5_106_0_split_2
I0402 05:10:44.438184 12111 net.cpp:150] Setting up fc5_classes_fc5_106_0_split
I0402 05:10:44.438194 12111 net.cpp:157] Top shape: 1024 106 (108544)
I0402 05:10:44.438208 12111 net.cpp:157] Top shape: 1024 106 (108544)
I0402 05:10:44.438212 12111 net.cpp:157] Top shape: 1024 106 (108544)
I0402 05:10:44.438215 12111 net.cpp:165] Memory required for data: 2190295040
I0402 05:10:44.438218 12111 layer_factory.hpp:77] Creating layer loss
I0402 05:10:44.438227 12111 net.cpp:100] Creating Layer loss
I0402 05:10:44.438232 12111 net.cpp:434] loss <- fc5_classes_fc5_106_0_split_0
I0402 05:10:44.438237 12111 net.cpp:434] loss <- label_data_1_split_0
I0402 05:10:44.438243 12111 net.cpp:408] loss -> loss
…
