…
I0402 12:12:20.871233 28269 net.cpp:322] The NetState phase (0) differed from the phase (1) specified by a rule in layer accuracy_5
I0402 12:12:20.871351 28269 net.cpp:58] Initializing net from parameters: 
state {
  phase: TRAIN
  level: 0
  stage: ""
}
layer {
  name: "data"
  type: "Data"
  top: "data"
  top: "label"
  include {
    phase: TRAIN
  }
  transform_param {
    mirror: false
    crop_size: 48
    mean_value: 122
    mean_value: 115
    mean_value: 129
  }
  data_param {
    source: "../local_data/lmdb/rtsd-r1/orig/train/lmdb"
    batch_size: 1024
    backend: LMDB
  }
}
layer {
  name: "conv1"
  type: "Convolution"
  bottom: "data"
  top: "conv1"
  convolution_param {
    num_output: 100
    pad: 0
    kernel_size: 7
    group: 1
    stride: 1
    weight_filler {
      type: "xavier"
    }
  }
}
layer {
  name: "conv1_relu"
  type: "ReLU"
  bottom: "conv1"
  top: "conv1"
}
layer {
  name: "pool1"
  type: "Pooling"
  bottom: "conv1"
  top: "pool1"
  pooling_param {
    pool: MAX
    kernel_size: 2
    stride: 2
  }
}
layer {
  name: "conv2"
  type: "Convolution"
  bottom: "pool1"
  top: "conv2"
  convolution_param {
    num_output: 150
    pad: 0
    kernel_size: 4
    group: 1
    stride: 1
    weight_filler {
      type: "xavier"
    }
  }
}
layer {
  name: "conv2_relu"
  type: "ReLU"
  bottom: "conv2"
  top: "conv2"
}
layer {
  name: "pool2"
  type: "Pooling"
  bottom: "conv2"
  top: "pool2"
  pooling_param {
    pool: MAX
    kernel_size: 2
    stride: 2
  }
}
layer {
  name: "conv3"
  type: "Convolution"
  bottom: "pool2"
  top: "conv3"
  convolution_param {
    num_output: 250
    pad: 0
    kernel_size: 4
    group: 1
    stride: 1
    weight_filler {
      type: "xavier"
    }
  }
}
layer {
  name: "conv3_relu"
  type: "ReLU"
  bottom: "conv3"
  top: "conv3"
}
layer {
  name: "pool3"
  type: "Pooling"
  bottom: "conv3"
  top: "pool3"
  pooling_param {
    pool: MAX
    kernel_size: 2
    stride: 2
  }
}
layer {
  name: "fc4_300"
  type: "InnerProduct"
  bottom: "pool3"
  top: "fc4_300"
  inner_product_param {
    num_output: 300
    weight_filler {
      type: "xavier"
    }
  }
}
layer {
  name: "fc4_relu"
  type: "ReLU"
  bottom: "fc4_300"
  top: "fc4_300"
}
layer {
  name: "drop4"
  type: "Dropout"
  bottom: "fc4_300"
  top: "fc4_300"
  dropout_param {
    dropout_ratio: 0.4
  }
}
layer {
  name: "fc5_67"
  type: "InnerProduct"
  bottom: "fc4_300"
  top: "fc5_classes"
  inner_product_param {
    num_output: 67
    weight_filler {
      type: "xavier"
    }
  }
}
layer {
  name: "loss"
  type: "SoftmaxWithLoss"
  bottom: "fc5_classes"
  bottom: "label"
  top: "loss"
}
I0402 12:12:20.871435 28269 layer_factory.hpp:77] Creating layer data
I0402 12:12:20.872774 28269 net.cpp:100] Creating Layer data
I0402 12:12:20.872795 28269 net.cpp:408] data -> data
I0402 12:12:20.872822 28269 net.cpp:408] data -> label
I0402 12:12:20.874054 28326 db_lmdb.cpp:35] Opened lmdb ../local_data/lmdb/rtsd-r1/orig/train/lmdb
I0402 12:12:20.895330 28269 data_layer.cpp:41] output data size: 1024,3,48,48
I0402 12:12:20.956102 28269 net.cpp:150] Setting up data
I0402 12:12:20.956140 28269 net.cpp:157] Top shape: 1024 3 48 48 (7077888)
I0402 12:12:20.956146 28269 net.cpp:157] Top shape: 1024 (1024)
I0402 12:12:20.956149 28269 net.cpp:165] Memory required for data: 28315648
I0402 12:12:20.956181 28269 layer_factory.hpp:77] Creating layer conv1
I0402 12:12:20.956208 28269 net.cpp:100] Creating Layer conv1
I0402 12:12:20.956218 28269 net.cpp:434] conv1 <- data
I0402 12:12:20.956231 28269 net.cpp:408] conv1 -> conv1
I0402 12:12:21.229364 28269 net.cpp:150] Setting up conv1
I0402 12:12:21.229394 28269 net.cpp:157] Top shape: 1024 100 42 42 (180633600)
I0402 12:12:21.229398 28269 net.cpp:165] Memory required for data: 750850048
I0402 12:12:21.229419 28269 layer_factory.hpp:77] Creating layer conv1_relu
I0402 12:12:21.229431 28269 net.cpp:100] Creating Layer conv1_relu
I0402 12:12:21.229435 28269 net.cpp:434] conv1_relu <- conv1
I0402 12:12:21.229441 28269 net.cpp:395] conv1_relu -> conv1 (in-place)
I0402 12:12:21.229640 28269 net.cpp:150] Setting up conv1_relu
I0402 12:12:21.229652 28269 net.cpp:157] Top shape: 1024 100 42 42 (180633600)
I0402 12:12:21.229655 28269 net.cpp:165] Memory required for data: 1473384448
I0402 12:12:21.229658 28269 layer_factory.hpp:77] Creating layer pool1
I0402 12:12:21.229665 28269 net.cpp:100] Creating Layer pool1
I0402 12:12:21.229668 28269 net.cpp:434] pool1 <- conv1
I0402 12:12:21.229673 28269 net.cpp:408] pool1 -> pool1
I0402 12:12:21.229725 28269 net.cpp:150] Setting up pool1
I0402 12:12:21.229732 28269 net.cpp:157] Top shape: 1024 100 21 21 (45158400)
I0402 12:12:21.229734 28269 net.cpp:165] Memory required for data: 1654018048
I0402 12:12:21.229737 28269 layer_factory.hpp:77] Creating layer conv2
I0402 12:12:21.229748 28269 net.cpp:100] Creating Layer conv2
I0402 12:12:21.229751 28269 net.cpp:434] conv2 <- pool1
I0402 12:12:21.229756 28269 net.cpp:408] conv2 -> conv2
I0402 12:12:21.234048 28269 net.cpp:150] Setting up conv2
I0402 12:12:21.234066 28269 net.cpp:157] Top shape: 1024 150 18 18 (49766400)
I0402 12:12:21.234071 28269 net.cpp:165] Memory required for data: 1853083648
I0402 12:12:21.234079 28269 layer_factory.hpp:77] Creating layer conv2_relu
I0402 12:12:21.234087 28269 net.cpp:100] Creating Layer conv2_relu
I0402 12:12:21.234091 28269 net.cpp:434] conv2_relu <- conv2
I0402 12:12:21.234096 28269 net.cpp:395] conv2_relu -> conv2 (in-place)
I0402 12:12:21.234836 28269 net.cpp:150] Setting up conv2_relu
I0402 12:12:21.234853 28269 net.cpp:157] Top shape: 1024 150 18 18 (49766400)
I0402 12:12:21.234856 28269 net.cpp:165] Memory required for data: 2052149248
I0402 12:12:21.234859 28269 layer_factory.hpp:77] Creating layer pool2
I0402 12:12:21.234866 28269 net.cpp:100] Creating Layer pool2
I0402 12:12:21.234869 28269 net.cpp:434] pool2 <- conv2
I0402 12:12:21.234875 28269 net.cpp:408] pool2 -> pool2
I0402 12:12:21.234921 28269 net.cpp:150] Setting up pool2
I0402 12:12:21.234930 28269 net.cpp:157] Top shape: 1024 150 9 9 (12441600)
I0402 12:12:21.234933 28269 net.cpp:165] Memory required for data: 2101915648
I0402 12:12:21.234936 28269 layer_factory.hpp:77] Creating layer conv3
I0402 12:12:21.234944 28269 net.cpp:100] Creating Layer conv3
I0402 12:12:21.234949 28269 net.cpp:434] conv3 <- pool2
I0402 12:12:21.234954 28269 net.cpp:408] conv3 -> conv3
I0402 12:12:21.240315 28269 net.cpp:150] Setting up conv3
I0402 12:12:21.240334 28269 net.cpp:157] Top shape: 1024 250 6 6 (9216000)
I0402 12:12:21.240336 28269 net.cpp:165] Memory required for data: 2138779648
I0402 12:12:21.240346 28269 layer_factory.hpp:77] Creating layer conv3_relu
I0402 12:12:21.240355 28269 net.cpp:100] Creating Layer conv3_relu
I0402 12:12:21.240357 28269 net.cpp:434] conv3_relu <- conv3
I0402 12:12:21.240362 28269 net.cpp:395] conv3_relu -> conv3 (in-place)
I0402 12:12:21.241114 28269 net.cpp:150] Setting up conv3_relu
I0402 12:12:21.241130 28269 net.cpp:157] Top shape: 1024 250 6 6 (9216000)
I0402 12:12:21.241133 28269 net.cpp:165] Memory required for data: 2175643648
I0402 12:12:21.241137 28269 layer_factory.hpp:77] Creating layer pool3
I0402 12:12:21.241143 28269 net.cpp:100] Creating Layer pool3
I0402 12:12:21.241147 28269 net.cpp:434] pool3 <- conv3
I0402 12:12:21.241153 28269 net.cpp:408] pool3 -> pool3
I0402 12:12:21.241210 28269 net.cpp:150] Setting up pool3
I0402 12:12:21.241237 28269 net.cpp:157] Top shape: 1024 250 3 3 (2304000)
I0402 12:12:21.241243 28269 net.cpp:165] Memory required for data: 2184859648
I0402 12:12:21.241246 28269 layer_factory.hpp:77] Creating layer fc4_300
I0402 12:12:21.241255 28269 net.cpp:100] Creating Layer fc4_300
I0402 12:12:21.241257 28269 net.cpp:434] fc4_300 <- pool3
I0402 12:12:21.241262 28269 net.cpp:408] fc4_300 -> fc4_300
I0402 12:12:21.246552 28269 net.cpp:150] Setting up fc4_300
I0402 12:12:21.246569 28269 net.cpp:157] Top shape: 1024 300 (307200)
I0402 12:12:21.246572 28269 net.cpp:165] Memory required for data: 2186088448
I0402 12:12:21.246579 28269 layer_factory.hpp:77] Creating layer fc4_relu
I0402 12:12:21.246585 28269 net.cpp:100] Creating Layer fc4_relu
I0402 12:12:21.246588 28269 net.cpp:434] fc4_relu <- fc4_300
I0402 12:12:21.246593 28269 net.cpp:395] fc4_relu -> fc4_300 (in-place)
I0402 12:12:21.246778 28269 net.cpp:150] Setting up fc4_relu
I0402 12:12:21.246789 28269 net.cpp:157] Top shape: 1024 300 (307200)
I0402 12:12:21.246793 28269 net.cpp:165] Memory required for data: 2187317248
I0402 12:12:21.246795 28269 layer_factory.hpp:77] Creating layer drop4
I0402 12:12:21.246804 28269 net.cpp:100] Creating Layer drop4
I0402 12:12:21.246807 28269 net.cpp:434] drop4 <- fc4_300
I0402 12:12:21.246824 28269 net.cpp:395] drop4 -> fc4_300 (in-place)
I0402 12:12:21.246856 28269 net.cpp:150] Setting up drop4
I0402 12:12:21.246865 28269 net.cpp:157] Top shape: 1024 300 (307200)
I0402 12:12:21.246867 28269 net.cpp:165] Memory required for data: 2188546048
I0402 12:12:21.246870 28269 layer_factory.hpp:77] Creating layer fc5_67
I0402 12:12:21.246876 28269 net.cpp:100] Creating Layer fc5_67
I0402 12:12:21.246879 28269 net.cpp:434] fc5_67 <- fc4_300
I0402 12:12:21.246883 28269 net.cpp:408] fc5_67 -> fc5_classes
I0402 12:12:21.248100 28269 net.cpp:150] Setting up fc5_67
I0402 12:12:21.248114 28269 net.cpp:157] Top shape: 1024 67 (68608)
I0402 12:12:21.248131 28269 net.cpp:165] Memory required for data: 2188820480
I0402 12:12:21.248141 28269 layer_factory.hpp:77] Creating layer loss
I0402 12:12:21.248147 28269 net.cpp:100] Creating Layer loss
I0402 12:12:21.248152 28269 net.cpp:434] loss <- fc5_classes
I0402 12:12:21.248157 28269 net.cpp:434] loss <- label
I0402 12:12:21.248162 28269 net.cpp:408] loss -> loss
I0402 12:12:21.248173 28269 layer_factory.hpp:77] Creating layer loss
…
I0402 12:12:21.248868 28269 solver.cpp:193] Creating test net (#0) specified by test_net file: ./Prototxt/rtsd-r1/orig/test.prototxt
I0402 12:12:21.249011 28269 net.cpp:58] Initializing net from parameters: 
state {
  phase: TEST
}
layer {
  name: "data"
  type: "Data"
  top: "data"
  top: "label"
  include {
    phase: TEST
  }
  transform_param {
    mirror: false
    crop_size: 48
    mean_value: 113
    mean_value: 110
    mean_value: 132
  }
  data_param {
    source: "../local_data/lmdb/rtsd-r1/orig/test/lmdb"
    batch_size: 1024
    backend: LMDB
  }
}
layer {
  name: "conv1"
  type: "Convolution"
  bottom: "data"
  top: "conv1"
  convolution_param {
    num_output: 100
    pad: 0
    kernel_size: 7
    group: 1
    stride: 1
    weight_filler {
      type: "xavier"
    }
  }
}
layer {
  name: "conv1_relu"
  type: "ReLU"
  bottom: "conv1"
  top: "conv1"
}
layer {
  name: "pool1"
  type: "Pooling"
  bottom: "conv1"
  top: "pool1"
  pooling_param {
    pool: MAX
    kernel_size: 2
    stride: 2
  }
}
layer {
  name: "conv2"
  type: "Convolution"
  bottom: "pool1"
  top: "conv2"
  convolution_param {
    num_output: 150
    pad: 0
    kernel_size: 4
    group: 1
    stride: 1
    weight_filler {
      type: "xavier"
    }
  }
}
layer {
  name: "conv2_relu"
  type: "ReLU"
  bottom: "conv2"
  top: "conv2"
}
layer {
  name: "pool2"
  type: "Pooling"
  bottom: "conv2"
  top: "pool2"
  pooling_param {
    pool: MAX
    kernel_size: 2
    stride: 2
  }
}
layer {
  name: "conv3"
  type: "Convolution"
  bottom: "pool2"
  top: "conv3"
  convolution_param {
    num_output: 250
    pad: 0
    kernel_size: 4
    group: 1
    stride: 1
    weight_filler {
      type: "xavier"
    }
  }
}
layer {
  name: "conv3_relu"
  type: "ReLU"
  bottom: "conv3"
  top: "conv3"
}
layer {
  name: "pool3"
  type: "Pooling"
  bottom: "conv3"
  top: "pool3"
  pooling_param {
    pool: MAX
    kernel_size: 2
    stride: 2
  }
}
layer {
  name: "fc4_300"
  type: "InnerProduct"
  bottom: "pool3"
  top: "fc4_300"
  inner_product_param {
    num_output: 300
    weight_filler {
      type: "xavier"
    }
  }
}
layer {
  name: "fc4_relu"
  type: "ReLU"
  bottom: "fc4_300"
  top: "fc4_300"
}
layer {
  name: "drop4"
  type: "Dropout"
  bottom: "fc4_300"
  top: "fc4_300"
  dropout_param {
    dropout_ratio: 0.4
  }
}
layer {
  name: "fc5_67"
  type: "InnerProduct"
  bottom: "fc4_300"
  top: "fc5_classes"
  inner_product_param {
    num_output: 67
    weight_filler {
      type: "xavier"
    }
  }
}
layer {
  name: "loss"
  type: "SoftmaxWithLoss"
  bottom: "fc5_classes"
  bottom: "label"
  top: "loss"
}
layer {
  name: "accuracy_1"
  type: "Accuracy"
  bottom: "fc5_classes"
  bottom: "label"
  top: "accuracy_1"
  include {
    phase: TEST
  }
  accuracy_param {
    top_k: 1
  }
}
layer {
  name: "accuracy_5"
  type: "Accuracy"
  bottom: "fc5_classes"
  bottom: "label"
  top: "accuracy_5"
  include {
    phase: TEST
  }
  accuracy_param {
    top_k: 5
  }
}
I0402 12:12:21.249105 28269 layer_factory.hpp:77] Creating layer data
I0402 12:12:21.249784 28269 net.cpp:100] Creating Layer data
I0402 12:12:21.249796 28269 net.cpp:408] data -> data
I0402 12:12:21.249806 28269 net.cpp:408] data -> label
I0402 12:12:21.251003 28337 db_lmdb.cpp:35] Opened lmdb ../local_data/lmdb/rtsd-r1/orig/test/lmdb
I0402 12:12:21.251163 28269 data_layer.cpp:41] output data size: 1024,3,48,48
I0402 12:12:21.291801 28269 net.cpp:150] Setting up data
I0402 12:12:21.291831 28269 net.cpp:157] Top shape: 1024 3 48 48 (7077888)
I0402 12:12:21.291836 28269 net.cpp:157] Top shape: 1024 (1024)
I0402 12:12:21.291839 28269 net.cpp:165] Memory required for data: 28315648
I0402 12:12:21.291846 28269 layer_factory.hpp:77] Creating layer label_data_1_split
I0402 12:12:21.291860 28269 net.cpp:100] Creating Layer label_data_1_split
I0402 12:12:21.291864 28269 net.cpp:434] label_data_1_split <- label
I0402 12:12:21.291872 28269 net.cpp:408] label_data_1_split -> label_data_1_split_0
I0402 12:12:21.291894 28269 net.cpp:408] label_data_1_split -> label_data_1_split_1
I0402 12:12:21.291903 28269 net.cpp:408] label_data_1_split -> label_data_1_split_2
I0402 12:12:21.292052 28269 net.cpp:150] Setting up label_data_1_split
I0402 12:12:21.292081 28269 net.cpp:157] Top shape: 1024 (1024)
I0402 12:12:21.292085 28269 net.cpp:157] Top shape: 1024 (1024)
I0402 12:12:21.292088 28269 net.cpp:157] Top shape: 1024 (1024)
I0402 12:12:21.292091 28269 net.cpp:165] Memory required for data: 28327936
I0402 12:12:21.292094 28269 layer_factory.hpp:77] Creating layer conv1
I0402 12:12:21.292114 28269 net.cpp:100] Creating Layer conv1
I0402 12:12:21.292119 28269 net.cpp:434] conv1 <- data
I0402 12:12:21.292125 28269 net.cpp:408] conv1 -> conv1
I0402 12:12:21.296275 28269 net.cpp:150] Setting up conv1
I0402 12:12:21.296300 28269 net.cpp:157] Top shape: 1024 100 42 42 (180633600)
I0402 12:12:21.296305 28269 net.cpp:165] Memory required for data: 750862336
I0402 12:12:21.296317 28269 layer_factory.hpp:77] Creating layer conv1_relu
I0402 12:12:21.296329 28269 net.cpp:100] Creating Layer conv1_relu
I0402 12:12:21.296331 28269 net.cpp:434] conv1_relu <- conv1
I0402 12:12:21.296336 28269 net.cpp:395] conv1_relu -> conv1 (in-place)
I0402 12:12:21.296555 28269 net.cpp:150] Setting up conv1_relu
I0402 12:12:21.296568 28269 net.cpp:157] Top shape: 1024 100 42 42 (180633600)
I0402 12:12:21.296571 28269 net.cpp:165] Memory required for data: 1473396736
I0402 12:12:21.296574 28269 layer_factory.hpp:77] Creating layer pool1
I0402 12:12:21.296584 28269 net.cpp:100] Creating Layer pool1
I0402 12:12:21.296591 28269 net.cpp:434] pool1 <- conv1
I0402 12:12:21.296597 28269 net.cpp:408] pool1 -> pool1
I0402 12:12:21.296649 28269 net.cpp:150] Setting up pool1
I0402 12:12:21.296658 28269 net.cpp:157] Top shape: 1024 100 21 21 (45158400)
I0402 12:12:21.296661 28269 net.cpp:165] Memory required for data: 1654030336
I0402 12:12:21.296663 28269 layer_factory.hpp:77] Creating layer conv2
I0402 12:12:21.296674 28269 net.cpp:100] Creating Layer conv2
I0402 12:12:21.296676 28269 net.cpp:434] conv2 <- pool1
I0402 12:12:21.296681 28269 net.cpp:408] conv2 -> conv2
I0402 12:12:21.300626 28269 net.cpp:150] Setting up conv2
I0402 12:12:21.300643 28269 net.cpp:157] Top shape: 1024 150 18 18 (49766400)
I0402 12:12:21.300647 28269 net.cpp:165] Memory required for data: 1853095936
I0402 12:12:21.300670 28269 layer_factory.hpp:77] Creating layer conv2_relu
I0402 12:12:21.300678 28269 net.cpp:100] Creating Layer conv2_relu
I0402 12:12:21.300681 28269 net.cpp:434] conv2_relu <- conv2
I0402 12:12:21.300686 28269 net.cpp:395] conv2_relu -> conv2 (in-place)
I0402 12:12:21.301532 28269 net.cpp:150] Setting up conv2_relu
I0402 12:12:21.301547 28269 net.cpp:157] Top shape: 1024 150 18 18 (49766400)
I0402 12:12:21.301549 28269 net.cpp:165] Memory required for data: 2052161536
I0402 12:12:21.301554 28269 layer_factory.hpp:77] Creating layer pool2
I0402 12:12:21.301561 28269 net.cpp:100] Creating Layer pool2
I0402 12:12:21.301564 28269 net.cpp:434] pool2 <- conv2
I0402 12:12:21.301571 28269 net.cpp:408] pool2 -> pool2
I0402 12:12:21.301641 28269 net.cpp:150] Setting up pool2
I0402 12:12:21.301651 28269 net.cpp:157] Top shape: 1024 150 9 9 (12441600)
I0402 12:12:21.301653 28269 net.cpp:165] Memory required for data: 2101927936
I0402 12:12:21.301657 28269 layer_factory.hpp:77] Creating layer conv3
I0402 12:12:21.301671 28269 net.cpp:100] Creating Layer conv3
I0402 12:12:21.301673 28269 net.cpp:434] conv3 <- pool2
I0402 12:12:21.301679 28269 net.cpp:408] conv3 -> conv3
I0402 12:12:21.307271 28269 net.cpp:150] Setting up conv3
I0402 12:12:21.307288 28269 net.cpp:157] Top shape: 1024 250 6 6 (9216000)
I0402 12:12:21.307291 28269 net.cpp:165] Memory required for data: 2138791936
I0402 12:12:21.307317 28269 layer_factory.hpp:77] Creating layer conv3_relu
I0402 12:12:21.307325 28269 net.cpp:100] Creating Layer conv3_relu
I0402 12:12:21.307329 28269 net.cpp:434] conv3_relu <- conv3
I0402 12:12:21.307334 28269 net.cpp:395] conv3_relu -> conv3 (in-place)
I0402 12:12:21.308125 28269 net.cpp:150] Setting up conv3_relu
I0402 12:12:21.308143 28269 net.cpp:157] Top shape: 1024 250 6 6 (9216000)
I0402 12:12:21.308148 28269 net.cpp:165] Memory required for data: 2175655936
I0402 12:12:21.308152 28269 layer_factory.hpp:77] Creating layer pool3
I0402 12:12:21.308176 28269 net.cpp:100] Creating Layer pool3
I0402 12:12:21.308181 28269 net.cpp:434] pool3 <- conv3
I0402 12:12:21.308187 28269 net.cpp:408] pool3 -> pool3
I0402 12:12:21.308253 28269 net.cpp:150] Setting up pool3
I0402 12:12:21.308262 28269 net.cpp:157] Top shape: 1024 250 3 3 (2304000)
I0402 12:12:21.308274 28269 net.cpp:165] Memory required for data: 2184871936
I0402 12:12:21.308279 28269 layer_factory.hpp:77] Creating layer fc4_300
I0402 12:12:21.308289 28269 net.cpp:100] Creating Layer fc4_300
I0402 12:12:21.308293 28269 net.cpp:434] fc4_300 <- pool3
I0402 12:12:21.308298 28269 net.cpp:408] fc4_300 -> fc4_300
I0402 12:12:21.313664 28269 net.cpp:150] Setting up fc4_300
I0402 12:12:21.313680 28269 net.cpp:157] Top shape: 1024 300 (307200)
I0402 12:12:21.313684 28269 net.cpp:165] Memory required for data: 2186100736
I0402 12:12:21.313704 28269 layer_factory.hpp:77] Creating layer fc4_relu
I0402 12:12:21.313712 28269 net.cpp:100] Creating Layer fc4_relu
I0402 12:12:21.313719 28269 net.cpp:434] fc4_relu <- fc4_300
I0402 12:12:21.313724 28269 net.cpp:395] fc4_relu -> fc4_300 (in-place)
I0402 12:12:21.313930 28269 net.cpp:150] Setting up fc4_relu
I0402 12:12:21.313943 28269 net.cpp:157] Top shape: 1024 300 (307200)
I0402 12:12:21.313951 28269 net.cpp:165] Memory required for data: 2187329536
I0402 12:12:21.313956 28269 layer_factory.hpp:77] Creating layer drop4
I0402 12:12:21.313962 28269 net.cpp:100] Creating Layer drop4
I0402 12:12:21.313966 28269 net.cpp:434] drop4 <- fc4_300
I0402 12:12:21.313971 28269 net.cpp:395] drop4 -> fc4_300 (in-place)
I0402 12:12:21.314003 28269 net.cpp:150] Setting up drop4
I0402 12:12:21.314013 28269 net.cpp:157] Top shape: 1024 300 (307200)
I0402 12:12:21.314015 28269 net.cpp:165] Memory required for data: 2188558336
I0402 12:12:21.314018 28269 layer_factory.hpp:77] Creating layer fc5_67
I0402 12:12:21.314025 28269 net.cpp:100] Creating Layer fc5_67
I0402 12:12:21.314030 28269 net.cpp:434] fc5_67 <- fc4_300
I0402 12:12:21.314034 28269 net.cpp:408] fc5_67 -> fc5_classes
I0402 12:12:21.314296 28269 net.cpp:150] Setting up fc5_67
I0402 12:12:21.314304 28269 net.cpp:157] Top shape: 1024 67 (68608)
I0402 12:12:21.314307 28269 net.cpp:165] Memory required for data: 2188832768
I0402 12:12:21.314316 28269 layer_factory.hpp:77] Creating layer fc5_classes_fc5_67_0_split
I0402 12:12:21.314326 28269 net.cpp:100] Creating Layer fc5_classes_fc5_67_0_split
I0402 12:12:21.314328 28269 net.cpp:434] fc5_classes_fc5_67_0_split <- fc5_classes
I0402 12:12:21.314335 28269 net.cpp:408] fc5_classes_fc5_67_0_split -> fc5_classes_fc5_67_0_split_0
I0402 12:12:21.314355 28269 net.cpp:408] fc5_classes_fc5_67_0_split -> fc5_classes_fc5_67_0_split_1
I0402 12:12:21.314365 28269 net.cpp:408] fc5_classes_fc5_67_0_split -> fc5_classes_fc5_67_0_split_2
I0402 12:12:21.314422 28269 net.cpp:150] Setting up fc5_classes_fc5_67_0_split
I0402 12:12:21.314429 28269 net.cpp:157] Top shape: 1024 67 (68608)
I0402 12:12:21.314434 28269 net.cpp:157] Top shape: 1024 67 (68608)
I0402 12:12:21.314436 28269 net.cpp:157] Top shape: 1024 67 (68608)
I0402 12:12:21.314438 28269 net.cpp:165] Memory required for data: 2189656064
I0402 12:12:21.314441 28269 layer_factory.hpp:77] Creating layer loss
I0402 12:12:21.314451 28269 net.cpp:100] Creating Layer loss
I0402 12:12:21.314456 28269 net.cpp:434] loss <- fc5_classes_fc5_67_0_split_0
I0402 12:12:21.314460 28269 net.cpp:434] loss <- label_data_1_split_0
I0402 12:12:21.314465 28269 net.cpp:408] loss -> loss
…
