…
I0414 19:09:46.675408 24682 solver.cpp:93] Creating training net from train_net file: ./Prototxt/experiment_10/rtsd-r3/AHE/trial_4/train.prototxt
I0414 19:09:46.721474 24682 net.cpp:58] Initializing net from parameters: 
state {
  phase: TRAIN
  level: 0
  stage: ""
}
layer {
  name: "data"
  type: "Data"
  top: "data"
  top: "label"
  include {
    phase: TRAIN
  }
  transform_param {
    scale: 0.0039215689
    mirror: false
    crop_size: 48
    mean_value: 133
    mean_value: 126
    mean_value: 125
  }
  data_param {
    source: "../local_data/lmdb/rtsd-r3/AHE/train/lmdb"
    batch_size: 1024
    backend: LMDB
  }
}
layer {
  name: "conv1"
  type: "Convolution"
  bottom: "data"
  top: "conv1"
  convolution_param {
    num_output: 100
    pad: 0
    kernel_size: 7
    group: 1
    stride: 1
    weight_filler {
      type: "xavier"
    }
  }
}
layer {
  name: "conv1_relu"
  type: "ReLU"
  bottom: "conv1"
  top: "conv1"
}
layer {
  name: "pool1"
  type: "Pooling"
  bottom: "conv1"
  top: "pool1"
  pooling_param {
    pool: MAX
    kernel_size: 2
    stride: 2
  }
}
layer {
  name: "conv2"
  type: "Convolution"
  bottom: "pool1"
  top: "conv2"
  convolution_param {
    num_output: 150
    pad: 0
    kernel_size: 4
    group: 1
    stride: 1
    weight_filler {
      type: "xavier"
    }
  }
}
layer {
  name: "conv2_relu"
  type: "ReLU"
  bottom: "conv2"
  top: "conv2"
}
layer {
  name: "pool2"
  type: "Pooling"
  bottom: "conv2"
  top: "pool2"
  pooling_param {
    pool: MAX
    kernel_size: 2
    stride: 2
  }
}
layer {
  name: "conv3"
  type: "Convolution"
  bottom: "pool2"
  top: "conv3"
  convolution_param {
    num_output: 250
    pad: 0
    kernel_size: 4
    group: 1
    stride: 1
    weight_filler {
      type: "xavier"
    }
  }
}
layer {
  name: "conv3_relu"
  type: "ReLU"
  bottom: "conv3"
  top: "conv3"
}
layer {
  name: "pool3"
  type: "Pooling"
  bottom: "conv3"
  top: "pool3"
  pooling_param {
    pool: MAX
    kernel_size: 2
    stride: 2
  }
}
layer {
  name: "fc4_300"
  type: "InnerProduct"
  bottom: "pool3"
  top: "fc4_300"
  inner_product_param {
    num_output: 300
    weight_filler {
      type: "xavier"
    }
  }
}
layer {
  name: "fc4_relu"
  type: "ReLU"
  bottom: "fc4_300"
  top: "fc4_300"
}
layer {
  name: "fc5_106"
  type: "InnerProduct"
  bottom: "fc4_300"
  top: "fc5_classes"
  inner_product_param {
    num_output: 106
    weight_filler {
      type: "xavier"
    }
  }
}
layer {
  name: "softmax"
  type: "Softmax"
  bottom: "fc5_classes"
  top: "softmax"
}
layer {
  name: "loss"
  type: "MultinomialLogisticLoss"
  bottom: "softmax"
  bottom: "label"
  top: "loss"
}
layer {
  name: "accuracy_1"
  type: "Accuracy"
  bottom: "fc5_classes"
  bottom: "label"
  top: "accuracy_1"
  accuracy_param {
    top_k: 1
  }
}
layer {
  name: "accuracy_5"
  type: "Accuracy"
  bottom: "fc5_classes"
  bottom: "label"
  top: "accuracy_5"
  accuracy_param {
    top_k: 5
  }
}
layer {
  name: "silence"
  type: "Silence"
  bottom: "accuracy_1"
  bottom: "accuracy_5"
}
I0414 19:09:46.721606 24682 layer_factory.hpp:77] Creating layer data
I0414 19:09:46.722682 24682 net.cpp:100] Creating Layer data
I0414 19:09:46.722699 24682 net.cpp:408] data -> data
I0414 19:09:46.722723 24682 net.cpp:408] data -> label
I0414 19:09:46.725818 24794 db_lmdb.cpp:35] Opened lmdb ../local_data/lmdb/rtsd-r3/AHE/train/lmdb
I0414 19:09:46.743858 24682 data_layer.cpp:41] output data size: 1024,3,48,48
I0414 19:09:46.805104 24682 net.cpp:150] Setting up data
I0414 19:09:46.805160 24682 net.cpp:157] Top shape: 1024 3 48 48 (7077888)
I0414 19:09:46.805166 24682 net.cpp:157] Top shape: 1024 (1024)
I0414 19:09:46.805168 24682 net.cpp:165] Memory required for data: 28315648
I0414 19:09:46.805179 24682 layer_factory.hpp:77] Creating layer label_data_1_split
I0414 19:09:46.805194 24682 net.cpp:100] Creating Layer label_data_1_split
I0414 19:09:46.805202 24682 net.cpp:434] label_data_1_split <- label
I0414 19:09:46.805215 24682 net.cpp:408] label_data_1_split -> label_data_1_split_0
I0414 19:09:46.805227 24682 net.cpp:408] label_data_1_split -> label_data_1_split_1
I0414 19:09:46.805235 24682 net.cpp:408] label_data_1_split -> label_data_1_split_2
I0414 19:09:46.805305 24682 net.cpp:150] Setting up label_data_1_split
I0414 19:09:46.805312 24682 net.cpp:157] Top shape: 1024 (1024)
I0414 19:09:46.805316 24682 net.cpp:157] Top shape: 1024 (1024)
I0414 19:09:46.805320 24682 net.cpp:157] Top shape: 1024 (1024)
I0414 19:09:46.805322 24682 net.cpp:165] Memory required for data: 28327936
I0414 19:09:46.805325 24682 layer_factory.hpp:77] Creating layer conv1
I0414 19:09:46.805342 24682 net.cpp:100] Creating Layer conv1
I0414 19:09:46.805347 24682 net.cpp:434] conv1 <- data
I0414 19:09:46.805353 24682 net.cpp:408] conv1 -> conv1
I0414 19:09:47.203323 24682 net.cpp:150] Setting up conv1
I0414 19:09:47.203351 24682 net.cpp:157] Top shape: 1024 100 42 42 (180633600)
I0414 19:09:47.203356 24682 net.cpp:165] Memory required for data: 750862336
I0414 19:09:47.203377 24682 layer_factory.hpp:77] Creating layer conv1_relu
I0414 19:09:47.203387 24682 net.cpp:100] Creating Layer conv1_relu
I0414 19:09:47.203392 24682 net.cpp:434] conv1_relu <- conv1
I0414 19:09:47.203397 24682 net.cpp:395] conv1_relu -> conv1 (in-place)
I0414 19:09:47.203591 24682 net.cpp:150] Setting up conv1_relu
I0414 19:09:47.203603 24682 net.cpp:157] Top shape: 1024 100 42 42 (180633600)
I0414 19:09:47.203606 24682 net.cpp:165] Memory required for data: 1473396736
I0414 19:09:47.203610 24682 layer_factory.hpp:77] Creating layer pool1
I0414 19:09:47.203619 24682 net.cpp:100] Creating Layer pool1
I0414 19:09:47.203624 24682 net.cpp:434] pool1 <- conv1
I0414 19:09:47.203629 24682 net.cpp:408] pool1 -> pool1
I0414 19:09:47.203683 24682 net.cpp:150] Setting up pool1
I0414 19:09:47.203691 24682 net.cpp:157] Top shape: 1024 100 21 21 (45158400)
I0414 19:09:47.203694 24682 net.cpp:165] Memory required for data: 1654030336
I0414 19:09:47.203697 24682 layer_factory.hpp:77] Creating layer conv2
I0414 19:09:47.203707 24682 net.cpp:100] Creating Layer conv2
I0414 19:09:47.203711 24682 net.cpp:434] conv2 <- pool1
I0414 19:09:47.203716 24682 net.cpp:408] conv2 -> conv2
I0414 19:09:47.209822 24682 net.cpp:150] Setting up conv2
I0414 19:09:47.209838 24682 net.cpp:157] Top shape: 1024 150 18 18 (49766400)
I0414 19:09:47.209842 24682 net.cpp:165] Memory required for data: 1853095936
I0414 19:09:47.209852 24682 layer_factory.hpp:77] Creating layer conv2_relu
I0414 19:09:47.209858 24682 net.cpp:100] Creating Layer conv2_relu
I0414 19:09:47.209861 24682 net.cpp:434] conv2_relu <- conv2
I0414 19:09:47.209867 24682 net.cpp:395] conv2_relu -> conv2 (in-place)
I0414 19:09:47.211045 24682 net.cpp:150] Setting up conv2_relu
I0414 19:09:47.211061 24682 net.cpp:157] Top shape: 1024 150 18 18 (49766400)
I0414 19:09:47.211064 24682 net.cpp:165] Memory required for data: 2052161536
I0414 19:09:47.211067 24682 layer_factory.hpp:77] Creating layer pool2
I0414 19:09:47.211074 24682 net.cpp:100] Creating Layer pool2
I0414 19:09:47.211077 24682 net.cpp:434] pool2 <- conv2
I0414 19:09:47.211083 24682 net.cpp:408] pool2 -> pool2
I0414 19:09:47.211130 24682 net.cpp:150] Setting up pool2
I0414 19:09:47.211139 24682 net.cpp:157] Top shape: 1024 150 9 9 (12441600)
I0414 19:09:47.211143 24682 net.cpp:165] Memory required for data: 2101927936
I0414 19:09:47.211145 24682 layer_factory.hpp:77] Creating layer conv3
I0414 19:09:47.211154 24682 net.cpp:100] Creating Layer conv3
I0414 19:09:47.211159 24682 net.cpp:434] conv3 <- pool2
I0414 19:09:47.211164 24682 net.cpp:408] conv3 -> conv3
I0414 19:09:47.217418 24682 net.cpp:150] Setting up conv3
I0414 19:09:47.217435 24682 net.cpp:157] Top shape: 1024 250 6 6 (9216000)
I0414 19:09:47.217439 24682 net.cpp:165] Memory required for data: 2138791936
I0414 19:09:47.217448 24682 layer_factory.hpp:77] Creating layer conv3_relu
I0414 19:09:47.217455 24682 net.cpp:100] Creating Layer conv3_relu
I0414 19:09:47.217459 24682 net.cpp:434] conv3_relu <- conv3
I0414 19:09:47.217463 24682 net.cpp:395] conv3_relu -> conv3 (in-place)
I0414 19:09:47.219931 24682 net.cpp:150] Setting up conv3_relu
I0414 19:09:47.219947 24682 net.cpp:157] Top shape: 1024 250 6 6 (9216000)
I0414 19:09:47.219951 24682 net.cpp:165] Memory required for data: 2175655936
I0414 19:09:47.219954 24682 layer_factory.hpp:77] Creating layer pool3
I0414 19:09:47.219961 24682 net.cpp:100] Creating Layer pool3
I0414 19:09:47.219964 24682 net.cpp:434] pool3 <- conv3
I0414 19:09:47.219970 24682 net.cpp:408] pool3 -> pool3
I0414 19:09:47.220021 24682 net.cpp:150] Setting up pool3
I0414 19:09:47.220029 24682 net.cpp:157] Top shape: 1024 250 3 3 (2304000)
I0414 19:09:47.220032 24682 net.cpp:165] Memory required for data: 2184871936
I0414 19:09:47.220036 24682 layer_factory.hpp:77] Creating layer fc4_300
I0414 19:09:47.220041 24682 net.cpp:100] Creating Layer fc4_300
I0414 19:09:47.220044 24682 net.cpp:434] fc4_300 <- pool3
I0414 19:09:47.220049 24682 net.cpp:408] fc4_300 -> fc4_300
I0414 19:09:47.225847 24682 net.cpp:150] Setting up fc4_300
I0414 19:09:47.225862 24682 net.cpp:157] Top shape: 1024 300 (307200)
I0414 19:09:47.225865 24682 net.cpp:165] Memory required for data: 2186100736
I0414 19:09:47.225872 24682 layer_factory.hpp:77] Creating layer fc4_relu
I0414 19:09:47.225878 24682 net.cpp:100] Creating Layer fc4_relu
I0414 19:09:47.225883 24682 net.cpp:434] fc4_relu <- fc4_300
I0414 19:09:47.225888 24682 net.cpp:395] fc4_relu -> fc4_300 (in-place)
I0414 19:09:47.226069 24682 net.cpp:150] Setting up fc4_relu
I0414 19:09:47.226081 24682 net.cpp:157] Top shape: 1024 300 (307200)
I0414 19:09:47.226085 24682 net.cpp:165] Memory required for data: 2187329536
I0414 19:09:47.226089 24682 layer_factory.hpp:77] Creating layer fc5_106
I0414 19:09:47.226094 24682 net.cpp:100] Creating Layer fc5_106
I0414 19:09:47.226099 24682 net.cpp:434] fc5_106 <- fc4_300
I0414 19:09:47.226104 24682 net.cpp:408] fc5_106 -> fc5_classes
I0414 19:09:47.228705 24682 net.cpp:150] Setting up fc5_106
I0414 19:09:47.228721 24682 net.cpp:157] Top shape: 1024 106 (108544)
I0414 19:09:47.228724 24682 net.cpp:165] Memory required for data: 2187763712
I0414 19:09:47.228734 24682 layer_factory.hpp:77] Creating layer fc5_classes_fc5_106_0_split
I0414 19:09:47.228741 24682 net.cpp:100] Creating Layer fc5_classes_fc5_106_0_split
I0414 19:09:47.228745 24682 net.cpp:434] fc5_classes_fc5_106_0_split <- fc5_classes
I0414 19:09:47.228750 24682 net.cpp:408] fc5_classes_fc5_106_0_split -> fc5_classes_fc5_106_0_split_0
I0414 19:09:47.228757 24682 net.cpp:408] fc5_classes_fc5_106_0_split -> fc5_classes_fc5_106_0_split_1
I0414 19:09:47.228763 24682 net.cpp:408] fc5_classes_fc5_106_0_split -> fc5_classes_fc5_106_0_split_2
I0414 19:09:47.228813 24682 net.cpp:150] Setting up fc5_classes_fc5_106_0_split
I0414 19:09:47.228821 24682 net.cpp:157] Top shape: 1024 106 (108544)
I0414 19:09:47.228826 24682 net.cpp:157] Top shape: 1024 106 (108544)
I0414 19:09:47.228828 24682 net.cpp:157] Top shape: 1024 106 (108544)
I0414 19:09:47.228832 24682 net.cpp:165] Memory required for data: 2189066240
I0414 19:09:47.228834 24682 layer_factory.hpp:77] Creating layer softmax
I0414 19:09:47.228839 24682 net.cpp:100] Creating Layer softmax
I0414 19:09:47.228842 24682 net.cpp:434] softmax <- fc5_classes_fc5_106_0_split_0
I0414 19:09:47.228847 24682 net.cpp:408] softmax -> softmax
I0414 19:09:47.229090 24682 net.cpp:150] Setting up softmax
I0414 19:09:47.229102 24682 net.cpp:157] Top shape: 1024 106 (108544)
I0414 19:09:47.229105 24682 net.cpp:165] Memory required for data: 2189500416
I0414 19:09:47.229110 24682 layer_factory.hpp:77] Creating layer loss
I0414 19:09:47.229135 24682 net.cpp:100] Creating Layer loss
I0414 19:09:47.229140 24682 net.cpp:434] loss <- softmax
I0414 19:09:47.229143 24682 net.cpp:434] loss <- label_data_1_split_0
I0414 19:09:47.229148 24682 net.cpp:408] loss -> loss
…
