…
I0507 02:46:07.345511 27957 solver.cpp:93] Creating training net from train_net file: ./Prototxt/experiment_14/RTSD/AHE/trial_1/train.prototxt
I0507 02:46:07.345873 27957 net.cpp:58] Initializing net from parameters: 
state {
  phase: TRAIN
  level: 0
  stage: ""
}
layer {
  name: "data"
  type: "Data"
  top: "data"
  top: "label"
  include {
    phase: TRAIN
  }
  transform_param {
    scale: 0.0039215689
    mirror: false
    crop_size: 48
    mean_value: 133
    mean_value: 127
    mean_value: 126
  }
  data_param {
    source: "../local_data/lmdb/RTSD/AHE/train/lmdb"
    batch_size: 512
    backend: LMDB
  }
}
layer {
  name: "conv1"
  type: "Convolution"
  bottom: "data"
  top: "conv1"
  convolution_param {
    num_output: 100
    pad: 0
    kernel_size: 7
    group: 1
    stride: 1
    weight_filler {
      type: "xavier"
    }
  }
}
layer {
  name: "conv1_relu"
  type: "ReLU"
  bottom: "conv1"
  top: "conv1"
}
layer {
  name: "pool1"
  type: "Pooling"
  bottom: "conv1"
  top: "pool1"
  pooling_param {
    pool: MAX
    kernel_size: 2
    stride: 2
  }
}
layer {
  name: "conv2"
  type: "Convolution"
  bottom: "pool1"
  top: "conv2"
  convolution_param {
    num_output: 150
    pad: 0
    kernel_size: 4
    group: 1
    stride: 1
    weight_filler {
      type: "xavier"
    }
  }
}
layer {
  name: "conv2_relu"
  type: "ReLU"
  bottom: "conv2"
  top: "conv2"
}
layer {
  name: "pool2"
  type: "Pooling"
  bottom: "conv2"
  top: "pool2"
  pooling_param {
    pool: MAX
    kernel_size: 2
    stride: 2
  }
}
layer {
  name: "conv3"
  type: "Convolution"
  bottom: "pool2"
  top: "conv3"
  convolution_param {
    num_output: 250
    pad: 0
    kernel_size: 4
    group: 1
    stride: 1
    weight_filler {
      type: "xavier"
    }
  }
}
layer {
  name: "conv3_relu"
  type: "ReLU"
  bottom: "conv3"
  top: "conv3"
}
layer {
  name: "pool3"
  type: "Pooling"
  bottom: "conv3"
  top: "pool3"
  pooling_param {
    pool: MAX
    kernel_size: 2
    stride: 2
  }
}
layer {
  name: "fc4_300"
  type: "InnerProduct"
  bottom: "pool3"
  top: "fc4_300"
  inner_product_param {
    num_output: 300
    weight_filler {
      type: "xavier"
    }
  }
}
layer {
  name: "fc4_relu"
  type: "ReLU"
  bottom: "fc4_300"
  top: "fc4_300"
}
layer {
  name: "fc5_116"
  type: "InnerProduct"
  bottom: "fc4_300"
  top: "fc5_classes"
  inner_product_param {
    num_output: 116
    weight_filler {
      type: "xavier"
    }
  }
}
layer {
  name: "softmax"
  type: "Softmax"
  bottom: "fc5_classes"
  top: "softmax"
}
layer {
  name: "loss"
  type: "MultinomialLogisticLoss"
  bottom: "softmax"
  bottom: "label"
  top: "loss"
}
layer {
  name: "accuracy_1"
  type: "Accuracy"
  bottom: "fc5_classes"
  bottom: "label"
  top: "accuracy_1"
  accuracy_param {
    top_k: 1
  }
}
layer {
  name: "accuracy_5"
  type: "Accuracy"
  bottom: "fc5_classes"
  bottom: "label"
  top: "accuracy_5"
  accuracy_param {
    top_k: 5
  }
}
layer {
  name: "silence"
  type: "Silence"
  bottom: "accuracy_1"
  bottom: "accuracy_5"
}
I0507 02:46:07.346029 27957 layer_factory.hpp:77] Creating layer data
I0507 02:46:07.346791 27957 net.cpp:100] Creating Layer data
I0507 02:46:07.346806 27957 net.cpp:408] data -> data
I0507 02:46:07.346827 27957 net.cpp:408] data -> label
I0507 02:46:07.367414 28079 db_lmdb.cpp:35] Opened lmdb ../local_data/lmdb/RTSD/AHE/train/lmdb
I0507 02:46:07.400437 27957 data_layer.cpp:41] output data size: 512,3,48,48
I0507 02:46:07.444552 27957 net.cpp:150] Setting up data
I0507 02:46:07.444619 27957 net.cpp:157] Top shape: 512 3 48 48 (3538944)
I0507 02:46:07.444631 27957 net.cpp:157] Top shape: 512 (512)
I0507 02:46:07.444636 27957 net.cpp:165] Memory required for data: 14157824
I0507 02:46:07.444654 27957 layer_factory.hpp:77] Creating layer label_data_1_split
I0507 02:46:07.444676 27957 net.cpp:100] Creating Layer label_data_1_split
I0507 02:46:07.444685 27957 net.cpp:434] label_data_1_split <- label
I0507 02:46:07.444702 27957 net.cpp:408] label_data_1_split -> label_data_1_split_0
I0507 02:46:07.444716 27957 net.cpp:408] label_data_1_split -> label_data_1_split_1
I0507 02:46:07.444726 27957 net.cpp:408] label_data_1_split -> label_data_1_split_2
I0507 02:46:07.444809 27957 net.cpp:150] Setting up label_data_1_split
I0507 02:46:07.444821 27957 net.cpp:157] Top shape: 512 (512)
I0507 02:46:07.444828 27957 net.cpp:157] Top shape: 512 (512)
I0507 02:46:07.444831 27957 net.cpp:157] Top shape: 512 (512)
I0507 02:46:07.444836 27957 net.cpp:165] Memory required for data: 14163968
I0507 02:46:07.444840 27957 layer_factory.hpp:77] Creating layer conv1
I0507 02:46:07.444859 27957 net.cpp:100] Creating Layer conv1
I0507 02:46:07.444864 27957 net.cpp:434] conv1 <- data
I0507 02:46:07.444874 27957 net.cpp:408] conv1 -> conv1
I0507 02:46:07.858786 27957 net.cpp:150] Setting up conv1
I0507 02:46:07.858816 27957 net.cpp:157] Top shape: 512 100 42 42 (90316800)
I0507 02:46:07.858820 27957 net.cpp:165] Memory required for data: 375431168
I0507 02:46:07.858844 27957 layer_factory.hpp:77] Creating layer conv1_relu
I0507 02:46:07.858861 27957 net.cpp:100] Creating Layer conv1_relu
I0507 02:46:07.858866 27957 net.cpp:434] conv1_relu <- conv1
I0507 02:46:07.858872 27957 net.cpp:395] conv1_relu -> conv1 (in-place)
I0507 02:46:07.859092 27957 net.cpp:150] Setting up conv1_relu
I0507 02:46:07.859107 27957 net.cpp:157] Top shape: 512 100 42 42 (90316800)
I0507 02:46:07.859112 27957 net.cpp:165] Memory required for data: 736698368
I0507 02:46:07.859115 27957 layer_factory.hpp:77] Creating layer pool1
I0507 02:46:07.859127 27957 net.cpp:100] Creating Layer pool1
I0507 02:46:07.859132 27957 net.cpp:434] pool1 <- conv1
I0507 02:46:07.859138 27957 net.cpp:408] pool1 -> pool1
I0507 02:46:07.859196 27957 net.cpp:150] Setting up pool1
I0507 02:46:07.859205 27957 net.cpp:157] Top shape: 512 100 21 21 (22579200)
I0507 02:46:07.859210 27957 net.cpp:165] Memory required for data: 827015168
I0507 02:46:07.859212 27957 layer_factory.hpp:77] Creating layer conv2
I0507 02:46:07.859226 27957 net.cpp:100] Creating Layer conv2
I0507 02:46:07.859231 27957 net.cpp:434] conv2 <- pool1
I0507 02:46:07.859236 27957 net.cpp:408] conv2 -> conv2
I0507 02:46:07.871536 27957 net.cpp:150] Setting up conv2
I0507 02:46:07.871562 27957 net.cpp:157] Top shape: 512 150 18 18 (24883200)
I0507 02:46:07.871569 27957 net.cpp:165] Memory required for data: 926547968
I0507 02:46:07.871584 27957 layer_factory.hpp:77] Creating layer conv2_relu
I0507 02:46:07.871598 27957 net.cpp:100] Creating Layer conv2_relu
I0507 02:46:07.871606 27957 net.cpp:434] conv2_relu <- conv2
I0507 02:46:07.871618 27957 net.cpp:395] conv2_relu -> conv2 (in-place)
I0507 02:46:07.874346 27957 net.cpp:150] Setting up conv2_relu
I0507 02:46:07.874362 27957 net.cpp:157] Top shape: 512 150 18 18 (24883200)
I0507 02:46:07.874366 27957 net.cpp:165] Memory required for data: 1026080768
I0507 02:46:07.874370 27957 layer_factory.hpp:77] Creating layer pool2
I0507 02:46:07.874382 27957 net.cpp:100] Creating Layer pool2
I0507 02:46:07.874387 27957 net.cpp:434] pool2 <- conv2
I0507 02:46:07.874392 27957 net.cpp:408] pool2 -> pool2
I0507 02:46:07.874464 27957 net.cpp:150] Setting up pool2
I0507 02:46:07.874480 27957 net.cpp:157] Top shape: 512 150 9 9 (6220800)
I0507 02:46:07.874485 27957 net.cpp:165] Memory required for data: 1050963968
I0507 02:46:07.874488 27957 layer_factory.hpp:77] Creating layer conv3
I0507 02:46:07.874511 27957 net.cpp:100] Creating Layer conv3
I0507 02:46:07.874521 27957 net.cpp:434] conv3 <- pool2
I0507 02:46:07.874527 27957 net.cpp:408] conv3 -> conv3
I0507 02:46:07.885787 27957 net.cpp:150] Setting up conv3
I0507 02:46:07.885838 27957 net.cpp:157] Top shape: 512 250 6 6 (4608000)
I0507 02:46:07.885846 27957 net.cpp:165] Memory required for data: 1069395968
I0507 02:46:07.885865 27957 layer_factory.hpp:77] Creating layer conv3_relu
I0507 02:46:07.885881 27957 net.cpp:100] Creating Layer conv3_relu
I0507 02:46:07.885896 27957 net.cpp:434] conv3_relu <- conv3
I0507 02:46:07.885910 27957 net.cpp:395] conv3_relu -> conv3 (in-place)
I0507 02:46:07.908673 27957 net.cpp:150] Setting up conv3_relu
I0507 02:46:07.908695 27957 net.cpp:157] Top shape: 512 250 6 6 (4608000)
I0507 02:46:07.908702 27957 net.cpp:165] Memory required for data: 1087827968
I0507 02:46:07.908709 27957 layer_factory.hpp:77] Creating layer pool3
I0507 02:46:07.908726 27957 net.cpp:100] Creating Layer pool3
I0507 02:46:07.908738 27957 net.cpp:434] pool3 <- conv3
I0507 02:46:07.908748 27957 net.cpp:408] pool3 -> pool3
I0507 02:46:07.908828 27957 net.cpp:150] Setting up pool3
I0507 02:46:07.908845 27957 net.cpp:157] Top shape: 512 250 3 3 (1152000)
I0507 02:46:07.908854 27957 net.cpp:165] Memory required for data: 1092435968
I0507 02:46:07.908859 27957 layer_factory.hpp:77] Creating layer fc4_300
I0507 02:46:07.908869 27957 net.cpp:100] Creating Layer fc4_300
I0507 02:46:07.908877 27957 net.cpp:434] fc4_300 <- pool3
I0507 02:46:07.908891 27957 net.cpp:408] fc4_300 -> fc4_300
I0507 02:46:07.918838 27957 net.cpp:150] Setting up fc4_300
I0507 02:46:07.918859 27957 net.cpp:157] Top shape: 512 300 (153600)
I0507 02:46:07.918865 27957 net.cpp:165] Memory required for data: 1093050368
I0507 02:46:07.918877 27957 layer_factory.hpp:77] Creating layer fc4_relu
I0507 02:46:07.918889 27957 net.cpp:100] Creating Layer fc4_relu
I0507 02:46:07.918897 27957 net.cpp:434] fc4_relu <- fc4_300
I0507 02:46:07.918910 27957 net.cpp:395] fc4_relu -> fc4_300 (in-place)
I0507 02:46:07.919190 27957 net.cpp:150] Setting up fc4_relu
I0507 02:46:07.919209 27957 net.cpp:157] Top shape: 512 300 (153600)
I0507 02:46:07.919214 27957 net.cpp:165] Memory required for data: 1093664768
I0507 02:46:07.919219 27957 layer_factory.hpp:77] Creating layer fc5_116
I0507 02:46:07.919230 27957 net.cpp:100] Creating Layer fc5_116
I0507 02:46:07.919239 27957 net.cpp:434] fc5_116 <- fc4_300
I0507 02:46:07.919250 27957 net.cpp:408] fc5_116 -> fc5_classes
I0507 02:46:07.929157 27957 net.cpp:150] Setting up fc5_116
I0507 02:46:07.929178 27957 net.cpp:157] Top shape: 512 116 (59392)
I0507 02:46:07.929183 27957 net.cpp:165] Memory required for data: 1093902336
I0507 02:46:07.929201 27957 layer_factory.hpp:77] Creating layer fc5_classes_fc5_116_0_split
I0507 02:46:07.929219 27957 net.cpp:100] Creating Layer fc5_classes_fc5_116_0_split
I0507 02:46:07.929227 27957 net.cpp:434] fc5_classes_fc5_116_0_split <- fc5_classes
I0507 02:46:07.929239 27957 net.cpp:408] fc5_classes_fc5_116_0_split -> fc5_classes_fc5_116_0_split_0
I0507 02:46:07.929252 27957 net.cpp:408] fc5_classes_fc5_116_0_split -> fc5_classes_fc5_116_0_split_1
I0507 02:46:07.929265 27957 net.cpp:408] fc5_classes_fc5_116_0_split -> fc5_classes_fc5_116_0_split_2
I0507 02:46:07.929353 27957 net.cpp:150] Setting up fc5_classes_fc5_116_0_split
I0507 02:46:07.929368 27957 net.cpp:157] Top shape: 512 116 (59392)
I0507 02:46:07.929375 27957 net.cpp:157] Top shape: 512 116 (59392)
I0507 02:46:07.929381 27957 net.cpp:157] Top shape: 512 116 (59392)
I0507 02:46:07.929385 27957 net.cpp:165] Memory required for data: 1094615040
I0507 02:46:07.929391 27957 layer_factory.hpp:77] Creating layer softmax
I0507 02:46:07.929401 27957 net.cpp:100] Creating Layer softmax
I0507 02:46:07.929409 27957 net.cpp:434] softmax <- fc5_classes_fc5_116_0_split_0
I0507 02:46:07.929419 27957 net.cpp:408] softmax -> softmax
I0507 02:46:07.929826 27957 net.cpp:150] Setting up softmax
I0507 02:46:07.929847 27957 net.cpp:157] Top shape: 512 116 (59392)
I0507 02:46:07.929854 27957 net.cpp:165] Memory required for data: 1094852608
I0507 02:46:07.929860 27957 layer_factory.hpp:77] Creating layer loss
I0507 02:46:07.929877 27957 net.cpp:100] Creating Layer loss
I0507 02:46:07.929906 27957 net.cpp:434] loss <- softmax
I0507 02:46:07.929916 27957 net.cpp:434] loss <- label_data_1_split_0
I0507 02:46:07.929931 27957 net.cpp:408] loss -> loss
…
