…
I0402 13:52:25.313323  8943 net.cpp:322] The NetState phase (0) differed from the phase (1) specified by a rule in layer accuracy_5
I0402 13:52:25.313447  8943 net.cpp:58] Initializing net from parameters: 
state {
  phase: TRAIN
  level: 0
  stage: ""
}
layer {
  name: "data"
  type: "Data"
  top: "data"
  top: "label"
  include {
    phase: TRAIN
  }
  transform_param {
    mirror: false
    crop_size: 48
    mean_value: 135
    mean_value: 128
    mean_value: 128
  }
  data_param {
    source: "../local_data/lmdb/rtsd-r3/histeq/train/lmdb"
    batch_size: 1024
    backend: LMDB
  }
}
layer {
  name: "conv1"
  type: "Convolution"
  bottom: "data"
  top: "conv1"
  convolution_param {
    num_output: 100
    pad: 0
    kernel_size: 7
    group: 1
    stride: 1
    weight_filler {
      type: "xavier"
    }
  }
}
layer {
  name: "conv1_relu"
  type: "ReLU"
  bottom: "conv1"
  top: "conv1"
}
layer {
  name: "pool1"
  type: "Pooling"
  bottom: "conv1"
  top: "pool1"
  pooling_param {
    pool: MAX
    kernel_size: 2
    stride: 2
  }
}
layer {
  name: "conv2"
  type: "Convolution"
  bottom: "pool1"
  top: "conv2"
  convolution_param {
    num_output: 150
    pad: 0
    kernel_size: 4
    group: 1
    stride: 1
    weight_filler {
      type: "xavier"
    }
  }
}
layer {
  name: "conv2_relu"
  type: "ReLU"
  bottom: "conv2"
  top: "conv2"
}
layer {
  name: "pool2"
  type: "Pooling"
  bottom: "conv2"
  top: "pool2"
  pooling_param {
    pool: MAX
    kernel_size: 2
    stride: 2
  }
}
layer {
  name: "conv3"
  type: "Convolution"
  bottom: "pool2"
  top: "conv3"
  convolution_param {
    num_output: 250
    pad: 0
    kernel_size: 4
    group: 1
    stride: 1
    weight_filler {
      type: "xavier"
    }
  }
}
layer {
  name: "conv3_relu"
  type: "ReLU"
  bottom: "conv3"
  top: "conv3"
}
layer {
  name: "pool3"
  type: "Pooling"
  bottom: "conv3"
  top: "pool3"
  pooling_param {
    pool: MAX
    kernel_size: 2
    stride: 2
  }
}
layer {
  name: "fc4_300"
  type: "InnerProduct"
  bottom: "pool3"
  top: "fc4_300"
  inner_product_param {
    num_output: 300
    weight_filler {
      type: "xavier"
    }
  }
}
layer {
  name: "fc4_relu"
  type: "ReLU"
  bottom: "fc4_300"
  top: "fc4_300"
}
layer {
  name: "drop4"
  type: "Dropout"
  bottom: "fc4_300"
  top: "fc4_300"
  dropout_param {
    dropout_ratio: 0.4
  }
}
layer {
  name: "fc5_106"
  type: "InnerProduct"
  bottom: "fc4_300"
  top: "fc5_classes"
  inner_product_param {
    num_output: 106
    weight_filler {
      type: "xavier"
    }
  }
}
layer {
  name: "loss"
  type: "SoftmaxWithLoss"
  bottom: "fc5_classes"
  bottom: "label"
  top: "loss"
}
I0402 13:52:25.313555  8943 layer_factory.hpp:77] Creating layer data
I0402 13:52:25.314867  8943 net.cpp:100] Creating Layer data
I0402 13:52:25.314883  8943 net.cpp:408] data -> data
I0402 13:52:25.314908  8943 net.cpp:408] data -> label
I0402 13:52:25.317272  8995 db_lmdb.cpp:35] Opened lmdb ../local_data/lmdb/rtsd-r3/histeq/train/lmdb
I0402 13:52:25.413731  8943 data_layer.cpp:41] output data size: 1024,3,48,48
I0402 13:52:25.469439  8943 net.cpp:150] Setting up data
I0402 13:52:25.469475  8943 net.cpp:157] Top shape: 1024 3 48 48 (7077888)
I0402 13:52:25.469480  8943 net.cpp:157] Top shape: 1024 (1024)
I0402 13:52:25.469482  8943 net.cpp:165] Memory required for data: 28315648
I0402 13:52:25.469528  8943 layer_factory.hpp:77] Creating layer conv1
I0402 13:52:25.469552  8943 net.cpp:100] Creating Layer conv1
I0402 13:52:25.469560  8943 net.cpp:434] conv1 <- data
I0402 13:52:25.469574  8943 net.cpp:408] conv1 -> conv1
I0402 13:52:25.920616  8943 net.cpp:150] Setting up conv1
I0402 13:52:25.920650  8943 net.cpp:157] Top shape: 1024 100 42 42 (180633600)
I0402 13:52:25.920653  8943 net.cpp:165] Memory required for data: 750850048
I0402 13:52:25.920675  8943 layer_factory.hpp:77] Creating layer conv1_relu
I0402 13:52:25.920694  8943 net.cpp:100] Creating Layer conv1_relu
I0402 13:52:25.920699  8943 net.cpp:434] conv1_relu <- conv1
I0402 13:52:25.920717  8943 net.cpp:395] conv1_relu -> conv1 (in-place)
I0402 13:52:25.921743  8943 net.cpp:150] Setting up conv1_relu
I0402 13:52:25.921756  8943 net.cpp:157] Top shape: 1024 100 42 42 (180633600)
I0402 13:52:25.921758  8943 net.cpp:165] Memory required for data: 1473384448
I0402 13:52:25.921761  8943 layer_factory.hpp:77] Creating layer pool1
I0402 13:52:25.921769  8943 net.cpp:100] Creating Layer pool1
I0402 13:52:25.921772  8943 net.cpp:434] pool1 <- conv1
I0402 13:52:25.921777  8943 net.cpp:408] pool1 -> pool1
I0402 13:52:25.921847  8943 net.cpp:150] Setting up pool1
I0402 13:52:25.921856  8943 net.cpp:157] Top shape: 1024 100 21 21 (45158400)
I0402 13:52:25.921859  8943 net.cpp:165] Memory required for data: 1654018048
I0402 13:52:25.921862  8943 layer_factory.hpp:77] Creating layer conv2
I0402 13:52:25.921875  8943 net.cpp:100] Creating Layer conv2
I0402 13:52:25.921878  8943 net.cpp:434] conv2 <- pool1
I0402 13:52:25.921883  8943 net.cpp:408] conv2 -> conv2
I0402 13:52:25.929016  8943 net.cpp:150] Setting up conv2
I0402 13:52:25.929033  8943 net.cpp:157] Top shape: 1024 150 18 18 (49766400)
I0402 13:52:25.929036  8943 net.cpp:165] Memory required for data: 1853083648
I0402 13:52:25.929047  8943 layer_factory.hpp:77] Creating layer conv2_relu
I0402 13:52:25.929054  8943 net.cpp:100] Creating Layer conv2_relu
I0402 13:52:25.929056  8943 net.cpp:434] conv2_relu <- conv2
I0402 13:52:25.929061  8943 net.cpp:395] conv2_relu -> conv2 (in-place)
I0402 13:52:25.930619  8943 net.cpp:150] Setting up conv2_relu
I0402 13:52:25.930634  8943 net.cpp:157] Top shape: 1024 150 18 18 (49766400)
I0402 13:52:25.930637  8943 net.cpp:165] Memory required for data: 2052149248
I0402 13:52:25.930640  8943 layer_factory.hpp:77] Creating layer pool2
I0402 13:52:25.930649  8943 net.cpp:100] Creating Layer pool2
I0402 13:52:25.930651  8943 net.cpp:434] pool2 <- conv2
I0402 13:52:25.930656  8943 net.cpp:408] pool2 -> pool2
I0402 13:52:25.930716  8943 net.cpp:150] Setting up pool2
I0402 13:52:25.930723  8943 net.cpp:157] Top shape: 1024 150 9 9 (12441600)
I0402 13:52:25.930727  8943 net.cpp:165] Memory required for data: 2101915648
I0402 13:52:25.930729  8943 layer_factory.hpp:77] Creating layer conv3
I0402 13:52:25.930742  8943 net.cpp:100] Creating Layer conv3
I0402 13:52:25.930745  8943 net.cpp:434] conv3 <- pool2
I0402 13:52:25.930752  8943 net.cpp:408] conv3 -> conv3
I0402 13:52:25.939538  8943 net.cpp:150] Setting up conv3
I0402 13:52:25.939555  8943 net.cpp:157] Top shape: 1024 250 6 6 (9216000)
I0402 13:52:25.939559  8943 net.cpp:165] Memory required for data: 2138779648
I0402 13:52:25.939568  8943 layer_factory.hpp:77] Creating layer conv3_relu
I0402 13:52:25.939576  8943 net.cpp:100] Creating Layer conv3_relu
I0402 13:52:25.939579  8943 net.cpp:434] conv3_relu <- conv3
I0402 13:52:25.939587  8943 net.cpp:395] conv3_relu -> conv3 (in-place)
I0402 13:52:25.941658  8943 net.cpp:150] Setting up conv3_relu
I0402 13:52:25.941673  8943 net.cpp:157] Top shape: 1024 250 6 6 (9216000)
I0402 13:52:25.941675  8943 net.cpp:165] Memory required for data: 2175643648
I0402 13:52:25.941691  8943 layer_factory.hpp:77] Creating layer pool3
I0402 13:52:25.941699  8943 net.cpp:100] Creating Layer pool3
I0402 13:52:25.941702  8943 net.cpp:434] pool3 <- conv3
I0402 13:52:25.941709  8943 net.cpp:408] pool3 -> pool3
I0402 13:52:25.941756  8943 net.cpp:150] Setting up pool3
I0402 13:52:25.941779  8943 net.cpp:157] Top shape: 1024 250 3 3 (2304000)
I0402 13:52:25.941784  8943 net.cpp:165] Memory required for data: 2184859648
I0402 13:52:25.941787  8943 layer_factory.hpp:77] Creating layer fc4_300
I0402 13:52:25.941794  8943 net.cpp:100] Creating Layer fc4_300
I0402 13:52:25.941797  8943 net.cpp:434] fc4_300 <- pool3
I0402 13:52:25.941804  8943 net.cpp:408] fc4_300 -> fc4_300
I0402 13:52:25.947080  8943 net.cpp:150] Setting up fc4_300
I0402 13:52:25.947096  8943 net.cpp:157] Top shape: 1024 300 (307200)
I0402 13:52:25.947099  8943 net.cpp:165] Memory required for data: 2186088448
I0402 13:52:25.947105  8943 layer_factory.hpp:77] Creating layer fc4_relu
I0402 13:52:25.947111  8943 net.cpp:100] Creating Layer fc4_relu
I0402 13:52:25.947115  8943 net.cpp:434] fc4_relu <- fc4_300
I0402 13:52:25.947121  8943 net.cpp:395] fc4_relu -> fc4_300 (in-place)
I0402 13:52:25.947312  8943 net.cpp:150] Setting up fc4_relu
I0402 13:52:25.947324  8943 net.cpp:157] Top shape: 1024 300 (307200)
I0402 13:52:25.947326  8943 net.cpp:165] Memory required for data: 2187317248
I0402 13:52:25.947330  8943 layer_factory.hpp:77] Creating layer drop4
I0402 13:52:25.947337  8943 net.cpp:100] Creating Layer drop4
I0402 13:52:25.947342  8943 net.cpp:434] drop4 <- fc4_300
I0402 13:52:25.947348  8943 net.cpp:395] drop4 -> fc4_300 (in-place)
I0402 13:52:25.947379  8943 net.cpp:150] Setting up drop4
I0402 13:52:25.947386  8943 net.cpp:157] Top shape: 1024 300 (307200)
I0402 13:52:25.947389  8943 net.cpp:165] Memory required for data: 2188546048
I0402 13:52:25.947392  8943 layer_factory.hpp:77] Creating layer fc5_106
I0402 13:52:25.947398  8943 net.cpp:100] Creating Layer fc5_106
I0402 13:52:25.947402  8943 net.cpp:434] fc5_106 <- fc4_300
I0402 13:52:25.947409  8943 net.cpp:408] fc5_106 -> fc5_classes
I0402 13:52:25.948655  8943 net.cpp:150] Setting up fc5_106
I0402 13:52:25.948673  8943 net.cpp:157] Top shape: 1024 106 (108544)
I0402 13:52:25.948676  8943 net.cpp:165] Memory required for data: 2188980224
I0402 13:52:25.948685  8943 layer_factory.hpp:77] Creating layer loss
I0402 13:52:25.948693  8943 net.cpp:100] Creating Layer loss
I0402 13:52:25.948695  8943 net.cpp:434] loss <- fc5_classes
I0402 13:52:25.948700  8943 net.cpp:434] loss <- label
I0402 13:52:25.948707  8943 net.cpp:408] loss -> loss
I0402 13:52:25.948719  8943 layer_factory.hpp:77] Creating layer loss
…
I0402 13:52:25.949373  8943 solver.cpp:193] Creating test net (#0) specified by test_net file: ./Prototxt/rtsd-r3/histeq/test.prototxt
I0402 13:52:25.949512  8943 net.cpp:58] Initializing net from parameters: 
state {
  phase: TEST
}
layer {
  name: "data"
  type: "Data"
  top: "data"
  top: "label"
  include {
    phase: TEST
  }
  transform_param {
    mirror: false
    crop_size: 48
    mean_value: 133
    mean_value: 128
    mean_value: 129
  }
  data_param {
    source: "../local_data/lmdb/rtsd-r3/histeq/test/lmdb"
    batch_size: 1024
    backend: LMDB
  }
}
layer {
  name: "conv1"
  type: "Convolution"
  bottom: "data"
  top: "conv1"
  convolution_param {
    num_output: 100
    pad: 0
    kernel_size: 7
    group: 1
    stride: 1
    weight_filler {
      type: "xavier"
    }
  }
}
layer {
  name: "conv1_relu"
  type: "ReLU"
  bottom: "conv1"
  top: "conv1"
}
layer {
  name: "pool1"
  type: "Pooling"
  bottom: "conv1"
  top: "pool1"
  pooling_param {
    pool: MAX
    kernel_size: 2
    stride: 2
  }
}
layer {
  name: "conv2"
  type: "Convolution"
  bottom: "pool1"
  top: "conv2"
  convolution_param {
    num_output: 150
    pad: 0
    kernel_size: 4
    group: 1
    stride: 1
    weight_filler {
      type: "xavier"
    }
  }
}
layer {
  name: "conv2_relu"
  type: "ReLU"
  bottom: "conv2"
  top: "conv2"
}
layer {
  name: "pool2"
  type: "Pooling"
  bottom: "conv2"
  top: "pool2"
  pooling_param {
    pool: MAX
    kernel_size: 2
    stride: 2
  }
}
layer {
  name: "conv3"
  type: "Convolution"
  bottom: "pool2"
  top: "conv3"
  convolution_param {
    num_output: 250
    pad: 0
    kernel_size: 4
    group: 1
    stride: 1
    weight_filler {
      type: "xavier"
    }
  }
}
layer {
  name: "conv3_relu"
  type: "ReLU"
  bottom: "conv3"
  top: "conv3"
}
layer {
  name: "pool3"
  type: "Pooling"
  bottom: "conv3"
  top: "pool3"
  pooling_param {
    pool: MAX
    kernel_size: 2
    stride: 2
  }
}
layer {
  name: "fc4_300"
  type: "InnerProduct"
  bottom: "pool3"
  top: "fc4_300"
  inner_product_param {
    num_output: 300
    weight_filler {
      type: "xavier"
    }
  }
}
layer {
  name: "fc4_relu"
  type: "ReLU"
  bottom: "fc4_300"
  top: "fc4_300"
}
layer {
  name: "drop4"
  type: "Dropout"
  bottom: "fc4_300"
  top: "fc4_300"
  dropout_param {
    dropout_ratio: 0.4
  }
}
layer {
  name: "fc5_106"
  type: "InnerProduct"
  bottom: "fc4_300"
  top: "fc5_classes"
  inner_product_param {
    num_output: 106
    weight_filler {
      type: "xavier"
    }
  }
}
layer {
  name: "loss"
  type: "SoftmaxWithLoss"
  bottom: "fc5_classes"
  bottom: "label"
  top: "loss"
}
layer {
  name: "accuracy_1"
  type: "Accuracy"
  bottom: "fc5_classes"
  bottom: "label"
  top: "accuracy_1"
  include {
    phase: TEST
  }
  accuracy_param {
    top_k: 1
  }
}
layer {
  name: "accuracy_5"
  type: "Accuracy"
  bottom: "fc5_classes"
  bottom: "label"
  top: "accuracy_5"
  include {
    phase: TEST
  }
  accuracy_param {
    top_k: 5
  }
}
I0402 13:52:25.949604  8943 layer_factory.hpp:77] Creating layer data
I0402 13:52:25.950265  8943 net.cpp:100] Creating Layer data
I0402 13:52:25.950276  8943 net.cpp:408] data -> data
I0402 13:52:25.950285  8943 net.cpp:408] data -> label
I0402 13:52:25.951546  9011 db_lmdb.cpp:35] Opened lmdb ../local_data/lmdb/rtsd-r3/histeq/test/lmdb
I0402 13:52:25.951714  8943 data_layer.cpp:41] output data size: 1024,3,48,48
I0402 13:52:26.007799  8943 net.cpp:150] Setting up data
I0402 13:52:26.007829  8943 net.cpp:157] Top shape: 1024 3 48 48 (7077888)
I0402 13:52:26.007834  8943 net.cpp:157] Top shape: 1024 (1024)
I0402 13:52:26.007838  8943 net.cpp:165] Memory required for data: 28315648
I0402 13:52:26.007843  8943 layer_factory.hpp:77] Creating layer label_data_1_split
I0402 13:52:26.007858  8943 net.cpp:100] Creating Layer label_data_1_split
I0402 13:52:26.007863  8943 net.cpp:434] label_data_1_split <- label
I0402 13:52:26.007872  8943 net.cpp:408] label_data_1_split -> label_data_1_split_0
I0402 13:52:26.007884  8943 net.cpp:408] label_data_1_split -> label_data_1_split_1
I0402 13:52:26.007892  8943 net.cpp:408] label_data_1_split -> label_data_1_split_2
I0402 13:52:26.008025  8943 net.cpp:150] Setting up label_data_1_split
I0402 13:52:26.008054  8943 net.cpp:157] Top shape: 1024 (1024)
I0402 13:52:26.008059  8943 net.cpp:157] Top shape: 1024 (1024)
I0402 13:52:26.008062  8943 net.cpp:157] Top shape: 1024 (1024)
I0402 13:52:26.008065  8943 net.cpp:165] Memory required for data: 28327936
I0402 13:52:26.008069  8943 layer_factory.hpp:77] Creating layer conv1
I0402 13:52:26.008080  8943 net.cpp:100] Creating Layer conv1
I0402 13:52:26.008085  8943 net.cpp:434] conv1 <- data
I0402 13:52:26.008093  8943 net.cpp:408] conv1 -> conv1
I0402 13:52:26.016710  8943 net.cpp:150] Setting up conv1
I0402 13:52:26.016728  8943 net.cpp:157] Top shape: 1024 100 42 42 (180633600)
I0402 13:52:26.016732  8943 net.cpp:165] Memory required for data: 750862336
I0402 13:52:26.016744  8943 layer_factory.hpp:77] Creating layer conv1_relu
I0402 13:52:26.016755  8943 net.cpp:100] Creating Layer conv1_relu
I0402 13:52:26.016758  8943 net.cpp:434] conv1_relu <- conv1
I0402 13:52:26.016765  8943 net.cpp:395] conv1_relu -> conv1 (in-place)
I0402 13:52:26.018805  8943 net.cpp:150] Setting up conv1_relu
I0402 13:52:26.018815  8943 net.cpp:157] Top shape: 1024 100 42 42 (180633600)
I0402 13:52:26.018820  8943 net.cpp:165] Memory required for data: 1473396736
I0402 13:52:26.018823  8943 layer_factory.hpp:77] Creating layer pool1
I0402 13:52:26.018831  8943 net.cpp:100] Creating Layer pool1
I0402 13:52:26.018834  8943 net.cpp:434] pool1 <- conv1
I0402 13:52:26.018842  8943 net.cpp:408] pool1 -> pool1
I0402 13:52:26.018893  8943 net.cpp:150] Setting up pool1
I0402 13:52:26.018900  8943 net.cpp:157] Top shape: 1024 100 21 21 (45158400)
I0402 13:52:26.018903  8943 net.cpp:165] Memory required for data: 1654030336
I0402 13:52:26.018908  8943 layer_factory.hpp:77] Creating layer conv2
I0402 13:52:26.018916  8943 net.cpp:100] Creating Layer conv2
I0402 13:52:26.018921  8943 net.cpp:434] conv2 <- pool1
I0402 13:52:26.018929  8943 net.cpp:408] conv2 -> conv2
I0402 13:52:26.025583  8943 net.cpp:150] Setting up conv2
I0402 13:52:26.025600  8943 net.cpp:157] Top shape: 1024 150 18 18 (49766400)
I0402 13:52:26.025604  8943 net.cpp:165] Memory required for data: 1853095936
I0402 13:52:26.025614  8943 layer_factory.hpp:77] Creating layer conv2_relu
I0402 13:52:26.025621  8943 net.cpp:100] Creating Layer conv2_relu
I0402 13:52:26.025624  8943 net.cpp:434] conv2_relu <- conv2
I0402 13:52:26.025632  8943 net.cpp:395] conv2_relu -> conv2 (in-place)
I0402 13:52:26.027684  8943 net.cpp:150] Setting up conv2_relu
I0402 13:52:26.027699  8943 net.cpp:157] Top shape: 1024 150 18 18 (49766400)
I0402 13:52:26.027704  8943 net.cpp:165] Memory required for data: 2052161536
I0402 13:52:26.027706  8943 layer_factory.hpp:77] Creating layer pool2
I0402 13:52:26.027714  8943 net.cpp:100] Creating Layer pool2
I0402 13:52:26.027716  8943 net.cpp:434] pool2 <- conv2
I0402 13:52:26.027724  8943 net.cpp:408] pool2 -> pool2
I0402 13:52:26.027777  8943 net.cpp:150] Setting up pool2
I0402 13:52:26.027786  8943 net.cpp:157] Top shape: 1024 150 9 9 (12441600)
I0402 13:52:26.027789  8943 net.cpp:165] Memory required for data: 2101927936
I0402 13:52:26.027792  8943 layer_factory.hpp:77] Creating layer conv3
I0402 13:52:26.027803  8943 net.cpp:100] Creating Layer conv3
I0402 13:52:26.027808  8943 net.cpp:434] conv3 <- pool2
I0402 13:52:26.027815  8943 net.cpp:408] conv3 -> conv3
I0402 13:52:26.038687  8943 net.cpp:150] Setting up conv3
I0402 13:52:26.038704  8943 net.cpp:157] Top shape: 1024 250 6 6 (9216000)
I0402 13:52:26.038708  8943 net.cpp:165] Memory required for data: 2138791936
I0402 13:52:26.038718  8943 layer_factory.hpp:77] Creating layer conv3_relu
I0402 13:52:26.038727  8943 net.cpp:100] Creating Layer conv3_relu
I0402 13:52:26.038730  8943 net.cpp:434] conv3_relu <- conv3
I0402 13:52:26.038736  8943 net.cpp:395] conv3_relu -> conv3 (in-place)
I0402 13:52:26.040781  8943 net.cpp:150] Setting up conv3_relu
I0402 13:52:26.040799  8943 net.cpp:157] Top shape: 1024 250 6 6 (9216000)
I0402 13:52:26.040802  8943 net.cpp:165] Memory required for data: 2175655936
I0402 13:52:26.040805  8943 layer_factory.hpp:77] Creating layer pool3
I0402 13:52:26.040827  8943 net.cpp:100] Creating Layer pool3
I0402 13:52:26.040832  8943 net.cpp:434] pool3 <- conv3
I0402 13:52:26.040838  8943 net.cpp:408] pool3 -> pool3
I0402 13:52:26.040890  8943 net.cpp:150] Setting up pool3
I0402 13:52:26.040899  8943 net.cpp:157] Top shape: 1024 250 3 3 (2304000)
I0402 13:52:26.040904  8943 net.cpp:165] Memory required for data: 2184871936
I0402 13:52:26.040906  8943 layer_factory.hpp:77] Creating layer fc4_300
I0402 13:52:26.040917  8943 net.cpp:100] Creating Layer fc4_300
I0402 13:52:26.040922  8943 net.cpp:434] fc4_300 <- pool3
I0402 13:52:26.040927  8943 net.cpp:408] fc4_300 -> fc4_300
I0402 13:52:26.046272  8943 net.cpp:150] Setting up fc4_300
I0402 13:52:26.046291  8943 net.cpp:157] Top shape: 1024 300 (307200)
I0402 13:52:26.046294  8943 net.cpp:165] Memory required for data: 2186100736
I0402 13:52:26.046301  8943 layer_factory.hpp:77] Creating layer fc4_relu
I0402 13:52:26.046308  8943 net.cpp:100] Creating Layer fc4_relu
I0402 13:52:26.046310  8943 net.cpp:434] fc4_relu <- fc4_300
I0402 13:52:26.046319  8943 net.cpp:395] fc4_relu -> fc4_300 (in-place)
I0402 13:52:26.046519  8943 net.cpp:150] Setting up fc4_relu
I0402 13:52:26.046530  8943 net.cpp:157] Top shape: 1024 300 (307200)
I0402 13:52:26.046533  8943 net.cpp:165] Memory required for data: 2187329536
I0402 13:52:26.046536  8943 layer_factory.hpp:77] Creating layer drop4
I0402 13:52:26.046546  8943 net.cpp:100] Creating Layer drop4
I0402 13:52:26.046550  8943 net.cpp:434] drop4 <- fc4_300
I0402 13:52:26.046556  8943 net.cpp:395] drop4 -> fc4_300 (in-place)
I0402 13:52:26.046586  8943 net.cpp:150] Setting up drop4
I0402 13:52:26.046594  8943 net.cpp:157] Top shape: 1024 300 (307200)
I0402 13:52:26.046597  8943 net.cpp:165] Memory required for data: 2188558336
I0402 13:52:26.046599  8943 layer_factory.hpp:77] Creating layer fc5_106
I0402 13:52:26.046605  8943 net.cpp:100] Creating Layer fc5_106
I0402 13:52:26.046608  8943 net.cpp:434] fc5_106 <- fc4_300
I0402 13:52:26.046627  8943 net.cpp:408] fc5_106 -> fc5_classes
I0402 13:52:26.046950  8943 net.cpp:150] Setting up fc5_106
I0402 13:52:26.046959  8943 net.cpp:157] Top shape: 1024 106 (108544)
I0402 13:52:26.046962  8943 net.cpp:165] Memory required for data: 2188992512
I0402 13:52:26.046972  8943 layer_factory.hpp:77] Creating layer fc5_classes_fc5_106_0_split
I0402 13:52:26.046982  8943 net.cpp:100] Creating Layer fc5_classes_fc5_106_0_split
I0402 13:52:26.046984  8943 net.cpp:434] fc5_classes_fc5_106_0_split <- fc5_classes
I0402 13:52:26.046991  8943 net.cpp:408] fc5_classes_fc5_106_0_split -> fc5_classes_fc5_106_0_split_0
I0402 13:52:26.046998  8943 net.cpp:408] fc5_classes_fc5_106_0_split -> fc5_classes_fc5_106_0_split_1
I0402 13:52:26.047005  8943 net.cpp:408] fc5_classes_fc5_106_0_split -> fc5_classes_fc5_106_0_split_2
I0402 13:52:26.047060  8943 net.cpp:150] Setting up fc5_classes_fc5_106_0_split
I0402 13:52:26.047066  8943 net.cpp:157] Top shape: 1024 106 (108544)
I0402 13:52:26.047070  8943 net.cpp:157] Top shape: 1024 106 (108544)
I0402 13:52:26.047075  8943 net.cpp:157] Top shape: 1024 106 (108544)
I0402 13:52:26.047076  8943 net.cpp:165] Memory required for data: 2190295040
I0402 13:52:26.047080  8943 layer_factory.hpp:77] Creating layer loss
I0402 13:52:26.047087  8943 net.cpp:100] Creating Layer loss
I0402 13:52:26.047092  8943 net.cpp:434] loss <- fc5_classes_fc5_106_0_split_0
I0402 13:52:26.047096  8943 net.cpp:434] loss <- label_data_1_split_0
I0402 13:52:26.047101  8943 net.cpp:408] loss -> loss
…
