…
I0414 15:09:30.727437 11404 solver.cpp:93] Creating training net from train_net file: ./Prototxt/experiment_11/rtsd-r3/histeq/trial_3/train.prototxt
I0414 15:09:30.742898 11404 net.cpp:58] Initializing net from parameters: 
state {
  phase: TRAIN
  level: 0
  stage: ""
}
layer {
  name: "data"
  type: "Data"
  top: "data"
  top: "label"
  include {
    phase: TRAIN
  }
  transform_param {
    scale: 0.0039215689
    mirror: false
    crop_size: 48
    mean_value: 135
    mean_value: 128
    mean_value: 128
  }
  data_param {
    source: "../local_data/lmdb/rtsd-r3/histeq/train/lmdb"
    batch_size: 1024
    backend: LMDB
  }
}
layer {
  name: "conv1"
  type: "Convolution"
  bottom: "data"
  top: "conv1"
  convolution_param {
    num_output: 100
    pad: 0
    kernel_size: 7
    group: 1
    stride: 1
    weight_filler {
      type: "xavier"
    }
  }
}
layer {
  name: "conv1_prescale"
  type: "Scale"
  bottom: "conv1"
  top: "conv1"
  param {
    lr_mult: 0
    decay_mult: 0
  }
  scale_param {
    filler {
      value: 0.6666
    }
    bias_term: false
  }
}
layer {
  name: "conv1_sTanH"
  type: "TanH"
  bottom: "conv1"
  top: "conv1"
}
layer {
  name: "conv1_postscale"
  type: "Scale"
  bottom: "conv1"
  top: "conv1"
  param {
    lr_mult: 0
    decay_mult: 0
  }
  scale_param {
    filler {
      value: 1.7159
    }
    bias_term: false
  }
}
layer {
  name: "pool1"
  type: "Pooling"
  bottom: "conv1"
  top: "pool1"
  pooling_param {
    pool: MAX
    kernel_size: 2
    stride: 2
  }
}
layer {
  name: "conv2"
  type: "Convolution"
  bottom: "pool1"
  top: "conv2"
  convolution_param {
    num_output: 150
    pad: 0
    kernel_size: 4
    group: 1
    stride: 1
    weight_filler {
      type: "xavier"
    }
  }
}
layer {
  name: "conv2_prescale"
  type: "Scale"
  bottom: "conv2"
  top: "conv2"
  param {
    lr_mult: 0
    decay_mult: 0
  }
  scale_param {
    filler {
      value: 0.6666
    }
    bias_term: false
  }
}
layer {
  name: "conv2_sTanH"
  type: "TanH"
  bottom: "conv2"
  top: "conv2"
}
layer {
  name: "conv2_postscale"
  type: "Scale"
  bottom: "conv2"
  top: "conv2"
  param {
    lr_mult: 0
    decay_mult: 0
  }
  scale_param {
    filler {
      value: 1.7159
    }
    bias_term: false
  }
}
layer {
  name: "pool2"
  type: "Pooling"
  bottom: "conv2"
  top: "pool2"
  pooling_param {
    pool: MAX
    kernel_size: 2
    stride: 2
  }
}
layer {
  name: "conv3"
  type: "Convolution"
  bottom: "pool2"
  top: "conv3"
  convolution_param {
    num_output: 250
    pad: 0
    kernel_size: 4
    group: 1
    stride: 1
    weight_filler {
      type: "xavier"
    }
  }
}
layer {
  name: "conv3_prescale"
  type: "Scale"
  bottom: "conv3"
  top: "conv3"
  param {
    lr_mult: 0
    decay_mult: 0
  }
  scale_param {
    filler {
      value: 0.6666
    }
    bias_term: false
  }
}
layer {
  name: "conv3_sTanH"
  type: "TanH"
  bottom: "conv3"
  top: "conv3"
}
layer {
  name: "conv3_postscale"
  type: "Scale"
  bottom: "conv3"
  top: "conv3"
  param {
    lr_mult: 0
    decay_mult: 0
  }
  scale_param {
    filler {
      value: 1.7159
    }
    bias_term: false
  }
}
layer {
  name: "pool3"
  type: "Pooling"
  bottom: "conv3"
  top: "pool3"
  pooling_param {
    pool: MAX
    kernel_size: 2
    stride: 2
  }
}
layer {
  name: "fc4_300"
  type: "InnerProduct"
  bottom: "pool3"
  top: "fc4_300"
  inner_product_param {
    num_output: 300
    weight_filler {
      type: "xavier"
    }
  }
}
layer {
  name: "fc4_prescale"
  type: "Scale"
  bottom: "fc4_300"
  top: "fc4_300"
  param {
    lr_mult: 0
    decay_mult: 0
  }
  scale_param {
    filler {
      value: 0.6666
    }
    bias_term: false
  }
}
layer {
  name: "fc4_sTanH"
  type: "TanH"
  bottom: "fc4_300"
  top: "fc4_300"
}
layer {
  name: "fc4_postscale"
  type: "Scale"
  bottom: "fc4_300"
  top: "fc4_300"
  param {
    lr_mult: 0
    decay_mult: 0
  }
  scale_param {
    filler {
      value: 1.7159
    }
    bias_term: false
  }
}
layer {
  name: "fc5_106"
  type: "InnerProduct"
  bottom: "fc4_300"
  top: "fc5_classes"
  inner_product_param {
    num_output: 106
    weight_filler {
      type: "xavier"
    }
  }
}
layer {
  name: "softmax"
  type: "Softmax"
  bottom: "fc5_classes"
  top: "softmax"
}
layer {
  name: "loss"
  type: "MultinomialLogisticLoss"
  bottom: "softmax"
  bottom: "label"
  top: "loss"
}
layer {
  name: "accuracy_1"
  type: "Accuracy"
  bottom: "fc5_classes"
  bottom: "label"
  top: "accuracy_1"
  accuracy_param {
    top_k: 1
  }
}
layer {
  name: "accuracy_5"
  type: "Accuracy"
  bottom: "fc5_classes"
  bottom: "label"
  top: "accuracy_5"
  accuracy_param {
    top_k: 5
  }
}
layer {
  name: "silence"
  type: "Silence"
  bottom: "accuracy_1"
  bottom: "accuracy_5"
}
I0414 15:09:30.743074 11404 layer_factory.hpp:77] Creating layer data
I0414 15:09:30.744175 11404 net.cpp:100] Creating Layer data
I0414 15:09:30.744194 11404 net.cpp:408] data -> data
I0414 15:09:30.744217 11404 net.cpp:408] data -> label
I0414 15:09:30.747820 11528 db_lmdb.cpp:35] Opened lmdb ../local_data/lmdb/rtsd-r3/histeq/train/lmdb
I0414 15:09:30.767840 11404 data_layer.cpp:41] output data size: 1024,3,48,48
I0414 15:09:30.836030 11404 net.cpp:150] Setting up data
I0414 15:09:30.836055 11404 net.cpp:157] Top shape: 1024 3 48 48 (7077888)
I0414 15:09:30.836061 11404 net.cpp:157] Top shape: 1024 (1024)
I0414 15:09:30.836063 11404 net.cpp:165] Memory required for data: 28315648
I0414 15:09:30.836074 11404 layer_factory.hpp:77] Creating layer label_data_1_split
I0414 15:09:30.836088 11404 net.cpp:100] Creating Layer label_data_1_split
I0414 15:09:30.836097 11404 net.cpp:434] label_data_1_split <- label
I0414 15:09:30.836110 11404 net.cpp:408] label_data_1_split -> label_data_1_split_0
I0414 15:09:30.836123 11404 net.cpp:408] label_data_1_split -> label_data_1_split_1
I0414 15:09:30.836132 11404 net.cpp:408] label_data_1_split -> label_data_1_split_2
I0414 15:09:30.836195 11404 net.cpp:150] Setting up label_data_1_split
I0414 15:09:30.836203 11404 net.cpp:157] Top shape: 1024 (1024)
I0414 15:09:30.836207 11404 net.cpp:157] Top shape: 1024 (1024)
I0414 15:09:30.836211 11404 net.cpp:157] Top shape: 1024 (1024)
I0414 15:09:30.836215 11404 net.cpp:165] Memory required for data: 28327936
I0414 15:09:30.836218 11404 layer_factory.hpp:77] Creating layer conv1
I0414 15:09:30.836235 11404 net.cpp:100] Creating Layer conv1
I0414 15:09:30.836239 11404 net.cpp:434] conv1 <- data
I0414 15:09:30.836246 11404 net.cpp:408] conv1 -> conv1
I0414 15:09:31.285787 11404 net.cpp:150] Setting up conv1
I0414 15:09:31.285815 11404 net.cpp:157] Top shape: 1024 100 42 42 (180633600)
I0414 15:09:31.285820 11404 net.cpp:165] Memory required for data: 750862336
I0414 15:09:31.285841 11404 layer_factory.hpp:77] Creating layer conv1_prescale
I0414 15:09:31.285854 11404 net.cpp:100] Creating Layer conv1_prescale
I0414 15:09:31.285859 11404 net.cpp:434] conv1_prescale <- conv1
I0414 15:09:31.285866 11404 net.cpp:395] conv1_prescale -> conv1 (in-place)
I0414 15:09:31.285969 11404 net.cpp:150] Setting up conv1_prescale
I0414 15:09:31.285977 11404 net.cpp:157] Top shape: 1024 100 42 42 (180633600)
I0414 15:09:31.285980 11404 net.cpp:165] Memory required for data: 1473396736
I0414 15:09:31.285986 11404 layer_factory.hpp:77] Creating layer conv1_sTanH
I0414 15:09:31.285996 11404 net.cpp:100] Creating Layer conv1_sTanH
I0414 15:09:31.286000 11404 net.cpp:434] conv1_sTanH <- conv1
I0414 15:09:31.286005 11404 net.cpp:395] conv1_sTanH -> conv1 (in-place)
I0414 15:09:31.286195 11404 net.cpp:150] Setting up conv1_sTanH
I0414 15:09:31.286227 11404 net.cpp:157] Top shape: 1024 100 42 42 (180633600)
I0414 15:09:31.286231 11404 net.cpp:165] Memory required for data: 2195931136
I0414 15:09:31.286234 11404 layer_factory.hpp:77] Creating layer conv1_postscale
I0414 15:09:31.286242 11404 net.cpp:100] Creating Layer conv1_postscale
I0414 15:09:31.286244 11404 net.cpp:434] conv1_postscale <- conv1
I0414 15:09:31.286250 11404 net.cpp:395] conv1_postscale -> conv1 (in-place)
I0414 15:09:31.286344 11404 net.cpp:150] Setting up conv1_postscale
I0414 15:09:31.286351 11404 net.cpp:157] Top shape: 1024 100 42 42 (180633600)
I0414 15:09:31.286355 11404 net.cpp:165] Memory required for data: 2918465536
I0414 15:09:31.286358 11404 layer_factory.hpp:77] Creating layer pool1
I0414 15:09:31.286365 11404 net.cpp:100] Creating Layer pool1
I0414 15:09:31.286370 11404 net.cpp:434] pool1 <- conv1
I0414 15:09:31.286375 11404 net.cpp:408] pool1 -> pool1
I0414 15:09:31.286419 11404 net.cpp:150] Setting up pool1
I0414 15:09:31.286427 11404 net.cpp:157] Top shape: 1024 100 21 21 (45158400)
I0414 15:09:31.286429 11404 net.cpp:165] Memory required for data: 3099099136
I0414 15:09:31.286432 11404 layer_factory.hpp:77] Creating layer conv2
I0414 15:09:31.286442 11404 net.cpp:100] Creating Layer conv2
I0414 15:09:31.286447 11404 net.cpp:434] conv2 <- pool1
I0414 15:09:31.286451 11404 net.cpp:408] conv2 -> conv2
I0414 15:09:31.293118 11404 net.cpp:150] Setting up conv2
I0414 15:09:31.293134 11404 net.cpp:157] Top shape: 1024 150 18 18 (49766400)
I0414 15:09:31.293138 11404 net.cpp:165] Memory required for data: 3298164736
I0414 15:09:31.293148 11404 layer_factory.hpp:77] Creating layer conv2_prescale
I0414 15:09:31.293159 11404 net.cpp:100] Creating Layer conv2_prescale
I0414 15:09:31.293161 11404 net.cpp:434] conv2_prescale <- conv2
I0414 15:09:31.293167 11404 net.cpp:395] conv2_prescale -> conv2 (in-place)
I0414 15:09:31.293272 11404 net.cpp:150] Setting up conv2_prescale
I0414 15:09:31.293282 11404 net.cpp:157] Top shape: 1024 150 18 18 (49766400)
I0414 15:09:31.293283 11404 net.cpp:165] Memory required for data: 3497230336
I0414 15:09:31.293288 11404 layer_factory.hpp:77] Creating layer conv2_sTanH
I0414 15:09:31.293293 11404 net.cpp:100] Creating Layer conv2_sTanH
I0414 15:09:31.293296 11404 net.cpp:434] conv2_sTanH <- conv2
I0414 15:09:31.293300 11404 net.cpp:395] conv2_sTanH -> conv2 (in-place)
I0414 15:09:31.294342 11404 net.cpp:150] Setting up conv2_sTanH
I0414 15:09:31.294358 11404 net.cpp:157] Top shape: 1024 150 18 18 (49766400)
I0414 15:09:31.294361 11404 net.cpp:165] Memory required for data: 3696295936
I0414 15:09:31.294365 11404 layer_factory.hpp:77] Creating layer conv2_postscale
I0414 15:09:31.294373 11404 net.cpp:100] Creating Layer conv2_postscale
I0414 15:09:31.294375 11404 net.cpp:434] conv2_postscale <- conv2
I0414 15:09:31.294380 11404 net.cpp:395] conv2_postscale -> conv2 (in-place)
I0414 15:09:31.294472 11404 net.cpp:150] Setting up conv2_postscale
I0414 15:09:31.294481 11404 net.cpp:157] Top shape: 1024 150 18 18 (49766400)
I0414 15:09:31.294483 11404 net.cpp:165] Memory required for data: 3895361536
I0414 15:09:31.294488 11404 layer_factory.hpp:77] Creating layer pool2
I0414 15:09:31.294494 11404 net.cpp:100] Creating Layer pool2
I0414 15:09:31.294497 11404 net.cpp:434] pool2 <- conv2
I0414 15:09:31.294502 11404 net.cpp:408] pool2 -> pool2
I0414 15:09:31.294540 11404 net.cpp:150] Setting up pool2
I0414 15:09:31.294548 11404 net.cpp:157] Top shape: 1024 150 9 9 (12441600)
I0414 15:09:31.294551 11404 net.cpp:165] Memory required for data: 3945127936
I0414 15:09:31.294554 11404 layer_factory.hpp:77] Creating layer conv3
I0414 15:09:31.294562 11404 net.cpp:100] Creating Layer conv3
I0414 15:09:31.294566 11404 net.cpp:434] conv3 <- pool2
I0414 15:09:31.294571 11404 net.cpp:408] conv3 -> conv3
I0414 15:09:31.300060 11404 net.cpp:150] Setting up conv3
I0414 15:09:31.300076 11404 net.cpp:157] Top shape: 1024 250 6 6 (9216000)
I0414 15:09:31.300081 11404 net.cpp:165] Memory required for data: 3981991936
I0414 15:09:31.300091 11404 layer_factory.hpp:77] Creating layer conv3_prescale
I0414 15:09:31.300115 11404 net.cpp:100] Creating Layer conv3_prescale
I0414 15:09:31.300122 11404 net.cpp:434] conv3_prescale <- conv3
I0414 15:09:31.300127 11404 net.cpp:395] conv3_prescale -> conv3 (in-place)
I0414 15:09:31.300217 11404 net.cpp:150] Setting up conv3_prescale
I0414 15:09:31.300225 11404 net.cpp:157] Top shape: 1024 250 6 6 (9216000)
I0414 15:09:31.300228 11404 net.cpp:165] Memory required for data: 4018855936
I0414 15:09:31.300232 11404 layer_factory.hpp:77] Creating layer conv3_sTanH
I0414 15:09:31.300238 11404 net.cpp:100] Creating Layer conv3_sTanH
I0414 15:09:31.300241 11404 net.cpp:434] conv3_sTanH <- conv3
I0414 15:09:31.300246 11404 net.cpp:395] conv3_sTanH -> conv3 (in-place)
I0414 15:09:31.301111 11404 net.cpp:150] Setting up conv3_sTanH
I0414 15:09:31.301127 11404 net.cpp:157] Top shape: 1024 250 6 6 (9216000)
I0414 15:09:31.301131 11404 net.cpp:165] Memory required for data: 4055719936
I0414 15:09:31.301136 11404 layer_factory.hpp:77] Creating layer conv3_postscale
I0414 15:09:31.301142 11404 net.cpp:100] Creating Layer conv3_postscale
I0414 15:09:31.301148 11404 net.cpp:434] conv3_postscale <- conv3
I0414 15:09:31.301153 11404 net.cpp:395] conv3_postscale -> conv3 (in-place)
I0414 15:09:31.301247 11404 net.cpp:150] Setting up conv3_postscale
I0414 15:09:31.301255 11404 net.cpp:157] Top shape: 1024 250 6 6 (9216000)
I0414 15:09:31.301257 11404 net.cpp:165] Memory required for data: 4092583936
I0414 15:09:31.301264 11404 layer_factory.hpp:77] Creating layer pool3
I0414 15:09:31.301271 11404 net.cpp:100] Creating Layer pool3
I0414 15:09:31.301275 11404 net.cpp:434] pool3 <- conv3
I0414 15:09:31.301280 11404 net.cpp:408] pool3 -> pool3
I0414 15:09:31.301317 11404 net.cpp:150] Setting up pool3
I0414 15:09:31.301323 11404 net.cpp:157] Top shape: 1024 250 3 3 (2304000)
I0414 15:09:31.301326 11404 net.cpp:165] Memory required for data: 4101799936
I0414 15:09:31.301329 11404 layer_factory.hpp:77] Creating layer fc4_300
I0414 15:09:31.301337 11404 net.cpp:100] Creating Layer fc4_300
I0414 15:09:31.301339 11404 net.cpp:434] fc4_300 <- pool3
I0414 15:09:31.301343 11404 net.cpp:408] fc4_300 -> fc4_300
I0414 15:09:31.307011 11404 net.cpp:150] Setting up fc4_300
I0414 15:09:31.307027 11404 net.cpp:157] Top shape: 1024 300 (307200)
I0414 15:09:31.307031 11404 net.cpp:165] Memory required for data: 4103028736
I0414 15:09:31.307037 11404 layer_factory.hpp:77] Creating layer fc4_prescale
I0414 15:09:31.307047 11404 net.cpp:100] Creating Layer fc4_prescale
I0414 15:09:31.307052 11404 net.cpp:434] fc4_prescale <- fc4_300
I0414 15:09:31.307057 11404 net.cpp:395] fc4_prescale -> fc4_300 (in-place)
I0414 15:09:31.307142 11404 net.cpp:150] Setting up fc4_prescale
I0414 15:09:31.307149 11404 net.cpp:157] Top shape: 1024 300 (307200)
I0414 15:09:31.307152 11404 net.cpp:165] Memory required for data: 4104257536
I0414 15:09:31.307157 11404 layer_factory.hpp:77] Creating layer fc4_sTanH
I0414 15:09:31.307162 11404 net.cpp:100] Creating Layer fc4_sTanH
I0414 15:09:31.307164 11404 net.cpp:434] fc4_sTanH <- fc4_300
I0414 15:09:31.307168 11404 net.cpp:395] fc4_sTanH -> fc4_300 (in-place)
I0414 15:09:31.307355 11404 net.cpp:150] Setting up fc4_sTanH
I0414 15:09:31.307368 11404 net.cpp:157] Top shape: 1024 300 (307200)
I0414 15:09:31.307373 11404 net.cpp:165] Memory required for data: 4105486336
I0414 15:09:31.307375 11404 layer_factory.hpp:77] Creating layer fc4_postscale
I0414 15:09:31.307382 11404 net.cpp:100] Creating Layer fc4_postscale
I0414 15:09:31.307385 11404 net.cpp:434] fc4_postscale <- fc4_300
I0414 15:09:31.307390 11404 net.cpp:395] fc4_postscale -> fc4_300 (in-place)
I0414 15:09:31.307484 11404 net.cpp:150] Setting up fc4_postscale
I0414 15:09:31.307492 11404 net.cpp:157] Top shape: 1024 300 (307200)
I0414 15:09:31.307494 11404 net.cpp:165] Memory required for data: 4106715136
I0414 15:09:31.307498 11404 layer_factory.hpp:77] Creating layer fc5_106
I0414 15:09:31.307504 11404 net.cpp:100] Creating Layer fc5_106
I0414 15:09:31.307507 11404 net.cpp:434] fc5_106 <- fc4_300
I0414 15:09:31.307512 11404 net.cpp:408] fc5_106 -> fc5_classes
I0414 15:09:31.313403 11404 net.cpp:150] Setting up fc5_106
I0414 15:09:31.313421 11404 net.cpp:157] Top shape: 1024 106 (108544)
I0414 15:09:31.313426 11404 net.cpp:165] Memory required for data: 4107149312
I0414 15:09:31.313436 11404 layer_factory.hpp:77] Creating layer fc5_classes_fc5_106_0_split
I0414 15:09:31.313449 11404 net.cpp:100] Creating Layer fc5_classes_fc5_106_0_split
I0414 15:09:31.313453 11404 net.cpp:434] fc5_classes_fc5_106_0_split <- fc5_classes
I0414 15:09:31.313459 11404 net.cpp:408] fc5_classes_fc5_106_0_split -> fc5_classes_fc5_106_0_split_0
I0414 15:09:31.313467 11404 net.cpp:408] fc5_classes_fc5_106_0_split -> fc5_classes_fc5_106_0_split_1
I0414 15:09:31.313477 11404 net.cpp:408] fc5_classes_fc5_106_0_split -> fc5_classes_fc5_106_0_split_2
I0414 15:09:31.313532 11404 net.cpp:150] Setting up fc5_classes_fc5_106_0_split
I0414 15:09:31.313540 11404 net.cpp:157] Top shape: 1024 106 (108544)
I0414 15:09:31.313544 11404 net.cpp:157] Top shape: 1024 106 (108544)
I0414 15:09:31.313547 11404 net.cpp:157] Top shape: 1024 106 (108544)
I0414 15:09:31.313550 11404 net.cpp:165] Memory required for data: 4108451840
I0414 15:09:31.313554 11404 layer_factory.hpp:77] Creating layer softmax
I0414 15:09:31.313560 11404 net.cpp:100] Creating Layer softmax
I0414 15:09:31.313565 11404 net.cpp:434] softmax <- fc5_classes_fc5_106_0_split_0
I0414 15:09:31.313570 11404 net.cpp:408] softmax -> softmax
I0414 15:09:31.313828 11404 net.cpp:150] Setting up softmax
I0414 15:09:31.313843 11404 net.cpp:157] Top shape: 1024 106 (108544)
I0414 15:09:31.313846 11404 net.cpp:165] Memory required for data: 4108886016
I0414 15:09:31.313850 11404 layer_factory.hpp:77] Creating layer loss
I0414 15:09:31.313858 11404 net.cpp:100] Creating Layer loss
I0414 15:09:31.313860 11404 net.cpp:434] loss <- softmax
I0414 15:09:31.313864 11404 net.cpp:434] loss <- label_data_1_split_0
I0414 15:09:31.313869 11404 net.cpp:408] loss -> loss
…
