…
I0414 13:22:46.328702 18609 solver.cpp:93] Creating training net from train_net file: ./Prototxt/experiment_11/rtsd-r3/AHE/trial_4/train.prototxt
I0414 13:22:46.329318 18609 net.cpp:58] Initializing net from parameters: 
state {
  phase: TRAIN
  level: 0
  stage: ""
}
layer {
  name: "data"
  type: "Data"
  top: "data"
  top: "label"
  include {
    phase: TRAIN
  }
  transform_param {
    scale: 0.0039215689
    mirror: false
    crop_size: 48
    mean_value: 133
    mean_value: 126
    mean_value: 125
  }
  data_param {
    source: "../local_data/lmdb/rtsd-r3/AHE/train/lmdb"
    batch_size: 1024
    backend: LMDB
  }
}
layer {
  name: "conv1"
  type: "Convolution"
  bottom: "data"
  top: "conv1"
  convolution_param {
    num_output: 100
    pad: 0
    kernel_size: 7
    group: 1
    stride: 1
    weight_filler {
      type: "xavier"
    }
  }
}
layer {
  name: "conv1_prescale"
  type: "Scale"
  bottom: "conv1"
  top: "conv1"
  param {
    lr_mult: 0
    decay_mult: 0
  }
  scale_param {
    filler {
      value: 0.6666
    }
    bias_term: false
  }
}
layer {
  name: "conv1_sTanH"
  type: "TanH"
  bottom: "conv1"
  top: "conv1"
}
layer {
  name: "conv1_postscale"
  type: "Scale"
  bottom: "conv1"
  top: "conv1"
  param {
    lr_mult: 0
    decay_mult: 0
  }
  scale_param {
    filler {
      value: 1.7159
    }
    bias_term: false
  }
}
layer {
  name: "pool1"
  type: "Pooling"
  bottom: "conv1"
  top: "pool1"
  pooling_param {
    pool: MAX
    kernel_size: 2
    stride: 2
  }
}
layer {
  name: "conv2"
  type: "Convolution"
  bottom: "pool1"
  top: "conv2"
  convolution_param {
    num_output: 150
    pad: 0
    kernel_size: 4
    group: 1
    stride: 1
    weight_filler {
      type: "xavier"
    }
  }
}
layer {
  name: "conv2_prescale"
  type: "Scale"
  bottom: "conv2"
  top: "conv2"
  param {
    lr_mult: 0
    decay_mult: 0
  }
  scale_param {
    filler {
      value: 0.6666
    }
    bias_term: false
  }
}
layer {
  name: "conv2_sTanH"
  type: "TanH"
  bottom: "conv2"
  top: "conv2"
}
layer {
  name: "conv2_postscale"
  type: "Scale"
  bottom: "conv2"
  top: "conv2"
  param {
    lr_mult: 0
    decay_mult: 0
  }
  scale_param {
    filler {
      value: 1.7159
    }
    bias_term: false
  }
}
layer {
  name: "pool2"
  type: "Pooling"
  bottom: "conv2"
  top: "pool2"
  pooling_param {
    pool: MAX
    kernel_size: 2
    stride: 2
  }
}
layer {
  name: "conv3"
  type: "Convolution"
  bottom: "pool2"
  top: "conv3"
  convolution_param {
    num_output: 250
    pad: 0
    kernel_size: 4
    group: 1
    stride: 1
    weight_filler {
      type: "xavier"
    }
  }
}
layer {
  name: "conv3_prescale"
  type: "Scale"
  bottom: "conv3"
  top: "conv3"
  param {
    lr_mult: 0
    decay_mult: 0
  }
  scale_param {
    filler {
      value: 0.6666
    }
    bias_term: false
  }
}
layer {
  name: "conv3_sTanH"
  type: "TanH"
  bottom: "conv3"
  top: "conv3"
}
layer {
  name: "conv3_postscale"
  type: "Scale"
  bottom: "conv3"
  top: "conv3"
  param {
    lr_mult: 0
    decay_mult: 0
  }
  scale_param {
    filler {
      value: 1.7159
    }
    bias_term: false
  }
}
layer {
  name: "pool3"
  type: "Pooling"
  bottom: "conv3"
  top: "pool3"
  pooling_param {
    pool: MAX
    kernel_size: 2
    stride: 2
  }
}
layer {
  name: "fc4_300"
  type: "InnerProduct"
  bottom: "pool3"
  top: "fc4_300"
  inner_product_param {
    num_output: 300
    weight_filler {
      type: "xavier"
    }
  }
}
layer {
  name: "fc4_prescale"
  type: "Scale"
  bottom: "fc4_300"
  top: "fc4_300"
  param {
    lr_mult: 0
    decay_mult: 0
  }
  scale_param {
    filler {
      value: 0.6666
    }
    bias_term: false
  }
}
layer {
  name: "fc4_sTanH"
  type: "TanH"
  bottom: "fc4_300"
  top: "fc4_300"
}
layer {
  name: "fc4_postscale"
  type: "Scale"
  bottom: "fc4_300"
  top: "fc4_300"
  param {
    lr_mult: 0
    decay_mult: 0
  }
  scale_param {
    filler {
      value: 1.7159
    }
    bias_term: false
  }
}
layer {
  name: "fc5_106"
  type: "InnerProduct"
  bottom: "fc4_300"
  top: "fc5_classes"
  inner_product_param {
    num_output: 106
    weight_filler {
      type: "xavier"
    }
  }
}
layer {
  name: "softmax"
  type: "Softmax"
  bottom: "fc5_classes"
  top: "softmax"
}
layer {
  name: "loss"
  type: "MultinomialLogisticLoss"
  bottom: "softmax"
  bottom: "label"
  top: "loss"
}
layer {
  name: "accuracy_1"
  type: "Accuracy"
  bottom: "fc5_classes"
  bottom: "label"
  top: "accuracy_1"
  accuracy_param {
    top_k: 1
  }
}
layer {
  name: "accuracy_5"
  type: "Accuracy"
  bottom: "fc5_classes"
  bottom: "label"
  top: "accuracy_5"
  accuracy_param {
    top_k: 5
  }
}
layer {
  name: "silence"
  type: "Silence"
  bottom: "accuracy_1"
  bottom: "accuracy_5"
}
I0414 13:22:46.329505 18609 layer_factory.hpp:77] Creating layer data
I0414 13:22:46.330860 18609 net.cpp:100] Creating Layer data
I0414 13:22:46.330879 18609 net.cpp:408] data -> data
I0414 13:22:46.330905 18609 net.cpp:408] data -> label
I0414 13:22:46.335659 18728 db_lmdb.cpp:35] Opened lmdb ../local_data/lmdb/rtsd-r3/AHE/train/lmdb
I0414 13:22:46.365241 18609 data_layer.cpp:41] output data size: 1024,3,48,48
I0414 13:22:46.435544 18609 net.cpp:150] Setting up data
I0414 13:22:46.435569 18609 net.cpp:157] Top shape: 1024 3 48 48 (7077888)
I0414 13:22:46.435575 18609 net.cpp:157] Top shape: 1024 (1024)
I0414 13:22:46.435577 18609 net.cpp:165] Memory required for data: 28315648
I0414 13:22:46.435588 18609 layer_factory.hpp:77] Creating layer label_data_1_split
I0414 13:22:46.435605 18609 net.cpp:100] Creating Layer label_data_1_split
I0414 13:22:46.435612 18609 net.cpp:434] label_data_1_split <- label
I0414 13:22:46.435626 18609 net.cpp:408] label_data_1_split -> label_data_1_split_0
I0414 13:22:46.435636 18609 net.cpp:408] label_data_1_split -> label_data_1_split_1
I0414 13:22:46.435642 18609 net.cpp:408] label_data_1_split -> label_data_1_split_2
I0414 13:22:46.435715 18609 net.cpp:150] Setting up label_data_1_split
I0414 13:22:46.435724 18609 net.cpp:157] Top shape: 1024 (1024)
I0414 13:22:46.435734 18609 net.cpp:157] Top shape: 1024 (1024)
I0414 13:22:46.435736 18609 net.cpp:157] Top shape: 1024 (1024)
I0414 13:22:46.435739 18609 net.cpp:165] Memory required for data: 28327936
I0414 13:22:46.435742 18609 layer_factory.hpp:77] Creating layer conv1
I0414 13:22:46.435758 18609 net.cpp:100] Creating Layer conv1
I0414 13:22:46.435765 18609 net.cpp:434] conv1 <- data
I0414 13:22:46.435770 18609 net.cpp:408] conv1 -> conv1
I0414 13:22:46.959867 18609 net.cpp:150] Setting up conv1
I0414 13:22:46.959908 18609 net.cpp:157] Top shape: 1024 100 42 42 (180633600)
I0414 13:22:46.959913 18609 net.cpp:165] Memory required for data: 750862336
I0414 13:22:46.959935 18609 layer_factory.hpp:77] Creating layer conv1_prescale
I0414 13:22:46.959949 18609 net.cpp:100] Creating Layer conv1_prescale
I0414 13:22:46.959954 18609 net.cpp:434] conv1_prescale <- conv1
I0414 13:22:46.959961 18609 net.cpp:395] conv1_prescale -> conv1 (in-place)
I0414 13:22:46.960073 18609 net.cpp:150] Setting up conv1_prescale
I0414 13:22:46.960083 18609 net.cpp:157] Top shape: 1024 100 42 42 (180633600)
I0414 13:22:46.960086 18609 net.cpp:165] Memory required for data: 1473396736
I0414 13:22:46.960093 18609 layer_factory.hpp:77] Creating layer conv1_sTanH
I0414 13:22:46.960101 18609 net.cpp:100] Creating Layer conv1_sTanH
I0414 13:22:46.960106 18609 net.cpp:434] conv1_sTanH <- conv1
I0414 13:22:46.960110 18609 net.cpp:395] conv1_sTanH -> conv1 (in-place)
I0414 13:22:46.960300 18609 net.cpp:150] Setting up conv1_sTanH
I0414 13:22:46.960311 18609 net.cpp:157] Top shape: 1024 100 42 42 (180633600)
I0414 13:22:46.960332 18609 net.cpp:165] Memory required for data: 2195931136
I0414 13:22:46.960336 18609 layer_factory.hpp:77] Creating layer conv1_postscale
I0414 13:22:46.960343 18609 net.cpp:100] Creating Layer conv1_postscale
I0414 13:22:46.960347 18609 net.cpp:434] conv1_postscale <- conv1
I0414 13:22:46.960352 18609 net.cpp:395] conv1_postscale -> conv1 (in-place)
I0414 13:22:46.960450 18609 net.cpp:150] Setting up conv1_postscale
I0414 13:22:46.960459 18609 net.cpp:157] Top shape: 1024 100 42 42 (180633600)
I0414 13:22:46.960463 18609 net.cpp:165] Memory required for data: 2918465536
I0414 13:22:46.960466 18609 layer_factory.hpp:77] Creating layer pool1
I0414 13:22:46.960474 18609 net.cpp:100] Creating Layer pool1
I0414 13:22:46.960477 18609 net.cpp:434] pool1 <- conv1
I0414 13:22:46.960484 18609 net.cpp:408] pool1 -> pool1
I0414 13:22:46.960530 18609 net.cpp:150] Setting up pool1
I0414 13:22:46.960537 18609 net.cpp:157] Top shape: 1024 100 21 21 (45158400)
I0414 13:22:46.960541 18609 net.cpp:165] Memory required for data: 3099099136
I0414 13:22:46.960543 18609 layer_factory.hpp:77] Creating layer conv2
I0414 13:22:46.960553 18609 net.cpp:100] Creating Layer conv2
I0414 13:22:46.960557 18609 net.cpp:434] conv2 <- pool1
I0414 13:22:46.960563 18609 net.cpp:408] conv2 -> conv2
I0414 13:22:46.966992 18609 net.cpp:150] Setting up conv2
I0414 13:22:46.967010 18609 net.cpp:157] Top shape: 1024 150 18 18 (49766400)
I0414 13:22:46.967013 18609 net.cpp:165] Memory required for data: 3298164736
I0414 13:22:46.967025 18609 layer_factory.hpp:77] Creating layer conv2_prescale
I0414 13:22:46.967033 18609 net.cpp:100] Creating Layer conv2_prescale
I0414 13:22:46.967037 18609 net.cpp:434] conv2_prescale <- conv2
I0414 13:22:46.967043 18609 net.cpp:395] conv2_prescale -> conv2 (in-place)
I0414 13:22:46.967151 18609 net.cpp:150] Setting up conv2_prescale
I0414 13:22:46.967160 18609 net.cpp:157] Top shape: 1024 150 18 18 (49766400)
I0414 13:22:46.967164 18609 net.cpp:165] Memory required for data: 3497230336
I0414 13:22:46.967169 18609 layer_factory.hpp:77] Creating layer conv2_sTanH
I0414 13:22:46.967175 18609 net.cpp:100] Creating Layer conv2_sTanH
I0414 13:22:46.967178 18609 net.cpp:434] conv2_sTanH <- conv2
I0414 13:22:46.967183 18609 net.cpp:395] conv2_sTanH -> conv2 (in-place)
I0414 13:22:46.968451 18609 net.cpp:150] Setting up conv2_sTanH
I0414 13:22:46.968466 18609 net.cpp:157] Top shape: 1024 150 18 18 (49766400)
I0414 13:22:46.968471 18609 net.cpp:165] Memory required for data: 3696295936
I0414 13:22:46.968473 18609 layer_factory.hpp:77] Creating layer conv2_postscale
I0414 13:22:46.968480 18609 net.cpp:100] Creating Layer conv2_postscale
I0414 13:22:46.968484 18609 net.cpp:434] conv2_postscale <- conv2
I0414 13:22:46.968490 18609 net.cpp:395] conv2_postscale -> conv2 (in-place)
I0414 13:22:46.968583 18609 net.cpp:150] Setting up conv2_postscale
I0414 13:22:46.968592 18609 net.cpp:157] Top shape: 1024 150 18 18 (49766400)
I0414 13:22:46.968595 18609 net.cpp:165] Memory required for data: 3895361536
I0414 13:22:46.968600 18609 layer_factory.hpp:77] Creating layer pool2
I0414 13:22:46.968606 18609 net.cpp:100] Creating Layer pool2
I0414 13:22:46.968611 18609 net.cpp:434] pool2 <- conv2
I0414 13:22:46.968616 18609 net.cpp:408] pool2 -> pool2
I0414 13:22:46.968657 18609 net.cpp:150] Setting up pool2
I0414 13:22:46.968664 18609 net.cpp:157] Top shape: 1024 150 9 9 (12441600)
I0414 13:22:46.968667 18609 net.cpp:165] Memory required for data: 3945127936
I0414 13:22:46.968670 18609 layer_factory.hpp:77] Creating layer conv3
I0414 13:22:46.968678 18609 net.cpp:100] Creating Layer conv3
I0414 13:22:46.968683 18609 net.cpp:434] conv3 <- pool2
I0414 13:22:46.968688 18609 net.cpp:408] conv3 -> conv3
I0414 13:22:46.974390 18609 net.cpp:150] Setting up conv3
I0414 13:22:46.974407 18609 net.cpp:157] Top shape: 1024 250 6 6 (9216000)
I0414 13:22:46.974411 18609 net.cpp:165] Memory required for data: 3981991936
I0414 13:22:46.974421 18609 layer_factory.hpp:77] Creating layer conv3_prescale
I0414 13:22:46.974444 18609 net.cpp:100] Creating Layer conv3_prescale
I0414 13:22:46.974450 18609 net.cpp:434] conv3_prescale <- conv3
I0414 13:22:46.974455 18609 net.cpp:395] conv3_prescale -> conv3 (in-place)
I0414 13:22:46.974556 18609 net.cpp:150] Setting up conv3_prescale
I0414 13:22:46.974565 18609 net.cpp:157] Top shape: 1024 250 6 6 (9216000)
I0414 13:22:46.974570 18609 net.cpp:165] Memory required for data: 4018855936
I0414 13:22:46.974575 18609 layer_factory.hpp:77] Creating layer conv3_sTanH
I0414 13:22:46.974580 18609 net.cpp:100] Creating Layer conv3_sTanH
I0414 13:22:46.974583 18609 net.cpp:434] conv3_sTanH <- conv3
I0414 13:22:46.974589 18609 net.cpp:395] conv3_sTanH -> conv3 (in-place)
I0414 13:22:46.976163 18609 net.cpp:150] Setting up conv3_sTanH
I0414 13:22:46.976179 18609 net.cpp:157] Top shape: 1024 250 6 6 (9216000)
I0414 13:22:46.976183 18609 net.cpp:165] Memory required for data: 4055719936
I0414 13:22:46.976186 18609 layer_factory.hpp:77] Creating layer conv3_postscale
I0414 13:22:46.976194 18609 net.cpp:100] Creating Layer conv3_postscale
I0414 13:22:46.976198 18609 net.cpp:434] conv3_postscale <- conv3
I0414 13:22:46.976204 18609 net.cpp:395] conv3_postscale -> conv3 (in-place)
I0414 13:22:46.976305 18609 net.cpp:150] Setting up conv3_postscale
I0414 13:22:46.976315 18609 net.cpp:157] Top shape: 1024 250 6 6 (9216000)
I0414 13:22:46.976317 18609 net.cpp:165] Memory required for data: 4092583936
I0414 13:22:46.976322 18609 layer_factory.hpp:77] Creating layer pool3
I0414 13:22:46.976332 18609 net.cpp:100] Creating Layer pool3
I0414 13:22:46.976336 18609 net.cpp:434] pool3 <- conv3
I0414 13:22:46.976342 18609 net.cpp:408] pool3 -> pool3
I0414 13:22:46.976383 18609 net.cpp:150] Setting up pool3
I0414 13:22:46.976390 18609 net.cpp:157] Top shape: 1024 250 3 3 (2304000)
I0414 13:22:46.976393 18609 net.cpp:165] Memory required for data: 4101799936
I0414 13:22:46.976397 18609 layer_factory.hpp:77] Creating layer fc4_300
I0414 13:22:46.976403 18609 net.cpp:100] Creating Layer fc4_300
I0414 13:22:46.976407 18609 net.cpp:434] fc4_300 <- pool3
I0414 13:22:46.976415 18609 net.cpp:408] fc4_300 -> fc4_300
I0414 13:22:46.981858 18609 net.cpp:150] Setting up fc4_300
I0414 13:22:46.981874 18609 net.cpp:157] Top shape: 1024 300 (307200)
I0414 13:22:46.981878 18609 net.cpp:165] Memory required for data: 4103028736
I0414 13:22:46.981884 18609 layer_factory.hpp:77] Creating layer fc4_prescale
I0414 13:22:46.981891 18609 net.cpp:100] Creating Layer fc4_prescale
I0414 13:22:46.981894 18609 net.cpp:434] fc4_prescale <- fc4_300
I0414 13:22:46.981901 18609 net.cpp:395] fc4_prescale -> fc4_300 (in-place)
I0414 13:22:46.981994 18609 net.cpp:150] Setting up fc4_prescale
I0414 13:22:46.982003 18609 net.cpp:157] Top shape: 1024 300 (307200)
I0414 13:22:46.982007 18609 net.cpp:165] Memory required for data: 4104257536
I0414 13:22:46.982012 18609 layer_factory.hpp:77] Creating layer fc4_sTanH
I0414 13:22:46.982017 18609 net.cpp:100] Creating Layer fc4_sTanH
I0414 13:22:46.982020 18609 net.cpp:434] fc4_sTanH <- fc4_300
I0414 13:22:46.982025 18609 net.cpp:395] fc4_sTanH -> fc4_300 (in-place)
I0414 13:22:46.982216 18609 net.cpp:150] Setting up fc4_sTanH
I0414 13:22:46.982228 18609 net.cpp:157] Top shape: 1024 300 (307200)
I0414 13:22:46.982231 18609 net.cpp:165] Memory required for data: 4105486336
I0414 13:22:46.982235 18609 layer_factory.hpp:77] Creating layer fc4_postscale
I0414 13:22:46.982241 18609 net.cpp:100] Creating Layer fc4_postscale
I0414 13:22:46.982244 18609 net.cpp:434] fc4_postscale <- fc4_300
I0414 13:22:46.982252 18609 net.cpp:395] fc4_postscale -> fc4_300 (in-place)
I0414 13:22:46.982352 18609 net.cpp:150] Setting up fc4_postscale
I0414 13:22:46.982360 18609 net.cpp:157] Top shape: 1024 300 (307200)
I0414 13:22:46.982363 18609 net.cpp:165] Memory required for data: 4106715136
I0414 13:22:46.982368 18609 layer_factory.hpp:77] Creating layer fc5_106
I0414 13:22:46.982374 18609 net.cpp:100] Creating Layer fc5_106
I0414 13:22:46.982378 18609 net.cpp:434] fc5_106 <- fc4_300
I0414 13:22:46.982385 18609 net.cpp:408] fc5_106 -> fc5_classes
I0414 13:22:46.993554 18609 net.cpp:150] Setting up fc5_106
I0414 13:22:46.993577 18609 net.cpp:157] Top shape: 1024 106 (108544)
I0414 13:22:46.993582 18609 net.cpp:165] Memory required for data: 4107149312
I0414 13:22:46.993595 18609 layer_factory.hpp:77] Creating layer fc5_classes_fc5_106_0_split
I0414 13:22:46.993605 18609 net.cpp:100] Creating Layer fc5_classes_fc5_106_0_split
I0414 13:22:46.993609 18609 net.cpp:434] fc5_classes_fc5_106_0_split <- fc5_classes
I0414 13:22:46.993619 18609 net.cpp:408] fc5_classes_fc5_106_0_split -> fc5_classes_fc5_106_0_split_0
I0414 13:22:46.993633 18609 net.cpp:408] fc5_classes_fc5_106_0_split -> fc5_classes_fc5_106_0_split_1
I0414 13:22:46.993647 18609 net.cpp:408] fc5_classes_fc5_106_0_split -> fc5_classes_fc5_106_0_split_2
I0414 13:22:46.993715 18609 net.cpp:150] Setting up fc5_classes_fc5_106_0_split
I0414 13:22:46.993723 18609 net.cpp:157] Top shape: 1024 106 (108544)
I0414 13:22:46.993731 18609 net.cpp:157] Top shape: 1024 106 (108544)
I0414 13:22:46.993734 18609 net.cpp:157] Top shape: 1024 106 (108544)
I0414 13:22:46.993737 18609 net.cpp:165] Memory required for data: 4108451840
I0414 13:22:46.993741 18609 layer_factory.hpp:77] Creating layer softmax
I0414 13:22:46.993748 18609 net.cpp:100] Creating Layer softmax
I0414 13:22:46.993754 18609 net.cpp:434] softmax <- fc5_classes_fc5_106_0_split_0
I0414 13:22:46.993762 18609 net.cpp:408] softmax -> softmax
I0414 13:22:46.994086 18609 net.cpp:150] Setting up softmax
I0414 13:22:46.994102 18609 net.cpp:157] Top shape: 1024 106 (108544)
I0414 13:22:46.994107 18609 net.cpp:165] Memory required for data: 4108886016
I0414 13:22:46.994112 18609 layer_factory.hpp:77] Creating layer loss
I0414 13:22:46.994120 18609 net.cpp:100] Creating Layer loss
I0414 13:22:46.994127 18609 net.cpp:434] loss <- softmax
I0414 13:22:46.994132 18609 net.cpp:434] loss <- label_data_1_split_0
I0414 13:22:46.994140 18609 net.cpp:408] loss -> loss
…
