…
I0415 16:25:39.887971 15372 solver.cpp:93] Creating training net from train_net file: ./Prototxt/experiment_12/rtsd-r3/AHE/trial_4/train.prototxt
I0415 16:25:39.906828 15372 net.cpp:58] Initializing net from parameters: 
state {
  phase: TRAIN
  level: 0
  stage: ""
}
layer {
  name: "data"
  type: "Data"
  top: "data"
  top: "label"
  include {
    phase: TRAIN
  }
  transform_param {
    scale: 0.0039215689
    mirror: false
    crop_size: 48
    mean_value: 133
    mean_value: 126
    mean_value: 125
  }
  data_param {
    source: "../local_data/lmdb/rtsd-r3/AHE/train/lmdb"
    batch_size: 1024
    backend: LMDB
  }
}
layer {
  name: "conv1"
  type: "Convolution"
  bottom: "data"
  top: "conv1"
  convolution_param {
    num_output: 100
    pad: 0
    kernel_size: 7
    group: 1
    stride: 1
    weight_filler {
      type: "xavier"
    }
  }
}
layer {
  name: "conv1_relu"
  type: "ReLU"
  bottom: "conv1"
  top: "conv1"
}
layer {
  name: "pool1"
  type: "Pooling"
  bottom: "conv1"
  top: "pool1"
  pooling_param {
    pool: MAX
    kernel_size: 2
    stride: 2
  }
}
layer {
  name: "conv2"
  type: "Convolution"
  bottom: "pool1"
  top: "conv2"
  convolution_param {
    num_output: 150
    pad: 0
    kernel_size: 4
    group: 1
    stride: 1
    weight_filler {
      type: "xavier"
    }
  }
}
layer {
  name: "conv2_relu"
  type: "ReLU"
  bottom: "conv2"
  top: "conv2"
}
layer {
  name: "pool2"
  type: "Pooling"
  bottom: "conv2"
  top: "pool2"
  pooling_param {
    pool: MAX
    kernel_size: 2
    stride: 2
  }
}
layer {
  name: "conv3"
  type: "Convolution"
  bottom: "pool2"
  top: "conv3"
  convolution_param {
    num_output: 250
    pad: 0
    kernel_size: 4
    group: 1
    stride: 1
    weight_filler {
      type: "xavier"
    }
  }
}
layer {
  name: "conv3_relu"
  type: "ReLU"
  bottom: "conv3"
  top: "conv3"
}
layer {
  name: "pool3"
  type: "Pooling"
  bottom: "conv3"
  top: "pool3"
  pooling_param {
    pool: MAX
    kernel_size: 2
    stride: 2
  }
}
layer {
  name: "fc4_300"
  type: "InnerProduct"
  bottom: "pool3"
  top: "fc4_300"
  inner_product_param {
    num_output: 300
    weight_filler {
      type: "xavier"
    }
  }
}
layer {
  name: "fc4_relu"
  type: "ReLU"
  bottom: "fc4_300"
  top: "fc4_300"
}
layer {
  name: "drop4"
  type: "Dropout"
  bottom: "fc4_300"
  top: "fc4_300"
  dropout_param {
    dropout_ratio: 0.5
  }
}
layer {
  name: "fc5_106"
  type: "InnerProduct"
  bottom: "fc4_300"
  top: "fc5_classes"
  inner_product_param {
    num_output: 106
    weight_filler {
      type: "xavier"
    }
  }
}
layer {
  name: "softmax"
  type: "Softmax"
  bottom: "fc5_classes"
  top: "softmax"
}
layer {
  name: "loss"
  type: "MultinomialLogisticLoss"
  bottom: "softmax"
  bottom: "label"
  top: "loss"
}
layer {
  name: "accuracy_1"
  type: "Accuracy"
  bottom: "fc5_classes"
  bottom: "label"
  top: "accuracy_1"
  accuracy_param {
    top_k: 1
  }
}
layer {
  name: "accuracy_5"
  type: "Accuracy"
  bottom: "fc5_classes"
  bottom: "label"
  top: "accuracy_5"
  accuracy_param {
    top_k: 5
  }
}
layer {
  name: "silence"
  type: "Silence"
  bottom: "accuracy_1"
  bottom: "accuracy_5"
}
I0415 16:25:39.907019 15372 layer_factory.hpp:77] Creating layer data
I0415 16:25:39.908534 15372 net.cpp:100] Creating Layer data
I0415 16:25:39.908560 15372 net.cpp:408] data -> data
I0415 16:25:39.908596 15372 net.cpp:408] data -> label
I0415 16:25:39.911731 15552 db_lmdb.cpp:35] Opened lmdb ../local_data/lmdb/rtsd-r3/AHE/train/lmdb
I0415 16:25:39.934329 15372 data_layer.cpp:41] output data size: 1024,3,48,48
I0415 16:25:39.997004 15372 net.cpp:150] Setting up data
I0415 16:25:39.997047 15372 net.cpp:157] Top shape: 1024 3 48 48 (7077888)
I0415 16:25:39.997052 15372 net.cpp:157] Top shape: 1024 (1024)
I0415 16:25:39.997056 15372 net.cpp:165] Memory required for data: 28315648
I0415 16:25:39.997067 15372 layer_factory.hpp:77] Creating layer label_data_1_split
I0415 16:25:39.997081 15372 net.cpp:100] Creating Layer label_data_1_split
I0415 16:25:39.997089 15372 net.cpp:434] label_data_1_split <- label
I0415 16:25:39.997103 15372 net.cpp:408] label_data_1_split -> label_data_1_split_0
I0415 16:25:39.997118 15372 net.cpp:408] label_data_1_split -> label_data_1_split_1
I0415 16:25:39.997128 15372 net.cpp:408] label_data_1_split -> label_data_1_split_2
I0415 16:25:39.997215 15372 net.cpp:150] Setting up label_data_1_split
I0415 16:25:39.997225 15372 net.cpp:157] Top shape: 1024 (1024)
I0415 16:25:39.997229 15372 net.cpp:157] Top shape: 1024 (1024)
I0415 16:25:39.997232 15372 net.cpp:157] Top shape: 1024 (1024)
I0415 16:25:39.997236 15372 net.cpp:165] Memory required for data: 28327936
I0415 16:25:39.997238 15372 layer_factory.hpp:77] Creating layer conv1
I0415 16:25:39.997256 15372 net.cpp:100] Creating Layer conv1
I0415 16:25:39.997262 15372 net.cpp:434] conv1 <- data
I0415 16:25:39.997267 15372 net.cpp:408] conv1 -> conv1
I0415 16:25:40.396085 15372 net.cpp:150] Setting up conv1
I0415 16:25:40.396114 15372 net.cpp:157] Top shape: 1024 100 42 42 (180633600)
I0415 16:25:40.396118 15372 net.cpp:165] Memory required for data: 750862336
I0415 16:25:40.396143 15372 layer_factory.hpp:77] Creating layer conv1_relu
I0415 16:25:40.396155 15372 net.cpp:100] Creating Layer conv1_relu
I0415 16:25:40.396162 15372 net.cpp:434] conv1_relu <- conv1
I0415 16:25:40.396172 15372 net.cpp:395] conv1_relu -> conv1 (in-place)
I0415 16:25:40.396370 15372 net.cpp:150] Setting up conv1_relu
I0415 16:25:40.396384 15372 net.cpp:157] Top shape: 1024 100 42 42 (180633600)
I0415 16:25:40.396387 15372 net.cpp:165] Memory required for data: 1473396736
I0415 16:25:40.396390 15372 layer_factory.hpp:77] Creating layer pool1
I0415 16:25:40.396400 15372 net.cpp:100] Creating Layer pool1
I0415 16:25:40.396404 15372 net.cpp:434] pool1 <- conv1
I0415 16:25:40.396409 15372 net.cpp:408] pool1 -> pool1
I0415 16:25:40.396466 15372 net.cpp:150] Setting up pool1
I0415 16:25:40.396476 15372 net.cpp:157] Top shape: 1024 100 21 21 (45158400)
I0415 16:25:40.396478 15372 net.cpp:165] Memory required for data: 1654030336
I0415 16:25:40.396481 15372 layer_factory.hpp:77] Creating layer conv2
I0415 16:25:40.396492 15372 net.cpp:100] Creating Layer conv2
I0415 16:25:40.396497 15372 net.cpp:434] conv2 <- pool1
I0415 16:25:40.396502 15372 net.cpp:408] conv2 -> conv2
I0415 16:25:40.404120 15372 net.cpp:150] Setting up conv2
I0415 16:25:40.404146 15372 net.cpp:157] Top shape: 1024 150 18 18 (49766400)
I0415 16:25:40.404150 15372 net.cpp:165] Memory required for data: 1853095936
I0415 16:25:40.404163 15372 layer_factory.hpp:77] Creating layer conv2_relu
I0415 16:25:40.404172 15372 net.cpp:100] Creating Layer conv2_relu
I0415 16:25:40.404178 15372 net.cpp:434] conv2_relu <- conv2
I0415 16:25:40.404184 15372 net.cpp:395] conv2_relu -> conv2 (in-place)
I0415 16:25:40.406800 15372 net.cpp:150] Setting up conv2_relu
I0415 16:25:40.406816 15372 net.cpp:157] Top shape: 1024 150 18 18 (49766400)
I0415 16:25:40.406819 15372 net.cpp:165] Memory required for data: 2052161536
I0415 16:25:40.406823 15372 layer_factory.hpp:77] Creating layer pool2
I0415 16:25:40.406831 15372 net.cpp:100] Creating Layer pool2
I0415 16:25:40.406836 15372 net.cpp:434] pool2 <- conv2
I0415 16:25:40.406841 15372 net.cpp:408] pool2 -> pool2
I0415 16:25:40.406891 15372 net.cpp:150] Setting up pool2
I0415 16:25:40.406900 15372 net.cpp:157] Top shape: 1024 150 9 9 (12441600)
I0415 16:25:40.406905 15372 net.cpp:165] Memory required for data: 2101927936
I0415 16:25:40.406908 15372 layer_factory.hpp:77] Creating layer conv3
I0415 16:25:40.406919 15372 net.cpp:100] Creating Layer conv3
I0415 16:25:40.406946 15372 net.cpp:434] conv3 <- pool2
I0415 16:25:40.406955 15372 net.cpp:408] conv3 -> conv3
I0415 16:25:40.412693 15372 net.cpp:150] Setting up conv3
I0415 16:25:40.412711 15372 net.cpp:157] Top shape: 1024 250 6 6 (9216000)
I0415 16:25:40.412715 15372 net.cpp:165] Memory required for data: 2138791936
I0415 16:25:40.412724 15372 layer_factory.hpp:77] Creating layer conv3_relu
I0415 16:25:40.412732 15372 net.cpp:100] Creating Layer conv3_relu
I0415 16:25:40.412735 15372 net.cpp:434] conv3_relu <- conv3
I0415 16:25:40.412740 15372 net.cpp:395] conv3_relu -> conv3 (in-place)
I0415 16:25:40.413513 15372 net.cpp:150] Setting up conv3_relu
I0415 16:25:40.413530 15372 net.cpp:157] Top shape: 1024 250 6 6 (9216000)
I0415 16:25:40.413534 15372 net.cpp:165] Memory required for data: 2175655936
I0415 16:25:40.413537 15372 layer_factory.hpp:77] Creating layer pool3
I0415 16:25:40.413549 15372 net.cpp:100] Creating Layer pool3
I0415 16:25:40.413553 15372 net.cpp:434] pool3 <- conv3
I0415 16:25:40.413559 15372 net.cpp:408] pool3 -> pool3
I0415 16:25:40.413610 15372 net.cpp:150] Setting up pool3
I0415 16:25:40.413619 15372 net.cpp:157] Top shape: 1024 250 3 3 (2304000)
I0415 16:25:40.413622 15372 net.cpp:165] Memory required for data: 2184871936
I0415 16:25:40.413625 15372 layer_factory.hpp:77] Creating layer fc4_300
I0415 16:25:40.413632 15372 net.cpp:100] Creating Layer fc4_300
I0415 16:25:40.413636 15372 net.cpp:434] fc4_300 <- pool3
I0415 16:25:40.413641 15372 net.cpp:408] fc4_300 -> fc4_300
I0415 16:25:40.419667 15372 net.cpp:150] Setting up fc4_300
I0415 16:25:40.419685 15372 net.cpp:157] Top shape: 1024 300 (307200)
I0415 16:25:40.419688 15372 net.cpp:165] Memory required for data: 2186100736
I0415 16:25:40.419695 15372 layer_factory.hpp:77] Creating layer fc4_relu
I0415 16:25:40.419701 15372 net.cpp:100] Creating Layer fc4_relu
I0415 16:25:40.419708 15372 net.cpp:434] fc4_relu <- fc4_300
I0415 16:25:40.419714 15372 net.cpp:395] fc4_relu -> fc4_300 (in-place)
I0415 16:25:40.419929 15372 net.cpp:150] Setting up fc4_relu
I0415 16:25:40.419944 15372 net.cpp:157] Top shape: 1024 300 (307200)
I0415 16:25:40.419946 15372 net.cpp:165] Memory required for data: 2187329536
I0415 16:25:40.419950 15372 layer_factory.hpp:77] Creating layer drop4
I0415 16:25:40.419960 15372 net.cpp:100] Creating Layer drop4
I0415 16:25:40.419965 15372 net.cpp:434] drop4 <- fc4_300
I0415 16:25:40.419971 15372 net.cpp:395] drop4 -> fc4_300 (in-place)
I0415 16:25:40.420009 15372 net.cpp:150] Setting up drop4
I0415 16:25:40.420018 15372 net.cpp:157] Top shape: 1024 300 (307200)
I0415 16:25:40.420022 15372 net.cpp:165] Memory required for data: 2188558336
I0415 16:25:40.420024 15372 layer_factory.hpp:77] Creating layer fc5_106
I0415 16:25:40.420032 15372 net.cpp:100] Creating Layer fc5_106
I0415 16:25:40.420037 15372 net.cpp:434] fc5_106 <- fc4_300
I0415 16:25:40.420043 15372 net.cpp:408] fc5_106 -> fc5_classes
I0415 16:25:40.421324 15372 net.cpp:150] Setting up fc5_106
I0415 16:25:40.421340 15372 net.cpp:157] Top shape: 1024 106 (108544)
I0415 16:25:40.421344 15372 net.cpp:165] Memory required for data: 2188992512
I0415 16:25:40.421355 15372 layer_factory.hpp:77] Creating layer fc5_classes_fc5_106_0_split
I0415 16:25:40.421363 15372 net.cpp:100] Creating Layer fc5_classes_fc5_106_0_split
I0415 16:25:40.421366 15372 net.cpp:434] fc5_classes_fc5_106_0_split <- fc5_classes
I0415 16:25:40.421373 15372 net.cpp:408] fc5_classes_fc5_106_0_split -> fc5_classes_fc5_106_0_split_0
I0415 16:25:40.421381 15372 net.cpp:408] fc5_classes_fc5_106_0_split -> fc5_classes_fc5_106_0_split_1
I0415 16:25:40.421389 15372 net.cpp:408] fc5_classes_fc5_106_0_split -> fc5_classes_fc5_106_0_split_2
I0415 16:25:40.421447 15372 net.cpp:150] Setting up fc5_classes_fc5_106_0_split
I0415 16:25:40.421454 15372 net.cpp:157] Top shape: 1024 106 (108544)
I0415 16:25:40.421458 15372 net.cpp:157] Top shape: 1024 106 (108544)
I0415 16:25:40.421463 15372 net.cpp:157] Top shape: 1024 106 (108544)
I0415 16:25:40.421464 15372 net.cpp:165] Memory required for data: 2190295040
I0415 16:25:40.421483 15372 layer_factory.hpp:77] Creating layer softmax
I0415 16:25:40.421492 15372 net.cpp:100] Creating Layer softmax
I0415 16:25:40.421497 15372 net.cpp:434] softmax <- fc5_classes_fc5_106_0_split_0
I0415 16:25:40.421502 15372 net.cpp:408] softmax -> softmax
I0415 16:25:40.421763 15372 net.cpp:150] Setting up softmax
I0415 16:25:40.421778 15372 net.cpp:157] Top shape: 1024 106 (108544)
I0415 16:25:40.421783 15372 net.cpp:165] Memory required for data: 2190729216
I0415 16:25:40.421787 15372 layer_factory.hpp:77] Creating layer loss
I0415 16:25:40.421793 15372 net.cpp:100] Creating Layer loss
I0415 16:25:40.421797 15372 net.cpp:434] loss <- softmax
I0415 16:25:40.421802 15372 net.cpp:434] loss <- label_data_1_split_0
I0415 16:25:40.421808 15372 net.cpp:408] loss -> loss
…
