…
I0409 04:47:46.257553  3250 net.cpp:322] The NetState phase (0) differed from the phase (1) specified by a rule in layer accuracy_5
I0409 04:47:46.257648  3250 net.cpp:58] Initializing net from parameters: 
state {
  phase: TRAIN
  level: 0
  stage: ""
}
layer {
  name: "data"
  type: "Data"
  top: "data"
  top: "label"
  include {
    phase: TRAIN
  }
  transform_param {
    mirror: false
    crop_size: 48
    mean_value: 132
    mean_value: 132
    mean_value: 131
  }
  data_param {
    source: "../local_data/lmdb/rtsd-r1/CoNorm/train/lmdb"
    batch_size: 1024
    backend: LMDB
  }
}
layer {
  name: "conv1"
  type: "Convolution"
  bottom: "data"
  top: "conv1"
  convolution_param {
    num_output: 100
    pad: 0
    kernel_size: 7
    group: 1
    stride: 1
    weight_filler {
      type: "xavier"
    }
  }
}
layer {
  name: "conv1_relu"
  type: "ReLU"
  bottom: "conv1"
  top: "conv1"
}
layer {
  name: "pool1"
  type: "Pooling"
  bottom: "conv1"
  top: "pool1"
  pooling_param {
    pool: MAX
    kernel_size: 2
    stride: 2
  }
}
layer {
  name: "conv2"
  type: "Convolution"
  bottom: "pool1"
  top: "conv2"
  convolution_param {
    num_output: 150
    pad: 0
    kernel_size: 4
    group: 1
    stride: 1
    weight_filler {
      type: "xavier"
    }
  }
}
layer {
  name: "conv2_relu"
  type: "ReLU"
  bottom: "conv2"
  top: "conv2"
}
layer {
  name: "pool2"
  type: "Pooling"
  bottom: "conv2"
  top: "pool2"
  pooling_param {
    pool: MAX
    kernel_size: 2
    stride: 2
  }
}
layer {
  name: "conv3"
  type: "Convolution"
  bottom: "pool2"
  top: "conv3"
  convolution_param {
    num_output: 250
    pad: 0
    kernel_size: 4
    group: 1
    stride: 1
    weight_filler {
      type: "xavier"
    }
  }
}
layer {
  name: "conv3_relu"
  type: "ReLU"
  bottom: "conv3"
  top: "conv3"
}
layer {
  name: "pool3"
  type: "Pooling"
  bottom: "conv3"
  top: "pool3"
  pooling_param {
    pool: MAX
    kernel_size: 2
    stride: 2
  }
}
layer {
  name: "fc4_300"
  type: "InnerProduct"
  bottom: "pool3"
  top: "fc4_300"
  inner_product_param {
    num_output: 300
    weight_filler {
      type: "xavier"
    }
  }
}
layer {
  name: "fc4_relu"
  type: "ReLU"
  bottom: "fc4_300"
  top: "fc4_300"
}
layer {
  name: "drop4"
  type: "Dropout"
  bottom: "fc4_300"
  top: "fc4_300"
  dropout_param {
    dropout_ratio: 0.4
  }
}
layer {
  name: "fc5_67"
  type: "InnerProduct"
  bottom: "fc4_300"
  top: "fc5_classes"
  inner_product_param {
    num_output: 67
    weight_filler {
      type: "xavier"
    }
  }
}
layer {
  name: "loss"
  type: "SoftmaxWithLoss"
  bottom: "fc5_classes"
  bottom: "label"
  top: "loss"
}
I0409 04:47:46.257726  3250 layer_factory.hpp:77] Creating layer data
I0409 04:47:46.258807  3250 net.cpp:100] Creating Layer data
I0409 04:47:46.258834  3250 net.cpp:408] data -> data
I0409 04:47:46.258857  3250 net.cpp:408] data -> label
I0409 04:47:46.260529  3308 db_lmdb.cpp:35] Opened lmdb ../local_data/lmdb/rtsd-r1/CoNorm/train/lmdb
I0409 04:47:46.277155  3250 data_layer.cpp:41] output data size: 1024,3,48,48
I0409 04:47:46.319166  3250 net.cpp:150] Setting up data
I0409 04:47:46.319197  3250 net.cpp:157] Top shape: 1024 3 48 48 (7077888)
I0409 04:47:46.319229  3250 net.cpp:157] Top shape: 1024 (1024)
I0409 04:47:46.319233  3250 net.cpp:165] Memory required for data: 28315648
I0409 04:47:46.319243  3250 layer_factory.hpp:77] Creating layer conv1
I0409 04:47:46.319265  3250 net.cpp:100] Creating Layer conv1
I0409 04:47:46.319272  3250 net.cpp:434] conv1 <- data
I0409 04:47:46.319285  3250 net.cpp:408] conv1 -> conv1
I0409 04:47:46.581445  3250 net.cpp:150] Setting up conv1
I0409 04:47:46.581488  3250 net.cpp:157] Top shape: 1024 100 42 42 (180633600)
I0409 04:47:46.581493  3250 net.cpp:165] Memory required for data: 750850048
I0409 04:47:46.581514  3250 layer_factory.hpp:77] Creating layer conv1_relu
I0409 04:47:46.581526  3250 net.cpp:100] Creating Layer conv1_relu
I0409 04:47:46.581532  3250 net.cpp:434] conv1_relu <- conv1
I0409 04:47:46.581537  3250 net.cpp:395] conv1_relu -> conv1 (in-place)
I0409 04:47:46.581732  3250 net.cpp:150] Setting up conv1_relu
I0409 04:47:46.581745  3250 net.cpp:157] Top shape: 1024 100 42 42 (180633600)
I0409 04:47:46.581749  3250 net.cpp:165] Memory required for data: 1473384448
I0409 04:47:46.581753  3250 layer_factory.hpp:77] Creating layer pool1
I0409 04:47:46.581760  3250 net.cpp:100] Creating Layer pool1
I0409 04:47:46.581764  3250 net.cpp:434] pool1 <- conv1
I0409 04:47:46.581769  3250 net.cpp:408] pool1 -> pool1
I0409 04:47:46.581825  3250 net.cpp:150] Setting up pool1
I0409 04:47:46.581835  3250 net.cpp:157] Top shape: 1024 100 21 21 (45158400)
I0409 04:47:46.581837  3250 net.cpp:165] Memory required for data: 1654018048
I0409 04:47:46.581841  3250 layer_factory.hpp:77] Creating layer conv2
I0409 04:47:46.581852  3250 net.cpp:100] Creating Layer conv2
I0409 04:47:46.581857  3250 net.cpp:434] conv2 <- pool1
I0409 04:47:46.581863  3250 net.cpp:408] conv2 -> conv2
I0409 04:47:46.586113  3250 net.cpp:150] Setting up conv2
I0409 04:47:46.586132  3250 net.cpp:157] Top shape: 1024 150 18 18 (49766400)
I0409 04:47:46.586135  3250 net.cpp:165] Memory required for data: 1853083648
I0409 04:47:46.586145  3250 layer_factory.hpp:77] Creating layer conv2_relu
I0409 04:47:46.586153  3250 net.cpp:100] Creating Layer conv2_relu
I0409 04:47:46.586155  3250 net.cpp:434] conv2_relu <- conv2
I0409 04:47:46.586161  3250 net.cpp:395] conv2_relu -> conv2 (in-place)
I0409 04:47:46.586907  3250 net.cpp:150] Setting up conv2_relu
I0409 04:47:46.586923  3250 net.cpp:157] Top shape: 1024 150 18 18 (49766400)
I0409 04:47:46.586940  3250 net.cpp:165] Memory required for data: 2052149248
I0409 04:47:46.586942  3250 layer_factory.hpp:77] Creating layer pool2
I0409 04:47:46.586949  3250 net.cpp:100] Creating Layer pool2
I0409 04:47:46.586952  3250 net.cpp:434] pool2 <- conv2
I0409 04:47:46.586958  3250 net.cpp:408] pool2 -> pool2
I0409 04:47:46.587015  3250 net.cpp:150] Setting up pool2
I0409 04:47:46.587024  3250 net.cpp:157] Top shape: 1024 150 9 9 (12441600)
I0409 04:47:46.587028  3250 net.cpp:165] Memory required for data: 2101915648
I0409 04:47:46.587030  3250 layer_factory.hpp:77] Creating layer conv3
I0409 04:47:46.587039  3250 net.cpp:100] Creating Layer conv3
I0409 04:47:46.587043  3250 net.cpp:434] conv3 <- pool2
I0409 04:47:46.587046  3250 net.cpp:408] conv3 -> conv3
I0409 04:47:46.592373  3250 net.cpp:150] Setting up conv3
I0409 04:47:46.592401  3250 net.cpp:157] Top shape: 1024 250 6 6 (9216000)
I0409 04:47:46.592406  3250 net.cpp:165] Memory required for data: 2138779648
I0409 04:47:46.592414  3250 layer_factory.hpp:77] Creating layer conv3_relu
I0409 04:47:46.592423  3250 net.cpp:100] Creating Layer conv3_relu
I0409 04:47:46.592427  3250 net.cpp:434] conv3_relu <- conv3
I0409 04:47:46.592432  3250 net.cpp:395] conv3_relu -> conv3 (in-place)
I0409 04:47:46.593227  3250 net.cpp:150] Setting up conv3_relu
I0409 04:47:46.593255  3250 net.cpp:157] Top shape: 1024 250 6 6 (9216000)
I0409 04:47:46.593260  3250 net.cpp:165] Memory required for data: 2175643648
I0409 04:47:46.593262  3250 layer_factory.hpp:77] Creating layer pool3
I0409 04:47:46.593269  3250 net.cpp:100] Creating Layer pool3
I0409 04:47:46.593272  3250 net.cpp:434] pool3 <- conv3
I0409 04:47:46.593309  3250 net.cpp:408] pool3 -> pool3
I0409 04:47:46.593375  3250 net.cpp:150] Setting up pool3
I0409 04:47:46.593386  3250 net.cpp:157] Top shape: 1024 250 3 3 (2304000)
I0409 04:47:46.593389  3250 net.cpp:165] Memory required for data: 2184859648
I0409 04:47:46.593392  3250 layer_factory.hpp:77] Creating layer fc4_300
I0409 04:47:46.593400  3250 net.cpp:100] Creating Layer fc4_300
I0409 04:47:46.593402  3250 net.cpp:434] fc4_300 <- pool3
I0409 04:47:46.593408  3250 net.cpp:408] fc4_300 -> fc4_300
I0409 04:47:46.598672  3250 net.cpp:150] Setting up fc4_300
I0409 04:47:46.598690  3250 net.cpp:157] Top shape: 1024 300 (307200)
I0409 04:47:46.598706  3250 net.cpp:165] Memory required for data: 2186088448
I0409 04:47:46.598711  3250 layer_factory.hpp:77] Creating layer fc4_relu
I0409 04:47:46.598718  3250 net.cpp:100] Creating Layer fc4_relu
I0409 04:47:46.598721  3250 net.cpp:434] fc4_relu <- fc4_300
I0409 04:47:46.598728  3250 net.cpp:395] fc4_relu -> fc4_300 (in-place)
I0409 04:47:46.598924  3250 net.cpp:150] Setting up fc4_relu
I0409 04:47:46.598937  3250 net.cpp:157] Top shape: 1024 300 (307200)
I0409 04:47:46.598940  3250 net.cpp:165] Memory required for data: 2187317248
I0409 04:47:46.598943  3250 layer_factory.hpp:77] Creating layer drop4
I0409 04:47:46.598953  3250 net.cpp:100] Creating Layer drop4
I0409 04:47:46.598955  3250 net.cpp:434] drop4 <- fc4_300
I0409 04:47:46.598960  3250 net.cpp:395] drop4 -> fc4_300 (in-place)
I0409 04:47:46.598994  3250 net.cpp:150] Setting up drop4
I0409 04:47:46.599002  3250 net.cpp:157] Top shape: 1024 300 (307200)
I0409 04:47:46.599005  3250 net.cpp:165] Memory required for data: 2188546048
I0409 04:47:46.599009  3250 layer_factory.hpp:77] Creating layer fc5_67
I0409 04:47:46.599014  3250 net.cpp:100] Creating Layer fc5_67
I0409 04:47:46.599017  3250 net.cpp:434] fc5_67 <- fc4_300
I0409 04:47:46.599025  3250 net.cpp:408] fc5_67 -> fc5_classes
I0409 04:47:46.600373  3250 net.cpp:150] Setting up fc5_67
I0409 04:47:46.600389  3250 net.cpp:157] Top shape: 1024 67 (68608)
I0409 04:47:46.600391  3250 net.cpp:165] Memory required for data: 2188820480
I0409 04:47:46.600401  3250 layer_factory.hpp:77] Creating layer loss
I0409 04:47:46.600409  3250 net.cpp:100] Creating Layer loss
I0409 04:47:46.600411  3250 net.cpp:434] loss <- fc5_classes
I0409 04:47:46.600416  3250 net.cpp:434] loss <- label
I0409 04:47:46.600424  3250 net.cpp:408] loss -> loss
I0409 04:47:46.600436  3250 layer_factory.hpp:77] Creating layer loss
…
I0409 04:47:46.601084  3250 solver.cpp:193] Creating test net (#0) specified by test_net file: ./Prototxt/experiment_6/rtsd-r1/CoNorm/trial_1/test.prototxt
I0409 04:47:46.601223  3250 net.cpp:58] Initializing net from parameters: 
state {
  phase: TEST
}
layer {
  name: "data"
  type: "Data"
  top: "data"
  top: "label"
  include {
    phase: TEST
  }
  transform_param {
    mirror: false
    crop_size: 48
    mean_value: 133
    mean_value: 133
    mean_value: 132
  }
  data_param {
    source: "../local_data/lmdb/rtsd-r1/CoNorm/test/lmdb"
    batch_size: 1024
    backend: LMDB
  }
}
layer {
  name: "conv1"
  type: "Convolution"
  bottom: "data"
  top: "conv1"
  convolution_param {
    num_output: 100
    pad: 0
    kernel_size: 7
    group: 1
    stride: 1
    weight_filler {
      type: "xavier"
    }
  }
}
layer {
  name: "conv1_relu"
  type: "ReLU"
  bottom: "conv1"
  top: "conv1"
}
layer {
  name: "pool1"
  type: "Pooling"
  bottom: "conv1"
  top: "pool1"
  pooling_param {
    pool: MAX
    kernel_size: 2
    stride: 2
  }
}
layer {
  name: "conv2"
  type: "Convolution"
  bottom: "pool1"
  top: "conv2"
  convolution_param {
    num_output: 150
    pad: 0
    kernel_size: 4
    group: 1
    stride: 1
    weight_filler {
      type: "xavier"
    }
  }
}
layer {
  name: "conv2_relu"
  type: "ReLU"
  bottom: "conv2"
  top: "conv2"
}
layer {
  name: "pool2"
  type: "Pooling"
  bottom: "conv2"
  top: "pool2"
  pooling_param {
    pool: MAX
    kernel_size: 2
    stride: 2
  }
}
layer {
  name: "conv3"
  type: "Convolution"
  bottom: "pool2"
  top: "conv3"
  convolution_param {
    num_output: 250
    pad: 0
    kernel_size: 4
    group: 1
    stride: 1
    weight_filler {
      type: "xavier"
    }
  }
}
layer {
  name: "conv3_relu"
  type: "ReLU"
  bottom: "conv3"
  top: "conv3"
}
layer {
  name: "pool3"
  type: "Pooling"
  bottom: "conv3"
  top: "pool3"
  pooling_param {
    pool: MAX
    kernel_size: 2
    stride: 2
  }
}
layer {
  name: "fc4_300"
  type: "InnerProduct"
  bottom: "pool3"
  top: "fc4_300"
  inner_product_param {
    num_output: 300
    weight_filler {
      type: "xavier"
    }
  }
}
layer {
  name: "fc4_relu"
  type: "ReLU"
  bottom: "fc4_300"
  top: "fc4_300"
}
layer {
  name: "drop4"
  type: "Dropout"
  bottom: "fc4_300"
  top: "fc4_300"
  dropout_param {
    dropout_ratio: 0.4
  }
}
layer {
  name: "fc5_67"
  type: "InnerProduct"
  bottom: "fc4_300"
  top: "fc5_classes"
  inner_product_param {
    num_output: 67
    weight_filler {
      type: "xavier"
    }
  }
}
layer {
  name: "loss"
  type: "SoftmaxWithLoss"
  bottom: "fc5_classes"
  bottom: "label"
  top: "loss"
}
layer {
  name: "accuracy_1"
  type: "Accuracy"
  bottom: "fc5_classes"
  bottom: "label"
  top: "accuracy_1"
  include {
    phase: TEST
  }
  accuracy_param {
    top_k: 1
  }
}
layer {
  name: "accuracy_5"
  type: "Accuracy"
  bottom: "fc5_classes"
  bottom: "label"
  top: "accuracy_5"
  include {
    phase: TEST
  }
  accuracy_param {
    top_k: 5
  }
}
I0409 04:47:46.601322  3250 layer_factory.hpp:77] Creating layer data
I0409 04:47:46.602038  3250 net.cpp:100] Creating Layer data
I0409 04:47:46.602049  3250 net.cpp:408] data -> data
I0409 04:47:46.602061  3250 net.cpp:408] data -> label
I0409 04:47:46.605967  3319 db_lmdb.cpp:35] Opened lmdb ../local_data/lmdb/rtsd-r1/CoNorm/test/lmdb
I0409 04:47:46.606151  3250 data_layer.cpp:41] output data size: 1024,3,48,48
I0409 04:47:46.650473  3250 net.cpp:150] Setting up data
I0409 04:47:46.650504  3250 net.cpp:157] Top shape: 1024 3 48 48 (7077888)
I0409 04:47:46.650511  3250 net.cpp:157] Top shape: 1024 (1024)
I0409 04:47:46.650512  3250 net.cpp:165] Memory required for data: 28315648
I0409 04:47:46.650518  3250 layer_factory.hpp:77] Creating layer label_data_1_split
I0409 04:47:46.650533  3250 net.cpp:100] Creating Layer label_data_1_split
I0409 04:47:46.650538  3250 net.cpp:434] label_data_1_split <- label
I0409 04:47:46.650545  3250 net.cpp:408] label_data_1_split -> label_data_1_split_0
I0409 04:47:46.650555  3250 net.cpp:408] label_data_1_split -> label_data_1_split_1
I0409 04:47:46.650562  3250 net.cpp:408] label_data_1_split -> label_data_1_split_2
I0409 04:47:46.650748  3250 net.cpp:150] Setting up label_data_1_split
I0409 04:47:46.650760  3250 net.cpp:157] Top shape: 1024 (1024)
I0409 04:47:46.650764  3250 net.cpp:157] Top shape: 1024 (1024)
I0409 04:47:46.650768  3250 net.cpp:157] Top shape: 1024 (1024)
I0409 04:47:46.650770  3250 net.cpp:165] Memory required for data: 28327936
I0409 04:47:46.650774  3250 layer_factory.hpp:77] Creating layer conv1
I0409 04:47:46.650789  3250 net.cpp:100] Creating Layer conv1
I0409 04:47:46.650794  3250 net.cpp:434] conv1 <- data
I0409 04:47:46.650801  3250 net.cpp:408] conv1 -> conv1
I0409 04:47:46.654767  3250 net.cpp:150] Setting up conv1
I0409 04:47:46.654788  3250 net.cpp:157] Top shape: 1024 100 42 42 (180633600)
I0409 04:47:46.654791  3250 net.cpp:165] Memory required for data: 750862336
I0409 04:47:46.654803  3250 layer_factory.hpp:77] Creating layer conv1_relu
I0409 04:47:46.654814  3250 net.cpp:100] Creating Layer conv1_relu
I0409 04:47:46.654816  3250 net.cpp:434] conv1_relu <- conv1
I0409 04:47:46.654821  3250 net.cpp:395] conv1_relu -> conv1 (in-place)
I0409 04:47:46.655033  3250 net.cpp:150] Setting up conv1_relu
I0409 04:47:46.655050  3250 net.cpp:157] Top shape: 1024 100 42 42 (180633600)
I0409 04:47:46.655053  3250 net.cpp:165] Memory required for data: 1473396736
I0409 04:47:46.655056  3250 layer_factory.hpp:77] Creating layer pool1
I0409 04:47:46.655066  3250 net.cpp:100] Creating Layer pool1
I0409 04:47:46.655071  3250 net.cpp:434] pool1 <- conv1
I0409 04:47:46.655077  3250 net.cpp:408] pool1 -> pool1
I0409 04:47:46.655133  3250 net.cpp:150] Setting up pool1
I0409 04:47:46.655145  3250 net.cpp:157] Top shape: 1024 100 21 21 (45158400)
I0409 04:47:46.655148  3250 net.cpp:165] Memory required for data: 1654030336
I0409 04:47:46.655151  3250 layer_factory.hpp:77] Creating layer conv2
I0409 04:47:46.655161  3250 net.cpp:100] Creating Layer conv2
I0409 04:47:46.655164  3250 net.cpp:434] conv2 <- pool1
I0409 04:47:46.655174  3250 net.cpp:408] conv2 -> conv2
I0409 04:47:46.659186  3250 net.cpp:150] Setting up conv2
I0409 04:47:46.659207  3250 net.cpp:157] Top shape: 1024 150 18 18 (49766400)
I0409 04:47:46.659211  3250 net.cpp:165] Memory required for data: 1853095936
I0409 04:47:46.659220  3250 layer_factory.hpp:77] Creating layer conv2_relu
I0409 04:47:46.659251  3250 net.cpp:100] Creating Layer conv2_relu
I0409 04:47:46.659255  3250 net.cpp:434] conv2_relu <- conv2
I0409 04:47:46.659261  3250 net.cpp:395] conv2_relu -> conv2 (in-place)
I0409 04:47:46.660099  3250 net.cpp:150] Setting up conv2_relu
I0409 04:47:46.660117  3250 net.cpp:157] Top shape: 1024 150 18 18 (49766400)
I0409 04:47:46.660120  3250 net.cpp:165] Memory required for data: 2052161536
I0409 04:47:46.660125  3250 layer_factory.hpp:77] Creating layer pool2
I0409 04:47:46.660132  3250 net.cpp:100] Creating Layer pool2
I0409 04:47:46.660136  3250 net.cpp:434] pool2 <- conv2
I0409 04:47:46.660142  3250 net.cpp:408] pool2 -> pool2
I0409 04:47:46.660204  3250 net.cpp:150] Setting up pool2
I0409 04:47:46.660214  3250 net.cpp:157] Top shape: 1024 150 9 9 (12441600)
I0409 04:47:46.660218  3250 net.cpp:165] Memory required for data: 2101927936
I0409 04:47:46.660220  3250 layer_factory.hpp:77] Creating layer conv3
I0409 04:47:46.660233  3250 net.cpp:100] Creating Layer conv3
I0409 04:47:46.660239  3250 net.cpp:434] conv3 <- pool2
I0409 04:47:46.660245  3250 net.cpp:408] conv3 -> conv3
I0409 04:47:46.665822  3250 net.cpp:150] Setting up conv3
I0409 04:47:46.665840  3250 net.cpp:157] Top shape: 1024 250 6 6 (9216000)
I0409 04:47:46.665856  3250 net.cpp:165] Memory required for data: 2138791936
I0409 04:47:46.665871  3250 layer_factory.hpp:77] Creating layer conv3_relu
I0409 04:47:46.665879  3250 net.cpp:100] Creating Layer conv3_relu
I0409 04:47:46.665884  3250 net.cpp:434] conv3_relu <- conv3
I0409 04:47:46.665889  3250 net.cpp:395] conv3_relu -> conv3 (in-place)
I0409 04:47:46.666703  3250 net.cpp:150] Setting up conv3_relu
I0409 04:47:46.666719  3250 net.cpp:157] Top shape: 1024 250 6 6 (9216000)
I0409 04:47:46.666738  3250 net.cpp:165] Memory required for data: 2175655936
I0409 04:47:46.666761  3250 layer_factory.hpp:77] Creating layer pool3
I0409 04:47:46.666769  3250 net.cpp:100] Creating Layer pool3
I0409 04:47:46.666772  3250 net.cpp:434] pool3 <- conv3
I0409 04:47:46.666780  3250 net.cpp:408] pool3 -> pool3
I0409 04:47:46.666836  3250 net.cpp:150] Setting up pool3
I0409 04:47:46.666847  3250 net.cpp:157] Top shape: 1024 250 3 3 (2304000)
I0409 04:47:46.666851  3250 net.cpp:165] Memory required for data: 2184871936
I0409 04:47:46.666853  3250 layer_factory.hpp:77] Creating layer fc4_300
I0409 04:47:46.666862  3250 net.cpp:100] Creating Layer fc4_300
I0409 04:47:46.666867  3250 net.cpp:434] fc4_300 <- pool3
I0409 04:47:46.666873  3250 net.cpp:408] fc4_300 -> fc4_300
I0409 04:47:46.672194  3250 net.cpp:150] Setting up fc4_300
I0409 04:47:46.672210  3250 net.cpp:157] Top shape: 1024 300 (307200)
I0409 04:47:46.672214  3250 net.cpp:165] Memory required for data: 2186100736
I0409 04:47:46.672222  3250 layer_factory.hpp:77] Creating layer fc4_relu
I0409 04:47:46.672230  3250 net.cpp:100] Creating Layer fc4_relu
I0409 04:47:46.672233  3250 net.cpp:434] fc4_relu <- fc4_300
I0409 04:47:46.672238  3250 net.cpp:395] fc4_relu -> fc4_300 (in-place)
I0409 04:47:46.672443  3250 net.cpp:150] Setting up fc4_relu
I0409 04:47:46.672459  3250 net.cpp:157] Top shape: 1024 300 (307200)
I0409 04:47:46.672462  3250 net.cpp:165] Memory required for data: 2187329536
I0409 04:47:46.672466  3250 layer_factory.hpp:77] Creating layer drop4
I0409 04:47:46.672474  3250 net.cpp:100] Creating Layer drop4
I0409 04:47:46.672478  3250 net.cpp:434] drop4 <- fc4_300
I0409 04:47:46.672485  3250 net.cpp:395] drop4 -> fc4_300 (in-place)
I0409 04:47:46.672516  3250 net.cpp:150] Setting up drop4
I0409 04:47:46.672524  3250 net.cpp:157] Top shape: 1024 300 (307200)
I0409 04:47:46.672528  3250 net.cpp:165] Memory required for data: 2188558336
I0409 04:47:46.672530  3250 layer_factory.hpp:77] Creating layer fc5_67
I0409 04:47:46.672539  3250 net.cpp:100] Creating Layer fc5_67
I0409 04:47:46.672544  3250 net.cpp:434] fc5_67 <- fc4_300
I0409 04:47:46.672549  3250 net.cpp:408] fc5_67 -> fc5_classes
I0409 04:47:46.672811  3250 net.cpp:150] Setting up fc5_67
I0409 04:47:46.672819  3250 net.cpp:157] Top shape: 1024 67 (68608)
I0409 04:47:46.672822  3250 net.cpp:165] Memory required for data: 2188832768
I0409 04:47:46.672833  3250 layer_factory.hpp:77] Creating layer fc5_classes_fc5_67_0_split
I0409 04:47:46.672842  3250 net.cpp:100] Creating Layer fc5_classes_fc5_67_0_split
I0409 04:47:46.672845  3250 net.cpp:434] fc5_classes_fc5_67_0_split <- fc5_classes
I0409 04:47:46.672850  3250 net.cpp:408] fc5_classes_fc5_67_0_split -> fc5_classes_fc5_67_0_split_0
I0409 04:47:46.672857  3250 net.cpp:408] fc5_classes_fc5_67_0_split -> fc5_classes_fc5_67_0_split_1
I0409 04:47:46.672865  3250 net.cpp:408] fc5_classes_fc5_67_0_split -> fc5_classes_fc5_67_0_split_2
I0409 04:47:46.672919  3250 net.cpp:150] Setting up fc5_classes_fc5_67_0_split
I0409 04:47:46.672925  3250 net.cpp:157] Top shape: 1024 67 (68608)
I0409 04:47:46.672930  3250 net.cpp:157] Top shape: 1024 67 (68608)
I0409 04:47:46.672932  3250 net.cpp:157] Top shape: 1024 67 (68608)
I0409 04:47:46.672935  3250 net.cpp:165] Memory required for data: 2189656064
I0409 04:47:46.672938  3250 layer_factory.hpp:77] Creating layer loss
I0409 04:47:46.672947  3250 net.cpp:100] Creating Layer loss
I0409 04:47:46.672950  3250 net.cpp:434] loss <- fc5_classes_fc5_67_0_split_0
I0409 04:47:46.672955  3250 net.cpp:434] loss <- label_data_1_split_0
I0409 04:47:46.672961  3250 net.cpp:408] loss -> loss
…
