…
I0411 22:48:47.625130 29690 net.cpp:322] The NetState phase (0) differed from the phase (1) specified by a rule in layer accuracy_5
I0411 22:48:47.625294 29690 net.cpp:58] Initializing net from parameters: 
state {
  phase: TRAIN
  level: 0
  stage: ""
}
layer {
  name: "data"
  type: "Data"
  top: "data"
  top: "label"
  include {
    phase: TRAIN
  }
  transform_param {
    scale: 0.0039215689
    mirror: false
    crop_size: 48
    mean_value: 132
    mean_value: 126
    mean_value: 140
  }
  data_param {
    source: "../local_data/lmdb/rtsd-r1/AHE/train/lmdb"
    batch_size: 1024
    backend: LMDB
  }
}
layer {
  name: "conv1"
  type: "Convolution"
  bottom: "data"
  top: "conv1"
  convolution_param {
    num_output: 100
    pad: 0
    kernel_size: 7
    group: 1
    stride: 1
    weight_filler {
      type: "xavier"
    }
  }
}
layer {
  name: "conv1_prescale"
  type: "Scale"
  bottom: "conv1"
  top: "conv1"
  param {
    lr_mult: 0
    decay_mult: 0
  }
  scale_param {
    filler {
      value: 0.6666
    }
    bias_term: false
  }
}
layer {
  name: "conv1_sTanH"
  type: "TanH"
  bottom: "conv1"
  top: "conv1"
}
layer {
  name: "conv1_postscale"
  type: "Scale"
  bottom: "conv1"
  top: "conv1"
  param {
    lr_mult: 0
    decay_mult: 0
  }
  scale_param {
    filler {
      value: 1.7159
    }
    bias_term: false
  }
}
layer {
  name: "pool1"
  type: "Pooling"
  bottom: "conv1"
  top: "pool1"
  pooling_param {
    pool: MAX
    kernel_size: 2
    stride: 2
  }
}
layer {
  name: "conv2"
  type: "Convolution"
  bottom: "pool1"
  top: "conv2"
  convolution_param {
    num_output: 150
    pad: 0
    kernel_size: 4
    group: 1
    stride: 1
    weight_filler {
      type: "xavier"
    }
  }
}
layer {
  name: "conv2_prescale"
  type: "Scale"
  bottom: "conv2"
  top: "conv2"
  param {
    lr_mult: 0
    decay_mult: 0
  }
  scale_param {
    filler {
      value: 0.6666
    }
    bias_term: false
  }
}
layer {
  name: "conv2_sTanH"
  type: "TanH"
  bottom: "conv2"
  top: "conv2"
}
layer {
  name: "conv2_postscale"
  type: "Scale"
  bottom: "conv2"
  top: "conv2"
  param {
    lr_mult: 0
    decay_mult: 0
  }
  scale_param {
    filler {
      value: 1.7159
    }
    bias_term: false
  }
}
layer {
  name: "pool2"
  type: "Pooling"
  bottom: "conv2"
  top: "pool2"
  pooling_param {
    pool: MAX
    kernel_size: 2
    stride: 2
  }
}
layer {
  name: "conv3"
  type: "Convolution"
  bottom: "pool2"
  top: "conv3"
  convolution_param {
    num_output: 250
    pad: 0
    kernel_size: 4
    group: 1
    stride: 1
    weight_filler {
      type: "xavier"
    }
  }
}
layer {
  name: "conv3_prescale"
  type: "Scale"
  bottom: "conv3"
  top: "conv3"
  param {
    lr_mult: 0
    decay_mult: 0
  }
  scale_param {
    filler {
      value: 0.6666
    }
    bias_term: false
  }
}
layer {
  name: "conv3_sTanH"
  type: "TanH"
  bottom: "conv3"
  top: "conv3"
}
layer {
  name: "conv3_postscale"
  type: "Scale"
  bottom: "conv3"
  top: "conv3"
  param {
    lr_mult: 0
    decay_mult: 0
  }
  scale_param {
    filler {
      value: 1.7159
    }
    bias_term: false
  }
}
layer {
  name: "pool3"
  type: "Pooling"
  bottom: "conv3"
  top: "pool3"
  pooling_param {
    pool: MAX
    kernel_size: 2
    stride: 2
  }
}
layer {
  name: "fc4_300"
  type: "InnerProduct"
  bottom: "pool3"
  top: "fc4_300"
  inner_product_param {
    num_output: 300
    weight_filler {
      type: "xavier"
    }
  }
}
layer {
  name: "fc4_prescale"
  type: "Scale"
  bottom: "fc4_300"
  top: "fc4_300"
  param {
    lr_mult: 0
    decay_mult: 0
  }
  scale_param {
    filler {
      value: 0.6666
    }
    bias_term: false
  }
}
layer {
  name: "fc4_sTanH"
  type: "TanH"
  bottom: "fc4_300"
  top: "fc4_300"
}
layer {
  name: "fc4_postscale"
  type: "Scale"
  bottom: "fc4_300"
  top: "fc4_300"
  param {
    lr_mult: 0
    decay_mult: 0
  }
  scale_param {
    filler {
      value: 1.7159
    }
    bias_term: false
  }
}
layer {
  name: "drop4"
  type: "Dropout"
  bottom: "fc4_300"
  top: "fc4_300"
  dropout_param {
    dropout_ratio: 0.1
  }
}
layer {
  name: "fc5_67"
  type: "InnerProduct"
  bottom: "fc4_300"
  top: "fc5_classes"
  inner_product_param {
    num_output: 67
    weight_filler {
      type: "xavier"
    }
  }
}
layer {
  name: "loss"
  type: "SoftmaxWithLoss"
  bottom: "fc5_classes"
  bottom: "label"
  top: "loss"
}
I0411 22:48:47.625409 29690 layer_factory.hpp:77] Creating layer data
I0411 22:48:47.626479 29690 net.cpp:100] Creating Layer data
I0411 22:48:47.626497 29690 net.cpp:408] data -> data
I0411 22:48:47.626524 29690 net.cpp:408] data -> label
I0411 22:48:47.627719 29839 db_lmdb.cpp:35] Opened lmdb ../local_data/lmdb/rtsd-r1/AHE/train/lmdb
I0411 22:48:47.645393 29690 data_layer.cpp:41] output data size: 1024,3,48,48
I0411 22:48:47.691946 29690 net.cpp:150] Setting up data
I0411 22:48:47.691979 29690 net.cpp:157] Top shape: 1024 3 48 48 (7077888)
I0411 22:48:47.691985 29690 net.cpp:157] Top shape: 1024 (1024)
I0411 22:48:47.691988 29690 net.cpp:165] Memory required for data: 28315648
I0411 22:48:47.691999 29690 layer_factory.hpp:77] Creating layer conv1
I0411 22:48:47.692028 29690 net.cpp:100] Creating Layer conv1
I0411 22:48:47.692036 29690 net.cpp:434] conv1 <- data
I0411 22:48:47.692059 29690 net.cpp:408] conv1 -> conv1
I0411 22:48:48.008246 29690 net.cpp:150] Setting up conv1
I0411 22:48:48.008275 29690 net.cpp:157] Top shape: 1024 100 42 42 (180633600)
I0411 22:48:48.008280 29690 net.cpp:165] Memory required for data: 750850048
I0411 22:48:48.008302 29690 layer_factory.hpp:77] Creating layer conv1_prescale
I0411 22:48:48.008318 29690 net.cpp:100] Creating Layer conv1_prescale
I0411 22:48:48.008324 29690 net.cpp:434] conv1_prescale <- conv1
I0411 22:48:48.008330 29690 net.cpp:395] conv1_prescale -> conv1 (in-place)
I0411 22:48:48.008440 29690 net.cpp:150] Setting up conv1_prescale
I0411 22:48:48.008450 29690 net.cpp:157] Top shape: 1024 100 42 42 (180633600)
I0411 22:48:48.008452 29690 net.cpp:165] Memory required for data: 1473384448
I0411 22:48:48.008460 29690 layer_factory.hpp:77] Creating layer conv1_sTanH
I0411 22:48:48.008466 29690 net.cpp:100] Creating Layer conv1_sTanH
I0411 22:48:48.008471 29690 net.cpp:434] conv1_sTanH <- conv1
I0411 22:48:48.008474 29690 net.cpp:395] conv1_sTanH -> conv1 (in-place)
I0411 22:48:48.008671 29690 net.cpp:150] Setting up conv1_sTanH
I0411 22:48:48.008683 29690 net.cpp:157] Top shape: 1024 100 42 42 (180633600)
I0411 22:48:48.008689 29690 net.cpp:165] Memory required for data: 2195918848
I0411 22:48:48.008693 29690 layer_factory.hpp:77] Creating layer conv1_postscale
I0411 22:48:48.008702 29690 net.cpp:100] Creating Layer conv1_postscale
I0411 22:48:48.008704 29690 net.cpp:434] conv1_postscale <- conv1
I0411 22:48:48.008710 29690 net.cpp:395] conv1_postscale -> conv1 (in-place)
I0411 22:48:48.008807 29690 net.cpp:150] Setting up conv1_postscale
I0411 22:48:48.008816 29690 net.cpp:157] Top shape: 1024 100 42 42 (180633600)
I0411 22:48:48.008819 29690 net.cpp:165] Memory required for data: 2918453248
I0411 22:48:48.008837 29690 layer_factory.hpp:77] Creating layer pool1
I0411 22:48:48.008844 29690 net.cpp:100] Creating Layer pool1
I0411 22:48:48.008849 29690 net.cpp:434] pool1 <- conv1
I0411 22:48:48.008854 29690 net.cpp:408] pool1 -> pool1
I0411 22:48:48.008903 29690 net.cpp:150] Setting up pool1
I0411 22:48:48.008930 29690 net.cpp:157] Top shape: 1024 100 21 21 (45158400)
I0411 22:48:48.008936 29690 net.cpp:165] Memory required for data: 3099086848
I0411 22:48:48.008939 29690 layer_factory.hpp:77] Creating layer conv2
I0411 22:48:48.008952 29690 net.cpp:100] Creating Layer conv2
I0411 22:48:48.008957 29690 net.cpp:434] conv2 <- pool1
I0411 22:48:48.008963 29690 net.cpp:408] conv2 -> conv2
I0411 22:48:48.024446 29690 net.cpp:150] Setting up conv2
I0411 22:48:48.024466 29690 net.cpp:157] Top shape: 1024 150 18 18 (49766400)
I0411 22:48:48.024471 29690 net.cpp:165] Memory required for data: 3298152448
I0411 22:48:48.024482 29690 layer_factory.hpp:77] Creating layer conv2_prescale
I0411 22:48:48.024493 29690 net.cpp:100] Creating Layer conv2_prescale
I0411 22:48:48.024498 29690 net.cpp:434] conv2_prescale <- conv2
I0411 22:48:48.024503 29690 net.cpp:395] conv2_prescale -> conv2 (in-place)
I0411 22:48:48.024623 29690 net.cpp:150] Setting up conv2_prescale
I0411 22:48:48.024633 29690 net.cpp:157] Top shape: 1024 150 18 18 (49766400)
I0411 22:48:48.024638 29690 net.cpp:165] Memory required for data: 3497218048
I0411 22:48:48.024643 29690 layer_factory.hpp:77] Creating layer conv2_sTanH
I0411 22:48:48.024652 29690 net.cpp:100] Creating Layer conv2_sTanH
I0411 22:48:48.024668 29690 net.cpp:434] conv2_sTanH <- conv2
I0411 22:48:48.024673 29690 net.cpp:395] conv2_sTanH -> conv2 (in-place)
I0411 22:48:48.025687 29690 net.cpp:150] Setting up conv2_sTanH
I0411 22:48:48.025707 29690 net.cpp:157] Top shape: 1024 150 18 18 (49766400)
I0411 22:48:48.025712 29690 net.cpp:165] Memory required for data: 3696283648
I0411 22:48:48.025714 29690 layer_factory.hpp:77] Creating layer conv2_postscale
I0411 22:48:48.025723 29690 net.cpp:100] Creating Layer conv2_postscale
I0411 22:48:48.025728 29690 net.cpp:434] conv2_postscale <- conv2
I0411 22:48:48.025735 29690 net.cpp:395] conv2_postscale -> conv2 (in-place)
I0411 22:48:48.025857 29690 net.cpp:150] Setting up conv2_postscale
I0411 22:48:48.025866 29690 net.cpp:157] Top shape: 1024 150 18 18 (49766400)
I0411 22:48:48.025871 29690 net.cpp:165] Memory required for data: 3895349248
I0411 22:48:48.025876 29690 layer_factory.hpp:77] Creating layer pool2
I0411 22:48:48.025884 29690 net.cpp:100] Creating Layer pool2
I0411 22:48:48.025889 29690 net.cpp:434] pool2 <- conv2
I0411 22:48:48.025894 29690 net.cpp:408] pool2 -> pool2
I0411 22:48:48.025938 29690 net.cpp:150] Setting up pool2
I0411 22:48:48.025944 29690 net.cpp:157] Top shape: 1024 150 9 9 (12441600)
I0411 22:48:48.025949 29690 net.cpp:165] Memory required for data: 3945115648
I0411 22:48:48.025951 29690 layer_factory.hpp:77] Creating layer conv3
I0411 22:48:48.025962 29690 net.cpp:100] Creating Layer conv3
I0411 22:48:48.025967 29690 net.cpp:434] conv3 <- pool2
I0411 22:48:48.025974 29690 net.cpp:408] conv3 -> conv3
I0411 22:48:48.031445 29690 net.cpp:150] Setting up conv3
I0411 22:48:48.031466 29690 net.cpp:157] Top shape: 1024 250 6 6 (9216000)
I0411 22:48:48.031471 29690 net.cpp:165] Memory required for data: 3981979648
I0411 22:48:48.031481 29690 layer_factory.hpp:77] Creating layer conv3_prescale
I0411 22:48:48.031491 29690 net.cpp:100] Creating Layer conv3_prescale
I0411 22:48:48.031496 29690 net.cpp:434] conv3_prescale <- conv3
I0411 22:48:48.031504 29690 net.cpp:395] conv3_prescale -> conv3 (in-place)
I0411 22:48:48.031605 29690 net.cpp:150] Setting up conv3_prescale
I0411 22:48:48.031615 29690 net.cpp:157] Top shape: 1024 250 6 6 (9216000)
I0411 22:48:48.031618 29690 net.cpp:165] Memory required for data: 4018843648
I0411 22:48:48.031623 29690 layer_factory.hpp:77] Creating layer conv3_sTanH
I0411 22:48:48.031628 29690 net.cpp:100] Creating Layer conv3_sTanH
I0411 22:48:48.031633 29690 net.cpp:434] conv3_sTanH <- conv3
I0411 22:48:48.031638 29690 net.cpp:395] conv3_sTanH -> conv3 (in-place)
I0411 22:48:48.032439 29690 net.cpp:150] Setting up conv3_sTanH
I0411 22:48:48.032457 29690 net.cpp:157] Top shape: 1024 250 6 6 (9216000)
I0411 22:48:48.032461 29690 net.cpp:165] Memory required for data: 4055707648
I0411 22:48:48.032492 29690 layer_factory.hpp:77] Creating layer conv3_postscale
I0411 22:48:48.032501 29690 net.cpp:100] Creating Layer conv3_postscale
I0411 22:48:48.032506 29690 net.cpp:434] conv3_postscale <- conv3
I0411 22:48:48.032512 29690 net.cpp:395] conv3_postscale -> conv3 (in-place)
I0411 22:48:48.032624 29690 net.cpp:150] Setting up conv3_postscale
I0411 22:48:48.032634 29690 net.cpp:157] Top shape: 1024 250 6 6 (9216000)
I0411 22:48:48.032637 29690 net.cpp:165] Memory required for data: 4092571648
I0411 22:48:48.032642 29690 layer_factory.hpp:77] Creating layer pool3
I0411 22:48:48.032649 29690 net.cpp:100] Creating Layer pool3
I0411 22:48:48.032651 29690 net.cpp:434] pool3 <- conv3
I0411 22:48:48.032658 29690 net.cpp:408] pool3 -> pool3
I0411 22:48:48.032701 29690 net.cpp:150] Setting up pool3
I0411 22:48:48.032709 29690 net.cpp:157] Top shape: 1024 250 3 3 (2304000)
I0411 22:48:48.032713 29690 net.cpp:165] Memory required for data: 4101787648
I0411 22:48:48.032717 29690 layer_factory.hpp:77] Creating layer fc4_300
I0411 22:48:48.032727 29690 net.cpp:100] Creating Layer fc4_300
I0411 22:48:48.032732 29690 net.cpp:434] fc4_300 <- pool3
I0411 22:48:48.032737 29690 net.cpp:408] fc4_300 -> fc4_300
I0411 22:48:48.037984 29690 net.cpp:150] Setting up fc4_300
I0411 22:48:48.038002 29690 net.cpp:157] Top shape: 1024 300 (307200)
I0411 22:48:48.038007 29690 net.cpp:165] Memory required for data: 4103016448
I0411 22:48:48.038013 29690 layer_factory.hpp:77] Creating layer fc4_prescale
I0411 22:48:48.038022 29690 net.cpp:100] Creating Layer fc4_prescale
I0411 22:48:48.038027 29690 net.cpp:434] fc4_prescale <- fc4_300
I0411 22:48:48.038034 29690 net.cpp:395] fc4_prescale -> fc4_300 (in-place)
I0411 22:48:48.038123 29690 net.cpp:150] Setting up fc4_prescale
I0411 22:48:48.038132 29690 net.cpp:157] Top shape: 1024 300 (307200)
I0411 22:48:48.038134 29690 net.cpp:165] Memory required for data: 4104245248
I0411 22:48:48.038139 29690 layer_factory.hpp:77] Creating layer fc4_sTanH
I0411 22:48:48.038144 29690 net.cpp:100] Creating Layer fc4_sTanH
I0411 22:48:48.038149 29690 net.cpp:434] fc4_sTanH <- fc4_300
I0411 22:48:48.038153 29690 net.cpp:395] fc4_sTanH -> fc4_300 (in-place)
I0411 22:48:48.038343 29690 net.cpp:150] Setting up fc4_sTanH
I0411 22:48:48.038354 29690 net.cpp:157] Top shape: 1024 300 (307200)
I0411 22:48:48.038358 29690 net.cpp:165] Memory required for data: 4105474048
I0411 22:48:48.038362 29690 layer_factory.hpp:77] Creating layer fc4_postscale
I0411 22:48:48.038368 29690 net.cpp:100] Creating Layer fc4_postscale
I0411 22:48:48.038372 29690 net.cpp:434] fc4_postscale <- fc4_300
I0411 22:48:48.038378 29690 net.cpp:395] fc4_postscale -> fc4_300 (in-place)
I0411 22:48:48.038480 29690 net.cpp:150] Setting up fc4_postscale
I0411 22:48:48.038487 29690 net.cpp:157] Top shape: 1024 300 (307200)
I0411 22:48:48.038491 29690 net.cpp:165] Memory required for data: 4106702848
I0411 22:48:48.038494 29690 layer_factory.hpp:77] Creating layer drop4
I0411 22:48:48.038501 29690 net.cpp:100] Creating Layer drop4
I0411 22:48:48.038506 29690 net.cpp:434] drop4 <- fc4_300
I0411 22:48:48.038511 29690 net.cpp:395] drop4 -> fc4_300 (in-place)
I0411 22:48:48.038537 29690 net.cpp:150] Setting up drop4
I0411 22:48:48.038547 29690 net.cpp:157] Top shape: 1024 300 (307200)
I0411 22:48:48.038552 29690 net.cpp:165] Memory required for data: 4107931648
I0411 22:48:48.038554 29690 layer_factory.hpp:77] Creating layer fc5_67
I0411 22:48:48.038559 29690 net.cpp:100] Creating Layer fc5_67
I0411 22:48:48.038563 29690 net.cpp:434] fc5_67 <- fc4_300
I0411 22:48:48.038568 29690 net.cpp:408] fc5_67 -> fc5_classes
I0411 22:48:48.039741 29690 net.cpp:150] Setting up fc5_67
I0411 22:48:48.039757 29690 net.cpp:157] Top shape: 1024 67 (68608)
I0411 22:48:48.039762 29690 net.cpp:165] Memory required for data: 4108206080
I0411 22:48:48.039772 29690 layer_factory.hpp:77] Creating layer loss
I0411 22:48:48.039779 29690 net.cpp:100] Creating Layer loss
I0411 22:48:48.039784 29690 net.cpp:434] loss <- fc5_classes
I0411 22:48:48.039788 29690 net.cpp:434] loss <- label
I0411 22:48:48.039810 29690 net.cpp:408] loss -> loss
I0411 22:48:48.039825 29690 layer_factory.hpp:77] Creating layer loss
…
I0411 22:48:48.040706 29690 solver.cpp:193] Creating test net (#0) specified by test_net file: ./Prototxt/experiment_9/rtsd-r1/AHE/trial_5/test.prototxt
I0411 22:48:48.040894 29690 net.cpp:58] Initializing net from parameters: 
state {
  phase: TEST
}
layer {
  name: "data"
  type: "Data"
  top: "data"
  top: "label"
  include {
    phase: TEST
  }
  transform_param {
    scale: 0.0039215689
    mirror: false
    crop_size: 48
    mean_value: 126
    mean_value: 124
    mean_value: 145
  }
  data_param {
    source: "../local_data/lmdb/rtsd-r1/AHE/test/lmdb"
    batch_size: 1024
    backend: LMDB
  }
}
layer {
  name: "conv1"
  type: "Convolution"
  bottom: "data"
  top: "conv1"
  convolution_param {
    num_output: 100
    pad: 0
    kernel_size: 7
    group: 1
    stride: 1
    weight_filler {
      type: "xavier"
    }
  }
}
layer {
  name: "conv1_prescale"
  type: "Scale"
  bottom: "conv1"
  top: "conv1"
  param {
    lr_mult: 0
    decay_mult: 0
  }
  scale_param {
    filler {
      value: 0.6666
    }
    bias_term: false
  }
}
layer {
  name: "conv1_sTanH"
  type: "TanH"
  bottom: "conv1"
  top: "conv1"
}
layer {
  name: "conv1_postscale"
  type: "Scale"
  bottom: "conv1"
  top: "conv1"
  param {
    lr_mult: 0
    decay_mult: 0
  }
  scale_param {
    filler {
      value: 1.7159
    }
    bias_term: false
  }
}
layer {
  name: "pool1"
  type: "Pooling"
  bottom: "conv1"
  top: "pool1"
  pooling_param {
    pool: MAX
    kernel_size: 2
    stride: 2
  }
}
layer {
  name: "conv2"
  type: "Convolution"
  bottom: "pool1"
  top: "conv2"
  convolution_param {
    num_output: 150
    pad: 0
    kernel_size: 4
    group: 1
    stride: 1
    weight_filler {
      type: "xavier"
    }
  }
}
layer {
  name: "conv2_prescale"
  type: "Scale"
  bottom: "conv2"
  top: "conv2"
  param {
    lr_mult: 0
    decay_mult: 0
  }
  scale_param {
    filler {
      value: 0.6666
    }
    bias_term: false
  }
}
layer {
  name: "conv2_sTanH"
  type: "TanH"
  bottom: "conv2"
  top: "conv2"
}
layer {
  name: "conv2_postscale"
  type: "Scale"
  bottom: "conv2"
  top: "conv2"
  param {
    lr_mult: 0
    decay_mult: 0
  }
  scale_param {
    filler {
      value: 1.7159
    }
    bias_term: false
  }
}
layer {
  name: "pool2"
  type: "Pooling"
  bottom: "conv2"
  top: "pool2"
  pooling_param {
    pool: MAX
    kernel_size: 2
    stride: 2
  }
}
layer {
  name: "conv3"
  type: "Convolution"
  bottom: "pool2"
  top: "conv3"
  convolution_param {
    num_output: 250
    pad: 0
    kernel_size: 4
    group: 1
    stride: 1
    weight_filler {
      type: "xavier"
    }
  }
}
layer {
  name: "conv3_prescale"
  type: "Scale"
  bottom: "conv3"
  top: "conv3"
  param {
    lr_mult: 0
    decay_mult: 0
  }
  scale_param {
    filler {
      value: 0.6666
    }
    bias_term: false
  }
}
layer {
  name: "conv3_sTanH"
  type: "TanH"
  bottom: "conv3"
  top: "conv3"
}
layer {
  name: "conv3_postscale"
  type: "Scale"
  bottom: "conv3"
  top: "conv3"
  param {
    lr_mult: 0
    decay_mult: 0
  }
  scale_param {
    filler {
      value: 1.7159
    }
    bias_term: false
  }
}
layer {
  name: "pool3"
  type: "Pooling"
  bottom: "conv3"
  top: "pool3"
  pooling_param {
    pool: MAX
    kernel_size: 2
    stride: 2
  }
}
layer {
  name: "fc4_300"
  type: "InnerProduct"
  bottom: "pool3"
  top: "fc4_300"
  inner_product_param {
    num_output: 300
    weight_filler {
      type: "xavier"
    }
  }
}
layer {
  name: "fc4_prescale"
  type: "Scale"
  bottom: "fc4_300"
  top: "fc4_300"
  param {
    lr_mult: 0
    decay_mult: 0
  }
  scale_param {
    filler {
      value: 0.6666
    }
    bias_term: false
  }
}
layer {
  name: "fc4_sTanH"
  type: "TanH"
  bottom: "fc4_300"
  top: "fc4_300"
}
layer {
  name: "fc4_postscale"
  type: "Scale"
  bottom: "fc4_300"
  top: "fc4_300"
  param {
    lr_mult: 0
    decay_mult: 0
  }
  scale_param {
    filler {
      value: 1.7159
    }
    bias_term: false
  }
}
layer {
  name: "drop4"
  type: "Dropout"
  bottom: "fc4_300"
  top: "fc4_300"
  dropout_param {
    dropout_ratio: 0.1
  }
}
layer {
  name: "fc5_67"
  type: "InnerProduct"
  bottom: "fc4_300"
  top: "fc5_classes"
  inner_product_param {
    num_output: 67
    weight_filler {
      type: "xavier"
    }
  }
}
layer {
  name: "loss"
  type: "SoftmaxWithLoss"
  bottom: "fc5_classes"
  bottom: "label"
  top: "loss"
}
layer {
  name: "accuracy_1"
  type: "Accuracy"
  bottom: "fc5_classes"
  bottom: "label"
  top: "accuracy_1"
  include {
    phase: TEST
  }
  accuracy_param {
    top_k: 1
  }
}
layer {
  name: "accuracy_5"
  type: "Accuracy"
  bottom: "fc5_classes"
  bottom: "label"
  top: "accuracy_5"
  include {
    phase: TEST
  }
  accuracy_param {
    top_k: 5
  }
}
I0411 22:48:48.041016 29690 layer_factory.hpp:77] Creating layer data
I0411 22:48:48.041669 29690 net.cpp:100] Creating Layer data
I0411 22:48:48.041693 29690 net.cpp:408] data -> data
I0411 22:48:48.041705 29690 net.cpp:408] data -> label
I0411 22:48:48.043275 29880 db_lmdb.cpp:35] Opened lmdb ../local_data/lmdb/rtsd-r1/AHE/test/lmdb
I0411 22:48:48.043460 29690 data_layer.cpp:41] output data size: 1024,3,48,48
I0411 22:48:48.101241 29690 net.cpp:150] Setting up data
I0411 22:48:48.101271 29690 net.cpp:157] Top shape: 1024 3 48 48 (7077888)
I0411 22:48:48.101277 29690 net.cpp:157] Top shape: 1024 (1024)
I0411 22:48:48.101280 29690 net.cpp:165] Memory required for data: 28315648
I0411 22:48:48.101286 29690 layer_factory.hpp:77] Creating layer label_data_1_split
I0411 22:48:48.101301 29690 net.cpp:100] Creating Layer label_data_1_split
I0411 22:48:48.101307 29690 net.cpp:434] label_data_1_split <- label
I0411 22:48:48.101316 29690 net.cpp:408] label_data_1_split -> label_data_1_split_0
I0411 22:48:48.101328 29690 net.cpp:408] label_data_1_split -> label_data_1_split_1
I0411 22:48:48.101337 29690 net.cpp:408] label_data_1_split -> label_data_1_split_2
I0411 22:48:48.101444 29690 net.cpp:150] Setting up label_data_1_split
I0411 22:48:48.101454 29690 net.cpp:157] Top shape: 1024 (1024)
I0411 22:48:48.101459 29690 net.cpp:157] Top shape: 1024 (1024)
I0411 22:48:48.101464 29690 net.cpp:157] Top shape: 1024 (1024)
I0411 22:48:48.101466 29690 net.cpp:165] Memory required for data: 28327936
I0411 22:48:48.101469 29690 layer_factory.hpp:77] Creating layer conv1
I0411 22:48:48.101490 29690 net.cpp:100] Creating Layer conv1
I0411 22:48:48.101496 29690 net.cpp:434] conv1 <- data
I0411 22:48:48.101503 29690 net.cpp:408] conv1 -> conv1
I0411 22:48:48.104512 29690 net.cpp:150] Setting up conv1
I0411 22:48:48.104532 29690 net.cpp:157] Top shape: 1024 100 42 42 (180633600)
I0411 22:48:48.104537 29690 net.cpp:165] Memory required for data: 750862336
I0411 22:48:48.104550 29690 layer_factory.hpp:77] Creating layer conv1_prescale
I0411 22:48:48.104560 29690 net.cpp:100] Creating Layer conv1_prescale
I0411 22:48:48.104565 29690 net.cpp:434] conv1_prescale <- conv1
I0411 22:48:48.104573 29690 net.cpp:395] conv1_prescale -> conv1 (in-place)
I0411 22:48:48.104686 29690 net.cpp:150] Setting up conv1_prescale
I0411 22:48:48.104696 29690 net.cpp:157] Top shape: 1024 100 42 42 (180633600)
I0411 22:48:48.104699 29690 net.cpp:165] Memory required for data: 1473396736
I0411 22:48:48.104707 29690 layer_factory.hpp:77] Creating layer conv1_sTanH
I0411 22:48:48.104717 29690 net.cpp:100] Creating Layer conv1_sTanH
I0411 22:48:48.104722 29690 net.cpp:434] conv1_sTanH <- conv1
I0411 22:48:48.104727 29690 net.cpp:395] conv1_sTanH -> conv1 (in-place)
I0411 22:48:48.104925 29690 net.cpp:150] Setting up conv1_sTanH
I0411 22:48:48.104939 29690 net.cpp:157] Top shape: 1024 100 42 42 (180633600)
I0411 22:48:48.104943 29690 net.cpp:165] Memory required for data: 2195931136
I0411 22:48:48.104948 29690 layer_factory.hpp:77] Creating layer conv1_postscale
I0411 22:48:48.104954 29690 net.cpp:100] Creating Layer conv1_postscale
I0411 22:48:48.104957 29690 net.cpp:434] conv1_postscale <- conv1
I0411 22:48:48.104964 29690 net.cpp:395] conv1_postscale -> conv1 (in-place)
I0411 22:48:48.105077 29690 net.cpp:150] Setting up conv1_postscale
I0411 22:48:48.105087 29690 net.cpp:157] Top shape: 1024 100 42 42 (180633600)
I0411 22:48:48.105089 29690 net.cpp:165] Memory required for data: 2918465536
I0411 22:48:48.105094 29690 layer_factory.hpp:77] Creating layer pool1
I0411 22:48:48.105103 29690 net.cpp:100] Creating Layer pool1
I0411 22:48:48.105108 29690 net.cpp:434] pool1 <- conv1
I0411 22:48:48.105114 29690 net.cpp:408] pool1 -> pool1
I0411 22:48:48.105159 29690 net.cpp:150] Setting up pool1
I0411 22:48:48.105168 29690 net.cpp:157] Top shape: 1024 100 21 21 (45158400)
I0411 22:48:48.105175 29690 net.cpp:165] Memory required for data: 3099099136
I0411 22:48:48.105177 29690 layer_factory.hpp:77] Creating layer conv2
I0411 22:48:48.105185 29690 net.cpp:100] Creating Layer conv2
I0411 22:48:48.105190 29690 net.cpp:434] conv2 <- pool1
I0411 22:48:48.105198 29690 net.cpp:408] conv2 -> conv2
I0411 22:48:48.111337 29690 net.cpp:150] Setting up conv2
I0411 22:48:48.111359 29690 net.cpp:157] Top shape: 1024 150 18 18 (49766400)
I0411 22:48:48.111363 29690 net.cpp:165] Memory required for data: 3298164736
I0411 22:48:48.111376 29690 layer_factory.hpp:77] Creating layer conv2_prescale
I0411 22:48:48.111388 29690 net.cpp:100] Creating Layer conv2_prescale
I0411 22:48:48.111397 29690 net.cpp:434] conv2_prescale <- conv2
I0411 22:48:48.111402 29690 net.cpp:395] conv2_prescale -> conv2 (in-place)
I0411 22:48:48.111522 29690 net.cpp:150] Setting up conv2_prescale
I0411 22:48:48.111532 29690 net.cpp:157] Top shape: 1024 150 18 18 (49766400)
I0411 22:48:48.111536 29690 net.cpp:165] Memory required for data: 3497230336
I0411 22:48:48.111541 29690 layer_factory.hpp:77] Creating layer conv2_sTanH
I0411 22:48:48.111549 29690 net.cpp:100] Creating Layer conv2_sTanH
I0411 22:48:48.111554 29690 net.cpp:434] conv2_sTanH <- conv2
I0411 22:48:48.111568 29690 net.cpp:395] conv2_sTanH -> conv2 (in-place)
I0411 22:48:48.113580 29690 net.cpp:150] Setting up conv2_sTanH
I0411 22:48:48.113600 29690 net.cpp:157] Top shape: 1024 150 18 18 (49766400)
I0411 22:48:48.113605 29690 net.cpp:165] Memory required for data: 3696295936
I0411 22:48:48.113610 29690 layer_factory.hpp:77] Creating layer conv2_postscale
I0411 22:48:48.113618 29690 net.cpp:100] Creating Layer conv2_postscale
I0411 22:48:48.113625 29690 net.cpp:434] conv2_postscale <- conv2
I0411 22:48:48.113632 29690 net.cpp:395] conv2_postscale -> conv2 (in-place)
I0411 22:48:48.113749 29690 net.cpp:150] Setting up conv2_postscale
I0411 22:48:48.113759 29690 net.cpp:157] Top shape: 1024 150 18 18 (49766400)
I0411 22:48:48.113762 29690 net.cpp:165] Memory required for data: 3895361536
I0411 22:48:48.113768 29690 layer_factory.hpp:77] Creating layer pool2
I0411 22:48:48.113776 29690 net.cpp:100] Creating Layer pool2
I0411 22:48:48.113780 29690 net.cpp:434] pool2 <- conv2
I0411 22:48:48.113787 29690 net.cpp:408] pool2 -> pool2
I0411 22:48:48.113860 29690 net.cpp:150] Setting up pool2
I0411 22:48:48.113872 29690 net.cpp:157] Top shape: 1024 150 9 9 (12441600)
I0411 22:48:48.113875 29690 net.cpp:165] Memory required for data: 3945127936
I0411 22:48:48.113878 29690 layer_factory.hpp:77] Creating layer conv3
I0411 22:48:48.113893 29690 net.cpp:100] Creating Layer conv3
I0411 22:48:48.113898 29690 net.cpp:434] conv3 <- pool2
I0411 22:48:48.113903 29690 net.cpp:408] conv3 -> conv3
I0411 22:48:48.119962 29690 net.cpp:150] Setting up conv3
I0411 22:48:48.119983 29690 net.cpp:157] Top shape: 1024 250 6 6 (9216000)
I0411 22:48:48.119989 29690 net.cpp:165] Memory required for data: 3981991936
I0411 22:48:48.120000 29690 layer_factory.hpp:77] Creating layer conv3_prescale
I0411 22:48:48.120012 29690 net.cpp:100] Creating Layer conv3_prescale
I0411 22:48:48.120018 29690 net.cpp:434] conv3_prescale <- conv3
I0411 22:48:48.120023 29690 net.cpp:395] conv3_prescale -> conv3 (in-place)
I0411 22:48:48.120137 29690 net.cpp:150] Setting up conv3_prescale
I0411 22:48:48.120147 29690 net.cpp:157] Top shape: 1024 250 6 6 (9216000)
I0411 22:48:48.120151 29690 net.cpp:165] Memory required for data: 4018855936
I0411 22:48:48.120157 29690 layer_factory.hpp:77] Creating layer conv3_sTanH
I0411 22:48:48.120162 29690 net.cpp:100] Creating Layer conv3_sTanH
I0411 22:48:48.120167 29690 net.cpp:434] conv3_sTanH <- conv3
I0411 22:48:48.120173 29690 net.cpp:395] conv3_sTanH -> conv3 (in-place)
I0411 22:48:48.123986 29690 net.cpp:150] Setting up conv3_sTanH
I0411 22:48:48.124003 29690 net.cpp:157] Top shape: 1024 250 6 6 (9216000)
I0411 22:48:48.124008 29690 net.cpp:165] Memory required for data: 4055719936
I0411 22:48:48.124012 29690 layer_factory.hpp:77] Creating layer conv3_postscale
I0411 22:48:48.124022 29690 net.cpp:100] Creating Layer conv3_postscale
I0411 22:48:48.124028 29690 net.cpp:434] conv3_postscale <- conv3
I0411 22:48:48.124033 29690 net.cpp:395] conv3_postscale -> conv3 (in-place)
I0411 22:48:48.124145 29690 net.cpp:150] Setting up conv3_postscale
I0411 22:48:48.124156 29690 net.cpp:157] Top shape: 1024 250 6 6 (9216000)
I0411 22:48:48.124161 29690 net.cpp:165] Memory required for data: 4092583936
I0411 22:48:48.124166 29690 layer_factory.hpp:77] Creating layer pool3
I0411 22:48:48.124176 29690 net.cpp:100] Creating Layer pool3
I0411 22:48:48.124182 29690 net.cpp:434] pool3 <- conv3
I0411 22:48:48.124188 29690 net.cpp:408] pool3 -> pool3
I0411 22:48:48.124234 29690 net.cpp:150] Setting up pool3
I0411 22:48:48.124243 29690 net.cpp:157] Top shape: 1024 250 3 3 (2304000)
I0411 22:48:48.124248 29690 net.cpp:165] Memory required for data: 4101799936
I0411 22:48:48.124250 29690 layer_factory.hpp:77] Creating layer fc4_300
I0411 22:48:48.124259 29690 net.cpp:100] Creating Layer fc4_300
I0411 22:48:48.124264 29690 net.cpp:434] fc4_300 <- pool3
I0411 22:48:48.124269 29690 net.cpp:408] fc4_300 -> fc4_300
I0411 22:48:48.131628 29690 net.cpp:150] Setting up fc4_300
I0411 22:48:48.131647 29690 net.cpp:157] Top shape: 1024 300 (307200)
I0411 22:48:48.131651 29690 net.cpp:165] Memory required for data: 4103028736
I0411 22:48:48.131675 29690 layer_factory.hpp:77] Creating layer fc4_prescale
I0411 22:48:48.131685 29690 net.cpp:100] Creating Layer fc4_prescale
I0411 22:48:48.131690 29690 net.cpp:434] fc4_prescale <- fc4_300
I0411 22:48:48.131698 29690 net.cpp:395] fc4_prescale -> fc4_300 (in-place)
I0411 22:48:48.131806 29690 net.cpp:150] Setting up fc4_prescale
I0411 22:48:48.131816 29690 net.cpp:157] Top shape: 1024 300 (307200)
I0411 22:48:48.131821 29690 net.cpp:165] Memory required for data: 4104257536
I0411 22:48:48.131826 29690 layer_factory.hpp:77] Creating layer fc4_sTanH
I0411 22:48:48.131844 29690 net.cpp:100] Creating Layer fc4_sTanH
I0411 22:48:48.131850 29690 net.cpp:434] fc4_sTanH <- fc4_300
I0411 22:48:48.131855 29690 net.cpp:395] fc4_sTanH -> fc4_300 (in-place)
I0411 22:48:48.132073 29690 net.cpp:150] Setting up fc4_sTanH
I0411 22:48:48.132091 29690 net.cpp:157] Top shape: 1024 300 (307200)
I0411 22:48:48.132097 29690 net.cpp:165] Memory required for data: 4105486336
I0411 22:48:48.132099 29690 layer_factory.hpp:77] Creating layer fc4_postscale
I0411 22:48:48.132112 29690 net.cpp:100] Creating Layer fc4_postscale
I0411 22:48:48.132120 29690 net.cpp:434] fc4_postscale <- fc4_300
I0411 22:48:48.132127 29690 net.cpp:395] fc4_postscale -> fc4_300 (in-place)
I0411 22:48:48.132236 29690 net.cpp:150] Setting up fc4_postscale
I0411 22:48:48.132243 29690 net.cpp:157] Top shape: 1024 300 (307200)
I0411 22:48:48.132249 29690 net.cpp:165] Memory required for data: 4106715136
I0411 22:48:48.132254 29690 layer_factory.hpp:77] Creating layer drop4
I0411 22:48:48.132262 29690 net.cpp:100] Creating Layer drop4
I0411 22:48:48.132267 29690 net.cpp:434] drop4 <- fc4_300
I0411 22:48:48.132273 29690 net.cpp:395] drop4 -> fc4_300 (in-place)
I0411 22:48:48.132302 29690 net.cpp:150] Setting up drop4
I0411 22:48:48.132308 29690 net.cpp:157] Top shape: 1024 300 (307200)
I0411 22:48:48.132311 29690 net.cpp:165] Memory required for data: 4107943936
I0411 22:48:48.132316 29690 layer_factory.hpp:77] Creating layer fc5_67
I0411 22:48:48.132323 29690 net.cpp:100] Creating Layer fc5_67
I0411 22:48:48.132328 29690 net.cpp:434] fc5_67 <- fc4_300
I0411 22:48:48.132333 29690 net.cpp:408] fc5_67 -> fc5_classes
I0411 22:48:48.132583 29690 net.cpp:150] Setting up fc5_67
I0411 22:48:48.132596 29690 net.cpp:157] Top shape: 1024 67 (68608)
I0411 22:48:48.132601 29690 net.cpp:165] Memory required for data: 4108218368
I0411 22:48:48.132609 29690 layer_factory.hpp:77] Creating layer fc5_classes_fc5_67_0_split
I0411 22:48:48.132617 29690 net.cpp:100] Creating Layer fc5_classes_fc5_67_0_split
I0411 22:48:48.132622 29690 net.cpp:434] fc5_classes_fc5_67_0_split <- fc5_classes
I0411 22:48:48.132629 29690 net.cpp:408] fc5_classes_fc5_67_0_split -> fc5_classes_fc5_67_0_split_0
I0411 22:48:48.132638 29690 net.cpp:408] fc5_classes_fc5_67_0_split -> fc5_classes_fc5_67_0_split_1
I0411 22:48:48.132657 29690 net.cpp:408] fc5_classes_fc5_67_0_split -> fc5_classes_fc5_67_0_split_2
I0411 22:48:48.132715 29690 net.cpp:150] Setting up fc5_classes_fc5_67_0_split
I0411 22:48:48.132724 29690 net.cpp:157] Top shape: 1024 67 (68608)
I0411 22:48:48.132727 29690 net.cpp:157] Top shape: 1024 67 (68608)
I0411 22:48:48.132730 29690 net.cpp:157] Top shape: 1024 67 (68608)
I0411 22:48:48.132732 29690 net.cpp:165] Memory required for data: 4109041664
I0411 22:48:48.132735 29690 layer_factory.hpp:77] Creating layer loss
I0411 22:48:48.132742 29690 net.cpp:100] Creating Layer loss
I0411 22:48:48.132747 29690 net.cpp:434] loss <- fc5_classes_fc5_67_0_split_0
I0411 22:48:48.132752 29690 net.cpp:434] loss <- label_data_1_split_0
I0411 22:48:48.132758 29690 net.cpp:408] loss -> loss
…
