…
I0506 22:13:04.432054  3745 solver.cpp:93] Creating training net from train_net file: ./Prototxt/experiment_14/RTSD/orig/trial_1/train.prototxt
I0506 22:13:04.432509  3745 net.cpp:58] Initializing net from parameters: 
state {
  phase: TRAIN
  level: 0
  stage: ""
}
layer {
  name: "data"
  type: "Data"
  top: "data"
  top: "label"
  include {
    phase: TRAIN
  }
  transform_param {
    scale: 0.0039215689
    mirror: false
    crop_size: 48
    mean_value: 119
    mean_value: 113
    mean_value: 113
  }
  data_param {
    source: "../local_data/lmdb/RTSD/orig/train/lmdb"
    batch_size: 512
    backend: LMDB
  }
}
layer {
  name: "conv1"
  type: "Convolution"
  bottom: "data"
  top: "conv1"
  convolution_param {
    num_output: 100
    pad: 0
    kernel_size: 7
    group: 1
    stride: 1
    weight_filler {
      type: "xavier"
    }
  }
}
layer {
  name: "conv1_relu"
  type: "ReLU"
  bottom: "conv1"
  top: "conv1"
}
layer {
  name: "pool1"
  type: "Pooling"
  bottom: "conv1"
  top: "pool1"
  pooling_param {
    pool: MAX
    kernel_size: 2
    stride: 2
  }
}
layer {
  name: "conv2"
  type: "Convolution"
  bottom: "pool1"
  top: "conv2"
  convolution_param {
    num_output: 150
    pad: 0
    kernel_size: 4
    group: 1
    stride: 1
    weight_filler {
      type: "xavier"
    }
  }
}
layer {
  name: "conv2_relu"
  type: "ReLU"
  bottom: "conv2"
  top: "conv2"
}
layer {
  name: "pool2"
  type: "Pooling"
  bottom: "conv2"
  top: "pool2"
  pooling_param {
    pool: MAX
    kernel_size: 2
    stride: 2
  }
}
layer {
  name: "conv3"
  type: "Convolution"
  bottom: "pool2"
  top: "conv3"
  convolution_param {
    num_output: 250
    pad: 0
    kernel_size: 4
    group: 1
    stride: 1
    weight_filler {
      type: "xavier"
    }
  }
}
layer {
  name: "conv3_relu"
  type: "ReLU"
  bottom: "conv3"
  top: "conv3"
}
layer {
  name: "pool3"
  type: "Pooling"
  bottom: "conv3"
  top: "pool3"
  pooling_param {
    pool: MAX
    kernel_size: 2
    stride: 2
  }
}
layer {
  name: "fc4_300"
  type: "InnerProduct"
  bottom: "pool3"
  top: "fc4_300"
  inner_product_param {
    num_output: 300
    weight_filler {
      type: "xavier"
    }
  }
}
layer {
  name: "fc4_relu"
  type: "ReLU"
  bottom: "fc4_300"
  top: "fc4_300"
}
layer {
  name: "fc5_116"
  type: "InnerProduct"
  bottom: "fc4_300"
  top: "fc5_classes"
  inner_product_param {
    num_output: 116
    weight_filler {
      type: "xavier"
    }
  }
}
layer {
  name: "softmax"
  type: "Softmax"
  bottom: "fc5_classes"
  top: "softmax"
}
layer {
  name: "loss"
  type: "MultinomialLogisticLoss"
  bottom: "softmax"
  bottom: "label"
  top: "loss"
}
layer {
  name: "accuracy_1"
  type: "Accuracy"
  bottom: "fc5_classes"
  bottom: "label"
  top: "accuracy_1"
  accuracy_param {
    top_k: 1
  }
}
layer {
  name: "accuracy_5"
  type: "Accuracy"
  bottom: "fc5_classes"
  bottom: "label"
  top: "accuracy_5"
  accuracy_param {
    top_k: 5
  }
}
layer {
  name: "silence"
  type: "Silence"
  bottom: "accuracy_1"
  bottom: "accuracy_5"
}
I0506 22:13:04.432677  3745 layer_factory.hpp:77] Creating layer data
I0506 22:13:04.433799  3745 net.cpp:100] Creating Layer data
I0506 22:13:04.433820  3745 net.cpp:408] data -> data
I0506 22:13:04.433858  3745 net.cpp:408] data -> label
I0506 22:13:04.439945  3932 db_lmdb.cpp:35] Opened lmdb ../local_data/lmdb/RTSD/orig/train/lmdb
I0506 22:13:04.462673  3745 data_layer.cpp:41] output data size: 512,3,48,48
I0506 22:13:04.506511  3745 net.cpp:150] Setting up data
I0506 22:13:04.506561  3745 net.cpp:157] Top shape: 512 3 48 48 (3538944)
I0506 22:13:04.506567  3745 net.cpp:157] Top shape: 512 (512)
I0506 22:13:04.506569  3745 net.cpp:165] Memory required for data: 14157824
I0506 22:13:04.506580  3745 layer_factory.hpp:77] Creating layer label_data_1_split
I0506 22:13:04.506594  3745 net.cpp:100] Creating Layer label_data_1_split
I0506 22:13:04.506603  3745 net.cpp:434] label_data_1_split <- label
I0506 22:13:04.506618  3745 net.cpp:408] label_data_1_split -> label_data_1_split_0
I0506 22:13:04.506630  3745 net.cpp:408] label_data_1_split -> label_data_1_split_1
I0506 22:13:04.506641  3745 net.cpp:408] label_data_1_split -> label_data_1_split_2
I0506 22:13:04.506707  3745 net.cpp:150] Setting up label_data_1_split
I0506 22:13:04.506716  3745 net.cpp:157] Top shape: 512 (512)
I0506 22:13:04.506719  3745 net.cpp:157] Top shape: 512 (512)
I0506 22:13:04.506723  3745 net.cpp:157] Top shape: 512 (512)
I0506 22:13:04.506726  3745 net.cpp:165] Memory required for data: 14163968
I0506 22:13:04.506728  3745 layer_factory.hpp:77] Creating layer conv1
I0506 22:13:04.506745  3745 net.cpp:100] Creating Layer conv1
I0506 22:13:04.506750  3745 net.cpp:434] conv1 <- data
I0506 22:13:04.506757  3745 net.cpp:408] conv1 -> conv1
I0506 22:13:04.988745  3745 net.cpp:150] Setting up conv1
I0506 22:13:04.988777  3745 net.cpp:157] Top shape: 512 100 42 42 (90316800)
I0506 22:13:04.988785  3745 net.cpp:165] Memory required for data: 375431168
I0506 22:13:04.988819  3745 layer_factory.hpp:77] Creating layer conv1_relu
I0506 22:13:04.988837  3745 net.cpp:100] Creating Layer conv1_relu
I0506 22:13:04.988847  3745 net.cpp:434] conv1_relu <- conv1
I0506 22:13:04.988860  3745 net.cpp:395] conv1_relu -> conv1 (in-place)
I0506 22:13:04.989111  3745 net.cpp:150] Setting up conv1_relu
I0506 22:13:04.989128  3745 net.cpp:157] Top shape: 512 100 42 42 (90316800)
I0506 22:13:04.989135  3745 net.cpp:165] Memory required for data: 736698368
I0506 22:13:04.989142  3745 layer_factory.hpp:77] Creating layer pool1
I0506 22:13:04.989159  3745 net.cpp:100] Creating Layer pool1
I0506 22:13:04.989168  3745 net.cpp:434] pool1 <- conv1
I0506 22:13:04.989179  3745 net.cpp:408] pool1 -> pool1
I0506 22:13:04.989253  3745 net.cpp:150] Setting up pool1
I0506 22:13:04.989267  3745 net.cpp:157] Top shape: 512 100 21 21 (22579200)
I0506 22:13:04.989274  3745 net.cpp:165] Memory required for data: 827015168
I0506 22:13:04.989280  3745 layer_factory.hpp:77] Creating layer conv2
I0506 22:13:04.989298  3745 net.cpp:100] Creating Layer conv2
I0506 22:13:04.989306  3745 net.cpp:434] conv2 <- pool1
I0506 22:13:04.989317  3745 net.cpp:408] conv2 -> conv2
I0506 22:13:05.005070  3745 net.cpp:150] Setting up conv2
I0506 22:13:05.005105  3745 net.cpp:157] Top shape: 512 150 18 18 (24883200)
I0506 22:13:05.005115  3745 net.cpp:165] Memory required for data: 926547968
I0506 22:13:05.005136  3745 layer_factory.hpp:77] Creating layer conv2_relu
I0506 22:13:05.005156  3745 net.cpp:100] Creating Layer conv2_relu
I0506 22:13:05.005167  3745 net.cpp:434] conv2_relu <- conv2
I0506 22:13:05.005180  3745 net.cpp:395] conv2_relu -> conv2 (in-place)
I0506 22:13:05.010087  3745 net.cpp:150] Setting up conv2_relu
I0506 22:13:05.010110  3745 net.cpp:157] Top shape: 512 150 18 18 (24883200)
I0506 22:13:05.010115  3745 net.cpp:165] Memory required for data: 1026080768
I0506 22:13:05.010120  3745 layer_factory.hpp:77] Creating layer pool2
I0506 22:13:05.010129  3745 net.cpp:100] Creating Layer pool2
I0506 22:13:05.010135  3745 net.cpp:434] pool2 <- conv2
I0506 22:13:05.010143  3745 net.cpp:408] pool2 -> pool2
I0506 22:13:05.010207  3745 net.cpp:150] Setting up pool2
I0506 22:13:05.010217  3745 net.cpp:157] Top shape: 512 150 9 9 (6220800)
I0506 22:13:05.010222  3745 net.cpp:165] Memory required for data: 1050963968
I0506 22:13:05.010226  3745 layer_factory.hpp:77] Creating layer conv3
I0506 22:13:05.010246  3745 net.cpp:100] Creating Layer conv3
I0506 22:13:05.010251  3745 net.cpp:434] conv3 <- pool2
I0506 22:13:05.010258  3745 net.cpp:408] conv3 -> conv3
I0506 22:13:05.018136  3745 net.cpp:150] Setting up conv3
I0506 22:13:05.018159  3745 net.cpp:157] Top shape: 512 250 6 6 (4608000)
I0506 22:13:05.018164  3745 net.cpp:165] Memory required for data: 1069395968
I0506 22:13:05.018177  3745 layer_factory.hpp:77] Creating layer conv3_relu
I0506 22:13:05.018187  3745 net.cpp:100] Creating Layer conv3_relu
I0506 22:13:05.018190  3745 net.cpp:434] conv3_relu <- conv3
I0506 22:13:05.018199  3745 net.cpp:395] conv3_relu -> conv3 (in-place)
I0506 22:13:05.024161  3745 net.cpp:150] Setting up conv3_relu
I0506 22:13:05.024183  3745 net.cpp:157] Top shape: 512 250 6 6 (4608000)
I0506 22:13:05.024188  3745 net.cpp:165] Memory required for data: 1087827968
I0506 22:13:05.024193  3745 layer_factory.hpp:77] Creating layer pool3
I0506 22:13:05.024200  3745 net.cpp:100] Creating Layer pool3
I0506 22:13:05.024205  3745 net.cpp:434] pool3 <- conv3
I0506 22:13:05.024214  3745 net.cpp:408] pool3 -> pool3
I0506 22:13:05.024291  3745 net.cpp:150] Setting up pool3
I0506 22:13:05.024305  3745 net.cpp:157] Top shape: 512 250 3 3 (1152000)
I0506 22:13:05.024312  3745 net.cpp:165] Memory required for data: 1092435968
I0506 22:13:05.024317  3745 layer_factory.hpp:77] Creating layer fc4_300
I0506 22:13:05.024332  3745 net.cpp:100] Creating Layer fc4_300
I0506 22:13:05.024338  3745 net.cpp:434] fc4_300 <- pool3
I0506 22:13:05.024345  3745 net.cpp:408] fc4_300 -> fc4_300
I0506 22:13:05.045892  3745 net.cpp:150] Setting up fc4_300
I0506 22:13:05.045914  3745 net.cpp:157] Top shape: 512 300 (153600)
I0506 22:13:05.045919  3745 net.cpp:165] Memory required for data: 1093050368
I0506 22:13:05.045928  3745 layer_factory.hpp:77] Creating layer fc4_relu
I0506 22:13:05.045939  3745 net.cpp:100] Creating Layer fc4_relu
I0506 22:13:05.045943  3745 net.cpp:434] fc4_relu <- fc4_300
I0506 22:13:05.045950  3745 net.cpp:395] fc4_relu -> fc4_300 (in-place)
I0506 22:13:05.046210  3745 net.cpp:150] Setting up fc4_relu
I0506 22:13:05.046224  3745 net.cpp:157] Top shape: 512 300 (153600)
I0506 22:13:05.046231  3745 net.cpp:165] Memory required for data: 1093664768
I0506 22:13:05.046236  3745 layer_factory.hpp:77] Creating layer fc5_116
I0506 22:13:05.046245  3745 net.cpp:100] Creating Layer fc5_116
I0506 22:13:05.046249  3745 net.cpp:434] fc5_116 <- fc4_300
I0506 22:13:05.046258  3745 net.cpp:408] fc5_116 -> fc5_classes
I0506 22:13:05.052423  3745 net.cpp:150] Setting up fc5_116
I0506 22:13:05.052443  3745 net.cpp:157] Top shape: 512 116 (59392)
I0506 22:13:05.052446  3745 net.cpp:165] Memory required for data: 1093902336
I0506 22:13:05.052461  3745 layer_factory.hpp:77] Creating layer fc5_classes_fc5_116_0_split
I0506 22:13:05.052474  3745 net.cpp:100] Creating Layer fc5_classes_fc5_116_0_split
I0506 22:13:05.052480  3745 net.cpp:434] fc5_classes_fc5_116_0_split <- fc5_classes
I0506 22:13:05.052489  3745 net.cpp:408] fc5_classes_fc5_116_0_split -> fc5_classes_fc5_116_0_split_0
I0506 22:13:05.052501  3745 net.cpp:408] fc5_classes_fc5_116_0_split -> fc5_classes_fc5_116_0_split_1
I0506 22:13:05.052510  3745 net.cpp:408] fc5_classes_fc5_116_0_split -> fc5_classes_fc5_116_0_split_2
I0506 22:13:05.052580  3745 net.cpp:150] Setting up fc5_classes_fc5_116_0_split
I0506 22:13:05.052589  3745 net.cpp:157] Top shape: 512 116 (59392)
I0506 22:13:05.052594  3745 net.cpp:157] Top shape: 512 116 (59392)
I0506 22:13:05.052598  3745 net.cpp:157] Top shape: 512 116 (59392)
I0506 22:13:05.052601  3745 net.cpp:165] Memory required for data: 1094615040
I0506 22:13:05.052605  3745 layer_factory.hpp:77] Creating layer softmax
I0506 22:13:05.052613  3745 net.cpp:100] Creating Layer softmax
I0506 22:13:05.052618  3745 net.cpp:434] softmax <- fc5_classes_fc5_116_0_split_0
I0506 22:13:05.052624  3745 net.cpp:408] softmax -> softmax
I0506 22:13:05.052943  3745 net.cpp:150] Setting up softmax
I0506 22:13:05.052958  3745 net.cpp:157] Top shape: 512 116 (59392)
I0506 22:13:05.052963  3745 net.cpp:165] Memory required for data: 1094852608
I0506 22:13:05.052968  3745 layer_factory.hpp:77] Creating layer loss
I0506 22:13:05.052979  3745 net.cpp:100] Creating Layer loss
I0506 22:13:05.053004  3745 net.cpp:434] loss <- softmax
I0506 22:13:05.053011  3745 net.cpp:434] loss <- label_data_1_split_0
I0506 22:13:05.053020  3745 net.cpp:408] loss -> loss
…
