…
I0506 22:09:27.926282 16219 solver.cpp:93] Creating training net from train_net file: ./Prototxt/experiment_14/RTSD/orig/trial_1/train.prototxt
I0506 22:09:27.926759 16219 net.cpp:58] Initializing net from parameters: 
state {
  phase: TRAIN
  level: 0
  stage: ""
}
layer {
  name: "data"
  type: "Data"
  top: "data"
  top: "label"
  include {
    phase: TRAIN
  }
  transform_param {
    scale: 0.0039215689
    mirror: false
    crop_size: 48
    mean_value: 119
    mean_value: 113
    mean_value: 113
  }
  data_param {
    source: "../local_data/lmdb/RTSD/orig/train/lmdb"
    batch_size: 512
    backend: LMDB
  }
}
layer {
  name: "conv1"
  type: "Convolution"
  bottom: "data"
  top: "conv1"
  convolution_param {
    num_output: 100
    pad: 0
    kernel_size: 7
    group: 1
    stride: 1
    weight_filler {
      type: "xavier"
    }
  }
}
layer {
  name: "conv1_prescale"
  type: "Scale"
  bottom: "conv1"
  top: "conv1"
  param {
    lr_mult: 0
    decay_mult: 0
  }
  scale_param {
    filler {
      value: 0.6666
    }
    bias_term: false
  }
}
layer {
  name: "conv1_sTanH"
  type: "TanH"
  bottom: "conv1"
  top: "conv1"
}
layer {
  name: "conv1_postscale"
  type: "Scale"
  bottom: "conv1"
  top: "conv1"
  param {
    lr_mult: 0
    decay_mult: 0
  }
  scale_param {
    filler {
      value: 1.7159
    }
    bias_term: false
  }
}
layer {
  name: "pool1"
  type: "Pooling"
  bottom: "conv1"
  top: "pool1"
  pooling_param {
    pool: MAX
    kernel_size: 2
    stride: 2
  }
}
layer {
  name: "conv2"
  type: "Convolution"
  bottom: "pool1"
  top: "conv2"
  convolution_param {
    num_output: 150
    pad: 0
    kernel_size: 4
    group: 1
    stride: 1
    weight_filler {
      type: "xavier"
    }
  }
}
layer {
  name: "conv2_prescale"
  type: "Scale"
  bottom: "conv2"
  top: "conv2"
  param {
    lr_mult: 0
    decay_mult: 0
  }
  scale_param {
    filler {
      value: 0.6666
    }
    bias_term: false
  }
}
layer {
  name: "conv2_sTanH"
  type: "TanH"
  bottom: "conv2"
  top: "conv2"
}
layer {
  name: "conv2_postscale"
  type: "Scale"
  bottom: "conv2"
  top: "conv2"
  param {
    lr_mult: 0
    decay_mult: 0
  }
  scale_param {
    filler {
      value: 1.7159
    }
    bias_term: false
  }
}
layer {
  name: "pool2"
  type: "Pooling"
  bottom: "conv2"
  top: "pool2"
  pooling_param {
    pool: MAX
    kernel_size: 2
    stride: 2
  }
}
layer {
  name: "conv3"
  type: "Convolution"
  bottom: "pool2"
  top: "conv3"
  convolution_param {
    num_output: 250
    pad: 0
    kernel_size: 4
    group: 1
    stride: 1
    weight_filler {
      type: "xavier"
    }
  }
}
layer {
  name: "conv3_prescale"
  type: "Scale"
  bottom: "conv3"
  top: "conv3"
  param {
    lr_mult: 0
    decay_mult: 0
  }
  scale_param {
    filler {
      value: 0.6666
    }
    bias_term: false
  }
}
layer {
  name: "conv3_sTanH"
  type: "TanH"
  bottom: "conv3"
  top: "conv3"
}
layer {
  name: "conv3_postscale"
  type: "Scale"
  bottom: "conv3"
  top: "conv3"
  param {
    lr_mult: 0
    decay_mult: 0
  }
  scale_param {
    filler {
      value: 1.7159
    }
    bias_term: false
  }
}
layer {
  name: "pool3"
  type: "Pooling"
  bottom: "conv3"
  top: "pool3"
  pooling_param {
    pool: MAX
    kernel_size: 2
    stride: 2
  }
}
layer {
  name: "fc4_300"
  type: "InnerProduct"
  bottom: "pool3"
  top: "fc4_300"
  inner_product_param {
    num_output: 300
    weight_filler {
      type: "xavier"
    }
  }
}
layer {
  name: "fc4_prescale"
  type: "Scale"
  bottom: "fc4_300"
  top: "fc4_300"
  param {
    lr_mult: 0
    decay_mult: 0
  }
  scale_param {
    filler {
      value: 0.6666
    }
    bias_term: false
  }
}
layer {
  name: "fc4_sTanH"
  type: "TanH"
  bottom: "fc4_300"
  top: "fc4_300"
}
layer {
  name: "fc4_postscale"
  type: "Scale"
  bottom: "fc4_300"
  top: "fc4_300"
  param {
    lr_mult: 0
    decay_mult: 0
  }
  scale_param {
    filler {
      value: 1.7159
    }
    bias_term: false
  }
}
layer {
  name: "fc5_116"
  type: "InnerProduct"
  bottom: "fc4_300"
  top: "fc5_classes"
  inner_product_param {
    num_output: 116
    weight_filler {
      type: "xavier"
    }
  }
}
layer {
  name: "softmax"
  type: "Softmax"
  bottom: "fc5_classes"
  top: "softmax"
}
layer {
  name: "loss"
  type: "MultinomialLogisticLoss"
  bottom: "softmax"
  bottom: "label"
  top: "loss"
}
layer {
  name: "accuracy_1"
  type: "Accuracy"
  bottom: "fc5_classes"
  bottom: "label"
  top: "accuracy_1"
  accuracy_param {
    top_k: 1
  }
}
layer {
  name: "accuracy_5"
  type: "Accuracy"
  bottom: "fc5_classes"
  bottom: "label"
  top: "accuracy_5"
  accuracy_param {
    top_k: 5
  }
}
layer {
  name: "silence"
  type: "Silence"
  bottom: "accuracy_1"
  bottom: "accuracy_5"
}
I0506 22:09:27.926916 16219 layer_factory.hpp:77] Creating layer data
I0506 22:09:27.931807 16219 net.cpp:100] Creating Layer data
I0506 22:09:27.931826 16219 net.cpp:408] data -> data
I0506 22:09:27.931850 16219 net.cpp:408] data -> label
I0506 22:09:27.943091 16351 db_lmdb.cpp:35] Opened lmdb ../local_data/lmdb/RTSD/orig/train/lmdb
I0506 22:09:27.960021 16219 data_layer.cpp:41] output data size: 512,3,48,48
I0506 22:09:27.988845 16219 net.cpp:150] Setting up data
I0506 22:09:27.988873 16219 net.cpp:157] Top shape: 512 3 48 48 (3538944)
I0506 22:09:27.988878 16219 net.cpp:157] Top shape: 512 (512)
I0506 22:09:27.988881 16219 net.cpp:165] Memory required for data: 14157824
I0506 22:09:27.988893 16219 layer_factory.hpp:77] Creating layer label_data_1_split
I0506 22:09:27.988906 16219 net.cpp:100] Creating Layer label_data_1_split
I0506 22:09:27.988919 16219 net.cpp:434] label_data_1_split <- label
I0506 22:09:27.988932 16219 net.cpp:408] label_data_1_split -> label_data_1_split_0
I0506 22:09:27.988946 16219 net.cpp:408] label_data_1_split -> label_data_1_split_1
I0506 22:09:27.988955 16219 net.cpp:408] label_data_1_split -> label_data_1_split_2
I0506 22:09:27.989020 16219 net.cpp:150] Setting up label_data_1_split
I0506 22:09:27.989028 16219 net.cpp:157] Top shape: 512 (512)
I0506 22:09:27.989032 16219 net.cpp:157] Top shape: 512 (512)
I0506 22:09:27.989035 16219 net.cpp:157] Top shape: 512 (512)
I0506 22:09:27.989038 16219 net.cpp:165] Memory required for data: 14163968
I0506 22:09:27.989042 16219 layer_factory.hpp:77] Creating layer conv1
I0506 22:09:27.989058 16219 net.cpp:100] Creating Layer conv1
I0506 22:09:27.989061 16219 net.cpp:434] conv1 <- data
I0506 22:09:27.989068 16219 net.cpp:408] conv1 -> conv1
I0506 22:09:28.500322 16219 net.cpp:150] Setting up conv1
I0506 22:09:28.500362 16219 net.cpp:157] Top shape: 512 100 42 42 (90316800)
I0506 22:09:28.500367 16219 net.cpp:165] Memory required for data: 375431168
I0506 22:09:28.500389 16219 layer_factory.hpp:77] Creating layer conv1_prescale
I0506 22:09:28.500403 16219 net.cpp:100] Creating Layer conv1_prescale
I0506 22:09:28.500407 16219 net.cpp:434] conv1_prescale <- conv1
I0506 22:09:28.500417 16219 net.cpp:395] conv1_prescale -> conv1 (in-place)
I0506 22:09:28.500550 16219 net.cpp:150] Setting up conv1_prescale
I0506 22:09:28.500562 16219 net.cpp:157] Top shape: 512 100 42 42 (90316800)
I0506 22:09:28.500566 16219 net.cpp:165] Memory required for data: 736698368
I0506 22:09:28.500573 16219 layer_factory.hpp:77] Creating layer conv1_sTanH
I0506 22:09:28.500581 16219 net.cpp:100] Creating Layer conv1_sTanH
I0506 22:09:28.500586 16219 net.cpp:434] conv1_sTanH <- conv1
I0506 22:09:28.500591 16219 net.cpp:395] conv1_sTanH -> conv1 (in-place)
I0506 22:09:28.500811 16219 net.cpp:150] Setting up conv1_sTanH
I0506 22:09:28.500828 16219 net.cpp:157] Top shape: 512 100 42 42 (90316800)
I0506 22:09:28.500859 16219 net.cpp:165] Memory required for data: 1097965568
I0506 22:09:28.500866 16219 layer_factory.hpp:77] Creating layer conv1_postscale
I0506 22:09:28.500874 16219 net.cpp:100] Creating Layer conv1_postscale
I0506 22:09:28.500880 16219 net.cpp:434] conv1_postscale <- conv1
I0506 22:09:28.500885 16219 net.cpp:395] conv1_postscale -> conv1 (in-place)
I0506 22:09:28.501001 16219 net.cpp:150] Setting up conv1_postscale
I0506 22:09:28.501011 16219 net.cpp:157] Top shape: 512 100 42 42 (90316800)
I0506 22:09:28.501015 16219 net.cpp:165] Memory required for data: 1459232768
I0506 22:09:28.501020 16219 layer_factory.hpp:77] Creating layer pool1
I0506 22:09:28.501027 16219 net.cpp:100] Creating Layer pool1
I0506 22:09:28.501032 16219 net.cpp:434] pool1 <- conv1
I0506 22:09:28.501037 16219 net.cpp:408] pool1 -> pool1
I0506 22:09:28.501087 16219 net.cpp:150] Setting up pool1
I0506 22:09:28.501098 16219 net.cpp:157] Top shape: 512 100 21 21 (22579200)
I0506 22:09:28.501104 16219 net.cpp:165] Memory required for data: 1549549568
I0506 22:09:28.501111 16219 layer_factory.hpp:77] Creating layer conv2
I0506 22:09:28.501124 16219 net.cpp:100] Creating Layer conv2
I0506 22:09:28.501132 16219 net.cpp:434] conv2 <- pool1
I0506 22:09:28.501138 16219 net.cpp:408] conv2 -> conv2
I0506 22:09:28.509373 16219 net.cpp:150] Setting up conv2
I0506 22:09:28.509389 16219 net.cpp:157] Top shape: 512 150 18 18 (24883200)
I0506 22:09:28.509393 16219 net.cpp:165] Memory required for data: 1649082368
I0506 22:09:28.509404 16219 layer_factory.hpp:77] Creating layer conv2_prescale
I0506 22:09:28.509415 16219 net.cpp:100] Creating Layer conv2_prescale
I0506 22:09:28.509421 16219 net.cpp:434] conv2_prescale <- conv2
I0506 22:09:28.509426 16219 net.cpp:395] conv2_prescale -> conv2 (in-place)
I0506 22:09:28.509533 16219 net.cpp:150] Setting up conv2_prescale
I0506 22:09:28.509546 16219 net.cpp:157] Top shape: 512 150 18 18 (24883200)
I0506 22:09:28.509552 16219 net.cpp:165] Memory required for data: 1748615168
I0506 22:09:28.509560 16219 layer_factory.hpp:77] Creating layer conv2_sTanH
I0506 22:09:28.509572 16219 net.cpp:100] Creating Layer conv2_sTanH
I0506 22:09:28.509577 16219 net.cpp:434] conv2_sTanH <- conv2
I0506 22:09:28.509584 16219 net.cpp:395] conv2_sTanH -> conv2 (in-place)
I0506 22:09:28.510949 16219 net.cpp:150] Setting up conv2_sTanH
I0506 22:09:28.510967 16219 net.cpp:157] Top shape: 512 150 18 18 (24883200)
I0506 22:09:28.510969 16219 net.cpp:165] Memory required for data: 1848147968
I0506 22:09:28.510973 16219 layer_factory.hpp:77] Creating layer conv2_postscale
I0506 22:09:28.510982 16219 net.cpp:100] Creating Layer conv2_postscale
I0506 22:09:28.510984 16219 net.cpp:434] conv2_postscale <- conv2
I0506 22:09:28.510989 16219 net.cpp:395] conv2_postscale -> conv2 (in-place)
I0506 22:09:28.511090 16219 net.cpp:150] Setting up conv2_postscale
I0506 22:09:28.511102 16219 net.cpp:157] Top shape: 512 150 18 18 (24883200)
I0506 22:09:28.511107 16219 net.cpp:165] Memory required for data: 1947680768
I0506 22:09:28.511116 16219 layer_factory.hpp:77] Creating layer pool2
I0506 22:09:28.511126 16219 net.cpp:100] Creating Layer pool2
I0506 22:09:28.511132 16219 net.cpp:434] pool2 <- conv2
I0506 22:09:28.511140 16219 net.cpp:408] pool2 -> pool2
I0506 22:09:28.511200 16219 net.cpp:150] Setting up pool2
I0506 22:09:28.511214 16219 net.cpp:157] Top shape: 512 150 9 9 (6220800)
I0506 22:09:28.511217 16219 net.cpp:165] Memory required for data: 1972563968
I0506 22:09:28.511224 16219 layer_factory.hpp:77] Creating layer conv3
I0506 22:09:28.511235 16219 net.cpp:100] Creating Layer conv3
I0506 22:09:28.511247 16219 net.cpp:434] conv3 <- pool2
I0506 22:09:28.511256 16219 net.cpp:408] conv3 -> conv3
I0506 22:09:28.517601 16219 net.cpp:150] Setting up conv3
I0506 22:09:28.517619 16219 net.cpp:157] Top shape: 512 250 6 6 (4608000)
I0506 22:09:28.517623 16219 net.cpp:165] Memory required for data: 1990995968
I0506 22:09:28.517633 16219 layer_factory.hpp:77] Creating layer conv3_prescale
I0506 22:09:28.517642 16219 net.cpp:100] Creating Layer conv3_prescale
I0506 22:09:28.517673 16219 net.cpp:434] conv3_prescale <- conv3
I0506 22:09:28.517679 16219 net.cpp:395] conv3_prescale -> conv3 (in-place)
I0506 22:09:28.517771 16219 net.cpp:150] Setting up conv3_prescale
I0506 22:09:28.517779 16219 net.cpp:157] Top shape: 512 250 6 6 (4608000)
I0506 22:09:28.517782 16219 net.cpp:165] Memory required for data: 2009427968
I0506 22:09:28.517787 16219 layer_factory.hpp:77] Creating layer conv3_sTanH
I0506 22:09:28.517792 16219 net.cpp:100] Creating Layer conv3_sTanH
I0506 22:09:28.517796 16219 net.cpp:434] conv3_sTanH <- conv3
I0506 22:09:28.517799 16219 net.cpp:395] conv3_sTanH -> conv3 (in-place)
I0506 22:09:28.528033 16219 net.cpp:150] Setting up conv3_sTanH
I0506 22:09:28.528053 16219 net.cpp:157] Top shape: 512 250 6 6 (4608000)
I0506 22:09:28.528055 16219 net.cpp:165] Memory required for data: 2027859968
I0506 22:09:28.528059 16219 layer_factory.hpp:77] Creating layer conv3_postscale
I0506 22:09:28.528067 16219 net.cpp:100] Creating Layer conv3_postscale
I0506 22:09:28.528072 16219 net.cpp:434] conv3_postscale <- conv3
I0506 22:09:28.528077 16219 net.cpp:395] conv3_postscale -> conv3 (in-place)
I0506 22:09:28.528180 16219 net.cpp:150] Setting up conv3_postscale
I0506 22:09:28.528189 16219 net.cpp:157] Top shape: 512 250 6 6 (4608000)
I0506 22:09:28.528192 16219 net.cpp:165] Memory required for data: 2046291968
I0506 22:09:28.528198 16219 layer_factory.hpp:77] Creating layer pool3
I0506 22:09:28.528208 16219 net.cpp:100] Creating Layer pool3
I0506 22:09:28.528213 16219 net.cpp:434] pool3 <- conv3
I0506 22:09:28.528218 16219 net.cpp:408] pool3 -> pool3
I0506 22:09:28.528256 16219 net.cpp:150] Setting up pool3
I0506 22:09:28.528264 16219 net.cpp:157] Top shape: 512 250 3 3 (1152000)
I0506 22:09:28.528266 16219 net.cpp:165] Memory required for data: 2050899968
I0506 22:09:28.528270 16219 layer_factory.hpp:77] Creating layer fc4_300
I0506 22:09:28.528276 16219 net.cpp:100] Creating Layer fc4_300
I0506 22:09:28.528280 16219 net.cpp:434] fc4_300 <- pool3
I0506 22:09:28.528285 16219 net.cpp:408] fc4_300 -> fc4_300
I0506 22:09:28.549729 16219 net.cpp:150] Setting up fc4_300
I0506 22:09:28.549751 16219 net.cpp:157] Top shape: 512 300 (153600)
I0506 22:09:28.549756 16219 net.cpp:165] Memory required for data: 2051514368
I0506 22:09:28.549763 16219 layer_factory.hpp:77] Creating layer fc4_prescale
I0506 22:09:28.549772 16219 net.cpp:100] Creating Layer fc4_prescale
I0506 22:09:28.549775 16219 net.cpp:434] fc4_prescale <- fc4_300
I0506 22:09:28.549782 16219 net.cpp:395] fc4_prescale -> fc4_300 (in-place)
I0506 22:09:28.549873 16219 net.cpp:150] Setting up fc4_prescale
I0506 22:09:28.549882 16219 net.cpp:157] Top shape: 512 300 (153600)
I0506 22:09:28.549885 16219 net.cpp:165] Memory required for data: 2052128768
I0506 22:09:28.549890 16219 layer_factory.hpp:77] Creating layer fc4_sTanH
I0506 22:09:28.549896 16219 net.cpp:100] Creating Layer fc4_sTanH
I0506 22:09:28.549901 16219 net.cpp:434] fc4_sTanH <- fc4_300
I0506 22:09:28.549906 16219 net.cpp:395] fc4_sTanH -> fc4_300 (in-place)
I0506 22:09:28.550102 16219 net.cpp:150] Setting up fc4_sTanH
I0506 22:09:28.550114 16219 net.cpp:157] Top shape: 512 300 (153600)
I0506 22:09:28.550119 16219 net.cpp:165] Memory required for data: 2052743168
I0506 22:09:28.550123 16219 layer_factory.hpp:77] Creating layer fc4_postscale
I0506 22:09:28.550130 16219 net.cpp:100] Creating Layer fc4_postscale
I0506 22:09:28.550134 16219 net.cpp:434] fc4_postscale <- fc4_300
I0506 22:09:28.550140 16219 net.cpp:395] fc4_postscale -> fc4_300 (in-place)
I0506 22:09:28.550233 16219 net.cpp:150] Setting up fc4_postscale
I0506 22:09:28.550242 16219 net.cpp:157] Top shape: 512 300 (153600)
I0506 22:09:28.550245 16219 net.cpp:165] Memory required for data: 2053357568
I0506 22:09:28.550249 16219 layer_factory.hpp:77] Creating layer fc5_116
I0506 22:09:28.550256 16219 net.cpp:100] Creating Layer fc5_116
I0506 22:09:28.550261 16219 net.cpp:434] fc5_116 <- fc4_300
I0506 22:09:28.550266 16219 net.cpp:408] fc5_116 -> fc5_classes
I0506 22:09:28.552872 16219 net.cpp:150] Setting up fc5_116
I0506 22:09:28.552911 16219 net.cpp:157] Top shape: 512 116 (59392)
I0506 22:09:28.552914 16219 net.cpp:165] Memory required for data: 2053595136
I0506 22:09:28.552927 16219 layer_factory.hpp:77] Creating layer fc5_classes_fc5_116_0_split
I0506 22:09:28.552937 16219 net.cpp:100] Creating Layer fc5_classes_fc5_116_0_split
I0506 22:09:28.552942 16219 net.cpp:434] fc5_classes_fc5_116_0_split <- fc5_classes
I0506 22:09:28.552947 16219 net.cpp:408] fc5_classes_fc5_116_0_split -> fc5_classes_fc5_116_0_split_0
I0506 22:09:28.552958 16219 net.cpp:408] fc5_classes_fc5_116_0_split -> fc5_classes_fc5_116_0_split_1
I0506 22:09:28.552965 16219 net.cpp:408] fc5_classes_fc5_116_0_split -> fc5_classes_fc5_116_0_split_2
I0506 22:09:28.553020 16219 net.cpp:150] Setting up fc5_classes_fc5_116_0_split
I0506 22:09:28.553027 16219 net.cpp:157] Top shape: 512 116 (59392)
I0506 22:09:28.553030 16219 net.cpp:157] Top shape: 512 116 (59392)
I0506 22:09:28.553035 16219 net.cpp:157] Top shape: 512 116 (59392)
I0506 22:09:28.553036 16219 net.cpp:165] Memory required for data: 2054307840
I0506 22:09:28.553040 16219 layer_factory.hpp:77] Creating layer softmax
I0506 22:09:28.553046 16219 net.cpp:100] Creating Layer softmax
I0506 22:09:28.553050 16219 net.cpp:434] softmax <- fc5_classes_fc5_116_0_split_0
I0506 22:09:28.553056 16219 net.cpp:408] softmax -> softmax
I0506 22:09:28.553309 16219 net.cpp:150] Setting up softmax
I0506 22:09:28.553323 16219 net.cpp:157] Top shape: 512 116 (59392)
I0506 22:09:28.553326 16219 net.cpp:165] Memory required for data: 2054545408
I0506 22:09:28.553329 16219 layer_factory.hpp:77] Creating layer loss
I0506 22:09:28.553336 16219 net.cpp:100] Creating Layer loss
I0506 22:09:28.553340 16219 net.cpp:434] loss <- softmax
I0506 22:09:28.553344 16219 net.cpp:434] loss <- label_data_1_split_0
I0506 22:09:28.553349 16219 net.cpp:408] loss -> loss
…
