…
I0506 22:11:58.155668 30320 solver.cpp:93] Creating training net from train_net file: ./Prototxt/experiment_14/RTSD/orig/trial_1/train.prototxt
I0506 22:11:58.156155 30320 net.cpp:58] Initializing net from parameters: 
state {
  phase: TRAIN
  level: 0
  stage: ""
}
layer {
  name: "data"
  type: "Data"
  top: "data"
  top: "label"
  include {
    phase: TRAIN
  }
  transform_param {
    scale: 0.0039215689
    mirror: false
    crop_size: 48
    mean_value: 119
    mean_value: 113
    mean_value: 113
  }
  data_param {
    source: "../local_data/lmdb/RTSD/orig/train/lmdb"
    batch_size: 512
    backend: LMDB
  }
}
layer {
  name: "conv1"
  type: "Convolution"
  bottom: "data"
  top: "conv1"
  convolution_param {
    num_output: 100
    pad: 0
    kernel_size: 7
    group: 1
    stride: 1
    weight_filler {
      type: "xavier"
    }
  }
}
layer {
  name: "conv1_prescale"
  type: "Scale"
  bottom: "conv1"
  top: "conv1"
  param {
    lr_mult: 0
    decay_mult: 0
  }
  scale_param {
    filler {
      value: 0.6666
    }
    bias_term: false
  }
}
layer {
  name: "conv1_sTanH"
  type: "TanH"
  bottom: "conv1"
  top: "conv1"
}
layer {
  name: "conv1_postscale"
  type: "Scale"
  bottom: "conv1"
  top: "conv1"
  param {
    lr_mult: 0
    decay_mult: 0
  }
  scale_param {
    filler {
      value: 1.7159
    }
    bias_term: false
  }
}
layer {
  name: "pool1"
  type: "Pooling"
  bottom: "conv1"
  top: "pool1"
  pooling_param {
    pool: MAX
    kernel_size: 2
    stride: 2
  }
}
layer {
  name: "conv2"
  type: "Convolution"
  bottom: "pool1"
  top: "conv2"
  convolution_param {
    num_output: 150
    pad: 0
    kernel_size: 4
    group: 1
    stride: 1
    weight_filler {
      type: "xavier"
    }
  }
}
layer {
  name: "conv2_prescale"
  type: "Scale"
  bottom: "conv2"
  top: "conv2"
  param {
    lr_mult: 0
    decay_mult: 0
  }
  scale_param {
    filler {
      value: 0.6666
    }
    bias_term: false
  }
}
layer {
  name: "conv2_sTanH"
  type: "TanH"
  bottom: "conv2"
  top: "conv2"
}
layer {
  name: "conv2_postscale"
  type: "Scale"
  bottom: "conv2"
  top: "conv2"
  param {
    lr_mult: 0
    decay_mult: 0
  }
  scale_param {
    filler {
      value: 1.7159
    }
    bias_term: false
  }
}
layer {
  name: "pool2"
  type: "Pooling"
  bottom: "conv2"
  top: "pool2"
  pooling_param {
    pool: MAX
    kernel_size: 2
    stride: 2
  }
}
layer {
  name: "conv3"
  type: "Convolution"
  bottom: "pool2"
  top: "conv3"
  convolution_param {
    num_output: 250
    pad: 0
    kernel_size: 4
    group: 1
    stride: 1
    weight_filler {
      type: "xavier"
    }
  }
}
layer {
  name: "conv3_prescale"
  type: "Scale"
  bottom: "conv3"
  top: "conv3"
  param {
    lr_mult: 0
    decay_mult: 0
  }
  scale_param {
    filler {
      value: 0.6666
    }
    bias_term: false
  }
}
layer {
  name: "conv3_sTanH"
  type: "TanH"
  bottom: "conv3"
  top: "conv3"
}
layer {
  name: "conv3_postscale"
  type: "Scale"
  bottom: "conv3"
  top: "conv3"
  param {
    lr_mult: 0
    decay_mult: 0
  }
  scale_param {
    filler {
      value: 1.7159
    }
    bias_term: false
  }
}
layer {
  name: "pool3"
  type: "Pooling"
  bottom: "conv3"
  top: "pool3"
  pooling_param {
    pool: MAX
    kernel_size: 2
    stride: 2
  }
}
layer {
  name: "fc4_300"
  type: "InnerProduct"
  bottom: "pool3"
  top: "fc4_300"
  inner_product_param {
    num_output: 300
    weight_filler {
      type: "xavier"
    }
  }
}
layer {
  name: "fc4_prescale"
  type: "Scale"
  bottom: "fc4_300"
  top: "fc4_300"
  param {
    lr_mult: 0
    decay_mult: 0
  }
  scale_param {
    filler {
      value: 0.6666
    }
    bias_term: false
  }
}
layer {
  name: "fc4_sTanH"
  type: "TanH"
  bottom: "fc4_300"
  top: "fc4_300"
}
layer {
  name: "fc4_postscale"
  type: "Scale"
  bottom: "fc4_300"
  top: "fc4_300"
  param {
    lr_mult: 0
    decay_mult: 0
  }
  scale_param {
    filler {
      value: 1.7159
    }
    bias_term: false
  }
}
layer {
  name: "fc5_116"
  type: "InnerProduct"
  bottom: "fc4_300"
  top: "fc5_classes"
  inner_product_param {
    num_output: 116
    weight_filler {
      type: "xavier"
    }
  }
}
layer {
  name: "softmax"
  type: "Softmax"
  bottom: "fc5_classes"
  top: "softmax"
}
layer {
  name: "loss"
  type: "MultinomialLogisticLoss"
  bottom: "softmax"
  bottom: "label"
  top: "loss"
}
layer {
  name: "accuracy_1"
  type: "Accuracy"
  bottom: "fc5_classes"
  bottom: "label"
  top: "accuracy_1"
  accuracy_param {
    top_k: 1
  }
}
layer {
  name: "accuracy_5"
  type: "Accuracy"
  bottom: "fc5_classes"
  bottom: "label"
  top: "accuracy_5"
  accuracy_param {
    top_k: 5
  }
}
layer {
  name: "silence"
  type: "Silence"
  bottom: "accuracy_1"
  bottom: "accuracy_5"
}
I0506 22:11:58.156312 30320 layer_factory.hpp:77] Creating layer data
I0506 22:11:58.157094 30320 net.cpp:100] Creating Layer data
I0506 22:11:58.157109 30320 net.cpp:408] data -> data
I0506 22:11:58.157132 30320 net.cpp:408] data -> label
I0506 22:11:58.161170 30461 db_lmdb.cpp:35] Opened lmdb ../local_data/lmdb/RTSD/orig/train/lmdb
I0506 22:11:58.179574 30320 data_layer.cpp:41] output data size: 512,3,48,48
I0506 22:11:58.245468 30320 net.cpp:150] Setting up data
I0506 22:11:58.245498 30320 net.cpp:157] Top shape: 512 3 48 48 (3538944)
I0506 22:11:58.245503 30320 net.cpp:157] Top shape: 512 (512)
I0506 22:11:58.245507 30320 net.cpp:165] Memory required for data: 14157824
I0506 22:11:58.245518 30320 layer_factory.hpp:77] Creating layer label_data_1_split
I0506 22:11:58.245537 30320 net.cpp:100] Creating Layer label_data_1_split
I0506 22:11:58.245546 30320 net.cpp:434] label_data_1_split <- label
I0506 22:11:58.245564 30320 net.cpp:408] label_data_1_split -> label_data_1_split_0
I0506 22:11:58.245581 30320 net.cpp:408] label_data_1_split -> label_data_1_split_1
I0506 22:11:58.245594 30320 net.cpp:408] label_data_1_split -> label_data_1_split_2
I0506 22:11:58.245731 30320 net.cpp:150] Setting up label_data_1_split
I0506 22:11:58.245746 30320 net.cpp:157] Top shape: 512 (512)
I0506 22:11:58.245754 30320 net.cpp:157] Top shape: 512 (512)
I0506 22:11:58.245761 30320 net.cpp:157] Top shape: 512 (512)
I0506 22:11:58.245767 30320 net.cpp:165] Memory required for data: 14163968
I0506 22:11:58.245772 30320 layer_factory.hpp:77] Creating layer conv1
I0506 22:11:58.245797 30320 net.cpp:100] Creating Layer conv1
I0506 22:11:58.245806 30320 net.cpp:434] conv1 <- data
I0506 22:11:58.245817 30320 net.cpp:408] conv1 -> conv1
I0506 22:11:58.764241 30320 net.cpp:150] Setting up conv1
I0506 22:11:58.764277 30320 net.cpp:157] Top shape: 512 100 42 42 (90316800)
I0506 22:11:58.764282 30320 net.cpp:165] Memory required for data: 375431168
I0506 22:11:58.764312 30320 layer_factory.hpp:77] Creating layer conv1_prescale
I0506 22:11:58.764334 30320 net.cpp:100] Creating Layer conv1_prescale
I0506 22:11:58.764343 30320 net.cpp:434] conv1_prescale <- conv1
I0506 22:11:58.764356 30320 net.cpp:395] conv1_prescale -> conv1 (in-place)
I0506 22:11:58.764531 30320 net.cpp:150] Setting up conv1_prescale
I0506 22:11:58.764546 30320 net.cpp:157] Top shape: 512 100 42 42 (90316800)
I0506 22:11:58.764554 30320 net.cpp:165] Memory required for data: 736698368
I0506 22:11:58.764565 30320 layer_factory.hpp:77] Creating layer conv1_sTanH
I0506 22:11:58.764580 30320 net.cpp:100] Creating Layer conv1_sTanH
I0506 22:11:58.764587 30320 net.cpp:434] conv1_sTanH <- conv1
I0506 22:11:58.764598 30320 net.cpp:395] conv1_sTanH -> conv1 (in-place)
I0506 22:11:58.764855 30320 net.cpp:150] Setting up conv1_sTanH
I0506 22:11:58.764876 30320 net.cpp:157] Top shape: 512 100 42 42 (90316800)
I0506 22:11:58.764915 30320 net.cpp:165] Memory required for data: 1097965568
I0506 22:11:58.764926 30320 layer_factory.hpp:77] Creating layer conv1_postscale
I0506 22:11:58.764937 30320 net.cpp:100] Creating Layer conv1_postscale
I0506 22:11:58.764943 30320 net.cpp:434] conv1_postscale <- conv1
I0506 22:11:58.764950 30320 net.cpp:395] conv1_postscale -> conv1 (in-place)
I0506 22:11:58.765101 30320 net.cpp:150] Setting up conv1_postscale
I0506 22:11:58.765115 30320 net.cpp:157] Top shape: 512 100 42 42 (90316800)
I0506 22:11:58.765120 30320 net.cpp:165] Memory required for data: 1459232768
I0506 22:11:58.765127 30320 layer_factory.hpp:77] Creating layer pool1
I0506 22:11:58.765137 30320 net.cpp:100] Creating Layer pool1
I0506 22:11:58.765143 30320 net.cpp:434] pool1 <- conv1
I0506 22:11:58.765149 30320 net.cpp:408] pool1 -> pool1
I0506 22:11:58.765225 30320 net.cpp:150] Setting up pool1
I0506 22:11:58.765239 30320 net.cpp:157] Top shape: 512 100 21 21 (22579200)
I0506 22:11:58.765244 30320 net.cpp:165] Memory required for data: 1549549568
I0506 22:11:58.765247 30320 layer_factory.hpp:77] Creating layer conv2
I0506 22:11:58.765259 30320 net.cpp:100] Creating Layer conv2
I0506 22:11:58.765265 30320 net.cpp:434] conv2 <- pool1
I0506 22:11:58.765272 30320 net.cpp:408] conv2 -> conv2
I0506 22:11:58.776587 30320 net.cpp:150] Setting up conv2
I0506 22:11:58.776618 30320 net.cpp:157] Top shape: 512 150 18 18 (24883200)
I0506 22:11:58.776625 30320 net.cpp:165] Memory required for data: 1649082368
I0506 22:11:58.776646 30320 layer_factory.hpp:77] Creating layer conv2_prescale
I0506 22:11:58.776667 30320 net.cpp:100] Creating Layer conv2_prescale
I0506 22:11:58.776675 30320 net.cpp:434] conv2_prescale <- conv2
I0506 22:11:58.776682 30320 net.cpp:395] conv2_prescale -> conv2 (in-place)
I0506 22:11:58.776818 30320 net.cpp:150] Setting up conv2_prescale
I0506 22:11:58.776829 30320 net.cpp:157] Top shape: 512 150 18 18 (24883200)
I0506 22:11:58.776834 30320 net.cpp:165] Memory required for data: 1748615168
I0506 22:11:58.776839 30320 layer_factory.hpp:77] Creating layer conv2_sTanH
I0506 22:11:58.776847 30320 net.cpp:100] Creating Layer conv2_sTanH
I0506 22:11:58.776854 30320 net.cpp:434] conv2_sTanH <- conv2
I0506 22:11:58.776865 30320 net.cpp:395] conv2_sTanH -> conv2 (in-place)
I0506 22:11:58.780164 30320 net.cpp:150] Setting up conv2_sTanH
I0506 22:11:58.780189 30320 net.cpp:157] Top shape: 512 150 18 18 (24883200)
I0506 22:11:58.780194 30320 net.cpp:165] Memory required for data: 1848147968
I0506 22:11:58.780200 30320 layer_factory.hpp:77] Creating layer conv2_postscale
I0506 22:11:58.780215 30320 net.cpp:100] Creating Layer conv2_postscale
I0506 22:11:58.780220 30320 net.cpp:434] conv2_postscale <- conv2
I0506 22:11:58.780230 30320 net.cpp:395] conv2_postscale -> conv2 (in-place)
I0506 22:11:58.780374 30320 net.cpp:150] Setting up conv2_postscale
I0506 22:11:58.780387 30320 net.cpp:157] Top shape: 512 150 18 18 (24883200)
I0506 22:11:58.780395 30320 net.cpp:165] Memory required for data: 1947680768
I0506 22:11:58.780403 30320 layer_factory.hpp:77] Creating layer pool2
I0506 22:11:58.780416 30320 net.cpp:100] Creating Layer pool2
I0506 22:11:58.780422 30320 net.cpp:434] pool2 <- conv2
I0506 22:11:58.780432 30320 net.cpp:408] pool2 -> pool2
I0506 22:11:58.780498 30320 net.cpp:150] Setting up pool2
I0506 22:11:58.780511 30320 net.cpp:157] Top shape: 512 150 9 9 (6220800)
I0506 22:11:58.780520 30320 net.cpp:165] Memory required for data: 1972563968
I0506 22:11:58.780529 30320 layer_factory.hpp:77] Creating layer conv3
I0506 22:11:58.780545 30320 net.cpp:100] Creating Layer conv3
I0506 22:11:58.780553 30320 net.cpp:434] conv3 <- pool2
I0506 22:11:58.780563 30320 net.cpp:408] conv3 -> conv3
I0506 22:11:58.788002 30320 net.cpp:150] Setting up conv3
I0506 22:11:58.788028 30320 net.cpp:157] Top shape: 512 250 6 6 (4608000)
I0506 22:11:58.788031 30320 net.cpp:165] Memory required for data: 1990995968
I0506 22:11:58.788045 30320 layer_factory.hpp:77] Creating layer conv3_prescale
I0506 22:11:58.788060 30320 net.cpp:100] Creating Layer conv3_prescale
I0506 22:11:58.788085 30320 net.cpp:434] conv3_prescale <- conv3
I0506 22:11:58.788095 30320 net.cpp:395] conv3_prescale -> conv3 (in-place)
I0506 22:11:58.788218 30320 net.cpp:150] Setting up conv3_prescale
I0506 22:11:58.788228 30320 net.cpp:157] Top shape: 512 250 6 6 (4608000)
I0506 22:11:58.788233 30320 net.cpp:165] Memory required for data: 2009427968
I0506 22:11:58.788239 30320 layer_factory.hpp:77] Creating layer conv3_sTanH
I0506 22:11:58.788245 30320 net.cpp:100] Creating Layer conv3_sTanH
I0506 22:11:58.788250 30320 net.cpp:434] conv3_sTanH <- conv3
I0506 22:11:58.788256 30320 net.cpp:395] conv3_sTanH -> conv3 (in-place)
I0506 22:11:58.789394 30320 net.cpp:150] Setting up conv3_sTanH
I0506 22:11:58.789415 30320 net.cpp:157] Top shape: 512 250 6 6 (4608000)
I0506 22:11:58.789420 30320 net.cpp:165] Memory required for data: 2027859968
I0506 22:11:58.789424 30320 layer_factory.hpp:77] Creating layer conv3_postscale
I0506 22:11:58.789436 30320 net.cpp:100] Creating Layer conv3_postscale
I0506 22:11:58.789443 30320 net.cpp:434] conv3_postscale <- conv3
I0506 22:11:58.789448 30320 net.cpp:395] conv3_postscale -> conv3 (in-place)
I0506 22:11:58.789577 30320 net.cpp:150] Setting up conv3_postscale
I0506 22:11:58.789593 30320 net.cpp:157] Top shape: 512 250 6 6 (4608000)
I0506 22:11:58.789602 30320 net.cpp:165] Memory required for data: 2046291968
I0506 22:11:58.789608 30320 layer_factory.hpp:77] Creating layer pool3
I0506 22:11:58.789623 30320 net.cpp:100] Creating Layer pool3
I0506 22:11:58.789628 30320 net.cpp:434] pool3 <- conv3
I0506 22:11:58.789635 30320 net.cpp:408] pool3 -> pool3
I0506 22:11:58.789690 30320 net.cpp:150] Setting up pool3
I0506 22:11:58.789700 30320 net.cpp:157] Top shape: 512 250 3 3 (1152000)
I0506 22:11:58.789706 30320 net.cpp:165] Memory required for data: 2050899968
I0506 22:11:58.789710 30320 layer_factory.hpp:77] Creating layer fc4_300
I0506 22:11:58.789718 30320 net.cpp:100] Creating Layer fc4_300
I0506 22:11:58.789727 30320 net.cpp:434] fc4_300 <- pool3
I0506 22:11:58.789736 30320 net.cpp:408] fc4_300 -> fc4_300
I0506 22:11:58.803263 30320 net.cpp:150] Setting up fc4_300
I0506 22:11:58.803292 30320 net.cpp:157] Top shape: 512 300 (153600)
I0506 22:11:58.803295 30320 net.cpp:165] Memory required for data: 2051514368
I0506 22:11:58.803305 30320 layer_factory.hpp:77] Creating layer fc4_prescale
I0506 22:11:58.803316 30320 net.cpp:100] Creating Layer fc4_prescale
I0506 22:11:58.803321 30320 net.cpp:434] fc4_prescale <- fc4_300
I0506 22:11:58.803329 30320 net.cpp:395] fc4_prescale -> fc4_300 (in-place)
I0506 22:11:58.803431 30320 net.cpp:150] Setting up fc4_prescale
I0506 22:11:58.803439 30320 net.cpp:157] Top shape: 512 300 (153600)
I0506 22:11:58.803443 30320 net.cpp:165] Memory required for data: 2052128768
I0506 22:11:58.803448 30320 layer_factory.hpp:77] Creating layer fc4_sTanH
I0506 22:11:58.803454 30320 net.cpp:100] Creating Layer fc4_sTanH
I0506 22:11:58.803458 30320 net.cpp:434] fc4_sTanH <- fc4_300
I0506 22:11:58.803463 30320 net.cpp:395] fc4_sTanH -> fc4_300 (in-place)
I0506 22:11:58.803689 30320 net.cpp:150] Setting up fc4_sTanH
I0506 22:11:58.803700 30320 net.cpp:157] Top shape: 512 300 (153600)
I0506 22:11:58.803704 30320 net.cpp:165] Memory required for data: 2052743168
I0506 22:11:58.803707 30320 layer_factory.hpp:77] Creating layer fc4_postscale
I0506 22:11:58.803714 30320 net.cpp:100] Creating Layer fc4_postscale
I0506 22:11:58.803719 30320 net.cpp:434] fc4_postscale <- fc4_300
I0506 22:11:58.803725 30320 net.cpp:395] fc4_postscale -> fc4_300 (in-place)
I0506 22:11:58.803829 30320 net.cpp:150] Setting up fc4_postscale
I0506 22:11:58.803838 30320 net.cpp:157] Top shape: 512 300 (153600)
I0506 22:11:58.803843 30320 net.cpp:165] Memory required for data: 2053357568
I0506 22:11:58.803848 30320 layer_factory.hpp:77] Creating layer fc5_116
I0506 22:11:58.803855 30320 net.cpp:100] Creating Layer fc5_116
I0506 22:11:58.803860 30320 net.cpp:434] fc5_116 <- fc4_300
I0506 22:11:58.803867 30320 net.cpp:408] fc5_116 -> fc5_classes
I0506 22:11:58.808503 30320 net.cpp:150] Setting up fc5_116
I0506 22:11:58.808540 30320 net.cpp:157] Top shape: 512 116 (59392)
I0506 22:11:58.808544 30320 net.cpp:165] Memory required for data: 2053595136
I0506 22:11:58.808557 30320 layer_factory.hpp:77] Creating layer fc5_classes_fc5_116_0_split
I0506 22:11:58.808568 30320 net.cpp:100] Creating Layer fc5_classes_fc5_116_0_split
I0506 22:11:58.808573 30320 net.cpp:434] fc5_classes_fc5_116_0_split <- fc5_classes
I0506 22:11:58.808579 30320 net.cpp:408] fc5_classes_fc5_116_0_split -> fc5_classes_fc5_116_0_split_0
I0506 22:11:58.808588 30320 net.cpp:408] fc5_classes_fc5_116_0_split -> fc5_classes_fc5_116_0_split_1
I0506 22:11:58.808596 30320 net.cpp:408] fc5_classes_fc5_116_0_split -> fc5_classes_fc5_116_0_split_2
I0506 22:11:58.808653 30320 net.cpp:150] Setting up fc5_classes_fc5_116_0_split
I0506 22:11:58.808662 30320 net.cpp:157] Top shape: 512 116 (59392)
I0506 22:11:58.808665 30320 net.cpp:157] Top shape: 512 116 (59392)
I0506 22:11:58.808670 30320 net.cpp:157] Top shape: 512 116 (59392)
I0506 22:11:58.808671 30320 net.cpp:165] Memory required for data: 2054307840
I0506 22:11:58.808675 30320 layer_factory.hpp:77] Creating layer softmax
I0506 22:11:58.808682 30320 net.cpp:100] Creating Layer softmax
I0506 22:11:58.808686 30320 net.cpp:434] softmax <- fc5_classes_fc5_116_0_split_0
I0506 22:11:58.808691 30320 net.cpp:408] softmax -> softmax
I0506 22:11:58.808956 30320 net.cpp:150] Setting up softmax
I0506 22:11:58.808969 30320 net.cpp:157] Top shape: 512 116 (59392)
I0506 22:11:58.808971 30320 net.cpp:165] Memory required for data: 2054545408
I0506 22:11:58.808974 30320 layer_factory.hpp:77] Creating layer loss
I0506 22:11:58.808981 30320 net.cpp:100] Creating Layer loss
I0506 22:11:58.808985 30320 net.cpp:434] loss <- softmax
I0506 22:11:58.808990 30320 net.cpp:434] loss <- label_data_1_split_0
I0506 22:11:58.808995 30320 net.cpp:408] loss -> loss
…
