…
I0527 23:48:17.393499 28413 solver.cpp:81] Creating training net from train_net file: ./Prototxt/experiment_20/RTSD/AHE/trial_2/train.prototxt
I0527 23:48:17.393853 28413 net.cpp:58] Initializing net from parameters: 
state {
  phase: TRAIN
  level: 0
  stage: ""
}
layer {
  name: "data"
  type: "Data"
  top: "data"
  top: "label"
  include {
    phase: TRAIN
  }
  transform_param {
    scale: 0.0039215689
    mirror: false
    crop_size: 48
    mean_value: 133
    mean_value: 127
    mean_value: 126
  }
  data_param {
    source: "../local_data/lmdb/RTSD/AHE/train/lmdb"
    batch_size: 1024
    backend: LMDB
  }
}
layer {
  name: "conv1"
  type: "Convolution"
  bottom: "data"
  top: "conv1"
  convolution_param {
    num_output: 100
    pad: 0
    kernel_size: 7
    group: 1
    stride: 1
    weight_filler {
      type: "xavier"
    }
  }
}
layer {
  name: "conv1_relu"
  type: "ReLU"
  bottom: "conv1"
  top: "conv1"
}
layer {
  name: "pool1"
  type: "Pooling"
  bottom: "conv1"
  top: "pool1"
  pooling_param {
    pool: MAX
    kernel_size: 2
    stride: 2
  }
}
layer {
  name: "conv2"
  type: "Convolution"
  bottom: "pool1"
  top: "conv2"
  convolution_param {
    num_output: 150
    pad: 0
    kernel_size: 4
    group: 1
    stride: 1
    weight_filler {
      type: "xavier"
    }
  }
}
layer {
  name: "conv2_relu"
  type: "ReLU"
  bottom: "conv2"
  top: "conv2"
}
layer {
  name: "pool2"
  type: "Pooling"
  bottom: "conv2"
  top: "pool2"
  pooling_param {
    pool: MAX
    kernel_size: 2
    stride: 2
  }
}
layer {
  name: "conv3"
  type: "Convolution"
  bottom: "pool2"
  top: "conv3"
  convolution_param {
    num_output: 250
    pad: 0
    kernel_size: 4
    group: 1
    stride: 1
    weight_filler {
      type: "xavier"
    }
  }
}
layer {
  name: "conv3_relu"
  type: "ReLU"
  bottom: "conv3"
  top: "conv3"
}
layer {
  name: "pool3"
  type: "Pooling"
  bottom: "conv3"
  top: "pool3"
  pooling_param {
    pool: MAX
    kernel_size: 2
    stride: 2
  }
}
layer {
  name: "fc4_300"
  type: "InnerProduct"
  bottom: "pool3"
  top: "fc4_300"
  inner_product_param {
    num_output: 300
    weight_filler {
      type: "xavier"
    }
  }
}
layer {
  name: "fc4_relu"
  type: "ReLU"
  bottom: "fc4_300"
  top: "fc4_300"
}
layer {
  name: "fc5_116"
  type: "InnerProduct"
  bottom: "fc4_300"
  top: "fc5_classes"
  inner_product_param {
    num_output: 116
    weight_filler {
      type: "xavier"
    }
  }
}
layer {
  name: "softmax"
  type: "Softmax"
  bottom: "fc5_classes"
  top: "softmax"
}
layer {
  name: "loss"
  type: "MultinomialLogisticLoss"
  bottom: "softmax"
  bottom: "label"
  top: "loss"
}
layer {
  name: "accuracy_1"
  type: "Accuracy"
  bottom: "fc5_classes"
  bottom: "label"
  top: "accuracy_1"
  accuracy_param {
    top_k: 1
  }
}
layer {
  name: "accuracy_5"
  type: "Accuracy"
  bottom: "fc5_classes"
  bottom: "label"
  top: "accuracy_5"
  accuracy_param {
    top_k: 5
  }
}
layer {
  name: "silence"
  type: "Silence"
  bottom: "accuracy_1"
  bottom: "accuracy_5"
}
I0527 23:48:17.393971 28413 layer_factory.hpp:77] Creating layer data
I0527 23:48:17.394739 28413 net.cpp:100] Creating Layer data
I0527 23:48:17.394755 28413 net.cpp:408] data -> data
I0527 23:48:17.394785 28413 net.cpp:408] data -> label
I0527 23:48:17.398370 28460 db_lmdb.cpp:35] Opened lmdb ../local_data/lmdb/RTSD/AHE/train/lmdb
I0527 23:48:17.459494 28413 data_layer.cpp:41] output data size: 1024,3,48,48
I0527 23:48:17.526482 28413 net.cpp:150] Setting up data
I0527 23:48:17.526546 28413 net.cpp:157] Top shape: 1024 3 48 48 (7077888)
I0527 23:48:17.526558 28413 net.cpp:157] Top shape: 1024 (1024)
I0527 23:48:17.526592 28413 net.cpp:165] Memory required for data: 28315648
I0527 23:48:17.526612 28413 layer_factory.hpp:77] Creating layer label_data_1_split
I0527 23:48:17.526631 28413 net.cpp:100] Creating Layer label_data_1_split
I0527 23:48:17.526644 28413 net.cpp:434] label_data_1_split <- label
I0527 23:48:17.526662 28413 net.cpp:408] label_data_1_split -> label_data_1_split_0
I0527 23:48:17.526684 28413 net.cpp:408] label_data_1_split -> label_data_1_split_1
I0527 23:48:17.526700 28413 net.cpp:408] label_data_1_split -> label_data_1_split_2
I0527 23:48:17.526768 28413 net.cpp:150] Setting up label_data_1_split
I0527 23:48:17.526783 28413 net.cpp:157] Top shape: 1024 (1024)
I0527 23:48:17.526794 28413 net.cpp:157] Top shape: 1024 (1024)
I0527 23:48:17.526809 28413 net.cpp:157] Top shape: 1024 (1024)
I0527 23:48:17.526819 28413 net.cpp:165] Memory required for data: 28327936
I0527 23:48:17.526835 28413 layer_factory.hpp:77] Creating layer conv1
I0527 23:48:17.526861 28413 net.cpp:100] Creating Layer conv1
I0527 23:48:17.526871 28413 net.cpp:434] conv1 <- data
I0527 23:48:17.526887 28413 net.cpp:408] conv1 -> conv1
I0527 23:48:18.164127 28413 net.cpp:150] Setting up conv1
I0527 23:48:18.164161 28413 net.cpp:157] Top shape: 1024 100 42 42 (180633600)
I0527 23:48:18.164167 28413 net.cpp:165] Memory required for data: 750862336
I0527 23:48:18.164183 28413 layer_factory.hpp:77] Creating layer conv1_relu
I0527 23:48:18.164196 28413 net.cpp:100] Creating Layer conv1_relu
I0527 23:48:18.164201 28413 net.cpp:434] conv1_relu <- conv1
I0527 23:48:18.164207 28413 net.cpp:395] conv1_relu -> conv1 (in-place)
I0527 23:48:18.165400 28413 net.cpp:150] Setting up conv1_relu
I0527 23:48:18.165412 28413 net.cpp:157] Top shape: 1024 100 42 42 (180633600)
I0527 23:48:18.165417 28413 net.cpp:165] Memory required for data: 1473396736
I0527 23:48:18.165422 28413 layer_factory.hpp:77] Creating layer pool1
I0527 23:48:18.165434 28413 net.cpp:100] Creating Layer pool1
I0527 23:48:18.165439 28413 net.cpp:434] pool1 <- conv1
I0527 23:48:18.165447 28413 net.cpp:408] pool1 -> pool1
I0527 23:48:18.165493 28413 net.cpp:150] Setting up pool1
I0527 23:48:18.165503 28413 net.cpp:157] Top shape: 1024 100 21 21 (45158400)
I0527 23:48:18.165508 28413 net.cpp:165] Memory required for data: 1654030336
I0527 23:48:18.165511 28413 layer_factory.hpp:77] Creating layer conv2
I0527 23:48:18.165525 28413 net.cpp:100] Creating Layer conv2
I0527 23:48:18.165529 28413 net.cpp:434] conv2 <- pool1
I0527 23:48:18.165536 28413 net.cpp:408] conv2 -> conv2
I0527 23:48:18.173241 28413 net.cpp:150] Setting up conv2
I0527 23:48:18.173269 28413 net.cpp:157] Top shape: 1024 150 18 18 (49766400)
I0527 23:48:18.173274 28413 net.cpp:165] Memory required for data: 1853095936
I0527 23:48:18.173288 28413 layer_factory.hpp:77] Creating layer conv2_relu
I0527 23:48:18.173300 28413 net.cpp:100] Creating Layer conv2_relu
I0527 23:48:18.173305 28413 net.cpp:434] conv2_relu <- conv2
I0527 23:48:18.173312 28413 net.cpp:395] conv2_relu -> conv2 (in-place)
I0527 23:48:18.174384 28413 net.cpp:150] Setting up conv2_relu
I0527 23:48:18.174396 28413 net.cpp:157] Top shape: 1024 150 18 18 (49766400)
I0527 23:48:18.174401 28413 net.cpp:165] Memory required for data: 2052161536
I0527 23:48:18.174405 28413 layer_factory.hpp:77] Creating layer pool2
I0527 23:48:18.174413 28413 net.cpp:100] Creating Layer pool2
I0527 23:48:18.174418 28413 net.cpp:434] pool2 <- conv2
I0527 23:48:18.174425 28413 net.cpp:408] pool2 -> pool2
I0527 23:48:18.174460 28413 net.cpp:150] Setting up pool2
I0527 23:48:18.174470 28413 net.cpp:157] Top shape: 1024 150 9 9 (12441600)
I0527 23:48:18.174474 28413 net.cpp:165] Memory required for data: 2101927936
I0527 23:48:18.174479 28413 layer_factory.hpp:77] Creating layer conv3
I0527 23:48:18.174491 28413 net.cpp:100] Creating Layer conv3
I0527 23:48:18.174496 28413 net.cpp:434] conv3 <- pool2
I0527 23:48:18.174502 28413 net.cpp:408] conv3 -> conv3
I0527 23:48:18.181707 28413 net.cpp:150] Setting up conv3
I0527 23:48:18.181740 28413 net.cpp:157] Top shape: 1024 250 6 6 (9216000)
I0527 23:48:18.181746 28413 net.cpp:165] Memory required for data: 2138791936
I0527 23:48:18.181761 28413 layer_factory.hpp:77] Creating layer conv3_relu
I0527 23:48:18.181773 28413 net.cpp:100] Creating Layer conv3_relu
I0527 23:48:18.181779 28413 net.cpp:434] conv3_relu <- conv3
I0527 23:48:18.181787 28413 net.cpp:395] conv3_relu -> conv3 (in-place)
I0527 23:48:18.182538 28413 net.cpp:150] Setting up conv3_relu
I0527 23:48:18.182554 28413 net.cpp:157] Top shape: 1024 250 6 6 (9216000)
I0527 23:48:18.182559 28413 net.cpp:165] Memory required for data: 2175655936
I0527 23:48:18.182562 28413 layer_factory.hpp:77] Creating layer pool3
I0527 23:48:18.182571 28413 net.cpp:100] Creating Layer pool3
I0527 23:48:18.182576 28413 net.cpp:434] pool3 <- conv3
I0527 23:48:18.182582 28413 net.cpp:408] pool3 -> pool3
I0527 23:48:18.182621 28413 net.cpp:150] Setting up pool3
I0527 23:48:18.182631 28413 net.cpp:157] Top shape: 1024 250 3 3 (2304000)
I0527 23:48:18.182633 28413 net.cpp:165] Memory required for data: 2184871936
I0527 23:48:18.182637 28413 layer_factory.hpp:77] Creating layer fc4_300
I0527 23:48:18.182644 28413 net.cpp:100] Creating Layer fc4_300
I0527 23:48:18.182648 28413 net.cpp:434] fc4_300 <- pool3
I0527 23:48:18.182653 28413 net.cpp:408] fc4_300 -> fc4_300
I0527 23:48:18.187163 28413 net.cpp:150] Setting up fc4_300
I0527 23:48:18.187187 28413 net.cpp:157] Top shape: 1024 300 (307200)
I0527 23:48:18.187191 28413 net.cpp:165] Memory required for data: 2186100736
I0527 23:48:18.187201 28413 layer_factory.hpp:77] Creating layer fc4_relu
I0527 23:48:18.187208 28413 net.cpp:100] Creating Layer fc4_relu
I0527 23:48:18.187213 28413 net.cpp:434] fc4_relu <- fc4_300
I0527 23:48:18.187219 28413 net.cpp:395] fc4_relu -> fc4_300 (in-place)
I0527 23:48:18.187374 28413 net.cpp:150] Setting up fc4_relu
I0527 23:48:18.187386 28413 net.cpp:157] Top shape: 1024 300 (307200)
I0527 23:48:18.187389 28413 net.cpp:165] Memory required for data: 2187329536
I0527 23:48:18.187394 28413 layer_factory.hpp:77] Creating layer fc5_116
I0527 23:48:18.187402 28413 net.cpp:100] Creating Layer fc5_116
I0527 23:48:18.187405 28413 net.cpp:434] fc5_116 <- fc4_300
I0527 23:48:18.187412 28413 net.cpp:408] fc5_116 -> fc5_classes
I0527 23:48:18.188472 28413 net.cpp:150] Setting up fc5_116
I0527 23:48:18.188488 28413 net.cpp:157] Top shape: 1024 116 (118784)
I0527 23:48:18.188490 28413 net.cpp:165] Memory required for data: 2187804672
I0527 23:48:18.188501 28413 layer_factory.hpp:77] Creating layer fc5_classes_fc5_116_0_split
I0527 23:48:18.188508 28413 net.cpp:100] Creating Layer fc5_classes_fc5_116_0_split
I0527 23:48:18.188513 28413 net.cpp:434] fc5_classes_fc5_116_0_split <- fc5_classes
I0527 23:48:18.188519 28413 net.cpp:408] fc5_classes_fc5_116_0_split -> fc5_classes_fc5_116_0_split_0
I0527 23:48:18.188525 28413 net.cpp:408] fc5_classes_fc5_116_0_split -> fc5_classes_fc5_116_0_split_1
I0527 23:48:18.188531 28413 net.cpp:408] fc5_classes_fc5_116_0_split -> fc5_classes_fc5_116_0_split_2
I0527 23:48:18.188566 28413 net.cpp:150] Setting up fc5_classes_fc5_116_0_split
I0527 23:48:18.188575 28413 net.cpp:157] Top shape: 1024 116 (118784)
I0527 23:48:18.188580 28413 net.cpp:157] Top shape: 1024 116 (118784)
I0527 23:48:18.188585 28413 net.cpp:157] Top shape: 1024 116 (118784)
I0527 23:48:18.188588 28413 net.cpp:165] Memory required for data: 2189230080
I0527 23:48:18.188592 28413 layer_factory.hpp:77] Creating layer softmax
I0527 23:48:18.188598 28413 net.cpp:100] Creating Layer softmax
I0527 23:48:18.188601 28413 net.cpp:434] softmax <- fc5_classes_fc5_116_0_split_0
I0527 23:48:18.188606 28413 net.cpp:408] softmax -> softmax
I0527 23:48:18.188807 28413 net.cpp:150] Setting up softmax
I0527 23:48:18.188817 28413 net.cpp:157] Top shape: 1024 116 (118784)
I0527 23:48:18.188822 28413 net.cpp:165] Memory required for data: 2189705216
I0527 23:48:18.188827 28413 layer_factory.hpp:77] Creating layer loss
I0527 23:48:18.188834 28413 net.cpp:100] Creating Layer loss
I0527 23:48:18.188858 28413 net.cpp:434] loss <- softmax
I0527 23:48:18.188863 28413 net.cpp:434] loss <- label_data_1_split_0
I0527 23:48:18.188869 28413 net.cpp:408] loss -> loss
…
