…
I0528 23:24:29.720543  6483 solver.cpp:81] Creating training net from train_net file: ./Prototxt/experiment_22/RTSD/histeq/trial_1/train.prototxt
I0528 23:24:29.720902  6483 net.cpp:58] Initializing net from parameters: 
state {
  phase: TRAIN
  level: 0
  stage: ""
}
layer {
  name: "data"
  type: "Data"
  top: "data"
  top: "label"
  include {
    phase: TRAIN
  }
  transform_param {
    scale: 0.0039215689
    mirror: false
    crop_size: 48
    mean_value: 134
    mean_value: 128
    mean_value: 128
  }
  data_param {
    source: "../local_data/lmdb/RTSD/histeq/train/lmdb"
    batch_size: 1024
    backend: LMDB
  }
}
layer {
  name: "conv1"
  type: "Convolution"
  bottom: "data"
  top: "conv1"
  convolution_param {
    num_output: 100
    pad: 0
    kernel_size: 7
    group: 1
    stride: 1
    weight_filler {
      type: "xavier"
    }
  }
}
layer {
  name: "conv1_relu"
  type: "ReLU"
  bottom: "conv1"
  top: "conv1"
}
layer {
  name: "pool1"
  type: "Pooling"
  bottom: "conv1"
  top: "pool1"
  pooling_param {
    pool: MAX
    kernel_size: 2
    stride: 2
  }
}
layer {
  name: "conv2"
  type: "Convolution"
  bottom: "pool1"
  top: "conv2"
  convolution_param {
    num_output: 150
    pad: 0
    kernel_size: 4
    group: 1
    stride: 1
    weight_filler {
      type: "xavier"
    }
  }
}
layer {
  name: "conv2_relu"
  type: "ReLU"
  bottom: "conv2"
  top: "conv2"
}
layer {
  name: "pool2"
  type: "Pooling"
  bottom: "conv2"
  top: "pool2"
  pooling_param {
    pool: MAX
    kernel_size: 2
    stride: 2
  }
}
layer {
  name: "conv3"
  type: "Convolution"
  bottom: "pool2"
  top: "conv3"
  convolution_param {
    num_output: 250
    pad: 0
    kernel_size: 4
    group: 1
    stride: 1
    weight_filler {
      type: "xavier"
    }
  }
}
layer {
  name: "conv3_relu"
  type: "ReLU"
  bottom: "conv3"
  top: "conv3"
}
layer {
  name: "pool3"
  type: "Pooling"
  bottom: "conv3"
  top: "pool3"
  pooling_param {
    pool: MAX
    kernel_size: 2
    stride: 2
  }
}
layer {
  name: "fc4_300"
  type: "InnerProduct"
  bottom: "pool3"
  top: "fc4_300"
  inner_product_param {
    num_output: 300
    weight_filler {
      type: "xavier"
    }
  }
}
layer {
  name: "fc4_relu"
  type: "ReLU"
  bottom: "fc4_300"
  top: "fc4_300"
}
layer {
  name: "fc5_116"
  type: "InnerProduct"
  bottom: "fc4_300"
  top: "fc5_classes"
  inner_product_param {
    num_output: 116
    weight_filler {
      type: "xavier"
    }
  }
}
layer {
  name: "softmax"
  type: "Softmax"
  bottom: "fc5_classes"
  top: "softmax"
}
layer {
  name: "loss"
  type: "MultinomialLogisticLoss"
  bottom: "softmax"
  bottom: "label"
  top: "loss"
}
layer {
  name: "accuracy_1"
  type: "Accuracy"
  bottom: "fc5_classes"
  bottom: "label"
  top: "accuracy_1"
  accuracy_param {
    top_k: 1
  }
}
layer {
  name: "accuracy_5"
  type: "Accuracy"
  bottom: "fc5_classes"
  bottom: "label"
  top: "accuracy_5"
  accuracy_param {
    top_k: 5
  }
}
layer {
  name: "silence"
  type: "Silence"
  bottom: "accuracy_1"
  bottom: "accuracy_5"
}
I0528 23:24:29.720993  6483 layer_factory.hpp:77] Creating layer data
I0528 23:24:29.721736  6483 net.cpp:100] Creating Layer data
I0528 23:24:29.721751  6483 net.cpp:408] data -> data
I0528 23:24:29.721774  6483 net.cpp:408] data -> label
I0528 23:24:29.769706  6522 db_lmdb.cpp:35] Opened lmdb ../local_data/lmdb/RTSD/histeq/train/lmdb
I0528 23:24:29.804215  6483 data_layer.cpp:41] output data size: 1024,3,48,48
I0528 23:24:29.855093  6483 net.cpp:150] Setting up data
I0528 23:24:29.855160  6483 net.cpp:157] Top shape: 1024 3 48 48 (7077888)
I0528 23:24:29.855177  6483 net.cpp:157] Top shape: 1024 (1024)
I0528 23:24:29.855182  6483 net.cpp:165] Memory required for data: 28315648
I0528 23:24:29.855192  6483 layer_factory.hpp:77] Creating layer label_data_1_split
I0528 23:24:29.855211  6483 net.cpp:100] Creating Layer label_data_1_split
I0528 23:24:29.855221  6483 net.cpp:434] label_data_1_split <- label
I0528 23:24:29.855234  6483 net.cpp:408] label_data_1_split -> label_data_1_split_0
I0528 23:24:29.855257  6483 net.cpp:408] label_data_1_split -> label_data_1_split_1
I0528 23:24:29.855265  6483 net.cpp:408] label_data_1_split -> label_data_1_split_2
I0528 23:24:29.855343  6483 net.cpp:150] Setting up label_data_1_split
I0528 23:24:29.855353  6483 net.cpp:157] Top shape: 1024 (1024)
I0528 23:24:29.855360  6483 net.cpp:157] Top shape: 1024 (1024)
I0528 23:24:29.855365  6483 net.cpp:157] Top shape: 1024 (1024)
I0528 23:24:29.855372  6483 net.cpp:165] Memory required for data: 28327936
I0528 23:24:29.855377  6483 layer_factory.hpp:77] Creating layer conv1
I0528 23:24:29.855396  6483 net.cpp:100] Creating Layer conv1
I0528 23:24:29.855403  6483 net.cpp:434] conv1 <- data
I0528 23:24:29.855412  6483 net.cpp:408] conv1 -> conv1
I0528 23:24:30.009814  6530 blocking_queue.cpp:50] Waiting for data
I0528 23:24:30.147038  6483 net.cpp:150] Setting up conv1
I0528 23:24:30.147073  6483 net.cpp:157] Top shape: 1024 100 42 42 (180633600)
I0528 23:24:30.147078  6483 net.cpp:165] Memory required for data: 750862336
I0528 23:24:30.147094  6483 layer_factory.hpp:77] Creating layer conv1_relu
I0528 23:24:30.147104  6483 net.cpp:100] Creating Layer conv1_relu
I0528 23:24:30.147111  6483 net.cpp:434] conv1_relu <- conv1
I0528 23:24:30.147125  6483 net.cpp:395] conv1_relu -> conv1 (in-place)
I0528 23:24:30.147274  6483 net.cpp:150] Setting up conv1_relu
I0528 23:24:30.147285  6483 net.cpp:157] Top shape: 1024 100 42 42 (180633600)
I0528 23:24:30.147289  6483 net.cpp:165] Memory required for data: 1473396736
I0528 23:24:30.147294  6483 layer_factory.hpp:77] Creating layer pool1
I0528 23:24:30.147312  6483 net.cpp:100] Creating Layer pool1
I0528 23:24:30.147318  6483 net.cpp:434] pool1 <- conv1
I0528 23:24:30.147323  6483 net.cpp:408] pool1 -> pool1
I0528 23:24:30.147369  6483 net.cpp:150] Setting up pool1
I0528 23:24:30.147377  6483 net.cpp:157] Top shape: 1024 100 21 21 (45158400)
I0528 23:24:30.147382  6483 net.cpp:165] Memory required for data: 1654030336
I0528 23:24:30.147384  6483 layer_factory.hpp:77] Creating layer conv2
I0528 23:24:30.147395  6483 net.cpp:100] Creating Layer conv2
I0528 23:24:30.147402  6483 net.cpp:434] conv2 <- pool1
I0528 23:24:30.147406  6483 net.cpp:408] conv2 -> conv2
I0528 23:24:30.150357  6483 net.cpp:150] Setting up conv2
I0528 23:24:30.150387  6483 net.cpp:157] Top shape: 1024 150 18 18 (49766400)
I0528 23:24:30.150393  6483 net.cpp:165] Memory required for data: 1853095936
I0528 23:24:30.150400  6483 layer_factory.hpp:77] Creating layer conv2_relu
I0528 23:24:30.150416  6483 net.cpp:100] Creating Layer conv2_relu
I0528 23:24:30.150421  6483 net.cpp:434] conv2_relu <- conv2
I0528 23:24:30.150426  6483 net.cpp:395] conv2_relu -> conv2 (in-place)
I0528 23:24:30.150564  6483 net.cpp:150] Setting up conv2_relu
I0528 23:24:30.150575  6483 net.cpp:157] Top shape: 1024 150 18 18 (49766400)
I0528 23:24:30.150579  6483 net.cpp:165] Memory required for data: 2052161536
I0528 23:24:30.150583  6483 layer_factory.hpp:77] Creating layer pool2
I0528 23:24:30.150590  6483 net.cpp:100] Creating Layer pool2
I0528 23:24:30.150594  6483 net.cpp:434] pool2 <- conv2
I0528 23:24:30.150599  6483 net.cpp:408] pool2 -> pool2
I0528 23:24:30.150642  6483 net.cpp:150] Setting up pool2
I0528 23:24:30.150650  6483 net.cpp:157] Top shape: 1024 150 9 9 (12441600)
I0528 23:24:30.150655  6483 net.cpp:165] Memory required for data: 2101927936
I0528 23:24:30.150658  6483 layer_factory.hpp:77] Creating layer conv3
I0528 23:24:30.150676  6483 net.cpp:100] Creating Layer conv3
I0528 23:24:30.150681  6483 net.cpp:434] conv3 <- pool2
I0528 23:24:30.150703  6483 net.cpp:408] conv3 -> conv3
I0528 23:24:30.155347  6483 net.cpp:150] Setting up conv3
I0528 23:24:30.155370  6483 net.cpp:157] Top shape: 1024 250 6 6 (9216000)
I0528 23:24:30.155375  6483 net.cpp:165] Memory required for data: 2138791936
I0528 23:24:30.155383  6483 layer_factory.hpp:77] Creating layer conv3_relu
I0528 23:24:30.155390  6483 net.cpp:100] Creating Layer conv3_relu
I0528 23:24:30.155396  6483 net.cpp:434] conv3_relu <- conv3
I0528 23:24:30.155401  6483 net.cpp:395] conv3_relu -> conv3 (in-place)
I0528 23:24:30.155761  6483 net.cpp:150] Setting up conv3_relu
I0528 23:24:30.155781  6483 net.cpp:157] Top shape: 1024 250 6 6 (9216000)
I0528 23:24:30.155786  6483 net.cpp:165] Memory required for data: 2175655936
I0528 23:24:30.155789  6483 layer_factory.hpp:77] Creating layer pool3
I0528 23:24:30.155796  6483 net.cpp:100] Creating Layer pool3
I0528 23:24:30.155799  6483 net.cpp:434] pool3 <- conv3
I0528 23:24:30.155807  6483 net.cpp:408] pool3 -> pool3
I0528 23:24:30.155849  6483 net.cpp:150] Setting up pool3
I0528 23:24:30.155858  6483 net.cpp:157] Top shape: 1024 250 3 3 (2304000)
I0528 23:24:30.155861  6483 net.cpp:165] Memory required for data: 2184871936
I0528 23:24:30.155866  6483 layer_factory.hpp:77] Creating layer fc4_300
I0528 23:24:30.155872  6483 net.cpp:100] Creating Layer fc4_300
I0528 23:24:30.155876  6483 net.cpp:434] fc4_300 <- pool3
I0528 23:24:30.155882  6483 net.cpp:408] fc4_300 -> fc4_300
I0528 23:24:30.160250  6483 net.cpp:150] Setting up fc4_300
I0528 23:24:30.160265  6483 net.cpp:157] Top shape: 1024 300 (307200)
I0528 23:24:30.160269  6483 net.cpp:165] Memory required for data: 2186100736
I0528 23:24:30.160276  6483 layer_factory.hpp:77] Creating layer fc4_relu
I0528 23:24:30.160284  6483 net.cpp:100] Creating Layer fc4_relu
I0528 23:24:30.160289  6483 net.cpp:434] fc4_relu <- fc4_300
I0528 23:24:30.160293  6483 net.cpp:395] fc4_relu -> fc4_300 (in-place)
I0528 23:24:30.160431  6483 net.cpp:150] Setting up fc4_relu
I0528 23:24:30.160442  6483 net.cpp:157] Top shape: 1024 300 (307200)
I0528 23:24:30.160446  6483 net.cpp:165] Memory required for data: 2187329536
I0528 23:24:30.160449  6483 layer_factory.hpp:77] Creating layer fc5_116
I0528 23:24:30.160456  6483 net.cpp:100] Creating Layer fc5_116
I0528 23:24:30.160460  6483 net.cpp:434] fc5_116 <- fc4_300
I0528 23:24:30.160466  6483 net.cpp:408] fc5_116 -> fc5_classes
I0528 23:24:30.164901  6483 net.cpp:150] Setting up fc5_116
I0528 23:24:30.164932  6483 net.cpp:157] Top shape: 1024 116 (118784)
I0528 23:24:30.164937  6483 net.cpp:165] Memory required for data: 2187804672
I0528 23:24:30.164947  6483 layer_factory.hpp:77] Creating layer fc5_classes_fc5_116_0_split
I0528 23:24:30.164954  6483 net.cpp:100] Creating Layer fc5_classes_fc5_116_0_split
I0528 23:24:30.164966  6483 net.cpp:434] fc5_classes_fc5_116_0_split <- fc5_classes
I0528 23:24:30.164979  6483 net.cpp:408] fc5_classes_fc5_116_0_split -> fc5_classes_fc5_116_0_split_0
I0528 23:24:30.164986  6483 net.cpp:408] fc5_classes_fc5_116_0_split -> fc5_classes_fc5_116_0_split_1
I0528 23:24:30.164994  6483 net.cpp:408] fc5_classes_fc5_116_0_split -> fc5_classes_fc5_116_0_split_2
I0528 23:24:30.165042  6483 net.cpp:150] Setting up fc5_classes_fc5_116_0_split
I0528 23:24:30.165050  6483 net.cpp:157] Top shape: 1024 116 (118784)
I0528 23:24:30.165055  6483 net.cpp:157] Top shape: 1024 116 (118784)
I0528 23:24:30.165058  6483 net.cpp:157] Top shape: 1024 116 (118784)
I0528 23:24:30.165061  6483 net.cpp:165] Memory required for data: 2189230080
I0528 23:24:30.165066  6483 layer_factory.hpp:77] Creating layer softmax
I0528 23:24:30.165072  6483 net.cpp:100] Creating Layer softmax
I0528 23:24:30.165086  6483 net.cpp:434] softmax <- fc5_classes_fc5_116_0_split_0
I0528 23:24:30.165091  6483 net.cpp:408] softmax -> softmax
I0528 23:24:30.165278  6483 net.cpp:150] Setting up softmax
I0528 23:24:30.165290  6483 net.cpp:157] Top shape: 1024 116 (118784)
I0528 23:24:30.165294  6483 net.cpp:165] Memory required for data: 2189705216
I0528 23:24:30.165315  6483 layer_factory.hpp:77] Creating layer loss
I0528 23:24:30.165325  6483 net.cpp:100] Creating Layer loss
I0528 23:24:30.165330  6483 net.cpp:434] loss <- softmax
I0528 23:24:30.165334  6483 net.cpp:434] loss <- label_data_1_split_0
I0528 23:24:30.165339  6483 net.cpp:408] loss -> loss
…
