…
I0411 04:27:53.803477 29347 net.cpp:322] The NetState phase (0) differed from the phase (1) specified by a rule in layer accuracy_5
I0411 04:27:53.803624 29347 net.cpp:58] Initializing net from parameters: 
state {
  phase: TRAIN
  level: 0
  stage: ""
}
layer {
  name: "data"
  type: "Data"
  top: "data"
  top: "label"
  include {
    phase: TRAIN
  }
  transform_param {
    scale: 0.0039215689
    mirror: false
    crop_size: 48
    mean_value: 132
    mean_value: 126
    mean_value: 140
  }
  data_param {
    source: "../local_data/lmdb/rtsd-r1/AHE/train/lmdb"
    batch_size: 1024
    backend: LMDB
  }
}
layer {
  name: "conv1"
  type: "Convolution"
  bottom: "data"
  top: "conv1"
  convolution_param {
    num_output: 100
    pad: 0
    kernel_size: 7
    group: 1
    stride: 1
    weight_filler {
      type: "xavier"
    }
  }
}
layer {
  name: "conv1_prescale"
  type: "Scale"
  bottom: "conv1"
  top: "conv1"
  param {
    lr_mult: 0
    decay_mult: 0
  }
  scale_param {
    filler {
      value: 0.6666
    }
    bias_term: false
  }
}
layer {
  name: "conv1_sTanH"
  type: "TanH"
  bottom: "conv1"
  top: "conv1"
}
layer {
  name: "conv1_postscale"
  type: "Scale"
  bottom: "conv1"
  top: "conv1"
  param {
    lr_mult: 0
    decay_mult: 0
  }
  scale_param {
    filler {
      value: 1.7159
    }
    bias_term: false
  }
}
layer {
  name: "pool1"
  type: "Pooling"
  bottom: "conv1"
  top: "pool1"
  pooling_param {
    pool: MAX
    kernel_size: 2
    stride: 2
  }
}
layer {
  name: "conv2"
  type: "Convolution"
  bottom: "pool1"
  top: "conv2"
  convolution_param {
    num_output: 150
    pad: 0
    kernel_size: 4
    group: 1
    stride: 1
    weight_filler {
      type: "xavier"
    }
  }
}
layer {
  name: "conv2_prescale"
  type: "Scale"
  bottom: "conv2"
  top: "conv2"
  param {
    lr_mult: 0
    decay_mult: 0
  }
  scale_param {
    filler {
      value: 0.6666
    }
    bias_term: false
  }
}
layer {
  name: "conv2_sTanH"
  type: "TanH"
  bottom: "conv2"
  top: "conv2"
}
layer {
  name: "conv2_postscale"
  type: "Scale"
  bottom: "conv2"
  top: "conv2"
  param {
    lr_mult: 0
    decay_mult: 0
  }
  scale_param {
    filler {
      value: 1.7159
    }
    bias_term: false
  }
}
layer {
  name: "pool2"
  type: "Pooling"
  bottom: "conv2"
  top: "pool2"
  pooling_param {
    pool: MAX
    kernel_size: 2
    stride: 2
  }
}
layer {
  name: "conv3"
  type: "Convolution"
  bottom: "pool2"
  top: "conv3"
  convolution_param {
    num_output: 250
    pad: 0
    kernel_size: 4
    group: 1
    stride: 1
    weight_filler {
      type: "xavier"
    }
  }
}
layer {
  name: "conv3_prescale"
  type: "Scale"
  bottom: "conv3"
  top: "conv3"
  param {
    lr_mult: 0
    decay_mult: 0
  }
  scale_param {
    filler {
      value: 0.6666
    }
    bias_term: false
  }
}
layer {
  name: "conv3_sTanH"
  type: "TanH"
  bottom: "conv3"
  top: "conv3"
}
layer {
  name: "conv3_postscale"
  type: "Scale"
  bottom: "conv3"
  top: "conv3"
  param {
    lr_mult: 0
    decay_mult: 0
  }
  scale_param {
    filler {
      value: 1.7159
    }
    bias_term: false
  }
}
layer {
  name: "pool3"
  type: "Pooling"
  bottom: "conv3"
  top: "pool3"
  pooling_param {
    pool: MAX
    kernel_size: 2
    stride: 2
  }
}
layer {
  name: "fc4_300"
  type: "InnerProduct"
  bottom: "pool3"
  top: "fc4_300"
  inner_product_param {
    num_output: 300
    weight_filler {
      type: "xavier"
    }
  }
}
layer {
  name: "fc4_prescale"
  type: "Scale"
  bottom: "fc4_300"
  top: "fc4_300"
  param {
    lr_mult: 0
    decay_mult: 0
  }
  scale_param {
    filler {
      value: 0.6666
    }
    bias_term: false
  }
}
layer {
  name: "fc4_sTanH"
  type: "TanH"
  bottom: "fc4_300"
  top: "fc4_300"
}
layer {
  name: "fc4_postscale"
  type: "Scale"
  bottom: "fc4_300"
  top: "fc4_300"
  param {
    lr_mult: 0
    decay_mult: 0
  }
  scale_param {
    filler {
      value: 1.7159
    }
    bias_term: false
  }
}
layer {
  name: "fc5_67"
  type: "InnerProduct"
  bottom: "fc4_300"
  top: "fc5_classes"
  inner_product_param {
    num_output: 67
    weight_filler {
      type: "xavier"
    }
  }
}
layer {
  name: "loss"
  type: "SoftmaxWithLoss"
  bottom: "fc5_classes"
  bottom: "label"
  top: "loss"
}
I0411 04:27:53.803725 29347 layer_factory.hpp:77] Creating layer data
I0411 04:27:53.804810 29347 net.cpp:100] Creating Layer data
I0411 04:27:53.804828 29347 net.cpp:408] data -> data
I0411 04:27:53.804849 29347 net.cpp:408] data -> label
I0411 04:27:53.806876 29447 db_lmdb.cpp:35] Opened lmdb ../local_data/lmdb/rtsd-r1/AHE/train/lmdb
I0411 04:27:53.823761 29347 data_layer.cpp:41] output data size: 1024,3,48,48
I0411 04:27:53.864970 29347 net.cpp:150] Setting up data
I0411 04:27:53.865010 29347 net.cpp:157] Top shape: 1024 3 48 48 (7077888)
I0411 04:27:53.865020 29347 net.cpp:157] Top shape: 1024 (1024)
I0411 04:27:53.865026 29347 net.cpp:165] Memory required for data: 28315648
I0411 04:27:53.865041 29347 layer_factory.hpp:77] Creating layer conv1
I0411 04:27:53.865072 29347 net.cpp:100] Creating Layer conv1
I0411 04:27:53.865087 29347 net.cpp:434] conv1 <- data
I0411 04:27:53.865109 29347 net.cpp:408] conv1 -> conv1
I0411 04:27:54.140992 29347 net.cpp:150] Setting up conv1
I0411 04:27:54.141031 29347 net.cpp:157] Top shape: 1024 100 42 42 (180633600)
I0411 04:27:54.141036 29347 net.cpp:165] Memory required for data: 750850048
I0411 04:27:54.141057 29347 layer_factory.hpp:77] Creating layer conv1_prescale
I0411 04:27:54.141073 29347 net.cpp:100] Creating Layer conv1_prescale
I0411 04:27:54.141080 29347 net.cpp:434] conv1_prescale <- conv1
I0411 04:27:54.141088 29347 net.cpp:395] conv1_prescale -> conv1 (in-place)
I0411 04:27:54.141203 29347 net.cpp:150] Setting up conv1_prescale
I0411 04:27:54.141213 29347 net.cpp:157] Top shape: 1024 100 42 42 (180633600)
I0411 04:27:54.141216 29347 net.cpp:165] Memory required for data: 1473384448
I0411 04:27:54.141224 29347 layer_factory.hpp:77] Creating layer conv1_sTanH
I0411 04:27:54.141232 29347 net.cpp:100] Creating Layer conv1_sTanH
I0411 04:27:54.141237 29347 net.cpp:434] conv1_sTanH <- conv1
I0411 04:27:54.141242 29347 net.cpp:395] conv1_sTanH -> conv1 (in-place)
I0411 04:27:54.141438 29347 net.cpp:150] Setting up conv1_sTanH
I0411 04:27:54.141451 29347 net.cpp:157] Top shape: 1024 100 42 42 (180633600)
I0411 04:27:54.141454 29347 net.cpp:165] Memory required for data: 2195918848
I0411 04:27:54.141458 29347 layer_factory.hpp:77] Creating layer conv1_postscale
I0411 04:27:54.141468 29347 net.cpp:100] Creating Layer conv1_postscale
I0411 04:27:54.141472 29347 net.cpp:434] conv1_postscale <- conv1
I0411 04:27:54.141477 29347 net.cpp:395] conv1_postscale -> conv1 (in-place)
I0411 04:27:54.141575 29347 net.cpp:150] Setting up conv1_postscale
I0411 04:27:54.141583 29347 net.cpp:157] Top shape: 1024 100 42 42 (180633600)
I0411 04:27:54.141587 29347 net.cpp:165] Memory required for data: 2918453248
I0411 04:27:54.141592 29347 layer_factory.hpp:77] Creating layer pool1
I0411 04:27:54.141599 29347 net.cpp:100] Creating Layer pool1
I0411 04:27:54.141604 29347 net.cpp:434] pool1 <- conv1
I0411 04:27:54.141609 29347 net.cpp:408] pool1 -> pool1
I0411 04:27:54.141659 29347 net.cpp:150] Setting up pool1
I0411 04:27:54.141669 29347 net.cpp:157] Top shape: 1024 100 21 21 (45158400)
I0411 04:27:54.141690 29347 net.cpp:165] Memory required for data: 3099086848
I0411 04:27:54.141695 29347 layer_factory.hpp:77] Creating layer conv2
I0411 04:27:54.141705 29347 net.cpp:100] Creating Layer conv2
I0411 04:27:54.141710 29347 net.cpp:434] conv2 <- pool1
I0411 04:27:54.141717 29347 net.cpp:408] conv2 -> conv2
I0411 04:27:54.145985 29347 net.cpp:150] Setting up conv2
I0411 04:27:54.146014 29347 net.cpp:157] Top shape: 1024 150 18 18 (49766400)
I0411 04:27:54.146019 29347 net.cpp:165] Memory required for data: 3298152448
I0411 04:27:54.146029 29347 layer_factory.hpp:77] Creating layer conv2_prescale
I0411 04:27:54.146037 29347 net.cpp:100] Creating Layer conv2_prescale
I0411 04:27:54.146041 29347 net.cpp:434] conv2_prescale <- conv2
I0411 04:27:54.146049 29347 net.cpp:395] conv2_prescale -> conv2 (in-place)
I0411 04:27:54.146157 29347 net.cpp:150] Setting up conv2_prescale
I0411 04:27:54.146165 29347 net.cpp:157] Top shape: 1024 150 18 18 (49766400)
I0411 04:27:54.146168 29347 net.cpp:165] Memory required for data: 3497218048
I0411 04:27:54.146173 29347 layer_factory.hpp:77] Creating layer conv2_sTanH
I0411 04:27:54.146180 29347 net.cpp:100] Creating Layer conv2_sTanH
I0411 04:27:54.146185 29347 net.cpp:434] conv2_sTanH <- conv2
I0411 04:27:54.146191 29347 net.cpp:395] conv2_sTanH -> conv2 (in-place)
I0411 04:27:54.146935 29347 net.cpp:150] Setting up conv2_sTanH
I0411 04:27:54.146950 29347 net.cpp:157] Top shape: 1024 150 18 18 (49766400)
I0411 04:27:54.146966 29347 net.cpp:165] Memory required for data: 3696283648
I0411 04:27:54.146970 29347 layer_factory.hpp:77] Creating layer conv2_postscale
I0411 04:27:54.146978 29347 net.cpp:100] Creating Layer conv2_postscale
I0411 04:27:54.146982 29347 net.cpp:434] conv2_postscale <- conv2
I0411 04:27:54.146987 29347 net.cpp:395] conv2_postscale -> conv2 (in-place)
I0411 04:27:54.147086 29347 net.cpp:150] Setting up conv2_postscale
I0411 04:27:54.147095 29347 net.cpp:157] Top shape: 1024 150 18 18 (49766400)
I0411 04:27:54.147099 29347 net.cpp:165] Memory required for data: 3895349248
I0411 04:27:54.147102 29347 layer_factory.hpp:77] Creating layer pool2
I0411 04:27:54.147109 29347 net.cpp:100] Creating Layer pool2
I0411 04:27:54.147112 29347 net.cpp:434] pool2 <- conv2
I0411 04:27:54.147119 29347 net.cpp:408] pool2 -> pool2
I0411 04:27:54.147161 29347 net.cpp:150] Setting up pool2
I0411 04:27:54.147171 29347 net.cpp:157] Top shape: 1024 150 9 9 (12441600)
I0411 04:27:54.147173 29347 net.cpp:165] Memory required for data: 3945115648
I0411 04:27:54.147176 29347 layer_factory.hpp:77] Creating layer conv3
I0411 04:27:54.147187 29347 net.cpp:100] Creating Layer conv3
I0411 04:27:54.147192 29347 net.cpp:434] conv3 <- pool2
I0411 04:27:54.147197 29347 net.cpp:408] conv3 -> conv3
I0411 04:27:54.152542 29347 net.cpp:150] Setting up conv3
I0411 04:27:54.152559 29347 net.cpp:157] Top shape: 1024 250 6 6 (9216000)
I0411 04:27:54.152562 29347 net.cpp:165] Memory required for data: 3981979648
I0411 04:27:54.152571 29347 layer_factory.hpp:77] Creating layer conv3_prescale
I0411 04:27:54.152582 29347 net.cpp:100] Creating Layer conv3_prescale
I0411 04:27:54.152586 29347 net.cpp:434] conv3_prescale <- conv3
I0411 04:27:54.152592 29347 net.cpp:395] conv3_prescale -> conv3 (in-place)
I0411 04:27:54.152704 29347 net.cpp:150] Setting up conv3_prescale
I0411 04:27:54.152714 29347 net.cpp:157] Top shape: 1024 250 6 6 (9216000)
I0411 04:27:54.152716 29347 net.cpp:165] Memory required for data: 4018843648
I0411 04:27:54.152721 29347 layer_factory.hpp:77] Creating layer conv3_sTanH
I0411 04:27:54.152729 29347 net.cpp:100] Creating Layer conv3_sTanH
I0411 04:27:54.152734 29347 net.cpp:434] conv3_sTanH <- conv3
I0411 04:27:54.152737 29347 net.cpp:395] conv3_sTanH -> conv3 (in-place)
I0411 04:27:54.153529 29347 net.cpp:150] Setting up conv3_sTanH
I0411 04:27:54.153550 29347 net.cpp:157] Top shape: 1024 250 6 6 (9216000)
I0411 04:27:54.153556 29347 net.cpp:165] Memory required for data: 4055707648
I0411 04:27:54.153563 29347 layer_factory.hpp:77] Creating layer conv3_postscale
I0411 04:27:54.153571 29347 net.cpp:100] Creating Layer conv3_postscale
I0411 04:27:54.153607 29347 net.cpp:434] conv3_postscale <- conv3
I0411 04:27:54.153625 29347 net.cpp:395] conv3_postscale -> conv3 (in-place)
I0411 04:27:54.153733 29347 net.cpp:150] Setting up conv3_postscale
I0411 04:27:54.153743 29347 net.cpp:157] Top shape: 1024 250 6 6 (9216000)
I0411 04:27:54.153748 29347 net.cpp:165] Memory required for data: 4092571648
I0411 04:27:54.153754 29347 layer_factory.hpp:77] Creating layer pool3
I0411 04:27:54.153760 29347 net.cpp:100] Creating Layer pool3
I0411 04:27:54.153764 29347 net.cpp:434] pool3 <- conv3
I0411 04:27:54.153769 29347 net.cpp:408] pool3 -> pool3
I0411 04:27:54.153810 29347 net.cpp:150] Setting up pool3
I0411 04:27:54.153816 29347 net.cpp:157] Top shape: 1024 250 3 3 (2304000)
I0411 04:27:54.153820 29347 net.cpp:165] Memory required for data: 4101787648
I0411 04:27:54.153822 29347 layer_factory.hpp:77] Creating layer fc4_300
I0411 04:27:54.153833 29347 net.cpp:100] Creating Layer fc4_300
I0411 04:27:54.153838 29347 net.cpp:434] fc4_300 <- pool3
I0411 04:27:54.153844 29347 net.cpp:408] fc4_300 -> fc4_300
I0411 04:27:54.159229 29347 net.cpp:150] Setting up fc4_300
I0411 04:27:54.159245 29347 net.cpp:157] Top shape: 1024 300 (307200)
I0411 04:27:54.159250 29347 net.cpp:165] Memory required for data: 4103016448
I0411 04:27:54.159256 29347 layer_factory.hpp:77] Creating layer fc4_prescale
I0411 04:27:54.159265 29347 net.cpp:100] Creating Layer fc4_prescale
I0411 04:27:54.159271 29347 net.cpp:434] fc4_prescale <- fc4_300
I0411 04:27:54.159276 29347 net.cpp:395] fc4_prescale -> fc4_300 (in-place)
I0411 04:27:54.159365 29347 net.cpp:150] Setting up fc4_prescale
I0411 04:27:54.159373 29347 net.cpp:157] Top shape: 1024 300 (307200)
I0411 04:27:54.159376 29347 net.cpp:165] Memory required for data: 4104245248
I0411 04:27:54.159381 29347 layer_factory.hpp:77] Creating layer fc4_sTanH
I0411 04:27:54.159386 29347 net.cpp:100] Creating Layer fc4_sTanH
I0411 04:27:54.159391 29347 net.cpp:434] fc4_sTanH <- fc4_300
I0411 04:27:54.159397 29347 net.cpp:395] fc4_sTanH -> fc4_300 (in-place)
I0411 04:27:54.159582 29347 net.cpp:150] Setting up fc4_sTanH
I0411 04:27:54.159593 29347 net.cpp:157] Top shape: 1024 300 (307200)
I0411 04:27:54.159596 29347 net.cpp:165] Memory required for data: 4105474048
I0411 04:27:54.159600 29347 layer_factory.hpp:77] Creating layer fc4_postscale
I0411 04:27:54.159606 29347 net.cpp:100] Creating Layer fc4_postscale
I0411 04:27:54.159612 29347 net.cpp:434] fc4_postscale <- fc4_300
I0411 04:27:54.159620 29347 net.cpp:395] fc4_postscale -> fc4_300 (in-place)
I0411 04:27:54.159725 29347 net.cpp:150] Setting up fc4_postscale
I0411 04:27:54.159734 29347 net.cpp:157] Top shape: 1024 300 (307200)
I0411 04:27:54.159736 29347 net.cpp:165] Memory required for data: 4106702848
I0411 04:27:54.159740 29347 layer_factory.hpp:77] Creating layer fc5_67
I0411 04:27:54.159749 29347 net.cpp:100] Creating Layer fc5_67
I0411 04:27:54.159754 29347 net.cpp:434] fc5_67 <- fc4_300
I0411 04:27:54.159759 29347 net.cpp:408] fc5_67 -> fc5_classes
I0411 04:27:54.162118 29347 net.cpp:150] Setting up fc5_67
I0411 04:27:54.162133 29347 net.cpp:157] Top shape: 1024 67 (68608)
I0411 04:27:54.162148 29347 net.cpp:165] Memory required for data: 4106977280
I0411 04:27:54.162159 29347 layer_factory.hpp:77] Creating layer loss
I0411 04:27:54.162168 29347 net.cpp:100] Creating Layer loss
I0411 04:27:54.162170 29347 net.cpp:434] loss <- fc5_classes
I0411 04:27:54.162175 29347 net.cpp:434] loss <- label
I0411 04:27:54.162180 29347 net.cpp:408] loss -> loss
I0411 04:27:54.162192 29347 layer_factory.hpp:77] Creating layer loss
…
I0411 04:27:54.162937 29347 solver.cpp:193] Creating test net (#0) specified by test_net file: ./Prototxt/experiment_8/rtsd-r1/AHE/trial_1/test.prototxt
I0411 04:27:54.163113 29347 net.cpp:58] Initializing net from parameters: 
state {
  phase: TEST
}
layer {
  name: "data"
  type: "Data"
  top: "data"
  top: "label"
  include {
    phase: TEST
  }
  transform_param {
    scale: 0.0039215689
    mirror: false
    crop_size: 48
    mean_value: 126
    mean_value: 124
    mean_value: 145
  }
  data_param {
    source: "../local_data/lmdb/rtsd-r1/AHE/test/lmdb"
    batch_size: 1024
    backend: LMDB
  }
}
layer {
  name: "conv1"
  type: "Convolution"
  bottom: "data"
  top: "conv1"
  convolution_param {
    num_output: 100
    pad: 0
    kernel_size: 7
    group: 1
    stride: 1
    weight_filler {
      type: "xavier"
    }
  }
}
layer {
  name: "conv1_prescale"
  type: "Scale"
  bottom: "conv1"
  top: "conv1"
  param {
    lr_mult: 0
    decay_mult: 0
  }
  scale_param {
    filler {
      value: 0.6666
    }
    bias_term: false
  }
}
layer {
  name: "conv1_sTanH"
  type: "TanH"
  bottom: "conv1"
  top: "conv1"
}
layer {
  name: "conv1_postscale"
  type: "Scale"
  bottom: "conv1"
  top: "conv1"
  param {
    lr_mult: 0
    decay_mult: 0
  }
  scale_param {
    filler {
      value: 1.7159
    }
    bias_term: false
  }
}
layer {
  name: "pool1"
  type: "Pooling"
  bottom: "conv1"
  top: "pool1"
  pooling_param {
    pool: MAX
    kernel_size: 2
    stride: 2
  }
}
layer {
  name: "conv2"
  type: "Convolution"
  bottom: "pool1"
  top: "conv2"
  convolution_param {
    num_output: 150
    pad: 0
    kernel_size: 4
    group: 1
    stride: 1
    weight_filler {
      type: "xavier"
    }
  }
}
layer {
  name: "conv2_prescale"
  type: "Scale"
  bottom: "conv2"
  top: "conv2"
  param {
    lr_mult: 0
    decay_mult: 0
  }
  scale_param {
    filler {
      value: 0.6666
    }
    bias_term: false
  }
}
layer {
  name: "conv2_sTanH"
  type: "TanH"
  bottom: "conv2"
  top: "conv2"
}
layer {
  name: "conv2_postscale"
  type: "Scale"
  bottom: "conv2"
  top: "conv2"
  param {
    lr_mult: 0
    decay_mult: 0
  }
  scale_param {
    filler {
      value: 1.7159
    }
    bias_term: false
  }
}
layer {
  name: "pool2"
  type: "Pooling"
  bottom: "conv2"
  top: "pool2"
  pooling_param {
    pool: MAX
    kernel_size: 2
    stride: 2
  }
}
layer {
  name: "conv3"
  type: "Convolution"
  bottom: "pool2"
  top: "conv3"
  convolution_param {
    num_output: 250
    pad: 0
    kernel_size: 4
    group: 1
    stride: 1
    weight_filler {
      type: "xavier"
    }
  }
}
layer {
  name: "conv3_prescale"
  type: "Scale"
  bottom: "conv3"
  top: "conv3"
  param {
    lr_mult: 0
    decay_mult: 0
  }
  scale_param {
    filler {
      value: 0.6666
    }
    bias_term: false
  }
}
layer {
  name: "conv3_sTanH"
  type: "TanH"
  bottom: "conv3"
  top: "conv3"
}
layer {
  name: "conv3_postscale"
  type: "Scale"
  bottom: "conv3"
  top: "conv3"
  param {
    lr_mult: 0
    decay_mult: 0
  }
  scale_param {
    filler {
      value: 1.7159
    }
    bias_term: false
  }
}
layer {
  name: "pool3"
  type: "Pooling"
  bottom: "conv3"
  top: "pool3"
  pooling_param {
    pool: MAX
    kernel_size: 2
    stride: 2
  }
}
layer {
  name: "fc4_300"
  type: "InnerProduct"
  bottom: "pool3"
  top: "fc4_300"
  inner_product_param {
    num_output: 300
    weight_filler {
      type: "xavier"
    }
  }
}
layer {
  name: "fc4_prescale"
  type: "Scale"
  bottom: "fc4_300"
  top: "fc4_300"
  param {
    lr_mult: 0
    decay_mult: 0
  }
  scale_param {
    filler {
      value: 0.6666
    }
    bias_term: false
  }
}
layer {
  name: "fc4_sTanH"
  type: "TanH"
  bottom: "fc4_300"
  top: "fc4_300"
}
layer {
  name: "fc4_postscale"
  type: "Scale"
  bottom: "fc4_300"
  top: "fc4_300"
  param {
    lr_mult: 0
    decay_mult: 0
  }
  scale_param {
    filler {
      value: 1.7159
    }
    bias_term: false
  }
}
layer {
  name: "fc5_67"
  type: "InnerProduct"
  bottom: "fc4_300"
  top: "fc5_classes"
  inner_product_param {
    num_output: 67
    weight_filler {
      type: "xavier"
    }
  }
}
layer {
  name: "loss"
  type: "SoftmaxWithLoss"
  bottom: "fc5_classes"
  bottom: "label"
  top: "loss"
}
layer {
  name: "accuracy_1"
  type: "Accuracy"
  bottom: "fc5_classes"
  bottom: "label"
  top: "accuracy_1"
  include {
    phase: TEST
  }
  accuracy_param {
    top_k: 1
  }
}
layer {
  name: "accuracy_5"
  type: "Accuracy"
  bottom: "fc5_classes"
  bottom: "label"
  top: "accuracy_5"
  include {
    phase: TEST
  }
  accuracy_param {
    top_k: 5
  }
}
I0411 04:27:54.163231 29347 layer_factory.hpp:77] Creating layer data
I0411 04:27:54.163923 29347 net.cpp:100] Creating Layer data
I0411 04:27:54.163945 29347 net.cpp:408] data -> data
I0411 04:27:54.163957 29347 net.cpp:408] data -> label
I0411 04:27:54.166980 29486 db_lmdb.cpp:35] Opened lmdb ../local_data/lmdb/rtsd-r1/AHE/test/lmdb
I0411 04:27:54.167117 29347 data_layer.cpp:41] output data size: 1024,3,48,48
I0411 04:27:54.207612 29347 net.cpp:150] Setting up data
I0411 04:27:54.207638 29347 net.cpp:157] Top shape: 1024 3 48 48 (7077888)
I0411 04:27:54.207643 29347 net.cpp:157] Top shape: 1024 (1024)
I0411 04:27:54.207646 29347 net.cpp:165] Memory required for data: 28315648
I0411 04:27:54.207653 29347 layer_factory.hpp:77] Creating layer label_data_1_split
I0411 04:27:54.207666 29347 net.cpp:100] Creating Layer label_data_1_split
I0411 04:27:54.207670 29347 net.cpp:434] label_data_1_split <- label
I0411 04:27:54.207679 29347 net.cpp:408] label_data_1_split -> label_data_1_split_0
I0411 04:27:54.207690 29347 net.cpp:408] label_data_1_split -> label_data_1_split_1
I0411 04:27:54.207700 29347 net.cpp:408] label_data_1_split -> label_data_1_split_2
I0411 04:27:54.207810 29347 net.cpp:150] Setting up label_data_1_split
I0411 04:27:54.207820 29347 net.cpp:157] Top shape: 1024 (1024)
I0411 04:27:54.207823 29347 net.cpp:157] Top shape: 1024 (1024)
I0411 04:27:54.207828 29347 net.cpp:157] Top shape: 1024 (1024)
I0411 04:27:54.207830 29347 net.cpp:165] Memory required for data: 28327936
I0411 04:27:54.207834 29347 layer_factory.hpp:77] Creating layer conv1
I0411 04:27:54.207846 29347 net.cpp:100] Creating Layer conv1
I0411 04:27:54.207851 29347 net.cpp:434] conv1 <- data
I0411 04:27:54.207857 29347 net.cpp:408] conv1 -> conv1
I0411 04:27:54.211544 29347 net.cpp:150] Setting up conv1
I0411 04:27:54.211565 29347 net.cpp:157] Top shape: 1024 100 42 42 (180633600)
I0411 04:27:54.211592 29347 net.cpp:165] Memory required for data: 750862336
I0411 04:27:54.211606 29347 layer_factory.hpp:77] Creating layer conv1_prescale
I0411 04:27:54.211617 29347 net.cpp:100] Creating Layer conv1_prescale
I0411 04:27:54.211623 29347 net.cpp:434] conv1_prescale <- conv1
I0411 04:27:54.211629 29347 net.cpp:395] conv1_prescale -> conv1 (in-place)
I0411 04:27:54.213940 29347 net.cpp:150] Setting up conv1_prescale
I0411 04:27:54.213954 29347 net.cpp:157] Top shape: 1024 100 42 42 (180633600)
I0411 04:27:54.213958 29347 net.cpp:165] Memory required for data: 1473396736
I0411 04:27:54.213968 29347 layer_factory.hpp:77] Creating layer conv1_sTanH
I0411 04:27:54.213975 29347 net.cpp:100] Creating Layer conv1_sTanH
I0411 04:27:54.213979 29347 net.cpp:434] conv1_sTanH <- conv1
I0411 04:27:54.213984 29347 net.cpp:395] conv1_sTanH -> conv1 (in-place)
I0411 04:27:54.214200 29347 net.cpp:150] Setting up conv1_sTanH
I0411 04:27:54.214210 29347 net.cpp:157] Top shape: 1024 100 42 42 (180633600)
I0411 04:27:54.214220 29347 net.cpp:165] Memory required for data: 2195931136
I0411 04:27:54.214222 29347 layer_factory.hpp:77] Creating layer conv1_postscale
I0411 04:27:54.214229 29347 net.cpp:100] Creating Layer conv1_postscale
I0411 04:27:54.214234 29347 net.cpp:434] conv1_postscale <- conv1
I0411 04:27:54.214241 29347 net.cpp:395] conv1_postscale -> conv1 (in-place)
I0411 04:27:54.214352 29347 net.cpp:150] Setting up conv1_postscale
I0411 04:27:54.214361 29347 net.cpp:157] Top shape: 1024 100 42 42 (180633600)
I0411 04:27:54.214365 29347 net.cpp:165] Memory required for data: 2918465536
I0411 04:27:54.214370 29347 layer_factory.hpp:77] Creating layer pool1
I0411 04:27:54.214376 29347 net.cpp:100] Creating Layer pool1
I0411 04:27:54.214381 29347 net.cpp:434] pool1 <- conv1
I0411 04:27:54.214387 29347 net.cpp:408] pool1 -> pool1
I0411 04:27:54.214432 29347 net.cpp:150] Setting up pool1
I0411 04:27:54.214439 29347 net.cpp:157] Top shape: 1024 100 21 21 (45158400)
I0411 04:27:54.214442 29347 net.cpp:165] Memory required for data: 3099099136
I0411 04:27:54.214445 29347 layer_factory.hpp:77] Creating layer conv2
I0411 04:27:54.214455 29347 net.cpp:100] Creating Layer conv2
I0411 04:27:54.214462 29347 net.cpp:434] conv2 <- pool1
I0411 04:27:54.214468 29347 net.cpp:408] conv2 -> conv2
I0411 04:27:54.220108 29347 net.cpp:150] Setting up conv2
I0411 04:27:54.220127 29347 net.cpp:157] Top shape: 1024 150 18 18 (49766400)
I0411 04:27:54.220131 29347 net.cpp:165] Memory required for data: 3298164736
I0411 04:27:54.220141 29347 layer_factory.hpp:77] Creating layer conv2_prescale
I0411 04:27:54.220152 29347 net.cpp:100] Creating Layer conv2_prescale
I0411 04:27:54.220156 29347 net.cpp:434] conv2_prescale <- conv2
I0411 04:27:54.220162 29347 net.cpp:395] conv2_prescale -> conv2 (in-place)
I0411 04:27:54.220273 29347 net.cpp:150] Setting up conv2_prescale
I0411 04:27:54.220284 29347 net.cpp:157] Top shape: 1024 150 18 18 (49766400)
I0411 04:27:54.220294 29347 net.cpp:165] Memory required for data: 3497230336
I0411 04:27:54.220299 29347 layer_factory.hpp:77] Creating layer conv2_sTanH
I0411 04:27:54.220306 29347 net.cpp:100] Creating Layer conv2_sTanH
I0411 04:27:54.220310 29347 net.cpp:434] conv2_sTanH <- conv2
I0411 04:27:54.220314 29347 net.cpp:395] conv2_sTanH -> conv2 (in-place)
I0411 04:27:54.221319 29347 net.cpp:150] Setting up conv2_sTanH
I0411 04:27:54.221336 29347 net.cpp:157] Top shape: 1024 150 18 18 (49766400)
I0411 04:27:54.221340 29347 net.cpp:165] Memory required for data: 3696295936
I0411 04:27:54.221343 29347 layer_factory.hpp:77] Creating layer conv2_postscale
I0411 04:27:54.221350 29347 net.cpp:100] Creating Layer conv2_postscale
I0411 04:27:54.221354 29347 net.cpp:434] conv2_postscale <- conv2
I0411 04:27:54.221361 29347 net.cpp:395] conv2_postscale -> conv2 (in-place)
I0411 04:27:54.221462 29347 net.cpp:150] Setting up conv2_postscale
I0411 04:27:54.221472 29347 net.cpp:157] Top shape: 1024 150 18 18 (49766400)
I0411 04:27:54.221474 29347 net.cpp:165] Memory required for data: 3895361536
I0411 04:27:54.221479 29347 layer_factory.hpp:77] Creating layer pool2
I0411 04:27:54.221506 29347 net.cpp:100] Creating Layer pool2
I0411 04:27:54.221513 29347 net.cpp:434] pool2 <- conv2
I0411 04:27:54.221518 29347 net.cpp:408] pool2 -> pool2
I0411 04:27:54.221566 29347 net.cpp:150] Setting up pool2
I0411 04:27:54.221575 29347 net.cpp:157] Top shape: 1024 150 9 9 (12441600)
I0411 04:27:54.221581 29347 net.cpp:165] Memory required for data: 3945127936
I0411 04:27:54.221585 29347 layer_factory.hpp:77] Creating layer conv3
I0411 04:27:54.221593 29347 net.cpp:100] Creating Layer conv3
I0411 04:27:54.221597 29347 net.cpp:434] conv3 <- pool2
I0411 04:27:54.221604 29347 net.cpp:408] conv3 -> conv3
I0411 04:27:54.229531 29347 net.cpp:150] Setting up conv3
I0411 04:27:54.229552 29347 net.cpp:157] Top shape: 1024 250 6 6 (9216000)
I0411 04:27:54.229555 29347 net.cpp:165] Memory required for data: 3981991936
I0411 04:27:54.229567 29347 layer_factory.hpp:77] Creating layer conv3_prescale
I0411 04:27:54.229574 29347 net.cpp:100] Creating Layer conv3_prescale
I0411 04:27:54.229578 29347 net.cpp:434] conv3_prescale <- conv3
I0411 04:27:54.229585 29347 net.cpp:395] conv3_prescale -> conv3 (in-place)
I0411 04:27:54.229688 29347 net.cpp:150] Setting up conv3_prescale
I0411 04:27:54.229698 29347 net.cpp:157] Top shape: 1024 250 6 6 (9216000)
I0411 04:27:54.229701 29347 net.cpp:165] Memory required for data: 4018855936
I0411 04:27:54.229706 29347 layer_factory.hpp:77] Creating layer conv3_sTanH
I0411 04:27:54.229712 29347 net.cpp:100] Creating Layer conv3_sTanH
I0411 04:27:54.229714 29347 net.cpp:434] conv3_sTanH <- conv3
I0411 04:27:54.229720 29347 net.cpp:395] conv3_sTanH -> conv3 (in-place)
I0411 04:27:54.234164 29347 net.cpp:150] Setting up conv3_sTanH
I0411 04:27:54.234182 29347 net.cpp:157] Top shape: 1024 250 6 6 (9216000)
I0411 04:27:54.234186 29347 net.cpp:165] Memory required for data: 4055719936
I0411 04:27:54.234190 29347 layer_factory.hpp:77] Creating layer conv3_postscale
I0411 04:27:54.234200 29347 net.cpp:100] Creating Layer conv3_postscale
I0411 04:27:54.234203 29347 net.cpp:434] conv3_postscale <- conv3
I0411 04:27:54.234208 29347 net.cpp:395] conv3_postscale -> conv3 (in-place)
I0411 04:27:54.234314 29347 net.cpp:150] Setting up conv3_postscale
I0411 04:27:54.234323 29347 net.cpp:157] Top shape: 1024 250 6 6 (9216000)
I0411 04:27:54.234328 29347 net.cpp:165] Memory required for data: 4092583936
I0411 04:27:54.234333 29347 layer_factory.hpp:77] Creating layer pool3
I0411 04:27:54.234342 29347 net.cpp:100] Creating Layer pool3
I0411 04:27:54.234349 29347 net.cpp:434] pool3 <- conv3
I0411 04:27:54.234354 29347 net.cpp:408] pool3 -> pool3
I0411 04:27:54.234395 29347 net.cpp:150] Setting up pool3
I0411 04:27:54.234403 29347 net.cpp:157] Top shape: 1024 250 3 3 (2304000)
I0411 04:27:54.234406 29347 net.cpp:165] Memory required for data: 4101799936
I0411 04:27:54.234410 29347 layer_factory.hpp:77] Creating layer fc4_300
I0411 04:27:54.234416 29347 net.cpp:100] Creating Layer fc4_300
I0411 04:27:54.234421 29347 net.cpp:434] fc4_300 <- pool3
I0411 04:27:54.234426 29347 net.cpp:408] fc4_300 -> fc4_300
I0411 04:27:54.245193 29347 net.cpp:150] Setting up fc4_300
I0411 04:27:54.245211 29347 net.cpp:157] Top shape: 1024 300 (307200)
I0411 04:27:54.245218 29347 net.cpp:165] Memory required for data: 4103028736
I0411 04:27:54.245226 29347 layer_factory.hpp:77] Creating layer fc4_prescale
I0411 04:27:54.245234 29347 net.cpp:100] Creating Layer fc4_prescale
I0411 04:27:54.245239 29347 net.cpp:434] fc4_prescale <- fc4_300
I0411 04:27:54.245245 29347 net.cpp:395] fc4_prescale -> fc4_300 (in-place)
I0411 04:27:54.245342 29347 net.cpp:150] Setting up fc4_prescale
I0411 04:27:54.245350 29347 net.cpp:157] Top shape: 1024 300 (307200)
I0411 04:27:54.245362 29347 net.cpp:165] Memory required for data: 4104257536
I0411 04:27:54.245367 29347 layer_factory.hpp:77] Creating layer fc4_sTanH
I0411 04:27:54.245373 29347 net.cpp:100] Creating Layer fc4_sTanH
I0411 04:27:54.245376 29347 net.cpp:434] fc4_sTanH <- fc4_300
I0411 04:27:54.245393 29347 net.cpp:395] fc4_sTanH -> fc4_300 (in-place)
I0411 04:27:54.245617 29347 net.cpp:150] Setting up fc4_sTanH
I0411 04:27:54.245630 29347 net.cpp:157] Top shape: 1024 300 (307200)
I0411 04:27:54.245632 29347 net.cpp:165] Memory required for data: 4105486336
I0411 04:27:54.245636 29347 layer_factory.hpp:77] Creating layer fc4_postscale
I0411 04:27:54.245642 29347 net.cpp:100] Creating Layer fc4_postscale
I0411 04:27:54.245646 29347 net.cpp:434] fc4_postscale <- fc4_300
I0411 04:27:54.245653 29347 net.cpp:395] fc4_postscale -> fc4_300 (in-place)
I0411 04:27:54.245759 29347 net.cpp:150] Setting up fc4_postscale
I0411 04:27:54.245769 29347 net.cpp:157] Top shape: 1024 300 (307200)
I0411 04:27:54.245771 29347 net.cpp:165] Memory required for data: 4106715136
I0411 04:27:54.245776 29347 layer_factory.hpp:77] Creating layer fc5_67
I0411 04:27:54.245784 29347 net.cpp:100] Creating Layer fc5_67
I0411 04:27:54.245789 29347 net.cpp:434] fc5_67 <- fc4_300
I0411 04:27:54.245796 29347 net.cpp:408] fc5_67 -> fc5_classes
I0411 04:27:54.246052 29347 net.cpp:150] Setting up fc5_67
I0411 04:27:54.246060 29347 net.cpp:157] Top shape: 1024 67 (68608)
I0411 04:27:54.246063 29347 net.cpp:165] Memory required for data: 4106989568
I0411 04:27:54.246074 29347 layer_factory.hpp:77] Creating layer fc5_classes_fc5_67_0_split
I0411 04:27:54.246083 29347 net.cpp:100] Creating Layer fc5_classes_fc5_67_0_split
I0411 04:27:54.246088 29347 net.cpp:434] fc5_classes_fc5_67_0_split <- fc5_classes
I0411 04:27:54.246093 29347 net.cpp:408] fc5_classes_fc5_67_0_split -> fc5_classes_fc5_67_0_split_0
I0411 04:27:54.246100 29347 net.cpp:408] fc5_classes_fc5_67_0_split -> fc5_classes_fc5_67_0_split_1
I0411 04:27:54.246109 29347 net.cpp:408] fc5_classes_fc5_67_0_split -> fc5_classes_fc5_67_0_split_2
I0411 04:27:54.246161 29347 net.cpp:150] Setting up fc5_classes_fc5_67_0_split
I0411 04:27:54.246168 29347 net.cpp:157] Top shape: 1024 67 (68608)
I0411 04:27:54.246172 29347 net.cpp:157] Top shape: 1024 67 (68608)
I0411 04:27:54.246176 29347 net.cpp:157] Top shape: 1024 67 (68608)
I0411 04:27:54.246178 29347 net.cpp:165] Memory required for data: 4107812864
I0411 04:27:54.246181 29347 layer_factory.hpp:77] Creating layer loss
I0411 04:27:54.246187 29347 net.cpp:100] Creating Layer loss
I0411 04:27:54.246191 29347 net.cpp:434] loss <- fc5_classes_fc5_67_0_split_0
I0411 04:27:54.246196 29347 net.cpp:434] loss <- label_data_1_split_0
I0411 04:27:54.246203 29347 net.cpp:408] loss -> loss
…
