…
I0529 02:07:00.040585 32361 solver.cpp:81] Creating training net from train_net file: ./Prototxt/experiment_22/RTSD/orig/trial_2/train.prototxt
I0529 02:07:00.048895 32361 net.cpp:58] Initializing net from parameters: 
state {
  phase: TRAIN
  level: 0
  stage: ""
}
layer {
  name: "data"
  type: "Data"
  top: "data"
  top: "label"
  include {
    phase: TRAIN
  }
  transform_param {
    scale: 0.0039215689
    mirror: false
    crop_size: 48
    mean_value: 119
    mean_value: 113
    mean_value: 113
  }
  data_param {
    source: "../local_data/lmdb/RTSD/orig/train/lmdb"
    batch_size: 1024
    backend: LMDB
  }
}
layer {
  name: "conv1"
  type: "Convolution"
  bottom: "data"
  top: "conv1"
  convolution_param {
    num_output: 100
    pad: 0
    kernel_size: 7
    group: 1
    stride: 1
    weight_filler {
      type: "xavier"
    }
  }
}
layer {
  name: "conv1_relu"
  type: "ReLU"
  bottom: "conv1"
  top: "conv1"
}
layer {
  name: "pool1"
  type: "Pooling"
  bottom: "conv1"
  top: "pool1"
  pooling_param {
    pool: MAX
    kernel_size: 2
    stride: 2
  }
}
layer {
  name: "conv2"
  type: "Convolution"
  bottom: "pool1"
  top: "conv2"
  convolution_param {
    num_output: 150
    pad: 0
    kernel_size: 4
    group: 1
    stride: 1
    weight_filler {
      type: "xavier"
    }
  }
}
layer {
  name: "conv2_relu"
  type: "ReLU"
  bottom: "conv2"
  top: "conv2"
}
layer {
  name: "pool2"
  type: "Pooling"
  bottom: "conv2"
  top: "pool2"
  pooling_param {
    pool: MAX
    kernel_size: 2
    stride: 2
  }
}
layer {
  name: "conv3"
  type: "Convolution"
  bottom: "pool2"
  top: "conv3"
  convolution_param {
    num_output: 250
    pad: 0
    kernel_size: 4
    group: 1
    stride: 1
    weight_filler {
      type: "xavier"
    }
  }
}
layer {
  name: "conv3_relu"
  type: "ReLU"
  bottom: "conv3"
  top: "conv3"
}
layer {
  name: "pool3"
  type: "Pooling"
  bottom: "conv3"
  top: "pool3"
  pooling_param {
    pool: MAX
    kernel_size: 2
    stride: 2
  }
}
layer {
  name: "fc4_300"
  type: "InnerProduct"
  bottom: "pool3"
  top: "fc4_300"
  inner_product_param {
    num_output: 300
    weight_filler {
      type: "xavier"
    }
  }
}
layer {
  name: "fc4_relu"
  type: "ReLU"
  bottom: "fc4_300"
  top: "fc4_300"
}
layer {
  name: "fc5_116"
  type: "InnerProduct"
  bottom: "fc4_300"
  top: "fc5_classes"
  inner_product_param {
    num_output: 116
    weight_filler {
      type: "xavier"
    }
  }
}
layer {
  name: "softmax"
  type: "Softmax"
  bottom: "fc5_classes"
  top: "softmax"
}
layer {
  name: "loss"
  type: "MultinomialLogisticLoss"
  bottom: "softmax"
  bottom: "label"
  top: "loss"
}
layer {
  name: "accuracy_1"
  type: "Accuracy"
  bottom: "fc5_classes"
  bottom: "label"
  top: "accuracy_1"
  accuracy_param {
    top_k: 1
  }
}
layer {
  name: "accuracy_5"
  type: "Accuracy"
  bottom: "fc5_classes"
  bottom: "label"
  top: "accuracy_5"
  accuracy_param {
    top_k: 5
  }
}
layer {
  name: "silence"
  type: "Silence"
  bottom: "accuracy_1"
  bottom: "accuracy_5"
}
I0529 02:07:00.049005 32361 layer_factory.hpp:77] Creating layer data
I0529 02:07:00.049906 32361 net.cpp:100] Creating Layer data
I0529 02:07:00.049926 32361 net.cpp:408] data -> data
I0529 02:07:00.049976 32361 net.cpp:408] data -> label
I0529 02:07:00.053705 32410 db_lmdb.cpp:35] Opened lmdb ../local_data/lmdb/RTSD/orig/train/lmdb
I0529 02:07:00.076401 32361 data_layer.cpp:41] output data size: 1024,3,48,48
I0529 02:07:00.116601 32361 net.cpp:150] Setting up data
I0529 02:07:00.116686 32361 net.cpp:157] Top shape: 1024 3 48 48 (7077888)
I0529 02:07:00.116715 32361 net.cpp:157] Top shape: 1024 (1024)
I0529 02:07:00.116720 32361 net.cpp:165] Memory required for data: 28315648
I0529 02:07:00.116760 32361 layer_factory.hpp:77] Creating layer label_data_1_split
I0529 02:07:00.116786 32361 net.cpp:100] Creating Layer label_data_1_split
I0529 02:07:00.116797 32361 net.cpp:434] label_data_1_split <- label
I0529 02:07:00.116821 32361 net.cpp:408] label_data_1_split -> label_data_1_split_0
I0529 02:07:00.116847 32361 net.cpp:408] label_data_1_split -> label_data_1_split_1
I0529 02:07:00.116858 32361 net.cpp:408] label_data_1_split -> label_data_1_split_2
I0529 02:07:00.116933 32361 net.cpp:150] Setting up label_data_1_split
I0529 02:07:00.116945 32361 net.cpp:157] Top shape: 1024 (1024)
I0529 02:07:00.116950 32361 net.cpp:157] Top shape: 1024 (1024)
I0529 02:07:00.116957 32361 net.cpp:157] Top shape: 1024 (1024)
I0529 02:07:00.116963 32361 net.cpp:165] Memory required for data: 28327936
I0529 02:07:00.116971 32361 layer_factory.hpp:77] Creating layer conv1
I0529 02:07:00.116997 32361 net.cpp:100] Creating Layer conv1
I0529 02:07:00.117005 32361 net.cpp:434] conv1 <- data
I0529 02:07:00.117022 32361 net.cpp:408] conv1 -> conv1
I0529 02:07:00.396661 32361 net.cpp:150] Setting up conv1
I0529 02:07:00.396706 32361 net.cpp:157] Top shape: 1024 100 42 42 (180633600)
I0529 02:07:00.396715 32361 net.cpp:165] Memory required for data: 750862336
I0529 02:07:00.396736 32361 layer_factory.hpp:77] Creating layer conv1_relu
I0529 02:07:00.396756 32361 net.cpp:100] Creating Layer conv1_relu
I0529 02:07:00.396764 32361 net.cpp:434] conv1_relu <- conv1
I0529 02:07:00.396770 32361 net.cpp:395] conv1_relu -> conv1 (in-place)
I0529 02:07:00.396924 32361 net.cpp:150] Setting up conv1_relu
I0529 02:07:00.396934 32361 net.cpp:157] Top shape: 1024 100 42 42 (180633600)
I0529 02:07:00.396939 32361 net.cpp:165] Memory required for data: 1473396736
I0529 02:07:00.396944 32361 layer_factory.hpp:77] Creating layer pool1
I0529 02:07:00.396955 32361 net.cpp:100] Creating Layer pool1
I0529 02:07:00.396962 32361 net.cpp:434] pool1 <- conv1
I0529 02:07:00.396968 32361 net.cpp:408] pool1 -> pool1
I0529 02:07:00.397011 32361 net.cpp:150] Setting up pool1
I0529 02:07:00.397020 32361 net.cpp:157] Top shape: 1024 100 21 21 (45158400)
I0529 02:07:00.397024 32361 net.cpp:165] Memory required for data: 1654030336
I0529 02:07:00.397030 32361 layer_factory.hpp:77] Creating layer conv2
I0529 02:07:00.397042 32361 net.cpp:100] Creating Layer conv2
I0529 02:07:00.397048 32361 net.cpp:434] conv2 <- pool1
I0529 02:07:00.397054 32361 net.cpp:408] conv2 -> conv2
I0529 02:07:00.400164 32361 net.cpp:150] Setting up conv2
I0529 02:07:00.400187 32361 net.cpp:157] Top shape: 1024 150 18 18 (49766400)
I0529 02:07:00.400192 32361 net.cpp:165] Memory required for data: 1853095936
I0529 02:07:00.400209 32361 layer_factory.hpp:77] Creating layer conv2_relu
I0529 02:07:00.400215 32361 net.cpp:100] Creating Layer conv2_relu
I0529 02:07:00.400219 32361 net.cpp:434] conv2_relu <- conv2
I0529 02:07:00.400225 32361 net.cpp:395] conv2_relu -> conv2 (in-place)
I0529 02:07:00.400367 32361 net.cpp:150] Setting up conv2_relu
I0529 02:07:00.400378 32361 net.cpp:157] Top shape: 1024 150 18 18 (49766400)
I0529 02:07:00.400382 32361 net.cpp:165] Memory required for data: 2052161536
I0529 02:07:00.400387 32361 layer_factory.hpp:77] Creating layer pool2
I0529 02:07:00.400393 32361 net.cpp:100] Creating Layer pool2
I0529 02:07:00.400398 32361 net.cpp:434] pool2 <- conv2
I0529 02:07:00.400403 32361 net.cpp:408] pool2 -> pool2
I0529 02:07:00.400439 32361 net.cpp:150] Setting up pool2
I0529 02:07:00.400449 32361 net.cpp:157] Top shape: 1024 150 9 9 (12441600)
I0529 02:07:00.400451 32361 net.cpp:165] Memory required for data: 2101927936
I0529 02:07:00.400455 32361 layer_factory.hpp:77] Creating layer conv3
I0529 02:07:00.400477 32361 net.cpp:100] Creating Layer conv3
I0529 02:07:00.400483 32361 net.cpp:434] conv3 <- pool2
I0529 02:07:00.400490 32361 net.cpp:408] conv3 -> conv3
I0529 02:07:00.413467 32361 net.cpp:150] Setting up conv3
I0529 02:07:00.413523 32361 net.cpp:157] Top shape: 1024 250 6 6 (9216000)
I0529 02:07:00.413543 32361 net.cpp:165] Memory required for data: 2138791936
I0529 02:07:00.413565 32361 layer_factory.hpp:77] Creating layer conv3_relu
I0529 02:07:00.413595 32361 net.cpp:100] Creating Layer conv3_relu
I0529 02:07:00.413609 32361 net.cpp:434] conv3_relu <- conv3
I0529 02:07:00.413625 32361 net.cpp:395] conv3_relu -> conv3 (in-place)
I0529 02:07:00.414572 32361 net.cpp:150] Setting up conv3_relu
I0529 02:07:00.414624 32361 net.cpp:157] Top shape: 1024 250 6 6 (9216000)
I0529 02:07:00.414634 32361 net.cpp:165] Memory required for data: 2175655936
I0529 02:07:00.414644 32361 layer_factory.hpp:77] Creating layer pool3
I0529 02:07:00.414674 32361 net.cpp:100] Creating Layer pool3
I0529 02:07:00.414685 32361 net.cpp:434] pool3 <- conv3
I0529 02:07:00.414706 32361 net.cpp:408] pool3 -> pool3
I0529 02:07:00.414819 32361 net.cpp:150] Setting up pool3
I0529 02:07:00.414844 32361 net.cpp:157] Top shape: 1024 250 3 3 (2304000)
I0529 02:07:00.414862 32361 net.cpp:165] Memory required for data: 2184871936
I0529 02:07:00.414870 32361 layer_factory.hpp:77] Creating layer fc4_300
I0529 02:07:00.414896 32361 net.cpp:100] Creating Layer fc4_300
I0529 02:07:00.414908 32361 net.cpp:434] fc4_300 <- pool3
I0529 02:07:00.414928 32361 net.cpp:408] fc4_300 -> fc4_300
I0529 02:07:00.427711 32361 net.cpp:150] Setting up fc4_300
I0529 02:07:00.427747 32361 net.cpp:157] Top shape: 1024 300 (307200)
I0529 02:07:00.427760 32361 net.cpp:165] Memory required for data: 2186100736
I0529 02:07:00.427780 32361 layer_factory.hpp:77] Creating layer fc4_relu
I0529 02:07:00.427798 32361 net.cpp:100] Creating Layer fc4_relu
I0529 02:07:00.427814 32361 net.cpp:434] fc4_relu <- fc4_300
I0529 02:07:00.427832 32361 net.cpp:395] fc4_relu -> fc4_300 (in-place)
I0529 02:07:00.428220 32361 net.cpp:150] Setting up fc4_relu
I0529 02:07:00.428251 32361 net.cpp:157] Top shape: 1024 300 (307200)
I0529 02:07:00.428261 32361 net.cpp:165] Memory required for data: 2187329536
I0529 02:07:00.428269 32361 layer_factory.hpp:77] Creating layer fc5_116
I0529 02:07:00.428303 32361 net.cpp:100] Creating Layer fc5_116
I0529 02:07:00.428315 32361 net.cpp:434] fc5_116 <- fc4_300
I0529 02:07:00.428336 32361 net.cpp:408] fc5_116 -> fc5_classes
I0529 02:07:00.430604 32361 net.cpp:150] Setting up fc5_116
I0529 02:07:00.430644 32361 net.cpp:157] Top shape: 1024 116 (118784)
I0529 02:07:00.430652 32361 net.cpp:165] Memory required for data: 2187804672
I0529 02:07:00.430685 32361 layer_factory.hpp:77] Creating layer fc5_classes_fc5_116_0_split
I0529 02:07:00.430716 32361 net.cpp:100] Creating Layer fc5_classes_fc5_116_0_split
I0529 02:07:00.430727 32361 net.cpp:434] fc5_classes_fc5_116_0_split <- fc5_classes
I0529 02:07:00.430747 32361 net.cpp:408] fc5_classes_fc5_116_0_split -> fc5_classes_fc5_116_0_split_0
I0529 02:07:00.430773 32361 net.cpp:408] fc5_classes_fc5_116_0_split -> fc5_classes_fc5_116_0_split_1
I0529 02:07:00.430788 32361 net.cpp:408] fc5_classes_fc5_116_0_split -> fc5_classes_fc5_116_0_split_2
I0529 02:07:00.430907 32361 net.cpp:150] Setting up fc5_classes_fc5_116_0_split
I0529 02:07:00.430930 32361 net.cpp:157] Top shape: 1024 116 (118784)
I0529 02:07:00.430943 32361 net.cpp:157] Top shape: 1024 116 (118784)
I0529 02:07:00.430954 32361 net.cpp:157] Top shape: 1024 116 (118784)
I0529 02:07:00.430964 32361 net.cpp:165] Memory required for data: 2189230080
I0529 02:07:00.430972 32361 layer_factory.hpp:77] Creating layer softmax
I0529 02:07:00.430986 32361 net.cpp:100] Creating Layer softmax
I0529 02:07:00.430997 32361 net.cpp:434] softmax <- fc5_classes_fc5_116_0_split_0
I0529 02:07:00.431017 32361 net.cpp:408] softmax -> softmax
I0529 02:07:00.431506 32361 net.cpp:150] Setting up softmax
I0529 02:07:00.431540 32361 net.cpp:157] Top shape: 1024 116 (118784)
I0529 02:07:00.431547 32361 net.cpp:165] Memory required for data: 2189705216
I0529 02:07:00.431556 32361 layer_factory.hpp:77] Creating layer loss
I0529 02:07:00.431581 32361 net.cpp:100] Creating Layer loss
I0529 02:07:00.431617 32361 net.cpp:434] loss <- softmax
I0529 02:07:00.431640 32361 net.cpp:434] loss <- label_data_1_split_0
I0529 02:07:00.431658 32361 net.cpp:408] loss -> loss
…
