…
I0414 14:42:53.960445 31905 solver.cpp:93] Creating training net from train_net file: ./Prototxt/experiment_11/rtsd-r3/histeq/trial_2/train.prototxt
I0414 14:42:53.974993 31905 net.cpp:58] Initializing net from parameters: 
state {
  phase: TRAIN
  level: 0
  stage: ""
}
layer {
  name: "data"
  type: "Data"
  top: "data"
  top: "label"
  include {
    phase: TRAIN
  }
  transform_param {
    scale: 0.0039215689
    mirror: false
    crop_size: 48
    mean_value: 135
    mean_value: 128
    mean_value: 128
  }
  data_param {
    source: "../local_data/lmdb/rtsd-r3/histeq/train/lmdb"
    batch_size: 1024
    backend: LMDB
  }
}
layer {
  name: "conv1"
  type: "Convolution"
  bottom: "data"
  top: "conv1"
  convolution_param {
    num_output: 100
    pad: 0
    kernel_size: 7
    group: 1
    stride: 1
    weight_filler {
      type: "xavier"
    }
  }
}
layer {
  name: "conv1_prescale"
  type: "Scale"
  bottom: "conv1"
  top: "conv1"
  param {
    lr_mult: 0
    decay_mult: 0
  }
  scale_param {
    filler {
      value: 0.6666
    }
    bias_term: false
  }
}
layer {
  name: "conv1_sTanH"
  type: "TanH"
  bottom: "conv1"
  top: "conv1"
}
layer {
  name: "conv1_postscale"
  type: "Scale"
  bottom: "conv1"
  top: "conv1"
  param {
    lr_mult: 0
    decay_mult: 0
  }
  scale_param {
    filler {
      value: 1.7159
    }
    bias_term: false
  }
}
layer {
  name: "pool1"
  type: "Pooling"
  bottom: "conv1"
  top: "pool1"
  pooling_param {
    pool: MAX
    kernel_size: 2
    stride: 2
  }
}
layer {
  name: "conv2"
  type: "Convolution"
  bottom: "pool1"
  top: "conv2"
  convolution_param {
    num_output: 150
    pad: 0
    kernel_size: 4
    group: 1
    stride: 1
    weight_filler {
      type: "xavier"
    }
  }
}
layer {
  name: "conv2_prescale"
  type: "Scale"
  bottom: "conv2"
  top: "conv2"
  param {
    lr_mult: 0
    decay_mult: 0
  }
  scale_param {
    filler {
      value: 0.6666
    }
    bias_term: false
  }
}
layer {
  name: "conv2_sTanH"
  type: "TanH"
  bottom: "conv2"
  top: "conv2"
}
layer {
  name: "conv2_postscale"
  type: "Scale"
  bottom: "conv2"
  top: "conv2"
  param {
    lr_mult: 0
    decay_mult: 0
  }
  scale_param {
    filler {
      value: 1.7159
    }
    bias_term: false
  }
}
layer {
  name: "pool2"
  type: "Pooling"
  bottom: "conv2"
  top: "pool2"
  pooling_param {
    pool: MAX
    kernel_size: 2
    stride: 2
  }
}
layer {
  name: "conv3"
  type: "Convolution"
  bottom: "pool2"
  top: "conv3"
  convolution_param {
    num_output: 250
    pad: 0
    kernel_size: 4
    group: 1
    stride: 1
    weight_filler {
      type: "xavier"
    }
  }
}
layer {
  name: "conv3_prescale"
  type: "Scale"
  bottom: "conv3"
  top: "conv3"
  param {
    lr_mult: 0
    decay_mult: 0
  }
  scale_param {
    filler {
      value: 0.6666
    }
    bias_term: false
  }
}
layer {
  name: "conv3_sTanH"
  type: "TanH"
  bottom: "conv3"
  top: "conv3"
}
layer {
  name: "conv3_postscale"
  type: "Scale"
  bottom: "conv3"
  top: "conv3"
  param {
    lr_mult: 0
    decay_mult: 0
  }
  scale_param {
    filler {
      value: 1.7159
    }
    bias_term: false
  }
}
layer {
  name: "pool3"
  type: "Pooling"
  bottom: "conv3"
  top: "pool3"
  pooling_param {
    pool: MAX
    kernel_size: 2
    stride: 2
  }
}
layer {
  name: "fc4_300"
  type: "InnerProduct"
  bottom: "pool3"
  top: "fc4_300"
  inner_product_param {
    num_output: 300
    weight_filler {
      type: "xavier"
    }
  }
}
layer {
  name: "fc4_prescale"
  type: "Scale"
  bottom: "fc4_300"
  top: "fc4_300"
  param {
    lr_mult: 0
    decay_mult: 0
  }
  scale_param {
    filler {
      value: 0.6666
    }
    bias_term: false
  }
}
layer {
  name: "fc4_sTanH"
  type: "TanH"
  bottom: "fc4_300"
  top: "fc4_300"
}
layer {
  name: "fc4_postscale"
  type: "Scale"
  bottom: "fc4_300"
  top: "fc4_300"
  param {
    lr_mult: 0
    decay_mult: 0
  }
  scale_param {
    filler {
      value: 1.7159
    }
    bias_term: false
  }
}
layer {
  name: "fc5_106"
  type: "InnerProduct"
  bottom: "fc4_300"
  top: "fc5_classes"
  inner_product_param {
    num_output: 106
    weight_filler {
      type: "xavier"
    }
  }
}
layer {
  name: "softmax"
  type: "Softmax"
  bottom: "fc5_classes"
  top: "softmax"
}
layer {
  name: "loss"
  type: "MultinomialLogisticLoss"
  bottom: "softmax"
  bottom: "label"
  top: "loss"
}
layer {
  name: "accuracy_1"
  type: "Accuracy"
  bottom: "fc5_classes"
  bottom: "label"
  top: "accuracy_1"
  accuracy_param {
    top_k: 1
  }
}
layer {
  name: "accuracy_5"
  type: "Accuracy"
  bottom: "fc5_classes"
  bottom: "label"
  top: "accuracy_5"
  accuracy_param {
    top_k: 5
  }
}
layer {
  name: "silence"
  type: "Silence"
  bottom: "accuracy_1"
  bottom: "accuracy_5"
}
I0414 14:42:53.975160 31905 layer_factory.hpp:77] Creating layer data
I0414 14:42:53.976249 31905 net.cpp:100] Creating Layer data
I0414 14:42:53.976271 31905 net.cpp:408] data -> data
I0414 14:42:53.976296 31905 net.cpp:408] data -> label
I0414 14:42:53.978416 32015 db_lmdb.cpp:35] Opened lmdb ../local_data/lmdb/rtsd-r3/histeq/train/lmdb
I0414 14:42:53.994953 31905 data_layer.cpp:41] output data size: 1024,3,48,48
I0414 14:42:54.053316 31905 net.cpp:150] Setting up data
I0414 14:42:54.053345 31905 net.cpp:157] Top shape: 1024 3 48 48 (7077888)
I0414 14:42:54.053351 31905 net.cpp:157] Top shape: 1024 (1024)
I0414 14:42:54.053354 31905 net.cpp:165] Memory required for data: 28315648
I0414 14:42:54.053365 31905 layer_factory.hpp:77] Creating layer label_data_1_split
I0414 14:42:54.053380 31905 net.cpp:100] Creating Layer label_data_1_split
I0414 14:42:54.053386 31905 net.cpp:434] label_data_1_split <- label
I0414 14:42:54.053400 31905 net.cpp:408] label_data_1_split -> label_data_1_split_0
I0414 14:42:54.053412 31905 net.cpp:408] label_data_1_split -> label_data_1_split_1
I0414 14:42:54.053422 31905 net.cpp:408] label_data_1_split -> label_data_1_split_2
I0414 14:42:54.053514 31905 net.cpp:150] Setting up label_data_1_split
I0414 14:42:54.053524 31905 net.cpp:157] Top shape: 1024 (1024)
I0414 14:42:54.053529 31905 net.cpp:157] Top shape: 1024 (1024)
I0414 14:42:54.053532 31905 net.cpp:157] Top shape: 1024 (1024)
I0414 14:42:54.053535 31905 net.cpp:165] Memory required for data: 28327936
I0414 14:42:54.053539 31905 layer_factory.hpp:77] Creating layer conv1
I0414 14:42:54.053555 31905 net.cpp:100] Creating Layer conv1
I0414 14:42:54.053560 31905 net.cpp:434] conv1 <- data
I0414 14:42:54.053566 31905 net.cpp:408] conv1 -> conv1
I0414 14:42:54.549695 31905 net.cpp:150] Setting up conv1
I0414 14:42:54.549726 31905 net.cpp:157] Top shape: 1024 100 42 42 (180633600)
I0414 14:42:54.549733 31905 net.cpp:165] Memory required for data: 750862336
I0414 14:42:54.549760 31905 layer_factory.hpp:77] Creating layer conv1_prescale
I0414 14:42:54.549779 31905 net.cpp:100] Creating Layer conv1_prescale
I0414 14:42:54.549788 31905 net.cpp:434] conv1_prescale <- conv1
I0414 14:42:54.549796 31905 net.cpp:395] conv1_prescale -> conv1 (in-place)
I0414 14:42:54.549912 31905 net.cpp:150] Setting up conv1_prescale
I0414 14:42:54.549922 31905 net.cpp:157] Top shape: 1024 100 42 42 (180633600)
I0414 14:42:54.549926 31905 net.cpp:165] Memory required for data: 1473396736
I0414 14:42:54.549933 31905 layer_factory.hpp:77] Creating layer conv1_sTanH
I0414 14:42:54.549942 31905 net.cpp:100] Creating Layer conv1_sTanH
I0414 14:42:54.549947 31905 net.cpp:434] conv1_sTanH <- conv1
I0414 14:42:54.549952 31905 net.cpp:395] conv1_sTanH -> conv1 (in-place)
I0414 14:42:54.550170 31905 net.cpp:150] Setting up conv1_sTanH
I0414 14:42:54.550206 31905 net.cpp:157] Top shape: 1024 100 42 42 (180633600)
I0414 14:42:54.550211 31905 net.cpp:165] Memory required for data: 2195931136
I0414 14:42:54.550215 31905 layer_factory.hpp:77] Creating layer conv1_postscale
I0414 14:42:54.550222 31905 net.cpp:100] Creating Layer conv1_postscale
I0414 14:42:54.550226 31905 net.cpp:434] conv1_postscale <- conv1
I0414 14:42:54.550231 31905 net.cpp:395] conv1_postscale -> conv1 (in-place)
I0414 14:42:54.550338 31905 net.cpp:150] Setting up conv1_postscale
I0414 14:42:54.550351 31905 net.cpp:157] Top shape: 1024 100 42 42 (180633600)
I0414 14:42:54.550355 31905 net.cpp:165] Memory required for data: 2918465536
I0414 14:42:54.550364 31905 layer_factory.hpp:77] Creating layer pool1
I0414 14:42:54.550377 31905 net.cpp:100] Creating Layer pool1
I0414 14:42:54.550385 31905 net.cpp:434] pool1 <- conv1
I0414 14:42:54.550393 31905 net.cpp:408] pool1 -> pool1
I0414 14:42:54.550457 31905 net.cpp:150] Setting up pool1
I0414 14:42:54.550467 31905 net.cpp:157] Top shape: 1024 100 21 21 (45158400)
I0414 14:42:54.550470 31905 net.cpp:165] Memory required for data: 3099099136
I0414 14:42:54.550474 31905 layer_factory.hpp:77] Creating layer conv2
I0414 14:42:54.550484 31905 net.cpp:100] Creating Layer conv2
I0414 14:42:54.550489 31905 net.cpp:434] conv2 <- pool1
I0414 14:42:54.550494 31905 net.cpp:408] conv2 -> conv2
I0414 14:42:54.559587 31905 net.cpp:150] Setting up conv2
I0414 14:42:54.559604 31905 net.cpp:157] Top shape: 1024 150 18 18 (49766400)
I0414 14:42:54.559608 31905 net.cpp:165] Memory required for data: 3298164736
I0414 14:42:54.559619 31905 layer_factory.hpp:77] Creating layer conv2_prescale
I0414 14:42:54.559630 31905 net.cpp:100] Creating Layer conv2_prescale
I0414 14:42:54.559635 31905 net.cpp:434] conv2_prescale <- conv2
I0414 14:42:54.559641 31905 net.cpp:395] conv2_prescale -> conv2 (in-place)
I0414 14:42:54.559774 31905 net.cpp:150] Setting up conv2_prescale
I0414 14:42:54.559785 31905 net.cpp:157] Top shape: 1024 150 18 18 (49766400)
I0414 14:42:54.559788 31905 net.cpp:165] Memory required for data: 3497230336
I0414 14:42:54.559794 31905 layer_factory.hpp:77] Creating layer conv2_sTanH
I0414 14:42:54.559800 31905 net.cpp:100] Creating Layer conv2_sTanH
I0414 14:42:54.559803 31905 net.cpp:434] conv2_sTanH <- conv2
I0414 14:42:54.559808 31905 net.cpp:395] conv2_sTanH -> conv2 (in-place)
I0414 14:42:54.561806 31905 net.cpp:150] Setting up conv2_sTanH
I0414 14:42:54.561825 31905 net.cpp:157] Top shape: 1024 150 18 18 (49766400)
I0414 14:42:54.561830 31905 net.cpp:165] Memory required for data: 3696295936
I0414 14:42:54.561832 31905 layer_factory.hpp:77] Creating layer conv2_postscale
I0414 14:42:54.561843 31905 net.cpp:100] Creating Layer conv2_postscale
I0414 14:42:54.561851 31905 net.cpp:434] conv2_postscale <- conv2
I0414 14:42:54.561859 31905 net.cpp:395] conv2_postscale -> conv2 (in-place)
I0414 14:42:54.561985 31905 net.cpp:150] Setting up conv2_postscale
I0414 14:42:54.561998 31905 net.cpp:157] Top shape: 1024 150 18 18 (49766400)
I0414 14:42:54.562006 31905 net.cpp:165] Memory required for data: 3895361536
I0414 14:42:54.562013 31905 layer_factory.hpp:77] Creating layer pool2
I0414 14:42:54.562019 31905 net.cpp:100] Creating Layer pool2
I0414 14:42:54.562023 31905 net.cpp:434] pool2 <- conv2
I0414 14:42:54.562028 31905 net.cpp:408] pool2 -> pool2
I0414 14:42:54.562072 31905 net.cpp:150] Setting up pool2
I0414 14:42:54.562081 31905 net.cpp:157] Top shape: 1024 150 9 9 (12441600)
I0414 14:42:54.562084 31905 net.cpp:165] Memory required for data: 3945127936
I0414 14:42:54.562088 31905 layer_factory.hpp:77] Creating layer conv3
I0414 14:42:54.562095 31905 net.cpp:100] Creating Layer conv3
I0414 14:42:54.562100 31905 net.cpp:434] conv3 <- pool2
I0414 14:42:54.562105 31905 net.cpp:408] conv3 -> conv3
I0414 14:42:54.570055 31905 net.cpp:150] Setting up conv3
I0414 14:42:54.570078 31905 net.cpp:157] Top shape: 1024 250 6 6 (9216000)
I0414 14:42:54.570087 31905 net.cpp:165] Memory required for data: 3981991936
I0414 14:42:54.570103 31905 layer_factory.hpp:77] Creating layer conv3_prescale
I0414 14:42:54.570139 31905 net.cpp:100] Creating Layer conv3_prescale
I0414 14:42:54.570147 31905 net.cpp:434] conv3_prescale <- conv3
I0414 14:42:54.570158 31905 net.cpp:395] conv3_prescale -> conv3 (in-place)
I0414 14:42:54.570279 31905 net.cpp:150] Setting up conv3_prescale
I0414 14:42:54.570292 31905 net.cpp:157] Top shape: 1024 250 6 6 (9216000)
I0414 14:42:54.570298 31905 net.cpp:165] Memory required for data: 4018855936
I0414 14:42:54.570307 31905 layer_factory.hpp:77] Creating layer conv3_sTanH
I0414 14:42:54.570317 31905 net.cpp:100] Creating Layer conv3_sTanH
I0414 14:42:54.570325 31905 net.cpp:434] conv3_sTanH <- conv3
I0414 14:42:54.570333 31905 net.cpp:395] conv3_sTanH -> conv3 (in-place)
I0414 14:42:54.571754 31905 net.cpp:150] Setting up conv3_sTanH
I0414 14:42:54.571774 31905 net.cpp:157] Top shape: 1024 250 6 6 (9216000)
I0414 14:42:54.571781 31905 net.cpp:165] Memory required for data: 4055719936
I0414 14:42:54.571786 31905 layer_factory.hpp:77] Creating layer conv3_postscale
I0414 14:42:54.571797 31905 net.cpp:100] Creating Layer conv3_postscale
I0414 14:42:54.571805 31905 net.cpp:434] conv3_postscale <- conv3
I0414 14:42:54.571812 31905 net.cpp:395] conv3_postscale -> conv3 (in-place)
I0414 14:42:54.571959 31905 net.cpp:150] Setting up conv3_postscale
I0414 14:42:54.571976 31905 net.cpp:157] Top shape: 1024 250 6 6 (9216000)
I0414 14:42:54.571985 31905 net.cpp:165] Memory required for data: 4092583936
I0414 14:42:54.571992 31905 layer_factory.hpp:77] Creating layer pool3
I0414 14:42:54.572005 31905 net.cpp:100] Creating Layer pool3
I0414 14:42:54.572012 31905 net.cpp:434] pool3 <- conv3
I0414 14:42:54.572021 31905 net.cpp:408] pool3 -> pool3
I0414 14:42:54.572075 31905 net.cpp:150] Setting up pool3
I0414 14:42:54.572088 31905 net.cpp:157] Top shape: 1024 250 3 3 (2304000)
I0414 14:42:54.572095 31905 net.cpp:165] Memory required for data: 4101799936
I0414 14:42:54.572100 31905 layer_factory.hpp:77] Creating layer fc4_300
I0414 14:42:54.572109 31905 net.cpp:100] Creating Layer fc4_300
I0414 14:42:54.572116 31905 net.cpp:434] fc4_300 <- pool3
I0414 14:42:54.572126 31905 net.cpp:408] fc4_300 -> fc4_300
I0414 14:42:54.580677 31905 net.cpp:150] Setting up fc4_300
I0414 14:42:54.580698 31905 net.cpp:157] Top shape: 1024 300 (307200)
I0414 14:42:54.580705 31905 net.cpp:165] Memory required for data: 4103028736
I0414 14:42:54.580715 31905 layer_factory.hpp:77] Creating layer fc4_prescale
I0414 14:42:54.580729 31905 net.cpp:100] Creating Layer fc4_prescale
I0414 14:42:54.580736 31905 net.cpp:434] fc4_prescale <- fc4_300
I0414 14:42:54.580744 31905 net.cpp:395] fc4_prescale -> fc4_300 (in-place)
I0414 14:42:54.580871 31905 net.cpp:150] Setting up fc4_prescale
I0414 14:42:54.580885 31905 net.cpp:157] Top shape: 1024 300 (307200)
I0414 14:42:54.580893 31905 net.cpp:165] Memory required for data: 4104257536
I0414 14:42:54.580900 31905 layer_factory.hpp:77] Creating layer fc4_sTanH
I0414 14:42:54.580912 31905 net.cpp:100] Creating Layer fc4_sTanH
I0414 14:42:54.580920 31905 net.cpp:434] fc4_sTanH <- fc4_300
I0414 14:42:54.580929 31905 net.cpp:395] fc4_sTanH -> fc4_300 (in-place)
I0414 14:42:54.581174 31905 net.cpp:150] Setting up fc4_sTanH
I0414 14:42:54.581192 31905 net.cpp:157] Top shape: 1024 300 (307200)
I0414 14:42:54.581199 31905 net.cpp:165] Memory required for data: 4105486336
I0414 14:42:54.581204 31905 layer_factory.hpp:77] Creating layer fc4_postscale
I0414 14:42:54.581214 31905 net.cpp:100] Creating Layer fc4_postscale
I0414 14:42:54.581223 31905 net.cpp:434] fc4_postscale <- fc4_300
I0414 14:42:54.581228 31905 net.cpp:395] fc4_postscale -> fc4_300 (in-place)
I0414 14:42:54.581356 31905 net.cpp:150] Setting up fc4_postscale
I0414 14:42:54.581368 31905 net.cpp:157] Top shape: 1024 300 (307200)
I0414 14:42:54.581377 31905 net.cpp:165] Memory required for data: 4106715136
I0414 14:42:54.581382 31905 layer_factory.hpp:77] Creating layer fc5_106
I0414 14:42:54.581389 31905 net.cpp:100] Creating Layer fc5_106
I0414 14:42:54.581393 31905 net.cpp:434] fc5_106 <- fc4_300
I0414 14:42:54.581398 31905 net.cpp:408] fc5_106 -> fc5_classes
I0414 14:42:54.583315 31905 net.cpp:150] Setting up fc5_106
I0414 14:42:54.583336 31905 net.cpp:157] Top shape: 1024 106 (108544)
I0414 14:42:54.583345 31905 net.cpp:165] Memory required for data: 4107149312
I0414 14:42:54.583362 31905 layer_factory.hpp:77] Creating layer fc5_classes_fc5_106_0_split
I0414 14:42:54.583376 31905 net.cpp:100] Creating Layer fc5_classes_fc5_106_0_split
I0414 14:42:54.583384 31905 net.cpp:434] fc5_classes_fc5_106_0_split <- fc5_classes
I0414 14:42:54.583394 31905 net.cpp:408] fc5_classes_fc5_106_0_split -> fc5_classes_fc5_106_0_split_0
I0414 14:42:54.583405 31905 net.cpp:408] fc5_classes_fc5_106_0_split -> fc5_classes_fc5_106_0_split_1
I0414 14:42:54.583416 31905 net.cpp:408] fc5_classes_fc5_106_0_split -> fc5_classes_fc5_106_0_split_2
I0414 14:42:54.583485 31905 net.cpp:150] Setting up fc5_classes_fc5_106_0_split
I0414 14:42:54.583497 31905 net.cpp:157] Top shape: 1024 106 (108544)
I0414 14:42:54.583503 31905 net.cpp:157] Top shape: 1024 106 (108544)
I0414 14:42:54.583511 31905 net.cpp:157] Top shape: 1024 106 (108544)
I0414 14:42:54.583515 31905 net.cpp:165] Memory required for data: 4108451840
I0414 14:42:54.583520 31905 layer_factory.hpp:77] Creating layer softmax
I0414 14:42:54.583528 31905 net.cpp:100] Creating Layer softmax
I0414 14:42:54.583540 31905 net.cpp:434] softmax <- fc5_classes_fc5_106_0_split_0
I0414 14:42:54.583552 31905 net.cpp:408] softmax -> softmax
I0414 14:42:54.583914 31905 net.cpp:150] Setting up softmax
I0414 14:42:54.583932 31905 net.cpp:157] Top shape: 1024 106 (108544)
I0414 14:42:54.583940 31905 net.cpp:165] Memory required for data: 4108886016
I0414 14:42:54.583946 31905 layer_factory.hpp:77] Creating layer loss
I0414 14:42:54.583956 31905 net.cpp:100] Creating Layer loss
I0414 14:42:54.583964 31905 net.cpp:434] loss <- softmax
I0414 14:42:54.583971 31905 net.cpp:434] loss <- label_data_1_split_0
I0414 14:42:54.583978 31905 net.cpp:408] loss -> loss
…
