…
I0507 07:43:16.563586  2367 solver.cpp:93] Creating training net from train_net file: ./Prototxt/experiment_14/RTSD/imajust/trial_2/train.prototxt
I0507 07:43:16.564079  2367 net.cpp:58] Initializing net from parameters: 
state {
  phase: TRAIN
  level: 0
  stage: ""
}
layer {
  name: "data"
  type: "Data"
  top: "data"
  top: "label"
  include {
    phase: TRAIN
  }
  transform_param {
    scale: 0.0039215689
    mirror: false
    crop_size: 48
    mean_value: 119
    mean_value: 113
    mean_value: 114
  }
  data_param {
    source: "../local_data/lmdb/RTSD/imajust/train/lmdb"
    batch_size: 512
    backend: LMDB
  }
}
layer {
  name: "conv1"
  type: "Convolution"
  bottom: "data"
  top: "conv1"
  convolution_param {
    num_output: 100
    pad: 0
    kernel_size: 7
    group: 1
    stride: 1
    weight_filler {
      type: "xavier"
    }
  }
}
layer {
  name: "conv1_relu"
  type: "ReLU"
  bottom: "conv1"
  top: "conv1"
}
layer {
  name: "pool1"
  type: "Pooling"
  bottom: "conv1"
  top: "pool1"
  pooling_param {
    pool: MAX
    kernel_size: 2
    stride: 2
  }
}
layer {
  name: "conv2"
  type: "Convolution"
  bottom: "pool1"
  top: "conv2"
  convolution_param {
    num_output: 150
    pad: 0
    kernel_size: 4
    group: 1
    stride: 1
    weight_filler {
      type: "xavier"
    }
  }
}
layer {
  name: "conv2_relu"
  type: "ReLU"
  bottom: "conv2"
  top: "conv2"
}
layer {
  name: "pool2"
  type: "Pooling"
  bottom: "conv2"
  top: "pool2"
  pooling_param {
    pool: MAX
    kernel_size: 2
    stride: 2
  }
}
layer {
  name: "conv3"
  type: "Convolution"
  bottom: "pool2"
  top: "conv3"
  convolution_param {
    num_output: 250
    pad: 0
    kernel_size: 4
    group: 1
    stride: 1
    weight_filler {
      type: "xavier"
    }
  }
}
layer {
  name: "conv3_relu"
  type: "ReLU"
  bottom: "conv3"
  top: "conv3"
}
layer {
  name: "pool3"
  type: "Pooling"
  bottom: "conv3"
  top: "pool3"
  pooling_param {
    pool: MAX
    kernel_size: 2
    stride: 2
  }
}
layer {
  name: "fc4_300"
  type: "InnerProduct"
  bottom: "pool3"
  top: "fc4_300"
  inner_product_param {
    num_output: 300
    weight_filler {
      type: "xavier"
    }
  }
}
layer {
  name: "fc4_relu"
  type: "ReLU"
  bottom: "fc4_300"
  top: "fc4_300"
}
layer {
  name: "fc5_116"
  type: "InnerProduct"
  bottom: "fc4_300"
  top: "fc5_classes"
  inner_product_param {
    num_output: 116
    weight_filler {
      type: "xavier"
    }
  }
}
layer {
  name: "softmax"
  type: "Softmax"
  bottom: "fc5_classes"
  top: "softmax"
}
layer {
  name: "loss"
  type: "MultinomialLogisticLoss"
  bottom: "softmax"
  bottom: "label"
  top: "loss"
}
layer {
  name: "accuracy_1"
  type: "Accuracy"
  bottom: "fc5_classes"
  bottom: "label"
  top: "accuracy_1"
  accuracy_param {
    top_k: 1
  }
}
layer {
  name: "accuracy_5"
  type: "Accuracy"
  bottom: "fc5_classes"
  bottom: "label"
  top: "accuracy_5"
  accuracy_param {
    top_k: 5
  }
}
layer {
  name: "silence"
  type: "Silence"
  bottom: "accuracy_1"
  bottom: "accuracy_5"
}
I0507 07:43:16.564218  2367 layer_factory.hpp:77] Creating layer data
I0507 07:43:16.565340  2367 net.cpp:100] Creating Layer data
I0507 07:43:16.565363  2367 net.cpp:408] data -> data
I0507 07:43:16.565402  2367 net.cpp:408] data -> label
I0507 07:43:16.567250  2495 db_lmdb.cpp:35] Opened lmdb ../local_data/lmdb/RTSD/imajust/train/lmdb
I0507 07:43:16.591145  2367 data_layer.cpp:41] output data size: 512,3,48,48
I0507 07:43:16.648823  2367 net.cpp:150] Setting up data
I0507 07:43:16.648890  2367 net.cpp:157] Top shape: 512 3 48 48 (3538944)
I0507 07:43:16.648901  2367 net.cpp:157] Top shape: 512 (512)
I0507 07:43:16.648907  2367 net.cpp:165] Memory required for data: 14157824
I0507 07:43:16.648923  2367 layer_factory.hpp:77] Creating layer label_data_1_split
I0507 07:43:16.648942  2367 net.cpp:100] Creating Layer label_data_1_split
I0507 07:43:16.648954  2367 net.cpp:434] label_data_1_split <- label
I0507 07:43:16.648979  2367 net.cpp:408] label_data_1_split -> label_data_1_split_0
I0507 07:43:16.649005  2367 net.cpp:408] label_data_1_split -> label_data_1_split_1
I0507 07:43:16.649019  2367 net.cpp:408] label_data_1_split -> label_data_1_split_2
I0507 07:43:16.649128  2367 net.cpp:150] Setting up label_data_1_split
I0507 07:43:16.649147  2367 net.cpp:157] Top shape: 512 (512)
I0507 07:43:16.649155  2367 net.cpp:157] Top shape: 512 (512)
I0507 07:43:16.649164  2367 net.cpp:157] Top shape: 512 (512)
I0507 07:43:16.649171  2367 net.cpp:165] Memory required for data: 14163968
I0507 07:43:16.649178  2367 layer_factory.hpp:77] Creating layer conv1
I0507 07:43:16.649205  2367 net.cpp:100] Creating Layer conv1
I0507 07:43:16.649214  2367 net.cpp:434] conv1 <- data
I0507 07:43:16.649229  2367 net.cpp:408] conv1 -> conv1
I0507 07:43:17.114908  2367 net.cpp:150] Setting up conv1
I0507 07:43:17.114944  2367 net.cpp:157] Top shape: 512 100 42 42 (90316800)
I0507 07:43:17.114953  2367 net.cpp:165] Memory required for data: 375431168
I0507 07:43:17.114980  2367 layer_factory.hpp:77] Creating layer conv1_relu
I0507 07:43:17.114996  2367 net.cpp:100] Creating Layer conv1_relu
I0507 07:43:17.115003  2367 net.cpp:434] conv1_relu <- conv1
I0507 07:43:17.115010  2367 net.cpp:395] conv1_relu -> conv1 (in-place)
I0507 07:43:17.115272  2367 net.cpp:150] Setting up conv1_relu
I0507 07:43:17.115289  2367 net.cpp:157] Top shape: 512 100 42 42 (90316800)
I0507 07:43:17.115294  2367 net.cpp:165] Memory required for data: 736698368
I0507 07:43:17.115298  2367 layer_factory.hpp:77] Creating layer pool1
I0507 07:43:17.115309  2367 net.cpp:100] Creating Layer pool1
I0507 07:43:17.115314  2367 net.cpp:434] pool1 <- conv1
I0507 07:43:17.115320  2367 net.cpp:408] pool1 -> pool1
I0507 07:43:17.115396  2367 net.cpp:150] Setting up pool1
I0507 07:43:17.115411  2367 net.cpp:157] Top shape: 512 100 21 21 (22579200)
I0507 07:43:17.115417  2367 net.cpp:165] Memory required for data: 827015168
I0507 07:43:17.115422  2367 layer_factory.hpp:77] Creating layer conv2
I0507 07:43:17.115442  2367 net.cpp:100] Creating Layer conv2
I0507 07:43:17.115447  2367 net.cpp:434] conv2 <- pool1
I0507 07:43:17.115453  2367 net.cpp:408] conv2 -> conv2
I0507 07:43:17.124816  2367 net.cpp:150] Setting up conv2
I0507 07:43:17.124840  2367 net.cpp:157] Top shape: 512 150 18 18 (24883200)
I0507 07:43:17.124848  2367 net.cpp:165] Memory required for data: 926547968
I0507 07:43:17.124866  2367 layer_factory.hpp:77] Creating layer conv2_relu
I0507 07:43:17.124876  2367 net.cpp:100] Creating Layer conv2_relu
I0507 07:43:17.124886  2367 net.cpp:434] conv2_relu <- conv2
I0507 07:43:17.124897  2367 net.cpp:395] conv2_relu -> conv2 (in-place)
I0507 07:43:17.126318  2367 net.cpp:150] Setting up conv2_relu
I0507 07:43:17.126341  2367 net.cpp:157] Top shape: 512 150 18 18 (24883200)
I0507 07:43:17.126346  2367 net.cpp:165] Memory required for data: 1026080768
I0507 07:43:17.126353  2367 layer_factory.hpp:77] Creating layer pool2
I0507 07:43:17.126363  2367 net.cpp:100] Creating Layer pool2
I0507 07:43:17.126368  2367 net.cpp:434] pool2 <- conv2
I0507 07:43:17.126377  2367 net.cpp:408] pool2 -> pool2
I0507 07:43:17.126446  2367 net.cpp:150] Setting up pool2
I0507 07:43:17.126459  2367 net.cpp:157] Top shape: 512 150 9 9 (6220800)
I0507 07:43:17.126466  2367 net.cpp:165] Memory required for data: 1050963968
I0507 07:43:17.126472  2367 layer_factory.hpp:77] Creating layer conv3
I0507 07:43:17.126488  2367 net.cpp:100] Creating Layer conv3
I0507 07:43:17.126495  2367 net.cpp:434] conv3 <- pool2
I0507 07:43:17.126504  2367 net.cpp:408] conv3 -> conv3
I0507 07:43:17.138411  2367 net.cpp:150] Setting up conv3
I0507 07:43:17.138434  2367 net.cpp:157] Top shape: 512 250 6 6 (4608000)
I0507 07:43:17.138442  2367 net.cpp:165] Memory required for data: 1069395968
I0507 07:43:17.138458  2367 layer_factory.hpp:77] Creating layer conv3_relu
I0507 07:43:17.138470  2367 net.cpp:100] Creating Layer conv3_relu
I0507 07:43:17.138479  2367 net.cpp:434] conv3_relu <- conv3
I0507 07:43:17.138494  2367 net.cpp:395] conv3_relu -> conv3 (in-place)
I0507 07:43:17.145057  2367 net.cpp:150] Setting up conv3_relu
I0507 07:43:17.145081  2367 net.cpp:157] Top shape: 512 250 6 6 (4608000)
I0507 07:43:17.145088  2367 net.cpp:165] Memory required for data: 1087827968
I0507 07:43:17.145094  2367 layer_factory.hpp:77] Creating layer pool3
I0507 07:43:17.145107  2367 net.cpp:100] Creating Layer pool3
I0507 07:43:17.145114  2367 net.cpp:434] pool3 <- conv3
I0507 07:43:17.145124  2367 net.cpp:408] pool3 -> pool3
I0507 07:43:17.145206  2367 net.cpp:150] Setting up pool3
I0507 07:43:17.145231  2367 net.cpp:157] Top shape: 512 250 3 3 (1152000)
I0507 07:43:17.145241  2367 net.cpp:165] Memory required for data: 1092435968
I0507 07:43:17.145246  2367 layer_factory.hpp:77] Creating layer fc4_300
I0507 07:43:17.145259  2367 net.cpp:100] Creating Layer fc4_300
I0507 07:43:17.145268  2367 net.cpp:434] fc4_300 <- pool3
I0507 07:43:17.145283  2367 net.cpp:408] fc4_300 -> fc4_300
I0507 07:43:17.158258  2367 net.cpp:150] Setting up fc4_300
I0507 07:43:17.158289  2367 net.cpp:157] Top shape: 512 300 (153600)
I0507 07:43:17.158295  2367 net.cpp:165] Memory required for data: 1093050368
I0507 07:43:17.158308  2367 layer_factory.hpp:77] Creating layer fc4_relu
I0507 07:43:17.158319  2367 net.cpp:100] Creating Layer fc4_relu
I0507 07:43:17.158325  2367 net.cpp:434] fc4_relu <- fc4_300
I0507 07:43:17.158339  2367 net.cpp:395] fc4_relu -> fc4_300 (in-place)
I0507 07:43:17.158685  2367 net.cpp:150] Setting up fc4_relu
I0507 07:43:17.158704  2367 net.cpp:157] Top shape: 512 300 (153600)
I0507 07:43:17.158710  2367 net.cpp:165] Memory required for data: 1093664768
I0507 07:43:17.158715  2367 layer_factory.hpp:77] Creating layer fc5_116
I0507 07:43:17.158725  2367 net.cpp:100] Creating Layer fc5_116
I0507 07:43:17.158731  2367 net.cpp:434] fc5_116 <- fc4_300
I0507 07:43:17.158742  2367 net.cpp:408] fc5_116 -> fc5_classes
I0507 07:43:17.167181  2367 net.cpp:150] Setting up fc5_116
I0507 07:43:17.167208  2367 net.cpp:157] Top shape: 512 116 (59392)
I0507 07:43:17.167214  2367 net.cpp:165] Memory required for data: 1093902336
I0507 07:43:17.167233  2367 layer_factory.hpp:77] Creating layer fc5_classes_fc5_116_0_split
I0507 07:43:17.167246  2367 net.cpp:100] Creating Layer fc5_classes_fc5_116_0_split
I0507 07:43:17.167265  2367 net.cpp:434] fc5_classes_fc5_116_0_split <- fc5_classes
I0507 07:43:17.167284  2367 net.cpp:408] fc5_classes_fc5_116_0_split -> fc5_classes_fc5_116_0_split_0
I0507 07:43:17.167302  2367 net.cpp:408] fc5_classes_fc5_116_0_split -> fc5_classes_fc5_116_0_split_1
I0507 07:43:17.167315  2367 net.cpp:408] fc5_classes_fc5_116_0_split -> fc5_classes_fc5_116_0_split_2
I0507 07:43:17.167409  2367 net.cpp:150] Setting up fc5_classes_fc5_116_0_split
I0507 07:43:17.167421  2367 net.cpp:157] Top shape: 512 116 (59392)
I0507 07:43:17.167429  2367 net.cpp:157] Top shape: 512 116 (59392)
I0507 07:43:17.167435  2367 net.cpp:157] Top shape: 512 116 (59392)
I0507 07:43:17.167441  2367 net.cpp:165] Memory required for data: 1094615040
I0507 07:43:17.167446  2367 layer_factory.hpp:77] Creating layer softmax
I0507 07:43:17.167460  2367 net.cpp:100] Creating Layer softmax
I0507 07:43:17.167469  2367 net.cpp:434] softmax <- fc5_classes_fc5_116_0_split_0
I0507 07:43:17.167477  2367 net.cpp:408] softmax -> softmax
I0507 07:43:17.168004  2367 net.cpp:150] Setting up softmax
I0507 07:43:17.168026  2367 net.cpp:157] Top shape: 512 116 (59392)
I0507 07:43:17.168033  2367 net.cpp:165] Memory required for data: 1094852608
I0507 07:43:17.168040  2367 layer_factory.hpp:77] Creating layer loss
I0507 07:43:17.168058  2367 net.cpp:100] Creating Layer loss
I0507 07:43:17.168090  2367 net.cpp:434] loss <- softmax
I0507 07:43:17.168102  2367 net.cpp:434] loss <- label_data_1_split_0
I0507 07:43:17.168114  2367 net.cpp:408] loss -> loss
…
