…
I0528 22:40:11.206856  1322 solver.cpp:81] Creating training net from train_net file: ./Prototxt/experiment_22/RTSD/AHE/trial_3/train.prototxt
I0528 22:40:11.219380  1322 net.cpp:58] Initializing net from parameters: 
state {
  phase: TRAIN
  level: 0
  stage: ""
}
layer {
  name: "data"
  type: "Data"
  top: "data"
  top: "label"
  include {
    phase: TRAIN
  }
  transform_param {
    scale: 0.0039215689
    mirror: false
    crop_size: 48
    mean_value: 133
    mean_value: 127
    mean_value: 126
  }
  data_param {
    source: "../local_data/lmdb/RTSD/AHE/train/lmdb"
    batch_size: 1024
    backend: LMDB
  }
}
layer {
  name: "conv1"
  type: "Convolution"
  bottom: "data"
  top: "conv1"
  convolution_param {
    num_output: 100
    pad: 0
    kernel_size: 7
    group: 1
    stride: 1
    weight_filler {
      type: "xavier"
    }
  }
}
layer {
  name: "conv1_relu"
  type: "ReLU"
  bottom: "conv1"
  top: "conv1"
}
layer {
  name: "pool1"
  type: "Pooling"
  bottom: "conv1"
  top: "pool1"
  pooling_param {
    pool: MAX
    kernel_size: 2
    stride: 2
  }
}
layer {
  name: "conv2"
  type: "Convolution"
  bottom: "pool1"
  top: "conv2"
  convolution_param {
    num_output: 150
    pad: 0
    kernel_size: 4
    group: 1
    stride: 1
    weight_filler {
      type: "xavier"
    }
  }
}
layer {
  name: "conv2_relu"
  type: "ReLU"
  bottom: "conv2"
  top: "conv2"
}
layer {
  name: "pool2"
  type: "Pooling"
  bottom: "conv2"
  top: "pool2"
  pooling_param {
    pool: MAX
    kernel_size: 2
    stride: 2
  }
}
layer {
  name: "conv3"
  type: "Convolution"
  bottom: "pool2"
  top: "conv3"
  convolution_param {
    num_output: 250
    pad: 0
    kernel_size: 4
    group: 1
    stride: 1
    weight_filler {
      type: "xavier"
    }
  }
}
layer {
  name: "conv3_relu"
  type: "ReLU"
  bottom: "conv3"
  top: "conv3"
}
layer {
  name: "pool3"
  type: "Pooling"
  bottom: "conv3"
  top: "pool3"
  pooling_param {
    pool: MAX
    kernel_size: 2
    stride: 2
  }
}
layer {
  name: "fc4_300"
  type: "InnerProduct"
  bottom: "pool3"
  top: "fc4_300"
  inner_product_param {
    num_output: 300
    weight_filler {
      type: "xavier"
    }
  }
}
layer {
  name: "fc4_relu"
  type: "ReLU"
  bottom: "fc4_300"
  top: "fc4_300"
}
layer {
  name: "fc5_116"
  type: "InnerProduct"
  bottom: "fc4_300"
  top: "fc5_classes"
  inner_product_param {
    num_output: 116
    weight_filler {
      type: "xavier"
    }
  }
}
layer {
  name: "softmax"
  type: "Softmax"
  bottom: "fc5_classes"
  top: "softmax"
}
layer {
  name: "loss"
  type: "MultinomialLogisticLoss"
  bottom: "softmax"
  bottom: "label"
  top: "loss"
}
layer {
  name: "accuracy_1"
  type: "Accuracy"
  bottom: "fc5_classes"
  bottom: "label"
  top: "accuracy_1"
  accuracy_param {
    top_k: 1
  }
}
layer {
  name: "accuracy_5"
  type: "Accuracy"
  bottom: "fc5_classes"
  bottom: "label"
  top: "accuracy_5"
  accuracy_param {
    top_k: 5
  }
}
layer {
  name: "silence"
  type: "Silence"
  bottom: "accuracy_1"
  bottom: "accuracy_5"
}
I0528 22:40:11.219557  1322 layer_factory.hpp:77] Creating layer data
I0528 22:40:11.220755  1322 net.cpp:100] Creating Layer data
I0528 22:40:11.220840  1322 net.cpp:408] data -> data
I0528 22:40:11.220911  1322 net.cpp:408] data -> label
I0528 22:40:11.244395  1388 db_lmdb.cpp:35] Opened lmdb ../local_data/lmdb/RTSD/AHE/train/lmdb
I0528 22:40:11.268254  1322 data_layer.cpp:41] output data size: 1024,3,48,48
I0528 22:40:11.314115  1322 net.cpp:150] Setting up data
I0528 22:40:11.314185  1322 net.cpp:157] Top shape: 1024 3 48 48 (7077888)
I0528 22:40:11.314196  1322 net.cpp:157] Top shape: 1024 (1024)
I0528 22:40:11.314203  1322 net.cpp:165] Memory required for data: 28315648
I0528 22:40:11.314214  1322 layer_factory.hpp:77] Creating layer label_data_1_split
I0528 22:40:11.314229  1322 net.cpp:100] Creating Layer label_data_1_split
I0528 22:40:11.314249  1322 net.cpp:434] label_data_1_split <- label
I0528 22:40:11.314263  1322 net.cpp:408] label_data_1_split -> label_data_1_split_0
I0528 22:40:11.314285  1322 net.cpp:408] label_data_1_split -> label_data_1_split_1
I0528 22:40:11.314296  1322 net.cpp:408] label_data_1_split -> label_data_1_split_2
I0528 22:40:11.314770  1322 net.cpp:150] Setting up label_data_1_split
I0528 22:40:11.314792  1322 net.cpp:157] Top shape: 1024 (1024)
I0528 22:40:11.314797  1322 net.cpp:157] Top shape: 1024 (1024)
I0528 22:40:11.314805  1322 net.cpp:157] Top shape: 1024 (1024)
I0528 22:40:11.314810  1322 net.cpp:165] Memory required for data: 28327936
I0528 22:40:11.314815  1322 layer_factory.hpp:77] Creating layer conv1
I0528 22:40:11.314842  1322 net.cpp:100] Creating Layer conv1
I0528 22:40:11.314852  1322 net.cpp:434] conv1 <- data
I0528 22:40:11.314869  1322 net.cpp:408] conv1 -> conv1
I0528 22:40:11.621693  1322 net.cpp:150] Setting up conv1
I0528 22:40:11.621737  1322 net.cpp:157] Top shape: 1024 100 42 42 (180633600)
I0528 22:40:11.621742  1322 net.cpp:165] Memory required for data: 750862336
I0528 22:40:11.621767  1322 layer_factory.hpp:77] Creating layer conv1_relu
I0528 22:40:11.621778  1322 net.cpp:100] Creating Layer conv1_relu
I0528 22:40:11.621783  1322 net.cpp:434] conv1_relu <- conv1
I0528 22:40:11.621789  1322 net.cpp:395] conv1_relu -> conv1 (in-place)
I0528 22:40:11.621974  1322 net.cpp:150] Setting up conv1_relu
I0528 22:40:11.621985  1322 net.cpp:157] Top shape: 1024 100 42 42 (180633600)
I0528 22:40:11.621989  1322 net.cpp:165] Memory required for data: 1473396736
I0528 22:40:11.621994  1322 layer_factory.hpp:77] Creating layer pool1
I0528 22:40:11.622010  1322 net.cpp:100] Creating Layer pool1
I0528 22:40:11.622015  1322 net.cpp:434] pool1 <- conv1
I0528 22:40:11.622020  1322 net.cpp:408] pool1 -> pool1
I0528 22:40:11.622077  1322 net.cpp:150] Setting up pool1
I0528 22:40:11.622084  1322 net.cpp:157] Top shape: 1024 100 21 21 (45158400)
I0528 22:40:11.622088  1322 net.cpp:165] Memory required for data: 1654030336
I0528 22:40:11.622092  1322 layer_factory.hpp:77] Creating layer conv2
I0528 22:40:11.622102  1322 net.cpp:100] Creating Layer conv2
I0528 22:40:11.622105  1322 net.cpp:434] conv2 <- pool1
I0528 22:40:11.622110  1322 net.cpp:408] conv2 -> conv2
I0528 22:40:11.626266  1322 net.cpp:150] Setting up conv2
I0528 22:40:11.626312  1322 net.cpp:157] Top shape: 1024 150 18 18 (49766400)
I0528 22:40:11.626318  1322 net.cpp:165] Memory required for data: 1853095936
I0528 22:40:11.626345  1322 layer_factory.hpp:77] Creating layer conv2_relu
I0528 22:40:11.626358  1322 net.cpp:100] Creating Layer conv2_relu
I0528 22:40:11.626364  1322 net.cpp:434] conv2_relu <- conv2
I0528 22:40:11.626374  1322 net.cpp:395] conv2_relu -> conv2 (in-place)
I0528 22:40:11.626559  1322 net.cpp:150] Setting up conv2_relu
I0528 22:40:11.626581  1322 net.cpp:157] Top shape: 1024 150 18 18 (49766400)
I0528 22:40:11.626587  1322 net.cpp:165] Memory required for data: 2052161536
I0528 22:40:11.626593  1322 layer_factory.hpp:77] Creating layer pool2
I0528 22:40:11.626610  1322 net.cpp:100] Creating Layer pool2
I0528 22:40:11.626619  1322 net.cpp:434] pool2 <- conv2
I0528 22:40:11.626636  1322 net.cpp:408] pool2 -> pool2
I0528 22:40:11.626693  1322 net.cpp:150] Setting up pool2
I0528 22:40:11.626704  1322 net.cpp:157] Top shape: 1024 150 9 9 (12441600)
I0528 22:40:11.626710  1322 net.cpp:165] Memory required for data: 2101927936
I0528 22:40:11.626715  1322 layer_factory.hpp:77] Creating layer conv3
I0528 22:40:11.626739  1322 net.cpp:100] Creating Layer conv3
I0528 22:40:11.626778  1322 net.cpp:434] conv3 <- pool2
I0528 22:40:11.626819  1322 net.cpp:408] conv3 -> conv3
I0528 22:40:11.633853  1322 net.cpp:150] Setting up conv3
I0528 22:40:11.633952  1322 net.cpp:157] Top shape: 1024 250 6 6 (9216000)
I0528 22:40:11.633963  1322 net.cpp:165] Memory required for data: 2138791936
I0528 22:40:11.633991  1322 layer_factory.hpp:77] Creating layer conv3_relu
I0528 22:40:11.634016  1322 net.cpp:100] Creating Layer conv3_relu
I0528 22:40:11.634026  1322 net.cpp:434] conv3_relu <- conv3
I0528 22:40:11.634043  1322 net.cpp:395] conv3_relu -> conv3 (in-place)
I0528 22:40:11.634707  1322 net.cpp:150] Setting up conv3_relu
I0528 22:40:11.634737  1322 net.cpp:157] Top shape: 1024 250 6 6 (9216000)
I0528 22:40:11.634759  1322 net.cpp:165] Memory required for data: 2175655936
I0528 22:40:11.634776  1322 layer_factory.hpp:77] Creating layer pool3
I0528 22:40:11.634805  1322 net.cpp:100] Creating Layer pool3
I0528 22:40:11.634819  1322 net.cpp:434] pool3 <- conv3
I0528 22:40:11.634846  1322 net.cpp:408] pool3 -> pool3
I0528 22:40:11.634955  1322 net.cpp:150] Setting up pool3
I0528 22:40:11.634984  1322 net.cpp:157] Top shape: 1024 250 3 3 (2304000)
I0528 22:40:11.634994  1322 net.cpp:165] Memory required for data: 2184871936
I0528 22:40:11.635007  1322 layer_factory.hpp:77] Creating layer fc4_300
I0528 22:40:11.635035  1322 net.cpp:100] Creating Layer fc4_300
I0528 22:40:11.635051  1322 net.cpp:434] fc4_300 <- pool3
I0528 22:40:11.635069  1322 net.cpp:408] fc4_300 -> fc4_300
I0528 22:40:11.642398  1322 net.cpp:150] Setting up fc4_300
I0528 22:40:11.642498  1322 net.cpp:157] Top shape: 1024 300 (307200)
I0528 22:40:11.642527  1322 net.cpp:165] Memory required for data: 2186100736
I0528 22:40:11.642560  1322 layer_factory.hpp:77] Creating layer fc4_relu
I0528 22:40:11.642593  1322 net.cpp:100] Creating Layer fc4_relu
I0528 22:40:11.642621  1322 net.cpp:434] fc4_relu <- fc4_300
I0528 22:40:11.642652  1322 net.cpp:395] fc4_relu -> fc4_300 (in-place)
I0528 22:40:11.642899  1322 net.cpp:150] Setting up fc4_relu
I0528 22:40:11.642946  1322 net.cpp:157] Top shape: 1024 300 (307200)
I0528 22:40:11.642971  1322 net.cpp:165] Memory required for data: 2187329536
I0528 22:40:11.642994  1322 layer_factory.hpp:77] Creating layer fc5_116
I0528 22:40:11.643025  1322 net.cpp:100] Creating Layer fc5_116
I0528 22:40:11.643050  1322 net.cpp:434] fc5_116 <- fc4_300
I0528 22:40:11.643079  1322 net.cpp:408] fc5_116 -> fc5_classes
I0528 22:40:11.644752  1322 net.cpp:150] Setting up fc5_116
I0528 22:40:11.644814  1322 net.cpp:157] Top shape: 1024 116 (118784)
I0528 22:40:11.644834  1322 net.cpp:165] Memory required for data: 2187804672
I0528 22:40:11.644862  1322 layer_factory.hpp:77] Creating layer fc5_classes_fc5_116_0_split
I0528 22:40:11.644886  1322 net.cpp:100] Creating Layer fc5_classes_fc5_116_0_split
I0528 22:40:11.644906  1322 net.cpp:434] fc5_classes_fc5_116_0_split <- fc5_classes
I0528 22:40:11.644927  1322 net.cpp:408] fc5_classes_fc5_116_0_split -> fc5_classes_fc5_116_0_split_0
I0528 22:40:11.644950  1322 net.cpp:408] fc5_classes_fc5_116_0_split -> fc5_classes_fc5_116_0_split_1
I0528 22:40:11.644973  1322 net.cpp:408] fc5_classes_fc5_116_0_split -> fc5_classes_fc5_116_0_split_2
I0528 22:40:11.645040  1322 net.cpp:150] Setting up fc5_classes_fc5_116_0_split
I0528 22:40:11.645064  1322 net.cpp:157] Top shape: 1024 116 (118784)
I0528 22:40:11.645081  1322 net.cpp:157] Top shape: 1024 116 (118784)
I0528 22:40:11.645099  1322 net.cpp:157] Top shape: 1024 116 (118784)
I0528 22:40:11.645115  1322 net.cpp:165] Memory required for data: 2189230080
I0528 22:40:11.645131  1322 layer_factory.hpp:77] Creating layer softmax
I0528 22:40:11.645150  1322 net.cpp:100] Creating Layer softmax
I0528 22:40:11.645166  1322 net.cpp:434] softmax <- fc5_classes_fc5_116_0_split_0
I0528 22:40:11.645186  1322 net.cpp:408] softmax -> softmax
I0528 22:40:11.645473  1322 net.cpp:150] Setting up softmax
I0528 22:40:11.645503  1322 net.cpp:157] Top shape: 1024 116 (118784)
I0528 22:40:11.645530  1322 net.cpp:165] Memory required for data: 2189705216
I0528 22:40:11.645555  1322 layer_factory.hpp:77] Creating layer loss
I0528 22:40:11.645594  1322 net.cpp:100] Creating Layer loss
I0528 22:40:11.645640  1322 net.cpp:434] loss <- softmax
I0528 22:40:11.645668  1322 net.cpp:434] loss <- label_data_1_split_0
I0528 22:40:11.645694  1322 net.cpp:408] loss -> loss
…
