…
I0409 07:29:38.003096 20020 net.cpp:322] The NetState phase (0) differed from the phase (1) specified by a rule in layer accuracy_5
I0409 07:29:38.003187 20020 net.cpp:58] Initializing net from parameters: 
state {
  phase: TRAIN
  level: 0
  stage: ""
}
layer {
  name: "data"
  type: "Data"
  top: "data"
  top: "label"
  include {
    phase: TRAIN
  }
  transform_param {
    mirror: false
    crop_size: 48
    mean_value: 132
    mean_value: 126
    mean_value: 140
  }
  data_param {
    source: "../local_data/lmdb/rtsd-r1/AHE/train/lmdb"
    batch_size: 1024
    backend: LMDB
  }
}
layer {
  name: "conv1"
  type: "Convolution"
  bottom: "data"
  top: "conv1"
  convolution_param {
    num_output: 100
    pad: 0
    kernel_size: 7
    group: 1
    stride: 1
    weight_filler {
      type: "xavier"
    }
  }
}
layer {
  name: "conv1_relu"
  type: "ReLU"
  bottom: "conv1"
  top: "conv1"
}
layer {
  name: "pool1"
  type: "Pooling"
  bottom: "conv1"
  top: "pool1"
  pooling_param {
    pool: MAX
    kernel_size: 2
    stride: 2
  }
}
layer {
  name: "conv2"
  type: "Convolution"
  bottom: "pool1"
  top: "conv2"
  convolution_param {
    num_output: 150
    pad: 0
    kernel_size: 4
    group: 1
    stride: 1
    weight_filler {
      type: "xavier"
    }
  }
}
layer {
  name: "conv2_relu"
  type: "ReLU"
  bottom: "conv2"
  top: "conv2"
}
layer {
  name: "pool2"
  type: "Pooling"
  bottom: "conv2"
  top: "pool2"
  pooling_param {
    pool: MAX
    kernel_size: 2
    stride: 2
  }
}
layer {
  name: "conv3"
  type: "Convolution"
  bottom: "pool2"
  top: "conv3"
  convolution_param {
    num_output: 250
    pad: 0
    kernel_size: 4
    group: 1
    stride: 1
    weight_filler {
      type: "xavier"
    }
  }
}
layer {
  name: "conv3_relu"
  type: "ReLU"
  bottom: "conv3"
  top: "conv3"
}
layer {
  name: "pool3"
  type: "Pooling"
  bottom: "conv3"
  top: "pool3"
  pooling_param {
    pool: MAX
    kernel_size: 2
    stride: 2
  }
}
layer {
  name: "fc4_300"
  type: "InnerProduct"
  bottom: "pool3"
  top: "fc4_300"
  inner_product_param {
    num_output: 300
    weight_filler {
      type: "xavier"
    }
  }
}
layer {
  name: "fc4_relu"
  type: "ReLU"
  bottom: "fc4_300"
  top: "fc4_300"
}
layer {
  name: "drop4"
  type: "Dropout"
  bottom: "fc4_300"
  top: "fc4_300"
  dropout_param {
    dropout_ratio: 0.4
  }
}
layer {
  name: "fc5_67"
  type: "InnerProduct"
  bottom: "fc4_300"
  top: "fc5_classes"
  inner_product_param {
    num_output: 67
    weight_filler {
      type: "xavier"
    }
  }
}
layer {
  name: "loss"
  type: "SoftmaxWithLoss"
  bottom: "fc5_classes"
  bottom: "label"
  top: "loss"
}
I0409 07:29:38.003273 20020 layer_factory.hpp:77] Creating layer data
I0409 07:29:38.004360 20020 net.cpp:100] Creating Layer data
I0409 07:29:38.004376 20020 net.cpp:408] data -> data
I0409 07:29:38.004400 20020 net.cpp:408] data -> label
I0409 07:29:38.006002 20070 db_lmdb.cpp:35] Opened lmdb ../local_data/lmdb/rtsd-r1/AHE/train/lmdb
I0409 07:29:38.022617 20020 data_layer.cpp:41] output data size: 1024,3,48,48
I0409 07:29:38.064139 20020 net.cpp:150] Setting up data
I0409 07:29:38.064175 20020 net.cpp:157] Top shape: 1024 3 48 48 (7077888)
I0409 07:29:38.064182 20020 net.cpp:157] Top shape: 1024 (1024)
I0409 07:29:38.064210 20020 net.cpp:165] Memory required for data: 28315648
I0409 07:29:38.064221 20020 layer_factory.hpp:77] Creating layer conv1
I0409 07:29:38.064244 20020 net.cpp:100] Creating Layer conv1
I0409 07:29:38.064252 20020 net.cpp:434] conv1 <- data
I0409 07:29:38.064266 20020 net.cpp:408] conv1 -> conv1
I0409 07:29:38.328758 20020 net.cpp:150] Setting up conv1
I0409 07:29:38.328789 20020 net.cpp:157] Top shape: 1024 100 42 42 (180633600)
I0409 07:29:38.328794 20020 net.cpp:165] Memory required for data: 750850048
I0409 07:29:38.328829 20020 layer_factory.hpp:77] Creating layer conv1_relu
I0409 07:29:38.328843 20020 net.cpp:100] Creating Layer conv1_relu
I0409 07:29:38.328850 20020 net.cpp:434] conv1_relu <- conv1
I0409 07:29:38.328856 20020 net.cpp:395] conv1_relu -> conv1 (in-place)
I0409 07:29:38.329051 20020 net.cpp:150] Setting up conv1_relu
I0409 07:29:38.329064 20020 net.cpp:157] Top shape: 1024 100 42 42 (180633600)
I0409 07:29:38.329068 20020 net.cpp:165] Memory required for data: 1473384448
I0409 07:29:38.329071 20020 layer_factory.hpp:77] Creating layer pool1
I0409 07:29:38.329079 20020 net.cpp:100] Creating Layer pool1
I0409 07:29:38.329082 20020 net.cpp:434] pool1 <- conv1
I0409 07:29:38.329087 20020 net.cpp:408] pool1 -> pool1
I0409 07:29:38.329140 20020 net.cpp:150] Setting up pool1
I0409 07:29:38.329149 20020 net.cpp:157] Top shape: 1024 100 21 21 (45158400)
I0409 07:29:38.329152 20020 net.cpp:165] Memory required for data: 1654018048
I0409 07:29:38.329155 20020 layer_factory.hpp:77] Creating layer conv2
I0409 07:29:38.329167 20020 net.cpp:100] Creating Layer conv2
I0409 07:29:38.329172 20020 net.cpp:434] conv2 <- pool1
I0409 07:29:38.329177 20020 net.cpp:408] conv2 -> conv2
I0409 07:29:38.333467 20020 net.cpp:150] Setting up conv2
I0409 07:29:38.333484 20020 net.cpp:157] Top shape: 1024 150 18 18 (49766400)
I0409 07:29:38.333488 20020 net.cpp:165] Memory required for data: 1853083648
I0409 07:29:38.333498 20020 layer_factory.hpp:77] Creating layer conv2_relu
I0409 07:29:38.333508 20020 net.cpp:100] Creating Layer conv2_relu
I0409 07:29:38.333510 20020 net.cpp:434] conv2_relu <- conv2
I0409 07:29:38.333516 20020 net.cpp:395] conv2_relu -> conv2 (in-place)
I0409 07:29:38.334255 20020 net.cpp:150] Setting up conv2_relu
I0409 07:29:38.334271 20020 net.cpp:157] Top shape: 1024 150 18 18 (49766400)
I0409 07:29:38.334275 20020 net.cpp:165] Memory required for data: 2052149248
I0409 07:29:38.334280 20020 layer_factory.hpp:77] Creating layer pool2
I0409 07:29:38.334286 20020 net.cpp:100] Creating Layer pool2
I0409 07:29:38.334290 20020 net.cpp:434] pool2 <- conv2
I0409 07:29:38.334296 20020 net.cpp:408] pool2 -> pool2
I0409 07:29:38.334342 20020 net.cpp:150] Setting up pool2
I0409 07:29:38.334352 20020 net.cpp:157] Top shape: 1024 150 9 9 (12441600)
I0409 07:29:38.334354 20020 net.cpp:165] Memory required for data: 2101915648
I0409 07:29:38.334357 20020 layer_factory.hpp:77] Creating layer conv3
I0409 07:29:38.334365 20020 net.cpp:100] Creating Layer conv3
I0409 07:29:38.334368 20020 net.cpp:434] conv3 <- pool2
I0409 07:29:38.334373 20020 net.cpp:408] conv3 -> conv3
I0409 07:29:38.339797 20020 net.cpp:150] Setting up conv3
I0409 07:29:38.339814 20020 net.cpp:157] Top shape: 1024 250 6 6 (9216000)
I0409 07:29:38.339818 20020 net.cpp:165] Memory required for data: 2138779648
I0409 07:29:38.339829 20020 layer_factory.hpp:77] Creating layer conv3_relu
I0409 07:29:38.339836 20020 net.cpp:100] Creating Layer conv3_relu
I0409 07:29:38.339843 20020 net.cpp:434] conv3_relu <- conv3
I0409 07:29:38.339848 20020 net.cpp:395] conv3_relu -> conv3 (in-place)
I0409 07:29:38.340618 20020 net.cpp:150] Setting up conv3_relu
I0409 07:29:38.340636 20020 net.cpp:157] Top shape: 1024 250 6 6 (9216000)
I0409 07:29:38.340638 20020 net.cpp:165] Memory required for data: 2175643648
I0409 07:29:38.340642 20020 layer_factory.hpp:77] Creating layer pool3
I0409 07:29:38.340662 20020 net.cpp:100] Creating Layer pool3
I0409 07:29:38.340667 20020 net.cpp:434] pool3 <- conv3
I0409 07:29:38.340672 20020 net.cpp:408] pool3 -> pool3
I0409 07:29:38.340740 20020 net.cpp:150] Setting up pool3
I0409 07:29:38.340750 20020 net.cpp:157] Top shape: 1024 250 3 3 (2304000)
I0409 07:29:38.340754 20020 net.cpp:165] Memory required for data: 2184859648
I0409 07:29:38.340757 20020 layer_factory.hpp:77] Creating layer fc4_300
I0409 07:29:38.340764 20020 net.cpp:100] Creating Layer fc4_300
I0409 07:29:38.340768 20020 net.cpp:434] fc4_300 <- pool3
I0409 07:29:38.340773 20020 net.cpp:408] fc4_300 -> fc4_300
I0409 07:29:38.346012 20020 net.cpp:150] Setting up fc4_300
I0409 07:29:38.346029 20020 net.cpp:157] Top shape: 1024 300 (307200)
I0409 07:29:38.346034 20020 net.cpp:165] Memory required for data: 2186088448
I0409 07:29:38.346040 20020 layer_factory.hpp:77] Creating layer fc4_relu
I0409 07:29:38.346050 20020 net.cpp:100] Creating Layer fc4_relu
I0409 07:29:38.346053 20020 net.cpp:434] fc4_relu <- fc4_300
I0409 07:29:38.346060 20020 net.cpp:395] fc4_relu -> fc4_300 (in-place)
I0409 07:29:38.346251 20020 net.cpp:150] Setting up fc4_relu
I0409 07:29:38.346263 20020 net.cpp:157] Top shape: 1024 300 (307200)
I0409 07:29:38.346266 20020 net.cpp:165] Memory required for data: 2187317248
I0409 07:29:38.346276 20020 layer_factory.hpp:77] Creating layer drop4
I0409 07:29:38.346285 20020 net.cpp:100] Creating Layer drop4
I0409 07:29:38.346288 20020 net.cpp:434] drop4 <- fc4_300
I0409 07:29:38.346294 20020 net.cpp:395] drop4 -> fc4_300 (in-place)
I0409 07:29:38.346328 20020 net.cpp:150] Setting up drop4
I0409 07:29:38.346335 20020 net.cpp:157] Top shape: 1024 300 (307200)
I0409 07:29:38.346338 20020 net.cpp:165] Memory required for data: 2188546048
I0409 07:29:38.346343 20020 layer_factory.hpp:77] Creating layer fc5_67
I0409 07:29:38.346349 20020 net.cpp:100] Creating Layer fc5_67
I0409 07:29:38.346351 20020 net.cpp:434] fc5_67 <- fc4_300
I0409 07:29:38.346359 20020 net.cpp:408] fc5_67 -> fc5_classes
I0409 07:29:38.347544 20020 net.cpp:150] Setting up fc5_67
I0409 07:29:38.347560 20020 net.cpp:157] Top shape: 1024 67 (68608)
I0409 07:29:38.347563 20020 net.cpp:165] Memory required for data: 2188820480
I0409 07:29:38.347585 20020 layer_factory.hpp:77] Creating layer loss
I0409 07:29:38.347594 20020 net.cpp:100] Creating Layer loss
I0409 07:29:38.347597 20020 net.cpp:434] loss <- fc5_classes
I0409 07:29:38.347602 20020 net.cpp:434] loss <- label
I0409 07:29:38.347610 20020 net.cpp:408] loss -> loss
I0409 07:29:38.347622 20020 layer_factory.hpp:77] Creating layer loss
…
I0409 07:29:38.348286 20020 solver.cpp:193] Creating test net (#0) specified by test_net file: ./Prototxt/experiment_6/rtsd-r1/AHE/trial_2/test.prototxt
I0409 07:29:38.348425 20020 net.cpp:58] Initializing net from parameters: 
state {
  phase: TEST
}
layer {
  name: "data"
  type: "Data"
  top: "data"
  top: "label"
  include {
    phase: TEST
  }
  transform_param {
    mirror: false
    crop_size: 48
    mean_value: 126
    mean_value: 124
    mean_value: 145
  }
  data_param {
    source: "../local_data/lmdb/rtsd-r1/AHE/test/lmdb"
    batch_size: 1024
    backend: LMDB
  }
}
layer {
  name: "conv1"
  type: "Convolution"
  bottom: "data"
  top: "conv1"
  convolution_param {
    num_output: 100
    pad: 0
    kernel_size: 7
    group: 1
    stride: 1
    weight_filler {
      type: "xavier"
    }
  }
}
layer {
  name: "conv1_relu"
  type: "ReLU"
  bottom: "conv1"
  top: "conv1"
}
layer {
  name: "pool1"
  type: "Pooling"
  bottom: "conv1"
  top: "pool1"
  pooling_param {
    pool: MAX
    kernel_size: 2
    stride: 2
  }
}
layer {
  name: "conv2"
  type: "Convolution"
  bottom: "pool1"
  top: "conv2"
  convolution_param {
    num_output: 150
    pad: 0
    kernel_size: 4
    group: 1
    stride: 1
    weight_filler {
      type: "xavier"
    }
  }
}
layer {
  name: "conv2_relu"
  type: "ReLU"
  bottom: "conv2"
  top: "conv2"
}
layer {
  name: "pool2"
  type: "Pooling"
  bottom: "conv2"
  top: "pool2"
  pooling_param {
    pool: MAX
    kernel_size: 2
    stride: 2
  }
}
layer {
  name: "conv3"
  type: "Convolution"
  bottom: "pool2"
  top: "conv3"
  convolution_param {
    num_output: 250
    pad: 0
    kernel_size: 4
    group: 1
    stride: 1
    weight_filler {
      type: "xavier"
    }
  }
}
layer {
  name: "conv3_relu"
  type: "ReLU"
  bottom: "conv3"
  top: "conv3"
}
layer {
  name: "pool3"
  type: "Pooling"
  bottom: "conv3"
  top: "pool3"
  pooling_param {
    pool: MAX
    kernel_size: 2
    stride: 2
  }
}
layer {
  name: "fc4_300"
  type: "InnerProduct"
  bottom: "pool3"
  top: "fc4_300"
  inner_product_param {
    num_output: 300
    weight_filler {
      type: "xavier"
    }
  }
}
layer {
  name: "fc4_relu"
  type: "ReLU"
  bottom: "fc4_300"
  top: "fc4_300"
}
layer {
  name: "drop4"
  type: "Dropout"
  bottom: "fc4_300"
  top: "fc4_300"
  dropout_param {
    dropout_ratio: 0.4
  }
}
layer {
  name: "fc5_67"
  type: "InnerProduct"
  bottom: "fc4_300"
  top: "fc5_classes"
  inner_product_param {
    num_output: 67
    weight_filler {
      type: "xavier"
    }
  }
}
layer {
  name: "loss"
  type: "SoftmaxWithLoss"
  bottom: "fc5_classes"
  bottom: "label"
  top: "loss"
}
layer {
  name: "accuracy_1"
  type: "Accuracy"
  bottom: "fc5_classes"
  bottom: "label"
  top: "accuracy_1"
  include {
    phase: TEST
  }
  accuracy_param {
    top_k: 1
  }
}
layer {
  name: "accuracy_5"
  type: "Accuracy"
  bottom: "fc5_classes"
  bottom: "label"
  top: "accuracy_5"
  include {
    phase: TEST
  }
  accuracy_param {
    top_k: 5
  }
}
I0409 07:29:38.348520 20020 layer_factory.hpp:77] Creating layer data
I0409 07:29:38.391989 20020 net.cpp:100] Creating Layer data
I0409 07:29:38.392017 20020 net.cpp:408] data -> data
I0409 07:29:38.392036 20020 net.cpp:408] data -> label
I0409 07:29:38.394242 20081 db_lmdb.cpp:35] Opened lmdb ../local_data/lmdb/rtsd-r1/AHE/test/lmdb
I0409 07:29:38.394529 20020 data_layer.cpp:41] output data size: 1024,3,48,48
I0409 07:29:38.434592 20020 net.cpp:150] Setting up data
I0409 07:29:38.434624 20020 net.cpp:157] Top shape: 1024 3 48 48 (7077888)
I0409 07:29:38.434630 20020 net.cpp:157] Top shape: 1024 (1024)
I0409 07:29:38.434633 20020 net.cpp:165] Memory required for data: 28315648
I0409 07:29:38.434640 20020 layer_factory.hpp:77] Creating layer label_data_1_split
I0409 07:29:38.434654 20020 net.cpp:100] Creating Layer label_data_1_split
I0409 07:29:38.434659 20020 net.cpp:434] label_data_1_split <- label
I0409 07:29:38.434666 20020 net.cpp:408] label_data_1_split -> label_data_1_split_0
I0409 07:29:38.434677 20020 net.cpp:408] label_data_1_split -> label_data_1_split_1
I0409 07:29:38.434684 20020 net.cpp:408] label_data_1_split -> label_data_1_split_2
I0409 07:29:38.434864 20020 net.cpp:150] Setting up label_data_1_split
I0409 07:29:38.434875 20020 net.cpp:157] Top shape: 1024 (1024)
I0409 07:29:38.434878 20020 net.cpp:157] Top shape: 1024 (1024)
I0409 07:29:38.434882 20020 net.cpp:157] Top shape: 1024 (1024)
I0409 07:29:38.434885 20020 net.cpp:165] Memory required for data: 28327936
I0409 07:29:38.434888 20020 layer_factory.hpp:77] Creating layer conv1
I0409 07:29:38.434902 20020 net.cpp:100] Creating Layer conv1
I0409 07:29:38.434907 20020 net.cpp:434] conv1 <- data
I0409 07:29:38.434914 20020 net.cpp:408] conv1 -> conv1
I0409 07:29:38.438863 20020 net.cpp:150] Setting up conv1
I0409 07:29:38.438880 20020 net.cpp:157] Top shape: 1024 100 42 42 (180633600)
I0409 07:29:38.438884 20020 net.cpp:165] Memory required for data: 750862336
I0409 07:29:38.438897 20020 layer_factory.hpp:77] Creating layer conv1_relu
I0409 07:29:38.438918 20020 net.cpp:100] Creating Layer conv1_relu
I0409 07:29:38.438925 20020 net.cpp:434] conv1_relu <- conv1
I0409 07:29:38.438931 20020 net.cpp:395] conv1_relu -> conv1 (in-place)
I0409 07:29:38.439143 20020 net.cpp:150] Setting up conv1_relu
I0409 07:29:38.439157 20020 net.cpp:157] Top shape: 1024 100 42 42 (180633600)
I0409 07:29:38.439160 20020 net.cpp:165] Memory required for data: 1473396736
I0409 07:29:38.439163 20020 layer_factory.hpp:77] Creating layer pool1
I0409 07:29:38.439172 20020 net.cpp:100] Creating Layer pool1
I0409 07:29:38.439178 20020 net.cpp:434] pool1 <- conv1
I0409 07:29:38.439184 20020 net.cpp:408] pool1 -> pool1
I0409 07:29:38.439239 20020 net.cpp:150] Setting up pool1
I0409 07:29:38.439250 20020 net.cpp:157] Top shape: 1024 100 21 21 (45158400)
I0409 07:29:38.439254 20020 net.cpp:165] Memory required for data: 1654030336
I0409 07:29:38.439256 20020 layer_factory.hpp:77] Creating layer conv2
I0409 07:29:38.439266 20020 net.cpp:100] Creating Layer conv2
I0409 07:29:38.439272 20020 net.cpp:434] conv2 <- pool1
I0409 07:29:38.439280 20020 net.cpp:408] conv2 -> conv2
I0409 07:29:38.443153 20020 net.cpp:150] Setting up conv2
I0409 07:29:38.443171 20020 net.cpp:157] Top shape: 1024 150 18 18 (49766400)
I0409 07:29:38.443176 20020 net.cpp:165] Memory required for data: 1853095936
I0409 07:29:38.443186 20020 layer_factory.hpp:77] Creating layer conv2_relu
I0409 07:29:38.443192 20020 net.cpp:100] Creating Layer conv2_relu
I0409 07:29:38.443197 20020 net.cpp:434] conv2_relu <- conv2
I0409 07:29:38.443202 20020 net.cpp:395] conv2_relu -> conv2 (in-place)
I0409 07:29:38.444000 20020 net.cpp:150] Setting up conv2_relu
I0409 07:29:38.444018 20020 net.cpp:157] Top shape: 1024 150 18 18 (49766400)
I0409 07:29:38.444022 20020 net.cpp:165] Memory required for data: 2052161536
I0409 07:29:38.444026 20020 layer_factory.hpp:77] Creating layer pool2
I0409 07:29:38.444036 20020 net.cpp:100] Creating Layer pool2
I0409 07:29:38.444039 20020 net.cpp:434] pool2 <- conv2
I0409 07:29:38.444046 20020 net.cpp:408] pool2 -> pool2
I0409 07:29:38.444109 20020 net.cpp:150] Setting up pool2
I0409 07:29:38.444120 20020 net.cpp:157] Top shape: 1024 150 9 9 (12441600)
I0409 07:29:38.444124 20020 net.cpp:165] Memory required for data: 2101927936
I0409 07:29:38.444128 20020 layer_factory.hpp:77] Creating layer conv3
I0409 07:29:38.444141 20020 net.cpp:100] Creating Layer conv3
I0409 07:29:38.444147 20020 net.cpp:434] conv3 <- pool2
I0409 07:29:38.444155 20020 net.cpp:408] conv3 -> conv3
I0409 07:29:38.449703 20020 net.cpp:150] Setting up conv3
I0409 07:29:38.449722 20020 net.cpp:157] Top shape: 1024 250 6 6 (9216000)
I0409 07:29:38.449725 20020 net.cpp:165] Memory required for data: 2138791936
I0409 07:29:38.449735 20020 layer_factory.hpp:77] Creating layer conv3_relu
I0409 07:29:38.449743 20020 net.cpp:100] Creating Layer conv3_relu
I0409 07:29:38.449757 20020 net.cpp:434] conv3_relu <- conv3
I0409 07:29:38.449766 20020 net.cpp:395] conv3_relu -> conv3 (in-place)
I0409 07:29:38.450570 20020 net.cpp:150] Setting up conv3_relu
I0409 07:29:38.450585 20020 net.cpp:157] Top shape: 1024 250 6 6 (9216000)
I0409 07:29:38.450590 20020 net.cpp:165] Memory required for data: 2175655936
I0409 07:29:38.450624 20020 layer_factory.hpp:77] Creating layer pool3
I0409 07:29:38.450633 20020 net.cpp:100] Creating Layer pool3
I0409 07:29:38.450651 20020 net.cpp:434] pool3 <- conv3
I0409 07:29:38.450660 20020 net.cpp:408] pool3 -> pool3
I0409 07:29:38.450716 20020 net.cpp:150] Setting up pool3
I0409 07:29:38.450724 20020 net.cpp:157] Top shape: 1024 250 3 3 (2304000)
I0409 07:29:38.450727 20020 net.cpp:165] Memory required for data: 2184871936
I0409 07:29:38.450731 20020 layer_factory.hpp:77] Creating layer fc4_300
I0409 07:29:38.450740 20020 net.cpp:100] Creating Layer fc4_300
I0409 07:29:38.450747 20020 net.cpp:434] fc4_300 <- pool3
I0409 07:29:38.450753 20020 net.cpp:408] fc4_300 -> fc4_300
I0409 07:29:38.456054 20020 net.cpp:150] Setting up fc4_300
I0409 07:29:38.456074 20020 net.cpp:157] Top shape: 1024 300 (307200)
I0409 07:29:38.456079 20020 net.cpp:165] Memory required for data: 2186100736
I0409 07:29:38.456086 20020 layer_factory.hpp:77] Creating layer fc4_relu
I0409 07:29:38.456094 20020 net.cpp:100] Creating Layer fc4_relu
I0409 07:29:38.456099 20020 net.cpp:434] fc4_relu <- fc4_300
I0409 07:29:38.456105 20020 net.cpp:395] fc4_relu -> fc4_300 (in-place)
I0409 07:29:38.456305 20020 net.cpp:150] Setting up fc4_relu
I0409 07:29:38.456316 20020 net.cpp:157] Top shape: 1024 300 (307200)
I0409 07:29:38.456320 20020 net.cpp:165] Memory required for data: 2187329536
I0409 07:29:38.456323 20020 layer_factory.hpp:77] Creating layer drop4
I0409 07:29:38.456331 20020 net.cpp:100] Creating Layer drop4
I0409 07:29:38.456333 20020 net.cpp:434] drop4 <- fc4_300
I0409 07:29:38.456341 20020 net.cpp:395] drop4 -> fc4_300 (in-place)
I0409 07:29:38.456372 20020 net.cpp:150] Setting up drop4
I0409 07:29:38.456379 20020 net.cpp:157] Top shape: 1024 300 (307200)
I0409 07:29:38.456382 20020 net.cpp:165] Memory required for data: 2188558336
I0409 07:29:38.456385 20020 layer_factory.hpp:77] Creating layer fc5_67
I0409 07:29:38.456394 20020 net.cpp:100] Creating Layer fc5_67
I0409 07:29:38.456398 20020 net.cpp:434] fc5_67 <- fc4_300
I0409 07:29:38.456403 20020 net.cpp:408] fc5_67 -> fc5_classes
I0409 07:29:38.456657 20020 net.cpp:150] Setting up fc5_67
I0409 07:29:38.456667 20020 net.cpp:157] Top shape: 1024 67 (68608)
I0409 07:29:38.456670 20020 net.cpp:165] Memory required for data: 2188832768
I0409 07:29:38.456681 20020 layer_factory.hpp:77] Creating layer fc5_classes_fc5_67_0_split
I0409 07:29:38.456688 20020 net.cpp:100] Creating Layer fc5_classes_fc5_67_0_split
I0409 07:29:38.456693 20020 net.cpp:434] fc5_classes_fc5_67_0_split <- fc5_classes
I0409 07:29:38.456699 20020 net.cpp:408] fc5_classes_fc5_67_0_split -> fc5_classes_fc5_67_0_split_0
I0409 07:29:38.456707 20020 net.cpp:408] fc5_classes_fc5_67_0_split -> fc5_classes_fc5_67_0_split_1
I0409 07:29:38.456717 20020 net.cpp:408] fc5_classes_fc5_67_0_split -> fc5_classes_fc5_67_0_split_2
I0409 07:29:38.456770 20020 net.cpp:150] Setting up fc5_classes_fc5_67_0_split
I0409 07:29:38.456786 20020 net.cpp:157] Top shape: 1024 67 (68608)
I0409 07:29:38.456789 20020 net.cpp:157] Top shape: 1024 67 (68608)
I0409 07:29:38.456794 20020 net.cpp:157] Top shape: 1024 67 (68608)
I0409 07:29:38.456795 20020 net.cpp:165] Memory required for data: 2189656064
I0409 07:29:38.456799 20020 layer_factory.hpp:77] Creating layer loss
I0409 07:29:38.456809 20020 net.cpp:100] Creating Layer loss
I0409 07:29:38.456815 20020 net.cpp:434] loss <- fc5_classes_fc5_67_0_split_0
I0409 07:29:38.456820 20020 net.cpp:434] loss <- label_data_1_split_0
I0409 07:29:38.456825 20020 net.cpp:408] loss -> loss
…
