…
I0415 13:27:04.812916  4735 solver.cpp:93] Creating training net from train_net file: ./Prototxt/experiment_12/rtsd-r3/orig/trial_5/train.prototxt
I0415 13:27:04.825712  4735 net.cpp:58] Initializing net from parameters: 
state {
  phase: TRAIN
  level: 0
  stage: ""
}
layer {
  name: "data"
  type: "Data"
  top: "data"
  top: "label"
  include {
    phase: TRAIN
  }
  transform_param {
    scale: 0.0039215689
    mirror: false
    crop_size: 48
    mean_value: 120
    mean_value: 113
    mean_value: 112
  }
  data_param {
    source: "../local_data/lmdb/rtsd-r3/orig/train/lmdb"
    batch_size: 1024
    backend: LMDB
  }
}
layer {
  name: "conv1"
  type: "Convolution"
  bottom: "data"
  top: "conv1"
  convolution_param {
    num_output: 100
    pad: 0
    kernel_size: 7
    group: 1
    stride: 1
    weight_filler {
      type: "xavier"
    }
  }
}
layer {
  name: "conv1_relu"
  type: "ReLU"
  bottom: "conv1"
  top: "conv1"
}
layer {
  name: "pool1"
  type: "Pooling"
  bottom: "conv1"
  top: "pool1"
  pooling_param {
    pool: MAX
    kernel_size: 2
    stride: 2
  }
}
layer {
  name: "conv2"
  type: "Convolution"
  bottom: "pool1"
  top: "conv2"
  convolution_param {
    num_output: 150
    pad: 0
    kernel_size: 4
    group: 1
    stride: 1
    weight_filler {
      type: "xavier"
    }
  }
}
layer {
  name: "conv2_relu"
  type: "ReLU"
  bottom: "conv2"
  top: "conv2"
}
layer {
  name: "pool2"
  type: "Pooling"
  bottom: "conv2"
  top: "pool2"
  pooling_param {
    pool: MAX
    kernel_size: 2
    stride: 2
  }
}
layer {
  name: "conv3"
  type: "Convolution"
  bottom: "pool2"
  top: "conv3"
  convolution_param {
    num_output: 250
    pad: 0
    kernel_size: 4
    group: 1
    stride: 1
    weight_filler {
      type: "xavier"
    }
  }
}
layer {
  name: "conv3_relu"
  type: "ReLU"
  bottom: "conv3"
  top: "conv3"
}
layer {
  name: "pool3"
  type: "Pooling"
  bottom: "conv3"
  top: "pool3"
  pooling_param {
    pool: MAX
    kernel_size: 2
    stride: 2
  }
}
layer {
  name: "fc4_300"
  type: "InnerProduct"
  bottom: "pool3"
  top: "fc4_300"
  inner_product_param {
    num_output: 300
    weight_filler {
      type: "xavier"
    }
  }
}
layer {
  name: "fc4_relu"
  type: "ReLU"
  bottom: "fc4_300"
  top: "fc4_300"
}
layer {
  name: "drop4"
  type: "Dropout"
  bottom: "fc4_300"
  top: "fc4_300"
  dropout_param {
    dropout_ratio: 0.5
  }
}
layer {
  name: "fc5_106"
  type: "InnerProduct"
  bottom: "fc4_300"
  top: "fc5_classes"
  inner_product_param {
    num_output: 106
    weight_filler {
      type: "xavier"
    }
  }
}
layer {
  name: "softmax"
  type: "Softmax"
  bottom: "fc5_classes"
  top: "softmax"
}
layer {
  name: "loss"
  type: "MultinomialLogisticLoss"
  bottom: "softmax"
  bottom: "label"
  top: "loss"
}
layer {
  name: "accuracy_1"
  type: "Accuracy"
  bottom: "fc5_classes"
  bottom: "label"
  top: "accuracy_1"
  accuracy_param {
    top_k: 1
  }
}
layer {
  name: "accuracy_5"
  type: "Accuracy"
  bottom: "fc5_classes"
  bottom: "label"
  top: "accuracy_5"
  accuracy_param {
    top_k: 5
  }
}
layer {
  name: "silence"
  type: "Silence"
  bottom: "accuracy_1"
  bottom: "accuracy_5"
}
I0415 13:27:04.825880  4735 layer_factory.hpp:77] Creating layer data
I0415 13:27:04.826947  4735 net.cpp:100] Creating Layer data
I0415 13:27:04.826964  4735 net.cpp:408] data -> data
I0415 13:27:04.826992  4735 net.cpp:408] data -> label
I0415 13:27:04.829028  4878 db_lmdb.cpp:35] Opened lmdb ../local_data/lmdb/rtsd-r3/orig/train/lmdb
I0415 13:27:04.846401  4735 data_layer.cpp:41] output data size: 1024,3,48,48
I0415 13:27:04.907516  4735 net.cpp:150] Setting up data
I0415 13:27:04.907546  4735 net.cpp:157] Top shape: 1024 3 48 48 (7077888)
I0415 13:27:04.907551  4735 net.cpp:157] Top shape: 1024 (1024)
I0415 13:27:04.907553  4735 net.cpp:165] Memory required for data: 28315648
I0415 13:27:04.907565  4735 layer_factory.hpp:77] Creating layer label_data_1_split
I0415 13:27:04.907579  4735 net.cpp:100] Creating Layer label_data_1_split
I0415 13:27:04.907596  4735 net.cpp:434] label_data_1_split <- label
I0415 13:27:04.907610  4735 net.cpp:408] label_data_1_split -> label_data_1_split_0
I0415 13:27:04.907624  4735 net.cpp:408] label_data_1_split -> label_data_1_split_1
I0415 13:27:04.907631  4735 net.cpp:408] label_data_1_split -> label_data_1_split_2
I0415 13:27:04.907737  4735 net.cpp:150] Setting up label_data_1_split
I0415 13:27:04.907747  4735 net.cpp:157] Top shape: 1024 (1024)
I0415 13:27:04.907750  4735 net.cpp:157] Top shape: 1024 (1024)
I0415 13:27:04.907753  4735 net.cpp:157] Top shape: 1024 (1024)
I0415 13:27:04.907755  4735 net.cpp:165] Memory required for data: 28327936
I0415 13:27:04.907759  4735 layer_factory.hpp:77] Creating layer conv1
I0415 13:27:04.907778  4735 net.cpp:100] Creating Layer conv1
I0415 13:27:04.907783  4735 net.cpp:434] conv1 <- data
I0415 13:27:04.907789  4735 net.cpp:408] conv1 -> conv1
I0415 13:27:05.220983  4735 net.cpp:150] Setting up conv1
I0415 13:27:05.221019  4735 net.cpp:157] Top shape: 1024 100 42 42 (180633600)
I0415 13:27:05.221024  4735 net.cpp:165] Memory required for data: 750862336
I0415 13:27:05.221050  4735 layer_factory.hpp:77] Creating layer conv1_relu
I0415 13:27:05.221062  4735 net.cpp:100] Creating Layer conv1_relu
I0415 13:27:05.221067  4735 net.cpp:434] conv1_relu <- conv1
I0415 13:27:05.221074  4735 net.cpp:395] conv1_relu -> conv1 (in-place)
I0415 13:27:05.221325  4735 net.cpp:150] Setting up conv1_relu
I0415 13:27:05.221339  4735 net.cpp:157] Top shape: 1024 100 42 42 (180633600)
I0415 13:27:05.221343  4735 net.cpp:165] Memory required for data: 1473396736
I0415 13:27:05.221348  4735 layer_factory.hpp:77] Creating layer pool1
I0415 13:27:05.221359  4735 net.cpp:100] Creating Layer pool1
I0415 13:27:05.221364  4735 net.cpp:434] pool1 <- conv1
I0415 13:27:05.221371  4735 net.cpp:408] pool1 -> pool1
I0415 13:27:05.221441  4735 net.cpp:150] Setting up pool1
I0415 13:27:05.221451  4735 net.cpp:157] Top shape: 1024 100 21 21 (45158400)
I0415 13:27:05.221457  4735 net.cpp:165] Memory required for data: 1654030336
I0415 13:27:05.221460  4735 layer_factory.hpp:77] Creating layer conv2
I0415 13:27:05.221472  4735 net.cpp:100] Creating Layer conv2
I0415 13:27:05.221477  4735 net.cpp:434] conv2 <- pool1
I0415 13:27:05.221484  4735 net.cpp:408] conv2 -> conv2
I0415 13:27:05.230053  4735 net.cpp:150] Setting up conv2
I0415 13:27:05.230074  4735 net.cpp:157] Top shape: 1024 150 18 18 (49766400)
I0415 13:27:05.230078  4735 net.cpp:165] Memory required for data: 1853095936
I0415 13:27:05.230089  4735 layer_factory.hpp:77] Creating layer conv2_relu
I0415 13:27:05.230098  4735 net.cpp:100] Creating Layer conv2_relu
I0415 13:27:05.230103  4735 net.cpp:434] conv2_relu <- conv2
I0415 13:27:05.230109  4735 net.cpp:395] conv2_relu -> conv2 (in-place)
I0415 13:27:05.231317  4735 net.cpp:150] Setting up conv2_relu
I0415 13:27:05.231350  4735 net.cpp:157] Top shape: 1024 150 18 18 (49766400)
I0415 13:27:05.231358  4735 net.cpp:165] Memory required for data: 2052161536
I0415 13:27:05.231367  4735 layer_factory.hpp:77] Creating layer pool2
I0415 13:27:05.231384  4735 net.cpp:100] Creating Layer pool2
I0415 13:27:05.231395  4735 net.cpp:434] pool2 <- conv2
I0415 13:27:05.231407  4735 net.cpp:408] pool2 -> pool2
I0415 13:27:05.231483  4735 net.cpp:150] Setting up pool2
I0415 13:27:05.231493  4735 net.cpp:157] Top shape: 1024 150 9 9 (12441600)
I0415 13:27:05.231498  4735 net.cpp:165] Memory required for data: 2101927936
I0415 13:27:05.231500  4735 layer_factory.hpp:77] Creating layer conv3
I0415 13:27:05.231511  4735 net.cpp:100] Creating Layer conv3
I0415 13:27:05.231534  4735 net.cpp:434] conv3 <- pool2
I0415 13:27:05.231541  4735 net.cpp:408] conv3 -> conv3
I0415 13:27:05.238129  4735 net.cpp:150] Setting up conv3
I0415 13:27:05.238150  4735 net.cpp:157] Top shape: 1024 250 6 6 (9216000)
I0415 13:27:05.238154  4735 net.cpp:165] Memory required for data: 2138791936
I0415 13:27:05.238164  4735 layer_factory.hpp:77] Creating layer conv3_relu
I0415 13:27:05.238173  4735 net.cpp:100] Creating Layer conv3_relu
I0415 13:27:05.238178  4735 net.cpp:434] conv3_relu <- conv3
I0415 13:27:05.238184  4735 net.cpp:395] conv3_relu -> conv3 (in-place)
I0415 13:27:05.240447  4735 net.cpp:150] Setting up conv3_relu
I0415 13:27:05.240464  4735 net.cpp:157] Top shape: 1024 250 6 6 (9216000)
I0415 13:27:05.240468  4735 net.cpp:165] Memory required for data: 2175655936
I0415 13:27:05.240473  4735 layer_factory.hpp:77] Creating layer pool3
I0415 13:27:05.240479  4735 net.cpp:100] Creating Layer pool3
I0415 13:27:05.240483  4735 net.cpp:434] pool3 <- conv3
I0415 13:27:05.240489  4735 net.cpp:408] pool3 -> pool3
I0415 13:27:05.240538  4735 net.cpp:150] Setting up pool3
I0415 13:27:05.240548  4735 net.cpp:157] Top shape: 1024 250 3 3 (2304000)
I0415 13:27:05.240552  4735 net.cpp:165] Memory required for data: 2184871936
I0415 13:27:05.240556  4735 layer_factory.hpp:77] Creating layer fc4_300
I0415 13:27:05.240562  4735 net.cpp:100] Creating Layer fc4_300
I0415 13:27:05.240567  4735 net.cpp:434] fc4_300 <- pool3
I0415 13:27:05.240573  4735 net.cpp:408] fc4_300 -> fc4_300
I0415 13:27:05.246743  4735 net.cpp:150] Setting up fc4_300
I0415 13:27:05.246762  4735 net.cpp:157] Top shape: 1024 300 (307200)
I0415 13:27:05.246767  4735 net.cpp:165] Memory required for data: 2186100736
I0415 13:27:05.246773  4735 layer_factory.hpp:77] Creating layer fc4_relu
I0415 13:27:05.246780  4735 net.cpp:100] Creating Layer fc4_relu
I0415 13:27:05.246784  4735 net.cpp:434] fc4_relu <- fc4_300
I0415 13:27:05.246790  4735 net.cpp:395] fc4_relu -> fc4_300 (in-place)
I0415 13:27:05.246979  4735 net.cpp:150] Setting up fc4_relu
I0415 13:27:05.246992  4735 net.cpp:157] Top shape: 1024 300 (307200)
I0415 13:27:05.246996  4735 net.cpp:165] Memory required for data: 2187329536
I0415 13:27:05.247000  4735 layer_factory.hpp:77] Creating layer drop4
I0415 13:27:05.247007  4735 net.cpp:100] Creating Layer drop4
I0415 13:27:05.247011  4735 net.cpp:434] drop4 <- fc4_300
I0415 13:27:05.247017  4735 net.cpp:395] drop4 -> fc4_300 (in-place)
I0415 13:27:05.247051  4735 net.cpp:150] Setting up drop4
I0415 13:27:05.247058  4735 net.cpp:157] Top shape: 1024 300 (307200)
I0415 13:27:05.247061  4735 net.cpp:165] Memory required for data: 2188558336
I0415 13:27:05.247064  4735 layer_factory.hpp:77] Creating layer fc5_106
I0415 13:27:05.247071  4735 net.cpp:100] Creating Layer fc5_106
I0415 13:27:05.247076  4735 net.cpp:434] fc5_106 <- fc4_300
I0415 13:27:05.247081  4735 net.cpp:408] fc5_106 -> fc5_classes
I0415 13:27:05.248523  4735 net.cpp:150] Setting up fc5_106
I0415 13:27:05.248540  4735 net.cpp:157] Top shape: 1024 106 (108544)
I0415 13:27:05.248545  4735 net.cpp:165] Memory required for data: 2188992512
I0415 13:27:05.248556  4735 layer_factory.hpp:77] Creating layer fc5_classes_fc5_106_0_split
I0415 13:27:05.248565  4735 net.cpp:100] Creating Layer fc5_classes_fc5_106_0_split
I0415 13:27:05.248570  4735 net.cpp:434] fc5_classes_fc5_106_0_split <- fc5_classes
I0415 13:27:05.248576  4735 net.cpp:408] fc5_classes_fc5_106_0_split -> fc5_classes_fc5_106_0_split_0
I0415 13:27:05.248585  4735 net.cpp:408] fc5_classes_fc5_106_0_split -> fc5_classes_fc5_106_0_split_1
I0415 13:27:05.248594  4735 net.cpp:408] fc5_classes_fc5_106_0_split -> fc5_classes_fc5_106_0_split_2
I0415 13:27:05.248646  4735 net.cpp:150] Setting up fc5_classes_fc5_106_0_split
I0415 13:27:05.248653  4735 net.cpp:157] Top shape: 1024 106 (108544)
I0415 13:27:05.248657  4735 net.cpp:157] Top shape: 1024 106 (108544)
I0415 13:27:05.248663  4735 net.cpp:157] Top shape: 1024 106 (108544)
I0415 13:27:05.248667  4735 net.cpp:165] Memory required for data: 2190295040
I0415 13:27:05.248687  4735 layer_factory.hpp:77] Creating layer softmax
I0415 13:27:05.248697  4735 net.cpp:100] Creating Layer softmax
I0415 13:27:05.248702  4735 net.cpp:434] softmax <- fc5_classes_fc5_106_0_split_0
I0415 13:27:05.248708  4735 net.cpp:408] softmax -> softmax
I0415 13:27:05.248963  4735 net.cpp:150] Setting up softmax
I0415 13:27:05.248977  4735 net.cpp:157] Top shape: 1024 106 (108544)
I0415 13:27:05.248980  4735 net.cpp:165] Memory required for data: 2190729216
I0415 13:27:05.248983  4735 layer_factory.hpp:77] Creating layer loss
I0415 13:27:05.248989  4735 net.cpp:100] Creating Layer loss
I0415 13:27:05.248993  4735 net.cpp:434] loss <- softmax
I0415 13:27:05.248997  4735 net.cpp:434] loss <- label_data_1_split_0
I0415 13:27:05.249002  4735 net.cpp:408] loss -> loss
…
