…
I0415 02:06:48.177997   906 solver.cpp:93] Creating training net from train_net file: ./Prototxt/experiment_12/rtsd-r1/orig/trial_2/train.prototxt
I0415 02:06:48.188261   906 net.cpp:58] Initializing net from parameters: 
state {
  phase: TRAIN
  level: 0
  stage: ""
}
layer {
  name: "data"
  type: "Data"
  top: "data"
  top: "label"
  include {
    phase: TRAIN
  }
  transform_param {
    scale: 0.0039215689
    mirror: false
    crop_size: 48
    mean_value: 122
    mean_value: 115
    mean_value: 129
  }
  data_param {
    source: "../local_data/lmdb/rtsd-r1/orig/train/lmdb"
    batch_size: 1024
    backend: LMDB
  }
}
layer {
  name: "conv1"
  type: "Convolution"
  bottom: "data"
  top: "conv1"
  convolution_param {
    num_output: 100
    pad: 0
    kernel_size: 7
    group: 1
    stride: 1
    weight_filler {
      type: "xavier"
    }
  }
}
layer {
  name: "conv1_relu"
  type: "ReLU"
  bottom: "conv1"
  top: "conv1"
}
layer {
  name: "pool1"
  type: "Pooling"
  bottom: "conv1"
  top: "pool1"
  pooling_param {
    pool: MAX
    kernel_size: 2
    stride: 2
  }
}
layer {
  name: "conv2"
  type: "Convolution"
  bottom: "pool1"
  top: "conv2"
  convolution_param {
    num_output: 150
    pad: 0
    kernel_size: 4
    group: 1
    stride: 1
    weight_filler {
      type: "xavier"
    }
  }
}
layer {
  name: "conv2_relu"
  type: "ReLU"
  bottom: "conv2"
  top: "conv2"
}
layer {
  name: "pool2"
  type: "Pooling"
  bottom: "conv2"
  top: "pool2"
  pooling_param {
    pool: MAX
    kernel_size: 2
    stride: 2
  }
}
layer {
  name: "conv3"
  type: "Convolution"
  bottom: "pool2"
  top: "conv3"
  convolution_param {
    num_output: 250
    pad: 0
    kernel_size: 4
    group: 1
    stride: 1
    weight_filler {
      type: "xavier"
    }
  }
}
layer {
  name: "conv3_relu"
  type: "ReLU"
  bottom: "conv3"
  top: "conv3"
}
layer {
  name: "pool3"
  type: "Pooling"
  bottom: "conv3"
  top: "pool3"
  pooling_param {
    pool: MAX
    kernel_size: 2
    stride: 2
  }
}
layer {
  name: "fc4_300"
  type: "InnerProduct"
  bottom: "pool3"
  top: "fc4_300"
  inner_product_param {
    num_output: 300
    weight_filler {
      type: "xavier"
    }
  }
}
layer {
  name: "fc4_relu"
  type: "ReLU"
  bottom: "fc4_300"
  top: "fc4_300"
}
layer {
  name: "drop4"
  type: "Dropout"
  bottom: "fc4_300"
  top: "fc4_300"
  dropout_param {
    dropout_ratio: 0.5
  }
}
layer {
  name: "fc5_67"
  type: "InnerProduct"
  bottom: "fc4_300"
  top: "fc5_classes"
  inner_product_param {
    num_output: 67
    weight_filler {
      type: "xavier"
    }
  }
}
layer {
  name: "softmax"
  type: "Softmax"
  bottom: "fc5_classes"
  top: "softmax"
}
layer {
  name: "loss"
  type: "MultinomialLogisticLoss"
  bottom: "softmax"
  bottom: "label"
  top: "loss"
}
layer {
  name: "accuracy_1"
  type: "Accuracy"
  bottom: "fc5_classes"
  bottom: "label"
  top: "accuracy_1"
  accuracy_param {
    top_k: 1
  }
}
layer {
  name: "accuracy_5"
  type: "Accuracy"
  bottom: "fc5_classes"
  bottom: "label"
  top: "accuracy_5"
  accuracy_param {
    top_k: 5
  }
}
layer {
  name: "silence"
  type: "Silence"
  bottom: "accuracy_1"
  bottom: "accuracy_5"
}
I0415 02:06:48.188407   906 layer_factory.hpp:77] Creating layer data
I0415 02:06:48.189891   906 net.cpp:100] Creating Layer data
I0415 02:06:48.189915   906 net.cpp:408] data -> data
I0415 02:06:48.189947   906 net.cpp:408] data -> label
I0415 02:06:48.198683  1035 db_lmdb.cpp:35] Opened lmdb ../local_data/lmdb/rtsd-r1/orig/train/lmdb
I0415 02:06:48.218730   906 data_layer.cpp:41] output data size: 1024,3,48,48
I0415 02:06:48.295305   906 net.cpp:150] Setting up data
I0415 02:06:48.295336   906 net.cpp:157] Top shape: 1024 3 48 48 (7077888)
I0415 02:06:48.295342   906 net.cpp:157] Top shape: 1024 (1024)
I0415 02:06:48.295346   906 net.cpp:165] Memory required for data: 28315648
I0415 02:06:48.295357   906 layer_factory.hpp:77] Creating layer label_data_1_split
I0415 02:06:48.295372   906 net.cpp:100] Creating Layer label_data_1_split
I0415 02:06:48.295380   906 net.cpp:434] label_data_1_split <- label
I0415 02:06:48.295397   906 net.cpp:408] label_data_1_split -> label_data_1_split_0
I0415 02:06:48.295409   906 net.cpp:408] label_data_1_split -> label_data_1_split_1
I0415 02:06:48.295418   906 net.cpp:408] label_data_1_split -> label_data_1_split_2
I0415 02:06:48.295507   906 net.cpp:150] Setting up label_data_1_split
I0415 02:06:48.295518   906 net.cpp:157] Top shape: 1024 (1024)
I0415 02:06:48.295523   906 net.cpp:157] Top shape: 1024 (1024)
I0415 02:06:48.295528   906 net.cpp:157] Top shape: 1024 (1024)
I0415 02:06:48.295531   906 net.cpp:165] Memory required for data: 28327936
I0415 02:06:48.295536   906 layer_factory.hpp:77] Creating layer conv1
I0415 02:06:48.295553   906 net.cpp:100] Creating Layer conv1
I0415 02:06:48.295559   906 net.cpp:434] conv1 <- data
I0415 02:06:48.295565   906 net.cpp:408] conv1 -> conv1
I0415 02:06:48.764500   906 net.cpp:150] Setting up conv1
I0415 02:06:48.764551   906 net.cpp:157] Top shape: 1024 100 42 42 (180633600)
I0415 02:06:48.764556   906 net.cpp:165] Memory required for data: 750862336
I0415 02:06:48.764608   906 layer_factory.hpp:77] Creating layer conv1_relu
I0415 02:06:48.764634   906 net.cpp:100] Creating Layer conv1_relu
I0415 02:06:48.764647   906 net.cpp:434] conv1_relu <- conv1
I0415 02:06:48.764665   906 net.cpp:395] conv1_relu -> conv1 (in-place)
I0415 02:06:48.765110   906 net.cpp:150] Setting up conv1_relu
I0415 02:06:48.765132   906 net.cpp:157] Top shape: 1024 100 42 42 (180633600)
I0415 02:06:48.765139   906 net.cpp:165] Memory required for data: 1473396736
I0415 02:06:48.765148   906 layer_factory.hpp:77] Creating layer pool1
I0415 02:06:48.765178   906 net.cpp:100] Creating Layer pool1
I0415 02:06:48.765187   906 net.cpp:434] pool1 <- conv1
I0415 02:06:48.765202   906 net.cpp:408] pool1 -> pool1
I0415 02:06:48.765305   906 net.cpp:150] Setting up pool1
I0415 02:06:48.765321   906 net.cpp:157] Top shape: 1024 100 21 21 (45158400)
I0415 02:06:48.765329   906 net.cpp:165] Memory required for data: 1654030336
I0415 02:06:48.765336   906 layer_factory.hpp:77] Creating layer conv2
I0415 02:06:48.765359   906 net.cpp:100] Creating Layer conv2
I0415 02:06:48.765368   906 net.cpp:434] conv2 <- pool1
I0415 02:06:48.765383   906 net.cpp:408] conv2 -> conv2
I0415 02:06:48.773320   906 net.cpp:150] Setting up conv2
I0415 02:06:48.773349   906 net.cpp:157] Top shape: 1024 150 18 18 (49766400)
I0415 02:06:48.773355   906 net.cpp:165] Memory required for data: 1853095936
I0415 02:06:48.773372   906 layer_factory.hpp:77] Creating layer conv2_relu
I0415 02:06:48.773386   906 net.cpp:100] Creating Layer conv2_relu
I0415 02:06:48.773396   906 net.cpp:434] conv2_relu <- conv2
I0415 02:06:48.773406   906 net.cpp:395] conv2_relu -> conv2 (in-place)
I0415 02:06:48.774579   906 net.cpp:150] Setting up conv2_relu
I0415 02:06:48.774619   906 net.cpp:157] Top shape: 1024 150 18 18 (49766400)
I0415 02:06:48.774626   906 net.cpp:165] Memory required for data: 2052161536
I0415 02:06:48.774636   906 layer_factory.hpp:77] Creating layer pool2
I0415 02:06:48.774652   906 net.cpp:100] Creating Layer pool2
I0415 02:06:48.774663   906 net.cpp:434] pool2 <- conv2
I0415 02:06:48.774677   906 net.cpp:408] pool2 -> pool2
I0415 02:06:48.774780   906 net.cpp:150] Setting up pool2
I0415 02:06:48.774794   906 net.cpp:157] Top shape: 1024 150 9 9 (12441600)
I0415 02:06:48.774801   906 net.cpp:165] Memory required for data: 2101927936
I0415 02:06:48.774806   906 layer_factory.hpp:77] Creating layer conv3
I0415 02:06:48.774824   906 net.cpp:100] Creating Layer conv3
I0415 02:06:48.774865   906 net.cpp:434] conv3 <- pool2
I0415 02:06:48.774880   906 net.cpp:408] conv3 -> conv3
I0415 02:06:48.785682   906 net.cpp:150] Setting up conv3
I0415 02:06:48.785711   906 net.cpp:157] Top shape: 1024 250 6 6 (9216000)
I0415 02:06:48.785718   906 net.cpp:165] Memory required for data: 2138791936
I0415 02:06:48.785734   906 layer_factory.hpp:77] Creating layer conv3_relu
I0415 02:06:48.785750   906 net.cpp:100] Creating Layer conv3_relu
I0415 02:06:48.785759   906 net.cpp:434] conv3_relu <- conv3
I0415 02:06:48.785771   906 net.cpp:395] conv3_relu -> conv3 (in-place)
I0415 02:06:48.787011   906 net.cpp:150] Setting up conv3_relu
I0415 02:06:48.787036   906 net.cpp:157] Top shape: 1024 250 6 6 (9216000)
I0415 02:06:48.787044   906 net.cpp:165] Memory required for data: 2175655936
I0415 02:06:48.787053   906 layer_factory.hpp:77] Creating layer pool3
I0415 02:06:48.787066   906 net.cpp:100] Creating Layer pool3
I0415 02:06:48.787076   906 net.cpp:434] pool3 <- conv3
I0415 02:06:48.787091   906 net.cpp:408] pool3 -> pool3
I0415 02:06:48.787185   906 net.cpp:150] Setting up pool3
I0415 02:06:48.787201   906 net.cpp:157] Top shape: 1024 250 3 3 (2304000)
I0415 02:06:48.787209   906 net.cpp:165] Memory required for data: 2184871936
I0415 02:06:48.787217   906 layer_factory.hpp:77] Creating layer fc4_300
I0415 02:06:48.787235   906 net.cpp:100] Creating Layer fc4_300
I0415 02:06:48.787242   906 net.cpp:434] fc4_300 <- pool3
I0415 02:06:48.787255   906 net.cpp:408] fc4_300 -> fc4_300
I0415 02:06:48.798522   906 net.cpp:150] Setting up fc4_300
I0415 02:06:48.798553   906 net.cpp:157] Top shape: 1024 300 (307200)
I0415 02:06:48.798563   906 net.cpp:165] Memory required for data: 2186100736
I0415 02:06:48.798578   906 layer_factory.hpp:77] Creating layer fc4_relu
I0415 02:06:48.798593   906 net.cpp:100] Creating Layer fc4_relu
I0415 02:06:48.798604   906 net.cpp:434] fc4_relu <- fc4_300
I0415 02:06:48.798616   906 net.cpp:395] fc4_relu -> fc4_300 (in-place)
I0415 02:06:48.799041   906 net.cpp:150] Setting up fc4_relu
I0415 02:06:48.799065   906 net.cpp:157] Top shape: 1024 300 (307200)
I0415 02:06:48.799073   906 net.cpp:165] Memory required for data: 2187329536
I0415 02:06:48.799082   906 layer_factory.hpp:77] Creating layer drop4
I0415 02:06:48.799099   906 net.cpp:100] Creating Layer drop4
I0415 02:06:48.799109   906 net.cpp:434] drop4 <- fc4_300
I0415 02:06:48.799124   906 net.cpp:395] drop4 -> fc4_300 (in-place)
I0415 02:06:48.799183   906 net.cpp:150] Setting up drop4
I0415 02:06:48.799198   906 net.cpp:157] Top shape: 1024 300 (307200)
I0415 02:06:48.799206   906 net.cpp:165] Memory required for data: 2188558336
I0415 02:06:48.799211   906 layer_factory.hpp:77] Creating layer fc5_67
I0415 02:06:48.799222   906 net.cpp:100] Creating Layer fc5_67
I0415 02:06:48.799230   906 net.cpp:434] fc5_67 <- fc4_300
I0415 02:06:48.799243   906 net.cpp:408] fc5_67 -> fc5_classes
I0415 02:06:48.801476   906 net.cpp:150] Setting up fc5_67
I0415 02:06:48.801508   906 net.cpp:157] Top shape: 1024 67 (68608)
I0415 02:06:48.801519   906 net.cpp:165] Memory required for data: 2188832768
I0415 02:06:48.801543   906 layer_factory.hpp:77] Creating layer fc5_classes_fc5_67_0_split
I0415 02:06:48.801564   906 net.cpp:100] Creating Layer fc5_classes_fc5_67_0_split
I0415 02:06:48.801575   906 net.cpp:434] fc5_classes_fc5_67_0_split <- fc5_classes
I0415 02:06:48.801590   906 net.cpp:408] fc5_classes_fc5_67_0_split -> fc5_classes_fc5_67_0_split_0
I0415 02:06:48.801609   906 net.cpp:408] fc5_classes_fc5_67_0_split -> fc5_classes_fc5_67_0_split_1
I0415 02:06:48.801627   906 net.cpp:408] fc5_classes_fc5_67_0_split -> fc5_classes_fc5_67_0_split_2
I0415 02:06:48.801741   906 net.cpp:150] Setting up fc5_classes_fc5_67_0_split
I0415 02:06:48.801758   906 net.cpp:157] Top shape: 1024 67 (68608)
I0415 02:06:48.801767   906 net.cpp:157] Top shape: 1024 67 (68608)
I0415 02:06:48.801774   906 net.cpp:157] Top shape: 1024 67 (68608)
I0415 02:06:48.801780   906 net.cpp:165] Memory required for data: 2189656064
I0415 02:06:48.801815   906 layer_factory.hpp:77] Creating layer softmax
I0415 02:06:48.801837   906 net.cpp:100] Creating Layer softmax
I0415 02:06:48.801847   906 net.cpp:434] softmax <- fc5_classes_fc5_67_0_split_0
I0415 02:06:48.801862   906 net.cpp:408] softmax -> softmax
I0415 02:06:48.802397   906 net.cpp:150] Setting up softmax
I0415 02:06:48.802422   906 net.cpp:157] Top shape: 1024 67 (68608)
I0415 02:06:48.802429   906 net.cpp:165] Memory required for data: 2189930496
I0415 02:06:48.802439   906 layer_factory.hpp:77] Creating layer loss
I0415 02:06:48.802456   906 net.cpp:100] Creating Layer loss
I0415 02:06:48.802466   906 net.cpp:434] loss <- softmax
I0415 02:06:48.802476   906 net.cpp:434] loss <- label_data_1_split_0
I0415 02:06:48.802490   906 net.cpp:408] loss -> loss
…
