…
I0411 20:57:01.523658  6751 net.cpp:322] The NetState phase (0) differed from the phase (1) specified by a rule in layer accuracy_5
I0411 20:57:01.523823  6751 net.cpp:58] Initializing net from parameters: 
state {
  phase: TRAIN
  level: 0
  stage: ""
}
layer {
  name: "data"
  type: "Data"
  top: "data"
  top: "label"
  include {
    phase: TRAIN
  }
  transform_param {
    scale: 0.0039215689
    mirror: false
    crop_size: 48
    mean_value: 132
    mean_value: 126
    mean_value: 140
  }
  data_param {
    source: "../local_data/lmdb/rtsd-r1/AHE/train/lmdb"
    batch_size: 1024
    backend: LMDB
  }
}
layer {
  name: "conv1"
  type: "Convolution"
  bottom: "data"
  top: "conv1"
  convolution_param {
    num_output: 100
    pad: 0
    kernel_size: 7
    group: 1
    stride: 1
    weight_filler {
      type: "xavier"
    }
  }
}
layer {
  name: "conv1_prescale"
  type: "Scale"
  bottom: "conv1"
  top: "conv1"
  param {
    lr_mult: 0
    decay_mult: 0
  }
  scale_param {
    filler {
      value: 0.6666
    }
    bias_term: false
  }
}
layer {
  name: "conv1_sTanH"
  type: "TanH"
  bottom: "conv1"
  top: "conv1"
}
layer {
  name: "conv1_postscale"
  type: "Scale"
  bottom: "conv1"
  top: "conv1"
  param {
    lr_mult: 0
    decay_mult: 0
  }
  scale_param {
    filler {
      value: 1.7159
    }
    bias_term: false
  }
}
layer {
  name: "pool1"
  type: "Pooling"
  bottom: "conv1"
  top: "pool1"
  pooling_param {
    pool: MAX
    kernel_size: 2
    stride: 2
  }
}
layer {
  name: "conv2"
  type: "Convolution"
  bottom: "pool1"
  top: "conv2"
  convolution_param {
    num_output: 150
    pad: 0
    kernel_size: 4
    group: 1
    stride: 1
    weight_filler {
      type: "xavier"
    }
  }
}
layer {
  name: "conv2_prescale"
  type: "Scale"
  bottom: "conv2"
  top: "conv2"
  param {
    lr_mult: 0
    decay_mult: 0
  }
  scale_param {
    filler {
      value: 0.6666
    }
    bias_term: false
  }
}
layer {
  name: "conv2_sTanH"
  type: "TanH"
  bottom: "conv2"
  top: "conv2"
}
layer {
  name: "conv2_postscale"
  type: "Scale"
  bottom: "conv2"
  top: "conv2"
  param {
    lr_mult: 0
    decay_mult: 0
  }
  scale_param {
    filler {
      value: 1.7159
    }
    bias_term: false
  }
}
layer {
  name: "pool2"
  type: "Pooling"
  bottom: "conv2"
  top: "pool2"
  pooling_param {
    pool: MAX
    kernel_size: 2
    stride: 2
  }
}
layer {
  name: "conv3"
  type: "Convolution"
  bottom: "pool2"
  top: "conv3"
  convolution_param {
    num_output: 250
    pad: 0
    kernel_size: 4
    group: 1
    stride: 1
    weight_filler {
      type: "xavier"
    }
  }
}
layer {
  name: "conv3_prescale"
  type: "Scale"
  bottom: "conv3"
  top: "conv3"
  param {
    lr_mult: 0
    decay_mult: 0
  }
  scale_param {
    filler {
      value: 0.6666
    }
    bias_term: false
  }
}
layer {
  name: "conv3_sTanH"
  type: "TanH"
  bottom: "conv3"
  top: "conv3"
}
layer {
  name: "conv3_postscale"
  type: "Scale"
  bottom: "conv3"
  top: "conv3"
  param {
    lr_mult: 0
    decay_mult: 0
  }
  scale_param {
    filler {
      value: 1.7159
    }
    bias_term: false
  }
}
layer {
  name: "pool3"
  type: "Pooling"
  bottom: "conv3"
  top: "pool3"
  pooling_param {
    pool: MAX
    kernel_size: 2
    stride: 2
  }
}
layer {
  name: "fc4_300"
  type: "InnerProduct"
  bottom: "pool3"
  top: "fc4_300"
  inner_product_param {
    num_output: 300
    weight_filler {
      type: "xavier"
    }
  }
}
layer {
  name: "fc4_prescale"
  type: "Scale"
  bottom: "fc4_300"
  top: "fc4_300"
  param {
    lr_mult: 0
    decay_mult: 0
  }
  scale_param {
    filler {
      value: 0.6666
    }
    bias_term: false
  }
}
layer {
  name: "fc4_sTanH"
  type: "TanH"
  bottom: "fc4_300"
  top: "fc4_300"
}
layer {
  name: "fc4_postscale"
  type: "Scale"
  bottom: "fc4_300"
  top: "fc4_300"
  param {
    lr_mult: 0
    decay_mult: 0
  }
  scale_param {
    filler {
      value: 1.7159
    }
    bias_term: false
  }
}
layer {
  name: "drop4"
  type: "Dropout"
  bottom: "fc4_300"
  top: "fc4_300"
  dropout_param {
    dropout_ratio: 0.1
  }
}
layer {
  name: "fc5_67"
  type: "InnerProduct"
  bottom: "fc4_300"
  top: "fc5_classes"
  inner_product_param {
    num_output: 67
    weight_filler {
      type: "xavier"
    }
  }
}
layer {
  name: "loss"
  type: "SoftmaxWithLoss"
  bottom: "fc5_classes"
  bottom: "label"
  top: "loss"
}
I0411 20:57:01.523947  6751 layer_factory.hpp:77] Creating layer data
I0411 20:57:01.525014  6751 net.cpp:100] Creating Layer data
I0411 20:57:01.525028  6751 net.cpp:408] data -> data
I0411 20:57:01.525051  6751 net.cpp:408] data -> label
I0411 20:57:01.526221  6915 db_lmdb.cpp:35] Opened lmdb ../local_data/lmdb/rtsd-r1/AHE/train/lmdb
I0411 20:57:01.542999  6751 data_layer.cpp:41] output data size: 1024,3,48,48
I0411 20:57:01.593299  6751 net.cpp:150] Setting up data
I0411 20:57:01.593344  6751 net.cpp:157] Top shape: 1024 3 48 48 (7077888)
I0411 20:57:01.593349  6751 net.cpp:157] Top shape: 1024 (1024)
I0411 20:57:01.593353  6751 net.cpp:165] Memory required for data: 28315648
I0411 20:57:01.593363  6751 layer_factory.hpp:77] Creating layer conv1
I0411 20:57:01.593386  6751 net.cpp:100] Creating Layer conv1
I0411 20:57:01.593394  6751 net.cpp:434] conv1 <- data
I0411 20:57:01.593408  6751 net.cpp:408] conv1 -> conv1
I0411 20:57:01.899586  6751 net.cpp:150] Setting up conv1
I0411 20:57:01.899615  6751 net.cpp:157] Top shape: 1024 100 42 42 (180633600)
I0411 20:57:01.899618  6751 net.cpp:165] Memory required for data: 750850048
I0411 20:57:01.899641  6751 layer_factory.hpp:77] Creating layer conv1_prescale
I0411 20:57:01.899655  6751 net.cpp:100] Creating Layer conv1_prescale
I0411 20:57:01.899662  6751 net.cpp:434] conv1_prescale <- conv1
I0411 20:57:01.899668  6751 net.cpp:395] conv1_prescale -> conv1 (in-place)
I0411 20:57:01.899778  6751 net.cpp:150] Setting up conv1_prescale
I0411 20:57:01.899787  6751 net.cpp:157] Top shape: 1024 100 42 42 (180633600)
I0411 20:57:01.899791  6751 net.cpp:165] Memory required for data: 1473384448
I0411 20:57:01.899798  6751 layer_factory.hpp:77] Creating layer conv1_sTanH
I0411 20:57:01.899804  6751 net.cpp:100] Creating Layer conv1_sTanH
I0411 20:57:01.899811  6751 net.cpp:434] conv1_sTanH <- conv1
I0411 20:57:01.899814  6751 net.cpp:395] conv1_sTanH -> conv1 (in-place)
I0411 20:57:01.900022  6751 net.cpp:150] Setting up conv1_sTanH
I0411 20:57:01.900034  6751 net.cpp:157] Top shape: 1024 100 42 42 (180633600)
I0411 20:57:01.900038  6751 net.cpp:165] Memory required for data: 2195918848
I0411 20:57:01.900041  6751 layer_factory.hpp:77] Creating layer conv1_postscale
I0411 20:57:01.900049  6751 net.cpp:100] Creating Layer conv1_postscale
I0411 20:57:01.900056  6751 net.cpp:434] conv1_postscale <- conv1
I0411 20:57:01.900061  6751 net.cpp:395] conv1_postscale -> conv1 (in-place)
I0411 20:57:01.900156  6751 net.cpp:150] Setting up conv1_postscale
I0411 20:57:01.900164  6751 net.cpp:157] Top shape: 1024 100 42 42 (180633600)
I0411 20:57:01.900167  6751 net.cpp:165] Memory required for data: 2918453248
I0411 20:57:01.900172  6751 layer_factory.hpp:77] Creating layer pool1
I0411 20:57:01.900179  6751 net.cpp:100] Creating Layer pool1
I0411 20:57:01.900183  6751 net.cpp:434] pool1 <- conv1
I0411 20:57:01.900188  6751 net.cpp:408] pool1 -> pool1
I0411 20:57:01.900235  6751 net.cpp:150] Setting up pool1
I0411 20:57:01.900265  6751 net.cpp:157] Top shape: 1024 100 21 21 (45158400)
I0411 20:57:01.900270  6751 net.cpp:165] Memory required for data: 3099086848
I0411 20:57:01.900274  6751 layer_factory.hpp:77] Creating layer conv2
I0411 20:57:01.900285  6751 net.cpp:100] Creating Layer conv2
I0411 20:57:01.900290  6751 net.cpp:434] conv2 <- pool1
I0411 20:57:01.900296  6751 net.cpp:408] conv2 -> conv2
I0411 20:57:01.908139  6751 net.cpp:150] Setting up conv2
I0411 20:57:01.908159  6751 net.cpp:157] Top shape: 1024 150 18 18 (49766400)
I0411 20:57:01.908162  6751 net.cpp:165] Memory required for data: 3298152448
I0411 20:57:01.908174  6751 layer_factory.hpp:77] Creating layer conv2_prescale
I0411 20:57:01.908181  6751 net.cpp:100] Creating Layer conv2_prescale
I0411 20:57:01.908187  6751 net.cpp:434] conv2_prescale <- conv2
I0411 20:57:01.908193  6751 net.cpp:395] conv2_prescale -> conv2 (in-place)
I0411 20:57:01.908299  6751 net.cpp:150] Setting up conv2_prescale
I0411 20:57:01.908309  6751 net.cpp:157] Top shape: 1024 150 18 18 (49766400)
I0411 20:57:01.908313  6751 net.cpp:165] Memory required for data: 3497218048
I0411 20:57:01.908318  6751 layer_factory.hpp:77] Creating layer conv2_sTanH
I0411 20:57:01.908324  6751 net.cpp:100] Creating Layer conv2_sTanH
I0411 20:57:01.908329  6751 net.cpp:434] conv2_sTanH <- conv2
I0411 20:57:01.908334  6751 net.cpp:395] conv2_sTanH -> conv2 (in-place)
I0411 20:57:01.910974  6751 net.cpp:150] Setting up conv2_sTanH
I0411 20:57:01.910991  6751 net.cpp:157] Top shape: 1024 150 18 18 (49766400)
I0411 20:57:01.910995  6751 net.cpp:165] Memory required for data: 3696283648
I0411 20:57:01.911000  6751 layer_factory.hpp:77] Creating layer conv2_postscale
I0411 20:57:01.911007  6751 net.cpp:100] Creating Layer conv2_postscale
I0411 20:57:01.911011  6751 net.cpp:434] conv2_postscale <- conv2
I0411 20:57:01.911016  6751 net.cpp:395] conv2_postscale -> conv2 (in-place)
I0411 20:57:01.911111  6751 net.cpp:150] Setting up conv2_postscale
I0411 20:57:01.911120  6751 net.cpp:157] Top shape: 1024 150 18 18 (49766400)
I0411 20:57:01.911123  6751 net.cpp:165] Memory required for data: 3895349248
I0411 20:57:01.911128  6751 layer_factory.hpp:77] Creating layer pool2
I0411 20:57:01.911134  6751 net.cpp:100] Creating Layer pool2
I0411 20:57:01.911139  6751 net.cpp:434] pool2 <- conv2
I0411 20:57:01.911144  6751 net.cpp:408] pool2 -> pool2
I0411 20:57:01.911181  6751 net.cpp:150] Setting up pool2
I0411 20:57:01.911190  6751 net.cpp:157] Top shape: 1024 150 9 9 (12441600)
I0411 20:57:01.911192  6751 net.cpp:165] Memory required for data: 3945115648
I0411 20:57:01.911195  6751 layer_factory.hpp:77] Creating layer conv3
I0411 20:57:01.911203  6751 net.cpp:100] Creating Layer conv3
I0411 20:57:01.911207  6751 net.cpp:434] conv3 <- pool2
I0411 20:57:01.911212  6751 net.cpp:408] conv3 -> conv3
I0411 20:57:01.917047  6751 net.cpp:150] Setting up conv3
I0411 20:57:01.917065  6751 net.cpp:157] Top shape: 1024 250 6 6 (9216000)
I0411 20:57:01.917069  6751 net.cpp:165] Memory required for data: 3981979648
I0411 20:57:01.917079  6751 layer_factory.hpp:77] Creating layer conv3_prescale
I0411 20:57:01.917088  6751 net.cpp:100] Creating Layer conv3_prescale
I0411 20:57:01.917093  6751 net.cpp:434] conv3_prescale <- conv3
I0411 20:57:01.917098  6751 net.cpp:395] conv3_prescale -> conv3 (in-place)
I0411 20:57:01.917209  6751 net.cpp:150] Setting up conv3_prescale
I0411 20:57:01.917219  6751 net.cpp:157] Top shape: 1024 250 6 6 (9216000)
I0411 20:57:01.917222  6751 net.cpp:165] Memory required for data: 4018843648
I0411 20:57:01.917227  6751 layer_factory.hpp:77] Creating layer conv3_sTanH
I0411 20:57:01.917232  6751 net.cpp:100] Creating Layer conv3_sTanH
I0411 20:57:01.917235  6751 net.cpp:434] conv3_sTanH <- conv3
I0411 20:57:01.917242  6751 net.cpp:395] conv3_sTanH -> conv3 (in-place)
I0411 20:57:01.918040  6751 net.cpp:150] Setting up conv3_sTanH
I0411 20:57:01.918057  6751 net.cpp:157] Top shape: 1024 250 6 6 (9216000)
I0411 20:57:01.918061  6751 net.cpp:165] Memory required for data: 4055707648
I0411 20:57:01.918077  6751 layer_factory.hpp:77] Creating layer conv3_postscale
I0411 20:57:01.918087  6751 net.cpp:100] Creating Layer conv3_postscale
I0411 20:57:01.918092  6751 net.cpp:434] conv3_postscale <- conv3
I0411 20:57:01.918097  6751 net.cpp:395] conv3_postscale -> conv3 (in-place)
I0411 20:57:01.918201  6751 net.cpp:150] Setting up conv3_postscale
I0411 20:57:01.918211  6751 net.cpp:157] Top shape: 1024 250 6 6 (9216000)
I0411 20:57:01.918215  6751 net.cpp:165] Memory required for data: 4092571648
I0411 20:57:01.918220  6751 layer_factory.hpp:77] Creating layer pool3
I0411 20:57:01.918226  6751 net.cpp:100] Creating Layer pool3
I0411 20:57:01.918228  6751 net.cpp:434] pool3 <- conv3
I0411 20:57:01.918236  6751 net.cpp:408] pool3 -> pool3
I0411 20:57:01.918277  6751 net.cpp:150] Setting up pool3
I0411 20:57:01.918285  6751 net.cpp:157] Top shape: 1024 250 3 3 (2304000)
I0411 20:57:01.918288  6751 net.cpp:165] Memory required for data: 4101787648
I0411 20:57:01.918292  6751 layer_factory.hpp:77] Creating layer fc4_300
I0411 20:57:01.918304  6751 net.cpp:100] Creating Layer fc4_300
I0411 20:57:01.918310  6751 net.cpp:434] fc4_300 <- pool3
I0411 20:57:01.918315  6751 net.cpp:408] fc4_300 -> fc4_300
I0411 20:57:01.923768  6751 net.cpp:150] Setting up fc4_300
I0411 20:57:01.923784  6751 net.cpp:157] Top shape: 1024 300 (307200)
I0411 20:57:01.923789  6751 net.cpp:165] Memory required for data: 4103016448
I0411 20:57:01.923794  6751 layer_factory.hpp:77] Creating layer fc4_prescale
I0411 20:57:01.923802  6751 net.cpp:100] Creating Layer fc4_prescale
I0411 20:57:01.923805  6751 net.cpp:434] fc4_prescale <- fc4_300
I0411 20:57:01.923812  6751 net.cpp:395] fc4_prescale -> fc4_300 (in-place)
I0411 20:57:01.923914  6751 net.cpp:150] Setting up fc4_prescale
I0411 20:57:01.923925  6751 net.cpp:157] Top shape: 1024 300 (307200)
I0411 20:57:01.923928  6751 net.cpp:165] Memory required for data: 4104245248
I0411 20:57:01.923933  6751 layer_factory.hpp:77] Creating layer fc4_sTanH
I0411 20:57:01.923940  6751 net.cpp:100] Creating Layer fc4_sTanH
I0411 20:57:01.923945  6751 net.cpp:434] fc4_sTanH <- fc4_300
I0411 20:57:01.923950  6751 net.cpp:395] fc4_sTanH -> fc4_300 (in-place)
I0411 20:57:01.924145  6751 net.cpp:150] Setting up fc4_sTanH
I0411 20:57:01.924157  6751 net.cpp:157] Top shape: 1024 300 (307200)
I0411 20:57:01.924161  6751 net.cpp:165] Memory required for data: 4105474048
I0411 20:57:01.924165  6751 layer_factory.hpp:77] Creating layer fc4_postscale
I0411 20:57:01.924172  6751 net.cpp:100] Creating Layer fc4_postscale
I0411 20:57:01.924177  6751 net.cpp:434] fc4_postscale <- fc4_300
I0411 20:57:01.924182  6751 net.cpp:395] fc4_postscale -> fc4_300 (in-place)
I0411 20:57:01.924283  6751 net.cpp:150] Setting up fc4_postscale
I0411 20:57:01.924291  6751 net.cpp:157] Top shape: 1024 300 (307200)
I0411 20:57:01.924294  6751 net.cpp:165] Memory required for data: 4106702848
I0411 20:57:01.924299  6751 layer_factory.hpp:77] Creating layer drop4
I0411 20:57:01.924305  6751 net.cpp:100] Creating Layer drop4
I0411 20:57:01.924309  6751 net.cpp:434] drop4 <- fc4_300
I0411 20:57:01.924315  6751 net.cpp:395] drop4 -> fc4_300 (in-place)
I0411 20:57:01.924347  6751 net.cpp:150] Setting up drop4
I0411 20:57:01.924353  6751 net.cpp:157] Top shape: 1024 300 (307200)
I0411 20:57:01.924356  6751 net.cpp:165] Memory required for data: 4107931648
I0411 20:57:01.924360  6751 layer_factory.hpp:77] Creating layer fc5_67
I0411 20:57:01.924367  6751 net.cpp:100] Creating Layer fc5_67
I0411 20:57:01.924371  6751 net.cpp:434] fc5_67 <- fc4_300
I0411 20:57:01.924376  6751 net.cpp:408] fc5_67 -> fc5_classes
I0411 20:57:01.925650  6751 net.cpp:150] Setting up fc5_67
I0411 20:57:01.925668  6751 net.cpp:157] Top shape: 1024 67 (68608)
I0411 20:57:01.925670  6751 net.cpp:165] Memory required for data: 4108206080
I0411 20:57:01.925683  6751 layer_factory.hpp:77] Creating layer loss
I0411 20:57:01.925689  6751 net.cpp:100] Creating Layer loss
I0411 20:57:01.925693  6751 net.cpp:434] loss <- fc5_classes
I0411 20:57:01.925698  6751 net.cpp:434] loss <- label
I0411 20:57:01.925720  6751 net.cpp:408] loss -> loss
I0411 20:57:01.925736  6751 layer_factory.hpp:77] Creating layer loss
…
I0411 20:57:01.926580  6751 solver.cpp:193] Creating test net (#0) specified by test_net file: ./Prototxt/experiment_9/rtsd-r1/AHE/trial_2/test.prototxt
I0411 20:57:01.926767  6751 net.cpp:58] Initializing net from parameters: 
state {
  phase: TEST
}
layer {
  name: "data"
  type: "Data"
  top: "data"
  top: "label"
  include {
    phase: TEST
  }
  transform_param {
    scale: 0.0039215689
    mirror: false
    crop_size: 48
    mean_value: 126
    mean_value: 124
    mean_value: 145
  }
  data_param {
    source: "../local_data/lmdb/rtsd-r1/AHE/test/lmdb"
    batch_size: 1024
    backend: LMDB
  }
}
layer {
  name: "conv1"
  type: "Convolution"
  bottom: "data"
  top: "conv1"
  convolution_param {
    num_output: 100
    pad: 0
    kernel_size: 7
    group: 1
    stride: 1
    weight_filler {
      type: "xavier"
    }
  }
}
layer {
  name: "conv1_prescale"
  type: "Scale"
  bottom: "conv1"
  top: "conv1"
  param {
    lr_mult: 0
    decay_mult: 0
  }
  scale_param {
    filler {
      value: 0.6666
    }
    bias_term: false
  }
}
layer {
  name: "conv1_sTanH"
  type: "TanH"
  bottom: "conv1"
  top: "conv1"
}
layer {
  name: "conv1_postscale"
  type: "Scale"
  bottom: "conv1"
  top: "conv1"
  param {
    lr_mult: 0
    decay_mult: 0
  }
  scale_param {
    filler {
      value: 1.7159
    }
    bias_term: false
  }
}
layer {
  name: "pool1"
  type: "Pooling"
  bottom: "conv1"
  top: "pool1"
  pooling_param {
    pool: MAX
    kernel_size: 2
    stride: 2
  }
}
layer {
  name: "conv2"
  type: "Convolution"
  bottom: "pool1"
  top: "conv2"
  convolution_param {
    num_output: 150
    pad: 0
    kernel_size: 4
    group: 1
    stride: 1
    weight_filler {
      type: "xavier"
    }
  }
}
layer {
  name: "conv2_prescale"
  type: "Scale"
  bottom: "conv2"
  top: "conv2"
  param {
    lr_mult: 0
    decay_mult: 0
  }
  scale_param {
    filler {
      value: 0.6666
    }
    bias_term: false
  }
}
layer {
  name: "conv2_sTanH"
  type: "TanH"
  bottom: "conv2"
  top: "conv2"
}
layer {
  name: "conv2_postscale"
  type: "Scale"
  bottom: "conv2"
  top: "conv2"
  param {
    lr_mult: 0
    decay_mult: 0
  }
  scale_param {
    filler {
      value: 1.7159
    }
    bias_term: false
  }
}
layer {
  name: "pool2"
  type: "Pooling"
  bottom: "conv2"
  top: "pool2"
  pooling_param {
    pool: MAX
    kernel_size: 2
    stride: 2
  }
}
layer {
  name: "conv3"
  type: "Convolution"
  bottom: "pool2"
  top: "conv3"
  convolution_param {
    num_output: 250
    pad: 0
    kernel_size: 4
    group: 1
    stride: 1
    weight_filler {
      type: "xavier"
    }
  }
}
layer {
  name: "conv3_prescale"
  type: "Scale"
  bottom: "conv3"
  top: "conv3"
  param {
    lr_mult: 0
    decay_mult: 0
  }
  scale_param {
    filler {
      value: 0.6666
    }
    bias_term: false
  }
}
layer {
  name: "conv3_sTanH"
  type: "TanH"
  bottom: "conv3"
  top: "conv3"
}
layer {
  name: "conv3_postscale"
  type: "Scale"
  bottom: "conv3"
  top: "conv3"
  param {
    lr_mult: 0
    decay_mult: 0
  }
  scale_param {
    filler {
      value: 1.7159
    }
    bias_term: false
  }
}
layer {
  name: "pool3"
  type: "Pooling"
  bottom: "conv3"
  top: "pool3"
  pooling_param {
    pool: MAX
    kernel_size: 2
    stride: 2
  }
}
layer {
  name: "fc4_300"
  type: "InnerProduct"
  bottom: "pool3"
  top: "fc4_300"
  inner_product_param {
    num_output: 300
    weight_filler {
      type: "xavier"
    }
  }
}
layer {
  name: "fc4_prescale"
  type: "Scale"
  bottom: "fc4_300"
  top: "fc4_300"
  param {
    lr_mult: 0
    decay_mult: 0
  }
  scale_param {
    filler {
      value: 0.6666
    }
    bias_term: false
  }
}
layer {
  name: "fc4_sTanH"
  type: "TanH"
  bottom: "fc4_300"
  top: "fc4_300"
}
layer {
  name: "fc4_postscale"
  type: "Scale"
  bottom: "fc4_300"
  top: "fc4_300"
  param {
    lr_mult: 0
    decay_mult: 0
  }
  scale_param {
    filler {
      value: 1.7159
    }
    bias_term: false
  }
}
layer {
  name: "drop4"
  type: "Dropout"
  bottom: "fc4_300"
  top: "fc4_300"
  dropout_param {
    dropout_ratio: 0.1
  }
}
layer {
  name: "fc5_67"
  type: "InnerProduct"
  bottom: "fc4_300"
  top: "fc5_classes"
  inner_product_param {
    num_output: 67
    weight_filler {
      type: "xavier"
    }
  }
}
layer {
  name: "loss"
  type: "SoftmaxWithLoss"
  bottom: "fc5_classes"
  bottom: "label"
  top: "loss"
}
layer {
  name: "accuracy_1"
  type: "Accuracy"
  bottom: "fc5_classes"
  bottom: "label"
  top: "accuracy_1"
  include {
    phase: TEST
  }
  accuracy_param {
    top_k: 1
  }
}
layer {
  name: "accuracy_5"
  type: "Accuracy"
  bottom: "fc5_classes"
  bottom: "label"
  top: "accuracy_5"
  include {
    phase: TEST
  }
  accuracy_param {
    top_k: 5
  }
}
I0411 20:57:01.926894  6751 layer_factory.hpp:77] Creating layer data
I0411 20:57:01.927798  6751 net.cpp:100] Creating Layer data
I0411 20:57:01.927810  6751 net.cpp:408] data -> data
I0411 20:57:01.927822  6751 net.cpp:408] data -> label
I0411 20:57:01.930085  6976 db_lmdb.cpp:35] Opened lmdb ../local_data/lmdb/rtsd-r1/AHE/test/lmdb
I0411 20:57:01.930279  6751 data_layer.cpp:41] output data size: 1024,3,48,48
I0411 20:57:01.984298  6751 net.cpp:150] Setting up data
I0411 20:57:01.984326  6751 net.cpp:157] Top shape: 1024 3 48 48 (7077888)
I0411 20:57:01.984331  6751 net.cpp:157] Top shape: 1024 (1024)
I0411 20:57:01.984334  6751 net.cpp:165] Memory required for data: 28315648
I0411 20:57:01.984341  6751 layer_factory.hpp:77] Creating layer label_data_1_split
I0411 20:57:01.984355  6751 net.cpp:100] Creating Layer label_data_1_split
I0411 20:57:01.984359  6751 net.cpp:434] label_data_1_split <- label
I0411 20:57:01.984369  6751 net.cpp:408] label_data_1_split -> label_data_1_split_0
I0411 20:57:01.984380  6751 net.cpp:408] label_data_1_split -> label_data_1_split_1
I0411 20:57:01.984388  6751 net.cpp:408] label_data_1_split -> label_data_1_split_2
I0411 20:57:01.984583  6751 net.cpp:150] Setting up label_data_1_split
I0411 20:57:01.984594  6751 net.cpp:157] Top shape: 1024 (1024)
I0411 20:57:01.984598  6751 net.cpp:157] Top shape: 1024 (1024)
I0411 20:57:01.984601  6751 net.cpp:157] Top shape: 1024 (1024)
I0411 20:57:01.984604  6751 net.cpp:165] Memory required for data: 28327936
I0411 20:57:01.984607  6751 layer_factory.hpp:77] Creating layer conv1
I0411 20:57:01.984622  6751 net.cpp:100] Creating Layer conv1
I0411 20:57:01.984628  6751 net.cpp:434] conv1 <- data
I0411 20:57:01.984634  6751 net.cpp:408] conv1 -> conv1
I0411 20:57:01.987282  6751 net.cpp:150] Setting up conv1
I0411 20:57:01.987298  6751 net.cpp:157] Top shape: 1024 100 42 42 (180633600)
I0411 20:57:01.987301  6751 net.cpp:165] Memory required for data: 750862336
I0411 20:57:01.987314  6751 layer_factory.hpp:77] Creating layer conv1_prescale
I0411 20:57:01.987325  6751 net.cpp:100] Creating Layer conv1_prescale
I0411 20:57:01.987329  6751 net.cpp:434] conv1_prescale <- conv1
I0411 20:57:01.987334  6751 net.cpp:395] conv1_prescale -> conv1 (in-place)
I0411 20:57:01.987454  6751 net.cpp:150] Setting up conv1_prescale
I0411 20:57:01.987463  6751 net.cpp:157] Top shape: 1024 100 42 42 (180633600)
I0411 20:57:01.987467  6751 net.cpp:165] Memory required for data: 1473396736
I0411 20:57:01.987473  6751 layer_factory.hpp:77] Creating layer conv1_sTanH
I0411 20:57:01.987484  6751 net.cpp:100] Creating Layer conv1_sTanH
I0411 20:57:01.987489  6751 net.cpp:434] conv1_sTanH <- conv1
I0411 20:57:01.987494  6751 net.cpp:395] conv1_sTanH -> conv1 (in-place)
I0411 20:57:01.987696  6751 net.cpp:150] Setting up conv1_sTanH
I0411 20:57:01.987712  6751 net.cpp:157] Top shape: 1024 100 42 42 (180633600)
I0411 20:57:01.987716  6751 net.cpp:165] Memory required for data: 2195931136
I0411 20:57:01.987720  6751 layer_factory.hpp:77] Creating layer conv1_postscale
I0411 20:57:01.987727  6751 net.cpp:100] Creating Layer conv1_postscale
I0411 20:57:01.987730  6751 net.cpp:434] conv1_postscale <- conv1
I0411 20:57:01.987737  6751 net.cpp:395] conv1_postscale -> conv1 (in-place)
I0411 20:57:01.987855  6751 net.cpp:150] Setting up conv1_postscale
I0411 20:57:01.987864  6751 net.cpp:157] Top shape: 1024 100 42 42 (180633600)
I0411 20:57:01.987867  6751 net.cpp:165] Memory required for data: 2918465536
I0411 20:57:01.987872  6751 layer_factory.hpp:77] Creating layer pool1
I0411 20:57:01.987893  6751 net.cpp:100] Creating Layer pool1
I0411 20:57:01.987897  6751 net.cpp:434] pool1 <- conv1
I0411 20:57:01.987905  6751 net.cpp:408] pool1 -> pool1
I0411 20:57:01.987956  6751 net.cpp:150] Setting up pool1
I0411 20:57:01.987963  6751 net.cpp:157] Top shape: 1024 100 21 21 (45158400)
I0411 20:57:01.987967  6751 net.cpp:165] Memory required for data: 3099099136
I0411 20:57:01.987970  6751 layer_factory.hpp:77] Creating layer conv2
I0411 20:57:01.987982  6751 net.cpp:100] Creating Layer conv2
I0411 20:57:01.987988  6751 net.cpp:434] conv2 <- pool1
I0411 20:57:01.987995  6751 net.cpp:408] conv2 -> conv2
I0411 20:57:01.997243  6751 net.cpp:150] Setting up conv2
I0411 20:57:01.997268  6751 net.cpp:157] Top shape: 1024 150 18 18 (49766400)
I0411 20:57:01.997272  6751 net.cpp:165] Memory required for data: 3298164736
I0411 20:57:01.997283  6751 layer_factory.hpp:77] Creating layer conv2_prescale
I0411 20:57:01.997298  6751 net.cpp:100] Creating Layer conv2_prescale
I0411 20:57:01.997303  6751 net.cpp:434] conv2_prescale <- conv2
I0411 20:57:01.997308  6751 net.cpp:395] conv2_prescale -> conv2 (in-place)
I0411 20:57:01.997431  6751 net.cpp:150] Setting up conv2_prescale
I0411 20:57:01.997440  6751 net.cpp:157] Top shape: 1024 150 18 18 (49766400)
I0411 20:57:01.997444  6751 net.cpp:165] Memory required for data: 3497230336
I0411 20:57:01.997448  6751 layer_factory.hpp:77] Creating layer conv2_sTanH
I0411 20:57:01.997454  6751 net.cpp:100] Creating Layer conv2_sTanH
I0411 20:57:01.997458  6751 net.cpp:434] conv2_sTanH <- conv2
I0411 20:57:01.997478  6751 net.cpp:395] conv2_sTanH -> conv2 (in-place)
I0411 20:57:02.001307  6751 net.cpp:150] Setting up conv2_sTanH
I0411 20:57:02.001329  6751 net.cpp:157] Top shape: 1024 150 18 18 (49766400)
I0411 20:57:02.001333  6751 net.cpp:165] Memory required for data: 3696295936
I0411 20:57:02.001338  6751 layer_factory.hpp:77] Creating layer conv2_postscale
I0411 20:57:02.001345  6751 net.cpp:100] Creating Layer conv2_postscale
I0411 20:57:02.001351  6751 net.cpp:434] conv2_postscale <- conv2
I0411 20:57:02.001358  6751 net.cpp:395] conv2_postscale -> conv2 (in-place)
I0411 20:57:02.001472  6751 net.cpp:150] Setting up conv2_postscale
I0411 20:57:02.001482  6751 net.cpp:157] Top shape: 1024 150 18 18 (49766400)
I0411 20:57:02.001485  6751 net.cpp:165] Memory required for data: 3895361536
I0411 20:57:02.001492  6751 layer_factory.hpp:77] Creating layer pool2
I0411 20:57:02.001497  6751 net.cpp:100] Creating Layer pool2
I0411 20:57:02.001502  6751 net.cpp:434] pool2 <- conv2
I0411 20:57:02.001509  6751 net.cpp:408] pool2 -> pool2
I0411 20:57:02.001557  6751 net.cpp:150] Setting up pool2
I0411 20:57:02.001569  6751 net.cpp:157] Top shape: 1024 150 9 9 (12441600)
I0411 20:57:02.001571  6751 net.cpp:165] Memory required for data: 3945127936
I0411 20:57:02.001574  6751 layer_factory.hpp:77] Creating layer conv3
I0411 20:57:02.001585  6751 net.cpp:100] Creating Layer conv3
I0411 20:57:02.001590  6751 net.cpp:434] conv3 <- pool2
I0411 20:57:02.001595  6751 net.cpp:408] conv3 -> conv3
I0411 20:57:02.007637  6751 net.cpp:150] Setting up conv3
I0411 20:57:02.007657  6751 net.cpp:157] Top shape: 1024 250 6 6 (9216000)
I0411 20:57:02.007660  6751 net.cpp:165] Memory required for data: 3981991936
I0411 20:57:02.007671  6751 layer_factory.hpp:77] Creating layer conv3_prescale
I0411 20:57:02.007681  6751 net.cpp:100] Creating Layer conv3_prescale
I0411 20:57:02.007685  6751 net.cpp:434] conv3_prescale <- conv3
I0411 20:57:02.007691  6751 net.cpp:395] conv3_prescale -> conv3 (in-place)
I0411 20:57:02.007797  6751 net.cpp:150] Setting up conv3_prescale
I0411 20:57:02.007810  6751 net.cpp:157] Top shape: 1024 250 6 6 (9216000)
I0411 20:57:02.007813  6751 net.cpp:165] Memory required for data: 4018855936
I0411 20:57:02.007819  6751 layer_factory.hpp:77] Creating layer conv3_sTanH
I0411 20:57:02.007824  6751 net.cpp:100] Creating Layer conv3_sTanH
I0411 20:57:02.007828  6751 net.cpp:434] conv3_sTanH <- conv3
I0411 20:57:02.007834  6751 net.cpp:395] conv3_sTanH -> conv3 (in-place)
I0411 20:57:02.010085  6751 net.cpp:150] Setting up conv3_sTanH
I0411 20:57:02.010104  6751 net.cpp:157] Top shape: 1024 250 6 6 (9216000)
I0411 20:57:02.010108  6751 net.cpp:165] Memory required for data: 4055719936
I0411 20:57:02.010113  6751 layer_factory.hpp:77] Creating layer conv3_postscale
I0411 20:57:02.010123  6751 net.cpp:100] Creating Layer conv3_postscale
I0411 20:57:02.010128  6751 net.cpp:434] conv3_postscale <- conv3
I0411 20:57:02.010134  6751 net.cpp:395] conv3_postscale -> conv3 (in-place)
I0411 20:57:02.010246  6751 net.cpp:150] Setting up conv3_postscale
I0411 20:57:02.010257  6751 net.cpp:157] Top shape: 1024 250 6 6 (9216000)
I0411 20:57:02.010259  6751 net.cpp:165] Memory required for data: 4092583936
I0411 20:57:02.010264  6751 layer_factory.hpp:77] Creating layer pool3
I0411 20:57:02.010275  6751 net.cpp:100] Creating Layer pool3
I0411 20:57:02.010280  6751 net.cpp:434] pool3 <- conv3
I0411 20:57:02.010287  6751 net.cpp:408] pool3 -> pool3
I0411 20:57:02.010330  6751 net.cpp:150] Setting up pool3
I0411 20:57:02.010339  6751 net.cpp:157] Top shape: 1024 250 3 3 (2304000)
I0411 20:57:02.010341  6751 net.cpp:165] Memory required for data: 4101799936
I0411 20:57:02.010345  6751 layer_factory.hpp:77] Creating layer fc4_300
I0411 20:57:02.010354  6751 net.cpp:100] Creating Layer fc4_300
I0411 20:57:02.010359  6751 net.cpp:434] fc4_300 <- pool3
I0411 20:57:02.010363  6751 net.cpp:408] fc4_300 -> fc4_300
I0411 20:57:02.016098  6751 net.cpp:150] Setting up fc4_300
I0411 20:57:02.016114  6751 net.cpp:157] Top shape: 1024 300 (307200)
I0411 20:57:02.016119  6751 net.cpp:165] Memory required for data: 4103028736
I0411 20:57:02.016140  6751 layer_factory.hpp:77] Creating layer fc4_prescale
I0411 20:57:02.016149  6751 net.cpp:100] Creating Layer fc4_prescale
I0411 20:57:02.016155  6751 net.cpp:434] fc4_prescale <- fc4_300
I0411 20:57:02.016162  6751 net.cpp:395] fc4_prescale -> fc4_300 (in-place)
I0411 20:57:02.016268  6751 net.cpp:150] Setting up fc4_prescale
I0411 20:57:02.016276  6751 net.cpp:157] Top shape: 1024 300 (307200)
I0411 20:57:02.016279  6751 net.cpp:165] Memory required for data: 4104257536
I0411 20:57:02.016301  6751 layer_factory.hpp:77] Creating layer fc4_sTanH
I0411 20:57:02.016312  6751 net.cpp:100] Creating Layer fc4_sTanH
I0411 20:57:02.016315  6751 net.cpp:434] fc4_sTanH <- fc4_300
I0411 20:57:02.016320  6751 net.cpp:395] fc4_sTanH -> fc4_300 (in-place)
I0411 20:57:02.016530  6751 net.cpp:150] Setting up fc4_sTanH
I0411 20:57:02.016542  6751 net.cpp:157] Top shape: 1024 300 (307200)
I0411 20:57:02.016547  6751 net.cpp:165] Memory required for data: 4105486336
I0411 20:57:02.016551  6751 layer_factory.hpp:77] Creating layer fc4_postscale
I0411 20:57:02.016557  6751 net.cpp:100] Creating Layer fc4_postscale
I0411 20:57:02.016561  6751 net.cpp:434] fc4_postscale <- fc4_300
I0411 20:57:02.016568  6751 net.cpp:395] fc4_postscale -> fc4_300 (in-place)
I0411 20:57:02.016674  6751 net.cpp:150] Setting up fc4_postscale
I0411 20:57:02.016682  6751 net.cpp:157] Top shape: 1024 300 (307200)
I0411 20:57:02.016685  6751 net.cpp:165] Memory required for data: 4106715136
I0411 20:57:02.016690  6751 layer_factory.hpp:77] Creating layer drop4
I0411 20:57:02.016697  6751 net.cpp:100] Creating Layer drop4
I0411 20:57:02.016702  6751 net.cpp:434] drop4 <- fc4_300
I0411 20:57:02.016708  6751 net.cpp:395] drop4 -> fc4_300 (in-place)
I0411 20:57:02.016737  6751 net.cpp:150] Setting up drop4
I0411 20:57:02.016746  6751 net.cpp:157] Top shape: 1024 300 (307200)
I0411 20:57:02.016751  6751 net.cpp:165] Memory required for data: 4107943936
I0411 20:57:02.016752  6751 layer_factory.hpp:77] Creating layer fc5_67
I0411 20:57:02.016759  6751 net.cpp:100] Creating Layer fc5_67
I0411 20:57:02.016762  6751 net.cpp:434] fc5_67 <- fc4_300
I0411 20:57:02.016767  6751 net.cpp:408] fc5_67 -> fc5_classes
I0411 20:57:02.017019  6751 net.cpp:150] Setting up fc5_67
I0411 20:57:02.017029  6751 net.cpp:157] Top shape: 1024 67 (68608)
I0411 20:57:02.017031  6751 net.cpp:165] Memory required for data: 4108218368
I0411 20:57:02.017042  6751 layer_factory.hpp:77] Creating layer fc5_classes_fc5_67_0_split
I0411 20:57:02.017052  6751 net.cpp:100] Creating Layer fc5_classes_fc5_67_0_split
I0411 20:57:02.017055  6751 net.cpp:434] fc5_classes_fc5_67_0_split <- fc5_classes
I0411 20:57:02.017061  6751 net.cpp:408] fc5_classes_fc5_67_0_split -> fc5_classes_fc5_67_0_split_0
I0411 20:57:02.017068  6751 net.cpp:408] fc5_classes_fc5_67_0_split -> fc5_classes_fc5_67_0_split_1
I0411 20:57:02.017074  6751 net.cpp:408] fc5_classes_fc5_67_0_split -> fc5_classes_fc5_67_0_split_2
I0411 20:57:02.017134  6751 net.cpp:150] Setting up fc5_classes_fc5_67_0_split
I0411 20:57:02.017143  6751 net.cpp:157] Top shape: 1024 67 (68608)
I0411 20:57:02.017145  6751 net.cpp:157] Top shape: 1024 67 (68608)
I0411 20:57:02.017149  6751 net.cpp:157] Top shape: 1024 67 (68608)
I0411 20:57:02.017153  6751 net.cpp:165] Memory required for data: 4109041664
I0411 20:57:02.017155  6751 layer_factory.hpp:77] Creating layer loss
I0411 20:57:02.017161  6751 net.cpp:100] Creating Layer loss
I0411 20:57:02.017164  6751 net.cpp:434] loss <- fc5_classes_fc5_67_0_split_0
I0411 20:57:02.017169  6751 net.cpp:434] loss <- label_data_1_split_0
I0411 20:57:02.017174  6751 net.cpp:408] loss -> loss
…
