…
I0402 15:22:00.641270 31282 net.cpp:322] The NetState phase (0) differed from the phase (1) specified by a rule in layer accuracy_5
I0402 15:22:00.641368 31282 net.cpp:58] Initializing net from parameters: 
state {
  phase: TRAIN
  level: 0
  stage: ""
}
layer {
  name: "data"
  type: "Data"
  top: "data"
  top: "label"
  include {
    phase: TRAIN
  }
  transform_param {
    mirror: false
    crop_size: 48
    mean_value: 135
    mean_value: 134
    mean_value: 134
  }
  data_param {
    source: "../local_data/lmdb/rtsd-r3/CoNorm/train/lmdb"
    batch_size: 1024
    backend: LMDB
  }
}
layer {
  name: "conv1"
  type: "Convolution"
  bottom: "data"
  top: "conv1"
  convolution_param {
    num_output: 100
    pad: 0
    kernel_size: 7
    group: 1
    stride: 1
    weight_filler {
      type: "xavier"
    }
  }
}
layer {
  name: "conv1_relu"
  type: "ReLU"
  bottom: "conv1"
  top: "conv1"
}
layer {
  name: "pool1"
  type: "Pooling"
  bottom: "conv1"
  top: "pool1"
  pooling_param {
    pool: MAX
    kernel_size: 2
    stride: 2
  }
}
layer {
  name: "conv2"
  type: "Convolution"
  bottom: "pool1"
  top: "conv2"
  convolution_param {
    num_output: 150
    pad: 0
    kernel_size: 4
    group: 1
    stride: 1
    weight_filler {
      type: "xavier"
    }
  }
}
layer {
  name: "conv2_relu"
  type: "ReLU"
  bottom: "conv2"
  top: "conv2"
}
layer {
  name: "pool2"
  type: "Pooling"
  bottom: "conv2"
  top: "pool2"
  pooling_param {
    pool: MAX
    kernel_size: 2
    stride: 2
  }
}
layer {
  name: "conv3"
  type: "Convolution"
  bottom: "pool2"
  top: "conv3"
  convolution_param {
    num_output: 250
    pad: 0
    kernel_size: 4
    group: 1
    stride: 1
    weight_filler {
      type: "xavier"
    }
  }
}
layer {
  name: "conv3_relu"
  type: "ReLU"
  bottom: "conv3"
  top: "conv3"
}
layer {
  name: "pool3"
  type: "Pooling"
  bottom: "conv3"
  top: "pool3"
  pooling_param {
    pool: MAX
    kernel_size: 2
    stride: 2
  }
}
layer {
  name: "fc4_300"
  type: "InnerProduct"
  bottom: "pool3"
  top: "fc4_300"
  inner_product_param {
    num_output: 300
    weight_filler {
      type: "xavier"
    }
  }
}
layer {
  name: "fc4_relu"
  type: "ReLU"
  bottom: "fc4_300"
  top: "fc4_300"
}
layer {
  name: "drop4"
  type: "Dropout"
  bottom: "fc4_300"
  top: "fc4_300"
  dropout_param {
    dropout_ratio: 0.4
  }
}
layer {
  name: "fc5_106"
  type: "InnerProduct"
  bottom: "fc4_300"
  top: "fc5_classes"
  inner_product_param {
    num_output: 106
    weight_filler {
      type: "xavier"
    }
  }
}
layer {
  name: "loss"
  type: "SoftmaxWithLoss"
  bottom: "fc5_classes"
  bottom: "label"
  top: "loss"
}
I0402 15:22:00.641443 31282 layer_factory.hpp:77] Creating layer data
I0402 15:22:00.642488 31282 net.cpp:100] Creating Layer data
I0402 15:22:00.642503 31282 net.cpp:408] data -> data
I0402 15:22:00.642525 31282 net.cpp:408] data -> label
I0402 15:22:00.644203 31337 db_lmdb.cpp:35] Opened lmdb ../local_data/lmdb/rtsd-r3/CoNorm/train/lmdb
I0402 15:22:00.661051 31282 data_layer.cpp:41] output data size: 1024,3,48,48
I0402 15:22:00.703968 31282 net.cpp:150] Setting up data
I0402 15:22:00.704011 31282 net.cpp:157] Top shape: 1024 3 48 48 (7077888)
I0402 15:22:00.704017 31282 net.cpp:157] Top shape: 1024 (1024)
I0402 15:22:00.704046 31282 net.cpp:165] Memory required for data: 28315648
I0402 15:22:00.704056 31282 layer_factory.hpp:77] Creating layer conv1
I0402 15:22:00.704079 31282 net.cpp:100] Creating Layer conv1
I0402 15:22:00.704088 31282 net.cpp:434] conv1 <- data
I0402 15:22:00.704104 31282 net.cpp:408] conv1 -> conv1
I0402 15:22:00.971251 31282 net.cpp:150] Setting up conv1
I0402 15:22:00.971295 31282 net.cpp:157] Top shape: 1024 100 42 42 (180633600)
I0402 15:22:00.971300 31282 net.cpp:165] Memory required for data: 750850048
I0402 15:22:00.971323 31282 layer_factory.hpp:77] Creating layer conv1_relu
I0402 15:22:00.971336 31282 net.cpp:100] Creating Layer conv1_relu
I0402 15:22:00.971340 31282 net.cpp:434] conv1_relu <- conv1
I0402 15:22:00.971346 31282 net.cpp:395] conv1_relu -> conv1 (in-place)
I0402 15:22:00.971544 31282 net.cpp:150] Setting up conv1_relu
I0402 15:22:00.971557 31282 net.cpp:157] Top shape: 1024 100 42 42 (180633600)
I0402 15:22:00.971561 31282 net.cpp:165] Memory required for data: 1473384448
I0402 15:22:00.971565 31282 layer_factory.hpp:77] Creating layer pool1
I0402 15:22:00.971573 31282 net.cpp:100] Creating Layer pool1
I0402 15:22:00.971576 31282 net.cpp:434] pool1 <- conv1
I0402 15:22:00.971581 31282 net.cpp:408] pool1 -> pool1
I0402 15:22:00.971637 31282 net.cpp:150] Setting up pool1
I0402 15:22:00.971643 31282 net.cpp:157] Top shape: 1024 100 21 21 (45158400)
I0402 15:22:00.971647 31282 net.cpp:165] Memory required for data: 1654018048
I0402 15:22:00.971649 31282 layer_factory.hpp:77] Creating layer conv2
I0402 15:22:00.971662 31282 net.cpp:100] Creating Layer conv2
I0402 15:22:00.971664 31282 net.cpp:434] conv2 <- pool1
I0402 15:22:00.971669 31282 net.cpp:408] conv2 -> conv2
I0402 15:22:00.976011 31282 net.cpp:150] Setting up conv2
I0402 15:22:00.976032 31282 net.cpp:157] Top shape: 1024 150 18 18 (49766400)
I0402 15:22:00.976035 31282 net.cpp:165] Memory required for data: 1853083648
I0402 15:22:00.976047 31282 layer_factory.hpp:77] Creating layer conv2_relu
I0402 15:22:00.976053 31282 net.cpp:100] Creating Layer conv2_relu
I0402 15:22:00.976058 31282 net.cpp:434] conv2_relu <- conv2
I0402 15:22:00.976063 31282 net.cpp:395] conv2_relu -> conv2 (in-place)
I0402 15:22:00.976867 31282 net.cpp:150] Setting up conv2_relu
I0402 15:22:00.976886 31282 net.cpp:157] Top shape: 1024 150 18 18 (49766400)
I0402 15:22:00.976889 31282 net.cpp:165] Memory required for data: 2052149248
I0402 15:22:00.976893 31282 layer_factory.hpp:77] Creating layer pool2
I0402 15:22:00.976900 31282 net.cpp:100] Creating Layer pool2
I0402 15:22:00.976903 31282 net.cpp:434] pool2 <- conv2
I0402 15:22:00.976909 31282 net.cpp:408] pool2 -> pool2
I0402 15:22:00.976956 31282 net.cpp:150] Setting up pool2
I0402 15:22:00.976965 31282 net.cpp:157] Top shape: 1024 150 9 9 (12441600)
I0402 15:22:00.976969 31282 net.cpp:165] Memory required for data: 2101915648
I0402 15:22:00.976971 31282 layer_factory.hpp:77] Creating layer conv3
I0402 15:22:00.976979 31282 net.cpp:100] Creating Layer conv3
I0402 15:22:00.976984 31282 net.cpp:434] conv3 <- pool2
I0402 15:22:00.976989 31282 net.cpp:408] conv3 -> conv3
I0402 15:22:00.982426 31282 net.cpp:150] Setting up conv3
I0402 15:22:00.982444 31282 net.cpp:157] Top shape: 1024 250 6 6 (9216000)
I0402 15:22:00.982447 31282 net.cpp:165] Memory required for data: 2138779648
I0402 15:22:00.982457 31282 layer_factory.hpp:77] Creating layer conv3_relu
I0402 15:22:00.982465 31282 net.cpp:100] Creating Layer conv3_relu
I0402 15:22:00.982470 31282 net.cpp:434] conv3_relu <- conv3
I0402 15:22:00.982475 31282 net.cpp:395] conv3_relu -> conv3 (in-place)
I0402 15:22:00.983269 31282 net.cpp:150] Setting up conv3_relu
I0402 15:22:00.983285 31282 net.cpp:157] Top shape: 1024 250 6 6 (9216000)
I0402 15:22:00.983289 31282 net.cpp:165] Memory required for data: 2175643648
I0402 15:22:00.983292 31282 layer_factory.hpp:77] Creating layer pool3
I0402 15:22:00.983299 31282 net.cpp:100] Creating Layer pool3
I0402 15:22:00.983302 31282 net.cpp:434] pool3 <- conv3
I0402 15:22:00.983309 31282 net.cpp:408] pool3 -> pool3
I0402 15:22:00.983386 31282 net.cpp:150] Setting up pool3
I0402 15:22:00.983397 31282 net.cpp:157] Top shape: 1024 250 3 3 (2304000)
I0402 15:22:00.983400 31282 net.cpp:165] Memory required for data: 2184859648
I0402 15:22:00.983403 31282 layer_factory.hpp:77] Creating layer fc4_300
I0402 15:22:00.983412 31282 net.cpp:100] Creating Layer fc4_300
I0402 15:22:00.983414 31282 net.cpp:434] fc4_300 <- pool3
I0402 15:22:00.983419 31282 net.cpp:408] fc4_300 -> fc4_300
I0402 15:22:00.988759 31282 net.cpp:150] Setting up fc4_300
I0402 15:22:00.988775 31282 net.cpp:157] Top shape: 1024 300 (307200)
I0402 15:22:00.988778 31282 net.cpp:165] Memory required for data: 2186088448
I0402 15:22:00.988785 31282 layer_factory.hpp:77] Creating layer fc4_relu
I0402 15:22:00.988791 31282 net.cpp:100] Creating Layer fc4_relu
I0402 15:22:00.988795 31282 net.cpp:434] fc4_relu <- fc4_300
I0402 15:22:00.988800 31282 net.cpp:395] fc4_relu -> fc4_300 (in-place)
I0402 15:22:00.988999 31282 net.cpp:150] Setting up fc4_relu
I0402 15:22:00.989012 31282 net.cpp:157] Top shape: 1024 300 (307200)
I0402 15:22:00.989015 31282 net.cpp:165] Memory required for data: 2187317248
I0402 15:22:00.989019 31282 layer_factory.hpp:77] Creating layer drop4
I0402 15:22:00.989027 31282 net.cpp:100] Creating Layer drop4
I0402 15:22:00.989030 31282 net.cpp:434] drop4 <- fc4_300
I0402 15:22:00.989035 31282 net.cpp:395] drop4 -> fc4_300 (in-place)
I0402 15:22:00.989068 31282 net.cpp:150] Setting up drop4
I0402 15:22:00.989074 31282 net.cpp:157] Top shape: 1024 300 (307200)
I0402 15:22:00.989078 31282 net.cpp:165] Memory required for data: 2188546048
I0402 15:22:00.989080 31282 layer_factory.hpp:77] Creating layer fc5_106
I0402 15:22:00.989087 31282 net.cpp:100] Creating Layer fc5_106
I0402 15:22:00.989090 31282 net.cpp:434] fc5_106 <- fc4_300
I0402 15:22:00.989095 31282 net.cpp:408] fc5_106 -> fc5_classes
I0402 15:22:00.990377 31282 net.cpp:150] Setting up fc5_106
I0402 15:22:00.990393 31282 net.cpp:157] Top shape: 1024 106 (108544)
I0402 15:22:00.990408 31282 net.cpp:165] Memory required for data: 2188980224
I0402 15:22:00.990418 31282 layer_factory.hpp:77] Creating layer loss
I0402 15:22:00.990425 31282 net.cpp:100] Creating Layer loss
I0402 15:22:00.990429 31282 net.cpp:434] loss <- fc5_classes
I0402 15:22:00.990433 31282 net.cpp:434] loss <- label
I0402 15:22:00.990439 31282 net.cpp:408] loss -> loss
I0402 15:22:00.990453 31282 layer_factory.hpp:77] Creating layer loss
…
I0402 15:22:00.991137 31282 solver.cpp:193] Creating test net (#0) specified by test_net file: ./Prototxt/experiment_3/rtsd-r3/CoNorm/test.prototxt
I0402 15:22:00.991274 31282 net.cpp:58] Initializing net from parameters: 
state {
  phase: TEST
}
layer {
  name: "data"
  type: "Data"
  top: "data"
  top: "label"
  include {
    phase: TEST
  }
  transform_param {
    mirror: false
    crop_size: 48
    mean_value: 136
    mean_value: 136
    mean_value: 135
  }
  data_param {
    source: "../local_data/lmdb/rtsd-r3/CoNorm/test/lmdb"
    batch_size: 1024
    backend: LMDB
  }
}
layer {
  name: "conv1"
  type: "Convolution"
  bottom: "data"
  top: "conv1"
  convolution_param {
    num_output: 100
    pad: 0
    kernel_size: 7
    group: 1
    stride: 1
    weight_filler {
      type: "xavier"
    }
  }
}
layer {
  name: "conv1_relu"
  type: "ReLU"
  bottom: "conv1"
  top: "conv1"
}
layer {
  name: "pool1"
  type: "Pooling"
  bottom: "conv1"
  top: "pool1"
  pooling_param {
    pool: MAX
    kernel_size: 2
    stride: 2
  }
}
layer {
  name: "conv2"
  type: "Convolution"
  bottom: "pool1"
  top: "conv2"
  convolution_param {
    num_output: 150
    pad: 0
    kernel_size: 4
    group: 1
    stride: 1
    weight_filler {
      type: "xavier"
    }
  }
}
layer {
  name: "conv2_relu"
  type: "ReLU"
  bottom: "conv2"
  top: "conv2"
}
layer {
  name: "pool2"
  type: "Pooling"
  bottom: "conv2"
  top: "pool2"
  pooling_param {
    pool: MAX
    kernel_size: 2
    stride: 2
  }
}
layer {
  name: "conv3"
  type: "Convolution"
  bottom: "pool2"
  top: "conv3"
  convolution_param {
    num_output: 250
    pad: 0
    kernel_size: 4
    group: 1
    stride: 1
    weight_filler {
      type: "xavier"
    }
  }
}
layer {
  name: "conv3_relu"
  type: "ReLU"
  bottom: "conv3"
  top: "conv3"
}
layer {
  name: "pool3"
  type: "Pooling"
  bottom: "conv3"
  top: "pool3"
  pooling_param {
    pool: MAX
    kernel_size: 2
    stride: 2
  }
}
layer {
  name: "fc4_300"
  type: "InnerProduct"
  bottom: "pool3"
  top: "fc4_300"
  inner_product_param {
    num_output: 300
    weight_filler {
      type: "xavier"
    }
  }
}
layer {
  name: "fc4_relu"
  type: "ReLU"
  bottom: "fc4_300"
  top: "fc4_300"
}
layer {
  name: "drop4"
  type: "Dropout"
  bottom: "fc4_300"
  top: "fc4_300"
  dropout_param {
    dropout_ratio: 0.4
  }
}
layer {
  name: "fc5_106"
  type: "InnerProduct"
  bottom: "fc4_300"
  top: "fc5_classes"
  inner_product_param {
    num_output: 106
    weight_filler {
      type: "xavier"
    }
  }
}
layer {
  name: "loss"
  type: "SoftmaxWithLoss"
  bottom: "fc5_classes"
  bottom: "label"
  top: "loss"
}
layer {
  name: "accuracy_1"
  type: "Accuracy"
  bottom: "fc5_classes"
  bottom: "label"
  top: "accuracy_1"
  include {
    phase: TEST
  }
  accuracy_param {
    top_k: 1
  }
}
layer {
  name: "accuracy_5"
  type: "Accuracy"
  bottom: "fc5_classes"
  bottom: "label"
  top: "accuracy_5"
  include {
    phase: TEST
  }
  accuracy_param {
    top_k: 5
  }
}
I0402 15:22:00.991358 31282 layer_factory.hpp:77] Creating layer data
I0402 15:22:00.991940 31282 net.cpp:100] Creating Layer data
I0402 15:22:00.991956 31282 net.cpp:408] data -> data
I0402 15:22:00.991966 31282 net.cpp:408] data -> label
I0402 15:22:00.993521 31346 db_lmdb.cpp:35] Opened lmdb ../local_data/lmdb/rtsd-r3/CoNorm/test/lmdb
I0402 15:22:00.993696 31282 data_layer.cpp:41] output data size: 1024,3,48,48
I0402 15:22:01.048635 31282 net.cpp:150] Setting up data
I0402 15:22:01.048666 31282 net.cpp:157] Top shape: 1024 3 48 48 (7077888)
I0402 15:22:01.048672 31282 net.cpp:157] Top shape: 1024 (1024)
I0402 15:22:01.048676 31282 net.cpp:165] Memory required for data: 28315648
I0402 15:22:01.048681 31282 layer_factory.hpp:77] Creating layer label_data_1_split
I0402 15:22:01.048697 31282 net.cpp:100] Creating Layer label_data_1_split
I0402 15:22:01.048702 31282 net.cpp:434] label_data_1_split <- label
I0402 15:22:01.048709 31282 net.cpp:408] label_data_1_split -> label_data_1_split_0
I0402 15:22:01.048720 31282 net.cpp:408] label_data_1_split -> label_data_1_split_1
I0402 15:22:01.048727 31282 net.cpp:408] label_data_1_split -> label_data_1_split_2
I0402 15:22:01.048877 31282 net.cpp:150] Setting up label_data_1_split
I0402 15:22:01.048887 31282 net.cpp:157] Top shape: 1024 (1024)
I0402 15:22:01.048892 31282 net.cpp:157] Top shape: 1024 (1024)
I0402 15:22:01.048895 31282 net.cpp:157] Top shape: 1024 (1024)
I0402 15:22:01.048898 31282 net.cpp:165] Memory required for data: 28327936
I0402 15:22:01.048902 31282 layer_factory.hpp:77] Creating layer conv1
I0402 15:22:01.048915 31282 net.cpp:100] Creating Layer conv1
I0402 15:22:01.048920 31282 net.cpp:434] conv1 <- data
I0402 15:22:01.048926 31282 net.cpp:408] conv1 -> conv1
I0402 15:22:01.050779 31282 net.cpp:150] Setting up conv1
I0402 15:22:01.050797 31282 net.cpp:157] Top shape: 1024 100 42 42 (180633600)
I0402 15:22:01.050801 31282 net.cpp:165] Memory required for data: 750862336
I0402 15:22:01.050813 31282 layer_factory.hpp:77] Creating layer conv1_relu
I0402 15:22:01.050820 31282 net.cpp:100] Creating Layer conv1_relu
I0402 15:22:01.050825 31282 net.cpp:434] conv1_relu <- conv1
I0402 15:22:01.050830 31282 net.cpp:395] conv1_relu -> conv1 (in-place)
I0402 15:22:01.053210 31282 net.cpp:150] Setting up conv1_relu
I0402 15:22:01.053226 31282 net.cpp:157] Top shape: 1024 100 42 42 (180633600)
I0402 15:22:01.053241 31282 net.cpp:165] Memory required for data: 1473396736
I0402 15:22:01.053246 31282 layer_factory.hpp:77] Creating layer pool1
I0402 15:22:01.053256 31282 net.cpp:100] Creating Layer pool1
I0402 15:22:01.053259 31282 net.cpp:434] pool1 <- conv1
I0402 15:22:01.053266 31282 net.cpp:408] pool1 -> pool1
I0402 15:22:01.053318 31282 net.cpp:150] Setting up pool1
I0402 15:22:01.053328 31282 net.cpp:157] Top shape: 1024 100 21 21 (45158400)
I0402 15:22:01.053330 31282 net.cpp:165] Memory required for data: 1654030336
I0402 15:22:01.053333 31282 layer_factory.hpp:77] Creating layer conv2
I0402 15:22:01.053342 31282 net.cpp:100] Creating Layer conv2
I0402 15:22:01.053346 31282 net.cpp:434] conv2 <- pool1
I0402 15:22:01.053354 31282 net.cpp:408] conv2 -> conv2
I0402 15:22:01.057271 31282 net.cpp:150] Setting up conv2
I0402 15:22:01.057288 31282 net.cpp:157] Top shape: 1024 150 18 18 (49766400)
I0402 15:22:01.057291 31282 net.cpp:165] Memory required for data: 1853095936
I0402 15:22:01.057301 31282 layer_factory.hpp:77] Creating layer conv2_relu
I0402 15:22:01.057309 31282 net.cpp:100] Creating Layer conv2_relu
I0402 15:22:01.057312 31282 net.cpp:434] conv2_relu <- conv2
I0402 15:22:01.057322 31282 net.cpp:395] conv2_relu -> conv2 (in-place)
I0402 15:22:01.058116 31282 net.cpp:150] Setting up conv2_relu
I0402 15:22:01.058133 31282 net.cpp:157] Top shape: 1024 150 18 18 (49766400)
I0402 15:22:01.058136 31282 net.cpp:165] Memory required for data: 2052161536
I0402 15:22:01.058140 31282 layer_factory.hpp:77] Creating layer pool2
I0402 15:22:01.058147 31282 net.cpp:100] Creating Layer pool2
I0402 15:22:01.058151 31282 net.cpp:434] pool2 <- conv2
I0402 15:22:01.058159 31282 net.cpp:408] pool2 -> pool2
I0402 15:22:01.058214 31282 net.cpp:150] Setting up pool2
I0402 15:22:01.058224 31282 net.cpp:157] Top shape: 1024 150 9 9 (12441600)
I0402 15:22:01.058228 31282 net.cpp:165] Memory required for data: 2101927936
I0402 15:22:01.058231 31282 layer_factory.hpp:77] Creating layer conv3
I0402 15:22:01.058243 31282 net.cpp:100] Creating Layer conv3
I0402 15:22:01.058246 31282 net.cpp:434] conv3 <- pool2
I0402 15:22:01.058254 31282 net.cpp:408] conv3 -> conv3
I0402 15:22:01.063829 31282 net.cpp:150] Setting up conv3
I0402 15:22:01.063848 31282 net.cpp:157] Top shape: 1024 250 6 6 (9216000)
I0402 15:22:01.063853 31282 net.cpp:165] Memory required for data: 2138791936
I0402 15:22:01.063864 31282 layer_factory.hpp:77] Creating layer conv3_relu
I0402 15:22:01.063874 31282 net.cpp:100] Creating Layer conv3_relu
I0402 15:22:01.063879 31282 net.cpp:434] conv3_relu <- conv3
I0402 15:22:01.063884 31282 net.cpp:395] conv3_relu -> conv3 (in-place)
I0402 15:22:01.064682 31282 net.cpp:150] Setting up conv3_relu
I0402 15:22:01.064700 31282 net.cpp:157] Top shape: 1024 250 6 6 (9216000)
I0402 15:22:01.064704 31282 net.cpp:165] Memory required for data: 2175655936
I0402 15:22:01.064721 31282 layer_factory.hpp:77] Creating layer pool3
I0402 15:22:01.064729 31282 net.cpp:100] Creating Layer pool3
I0402 15:22:01.064733 31282 net.cpp:434] pool3 <- conv3
I0402 15:22:01.064741 31282 net.cpp:408] pool3 -> pool3
I0402 15:22:01.064793 31282 net.cpp:150] Setting up pool3
I0402 15:22:01.064802 31282 net.cpp:157] Top shape: 1024 250 3 3 (2304000)
I0402 15:22:01.064805 31282 net.cpp:165] Memory required for data: 2184871936
I0402 15:22:01.064810 31282 layer_factory.hpp:77] Creating layer fc4_300
I0402 15:22:01.064818 31282 net.cpp:100] Creating Layer fc4_300
I0402 15:22:01.064822 31282 net.cpp:434] fc4_300 <- pool3
I0402 15:22:01.064827 31282 net.cpp:408] fc4_300 -> fc4_300
I0402 15:22:01.070194 31282 net.cpp:150] Setting up fc4_300
I0402 15:22:01.070211 31282 net.cpp:157] Top shape: 1024 300 (307200)
I0402 15:22:01.070215 31282 net.cpp:165] Memory required for data: 2186100736
I0402 15:22:01.070222 31282 layer_factory.hpp:77] Creating layer fc4_relu
I0402 15:22:01.070231 31282 net.cpp:100] Creating Layer fc4_relu
I0402 15:22:01.070235 31282 net.cpp:434] fc4_relu <- fc4_300
I0402 15:22:01.070240 31282 net.cpp:395] fc4_relu -> fc4_300 (in-place)
I0402 15:22:01.070446 31282 net.cpp:150] Setting up fc4_relu
I0402 15:22:01.070459 31282 net.cpp:157] Top shape: 1024 300 (307200)
I0402 15:22:01.070462 31282 net.cpp:165] Memory required for data: 2187329536
I0402 15:22:01.070466 31282 layer_factory.hpp:77] Creating layer drop4
I0402 15:22:01.070474 31282 net.cpp:100] Creating Layer drop4
I0402 15:22:01.070478 31282 net.cpp:434] drop4 <- fc4_300
I0402 15:22:01.070483 31282 net.cpp:395] drop4 -> fc4_300 (in-place)
I0402 15:22:01.070516 31282 net.cpp:150] Setting up drop4
I0402 15:22:01.070525 31282 net.cpp:157] Top shape: 1024 300 (307200)
I0402 15:22:01.070528 31282 net.cpp:165] Memory required for data: 2188558336
I0402 15:22:01.070531 31282 layer_factory.hpp:77] Creating layer fc5_106
I0402 15:22:01.070538 31282 net.cpp:100] Creating Layer fc5_106
I0402 15:22:01.070544 31282 net.cpp:434] fc5_106 <- fc4_300
I0402 15:22:01.070549 31282 net.cpp:408] fc5_106 -> fc5_classes
I0402 15:22:01.070876 31282 net.cpp:150] Setting up fc5_106
I0402 15:22:01.070886 31282 net.cpp:157] Top shape: 1024 106 (108544)
I0402 15:22:01.070889 31282 net.cpp:165] Memory required for data: 2188992512
I0402 15:22:01.070900 31282 layer_factory.hpp:77] Creating layer fc5_classes_fc5_106_0_split
I0402 15:22:01.070909 31282 net.cpp:100] Creating Layer fc5_classes_fc5_106_0_split
I0402 15:22:01.070911 31282 net.cpp:434] fc5_classes_fc5_106_0_split <- fc5_classes
I0402 15:22:01.070919 31282 net.cpp:408] fc5_classes_fc5_106_0_split -> fc5_classes_fc5_106_0_split_0
I0402 15:22:01.070926 31282 net.cpp:408] fc5_classes_fc5_106_0_split -> fc5_classes_fc5_106_0_split_1
I0402 15:22:01.070935 31282 net.cpp:408] fc5_classes_fc5_106_0_split -> fc5_classes_fc5_106_0_split_2
I0402 15:22:01.070988 31282 net.cpp:150] Setting up fc5_classes_fc5_106_0_split
I0402 15:22:01.070996 31282 net.cpp:157] Top shape: 1024 106 (108544)
I0402 15:22:01.071000 31282 net.cpp:157] Top shape: 1024 106 (108544)
I0402 15:22:01.071004 31282 net.cpp:157] Top shape: 1024 106 (108544)
I0402 15:22:01.071007 31282 net.cpp:165] Memory required for data: 2190295040
I0402 15:22:01.071010 31282 layer_factory.hpp:77] Creating layer loss
I0402 15:22:01.071022 31282 net.cpp:100] Creating Layer loss
I0402 15:22:01.071024 31282 net.cpp:434] loss <- fc5_classes_fc5_106_0_split_0
I0402 15:22:01.071029 31282 net.cpp:434] loss <- label_data_1_split_0
I0402 15:22:01.071035 31282 net.cpp:408] loss -> loss
…
