…
I0415 01:51:50.922034 10315 solver.cpp:93] Creating training net from train_net file: ./Prototxt/experiment_12/rtsd-r1/orig/trial_1/train.prototxt
I0415 01:51:50.942718 10315 net.cpp:58] Initializing net from parameters: 
state {
  phase: TRAIN
  level: 0
  stage: ""
}
layer {
  name: "data"
  type: "Data"
  top: "data"
  top: "label"
  include {
    phase: TRAIN
  }
  transform_param {
    scale: 0.0039215689
    mirror: false
    crop_size: 48
    mean_value: 122
    mean_value: 115
    mean_value: 129
  }
  data_param {
    source: "../local_data/lmdb/rtsd-r1/orig/train/lmdb"
    batch_size: 1024
    backend: LMDB
  }
}
layer {
  name: "conv1"
  type: "Convolution"
  bottom: "data"
  top: "conv1"
  convolution_param {
    num_output: 100
    pad: 0
    kernel_size: 7
    group: 1
    stride: 1
    weight_filler {
      type: "xavier"
    }
  }
}
layer {
  name: "conv1_relu"
  type: "ReLU"
  bottom: "conv1"
  top: "conv1"
}
layer {
  name: "pool1"
  type: "Pooling"
  bottom: "conv1"
  top: "pool1"
  pooling_param {
    pool: MAX
    kernel_size: 2
    stride: 2
  }
}
layer {
  name: "conv2"
  type: "Convolution"
  bottom: "pool1"
  top: "conv2"
  convolution_param {
    num_output: 150
    pad: 0
    kernel_size: 4
    group: 1
    stride: 1
    weight_filler {
      type: "xavier"
    }
  }
}
layer {
  name: "conv2_relu"
  type: "ReLU"
  bottom: "conv2"
  top: "conv2"
}
layer {
  name: "pool2"
  type: "Pooling"
  bottom: "conv2"
  top: "pool2"
  pooling_param {
    pool: MAX
    kernel_size: 2
    stride: 2
  }
}
layer {
  name: "conv3"
  type: "Convolution"
  bottom: "pool2"
  top: "conv3"
  convolution_param {
    num_output: 250
    pad: 0
    kernel_size: 4
    group: 1
    stride: 1
    weight_filler {
      type: "xavier"
    }
  }
}
layer {
  name: "conv3_relu"
  type: "ReLU"
  bottom: "conv3"
  top: "conv3"
}
layer {
  name: "pool3"
  type: "Pooling"
  bottom: "conv3"
  top: "pool3"
  pooling_param {
    pool: MAX
    kernel_size: 2
    stride: 2
  }
}
layer {
  name: "fc4_300"
  type: "InnerProduct"
  bottom: "pool3"
  top: "fc4_300"
  inner_product_param {
    num_output: 300
    weight_filler {
      type: "xavier"
    }
  }
}
layer {
  name: "fc4_relu"
  type: "ReLU"
  bottom: "fc4_300"
  top: "fc4_300"
}
layer {
  name: "drop4"
  type: "Dropout"
  bottom: "fc4_300"
  top: "fc4_300"
  dropout_param {
    dropout_ratio: 0.5
  }
}
layer {
  name: "fc5_67"
  type: "InnerProduct"
  bottom: "fc4_300"
  top: "fc5_classes"
  inner_product_param {
    num_output: 67
    weight_filler {
      type: "xavier"
    }
  }
}
layer {
  name: "softmax"
  type: "Softmax"
  bottom: "fc5_classes"
  top: "softmax"
}
layer {
  name: "loss"
  type: "MultinomialLogisticLoss"
  bottom: "softmax"
  bottom: "label"
  top: "loss"
}
layer {
  name: "accuracy_1"
  type: "Accuracy"
  bottom: "fc5_classes"
  bottom: "label"
  top: "accuracy_1"
  accuracy_param {
    top_k: 1
  }
}
layer {
  name: "accuracy_5"
  type: "Accuracy"
  bottom: "fc5_classes"
  bottom: "label"
  top: "accuracy_5"
  accuracy_param {
    top_k: 5
  }
}
layer {
  name: "silence"
  type: "Silence"
  bottom: "accuracy_1"
  bottom: "accuracy_5"
}
I0415 01:51:50.942924 10315 layer_factory.hpp:77] Creating layer data
I0415 01:51:50.944577 10315 net.cpp:100] Creating Layer data
I0415 01:51:50.944595 10315 net.cpp:408] data -> data
I0415 01:51:50.944628 10315 net.cpp:408] data -> label
I0415 01:51:50.982141 10474 db_lmdb.cpp:35] Opened lmdb ../local_data/lmdb/rtsd-r1/orig/train/lmdb
I0415 01:51:51.019942 10315 data_layer.cpp:41] output data size: 1024,3,48,48
I0415 01:51:51.139209 10315 net.cpp:150] Setting up data
I0415 01:51:51.140740 10315 net.cpp:157] Top shape: 1024 3 48 48 (7077888)
I0415 01:51:51.140875 10315 net.cpp:157] Top shape: 1024 (1024)
I0415 01:51:51.140920 10315 net.cpp:165] Memory required for data: 28315648
I0415 01:51:51.140969 10315 layer_factory.hpp:77] Creating layer label_data_1_split
I0415 01:51:51.141013 10315 net.cpp:100] Creating Layer label_data_1_split
I0415 01:51:51.141057 10315 net.cpp:434] label_data_1_split <- label
I0415 01:51:51.141101 10315 net.cpp:408] label_data_1_split -> label_data_1_split_0
I0415 01:51:51.141155 10315 net.cpp:408] label_data_1_split -> label_data_1_split_1
I0415 01:51:51.141203 10315 net.cpp:408] label_data_1_split -> label_data_1_split_2
I0415 01:51:51.141325 10315 net.cpp:150] Setting up label_data_1_split
I0415 01:51:51.141449 10315 net.cpp:157] Top shape: 1024 (1024)
I0415 01:51:51.141489 10315 net.cpp:157] Top shape: 1024 (1024)
I0415 01:51:51.141518 10315 net.cpp:157] Top shape: 1024 (1024)
I0415 01:51:51.141544 10315 net.cpp:165] Memory required for data: 28327936
I0415 01:51:51.141571 10315 layer_factory.hpp:77] Creating layer conv1
I0415 01:51:51.141618 10315 net.cpp:100] Creating Layer conv1
I0415 01:51:51.141670 10315 net.cpp:434] conv1 <- data
I0415 01:51:51.141705 10315 net.cpp:408] conv1 -> conv1
I0415 01:51:51.837970 10315 net.cpp:150] Setting up conv1
I0415 01:51:51.838201 10315 net.cpp:157] Top shape: 1024 100 42 42 (180633600)
I0415 01:51:51.838243 10315 net.cpp:165] Memory required for data: 750862336
I0415 01:51:51.838295 10315 layer_factory.hpp:77] Creating layer conv1_relu
I0415 01:51:51.838359 10315 net.cpp:100] Creating Layer conv1_relu
I0415 01:51:51.838397 10315 net.cpp:434] conv1_relu <- conv1
I0415 01:51:51.838429 10315 net.cpp:395] conv1_relu -> conv1 (in-place)
I0415 01:51:51.838728 10315 net.cpp:150] Setting up conv1_relu
I0415 01:51:51.839042 10315 net.cpp:157] Top shape: 1024 100 42 42 (180633600)
I0415 01:51:51.839076 10315 net.cpp:165] Memory required for data: 1473396736
I0415 01:51:51.839102 10315 layer_factory.hpp:77] Creating layer pool1
I0415 01:51:51.839136 10315 net.cpp:100] Creating Layer pool1
I0415 01:51:51.839172 10315 net.cpp:434] pool1 <- conv1
I0415 01:51:51.839202 10315 net.cpp:408] pool1 -> pool1
I0415 01:51:51.839303 10315 net.cpp:150] Setting up pool1
I0415 01:51:51.839411 10315 net.cpp:157] Top shape: 1024 100 21 21 (45158400)
I0415 01:51:51.839440 10315 net.cpp:165] Memory required for data: 1654030336
I0415 01:51:51.839467 10315 layer_factory.hpp:77] Creating layer conv2
I0415 01:51:51.839503 10315 net.cpp:100] Creating Layer conv2
I0415 01:51:51.839540 10315 net.cpp:434] conv2 <- pool1
I0415 01:51:51.839570 10315 net.cpp:408] conv2 -> conv2
I0415 01:51:51.872036 10315 net.cpp:150] Setting up conv2
I0415 01:51:51.872115 10315 net.cpp:157] Top shape: 1024 150 18 18 (49766400)
I0415 01:51:51.872413 10315 net.cpp:165] Memory required for data: 1853095936
I0415 01:51:51.872680 10315 layer_factory.hpp:77] Creating layer conv2_relu
I0415 01:51:51.872720 10315 net.cpp:100] Creating Layer conv2_relu
I0415 01:51:51.872741 10315 net.cpp:434] conv2_relu <- conv2
I0415 01:51:51.872771 10315 net.cpp:395] conv2_relu -> conv2 (in-place)
I0415 01:51:51.875013 10315 net.cpp:150] Setting up conv2_relu
I0415 01:51:51.879858 10315 net.cpp:157] Top shape: 1024 150 18 18 (49766400)
I0415 01:51:51.879899 10315 net.cpp:165] Memory required for data: 2052161536
I0415 01:51:51.879921 10315 layer_factory.hpp:77] Creating layer pool2
I0415 01:51:51.879946 10315 net.cpp:100] Creating Layer pool2
I0415 01:51:51.879966 10315 net.cpp:434] pool2 <- conv2
I0415 01:51:51.879990 10315 net.cpp:408] pool2 -> pool2
I0415 01:51:51.880096 10315 net.cpp:150] Setting up pool2
I0415 01:51:51.880125 10315 net.cpp:157] Top shape: 1024 150 9 9 (12441600)
I0415 01:51:51.880142 10315 net.cpp:165] Memory required for data: 2101927936
I0415 01:51:51.880161 10315 layer_factory.hpp:77] Creating layer conv3
I0415 01:51:51.880205 10315 net.cpp:100] Creating Layer conv3
I0415 01:51:51.880244 10315 net.cpp:434] conv3 <- pool2
I0415 01:51:51.880270 10315 net.cpp:408] conv3 -> conv3
I0415 01:51:51.896105 10315 net.cpp:150] Setting up conv3
I0415 01:51:51.906440 10315 net.cpp:157] Top shape: 1024 250 6 6 (9216000)
I0415 01:51:51.906486 10315 net.cpp:165] Memory required for data: 2138791936
I0415 01:51:51.906523 10315 layer_factory.hpp:77] Creating layer conv3_relu
I0415 01:51:51.906551 10315 net.cpp:100] Creating Layer conv3_relu
I0415 01:51:51.906571 10315 net.cpp:434] conv3_relu <- conv3
I0415 01:51:51.906601 10315 net.cpp:395] conv3_relu -> conv3 (in-place)
I0415 01:51:51.913110 10315 net.cpp:150] Setting up conv3_relu
I0415 01:51:51.913132 10315 net.cpp:157] Top shape: 1024 250 6 6 (9216000)
I0415 01:51:51.913139 10315 net.cpp:165] Memory required for data: 2175655936
I0415 01:51:51.913146 10315 layer_factory.hpp:77] Creating layer pool3
I0415 01:51:51.913156 10315 net.cpp:100] Creating Layer pool3
I0415 01:51:51.913162 10315 net.cpp:434] pool3 <- conv3
I0415 01:51:51.913173 10315 net.cpp:408] pool3 -> pool3
I0415 01:51:51.913254 10315 net.cpp:150] Setting up pool3
I0415 01:51:51.913265 10315 net.cpp:157] Top shape: 1024 250 3 3 (2304000)
I0415 01:51:51.913269 10315 net.cpp:165] Memory required for data: 2184871936
I0415 01:51:51.913275 10315 layer_factory.hpp:77] Creating layer fc4_300
I0415 01:51:51.913287 10315 net.cpp:100] Creating Layer fc4_300
I0415 01:51:51.913293 10315 net.cpp:434] fc4_300 <- pool3
I0415 01:51:51.913303 10315 net.cpp:408] fc4_300 -> fc4_300
I0415 01:51:51.931320 10315 net.cpp:150] Setting up fc4_300
I0415 01:51:51.931385 10315 net.cpp:157] Top shape: 1024 300 (307200)
I0415 01:51:51.931406 10315 net.cpp:165] Memory required for data: 2186100736
I0415 01:51:51.931432 10315 layer_factory.hpp:77] Creating layer fc4_relu
I0415 01:51:51.931462 10315 net.cpp:100] Creating Layer fc4_relu
I0415 01:51:51.931483 10315 net.cpp:434] fc4_relu <- fc4_300
I0415 01:51:51.931505 10315 net.cpp:395] fc4_relu -> fc4_300 (in-place)
I0415 01:51:51.931854 10315 net.cpp:150] Setting up fc4_relu
I0415 01:51:51.931895 10315 net.cpp:157] Top shape: 1024 300 (307200)
I0415 01:51:51.931916 10315 net.cpp:165] Memory required for data: 2187329536
I0415 01:51:51.931934 10315 layer_factory.hpp:77] Creating layer drop4
I0415 01:51:51.931960 10315 net.cpp:100] Creating Layer drop4
I0415 01:51:51.931979 10315 net.cpp:434] drop4 <- fc4_300
I0415 01:51:51.932003 10315 net.cpp:395] drop4 -> fc4_300 (in-place)
I0415 01:51:51.932489 10315 net.cpp:150] Setting up drop4
I0415 01:51:51.932593 10315 net.cpp:157] Top shape: 1024 300 (307200)
I0415 01:51:51.932615 10315 net.cpp:165] Memory required for data: 2188558336
I0415 01:51:51.932632 10315 layer_factory.hpp:77] Creating layer fc5_67
I0415 01:51:51.932734 10315 net.cpp:100] Creating Layer fc5_67
I0415 01:51:51.932756 10315 net.cpp:434] fc5_67 <- fc4_300
I0415 01:51:51.932857 10315 net.cpp:408] fc5_67 -> fc5_classes
I0415 01:51:51.937966 10315 net.cpp:150] Setting up fc5_67
I0415 01:51:51.938009 10315 net.cpp:157] Top shape: 1024 67 (68608)
I0415 01:51:51.938030 10315 net.cpp:165] Memory required for data: 2188832768
I0415 01:51:51.938060 10315 layer_factory.hpp:77] Creating layer fc5_classes_fc5_67_0_split
I0415 01:51:51.938088 10315 net.cpp:100] Creating Layer fc5_classes_fc5_67_0_split
I0415 01:51:51.938108 10315 net.cpp:434] fc5_classes_fc5_67_0_split <- fc5_classes
I0415 01:51:51.938132 10315 net.cpp:408] fc5_classes_fc5_67_0_split -> fc5_classes_fc5_67_0_split_0
I0415 01:51:51.938160 10315 net.cpp:408] fc5_classes_fc5_67_0_split -> fc5_classes_fc5_67_0_split_1
I0415 01:51:51.938185 10315 net.cpp:408] fc5_classes_fc5_67_0_split -> fc5_classes_fc5_67_0_split_2
I0415 01:51:51.938277 10315 net.cpp:150] Setting up fc5_classes_fc5_67_0_split
I0415 01:51:51.938303 10315 net.cpp:157] Top shape: 1024 67 (68608)
I0415 01:51:51.938323 10315 net.cpp:157] Top shape: 1024 67 (68608)
I0415 01:51:51.938341 10315 net.cpp:157] Top shape: 1024 67 (68608)
I0415 01:51:51.938357 10315 net.cpp:165] Memory required for data: 2189656064
I0415 01:51:51.938400 10315 layer_factory.hpp:77] Creating layer softmax
I0415 01:51:51.938428 10315 net.cpp:100] Creating Layer softmax
I0415 01:51:51.938447 10315 net.cpp:434] softmax <- fc5_classes_fc5_67_0_split_0
I0415 01:51:51.938469 10315 net.cpp:408] softmax -> softmax
I0415 01:51:51.938858 10315 net.cpp:150] Setting up softmax
I0415 01:51:51.938892 10315 net.cpp:157] Top shape: 1024 67 (68608)
I0415 01:51:51.938910 10315 net.cpp:165] Memory required for data: 2189930496
I0415 01:51:51.938928 10315 layer_factory.hpp:77] Creating layer loss
I0415 01:51:51.938951 10315 net.cpp:100] Creating Layer loss
I0415 01:51:51.938969 10315 net.cpp:434] loss <- softmax
I0415 01:51:51.938988 10315 net.cpp:434] loss <- label_data_1_split_0
I0415 01:51:51.939013 10315 net.cpp:408] loss -> loss
…
