…
I0415 04:23:01.980435  2343 solver.cpp:93] Creating training net from train_net file: ./Prototxt/experiment_12/rtsd-r1/histeq/trial_1/train.prototxt
I0415 04:23:01.980888  2343 net.cpp:58] Initializing net from parameters: 
state {
  phase: TRAIN
  level: 0
  stage: ""
}
layer {
  name: "data"
  type: "Data"
  top: "data"
  top: "label"
  include {
    phase: TRAIN
  }
  transform_param {
    scale: 0.0039215689
    mirror: false
    crop_size: 48
    mean_value: 130
    mean_value: 123
    mean_value: 137
  }
  data_param {
    source: "../local_data/lmdb/rtsd-r1/histeq/train/lmdb"
    batch_size: 1024
    backend: LMDB
  }
}
layer {
  name: "conv1"
  type: "Convolution"
  bottom: "data"
  top: "conv1"
  convolution_param {
    num_output: 100
    pad: 0
    kernel_size: 7
    group: 1
    stride: 1
    weight_filler {
      type: "xavier"
    }
  }
}
layer {
  name: "conv1_relu"
  type: "ReLU"
  bottom: "conv1"
  top: "conv1"
}
layer {
  name: "pool1"
  type: "Pooling"
  bottom: "conv1"
  top: "pool1"
  pooling_param {
    pool: MAX
    kernel_size: 2
    stride: 2
  }
}
layer {
  name: "conv2"
  type: "Convolution"
  bottom: "pool1"
  top: "conv2"
  convolution_param {
    num_output: 150
    pad: 0
    kernel_size: 4
    group: 1
    stride: 1
    weight_filler {
      type: "xavier"
    }
  }
}
layer {
  name: "conv2_relu"
  type: "ReLU"
  bottom: "conv2"
  top: "conv2"
}
layer {
  name: "pool2"
  type: "Pooling"
  bottom: "conv2"
  top: "pool2"
  pooling_param {
    pool: MAX
    kernel_size: 2
    stride: 2
  }
}
layer {
  name: "conv3"
  type: "Convolution"
  bottom: "pool2"
  top: "conv3"
  convolution_param {
    num_output: 250
    pad: 0
    kernel_size: 4
    group: 1
    stride: 1
    weight_filler {
      type: "xavier"
    }
  }
}
layer {
  name: "conv3_relu"
  type: "ReLU"
  bottom: "conv3"
  top: "conv3"
}
layer {
  name: "pool3"
  type: "Pooling"
  bottom: "conv3"
  top: "pool3"
  pooling_param {
    pool: MAX
    kernel_size: 2
    stride: 2
  }
}
layer {
  name: "fc4_300"
  type: "InnerProduct"
  bottom: "pool3"
  top: "fc4_300"
  inner_product_param {
    num_output: 300
    weight_filler {
      type: "xavier"
    }
  }
}
layer {
  name: "fc4_relu"
  type: "ReLU"
  bottom: "fc4_300"
  top: "fc4_300"
}
layer {
  name: "drop4"
  type: "Dropout"
  bottom: "fc4_300"
  top: "fc4_300"
  dropout_param {
    dropout_ratio: 0.5
  }
}
layer {
  name: "fc5_67"
  type: "InnerProduct"
  bottom: "fc4_300"
  top: "fc5_classes"
  inner_product_param {
    num_output: 67
    weight_filler {
      type: "xavier"
    }
  }
}
layer {
  name: "softmax"
  type: "Softmax"
  bottom: "fc5_classes"
  top: "softmax"
}
layer {
  name: "loss"
  type: "MultinomialLogisticLoss"
  bottom: "softmax"
  bottom: "label"
  top: "loss"
}
layer {
  name: "accuracy_1"
  type: "Accuracy"
  bottom: "fc5_classes"
  bottom: "label"
  top: "accuracy_1"
  accuracy_param {
    top_k: 1
  }
}
layer {
  name: "accuracy_5"
  type: "Accuracy"
  bottom: "fc5_classes"
  bottom: "label"
  top: "accuracy_5"
  accuracy_param {
    top_k: 5
  }
}
layer {
  name: "silence"
  type: "Silence"
  bottom: "accuracy_1"
  bottom: "accuracy_5"
}
I0415 04:23:01.981007  2343 layer_factory.hpp:77] Creating layer data
I0415 04:23:01.982053  2343 net.cpp:100] Creating Layer data
I0415 04:23:01.982069  2343 net.cpp:408] data -> data
I0415 04:23:01.982090  2343 net.cpp:408] data -> label
I0415 04:23:02.047260  2456 db_lmdb.cpp:35] Opened lmdb ../local_data/lmdb/rtsd-r1/histeq/train/lmdb
I0415 04:23:02.081585  2343 data_layer.cpp:41] output data size: 1024,3,48,48
I0415 04:23:02.154120  2343 net.cpp:150] Setting up data
I0415 04:23:02.154161  2343 net.cpp:157] Top shape: 1024 3 48 48 (7077888)
I0415 04:23:02.154170  2343 net.cpp:157] Top shape: 1024 (1024)
I0415 04:23:02.154175  2343 net.cpp:165] Memory required for data: 28315648
I0415 04:23:02.154191  2343 layer_factory.hpp:77] Creating layer label_data_1_split
I0415 04:23:02.154214  2343 net.cpp:100] Creating Layer label_data_1_split
I0415 04:23:02.154227  2343 net.cpp:434] label_data_1_split <- label
I0415 04:23:02.154250  2343 net.cpp:408] label_data_1_split -> label_data_1_split_0
I0415 04:23:02.154273  2343 net.cpp:408] label_data_1_split -> label_data_1_split_1
I0415 04:23:02.154285  2343 net.cpp:408] label_data_1_split -> label_data_1_split_2
I0415 04:23:02.154374  2343 net.cpp:150] Setting up label_data_1_split
I0415 04:23:02.154386  2343 net.cpp:157] Top shape: 1024 (1024)
I0415 04:23:02.154389  2343 net.cpp:157] Top shape: 1024 (1024)
I0415 04:23:02.154393  2343 net.cpp:157] Top shape: 1024 (1024)
I0415 04:23:02.154395  2343 net.cpp:165] Memory required for data: 28327936
I0415 04:23:02.154399  2343 layer_factory.hpp:77] Creating layer conv1
I0415 04:23:02.154420  2343 net.cpp:100] Creating Layer conv1
I0415 04:23:02.154425  2343 net.cpp:434] conv1 <- data
I0415 04:23:02.154436  2343 net.cpp:408] conv1 -> conv1
I0415 04:23:02.220737  2472 blocking_queue.cpp:50] Waiting for data
I0415 04:23:03.053588  2343 net.cpp:150] Setting up conv1
I0415 04:23:03.053618  2343 net.cpp:157] Top shape: 1024 100 42 42 (180633600)
I0415 04:23:03.053622  2343 net.cpp:165] Memory required for data: 750862336
I0415 04:23:03.053647  2343 layer_factory.hpp:77] Creating layer conv1_relu
I0415 04:23:03.053664  2343 net.cpp:100] Creating Layer conv1_relu
I0415 04:23:03.053673  2343 net.cpp:434] conv1_relu <- conv1
I0415 04:23:03.053684  2343 net.cpp:395] conv1_relu -> conv1 (in-place)
I0415 04:23:03.053952  2343 net.cpp:150] Setting up conv1_relu
I0415 04:23:03.053966  2343 net.cpp:157] Top shape: 1024 100 42 42 (180633600)
I0415 04:23:03.053969  2343 net.cpp:165] Memory required for data: 1473396736
I0415 04:23:03.053972  2343 layer_factory.hpp:77] Creating layer pool1
I0415 04:23:03.053987  2343 net.cpp:100] Creating Layer pool1
I0415 04:23:03.053992  2343 net.cpp:434] pool1 <- conv1
I0415 04:23:03.054002  2343 net.cpp:408] pool1 -> pool1
I0415 04:23:03.054080  2343 net.cpp:150] Setting up pool1
I0415 04:23:03.054090  2343 net.cpp:157] Top shape: 1024 100 21 21 (45158400)
I0415 04:23:03.054093  2343 net.cpp:165] Memory required for data: 1654030336
I0415 04:23:03.054097  2343 layer_factory.hpp:77] Creating layer conv2
I0415 04:23:03.054111  2343 net.cpp:100] Creating Layer conv2
I0415 04:23:03.054118  2343 net.cpp:434] conv2 <- pool1
I0415 04:23:03.054126  2343 net.cpp:408] conv2 -> conv2
I0415 04:23:03.062836  2343 net.cpp:150] Setting up conv2
I0415 04:23:03.062857  2343 net.cpp:157] Top shape: 1024 150 18 18 (49766400)
I0415 04:23:03.062861  2343 net.cpp:165] Memory required for data: 1853095936
I0415 04:23:03.062871  2343 layer_factory.hpp:77] Creating layer conv2_relu
I0415 04:23:03.062880  2343 net.cpp:100] Creating Layer conv2_relu
I0415 04:23:03.062882  2343 net.cpp:434] conv2_relu <- conv2
I0415 04:23:03.062891  2343 net.cpp:395] conv2_relu -> conv2 (in-place)
I0415 04:23:03.064282  2343 net.cpp:150] Setting up conv2_relu
I0415 04:23:03.064311  2343 net.cpp:157] Top shape: 1024 150 18 18 (49766400)
I0415 04:23:03.064316  2343 net.cpp:165] Memory required for data: 2052161536
I0415 04:23:03.064322  2343 layer_factory.hpp:77] Creating layer pool2
I0415 04:23:03.064342  2343 net.cpp:100] Creating Layer pool2
I0415 04:23:03.064347  2343 net.cpp:434] pool2 <- conv2
I0415 04:23:03.064366  2343 net.cpp:408] pool2 -> pool2
I0415 04:23:03.064474  2343 net.cpp:150] Setting up pool2
I0415 04:23:03.064489  2343 net.cpp:157] Top shape: 1024 150 9 9 (12441600)
I0415 04:23:03.064494  2343 net.cpp:165] Memory required for data: 2101927936
I0415 04:23:03.064540  2343 layer_factory.hpp:77] Creating layer conv3
I0415 04:23:03.064565  2343 net.cpp:100] Creating Layer conv3
I0415 04:23:03.064575  2343 net.cpp:434] conv3 <- pool2
I0415 04:23:03.064582  2343 net.cpp:408] conv3 -> conv3
I0415 04:23:03.073282  2343 net.cpp:150] Setting up conv3
I0415 04:23:03.073317  2343 net.cpp:157] Top shape: 1024 250 6 6 (9216000)
I0415 04:23:03.073323  2343 net.cpp:165] Memory required for data: 2138791936
I0415 04:23:03.073339  2343 layer_factory.hpp:77] Creating layer conv3_relu
I0415 04:23:03.073352  2343 net.cpp:100] Creating Layer conv3_relu
I0415 04:23:03.073357  2343 net.cpp:434] conv3_relu <- conv3
I0415 04:23:03.073370  2343 net.cpp:395] conv3_relu -> conv3 (in-place)
I0415 04:23:03.079308  2343 net.cpp:150] Setting up conv3_relu
I0415 04:23:03.079334  2343 net.cpp:157] Top shape: 1024 250 6 6 (9216000)
I0415 04:23:03.079340  2343 net.cpp:165] Memory required for data: 2175655936
I0415 04:23:03.079349  2343 layer_factory.hpp:77] Creating layer pool3
I0415 04:23:03.079366  2343 net.cpp:100] Creating Layer pool3
I0415 04:23:03.079375  2343 net.cpp:434] pool3 <- conv3
I0415 04:23:03.079397  2343 net.cpp:408] pool3 -> pool3
I0415 04:23:03.079494  2343 net.cpp:150] Setting up pool3
I0415 04:23:03.079506  2343 net.cpp:157] Top shape: 1024 250 3 3 (2304000)
I0415 04:23:03.079509  2343 net.cpp:165] Memory required for data: 2184871936
I0415 04:23:03.079514  2343 layer_factory.hpp:77] Creating layer fc4_300
I0415 04:23:03.079524  2343 net.cpp:100] Creating Layer fc4_300
I0415 04:23:03.079530  2343 net.cpp:434] fc4_300 <- pool3
I0415 04:23:03.079538  2343 net.cpp:408] fc4_300 -> fc4_300
I0415 04:23:03.090243  2343 net.cpp:150] Setting up fc4_300
I0415 04:23:03.090275  2343 net.cpp:157] Top shape: 1024 300 (307200)
I0415 04:23:03.090281  2343 net.cpp:165] Memory required for data: 2186100736
I0415 04:23:03.090293  2343 layer_factory.hpp:77] Creating layer fc4_relu
I0415 04:23:03.090303  2343 net.cpp:100] Creating Layer fc4_relu
I0415 04:23:03.090308  2343 net.cpp:434] fc4_relu <- fc4_300
I0415 04:23:03.090318  2343 net.cpp:395] fc4_relu -> fc4_300 (in-place)
I0415 04:23:03.090729  2343 net.cpp:150] Setting up fc4_relu
I0415 04:23:03.090754  2343 net.cpp:157] Top shape: 1024 300 (307200)
I0415 04:23:03.090760  2343 net.cpp:165] Memory required for data: 2187329536
I0415 04:23:03.090767  2343 layer_factory.hpp:77] Creating layer drop4
I0415 04:23:03.090781  2343 net.cpp:100] Creating Layer drop4
I0415 04:23:03.090788  2343 net.cpp:434] drop4 <- fc4_300
I0415 04:23:03.090801  2343 net.cpp:395] drop4 -> fc4_300 (in-place)
I0415 04:23:03.090878  2343 net.cpp:150] Setting up drop4
I0415 04:23:03.090894  2343 net.cpp:157] Top shape: 1024 300 (307200)
I0415 04:23:03.090903  2343 net.cpp:165] Memory required for data: 2188558336
I0415 04:23:03.090910  2343 layer_factory.hpp:77] Creating layer fc5_67
I0415 04:23:03.090930  2343 net.cpp:100] Creating Layer fc5_67
I0415 04:23:03.090939  2343 net.cpp:434] fc5_67 <- fc4_300
I0415 04:23:03.090950  2343 net.cpp:408] fc5_67 -> fc5_classes
I0415 04:23:03.098330  2343 net.cpp:150] Setting up fc5_67
I0415 04:23:03.098363  2343 net.cpp:157] Top shape: 1024 67 (68608)
I0415 04:23:03.098371  2343 net.cpp:165] Memory required for data: 2188832768
I0415 04:23:03.098397  2343 layer_factory.hpp:77] Creating layer fc5_classes_fc5_67_0_split
I0415 04:23:03.098428  2343 net.cpp:100] Creating Layer fc5_classes_fc5_67_0_split
I0415 04:23:03.098439  2343 net.cpp:434] fc5_classes_fc5_67_0_split <- fc5_classes
I0415 04:23:03.098455  2343 net.cpp:408] fc5_classes_fc5_67_0_split -> fc5_classes_fc5_67_0_split_0
I0415 04:23:03.098487  2343 net.cpp:408] fc5_classes_fc5_67_0_split -> fc5_classes_fc5_67_0_split_1
I0415 04:23:03.098497  2343 net.cpp:408] fc5_classes_fc5_67_0_split -> fc5_classes_fc5_67_0_split_2
I0415 04:23:03.098605  2343 net.cpp:150] Setting up fc5_classes_fc5_67_0_split
I0415 04:23:03.098613  2343 net.cpp:157] Top shape: 1024 67 (68608)
I0415 04:23:03.098618  2343 net.cpp:157] Top shape: 1024 67 (68608)
I0415 04:23:03.098621  2343 net.cpp:157] Top shape: 1024 67 (68608)
I0415 04:23:03.098664  2343 net.cpp:165] Memory required for data: 2189656064
I0415 04:23:03.098672  2343 layer_factory.hpp:77] Creating layer softmax
I0415 04:23:03.098695  2343 net.cpp:100] Creating Layer softmax
I0415 04:23:03.098704  2343 net.cpp:434] softmax <- fc5_classes_fc5_67_0_split_0
I0415 04:23:03.098721  2343 net.cpp:408] softmax -> softmax
I0415 04:23:03.099167  2343 net.cpp:150] Setting up softmax
I0415 04:23:03.099189  2343 net.cpp:157] Top shape: 1024 67 (68608)
I0415 04:23:03.099195  2343 net.cpp:165] Memory required for data: 2189930496
I0415 04:23:03.099200  2343 layer_factory.hpp:77] Creating layer loss
I0415 04:23:03.099210  2343 net.cpp:100] Creating Layer loss
I0415 04:23:03.099215  2343 net.cpp:434] loss <- softmax
I0415 04:23:03.099222  2343 net.cpp:434] loss <- label_data_1_split_0
I0415 04:23:03.099232  2343 net.cpp:408] loss -> loss
…
