…
I0414 18:24:51.547704 27217 solver.cpp:93] Creating training net from train_net file: ./Prototxt/experiment_10/rtsd-r3/AHE/trial_3/train.prototxt
I0414 18:24:51.551247 27217 net.cpp:58] Initializing net from parameters: 
state {
  phase: TRAIN
  level: 0
  stage: ""
}
layer {
  name: "data"
  type: "Data"
  top: "data"
  top: "label"
  include {
    phase: TRAIN
  }
  transform_param {
    scale: 0.0039215689
    mirror: false
    crop_size: 48
    mean_value: 133
    mean_value: 126
    mean_value: 125
  }
  data_param {
    source: "../local_data/lmdb/rtsd-r3/AHE/train/lmdb"
    batch_size: 1024
    backend: LMDB
  }
}
layer {
  name: "conv1"
  type: "Convolution"
  bottom: "data"
  top: "conv1"
  convolution_param {
    num_output: 100
    pad: 0
    kernel_size: 7
    group: 1
    stride: 1
    weight_filler {
      type: "xavier"
    }
  }
}
layer {
  name: "conv1_relu"
  type: "ReLU"
  bottom: "conv1"
  top: "conv1"
}
layer {
  name: "pool1"
  type: "Pooling"
  bottom: "conv1"
  top: "pool1"
  pooling_param {
    pool: MAX
    kernel_size: 2
    stride: 2
  }
}
layer {
  name: "conv2"
  type: "Convolution"
  bottom: "pool1"
  top: "conv2"
  convolution_param {
    num_output: 150
    pad: 0
    kernel_size: 4
    group: 1
    stride: 1
    weight_filler {
      type: "xavier"
    }
  }
}
layer {
  name: "conv2_relu"
  type: "ReLU"
  bottom: "conv2"
  top: "conv2"
}
layer {
  name: "pool2"
  type: "Pooling"
  bottom: "conv2"
  top: "pool2"
  pooling_param {
    pool: MAX
    kernel_size: 2
    stride: 2
  }
}
layer {
  name: "conv3"
  type: "Convolution"
  bottom: "pool2"
  top: "conv3"
  convolution_param {
    num_output: 250
    pad: 0
    kernel_size: 4
    group: 1
    stride: 1
    weight_filler {
      type: "xavier"
    }
  }
}
layer {
  name: "conv3_relu"
  type: "ReLU"
  bottom: "conv3"
  top: "conv3"
}
layer {
  name: "pool3"
  type: "Pooling"
  bottom: "conv3"
  top: "pool3"
  pooling_param {
    pool: MAX
    kernel_size: 2
    stride: 2
  }
}
layer {
  name: "fc4_300"
  type: "InnerProduct"
  bottom: "pool3"
  top: "fc4_300"
  inner_product_param {
    num_output: 300
    weight_filler {
      type: "xavier"
    }
  }
}
layer {
  name: "fc4_relu"
  type: "ReLU"
  bottom: "fc4_300"
  top: "fc4_300"
}
layer {
  name: "fc5_106"
  type: "InnerProduct"
  bottom: "fc4_300"
  top: "fc5_classes"
  inner_product_param {
    num_output: 106
    weight_filler {
      type: "xavier"
    }
  }
}
layer {
  name: "softmax"
  type: "Softmax"
  bottom: "fc5_classes"
  top: "softmax"
}
layer {
  name: "loss"
  type: "MultinomialLogisticLoss"
  bottom: "softmax"
  bottom: "label"
  top: "loss"
}
layer {
  name: "accuracy_1"
  type: "Accuracy"
  bottom: "fc5_classes"
  bottom: "label"
  top: "accuracy_1"
  accuracy_param {
    top_k: 1
  }
}
layer {
  name: "accuracy_5"
  type: "Accuracy"
  bottom: "fc5_classes"
  bottom: "label"
  top: "accuracy_5"
  accuracy_param {
    top_k: 5
  }
}
layer {
  name: "silence"
  type: "Silence"
  bottom: "accuracy_1"
  bottom: "accuracy_5"
}
I0414 18:24:51.551362 27217 layer_factory.hpp:77] Creating layer data
I0414 18:24:51.552434 27217 net.cpp:100] Creating Layer data
I0414 18:24:51.552449 27217 net.cpp:408] data -> data
I0414 18:24:51.552474 27217 net.cpp:408] data -> label
I0414 18:24:51.562036 27434 db_lmdb.cpp:35] Opened lmdb ../local_data/lmdb/rtsd-r3/AHE/train/lmdb
I0414 18:24:51.594637 27217 data_layer.cpp:41] output data size: 1024,3,48,48
I0414 18:24:51.654603 27217 net.cpp:150] Setting up data
I0414 18:24:51.654654 27217 net.cpp:157] Top shape: 1024 3 48 48 (7077888)
I0414 18:24:51.654659 27217 net.cpp:157] Top shape: 1024 (1024)
I0414 18:24:51.654662 27217 net.cpp:165] Memory required for data: 28315648
I0414 18:24:51.654676 27217 layer_factory.hpp:77] Creating layer label_data_1_split
I0414 18:24:51.654695 27217 net.cpp:100] Creating Layer label_data_1_split
I0414 18:24:51.654706 27217 net.cpp:434] label_data_1_split <- label
I0414 18:24:51.654724 27217 net.cpp:408] label_data_1_split -> label_data_1_split_0
I0414 18:24:51.654743 27217 net.cpp:408] label_data_1_split -> label_data_1_split_1
I0414 18:24:51.654755 27217 net.cpp:408] label_data_1_split -> label_data_1_split_2
I0414 18:24:51.654841 27217 net.cpp:150] Setting up label_data_1_split
I0414 18:24:51.654855 27217 net.cpp:157] Top shape: 1024 (1024)
I0414 18:24:51.654863 27217 net.cpp:157] Top shape: 1024 (1024)
I0414 18:24:51.654871 27217 net.cpp:157] Top shape: 1024 (1024)
I0414 18:24:51.654877 27217 net.cpp:165] Memory required for data: 28327936
I0414 18:24:51.654883 27217 layer_factory.hpp:77] Creating layer conv1
I0414 18:24:51.654906 27217 net.cpp:100] Creating Layer conv1
I0414 18:24:51.654916 27217 net.cpp:434] conv1 <- data
I0414 18:24:51.654925 27217 net.cpp:408] conv1 -> conv1
I0414 18:24:52.074314 27217 net.cpp:150] Setting up conv1
I0414 18:24:52.074342 27217 net.cpp:157] Top shape: 1024 100 42 42 (180633600)
I0414 18:24:52.074347 27217 net.cpp:165] Memory required for data: 750862336
I0414 18:24:52.074369 27217 layer_factory.hpp:77] Creating layer conv1_relu
I0414 18:24:52.074380 27217 net.cpp:100] Creating Layer conv1_relu
I0414 18:24:52.074386 27217 net.cpp:434] conv1_relu <- conv1
I0414 18:24:52.074393 27217 net.cpp:395] conv1_relu -> conv1 (in-place)
I0414 18:24:52.074591 27217 net.cpp:150] Setting up conv1_relu
I0414 18:24:52.074604 27217 net.cpp:157] Top shape: 1024 100 42 42 (180633600)
I0414 18:24:52.074606 27217 net.cpp:165] Memory required for data: 1473396736
I0414 18:24:52.074610 27217 layer_factory.hpp:77] Creating layer pool1
I0414 18:24:52.074620 27217 net.cpp:100] Creating Layer pool1
I0414 18:24:52.074626 27217 net.cpp:434] pool1 <- conv1
I0414 18:24:52.074631 27217 net.cpp:408] pool1 -> pool1
I0414 18:24:52.074686 27217 net.cpp:150] Setting up pool1
I0414 18:24:52.074693 27217 net.cpp:157] Top shape: 1024 100 21 21 (45158400)
I0414 18:24:52.074697 27217 net.cpp:165] Memory required for data: 1654030336
I0414 18:24:52.074699 27217 layer_factory.hpp:77] Creating layer conv2
I0414 18:24:52.074709 27217 net.cpp:100] Creating Layer conv2
I0414 18:24:52.074714 27217 net.cpp:434] conv2 <- pool1
I0414 18:24:52.074719 27217 net.cpp:408] conv2 -> conv2
I0414 18:24:52.080718 27217 net.cpp:150] Setting up conv2
I0414 18:24:52.080736 27217 net.cpp:157] Top shape: 1024 150 18 18 (49766400)
I0414 18:24:52.080739 27217 net.cpp:165] Memory required for data: 1853095936
I0414 18:24:52.080751 27217 layer_factory.hpp:77] Creating layer conv2_relu
I0414 18:24:52.080759 27217 net.cpp:100] Creating Layer conv2_relu
I0414 18:24:52.080762 27217 net.cpp:434] conv2_relu <- conv2
I0414 18:24:52.080767 27217 net.cpp:395] conv2_relu -> conv2 (in-place)
I0414 18:24:52.081619 27217 net.cpp:150] Setting up conv2_relu
I0414 18:24:52.081635 27217 net.cpp:157] Top shape: 1024 150 18 18 (49766400)
I0414 18:24:52.081639 27217 net.cpp:165] Memory required for data: 2052161536
I0414 18:24:52.081642 27217 layer_factory.hpp:77] Creating layer pool2
I0414 18:24:52.081650 27217 net.cpp:100] Creating Layer pool2
I0414 18:24:52.081655 27217 net.cpp:434] pool2 <- conv2
I0414 18:24:52.081660 27217 net.cpp:408] pool2 -> pool2
I0414 18:24:52.081709 27217 net.cpp:150] Setting up pool2
I0414 18:24:52.081717 27217 net.cpp:157] Top shape: 1024 150 9 9 (12441600)
I0414 18:24:52.081720 27217 net.cpp:165] Memory required for data: 2101927936
I0414 18:24:52.081723 27217 layer_factory.hpp:77] Creating layer conv3
I0414 18:24:52.081734 27217 net.cpp:100] Creating Layer conv3
I0414 18:24:52.081739 27217 net.cpp:434] conv3 <- pool2
I0414 18:24:52.081745 27217 net.cpp:408] conv3 -> conv3
I0414 18:24:52.087642 27217 net.cpp:150] Setting up conv3
I0414 18:24:52.087663 27217 net.cpp:157] Top shape: 1024 250 6 6 (9216000)
I0414 18:24:52.087666 27217 net.cpp:165] Memory required for data: 2138791936
I0414 18:24:52.087678 27217 layer_factory.hpp:77] Creating layer conv3_relu
I0414 18:24:52.087687 27217 net.cpp:100] Creating Layer conv3_relu
I0414 18:24:52.087692 27217 net.cpp:434] conv3_relu <- conv3
I0414 18:24:52.087698 27217 net.cpp:395] conv3_relu -> conv3 (in-place)
I0414 18:24:52.088567 27217 net.cpp:150] Setting up conv3_relu
I0414 18:24:52.088582 27217 net.cpp:157] Top shape: 1024 250 6 6 (9216000)
I0414 18:24:52.088587 27217 net.cpp:165] Memory required for data: 2175655936
I0414 18:24:52.088589 27217 layer_factory.hpp:77] Creating layer pool3
I0414 18:24:52.088598 27217 net.cpp:100] Creating Layer pool3
I0414 18:24:52.088603 27217 net.cpp:434] pool3 <- conv3
I0414 18:24:52.088608 27217 net.cpp:408] pool3 -> pool3
I0414 18:24:52.088656 27217 net.cpp:150] Setting up pool3
I0414 18:24:52.088663 27217 net.cpp:157] Top shape: 1024 250 3 3 (2304000)
I0414 18:24:52.088666 27217 net.cpp:165] Memory required for data: 2184871936
I0414 18:24:52.088670 27217 layer_factory.hpp:77] Creating layer fc4_300
I0414 18:24:52.088676 27217 net.cpp:100] Creating Layer fc4_300
I0414 18:24:52.088680 27217 net.cpp:434] fc4_300 <- pool3
I0414 18:24:52.088685 27217 net.cpp:408] fc4_300 -> fc4_300
I0414 18:24:52.095304 27217 net.cpp:150] Setting up fc4_300
I0414 18:24:52.095326 27217 net.cpp:157] Top shape: 1024 300 (307200)
I0414 18:24:52.095330 27217 net.cpp:165] Memory required for data: 2186100736
I0414 18:24:52.095340 27217 layer_factory.hpp:77] Creating layer fc4_relu
I0414 18:24:52.095350 27217 net.cpp:100] Creating Layer fc4_relu
I0414 18:24:52.095355 27217 net.cpp:434] fc4_relu <- fc4_300
I0414 18:24:52.095360 27217 net.cpp:395] fc4_relu -> fc4_300 (in-place)
I0414 18:24:52.095580 27217 net.cpp:150] Setting up fc4_relu
I0414 18:24:52.095592 27217 net.cpp:157] Top shape: 1024 300 (307200)
I0414 18:24:52.095594 27217 net.cpp:165] Memory required for data: 2187329536
I0414 18:24:52.095598 27217 layer_factory.hpp:77] Creating layer fc5_106
I0414 18:24:52.095607 27217 net.cpp:100] Creating Layer fc5_106
I0414 18:24:52.095610 27217 net.cpp:434] fc5_106 <- fc4_300
I0414 18:24:52.095616 27217 net.cpp:408] fc5_106 -> fc5_classes
I0414 18:24:52.110467 27217 net.cpp:150] Setting up fc5_106
I0414 18:24:52.110502 27217 net.cpp:157] Top shape: 1024 106 (108544)
I0414 18:24:52.110508 27217 net.cpp:165] Memory required for data: 2187763712
I0414 18:24:52.110532 27217 layer_factory.hpp:77] Creating layer fc5_classes_fc5_106_0_split
I0414 18:24:52.110545 27217 net.cpp:100] Creating Layer fc5_classes_fc5_106_0_split
I0414 18:24:52.110555 27217 net.cpp:434] fc5_classes_fc5_106_0_split <- fc5_classes
I0414 18:24:52.110568 27217 net.cpp:408] fc5_classes_fc5_106_0_split -> fc5_classes_fc5_106_0_split_0
I0414 18:24:52.110582 27217 net.cpp:408] fc5_classes_fc5_106_0_split -> fc5_classes_fc5_106_0_split_1
I0414 18:24:52.110595 27217 net.cpp:408] fc5_classes_fc5_106_0_split -> fc5_classes_fc5_106_0_split_2
I0414 18:24:52.110669 27217 net.cpp:150] Setting up fc5_classes_fc5_106_0_split
I0414 18:24:52.110678 27217 net.cpp:157] Top shape: 1024 106 (108544)
I0414 18:24:52.110682 27217 net.cpp:157] Top shape: 1024 106 (108544)
I0414 18:24:52.110687 27217 net.cpp:157] Top shape: 1024 106 (108544)
I0414 18:24:52.110689 27217 net.cpp:165] Memory required for data: 2189066240
I0414 18:24:52.110692 27217 layer_factory.hpp:77] Creating layer softmax
I0414 18:24:52.110702 27217 net.cpp:100] Creating Layer softmax
I0414 18:24:52.110709 27217 net.cpp:434] softmax <- fc5_classes_fc5_106_0_split_0
I0414 18:24:52.110718 27217 net.cpp:408] softmax -> softmax
I0414 18:24:52.111093 27217 net.cpp:150] Setting up softmax
I0414 18:24:52.111111 27217 net.cpp:157] Top shape: 1024 106 (108544)
I0414 18:24:52.111119 27217 net.cpp:165] Memory required for data: 2189500416
I0414 18:24:52.111124 27217 layer_factory.hpp:77] Creating layer loss
I0414 18:24:52.111161 27217 net.cpp:100] Creating Layer loss
I0414 18:24:52.111168 27217 net.cpp:434] loss <- softmax
I0414 18:24:52.111173 27217 net.cpp:434] loss <- label_data_1_split_0
I0414 18:24:52.111181 27217 net.cpp:408] loss -> loss
…
