…
I0415 14:11:47.714793 10325 solver.cpp:93] Creating training net from train_net file: ./Prototxt/experiment_12/rtsd-r3/AHE/trial_1/train.prototxt
I0415 14:11:47.733078 10325 net.cpp:58] Initializing net from parameters: 
state {
  phase: TRAIN
  level: 0
  stage: ""
}
layer {
  name: "data"
  type: "Data"
  top: "data"
  top: "label"
  include {
    phase: TRAIN
  }
  transform_param {
    scale: 0.0039215689
    mirror: false
    crop_size: 48
    mean_value: 133
    mean_value: 126
    mean_value: 125
  }
  data_param {
    source: "../local_data/lmdb/rtsd-r3/AHE/train/lmdb"
    batch_size: 1024
    backend: LMDB
  }
}
layer {
  name: "conv1"
  type: "Convolution"
  bottom: "data"
  top: "conv1"
  convolution_param {
    num_output: 100
    pad: 0
    kernel_size: 7
    group: 1
    stride: 1
    weight_filler {
      type: "xavier"
    }
  }
}
layer {
  name: "conv1_relu"
  type: "ReLU"
  bottom: "conv1"
  top: "conv1"
}
layer {
  name: "pool1"
  type: "Pooling"
  bottom: "conv1"
  top: "pool1"
  pooling_param {
    pool: MAX
    kernel_size: 2
    stride: 2
  }
}
layer {
  name: "conv2"
  type: "Convolution"
  bottom: "pool1"
  top: "conv2"
  convolution_param {
    num_output: 150
    pad: 0
    kernel_size: 4
    group: 1
    stride: 1
    weight_filler {
      type: "xavier"
    }
  }
}
layer {
  name: "conv2_relu"
  type: "ReLU"
  bottom: "conv2"
  top: "conv2"
}
layer {
  name: "pool2"
  type: "Pooling"
  bottom: "conv2"
  top: "pool2"
  pooling_param {
    pool: MAX
    kernel_size: 2
    stride: 2
  }
}
layer {
  name: "conv3"
  type: "Convolution"
  bottom: "pool2"
  top: "conv3"
  convolution_param {
    num_output: 250
    pad: 0
    kernel_size: 4
    group: 1
    stride: 1
    weight_filler {
      type: "xavier"
    }
  }
}
layer {
  name: "conv3_relu"
  type: "ReLU"
  bottom: "conv3"
  top: "conv3"
}
layer {
  name: "pool3"
  type: "Pooling"
  bottom: "conv3"
  top: "pool3"
  pooling_param {
    pool: MAX
    kernel_size: 2
    stride: 2
  }
}
layer {
  name: "fc4_300"
  type: "InnerProduct"
  bottom: "pool3"
  top: "fc4_300"
  inner_product_param {
    num_output: 300
    weight_filler {
      type: "xavier"
    }
  }
}
layer {
  name: "fc4_relu"
  type: "ReLU"
  bottom: "fc4_300"
  top: "fc4_300"
}
layer {
  name: "drop4"
  type: "Dropout"
  bottom: "fc4_300"
  top: "fc4_300"
  dropout_param {
    dropout_ratio: 0.5
  }
}
layer {
  name: "fc5_106"
  type: "InnerProduct"
  bottom: "fc4_300"
  top: "fc5_classes"
  inner_product_param {
    num_output: 106
    weight_filler {
      type: "xavier"
    }
  }
}
layer {
  name: "softmax"
  type: "Softmax"
  bottom: "fc5_classes"
  top: "softmax"
}
layer {
  name: "loss"
  type: "MultinomialLogisticLoss"
  bottom: "softmax"
  bottom: "label"
  top: "loss"
}
layer {
  name: "accuracy_1"
  type: "Accuracy"
  bottom: "fc5_classes"
  bottom: "label"
  top: "accuracy_1"
  accuracy_param {
    top_k: 1
  }
}
layer {
  name: "accuracy_5"
  type: "Accuracy"
  bottom: "fc5_classes"
  bottom: "label"
  top: "accuracy_5"
  accuracy_param {
    top_k: 5
  }
}
layer {
  name: "silence"
  type: "Silence"
  bottom: "accuracy_1"
  bottom: "accuracy_5"
}
I0415 14:11:47.733276 10325 layer_factory.hpp:77] Creating layer data
I0415 14:11:47.735515 10325 net.cpp:100] Creating Layer data
I0415 14:11:47.735548 10325 net.cpp:408] data -> data
I0415 14:11:47.735589 10325 net.cpp:408] data -> label
I0415 14:11:47.783077 10435 db_lmdb.cpp:35] Opened lmdb ../local_data/lmdb/rtsd-r3/AHE/train/lmdb
I0415 14:11:47.819237 10325 data_layer.cpp:41] output data size: 1024,3,48,48
I0415 14:11:47.877817 10325 net.cpp:150] Setting up data
I0415 14:11:47.877847 10325 net.cpp:157] Top shape: 1024 3 48 48 (7077888)
I0415 14:11:47.877853 10325 net.cpp:157] Top shape: 1024 (1024)
I0415 14:11:47.877856 10325 net.cpp:165] Memory required for data: 28315648
I0415 14:11:47.877868 10325 layer_factory.hpp:77] Creating layer label_data_1_split
I0415 14:11:47.877883 10325 net.cpp:100] Creating Layer label_data_1_split
I0415 14:11:47.877893 10325 net.cpp:434] label_data_1_split <- label
I0415 14:11:47.877910 10325 net.cpp:408] label_data_1_split -> label_data_1_split_0
I0415 14:11:47.877925 10325 net.cpp:408] label_data_1_split -> label_data_1_split_1
I0415 14:11:47.877935 10325 net.cpp:408] label_data_1_split -> label_data_1_split_2
I0415 14:11:47.878031 10325 net.cpp:150] Setting up label_data_1_split
I0415 14:11:47.878042 10325 net.cpp:157] Top shape: 1024 (1024)
I0415 14:11:47.878046 10325 net.cpp:157] Top shape: 1024 (1024)
I0415 14:11:47.878051 10325 net.cpp:157] Top shape: 1024 (1024)
I0415 14:11:47.878054 10325 net.cpp:165] Memory required for data: 28327936
I0415 14:11:47.878058 10325 layer_factory.hpp:77] Creating layer conv1
I0415 14:11:47.878077 10325 net.cpp:100] Creating Layer conv1
I0415 14:11:47.878083 10325 net.cpp:434] conv1 <- data
I0415 14:11:47.878090 10325 net.cpp:408] conv1 -> conv1
I0415 14:11:47.934155 10452 blocking_queue.cpp:50] Waiting for data
I0415 14:11:48.250130 10325 net.cpp:150] Setting up conv1
I0415 14:11:48.250162 10325 net.cpp:157] Top shape: 1024 100 42 42 (180633600)
I0415 14:11:48.250167 10325 net.cpp:165] Memory required for data: 750862336
I0415 14:11:48.250191 10325 layer_factory.hpp:77] Creating layer conv1_relu
I0415 14:11:48.250202 10325 net.cpp:100] Creating Layer conv1_relu
I0415 14:11:48.250210 10325 net.cpp:434] conv1_relu <- conv1
I0415 14:11:48.250216 10325 net.cpp:395] conv1_relu -> conv1 (in-place)
I0415 14:11:48.250471 10325 net.cpp:150] Setting up conv1_relu
I0415 14:11:48.250485 10325 net.cpp:157] Top shape: 1024 100 42 42 (180633600)
I0415 14:11:48.250489 10325 net.cpp:165] Memory required for data: 1473396736
I0415 14:11:48.250494 10325 layer_factory.hpp:77] Creating layer pool1
I0415 14:11:48.250506 10325 net.cpp:100] Creating Layer pool1
I0415 14:11:48.250512 10325 net.cpp:434] pool1 <- conv1
I0415 14:11:48.250519 10325 net.cpp:408] pool1 -> pool1
I0415 14:11:48.250586 10325 net.cpp:150] Setting up pool1
I0415 14:11:48.250597 10325 net.cpp:157] Top shape: 1024 100 21 21 (45158400)
I0415 14:11:48.250599 10325 net.cpp:165] Memory required for data: 1654030336
I0415 14:11:48.250604 10325 layer_factory.hpp:77] Creating layer conv2
I0415 14:11:48.250617 10325 net.cpp:100] Creating Layer conv2
I0415 14:11:48.250623 10325 net.cpp:434] conv2 <- pool1
I0415 14:11:48.250630 10325 net.cpp:408] conv2 -> conv2
I0415 14:11:48.256430 10325 net.cpp:150] Setting up conv2
I0415 14:11:48.256449 10325 net.cpp:157] Top shape: 1024 150 18 18 (49766400)
I0415 14:11:48.256453 10325 net.cpp:165] Memory required for data: 1853095936
I0415 14:11:48.256464 10325 layer_factory.hpp:77] Creating layer conv2_relu
I0415 14:11:48.256472 10325 net.cpp:100] Creating Layer conv2_relu
I0415 14:11:48.256476 10325 net.cpp:434] conv2_relu <- conv2
I0415 14:11:48.256484 10325 net.cpp:395] conv2_relu -> conv2 (in-place)
I0415 14:11:48.257596 10325 net.cpp:150] Setting up conv2_relu
I0415 14:11:48.257612 10325 net.cpp:157] Top shape: 1024 150 18 18 (49766400)
I0415 14:11:48.257616 10325 net.cpp:165] Memory required for data: 2052161536
I0415 14:11:48.257621 10325 layer_factory.hpp:77] Creating layer pool2
I0415 14:11:48.257630 10325 net.cpp:100] Creating Layer pool2
I0415 14:11:48.257635 10325 net.cpp:434] pool2 <- conv2
I0415 14:11:48.257642 10325 net.cpp:408] pool2 -> pool2
I0415 14:11:48.257704 10325 net.cpp:150] Setting up pool2
I0415 14:11:48.257714 10325 net.cpp:157] Top shape: 1024 150 9 9 (12441600)
I0415 14:11:48.257717 10325 net.cpp:165] Memory required for data: 2101927936
I0415 14:11:48.257720 10325 layer_factory.hpp:77] Creating layer conv3
I0415 14:11:48.257758 10325 net.cpp:100] Creating Layer conv3
I0415 14:11:48.257766 10325 net.cpp:434] conv3 <- pool2
I0415 14:11:48.257772 10325 net.cpp:408] conv3 -> conv3
I0415 14:11:48.264916 10325 net.cpp:150] Setting up conv3
I0415 14:11:48.264936 10325 net.cpp:157] Top shape: 1024 250 6 6 (9216000)
I0415 14:11:48.264941 10325 net.cpp:165] Memory required for data: 2138791936
I0415 14:11:48.264953 10325 layer_factory.hpp:77] Creating layer conv3_relu
I0415 14:11:48.264961 10325 net.cpp:100] Creating Layer conv3_relu
I0415 14:11:48.264969 10325 net.cpp:434] conv3_relu <- conv3
I0415 14:11:48.264976 10325 net.cpp:395] conv3_relu -> conv3 (in-place)
I0415 14:11:48.269027 10325 net.cpp:150] Setting up conv3_relu
I0415 14:11:48.269047 10325 net.cpp:157] Top shape: 1024 250 6 6 (9216000)
I0415 14:11:48.269050 10325 net.cpp:165] Memory required for data: 2175655936
I0415 14:11:48.269054 10325 layer_factory.hpp:77] Creating layer pool3
I0415 14:11:48.269068 10325 net.cpp:100] Creating Layer pool3
I0415 14:11:48.269074 10325 net.cpp:434] pool3 <- conv3
I0415 14:11:48.269081 10325 net.cpp:408] pool3 -> pool3
I0415 14:11:48.269141 10325 net.cpp:150] Setting up pool3
I0415 14:11:48.269150 10325 net.cpp:157] Top shape: 1024 250 3 3 (2304000)
I0415 14:11:48.269155 10325 net.cpp:165] Memory required for data: 2184871936
I0415 14:11:48.269157 10325 layer_factory.hpp:77] Creating layer fc4_300
I0415 14:11:48.269165 10325 net.cpp:100] Creating Layer fc4_300
I0415 14:11:48.269170 10325 net.cpp:434] fc4_300 <- pool3
I0415 14:11:48.269177 10325 net.cpp:408] fc4_300 -> fc4_300
I0415 14:11:48.284343 10325 net.cpp:150] Setting up fc4_300
I0415 14:11:48.284368 10325 net.cpp:157] Top shape: 1024 300 (307200)
I0415 14:11:48.284371 10325 net.cpp:165] Memory required for data: 2186100736
I0415 14:11:48.284379 10325 layer_factory.hpp:77] Creating layer fc4_relu
I0415 14:11:48.284389 10325 net.cpp:100] Creating Layer fc4_relu
I0415 14:11:48.284392 10325 net.cpp:434] fc4_relu <- fc4_300
I0415 14:11:48.284400 10325 net.cpp:395] fc4_relu -> fc4_300 (in-place)
I0415 14:11:48.284633 10325 net.cpp:150] Setting up fc4_relu
I0415 14:11:48.284643 10325 net.cpp:157] Top shape: 1024 300 (307200)
I0415 14:11:48.284647 10325 net.cpp:165] Memory required for data: 2187329536
I0415 14:11:48.284651 10325 layer_factory.hpp:77] Creating layer drop4
I0415 14:11:48.284658 10325 net.cpp:100] Creating Layer drop4
I0415 14:11:48.284662 10325 net.cpp:434] drop4 <- fc4_300
I0415 14:11:48.284669 10325 net.cpp:395] drop4 -> fc4_300 (in-place)
I0415 14:11:48.284704 10325 net.cpp:150] Setting up drop4
I0415 14:11:48.284713 10325 net.cpp:157] Top shape: 1024 300 (307200)
I0415 14:11:48.284718 10325 net.cpp:165] Memory required for data: 2188558336
I0415 14:11:48.284720 10325 layer_factory.hpp:77] Creating layer fc5_106
I0415 14:11:48.284729 10325 net.cpp:100] Creating Layer fc5_106
I0415 14:11:48.284735 10325 net.cpp:434] fc5_106 <- fc4_300
I0415 14:11:48.284742 10325 net.cpp:408] fc5_106 -> fc5_classes
I0415 14:11:48.286300 10325 net.cpp:150] Setting up fc5_106
I0415 14:11:48.286317 10325 net.cpp:157] Top shape: 1024 106 (108544)
I0415 14:11:48.286322 10325 net.cpp:165] Memory required for data: 2188992512
I0415 14:11:48.286335 10325 layer_factory.hpp:77] Creating layer fc5_classes_fc5_106_0_split
I0415 14:11:48.286345 10325 net.cpp:100] Creating Layer fc5_classes_fc5_106_0_split
I0415 14:11:48.286350 10325 net.cpp:434] fc5_classes_fc5_106_0_split <- fc5_classes
I0415 14:11:48.286358 10325 net.cpp:408] fc5_classes_fc5_106_0_split -> fc5_classes_fc5_106_0_split_0
I0415 14:11:48.286370 10325 net.cpp:408] fc5_classes_fc5_106_0_split -> fc5_classes_fc5_106_0_split_1
I0415 14:11:48.286378 10325 net.cpp:408] fc5_classes_fc5_106_0_split -> fc5_classes_fc5_106_0_split_2
I0415 14:11:48.286444 10325 net.cpp:150] Setting up fc5_classes_fc5_106_0_split
I0415 14:11:48.286453 10325 net.cpp:157] Top shape: 1024 106 (108544)
I0415 14:11:48.286458 10325 net.cpp:157] Top shape: 1024 106 (108544)
I0415 14:11:48.286463 10325 net.cpp:157] Top shape: 1024 106 (108544)
I0415 14:11:48.286487 10325 net.cpp:165] Memory required for data: 2190295040
I0415 14:11:48.286491 10325 layer_factory.hpp:77] Creating layer softmax
I0415 14:11:48.286501 10325 net.cpp:100] Creating Layer softmax
I0415 14:11:48.286506 10325 net.cpp:434] softmax <- fc5_classes_fc5_106_0_split_0
I0415 14:11:48.286512 10325 net.cpp:408] softmax -> softmax
I0415 14:11:48.286810 10325 net.cpp:150] Setting up softmax
I0415 14:11:48.286825 10325 net.cpp:157] Top shape: 1024 106 (108544)
I0415 14:11:48.286830 10325 net.cpp:165] Memory required for data: 2190729216
I0415 14:11:48.286834 10325 layer_factory.hpp:77] Creating layer loss
I0415 14:11:48.286841 10325 net.cpp:100] Creating Layer loss
I0415 14:11:48.286846 10325 net.cpp:434] loss <- softmax
I0415 14:11:48.286852 10325 net.cpp:434] loss <- label_data_1_split_0
I0415 14:11:48.286859 10325 net.cpp:408] loss -> loss
…
