…
I0410 01:00:00.665777 15805 net.cpp:322] The NetState phase (0) differed from the phase (1) specified by a rule in layer accuracy_5
I0410 01:00:00.665869 15805 net.cpp:58] Initializing net from parameters: 
state {
  phase: TRAIN
  level: 0
  stage: ""
}
layer {
  name: "data"
  type: "Data"
  top: "data"
  top: "label"
  include {
    phase: TRAIN
  }
  transform_param {
    mirror: false
    crop_size: 48
    mean_value: 130
    mean_value: 123
    mean_value: 137
  }
  data_param {
    source: "../local_data/lmdb/rtsd-r1/histeq/train/lmdb"
    batch_size: 1024
    backend: LMDB
  }
}
layer {
  name: "conv1"
  type: "Convolution"
  bottom: "data"
  top: "conv1"
  convolution_param {
    num_output: 100
    pad: 0
    kernel_size: 7
    group: 1
    stride: 1
    weight_filler {
      type: "xavier"
    }
  }
}
layer {
  name: "conv1_sTanH"
  type: "TanH"
  bottom: "conv1"
  top: "conv1"
}
layer {
  name: "pool1"
  type: "Pooling"
  bottom: "conv1"
  top: "pool1"
  pooling_param {
    pool: MAX
    kernel_size: 2
    stride: 2
  }
}
layer {
  name: "conv2"
  type: "Convolution"
  bottom: "pool1"
  top: "conv2"
  convolution_param {
    num_output: 150
    pad: 0
    kernel_size: 4
    group: 1
    stride: 1
    weight_filler {
      type: "xavier"
    }
  }
}
layer {
  name: "conv2_sTanH"
  type: "TanH"
  bottom: "conv2"
  top: "conv2"
}
layer {
  name: "pool2"
  type: "Pooling"
  bottom: "conv2"
  top: "pool2"
  pooling_param {
    pool: MAX
    kernel_size: 2
    stride: 2
  }
}
layer {
  name: "conv3"
  type: "Convolution"
  bottom: "pool2"
  top: "conv3"
  convolution_param {
    num_output: 250
    pad: 0
    kernel_size: 4
    group: 1
    stride: 1
    weight_filler {
      type: "xavier"
    }
  }
}
layer {
  name: "conv3_sTanH"
  type: "TanH"
  bottom: "conv3"
  top: "conv3"
}
layer {
  name: "pool3"
  type: "Pooling"
  bottom: "conv3"
  top: "pool3"
  pooling_param {
    pool: MAX
    kernel_size: 2
    stride: 2
  }
}
layer {
  name: "fc4_300"
  type: "InnerProduct"
  bottom: "pool3"
  top: "fc4_300"
  inner_product_param {
    num_output: 300
    weight_filler {
      type: "xavier"
    }
  }
}
layer {
  name: "fc4_sTanH"
  type: "TanH"
  bottom: "fc4_300"
  top: "fc4_300"
}
layer {
  name: "drop4"
  type: "Dropout"
  bottom: "fc4_300"
  top: "fc4_300"
  dropout_param {
    dropout_ratio: 0.4
  }
}
layer {
  name: "fc5_67"
  type: "InnerProduct"
  bottom: "fc4_300"
  top: "fc5_classes"
  inner_product_param {
    num_output: 67
    weight_filler {
      type: "xavier"
    }
  }
}
layer {
  name: "loss"
  type: "SoftmaxWithLoss"
  bottom: "fc5_classes"
  bottom: "label"
  top: "loss"
}
I0410 01:00:00.665944 15805 layer_factory.hpp:77] Creating layer data
I0410 01:00:00.666998 15805 net.cpp:100] Creating Layer data
I0410 01:00:00.667019 15805 net.cpp:408] data -> data
I0410 01:00:00.667042 15805 net.cpp:408] data -> label
I0410 01:00:00.668445 15865 db_lmdb.cpp:35] Opened lmdb ../local_data/lmdb/rtsd-r1/histeq/train/lmdb
I0410 01:00:00.684790 15805 data_layer.cpp:41] output data size: 1024,3,48,48
I0410 01:00:00.737633 15805 net.cpp:150] Setting up data
I0410 01:00:00.737725 15805 net.cpp:157] Top shape: 1024 3 48 48 (7077888)
I0410 01:00:00.737794 15805 net.cpp:157] Top shape: 1024 (1024)
I0410 01:00:00.737807 15805 net.cpp:165] Memory required for data: 28315648
I0410 01:00:00.737820 15805 layer_factory.hpp:77] Creating layer conv1
I0410 01:00:00.737844 15805 net.cpp:100] Creating Layer conv1
I0410 01:00:00.737853 15805 net.cpp:434] conv1 <- data
I0410 01:00:00.737866 15805 net.cpp:408] conv1 -> conv1
I0410 01:00:01.075750 15805 net.cpp:150] Setting up conv1
I0410 01:00:01.075781 15805 net.cpp:157] Top shape: 1024 100 42 42 (180633600)
I0410 01:00:01.075786 15805 net.cpp:165] Memory required for data: 750850048
I0410 01:00:01.075811 15805 layer_factory.hpp:77] Creating layer conv1_sTanH
I0410 01:00:01.075825 15805 net.cpp:100] Creating Layer conv1_sTanH
I0410 01:00:01.075831 15805 net.cpp:434] conv1_sTanH <- conv1
I0410 01:00:01.075839 15805 net.cpp:395] conv1_sTanH -> conv1 (in-place)
I0410 01:00:01.076089 15805 net.cpp:150] Setting up conv1_sTanH
I0410 01:00:01.076107 15805 net.cpp:157] Top shape: 1024 100 42 42 (180633600)
I0410 01:00:01.076110 15805 net.cpp:165] Memory required for data: 1473384448
I0410 01:00:01.076114 15805 layer_factory.hpp:77] Creating layer pool1
I0410 01:00:01.076123 15805 net.cpp:100] Creating Layer pool1
I0410 01:00:01.076128 15805 net.cpp:434] pool1 <- conv1
I0410 01:00:01.076135 15805 net.cpp:408] pool1 -> pool1
I0410 01:00:01.076198 15805 net.cpp:150] Setting up pool1
I0410 01:00:01.076210 15805 net.cpp:157] Top shape: 1024 100 21 21 (45158400)
I0410 01:00:01.076212 15805 net.cpp:165] Memory required for data: 1654018048
I0410 01:00:01.076217 15805 layer_factory.hpp:77] Creating layer conv2
I0410 01:00:01.076231 15805 net.cpp:100] Creating Layer conv2
I0410 01:00:01.076237 15805 net.cpp:434] conv2 <- pool1
I0410 01:00:01.076243 15805 net.cpp:408] conv2 -> conv2
I0410 01:00:01.093971 15805 net.cpp:150] Setting up conv2
I0410 01:00:01.093992 15805 net.cpp:157] Top shape: 1024 150 18 18 (49766400)
I0410 01:00:01.093997 15805 net.cpp:165] Memory required for data: 1853083648
I0410 01:00:01.094009 15805 layer_factory.hpp:77] Creating layer conv2_sTanH
I0410 01:00:01.094017 15805 net.cpp:100] Creating Layer conv2_sTanH
I0410 01:00:01.094022 15805 net.cpp:434] conv2_sTanH <- conv2
I0410 01:00:01.094028 15805 net.cpp:395] conv2_sTanH -> conv2 (in-place)
I0410 01:00:01.104106 15805 net.cpp:150] Setting up conv2_sTanH
I0410 01:00:01.104128 15805 net.cpp:157] Top shape: 1024 150 18 18 (49766400)
I0410 01:00:01.104132 15805 net.cpp:165] Memory required for data: 2052149248
I0410 01:00:01.104137 15805 layer_factory.hpp:77] Creating layer pool2
I0410 01:00:01.104146 15805 net.cpp:100] Creating Layer pool2
I0410 01:00:01.104151 15805 net.cpp:434] pool2 <- conv2
I0410 01:00:01.104158 15805 net.cpp:408] pool2 -> pool2
I0410 01:00:01.104214 15805 net.cpp:150] Setting up pool2
I0410 01:00:01.104225 15805 net.cpp:157] Top shape: 1024 150 9 9 (12441600)
I0410 01:00:01.104229 15805 net.cpp:165] Memory required for data: 2101915648
I0410 01:00:01.104233 15805 layer_factory.hpp:77] Creating layer conv3
I0410 01:00:01.104243 15805 net.cpp:100] Creating Layer conv3
I0410 01:00:01.104248 15805 net.cpp:434] conv3 <- pool2
I0410 01:00:01.104254 15805 net.cpp:408] conv3 -> conv3
I0410 01:00:01.112164 15805 net.cpp:150] Setting up conv3
I0410 01:00:01.112188 15805 net.cpp:157] Top shape: 1024 250 6 6 (9216000)
I0410 01:00:01.112193 15805 net.cpp:165] Memory required for data: 2138779648
I0410 01:00:01.112206 15805 layer_factory.hpp:77] Creating layer conv3_sTanH
I0410 01:00:01.112215 15805 net.cpp:100] Creating Layer conv3_sTanH
I0410 01:00:01.112221 15805 net.cpp:434] conv3_sTanH <- conv3
I0410 01:00:01.112226 15805 net.cpp:395] conv3_sTanH -> conv3 (in-place)
I0410 01:00:01.113315 15805 net.cpp:150] Setting up conv3_sTanH
I0410 01:00:01.113333 15805 net.cpp:157] Top shape: 1024 250 6 6 (9216000)
I0410 01:00:01.113338 15805 net.cpp:165] Memory required for data: 2175643648
I0410 01:00:01.113343 15805 layer_factory.hpp:77] Creating layer pool3
I0410 01:00:01.113351 15805 net.cpp:100] Creating Layer pool3
I0410 01:00:01.113355 15805 net.cpp:434] pool3 <- conv3
I0410 01:00:01.113389 15805 net.cpp:408] pool3 -> pool3
I0410 01:00:01.113447 15805 net.cpp:150] Setting up pool3
I0410 01:00:01.113457 15805 net.cpp:157] Top shape: 1024 250 3 3 (2304000)
I0410 01:00:01.113461 15805 net.cpp:165] Memory required for data: 2184859648
I0410 01:00:01.113466 15805 layer_factory.hpp:77] Creating layer fc4_300
I0410 01:00:01.113473 15805 net.cpp:100] Creating Layer fc4_300
I0410 01:00:01.113478 15805 net.cpp:434] fc4_300 <- pool3
I0410 01:00:01.113484 15805 net.cpp:408] fc4_300 -> fc4_300
I0410 01:00:01.120684 15805 net.cpp:150] Setting up fc4_300
I0410 01:00:01.120705 15805 net.cpp:157] Top shape: 1024 300 (307200)
I0410 01:00:01.120710 15805 net.cpp:165] Memory required for data: 2186088448
I0410 01:00:01.120719 15805 layer_factory.hpp:77] Creating layer fc4_sTanH
I0410 01:00:01.120728 15805 net.cpp:100] Creating Layer fc4_sTanH
I0410 01:00:01.120731 15805 net.cpp:434] fc4_sTanH <- fc4_300
I0410 01:00:01.120738 15805 net.cpp:395] fc4_sTanH -> fc4_300 (in-place)
I0410 01:00:01.120959 15805 net.cpp:150] Setting up fc4_sTanH
I0410 01:00:01.120972 15805 net.cpp:157] Top shape: 1024 300 (307200)
I0410 01:00:01.120976 15805 net.cpp:165] Memory required for data: 2187317248
I0410 01:00:01.120981 15805 layer_factory.hpp:77] Creating layer drop4
I0410 01:00:01.120990 15805 net.cpp:100] Creating Layer drop4
I0410 01:00:01.120993 15805 net.cpp:434] drop4 <- fc4_300
I0410 01:00:01.121000 15805 net.cpp:395] drop4 -> fc4_300 (in-place)
I0410 01:00:01.121037 15805 net.cpp:150] Setting up drop4
I0410 01:00:01.121045 15805 net.cpp:157] Top shape: 1024 300 (307200)
I0410 01:00:01.121049 15805 net.cpp:165] Memory required for data: 2188546048
I0410 01:00:01.121052 15805 layer_factory.hpp:77] Creating layer fc5_67
I0410 01:00:01.121062 15805 net.cpp:100] Creating Layer fc5_67
I0410 01:00:01.121064 15805 net.cpp:434] fc5_67 <- fc4_300
I0410 01:00:01.121071 15805 net.cpp:408] fc5_67 -> fc5_classes
I0410 01:00:01.123965 15805 net.cpp:150] Setting up fc5_67
I0410 01:00:01.123986 15805 net.cpp:157] Top shape: 1024 67 (68608)
I0410 01:00:01.123991 15805 net.cpp:165] Memory required for data: 2188820480
I0410 01:00:01.124003 15805 layer_factory.hpp:77] Creating layer loss
I0410 01:00:01.124011 15805 net.cpp:100] Creating Layer loss
I0410 01:00:01.124017 15805 net.cpp:434] loss <- fc5_classes
I0410 01:00:01.124022 15805 net.cpp:434] loss <- label
I0410 01:00:01.124029 15805 net.cpp:408] loss -> loss
I0410 01:00:01.124044 15805 layer_factory.hpp:77] Creating layer loss
…
I0410 01:00:01.124830 15805 solver.cpp:193] Creating test net (#0) specified by test_net file: ./Prototxt/experiment_7/rtsd-r1/histeq/trial_1/test.prototxt
I0410 01:00:01.124987 15805 net.cpp:58] Initializing net from parameters: 
state {
  phase: TEST
}
layer {
  name: "data"
  type: "Data"
  top: "data"
  top: "label"
  include {
    phase: TEST
  }
  transform_param {
    mirror: false
    crop_size: 48
    mean_value: 124
    mean_value: 121
    mean_value: 142
  }
  data_param {
    source: "../local_data/lmdb/rtsd-r1/histeq/test/lmdb"
    batch_size: 1024
    backend: LMDB
  }
}
layer {
  name: "conv1"
  type: "Convolution"
  bottom: "data"
  top: "conv1"
  convolution_param {
    num_output: 100
    pad: 0
    kernel_size: 7
    group: 1
    stride: 1
    weight_filler {
      type: "xavier"
    }
  }
}
layer {
  name: "conv1_sTanH"
  type: "TanH"
  bottom: "conv1"
  top: "conv1"
}
layer {
  name: "pool1"
  type: "Pooling"
  bottom: "conv1"
  top: "pool1"
  pooling_param {
    pool: MAX
    kernel_size: 2
    stride: 2
  }
}
layer {
  name: "conv2"
  type: "Convolution"
  bottom: "pool1"
  top: "conv2"
  convolution_param {
    num_output: 150
    pad: 0
    kernel_size: 4
    group: 1
    stride: 1
    weight_filler {
      type: "xavier"
    }
  }
}
layer {
  name: "conv2_sTanH"
  type: "TanH"
  bottom: "conv2"
  top: "conv2"
}
layer {
  name: "pool2"
  type: "Pooling"
  bottom: "conv2"
  top: "pool2"
  pooling_param {
    pool: MAX
    kernel_size: 2
    stride: 2
  }
}
layer {
  name: "conv3"
  type: "Convolution"
  bottom: "pool2"
  top: "conv3"
  convolution_param {
    num_output: 250
    pad: 0
    kernel_size: 4
    group: 1
    stride: 1
    weight_filler {
      type: "xavier"
    }
  }
}
layer {
  name: "conv3_sTanH"
  type: "TanH"
  bottom: "conv3"
  top: "conv3"
}
layer {
  name: "pool3"
  type: "Pooling"
  bottom: "conv3"
  top: "pool3"
  pooling_param {
    pool: MAX
    kernel_size: 2
    stride: 2
  }
}
layer {
  name: "fc4_300"
  type: "InnerProduct"
  bottom: "pool3"
  top: "fc4_300"
  inner_product_param {
    num_output: 300
    weight_filler {
      type: "xavier"
    }
  }
}
layer {
  name: "fc4_sTanH"
  type: "TanH"
  bottom: "fc4_300"
  top: "fc4_300"
}
layer {
  name: "drop4"
  type: "Dropout"
  bottom: "fc4_300"
  top: "fc4_300"
  dropout_param {
    dropout_ratio: 0.4
  }
}
layer {
  name: "fc5_67"
  type: "InnerProduct"
  bottom: "fc4_300"
  top: "fc5_classes"
  inner_product_param {
    num_output: 67
    weight_filler {
      type: "xavier"
    }
  }
}
layer {
  name: "loss"
  type: "SoftmaxWithLoss"
  bottom: "fc5_classes"
  bottom: "label"
  top: "loss"
}
layer {
  name: "accuracy_1"
  type: "Accuracy"
  bottom: "fc5_classes"
  bottom: "label"
  top: "accuracy_1"
  include {
    phase: TEST
  }
  accuracy_param {
    top_k: 1
  }
}
layer {
  name: "accuracy_5"
  type: "Accuracy"
  bottom: "fc5_classes"
  bottom: "label"
  top: "accuracy_5"
  include {
    phase: TEST
  }
  accuracy_param {
    top_k: 5
  }
}
I0410 01:00:01.125085 15805 layer_factory.hpp:77] Creating layer data
I0410 01:00:01.125803 15805 net.cpp:100] Creating Layer data
I0410 01:00:01.125816 15805 net.cpp:408] data -> data
I0410 01:00:01.125828 15805 net.cpp:408] data -> label
I0410 01:00:01.128620 15888 db_lmdb.cpp:35] Opened lmdb ../local_data/lmdb/rtsd-r1/histeq/test/lmdb
I0410 01:00:01.128788 15805 data_layer.cpp:41] output data size: 1024,3,48,48
I0410 01:00:01.176915 15805 net.cpp:150] Setting up data
I0410 01:00:01.176955 15805 net.cpp:157] Top shape: 1024 3 48 48 (7077888)
I0410 01:00:01.176962 15805 net.cpp:157] Top shape: 1024 (1024)
I0410 01:00:01.176966 15805 net.cpp:165] Memory required for data: 28315648
I0410 01:00:01.176975 15805 layer_factory.hpp:77] Creating layer label_data_1_split
I0410 01:00:01.176990 15805 net.cpp:100] Creating Layer label_data_1_split
I0410 01:00:01.176995 15805 net.cpp:434] label_data_1_split <- label
I0410 01:00:01.177003 15805 net.cpp:408] label_data_1_split -> label_data_1_split_0
I0410 01:00:01.177016 15805 net.cpp:408] label_data_1_split -> label_data_1_split_1
I0410 01:00:01.177026 15805 net.cpp:408] label_data_1_split -> label_data_1_split_2
I0410 01:00:01.177196 15805 net.cpp:150] Setting up label_data_1_split
I0410 01:00:01.177212 15805 net.cpp:157] Top shape: 1024 (1024)
I0410 01:00:01.177217 15805 net.cpp:157] Top shape: 1024 (1024)
I0410 01:00:01.177222 15805 net.cpp:157] Top shape: 1024 (1024)
I0410 01:00:01.177227 15805 net.cpp:165] Memory required for data: 28327936
I0410 01:00:01.177230 15805 layer_factory.hpp:77] Creating layer conv1
I0410 01:00:01.177245 15805 net.cpp:100] Creating Layer conv1
I0410 01:00:01.177253 15805 net.cpp:434] conv1 <- data
I0410 01:00:01.177259 15805 net.cpp:408] conv1 -> conv1
I0410 01:00:01.179325 15805 net.cpp:150] Setting up conv1
I0410 01:00:01.179345 15805 net.cpp:157] Top shape: 1024 100 42 42 (180633600)
I0410 01:00:01.179349 15805 net.cpp:165] Memory required for data: 750862336
I0410 01:00:01.179364 15805 layer_factory.hpp:77] Creating layer conv1_sTanH
I0410 01:00:01.179373 15805 net.cpp:100] Creating Layer conv1_sTanH
I0410 01:00:01.179378 15805 net.cpp:434] conv1_sTanH <- conv1
I0410 01:00:01.179383 15805 net.cpp:395] conv1_sTanH -> conv1 (in-place)
I0410 01:00:01.181906 15805 net.cpp:150] Setting up conv1_sTanH
I0410 01:00:01.181922 15805 net.cpp:157] Top shape: 1024 100 42 42 (180633600)
I0410 01:00:01.181926 15805 net.cpp:165] Memory required for data: 1473396736
I0410 01:00:01.181936 15805 layer_factory.hpp:77] Creating layer pool1
I0410 01:00:01.181946 15805 net.cpp:100] Creating Layer pool1
I0410 01:00:01.181951 15805 net.cpp:434] pool1 <- conv1
I0410 01:00:01.181958 15805 net.cpp:408] pool1 -> pool1
I0410 01:00:01.182018 15805 net.cpp:150] Setting up pool1
I0410 01:00:01.182034 15805 net.cpp:157] Top shape: 1024 100 21 21 (45158400)
I0410 01:00:01.182037 15805 net.cpp:165] Memory required for data: 1654030336
I0410 01:00:01.182041 15805 layer_factory.hpp:77] Creating layer conv2
I0410 01:00:01.182052 15805 net.cpp:100] Creating Layer conv2
I0410 01:00:01.182056 15805 net.cpp:434] conv2 <- pool1
I0410 01:00:01.182063 15805 net.cpp:408] conv2 -> conv2
I0410 01:00:01.187394 15805 net.cpp:150] Setting up conv2
I0410 01:00:01.187414 15805 net.cpp:157] Top shape: 1024 150 18 18 (49766400)
I0410 01:00:01.187425 15805 net.cpp:165] Memory required for data: 1853095936
I0410 01:00:01.187438 15805 layer_factory.hpp:77] Creating layer conv2_sTanH
I0410 01:00:01.187448 15805 net.cpp:100] Creating Layer conv2_sTanH
I0410 01:00:01.187451 15805 net.cpp:434] conv2_sTanH <- conv2
I0410 01:00:01.187458 15805 net.cpp:395] conv2_sTanH -> conv2 (in-place)
I0410 01:00:01.188375 15805 net.cpp:150] Setting up conv2_sTanH
I0410 01:00:01.188395 15805 net.cpp:157] Top shape: 1024 150 18 18 (49766400)
I0410 01:00:01.188398 15805 net.cpp:165] Memory required for data: 2052161536
I0410 01:00:01.188403 15805 layer_factory.hpp:77] Creating layer pool2
I0410 01:00:01.188411 15805 net.cpp:100] Creating Layer pool2
I0410 01:00:01.188416 15805 net.cpp:434] pool2 <- conv2
I0410 01:00:01.188423 15805 net.cpp:408] pool2 -> pool2
I0410 01:00:01.188482 15805 net.cpp:150] Setting up pool2
I0410 01:00:01.188493 15805 net.cpp:157] Top shape: 1024 150 9 9 (12441600)
I0410 01:00:01.188498 15805 net.cpp:165] Memory required for data: 2101927936
I0410 01:00:01.188501 15805 layer_factory.hpp:77] Creating layer conv3
I0410 01:00:01.188513 15805 net.cpp:100] Creating Layer conv3
I0410 01:00:01.188518 15805 net.cpp:434] conv3 <- pool2
I0410 01:00:01.188524 15805 net.cpp:408] conv3 -> conv3
I0410 01:00:01.195209 15805 net.cpp:150] Setting up conv3
I0410 01:00:01.195230 15805 net.cpp:157] Top shape: 1024 250 6 6 (9216000)
I0410 01:00:01.195235 15805 net.cpp:165] Memory required for data: 2138791936
I0410 01:00:01.195246 15805 layer_factory.hpp:77] Creating layer conv3_sTanH
I0410 01:00:01.195255 15805 net.cpp:100] Creating Layer conv3_sTanH
I0410 01:00:01.195258 15805 net.cpp:434] conv3_sTanH <- conv3
I0410 01:00:01.195266 15805 net.cpp:395] conv3_sTanH -> conv3 (in-place)
I0410 01:00:01.196179 15805 net.cpp:150] Setting up conv3_sTanH
I0410 01:00:01.196198 15805 net.cpp:157] Top shape: 1024 250 6 6 (9216000)
I0410 01:00:01.196220 15805 net.cpp:165] Memory required for data: 2175655936
I0410 01:00:01.196225 15805 layer_factory.hpp:77] Creating layer pool3
I0410 01:00:01.196234 15805 net.cpp:100] Creating Layer pool3
I0410 01:00:01.196238 15805 net.cpp:434] pool3 <- conv3
I0410 01:00:01.196246 15805 net.cpp:408] pool3 -> pool3
I0410 01:00:01.196303 15805 net.cpp:150] Setting up pool3
I0410 01:00:01.196315 15805 net.cpp:157] Top shape: 1024 250 3 3 (2304000)
I0410 01:00:01.196317 15805 net.cpp:165] Memory required for data: 2184871936
I0410 01:00:01.196321 15805 layer_factory.hpp:77] Creating layer fc4_300
I0410 01:00:01.196329 15805 net.cpp:100] Creating Layer fc4_300
I0410 01:00:01.196333 15805 net.cpp:434] fc4_300 <- pool3
I0410 01:00:01.196339 15805 net.cpp:408] fc4_300 -> fc4_300
I0410 01:00:01.202999 15805 net.cpp:150] Setting up fc4_300
I0410 01:00:01.203022 15805 net.cpp:157] Top shape: 1024 300 (307200)
I0410 01:00:01.203027 15805 net.cpp:165] Memory required for data: 2186100736
I0410 01:00:01.203037 15805 layer_factory.hpp:77] Creating layer fc4_sTanH
I0410 01:00:01.203047 15805 net.cpp:100] Creating Layer fc4_sTanH
I0410 01:00:01.203050 15805 net.cpp:434] fc4_sTanH <- fc4_300
I0410 01:00:01.203058 15805 net.cpp:395] fc4_sTanH -> fc4_300 (in-place)
I0410 01:00:01.203299 15805 net.cpp:150] Setting up fc4_sTanH
I0410 01:00:01.203315 15805 net.cpp:157] Top shape: 1024 300 (307200)
I0410 01:00:01.203320 15805 net.cpp:165] Memory required for data: 2187329536
I0410 01:00:01.203325 15805 layer_factory.hpp:77] Creating layer drop4
I0410 01:00:01.203332 15805 net.cpp:100] Creating Layer drop4
I0410 01:00:01.203336 15805 net.cpp:434] drop4 <- fc4_300
I0410 01:00:01.203342 15805 net.cpp:395] drop4 -> fc4_300 (in-place)
I0410 01:00:01.203375 15805 net.cpp:150] Setting up drop4
I0410 01:00:01.203384 15805 net.cpp:157] Top shape: 1024 300 (307200)
I0410 01:00:01.203387 15805 net.cpp:165] Memory required for data: 2188558336
I0410 01:00:01.203392 15805 layer_factory.hpp:77] Creating layer fc5_67
I0410 01:00:01.203400 15805 net.cpp:100] Creating Layer fc5_67
I0410 01:00:01.203404 15805 net.cpp:434] fc5_67 <- fc4_300
I0410 01:00:01.203410 15805 net.cpp:408] fc5_67 -> fc5_classes
I0410 01:00:01.203714 15805 net.cpp:150] Setting up fc5_67
I0410 01:00:01.203725 15805 net.cpp:157] Top shape: 1024 67 (68608)
I0410 01:00:01.203729 15805 net.cpp:165] Memory required for data: 2188832768
I0410 01:00:01.203742 15805 layer_factory.hpp:77] Creating layer fc5_classes_fc5_67_0_split
I0410 01:00:01.203748 15805 net.cpp:100] Creating Layer fc5_classes_fc5_67_0_split
I0410 01:00:01.203752 15805 net.cpp:434] fc5_classes_fc5_67_0_split <- fc5_classes
I0410 01:00:01.203759 15805 net.cpp:408] fc5_classes_fc5_67_0_split -> fc5_classes_fc5_67_0_split_0
I0410 01:00:01.203768 15805 net.cpp:408] fc5_classes_fc5_67_0_split -> fc5_classes_fc5_67_0_split_1
I0410 01:00:01.203775 15805 net.cpp:408] fc5_classes_fc5_67_0_split -> fc5_classes_fc5_67_0_split_2
I0410 01:00:01.203833 15805 net.cpp:150] Setting up fc5_classes_fc5_67_0_split
I0410 01:00:01.203841 15805 net.cpp:157] Top shape: 1024 67 (68608)
I0410 01:00:01.203846 15805 net.cpp:157] Top shape: 1024 67 (68608)
I0410 01:00:01.203850 15805 net.cpp:157] Top shape: 1024 67 (68608)
I0410 01:00:01.203855 15805 net.cpp:165] Memory required for data: 2189656064
I0410 01:00:01.203857 15805 layer_factory.hpp:77] Creating layer loss
I0410 01:00:01.203868 15805 net.cpp:100] Creating Layer loss
I0410 01:00:01.203873 15805 net.cpp:434] loss <- fc5_classes_fc5_67_0_split_0
I0410 01:00:01.203886 15805 net.cpp:434] loss <- label_data_1_split_0
I0410 01:00:01.203893 15805 net.cpp:408] loss -> loss
…
