…
I0508 03:50:09.409436  8296 solver.cpp:93] Creating training net from train_net file: ./Prototxt/experiment_16/RTSD/AHE/trial_3/train.prototxt
I0508 03:50:09.409793  8296 net.cpp:58] Initializing net from parameters: 
state {
  phase: TRAIN
  level: 0
  stage: ""
}
layer {
  name: "data"
  type: "Data"
  top: "data"
  top: "label"
  include {
    phase: TRAIN
  }
  transform_param {
    scale: 0.0039215689
    mirror: false
    crop_size: 48
    mean_value: 133
    mean_value: 127
    mean_value: 126
  }
  data_param {
    source: "../local_data/lmdb/RTSD/AHE/train/lmdb"
    batch_size: 1024
    backend: LMDB
  }
}
layer {
  name: "conv1"
  type: "Convolution"
  bottom: "data"
  top: "conv1"
  convolution_param {
    num_output: 100
    pad: 0
    kernel_size: 7
    group: 1
    stride: 1
    weight_filler {
      type: "xavier"
    }
  }
}
layer {
  name: "conv1_relu"
  type: "ReLU"
  bottom: "conv1"
  top: "conv1"
}
layer {
  name: "pool1"
  type: "Pooling"
  bottom: "conv1"
  top: "pool1"
  pooling_param {
    pool: MAX
    kernel_size: 2
    stride: 2
  }
}
layer {
  name: "conv2"
  type: "Convolution"
  bottom: "pool1"
  top: "conv2"
  convolution_param {
    num_output: 150
    pad: 0
    kernel_size: 4
    group: 2
    stride: 1
    weight_filler {
      type: "xavier"
    }
  }
}
layer {
  name: "conv2_relu"
  type: "ReLU"
  bottom: "conv2"
  top: "conv2"
}
layer {
  name: "pool2"
  type: "Pooling"
  bottom: "conv2"
  top: "pool2"
  pooling_param {
    pool: MAX
    kernel_size: 2
    stride: 2
  }
}
layer {
  name: "conv3"
  type: "Convolution"
  bottom: "pool2"
  top: "conv3"
  convolution_param {
    num_output: 250
    pad: 0
    kernel_size: 4
    group: 2
    stride: 1
    weight_filler {
      type: "xavier"
    }
  }
}
layer {
  name: "conv3_relu"
  type: "ReLU"
  bottom: "conv3"
  top: "conv3"
}
layer {
  name: "pool3"
  type: "Pooling"
  bottom: "conv3"
  top: "pool3"
  pooling_param {
    pool: MAX
    kernel_size: 2
    stride: 2
  }
}
layer {
  name: "fc4_300"
  type: "InnerProduct"
  bottom: "pool3"
  top: "fc4_300"
  inner_product_param {
    num_output: 300
    weight_filler {
      type: "xavier"
    }
  }
}
layer {
  name: "fc4_relu"
  type: "ReLU"
  bottom: "fc4_300"
  top: "fc4_300"
}
layer {
  name: "fc5_116"
  type: "InnerProduct"
  bottom: "fc4_300"
  top: "fc5_classes"
  inner_product_param {
    num_output: 116
    weight_filler {
      type: "xavier"
    }
  }
}
layer {
  name: "softmax"
  type: "Softmax"
  bottom: "fc5_classes"
  top: "softmax"
}
layer {
  name: "loss"
  type: "MultinomialLogisticLoss"
  bottom: "softmax"
  bottom: "label"
  top: "loss"
}
layer {
  name: "accuracy_1"
  type: "Accuracy"
  bottom: "fc5_classes"
  bottom: "label"
  top: "accuracy_1"
  accuracy_param {
    top_k: 1
  }
}
layer {
  name: "accuracy_5"
  type: "Accuracy"
  bottom: "fc5_classes"
  bottom: "label"
  top: "accuracy_5"
  accuracy_param {
    top_k: 5
  }
}
layer {
  name: "silence"
  type: "Silence"
  bottom: "accuracy_1"
  bottom: "accuracy_5"
}
I0508 03:50:09.409914  8296 layer_factory.hpp:77] Creating layer data
I0508 03:50:09.411034  8296 net.cpp:100] Creating Layer data
I0508 03:50:09.411051  8296 net.cpp:408] data -> data
I0508 03:50:09.411074  8296 net.cpp:408] data -> label
I0508 03:50:09.420052  8422 db_lmdb.cpp:35] Opened lmdb ../local_data/lmdb/RTSD/AHE/train/lmdb
I0508 03:50:09.442217  8296 data_layer.cpp:41] output data size: 1024,3,48,48
I0508 03:50:09.498855  8296 net.cpp:150] Setting up data
I0508 03:50:09.498909  8296 net.cpp:157] Top shape: 1024 3 48 48 (7077888)
I0508 03:50:09.498915  8296 net.cpp:157] Top shape: 1024 (1024)
I0508 03:50:09.498919  8296 net.cpp:165] Memory required for data: 28315648
I0508 03:50:09.498929  8296 layer_factory.hpp:77] Creating layer label_data_1_split
I0508 03:50:09.498942  8296 net.cpp:100] Creating Layer label_data_1_split
I0508 03:50:09.498952  8296 net.cpp:434] label_data_1_split <- label
I0508 03:50:09.498965  8296 net.cpp:408] label_data_1_split -> label_data_1_split_0
I0508 03:50:09.498978  8296 net.cpp:408] label_data_1_split -> label_data_1_split_1
I0508 03:50:09.498986  8296 net.cpp:408] label_data_1_split -> label_data_1_split_2
I0508 03:50:09.499048  8296 net.cpp:150] Setting up label_data_1_split
I0508 03:50:09.499056  8296 net.cpp:157] Top shape: 1024 (1024)
I0508 03:50:09.499060  8296 net.cpp:157] Top shape: 1024 (1024)
I0508 03:50:09.499064  8296 net.cpp:157] Top shape: 1024 (1024)
I0508 03:50:09.499066  8296 net.cpp:165] Memory required for data: 28327936
I0508 03:50:09.499069  8296 layer_factory.hpp:77] Creating layer conv1
I0508 03:50:09.499089  8296 net.cpp:100] Creating Layer conv1
I0508 03:50:09.499094  8296 net.cpp:434] conv1 <- data
I0508 03:50:09.499100  8296 net.cpp:408] conv1 -> conv1
I0508 03:50:09.828244  8296 net.cpp:150] Setting up conv1
I0508 03:50:09.828271  8296 net.cpp:157] Top shape: 1024 100 42 42 (180633600)
I0508 03:50:09.828276  8296 net.cpp:165] Memory required for data: 750862336
I0508 03:50:09.828299  8296 layer_factory.hpp:77] Creating layer conv1_relu
I0508 03:50:09.828310  8296 net.cpp:100] Creating Layer conv1_relu
I0508 03:50:09.828315  8296 net.cpp:434] conv1_relu <- conv1
I0508 03:50:09.828321  8296 net.cpp:395] conv1_relu -> conv1 (in-place)
I0508 03:50:09.828512  8296 net.cpp:150] Setting up conv1_relu
I0508 03:50:09.828526  8296 net.cpp:157] Top shape: 1024 100 42 42 (180633600)
I0508 03:50:09.828528  8296 net.cpp:165] Memory required for data: 1473396736
I0508 03:50:09.828531  8296 layer_factory.hpp:77] Creating layer pool1
I0508 03:50:09.828541  8296 net.cpp:100] Creating Layer pool1
I0508 03:50:09.828544  8296 net.cpp:434] pool1 <- conv1
I0508 03:50:09.828549  8296 net.cpp:408] pool1 -> pool1
I0508 03:50:09.828603  8296 net.cpp:150] Setting up pool1
I0508 03:50:09.828610  8296 net.cpp:157] Top shape: 1024 100 21 21 (45158400)
I0508 03:50:09.828614  8296 net.cpp:165] Memory required for data: 1654030336
I0508 03:50:09.828618  8296 layer_factory.hpp:77] Creating layer conv2
I0508 03:50:09.828627  8296 net.cpp:100] Creating Layer conv2
I0508 03:50:09.828632  8296 net.cpp:434] conv2 <- pool1
I0508 03:50:09.828637  8296 net.cpp:408] conv2 -> conv2
I0508 03:50:09.834295  8296 net.cpp:150] Setting up conv2
I0508 03:50:09.834311  8296 net.cpp:157] Top shape: 1024 150 18 18 (49766400)
I0508 03:50:09.834316  8296 net.cpp:165] Memory required for data: 1853095936
I0508 03:50:09.834324  8296 layer_factory.hpp:77] Creating layer conv2_relu
I0508 03:50:09.834331  8296 net.cpp:100] Creating Layer conv2_relu
I0508 03:50:09.834334  8296 net.cpp:434] conv2_relu <- conv2
I0508 03:50:09.834339  8296 net.cpp:395] conv2_relu -> conv2 (in-place)
I0508 03:50:09.834507  8296 net.cpp:150] Setting up conv2_relu
I0508 03:50:09.834518  8296 net.cpp:157] Top shape: 1024 150 18 18 (49766400)
I0508 03:50:09.834522  8296 net.cpp:165] Memory required for data: 2052161536
I0508 03:50:09.834524  8296 layer_factory.hpp:77] Creating layer pool2
I0508 03:50:09.834530  8296 net.cpp:100] Creating Layer pool2
I0508 03:50:09.834534  8296 net.cpp:434] pool2 <- conv2
I0508 03:50:09.834539  8296 net.cpp:408] pool2 -> pool2
I0508 03:50:09.834583  8296 net.cpp:150] Setting up pool2
I0508 03:50:09.834590  8296 net.cpp:157] Top shape: 1024 150 9 9 (12441600)
I0508 03:50:09.834595  8296 net.cpp:165] Memory required for data: 2101927936
I0508 03:50:09.834599  8296 layer_factory.hpp:77] Creating layer conv3
I0508 03:50:09.834607  8296 net.cpp:100] Creating Layer conv3
I0508 03:50:09.834612  8296 net.cpp:434] conv3 <- pool2
I0508 03:50:09.834617  8296 net.cpp:408] conv3 -> conv3
I0508 03:50:09.842268  8296 net.cpp:150] Setting up conv3
I0508 03:50:09.842288  8296 net.cpp:157] Top shape: 1024 250 6 6 (9216000)
I0508 03:50:09.842290  8296 net.cpp:165] Memory required for data: 2138791936
I0508 03:50:09.842303  8296 layer_factory.hpp:77] Creating layer conv3_relu
I0508 03:50:09.842310  8296 net.cpp:100] Creating Layer conv3_relu
I0508 03:50:09.842314  8296 net.cpp:434] conv3_relu <- conv3
I0508 03:50:09.842319  8296 net.cpp:395] conv3_relu -> conv3 (in-place)
I0508 03:50:09.842504  8296 net.cpp:150] Setting up conv3_relu
I0508 03:50:09.842515  8296 net.cpp:157] Top shape: 1024 250 6 6 (9216000)
I0508 03:50:09.842519  8296 net.cpp:165] Memory required for data: 2175655936
I0508 03:50:09.842521  8296 layer_factory.hpp:77] Creating layer pool3
I0508 03:50:09.842528  8296 net.cpp:100] Creating Layer pool3
I0508 03:50:09.842531  8296 net.cpp:434] pool3 <- conv3
I0508 03:50:09.842537  8296 net.cpp:408] pool3 -> pool3
I0508 03:50:09.842582  8296 net.cpp:150] Setting up pool3
I0508 03:50:09.842591  8296 net.cpp:157] Top shape: 1024 250 3 3 (2304000)
I0508 03:50:09.842593  8296 net.cpp:165] Memory required for data: 2184871936
I0508 03:50:09.842597  8296 layer_factory.hpp:77] Creating layer fc4_300
I0508 03:50:09.842602  8296 net.cpp:100] Creating Layer fc4_300
I0508 03:50:09.842605  8296 net.cpp:434] fc4_300 <- pool3
I0508 03:50:09.842612  8296 net.cpp:408] fc4_300 -> fc4_300
I0508 03:50:09.850762  8296 net.cpp:150] Setting up fc4_300
I0508 03:50:09.850782  8296 net.cpp:157] Top shape: 1024 300 (307200)
I0508 03:50:09.850786  8296 net.cpp:165] Memory required for data: 2186100736
I0508 03:50:09.850793  8296 layer_factory.hpp:77] Creating layer fc4_relu
I0508 03:50:09.850800  8296 net.cpp:100] Creating Layer fc4_relu
I0508 03:50:09.850803  8296 net.cpp:434] fc4_relu <- fc4_300
I0508 03:50:09.850808  8296 net.cpp:395] fc4_relu -> fc4_300 (in-place)
I0508 03:50:09.851740  8296 net.cpp:150] Setting up fc4_relu
I0508 03:50:09.851758  8296 net.cpp:157] Top shape: 1024 300 (307200)
I0508 03:50:09.851761  8296 net.cpp:165] Memory required for data: 2187329536
I0508 03:50:09.851764  8296 layer_factory.hpp:77] Creating layer fc5_116
I0508 03:50:09.851771  8296 net.cpp:100] Creating Layer fc5_116
I0508 03:50:09.851774  8296 net.cpp:434] fc5_116 <- fc4_300
I0508 03:50:09.851783  8296 net.cpp:408] fc5_116 -> fc5_classes
I0508 03:50:09.853247  8296 net.cpp:150] Setting up fc5_116
I0508 03:50:09.853262  8296 net.cpp:157] Top shape: 1024 116 (118784)
I0508 03:50:09.853266  8296 net.cpp:165] Memory required for data: 2187804672
I0508 03:50:09.853281  8296 layer_factory.hpp:77] Creating layer fc5_classes_fc5_116_0_split
I0508 03:50:09.853288  8296 net.cpp:100] Creating Layer fc5_classes_fc5_116_0_split
I0508 03:50:09.853292  8296 net.cpp:434] fc5_classes_fc5_116_0_split <- fc5_classes
I0508 03:50:09.853298  8296 net.cpp:408] fc5_classes_fc5_116_0_split -> fc5_classes_fc5_116_0_split_0
I0508 03:50:09.853308  8296 net.cpp:408] fc5_classes_fc5_116_0_split -> fc5_classes_fc5_116_0_split_1
I0508 03:50:09.853315  8296 net.cpp:408] fc5_classes_fc5_116_0_split -> fc5_classes_fc5_116_0_split_2
I0508 03:50:09.853371  8296 net.cpp:150] Setting up fc5_classes_fc5_116_0_split
I0508 03:50:09.853379  8296 net.cpp:157] Top shape: 1024 116 (118784)
I0508 03:50:09.853384  8296 net.cpp:157] Top shape: 1024 116 (118784)
I0508 03:50:09.853386  8296 net.cpp:157] Top shape: 1024 116 (118784)
I0508 03:50:09.853389  8296 net.cpp:165] Memory required for data: 2189230080
I0508 03:50:09.853392  8296 layer_factory.hpp:77] Creating layer softmax
I0508 03:50:09.853397  8296 net.cpp:100] Creating Layer softmax
I0508 03:50:09.853401  8296 net.cpp:434] softmax <- fc5_classes_fc5_116_0_split_0
I0508 03:50:09.853413  8296 net.cpp:408] softmax -> softmax
I0508 03:50:09.853663  8296 net.cpp:150] Setting up softmax
I0508 03:50:09.853674  8296 net.cpp:157] Top shape: 1024 116 (118784)
I0508 03:50:09.853677  8296 net.cpp:165] Memory required for data: 2189705216
I0508 03:50:09.853682  8296 layer_factory.hpp:77] Creating layer loss
I0508 03:50:09.853691  8296 net.cpp:100] Creating Layer loss
I0508 03:50:09.853711  8296 net.cpp:434] loss <- softmax
I0508 03:50:09.853718  8296 net.cpp:434] loss <- label_data_1_split_0
I0508 03:50:09.853723  8296 net.cpp:408] loss -> loss
…
