…
I0528 08:25:56.422370 18861 solver.cpp:81] Creating training net from train_net file: ./Prototxt/experiment_21/RTSD/orig/trial_4/train.prototxt
I0528 08:25:56.422756 18861 net.cpp:58] Initializing net from parameters: 
state {
  phase: TRAIN
  level: 0
  stage: ""
}
layer {
  name: "data"
  type: "Data"
  top: "data"
  top: "label"
  include {
    phase: TRAIN
  }
  transform_param {
    scale: 0.0039215689
    mirror: false
    crop_size: 48
    mean_value: 119
    mean_value: 113
    mean_value: 113
  }
  data_param {
    source: "../local_data/lmdb/RTSD/orig/train/lmdb"
    batch_size: 1024
    backend: LMDB
  }
}
layer {
  name: "conv1"
  type: "Convolution"
  bottom: "data"
  top: "conv1"
  convolution_param {
    num_output: 100
    pad: 0
    kernel_size: 7
    group: 1
    stride: 1
    weight_filler {
      type: "xavier"
    }
  }
}
layer {
  name: "conv1_relu"
  type: "ReLU"
  bottom: "conv1"
  top: "conv1"
}
layer {
  name: "pool1"
  type: "Pooling"
  bottom: "conv1"
  top: "pool1"
  pooling_param {
    pool: MAX
    kernel_size: 2
    stride: 2
  }
}
layer {
  name: "conv2"
  type: "Convolution"
  bottom: "pool1"
  top: "conv2"
  convolution_param {
    num_output: 150
    pad: 0
    kernel_size: 4
    group: 1
    stride: 1
    weight_filler {
      type: "xavier"
    }
  }
}
layer {
  name: "conv2_relu"
  type: "ReLU"
  bottom: "conv2"
  top: "conv2"
}
layer {
  name: "pool2"
  type: "Pooling"
  bottom: "conv2"
  top: "pool2"
  pooling_param {
    pool: MAX
    kernel_size: 2
    stride: 2
  }
}
layer {
  name: "conv3"
  type: "Convolution"
  bottom: "pool2"
  top: "conv3"
  convolution_param {
    num_output: 250
    pad: 0
    kernel_size: 4
    group: 1
    stride: 1
    weight_filler {
      type: "xavier"
    }
  }
}
layer {
  name: "conv3_relu"
  type: "ReLU"
  bottom: "conv3"
  top: "conv3"
}
layer {
  name: "pool3"
  type: "Pooling"
  bottom: "conv3"
  top: "pool3"
  pooling_param {
    pool: MAX
    kernel_size: 2
    stride: 2
  }
}
layer {
  name: "fc4_300"
  type: "InnerProduct"
  bottom: "pool3"
  top: "fc4_300"
  inner_product_param {
    num_output: 300
    weight_filler {
      type: "xavier"
    }
  }
}
layer {
  name: "fc4_relu"
  type: "ReLU"
  bottom: "fc4_300"
  top: "fc4_300"
}
layer {
  name: "fc5_116"
  type: "InnerProduct"
  bottom: "fc4_300"
  top: "fc5_classes"
  inner_product_param {
    num_output: 116
    weight_filler {
      type: "xavier"
    }
  }
}
layer {
  name: "softmax"
  type: "Softmax"
  bottom: "fc5_classes"
  top: "softmax"
}
layer {
  name: "loss"
  type: "MultinomialLogisticLoss"
  bottom: "softmax"
  bottom: "label"
  top: "loss"
}
layer {
  name: "accuracy_1"
  type: "Accuracy"
  bottom: "fc5_classes"
  bottom: "label"
  top: "accuracy_1"
  accuracy_param {
    top_k: 1
  }
}
layer {
  name: "accuracy_5"
  type: "Accuracy"
  bottom: "fc5_classes"
  bottom: "label"
  top: "accuracy_5"
  accuracy_param {
    top_k: 5
  }
}
layer {
  name: "silence"
  type: "Silence"
  bottom: "accuracy_1"
  bottom: "accuracy_5"
}
I0528 08:25:56.422894 18861 layer_factory.hpp:77] Creating layer data
I0528 08:25:56.423873 18861 net.cpp:100] Creating Layer data
I0528 08:25:56.423900 18861 net.cpp:408] data -> data
I0528 08:25:56.423945 18861 net.cpp:408] data -> label
I0528 08:25:56.425135 18890 db_lmdb.cpp:35] Opened lmdb ../local_data/lmdb/RTSD/orig/train/lmdb
I0528 08:25:56.443640 18861 data_layer.cpp:41] output data size: 1024,3,48,48
I0528 08:25:56.490949 18861 net.cpp:150] Setting up data
I0528 08:25:56.491019 18861 net.cpp:157] Top shape: 1024 3 48 48 (7077888)
I0528 08:25:56.491036 18861 net.cpp:157] Top shape: 1024 (1024)
I0528 08:25:56.491042 18861 net.cpp:165] Memory required for data: 28315648
I0528 08:25:56.491063 18861 layer_factory.hpp:77] Creating layer label_data_1_split
I0528 08:25:56.491097 18861 net.cpp:100] Creating Layer label_data_1_split
I0528 08:25:56.491111 18861 net.cpp:434] label_data_1_split <- label
I0528 08:25:56.491137 18861 net.cpp:408] label_data_1_split -> label_data_1_split_0
I0528 08:25:56.491160 18861 net.cpp:408] label_data_1_split -> label_data_1_split_1
I0528 08:25:56.491171 18861 net.cpp:408] label_data_1_split -> label_data_1_split_2
I0528 08:25:56.491232 18861 net.cpp:150] Setting up label_data_1_split
I0528 08:25:56.491242 18861 net.cpp:157] Top shape: 1024 (1024)
I0528 08:25:56.491250 18861 net.cpp:157] Top shape: 1024 (1024)
I0528 08:25:56.491256 18861 net.cpp:157] Top shape: 1024 (1024)
I0528 08:25:56.491262 18861 net.cpp:165] Memory required for data: 28327936
I0528 08:25:56.491268 18861 layer_factory.hpp:77] Creating layer conv1
I0528 08:25:56.491297 18861 net.cpp:100] Creating Layer conv1
I0528 08:25:56.491304 18861 net.cpp:434] conv1 <- data
I0528 08:25:56.491320 18861 net.cpp:408] conv1 -> conv1
I0528 08:25:56.798488 18861 net.cpp:150] Setting up conv1
I0528 08:25:56.798521 18861 net.cpp:157] Top shape: 1024 100 42 42 (180633600)
I0528 08:25:56.798527 18861 net.cpp:165] Memory required for data: 750862336
I0528 08:25:56.798543 18861 layer_factory.hpp:77] Creating layer conv1_relu
I0528 08:25:56.798554 18861 net.cpp:100] Creating Layer conv1_relu
I0528 08:25:56.798559 18861 net.cpp:434] conv1_relu <- conv1
I0528 08:25:56.798565 18861 net.cpp:395] conv1_relu -> conv1 (in-place)
I0528 08:25:56.798714 18861 net.cpp:150] Setting up conv1_relu
I0528 08:25:56.798728 18861 net.cpp:157] Top shape: 1024 100 42 42 (180633600)
I0528 08:25:56.798735 18861 net.cpp:165] Memory required for data: 1473396736
I0528 08:25:56.798743 18861 layer_factory.hpp:77] Creating layer pool1
I0528 08:25:56.798754 18861 net.cpp:100] Creating Layer pool1
I0528 08:25:56.798759 18861 net.cpp:434] pool1 <- conv1
I0528 08:25:56.798768 18861 net.cpp:408] pool1 -> pool1
I0528 08:25:56.798811 18861 net.cpp:150] Setting up pool1
I0528 08:25:56.798821 18861 net.cpp:157] Top shape: 1024 100 21 21 (45158400)
I0528 08:25:56.798825 18861 net.cpp:165] Memory required for data: 1654030336
I0528 08:25:56.798830 18861 layer_factory.hpp:77] Creating layer conv2
I0528 08:25:56.798840 18861 net.cpp:100] Creating Layer conv2
I0528 08:25:56.798843 18861 net.cpp:434] conv2 <- pool1
I0528 08:25:56.798851 18861 net.cpp:408] conv2 -> conv2
I0528 08:25:56.809124 18861 net.cpp:150] Setting up conv2
I0528 08:25:56.809162 18861 net.cpp:157] Top shape: 1024 150 18 18 (49766400)
I0528 08:25:56.809166 18861 net.cpp:165] Memory required for data: 1853095936
I0528 08:25:56.809190 18861 layer_factory.hpp:77] Creating layer conv2_relu
I0528 08:25:56.809200 18861 net.cpp:100] Creating Layer conv2_relu
I0528 08:25:56.809222 18861 net.cpp:434] conv2_relu <- conv2
I0528 08:25:56.809232 18861 net.cpp:395] conv2_relu -> conv2 (in-place)
I0528 08:25:56.809398 18861 net.cpp:150] Setting up conv2_relu
I0528 08:25:56.809412 18861 net.cpp:157] Top shape: 1024 150 18 18 (49766400)
I0528 08:25:56.809418 18861 net.cpp:165] Memory required for data: 2052161536
I0528 08:25:56.809425 18861 layer_factory.hpp:77] Creating layer pool2
I0528 08:25:56.809435 18861 net.cpp:100] Creating Layer pool2
I0528 08:25:56.809442 18861 net.cpp:434] pool2 <- conv2
I0528 08:25:56.809451 18861 net.cpp:408] pool2 -> pool2
I0528 08:25:56.809497 18861 net.cpp:150] Setting up pool2
I0528 08:25:56.809509 18861 net.cpp:157] Top shape: 1024 150 9 9 (12441600)
I0528 08:25:56.809514 18861 net.cpp:165] Memory required for data: 2101927936
I0528 08:25:56.809520 18861 layer_factory.hpp:77] Creating layer conv3
I0528 08:25:56.809540 18861 net.cpp:100] Creating Layer conv3
I0528 08:25:56.809548 18861 net.cpp:434] conv3 <- pool2
I0528 08:25:56.809557 18861 net.cpp:408] conv3 -> conv3
I0528 08:25:56.814297 18861 net.cpp:150] Setting up conv3
I0528 08:25:56.814334 18861 net.cpp:157] Top shape: 1024 250 6 6 (9216000)
I0528 08:25:56.814340 18861 net.cpp:165] Memory required for data: 2138791936
I0528 08:25:56.814363 18861 layer_factory.hpp:77] Creating layer conv3_relu
I0528 08:25:56.814383 18861 net.cpp:100] Creating Layer conv3_relu
I0528 08:25:56.814389 18861 net.cpp:434] conv3_relu <- conv3
I0528 08:25:56.814409 18861 net.cpp:395] conv3_relu -> conv3 (in-place)
I0528 08:25:56.814816 18861 net.cpp:150] Setting up conv3_relu
I0528 08:25:56.814838 18861 net.cpp:157] Top shape: 1024 250 6 6 (9216000)
I0528 08:25:56.814844 18861 net.cpp:165] Memory required for data: 2175655936
I0528 08:25:56.814851 18861 layer_factory.hpp:77] Creating layer pool3
I0528 08:25:56.814862 18861 net.cpp:100] Creating Layer pool3
I0528 08:25:56.814869 18861 net.cpp:434] pool3 <- conv3
I0528 08:25:56.814884 18861 net.cpp:408] pool3 -> pool3
I0528 08:25:56.814935 18861 net.cpp:150] Setting up pool3
I0528 08:25:56.814946 18861 net.cpp:157] Top shape: 1024 250 3 3 (2304000)
I0528 08:25:56.814951 18861 net.cpp:165] Memory required for data: 2184871936
I0528 08:25:56.814957 18861 layer_factory.hpp:77] Creating layer fc4_300
I0528 08:25:56.814967 18861 net.cpp:100] Creating Layer fc4_300
I0528 08:25:56.814975 18861 net.cpp:434] fc4_300 <- pool3
I0528 08:25:56.814993 18861 net.cpp:408] fc4_300 -> fc4_300
I0528 08:25:56.819439 18861 net.cpp:150] Setting up fc4_300
I0528 08:25:56.819460 18861 net.cpp:157] Top shape: 1024 300 (307200)
I0528 08:25:56.819466 18861 net.cpp:165] Memory required for data: 2186100736
I0528 08:25:56.819478 18861 layer_factory.hpp:77] Creating layer fc4_relu
I0528 08:25:56.819489 18861 net.cpp:100] Creating Layer fc4_relu
I0528 08:25:56.819495 18861 net.cpp:434] fc4_relu <- fc4_300
I0528 08:25:56.819504 18861 net.cpp:395] fc4_relu -> fc4_300 (in-place)
I0528 08:25:56.819664 18861 net.cpp:150] Setting up fc4_relu
I0528 08:25:56.819676 18861 net.cpp:157] Top shape: 1024 300 (307200)
I0528 08:25:56.819682 18861 net.cpp:165] Memory required for data: 2187329536
I0528 08:25:56.819689 18861 layer_factory.hpp:77] Creating layer fc5_116
I0528 08:25:56.819700 18861 net.cpp:100] Creating Layer fc5_116
I0528 08:25:56.819710 18861 net.cpp:434] fc5_116 <- fc4_300
I0528 08:25:56.819720 18861 net.cpp:408] fc5_116 -> fc5_classes
I0528 08:25:56.821971 18861 net.cpp:150] Setting up fc5_116
I0528 08:25:56.822007 18861 net.cpp:157] Top shape: 1024 116 (118784)
I0528 08:25:56.822013 18861 net.cpp:165] Memory required for data: 2187804672
I0528 08:25:56.822031 18861 layer_factory.hpp:77] Creating layer fc5_classes_fc5_116_0_split
I0528 08:25:56.822044 18861 net.cpp:100] Creating Layer fc5_classes_fc5_116_0_split
I0528 08:25:56.822052 18861 net.cpp:434] fc5_classes_fc5_116_0_split <- fc5_classes
I0528 08:25:56.822062 18861 net.cpp:408] fc5_classes_fc5_116_0_split -> fc5_classes_fc5_116_0_split_0
I0528 08:25:56.822077 18861 net.cpp:408] fc5_classes_fc5_116_0_split -> fc5_classes_fc5_116_0_split_1
I0528 08:25:56.822090 18861 net.cpp:408] fc5_classes_fc5_116_0_split -> fc5_classes_fc5_116_0_split_2
I0528 08:25:56.822146 18861 net.cpp:150] Setting up fc5_classes_fc5_116_0_split
I0528 08:25:56.822160 18861 net.cpp:157] Top shape: 1024 116 (118784)
I0528 08:25:56.822166 18861 net.cpp:157] Top shape: 1024 116 (118784)
I0528 08:25:56.822175 18861 net.cpp:157] Top shape: 1024 116 (118784)
I0528 08:25:56.822181 18861 net.cpp:165] Memory required for data: 2189230080
I0528 08:25:56.822187 18861 layer_factory.hpp:77] Creating layer softmax
I0528 08:25:56.822198 18861 net.cpp:100] Creating Layer softmax
I0528 08:25:56.822209 18861 net.cpp:434] softmax <- fc5_classes_fc5_116_0_split_0
I0528 08:25:56.822218 18861 net.cpp:408] softmax -> softmax
I0528 08:25:56.822449 18861 net.cpp:150] Setting up softmax
I0528 08:25:56.822468 18861 net.cpp:157] Top shape: 1024 116 (118784)
I0528 08:25:56.822475 18861 net.cpp:165] Memory required for data: 2189705216
I0528 08:25:56.822481 18861 layer_factory.hpp:77] Creating layer loss
I0528 08:25:56.822501 18861 net.cpp:100] Creating Layer loss
I0528 08:25:56.822523 18861 net.cpp:434] loss <- softmax
I0528 08:25:56.822532 18861 net.cpp:434] loss <- label_data_1_split_0
I0528 08:25:56.822542 18861 net.cpp:408] loss -> loss
…
