…
I0529 02:21:43.564250 10963 solver.cpp:81] Creating training net from train_net file: ./Prototxt/experiment_22/RTSD/orig/trial_3/train.prototxt
I0529 02:21:43.575901 10963 net.cpp:58] Initializing net from parameters: 
state {
  phase: TRAIN
  level: 0
  stage: ""
}
layer {
  name: "data"
  type: "Data"
  top: "data"
  top: "label"
  include {
    phase: TRAIN
  }
  transform_param {
    scale: 0.0039215689
    mirror: false
    crop_size: 48
    mean_value: 119
    mean_value: 113
    mean_value: 113
  }
  data_param {
    source: "../local_data/lmdb/RTSD/orig/train/lmdb"
    batch_size: 1024
    backend: LMDB
  }
}
layer {
  name: "conv1"
  type: "Convolution"
  bottom: "data"
  top: "conv1"
  convolution_param {
    num_output: 100
    pad: 0
    kernel_size: 7
    group: 1
    stride: 1
    weight_filler {
      type: "xavier"
    }
  }
}
layer {
  name: "conv1_relu"
  type: "ReLU"
  bottom: "conv1"
  top: "conv1"
}
layer {
  name: "pool1"
  type: "Pooling"
  bottom: "conv1"
  top: "pool1"
  pooling_param {
    pool: MAX
    kernel_size: 2
    stride: 2
  }
}
layer {
  name: "conv2"
  type: "Convolution"
  bottom: "pool1"
  top: "conv2"
  convolution_param {
    num_output: 150
    pad: 0
    kernel_size: 4
    group: 1
    stride: 1
    weight_filler {
      type: "xavier"
    }
  }
}
layer {
  name: "conv2_relu"
  type: "ReLU"
  bottom: "conv2"
  top: "conv2"
}
layer {
  name: "pool2"
  type: "Pooling"
  bottom: "conv2"
  top: "pool2"
  pooling_param {
    pool: MAX
    kernel_size: 2
    stride: 2
  }
}
layer {
  name: "conv3"
  type: "Convolution"
  bottom: "pool2"
  top: "conv3"
  convolution_param {
    num_output: 250
    pad: 0
    kernel_size: 4
    group: 1
    stride: 1
    weight_filler {
      type: "xavier"
    }
  }
}
layer {
  name: "conv3_relu"
  type: "ReLU"
  bottom: "conv3"
  top: "conv3"
}
layer {
  name: "pool3"
  type: "Pooling"
  bottom: "conv3"
  top: "pool3"
  pooling_param {
    pool: MAX
    kernel_size: 2
    stride: 2
  }
}
layer {
  name: "fc4_300"
  type: "InnerProduct"
  bottom: "pool3"
  top: "fc4_300"
  inner_product_param {
    num_output: 300
    weight_filler {
      type: "xavier"
    }
  }
}
layer {
  name: "fc4_relu"
  type: "ReLU"
  bottom: "fc4_300"
  top: "fc4_300"
}
layer {
  name: "fc5_116"
  type: "InnerProduct"
  bottom: "fc4_300"
  top: "fc5_classes"
  inner_product_param {
    num_output: 116
    weight_filler {
      type: "xavier"
    }
  }
}
layer {
  name: "softmax"
  type: "Softmax"
  bottom: "fc5_classes"
  top: "softmax"
}
layer {
  name: "loss"
  type: "MultinomialLogisticLoss"
  bottom: "softmax"
  bottom: "label"
  top: "loss"
}
layer {
  name: "accuracy_1"
  type: "Accuracy"
  bottom: "fc5_classes"
  bottom: "label"
  top: "accuracy_1"
  accuracy_param {
    top_k: 1
  }
}
layer {
  name: "accuracy_5"
  type: "Accuracy"
  bottom: "fc5_classes"
  bottom: "label"
  top: "accuracy_5"
  accuracy_param {
    top_k: 5
  }
}
layer {
  name: "silence"
  type: "Silence"
  bottom: "accuracy_1"
  bottom: "accuracy_5"
}
I0529 02:21:43.576037 10963 layer_factory.hpp:77] Creating layer data
I0529 02:21:43.577193 10963 net.cpp:100] Creating Layer data
I0529 02:21:43.577208 10963 net.cpp:408] data -> data
I0529 02:21:43.577234 10963 net.cpp:408] data -> label
I0529 02:21:43.578251 11001 db_lmdb.cpp:35] Opened lmdb ../local_data/lmdb/RTSD/orig/train/lmdb
I0529 02:21:43.594683 10963 data_layer.cpp:41] output data size: 1024,3,48,48
I0529 02:21:43.642047 10963 net.cpp:150] Setting up data
I0529 02:21:43.642120 10963 net.cpp:157] Top shape: 1024 3 48 48 (7077888)
I0529 02:21:43.642129 10963 net.cpp:157] Top shape: 1024 (1024)
I0529 02:21:43.642134 10963 net.cpp:165] Memory required for data: 28315648
I0529 02:21:43.642154 10963 layer_factory.hpp:77] Creating layer label_data_1_split
I0529 02:21:43.642174 10963 net.cpp:100] Creating Layer label_data_1_split
I0529 02:21:43.642184 10963 net.cpp:434] label_data_1_split <- label
I0529 02:21:43.642213 10963 net.cpp:408] label_data_1_split -> label_data_1_split_0
I0529 02:21:43.642246 10963 net.cpp:408] label_data_1_split -> label_data_1_split_1
I0529 02:21:43.642263 10963 net.cpp:408] label_data_1_split -> label_data_1_split_2
I0529 02:21:43.642390 10963 net.cpp:150] Setting up label_data_1_split
I0529 02:21:43.642408 10963 net.cpp:157] Top shape: 1024 (1024)
I0529 02:21:43.642417 10963 net.cpp:157] Top shape: 1024 (1024)
I0529 02:21:43.642436 10963 net.cpp:157] Top shape: 1024 (1024)
I0529 02:21:43.642448 10963 net.cpp:165] Memory required for data: 28327936
I0529 02:21:43.642457 10963 layer_factory.hpp:77] Creating layer conv1
I0529 02:21:43.642482 10963 net.cpp:100] Creating Layer conv1
I0529 02:21:43.642493 10963 net.cpp:434] conv1 <- data
I0529 02:21:43.642514 10963 net.cpp:408] conv1 -> conv1
I0529 02:21:43.995913 10963 net.cpp:150] Setting up conv1
I0529 02:21:43.995957 10963 net.cpp:157] Top shape: 1024 100 42 42 (180633600)
I0529 02:21:43.995964 10963 net.cpp:165] Memory required for data: 750862336
I0529 02:21:43.995986 10963 layer_factory.hpp:77] Creating layer conv1_relu
I0529 02:21:43.995997 10963 net.cpp:100] Creating Layer conv1_relu
I0529 02:21:43.996003 10963 net.cpp:434] conv1_relu <- conv1
I0529 02:21:43.996009 10963 net.cpp:395] conv1_relu -> conv1 (in-place)
I0529 02:21:43.996181 10963 net.cpp:150] Setting up conv1_relu
I0529 02:21:43.996193 10963 net.cpp:157] Top shape: 1024 100 42 42 (180633600)
I0529 02:21:43.996198 10963 net.cpp:165] Memory required for data: 1473396736
I0529 02:21:43.996203 10963 layer_factory.hpp:77] Creating layer pool1
I0529 02:21:43.996220 10963 net.cpp:100] Creating Layer pool1
I0529 02:21:43.996227 10963 net.cpp:434] pool1 <- conv1
I0529 02:21:43.996233 10963 net.cpp:408] pool1 -> pool1
I0529 02:21:43.996282 10963 net.cpp:150] Setting up pool1
I0529 02:21:43.996290 10963 net.cpp:157] Top shape: 1024 100 21 21 (45158400)
I0529 02:21:43.996295 10963 net.cpp:165] Memory required for data: 1654030336
I0529 02:21:43.996299 10963 layer_factory.hpp:77] Creating layer conv2
I0529 02:21:43.996318 10963 net.cpp:100] Creating Layer conv2
I0529 02:21:43.996325 10963 net.cpp:434] conv2 <- pool1
I0529 02:21:43.996330 10963 net.cpp:408] conv2 -> conv2
I0529 02:21:43.999685 10963 net.cpp:150] Setting up conv2
I0529 02:21:43.999716 10963 net.cpp:157] Top shape: 1024 150 18 18 (49766400)
I0529 02:21:43.999722 10963 net.cpp:165] Memory required for data: 1853095936
I0529 02:21:43.999739 10963 layer_factory.hpp:77] Creating layer conv2_relu
I0529 02:21:43.999747 10963 net.cpp:100] Creating Layer conv2_relu
I0529 02:21:43.999750 10963 net.cpp:434] conv2_relu <- conv2
I0529 02:21:43.999757 10963 net.cpp:395] conv2_relu -> conv2 (in-place)
I0529 02:21:43.999912 10963 net.cpp:150] Setting up conv2_relu
I0529 02:21:43.999922 10963 net.cpp:157] Top shape: 1024 150 18 18 (49766400)
I0529 02:21:43.999927 10963 net.cpp:165] Memory required for data: 2052161536
I0529 02:21:43.999932 10963 layer_factory.hpp:77] Creating layer pool2
I0529 02:21:43.999938 10963 net.cpp:100] Creating Layer pool2
I0529 02:21:43.999943 10963 net.cpp:434] pool2 <- conv2
I0529 02:21:43.999949 10963 net.cpp:408] pool2 -> pool2
I0529 02:21:43.999986 10963 net.cpp:150] Setting up pool2
I0529 02:21:43.999994 10963 net.cpp:157] Top shape: 1024 150 9 9 (12441600)
I0529 02:21:43.999999 10963 net.cpp:165] Memory required for data: 2101927936
I0529 02:21:44.000002 10963 layer_factory.hpp:77] Creating layer conv3
I0529 02:21:44.000011 10963 net.cpp:100] Creating Layer conv3
I0529 02:21:44.000016 10963 net.cpp:434] conv3 <- pool2
I0529 02:21:44.000022 10963 net.cpp:408] conv3 -> conv3
I0529 02:21:44.005669 10963 net.cpp:150] Setting up conv3
I0529 02:21:44.005710 10963 net.cpp:157] Top shape: 1024 250 6 6 (9216000)
I0529 02:21:44.005717 10963 net.cpp:165] Memory required for data: 2138791936
I0529 02:21:44.005739 10963 layer_factory.hpp:77] Creating layer conv3_relu
I0529 02:21:44.005749 10963 net.cpp:100] Creating Layer conv3_relu
I0529 02:21:44.005755 10963 net.cpp:434] conv3_relu <- conv3
I0529 02:21:44.005764 10963 net.cpp:395] conv3_relu -> conv3 (in-place)
I0529 02:21:44.006264 10963 net.cpp:150] Setting up conv3_relu
I0529 02:21:44.006279 10963 net.cpp:157] Top shape: 1024 250 6 6 (9216000)
I0529 02:21:44.006284 10963 net.cpp:165] Memory required for data: 2175655936
I0529 02:21:44.006289 10963 layer_factory.hpp:77] Creating layer pool3
I0529 02:21:44.006296 10963 net.cpp:100] Creating Layer pool3
I0529 02:21:44.006300 10963 net.cpp:434] pool3 <- conv3
I0529 02:21:44.006315 10963 net.cpp:408] pool3 -> pool3
I0529 02:21:44.006366 10963 net.cpp:150] Setting up pool3
I0529 02:21:44.006373 10963 net.cpp:157] Top shape: 1024 250 3 3 (2304000)
I0529 02:21:44.006377 10963 net.cpp:165] Memory required for data: 2184871936
I0529 02:21:44.006381 10963 layer_factory.hpp:77] Creating layer fc4_300
I0529 02:21:44.006397 10963 net.cpp:100] Creating Layer fc4_300
I0529 02:21:44.006404 10963 net.cpp:434] fc4_300 <- pool3
I0529 02:21:44.006410 10963 net.cpp:408] fc4_300 -> fc4_300
I0529 02:21:44.011708 10963 net.cpp:150] Setting up fc4_300
I0529 02:21:44.011729 10963 net.cpp:157] Top shape: 1024 300 (307200)
I0529 02:21:44.011734 10963 net.cpp:165] Memory required for data: 2186100736
I0529 02:21:44.011744 10963 layer_factory.hpp:77] Creating layer fc4_relu
I0529 02:21:44.011752 10963 net.cpp:100] Creating Layer fc4_relu
I0529 02:21:44.011757 10963 net.cpp:434] fc4_relu <- fc4_300
I0529 02:21:44.011764 10963 net.cpp:395] fc4_relu -> fc4_300 (in-place)
I0529 02:21:44.011927 10963 net.cpp:150] Setting up fc4_relu
I0529 02:21:44.011940 10963 net.cpp:157] Top shape: 1024 300 (307200)
I0529 02:21:44.011943 10963 net.cpp:165] Memory required for data: 2187329536
I0529 02:21:44.011947 10963 layer_factory.hpp:77] Creating layer fc5_116
I0529 02:21:44.011956 10963 net.cpp:100] Creating Layer fc5_116
I0529 02:21:44.011962 10963 net.cpp:434] fc5_116 <- fc4_300
I0529 02:21:44.011968 10963 net.cpp:408] fc5_116 -> fc5_classes
I0529 02:21:44.014998 10963 net.cpp:150] Setting up fc5_116
I0529 02:21:44.015017 10963 net.cpp:157] Top shape: 1024 116 (118784)
I0529 02:21:44.015022 10963 net.cpp:165] Memory required for data: 2187804672
I0529 02:21:44.015040 10963 layer_factory.hpp:77] Creating layer fc5_classes_fc5_116_0_split
I0529 02:21:44.015048 10963 net.cpp:100] Creating Layer fc5_classes_fc5_116_0_split
I0529 02:21:44.015053 10963 net.cpp:434] fc5_classes_fc5_116_0_split <- fc5_classes
I0529 02:21:44.015058 10963 net.cpp:408] fc5_classes_fc5_116_0_split -> fc5_classes_fc5_116_0_split_0
I0529 02:21:44.015066 10963 net.cpp:408] fc5_classes_fc5_116_0_split -> fc5_classes_fc5_116_0_split_1
I0529 02:21:44.015082 10963 net.cpp:408] fc5_classes_fc5_116_0_split -> fc5_classes_fc5_116_0_split_2
I0529 02:21:44.015139 10963 net.cpp:150] Setting up fc5_classes_fc5_116_0_split
I0529 02:21:44.015148 10963 net.cpp:157] Top shape: 1024 116 (118784)
I0529 02:21:44.015153 10963 net.cpp:157] Top shape: 1024 116 (118784)
I0529 02:21:44.015157 10963 net.cpp:157] Top shape: 1024 116 (118784)
I0529 02:21:44.015161 10963 net.cpp:165] Memory required for data: 2189230080
I0529 02:21:44.015164 10963 layer_factory.hpp:77] Creating layer softmax
I0529 02:21:44.015172 10963 net.cpp:100] Creating Layer softmax
I0529 02:21:44.015178 10963 net.cpp:434] softmax <- fc5_classes_fc5_116_0_split_0
I0529 02:21:44.015183 10963 net.cpp:408] softmax -> softmax
I0529 02:21:44.015410 10963 net.cpp:150] Setting up softmax
I0529 02:21:44.015424 10963 net.cpp:157] Top shape: 1024 116 (118784)
I0529 02:21:44.015427 10963 net.cpp:165] Memory required for data: 2189705216
I0529 02:21:44.015432 10963 layer_factory.hpp:77] Creating layer loss
I0529 02:21:44.015442 10963 net.cpp:100] Creating Layer loss
I0529 02:21:44.015460 10963 net.cpp:434] loss <- softmax
I0529 02:21:44.015466 10963 net.cpp:434] loss <- label_data_1_split_0
I0529 02:21:44.015473 10963 net.cpp:408] loss -> loss
…
