…
I0409 23:13:15.114600  7663 net.cpp:322] The NetState phase (0) differed from the phase (1) specified by a rule in layer accuracy_5
I0409 23:13:15.114688  7663 net.cpp:58] Initializing net from parameters: 
state {
  phase: TRAIN
  level: 0
  stage: ""
}
layer {
  name: "data"
  type: "Data"
  top: "data"
  top: "label"
  include {
    phase: TRAIN
  }
  transform_param {
    mirror: false
    crop_size: 48
    mean_value: 122
    mean_value: 115
    mean_value: 129
  }
  data_param {
    source: "../local_data/lmdb/rtsd-r1/orig/train/lmdb"
    batch_size: 1024
    backend: LMDB
  }
}
layer {
  name: "conv1"
  type: "Convolution"
  bottom: "data"
  top: "conv1"
  convolution_param {
    num_output: 100
    pad: 0
    kernel_size: 7
    group: 1
    stride: 1
    weight_filler {
      type: "xavier"
    }
  }
}
layer {
  name: "conv1_sTanH"
  type: "TanH"
  bottom: "conv1"
  top: "conv1"
}
layer {
  name: "pool1"
  type: "Pooling"
  bottom: "conv1"
  top: "pool1"
  pooling_param {
    pool: MAX
    kernel_size: 2
    stride: 2
  }
}
layer {
  name: "conv2"
  type: "Convolution"
  bottom: "pool1"
  top: "conv2"
  convolution_param {
    num_output: 150
    pad: 0
    kernel_size: 4
    group: 1
    stride: 1
    weight_filler {
      type: "xavier"
    }
  }
}
layer {
  name: "conv2_sTanH"
  type: "TanH"
  bottom: "conv2"
  top: "conv2"
}
layer {
  name: "pool2"
  type: "Pooling"
  bottom: "conv2"
  top: "pool2"
  pooling_param {
    pool: MAX
    kernel_size: 2
    stride: 2
  }
}
layer {
  name: "conv3"
  type: "Convolution"
  bottom: "pool2"
  top: "conv3"
  convolution_param {
    num_output: 250
    pad: 0
    kernel_size: 4
    group: 1
    stride: 1
    weight_filler {
      type: "xavier"
    }
  }
}
layer {
  name: "conv3_sTanH"
  type: "TanH"
  bottom: "conv3"
  top: "conv3"
}
layer {
  name: "pool3"
  type: "Pooling"
  bottom: "conv3"
  top: "pool3"
  pooling_param {
    pool: MAX
    kernel_size: 2
    stride: 2
  }
}
layer {
  name: "fc4_300"
  type: "InnerProduct"
  bottom: "pool3"
  top: "fc4_300"
  inner_product_param {
    num_output: 300
    weight_filler {
      type: "xavier"
    }
  }
}
layer {
  name: "fc4_sTanH"
  type: "TanH"
  bottom: "fc4_300"
  top: "fc4_300"
}
layer {
  name: "drop4"
  type: "Dropout"
  bottom: "fc4_300"
  top: "fc4_300"
  dropout_param {
    dropout_ratio: 0.4
  }
}
layer {
  name: "fc5_67"
  type: "InnerProduct"
  bottom: "fc4_300"
  top: "fc5_classes"
  inner_product_param {
    num_output: 67
    weight_filler {
      type: "xavier"
    }
  }
}
layer {
  name: "loss"
  type: "SoftmaxWithLoss"
  bottom: "fc5_classes"
  bottom: "label"
  top: "loss"
}
I0409 23:13:15.114756  7663 layer_factory.hpp:77] Creating layer data
I0409 23:13:15.115902  7663 net.cpp:100] Creating Layer data
I0409 23:13:15.115917  7663 net.cpp:408] data -> data
I0409 23:13:15.115939  7663 net.cpp:408] data -> label
I0409 23:13:15.117115  7772 db_lmdb.cpp:35] Opened lmdb ../local_data/lmdb/rtsd-r1/orig/train/lmdb
I0409 23:13:15.133688  7663 data_layer.cpp:41] output data size: 1024,3,48,48
I0409 23:13:15.188271  7663 net.cpp:150] Setting up data
I0409 23:13:15.188313  7663 net.cpp:157] Top shape: 1024 3 48 48 (7077888)
I0409 23:13:15.188318  7663 net.cpp:157] Top shape: 1024 (1024)
I0409 23:13:15.188344  7663 net.cpp:165] Memory required for data: 28315648
I0409 23:13:15.188354  7663 layer_factory.hpp:77] Creating layer conv1
I0409 23:13:15.188380  7663 net.cpp:100] Creating Layer conv1
I0409 23:13:15.188387  7663 net.cpp:434] conv1 <- data
I0409 23:13:15.188402  7663 net.cpp:408] conv1 -> conv1
I0409 23:13:15.447489  7663 net.cpp:150] Setting up conv1
I0409 23:13:15.447517  7663 net.cpp:157] Top shape: 1024 100 42 42 (180633600)
I0409 23:13:15.447521  7663 net.cpp:165] Memory required for data: 750850048
I0409 23:13:15.447541  7663 layer_factory.hpp:77] Creating layer conv1_sTanH
I0409 23:13:15.447553  7663 net.cpp:100] Creating Layer conv1_sTanH
I0409 23:13:15.447557  7663 net.cpp:434] conv1_sTanH <- conv1
I0409 23:13:15.447574  7663 net.cpp:395] conv1_sTanH -> conv1 (in-place)
I0409 23:13:15.447774  7663 net.cpp:150] Setting up conv1_sTanH
I0409 23:13:15.447788  7663 net.cpp:157] Top shape: 1024 100 42 42 (180633600)
I0409 23:13:15.447790  7663 net.cpp:165] Memory required for data: 1473384448
I0409 23:13:15.447793  7663 layer_factory.hpp:77] Creating layer pool1
I0409 23:13:15.447800  7663 net.cpp:100] Creating Layer pool1
I0409 23:13:15.447804  7663 net.cpp:434] pool1 <- conv1
I0409 23:13:15.447809  7663 net.cpp:408] pool1 -> pool1
I0409 23:13:15.447861  7663 net.cpp:150] Setting up pool1
I0409 23:13:15.447870  7663 net.cpp:157] Top shape: 1024 100 21 21 (45158400)
I0409 23:13:15.447872  7663 net.cpp:165] Memory required for data: 1654018048
I0409 23:13:15.447875  7663 layer_factory.hpp:77] Creating layer conv2
I0409 23:13:15.447898  7663 net.cpp:100] Creating Layer conv2
I0409 23:13:15.447902  7663 net.cpp:434] conv2 <- pool1
I0409 23:13:15.447907  7663 net.cpp:408] conv2 -> conv2
I0409 23:13:15.453805  7663 net.cpp:150] Setting up conv2
I0409 23:13:15.453822  7663 net.cpp:157] Top shape: 1024 150 18 18 (49766400)
I0409 23:13:15.453826  7663 net.cpp:165] Memory required for data: 1853083648
I0409 23:13:15.453847  7663 layer_factory.hpp:77] Creating layer conv2_sTanH
I0409 23:13:15.453853  7663 net.cpp:100] Creating Layer conv2_sTanH
I0409 23:13:15.453857  7663 net.cpp:434] conv2_sTanH <- conv2
I0409 23:13:15.453862  7663 net.cpp:395] conv2_sTanH -> conv2 (in-place)
I0409 23:13:15.456853  7663 net.cpp:150] Setting up conv2_sTanH
I0409 23:13:15.456871  7663 net.cpp:157] Top shape: 1024 150 18 18 (49766400)
I0409 23:13:15.456876  7663 net.cpp:165] Memory required for data: 2052149248
I0409 23:13:15.456879  7663 layer_factory.hpp:77] Creating layer pool2
I0409 23:13:15.456887  7663 net.cpp:100] Creating Layer pool2
I0409 23:13:15.456890  7663 net.cpp:434] pool2 <- conv2
I0409 23:13:15.456897  7663 net.cpp:408] pool2 -> pool2
I0409 23:13:15.456943  7663 net.cpp:150] Setting up pool2
I0409 23:13:15.456953  7663 net.cpp:157] Top shape: 1024 150 9 9 (12441600)
I0409 23:13:15.456955  7663 net.cpp:165] Memory required for data: 2101915648
I0409 23:13:15.456959  7663 layer_factory.hpp:77] Creating layer conv3
I0409 23:13:15.456966  7663 net.cpp:100] Creating Layer conv3
I0409 23:13:15.456969  7663 net.cpp:434] conv3 <- pool2
I0409 23:13:15.456974  7663 net.cpp:408] conv3 -> conv3
I0409 23:13:15.462335  7663 net.cpp:150] Setting up conv3
I0409 23:13:15.462364  7663 net.cpp:157] Top shape: 1024 250 6 6 (9216000)
I0409 23:13:15.462368  7663 net.cpp:165] Memory required for data: 2138779648
I0409 23:13:15.462378  7663 layer_factory.hpp:77] Creating layer conv3_sTanH
I0409 23:13:15.462385  7663 net.cpp:100] Creating Layer conv3_sTanH
I0409 23:13:15.462388  7663 net.cpp:434] conv3_sTanH <- conv3
I0409 23:13:15.462407  7663 net.cpp:395] conv3_sTanH -> conv3 (in-place)
I0409 23:13:15.463507  7663 net.cpp:150] Setting up conv3_sTanH
I0409 23:13:15.463523  7663 net.cpp:157] Top shape: 1024 250 6 6 (9216000)
I0409 23:13:15.463526  7663 net.cpp:165] Memory required for data: 2175643648
I0409 23:13:15.463529  7663 layer_factory.hpp:77] Creating layer pool3
I0409 23:13:15.463536  7663 net.cpp:100] Creating Layer pool3
I0409 23:13:15.463539  7663 net.cpp:434] pool3 <- conv3
I0409 23:13:15.463565  7663 net.cpp:408] pool3 -> pool3
I0409 23:13:15.463618  7663 net.cpp:150] Setting up pool3
I0409 23:13:15.463626  7663 net.cpp:157] Top shape: 1024 250 3 3 (2304000)
I0409 23:13:15.463629  7663 net.cpp:165] Memory required for data: 2184859648
I0409 23:13:15.463632  7663 layer_factory.hpp:77] Creating layer fc4_300
I0409 23:13:15.463639  7663 net.cpp:100] Creating Layer fc4_300
I0409 23:13:15.463646  7663 net.cpp:434] fc4_300 <- pool3
I0409 23:13:15.463652  7663 net.cpp:408] fc4_300 -> fc4_300
I0409 23:13:15.469162  7663 net.cpp:150] Setting up fc4_300
I0409 23:13:15.469178  7663 net.cpp:157] Top shape: 1024 300 (307200)
I0409 23:13:15.469193  7663 net.cpp:165] Memory required for data: 2186088448
I0409 23:13:15.469200  7663 layer_factory.hpp:77] Creating layer fc4_sTanH
I0409 23:13:15.469207  7663 net.cpp:100] Creating Layer fc4_sTanH
I0409 23:13:15.469210  7663 net.cpp:434] fc4_sTanH <- fc4_300
I0409 23:13:15.469215  7663 net.cpp:395] fc4_sTanH -> fc4_300 (in-place)
I0409 23:13:15.469404  7663 net.cpp:150] Setting up fc4_sTanH
I0409 23:13:15.469415  7663 net.cpp:157] Top shape: 1024 300 (307200)
I0409 23:13:15.469419  7663 net.cpp:165] Memory required for data: 2187317248
I0409 23:13:15.469421  7663 layer_factory.hpp:77] Creating layer drop4
I0409 23:13:15.469429  7663 net.cpp:100] Creating Layer drop4
I0409 23:13:15.469431  7663 net.cpp:434] drop4 <- fc4_300
I0409 23:13:15.469437  7663 net.cpp:395] drop4 -> fc4_300 (in-place)
I0409 23:13:15.469467  7663 net.cpp:150] Setting up drop4
I0409 23:13:15.469476  7663 net.cpp:157] Top shape: 1024 300 (307200)
I0409 23:13:15.469480  7663 net.cpp:165] Memory required for data: 2188546048
I0409 23:13:15.469483  7663 layer_factory.hpp:77] Creating layer fc5_67
I0409 23:13:15.469490  7663 net.cpp:100] Creating Layer fc5_67
I0409 23:13:15.469492  7663 net.cpp:434] fc5_67 <- fc4_300
I0409 23:13:15.469497  7663 net.cpp:408] fc5_67 -> fc5_classes
I0409 23:13:15.478022  7663 net.cpp:150] Setting up fc5_67
I0409 23:13:15.478039  7663 net.cpp:157] Top shape: 1024 67 (68608)
I0409 23:13:15.478044  7663 net.cpp:165] Memory required for data: 2188820480
I0409 23:13:15.478055  7663 layer_factory.hpp:77] Creating layer loss
I0409 23:13:15.478062  7663 net.cpp:100] Creating Layer loss
I0409 23:13:15.478066  7663 net.cpp:434] loss <- fc5_classes
I0409 23:13:15.478071  7663 net.cpp:434] loss <- label
I0409 23:13:15.478077  7663 net.cpp:408] loss -> loss
I0409 23:13:15.478091  7663 layer_factory.hpp:77] Creating layer loss
…
I0409 23:13:15.478765  7663 solver.cpp:193] Creating test net (#0) specified by test_net file: ./Prototxt/experiment_7/rtsd-r1/orig/trial_4/test.prototxt
I0409 23:13:15.478905  7663 net.cpp:58] Initializing net from parameters: 
state {
  phase: TEST
}
layer {
  name: "data"
  type: "Data"
  top: "data"
  top: "label"
  include {
    phase: TEST
  }
  transform_param {
    mirror: false
    crop_size: 48
    mean_value: 113
    mean_value: 110
    mean_value: 132
  }
  data_param {
    source: "../local_data/lmdb/rtsd-r1/orig/test/lmdb"
    batch_size: 1024
    backend: LMDB
  }
}
layer {
  name: "conv1"
  type: "Convolution"
  bottom: "data"
  top: "conv1"
  convolution_param {
    num_output: 100
    pad: 0
    kernel_size: 7
    group: 1
    stride: 1
    weight_filler {
      type: "xavier"
    }
  }
}
layer {
  name: "conv1_sTanH"
  type: "TanH"
  bottom: "conv1"
  top: "conv1"
}
layer {
  name: "pool1"
  type: "Pooling"
  bottom: "conv1"
  top: "pool1"
  pooling_param {
    pool: MAX
    kernel_size: 2
    stride: 2
  }
}
layer {
  name: "conv2"
  type: "Convolution"
  bottom: "pool1"
  top: "conv2"
  convolution_param {
    num_output: 150
    pad: 0
    kernel_size: 4
    group: 1
    stride: 1
    weight_filler {
      type: "xavier"
    }
  }
}
layer {
  name: "conv2_sTanH"
  type: "TanH"
  bottom: "conv2"
  top: "conv2"
}
layer {
  name: "pool2"
  type: "Pooling"
  bottom: "conv2"
  top: "pool2"
  pooling_param {
    pool: MAX
    kernel_size: 2
    stride: 2
  }
}
layer {
  name: "conv3"
  type: "Convolution"
  bottom: "pool2"
  top: "conv3"
  convolution_param {
    num_output: 250
    pad: 0
    kernel_size: 4
    group: 1
    stride: 1
    weight_filler {
      type: "xavier"
    }
  }
}
layer {
  name: "conv3_sTanH"
  type: "TanH"
  bottom: "conv3"
  top: "conv3"
}
layer {
  name: "pool3"
  type: "Pooling"
  bottom: "conv3"
  top: "pool3"
  pooling_param {
    pool: MAX
    kernel_size: 2
    stride: 2
  }
}
layer {
  name: "fc4_300"
  type: "InnerProduct"
  bottom: "pool3"
  top: "fc4_300"
  inner_product_param {
    num_output: 300
    weight_filler {
      type: "xavier"
    }
  }
}
layer {
  name: "fc4_sTanH"
  type: "TanH"
  bottom: "fc4_300"
  top: "fc4_300"
}
layer {
  name: "drop4"
  type: "Dropout"
  bottom: "fc4_300"
  top: "fc4_300"
  dropout_param {
    dropout_ratio: 0.4
  }
}
layer {
  name: "fc5_67"
  type: "InnerProduct"
  bottom: "fc4_300"
  top: "fc5_classes"
  inner_product_param {
    num_output: 67
    weight_filler {
      type: "xavier"
    }
  }
}
layer {
  name: "loss"
  type: "SoftmaxWithLoss"
  bottom: "fc5_classes"
  bottom: "label"
  top: "loss"
}
layer {
  name: "accuracy_1"
  type: "Accuracy"
  bottom: "fc5_classes"
  bottom: "label"
  top: "accuracy_1"
  include {
    phase: TEST
  }
  accuracy_param {
    top_k: 1
  }
}
layer {
  name: "accuracy_5"
  type: "Accuracy"
  bottom: "fc5_classes"
  bottom: "label"
  top: "accuracy_5"
  include {
    phase: TEST
  }
  accuracy_param {
    top_k: 5
  }
}
I0409 23:13:15.478997  7663 layer_factory.hpp:77] Creating layer data
I0409 23:13:15.479682  7663 net.cpp:100] Creating Layer data
I0409 23:13:15.479693  7663 net.cpp:408] data -> data
I0409 23:13:15.479702  7663 net.cpp:408] data -> label
I0409 23:13:15.484215  7795 db_lmdb.cpp:35] Opened lmdb ../local_data/lmdb/rtsd-r1/orig/test/lmdb
I0409 23:13:15.484421  7663 data_layer.cpp:41] output data size: 1024,3,48,48
I0409 23:13:15.530555  7663 net.cpp:150] Setting up data
I0409 23:13:15.530583  7663 net.cpp:157] Top shape: 1024 3 48 48 (7077888)
I0409 23:13:15.530589  7663 net.cpp:157] Top shape: 1024 (1024)
I0409 23:13:15.530592  7663 net.cpp:165] Memory required for data: 28315648
I0409 23:13:15.530597  7663 layer_factory.hpp:77] Creating layer label_data_1_split
I0409 23:13:15.530625  7663 net.cpp:100] Creating Layer label_data_1_split
I0409 23:13:15.530630  7663 net.cpp:434] label_data_1_split <- label
I0409 23:13:15.530644  7663 net.cpp:408] label_data_1_split -> label_data_1_split_0
I0409 23:13:15.530660  7663 net.cpp:408] label_data_1_split -> label_data_1_split_1
I0409 23:13:15.530666  7663 net.cpp:408] label_data_1_split -> label_data_1_split_2
I0409 23:13:15.530776  7663 net.cpp:150] Setting up label_data_1_split
I0409 23:13:15.530787  7663 net.cpp:157] Top shape: 1024 (1024)
I0409 23:13:15.530791  7663 net.cpp:157] Top shape: 1024 (1024)
I0409 23:13:15.530794  7663 net.cpp:157] Top shape: 1024 (1024)
I0409 23:13:15.530797  7663 net.cpp:165] Memory required for data: 28327936
I0409 23:13:15.530800  7663 layer_factory.hpp:77] Creating layer conv1
I0409 23:13:15.530812  7663 net.cpp:100] Creating Layer conv1
I0409 23:13:15.530815  7663 net.cpp:434] conv1 <- data
I0409 23:13:15.530823  7663 net.cpp:408] conv1 -> conv1
I0409 23:13:15.533320  7663 net.cpp:150] Setting up conv1
I0409 23:13:15.533344  7663 net.cpp:157] Top shape: 1024 100 42 42 (180633600)
I0409 23:13:15.533347  7663 net.cpp:165] Memory required for data: 750862336
I0409 23:13:15.533360  7663 layer_factory.hpp:77] Creating layer conv1_sTanH
I0409 23:13:15.533368  7663 net.cpp:100] Creating Layer conv1_sTanH
I0409 23:13:15.533372  7663 net.cpp:434] conv1_sTanH <- conv1
I0409 23:13:15.533378  7663 net.cpp:395] conv1_sTanH -> conv1 (in-place)
I0409 23:13:15.533572  7663 net.cpp:150] Setting up conv1_sTanH
I0409 23:13:15.533584  7663 net.cpp:157] Top shape: 1024 100 42 42 (180633600)
I0409 23:13:15.533587  7663 net.cpp:165] Memory required for data: 1473396736
I0409 23:13:15.533591  7663 layer_factory.hpp:77] Creating layer pool1
I0409 23:13:15.533603  7663 net.cpp:100] Creating Layer pool1
I0409 23:13:15.533607  7663 net.cpp:434] pool1 <- conv1
I0409 23:13:15.533612  7663 net.cpp:408] pool1 -> pool1
I0409 23:13:15.533663  7663 net.cpp:150] Setting up pool1
I0409 23:13:15.533674  7663 net.cpp:157] Top shape: 1024 100 21 21 (45158400)
I0409 23:13:15.533676  7663 net.cpp:165] Memory required for data: 1654030336
I0409 23:13:15.533684  7663 layer_factory.hpp:77] Creating layer conv2
I0409 23:13:15.533696  7663 net.cpp:100] Creating Layer conv2
I0409 23:13:15.533699  7663 net.cpp:434] conv2 <- pool1
I0409 23:13:15.533705  7663 net.cpp:408] conv2 -> conv2
I0409 23:13:15.539724  7663 net.cpp:150] Setting up conv2
I0409 23:13:15.539744  7663 net.cpp:157] Top shape: 1024 150 18 18 (49766400)
I0409 23:13:15.539747  7663 net.cpp:165] Memory required for data: 1853095936
I0409 23:13:15.539758  7663 layer_factory.hpp:77] Creating layer conv2_sTanH
I0409 23:13:15.539767  7663 net.cpp:100] Creating Layer conv2_sTanH
I0409 23:13:15.539772  7663 net.cpp:434] conv2_sTanH <- conv2
I0409 23:13:15.539777  7663 net.cpp:395] conv2_sTanH -> conv2 (in-place)
I0409 23:13:15.540819  7663 net.cpp:150] Setting up conv2_sTanH
I0409 23:13:15.540835  7663 net.cpp:157] Top shape: 1024 150 18 18 (49766400)
I0409 23:13:15.540838  7663 net.cpp:165] Memory required for data: 2052161536
I0409 23:13:15.540843  7663 layer_factory.hpp:77] Creating layer pool2
I0409 23:13:15.540849  7663 net.cpp:100] Creating Layer pool2
I0409 23:13:15.540853  7663 net.cpp:434] pool2 <- conv2
I0409 23:13:15.540860  7663 net.cpp:408] pool2 -> pool2
I0409 23:13:15.540922  7663 net.cpp:150] Setting up pool2
I0409 23:13:15.540931  7663 net.cpp:157] Top shape: 1024 150 9 9 (12441600)
I0409 23:13:15.540935  7663 net.cpp:165] Memory required for data: 2101927936
I0409 23:13:15.540937  7663 layer_factory.hpp:77] Creating layer conv3
I0409 23:13:15.540954  7663 net.cpp:100] Creating Layer conv3
I0409 23:13:15.540961  7663 net.cpp:434] conv3 <- pool2
I0409 23:13:15.540969  7663 net.cpp:408] conv3 -> conv3
I0409 23:13:15.546967  7663 net.cpp:150] Setting up conv3
I0409 23:13:15.546983  7663 net.cpp:157] Top shape: 1024 250 6 6 (9216000)
I0409 23:13:15.546988  7663 net.cpp:165] Memory required for data: 2138791936
I0409 23:13:15.547008  7663 layer_factory.hpp:77] Creating layer conv3_sTanH
I0409 23:13:15.547019  7663 net.cpp:100] Creating Layer conv3_sTanH
I0409 23:13:15.547024  7663 net.cpp:434] conv3_sTanH <- conv3
I0409 23:13:15.547029  7663 net.cpp:395] conv3_sTanH -> conv3 (in-place)
I0409 23:13:15.556509  7663 net.cpp:150] Setting up conv3_sTanH
I0409 23:13:15.556529  7663 net.cpp:157] Top shape: 1024 250 6 6 (9216000)
I0409 23:13:15.556551  7663 net.cpp:165] Memory required for data: 2175655936
I0409 23:13:15.556556  7663 layer_factory.hpp:77] Creating layer pool3
I0409 23:13:15.556565  7663 net.cpp:100] Creating Layer pool3
I0409 23:13:15.556567  7663 net.cpp:434] pool3 <- conv3
I0409 23:13:15.556573  7663 net.cpp:408] pool3 -> pool3
I0409 23:13:15.556630  7663 net.cpp:150] Setting up pool3
I0409 23:13:15.556640  7663 net.cpp:157] Top shape: 1024 250 3 3 (2304000)
I0409 23:13:15.556643  7663 net.cpp:165] Memory required for data: 2184871936
I0409 23:13:15.556646  7663 layer_factory.hpp:77] Creating layer fc4_300
I0409 23:13:15.556655  7663 net.cpp:100] Creating Layer fc4_300
I0409 23:13:15.556661  7663 net.cpp:434] fc4_300 <- pool3
I0409 23:13:15.556668  7663 net.cpp:408] fc4_300 -> fc4_300
I0409 23:13:15.564052  7663 net.cpp:150] Setting up fc4_300
I0409 23:13:15.564071  7663 net.cpp:157] Top shape: 1024 300 (307200)
I0409 23:13:15.564075  7663 net.cpp:165] Memory required for data: 2186100736
I0409 23:13:15.564083  7663 layer_factory.hpp:77] Creating layer fc4_sTanH
I0409 23:13:15.564090  7663 net.cpp:100] Creating Layer fc4_sTanH
I0409 23:13:15.564095  7663 net.cpp:434] fc4_sTanH <- fc4_300
I0409 23:13:15.564101  7663 net.cpp:395] fc4_sTanH -> fc4_300 (in-place)
I0409 23:13:15.564298  7663 net.cpp:150] Setting up fc4_sTanH
I0409 23:13:15.564309  7663 net.cpp:157] Top shape: 1024 300 (307200)
I0409 23:13:15.564312  7663 net.cpp:165] Memory required for data: 2187329536
I0409 23:13:15.564316  7663 layer_factory.hpp:77] Creating layer drop4
I0409 23:13:15.564324  7663 net.cpp:100] Creating Layer drop4
I0409 23:13:15.564330  7663 net.cpp:434] drop4 <- fc4_300
I0409 23:13:15.564335  7663 net.cpp:395] drop4 -> fc4_300 (in-place)
I0409 23:13:15.564366  7663 net.cpp:150] Setting up drop4
I0409 23:13:15.564374  7663 net.cpp:157] Top shape: 1024 300 (307200)
I0409 23:13:15.564376  7663 net.cpp:165] Memory required for data: 2188558336
I0409 23:13:15.564379  7663 layer_factory.hpp:77] Creating layer fc5_67
I0409 23:13:15.564386  7663 net.cpp:100] Creating Layer fc5_67
I0409 23:13:15.564389  7663 net.cpp:434] fc5_67 <- fc4_300
I0409 23:13:15.564407  7663 net.cpp:408] fc5_67 -> fc5_classes
I0409 23:13:15.564662  7663 net.cpp:150] Setting up fc5_67
I0409 23:13:15.564671  7663 net.cpp:157] Top shape: 1024 67 (68608)
I0409 23:13:15.564674  7663 net.cpp:165] Memory required for data: 2188832768
I0409 23:13:15.564684  7663 layer_factory.hpp:77] Creating layer fc5_classes_fc5_67_0_split
I0409 23:13:15.564693  7663 net.cpp:100] Creating Layer fc5_classes_fc5_67_0_split
I0409 23:13:15.564697  7663 net.cpp:434] fc5_classes_fc5_67_0_split <- fc5_classes
I0409 23:13:15.564703  7663 net.cpp:408] fc5_classes_fc5_67_0_split -> fc5_classes_fc5_67_0_split_0
I0409 23:13:15.564710  7663 net.cpp:408] fc5_classes_fc5_67_0_split -> fc5_classes_fc5_67_0_split_1
I0409 23:13:15.564718  7663 net.cpp:408] fc5_classes_fc5_67_0_split -> fc5_classes_fc5_67_0_split_2
I0409 23:13:15.564771  7663 net.cpp:150] Setting up fc5_classes_fc5_67_0_split
I0409 23:13:15.564779  7663 net.cpp:157] Top shape: 1024 67 (68608)
I0409 23:13:15.564782  7663 net.cpp:157] Top shape: 1024 67 (68608)
I0409 23:13:15.564785  7663 net.cpp:157] Top shape: 1024 67 (68608)
I0409 23:13:15.564787  7663 net.cpp:165] Memory required for data: 2189656064
I0409 23:13:15.564797  7663 layer_factory.hpp:77] Creating layer loss
I0409 23:13:15.564805  7663 net.cpp:100] Creating Layer loss
I0409 23:13:15.564811  7663 net.cpp:434] loss <- fc5_classes_fc5_67_0_split_0
I0409 23:13:15.564815  7663 net.cpp:434] loss <- label_data_1_split_0
I0409 23:13:15.564821  7663 net.cpp:408] loss -> loss
…
