…
I0411 16:37:37.763710 24933 net.cpp:322] The NetState phase (0) differed from the phase (1) specified by a rule in layer accuracy_5
I0411 16:37:37.763857 24933 net.cpp:58] Initializing net from parameters: 
state {
  phase: TRAIN
  level: 0
  stage: ""
}
layer {
  name: "data"
  type: "Data"
  top: "data"
  top: "label"
  include {
    phase: TRAIN
  }
  transform_param {
    scale: 0.0039215689
    mirror: false
    crop_size: 48
    mean_value: 132
    mean_value: 132
    mean_value: 131
  }
  data_param {
    source: "../local_data/lmdb/rtsd-r1/CoNorm/train/lmdb"
    batch_size: 1024
    backend: LMDB
  }
}
layer {
  name: "conv1"
  type: "Convolution"
  bottom: "data"
  top: "conv1"
  convolution_param {
    num_output: 100
    pad: 0
    kernel_size: 7
    group: 1
    stride: 1
    weight_filler {
      type: "xavier"
    }
  }
}
layer {
  name: "conv1_prescale"
  type: "Scale"
  bottom: "conv1"
  top: "conv1"
  param {
    lr_mult: 0
    decay_mult: 0
  }
  scale_param {
    filler {
      value: 0.6666
    }
    bias_term: false
  }
}
layer {
  name: "conv1_sTanH"
  type: "TanH"
  bottom: "conv1"
  top: "conv1"
}
layer {
  name: "conv1_postscale"
  type: "Scale"
  bottom: "conv1"
  top: "conv1"
  param {
    lr_mult: 0
    decay_mult: 0
  }
  scale_param {
    filler {
      value: 1.7159
    }
    bias_term: false
  }
}
layer {
  name: "pool1"
  type: "Pooling"
  bottom: "conv1"
  top: "pool1"
  pooling_param {
    pool: MAX
    kernel_size: 2
    stride: 2
  }
}
layer {
  name: "conv2"
  type: "Convolution"
  bottom: "pool1"
  top: "conv2"
  convolution_param {
    num_output: 150
    pad: 0
    kernel_size: 4
    group: 1
    stride: 1
    weight_filler {
      type: "xavier"
    }
  }
}
layer {
  name: "conv2_prescale"
  type: "Scale"
  bottom: "conv2"
  top: "conv2"
  param {
    lr_mult: 0
    decay_mult: 0
  }
  scale_param {
    filler {
      value: 0.6666
    }
    bias_term: false
  }
}
layer {
  name: "conv2_sTanH"
  type: "TanH"
  bottom: "conv2"
  top: "conv2"
}
layer {
  name: "conv2_postscale"
  type: "Scale"
  bottom: "conv2"
  top: "conv2"
  param {
    lr_mult: 0
    decay_mult: 0
  }
  scale_param {
    filler {
      value: 1.7159
    }
    bias_term: false
  }
}
layer {
  name: "pool2"
  type: "Pooling"
  bottom: "conv2"
  top: "pool2"
  pooling_param {
    pool: MAX
    kernel_size: 2
    stride: 2
  }
}
layer {
  name: "conv3"
  type: "Convolution"
  bottom: "pool2"
  top: "conv3"
  convolution_param {
    num_output: 250
    pad: 0
    kernel_size: 4
    group: 1
    stride: 1
    weight_filler {
      type: "xavier"
    }
  }
}
layer {
  name: "conv3_prescale"
  type: "Scale"
  bottom: "conv3"
  top: "conv3"
  param {
    lr_mult: 0
    decay_mult: 0
  }
  scale_param {
    filler {
      value: 0.6666
    }
    bias_term: false
  }
}
layer {
  name: "conv3_sTanH"
  type: "TanH"
  bottom: "conv3"
  top: "conv3"
}
layer {
  name: "conv3_postscale"
  type: "Scale"
  bottom: "conv3"
  top: "conv3"
  param {
    lr_mult: 0
    decay_mult: 0
  }
  scale_param {
    filler {
      value: 1.7159
    }
    bias_term: false
  }
}
layer {
  name: "pool3"
  type: "Pooling"
  bottom: "conv3"
  top: "pool3"
  pooling_param {
    pool: MAX
    kernel_size: 2
    stride: 2
  }
}
layer {
  name: "fc4_300"
  type: "InnerProduct"
  bottom: "pool3"
  top: "fc4_300"
  inner_product_param {
    num_output: 300
    weight_filler {
      type: "xavier"
    }
  }
}
layer {
  name: "fc4_prescale"
  type: "Scale"
  bottom: "fc4_300"
  top: "fc4_300"
  param {
    lr_mult: 0
    decay_mult: 0
  }
  scale_param {
    filler {
      value: 0.6666
    }
    bias_term: false
  }
}
layer {
  name: "fc4_sTanH"
  type: "TanH"
  bottom: "fc4_300"
  top: "fc4_300"
}
layer {
  name: "fc4_postscale"
  type: "Scale"
  bottom: "fc4_300"
  top: "fc4_300"
  param {
    lr_mult: 0
    decay_mult: 0
  }
  scale_param {
    filler {
      value: 1.7159
    }
    bias_term: false
  }
}
layer {
  name: "drop4"
  type: "Dropout"
  bottom: "fc4_300"
  top: "fc4_300"
  dropout_param {
    dropout_ratio: 0.1
  }
}
layer {
  name: "fc5_67"
  type: "InnerProduct"
  bottom: "fc4_300"
  top: "fc5_classes"
  inner_product_param {
    num_output: 67
    weight_filler {
      type: "xavier"
    }
  }
}
layer {
  name: "loss"
  type: "SoftmaxWithLoss"
  bottom: "fc5_classes"
  bottom: "label"
  top: "loss"
}
I0411 16:37:37.763975 24933 layer_factory.hpp:77] Creating layer data
I0411 16:37:37.765038 24933 net.cpp:100] Creating Layer data
I0411 16:37:37.765053 24933 net.cpp:408] data -> data
I0411 16:37:37.765076 24933 net.cpp:408] data -> label
I0411 16:37:37.766111 25241 db_lmdb.cpp:35] Opened lmdb ../local_data/lmdb/rtsd-r1/CoNorm/train/lmdb
I0411 16:37:37.782912 24933 data_layer.cpp:41] output data size: 1024,3,48,48
I0411 16:37:37.829469 24933 net.cpp:150] Setting up data
I0411 16:37:37.829499 24933 net.cpp:157] Top shape: 1024 3 48 48 (7077888)
I0411 16:37:37.829504 24933 net.cpp:157] Top shape: 1024 (1024)
I0411 16:37:37.829507 24933 net.cpp:165] Memory required for data: 28315648
I0411 16:37:37.829517 24933 layer_factory.hpp:77] Creating layer conv1
I0411 16:37:37.829541 24933 net.cpp:100] Creating Layer conv1
I0411 16:37:37.829547 24933 net.cpp:434] conv1 <- data
I0411 16:37:37.829560 24933 net.cpp:408] conv1 -> conv1
I0411 16:37:38.154753 24933 net.cpp:150] Setting up conv1
I0411 16:37:38.154784 24933 net.cpp:157] Top shape: 1024 100 42 42 (180633600)
I0411 16:37:38.154789 24933 net.cpp:165] Memory required for data: 750850048
I0411 16:37:38.154810 24933 layer_factory.hpp:77] Creating layer conv1_prescale
I0411 16:37:38.154826 24933 net.cpp:100] Creating Layer conv1_prescale
I0411 16:37:38.154830 24933 net.cpp:434] conv1_prescale <- conv1
I0411 16:37:38.154837 24933 net.cpp:395] conv1_prescale -> conv1 (in-place)
I0411 16:37:38.154945 24933 net.cpp:150] Setting up conv1_prescale
I0411 16:37:38.154955 24933 net.cpp:157] Top shape: 1024 100 42 42 (180633600)
I0411 16:37:38.154958 24933 net.cpp:165] Memory required for data: 1473384448
I0411 16:37:38.154965 24933 layer_factory.hpp:77] Creating layer conv1_sTanH
I0411 16:37:38.154973 24933 net.cpp:100] Creating Layer conv1_sTanH
I0411 16:37:38.154975 24933 net.cpp:434] conv1_sTanH <- conv1
I0411 16:37:38.154980 24933 net.cpp:395] conv1_sTanH -> conv1 (in-place)
I0411 16:37:38.155179 24933 net.cpp:150] Setting up conv1_sTanH
I0411 16:37:38.155190 24933 net.cpp:157] Top shape: 1024 100 42 42 (180633600)
I0411 16:37:38.155194 24933 net.cpp:165] Memory required for data: 2195918848
I0411 16:37:38.155199 24933 layer_factory.hpp:77] Creating layer conv1_postscale
I0411 16:37:38.155206 24933 net.cpp:100] Creating Layer conv1_postscale
I0411 16:37:38.155210 24933 net.cpp:434] conv1_postscale <- conv1
I0411 16:37:38.155215 24933 net.cpp:395] conv1_postscale -> conv1 (in-place)
I0411 16:37:38.155311 24933 net.cpp:150] Setting up conv1_postscale
I0411 16:37:38.155320 24933 net.cpp:157] Top shape: 1024 100 42 42 (180633600)
I0411 16:37:38.155323 24933 net.cpp:165] Memory required for data: 2918453248
I0411 16:37:38.155328 24933 layer_factory.hpp:77] Creating layer pool1
I0411 16:37:38.155335 24933 net.cpp:100] Creating Layer pool1
I0411 16:37:38.155339 24933 net.cpp:434] pool1 <- conv1
I0411 16:37:38.155344 24933 net.cpp:408] pool1 -> pool1
I0411 16:37:38.155416 24933 net.cpp:150] Setting up pool1
I0411 16:37:38.155426 24933 net.cpp:157] Top shape: 1024 100 21 21 (45158400)
I0411 16:37:38.155429 24933 net.cpp:165] Memory required for data: 3099086848
I0411 16:37:38.155432 24933 layer_factory.hpp:77] Creating layer conv2
I0411 16:37:38.155442 24933 net.cpp:100] Creating Layer conv2
I0411 16:37:38.155447 24933 net.cpp:434] conv2 <- pool1
I0411 16:37:38.155452 24933 net.cpp:408] conv2 -> conv2
I0411 16:37:38.159776 24933 net.cpp:150] Setting up conv2
I0411 16:37:38.159795 24933 net.cpp:157] Top shape: 1024 150 18 18 (49766400)
I0411 16:37:38.159797 24933 net.cpp:165] Memory required for data: 3298152448
I0411 16:37:38.159807 24933 layer_factory.hpp:77] Creating layer conv2_prescale
I0411 16:37:38.159816 24933 net.cpp:100] Creating Layer conv2_prescale
I0411 16:37:38.159821 24933 net.cpp:434] conv2_prescale <- conv2
I0411 16:37:38.159826 24933 net.cpp:395] conv2_prescale -> conv2 (in-place)
I0411 16:37:38.159941 24933 net.cpp:150] Setting up conv2_prescale
I0411 16:37:38.159952 24933 net.cpp:157] Top shape: 1024 150 18 18 (49766400)
I0411 16:37:38.159955 24933 net.cpp:165] Memory required for data: 3497218048
I0411 16:37:38.159960 24933 layer_factory.hpp:77] Creating layer conv2_sTanH
I0411 16:37:38.159967 24933 net.cpp:100] Creating Layer conv2_sTanH
I0411 16:37:38.159970 24933 net.cpp:434] conv2_sTanH <- conv2
I0411 16:37:38.159976 24933 net.cpp:395] conv2_sTanH -> conv2 (in-place)
I0411 16:37:38.160727 24933 net.cpp:150] Setting up conv2_sTanH
I0411 16:37:38.160742 24933 net.cpp:157] Top shape: 1024 150 18 18 (49766400)
I0411 16:37:38.160745 24933 net.cpp:165] Memory required for data: 3696283648
I0411 16:37:38.160748 24933 layer_factory.hpp:77] Creating layer conv2_postscale
I0411 16:37:38.160756 24933 net.cpp:100] Creating Layer conv2_postscale
I0411 16:37:38.160759 24933 net.cpp:434] conv2_postscale <- conv2
I0411 16:37:38.160764 24933 net.cpp:395] conv2_postscale -> conv2 (in-place)
I0411 16:37:38.160861 24933 net.cpp:150] Setting up conv2_postscale
I0411 16:37:38.160869 24933 net.cpp:157] Top shape: 1024 150 18 18 (49766400)
I0411 16:37:38.160872 24933 net.cpp:165] Memory required for data: 3895349248
I0411 16:37:38.160877 24933 layer_factory.hpp:77] Creating layer pool2
I0411 16:37:38.160883 24933 net.cpp:100] Creating Layer pool2
I0411 16:37:38.160887 24933 net.cpp:434] pool2 <- conv2
I0411 16:37:38.160892 24933 net.cpp:408] pool2 -> pool2
I0411 16:37:38.160930 24933 net.cpp:150] Setting up pool2
I0411 16:37:38.160938 24933 net.cpp:157] Top shape: 1024 150 9 9 (12441600)
I0411 16:37:38.160941 24933 net.cpp:165] Memory required for data: 3945115648
I0411 16:37:38.160944 24933 layer_factory.hpp:77] Creating layer conv3
I0411 16:37:38.160953 24933 net.cpp:100] Creating Layer conv3
I0411 16:37:38.160955 24933 net.cpp:434] conv3 <- pool2
I0411 16:37:38.160960 24933 net.cpp:408] conv3 -> conv3
I0411 16:37:38.166549 24933 net.cpp:150] Setting up conv3
I0411 16:37:38.166568 24933 net.cpp:157] Top shape: 1024 250 6 6 (9216000)
I0411 16:37:38.166571 24933 net.cpp:165] Memory required for data: 3981979648
I0411 16:37:38.166581 24933 layer_factory.hpp:77] Creating layer conv3_prescale
I0411 16:37:38.166589 24933 net.cpp:100] Creating Layer conv3_prescale
I0411 16:37:38.166594 24933 net.cpp:434] conv3_prescale <- conv3
I0411 16:37:38.166599 24933 net.cpp:395] conv3_prescale -> conv3 (in-place)
I0411 16:37:38.166692 24933 net.cpp:150] Setting up conv3_prescale
I0411 16:37:38.166700 24933 net.cpp:157] Top shape: 1024 250 6 6 (9216000)
I0411 16:37:38.166703 24933 net.cpp:165] Memory required for data: 4018843648
I0411 16:37:38.166708 24933 layer_factory.hpp:77] Creating layer conv3_sTanH
I0411 16:37:38.166713 24933 net.cpp:100] Creating Layer conv3_sTanH
I0411 16:37:38.166716 24933 net.cpp:434] conv3_sTanH <- conv3
I0411 16:37:38.166721 24933 net.cpp:395] conv3_sTanH -> conv3 (in-place)
I0411 16:37:38.167945 24933 net.cpp:150] Setting up conv3_sTanH
I0411 16:37:38.167964 24933 net.cpp:157] Top shape: 1024 250 6 6 (9216000)
I0411 16:37:38.167968 24933 net.cpp:165] Memory required for data: 4055707648
I0411 16:37:38.167987 24933 layer_factory.hpp:77] Creating layer conv3_postscale
I0411 16:37:38.167996 24933 net.cpp:100] Creating Layer conv3_postscale
I0411 16:37:38.168000 24933 net.cpp:434] conv3_postscale <- conv3
I0411 16:37:38.168005 24933 net.cpp:395] conv3_postscale -> conv3 (in-place)
I0411 16:37:38.168107 24933 net.cpp:150] Setting up conv3_postscale
I0411 16:37:38.168118 24933 net.cpp:157] Top shape: 1024 250 6 6 (9216000)
I0411 16:37:38.168120 24933 net.cpp:165] Memory required for data: 4092571648
I0411 16:37:38.168125 24933 layer_factory.hpp:77] Creating layer pool3
I0411 16:37:38.168131 24933 net.cpp:100] Creating Layer pool3
I0411 16:37:38.168135 24933 net.cpp:434] pool3 <- conv3
I0411 16:37:38.168139 24933 net.cpp:408] pool3 -> pool3
I0411 16:37:38.168179 24933 net.cpp:150] Setting up pool3
I0411 16:37:38.168185 24933 net.cpp:157] Top shape: 1024 250 3 3 (2304000)
I0411 16:37:38.168189 24933 net.cpp:165] Memory required for data: 4101787648
I0411 16:37:38.168192 24933 layer_factory.hpp:77] Creating layer fc4_300
I0411 16:37:38.168200 24933 net.cpp:100] Creating Layer fc4_300
I0411 16:37:38.168203 24933 net.cpp:434] fc4_300 <- pool3
I0411 16:37:38.168210 24933 net.cpp:408] fc4_300 -> fc4_300
I0411 16:37:38.173898 24933 net.cpp:150] Setting up fc4_300
I0411 16:37:38.173914 24933 net.cpp:157] Top shape: 1024 300 (307200)
I0411 16:37:38.173918 24933 net.cpp:165] Memory required for data: 4103016448
I0411 16:37:38.173925 24933 layer_factory.hpp:77] Creating layer fc4_prescale
I0411 16:37:38.173933 24933 net.cpp:100] Creating Layer fc4_prescale
I0411 16:37:38.173936 24933 net.cpp:434] fc4_prescale <- fc4_300
I0411 16:37:38.173941 24933 net.cpp:395] fc4_prescale -> fc4_300 (in-place)
I0411 16:37:38.174031 24933 net.cpp:150] Setting up fc4_prescale
I0411 16:37:38.174039 24933 net.cpp:157] Top shape: 1024 300 (307200)
I0411 16:37:38.174042 24933 net.cpp:165] Memory required for data: 4104245248
I0411 16:37:38.174046 24933 layer_factory.hpp:77] Creating layer fc4_sTanH
I0411 16:37:38.174052 24933 net.cpp:100] Creating Layer fc4_sTanH
I0411 16:37:38.174055 24933 net.cpp:434] fc4_sTanH <- fc4_300
I0411 16:37:38.174059 24933 net.cpp:395] fc4_sTanH -> fc4_300 (in-place)
I0411 16:37:38.174239 24933 net.cpp:150] Setting up fc4_sTanH
I0411 16:37:38.174252 24933 net.cpp:157] Top shape: 1024 300 (307200)
I0411 16:37:38.174254 24933 net.cpp:165] Memory required for data: 4105474048
I0411 16:37:38.174258 24933 layer_factory.hpp:77] Creating layer fc4_postscale
I0411 16:37:38.174265 24933 net.cpp:100] Creating Layer fc4_postscale
I0411 16:37:38.174268 24933 net.cpp:434] fc4_postscale <- fc4_300
I0411 16:37:38.174273 24933 net.cpp:395] fc4_postscale -> fc4_300 (in-place)
I0411 16:37:38.174367 24933 net.cpp:150] Setting up fc4_postscale
I0411 16:37:38.174376 24933 net.cpp:157] Top shape: 1024 300 (307200)
I0411 16:37:38.174378 24933 net.cpp:165] Memory required for data: 4106702848
I0411 16:37:38.174383 24933 layer_factory.hpp:77] Creating layer drop4
I0411 16:37:38.174389 24933 net.cpp:100] Creating Layer drop4
I0411 16:37:38.174393 24933 net.cpp:434] drop4 <- fc4_300
I0411 16:37:38.174397 24933 net.cpp:395] drop4 -> fc4_300 (in-place)
I0411 16:37:38.174423 24933 net.cpp:150] Setting up drop4
I0411 16:37:38.174432 24933 net.cpp:157] Top shape: 1024 300 (307200)
I0411 16:37:38.174434 24933 net.cpp:165] Memory required for data: 4107931648
I0411 16:37:38.174437 24933 layer_factory.hpp:77] Creating layer fc5_67
I0411 16:37:38.174444 24933 net.cpp:100] Creating Layer fc5_67
I0411 16:37:38.174448 24933 net.cpp:434] fc5_67 <- fc4_300
I0411 16:37:38.174453 24933 net.cpp:408] fc5_67 -> fc5_classes
I0411 16:37:38.175750 24933 net.cpp:150] Setting up fc5_67
I0411 16:37:38.175765 24933 net.cpp:157] Top shape: 1024 67 (68608)
I0411 16:37:38.175767 24933 net.cpp:165] Memory required for data: 4108206080
I0411 16:37:38.175778 24933 layer_factory.hpp:77] Creating layer loss
I0411 16:37:38.175784 24933 net.cpp:100] Creating Layer loss
I0411 16:37:38.175788 24933 net.cpp:434] loss <- fc5_classes
I0411 16:37:38.175806 24933 net.cpp:434] loss <- label
I0411 16:37:38.175812 24933 net.cpp:408] loss -> loss
I0411 16:37:38.175825 24933 layer_factory.hpp:77] Creating layer loss
…
I0411 16:37:38.176586 24933 solver.cpp:193] Creating test net (#0) specified by test_net file: ./Prototxt/experiment_9/rtsd-r1/CoNorm/trial_5/test.prototxt
I0411 16:37:38.176774 24933 net.cpp:58] Initializing net from parameters: 
state {
  phase: TEST
}
layer {
  name: "data"
  type: "Data"
  top: "data"
  top: "label"
  include {
    phase: TEST
  }
  transform_param {
    scale: 0.0039215689
    mirror: false
    crop_size: 48
    mean_value: 133
    mean_value: 133
    mean_value: 132
  }
  data_param {
    source: "../local_data/lmdb/rtsd-r1/CoNorm/test/lmdb"
    batch_size: 1024
    backend: LMDB
  }
}
layer {
  name: "conv1"
  type: "Convolution"
  bottom: "data"
  top: "conv1"
  convolution_param {
    num_output: 100
    pad: 0
    kernel_size: 7
    group: 1
    stride: 1
    weight_filler {
      type: "xavier"
    }
  }
}
layer {
  name: "conv1_prescale"
  type: "Scale"
  bottom: "conv1"
  top: "conv1"
  param {
    lr_mult: 0
    decay_mult: 0
  }
  scale_param {
    filler {
      value: 0.6666
    }
    bias_term: false
  }
}
layer {
  name: "conv1_sTanH"
  type: "TanH"
  bottom: "conv1"
  top: "conv1"
}
layer {
  name: "conv1_postscale"
  type: "Scale"
  bottom: "conv1"
  top: "conv1"
  param {
    lr_mult: 0
    decay_mult: 0
  }
  scale_param {
    filler {
      value: 1.7159
    }
    bias_term: false
  }
}
layer {
  name: "pool1"
  type: "Pooling"
  bottom: "conv1"
  top: "pool1"
  pooling_param {
    pool: MAX
    kernel_size: 2
    stride: 2
  }
}
layer {
  name: "conv2"
  type: "Convolution"
  bottom: "pool1"
  top: "conv2"
  convolution_param {
    num_output: 150
    pad: 0
    kernel_size: 4
    group: 1
    stride: 1
    weight_filler {
      type: "xavier"
    }
  }
}
layer {
  name: "conv2_prescale"
  type: "Scale"
  bottom: "conv2"
  top: "conv2"
  param {
    lr_mult: 0
    decay_mult: 0
  }
  scale_param {
    filler {
      value: 0.6666
    }
    bias_term: false
  }
}
layer {
  name: "conv2_sTanH"
  type: "TanH"
  bottom: "conv2"
  top: "conv2"
}
layer {
  name: "conv2_postscale"
  type: "Scale"
  bottom: "conv2"
  top: "conv2"
  param {
    lr_mult: 0
    decay_mult: 0
  }
  scale_param {
    filler {
      value: 1.7159
    }
    bias_term: false
  }
}
layer {
  name: "pool2"
  type: "Pooling"
  bottom: "conv2"
  top: "pool2"
  pooling_param {
    pool: MAX
    kernel_size: 2
    stride: 2
  }
}
layer {
  name: "conv3"
  type: "Convolution"
  bottom: "pool2"
  top: "conv3"
  convolution_param {
    num_output: 250
    pad: 0
    kernel_size: 4
    group: 1
    stride: 1
    weight_filler {
      type: "xavier"
    }
  }
}
layer {
  name: "conv3_prescale"
  type: "Scale"
  bottom: "conv3"
  top: "conv3"
  param {
    lr_mult: 0
    decay_mult: 0
  }
  scale_param {
    filler {
      value: 0.6666
    }
    bias_term: false
  }
}
layer {
  name: "conv3_sTanH"
  type: "TanH"
  bottom: "conv3"
  top: "conv3"
}
layer {
  name: "conv3_postscale"
  type: "Scale"
  bottom: "conv3"
  top: "conv3"
  param {
    lr_mult: 0
    decay_mult: 0
  }
  scale_param {
    filler {
      value: 1.7159
    }
    bias_term: false
  }
}
layer {
  name: "pool3"
  type: "Pooling"
  bottom: "conv3"
  top: "pool3"
  pooling_param {
    pool: MAX
    kernel_size: 2
    stride: 2
  }
}
layer {
  name: "fc4_300"
  type: "InnerProduct"
  bottom: "pool3"
  top: "fc4_300"
  inner_product_param {
    num_output: 300
    weight_filler {
      type: "xavier"
    }
  }
}
layer {
  name: "fc4_prescale"
  type: "Scale"
  bottom: "fc4_300"
  top: "fc4_300"
  param {
    lr_mult: 0
    decay_mult: 0
  }
  scale_param {
    filler {
      value: 0.6666
    }
    bias_term: false
  }
}
layer {
  name: "fc4_sTanH"
  type: "TanH"
  bottom: "fc4_300"
  top: "fc4_300"
}
layer {
  name: "fc4_postscale"
  type: "Scale"
  bottom: "fc4_300"
  top: "fc4_300"
  param {
    lr_mult: 0
    decay_mult: 0
  }
  scale_param {
    filler {
      value: 1.7159
    }
    bias_term: false
  }
}
layer {
  name: "drop4"
  type: "Dropout"
  bottom: "fc4_300"
  top: "fc4_300"
  dropout_param {
    dropout_ratio: 0.1
  }
}
layer {
  name: "fc5_67"
  type: "InnerProduct"
  bottom: "fc4_300"
  top: "fc5_classes"
  inner_product_param {
    num_output: 67
    weight_filler {
      type: "xavier"
    }
  }
}
layer {
  name: "loss"
  type: "SoftmaxWithLoss"
  bottom: "fc5_classes"
  bottom: "label"
  top: "loss"
}
layer {
  name: "accuracy_1"
  type: "Accuracy"
  bottom: "fc5_classes"
  bottom: "label"
  top: "accuracy_1"
  include {
    phase: TEST
  }
  accuracy_param {
    top_k: 1
  }
}
layer {
  name: "accuracy_5"
  type: "Accuracy"
  bottom: "fc5_classes"
  bottom: "label"
  top: "accuracy_5"
  include {
    phase: TEST
  }
  accuracy_param {
    top_k: 5
  }
}
I0411 16:37:38.176889 24933 layer_factory.hpp:77] Creating layer data
I0411 16:37:38.177536 24933 net.cpp:100] Creating Layer data
I0411 16:37:38.177551 24933 net.cpp:408] data -> data
I0411 16:37:38.177561 24933 net.cpp:408] data -> label
I0411 16:37:38.181488 25281 db_lmdb.cpp:35] Opened lmdb ../local_data/lmdb/rtsd-r1/CoNorm/test/lmdb
I0411 16:37:38.181653 24933 data_layer.cpp:41] output data size: 1024,3,48,48
I0411 16:37:38.234943 24933 net.cpp:150] Setting up data
I0411 16:37:38.234972 24933 net.cpp:157] Top shape: 1024 3 48 48 (7077888)
I0411 16:37:38.234978 24933 net.cpp:157] Top shape: 1024 (1024)
I0411 16:37:38.234980 24933 net.cpp:165] Memory required for data: 28315648
I0411 16:37:38.234987 24933 layer_factory.hpp:77] Creating layer label_data_1_split
I0411 16:37:38.235002 24933 net.cpp:100] Creating Layer label_data_1_split
I0411 16:37:38.235005 24933 net.cpp:434] label_data_1_split <- label
I0411 16:37:38.235013 24933 net.cpp:408] label_data_1_split -> label_data_1_split_0
I0411 16:37:38.235026 24933 net.cpp:408] label_data_1_split -> label_data_1_split_1
I0411 16:37:38.235055 24933 net.cpp:408] label_data_1_split -> label_data_1_split_2
I0411 16:37:38.235165 24933 net.cpp:150] Setting up label_data_1_split
I0411 16:37:38.235174 24933 net.cpp:157] Top shape: 1024 (1024)
I0411 16:37:38.235178 24933 net.cpp:157] Top shape: 1024 (1024)
I0411 16:37:38.235183 24933 net.cpp:157] Top shape: 1024 (1024)
I0411 16:37:38.235184 24933 net.cpp:165] Memory required for data: 28327936
I0411 16:37:38.235188 24933 layer_factory.hpp:77] Creating layer conv1
I0411 16:37:38.235208 24933 net.cpp:100] Creating Layer conv1
I0411 16:37:38.235214 24933 net.cpp:434] conv1 <- data
I0411 16:37:38.235220 24933 net.cpp:408] conv1 -> conv1
I0411 16:37:38.237167 24933 net.cpp:150] Setting up conv1
I0411 16:37:38.237185 24933 net.cpp:157] Top shape: 1024 100 42 42 (180633600)
I0411 16:37:38.237187 24933 net.cpp:165] Memory required for data: 750862336
I0411 16:37:38.237200 24933 layer_factory.hpp:77] Creating layer conv1_prescale
I0411 16:37:38.237210 24933 net.cpp:100] Creating Layer conv1_prescale
I0411 16:37:38.237215 24933 net.cpp:434] conv1_prescale <- conv1
I0411 16:37:38.237221 24933 net.cpp:395] conv1_prescale -> conv1 (in-place)
I0411 16:37:38.237334 24933 net.cpp:150] Setting up conv1_prescale
I0411 16:37:38.237344 24933 net.cpp:157] Top shape: 1024 100 42 42 (180633600)
I0411 16:37:38.237346 24933 net.cpp:165] Memory required for data: 1473396736
I0411 16:37:38.237354 24933 layer_factory.hpp:77] Creating layer conv1_sTanH
I0411 16:37:38.237363 24933 net.cpp:100] Creating Layer conv1_sTanH
I0411 16:37:38.237368 24933 net.cpp:434] conv1_sTanH <- conv1
I0411 16:37:38.237373 24933 net.cpp:395] conv1_sTanH -> conv1 (in-place)
I0411 16:37:38.237571 24933 net.cpp:150] Setting up conv1_sTanH
I0411 16:37:38.237582 24933 net.cpp:157] Top shape: 1024 100 42 42 (180633600)
I0411 16:37:38.237588 24933 net.cpp:165] Memory required for data: 2195931136
I0411 16:37:38.237592 24933 layer_factory.hpp:77] Creating layer conv1_postscale
I0411 16:37:38.237598 24933 net.cpp:100] Creating Layer conv1_postscale
I0411 16:37:38.237602 24933 net.cpp:434] conv1_postscale <- conv1
I0411 16:37:38.237608 24933 net.cpp:395] conv1_postscale -> conv1 (in-place)
I0411 16:37:38.237721 24933 net.cpp:150] Setting up conv1_postscale
I0411 16:37:38.237731 24933 net.cpp:157] Top shape: 1024 100 42 42 (180633600)
I0411 16:37:38.237735 24933 net.cpp:165] Memory required for data: 2918465536
I0411 16:37:38.237740 24933 layer_factory.hpp:77] Creating layer pool1
I0411 16:37:38.237746 24933 net.cpp:100] Creating Layer pool1
I0411 16:37:38.237751 24933 net.cpp:434] pool1 <- conv1
I0411 16:37:38.237756 24933 net.cpp:408] pool1 -> pool1
I0411 16:37:38.237802 24933 net.cpp:150] Setting up pool1
I0411 16:37:38.237809 24933 net.cpp:157] Top shape: 1024 100 21 21 (45158400)
I0411 16:37:38.237814 24933 net.cpp:165] Memory required for data: 3099099136
I0411 16:37:38.237818 24933 layer_factory.hpp:77] Creating layer conv2
I0411 16:37:38.237826 24933 net.cpp:100] Creating Layer conv2
I0411 16:37:38.237831 24933 net.cpp:434] conv2 <- pool1
I0411 16:37:38.237838 24933 net.cpp:408] conv2 -> conv2
I0411 16:37:38.242760 24933 net.cpp:150] Setting up conv2
I0411 16:37:38.242782 24933 net.cpp:157] Top shape: 1024 150 18 18 (49766400)
I0411 16:37:38.242792 24933 net.cpp:165] Memory required for data: 3298164736
I0411 16:37:38.242804 24933 layer_factory.hpp:77] Creating layer conv2_prescale
I0411 16:37:38.242815 24933 net.cpp:100] Creating Layer conv2_prescale
I0411 16:37:38.242821 24933 net.cpp:434] conv2_prescale <- conv2
I0411 16:37:38.242828 24933 net.cpp:395] conv2_prescale -> conv2 (in-place)
I0411 16:37:38.242949 24933 net.cpp:150] Setting up conv2_prescale
I0411 16:37:38.242959 24933 net.cpp:157] Top shape: 1024 150 18 18 (49766400)
I0411 16:37:38.242962 24933 net.cpp:165] Memory required for data: 3497230336
I0411 16:37:38.242967 24933 layer_factory.hpp:77] Creating layer conv2_sTanH
I0411 16:37:38.242974 24933 net.cpp:100] Creating Layer conv2_sTanH
I0411 16:37:38.242976 24933 net.cpp:434] conv2_sTanH <- conv2
I0411 16:37:38.242983 24933 net.cpp:395] conv2_sTanH -> conv2 (in-place)
I0411 16:37:38.244519 24933 net.cpp:150] Setting up conv2_sTanH
I0411 16:37:38.244540 24933 net.cpp:157] Top shape: 1024 150 18 18 (49766400)
I0411 16:37:38.244544 24933 net.cpp:165] Memory required for data: 3696295936
I0411 16:37:38.244549 24933 layer_factory.hpp:77] Creating layer conv2_postscale
I0411 16:37:38.244555 24933 net.cpp:100] Creating Layer conv2_postscale
I0411 16:37:38.244560 24933 net.cpp:434] conv2_postscale <- conv2
I0411 16:37:38.244568 24933 net.cpp:395] conv2_postscale -> conv2 (in-place)
I0411 16:37:38.244678 24933 net.cpp:150] Setting up conv2_postscale
I0411 16:37:38.244688 24933 net.cpp:157] Top shape: 1024 150 18 18 (49766400)
I0411 16:37:38.244690 24933 net.cpp:165] Memory required for data: 3895361536
I0411 16:37:38.244695 24933 layer_factory.hpp:77] Creating layer pool2
I0411 16:37:38.244707 24933 net.cpp:100] Creating Layer pool2
I0411 16:37:38.244712 24933 net.cpp:434] pool2 <- conv2
I0411 16:37:38.244719 24933 net.cpp:408] pool2 -> pool2
I0411 16:37:38.244770 24933 net.cpp:150] Setting up pool2
I0411 16:37:38.244779 24933 net.cpp:157] Top shape: 1024 150 9 9 (12441600)
I0411 16:37:38.244784 24933 net.cpp:165] Memory required for data: 3945127936
I0411 16:37:38.244788 24933 layer_factory.hpp:77] Creating layer conv3
I0411 16:37:38.244796 24933 net.cpp:100] Creating Layer conv3
I0411 16:37:38.244801 24933 net.cpp:434] conv3 <- pool2
I0411 16:37:38.244812 24933 net.cpp:408] conv3 -> conv3
I0411 16:37:38.250504 24933 net.cpp:150] Setting up conv3
I0411 16:37:38.250524 24933 net.cpp:157] Top shape: 1024 250 6 6 (9216000)
I0411 16:37:38.250527 24933 net.cpp:165] Memory required for data: 3981991936
I0411 16:37:38.250538 24933 layer_factory.hpp:77] Creating layer conv3_prescale
I0411 16:37:38.250548 24933 net.cpp:100] Creating Layer conv3_prescale
I0411 16:37:38.250555 24933 net.cpp:434] conv3_prescale <- conv3
I0411 16:37:38.250561 24933 net.cpp:395] conv3_prescale -> conv3 (in-place)
I0411 16:37:38.250666 24933 net.cpp:150] Setting up conv3_prescale
I0411 16:37:38.250675 24933 net.cpp:157] Top shape: 1024 250 6 6 (9216000)
I0411 16:37:38.250679 24933 net.cpp:165] Memory required for data: 4018855936
I0411 16:37:38.250684 24933 layer_factory.hpp:77] Creating layer conv3_sTanH
I0411 16:37:38.250689 24933 net.cpp:100] Creating Layer conv3_sTanH
I0411 16:37:38.250692 24933 net.cpp:434] conv3_sTanH <- conv3
I0411 16:37:38.250699 24933 net.cpp:395] conv3_sTanH -> conv3 (in-place)
I0411 16:37:38.251662 24933 net.cpp:150] Setting up conv3_sTanH
I0411 16:37:38.251677 24933 net.cpp:157] Top shape: 1024 250 6 6 (9216000)
I0411 16:37:38.251682 24933 net.cpp:165] Memory required for data: 4055719936
I0411 16:37:38.251685 24933 layer_factory.hpp:77] Creating layer conv3_postscale
I0411 16:37:38.251694 24933 net.cpp:100] Creating Layer conv3_postscale
I0411 16:37:38.251699 24933 net.cpp:434] conv3_postscale <- conv3
I0411 16:37:38.251705 24933 net.cpp:395] conv3_postscale -> conv3 (in-place)
I0411 16:37:38.251818 24933 net.cpp:150] Setting up conv3_postscale
I0411 16:37:38.251828 24933 net.cpp:157] Top shape: 1024 250 6 6 (9216000)
I0411 16:37:38.251832 24933 net.cpp:165] Memory required for data: 4092583936
I0411 16:37:38.251837 24933 layer_factory.hpp:77] Creating layer pool3
I0411 16:37:38.251847 24933 net.cpp:100] Creating Layer pool3
I0411 16:37:38.251852 24933 net.cpp:434] pool3 <- conv3
I0411 16:37:38.251857 24933 net.cpp:408] pool3 -> pool3
I0411 16:37:38.251917 24933 net.cpp:150] Setting up pool3
I0411 16:37:38.251927 24933 net.cpp:157] Top shape: 1024 250 3 3 (2304000)
I0411 16:37:38.251934 24933 net.cpp:165] Memory required for data: 4101799936
I0411 16:37:38.251936 24933 layer_factory.hpp:77] Creating layer fc4_300
I0411 16:37:38.251943 24933 net.cpp:100] Creating Layer fc4_300
I0411 16:37:38.251947 24933 net.cpp:434] fc4_300 <- pool3
I0411 16:37:38.251953 24933 net.cpp:408] fc4_300 -> fc4_300
I0411 16:37:38.261659 24933 net.cpp:150] Setting up fc4_300
I0411 16:37:38.261678 24933 net.cpp:157] Top shape: 1024 300 (307200)
I0411 16:37:38.261682 24933 net.cpp:165] Memory required for data: 4103028736
I0411 16:37:38.261708 24933 layer_factory.hpp:77] Creating layer fc4_prescale
I0411 16:37:38.261715 24933 net.cpp:100] Creating Layer fc4_prescale
I0411 16:37:38.261721 24933 net.cpp:434] fc4_prescale <- fc4_300
I0411 16:37:38.261729 24933 net.cpp:395] fc4_prescale -> fc4_300 (in-place)
I0411 16:37:38.261831 24933 net.cpp:150] Setting up fc4_prescale
I0411 16:37:38.261840 24933 net.cpp:157] Top shape: 1024 300 (307200)
I0411 16:37:38.261843 24933 net.cpp:165] Memory required for data: 4104257536
I0411 16:37:38.261847 24933 layer_factory.hpp:77] Creating layer fc4_sTanH
I0411 16:37:38.261853 24933 net.cpp:100] Creating Layer fc4_sTanH
I0411 16:37:38.261857 24933 net.cpp:434] fc4_sTanH <- fc4_300
I0411 16:37:38.261862 24933 net.cpp:395] fc4_sTanH -> fc4_300 (in-place)
I0411 16:37:38.262081 24933 net.cpp:150] Setting up fc4_sTanH
I0411 16:37:38.262094 24933 net.cpp:157] Top shape: 1024 300 (307200)
I0411 16:37:38.262096 24933 net.cpp:165] Memory required for data: 4105486336
I0411 16:37:38.262100 24933 layer_factory.hpp:77] Creating layer fc4_postscale
I0411 16:37:38.262106 24933 net.cpp:100] Creating Layer fc4_postscale
I0411 16:37:38.262110 24933 net.cpp:434] fc4_postscale <- fc4_300
I0411 16:37:38.262117 24933 net.cpp:395] fc4_postscale -> fc4_300 (in-place)
I0411 16:37:38.262224 24933 net.cpp:150] Setting up fc4_postscale
I0411 16:37:38.262233 24933 net.cpp:157] Top shape: 1024 300 (307200)
I0411 16:37:38.262236 24933 net.cpp:165] Memory required for data: 4106715136
I0411 16:37:38.262241 24933 layer_factory.hpp:77] Creating layer drop4
I0411 16:37:38.262248 24933 net.cpp:100] Creating Layer drop4
I0411 16:37:38.262253 24933 net.cpp:434] drop4 <- fc4_300
I0411 16:37:38.262257 24933 net.cpp:395] drop4 -> fc4_300 (in-place)
I0411 16:37:38.262284 24933 net.cpp:150] Setting up drop4
I0411 16:37:38.262291 24933 net.cpp:157] Top shape: 1024 300 (307200)
I0411 16:37:38.262295 24933 net.cpp:165] Memory required for data: 4107943936
I0411 16:37:38.262298 24933 layer_factory.hpp:77] Creating layer fc5_67
I0411 16:37:38.262306 24933 net.cpp:100] Creating Layer fc5_67
I0411 16:37:38.262310 24933 net.cpp:434] fc5_67 <- fc4_300
I0411 16:37:38.262315 24933 net.cpp:408] fc5_67 -> fc5_classes
I0411 16:37:38.262567 24933 net.cpp:150] Setting up fc5_67
I0411 16:37:38.262575 24933 net.cpp:157] Top shape: 1024 67 (68608)
I0411 16:37:38.262578 24933 net.cpp:165] Memory required for data: 4108218368
I0411 16:37:38.262591 24933 layer_factory.hpp:77] Creating layer fc5_classes_fc5_67_0_split
I0411 16:37:38.262599 24933 net.cpp:100] Creating Layer fc5_classes_fc5_67_0_split
I0411 16:37:38.262604 24933 net.cpp:434] fc5_classes_fc5_67_0_split <- fc5_classes
I0411 16:37:38.262609 24933 net.cpp:408] fc5_classes_fc5_67_0_split -> fc5_classes_fc5_67_0_split_0
I0411 16:37:38.262617 24933 net.cpp:408] fc5_classes_fc5_67_0_split -> fc5_classes_fc5_67_0_split_1
I0411 16:37:38.262624 24933 net.cpp:408] fc5_classes_fc5_67_0_split -> fc5_classes_fc5_67_0_split_2
I0411 16:37:38.262676 24933 net.cpp:150] Setting up fc5_classes_fc5_67_0_split
I0411 16:37:38.262684 24933 net.cpp:157] Top shape: 1024 67 (68608)
I0411 16:37:38.262688 24933 net.cpp:157] Top shape: 1024 67 (68608)
I0411 16:37:38.262691 24933 net.cpp:157] Top shape: 1024 67 (68608)
I0411 16:37:38.262693 24933 net.cpp:165] Memory required for data: 4109041664
I0411 16:37:38.262697 24933 layer_factory.hpp:77] Creating layer loss
I0411 16:37:38.262706 24933 net.cpp:100] Creating Layer loss
I0411 16:37:38.262709 24933 net.cpp:434] loss <- fc5_classes_fc5_67_0_split_0
I0411 16:37:38.262714 24933 net.cpp:434] loss <- label_data_1_split_0
I0411 16:37:38.262719 24933 net.cpp:408] loss -> loss
…
