…
I0415 01:55:43.505225 31311 solver.cpp:93] Creating training net from train_net file: ./Prototxt/experiment_10/rtsd-r3/imajust/trial_3/train.prototxt
I0415 01:55:43.509950 31311 net.cpp:58] Initializing net from parameters: 
state {
  phase: TRAIN
  level: 0
  stage: ""
}
layer {
  name: "data"
  type: "Data"
  top: "data"
  top: "label"
  include {
    phase: TRAIN
  }
  transform_param {
    scale: 0.0039215689
    mirror: false
    crop_size: 48
    mean_value: 118
    mean_value: 112
    mean_value: 112
  }
  data_param {
    source: "../local_data/lmdb/rtsd-r3/imajust/train/lmdb"
    batch_size: 1024
    backend: LMDB
  }
}
layer {
  name: "conv1"
  type: "Convolution"
  bottom: "data"
  top: "conv1"
  convolution_param {
    num_output: 100
    pad: 0
    kernel_size: 7
    group: 1
    stride: 1
    weight_filler {
      type: "xavier"
    }
  }
}
layer {
  name: "conv1_relu"
  type: "ReLU"
  bottom: "conv1"
  top: "conv1"
}
layer {
  name: "pool1"
  type: "Pooling"
  bottom: "conv1"
  top: "pool1"
  pooling_param {
    pool: MAX
    kernel_size: 2
    stride: 2
  }
}
layer {
  name: "conv2"
  type: "Convolution"
  bottom: "pool1"
  top: "conv2"
  convolution_param {
    num_output: 150
    pad: 0
    kernel_size: 4
    group: 1
    stride: 1
    weight_filler {
      type: "xavier"
    }
  }
}
layer {
  name: "conv2_relu"
  type: "ReLU"
  bottom: "conv2"
  top: "conv2"
}
layer {
  name: "pool2"
  type: "Pooling"
  bottom: "conv2"
  top: "pool2"
  pooling_param {
    pool: MAX
    kernel_size: 2
    stride: 2
  }
}
layer {
  name: "conv3"
  type: "Convolution"
  bottom: "pool2"
  top: "conv3"
  convolution_param {
    num_output: 250
    pad: 0
    kernel_size: 4
    group: 1
    stride: 1
    weight_filler {
      type: "xavier"
    }
  }
}
layer {
  name: "conv3_relu"
  type: "ReLU"
  bottom: "conv3"
  top: "conv3"
}
layer {
  name: "pool3"
  type: "Pooling"
  bottom: "conv3"
  top: "pool3"
  pooling_param {
    pool: MAX
    kernel_size: 2
    stride: 2
  }
}
layer {
  name: "fc4_300"
  type: "InnerProduct"
  bottom: "pool3"
  top: "fc4_300"
  inner_product_param {
    num_output: 300
    weight_filler {
      type: "xavier"
    }
  }
}
layer {
  name: "fc4_relu"
  type: "ReLU"
  bottom: "fc4_300"
  top: "fc4_300"
}
layer {
  name: "fc5_106"
  type: "InnerProduct"
  bottom: "fc4_300"
  top: "fc5_classes"
  inner_product_param {
    num_output: 106
    weight_filler {
      type: "xavier"
    }
  }
}
layer {
  name: "softmax"
  type: "Softmax"
  bottom: "fc5_classes"
  top: "softmax"
}
layer {
  name: "loss"
  type: "MultinomialLogisticLoss"
  bottom: "softmax"
  bottom: "label"
  top: "loss"
}
layer {
  name: "accuracy_1"
  type: "Accuracy"
  bottom: "fc5_classes"
  bottom: "label"
  top: "accuracy_1"
  accuracy_param {
    top_k: 1
  }
}
layer {
  name: "accuracy_5"
  type: "Accuracy"
  bottom: "fc5_classes"
  bottom: "label"
  top: "accuracy_5"
  accuracy_param {
    top_k: 5
  }
}
layer {
  name: "silence"
  type: "Silence"
  bottom: "accuracy_1"
  bottom: "accuracy_5"
}
I0415 01:55:43.510105 31311 layer_factory.hpp:77] Creating layer data
I0415 01:55:43.511435 31311 net.cpp:100] Creating Layer data
I0415 01:55:43.511454 31311 net.cpp:408] data -> data
I0415 01:55:43.511487 31311 net.cpp:408] data -> label
I0415 01:55:43.512590 31411 db_lmdb.cpp:35] Opened lmdb ../local_data/lmdb/rtsd-r3/imajust/train/lmdb
I0415 01:55:43.535210 31311 data_layer.cpp:41] output data size: 1024,3,48,48
I0415 01:55:43.613487 31311 net.cpp:150] Setting up data
I0415 01:55:43.613555 31311 net.cpp:157] Top shape: 1024 3 48 48 (7077888)
I0415 01:55:43.613564 31311 net.cpp:157] Top shape: 1024 (1024)
I0415 01:55:43.613566 31311 net.cpp:165] Memory required for data: 28315648
I0415 01:55:43.613579 31311 layer_factory.hpp:77] Creating layer label_data_1_split
I0415 01:55:43.613595 31311 net.cpp:100] Creating Layer label_data_1_split
I0415 01:55:43.613602 31311 net.cpp:434] label_data_1_split <- label
I0415 01:55:43.613617 31311 net.cpp:408] label_data_1_split -> label_data_1_split_0
I0415 01:55:43.613632 31311 net.cpp:408] label_data_1_split -> label_data_1_split_1
I0415 01:55:43.613643 31311 net.cpp:408] label_data_1_split -> label_data_1_split_2
I0415 01:55:43.613756 31311 net.cpp:150] Setting up label_data_1_split
I0415 01:55:43.613767 31311 net.cpp:157] Top shape: 1024 (1024)
I0415 01:55:43.613772 31311 net.cpp:157] Top shape: 1024 (1024)
I0415 01:55:43.613776 31311 net.cpp:157] Top shape: 1024 (1024)
I0415 01:55:43.613780 31311 net.cpp:165] Memory required for data: 28327936
I0415 01:55:43.613783 31311 layer_factory.hpp:77] Creating layer conv1
I0415 01:55:43.613807 31311 net.cpp:100] Creating Layer conv1
I0415 01:55:43.613812 31311 net.cpp:434] conv1 <- data
I0415 01:55:43.613819 31311 net.cpp:408] conv1 -> conv1
I0415 01:55:44.048787 31311 net.cpp:150] Setting up conv1
I0415 01:55:44.048820 31311 net.cpp:157] Top shape: 1024 100 42 42 (180633600)
I0415 01:55:44.048825 31311 net.cpp:165] Memory required for data: 750862336
I0415 01:55:44.048847 31311 layer_factory.hpp:77] Creating layer conv1_relu
I0415 01:55:44.048859 31311 net.cpp:100] Creating Layer conv1_relu
I0415 01:55:44.048864 31311 net.cpp:434] conv1_relu <- conv1
I0415 01:55:44.048871 31311 net.cpp:395] conv1_relu -> conv1 (in-place)
I0415 01:55:44.049080 31311 net.cpp:150] Setting up conv1_relu
I0415 01:55:44.049093 31311 net.cpp:157] Top shape: 1024 100 42 42 (180633600)
I0415 01:55:44.049095 31311 net.cpp:165] Memory required for data: 1473396736
I0415 01:55:44.049099 31311 layer_factory.hpp:77] Creating layer pool1
I0415 01:55:44.049108 31311 net.cpp:100] Creating Layer pool1
I0415 01:55:44.049113 31311 net.cpp:434] pool1 <- conv1
I0415 01:55:44.049119 31311 net.cpp:408] pool1 -> pool1
I0415 01:55:44.049175 31311 net.cpp:150] Setting up pool1
I0415 01:55:44.049183 31311 net.cpp:157] Top shape: 1024 100 21 21 (45158400)
I0415 01:55:44.049186 31311 net.cpp:165] Memory required for data: 1654030336
I0415 01:55:44.049190 31311 layer_factory.hpp:77] Creating layer conv2
I0415 01:55:44.049201 31311 net.cpp:100] Creating Layer conv2
I0415 01:55:44.049206 31311 net.cpp:434] conv2 <- pool1
I0415 01:55:44.049211 31311 net.cpp:408] conv2 -> conv2
I0415 01:55:44.054347 31311 net.cpp:150] Setting up conv2
I0415 01:55:44.054369 31311 net.cpp:157] Top shape: 1024 150 18 18 (49766400)
I0415 01:55:44.054373 31311 net.cpp:165] Memory required for data: 1853095936
I0415 01:55:44.054386 31311 layer_factory.hpp:77] Creating layer conv2_relu
I0415 01:55:44.054396 31311 net.cpp:100] Creating Layer conv2_relu
I0415 01:55:44.054400 31311 net.cpp:434] conv2_relu <- conv2
I0415 01:55:44.054406 31311 net.cpp:395] conv2_relu -> conv2 (in-place)
I0415 01:55:44.056319 31311 net.cpp:150] Setting up conv2_relu
I0415 01:55:44.056339 31311 net.cpp:157] Top shape: 1024 150 18 18 (49766400)
I0415 01:55:44.056341 31311 net.cpp:165] Memory required for data: 2052161536
I0415 01:55:44.056345 31311 layer_factory.hpp:77] Creating layer pool2
I0415 01:55:44.056354 31311 net.cpp:100] Creating Layer pool2
I0415 01:55:44.056358 31311 net.cpp:434] pool2 <- conv2
I0415 01:55:44.056365 31311 net.cpp:408] pool2 -> pool2
I0415 01:55:44.056424 31311 net.cpp:150] Setting up pool2
I0415 01:55:44.056433 31311 net.cpp:157] Top shape: 1024 150 9 9 (12441600)
I0415 01:55:44.056437 31311 net.cpp:165] Memory required for data: 2101927936
I0415 01:55:44.056439 31311 layer_factory.hpp:77] Creating layer conv3
I0415 01:55:44.056452 31311 net.cpp:100] Creating Layer conv3
I0415 01:55:44.056457 31311 net.cpp:434] conv3 <- pool2
I0415 01:55:44.056480 31311 net.cpp:408] conv3 -> conv3
I0415 01:55:44.062104 31311 net.cpp:150] Setting up conv3
I0415 01:55:44.062126 31311 net.cpp:157] Top shape: 1024 250 6 6 (9216000)
I0415 01:55:44.062129 31311 net.cpp:165] Memory required for data: 2138791936
I0415 01:55:44.062141 31311 layer_factory.hpp:77] Creating layer conv3_relu
I0415 01:55:44.062150 31311 net.cpp:100] Creating Layer conv3_relu
I0415 01:55:44.062155 31311 net.cpp:434] conv3_relu <- conv3
I0415 01:55:44.062160 31311 net.cpp:395] conv3_relu -> conv3 (in-place)
I0415 01:55:44.063473 31311 net.cpp:150] Setting up conv3_relu
I0415 01:55:44.063489 31311 net.cpp:157] Top shape: 1024 250 6 6 (9216000)
I0415 01:55:44.063493 31311 net.cpp:165] Memory required for data: 2175655936
I0415 01:55:44.063496 31311 layer_factory.hpp:77] Creating layer pool3
I0415 01:55:44.063503 31311 net.cpp:100] Creating Layer pool3
I0415 01:55:44.063506 31311 net.cpp:434] pool3 <- conv3
I0415 01:55:44.063513 31311 net.cpp:408] pool3 -> pool3
I0415 01:55:44.063560 31311 net.cpp:150] Setting up pool3
I0415 01:55:44.063568 31311 net.cpp:157] Top shape: 1024 250 3 3 (2304000)
I0415 01:55:44.063571 31311 net.cpp:165] Memory required for data: 2184871936
I0415 01:55:44.063575 31311 layer_factory.hpp:77] Creating layer fc4_300
I0415 01:55:44.063582 31311 net.cpp:100] Creating Layer fc4_300
I0415 01:55:44.063587 31311 net.cpp:434] fc4_300 <- pool3
I0415 01:55:44.063592 31311 net.cpp:408] fc4_300 -> fc4_300
I0415 01:55:44.069502 31311 net.cpp:150] Setting up fc4_300
I0415 01:55:44.069521 31311 net.cpp:157] Top shape: 1024 300 (307200)
I0415 01:55:44.069525 31311 net.cpp:165] Memory required for data: 2186100736
I0415 01:55:44.069533 31311 layer_factory.hpp:77] Creating layer fc4_relu
I0415 01:55:44.069541 31311 net.cpp:100] Creating Layer fc4_relu
I0415 01:55:44.069545 31311 net.cpp:434] fc4_relu <- fc4_300
I0415 01:55:44.069550 31311 net.cpp:395] fc4_relu -> fc4_300 (in-place)
I0415 01:55:44.069743 31311 net.cpp:150] Setting up fc4_relu
I0415 01:55:44.069756 31311 net.cpp:157] Top shape: 1024 300 (307200)
I0415 01:55:44.069758 31311 net.cpp:165] Memory required for data: 2187329536
I0415 01:55:44.069761 31311 layer_factory.hpp:77] Creating layer fc5_106
I0415 01:55:44.069768 31311 net.cpp:100] Creating Layer fc5_106
I0415 01:55:44.069772 31311 net.cpp:434] fc5_106 <- fc4_300
I0415 01:55:44.069777 31311 net.cpp:408] fc5_106 -> fc5_classes
I0415 01:55:44.071583 31311 net.cpp:150] Setting up fc5_106
I0415 01:55:44.071600 31311 net.cpp:157] Top shape: 1024 106 (108544)
I0415 01:55:44.071604 31311 net.cpp:165] Memory required for data: 2187763712
I0415 01:55:44.071615 31311 layer_factory.hpp:77] Creating layer fc5_classes_fc5_106_0_split
I0415 01:55:44.071622 31311 net.cpp:100] Creating Layer fc5_classes_fc5_106_0_split
I0415 01:55:44.071629 31311 net.cpp:434] fc5_classes_fc5_106_0_split <- fc5_classes
I0415 01:55:44.071635 31311 net.cpp:408] fc5_classes_fc5_106_0_split -> fc5_classes_fc5_106_0_split_0
I0415 01:55:44.071642 31311 net.cpp:408] fc5_classes_fc5_106_0_split -> fc5_classes_fc5_106_0_split_1
I0415 01:55:44.071650 31311 net.cpp:408] fc5_classes_fc5_106_0_split -> fc5_classes_fc5_106_0_split_2
I0415 01:55:44.071701 31311 net.cpp:150] Setting up fc5_classes_fc5_106_0_split
I0415 01:55:44.071708 31311 net.cpp:157] Top shape: 1024 106 (108544)
I0415 01:55:44.071712 31311 net.cpp:157] Top shape: 1024 106 (108544)
I0415 01:55:44.071715 31311 net.cpp:157] Top shape: 1024 106 (108544)
I0415 01:55:44.071718 31311 net.cpp:165] Memory required for data: 2189066240
I0415 01:55:44.071722 31311 layer_factory.hpp:77] Creating layer softmax
I0415 01:55:44.071727 31311 net.cpp:100] Creating Layer softmax
I0415 01:55:44.071732 31311 net.cpp:434] softmax <- fc5_classes_fc5_106_0_split_0
I0415 01:55:44.071738 31311 net.cpp:408] softmax -> softmax
I0415 01:55:44.072011 31311 net.cpp:150] Setting up softmax
I0415 01:55:44.072026 31311 net.cpp:157] Top shape: 1024 106 (108544)
I0415 01:55:44.072029 31311 net.cpp:165] Memory required for data: 2189500416
I0415 01:55:44.072032 31311 layer_factory.hpp:77] Creating layer loss
I0415 01:55:44.072059 31311 net.cpp:100] Creating Layer loss
I0415 01:55:44.072064 31311 net.cpp:434] loss <- softmax
I0415 01:55:44.072068 31311 net.cpp:434] loss <- label_data_1_split_0
I0415 01:55:44.072074 31311 net.cpp:408] loss -> loss
…
