…
I0411 08:18:56.270288  3018 net.cpp:322] The NetState phase (0) differed from the phase (1) specified by a rule in layer accuracy_5
I0411 08:18:56.270452  3018 net.cpp:58] Initializing net from parameters: 
state {
  phase: TRAIN
  level: 0
  stage: ""
}
layer {
  name: "data"
  type: "Data"
  top: "data"
  top: "label"
  include {
    phase: TRAIN
  }
  transform_param {
    scale: 0.0039215689
    mirror: false
    crop_size: 48
    mean_value: 115
    mean_value: 108
    mean_value: 122
  }
  data_param {
    source: "../local_data/lmdb/rtsd-r1/imajust/train/lmdb"
    batch_size: 1024
    backend: LMDB
  }
}
layer {
  name: "conv1"
  type: "Convolution"
  bottom: "data"
  top: "conv1"
  convolution_param {
    num_output: 100
    pad: 0
    kernel_size: 7
    group: 1
    stride: 1
    weight_filler {
      type: "xavier"
    }
  }
}
layer {
  name: "conv1_prescale"
  type: "Scale"
  bottom: "conv1"
  top: "conv1"
  param {
    lr_mult: 0
    decay_mult: 0
  }
  scale_param {
    filler {
      value: 0.6666
    }
    bias_term: false
  }
}
layer {
  name: "conv1_sTanH"
  type: "TanH"
  bottom: "conv1"
  top: "conv1"
}
layer {
  name: "conv1_postscale"
  type: "Scale"
  bottom: "conv1"
  top: "conv1"
  param {
    lr_mult: 0
    decay_mult: 0
  }
  scale_param {
    filler {
      value: 1.7159
    }
    bias_term: false
  }
}
layer {
  name: "pool1"
  type: "Pooling"
  bottom: "conv1"
  top: "pool1"
  pooling_param {
    pool: MAX
    kernel_size: 2
    stride: 2
  }
}
layer {
  name: "conv2"
  type: "Convolution"
  bottom: "pool1"
  top: "conv2"
  convolution_param {
    num_output: 150
    pad: 0
    kernel_size: 4
    group: 1
    stride: 1
    weight_filler {
      type: "xavier"
    }
  }
}
layer {
  name: "conv2_prescale"
  type: "Scale"
  bottom: "conv2"
  top: "conv2"
  param {
    lr_mult: 0
    decay_mult: 0
  }
  scale_param {
    filler {
      value: 0.6666
    }
    bias_term: false
  }
}
layer {
  name: "conv2_sTanH"
  type: "TanH"
  bottom: "conv2"
  top: "conv2"
}
layer {
  name: "conv2_postscale"
  type: "Scale"
  bottom: "conv2"
  top: "conv2"
  param {
    lr_mult: 0
    decay_mult: 0
  }
  scale_param {
    filler {
      value: 1.7159
    }
    bias_term: false
  }
}
layer {
  name: "pool2"
  type: "Pooling"
  bottom: "conv2"
  top: "pool2"
  pooling_param {
    pool: MAX
    kernel_size: 2
    stride: 2
  }
}
layer {
  name: "conv3"
  type: "Convolution"
  bottom: "pool2"
  top: "conv3"
  convolution_param {
    num_output: 250
    pad: 0
    kernel_size: 4
    group: 1
    stride: 1
    weight_filler {
      type: "xavier"
    }
  }
}
layer {
  name: "conv3_prescale"
  type: "Scale"
  bottom: "conv3"
  top: "conv3"
  param {
    lr_mult: 0
    decay_mult: 0
  }
  scale_param {
    filler {
      value: 0.6666
    }
    bias_term: false
  }
}
layer {
  name: "conv3_sTanH"
  type: "TanH"
  bottom: "conv3"
  top: "conv3"
}
layer {
  name: "conv3_postscale"
  type: "Scale"
  bottom: "conv3"
  top: "conv3"
  param {
    lr_mult: 0
    decay_mult: 0
  }
  scale_param {
    filler {
      value: 1.7159
    }
    bias_term: false
  }
}
layer {
  name: "pool3"
  type: "Pooling"
  bottom: "conv3"
  top: "pool3"
  pooling_param {
    pool: MAX
    kernel_size: 2
    stride: 2
  }
}
layer {
  name: "fc4_300"
  type: "InnerProduct"
  bottom: "pool3"
  top: "fc4_300"
  inner_product_param {
    num_output: 300
    weight_filler {
      type: "xavier"
    }
  }
}
layer {
  name: "fc4_prescale"
  type: "Scale"
  bottom: "fc4_300"
  top: "fc4_300"
  param {
    lr_mult: 0
    decay_mult: 0
  }
  scale_param {
    filler {
      value: 0.6666
    }
    bias_term: false
  }
}
layer {
  name: "fc4_sTanH"
  type: "TanH"
  bottom: "fc4_300"
  top: "fc4_300"
}
layer {
  name: "fc4_postscale"
  type: "Scale"
  bottom: "fc4_300"
  top: "fc4_300"
  param {
    lr_mult: 0
    decay_mult: 0
  }
  scale_param {
    filler {
      value: 1.7159
    }
    bias_term: false
  }
}
layer {
  name: "fc5_67"
  type: "InnerProduct"
  bottom: "fc4_300"
  top: "fc5_classes"
  inner_product_param {
    num_output: 67
    weight_filler {
      type: "xavier"
    }
  }
}
layer {
  name: "loss"
  type: "SoftmaxWithLoss"
  bottom: "fc5_classes"
  bottom: "label"
  top: "loss"
}
I0411 08:18:56.270565  3018 layer_factory.hpp:77] Creating layer data
I0411 08:18:56.271852  3018 net.cpp:100] Creating Layer data
I0411 08:18:56.271867  3018 net.cpp:408] data -> data
I0411 08:18:56.271901  3018 net.cpp:408] data -> label
I0411 08:18:56.273556  3136 db_lmdb.cpp:35] Opened lmdb ../local_data/lmdb/rtsd-r1/imajust/train/lmdb
I0411 08:18:56.290835  3018 data_layer.cpp:41] output data size: 1024,3,48,48
I0411 08:18:56.340158  3018 net.cpp:150] Setting up data
I0411 08:18:56.340191  3018 net.cpp:157] Top shape: 1024 3 48 48 (7077888)
I0411 08:18:56.340198  3018 net.cpp:157] Top shape: 1024 (1024)
I0411 08:18:56.340201  3018 net.cpp:165] Memory required for data: 28315648
I0411 08:18:56.340211  3018 layer_factory.hpp:77] Creating layer conv1
I0411 08:18:56.340235  3018 net.cpp:100] Creating Layer conv1
I0411 08:18:56.340243  3018 net.cpp:434] conv1 <- data
I0411 08:18:56.340258  3018 net.cpp:408] conv1 -> conv1
I0411 08:18:56.631012  3018 net.cpp:150] Setting up conv1
I0411 08:18:56.631052  3018 net.cpp:157] Top shape: 1024 100 42 42 (180633600)
I0411 08:18:56.631055  3018 net.cpp:165] Memory required for data: 750850048
I0411 08:18:56.631090  3018 layer_factory.hpp:77] Creating layer conv1_prescale
I0411 08:18:56.631119  3018 net.cpp:100] Creating Layer conv1_prescale
I0411 08:18:56.631125  3018 net.cpp:434] conv1_prescale <- conv1
I0411 08:18:56.631132  3018 net.cpp:395] conv1_prescale -> conv1 (in-place)
I0411 08:18:56.631243  3018 net.cpp:150] Setting up conv1_prescale
I0411 08:18:56.631253  3018 net.cpp:157] Top shape: 1024 100 42 42 (180633600)
I0411 08:18:56.631256  3018 net.cpp:165] Memory required for data: 1473384448
I0411 08:18:56.631263  3018 layer_factory.hpp:77] Creating layer conv1_sTanH
I0411 08:18:56.631271  3018 net.cpp:100] Creating Layer conv1_sTanH
I0411 08:18:56.631276  3018 net.cpp:434] conv1_sTanH <- conv1
I0411 08:18:56.631281  3018 net.cpp:395] conv1_sTanH -> conv1 (in-place)
I0411 08:18:56.631482  3018 net.cpp:150] Setting up conv1_sTanH
I0411 08:18:56.631495  3018 net.cpp:157] Top shape: 1024 100 42 42 (180633600)
I0411 08:18:56.631500  3018 net.cpp:165] Memory required for data: 2195918848
I0411 08:18:56.631505  3018 layer_factory.hpp:77] Creating layer conv1_postscale
I0411 08:18:56.631512  3018 net.cpp:100] Creating Layer conv1_postscale
I0411 08:18:56.631517  3018 net.cpp:434] conv1_postscale <- conv1
I0411 08:18:56.631522  3018 net.cpp:395] conv1_postscale -> conv1 (in-place)
I0411 08:18:56.631621  3018 net.cpp:150] Setting up conv1_postscale
I0411 08:18:56.631630  3018 net.cpp:157] Top shape: 1024 100 42 42 (180633600)
I0411 08:18:56.631634  3018 net.cpp:165] Memory required for data: 2918453248
I0411 08:18:56.631640  3018 layer_factory.hpp:77] Creating layer pool1
I0411 08:18:56.631649  3018 net.cpp:100] Creating Layer pool1
I0411 08:18:56.631654  3018 net.cpp:434] pool1 <- conv1
I0411 08:18:56.631659  3018 net.cpp:408] pool1 -> pool1
I0411 08:18:56.631706  3018 net.cpp:150] Setting up pool1
I0411 08:18:56.631716  3018 net.cpp:157] Top shape: 1024 100 21 21 (45158400)
I0411 08:18:56.631737  3018 net.cpp:165] Memory required for data: 3099086848
I0411 08:18:56.631742  3018 layer_factory.hpp:77] Creating layer conv2
I0411 08:18:56.631752  3018 net.cpp:100] Creating Layer conv2
I0411 08:18:56.631757  3018 net.cpp:434] conv2 <- pool1
I0411 08:18:56.631762  3018 net.cpp:408] conv2 -> conv2
I0411 08:18:56.641232  3018 net.cpp:150] Setting up conv2
I0411 08:18:56.641259  3018 net.cpp:157] Top shape: 1024 150 18 18 (49766400)
I0411 08:18:56.641263  3018 net.cpp:165] Memory required for data: 3298152448
I0411 08:18:56.641274  3018 layer_factory.hpp:77] Creating layer conv2_prescale
I0411 08:18:56.641295  3018 net.cpp:100] Creating Layer conv2_prescale
I0411 08:18:56.641301  3018 net.cpp:434] conv2_prescale <- conv2
I0411 08:18:56.641307  3018 net.cpp:395] conv2_prescale -> conv2 (in-place)
I0411 08:18:56.641418  3018 net.cpp:150] Setting up conv2_prescale
I0411 08:18:56.641427  3018 net.cpp:157] Top shape: 1024 150 18 18 (49766400)
I0411 08:18:56.641432  3018 net.cpp:165] Memory required for data: 3497218048
I0411 08:18:56.641438  3018 layer_factory.hpp:77] Creating layer conv2_sTanH
I0411 08:18:56.641444  3018 net.cpp:100] Creating Layer conv2_sTanH
I0411 08:18:56.641449  3018 net.cpp:434] conv2_sTanH <- conv2
I0411 08:18:56.641453  3018 net.cpp:395] conv2_sTanH -> conv2 (in-place)
I0411 08:18:56.642307  3018 net.cpp:150] Setting up conv2_sTanH
I0411 08:18:56.642323  3018 net.cpp:157] Top shape: 1024 150 18 18 (49766400)
I0411 08:18:56.642325  3018 net.cpp:165] Memory required for data: 3696283648
I0411 08:18:56.642329  3018 layer_factory.hpp:77] Creating layer conv2_postscale
I0411 08:18:56.642338  3018 net.cpp:100] Creating Layer conv2_postscale
I0411 08:18:56.642340  3018 net.cpp:434] conv2_postscale <- conv2
I0411 08:18:56.642346  3018 net.cpp:395] conv2_postscale -> conv2 (in-place)
I0411 08:18:56.642443  3018 net.cpp:150] Setting up conv2_postscale
I0411 08:18:56.642452  3018 net.cpp:157] Top shape: 1024 150 18 18 (49766400)
I0411 08:18:56.642455  3018 net.cpp:165] Memory required for data: 3895349248
I0411 08:18:56.642460  3018 layer_factory.hpp:77] Creating layer pool2
I0411 08:18:56.642468  3018 net.cpp:100] Creating Layer pool2
I0411 08:18:56.642473  3018 net.cpp:434] pool2 <- conv2
I0411 08:18:56.642478  3018 net.cpp:408] pool2 -> pool2
I0411 08:18:56.642518  3018 net.cpp:150] Setting up pool2
I0411 08:18:56.642526  3018 net.cpp:157] Top shape: 1024 150 9 9 (12441600)
I0411 08:18:56.642531  3018 net.cpp:165] Memory required for data: 3945115648
I0411 08:18:56.642534  3018 layer_factory.hpp:77] Creating layer conv3
I0411 08:18:56.642542  3018 net.cpp:100] Creating Layer conv3
I0411 08:18:56.642547  3018 net.cpp:434] conv3 <- pool2
I0411 08:18:56.642552  3018 net.cpp:408] conv3 -> conv3
I0411 08:18:56.648208  3018 net.cpp:150] Setting up conv3
I0411 08:18:56.648227  3018 net.cpp:157] Top shape: 1024 250 6 6 (9216000)
I0411 08:18:56.648231  3018 net.cpp:165] Memory required for data: 3981979648
I0411 08:18:56.648241  3018 layer_factory.hpp:77] Creating layer conv3_prescale
I0411 08:18:56.648252  3018 net.cpp:100] Creating Layer conv3_prescale
I0411 08:18:56.648257  3018 net.cpp:434] conv3_prescale <- conv3
I0411 08:18:56.648262  3018 net.cpp:395] conv3_prescale -> conv3 (in-place)
I0411 08:18:56.648358  3018 net.cpp:150] Setting up conv3_prescale
I0411 08:18:56.648367  3018 net.cpp:157] Top shape: 1024 250 6 6 (9216000)
I0411 08:18:56.648372  3018 net.cpp:165] Memory required for data: 4018843648
I0411 08:18:56.648377  3018 layer_factory.hpp:77] Creating layer conv3_sTanH
I0411 08:18:56.648382  3018 net.cpp:100] Creating Layer conv3_sTanH
I0411 08:18:56.648387  3018 net.cpp:434] conv3_sTanH <- conv3
I0411 08:18:56.648391  3018 net.cpp:395] conv3_sTanH -> conv3 (in-place)
I0411 08:18:56.653990  3018 net.cpp:150] Setting up conv3_sTanH
I0411 08:18:56.654006  3018 net.cpp:157] Top shape: 1024 250 6 6 (9216000)
I0411 08:18:56.654021  3018 net.cpp:165] Memory required for data: 4055707648
I0411 08:18:56.654026  3018 layer_factory.hpp:77] Creating layer conv3_postscale
I0411 08:18:56.654047  3018 net.cpp:100] Creating Layer conv3_postscale
I0411 08:18:56.654052  3018 net.cpp:434] conv3_postscale <- conv3
I0411 08:18:56.654058  3018 net.cpp:395] conv3_postscale -> conv3 (in-place)
I0411 08:18:56.654160  3018 net.cpp:150] Setting up conv3_postscale
I0411 08:18:56.654170  3018 net.cpp:157] Top shape: 1024 250 6 6 (9216000)
I0411 08:18:56.654175  3018 net.cpp:165] Memory required for data: 4092571648
I0411 08:18:56.654181  3018 layer_factory.hpp:77] Creating layer pool3
I0411 08:18:56.654188  3018 net.cpp:100] Creating Layer pool3
I0411 08:18:56.654193  3018 net.cpp:434] pool3 <- conv3
I0411 08:18:56.654199  3018 net.cpp:408] pool3 -> pool3
I0411 08:18:56.654237  3018 net.cpp:150] Setting up pool3
I0411 08:18:56.654245  3018 net.cpp:157] Top shape: 1024 250 3 3 (2304000)
I0411 08:18:56.654250  3018 net.cpp:165] Memory required for data: 4101787648
I0411 08:18:56.654253  3018 layer_factory.hpp:77] Creating layer fc4_300
I0411 08:18:56.654263  3018 net.cpp:100] Creating Layer fc4_300
I0411 08:18:56.654268  3018 net.cpp:434] fc4_300 <- pool3
I0411 08:18:56.654273  3018 net.cpp:408] fc4_300 -> fc4_300
I0411 08:18:56.665659  3018 net.cpp:150] Setting up fc4_300
I0411 08:18:56.665678  3018 net.cpp:157] Top shape: 1024 300 (307200)
I0411 08:18:56.665683  3018 net.cpp:165] Memory required for data: 4103016448
I0411 08:18:56.665690  3018 layer_factory.hpp:77] Creating layer fc4_prescale
I0411 08:18:56.665698  3018 net.cpp:100] Creating Layer fc4_prescale
I0411 08:18:56.665701  3018 net.cpp:434] fc4_prescale <- fc4_300
I0411 08:18:56.665707  3018 net.cpp:395] fc4_prescale -> fc4_300 (in-place)
I0411 08:18:56.665810  3018 net.cpp:150] Setting up fc4_prescale
I0411 08:18:56.665819  3018 net.cpp:157] Top shape: 1024 300 (307200)
I0411 08:18:56.665822  3018 net.cpp:165] Memory required for data: 4104245248
I0411 08:18:56.665827  3018 layer_factory.hpp:77] Creating layer fc4_sTanH
I0411 08:18:56.665834  3018 net.cpp:100] Creating Layer fc4_sTanH
I0411 08:18:56.665838  3018 net.cpp:434] fc4_sTanH <- fc4_300
I0411 08:18:56.665843  3018 net.cpp:395] fc4_sTanH -> fc4_300 (in-place)
I0411 08:18:56.666030  3018 net.cpp:150] Setting up fc4_sTanH
I0411 08:18:56.666043  3018 net.cpp:157] Top shape: 1024 300 (307200)
I0411 08:18:56.666046  3018 net.cpp:165] Memory required for data: 4105474048
I0411 08:18:56.666050  3018 layer_factory.hpp:77] Creating layer fc4_postscale
I0411 08:18:56.666057  3018 net.cpp:100] Creating Layer fc4_postscale
I0411 08:18:56.666062  3018 net.cpp:434] fc4_postscale <- fc4_300
I0411 08:18:56.666069  3018 net.cpp:395] fc4_postscale -> fc4_300 (in-place)
I0411 08:18:56.666165  3018 net.cpp:150] Setting up fc4_postscale
I0411 08:18:56.666173  3018 net.cpp:157] Top shape: 1024 300 (307200)
I0411 08:18:56.666178  3018 net.cpp:165] Memory required for data: 4106702848
I0411 08:18:56.666183  3018 layer_factory.hpp:77] Creating layer fc5_67
I0411 08:18:56.666190  3018 net.cpp:100] Creating Layer fc5_67
I0411 08:18:56.666194  3018 net.cpp:434] fc5_67 <- fc4_300
I0411 08:18:56.666200  3018 net.cpp:408] fc5_67 -> fc5_classes
I0411 08:18:56.668617  3018 net.cpp:150] Setting up fc5_67
I0411 08:18:56.668635  3018 net.cpp:157] Top shape: 1024 67 (68608)
I0411 08:18:56.668640  3018 net.cpp:165] Memory required for data: 4106977280
I0411 08:18:56.668651  3018 layer_factory.hpp:77] Creating layer loss
I0411 08:18:56.668660  3018 net.cpp:100] Creating Layer loss
I0411 08:18:56.668665  3018 net.cpp:434] loss <- fc5_classes
I0411 08:18:56.668670  3018 net.cpp:434] loss <- label
I0411 08:18:56.668676  3018 net.cpp:408] loss -> loss
I0411 08:18:56.668690  3018 layer_factory.hpp:77] Creating layer loss
…
I0411 08:18:56.669448  3018 solver.cpp:193] Creating test net (#0) specified by test_net file: ./Prototxt/experiment_8/rtsd-r1/imajust/trial_4/test.prototxt
I0411 08:18:56.669631  3018 net.cpp:58] Initializing net from parameters: 
state {
  phase: TEST
}
layer {
  name: "data"
  type: "Data"
  top: "data"
  top: "label"
  include {
    phase: TEST
  }
  transform_param {
    scale: 0.0039215689
    mirror: false
    crop_size: 48
    mean_value: 109
    mean_value: 106
    mean_value: 126
  }
  data_param {
    source: "../local_data/lmdb/rtsd-r1/imajust/test/lmdb"
    batch_size: 1024
    backend: LMDB
  }
}
layer {
  name: "conv1"
  type: "Convolution"
  bottom: "data"
  top: "conv1"
  convolution_param {
    num_output: 100
    pad: 0
    kernel_size: 7
    group: 1
    stride: 1
    weight_filler {
      type: "xavier"
    }
  }
}
layer {
  name: "conv1_prescale"
  type: "Scale"
  bottom: "conv1"
  top: "conv1"
  param {
    lr_mult: 0
    decay_mult: 0
  }
  scale_param {
    filler {
      value: 0.6666
    }
    bias_term: false
  }
}
layer {
  name: "conv1_sTanH"
  type: "TanH"
  bottom: "conv1"
  top: "conv1"
}
layer {
  name: "conv1_postscale"
  type: "Scale"
  bottom: "conv1"
  top: "conv1"
  param {
    lr_mult: 0
    decay_mult: 0
  }
  scale_param {
    filler {
      value: 1.7159
    }
    bias_term: false
  }
}
layer {
  name: "pool1"
  type: "Pooling"
  bottom: "conv1"
  top: "pool1"
  pooling_param {
    pool: MAX
    kernel_size: 2
    stride: 2
  }
}
layer {
  name: "conv2"
  type: "Convolution"
  bottom: "pool1"
  top: "conv2"
  convolution_param {
    num_output: 150
    pad: 0
    kernel_size: 4
    group: 1
    stride: 1
    weight_filler {
      type: "xavier"
    }
  }
}
layer {
  name: "conv2_prescale"
  type: "Scale"
  bottom: "conv2"
  top: "conv2"
  param {
    lr_mult: 0
    decay_mult: 0
  }
  scale_param {
    filler {
      value: 0.6666
    }
    bias_term: false
  }
}
layer {
  name: "conv2_sTanH"
  type: "TanH"
  bottom: "conv2"
  top: "conv2"
}
layer {
  name: "conv2_postscale"
  type: "Scale"
  bottom: "conv2"
  top: "conv2"
  param {
    lr_mult: 0
    decay_mult: 0
  }
  scale_param {
    filler {
      value: 1.7159
    }
    bias_term: false
  }
}
layer {
  name: "pool2"
  type: "Pooling"
  bottom: "conv2"
  top: "pool2"
  pooling_param {
    pool: MAX
    kernel_size: 2
    stride: 2
  }
}
layer {
  name: "conv3"
  type: "Convolution"
  bottom: "pool2"
  top: "conv3"
  convolution_param {
    num_output: 250
    pad: 0
    kernel_size: 4
    group: 1
    stride: 1
    weight_filler {
      type: "xavier"
    }
  }
}
layer {
  name: "conv3_prescale"
  type: "Scale"
  bottom: "conv3"
  top: "conv3"
  param {
    lr_mult: 0
    decay_mult: 0
  }
  scale_param {
    filler {
      value: 0.6666
    }
    bias_term: false
  }
}
layer {
  name: "conv3_sTanH"
  type: "TanH"
  bottom: "conv3"
  top: "conv3"
}
layer {
  name: "conv3_postscale"
  type: "Scale"
  bottom: "conv3"
  top: "conv3"
  param {
    lr_mult: 0
    decay_mult: 0
  }
  scale_param {
    filler {
      value: 1.7159
    }
    bias_term: false
  }
}
layer {
  name: "pool3"
  type: "Pooling"
  bottom: "conv3"
  top: "pool3"
  pooling_param {
    pool: MAX
    kernel_size: 2
    stride: 2
  }
}
layer {
  name: "fc4_300"
  type: "InnerProduct"
  bottom: "pool3"
  top: "fc4_300"
  inner_product_param {
    num_output: 300
    weight_filler {
      type: "xavier"
    }
  }
}
layer {
  name: "fc4_prescale"
  type: "Scale"
  bottom: "fc4_300"
  top: "fc4_300"
  param {
    lr_mult: 0
    decay_mult: 0
  }
  scale_param {
    filler {
      value: 0.6666
    }
    bias_term: false
  }
}
layer {
  name: "fc4_sTanH"
  type: "TanH"
  bottom: "fc4_300"
  top: "fc4_300"
}
layer {
  name: "fc4_postscale"
  type: "Scale"
  bottom: "fc4_300"
  top: "fc4_300"
  param {
    lr_mult: 0
    decay_mult: 0
  }
  scale_param {
    filler {
      value: 1.7159
    }
    bias_term: false
  }
}
layer {
  name: "fc5_67"
  type: "InnerProduct"
  bottom: "fc4_300"
  top: "fc5_classes"
  inner_product_param {
    num_output: 67
    weight_filler {
      type: "xavier"
    }
  }
}
layer {
  name: "loss"
  type: "SoftmaxWithLoss"
  bottom: "fc5_classes"
  bottom: "label"
  top: "loss"
}
layer {
  name: "accuracy_1"
  type: "Accuracy"
  bottom: "fc5_classes"
  bottom: "label"
  top: "accuracy_1"
  include {
    phase: TEST
  }
  accuracy_param {
    top_k: 1
  }
}
layer {
  name: "accuracy_5"
  type: "Accuracy"
  bottom: "fc5_classes"
  bottom: "label"
  top: "accuracy_5"
  include {
    phase: TEST
  }
  accuracy_param {
    top_k: 5
  }
}
I0411 08:18:56.669742  3018 layer_factory.hpp:77] Creating layer data
I0411 08:18:56.670313  3018 net.cpp:100] Creating Layer data
I0411 08:18:56.670325  3018 net.cpp:408] data -> data
I0411 08:18:56.670334  3018 net.cpp:408] data -> label
I0411 08:18:56.673573  3176 db_lmdb.cpp:35] Opened lmdb ../local_data/lmdb/rtsd-r1/imajust/test/lmdb
I0411 08:18:56.673746  3018 data_layer.cpp:41] output data size: 1024,3,48,48
I0411 08:18:56.722002  3018 net.cpp:150] Setting up data
I0411 08:18:56.722030  3018 net.cpp:157] Top shape: 1024 3 48 48 (7077888)
I0411 08:18:56.722036  3018 net.cpp:157] Top shape: 1024 (1024)
I0411 08:18:56.722039  3018 net.cpp:165] Memory required for data: 28315648
I0411 08:18:56.722057  3018 layer_factory.hpp:77] Creating layer label_data_1_split
I0411 08:18:56.722072  3018 net.cpp:100] Creating Layer label_data_1_split
I0411 08:18:56.722077  3018 net.cpp:434] label_data_1_split <- label
I0411 08:18:56.722085  3018 net.cpp:408] label_data_1_split -> label_data_1_split_0
I0411 08:18:56.722095  3018 net.cpp:408] label_data_1_split -> label_data_1_split_1
I0411 08:18:56.722103  3018 net.cpp:408] label_data_1_split -> label_data_1_split_2
I0411 08:18:56.722221  3018 net.cpp:150] Setting up label_data_1_split
I0411 08:18:56.722231  3018 net.cpp:157] Top shape: 1024 (1024)
I0411 08:18:56.722235  3018 net.cpp:157] Top shape: 1024 (1024)
I0411 08:18:56.722239  3018 net.cpp:157] Top shape: 1024 (1024)
I0411 08:18:56.722241  3018 net.cpp:165] Memory required for data: 28327936
I0411 08:18:56.722245  3018 layer_factory.hpp:77] Creating layer conv1
I0411 08:18:56.722259  3018 net.cpp:100] Creating Layer conv1
I0411 08:18:56.722264  3018 net.cpp:434] conv1 <- data
I0411 08:18:56.722270  3018 net.cpp:408] conv1 -> conv1
I0411 08:18:56.724916  3018 net.cpp:150] Setting up conv1
I0411 08:18:56.724936  3018 net.cpp:157] Top shape: 1024 100 42 42 (180633600)
I0411 08:18:56.724958  3018 net.cpp:165] Memory required for data: 750862336
I0411 08:18:56.724972  3018 layer_factory.hpp:77] Creating layer conv1_prescale
I0411 08:18:56.724984  3018 net.cpp:100] Creating Layer conv1_prescale
I0411 08:18:56.724990  3018 net.cpp:434] conv1_prescale <- conv1
I0411 08:18:56.724997  3018 net.cpp:395] conv1_prescale -> conv1 (in-place)
I0411 08:18:56.725102  3018 net.cpp:150] Setting up conv1_prescale
I0411 08:18:56.725112  3018 net.cpp:157] Top shape: 1024 100 42 42 (180633600)
I0411 08:18:56.725117  3018 net.cpp:165] Memory required for data: 1473396736
I0411 08:18:56.725124  3018 layer_factory.hpp:77] Creating layer conv1_sTanH
I0411 08:18:56.725133  3018 net.cpp:100] Creating Layer conv1_sTanH
I0411 08:18:56.725138  3018 net.cpp:434] conv1_sTanH <- conv1
I0411 08:18:56.725143  3018 net.cpp:395] conv1_sTanH -> conv1 (in-place)
I0411 08:18:56.725323  3018 net.cpp:150] Setting up conv1_sTanH
I0411 08:18:56.725335  3018 net.cpp:157] Top shape: 1024 100 42 42 (180633600)
I0411 08:18:56.725340  3018 net.cpp:165] Memory required for data: 2195931136
I0411 08:18:56.725343  3018 layer_factory.hpp:77] Creating layer conv1_postscale
I0411 08:18:56.725352  3018 net.cpp:100] Creating Layer conv1_postscale
I0411 08:18:56.725356  3018 net.cpp:434] conv1_postscale <- conv1
I0411 08:18:56.725361  3018 net.cpp:395] conv1_postscale -> conv1 (in-place)
I0411 08:18:56.725502  3018 net.cpp:150] Setting up conv1_postscale
I0411 08:18:56.725512  3018 net.cpp:157] Top shape: 1024 100 42 42 (180633600)
I0411 08:18:56.725515  3018 net.cpp:165] Memory required for data: 2918465536
I0411 08:18:56.725522  3018 layer_factory.hpp:77] Creating layer pool1
I0411 08:18:56.725528  3018 net.cpp:100] Creating Layer pool1
I0411 08:18:56.725533  3018 net.cpp:434] pool1 <- conv1
I0411 08:18:56.725538  3018 net.cpp:408] pool1 -> pool1
I0411 08:18:56.727742  3018 net.cpp:150] Setting up pool1
I0411 08:18:56.727756  3018 net.cpp:157] Top shape: 1024 100 21 21 (45158400)
I0411 08:18:56.727758  3018 net.cpp:165] Memory required for data: 3099099136
I0411 08:18:56.727762  3018 layer_factory.hpp:77] Creating layer conv2
I0411 08:18:56.727772  3018 net.cpp:100] Creating Layer conv2
I0411 08:18:56.727777  3018 net.cpp:434] conv2 <- pool1
I0411 08:18:56.727790  3018 net.cpp:408] conv2 -> conv2
I0411 08:18:56.731703  3018 net.cpp:150] Setting up conv2
I0411 08:18:56.731725  3018 net.cpp:157] Top shape: 1024 150 18 18 (49766400)
I0411 08:18:56.731729  3018 net.cpp:165] Memory required for data: 3298164736
I0411 08:18:56.731740  3018 layer_factory.hpp:77] Creating layer conv2_prescale
I0411 08:18:56.731753  3018 net.cpp:100] Creating Layer conv2_prescale
I0411 08:18:56.731757  3018 net.cpp:434] conv2_prescale <- conv2
I0411 08:18:56.731763  3018 net.cpp:395] conv2_prescale -> conv2 (in-place)
I0411 08:18:56.731896  3018 net.cpp:150] Setting up conv2_prescale
I0411 08:18:56.731907  3018 net.cpp:157] Top shape: 1024 150 18 18 (49766400)
I0411 08:18:56.731911  3018 net.cpp:165] Memory required for data: 3497230336
I0411 08:18:56.731917  3018 layer_factory.hpp:77] Creating layer conv2_sTanH
I0411 08:18:56.731925  3018 net.cpp:100] Creating Layer conv2_sTanH
I0411 08:18:56.731927  3018 net.cpp:434] conv2_sTanH <- conv2
I0411 08:18:56.731932  3018 net.cpp:395] conv2_sTanH -> conv2 (in-place)
I0411 08:18:56.732887  3018 net.cpp:150] Setting up conv2_sTanH
I0411 08:18:56.732905  3018 net.cpp:157] Top shape: 1024 150 18 18 (49766400)
I0411 08:18:56.732909  3018 net.cpp:165] Memory required for data: 3696295936
I0411 08:18:56.732913  3018 layer_factory.hpp:77] Creating layer conv2_postscale
I0411 08:18:56.732920  3018 net.cpp:100] Creating Layer conv2_postscale
I0411 08:18:56.732924  3018 net.cpp:434] conv2_postscale <- conv2
I0411 08:18:56.732930  3018 net.cpp:395] conv2_postscale -> conv2 (in-place)
I0411 08:18:56.733032  3018 net.cpp:150] Setting up conv2_postscale
I0411 08:18:56.733042  3018 net.cpp:157] Top shape: 1024 150 18 18 (49766400)
I0411 08:18:56.733045  3018 net.cpp:165] Memory required for data: 3895361536
I0411 08:18:56.733069  3018 layer_factory.hpp:77] Creating layer pool2
I0411 08:18:56.733078  3018 net.cpp:100] Creating Layer pool2
I0411 08:18:56.733083  3018 net.cpp:434] pool2 <- conv2
I0411 08:18:56.733089  3018 net.cpp:408] pool2 -> pool2
I0411 08:18:56.733139  3018 net.cpp:150] Setting up pool2
I0411 08:18:56.733149  3018 net.cpp:157] Top shape: 1024 150 9 9 (12441600)
I0411 08:18:56.733151  3018 net.cpp:165] Memory required for data: 3945127936
I0411 08:18:56.733155  3018 layer_factory.hpp:77] Creating layer conv3
I0411 08:18:56.733165  3018 net.cpp:100] Creating Layer conv3
I0411 08:18:56.733170  3018 net.cpp:434] conv3 <- pool2
I0411 08:18:56.733175  3018 net.cpp:408] conv3 -> conv3
I0411 08:18:56.738891  3018 net.cpp:150] Setting up conv3
I0411 08:18:56.738910  3018 net.cpp:157] Top shape: 1024 250 6 6 (9216000)
I0411 08:18:56.738917  3018 net.cpp:165] Memory required for data: 3981991936
I0411 08:18:56.738927  3018 layer_factory.hpp:77] Creating layer conv3_prescale
I0411 08:18:56.738936  3018 net.cpp:100] Creating Layer conv3_prescale
I0411 08:18:56.738940  3018 net.cpp:434] conv3_prescale <- conv3
I0411 08:18:56.738946  3018 net.cpp:395] conv3_prescale -> conv3 (in-place)
I0411 08:18:56.739042  3018 net.cpp:150] Setting up conv3_prescale
I0411 08:18:56.739051  3018 net.cpp:157] Top shape: 1024 250 6 6 (9216000)
I0411 08:18:56.739055  3018 net.cpp:165] Memory required for data: 4018855936
I0411 08:18:56.739060  3018 layer_factory.hpp:77] Creating layer conv3_sTanH
I0411 08:18:56.739066  3018 net.cpp:100] Creating Layer conv3_sTanH
I0411 08:18:56.739071  3018 net.cpp:434] conv3_sTanH <- conv3
I0411 08:18:56.739086  3018 net.cpp:395] conv3_sTanH -> conv3 (in-place)
I0411 08:18:56.739855  3018 net.cpp:150] Setting up conv3_sTanH
I0411 08:18:56.739871  3018 net.cpp:157] Top shape: 1024 250 6 6 (9216000)
I0411 08:18:56.739876  3018 net.cpp:165] Memory required for data: 4055719936
I0411 08:18:56.739892  3018 layer_factory.hpp:77] Creating layer conv3_postscale
I0411 08:18:56.739904  3018 net.cpp:100] Creating Layer conv3_postscale
I0411 08:18:56.739908  3018 net.cpp:434] conv3_postscale <- conv3
I0411 08:18:56.739914  3018 net.cpp:395] conv3_postscale -> conv3 (in-place)
I0411 08:18:56.740016  3018 net.cpp:150] Setting up conv3_postscale
I0411 08:18:56.740025  3018 net.cpp:157] Top shape: 1024 250 6 6 (9216000)
I0411 08:18:56.740032  3018 net.cpp:165] Memory required for data: 4092583936
I0411 08:18:56.740037  3018 layer_factory.hpp:77] Creating layer pool3
I0411 08:18:56.740046  3018 net.cpp:100] Creating Layer pool3
I0411 08:18:56.740051  3018 net.cpp:434] pool3 <- conv3
I0411 08:18:56.740056  3018 net.cpp:408] pool3 -> pool3
I0411 08:18:56.740098  3018 net.cpp:150] Setting up pool3
I0411 08:18:56.740106  3018 net.cpp:157] Top shape: 1024 250 3 3 (2304000)
I0411 08:18:56.740113  3018 net.cpp:165] Memory required for data: 4101799936
I0411 08:18:56.740118  3018 layer_factory.hpp:77] Creating layer fc4_300
I0411 08:18:56.740124  3018 net.cpp:100] Creating Layer fc4_300
I0411 08:18:56.740129  3018 net.cpp:434] fc4_300 <- pool3
I0411 08:18:56.740135  3018 net.cpp:408] fc4_300 -> fc4_300
I0411 08:18:56.745559  3018 net.cpp:150] Setting up fc4_300
I0411 08:18:56.745578  3018 net.cpp:157] Top shape: 1024 300 (307200)
I0411 08:18:56.745581  3018 net.cpp:165] Memory required for data: 4103028736
I0411 08:18:56.745589  3018 layer_factory.hpp:77] Creating layer fc4_prescale
I0411 08:18:56.745597  3018 net.cpp:100] Creating Layer fc4_prescale
I0411 08:18:56.745604  3018 net.cpp:434] fc4_prescale <- fc4_300
I0411 08:18:56.745609  3018 net.cpp:395] fc4_prescale -> fc4_300 (in-place)
I0411 08:18:56.745700  3018 net.cpp:150] Setting up fc4_prescale
I0411 08:18:56.745710  3018 net.cpp:157] Top shape: 1024 300 (307200)
I0411 08:18:56.745713  3018 net.cpp:165] Memory required for data: 4104257536
I0411 08:18:56.745718  3018 layer_factory.hpp:77] Creating layer fc4_sTanH
I0411 08:18:56.745723  3018 net.cpp:100] Creating Layer fc4_sTanH
I0411 08:18:56.745729  3018 net.cpp:434] fc4_sTanH <- fc4_300
I0411 08:18:56.745734  3018 net.cpp:395] fc4_sTanH -> fc4_300 (in-place)
I0411 08:18:56.745936  3018 net.cpp:150] Setting up fc4_sTanH
I0411 08:18:56.745949  3018 net.cpp:157] Top shape: 1024 300 (307200)
I0411 08:18:56.745952  3018 net.cpp:165] Memory required for data: 4105486336
I0411 08:18:56.745961  3018 layer_factory.hpp:77] Creating layer fc4_postscale
I0411 08:18:56.745968  3018 net.cpp:100] Creating Layer fc4_postscale
I0411 08:18:56.745975  3018 net.cpp:434] fc4_postscale <- fc4_300
I0411 08:18:56.745980  3018 net.cpp:395] fc4_postscale -> fc4_300 (in-place)
I0411 08:18:56.746075  3018 net.cpp:150] Setting up fc4_postscale
I0411 08:18:56.746084  3018 net.cpp:157] Top shape: 1024 300 (307200)
I0411 08:18:56.746091  3018 net.cpp:165] Memory required for data: 4106715136
I0411 08:18:56.746096  3018 layer_factory.hpp:77] Creating layer fc5_67
I0411 08:18:56.746103  3018 net.cpp:100] Creating Layer fc5_67
I0411 08:18:56.746107  3018 net.cpp:434] fc5_67 <- fc4_300
I0411 08:18:56.746114  3018 net.cpp:408] fc5_67 -> fc5_classes
I0411 08:18:56.746359  3018 net.cpp:150] Setting up fc5_67
I0411 08:18:56.746368  3018 net.cpp:157] Top shape: 1024 67 (68608)
I0411 08:18:56.746374  3018 net.cpp:165] Memory required for data: 4106989568
I0411 08:18:56.746393  3018 layer_factory.hpp:77] Creating layer fc5_classes_fc5_67_0_split
I0411 08:18:56.746402  3018 net.cpp:100] Creating Layer fc5_classes_fc5_67_0_split
I0411 08:18:56.746405  3018 net.cpp:434] fc5_classes_fc5_67_0_split <- fc5_classes
I0411 08:18:56.746412  3018 net.cpp:408] fc5_classes_fc5_67_0_split -> fc5_classes_fc5_67_0_split_0
I0411 08:18:56.746418  3018 net.cpp:408] fc5_classes_fc5_67_0_split -> fc5_classes_fc5_67_0_split_1
I0411 08:18:56.746426  3018 net.cpp:408] fc5_classes_fc5_67_0_split -> fc5_classes_fc5_67_0_split_2
I0411 08:18:56.746479  3018 net.cpp:150] Setting up fc5_classes_fc5_67_0_split
I0411 08:18:56.746487  3018 net.cpp:157] Top shape: 1024 67 (68608)
I0411 08:18:56.746491  3018 net.cpp:157] Top shape: 1024 67 (68608)
I0411 08:18:56.746495  3018 net.cpp:157] Top shape: 1024 67 (68608)
I0411 08:18:56.746497  3018 net.cpp:165] Memory required for data: 4107812864
I0411 08:18:56.746501  3018 layer_factory.hpp:77] Creating layer loss
I0411 08:18:56.746507  3018 net.cpp:100] Creating Layer loss
I0411 08:18:56.746512  3018 net.cpp:434] loss <- fc5_classes_fc5_67_0_split_0
I0411 08:18:56.746517  3018 net.cpp:434] loss <- label_data_1_split_0
I0411 08:18:56.746523  3018 net.cpp:408] loss -> loss
…
