…
I0506 01:16:52.827129  5498 solver.cpp:93] Creating training net from train_net file: ./Prototxt/experiment_13/RTSD/orig/trial_3/train.prototxt
I0506 01:16:52.827673  5498 net.cpp:58] Initializing net from parameters: 
state {
  phase: TRAIN
  level: 0
  stage: ""
}
layer {
  name: "data"
  type: "Data"
  top: "data"
  top: "label"
  include {
    phase: TRAIN
  }
  transform_param {
    scale: 0.0039215689
    mirror: false
    crop_size: 48
    mean_value: 119
    mean_value: 113
    mean_value: 113
  }
  data_param {
    source: "../local_data/lmdb/RTSD/orig/train/lmdb"
    batch_size: 700
    backend: LMDB
  }
}
layer {
  name: "conv1"
  type: "Convolution"
  bottom: "data"
  top: "conv1"
  convolution_param {
    num_output: 100
    pad: 0
    kernel_size: 7
    group: 1
    stride: 1
    weight_filler {
      type: "xavier"
    }
  }
}
layer {
  name: "conv1_prescale"
  type: "Scale"
  bottom: "conv1"
  top: "conv1"
  param {
    lr_mult: 0
    decay_mult: 0
  }
  scale_param {
    filler {
      value: 0.6666
    }
    bias_term: false
  }
}
layer {
  name: "conv1_sTanH"
  type: "TanH"
  bottom: "conv1"
  top: "conv1"
}
layer {
  name: "conv1_postscale"
  type: "Scale"
  bottom: "conv1"
  top: "conv1"
  param {
    lr_mult: 0
    decay_mult: 0
  }
  scale_param {
    filler {
      value: 1.7159
    }
    bias_term: false
  }
}
layer {
  name: "pool1"
  type: "Pooling"
  bottom: "conv1"
  top: "pool1"
  pooling_param {
    pool: MAX
    kernel_size: 2
    stride: 2
  }
}
layer {
  name: "conv2"
  type: "Convolution"
  bottom: "pool1"
  top: "conv2"
  convolution_param {
    num_output: 150
    pad: 0
    kernel_size: 4
    group: 1
    stride: 1
    weight_filler {
      type: "xavier"
    }
  }
}
layer {
  name: "conv2_prescale"
  type: "Scale"
  bottom: "conv2"
  top: "conv2"
  param {
    lr_mult: 0
    decay_mult: 0
  }
  scale_param {
    filler {
      value: 0.6666
    }
    bias_term: false
  }
}
layer {
  name: "conv2_sTanH"
  type: "TanH"
  bottom: "conv2"
  top: "conv2"
}
layer {
  name: "conv2_postscale"
  type: "Scale"
  bottom: "conv2"
  top: "conv2"
  param {
    lr_mult: 0
    decay_mult: 0
  }
  scale_param {
    filler {
      value: 1.7159
    }
    bias_term: false
  }
}
layer {
  name: "pool2"
  type: "Pooling"
  bottom: "conv2"
  top: "pool2"
  pooling_param {
    pool: MAX
    kernel_size: 2
    stride: 2
  }
}
layer {
  name: "conv3"
  type: "Convolution"
  bottom: "pool2"
  top: "conv3"
  convolution_param {
    num_output: 250
    pad: 0
    kernel_size: 4
    group: 1
    stride: 1
    weight_filler {
      type: "xavier"
    }
  }
}
layer {
  name: "conv3_prescale"
  type: "Scale"
  bottom: "conv3"
  top: "conv3"
  param {
    lr_mult: 0
    decay_mult: 0
  }
  scale_param {
    filler {
      value: 0.6666
    }
    bias_term: false
  }
}
layer {
  name: "conv3_sTanH"
  type: "TanH"
  bottom: "conv3"
  top: "conv3"
}
layer {
  name: "conv3_postscale"
  type: "Scale"
  bottom: "conv3"
  top: "conv3"
  param {
    lr_mult: 0
    decay_mult: 0
  }
  scale_param {
    filler {
      value: 1.7159
    }
    bias_term: false
  }
}
layer {
  name: "pool3"
  type: "Pooling"
  bottom: "conv3"
  top: "pool3"
  pooling_param {
    pool: MAX
    kernel_size: 2
    stride: 2
  }
}
layer {
  name: "fc4_300"
  type: "InnerProduct"
  bottom: "pool3"
  top: "fc4_300"
  inner_product_param {
    num_output: 300
    weight_filler {
      type: "xavier"
    }
  }
}
layer {
  name: "fc4_prescale"
  type: "Scale"
  bottom: "fc4_300"
  top: "fc4_300"
  param {
    lr_mult: 0
    decay_mult: 0
  }
  scale_param {
    filler {
      value: 0.6666
    }
    bias_term: false
  }
}
layer {
  name: "fc4_sTanH"
  type: "TanH"
  bottom: "fc4_300"
  top: "fc4_300"
}
layer {
  name: "fc4_postscale"
  type: "Scale"
  bottom: "fc4_300"
  top: "fc4_300"
  param {
    lr_mult: 0
    decay_mult: 0
  }
  scale_param {
    filler {
      value: 1.7159
    }
    bias_term: false
  }
}
layer {
  name: "fc5_116"
  type: "InnerProduct"
  bottom: "fc4_300"
  top: "fc5_classes"
  inner_product_param {
    num_output: 116
    weight_filler {
      type: "xavier"
    }
  }
}
layer {
  name: "softmax"
  type: "Softmax"
  bottom: "fc5_classes"
  top: "softmax"
}
layer {
  name: "loss"
  type: "MultinomialLogisticLoss"
  bottom: "softmax"
  bottom: "label"
  top: "loss"
}
layer {
  name: "accuracy_1"
  type: "Accuracy"
  bottom: "fc5_classes"
  bottom: "label"
  top: "accuracy_1"
  accuracy_param {
    top_k: 1
  }
}
layer {
  name: "accuracy_5"
  type: "Accuracy"
  bottom: "fc5_classes"
  bottom: "label"
  top: "accuracy_5"
  accuracy_param {
    top_k: 5
  }
}
layer {
  name: "silence"
  type: "Silence"
  bottom: "accuracy_1"
  bottom: "accuracy_5"
}
I0506 01:16:52.827857  5498 layer_factory.hpp:77] Creating layer data
I0506 01:16:52.828917  5498 net.cpp:100] Creating Layer data
I0506 01:16:52.828935  5498 net.cpp:408] data -> data
I0506 01:16:52.828960  5498 net.cpp:408] data -> label
I0506 01:16:52.877475  5629 db_lmdb.cpp:35] Opened lmdb ../local_data/lmdb/RTSD/orig/train/lmdb
I0506 01:16:52.902199  5498 data_layer.cpp:41] output data size: 700,3,48,48
I0506 01:16:52.980195  5498 net.cpp:150] Setting up data
I0506 01:16:52.980227  5498 net.cpp:157] Top shape: 700 3 48 48 (4838400)
I0506 01:16:52.980235  5498 net.cpp:157] Top shape: 700 (700)
I0506 01:16:52.980239  5498 net.cpp:165] Memory required for data: 19356400
I0506 01:16:52.980252  5498 layer_factory.hpp:77] Creating layer label_data_1_split
I0506 01:16:52.980268  5498 net.cpp:100] Creating Layer label_data_1_split
I0506 01:16:52.980278  5498 net.cpp:434] label_data_1_split <- label
I0506 01:16:52.980295  5498 net.cpp:408] label_data_1_split -> label_data_1_split_0
I0506 01:16:52.980312  5498 net.cpp:408] label_data_1_split -> label_data_1_split_1
I0506 01:16:52.980324  5498 net.cpp:408] label_data_1_split -> label_data_1_split_2
I0506 01:16:52.980479  5498 net.cpp:150] Setting up label_data_1_split
I0506 01:16:52.980490  5498 net.cpp:157] Top shape: 700 (700)
I0506 01:16:52.980495  5498 net.cpp:157] Top shape: 700 (700)
I0506 01:16:52.980499  5498 net.cpp:157] Top shape: 700 (700)
I0506 01:16:52.980502  5498 net.cpp:165] Memory required for data: 19364800
I0506 01:16:52.980506  5498 layer_factory.hpp:77] Creating layer conv1
I0506 01:16:52.980535  5498 net.cpp:100] Creating Layer conv1
I0506 01:16:52.980541  5498 net.cpp:434] conv1 <- data
I0506 01:16:52.980551  5498 net.cpp:408] conv1 -> conv1
I0506 01:16:53.507200  5498 net.cpp:150] Setting up conv1
I0506 01:16:53.507232  5498 net.cpp:157] Top shape: 700 100 42 42 (123480000)
I0506 01:16:53.507236  5498 net.cpp:165] Memory required for data: 513284800
I0506 01:16:53.507261  5498 layer_factory.hpp:77] Creating layer conv1_prescale
I0506 01:16:53.507275  5498 net.cpp:100] Creating Layer conv1_prescale
I0506 01:16:53.507282  5498 net.cpp:434] conv1_prescale <- conv1
I0506 01:16:53.507288  5498 net.cpp:395] conv1_prescale -> conv1 (in-place)
I0506 01:16:53.507400  5498 net.cpp:150] Setting up conv1_prescale
I0506 01:16:53.507410  5498 net.cpp:157] Top shape: 700 100 42 42 (123480000)
I0506 01:16:53.507412  5498 net.cpp:165] Memory required for data: 1007204800
I0506 01:16:53.507419  5498 layer_factory.hpp:77] Creating layer conv1_sTanH
I0506 01:16:53.507429  5498 net.cpp:100] Creating Layer conv1_sTanH
I0506 01:16:53.507434  5498 net.cpp:434] conv1_sTanH <- conv1
I0506 01:16:53.507439  5498 net.cpp:395] conv1_sTanH -> conv1 (in-place)
I0506 01:16:53.507634  5498 net.cpp:150] Setting up conv1_sTanH
I0506 01:16:53.507648  5498 net.cpp:157] Top shape: 700 100 42 42 (123480000)
I0506 01:16:53.507673  5498 net.cpp:165] Memory required for data: 1501124800
I0506 01:16:53.507678  5498 layer_factory.hpp:77] Creating layer conv1_postscale
I0506 01:16:53.507684  5498 net.cpp:100] Creating Layer conv1_postscale
I0506 01:16:53.507689  5498 net.cpp:434] conv1_postscale <- conv1
I0506 01:16:53.507695  5498 net.cpp:395] conv1_postscale -> conv1 (in-place)
I0506 01:16:53.507797  5498 net.cpp:150] Setting up conv1_postscale
I0506 01:16:53.507805  5498 net.cpp:157] Top shape: 700 100 42 42 (123480000)
I0506 01:16:53.507808  5498 net.cpp:165] Memory required for data: 1995044800
I0506 01:16:53.507813  5498 layer_factory.hpp:77] Creating layer pool1
I0506 01:16:53.507820  5498 net.cpp:100] Creating Layer pool1
I0506 01:16:53.507825  5498 net.cpp:434] pool1 <- conv1
I0506 01:16:53.507830  5498 net.cpp:408] pool1 -> pool1
I0506 01:16:53.507897  5498 net.cpp:150] Setting up pool1
I0506 01:16:53.507908  5498 net.cpp:157] Top shape: 700 100 21 21 (30870000)
I0506 01:16:53.507911  5498 net.cpp:165] Memory required for data: 2118524800
I0506 01:16:53.507915  5498 layer_factory.hpp:77] Creating layer conv2
I0506 01:16:53.507925  5498 net.cpp:100] Creating Layer conv2
I0506 01:16:53.507930  5498 net.cpp:434] conv2 <- pool1
I0506 01:16:53.507936  5498 net.cpp:408] conv2 -> conv2
I0506 01:16:53.512979  5498 net.cpp:150] Setting up conv2
I0506 01:16:53.512996  5498 net.cpp:157] Top shape: 700 150 18 18 (34020000)
I0506 01:16:53.513000  5498 net.cpp:165] Memory required for data: 2254604800
I0506 01:16:53.513011  5498 layer_factory.hpp:77] Creating layer conv2_prescale
I0506 01:16:53.513023  5498 net.cpp:100] Creating Layer conv2_prescale
I0506 01:16:53.513028  5498 net.cpp:434] conv2_prescale <- conv2
I0506 01:16:53.513036  5498 net.cpp:395] conv2_prescale -> conv2 (in-place)
I0506 01:16:53.513142  5498 net.cpp:150] Setting up conv2_prescale
I0506 01:16:53.513151  5498 net.cpp:157] Top shape: 700 150 18 18 (34020000)
I0506 01:16:53.513154  5498 net.cpp:165] Memory required for data: 2390684800
I0506 01:16:53.513159  5498 layer_factory.hpp:77] Creating layer conv2_sTanH
I0506 01:16:53.513165  5498 net.cpp:100] Creating Layer conv2_sTanH
I0506 01:16:53.513169  5498 net.cpp:434] conv2_sTanH <- conv2
I0506 01:16:53.513172  5498 net.cpp:395] conv2_sTanH -> conv2 (in-place)
I0506 01:16:53.515004  5498 net.cpp:150] Setting up conv2_sTanH
I0506 01:16:53.515022  5498 net.cpp:157] Top shape: 700 150 18 18 (34020000)
I0506 01:16:53.515024  5498 net.cpp:165] Memory required for data: 2526764800
I0506 01:16:53.515028  5498 layer_factory.hpp:77] Creating layer conv2_postscale
I0506 01:16:53.515036  5498 net.cpp:100] Creating Layer conv2_postscale
I0506 01:16:53.515041  5498 net.cpp:434] conv2_postscale <- conv2
I0506 01:16:53.515048  5498 net.cpp:395] conv2_postscale -> conv2 (in-place)
I0506 01:16:53.515147  5498 net.cpp:150] Setting up conv2_postscale
I0506 01:16:53.515156  5498 net.cpp:157] Top shape: 700 150 18 18 (34020000)
I0506 01:16:53.515159  5498 net.cpp:165] Memory required for data: 2662844800
I0506 01:16:53.515164  5498 layer_factory.hpp:77] Creating layer pool2
I0506 01:16:53.515171  5498 net.cpp:100] Creating Layer pool2
I0506 01:16:53.515175  5498 net.cpp:434] pool2 <- conv2
I0506 01:16:53.515180  5498 net.cpp:408] pool2 -> pool2
I0506 01:16:53.515221  5498 net.cpp:150] Setting up pool2
I0506 01:16:53.515229  5498 net.cpp:157] Top shape: 700 150 9 9 (8505000)
I0506 01:16:53.515233  5498 net.cpp:165] Memory required for data: 2696864800
I0506 01:16:53.515235  5498 layer_factory.hpp:77] Creating layer conv3
I0506 01:16:53.515244  5498 net.cpp:100] Creating Layer conv3
I0506 01:16:53.515249  5498 net.cpp:434] conv3 <- pool2
I0506 01:16:53.515254  5498 net.cpp:408] conv3 -> conv3
I0506 01:16:53.522272  5498 net.cpp:150] Setting up conv3
I0506 01:16:53.522291  5498 net.cpp:157] Top shape: 700 250 6 6 (6300000)
I0506 01:16:53.522295  5498 net.cpp:165] Memory required for data: 2722064800
I0506 01:16:53.522305  5498 layer_factory.hpp:77] Creating layer conv3_prescale
I0506 01:16:53.522315  5498 net.cpp:100] Creating Layer conv3_prescale
I0506 01:16:53.522334  5498 net.cpp:434] conv3_prescale <- conv3
I0506 01:16:53.522341  5498 net.cpp:395] conv3_prescale -> conv3 (in-place)
I0506 01:16:53.522439  5498 net.cpp:150] Setting up conv3_prescale
I0506 01:16:53.522449  5498 net.cpp:157] Top shape: 700 250 6 6 (6300000)
I0506 01:16:53.522452  5498 net.cpp:165] Memory required for data: 2747264800
I0506 01:16:53.522457  5498 layer_factory.hpp:77] Creating layer conv3_sTanH
I0506 01:16:53.522462  5498 net.cpp:100] Creating Layer conv3_sTanH
I0506 01:16:53.522467  5498 net.cpp:434] conv3_sTanH <- conv3
I0506 01:16:53.522471  5498 net.cpp:395] conv3_sTanH -> conv3 (in-place)
I0506 01:16:53.529405  5498 net.cpp:150] Setting up conv3_sTanH
I0506 01:16:53.529425  5498 net.cpp:157] Top shape: 700 250 6 6 (6300000)
I0506 01:16:53.529429  5498 net.cpp:165] Memory required for data: 2772464800
I0506 01:16:53.529433  5498 layer_factory.hpp:77] Creating layer conv3_postscale
I0506 01:16:53.529443  5498 net.cpp:100] Creating Layer conv3_postscale
I0506 01:16:53.529446  5498 net.cpp:434] conv3_postscale <- conv3
I0506 01:16:53.529453  5498 net.cpp:395] conv3_postscale -> conv3 (in-place)
I0506 01:16:53.529561  5498 net.cpp:150] Setting up conv3_postscale
I0506 01:16:53.529570  5498 net.cpp:157] Top shape: 700 250 6 6 (6300000)
I0506 01:16:53.529573  5498 net.cpp:165] Memory required for data: 2797664800
I0506 01:16:53.529578  5498 layer_factory.hpp:77] Creating layer pool3
I0506 01:16:53.529588  5498 net.cpp:100] Creating Layer pool3
I0506 01:16:53.529593  5498 net.cpp:434] pool3 <- conv3
I0506 01:16:53.529598  5498 net.cpp:408] pool3 -> pool3
I0506 01:16:53.529639  5498 net.cpp:150] Setting up pool3
I0506 01:16:53.529646  5498 net.cpp:157] Top shape: 700 250 3 3 (1575000)
I0506 01:16:53.529649  5498 net.cpp:165] Memory required for data: 2803964800
I0506 01:16:53.529652  5498 layer_factory.hpp:77] Creating layer fc4_300
I0506 01:16:53.529659  5498 net.cpp:100] Creating Layer fc4_300
I0506 01:16:53.529664  5498 net.cpp:434] fc4_300 <- pool3
I0506 01:16:53.529670  5498 net.cpp:408] fc4_300 -> fc4_300
I0506 01:16:53.535820  5498 net.cpp:150] Setting up fc4_300
I0506 01:16:53.535842  5498 net.cpp:157] Top shape: 700 300 (210000)
I0506 01:16:53.535846  5498 net.cpp:165] Memory required for data: 2804804800
I0506 01:16:53.535854  5498 layer_factory.hpp:77] Creating layer fc4_prescale
I0506 01:16:53.535862  5498 net.cpp:100] Creating Layer fc4_prescale
I0506 01:16:53.535867  5498 net.cpp:434] fc4_prescale <- fc4_300
I0506 01:16:53.535873  5498 net.cpp:395] fc4_prescale -> fc4_300 (in-place)
I0506 01:16:53.535981  5498 net.cpp:150] Setting up fc4_prescale
I0506 01:16:53.535990  5498 net.cpp:157] Top shape: 700 300 (210000)
I0506 01:16:53.535993  5498 net.cpp:165] Memory required for data: 2805644800
I0506 01:16:53.535998  5498 layer_factory.hpp:77] Creating layer fc4_sTanH
I0506 01:16:53.536005  5498 net.cpp:100] Creating Layer fc4_sTanH
I0506 01:16:53.536010  5498 net.cpp:434] fc4_sTanH <- fc4_300
I0506 01:16:53.536015  5498 net.cpp:395] fc4_sTanH -> fc4_300 (in-place)
I0506 01:16:53.536209  5498 net.cpp:150] Setting up fc4_sTanH
I0506 01:16:53.536221  5498 net.cpp:157] Top shape: 700 300 (210000)
I0506 01:16:53.536226  5498 net.cpp:165] Memory required for data: 2806484800
I0506 01:16:53.536231  5498 layer_factory.hpp:77] Creating layer fc4_postscale
I0506 01:16:53.536237  5498 net.cpp:100] Creating Layer fc4_postscale
I0506 01:16:53.536242  5498 net.cpp:434] fc4_postscale <- fc4_300
I0506 01:16:53.536247  5498 net.cpp:395] fc4_postscale -> fc4_300 (in-place)
I0506 01:16:53.536345  5498 net.cpp:150] Setting up fc4_postscale
I0506 01:16:53.536352  5498 net.cpp:157] Top shape: 700 300 (210000)
I0506 01:16:53.536355  5498 net.cpp:165] Memory required for data: 2807324800
I0506 01:16:53.536360  5498 layer_factory.hpp:77] Creating layer fc5_116
I0506 01:16:53.536366  5498 net.cpp:100] Creating Layer fc5_116
I0506 01:16:53.536371  5498 net.cpp:434] fc5_116 <- fc4_300
I0506 01:16:53.536377  5498 net.cpp:408] fc5_116 -> fc5_classes
I0506 01:16:53.544896  5498 net.cpp:150] Setting up fc5_116
I0506 01:16:53.544932  5498 net.cpp:157] Top shape: 700 116 (81200)
I0506 01:16:53.544936  5498 net.cpp:165] Memory required for data: 2807649600
I0506 01:16:53.544950  5498 layer_factory.hpp:77] Creating layer fc5_classes_fc5_116_0_split
I0506 01:16:53.544957  5498 net.cpp:100] Creating Layer fc5_classes_fc5_116_0_split
I0506 01:16:53.544961  5498 net.cpp:434] fc5_classes_fc5_116_0_split <- fc5_classes
I0506 01:16:53.544966  5498 net.cpp:408] fc5_classes_fc5_116_0_split -> fc5_classes_fc5_116_0_split_0
I0506 01:16:53.544975  5498 net.cpp:408] fc5_classes_fc5_116_0_split -> fc5_classes_fc5_116_0_split_1
I0506 01:16:53.544983  5498 net.cpp:408] fc5_classes_fc5_116_0_split -> fc5_classes_fc5_116_0_split_2
I0506 01:16:53.545037  5498 net.cpp:150] Setting up fc5_classes_fc5_116_0_split
I0506 01:16:53.545044  5498 net.cpp:157] Top shape: 700 116 (81200)
I0506 01:16:53.545047  5498 net.cpp:157] Top shape: 700 116 (81200)
I0506 01:16:53.545052  5498 net.cpp:157] Top shape: 700 116 (81200)
I0506 01:16:53.545053  5498 net.cpp:165] Memory required for data: 2808624000
I0506 01:16:53.545056  5498 layer_factory.hpp:77] Creating layer softmax
I0506 01:16:53.545063  5498 net.cpp:100] Creating Layer softmax
I0506 01:16:53.545066  5498 net.cpp:434] softmax <- fc5_classes_fc5_116_0_split_0
I0506 01:16:53.545071  5498 net.cpp:408] softmax -> softmax
I0506 01:16:53.545320  5498 net.cpp:150] Setting up softmax
I0506 01:16:53.545333  5498 net.cpp:157] Top shape: 700 116 (81200)
I0506 01:16:53.545337  5498 net.cpp:165] Memory required for data: 2808948800
I0506 01:16:53.545341  5498 layer_factory.hpp:77] Creating layer loss
I0506 01:16:53.545347  5498 net.cpp:100] Creating Layer loss
I0506 01:16:53.545352  5498 net.cpp:434] loss <- softmax
I0506 01:16:53.545357  5498 net.cpp:434] loss <- label_data_1_split_0
I0506 01:16:53.545362  5498 net.cpp:408] loss -> loss
…
