…
I0508 04:33:22.953672  4621 solver.cpp:93] Creating training net from train_net file: ./Prototxt/experiment_16/RTSD/histeq/trial_2/train.prototxt
I0508 04:33:22.954005  4621 net.cpp:58] Initializing net from parameters: 
state {
  phase: TRAIN
  level: 0
  stage: ""
}
layer {
  name: "data"
  type: "Data"
  top: "data"
  top: "label"
  include {
    phase: TRAIN
  }
  transform_param {
    scale: 0.0039215689
    mirror: false
    crop_size: 48
    mean_value: 134
    mean_value: 128
    mean_value: 128
  }
  data_param {
    source: "../local_data/lmdb/RTSD/histeq/train/lmdb"
    batch_size: 1024
    backend: LMDB
  }
}
layer {
  name: "conv1"
  type: "Convolution"
  bottom: "data"
  top: "conv1"
  convolution_param {
    num_output: 100
    pad: 0
    kernel_size: 7
    group: 1
    stride: 1
    weight_filler {
      type: "xavier"
    }
  }
}
layer {
  name: "conv1_relu"
  type: "ReLU"
  bottom: "conv1"
  top: "conv1"
}
layer {
  name: "pool1"
  type: "Pooling"
  bottom: "conv1"
  top: "pool1"
  pooling_param {
    pool: MAX
    kernel_size: 2
    stride: 2
  }
}
layer {
  name: "conv2"
  type: "Convolution"
  bottom: "pool1"
  top: "conv2"
  convolution_param {
    num_output: 150
    pad: 0
    kernel_size: 4
    group: 2
    stride: 1
    weight_filler {
      type: "xavier"
    }
  }
}
layer {
  name: "conv2_relu"
  type: "ReLU"
  bottom: "conv2"
  top: "conv2"
}
layer {
  name: "pool2"
  type: "Pooling"
  bottom: "conv2"
  top: "pool2"
  pooling_param {
    pool: MAX
    kernel_size: 2
    stride: 2
  }
}
layer {
  name: "conv3"
  type: "Convolution"
  bottom: "pool2"
  top: "conv3"
  convolution_param {
    num_output: 250
    pad: 0
    kernel_size: 4
    group: 2
    stride: 1
    weight_filler {
      type: "xavier"
    }
  }
}
layer {
  name: "conv3_relu"
  type: "ReLU"
  bottom: "conv3"
  top: "conv3"
}
layer {
  name: "pool3"
  type: "Pooling"
  bottom: "conv3"
  top: "pool3"
  pooling_param {
    pool: MAX
    kernel_size: 2
    stride: 2
  }
}
layer {
  name: "fc4_300"
  type: "InnerProduct"
  bottom: "pool3"
  top: "fc4_300"
  inner_product_param {
    num_output: 300
    weight_filler {
      type: "xavier"
    }
  }
}
layer {
  name: "fc4_relu"
  type: "ReLU"
  bottom: "fc4_300"
  top: "fc4_300"
}
layer {
  name: "fc5_116"
  type: "InnerProduct"
  bottom: "fc4_300"
  top: "fc5_classes"
  inner_product_param {
    num_output: 116
    weight_filler {
      type: "xavier"
    }
  }
}
layer {
  name: "softmax"
  type: "Softmax"
  bottom: "fc5_classes"
  top: "softmax"
}
layer {
  name: "loss"
  type: "MultinomialLogisticLoss"
  bottom: "softmax"
  bottom: "label"
  top: "loss"
}
layer {
  name: "accuracy_1"
  type: "Accuracy"
  bottom: "fc5_classes"
  bottom: "label"
  top: "accuracy_1"
  accuracy_param {
    top_k: 1
  }
}
layer {
  name: "accuracy_5"
  type: "Accuracy"
  bottom: "fc5_classes"
  bottom: "label"
  top: "accuracy_5"
  accuracy_param {
    top_k: 5
  }
}
layer {
  name: "silence"
  type: "Silence"
  bottom: "accuracy_1"
  bottom: "accuracy_5"
}
I0508 04:33:22.954125  4621 layer_factory.hpp:77] Creating layer data
I0508 04:33:22.955195  4621 net.cpp:100] Creating Layer data
I0508 04:33:22.955210  4621 net.cpp:408] data -> data
I0508 04:33:22.955237  4621 net.cpp:408] data -> label
I0508 04:33:22.959856  4724 db_lmdb.cpp:35] Opened lmdb ../local_data/lmdb/RTSD/histeq/train/lmdb
I0508 04:33:22.978960  4621 data_layer.cpp:41] output data size: 1024,3,48,48
I0508 04:33:23.052901  4621 net.cpp:150] Setting up data
I0508 04:33:23.052953  4621 net.cpp:157] Top shape: 1024 3 48 48 (7077888)
I0508 04:33:23.052959  4621 net.cpp:157] Top shape: 1024 (1024)
I0508 04:33:23.052963  4621 net.cpp:165] Memory required for data: 28315648
I0508 04:33:23.052974  4621 layer_factory.hpp:77] Creating layer label_data_1_split
I0508 04:33:23.052989  4621 net.cpp:100] Creating Layer label_data_1_split
I0508 04:33:23.052994  4621 net.cpp:434] label_data_1_split <- label
I0508 04:33:23.053009  4621 net.cpp:408] label_data_1_split -> label_data_1_split_0
I0508 04:33:23.053020  4621 net.cpp:408] label_data_1_split -> label_data_1_split_1
I0508 04:33:23.053030  4621 net.cpp:408] label_data_1_split -> label_data_1_split_2
I0508 04:33:23.053097  4621 net.cpp:150] Setting up label_data_1_split
I0508 04:33:23.053107  4621 net.cpp:157] Top shape: 1024 (1024)
I0508 04:33:23.053110  4621 net.cpp:157] Top shape: 1024 (1024)
I0508 04:33:23.053114  4621 net.cpp:157] Top shape: 1024 (1024)
I0508 04:33:23.053117  4621 net.cpp:165] Memory required for data: 28327936
I0508 04:33:23.053122  4621 layer_factory.hpp:77] Creating layer conv1
I0508 04:33:23.053138  4621 net.cpp:100] Creating Layer conv1
I0508 04:33:23.053143  4621 net.cpp:434] conv1 <- data
I0508 04:33:23.053149  4621 net.cpp:408] conv1 -> conv1
I0508 04:33:23.499770  4621 net.cpp:150] Setting up conv1
I0508 04:33:23.499799  4621 net.cpp:157] Top shape: 1024 100 42 42 (180633600)
I0508 04:33:23.499804  4621 net.cpp:165] Memory required for data: 750862336
I0508 04:33:23.499827  4621 layer_factory.hpp:77] Creating layer conv1_relu
I0508 04:33:23.499838  4621 net.cpp:100] Creating Layer conv1_relu
I0508 04:33:23.499843  4621 net.cpp:434] conv1_relu <- conv1
I0508 04:33:23.499850  4621 net.cpp:395] conv1_relu -> conv1 (in-place)
I0508 04:33:23.500066  4621 net.cpp:150] Setting up conv1_relu
I0508 04:33:23.500080  4621 net.cpp:157] Top shape: 1024 100 42 42 (180633600)
I0508 04:33:23.500084  4621 net.cpp:165] Memory required for data: 1473396736
I0508 04:33:23.500088  4621 layer_factory.hpp:77] Creating layer pool1
I0508 04:33:23.500098  4621 net.cpp:100] Creating Layer pool1
I0508 04:33:23.500102  4621 net.cpp:434] pool1 <- conv1
I0508 04:33:23.500108  4621 net.cpp:408] pool1 -> pool1
I0508 04:33:23.500164  4621 net.cpp:150] Setting up pool1
I0508 04:33:23.500174  4621 net.cpp:157] Top shape: 1024 100 21 21 (45158400)
I0508 04:33:23.500177  4621 net.cpp:165] Memory required for data: 1654030336
I0508 04:33:23.500180  4621 layer_factory.hpp:77] Creating layer conv2
I0508 04:33:23.500191  4621 net.cpp:100] Creating Layer conv2
I0508 04:33:23.500198  4621 net.cpp:434] conv2 <- pool1
I0508 04:33:23.500203  4621 net.cpp:408] conv2 -> conv2
I0508 04:33:23.539784  4621 net.cpp:150] Setting up conv2
I0508 04:33:23.539805  4621 net.cpp:157] Top shape: 1024 150 18 18 (49766400)
I0508 04:33:23.539809  4621 net.cpp:165] Memory required for data: 1853095936
I0508 04:33:23.539820  4621 layer_factory.hpp:77] Creating layer conv2_relu
I0508 04:33:23.539830  4621 net.cpp:100] Creating Layer conv2_relu
I0508 04:33:23.539834  4621 net.cpp:434] conv2_relu <- conv2
I0508 04:33:23.539840  4621 net.cpp:395] conv2_relu -> conv2 (in-place)
I0508 04:33:23.540050  4621 net.cpp:150] Setting up conv2_relu
I0508 04:33:23.540065  4621 net.cpp:157] Top shape: 1024 150 18 18 (49766400)
I0508 04:33:23.540068  4621 net.cpp:165] Memory required for data: 2052161536
I0508 04:33:23.540072  4621 layer_factory.hpp:77] Creating layer pool2
I0508 04:33:23.540079  4621 net.cpp:100] Creating Layer pool2
I0508 04:33:23.540082  4621 net.cpp:434] pool2 <- conv2
I0508 04:33:23.540088  4621 net.cpp:408] pool2 -> pool2
I0508 04:33:23.540140  4621 net.cpp:150] Setting up pool2
I0508 04:33:23.540150  4621 net.cpp:157] Top shape: 1024 150 9 9 (12441600)
I0508 04:33:23.540153  4621 net.cpp:165] Memory required for data: 2101927936
I0508 04:33:23.540158  4621 layer_factory.hpp:77] Creating layer conv3
I0508 04:33:23.540171  4621 net.cpp:100] Creating Layer conv3
I0508 04:33:23.540176  4621 net.cpp:434] conv3 <- pool2
I0508 04:33:23.540184  4621 net.cpp:408] conv3 -> conv3
I0508 04:33:23.546037  4621 net.cpp:150] Setting up conv3
I0508 04:33:23.546061  4621 net.cpp:157] Top shape: 1024 250 6 6 (9216000)
I0508 04:33:23.546064  4621 net.cpp:165] Memory required for data: 2138791936
I0508 04:33:23.546075  4621 layer_factory.hpp:77] Creating layer conv3_relu
I0508 04:33:23.546083  4621 net.cpp:100] Creating Layer conv3_relu
I0508 04:33:23.546087  4621 net.cpp:434] conv3_relu <- conv3
I0508 04:33:23.546093  4621 net.cpp:395] conv3_relu -> conv3 (in-place)
I0508 04:33:23.546290  4621 net.cpp:150] Setting up conv3_relu
I0508 04:33:23.546304  4621 net.cpp:157] Top shape: 1024 250 6 6 (9216000)
I0508 04:33:23.546308  4621 net.cpp:165] Memory required for data: 2175655936
I0508 04:33:23.546311  4621 layer_factory.hpp:77] Creating layer pool3
I0508 04:33:23.546319  4621 net.cpp:100] Creating Layer pool3
I0508 04:33:23.546322  4621 net.cpp:434] pool3 <- conv3
I0508 04:33:23.546331  4621 net.cpp:408] pool3 -> pool3
I0508 04:33:23.546380  4621 net.cpp:150] Setting up pool3
I0508 04:33:23.546388  4621 net.cpp:157] Top shape: 1024 250 3 3 (2304000)
I0508 04:33:23.546391  4621 net.cpp:165] Memory required for data: 2184871936
I0508 04:33:23.546396  4621 layer_factory.hpp:77] Creating layer fc4_300
I0508 04:33:23.546402  4621 net.cpp:100] Creating Layer fc4_300
I0508 04:33:23.546406  4621 net.cpp:434] fc4_300 <- pool3
I0508 04:33:23.546413  4621 net.cpp:408] fc4_300 -> fc4_300
I0508 04:33:23.552315  4621 net.cpp:150] Setting up fc4_300
I0508 04:33:23.552332  4621 net.cpp:157] Top shape: 1024 300 (307200)
I0508 04:33:23.552336  4621 net.cpp:165] Memory required for data: 2186100736
I0508 04:33:23.552345  4621 layer_factory.hpp:77] Creating layer fc4_relu
I0508 04:33:23.552353  4621 net.cpp:100] Creating Layer fc4_relu
I0508 04:33:23.552359  4621 net.cpp:434] fc4_relu <- fc4_300
I0508 04:33:23.552366  4621 net.cpp:395] fc4_relu -> fc4_300 (in-place)
I0508 04:33:23.558153  4621 net.cpp:150] Setting up fc4_relu
I0508 04:33:23.558173  4621 net.cpp:157] Top shape: 1024 300 (307200)
I0508 04:33:23.558177  4621 net.cpp:165] Memory required for data: 2187329536
I0508 04:33:23.558182  4621 layer_factory.hpp:77] Creating layer fc5_116
I0508 04:33:23.558190  4621 net.cpp:100] Creating Layer fc5_116
I0508 04:33:23.558194  4621 net.cpp:434] fc5_116 <- fc4_300
I0508 04:33:23.558202  4621 net.cpp:408] fc5_116 -> fc5_classes
I0508 04:33:23.560864  4621 net.cpp:150] Setting up fc5_116
I0508 04:33:23.560885  4621 net.cpp:157] Top shape: 1024 116 (118784)
I0508 04:33:23.560889  4621 net.cpp:165] Memory required for data: 2187804672
I0508 04:33:23.560900  4621 layer_factory.hpp:77] Creating layer fc5_classes_fc5_116_0_split
I0508 04:33:23.560911  4621 net.cpp:100] Creating Layer fc5_classes_fc5_116_0_split
I0508 04:33:23.560916  4621 net.cpp:434] fc5_classes_fc5_116_0_split <- fc5_classes
I0508 04:33:23.560925  4621 net.cpp:408] fc5_classes_fc5_116_0_split -> fc5_classes_fc5_116_0_split_0
I0508 04:33:23.560933  4621 net.cpp:408] fc5_classes_fc5_116_0_split -> fc5_classes_fc5_116_0_split_1
I0508 04:33:23.560941  4621 net.cpp:408] fc5_classes_fc5_116_0_split -> fc5_classes_fc5_116_0_split_2
I0508 04:33:23.560999  4621 net.cpp:150] Setting up fc5_classes_fc5_116_0_split
I0508 04:33:23.561008  4621 net.cpp:157] Top shape: 1024 116 (118784)
I0508 04:33:23.561012  4621 net.cpp:157] Top shape: 1024 116 (118784)
I0508 04:33:23.561017  4621 net.cpp:157] Top shape: 1024 116 (118784)
I0508 04:33:23.561019  4621 net.cpp:165] Memory required for data: 2189230080
I0508 04:33:23.561022  4621 layer_factory.hpp:77] Creating layer softmax
I0508 04:33:23.561029  4621 net.cpp:100] Creating Layer softmax
I0508 04:33:23.561033  4621 net.cpp:434] softmax <- fc5_classes_fc5_116_0_split_0
I0508 04:33:23.561040  4621 net.cpp:408] softmax -> softmax
I0508 04:33:23.561309  4621 net.cpp:150] Setting up softmax
I0508 04:33:23.561323  4621 net.cpp:157] Top shape: 1024 116 (118784)
I0508 04:33:23.561327  4621 net.cpp:165] Memory required for data: 2189705216
I0508 04:33:23.561331  4621 layer_factory.hpp:77] Creating layer loss
I0508 04:33:23.561358  4621 net.cpp:100] Creating Layer loss
I0508 04:33:23.561363  4621 net.cpp:434] loss <- softmax
I0508 04:33:23.561368  4621 net.cpp:434] loss <- label_data_1_split_0
I0508 04:33:23.561375  4621 net.cpp:408] loss -> loss
…
