…
I0414 18:16:04.513178  8507 solver.cpp:93] Creating training net from train_net file: ./Prototxt/experiment_11/rtsd-r3/imajust/trial_5/train.prototxt
I0414 18:16:04.519970  8507 net.cpp:58] Initializing net from parameters: 
state {
  phase: TRAIN
  level: 0
  stage: ""
}
layer {
  name: "data"
  type: "Data"
  top: "data"
  top: "label"
  include {
    phase: TRAIN
  }
  transform_param {
    scale: 0.0039215689
    mirror: false
    crop_size: 48
    mean_value: 118
    mean_value: 112
    mean_value: 112
  }
  data_param {
    source: "../local_data/lmdb/rtsd-r3/imajust/train/lmdb"
    batch_size: 1024
    backend: LMDB
  }
}
layer {
  name: "conv1"
  type: "Convolution"
  bottom: "data"
  top: "conv1"
  convolution_param {
    num_output: 100
    pad: 0
    kernel_size: 7
    group: 1
    stride: 1
    weight_filler {
      type: "xavier"
    }
  }
}
layer {
  name: "conv1_prescale"
  type: "Scale"
  bottom: "conv1"
  top: "conv1"
  param {
    lr_mult: 0
    decay_mult: 0
  }
  scale_param {
    filler {
      value: 0.6666
    }
    bias_term: false
  }
}
layer {
  name: "conv1_sTanH"
  type: "TanH"
  bottom: "conv1"
  top: "conv1"
}
layer {
  name: "conv1_postscale"
  type: "Scale"
  bottom: "conv1"
  top: "conv1"
  param {
    lr_mult: 0
    decay_mult: 0
  }
  scale_param {
    filler {
      value: 1.7159
    }
    bias_term: false
  }
}
layer {
  name: "pool1"
  type: "Pooling"
  bottom: "conv1"
  top: "pool1"
  pooling_param {
    pool: MAX
    kernel_size: 2
    stride: 2
  }
}
layer {
  name: "conv2"
  type: "Convolution"
  bottom: "pool1"
  top: "conv2"
  convolution_param {
    num_output: 150
    pad: 0
    kernel_size: 4
    group: 1
    stride: 1
    weight_filler {
      type: "xavier"
    }
  }
}
layer {
  name: "conv2_prescale"
  type: "Scale"
  bottom: "conv2"
  top: "conv2"
  param {
    lr_mult: 0
    decay_mult: 0
  }
  scale_param {
    filler {
      value: 0.6666
    }
    bias_term: false
  }
}
layer {
  name: "conv2_sTanH"
  type: "TanH"
  bottom: "conv2"
  top: "conv2"
}
layer {
  name: "conv2_postscale"
  type: "Scale"
  bottom: "conv2"
  top: "conv2"
  param {
    lr_mult: 0
    decay_mult: 0
  }
  scale_param {
    filler {
      value: 1.7159
    }
    bias_term: false
  }
}
layer {
  name: "pool2"
  type: "Pooling"
  bottom: "conv2"
  top: "pool2"
  pooling_param {
    pool: MAX
    kernel_size: 2
    stride: 2
  }
}
layer {
  name: "conv3"
  type: "Convolution"
  bottom: "pool2"
  top: "conv3"
  convolution_param {
    num_output: 250
    pad: 0
    kernel_size: 4
    group: 1
    stride: 1
    weight_filler {
      type: "xavier"
    }
  }
}
layer {
  name: "conv3_prescale"
  type: "Scale"
  bottom: "conv3"
  top: "conv3"
  param {
    lr_mult: 0
    decay_mult: 0
  }
  scale_param {
    filler {
      value: 0.6666
    }
    bias_term: false
  }
}
layer {
  name: "conv3_sTanH"
  type: "TanH"
  bottom: "conv3"
  top: "conv3"
}
layer {
  name: "conv3_postscale"
  type: "Scale"
  bottom: "conv3"
  top: "conv3"
  param {
    lr_mult: 0
    decay_mult: 0
  }
  scale_param {
    filler {
      value: 1.7159
    }
    bias_term: false
  }
}
layer {
  name: "pool3"
  type: "Pooling"
  bottom: "conv3"
  top: "pool3"
  pooling_param {
    pool: MAX
    kernel_size: 2
    stride: 2
  }
}
layer {
  name: "fc4_300"
  type: "InnerProduct"
  bottom: "pool3"
  top: "fc4_300"
  inner_product_param {
    num_output: 300
    weight_filler {
      type: "xavier"
    }
  }
}
layer {
  name: "fc4_prescale"
  type: "Scale"
  bottom: "fc4_300"
  top: "fc4_300"
  param {
    lr_mult: 0
    decay_mult: 0
  }
  scale_param {
    filler {
      value: 0.6666
    }
    bias_term: false
  }
}
layer {
  name: "fc4_sTanH"
  type: "TanH"
  bottom: "fc4_300"
  top: "fc4_300"
}
layer {
  name: "fc4_postscale"
  type: "Scale"
  bottom: "fc4_300"
  top: "fc4_300"
  param {
    lr_mult: 0
    decay_mult: 0
  }
  scale_param {
    filler {
      value: 1.7159
    }
    bias_term: false
  }
}
layer {
  name: "fc5_106"
  type: "InnerProduct"
  bottom: "fc4_300"
  top: "fc5_classes"
  inner_product_param {
    num_output: 106
    weight_filler {
      type: "xavier"
    }
  }
}
layer {
  name: "softmax"
  type: "Softmax"
  bottom: "fc5_classes"
  top: "softmax"
}
layer {
  name: "loss"
  type: "MultinomialLogisticLoss"
  bottom: "softmax"
  bottom: "label"
  top: "loss"
}
layer {
  name: "accuracy_1"
  type: "Accuracy"
  bottom: "fc5_classes"
  bottom: "label"
  top: "accuracy_1"
  accuracy_param {
    top_k: 1
  }
}
layer {
  name: "accuracy_5"
  type: "Accuracy"
  bottom: "fc5_classes"
  bottom: "label"
  top: "accuracy_5"
  accuracy_param {
    top_k: 5
  }
}
layer {
  name: "silence"
  type: "Silence"
  bottom: "accuracy_1"
  bottom: "accuracy_5"
}
I0414 18:16:04.520129  8507 layer_factory.hpp:77] Creating layer data
I0414 18:16:04.521188  8507 net.cpp:100] Creating Layer data
I0414 18:16:04.521204  8507 net.cpp:408] data -> data
I0414 18:16:04.521226  8507 net.cpp:408] data -> label
I0414 18:16:04.524516  8686 db_lmdb.cpp:35] Opened lmdb ../local_data/lmdb/rtsd-r3/imajust/train/lmdb
I0414 18:16:04.544787  8507 data_layer.cpp:41] output data size: 1024,3,48,48
I0414 18:16:04.598044  8507 net.cpp:150] Setting up data
I0414 18:16:04.598073  8507 net.cpp:157] Top shape: 1024 3 48 48 (7077888)
I0414 18:16:04.598079  8507 net.cpp:157] Top shape: 1024 (1024)
I0414 18:16:04.598083  8507 net.cpp:165] Memory required for data: 28315648
I0414 18:16:04.598094  8507 layer_factory.hpp:77] Creating layer label_data_1_split
I0414 18:16:04.598109  8507 net.cpp:100] Creating Layer label_data_1_split
I0414 18:16:04.598115  8507 net.cpp:434] label_data_1_split <- label
I0414 18:16:04.598130  8507 net.cpp:408] label_data_1_split -> label_data_1_split_0
I0414 18:16:04.598143  8507 net.cpp:408] label_data_1_split -> label_data_1_split_1
I0414 18:16:04.598151  8507 net.cpp:408] label_data_1_split -> label_data_1_split_2
I0414 18:16:04.598223  8507 net.cpp:150] Setting up label_data_1_split
I0414 18:16:04.598232  8507 net.cpp:157] Top shape: 1024 (1024)
I0414 18:16:04.598235  8507 net.cpp:157] Top shape: 1024 (1024)
I0414 18:16:04.598239  8507 net.cpp:157] Top shape: 1024 (1024)
I0414 18:16:04.598242  8507 net.cpp:165] Memory required for data: 28327936
I0414 18:16:04.598247  8507 layer_factory.hpp:77] Creating layer conv1
I0414 18:16:04.598263  8507 net.cpp:100] Creating Layer conv1
I0414 18:16:04.598268  8507 net.cpp:434] conv1 <- data
I0414 18:16:04.598273  8507 net.cpp:408] conv1 -> conv1
I0414 18:16:05.088191  8507 net.cpp:150] Setting up conv1
I0414 18:16:05.088223  8507 net.cpp:157] Top shape: 1024 100 42 42 (180633600)
I0414 18:16:05.088230  8507 net.cpp:165] Memory required for data: 750862336
I0414 18:16:05.088253  8507 layer_factory.hpp:77] Creating layer conv1_prescale
I0414 18:16:05.088274  8507 net.cpp:100] Creating Layer conv1_prescale
I0414 18:16:05.088279  8507 net.cpp:434] conv1_prescale <- conv1
I0414 18:16:05.088294  8507 net.cpp:395] conv1_prescale -> conv1 (in-place)
I0414 18:16:05.088454  8507 net.cpp:150] Setting up conv1_prescale
I0414 18:16:05.088469  8507 net.cpp:157] Top shape: 1024 100 42 42 (180633600)
I0414 18:16:05.088477  8507 net.cpp:165] Memory required for data: 1473396736
I0414 18:16:05.088485  8507 layer_factory.hpp:77] Creating layer conv1_sTanH
I0414 18:16:05.088500  8507 net.cpp:100] Creating Layer conv1_sTanH
I0414 18:16:05.088506  8507 net.cpp:434] conv1_sTanH <- conv1
I0414 18:16:05.088515  8507 net.cpp:395] conv1_sTanH -> conv1 (in-place)
I0414 18:16:05.088762  8507 net.cpp:150] Setting up conv1_sTanH
I0414 18:16:05.088794  8507 net.cpp:157] Top shape: 1024 100 42 42 (180633600)
I0414 18:16:05.088801  8507 net.cpp:165] Memory required for data: 2195931136
I0414 18:16:05.088809  8507 layer_factory.hpp:77] Creating layer conv1_postscale
I0414 18:16:05.088824  8507 net.cpp:100] Creating Layer conv1_postscale
I0414 18:16:05.088829  8507 net.cpp:434] conv1_postscale <- conv1
I0414 18:16:05.088835  8507 net.cpp:395] conv1_postscale -> conv1 (in-place)
I0414 18:16:05.088951  8507 net.cpp:150] Setting up conv1_postscale
I0414 18:16:05.088960  8507 net.cpp:157] Top shape: 1024 100 42 42 (180633600)
I0414 18:16:05.088963  8507 net.cpp:165] Memory required for data: 2918465536
I0414 18:16:05.088969  8507 layer_factory.hpp:77] Creating layer pool1
I0414 18:16:05.088981  8507 net.cpp:100] Creating Layer pool1
I0414 18:16:05.088989  8507 net.cpp:434] pool1 <- conv1
I0414 18:16:05.088994  8507 net.cpp:408] pool1 -> pool1
I0414 18:16:05.089048  8507 net.cpp:150] Setting up pool1
I0414 18:16:05.089058  8507 net.cpp:157] Top shape: 1024 100 21 21 (45158400)
I0414 18:16:05.089067  8507 net.cpp:165] Memory required for data: 3099099136
I0414 18:16:05.089074  8507 layer_factory.hpp:77] Creating layer conv2
I0414 18:16:05.089084  8507 net.cpp:100] Creating Layer conv2
I0414 18:16:05.089089  8507 net.cpp:434] conv2 <- pool1
I0414 18:16:05.089094  8507 net.cpp:408] conv2 -> conv2
I0414 18:16:05.096307  8507 net.cpp:150] Setting up conv2
I0414 18:16:05.096329  8507 net.cpp:157] Top shape: 1024 150 18 18 (49766400)
I0414 18:16:05.096333  8507 net.cpp:165] Memory required for data: 3298164736
I0414 18:16:05.096345  8507 layer_factory.hpp:77] Creating layer conv2_prescale
I0414 18:16:05.096360  8507 net.cpp:100] Creating Layer conv2_prescale
I0414 18:16:05.096366  8507 net.cpp:434] conv2_prescale <- conv2
I0414 18:16:05.096372  8507 net.cpp:395] conv2_prescale -> conv2 (in-place)
I0414 18:16:05.096491  8507 net.cpp:150] Setting up conv2_prescale
I0414 18:16:05.096500  8507 net.cpp:157] Top shape: 1024 150 18 18 (49766400)
I0414 18:16:05.096504  8507 net.cpp:165] Memory required for data: 3497230336
I0414 18:16:05.096509  8507 layer_factory.hpp:77] Creating layer conv2_sTanH
I0414 18:16:05.096518  8507 net.cpp:100] Creating Layer conv2_sTanH
I0414 18:16:05.096520  8507 net.cpp:434] conv2_sTanH <- conv2
I0414 18:16:05.096525  8507 net.cpp:395] conv2_sTanH -> conv2 (in-place)
I0414 18:16:05.097779  8507 net.cpp:150] Setting up conv2_sTanH
I0414 18:16:05.097795  8507 net.cpp:157] Top shape: 1024 150 18 18 (49766400)
I0414 18:16:05.097800  8507 net.cpp:165] Memory required for data: 3696295936
I0414 18:16:05.097803  8507 layer_factory.hpp:77] Creating layer conv2_postscale
I0414 18:16:05.097811  8507 net.cpp:100] Creating Layer conv2_postscale
I0414 18:16:05.097815  8507 net.cpp:434] conv2_postscale <- conv2
I0414 18:16:05.097821  8507 net.cpp:395] conv2_postscale -> conv2 (in-place)
I0414 18:16:05.097915  8507 net.cpp:150] Setting up conv2_postscale
I0414 18:16:05.097924  8507 net.cpp:157] Top shape: 1024 150 18 18 (49766400)
I0414 18:16:05.097929  8507 net.cpp:165] Memory required for data: 3895361536
I0414 18:16:05.097934  8507 layer_factory.hpp:77] Creating layer pool2
I0414 18:16:05.097941  8507 net.cpp:100] Creating Layer pool2
I0414 18:16:05.097944  8507 net.cpp:434] pool2 <- conv2
I0414 18:16:05.097949  8507 net.cpp:408] pool2 -> pool2
I0414 18:16:05.097991  8507 net.cpp:150] Setting up pool2
I0414 18:16:05.098000  8507 net.cpp:157] Top shape: 1024 150 9 9 (12441600)
I0414 18:16:05.098003  8507 net.cpp:165] Memory required for data: 3945127936
I0414 18:16:05.098006  8507 layer_factory.hpp:77] Creating layer conv3
I0414 18:16:05.098016  8507 net.cpp:100] Creating Layer conv3
I0414 18:16:05.098021  8507 net.cpp:434] conv3 <- pool2
I0414 18:16:05.098027  8507 net.cpp:408] conv3 -> conv3
I0414 18:16:05.105428  8507 net.cpp:150] Setting up conv3
I0414 18:16:05.105450  8507 net.cpp:157] Top shape: 1024 250 6 6 (9216000)
I0414 18:16:05.105454  8507 net.cpp:165] Memory required for data: 3981991936
I0414 18:16:05.105465  8507 layer_factory.hpp:77] Creating layer conv3_prescale
I0414 18:16:05.105495  8507 net.cpp:100] Creating Layer conv3_prescale
I0414 18:16:05.105501  8507 net.cpp:434] conv3_prescale <- conv3
I0414 18:16:05.105509  8507 net.cpp:395] conv3_prescale -> conv3 (in-place)
I0414 18:16:05.105609  8507 net.cpp:150] Setting up conv3_prescale
I0414 18:16:05.105618  8507 net.cpp:157] Top shape: 1024 250 6 6 (9216000)
I0414 18:16:05.105623  8507 net.cpp:165] Memory required for data: 4018855936
I0414 18:16:05.105628  8507 layer_factory.hpp:77] Creating layer conv3_sTanH
I0414 18:16:05.105634  8507 net.cpp:100] Creating Layer conv3_sTanH
I0414 18:16:05.105638  8507 net.cpp:434] conv3_sTanH <- conv3
I0414 18:16:05.105643  8507 net.cpp:395] conv3_sTanH -> conv3 (in-place)
I0414 18:16:05.106542  8507 net.cpp:150] Setting up conv3_sTanH
I0414 18:16:05.106557  8507 net.cpp:157] Top shape: 1024 250 6 6 (9216000)
I0414 18:16:05.106562  8507 net.cpp:165] Memory required for data: 4055719936
I0414 18:16:05.106567  8507 layer_factory.hpp:77] Creating layer conv3_postscale
I0414 18:16:05.106575  8507 net.cpp:100] Creating Layer conv3_postscale
I0414 18:16:05.106578  8507 net.cpp:434] conv3_postscale <- conv3
I0414 18:16:05.106585  8507 net.cpp:395] conv3_postscale -> conv3 (in-place)
I0414 18:16:05.106683  8507 net.cpp:150] Setting up conv3_postscale
I0414 18:16:05.106691  8507 net.cpp:157] Top shape: 1024 250 6 6 (9216000)
I0414 18:16:05.106695  8507 net.cpp:165] Memory required for data: 4092583936
I0414 18:16:05.106701  8507 layer_factory.hpp:77] Creating layer pool3
I0414 18:16:05.106710  8507 net.cpp:100] Creating Layer pool3
I0414 18:16:05.106715  8507 net.cpp:434] pool3 <- conv3
I0414 18:16:05.106721  8507 net.cpp:408] pool3 -> pool3
I0414 18:16:05.106762  8507 net.cpp:150] Setting up pool3
I0414 18:16:05.106771  8507 net.cpp:157] Top shape: 1024 250 3 3 (2304000)
I0414 18:16:05.106775  8507 net.cpp:165] Memory required for data: 4101799936
I0414 18:16:05.106778  8507 layer_factory.hpp:77] Creating layer fc4_300
I0414 18:16:05.106786  8507 net.cpp:100] Creating Layer fc4_300
I0414 18:16:05.106788  8507 net.cpp:434] fc4_300 <- pool3
I0414 18:16:05.106796  8507 net.cpp:408] fc4_300 -> fc4_300
I0414 18:16:05.114408  8507 net.cpp:150] Setting up fc4_300
I0414 18:16:05.114426  8507 net.cpp:157] Top shape: 1024 300 (307200)
I0414 18:16:05.114430  8507 net.cpp:165] Memory required for data: 4103028736
I0414 18:16:05.114437  8507 layer_factory.hpp:77] Creating layer fc4_prescale
I0414 18:16:05.114447  8507 net.cpp:100] Creating Layer fc4_prescale
I0414 18:16:05.114452  8507 net.cpp:434] fc4_prescale <- fc4_300
I0414 18:16:05.114459  8507 net.cpp:395] fc4_prescale -> fc4_300 (in-place)
I0414 18:16:05.114544  8507 net.cpp:150] Setting up fc4_prescale
I0414 18:16:05.114552  8507 net.cpp:157] Top shape: 1024 300 (307200)
I0414 18:16:05.114555  8507 net.cpp:165] Memory required for data: 4104257536
I0414 18:16:05.114560  8507 layer_factory.hpp:77] Creating layer fc4_sTanH
I0414 18:16:05.114567  8507 net.cpp:100] Creating Layer fc4_sTanH
I0414 18:16:05.114569  8507 net.cpp:434] fc4_sTanH <- fc4_300
I0414 18:16:05.114573  8507 net.cpp:395] fc4_sTanH -> fc4_300 (in-place)
I0414 18:16:05.114763  8507 net.cpp:150] Setting up fc4_sTanH
I0414 18:16:05.114773  8507 net.cpp:157] Top shape: 1024 300 (307200)
I0414 18:16:05.114776  8507 net.cpp:165] Memory required for data: 4105486336
I0414 18:16:05.114780  8507 layer_factory.hpp:77] Creating layer fc4_postscale
I0414 18:16:05.114787  8507 net.cpp:100] Creating Layer fc4_postscale
I0414 18:16:05.114790  8507 net.cpp:434] fc4_postscale <- fc4_300
I0414 18:16:05.114796  8507 net.cpp:395] fc4_postscale -> fc4_300 (in-place)
I0414 18:16:05.114898  8507 net.cpp:150] Setting up fc4_postscale
I0414 18:16:05.114907  8507 net.cpp:157] Top shape: 1024 300 (307200)
I0414 18:16:05.114909  8507 net.cpp:165] Memory required for data: 4106715136
I0414 18:16:05.114915  8507 layer_factory.hpp:77] Creating layer fc5_106
I0414 18:16:05.114923  8507 net.cpp:100] Creating Layer fc5_106
I0414 18:16:05.114925  8507 net.cpp:434] fc5_106 <- fc4_300
I0414 18:16:05.114930  8507 net.cpp:408] fc5_106 -> fc5_classes
I0414 18:16:05.122135  8507 net.cpp:150] Setting up fc5_106
I0414 18:16:05.122156  8507 net.cpp:157] Top shape: 1024 106 (108544)
I0414 18:16:05.122162  8507 net.cpp:165] Memory required for data: 4107149312
I0414 18:16:05.122175  8507 layer_factory.hpp:77] Creating layer fc5_classes_fc5_106_0_split
I0414 18:16:05.122185  8507 net.cpp:100] Creating Layer fc5_classes_fc5_106_0_split
I0414 18:16:05.122190  8507 net.cpp:434] fc5_classes_fc5_106_0_split <- fc5_classes
I0414 18:16:05.122197  8507 net.cpp:408] fc5_classes_fc5_106_0_split -> fc5_classes_fc5_106_0_split_0
I0414 18:16:05.122205  8507 net.cpp:408] fc5_classes_fc5_106_0_split -> fc5_classes_fc5_106_0_split_1
I0414 18:16:05.122213  8507 net.cpp:408] fc5_classes_fc5_106_0_split -> fc5_classes_fc5_106_0_split_2
I0414 18:16:05.122262  8507 net.cpp:150] Setting up fc5_classes_fc5_106_0_split
I0414 18:16:05.122270  8507 net.cpp:157] Top shape: 1024 106 (108544)
I0414 18:16:05.122274  8507 net.cpp:157] Top shape: 1024 106 (108544)
I0414 18:16:05.122278  8507 net.cpp:157] Top shape: 1024 106 (108544)
I0414 18:16:05.122282  8507 net.cpp:165] Memory required for data: 4108451840
I0414 18:16:05.122285  8507 layer_factory.hpp:77] Creating layer softmax
I0414 18:16:05.122292  8507 net.cpp:100] Creating Layer softmax
I0414 18:16:05.122294  8507 net.cpp:434] softmax <- fc5_classes_fc5_106_0_split_0
I0414 18:16:05.122300  8507 net.cpp:408] softmax -> softmax
I0414 18:16:05.122555  8507 net.cpp:150] Setting up softmax
I0414 18:16:05.122567  8507 net.cpp:157] Top shape: 1024 106 (108544)
I0414 18:16:05.122570  8507 net.cpp:165] Memory required for data: 4108886016
I0414 18:16:05.122575  8507 layer_factory.hpp:77] Creating layer loss
I0414 18:16:05.122581  8507 net.cpp:100] Creating Layer loss
I0414 18:16:05.122586  8507 net.cpp:434] loss <- softmax
I0414 18:16:05.122591  8507 net.cpp:434] loss <- label_data_1_split_0
I0414 18:16:05.122596  8507 net.cpp:408] loss -> loss
…
