…
I0508 05:27:22.811388 23369 solver.cpp:93] Creating training net from train_net file: ./Prototxt/experiment_16/RTSD/imajust/trial_2/train.prototxt
I0508 05:27:22.811830 23369 net.cpp:58] Initializing net from parameters: 
state {
  phase: TRAIN
  level: 0
  stage: ""
}
layer {
  name: "data"
  type: "Data"
  top: "data"
  top: "label"
  include {
    phase: TRAIN
  }
  transform_param {
    scale: 0.0039215689
    mirror: false
    crop_size: 48
    mean_value: 119
    mean_value: 113
    mean_value: 114
  }
  data_param {
    source: "../local_data/lmdb/RTSD/imajust/train/lmdb"
    batch_size: 1024
    backend: LMDB
  }
}
layer {
  name: "conv1"
  type: "Convolution"
  bottom: "data"
  top: "conv1"
  convolution_param {
    num_output: 100
    pad: 0
    kernel_size: 7
    group: 1
    stride: 1
    weight_filler {
      type: "xavier"
    }
  }
}
layer {
  name: "conv1_relu"
  type: "ReLU"
  bottom: "conv1"
  top: "conv1"
}
layer {
  name: "pool1"
  type: "Pooling"
  bottom: "conv1"
  top: "pool1"
  pooling_param {
    pool: MAX
    kernel_size: 2
    stride: 2
  }
}
layer {
  name: "conv2"
  type: "Convolution"
  bottom: "pool1"
  top: "conv2"
  convolution_param {
    num_output: 150
    pad: 0
    kernel_size: 4
    group: 2
    stride: 1
    weight_filler {
      type: "xavier"
    }
  }
}
layer {
  name: "conv2_relu"
  type: "ReLU"
  bottom: "conv2"
  top: "conv2"
}
layer {
  name: "pool2"
  type: "Pooling"
  bottom: "conv2"
  top: "pool2"
  pooling_param {
    pool: MAX
    kernel_size: 2
    stride: 2
  }
}
layer {
  name: "conv3"
  type: "Convolution"
  bottom: "pool2"
  top: "conv3"
  convolution_param {
    num_output: 250
    pad: 0
    kernel_size: 4
    group: 2
    stride: 1
    weight_filler {
      type: "xavier"
    }
  }
}
layer {
  name: "conv3_relu"
  type: "ReLU"
  bottom: "conv3"
  top: "conv3"
}
layer {
  name: "pool3"
  type: "Pooling"
  bottom: "conv3"
  top: "pool3"
  pooling_param {
    pool: MAX
    kernel_size: 2
    stride: 2
  }
}
layer {
  name: "fc4_300"
  type: "InnerProduct"
  bottom: "pool3"
  top: "fc4_300"
  inner_product_param {
    num_output: 300
    weight_filler {
      type: "xavier"
    }
  }
}
layer {
  name: "fc4_relu"
  type: "ReLU"
  bottom: "fc4_300"
  top: "fc4_300"
}
layer {
  name: "fc5_116"
  type: "InnerProduct"
  bottom: "fc4_300"
  top: "fc5_classes"
  inner_product_param {
    num_output: 116
    weight_filler {
      type: "xavier"
    }
  }
}
layer {
  name: "softmax"
  type: "Softmax"
  bottom: "fc5_classes"
  top: "softmax"
}
layer {
  name: "loss"
  type: "MultinomialLogisticLoss"
  bottom: "softmax"
  bottom: "label"
  top: "loss"
}
layer {
  name: "accuracy_1"
  type: "Accuracy"
  bottom: "fc5_classes"
  bottom: "label"
  top: "accuracy_1"
  accuracy_param {
    top_k: 1
  }
}
layer {
  name: "accuracy_5"
  type: "Accuracy"
  bottom: "fc5_classes"
  bottom: "label"
  top: "accuracy_5"
  accuracy_param {
    top_k: 5
  }
}
layer {
  name: "silence"
  type: "Silence"
  bottom: "accuracy_1"
  bottom: "accuracy_5"
}
I0508 05:27:22.811998 23369 layer_factory.hpp:77] Creating layer data
I0508 05:27:22.813647 23369 net.cpp:100] Creating Layer data
I0508 05:27:22.813665 23369 net.cpp:408] data -> data
I0508 05:27:22.813699 23369 net.cpp:408] data -> label
I0508 05:27:22.835495 23481 db_lmdb.cpp:35] Opened lmdb ../local_data/lmdb/RTSD/imajust/train/lmdb
I0508 05:27:22.862601 23369 data_layer.cpp:41] output data size: 1024,3,48,48
I0508 05:27:22.930354 23369 net.cpp:150] Setting up data
I0508 05:27:22.930414 23369 net.cpp:157] Top shape: 1024 3 48 48 (7077888)
I0508 05:27:22.930423 23369 net.cpp:157] Top shape: 1024 (1024)
I0508 05:27:22.930426 23369 net.cpp:165] Memory required for data: 28315648
I0508 05:27:22.930440 23369 layer_factory.hpp:77] Creating layer label_data_1_split
I0508 05:27:22.930456 23369 net.cpp:100] Creating Layer label_data_1_split
I0508 05:27:22.930464 23369 net.cpp:434] label_data_1_split <- label
I0508 05:27:22.930479 23369 net.cpp:408] label_data_1_split -> label_data_1_split_0
I0508 05:27:22.930495 23369 net.cpp:408] label_data_1_split -> label_data_1_split_1
I0508 05:27:22.930505 23369 net.cpp:408] label_data_1_split -> label_data_1_split_2
I0508 05:27:22.930585 23369 net.cpp:150] Setting up label_data_1_split
I0508 05:27:22.930595 23369 net.cpp:157] Top shape: 1024 (1024)
I0508 05:27:22.930599 23369 net.cpp:157] Top shape: 1024 (1024)
I0508 05:27:22.930604 23369 net.cpp:157] Top shape: 1024 (1024)
I0508 05:27:22.930608 23369 net.cpp:165] Memory required for data: 28327936
I0508 05:27:22.930611 23369 layer_factory.hpp:77] Creating layer conv1
I0508 05:27:22.930630 23369 net.cpp:100] Creating Layer conv1
I0508 05:27:22.930636 23369 net.cpp:434] conv1 <- data
I0508 05:27:22.930644 23369 net.cpp:408] conv1 -> conv1
I0508 05:27:23.335069 23369 net.cpp:150] Setting up conv1
I0508 05:27:23.335096 23369 net.cpp:157] Top shape: 1024 100 42 42 (180633600)
I0508 05:27:23.335100 23369 net.cpp:165] Memory required for data: 750862336
I0508 05:27:23.335122 23369 layer_factory.hpp:77] Creating layer conv1_relu
I0508 05:27:23.335134 23369 net.cpp:100] Creating Layer conv1_relu
I0508 05:27:23.335137 23369 net.cpp:434] conv1_relu <- conv1
I0508 05:27:23.335144 23369 net.cpp:395] conv1_relu -> conv1 (in-place)
I0508 05:27:23.335340 23369 net.cpp:150] Setting up conv1_relu
I0508 05:27:23.335351 23369 net.cpp:157] Top shape: 1024 100 42 42 (180633600)
I0508 05:27:23.335355 23369 net.cpp:165] Memory required for data: 1473396736
I0508 05:27:23.335358 23369 layer_factory.hpp:77] Creating layer pool1
I0508 05:27:23.335367 23369 net.cpp:100] Creating Layer pool1
I0508 05:27:23.335372 23369 net.cpp:434] pool1 <- conv1
I0508 05:27:23.335377 23369 net.cpp:408] pool1 -> pool1
I0508 05:27:23.335429 23369 net.cpp:150] Setting up pool1
I0508 05:27:23.335438 23369 net.cpp:157] Top shape: 1024 100 21 21 (45158400)
I0508 05:27:23.335441 23369 net.cpp:165] Memory required for data: 1654030336
I0508 05:27:23.335444 23369 layer_factory.hpp:77] Creating layer conv2
I0508 05:27:23.335454 23369 net.cpp:100] Creating Layer conv2
I0508 05:27:23.335459 23369 net.cpp:434] conv2 <- pool1
I0508 05:27:23.335464 23369 net.cpp:408] conv2 -> conv2
I0508 05:27:23.351722 23369 net.cpp:150] Setting up conv2
I0508 05:27:23.351743 23369 net.cpp:157] Top shape: 1024 150 18 18 (49766400)
I0508 05:27:23.351747 23369 net.cpp:165] Memory required for data: 1853095936
I0508 05:27:23.351760 23369 layer_factory.hpp:77] Creating layer conv2_relu
I0508 05:27:23.351769 23369 net.cpp:100] Creating Layer conv2_relu
I0508 05:27:23.351773 23369 net.cpp:434] conv2_relu <- conv2
I0508 05:27:23.351778 23369 net.cpp:395] conv2_relu -> conv2 (in-place)
I0508 05:27:23.351982 23369 net.cpp:150] Setting up conv2_relu
I0508 05:27:23.351995 23369 net.cpp:157] Top shape: 1024 150 18 18 (49766400)
I0508 05:27:23.351999 23369 net.cpp:165] Memory required for data: 2052161536
I0508 05:27:23.352001 23369 layer_factory.hpp:77] Creating layer pool2
I0508 05:27:23.352008 23369 net.cpp:100] Creating Layer pool2
I0508 05:27:23.352011 23369 net.cpp:434] pool2 <- conv2
I0508 05:27:23.352018 23369 net.cpp:408] pool2 -> pool2
I0508 05:27:23.352068 23369 net.cpp:150] Setting up pool2
I0508 05:27:23.352077 23369 net.cpp:157] Top shape: 1024 150 9 9 (12441600)
I0508 05:27:23.352079 23369 net.cpp:165] Memory required for data: 2101927936
I0508 05:27:23.352082 23369 layer_factory.hpp:77] Creating layer conv3
I0508 05:27:23.352097 23369 net.cpp:100] Creating Layer conv3
I0508 05:27:23.352102 23369 net.cpp:434] conv3 <- pool2
I0508 05:27:23.352108 23369 net.cpp:408] conv3 -> conv3
I0508 05:27:23.360128 23369 net.cpp:150] Setting up conv3
I0508 05:27:23.360146 23369 net.cpp:157] Top shape: 1024 250 6 6 (9216000)
I0508 05:27:23.360150 23369 net.cpp:165] Memory required for data: 2138791936
I0508 05:27:23.360162 23369 layer_factory.hpp:77] Creating layer conv3_relu
I0508 05:27:23.360168 23369 net.cpp:100] Creating Layer conv3_relu
I0508 05:27:23.360172 23369 net.cpp:434] conv3_relu <- conv3
I0508 05:27:23.360179 23369 net.cpp:395] conv3_relu -> conv3 (in-place)
I0508 05:27:23.360371 23369 net.cpp:150] Setting up conv3_relu
I0508 05:27:23.360383 23369 net.cpp:157] Top shape: 1024 250 6 6 (9216000)
I0508 05:27:23.360385 23369 net.cpp:165] Memory required for data: 2175655936
I0508 05:27:23.360389 23369 layer_factory.hpp:77] Creating layer pool3
I0508 05:27:23.360396 23369 net.cpp:100] Creating Layer pool3
I0508 05:27:23.360402 23369 net.cpp:434] pool3 <- conv3
I0508 05:27:23.360407 23369 net.cpp:408] pool3 -> pool3
I0508 05:27:23.360455 23369 net.cpp:150] Setting up pool3
I0508 05:27:23.360462 23369 net.cpp:157] Top shape: 1024 250 3 3 (2304000)
I0508 05:27:23.360466 23369 net.cpp:165] Memory required for data: 2184871936
I0508 05:27:23.360469 23369 layer_factory.hpp:77] Creating layer fc4_300
I0508 05:27:23.360476 23369 net.cpp:100] Creating Layer fc4_300
I0508 05:27:23.360482 23369 net.cpp:434] fc4_300 <- pool3
I0508 05:27:23.360487 23369 net.cpp:408] fc4_300 -> fc4_300
I0508 05:27:23.370882 23369 net.cpp:150] Setting up fc4_300
I0508 05:27:23.370898 23369 net.cpp:157] Top shape: 1024 300 (307200)
I0508 05:27:23.370901 23369 net.cpp:165] Memory required for data: 2186100736
I0508 05:27:23.370909 23369 layer_factory.hpp:77] Creating layer fc4_relu
I0508 05:27:23.370915 23369 net.cpp:100] Creating Layer fc4_relu
I0508 05:27:23.370921 23369 net.cpp:434] fc4_relu <- fc4_300
I0508 05:27:23.370929 23369 net.cpp:395] fc4_relu -> fc4_300 (in-place)
I0508 05:27:23.374953 23369 net.cpp:150] Setting up fc4_relu
I0508 05:27:23.374967 23369 net.cpp:157] Top shape: 1024 300 (307200)
I0508 05:27:23.374970 23369 net.cpp:165] Memory required for data: 2187329536
I0508 05:27:23.374974 23369 layer_factory.hpp:77] Creating layer fc5_116
I0508 05:27:23.374981 23369 net.cpp:100] Creating Layer fc5_116
I0508 05:27:23.374985 23369 net.cpp:434] fc5_116 <- fc4_300
I0508 05:27:23.374992 23369 net.cpp:408] fc5_116 -> fc5_classes
I0508 05:27:23.377519 23369 net.cpp:150] Setting up fc5_116
I0508 05:27:23.377534 23369 net.cpp:157] Top shape: 1024 116 (118784)
I0508 05:27:23.377537 23369 net.cpp:165] Memory required for data: 2187804672
I0508 05:27:23.377547 23369 layer_factory.hpp:77] Creating layer fc5_classes_fc5_116_0_split
I0508 05:27:23.377554 23369 net.cpp:100] Creating Layer fc5_classes_fc5_116_0_split
I0508 05:27:23.377558 23369 net.cpp:434] fc5_classes_fc5_116_0_split <- fc5_classes
I0508 05:27:23.377565 23369 net.cpp:408] fc5_classes_fc5_116_0_split -> fc5_classes_fc5_116_0_split_0
I0508 05:27:23.377575 23369 net.cpp:408] fc5_classes_fc5_116_0_split -> fc5_classes_fc5_116_0_split_1
I0508 05:27:23.377584 23369 net.cpp:408] fc5_classes_fc5_116_0_split -> fc5_classes_fc5_116_0_split_2
I0508 05:27:23.377638 23369 net.cpp:150] Setting up fc5_classes_fc5_116_0_split
I0508 05:27:23.377645 23369 net.cpp:157] Top shape: 1024 116 (118784)
I0508 05:27:23.377650 23369 net.cpp:157] Top shape: 1024 116 (118784)
I0508 05:27:23.377652 23369 net.cpp:157] Top shape: 1024 116 (118784)
I0508 05:27:23.377655 23369 net.cpp:165] Memory required for data: 2189230080
I0508 05:27:23.377658 23369 layer_factory.hpp:77] Creating layer softmax
I0508 05:27:23.377670 23369 net.cpp:100] Creating Layer softmax
I0508 05:27:23.377674 23369 net.cpp:434] softmax <- fc5_classes_fc5_116_0_split_0
I0508 05:27:23.377679 23369 net.cpp:408] softmax -> softmax
I0508 05:27:23.377938 23369 net.cpp:150] Setting up softmax
I0508 05:27:23.377949 23369 net.cpp:157] Top shape: 1024 116 (118784)
I0508 05:27:23.377952 23369 net.cpp:165] Memory required for data: 2189705216
I0508 05:27:23.377956 23369 layer_factory.hpp:77] Creating layer loss
I0508 05:27:23.377985 23369 net.cpp:100] Creating Layer loss
I0508 05:27:23.377988 23369 net.cpp:434] loss <- softmax
I0508 05:27:23.377992 23369 net.cpp:434] loss <- label_data_1_split_0
I0508 05:27:23.377997 23369 net.cpp:408] loss -> loss
…
