…
I0414 13:56:37.129315 12360 solver.cpp:93] Creating training net from train_net file: ./Prototxt/experiment_10/rtsd-r3/orig/trial_2/train.prototxt
I0414 13:56:37.129710 12360 net.cpp:58] Initializing net from parameters: 
state {
  phase: TRAIN
  level: 0
  stage: ""
}
layer {
  name: "data"
  type: "Data"
  top: "data"
  top: "label"
  include {
    phase: TRAIN
  }
  transform_param {
    scale: 0.0039215689
    mirror: false
    crop_size: 48
    mean_value: 120
    mean_value: 113
    mean_value: 112
  }
  data_param {
    source: "../local_data/lmdb/rtsd-r3/orig/train/lmdb"
    batch_size: 1024
    backend: LMDB
  }
}
layer {
  name: "conv1"
  type: "Convolution"
  bottom: "data"
  top: "conv1"
  convolution_param {
    num_output: 100
    pad: 0
    kernel_size: 7
    group: 1
    stride: 1
    weight_filler {
      type: "xavier"
    }
  }
}
layer {
  name: "conv1_relu"
  type: "ReLU"
  bottom: "conv1"
  top: "conv1"
}
layer {
  name: "pool1"
  type: "Pooling"
  bottom: "conv1"
  top: "pool1"
  pooling_param {
    pool: MAX
    kernel_size: 2
    stride: 2
  }
}
layer {
  name: "conv2"
  type: "Convolution"
  bottom: "pool1"
  top: "conv2"
  convolution_param {
    num_output: 150
    pad: 0
    kernel_size: 4
    group: 1
    stride: 1
    weight_filler {
      type: "xavier"
    }
  }
}
layer {
  name: "conv2_relu"
  type: "ReLU"
  bottom: "conv2"
  top: "conv2"
}
layer {
  name: "pool2"
  type: "Pooling"
  bottom: "conv2"
  top: "pool2"
  pooling_param {
    pool: MAX
    kernel_size: 2
    stride: 2
  }
}
layer {
  name: "conv3"
  type: "Convolution"
  bottom: "pool2"
  top: "conv3"
  convolution_param {
    num_output: 250
    pad: 0
    kernel_size: 4
    group: 1
    stride: 1
    weight_filler {
      type: "xavier"
    }
  }
}
layer {
  name: "conv3_relu"
  type: "ReLU"
  bottom: "conv3"
  top: "conv3"
}
layer {
  name: "pool3"
  type: "Pooling"
  bottom: "conv3"
  top: "pool3"
  pooling_param {
    pool: MAX
    kernel_size: 2
    stride: 2
  }
}
layer {
  name: "fc4_300"
  type: "InnerProduct"
  bottom: "pool3"
  top: "fc4_300"
  inner_product_param {
    num_output: 300
    weight_filler {
      type: "xavier"
    }
  }
}
layer {
  name: "fc4_relu"
  type: "ReLU"
  bottom: "fc4_300"
  top: "fc4_300"
}
layer {
  name: "fc5_106"
  type: "InnerProduct"
  bottom: "fc4_300"
  top: "fc5_classes"
  inner_product_param {
    num_output: 106
    weight_filler {
      type: "xavier"
    }
  }
}
layer {
  name: "softmax"
  type: "Softmax"
  bottom: "fc5_classes"
  top: "softmax"
}
layer {
  name: "loss"
  type: "MultinomialLogisticLoss"
  bottom: "softmax"
  bottom: "label"
  top: "loss"
}
layer {
  name: "accuracy_1"
  type: "Accuracy"
  bottom: "fc5_classes"
  bottom: "label"
  top: "accuracy_1"
  accuracy_param {
    top_k: 1
  }
}
layer {
  name: "accuracy_5"
  type: "Accuracy"
  bottom: "fc5_classes"
  bottom: "label"
  top: "accuracy_5"
  accuracy_param {
    top_k: 5
  }
}
layer {
  name: "silence"
  type: "Silence"
  bottom: "accuracy_1"
  bottom: "accuracy_5"
}
I0414 13:56:37.129849 12360 layer_factory.hpp:77] Creating layer data
I0414 13:56:37.131132 12360 net.cpp:100] Creating Layer data
I0414 13:56:37.131150 12360 net.cpp:408] data -> data
I0414 13:56:37.131175 12360 net.cpp:408] data -> label
I0414 13:56:37.136118 12463 db_lmdb.cpp:35] Opened lmdb ../local_data/lmdb/rtsd-r3/orig/train/lmdb
I0414 13:56:37.156119 12360 data_layer.cpp:41] output data size: 1024,3,48,48
I0414 13:56:37.205603 12360 net.cpp:150] Setting up data
I0414 13:56:37.205667 12360 net.cpp:157] Top shape: 1024 3 48 48 (7077888)
I0414 13:56:37.205677 12360 net.cpp:157] Top shape: 1024 (1024)
I0414 13:56:37.205680 12360 net.cpp:165] Memory required for data: 28315648
I0414 13:56:37.205693 12360 layer_factory.hpp:77] Creating layer label_data_1_split
I0414 13:56:37.205708 12360 net.cpp:100] Creating Layer label_data_1_split
I0414 13:56:37.205715 12360 net.cpp:434] label_data_1_split <- label
I0414 13:56:37.205732 12360 net.cpp:408] label_data_1_split -> label_data_1_split_0
I0414 13:56:37.205746 12360 net.cpp:408] label_data_1_split -> label_data_1_split_1
I0414 13:56:37.205765 12360 net.cpp:408] label_data_1_split -> label_data_1_split_2
I0414 13:56:37.205853 12360 net.cpp:150] Setting up label_data_1_split
I0414 13:56:37.205864 12360 net.cpp:157] Top shape: 1024 (1024)
I0414 13:56:37.205868 12360 net.cpp:157] Top shape: 1024 (1024)
I0414 13:56:37.205873 12360 net.cpp:157] Top shape: 1024 (1024)
I0414 13:56:37.205878 12360 net.cpp:165] Memory required for data: 28327936
I0414 13:56:37.205883 12360 layer_factory.hpp:77] Creating layer conv1
I0414 13:56:37.205901 12360 net.cpp:100] Creating Layer conv1
I0414 13:56:37.205909 12360 net.cpp:434] conv1 <- data
I0414 13:56:37.205916 12360 net.cpp:408] conv1 -> conv1
I0414 13:56:37.635771 12360 net.cpp:150] Setting up conv1
I0414 13:56:37.635802 12360 net.cpp:157] Top shape: 1024 100 42 42 (180633600)
I0414 13:56:37.635807 12360 net.cpp:165] Memory required for data: 750862336
I0414 13:56:37.635833 12360 layer_factory.hpp:77] Creating layer conv1_relu
I0414 13:56:37.635844 12360 net.cpp:100] Creating Layer conv1_relu
I0414 13:56:37.635851 12360 net.cpp:434] conv1_relu <- conv1
I0414 13:56:37.635859 12360 net.cpp:395] conv1_relu -> conv1 (in-place)
I0414 13:56:37.636119 12360 net.cpp:150] Setting up conv1_relu
I0414 13:56:37.636137 12360 net.cpp:157] Top shape: 1024 100 42 42 (180633600)
I0414 13:56:37.636142 12360 net.cpp:165] Memory required for data: 1473396736
I0414 13:56:37.636147 12360 layer_factory.hpp:77] Creating layer pool1
I0414 13:56:37.636158 12360 net.cpp:100] Creating Layer pool1
I0414 13:56:37.636164 12360 net.cpp:434] pool1 <- conv1
I0414 13:56:37.636170 12360 net.cpp:408] pool1 -> pool1
I0414 13:56:37.636245 12360 net.cpp:150] Setting up pool1
I0414 13:56:37.636255 12360 net.cpp:157] Top shape: 1024 100 21 21 (45158400)
I0414 13:56:37.636258 12360 net.cpp:165] Memory required for data: 1654030336
I0414 13:56:37.636262 12360 layer_factory.hpp:77] Creating layer conv2
I0414 13:56:37.636276 12360 net.cpp:100] Creating Layer conv2
I0414 13:56:37.636281 12360 net.cpp:434] conv2 <- pool1
I0414 13:56:37.636287 12360 net.cpp:408] conv2 -> conv2
I0414 13:56:37.648072 12360 net.cpp:150] Setting up conv2
I0414 13:56:37.648094 12360 net.cpp:157] Top shape: 1024 150 18 18 (49766400)
I0414 13:56:37.648099 12360 net.cpp:165] Memory required for data: 1853095936
I0414 13:56:37.648113 12360 layer_factory.hpp:77] Creating layer conv2_relu
I0414 13:56:37.648123 12360 net.cpp:100] Creating Layer conv2_relu
I0414 13:56:37.648128 12360 net.cpp:434] conv2_relu <- conv2
I0414 13:56:37.648135 12360 net.cpp:395] conv2_relu -> conv2 (in-place)
I0414 13:56:37.668000 12360 net.cpp:150] Setting up conv2_relu
I0414 13:56:37.668023 12360 net.cpp:157] Top shape: 1024 150 18 18 (49766400)
I0414 13:56:37.668027 12360 net.cpp:165] Memory required for data: 2052161536
I0414 13:56:37.668032 12360 layer_factory.hpp:77] Creating layer pool2
I0414 13:56:37.668042 12360 net.cpp:100] Creating Layer pool2
I0414 13:56:37.668048 12360 net.cpp:434] pool2 <- conv2
I0414 13:56:37.668056 12360 net.cpp:408] pool2 -> pool2
I0414 13:56:37.668118 12360 net.cpp:150] Setting up pool2
I0414 13:56:37.668128 12360 net.cpp:157] Top shape: 1024 150 9 9 (12441600)
I0414 13:56:37.668133 12360 net.cpp:165] Memory required for data: 2101927936
I0414 13:56:37.668136 12360 layer_factory.hpp:77] Creating layer conv3
I0414 13:56:37.668148 12360 net.cpp:100] Creating Layer conv3
I0414 13:56:37.668154 12360 net.cpp:434] conv3 <- pool2
I0414 13:56:37.668165 12360 net.cpp:408] conv3 -> conv3
I0414 13:56:37.676240 12360 net.cpp:150] Setting up conv3
I0414 13:56:37.676265 12360 net.cpp:157] Top shape: 1024 250 6 6 (9216000)
I0414 13:56:37.676270 12360 net.cpp:165] Memory required for data: 2138791936
I0414 13:56:37.676282 12360 layer_factory.hpp:77] Creating layer conv3_relu
I0414 13:56:37.676291 12360 net.cpp:100] Creating Layer conv3_relu
I0414 13:56:37.676295 12360 net.cpp:434] conv3_relu <- conv3
I0414 13:56:37.676301 12360 net.cpp:395] conv3_relu -> conv3 (in-place)
I0414 13:56:37.688050 12360 net.cpp:150] Setting up conv3_relu
I0414 13:56:37.688072 12360 net.cpp:157] Top shape: 1024 250 6 6 (9216000)
I0414 13:56:37.688077 12360 net.cpp:165] Memory required for data: 2175655936
I0414 13:56:37.688081 12360 layer_factory.hpp:77] Creating layer pool3
I0414 13:56:37.688091 12360 net.cpp:100] Creating Layer pool3
I0414 13:56:37.688097 12360 net.cpp:434] pool3 <- conv3
I0414 13:56:37.688104 12360 net.cpp:408] pool3 -> pool3
I0414 13:56:37.688168 12360 net.cpp:150] Setting up pool3
I0414 13:56:37.688176 12360 net.cpp:157] Top shape: 1024 250 3 3 (2304000)
I0414 13:56:37.688182 12360 net.cpp:165] Memory required for data: 2184871936
I0414 13:56:37.688185 12360 layer_factory.hpp:77] Creating layer fc4_300
I0414 13:56:37.688194 12360 net.cpp:100] Creating Layer fc4_300
I0414 13:56:37.688199 12360 net.cpp:434] fc4_300 <- pool3
I0414 13:56:37.688205 12360 net.cpp:408] fc4_300 -> fc4_300
I0414 13:56:37.710494 12360 net.cpp:150] Setting up fc4_300
I0414 13:56:37.710516 12360 net.cpp:157] Top shape: 1024 300 (307200)
I0414 13:56:37.710520 12360 net.cpp:165] Memory required for data: 2186100736
I0414 13:56:37.710530 12360 layer_factory.hpp:77] Creating layer fc4_relu
I0414 13:56:37.710538 12360 net.cpp:100] Creating Layer fc4_relu
I0414 13:56:37.710542 12360 net.cpp:434] fc4_relu <- fc4_300
I0414 13:56:37.710548 12360 net.cpp:395] fc4_relu -> fc4_300 (in-place)
I0414 13:56:37.710760 12360 net.cpp:150] Setting up fc4_relu
I0414 13:56:37.710772 12360 net.cpp:157] Top shape: 1024 300 (307200)
I0414 13:56:37.710775 12360 net.cpp:165] Memory required for data: 2187329536
I0414 13:56:37.710779 12360 layer_factory.hpp:77] Creating layer fc5_106
I0414 13:56:37.710788 12360 net.cpp:100] Creating Layer fc5_106
I0414 13:56:37.710791 12360 net.cpp:434] fc5_106 <- fc4_300
I0414 13:56:37.710798 12360 net.cpp:408] fc5_106 -> fc5_classes
I0414 13:56:37.714305 12360 net.cpp:150] Setting up fc5_106
I0414 13:56:37.714337 12360 net.cpp:157] Top shape: 1024 106 (108544)
I0414 13:56:37.714344 12360 net.cpp:165] Memory required for data: 2187763712
I0414 13:56:37.714365 12360 layer_factory.hpp:77] Creating layer fc5_classes_fc5_106_0_split
I0414 13:56:37.714382 12360 net.cpp:100] Creating Layer fc5_classes_fc5_106_0_split
I0414 13:56:37.714391 12360 net.cpp:434] fc5_classes_fc5_106_0_split <- fc5_classes
I0414 13:56:37.714406 12360 net.cpp:408] fc5_classes_fc5_106_0_split -> fc5_classes_fc5_106_0_split_0
I0414 13:56:37.714423 12360 net.cpp:408] fc5_classes_fc5_106_0_split -> fc5_classes_fc5_106_0_split_1
I0414 13:56:37.714438 12360 net.cpp:408] fc5_classes_fc5_106_0_split -> fc5_classes_fc5_106_0_split_2
I0414 13:56:37.714540 12360 net.cpp:150] Setting up fc5_classes_fc5_106_0_split
I0414 13:56:37.714553 12360 net.cpp:157] Top shape: 1024 106 (108544)
I0414 13:56:37.714562 12360 net.cpp:157] Top shape: 1024 106 (108544)
I0414 13:56:37.714572 12360 net.cpp:157] Top shape: 1024 106 (108544)
I0414 13:56:37.714579 12360 net.cpp:165] Memory required for data: 2189066240
I0414 13:56:37.714586 12360 layer_factory.hpp:77] Creating layer softmax
I0414 13:56:37.714598 12360 net.cpp:100] Creating Layer softmax
I0414 13:56:37.714607 12360 net.cpp:434] softmax <- fc5_classes_fc5_106_0_split_0
I0414 13:56:37.714618 12360 net.cpp:408] softmax -> softmax
I0414 13:56:37.715114 12360 net.cpp:150] Setting up softmax
I0414 13:56:37.715137 12360 net.cpp:157] Top shape: 1024 106 (108544)
I0414 13:56:37.715144 12360 net.cpp:165] Memory required for data: 2189500416
I0414 13:56:37.715150 12360 layer_factory.hpp:77] Creating layer loss
I0414 13:56:37.715198 12360 net.cpp:100] Creating Layer loss
I0414 13:56:37.715209 12360 net.cpp:434] loss <- softmax
I0414 13:56:37.715221 12360 net.cpp:434] loss <- label_data_1_split_0
I0414 13:56:37.715234 12360 net.cpp:408] loss -> loss
…
